model/BETA/DTCN_b1_1s_S6.pth (torch, 181815 bytes, 74 tensors)

global_block.conv_time.conv.0.weight f4 [8, 1, 1, 125]
000000 7c bf d4 3c 42 8d 30 3d 31 e8 a8 3a 9b 24 b3 ba
       0.025970213 0.043103464 0.0012886581 -0.0013667525
000010 d0 94 87 bd f5 5a 37 3d 8c 57 fc bc e5 0e a6 3c
       -0.066201806 0.044764478 -0.030803464 0.020270774
000020 99 e1 d0 3c ea ce 06 bd 64 87 03 3d b8 21 37 bc
       0.025498198 -0.032912172 0.03211154 -0.011177473
000030 9c c1 39 3c 0d a5 80 3c 68 c3 1e bd 92 d1 9a 3d
       0.011337664 0.015703702 -0.038760573 0.075595036
000040 88 68 50 3d 6e f8 a5 3d ca 21 2b bd 9c b6 8a 3c
       0.05088094 0.08104025 -0.04178027 0.016932778
000050 49 a9 cb 3c e0 88 be 3b fe 84 66 bb f0 28 fe 3b
       0.024860995 0.0058146566 -0.0035174484 0.007756345
000060 b8 1c a5 3c 09 31 21 3b cb b3 58 3c 46 17 12 3d
       0.020155296 0.0024595878 0.01322646 0.035666727
000070 de 81 95 3d 9c 6d ec bc c2 3a 1b 3d 56 79 ff bb
       0.07300161 -0.02886086 0.037897833 -0.007796447
000080 d8 52 a8 3d b7 85 4a 3c 60 8f c3 bb da 7f ba bb
       0.08218926 0.012360982 -0.0059680194 -0.0056915106
000090 9f 62 7a 3d 0e 44 31 3c e1 37 60 3d 64 90 b2 bd
       0.06112921 0.010819448 0.05474079 -0.087189466
0000a0 7d b5 a6 bc c4 ed 9f bd 86 f8 56 39 7e f2 05 3d
       -0.020350212 -0.07809022 0.00020501213 0.03270196
0000b0 71 de f8 bc 78 3d 05 3a fc 66 07 bd 38 4b 8f bd
       -0.030379506 0.0005082707 -0.033057198 -0.06996769
0000c0 db bd 42 3d 89 8c 3f 3d 0b ee 88 3d 33 ce 74 3d
       0.04754434 0.046764884 0.06686028 0.05976696
0000d0 8b 79 22 bc 1f 6e 52 3b 56 19 99 3c d0 30 78 bd
       -0.009916673 0.0032109094 0.018688839 -0.060593426
0000e0 1f 0a 9c bd 85 9e dc 3b 2f 2c 22 3d 6f 43 45 3b
       -0.07619118 0.006732764 0.039592918 0.0030100008
0000f0 07 d0 8a bc 45 24 f2 b9 26 31 c5 bc 32 34 68 bd
       -0.016944898 -0.0004618486 -0.024071287 -0.056690402
000100 7f 00 30 3c 0c 07 86 3a c2 c3 15 3d b9 47 19 bc
       0.010742306 0.0010225489 0.036563642 -0.009355479
000110 9c c6 05 3a b2 49 a8 bc 0e 3b 56 bd b1 f2 49 bc
       0.00051031425 -0.020542953 -0.052302413 -0.012325929
000120 c8 25 d7 bc 94 ef cc 3d d1 2d 4c 3d c2 c9 dd bc
       -0.026263133 0.100066334 0.04984838 -0.027073745
000130 47 41 8f 3a fd b3 e0 3d 8c 3d 1f 3e 18 7a 0a bd
       0.0010929488 0.1097183 0.15550822 -0.033807844
000140 f1 98 ad bd 63 07 ee bc f3 61 a5 bd 2d 39 f5 bc
       -0.08476437 -0.029056257 -0.08075323 -0.02993449
000150 3f f5 ab bd d4 dd f9 3c c9 1f c5 bb c6 a5 ce bd
       -0.08396386 0.030501284 -0.006015752 -0.100902125
000160 f6 b2 88 bd 45 03 47 bc 9c d0 f8 bc e7 76 99 bb
       -0.06674759 -0.012146776 -0.03037291 -0.0046833637
000170 c0 67 b1 bd 77 8b 9e bd 5a 33 92 3c e1 c8 c6 bc
       -0.08662367 -0.077414446 0.017846752 -0.024265708
000180 24 03 86 3d cb 87 0a 3e d4 43 f2 3d 3e 0e c5 3b
       0.06543568 0.13528363 0.118293434 0.0060136607
000190 30 f3 a5 bc 56 0a be 3b d0 37 06 bd 9c 3c 7c bd
       -0.020257562 0.005799572 -0.03276807 -0.06158124
0001a0 61 be 14 3d 52 0a b9 3d 9c 29 12 3d 79 d7 84 bd
       0.036314372 0.090351716 0.035684213 -0.06486411
0001b0 2d 2c b8 bd 25 d2 8a bd e9 1d 25 ba b5 92 0a bd
       -0.08992801 -0.06778363 -0.00062987074 -0.033831317
0001c0 23 8f aa bc bb fd 16 bd 18 ed ff 3b a2 1b d3 ba
       -0.020820206 -0.03686307 0.007810246 -0.0016106258
0001d0 38 33 8d bd cb b4 a8 bd 33 5d 47 bc c2 4b ab 3b
       -0.06894535 -0.082376085 -0.0121682165 0.005227537
0001e0 0a 0f ef bc 2a 15 2b 3d 32 49 c2 3d f0 9e a3 bc
       -0.029181976 0.04176823 0.09486617 -0.019973248
0001f0 18 70 ee bc 91 0e ca 3c 9e eb 11 bd 96 ba a7 bc
       -0.029106185 0.024665149 -0.035625093 -0.020474713
000200 99 12 ce 3d 57 da 61 3c 0b 65 15 3d c9 15 f6 bb
       0.10062141 0.013784966 0.036473315 -0.007509921
000210 33 8b 3e 3d 26 6b 7f 3c 5d 79 0c 3c 2f 1b 50 3c
       0.04651947 0.015589511 0.008573857 0.012701794
000220 c8 49 51 3c bb f8 e4 3c 76 78 a2 3d 73 6f c0 3d
       0.0127739385 0.027950635 0.07933132 0.09396257
000230 61 e0 4a bd 8c 04 9b 3d ff b8 5d 3c 6e 7c a6 3c
       -0.04953039 0.075692266 0.013532876 0.020323005
000240 2e 2c 6c 3d 0a 55 7d bd 33 cd 5d bd 04 41 3a 3c
       0.05765932 -0.061848678 -0.05415077 0.01136804
000250 03 13 3c 3a 04 8c 21 bc f0 4e 0b 3c 5d c8 52 3d
       0.0007174464 -0.0098600425 0.008502707 0.051460613
000260 82 51 38 3b cb 16 87 3c 68 9c 80 bd 14 00 91 3c
       0.0028124754 0.01649036 -0.06279832 0.017700233
000270 81 03 4e 3c 3a 75 64 bc 13 75 e6 3b 0d 50 b4 bc
       0.012574078 -0.013943965 0.0070329993 -0.022010827
000280 c6 8f 49 bc 90 81 8d bb 6f 9b fb 3c 0b 7b 58 bb
       -0.012302345 -0.0043184236 0.030713765 -0.0033032324
000290 cd 67 94 bd b1 dd 82 bd 7b b2 d6 bc 9e 66 8c bc
       -0.07246361 -0.063899405 -0.026208153 -0.017138775
0002a0 89 d5 42 3d 9e 9a a8 3c 23 68 b4 bc bc e4 6c bd
       0.047566924 0.02058154 -0.022022313 -0.057835326
0002b0 7c e0 11 3d d3 f3 52 bc 9a 18 bd bc 53 79 55 3d
       0.035614476 -0.012875515 -0.02308302 0.052117657
0002c0 27 39 1c bd 6f d8 57 bd a5 93 5b bd 75 a2 2b bd
       -0.038140442 -0.05269664 -0.0536076 -0.041902978
0002d0 83 f6 f3 bd cb 93 15 3d ae fb 07 3d a8 ec 5e 3d
       -0.11912253 0.0365179 0.033199005 0.05442491
0002e0 06 19 00 bd 56 7e 44 3d 7f a4 82 3d b2 0f 50 bc
       -0.031273864 0.047972046 0.063790314 -0.012699055
0002f0 b7 9a 79 3d da d8 e0 bc 93 0b f6 3c d9 a4 9a bd
       0.060938563 -0.027447153 0.030034816 -0.075509734
000300 01 10 ee bc be 2e 6e bb fb 31 8b 3d fd a5 85 3d
       -0.029060366 -0.0036343778 0.067966424 0.065258004
000310 61 d1 30 3b 27 71 07 bd 13 e8 21 bd ef 12 47 3d
       0.0026980268 -0.033066895 -0.039527964 0.04860204
000320 c9 b0 48 bd 4e 15 7f 3c 93 ab 3d bd d5 bd 0e 3e
       -0.04899672 0.015569044 -0.046306204 0.13939603
000330 33 b4 6c 3e e9 cb 10 3e d4 40 87 3c 8f 90 89 bd
       0.23115616 0.14140286 0.016510405 -0.067170255
000340 1c 92 d7 bd af 59 b5 bc cd c9 20 3c a8 b1 6a bc
       -0.10525915 -0.022137491 0.009813738 -0.014324583
000350 3d 00 ad 3c df 28 1a 3c 03 36 fb bd 61 d2 c8 bd
       0.021118278 0.0094091585 -0.12266161 -0.098057516
000360 b7 f4 82 bd 3a 64 51 bc 2a 87 b4 bc 95 3c 17 3d
       -0.06394332 -0.0127802435 -0.022037107 0.03692301
000370 6d dd b5 3c f6 79 69 bb e0 7f ca 3c 56 db e4 3c
       0.02220031 -0.0035625673 0.024719179 0.027936619
000380 3f c0 9f bd 5b c7 13 3d e1 99 5c 3c 2c ca 98 3d
       -0.0780034 0.036078792 0.013464422 0.07460436
000390 93 b2 9d bd 86 dc 45 bd b8 f0 82 3d 1e a9 fa bc
       -0.07700076 -0.04830601 0.0639357 -0.03059822
0003a0 5e c5 e0 bc 5e 10 81 3d 18 7a c5 3c 1a 84 ea bd
       -0.027437862 0.0630195 0.02410607 -0.114509776
0003b0 52 f4 31 3d bd 35 62 3c ab 09 99 3d 7b 58 61 bd
       0.043445893 0.0138067575 0.07472547 -0.055016022
0003c0 d3 eb be bd 31 dd 8e bd 08 27 e9 bb 0c 84 91 bc
       -0.09322324 -0.06975783 -0.0071152486 -0.01776316
0003d0 ff ac 2c 3d 3c d6 2a bd b4 1e 50 bd 67 6c 99 bc
       0.04215717 -0.041708216 -0.05081053 -0.018728448
0003e0 83 15 1b 37 d6 a8 8e bd ff 61 1c 3a 6e 9f bc bd
       9.2437285e-06 -0.06965797 0.000596553 -0.09210096
0003f0 1e f8 f4 bb 01 9b 5e 3c c7 bd 1c bd 9f 3a 87 3b
       -0.007475867 0.0135867605 -0.038266923 0.004126861

global_block.conv_time.conv.0.bias f4 [8]
000000 78 39 8e b8 9a b7 5f 3c 29 75 5b 3c a9 61 71 3c
       -6.781792e-05 0.013654614 0.013394632 0.014732757
000010 cc b4 09 bd 00 4a b2 bc 59 c5 f4 b7 79 95 bd 35
       -0.033619687 -0.021763802 -2.9178964e-05 1.41251e-06

global_block.conv_time.conv.1.weight f4 [8]
000000 a5 16 78 3f 43 de 7e 3f c0 82 65 3f 27 0a 61 3f
       0.9690955 0.99557894 0.89652634 0.87906116
000010 13 30 88 3f fa 59 5c 3f e5 42 76 3f 49 1d 73 3f
       1.0639671 0.86074793 0.9619582 0.9496656

global_block.conv_time.conv.1.bias f4 [8]
000000 8d a7 19 bd 9b 91 36 bd 16 da ff 3d fb 2e 06 bc
       -0.037513305 -0.044572454 0.124927685 -0.008189912
000010 70 5d 40 bd e4 c3 86 3d b4 d1 6f bd 6a 53 2f 3c
       -0.04696411 0.06580332 -0.058549598 0.01070104

global_block.conv_time.conv.1.running_mean f4 [8]
000000 42 21 d8 3c da 23 c6 3c 6c 97 e0 3c 5d e9 7d 3c
       0.026383046 0.024187017 0.027415954 0.015497533
000010 80 0a 2d bd 20 77 02 bd ca 94 90 bb ea 34 94 3c
       -0.04224634 -0.031851888 -0.0044122683 0.018091638

global_block.conv_time.conv.1.running_var f4 [8]
000000 8e c1 eb 40 38 5d f1 40 ff 44 04 41 76 24 e7 40
       7.3673773 7.5426292 8.266845 7.223201
000010 50 a1 15 41 c9 9b 03 41 05 82 f0 40 5f 1f 21 41
       9.351883 8.2255335 7.5158715 10.070159

global_block.conv_chan.conv.0.weight f4 [8, 8, 11, 1]
000000 54 50 cc bd ff 24 ae bc 06 8e bd bb b9 2d 29 bd
       -0.09976259 -0.021257875 -0.005784753 -0.04130337
000010 3c 07 da 3d e8 81 bd 3d 94 2e 84 3d 24 ac c4 bd
       0.10645911 0.09253293 0.064541966 -0.09603146
000020 3b 39 14 3d 27 18 eb bc 86 54 d5 3d 31 dd a8 3d
       0.03618739 -0.02869804 0.10416512 0.08245314
000030 09 47 60 bd e5 b0 2b bd 2c 64 62 3d ec a4 e6 3c
       -0.054755244 -0.041916747 0.055271313 0.028154813
000040 ff 02 11 3d 8f 97 f6 39 29 f0 e9 bd ec 90 a1 3d
       0.035403248 0.00047033696 -0.1142276 0.0788897
000050 79 13 29 bd 38 f5 30 3d a7 64 40 bd 46 6a ae 3c
       -0.041278336 0.04320261 -0.04697099 0.02129091
000060 1d 91 5c 3d 15 1e db bc b8 69 20 3c 6d c5 47 bd
       0.05384933 -0.026747743 0.00979083 -0.048772264
000070 f5 20 af 3d 5b 38 c3 bc bc 0d 72 bd 16 42 53 bd
       0.08551208 -0.023830583 -0.05909513 -0.051576696
000080 40 7b 0a bd 7b ba 5e 3d 14 e8 4c bd 05 06 6b bd
       -0.033808947 0.05437706 -0.050026014 -0.057378788
000090 93 cf 0d bb be 3e 2e 3a ad 30 0f 3d a7 46 b4 bc
       -0.0021638616 0.00066469226 0.03495853 -0.022006346
0000a0 66 8c ce bd 0f 11 8d 3b b0 6f 88 3d 81 c6 9d 3d
       -0.100853726 0.004305012 0.06661928 0.07703877
0000b0 4c 0f e6 bd da b0 86 3d 0a 6d e6 bb 23 c3 44 bd
       -0.112333864 0.065767005 -0.0070320414 -0.04803766
0000c0 a4 fa ea bd ea 12 6f bd ca 55 d2 3d 54 d2 a4 3d
       -0.11473587 -0.058367647 0.10270269 0.080479294
0000d0 cc fe 52 3d b5 0b 9a bc 81 3b 1a be df c1 b7 bc
       0.051512524 -0.01880441 -0.15061761 -0.022431312
0000e0 0c 09 01 3d ba a1 8e 3d 79 af 5c bc a8 ef 29 be
       0.03150277 0.06964441 -0.01346957 -0.16595328
0000f0 3d cd ee 3c 43 a3 98 3d 4b fa 0f 3e ae 54 d2 bc
       0.0291506 0.07453015 0.14060323 -0.025675144
000100 d9 e9 a2 3d a6 8a 9c bd 1f 14 58 3d fc 3b 6c bd
       0.07954759 -0.076436326 0.052753564 -0.057674393
000110 c7 29 e2 bb e3 8b 12 3b 63 93 34 bb f2 81 90 bd
       -0.006901953 0.002236121 -0.002755367 -0.07056035
000120 00 50 82 3c 47 f3 ac 3a e7 7c aa 3c ab 05 d4 3c
       0.015907288 0.0013195061 0.020811511 0.025881609
000130 dc fa 39 bd 0f 92 85 bd 12 da 52 bd 5a b6 55 bd
       -0.045405254 -0.06521999 -0.0514775 -0.052175857
000140 d5 9c 34 3b 7c 0a 0e bd 20 5d fa 3d 37 cb 97 3d
       0.00275593 -0.034677967 0.122247934 0.07411807
000150 d1 5b 00 be 14 13 97 3b d6 b7 af bc 8f 06 31 3c
       -0.12535025 0.0046104286 -0.021449964 0.010804786
000160 69 21 79 ba 3c c1 94 bd 19 d8 05 bd bd 0b 55 3c
       -0.00095035747 -0.07263419 -0.03267679 0.013003287
000170 dd da a0 3b e1 49 2a bd 98 ab 7d bc 0b 29 dd 3c
       0.004908903 -0.041574363 -0.015482806 0.02699711
000180 fa e0 48 3d a7 9b 98 3d 14 ca b7 bc de dd a2 bc
       0.04904268 0.07451563 -0.022435226 -0.019881185
000190 da 52 fc bd 5d 1b 74 bc 59 9c 4f 3b 71 6f 2a 3d
       -0.1232049 -0.014899102 0.0031678884 0.041610185
0001a0 77 2a 1c bd 40 6c 06 be 39 28 d7 3c 98 5e f9 3c
       -0.038126435 -0.13127232 0.026264297 0.030440614
0001b0 7c d6 2a 3d 17 47 6a 3d b0 6d ea 3d f1 20 48 be
       0.041708454 0.057196703 0.114467025 -0.19543816
0001c0 13 18 4a bd 6a a2 37 bd 27 6e 81 3d 39 ef b0 3d
       -0.049339365 -0.044832624 0.06319838 0.08639378
0001d0 d2 6d 80 bd 46 44 95 bd f4 2e 53 bd 20 89 bd 3d
       -0.062709466 -0.07288413 -0.05155845 0.0925467
0001e0 75 41 da 3d bb b1 1a bd 8a 09 8e bd b4 3c 7a bd
       0.10657016 -0.037767153 -0.06935413 -0.061093047
0001f0 45 41 c8 3c 1e f2 0d bc 61 07 1f bd 6b 90 5d 3d
       0.024445185 -0.008663682 -0.038825396 0.054092806
000200 ff 4b 91 3d c5 18 c3 3d 89 6b 03 bd 57 58 d6 bd
       0.07094573 0.09526209 -0.032084975 -0.10466068
000210 4d 8c 5d 3d 17 52 02 3e ab 2f b5 bb 1c c7 0e bd
       0.05408888 0.12726627 -0.005529364 -0.034857854
000220 9e 8c 82 b9 40 fe ce bd 72 e2 e1 3c 0b b2 d6 3d
       -0.000249003 -0.10107088 0.027573798 0.10483178
000230 4e 01 5e 3d e5 77 06 be 70 5a 86 bd 1d c6 b1 bd
       0.054200463 -0.13131674 -0.06560218 -0.08680365
000240 4d 77 de 3d bb 5b cf 3c bf 14 15 bc 9e df 08 be
       0.108625986 0.025312295 -0.009099185 -0.13366553
000250 e8 0a 9e bc f8 65 52 3d 34 61 bd bc 9e c6 a5 bd
       -0.01929231 0.051366776 -0.02311764 -0.08094524
000260 28 89 97 bd 14 e5 39 3d 5f b7 82 bd 7c 97 2d be
       -0.07399207 0.04538448 -0.063826315 -0.16952318
000270 0e b8 27 bb 10 d6 20 3d 24 56 22 3d 17 d3 6f bc
       -0.0025591883 0.039266646 0.03963293 -0.01463773
000280 b4 47 55 bc ac 59 97 3c 9d ce 17 3d 5e 71 98 bc
       -0.013017584 0.018475376 0.037062276 -0.018608745
000290 9c 47 c0 3d de 78 81 bd f9 8c d6 3c 38 9e ec 3c
       0.093886584 -0.06321882 0.026190268 0.028884038
0002a0 62 9e ab bb d2 40 03 be 29 55 b6 3c ce 9b 3d bc
       -0.0052373866 -0.12817696 0.022257404 -0.011572791
0002b0 11 ff cf 3d 61 9c 9d bd c8 4f 8c bd 49 e4 51 bd
       0.10156072 -0.076958425 -0.068511546 -0.0512431
0002c0 83 2c 8b bc 63 0b 1b bd ec 8b d7 bd 80 aa 71 3b
       -0.016988998 -0.037852656 -0.10524735 0.0036875308
0002d0 6d 52 46 3d 54 e4 31 bc b5 0d 92 bd f8 eb 8a 3d
       0.04841845 -0.01085766 -0.07131521 0.06783289
0002e0 9d 2e 84 3b fc a6 85 3d 22 48 01 3c 98 05 82 bd
       0.004033877 0.0652599 0.007890733 -0.06348723
0002f0 0a 1c 5d be e4 06 a6 bc ce 36 1d 3c 35 44 e8 3d
       -0.21592727 -0.020266958 0.009595586 0.113411345
000300 6d a2 83 bc 37 03 52 3d ef 86 ba 3d 4b 99 7d 3d
       -0.016068662 0.051272597 0.09107768 0.06191377
000310 29 97 27 3d b7 02 b4 3d 51 25 a5 3c 29 6c 08 3e
       0.040915642 0.0878958 0.020159395 0.1332251
000320 73 97 fe bd f9 2a a9 bc 5b e1 80 bd ec 2c b0 bd
       -0.124312304 -0.020650374 -0.06292983 -0.08602318
000330 f2 fd 0f 3d 52 5d 12 3e e7 35 6b 3d 10 85 8d bd
       0.03515429 0.14293411 0.057424452 -0.06910145
000340 1c f5 f9 bc 7d 23 c7 3c 2d c1 03 3d d1 e9 eb 3c
       -0.030512385 0.024308914 0.03216665 0.028798016
000350 42 bb 7d bd 5d f6 d4 bc 65 63 ac bd 9c a2 ac bc
       -0.06194616 -0.025996381 -0.084173955 -0.021073632
000360 4e b1 1c 3e da 4b 9e 3c 27 d6 46 bc 96 95 b4 bd
       0.15302011 0.019323278 -0.012136019 -0.08817594
000370 46 af 1f bd 30 3b 1c be d2 19 2f 3d 1f b8 24 3d
       -0.038985513 -0.15256953 0.042749234 0.040214654
000380 c8 96 1b 3d 00 72 ba 3d 42 be a8 bd 26 dc a4 3c
       0.037985593 0.09103775 -0.08239414 0.020124506
000390 01 49 ba 3b be e4 4f bd 19 6d db 3c 39 a1 41 ba
       0.0056849723 -0.050755255 0.02678542 -0.000738639
0003a0 7a fc a0 3c c2 9a 11 3d 80 5a 8e 3d 00 e8 10 bd
       0.01965164 0.03554798 0.06950855 -0.035377502
0003b0 99 81 26 3c 17 ab d0 bd c0 0d bb bd 58 3e f7 bd
       0.010162734 -0.10188883 -0.09133482 -0.12072438
0003c0 51 71 74 3d 5c a1 93 3d f0 4f de bd 4d 0f 0e 3e
       0.05967838 0.07208511 -0.108550906 0.13873024
0003d0 0d c8 85 bd 9f a7 ac bd fe 52 9a bd 7d 25 e4 bb
       -0.06532297 -0.08430409 -0.07535361 -0.0069624768
0003e0 64 fb 8e 3d 3e 90 2d bc e0 72 8f 3d 1d c1 f0 3c
       0.06981543 -0.010593472 0.070043325 0.029388959
0003f0 ba cf af bd 21 07 ff bc 93 4b 15 bd f8 0c 36 3c
       -0.085845426 -0.031131329 -0.036449026 0.01111149

global_block.conv_chan.conv.0.bias f4 [8]
000000 8c ce 19 b9 eb 7b 77 37 05 de ac bc b8 04 2e bb
       -0.00014668162 1.4751199e-05 -0.02110196 -0.0026553106
000010 21 51 54 3c 87 81 23 bd 88 dc 16 38 4a 57 c4 b7
       0.012958796 -0.03991845 3.5968173e-05 -2.3405668e-05

global_block.conv_chan.conv.1.weight f4 [8]
000000 19 44 7e 3f 78 87 80 3f e8 01 89 3f 13 64 6d 3f
       0.9932266 1.0041342 1.0703707 0.92730826
000010 88 3e 72 3f 47 c5 60 3f 85 7e 7d 3f 9f a3 6e 3f
       0.94626665 0.8780102 0.9902118 0.93218416

global_block.conv_chan.conv.1.bias f4 [8]
000000 8d 29 8e be 05 7b 0e be 78 bb 5b be 86 00 09 be
       -0.27766076 -0.13914116 -0.21458232 -0.13379106
000010 8b 1b 12 be 47 6d 35 be 1d d1 4d be 29 31 4f be
       -0.1426832 -0.17717467 -0.20099302 -0.20233597

global_block.conv_chan.conv.1.running_mean f4 [8]
000000 1b 97 d3 bc f5 e5 f8 bd cd 16 cc bd 4e 58 78 b8
       -0.025828889 -0.12153236 -0.099652864 -5.9210048e-05
000010 19 cd 80 3d ac 23 f6 bc e4 f2 bd bc 07 29 3b 3d
       0.06289119 -0.030046307 -0.023187108 0.045693424

global_block.conv_chan.conv.1.running_var f4 [8]
000000 e3 74 e3 3d de 27 60 3e 59 33 5f 3e b1 08 24 3e
       0.11106279 0.21890208 0.21796931 0.1601894
000010 d7 2f c7 3d 28 94 00 3e 41 9c 0d 3e b3 ef bb 3d
       0.097259216 0.12556517 0.13829137 0.091765784

local_block.conv_time.conv.0.weight f4 [8, 1, 1, 51]
000000 fa 01 97 bd e1 69 27 3c 07 90 dc 3c 2b b3 9c 3c
       -0.07373424 0.010218115 0.026924146 0.019128403
000010 be 33 d0 bb fc 82 e8 bd 40 01 31 3d 06 b0 23 bc
       -0.0063538244 -0.11353108 0.043214083 -0.009990698
000020 3e 32 ea 3d 56 b8 ec 3b 9a ff 85 bd 39 53 8f b8
       0.11435364 0.007224123 -0.06542893 -6.834273e-05
000030 ff 1e d0 3d 7d 72 d1 bd 23 c0 a3 bb 70 d3 9b bd
       0.10162162 -0.10226915 -0.0049972697 -0.07608688
000040 21 28 91 bd ca 5a fe 3d 0b 9b 17 3e c3 16 60 3d
       -0.07087732 0.124196604 0.14805238 0.054709207
000050 01 05 1c be 11 5d 39 bd 8f 3b bd bc c0 fe a7 bc
       -0.15236284 -0.04525477 -0.023099689 -0.020507216
000060 0b a3 de 3c 87 60 01 3e af 60 0d 3d 46 10 61 bb
       0.027177354 0.12634479 0.034516033 -0.0034341975
000070 b1 44 9d 3d 3a 23 0a 3e a5 28 bc 3c 23 a8 61 3d
       0.076791175 0.1349 0.0229686 0.05509199
000080 bf 26 01 3d 9e 1d df bd 55 6a d8 3d 97 df 11 3e
       0.03153109 -0.10894321 0.10567156 0.14245449
000090 16 e1 04 3b a8 af 83 be 60 52 b1 bd b6 8e 93 3d
       0.0020275763 -0.25719953 -0.0865829 0.07204954
0000a0 01 a4 a5 3d e5 0c df bd 74 71 df 3d b6 dc d3 3d
       0.08087922 -0.10891131 0.10910311 0.10344832
0000b0 82 b1 6b 3c d2 e3 82 bd 19 6d 7a 3b c3 9d 52 bd
       0.014385583 -0.063911095 0.0038212 -0.051419985
0000c0 85 ad ca bc e7 07 ad 3d d9 bd e0 bc fd 98 29 3d
       -0.024740944 0.08448773 -0.027434276 0.041405667
0000d0 52 a2 30 bd 71 fd 93 bc 1c c7 3b bd d2 0e cd 3c
       -0.04312355 -0.018065186 -0.045844182 0.025031481
0000e0 03 bd 27 bd dc 32 34 bd b5 b0 28 3d 1a 3b c9 bd
       -0.04095174 -0.043993816 0.041184146 -0.09825726
0000f0 56 96 1d 3d 6e 44 82 bd 64 20 19 3e 52 08 f1 3d
       0.03847345 -0.06360708 0.14953762 0.11769165
000100 50 f6 3e bc b2 2c 8c bc a8 6e b8 bc cc 78 10 bd
       -0.011655405 -0.017111156 -0.022513703 -0.03527145
000110 69 ed 07 be 99 d9 60 bd 8b 50 e0 bc 7e 1f c6 bd
       -0.13274159 -0.054895017 -0.027382156 -0.096739754
000120 d8 a3 39 3d ae 63 87 bd ce 6a 2e bd c9 b6 48 3d
       0.04532227 -0.06610809 -0.042582326 0.049002443
000130 f1 00 1f bd 11 71 99 3b dc eb 88 3d db 8f 0f 3e
       -0.038819257 0.004682668 0.066856116 0.1401972
000140 80 27 a8 3d d7 50 7d bd 72 e7 31 3c 03 89 3f bd
       0.08210659 -0.061844673 0.0108584035 -0.046761524
000150 55 b6 3e 3d a8 30 ce 3d e9 9c 2a bd 4f 03 2b 3d
       0.046560604 0.10067874 -0.041653547 0.041751202
000160 b4 43 4f 3d fb 99 f2 3d 0f a1 be 3d 19 09 c3 3b
       0.050601676 0.11845776 0.09308063 0.0059520123
000170 38 ae d4 bc ce d6 e8 bd 8a fb 44 bd 67 f1 0e 3d
       -0.02596198 -0.11369096 -0.04809145 0.034898188
000180 3e 0b 22 3e 64 92 1a 3d 5d ba 90 3d 49 50 da bc
       0.15824601 0.037737265 0.07066796 -0.026649611
000190 97 f1 a4 3d e5 1f a3 bd 56 f5 58 bd 77 f7 08 be
       0.08053892 -0.07965068 -0.052968346 -0.1337565
0001a0 52 91 8e 3d 4c 6b 51 bd 8c e7 0a bd ed d2 68 3d
       0.069613114 -0.051127717 -0.033912227 0.05684178
0001b0 b5 b6 f8 3c 19 42 22 3d a3 d8 10 3e 88 8a 18 bc
       0.030360559 0.039613817 0.1414514 -0.009310372
0001c0 b6 c5 02 3e 3f 50 99 3c 4a f8 6a bd 5c e4 0c bd
       0.12770733 0.018715022 -0.057365693 -0.034397468
0001d0 94 b8 2f bd fe a8 26 bd ff 9a 56 bd c2 43 cf bc
       -0.042900637 -0.040688507 -0.05239391 -0.025300864
0001e0 ee 9c e4 bd 77 20 fe 3d 23 8e 22 3e b8 1e b1 3d
       -0.111627445 0.12408536 0.15874533 0.08648437
0001f0 35 d7 e1 3d 35 4c 61 bd ce f3 91 ba e6 a0 a5 bd
       0.110273756 -0.055004317 -0.0011135282 -0.080873296
000200 0d ce 26 3c e2 f9 97 bd 48 29 94 bd c0 c4 1e 3d
       0.010180962 -0.07420708 -0.07234436 0.038761854
000210 a7 31 5e bc c8 f3 91 bd b3 34 72 ba 53 82 6f bd
       -0.013561643 -0.07126576 -0.000923942 -0.058473896
000220 98 a1 36 3d 48 59 a8 bd b3 07 9a 3c a2 14 39 3e
       0.0445877 -0.08220154 0.0188025 0.18074277
000230 fe aa 79 3d 30 fe 07 3e c4 aa d5 3d f6 d7 00 be
       0.060954086 0.13280559 0.104329616 -0.12582383
000240 78 81 57 be af f1 9b bc 1b e1 a5 bd 62 de bf bd
       -0.21045482 -0.019036142 -0.08099576 -0.09368588
000250 dc aa e4 bd ed 70 0a 3e af 20 1f 3e fc 74 5e bd
       -0.11165401 0.1351964 0.15539812 -0.054310784
000260 1f 91 b7 bc 84 19 32 3d 82 62 25 3c 8e 03 3e bc
       -0.022408066 0.043481365 0.010094287 -0.011597527
000270 42 ec aa 3c f5 d5 44 3d a8 ca a6 bc 33 49 9c 3b
       0.02086461 0.048055608 -0.020360306 0.004769468
000280 95 3b 8f bb de 20 de 3d cb 73 89 bd 83 bd a4 bc
       -0.0043711164 0.10846113 -0.06711539 -0.020109897
000290 d5 33 6d 3d 2c 2f 0e be 86 96 96 bd fe 95 77 3d
       0.05791076 -0.13885182 -0.07352929 0.060445778
0002a0 71 f9 87 bd 2c 60 11 3d af 99 e7 3c 23 38 9a 3d
       -0.06639374 0.035492107 0.028271524 0.075302385
0002b0 80 8a 1e 3e f8 8f 92 3c 0f 73 83 bd 62 aa 82 3d
       0.15482521 0.017890915 -0.0641843 0.06380154
0002c0 58 91 a4 bd 24 46 16 bd 1b ec 2f 3d ad 2c fc bc
       -0.080355346 -0.036687985 0.042949777 -0.030783022
0002d0 e6 ab 4f bd f5 59 63 bd d2 88 ab 3d b0 36 a3 bd
       -0.050701044 -0.05550571 0.08375706 -0.07969415
0002e0 25 7d c7 3d ff dd 8b bd 95 89 aa 3d ba 05 0d 3e
       0.09740666 -0.06829452 0.08327023 0.13771716
0002f0 65 2d 00 3c b5 f9 ad bd 77 2f 32 3d d5 67 1d 3d
       0.007823323 -0.084948935 0.043502297 0.0384291
000300 ca fc b0 bd f3 c2 27 be 88 9c 9a 3d 56 04 26 bd
       -0.08641966 -0.16382961 0.07549387 -0.04053148
000310 e5 f5 aa bc cc 2e 37 be ba 51 d5 bd 3b 0a 2f 3d
       -0.020869205 -0.17888945 -0.10415979 0.042734366
000320 50 11 bc bd 70 b5 91 3d da f2 8e 3c 09 a1 27 3e
       -0.091829896 0.071146846 0.017449785 0.16370024
000330 07 38 6e bd fe 0b ab 3d a7 e5 e4 bd 43 5c 20 bd
       -0.0581589 0.08351897 -0.11176615 -0.039150488
000340 07 4c a0 bc 9d 40 b9 bd 42 70 18 3d ec 33 f3 bc
       -0.019567503 -0.09045527 0.037216432 -0.029687844
000350 5b ce 44 3d 8d 42 ab 3c c4 63 a9 bd 54 0a 9b bd
       0.04804836 0.020905757 -0.08270982 -0.07570329
000360 44 e7 f4 bd 26 c4 19 3c 80 63 8c 3c ed cb 5b bd
       -0.11958173 0.009385144 0.017137289 -0.053661276
000370 bc 8c 87 3d b0 78 e0 bd 7e 61 e6 3c bf 49 78 3d
       0.0661864 -0.10960519 0.02812266 0.060617205
000380 1d cf 0e be 4a 3d ac bd 99 00 90 bc 0c a6 37 bb
       -0.13946195 -0.084101275 -0.01757841 -0.0028022556
000390 55 28 18 3d a8 d0 41 3d 72 75 ad 3d 0f 44 e0 bc
       0.03714784 0.04731813 0.084696665 -0.027376203
0003a0 6e 4e c0 bd 2b b7 1f bd 18 f5 1b 3c 66 eb 0d bd
       -0.09389959 -0.038993042 0.009518884 -0.03464832
0003b0 6e e6 59 bd 07 60 92 3d a9 a1 20 ba c2 8e 42 bd
       -0.05319827 0.07147222 -0.0006127605 -0.047499426
0003c0 f1 63 a3 3d 2c 2f c7 bd 2f 04 ea bd 97 bd 3b 3c
       0.07978047 -0.09725794 -0.11426579 0.011458776
0003d0 eb 50 0d be 02 42 a3 bd b6 0a 2c 3e cd 61 26 3e
       -0.13800399 -0.07971574 0.16800961 0.16248246
0003e0 a1 59 fe bd aa 4f 05 be f6 d7 4d be 2b 96 72 bd
       -0.12419439 -0.1301867 -0.20101914 -0.059225243
0003f0 32 43 23 bd ad 10 a1 3c 27 71 5b 3c 01 c9 ed 3b
       -0.039859004 0.019661272 0.013393677 0.0072566275

local_block.conv_time.conv.0.bias f4 [8]
000000 68 57 90 3c 01 8b 85 bd b2 a7 a0 3c c6 f2 8e 3d
       0.017619804 -0.065206535 0.019611213 0.06979899
000010 b6 23 15 3d 9e a5 61 3d 34 04 92 3d 58 5f 52 3d
       0.03641101 0.055089585 0.07129708 0.051360458

local_block.conv_time.conv.1.weight f4 [8]
000000 01 0f 7e 3f 6f 55 70 3f fa d1 58 3f 91 38 66 3f
       0.99241644 0.9388036 0.846954 0.89930063
000010 0b ab 58 3f e4 8c 89 3f fe 35 66 3f af 24 84 3f
       0.8463599 1.0746121 0.89926136 1.0323695

local_block.conv_time.conv.1.bias f4 [8]
000000 f3 c4 d0 3c 18 2c 88 3d d3 26 03 3c 0a 63 ae 3d
       0.025484538 0.06649035 0.008004862 0.08514984
000010 91 df 18 bd 7d 22 ba 39 52 90 01 3e 8e d9 25 be
       -0.037322585 0.0003550238 0.1265271 -0.16196272

local_block.conv_time.conv.1.running_mean f4 [8]
000000 fc 40 bf 3c 0a 60 bb bd 7f ce 06 3d 4c 04 c2 3d
       0.023346417 -0.09149177 0.032911774 0.09473476
000010 db 39 31 3d 12 40 81 3d f2 d1 de 3d f0 a8 47 3d
       0.043268066 0.063110486 0.10879888 0.048745096

local_block.conv_time.conv.1.running_var f4 [8]
000000 2d fc b7 40 f6 9a a5 40 27 84 0f 41 34 ad a7 40
       5.749533 5.175166 8.969764 5.239893
000010 3e 15 a1 40 b8 fd a1 40 87 61 9f 40 73 bb 86 40
       5.033843 5.0622215 4.980655 4.210382

local_block.conv_chan.conv.0.weight f4 [8, 8, 11, 1]
000000 cd 97 8d bb f4 b7 85 3d 8a dc 92 bb 4b e2 69 bb
       -0.0043210746 0.06529227 -0.0044818567 -0.003568786
000010 3e 09 95 3c 19 0c 0e 3d 68 21 b3 3b b7 2d 30 bd
       0.018192884 0.034679506 0.005466629 -0.043012347
000020 81 29 6b bd 39 01 80 3d 41 6c 80 bd fe 7f 48 3a
       -0.057412628 0.06250233 -0.06270648 0.0007648467
000030 6f f1 1d 3d 2e 49 5d 3d cc 51 a2 bc e2 f1 f2 3d
       0.038560327 0.054024868 -0.019814394 0.11862542
000040 ea be 5c 3d 8e 6e 21 bd e4 b3 56 be 7c 4c c1 bc
       0.053893007 -0.039412074 -0.2096706 -0.02359604
000050 ae 16 21 3d 31 55 68 3d 9c 85 fa 3c 18 e4 da 3d
       0.03932827 0.05672187 0.030581288 0.10688037
000060 06 4b b2 3c 0e 75 77 3d 9d 53 26 3b 40 4b 55 bd
       0.02176429 0.060414366 0.0025379427 -0.052073717
000070 96 b8 4a bd 1a af b2 3b 60 aa cb bd 67 71 ff 3c
       -0.04949244 0.0054530026 -0.09944606 0.031182004
000080 44 bc f7 bd ae cf 37 bc da 2d 65 bc 11 77 00 bd
       -0.12096456 -0.011218948 -0.013987983 -0.03136355
000090 4c 21 79 3c b7 3f 94 bb e3 43 94 3d 41 c4 d2 3c
       0.0152056925 -0.004524197 0.07239511 0.025728347
0000a0 7d 9d 5f 3d 51 70 aa bd d1 a3 db 3b 9e c3 c8 3d
       0.054593552 -0.08322204 0.006702878 0.09802936
0000b0 a8 59 12 3d 01 83 4e bc 6b 30 a0 bd 3a 80 4b 38
       0.035730034 -0.012604476 -0.07821735 4.8518392e-05
0000c0 a8 a7 8d 3a 0e 88 3c bd 86 3f b7 3d a2 15 0a 3e
       0.0010807412 -0.04602819 0.08947663 0.13484815
0000d0 5b a2 87 bc 40 ba b7 3c 55 9d 0e bd a0 74 94 bc
       -0.01655691 0.022427678 -0.034818012 -0.018122017
0000e0 6d 32 35 3e 32 c6 3a 3d 3c ab 92 3d 07 7b c7 3c
       0.17695017 0.04559917 0.071615666 0.024350656
0000f0 ba a2 e3 bb d0 4a 04 3e fd a5 f3 bd 9a ea 05 be
       -0.0069468888 0.12919164 -0.11896894 -0.13077775
000100 d7 35 42 3c 72 c8 27 3d ec 4a 16 3b 0f 3a a0 3d
       0.011853657 0.040962644 0.002293284 0.07823574
000110 39 0f c4 bc 5e 75 c5 3d 48 d2 10 bd db 31 9a bd
       -0.02393304 0.09641527 -0.03535679 -0.075290404
000120 42 c1 9d bc 62 64 06 3e 11 49 20 3d de 89 8e bd
       -0.019257192 0.1312423 0.03913218 -0.0695989
000130 b2 c7 a7 bc c3 87 0d bd 78 a6 65 3d f1 5e 6d 3d
       -0.020480964 -0.0345533 0.05606696 0.05795187
000140 51 98 da 3a 6c 2b 13 3c e7 5a 97 bd a9 8b b1 3d
       0.0016677474 0.008982521 -0.07390385 0.08669216
000150 76 e5 9b 3d 74 53 f2 3d 90 48 7f bd d8 14 ce bd
       0.076121256 0.11832324 -0.06232506 -0.100625694
000160 8a d3 a6 bb a4 74 c4 bc 63 3c d8 3c 29 64 2d bc
       -0.0050911354 -0.0239814 0.026395982 -0.010582962
000170 8f 93 bf 3d 4e 36 f4 3b 71 a6 3b bc 45 69 95 bd
       0.093543164 0.0074527627 -0.011453257 -0.07295469
000180 bb 9f 9a bd 87 52 8a 3b a5 8c 5d bd 34 a6 46 bd
       -0.075499974 0.004221264 -0.054089207 -0.048498347
000190 45 bc a1 3d 46 dd 3d 3d e6 13 e2 bb f8 09 3f bd
       0.07897238 0.0463536 -0.0068993447 -0.046640366
0001a0 87 e9 89 bd a3 61 35 3d a6 51 17 3d c5 d7 7c bd
       -0.06733995 0.044282567 0.0369431 -0.06172921
0001b0 fc 32 b3 3d fc 8d 62 bd 52 0d 09 be c1 d2 2c 3d
       0.08749959 -0.055311188 -0.13383988 0.042193178
0001c0 4a 8f b6 bd 6f 92 f4 bb c7 1e 05 3d 4d cb cf bd
       -0.08914049 -0.0074637453 0.032500055 -0.101461984
0001d0 f8 de 38 3d 6f 89 83 3e 1f 2d 19 3d 77 5f d3 bc
       0.045134515 0.2569079 0.037396546 -0.025802357
0001e0 10 33 90 bc 8b 85 8b 3d ce 19 ca bd 6e 66 76 bd
       -0.017602473 0.06812581 -0.09868203 -0.06015628
0001f0 da 55 80 bc 08 22 3c bc b7 31 20 3d c2 fd 87 bb
       -0.015665937 -0.011482723 0.03910991 -0.0041501233
000200 38 5f d9 3a e8 ad 02 bd 25 f8 9b bd 43 61 fc 3d
       0.0016584164 -0.03190413 -0.07615689 0.12323239
000210 1e ea b3 3c 4c 83 81 3b a0 15 db 3c a5 4c db bc
       0.021962222 0.0039524194 0.02674371 -0.026769945
000220 e4 c0 39 bc dd 69 c3 3d 9e d4 1e bd 1f 7f 45 be
       -0.011337493 0.09541676 -0.038776986 -0.19286774
000230 52 85 33 3d 8b 7c 07 bd 6c d3 d4 3b 96 49 46 3d
       0.043828316 -0.033077758 0.00649493 0.04841002
000240 27 9b f8 bd d1 cf 0d bd eb c9 1b 3d 92 9d 7b bd
       -0.12138968 -0.034622017 0.03803436 -0.061429568
000250 32 a5 29 bc da e4 81 3d 6f 38 13 bc 7d 30 f7 3b
       -0.010354327 0.06342478 -0.008985623 0.007543622
000260 27 9b ea 3d 0c 99 0d bd 3f dc db bc 5e ed 05 bd
       0.11455374 -0.034569785 -0.02683842 -0.032697074
000270 92 15 8c bd 4c 6e 8b 3a 26 a0 a8 ba 97 e9 3a bd
       -0.06840052 0.001063773 -0.0012865111 -0.045632925
000280 7e c8 3d 3d 55 27 1e 3e 5d dc 19 3d 70 e4 50 3b
       0.046333782 0.15444691 0.03756367 0.003187444
000290 f3 08 e4 3b 7b af 30 3d 07 ea d7 3d 1b b0 17 bd
       0.0069590746 0.0431361 0.10542684 -0.03703318
0002a0 94 aa b8 3c fb 67 b1 3c a1 c8 dc bc b9 2a 96 bd
       0.022542275 0.021656027 -0.026951136 -0.073323674
0002b0 22 50 c3 3d 2c cf 5f 3d b2 94 56 3b a3 5d 51 bd
       0.095367685 0.054640934 0.0032742438 -0.05111469
0002c0 a8 46 4b 3d 14 35 a3 bd bf bf d5 bd 57 30 0f 3e
       0.04962793 -0.07969108 -0.10436963 0.13983284
0002d0 43 04 0e 3e 63 db ee 3b ef 43 e1 bd fb de 7e bc
       0.13868813 0.0072893365 -0.109992854 -0.015556092
0002e0 e1 53 1e 3d 91 14 a4 3d 09 58 55 bb 07 70 d8 bd
       0.038654212 0.08011735 -0.0032553694 -0.105682425
0002f0 60 cf 0c be e6 b5 83 bd e8 01 6b 3d ca f1 9a 3d
       -0.13750982 -0.06431179 0.057374865 0.07565649
000300 5b a4 88 3c 33 55 cf 3c 62 6d a1 3d b7 40 31 3d
       0.016679933 0.02530918 0.07882191 0.043274608
000310 f2 49 70 bb 0d 78 a4 3d a7 ee 92 bc a1 2b 73 bd
       -0.0036665169 0.0803071 -0.017936064 -0.05936778
000320 ea 93 97 3d 19 c6 3c bd f2 f4 5b 3d d7 1b 04 bc
       0.07401259 -0.04608736 0.053700395 -0.008063278
000330 cd 86 42 3d 2a 67 9a 3c 59 0c 40 3d 7c dc 8f bd
       0.047491837 0.01884802 0.046886776 -0.07024476
000340 b0 60 74 bd 66 97 a4 bd 6d 10 53 3d f2 b1 60 bd
       -0.05966252 -0.080366895 0.051529337 -0.054857202
000350 7a ff 31 3d c7 ff 45 3d 70 a5 4b 3c 9d 1e ce bd
       0.043456532 0.04833963 0.01242958 -0.10064433
000360 7a 59 c2 bc 22 b3 90 bc 62 28 cc 3d 4a 9e 68 bd
       -0.023724306 -0.017663542 0.0996864 -0.05679158
000370 aa 33 64 bd 0d e9 0e 3c f5 fc d9 38 3c 7a 58 3c
       -0.055713333 0.008722556 0.00010394483 0.013212737
000380 7f 3c 58 3c da ce 96 3d 2b 9b 6b 39 89 77 65 bd
       0.013198017 0.073636726 0.00022469151 -0.0560222
000390 8b 67 54 bd 3c a2 a2 3c 9b 7c 29 3c 45 bc 71 bc
       -0.05185656 0.01985275 0.01034465 -0.01475436
0003a0 ae 34 d2 bd 60 84 71 bc 37 78 a5 bb b3 7c 6f 3d
       -0.10263954 -0.014741033 -0.005049731 0.05846853
0003b0 c5 b7 d4 3d 15 8d 7d bc 16 43 b6 bd 6d 22 0d 3e
       0.10386614 -0.015475531 -0.088995144 0.13782664
0003c0 70 7c 67 3d 5b 3c cc 3b 44 8d 8d 3c d1 a1 89 3d
       0.056515157 0.006232781 0.017279275 0.06720317
0003d0 28 28 c0 bd 73 14 08 be a7 68 0b bd 7a f7 31 3d
       -0.09382659 -0.13289051 -0.03403535 0.043448903
0003e0 6f 75 57 bd a7 2f 49 3e a3 e4 8a bd 04 f5 8a 3c
       -0.052602228 0.19647084 -0.0678189 0.016962536
0003f0 cf a7 5e bd 39 57 99 bb d0 ed eb 3b e1 ba a7 bd
       -0.054359253 -0.004679587 0.0071999803 -0.08189941

local_block.conv_chan.conv.0.bias f4 [8]
000000 51 a2 61 bd ce 78 32 38 7f e2 94 3c bd 5c db 3c
       -0.055086438 4.2551015e-05 0.018174408 0.02677762
000010 de 3b 9b 3c 67 62 9b 3b 3f c6 4b 3d 97 a5 c2 36
       0.018949445 0.004741955 0.04974961 5.8009277e-06

local_block.conv_chan.conv.1.weight f4 [8]
000000 9d e2 51 3f 57 57 7c 3f 89 e9 82 3f c2 0b 72 3f
       0.8198641 0.9857077 1.0227519 0.9454919
000010 e0 74 5f 3f 7e dc 8d 3f 42 72 75 3f 1b 15 73 3f
       0.8728771 1.1082914 0.9587747 0.9495408

local_block.conv_chan.conv.1.bias f4 [8]
000000 52 db 38 be 2d b7 62 be f3 40 d2 bd 97 6b 69 be
       -0.18052414 -0.22140189 -0.10266294 -0.22794949
000010 b7 7f 3d be 46 a5 4d be 39 c3 1c be 6e 09 40 be
       -0.1850575 -0.20082578 -0.15308847 -0.18753597

local_block.conv_chan.conv.1.running_mean f4 [8]
000000 2f c5 1f 3d bf d3 d9 bc 12 33 5e bd f8 b7 e0 3d
       0.03900641 -0.026590226 -0.054247923 0.10972589
000010 af f1 60 bd f8 3f 69 3d f7 a7 fa 3d 72 82 a2 3c
       -0.054917987 0.05694577 0.12239068 0.019837592

local_block.conv_chan.conv.1.running_var f4 [8]
000000 cc 40 05 3e d5 e6 16 3e f8 7d e2 3d 5a 98 df 3d
       0.13013 0.14736493 0.11059183 0.10917731
000010 d4 4a b2 3e 83 a4 5f 3e 0c 1b 32 3e fc 81 28 3e
       0.34822714 0.218401 0.1739313 0.16455835

tcn.network.0.conv1.weight f4 [16, 16, 16]
000000 02 12 91 bd e6 4d 9a bd 71 7b 94 bc 3f 36 92 bd
       -0.07083513 -0.07534389 -0.018125268 -0.07139253
000010 26 28 00 bd af 87 80 bc c9 0b 40 bb 4d 16 e1 bc
       -0.03128829 -0.015689699 -0.00293039 -0.027476454
000020 08 67 9e 3c f0 03 e2 bc 0c 51 d4 bc ea 96 41 bd
       0.019336239 -0.027589768 -0.025917552 -0.047263063
000030 fa 7e 60 bd 17 0c 0c bd 89 76 bc bc 9c a1 4b 3d
       -0.054808594 -0.034191217 -0.02300574 0.04971467
000040 70 31 08 3d f8 fc 84 3c 6f e9 9e bc bc 72 ee 3c
       0.033250272 0.016233906 -0.01939842 0.029107444
000050 43 d1 85 bc 8d de 8a 3c c6 5d 28 bc 9a da 1c bb
       -0.016335135 0.016951824 -0.010276264 -0.0023934008
000060 bf ee b3 bb 4e b0 c4 b9 9c ea 2d 3c e8 b9 00 3c
       -0.0054911072 -0.0003751539 0.010615017 0.0078568235
000070 15 ec ca bb 34 fe 65 ba c8 b2 54 bc 30 26 87 3d
       -0.006192694 -0.0008773536 -0.012982078 0.065990806
000080 45 39 d6 bb 1a fa da 3b 2c 78 08 bd 1d f6 b3 bc
       -0.006537589 0.0066826465 -0.03331773 -0.021967942
000090 4b 59 62 3b dd aa 86 3d f3 0f b9 3d 37 2b 08 3d
       0.0034538086 0.06575558 0.09036245 0.033244338
0000a0 d6 ba a5 3d df aa 95 3c 30 54 b4 bb 74 18 39 3d
       0.08092277 0.018269954 -0.0055032 0.045189336
0000b0 4c 18 2b 3c 45 12 36 3c de cf 32 3d fc 60 c5 bb
       0.010442805 0.011112754 0.04365527 -0.0060235243
0000c0 4d b9 7c 3b 26 df 31 bd 99 47 d6 bb 3c 93 4f 3d
       0.0038562596 -0.0434257 -0.006539297 0.050677523
0000d0 bf 0a 76 3c bb 89 2a 3d 92 b2 3c 3d f8 48 fc 3c
       0.0150172105 0.041635256 0.046068735 0.030796513
0000e0 b6 7d 1f 3d d8 91 ba bc ce 70 da 3b c6 7c 78 bc
       0.038938247 -0.022774622 0.0066662794 -0.015166467
0000f0 ac 13 15 bd f2 18 da bc 9c 08 36 3d a1 2e 6c 3d
       -0.036395714 -0.026623223 0.044441804 0.057661656
000100 fd 3b f0 3c c1 2c 61 3d 4e dc 1d 3d 1f e6 b9 3d
       0.02932548 0.05497432 0.038540177 0.09077095
000110 a8 a3 99 3d 92 b0 f9 3c 4b 8d 26 3c b6 19 8c bc
       0.07501918 0.030479703 0.010165523 -0.017102104
000120 3a f0 4f 3d f5 d8 05 bc 3f 63 90 3c 6c 46 db 3c
       0.050766207 -0.008169402 0.01762545 0.026766978
000130 ba 22 20 bd 6d 96 b1 3c a1 5d 12 3d 08 a6 4d bc
       -0.039095618 0.021678174 0.035733823 -0.012551792
000140 2d 5e f0 3c f0 6b 21 3d 4d 18 55 3d fa 28 85 3d
       0.029341782 0.039409578 0.05202513 0.06501956
000150 4e de 13 3d 64 f6 37 3c 3e e6 35 3c 94 3c e7 bc
       0.03610068 0.011228178 0.011102257 -0.028227128
000160 3d e1 ab bc c0 10 43 bd b4 38 63 bb 84 5f 1b 3b
       -0.020981425 -0.047623396 -0.003467125 0.0023708055
000170 55 a0 b9 bb 3e 6d 00 3d 0e d2 95 3d bb a5 76 3c
       -0.005664865 0.03135418 0.073154554 0.015054162
000180 93 43 29 3d 92 ea fc bc 64 53 4e bd 3a a9 6c bd
       0.04132421 -0.03087357 -0.050372496 -0.057778575
000190 da 66 e8 bc 73 3e 3a bd b8 25 d9 bc ef e7 09 3d
       -0.028369356 -0.045469712 -0.026507244 0.033668455
0001a0 06 0c 6f bc de 14 58 bc 3c f9 bf bc 56 a9 a9 bc
       -0.014590269 -0.013188569 -0.023434274 -0.020710628
0001b0 b0 ab fd bc ec 6c c3 bc 25 e0 38 3c b8 a7 d5 ba
       -0.030965656 -0.023855649 0.011283909 -0.0016300594
0001c0 9d 81 33 bb 84 45 8a 3c 44 82 6e 3c 40 18 19 3d
       -0.0027390488 0.01687885 0.014557425 0.037376642
0001d0 2b 0b c9 bc 4d 56 ab 3c 74 2a c5 bb ba 60 ae 3c
       -0.024541458 0.020915175 -0.0060170237 0.021286357
0001e0 0f 67 89 3c bf c1 b1 bc 39 4a a9 bb ec dc a4 3a
       0.016772775 -0.02169883 -0.0051663187 0.0012578047
0001f0 24 07 31 3c f8 2f bb 3c 9a 39 3f 3c d0 04 22 3c
       0.010804925 0.022850022 0.011671448 0.009888843
000200 90 69 b5 3c 6a 72 a8 bc 5d ea 96 3c 47 e3 2e bd
       0.022145063 -0.02056237 0.0184223 -0.042697217
000210 77 e2 2b bd 02 33 55 ba 07 ec e8 bb 53 b1 f4 bc
       -0.04196402 -0.0008132906 -0.007108215 -0.029869711
000220 ff 2e c0 bc 4c 67 91 3c f1 ce e6 3a 73 3f 1d 3d
       -0.02345991 0.017749451 0.0017609281 0.038390588
000230 08 0a e0 3c 16 f1 fe 3c 74 eb a0 3b 65 68 49 bd
       0.027348533 0.031120818 0.0049108807 -0.049171824
000240 00 53 f0 bb ed 65 ca 3c 43 15 5a 3b f6 8f fa 38
       -0.007334113 0.024706805 0.0033276833 0.00011947744
000250 77 7f c8 39 93 7b d4 3c 90 9e 91 3c be 38 01 3c
       0.0003824194 0.025937831 0.017775804 0.007887064
000260 b8 32 8f bc 36 5f 8b 3c f5 ad 52 3b 4d 6d 87 bc
       -0.01748024 0.017013174 0.0032147144 -0.01653161
000270 81 6d 2b bd 9f 3e b9 bc 50 82 2d 3c cf 6f 95 3d
       -0.041852478 -0.022612868 0.010590151 0.072967164
000280 e6 0d 8c 3d 2d 90 00 3d 2c 03 00 3d 67 b7 59 bb
       0.068385884 0.031387497 0.031253025 -0.0033220889
000290 41 81 41 3c a4 3a c6 3c 42 33 3b 3d 0d e9 4d 3d
       0.011810602 0.024197884 0.04570318 0.050271083
0002a0 59 35 4e 3b 39 81 26 bc c6 7f 77 3b df f5 33 bd
       0.0031464903 -0.010162645 0.0037765368 -0.043935653
0002b0 bd 3a 1e bc a0 fa a4 bd 9a e9 23 bd 1f c3 ab bc
       -0.009657559 -0.080556154 -0.0400177 -0.020967064
0002c0 e6 15 62 bd 78 8e 11 bd 00 14 e3 bc eb a0 06 3c
       -0.055196665 -0.03553626 -0.027719498 0.008217077
0002d0 99 6a 6c 3c ad e3 a4 bc 7d a7 8e 3c 0c fa 9a 36
       0.014429712 -0.020128096 0.017413849 4.618667e-06
0002e0 0a 4b 41 3d d5 7c ef 3c bf 32 3a 3c 1f 30 12 bd
       0.047190703 0.02923433 0.011364638 -0.035690423
0002f0 4e 69 a1 3b 0c 93 ca bc d5 fe 80 bc d7 59 41 bc
       0.0049258834 -0.02472832 -0.015746513 -0.011801205
000300 3a bf 5c bc 6a e4 da 3a 6d 1c 31 3c 78 6e 72 bc
       -0.013473326 0.0016700153 0.01081 -0.014796846
000310 41 21 0d bd f0 73 23 bd 9b 69 84 bc bf 1e f4 bc
       -0.03445554 -0.03990549 -0.016163638 -0.029799817
000320 b8 23 6e bd 40 58 66 bd 7d 55 bc bc 46 eb 1e bc
       -0.058139533 -0.056236506 -0.022989983 -0.009699648
000330 52 a7 1b bd 46 d7 fb bc 8a a0 da bd dc 73 99 bd
       -0.038001366 -0.030742299 -0.10675152 -0.074928015
000340 31 79 ac bd ef 87 88 bc ef 9a a5 bc 8a 1d 2d bb
       -0.08421553 -0.01666638 -0.02021548 -0.0026415312
000350 ce 14 15 bb f7 19 20 3d 1e 74 93 3d c8 d2 88 3d
       -0.0022747996 0.039087262 0.07199882 0.06680828
000360 ff 03 a0 3c 35 13 a9 bb b9 e1 cb 3b 23 13 df bc
       0.019533155 -0.0051597604 0.0062219766 -0.027230805
000370 3d 9c 83 bd 25 50 47 bd b4 1d 63 bc 6d fd 9e bc
       -0.064262845 -0.048660416 -0.013862062 -0.019407952
000380 e3 b4 29 3c dd 00 14 bd ea 87 7e 3c 31 be 45 bc
       0.010358068 -0.036133636 0.015535334 -0.012069271
000390 79 39 1e 3c 00 1b a1 3c 7f 2b a2 3b 27 26 1b 3c
       0.009657257 0.019666195 0.004949033 0.009469545
0003a0 33 f3 89 bd 2b 76 c1 bc f7 4a 5e bd 98 63 5e 3d
       -0.0673584 -0.023615917 -0.05427071 0.0542942
0003b0 a3 9c 60 3c 0f 3c 75 bb 12 d0 87 3b 94 43 d8 3b
       0.01370922 -0.003741983 0.004144677 0.006599853
0003c0 a1 a6 c3 bc d3 ae 49 bd bd 66 36 bd 91 cd bb bc
       -0.023883166 -0.04923899 -0.044531573 -0.02292517
0003d0 06 70 16 3d 5f 71 b6 bb 96 78 f2 3c d6 7e a5 3c
       0.036727928 -0.005567714 0.029598515 0.020202082
0003e0 ee 69 8d bc 44 28 ae 3b be fe 47 bd 6a e1 2f bd
       -0.017262425 0.0053148586 -0.048826925 -0.04293958
0003f0 7b a6 ba bc 55 4a ce 3c 5c 69 d8 3c a7 90 14 3d
       -0.022784462 0.025181929 0.026417427 0.036270764

tcn.network.0.conv1.bias f4 [16]
000000 99 80 27 b7 fe 12 7a 37 ea 0f bc b8 06 57 61 35
       -9.983917e-06 1.4905583e-05 -8.967503e-05 8.394567e-07
000010 cc d2 31 bc 24 be a0 36 97 82 17 35 18 2d 6d bb
       -0.010853481 4.790507e-06 5.6441917e-07 -0.0036190208
000020 58 13 09 b7 d1 dc 05 34 34 0b c0 b6 f8 55 81 37
       -8.17034e-06 1.2466923e-07 -5.72335e-06 1.541803e-05
000030 f6 ff 8e b6 2c 13 0b 35 33 6b 8b 39 ba 8c 07 3c
       -4.2617276e-06 5.1809434e-07 0.00026592016 0.008273298

tcn.network.0.bn1.weight f4 [16]
000000 69 a8 8b 3f 99 26 84 3f 38 f4 79 3f 4d 54 86 3f
       1.091077 1.0324279 0.97638273 1.0494477
000010 d4 32 86 3f f9 13 84 3f 0c a8 80 3f 90 14 8c 3f
       1.0484262 1.0318595 1.0051284 1.0943775
000020 55 db 8c 3f e9 0f 8d 3f 39 28 8b 3f 4a 37 90 3f
       1.1004435 1.102048 1.087165 1.1266873
000030 b5 72 81 3f ef 0e 8c 3f 47 78 7e 3f 0f b3 88 3f
       1.0113131 1.0942057 0.9940228 1.0679644

tcn.network.0.bn1.bias f4 [16]
000000 9f e6 a3 be 43 cc c6 be 1f c3 a9 be d1 90 bb be
       -0.32011887 -0.38827714 -0.33156678 -0.36633924
000010 0f f4 94 be 99 4a 97 be fb f0 b1 be 6b 62 8d be
       -0.29092452 -0.295491 -0.34754166 -0.2761415
000020 54 9e 82 be f0 a9 b3 be 2e 0f bf be 39 9e db be
       -0.2551142 -0.3509059 -0.3731627 -0.42894152
000030 d8 e5 8b be f1 ea cc be 3c 55 91 be 1f 3e 8a be
       -0.27323794 -0.40022996 -0.2838534 -0.2700052

tcn.network.0.bn1.running_mean f4 [16]
000000 1a 96 9b bc a7 54 8b bd 2e ea 82 bb 35 17 59 3c
       -0.018992472 -0.068032555 -0.0039952016 0.013250162
000010 44 00 19 3d 28 74 96 3c 96 52 6b bd b4 6d b1 bd
       0.03735377 0.018365934 -0.057451807 -0.08663502
000020 92 9c a0 bc 91 94 cc bc dd da 9c 3d 7c e4 8c bc
       -0.019605909 -0.024973186 0.07658932 -0.017198794
000030 d8 f0 d7 bc 18 e5 73 3d 00 0f 4c bc 1d be 5b 3d
       -0.02635996 0.059544653 -0.012454748 0.053648103

tcn.network.0.bn1.running_var f4 [16]
000000 9e 71 3d 3f e7 44 10 3f d9 17 c7 3e 58 a5 1a 3f
       0.7400149 0.56355137 0.38885382 0.60408545
000010 68 9d 10 3f 51 50 17 3f 54 44 03 3f 2c 2c 1c 3f
       0.5649018 0.5910693 0.51276135 0.610049
000020 f7 cd 00 3f 1a bd 28 3f fc 53 27 3f 51 98 19 3f
       0.5031428 0.65913546 0.65362525 0.5999804
000030 27 26 03 3f 76 cd 69 3f 3c d6 22 3f 13 04 f8 3e
       0.5123009 0.91329134 0.63608146 0.48440608

tcn.network.0.conv2.weight f4 [16, 16, 16]
000000 83 3b 36 bc e5 42 2b 3c ef 27 23 bd 92 34 3c bd
       -0.011122587 0.010452961 -0.039833006 -0.045948572
000010 37 00 38 bd 4a 38 00 bb 87 38 c9 bc 60 19 fe ba
       -0.04492208 -0.00195648 -0.024563087 -0.0019386224
000020 44 5a 0a bd 3c 1f 00 bd 02 9e f0 bc f7 dc 59 bc
       -0.03377749 -0.031279787 -0.029372219 -0.013297311
000030 49 df 60 bb f5 a4 72 3c 3f 9e 9d bd 78 bd 3d bd
       -0.0034312776 0.014809837 -0.07696199 -0.04632327
000040 17 cb 7f 3d d1 c7 41 3d 26 b2 a3 3c 8f 50 ee bb
       0.06244954 0.0473097 0.019982409 -0.007272787
000050 ec 32 36 3c 5e ce 73 3b a0 d9 41 3d 75 ff 93 3d
       0.011120539 0.0037201862 0.047326684 0.07226459
000060 f7 7b b3 3d 76 7b 9a 3d 89 c5 e5 3d 8b 47 ef 3d
       0.08763879 0.075430796 0.112193175 0.116835676
000070 fa 32 19 3d b8 cb 0a 3d 3c a0 84 bc 78 45 da bc
       0.03740213 0.033885688 -0.016189687 -0.026644453
000080 a4 12 8c 3a 3d 68 0e bd 0c 8c ee bc a6 e9 50 bd
       0.0010686708 -0.034767378 -0.029119514 -0.051004075
000090 1d cf 45 bd 4c ee 14 bd 84 f5 19 3c 90 1f d3 bc
       -0.04829322 -0.03636007 0.009396914 -0.025771886
0000a0 05 27 07 3d 90 4a 7d 3c 53 bf f5 3b bb a9 ba 3c
       0.032996196 0.015459672 0.0074996143 0.022786012
0000b0 cb 4b 3a bb 3c cd 1f bc b0 78 1c bd f8 f1 46 bd
       -0.0028426524 -0.0097535215 -0.038201034 -0.048570603
0000c0 28 72 d2 bc ac a8 04 bb 98 08 3f 3c 9e 2c 86 bc
       -0.0256892 -0.0020242138 0.011659764 -0.016378697
0000d0 ea 5f 61 bc 9a f9 d9 bc 14 25 26 bd 29 ab 07 bb
       -0.013755778 -0.026608277 -0.040562704 -0.0020701385
0000e0 7f 47 95 3a 92 82 9e bc a0 b0 b4 bc a2 a9 0b bd
       0.0011389105 -0.01934937 -0.022056878 -0.03409732
0000f0 e2 85 17 bc d5 18 2d 3c 04 99 ed 3a 5e 5c 0d bc
       -0.009248229 0.010565002 0.0018127267 -0.008627979
000100 f8 8f 33 bc ff 41 3d bc 91 07 32 bd 65 45 3a bc
       -0.010959618 -0.011551379 -0.043464247 -0.011369084
000110 72 ae 98 bd 8d 3a 46 bd 66 00 49 3b 99 47 9f bc
       -0.07455148 -0.048395682 0.0030670404 -0.01944332
000120 0b 43 db bc 05 5a b2 ba f8 66 4d 3d e0 81 22 bc
       -0.026765367 -0.001360715 0.050147027 -0.00991866
000130 b1 d7 ef bc e4 cd 30 bd 47 b5 d6 bc 7a b0 6f bd
       -0.029277654 -0.043165103 -0.026209487 -0.05851791
000140 2f e5 83 bd b1 0c 20 bd e8 56 96 bc 8f 2d 75 3a
       -0.06440198 -0.039074603 -0.018351987 0.0009352797
000150 05 7c d6 3b 2a a8 ce 3c 26 54 03 3c 5f c2 09 3c
       0.006545546 0.025226671 0.008015668 0.008408158
000160 cf c7 02 3d 73 71 19 3d ea 38 d4 3c e4 4f 2d 3d
       0.031928834 0.03746171 0.025906045 0.042312518
000170 96 88 b9 ba 2b 97 3e 3c ab 6e 79 bd 94 dc 93 bd
       -0.0014155086 0.011632721 -0.060896557 -0.07219806
000180 cd a6 15 3d cf d3 82 3b 60 c5 20 3d 5b 35 82 3c
       0.036536027 0.0039925347 0.03925073 0.015894582
000190 72 59 eb 3c a5 31 2b 3d a3 e9 18 3d 23 8c 5e 3d
       0.028729174 0.04179539 0.03733219 0.054332864
0001a0 d6 30 0d 3d cd b6 17 3d 77 a4 71 3d 74 c1 5a 3c
       0.0344704 0.037039567 0.058994737 0.013351787
0001b0 ab 91 66 3d 5c 38 77 3d 48 88 0f 3d 5d b1 72 bb
       0.056291264 0.060356483 0.035042077 -0.0037031986
0001c0 e9 a2 c4 bc 87 0a 25 bd 07 1a 17 bc 21 a1 89 bc
       -0.024003463 -0.040293243 -0.009222514 -0.016800465
0001d0 d8 d8 05 3d 8a d9 fa 3c 6a 14 05 bc 6d 3a 37 3d
       0.0326775 0.030621309 -0.008122543 0.044733454
0001e0 a7 42 8e bc 5a 82 12 bd 21 b4 5f bd b5 57 85 bc
       -0.017365767 -0.035768844 -0.054615144 -0.016277174
0001f0 8a 79 99 bd 67 ea 3e bd 16 63 c5 bd 40 02 84 bd
       -0.07493885 -0.046610262 -0.0963804 -0.06445742
000200 b2 d4 30 bd b2 90 74 bd 47 d2 6e bd b7 b9 81 bd
       -0.043171592 -0.059708305 -0.058306005 -0.063342504
000210 0e d0 10 bd d4 f7 19 bd 7f 8c fb 3b 41 c8 e6 bb
       -0.035354666 -0.037589863 0.0076766605 -0.007042915
000220 03 c0 3a 3c 3e e3 9a 3c 06 32 e1 3a 37 e7 14 3d
       0.011398318 0.018907186 0.0017181046 0.036353316
000230 53 8b ff 3c 33 03 09 bc a8 32 04 bc c3 ed 67 3c
       0.031194365 -0.008362579 -0.008068718 0.014155808
000240 ca 63 ef bc cc 30 63 bd cc 9a 2d bd f4 74 a1 bc
       -0.029222388 -0.05546646 -0.042383954 -0.019709088
000250 3e ff 43 bc 47 03 25 bd 53 8a 1b 3c ab aa 16 bc
       -0.01196271 -0.04028633 0.009493428 -0.009195964
000260 97 e4 7d bc 6a 4b a2 bc 35 da 16 bd 14 03 a8 3c
       -0.015496395 -0.01981135 -0.036829192 0.02050928
000270 b5 95 0a bc 82 6a 28 3a 43 ce f0 bc fc 46 0c 3c
       -0.0084585445 0.00064245623 -0.029395228 0.008561846
000280 01 aa 42 3d 78 1c 78 3d bf 99 13 3c ad b6 87 3d
       0.04752541 0.060574025 0.009008824 0.066266395
000290 69 75 5a 3d a9 a1 03 bc 4f 02 34 3d ef e3 24 bc
       0.053334627 -0.008034148 0.043947514 -0.010064109
0002a0 85 ca f3 3b 14 f0 a5 bc 77 8c f4 bc 87 f3 57 3b
       0.0074399137 -0.02025608 -0.029852135 0.003295155
0002b0 51 9e 64 bc d1 31 36 bc 37 84 8c bd f9 fe 3e bd
       -0.013953761 -0.011120276 -0.068611555 -0.04662988
0002c0 54 26 ff 3c df 38 d2 bb 0a ca 2f bd f8 26 b7 bc
       0.031146206 -0.006415471 -0.04291729 -0.022357449
0002d0 65 d7 82 3b 25 f9 2d bd 4a ed cd bb b0 68 03 3d
       0.003992962 -0.04247393 -0.0062843906 0.03208226
0002e0 fe d9 80 3b 37 dd 31 3c 17 b0 5a 3d ef 43 99 3b
       0.0039322367 0.010855964 0.05339059 0.004677288
0002f0 1e 7a 9c 3c 53 91 4e 3d 16 b7 60 3d dc b6 e2 3d
       0.019101199 0.05043156 0.054862104 0.11070034
000300 60 70 06 3d 1a a8 98 3c cc dd 53 bb 9c c4 62 3c
       0.032822013 0.018634845 -0.0032328246 0.013840821
000310 e3 32 88 3c 63 55 ac 3c 60 21 0e 3c 3f 45 2d bc
       0.016625827 0.02103681 0.008674949 -0.010575592
000320 9d b9 20 3c 68 85 63 ba cb 39 2e 3d de 12 09 bb
       0.009809879 -0.0008679242 0.042535584 -0.0020915787
000330 44 03 c5 3b 77 47 3a 3c 0d 47 87 3b b3 94 18 bc
       0.006012352 0.011369578 0.004128343 -0.009312796
000340 f3 80 68 3d 9b bb 3f 3d 37 84 52 3d ba 27 fa 3c
       0.0567636 0.046809774 0.05139562 0.030536521
000350 3f 38 35 3b af f6 33 3c 5f 8f 60 bc 6f 54 9a bc
       0.0027651933 0.010984107 -0.013706057 -0.01883909
000360 93 f7 7d bd 5e 98 73 bc ee 4a 22 bd ce f5 de bb
       -0.062003683 -0.01486787 -0.03962224 -0.0068042045
000370 41 1e a0 3c a0 15 1a 3d 3a f4 16 3d 0b 8f ab 3d
       0.019545676 0.03761828 0.036854006 0.08376893
000380 71 16 1a bd bf c8 6d bc 1e 2a 24 bb ba d6 3e 3d
       -0.037619058 -0.014513194 -0.0025049518 0.046591498
000390 13 25 e1 3c 99 57 1c 3d 84 c2 21 bc d0 26 42 bc
       0.027483499 0.038169477 -0.009873036 -0.011850074
0003a0 dc 59 86 bc 91 19 87 bd 46 d4 f9 bc cc b3 3d bd
       -0.01640027 -0.06596673 -0.030496728 -0.046314046
0003b0 10 d0 23 bd e5 b7 0d bc dc c0 1b bd 64 b6 3b bd
       -0.039993346 -0.008649801 -0.038025722 -0.045828238
0003c0 85 0a ce bd a4 96 5a bd 7b 3d 87 bd 2b 9c 32 bd
       -0.100606 -0.05336632 -0.06603523 -0.043605965
0003d0 a6 12 23 bd 9c f9 82 bc 7f 1e b1 bc 37 31 b0 3c
       -0.039812706 -0.015988164 -0.021620987 0.021507842
0003e0 81 7b 47 bb 3a 88 4b bd 4f 8b a9 bd 3a 61 f7 bd
       -0.0030438604 -0.049690463 -0.08278524 -0.12079091
0003f0 d0 9a 81 bd 1d 6b 7e bd 1b 9d 98 bb b6 f6 48 bc
       -0.06328356 -0.06211387 -0.0046574003 -0.012265852

tcn.network.0.conv2.bias f4 [16]
000000 c7 04 99 37 50 f3 f6 3b 11 d1 e7 b9 73 dc e8 3b
       1.8241246e-05 0.0075363293 -0.0004421552 0.0071063577
000010 a9 74 70 ba 07 7a 12 b6 c7 d5 d2 36 98 6f 37 b8
       -0.0009172657 -2.1826725e-06 6.2833747e-06 -4.373453e-05
000020 69 0d 2e 3c 20 4a 4b b6 e6 72 93 b6 28 e7 83 b9
       0.010623314 -3.0292504e-06 -4.3943173e-06 -0.00025158492
000030 fd ac 34 b4 8e 8e 81 3b ac 7c af b8 96 69 55 bc
       -1.6826739e-07 0.0039537614 -8.367872e-05 -0.013025662

tcn.network.0.bn2.weight f4 [16]
000000 00 00 80 3f 00 00 80 3f 00 00 80 3f 00 00 80 3f
       1.0 1.0 1.0 1.0
000010 00 00 80 3f 00 00 80 3f 00 00 80 3f 00 00 80 3f
       1.0 1.0 1.0 1.0
000020 00 00 80 3f 00 00 80 3f 00 00 80 3f 00 00 80 3f
       1.0 1.0 1.0 1.0
000030 00 00 80 3f 00 00 80 3f 00 00 80 3f 00 00 80 3f
       1.0 1.0 1.0 1.0
