model/BETA/DTCN_b1_1s_S15.pth (torch, 181815 bytes, 74 tensors)

global_block.conv_time.conv.0.weight f4 [8, 1, 1, 125]
00000000: cb61 333d 187d 8a3d 0bab 103d 8eee 043d
00000010: 616f 21bd 349a 033d da85 38bd 55b3 783b
00000020: 3260 e13b 7fc0 65bd 85ff 103c 2f33 20bd
00000030: e6c3 73bb 27d1 553c 99cc 2dbd 4cc8 623d
00000040: d52c 113d 6372 803d 3307 20bd 1df3 f73c
00000050: 26e4 493d 41e1 b53c 8dd2 bb3b 11e3 e83c
00000060: 1c72 143d 2313 943c a3c9 fe3c 6387 5a3d
00000070: 9fd5 af3d bd29 4fbc 14ba 283d 5667 7dbc
00000080: e76b 623d 98e3 a0bc 42a6 fdbc dd77 c3bc
00000090: 6d2f 0e3d 095a d33b 754e 5b3d 0f69 93bd
000000a0: 18c1 e3bb 6008 80bd 09e2 393a a281 113d
000000b0: 2252 77bc 331c 513c dd47 abbc 610f 6bbd
000000c0: f56c 3f3d 45f8 233d d3cd 763d bf22 7b3d
000000d0: 3c4f daba 1ec2 f43b 7e23 883c 1915 96bd
000000e0: 9405 a1bd 127e 153c 384f 1c3d 1b42 ecb9
000000f0: 0357 7fbc 9a26 f43b 039f 37bc 6040 41bd
00000100: 2670 e63c 332f 203b 422b 1c3d 7cb1 bfbb
00000110: 2630 1cbb 9fac f2bc 1e2a 83bd c222 aabc
00000120: 838c 26bd 938b ab3d 93fd a83c 5874 06bd
00000130: 6d01 8d3c 8f19 173e 0901 453e 108a c9bb
00000140: be1b 86bd 01c2 6ebc 70ce abbd 8ec9 fbbc
00000150: 50be aebd 5635 2c3d a5b1 4bbb 6983 c5bd
00000160: 20f3 87bd 7772 02bd 7402 71bd 18ec afbc
00000170: e90d dabd 197b c4bd 7064 4a3c 0b9e eebc
00000180: e5ec 883d efbc 1a3e abc7 fb3d c496 983c
00000190: 2589 e83b 2003 0c3d b769 7ebc cbe9 4fbd
000001a0: 4afd 263d 19dc d03d 7075 233d 393f 88bd
000001b0: da5d b5bd abb7 80bd c9fe 193c d95d b5bc
000001c0: d848 6fbb f96e 9dbc 138d bf3c 0a70 953c
000001d0: 4423 83bd 7eb3 d5bd af29 08bd 7f84 8dbc
000001e0: f1e6 4bbd a601 b83c 96c9 a73d 31dd 89bc
000001f0: a12d 9cbc 21e6 233d 53c3 adbc ee66 27bb
00000200: 602a ed3d 20cc 2c3c a674 623c cd0b eabc
00000210: 146a d23c f15c 313b 3b90 c8bb b4ec aeb8
00000220: 9686 8d3b e9d7 893c 7a8c 7c3d a301 983d
00000230: d793 6cbd 440e 913d 1b56 863c 7779 073d
00000240: 0405 ba3d 3160 22bd 3dee 1dbd 4cb5 c73c
00000250: 03dd 3a3c 619f fabb e7b0 233a cde6 4a3d
00000260: 0b14 84bb 111a 543c f631 52bd 4aaa 223d
00000270: 3b44 d23c 5040 b0bc 4aab 1dbc 594f f2bc
00000280: f71d 5abc a17a 83bc 323e b43c e42a b2bc
00000290: 9c24 bfbd 6ac1 91bd da11 96bc 0c71 81bc
000002a0: 010c 1e3d ad4d 873c c2fb 21bc 07ff 0fbd
000002b0: 60bc 4f3d 5c05 11bb 0ab8 6fbc ef28 5f3d
000002c0: b948 2fbd db3c 56bd 3c4f 25bd ab4b 6abc
000002d0: ce24 eabd 3d4a 013d 5e65 ba3c e5e5 3e3d
000002e0: 48e6 21bd 2c28 a13c b669 333d f447 7fbc
000002f0: 8af4 6c3d 653d 07bd 2c72 863b 45c1 9abd
00000300: 8915 b0bc 976d 163c f99d 8e3d 2b7c 8e3d
00000310: 7aac 2c3c 3a9a bbbc 7f0f 0cbd a5b4 193d
00000320: bb48 62bd d7e0 463b f2f7 57bd 6cac fc3d
00000330: a687 613e 3d0b 253e 6183 fe3c 7c41 7dbd
00000340: f771 cbbd 21cd 2ebc e204 b13c 741d f7bb
00000350: 3e64 123d 98c7 e03c 152b f4bd 21c9 bcbd
00000360: 3c3d 8cbd 7831 28bd 9a5b 64bd 1d8d 053c
00000370: 368c f53a a35b b1bc 3297 b03b 4500 e73b
00000380: d603 dabd 12eb d43c b97f eb3c 2f42 c43d
00000390: eff0 3abd cca3 3bbd baf6 263d f68c 29bd
000003a0: b5cd e6bc 5d49 913d 8f6b af3c e574 ddbd
000003b0: 81ce 4a3d 4dff 213d 740c aa3d 36dd 32bd
000003c0: 0915 a2bd f5dc 75bd 5f64 87b9 294d cabc
000003d0: ac65 b13c 3048 63bd 04fa 80bd 48d1 e8bc
000003e0: 4e8e c7ba f9af 95bd 7954 ebb9 aa4b b3bd
000003f0: d514 05bc 8e25 0e3c 5c58 8fbd bb38 95bc
0.043794435 0.06762141 0.03531937 0.032454066 -0.03941286 0.03212948 -0.045049526 0.0037948687
0.0068779225 -0.05609178 0.008849983 -0.039111312 -0.0037195622 0.013050354 -0.042431448 0.0553668
0.035443146 0.062718175 -0.039069366 0.030267293 0.049289845 0.022202136 0.0057318867 0.028428586
0.036241636 0.018075531 0.031102007 0.05335177 0.08585667 -0.0126442285 0.041193083 -0.015466532
0.055278685 -0.019639775 -0.030963067 -0.023860866 0.034713197 0.006449942 0.05354162 -0.07197773
-0.006950509 -0.062515974 0.0007090872 0.035524018 -0.015095266 0.012763071 -0.02090829 -0.057387713
0.04673477 0.04003169 0.060254883 0.061312433 -0.0016655694 0.0074694296 0.016618486 -0.07328243
-0.07862392 0.009124296 0.038161486 -0.0004506268 -0.01558471 0.0074508907 -0.011207345 -0.047180533
0.028129648 0.0024442195 0.03812719 -0.005850015 -0.002383241 -0.029623328 -0.064045176 -0.020768527
-0.040661346 0.08376231 0.020628726 -0.032825798 0.017212594 0.14755844 0.19238676 -0.0061504915
-0.0654826 -0.014572621 -0.08388984 -0.030735757 -0.08532393 0.042043053 -0.0031081226 -0.09644205
-0.06638169 -0.031847443 -0.05884023 -0.021474883 -0.106471844 -0.095937915 0.012353048 -0.029128095
0.06685809 0.15111135 0.12293943 0.018626578 0.007096427 0.034182668 -0.015528134 -0.05076007
0.0407689 0.1019823 0.03990692 -0.06652684 -0.088557914 -0.06285032 0.009399124 -0.022139477
-0.0036511924 -0.019217955 0.0233827 0.018241901 -0.06403211 -0.10434626 -0.033242878 -0.017275093
-0.04978079 0.022461724 0.08192746 -0.016829105 -0.019064726 0.04001439 -0.021211302 -0.0025543529
0.11580348 0.010546714 0.0138217565 -0.02857008 0.025685348 0.0027063454 -0.0061207092 -8.341056e-05
0.0043190224 0.016826587 0.061657406 0.07422187 -0.05775818 0.07082799 0.01639848 0.033074822
0.09082988 -0.039642517 -0.03855728 0.024378441 0.011405232 -0.007648394 0.0006244317 0.049536515
-0.0040307096 0.012945668 -0.051317178 0.03971318 0.0256673 -0.021515042 -0.009623358 -0.029578852
-0.013312808 -0.016049685 0.022002313 -0.021748967 -0.093331546 -0.07116969 -0.01831906 -0.015800975
0.038585667 0.01651653 -0.009886684 -0.035155322 0.050716758 -0.0022128439 -0.014631281 0.054482397
-0.042793963 -0.05230413 -0.040358767 -0.014300267 -0.11432801 0.03156494 0.022753414 0.046605963
-0.039526254 0.019672476 0.043801986 -0.01558112 0.057850398 -0.033017535 0.004102966 -0.075563945
-0.021494644 0.009181402 0.06963725 0.06957277 0.0105391685 -0.02290069 -0.034194466 0.03752579
-0.055245142 0.0030346417 -0.052726693 0.12337574 0.22024402 0.16117568 0.031068506 -0.06183003
-0.099338464 -0.010669024 0.021608774 -0.007541353 0.03574013 0.027438924 -0.1192228 -0.0921805
-0.06847617 -0.041062802 -0.05575142 0.00815132 0.0018733803 -0.021650141 0.0053891176 0.0070495927
-0.10645263 0.025990997 0.028747426 0.09582936 -0.04563993 -0.045810506 0.04076264 -0.041394196
-0.02817426 0.07094071 0.021413593 -0.108133115 0.049513344 0.039550114 0.083031565 -0.043667994
-0.079141684 -0.060025174 -0.0002582399 -0.024694996 0.021654926 -0.055488765 -0.06297687 -0.028420106
-0.0015224905 -0.07308955 -0.0004488563 -0.08754666 -0.0081226425 0.008675946 -0.06999275 -0.018215528

global_block.conv_time.conv.0.bias f4 [8]
00000000: 9e37 8eb8 96b7 5f3c 3775 5b3c 9d61 713c
00000010: cbb4 09bd 094a b2bc fabd f4b7 5ec2 bc35
-6.781447e-05 0.01365461 0.013394645 0.0147327455 -0.033619683 -0.021763818 -2.9175531e-05 1.406366e-06

global_block.conv_time.conv.1.weight f4 [8]
00000000: d4fc 7a3f 382c 7f3f 385a 663f 2888 603f
00000010: 1d36 873f a48a 5d3f 0d97 763f c4d7 713f
0.98042035 0.9967685 0.8998141 0.8770776 1.0563389 0.86539674 0.96324235 0.9446986

global_block.conv_time.conv.1.bias f4 [8]
00000000: f190 11bd 4d0f e1bc 6c50 133e 8f37 de3b
00000010: 6aa6 2abd 0110 883d 6041 3ebd adeb 843c
-0.035538618 -0.027473116 0.14386147 0.0067815254 -0.04166261 0.066436775 -0.046449065 0.01622566

global_block.conv_time.conv.1.running_mean f4 [8]
00000000: 7fb3 b83c 217c 123c 6f49 ea3c 9252 54bb
00000010: d7e8 2ebd c0bb 76bc daae 5ebc 63b9 0c3c
0.022546528 0.008940727 0.028599469 -0.0032397849 -0.042702522 -0.0150594115 -0.013591493 0.0085891215

global_block.conv_time.conv.1.running_var f4 [8]
00000000: f929 cf41 5207 b741 d34f a341 f9b6 a841
00000010: f893 b441 362c ad41 777c ca41 7318 b841
25.895494 22.878574 20.413977 21.089342 22.57225 21.646587 25.310774 23.011938

global_block.conv_chan.conv.0.weight f4 [8, 8, 11, 1]
00000000: be6e d6bd 7059 abbc c3e3 d6bb e38a 93bd
00000010: 384e a83d 7a41 873d 5496 163d 03af aabd
00000020: 00ef 023d 6240 42bd 7c0a e23d d031 973d
00000030: a090 86bd 376e 6dbd 99d9 c73d 6d18 963c
00000040: 6189 c23c 1c40 39bc 2966 fdbd c10e b03d
00000050: 29b4 47bd 9aa1 2f3d f842 8fbd cabb 133c
00000060: 3beb 333d ac1b 39bd 5aa6 1abc 5a0f 91bd
00000070: 983f 873d f526 11bd 1830 78bd 17fa 42bd
00000080: dfdd d3bc 5120 6f3d 81eb 22bd e2e8 50bd
00000090: 8bb4 00bd 3cde b6bc e1c3 4f3c b919 15bd
000000a0: 3a6b d9bd 8d52 5f3b cc1f 4c3d 3019 a33d
000000b0: c8e8 c9bd ff39 8a3d 797a b8bb 27e3 8fbd
000000c0: cdc9 c0bd 641e 08bd 2e9e fa3d d13f 9e3d
000000d0: 784f 4a3d 9099 c4b9 b540 19be d8c2 03bb
000000e0: c86b 283d 6756 ad3d 6ba5 f3bc c45f 26be
000000f0: 0457 473d 01fe c93d 186f 133e 65e9 3abc
00000100: 828e b93d 3703 87bd e598 883d f473 2abd
00000110: 32db 1d3c 6693 573c 3ca5 7b3b f93a 60bd
00000120: 16c6 d03c 7225 0dbc d283 063d 77ca 143d
00000130: 7b60 0cbd e2a9 77bd 24b3 4abd 68d0 47bd
00000140: 5faa b2bc 5d70 2dbd c8aa f63d f653 a03d
00000150: e4a4 fdbd be4c a83b e68e 8cbc a85e 863c
00000160: 9580 a83c 1e05 6fbd 5b67 c9bc 9e69 a13c
00000170: 2f7f 0e3c 694d 2fbd 99ab dabb 61b5 d73c
00000180: e27e 123d 5889 863d 8bd8 debc 9b04 9bbc
00000190: 9dd7 efbd d5ee db3b 4b5a a83a 32a9 173d
000001a0: 931c 1bbd 348c f3bd c9e8 043d b551 303d
000001b0: 4e47 8d3d cd3f b53d 1502 ce3d 3987 33be
000001c0: 2a97 fcbc cfb3 b8bd 4562 5e3d 2e5b 983d
000001d0: b2a6 a5bd ebe4 adbd 8a85 76bd da7e 8c3d
000001e0: bddc a93d d026 cabc 1e49 7dbd 8446 5dbd
000001f0: c4b2 843d 651a f63b 7e5b e3bc a1a8 953d
00000200: 7e80 b93d 86cd d63d 0e91 04bd 322a cdbd
00000210: d3ae 713d f1be fa3d 86f9 37bc 4e18 65bd
00000220: 7f3d bd3a 4a72 bcbd 9160 0a3d fa8d cb3d
00000230: d2f7 673d 5c7f dabd 2492 37bd 5800 95bd
00000240: 6566 da3d bf06 cd3c 558a 02bd 88ab 01be
00000250: d049 9ebc 7496 693d a229 37bc abca 71bd
00000260: a196 46bd 77a7 7f3d 263d 71bd 586a 1dbe
00000270: a682 943b 05f7 8f3d 5d1b 2c3d 337d 49bc
00000280: fa0e b1bc 0e45 a83c c3c3 303d 6971 e9bc
00000290: f177 b53d 7958 34bd 70e1 803c cef3 ff3c
000002a0: 1225 05bd e0a2 debd c34a 173d 31e6 863c
000002b0: 43ad dc3d 51d8 7abd 7d9f 39bd e1b0 1bbd
000002c0: 02f9 89bc e229 fdbc 95ed cfbd 64d0 c13c
000002d0: 02ea 653d 7220 83bc 1e7b cabd 9cd7 143d
000002e0: 4892 f93b cc57 333d 29d4 c83b 6bdc 8dbd
000002f0: 9ada 59be 6883 aabc 2785 ca3c b45e c83d
00000300: 530e 2ebd b684 843c 8887 873d ad14 6f3d
00000310: 970c 903c d389 a73d a2f3 423d 6c51 1b3e
00000320: 2a81 d7bd 2476 6ebd 3448 52bd d8ab 91bd
00000330: 36a9 703d 8919 1a3e 3ad9 883d a064 35bd
00000340: 822d 6bbb 28da ac3c 544a f83b aff3 973b
00000350: 95cd d9bd 4551 82bc e70a b5bd fa56 15bd
00000360: 7c43 013e 684a adbb a176 40bc 9b85 bcbd
00000370: 1cd7 50bd 2a7f 1dbe 74d1 373d 4ab4 b73d
00000380: 8900 1c3d 85d0 b33d c4a3 c6bd bb2f 263d
00000390: e761 a33c a0ea 79bd dcac 2e3c 1877 b7bc
000003a0: 538f 963a 06fc 983c fa20 ea3d 93ca 46bd
000003b0: f5e9 d03b 646f ebbd 42bf a9bd c975 f6bd
000003c0: ad12 313d 61e7 3f3d 616e c9bd 87b8 033e
000003d0: 30c8 7abd a0e3 f4bd 3f22 9abd 19d1 1bbc
000003e0: b92b b23d 116e f7bb 36d6 953d 8221 4e3d
000003f0: 6f7b 82bd 0807 26bd e3f1 0fbd 3fb7 4b3c
-0.10470341 -0.02091667 -0.006557913 -0.07204225 0.08218044 0.066042855 0.036764458 -0.08334162
0.03196621 -0.04742468 0.11037156 0.07382548 -0.06570554 -0.057966437 0.097583 0.018322194
0.023747148 -0.011306789 -0.12373001 0.08596564 -0.0487558 0.042878725 -0.06995195 0.00901694
0.043925505 -0.045192406 -0.009439075 -0.07083006 0.066039264 -0.035437543 -0.06059274 -0.047601786
-0.025862632 0.05838043 -0.039775375 -0.051003344 -0.03142218 -0.022322766 0.0126809785 -0.036401484
-0.10616155 0.0034076304 0.04983501 0.079637885 -0.098588526 0.06749343 -0.0056298343 -0.07025748
-0.094134904 -0.033232108 0.12237202 0.07727016 0.049392194 -0.00037498446 -0.1496609 -0.002010515
0.041118413 0.084637456 -0.029741963 -0.16247469 0.04866697 0.098629005 0.14397848 -0.011408185
0.09060384 -0.0659241 0.06669787 -0.041614488 0.00963478 0.013157701 0.0038398048 -0.05474374
0.02548508 -0.008614885 0.032840557 0.036325898 -0.0342717 -0.060464747 -0.049487248 -0.048782736
-0.021809755 -0.042343486 0.12044293 0.07828514 -0.12384966 0.0051361015 -0.017157983 0.016402557
0.020569125 -0.05835449 -0.024585417 0.019703683 0.008697315 -0.042798433 -0.006673288 0.026331605
0.035765536 0.06569165 -0.027202865 -0.018923094 -0.11711047 0.0067118206 0.0012844292 0.03702659
-0.037869047 -0.11891976 0.032448564 0.043046672 0.06898366 0.0885006 0.10058991 -0.17532052
-0.0308338 -0.09018671 0.054292936 0.07439266 -0.08088435 -0.08490928 -0.060185947 0.068601325
0.082940556 -0.02467671 -0.061837308 -0.054022327 0.06479409 0.0075104707 -0.027753588 0.07307554
0.09057711 0.10488419 -0.032364897 -0.10017814 0.059004616 0.122434504 -0.011228925 -0.055931382
0.0014437883 -0.092014864 0.0337835 0.09939189 0.056632824 -0.10668823 -0.044817105 -0.07275456
0.106640615 0.02502763 -0.031870205 -0.1266309 -0.019322306 0.05702825 -0.01117936 -0.05903117
-0.048483495 0.062415566 -0.058896206 -0.15372598 0.004532176 0.07029537 0.042018283 -0.012297916
-0.021613587 0.02054074 0.043155443 -0.028496461 0.08860768 -0.044029687 0.015732497 0.031244185
-0.032506056 -0.1087091 0.036936533 0.016467186 0.107752346 -0.06124145 -0.045318116 -0.03801048
-0.016842369 -0.03090376 -0.10152737 0.023658939 0.05613137 -0.016006682 -0.09886764 0.036338434
0.007616315 0.0437849 0.006128807 -0.06926807 -0.21274796 -0.020814613 0.024721695 0.09783688
-0.04249413 0.016176563 0.066176474 0.058369327 0.017584128 0.08180585 0.047595628 0.15167779
-0.10522683 -0.058218136 -0.05133839 -0.07112855 0.058755122 0.15048803 0.06682058 -0.044285417
-0.003588528 0.021100119 0.00757722 0.0046372036 -0.10634915 -0.015907893 -0.0883997 -0.0364599
0.126234 -0.005288411 -0.011747033 -0.09205171 -0.050986394 -0.1538054 0.044877484 0.08969934
0.038086448 0.08780006 -0.096992046 0.040572863 0.019944144 -0.06101477 0.01066133 -0.022395656
0.0011486806 0.018674862 0.11432071 -0.048533034 0.006375546 -0.114958555 -0.08288433 -0.120341845
0.0432307 0.04685152 -0.09835506 0.1286336 -0.06122607 -0.119574785 -0.07526063 -0.009510302
0.08699746 -0.0075509627 0.07316248 0.050324924 -0.06371199 -0.04053405 -0.03514279 0.012433826

global_block.conv_chan.conv.0.bias f4 [8]
00000000: 63d0 19b9 4a99 7737 1bde acbc d904 2ebb
00000010: 1351 543c 8a81 23bd 22e3 1638 c753 c4b7
-0.00014668847 1.4758038e-05 -0.021102002 -0.0026553182 0.012958783 -0.03991846 3.597432e-05 -2.3404033e-05

global_block.conv_chan.conv.1.weight f4 [8]
00000000: 26d9 773f d734 813f bbc7 873f 234b 6b3f
00000010: 368f 733f 3d08 613f c267 7e3f 2d34 6c3f
0.9681572 1.009425 1.0607828 0.91911525 0.951404 0.87903196 0.9937707 0.92267114

global_block.conv_chan.conv.1.bias f4 [8]
00000000: 1477 78be ab1f 0ebe 69de 36be 954c 01be
00000010: d10f 1bbe 923c 4ebe 1424 4ebe 5f4f 36be
-0.24264175 -0.13879268 -0.1785828 -0.1262687 -0.15142752 -0.20140293 -0.2013095 -0.17803715

global_block.conv_chan.conv.1.running_mean f4 [8]
00000000: c30b c8bd e2d5 c5bd 15bf 17be ec02 9fbd
00000010: 856e 1b3e 7c76 00bd ce88 b6bc ad18 df3c
-0.09767868 -0.096599355 -0.14818986 -0.07764229 0.15178879 -0.031362996 -0.02228203 0.027233446

global_block.conv_chan.conv.1.running_var f4 [8]
00000000: 0c4d b93d 05e1 e23d 2b63 073e 9938 ec3d
00000010: 39d3 1b3e 532f 153e d9c9 ac3d a95a 943d
0.09047899 0.11078075 0.13221423 0.11534233 0.15217294 0.14568834 0.08436937 0.072438546

local_block.conv_time.conv.0.weight f4 [8, 1, 1, 51]
00000000: 6aab 80bd d785 b43c 1a04 023d d388 0ebb
00000010: 104d 3dbd 8e2f 10be 8a5d 053d c4fa 63bc
00000020: 4df7 e13d af3b 143c 1b8b 4abd b39f 833c
00000030: 5a9c e03d e148 a8bd 6648 943c 49de 27bd
00000040: 359a 38bd 1f2b 0e3e 715d 1e3e 6dc7 3c3d
00000050: 3f89 26be af2d 6abd 8534 20bd c8df 05bd
00000060: b6d0 b63c 8fd7 f03d 0359 d33b 89cc 0bbd
00000070: ba9e 513d 3362 f33d 9827 b33c 331c 943d
00000080: 3544 423d 5c0d c5bd 6ad7 cd3d 8040 063e
00000090: 38c0 90bb 661b 6ebe fb14 8ebd efcf a53d
000000a0: 633b cf3d ab3c bcbd 8117 033e 8e1d ee3d
000000b0: 0756 e83c 67ea 49bd 9640 293c 1b79 43bd
000000c0: 9e37 cbbc c51a 973d e6f1 0cbd 8514 253d
000000d0: 4706 62bd ed98 5ebd 302e b0bd bf1d fcbb
000000e0: 5915 79bd 0863 3ebd d62e 553d 3e42 c0bd
000000f0: 106b 1e3d 9cd8 72bd f1fa 1e3e 4c38 023e
00000100: ad39 70bc 1366 8cbc 2447 17bc 185f 0bbc
00000110: e318 cebd 424c cdbc 84e2 a5bc 34d0 d1bd
00000120: b42d 313d 7aa2 65bd 74d5 e7bc 3ce6 713d
00000130: 6c37 17bd cb2f 643a b0b6 973d 3c2c 073e
00000140: 34e8 973d 2901 8dbd 9062 903a 9c59 54bd
00000150: c1e3 1d3d 59c6 b43d e321 4abd fc94 073d
00000160: a4ab 293d c229 e43d d11a af3d 508e 423b
00000170: 492a b6bc a89e dcbd 9e22 32bd 2811 3b3d
00000180: b765 353e 6802 043d 9658 803d 76f2 f6bc
00000190: fca0 a13d ada6 b9bd 5a3b 55bd 684c 02be
000001a0: 9dee 603d dd96 52bd 6a49 04bd 1e5e 843d
000001b0: 4da8 383d b7c1 373d a6ae 093e 2c9f febb
000001c0: f7b7 e03d 5cee 833c aa12 31bd 4ccb d5bc
000001d0: e101 20bd 028a 14bd dd8b 33bd e138 9fbc
000001e0: fe92 d4bd 0055 fa3d 5b38 153e 3af8 933d
000001f0: a8aa 9b3d d8c6 8cbd 54e4 88bc 6e94 93bd
00000200: 615d 9e3c 90d0 85bd f825 78bd 2d1a 613d
00000210: 63e5 f03b c851 72bd 18bd 37b9 00b4 6cbd
00000220: 9720 123d 5ccd 9ebd 5060 6a3c cd6a 223e
00000230: 8341 513d 2021 053e 0d47 d43d 40dc cdbd
00000240: 88ee 40be d092 e8bc 6ada adbd dc5e c2bd
00000250: 0a60 dcbd 6838 ee3d 4c1a 083e b681 54bd
00000260: f3c5 cbbc 202b 643d 7f45 ca3c 7493 c8ba
00000270: 0000 f23c eb83 623d d395 debc 48e8 423b
00000280: 764a 163c 61ae ce3d 4533 93bd aef8 bdbc
00000290: 793b 6a3d a1c7 0dbe e6eb 9cbd b16d 763d
000002a0: 65b5 9ebd 867c 953c adb0 303b 2b35 6d3d
000002b0: 2dd0 123e 6dd1 273c 0b49 8ebd ea36 663d
000002c0: 9622 abbd 1439 19bd 24a9 363d ba34 03bd
000002d0: d4b6 4fbd 73ef 56bd cb9a a93d f167 84bd
000002e0: 9acf bb3d f24d 82bd 6857 b43d 73d3 163e
000002f0: 2a78 8d3c 03b5 aebd 7997 4a3d cce5 e33c
00000300: 7687 bcbd a398 22be 3756 bf3d befa b6bc
00000310: 68be cc3b 7a9a 31be c7cd cbbd bd53 803d
00000320: 0736 acbd b21a 803d 503b 963b c1e0 2c3e
00000330: 5935 44bd a55e ac3d 685f dfbd c19e 32bd
00000340: 56f2 b6bc 61f8 c0bd f74c f73c 2651 28bd
00000350: 463d 033d fc24 b33c c76f 83bd b2aa 85bd
00000360: ee19 ebbd e0ce 323b 0345 693c 3f92 68bd
00000370: e9c5 663d 6901 f6bd cf60 623c d72f 613d
00000380: 662d 04be 154c 95bd b9c4 67bc f19a 64bb
00000390: 1379 223d ebea 413d 5896 953d 228b e3bc
000003a0: e1d2 b6bd e52e ddbc 9618 b23c 09bb bebc
000003b0: e635 32bd 11bd b03d 1b74 063c c03e 23bd
000003c0: 8dc9 913d 4178 adbd f27b e4bd 91cf 86bb
000003d0: 9600 20be c00f c5bd 9a76 2c3e e5db 243e
000003e0: 30e8 f5bd 8adf 00be 6a2a 35be 46e2 f0bc
000003f0: 05be 6fbc 2cfd 223d b4d1 c93c d322 cb3c
-0.06282695 0.022036476 0.031742193 -0.0021749034 -0.04621607 -0.1408064 0.03255991 -0.013914768
0.11033497 0.009047433 -0.049449068 0.016067361 0.10967322 -0.082170255 0.018100929 -0.040983472
-0.04506894 0.13883637 0.15465333 0.046088625 -0.16263293 -0.057172474 -0.039112587 -0.032684118
0.022316318 0.117598645 0.00644982 -0.034130607 0.051176764 0.118839644 0.021869466 0.07231941
0.04742833 -0.09621689 0.100508526 0.13110542 -0.0044174455 -0.23252639 -0.069375955 0.08096301
0.10118749 -0.09191259 0.12801935 0.11626731 0.028361334 -0.04929581 0.01033034 -0.047722917
-0.024806794 0.07378153 -0.03441038 0.040302772 -0.055181768 -0.05434506 -0.086025596 -0.0076939757
-0.060811374 -0.046481162 0.05204662 -0.09387635 0.03867632 -0.059288606 0.15525414 0.12716788
-0.0146621885 -0.017138517 -0.00923327 -0.008506559 -0.100633405 -0.025060777 -0.020249613 -0.1024479
0.043256477 -0.056063153 -0.028300025 0.05905746 -0.03691809 0.00087046315 0.07407892 0.13200468
0.07417336 -0.06884987 0.0011015702 -0.05184327 0.03854728 0.08826894 -0.049348723 0.033101067
0.041423455 0.11140777 0.08550037 0.0029686876 -0.02223696 -0.10772449 -0.043490045 0.04567066
0.17714582 0.032228857 0.062668964 -0.030144911 0.078920335 -0.09064994 -0.052058555 -0.12724459
0.05491506 -0.051413406 -0.032296576 0.06463264 0.04508238 0.044862475 0.1344553 -0.0077704396
0.109725885 0.01610487 -0.04323069 -0.026097916 -0.039064292 -0.036264427 -0.043834556 -0.019436302
-0.10379599 0.12223244 0.14572279 0.0722508 0.076009095 -0.06873864 -0.016710438 -0.07206045
0.019331636 -0.06533921 -0.060583085 0.054956604 0.007351564 -0.059160024 -0.00017522683 -0.05778885
0.03567561 -0.07754013 0.014305189 0.15861054 0.051087867 0.13000917 0.10365114 -0.10051775
-0.18840992 -0.028390318 -0.08488925 -0.09490749 -0.107605055 0.116318524 0.13291281 -0.051881514
-0.024874663 0.05570519 0.024691341 -0.0015302734 0.029541016 0.055301588 -0.027171051 0.0029740501
0.009173026 0.10091854 -0.07187513 -0.023189869 0.057185624 -0.13845684 -0.076621816 0.060163204
-0.07749442 0.018247854 0.0026960776 0.057912033 0.14337225 0.010242802 -0.069475256 0.056204714
-0.08356206 -0.03740795 0.0445949 -0.032032706 -0.050711468 -0.05247445 0.082814775 -0.06465138
0.09170456 -0.06362523 0.08805734 0.14729099 0.017269213 -0.08530619 0.04946086 0.027819537
-0.092055246 -0.15878539 0.09342616 -0.02233636 0.006248284 -0.17344084 -0.09951358 0.06265972
-0.084087424 0.06255092 0.0045847073 0.16882612 -0.04790244 0.084164895 -0.10906869 -0.04360843
-0.022332352 -0.094223745 0.030188067 -0.041093014 0.032040857 0.021868221 -0.06417804 -0.06526698
-0.11479555 0.0027283952 0.014237645 -0.056780096 0.056341086 -0.12011988 0.013817026 0.054977264
-0.12907943 -0.07289902 -0.014146023 -0.0034882391 0.039666247 0.047343176 0.073040664 -0.027776305
-0.08926941 -0.0269999 0.02174024 -0.023282545 -0.043508433 0.086298116 0.008206393 -0.039854765
0.07118521 -0.08470202 -0.11156453 -0.0041140993 -0.15625224 -0.09622145 0.16842118 0.16099508
-0.12007177 -0.12585273 -0.17691961 -0.02940477 -0.0146327065 0.039792225 0.024636127 0.024796879

local_block.conv_time.conv.0.bias f4 [8]
00000000: 6d57 903c 008b 85bd ada7 a03c c6f2 8e3d
00000010: b323 153d 9aa5 613d 3304 923d 615f 523d
0.017619813 -0.06520653 0.019611204 0.06979899 0.036411 0.05508957 0.07129707 0.05136049

local_block.conv_time.conv.1.weight f4 [8]
00000000: dd1a 803f e688 703f be95 573f 4ebc 683f
00000010: 6d30 583f 90bf 893f 0163 673f 60e9 833f
1.0008198 0.9395889 0.84212863 0.9091233 0.8444889 1.0761585 0.9038544 1.0305595

local_block.conv_time.conv.1.bias f4 [8]
00000000: b3d0 123d 03c2 733d d866 b03c e5da ae3d
00000010: fbe0 2cbd 7c90 93bc 8358 113e baa6 28be
0.035843562 0.059511196 0.021533415 0.085378446 -0.042206746 -0.018013231 0.14193921 -0.16469851

local_block.conv_time.conv.1.running_mean f4 [8]
00000000: 4cfa de3c e706 a1bd b1cc ee3c 7cb4 a23d
00000010: 281f d53c 6ac1 6d3d 977b ee3d fee4 063d
0.02721896 -0.07862645 0.029150339 0.07944581 0.026015833 0.058045782 0.11644667 0.032933228

local_block.conv_time.conv.1.running_var f4 [8]
00000000: f552 9441 8f81 6941 082f ab41 1171 6041
00000010: ec3f 7b41 8582 7641 397e 7841 99d2 5941
18.540506 14.5941305 21.397964 14.027604 15.703106 15.406865 15.530816 13.613915

local_block.conv_chan.conv.0.weight f4 [8, 8, 11, 1]
00000000: 655f a9bb 66f3 5f3d 965f 7abc b049 40bc
00000010: b7a6 c33c 25a4 043d 0a27 55bb e2af f6bc
00000020: cfe4 35bd 105e 3d3d 7c35 99bd 6864 f53b
00000030: 906b 333d 3ecc 623d bebd f3bc 8570 fa3d
00000040: 9c8a 663d 393e 0bbd 7704 35be 879d 0c3c
00000050: 1238 2a3d 0be7 703d 7e55 d03c 97a2 b13d
00000060: 073b b33c 54f5 a23d 2859 693c 99f6 03bd
00000070: 72ef eabc 2502 323c ede9 a6bd bc52 f63c
00000080: 55ae e7bd 8e90 7ebc 61a2 c2bc 111d 37bd
00000090: ef6a 723c 3f28 03bc 5722 923d cf01 b63c
000000a0: 2799 7d3d 263a bdbd 90a0 a3bb 7898 a73d
000000b0: 2186 4d3d 036d 37bb 8b70 93bd cb2c abbb
000000c0: 10f2 423c 736b 0dbd 815d 863d b269 d13d
000000d0: 809e 7abc 823f 5c3c 86a7 03bd 6f6f bbbc
000000e0: 9599 273e 5623 fe3c 12e4 a53d e5d2 cf3c
000000f0: ca18 c2ba d4c1 d63d 4355 e0bd c510 febd
00000100: 442e 47bb 485d bc3c aeb0 923b 7955 b23d
00000110: 1b7a 7dbc 535e ff3d 9077 1bbd db3f a1bd
00000120: e699 b5bc 568e fe3d 830a 233d 3427 79bd
00000130: f244 9cbb 466a adbc 357a 3b3d 2286 4a3d
00000140: 6df4 59bc d2ce 8d3c 1238 70bd f144 943d
00000150: 782d 693d 2924 c43d 8cd9 7fbd d121 d3bd
00000160: 1dbe c13b 376c 76bb e585 683d df97 acbc
00000170: 0023 c13d 3b7b 063b d7ee 183c a859 2dbd
00000180: 9b2c 2dbd 5f93 1b3d d2a8 cebc 524a 31bd
00000190: 5739 b83d 5aa3 7c3d 44a3 a63b 3301 05bd
000001a0: e0a9 40bd 42de 893d 59e2 3e3d 66dc 81bd
000001b0: b9d7 cd3d f36d 79bd 5310 e3bd 85a9 533d
000001c0: d30d babd c043 3abb 869b 503d 5d70 9dbd
000001d0: 24a0 663d f2be 7d3e f381 003d 9882 02bd
000001e0: 6b5f ebbc 4661 953d 4b04 b3bd c550 68bd
000001f0: a45a 84bd ed82 bfbb bb93 193d 91ba 19bc
00000200: 9aeb 32ba 6cb3 11bd da80 9cbd eeae f53d
00000210: 14c4 8f3c 9a01 b439 6b32 163d 9c6a 1cbd
00000220: 14db f4bc 63af 933d a0f9 2bbd ddac 36be
00000230: 904f 3d3d 46fc c6bc 0c12 a23c fc90 493d
00000240: 9c3b d6bd ad7d d5bc d4da 7f3d 2587 6bbd
00000250: 8c0d 203b 0125 553d 90ad 28bc fb45 183b
00000260: e77d ce3d d713 24bd 9520 30bd 6491 39bd
00000270: ed6e a3bd d30a 943c 51cc 1bbb 2745 5abd
00000280: cecf 0d3d 7273 283e 5d45 2d3d 9eb6 bdbb
00000290: 46ca 4ebb 2404 f73c fcc9 bb3d 2435 50bd
000002a0: d759 183d 62a6 243d dd0a c5bc b351 a2bd
000002b0: 77c4 9d3d 11b0 293d 4b33 9dbb 8f77 81bd
000002c0: 5513 e63c d519 9dbd 2f2e c4bd 29df 2e3e
000002d0: 5f04 ee3d 0c6a 31bc 7649 01be 6c55 d9bc
000002e0: 65bf 013d 4fe2 753d 20d0 843a a779 dfbd
000002f0: 115a 0abe fc79 8fbd 2291 be3d 321a a33d
00000300: 57e7 6e3c d698 183b 4f2f 7f3d dbf4 0a3d
00000310: b3f8 bfbc d115 713d 42a6 553b 7816 5abd
00000320: 0f29 983d b683 b1bd ce3c 6a3d ef62 80bc
00000330: 90c7 633d be45 463c a28a 283d 33b9 26bd
00000340: 09b6 f0bc c67b 91bd da57 7a3d 8e11 3cbd
00000350: a037 fe3c cf86 7a3d 310f a03c 082b bbbd
00000360: 24b4 a1bc 89fb 8ebc 07d9 e73d 4161 37bd
00000370: af8c 26bd 87fd f63b c11f 0ebc d18a 063d
00000380: 29d9 1d3d c1bb c93d 1b3b 953c 31f0 7bbd
00000390: db07 9abd 66a2 203c ce00 a33b 4e62 1bbd
000003a0: 9c0e eebd 27ba b3bc 962c b4bb e0c4 113d
000003b0: 141c a33d 1028 13bd 361e bdbd 2992 093e
000003c0: 13d9 493d e68e 9fba 0567 373d 3e71 a83d
000003d0: 6b32 9cbd 47b1 2fbe 59d4 85bc b825 763d
000003e0: 120b cdbc 7165 4f3e 72d8 72bd d394 073d
000003f0: f57b e4bc c469 3f3a 6410 abbb dd26 d4bd
-0.0051688426 0.054675482 -0.0152815785 -0.0117363185 0.023883207 0.032383103 -0.003252449 -0.030113164
-0.044407662 0.046232283 -0.074809045 0.007488776 0.04380375 0.05537056 -0.029753562 0.12228493
0.056284532 -0.033994887 -0.17677484 0.008582479 0.04155738 0.05881409 0.02543139 0.0867359
0.021878732 0.07956949 0.014242448 -0.032217596 -0.02867863 0.010864769 -0.081500866 0.030068748
-0.11312548 -0.015537394 -0.023759069 -0.044705454 0.014796003 -0.008005201 0.07135456 0.02221766
0.061913636 -0.092396066 -0.004993506 0.08183378 0.050176743 -0.002798856 -0.071992 -0.0052238456
0.0118985325 -0.0345263 0.06560803 0.10225238 -0.015296578 0.013442876 -0.032142185 -0.022880284
0.1636718 0.031022709 0.081001416 0.025369117 -0.0014808413 0.104861885 -0.109537624 -0.12405542
-0.0030392567 0.022993699 0.0044766283 0.08707709 -0.015471007 0.12469163 -0.03795582 -0.078735076
-0.022168111 0.12429492 0.039804947 -0.060828403 -0.004768961 -0.02116884 0.045770843 0.049444325
-0.013302905 0.017310534 -0.058647223 0.07239712 0.056928128 0.095772095 -0.06246333 -0.10309184
0.005912556 -0.0037601122 0.056768317 -0.021068512 0.09430504 0.0020520228 0.009334288 -0.04232183
-0.042278867 0.03798234 -0.025226984 -0.043283768 0.08995312 0.06167922 0.0050853807 -0.032471847
-0.047037005 0.067318454 0.04660258 -0.06340866 0.100509115 -0.06089587 -0.11087098 0.05167534
-0.09084668 -0.002842173 0.05092957 -0.07687447 0.056305066 0.24779871 0.03137393 -0.031862825
-0.028732022 0.07293944 -0.08741053 -0.056717653 -0.06462601 -0.005844465 0.037494402 -0.00938286
-0.00068252685 -0.0355715 -0.07641764 0.11996256 0.017549552 0.0003433347 0.036669176 -0.038187608
-0.02988962 0.07211187 -0.041986108 -0.1783938 0.046218455 -0.024290215 0.019783996 0.049210533
-0.10460588 -0.026060903 0.06246455 -0.05750193 0.0024422137 0.052037243 -0.010295287 0.002323507
0.10082608 -0.040057983 -0.042999823 -0.04530467 -0.07980142 0.018071568 -0.0023772905 -0.053288605
0.034622006 0.16450289 0.042302478 -0.005789592 -0.003155367 0.030153342 0.09169385 -0.05083193
0.037195053 0.040197738 -0.024053032 -0.07925739 0.07703488 0.041427676 -0.0047973744 -0.06321632
0.02808539 -0.07670943 -0.09579121 0.17077316 0.116219275 -0.010828506 -0.1262568 -0.02652999
0.03167667 0.060030278 0.0010132827 -0.10911875 -0.1351092 -0.070056885 0.09305026 0.07963981
0.014581523 0.0023284457 0.062300976 0.03392492 -0.023434019 0.058858696 0.0032600318 -0.053244084
0.07429706 -0.086677 0.057186894 -0.015672175 0.05561024 0.012101589 0.041147836 -0.040703963
-0.029383676 -0.07103686 0.061118938 -0.04591518 0.031032383 0.06116372 0.019538494 -0.09139067
-0.019739218 -0.017453926 0.113206916 -0.044770483 -0.04066151 0.007537547 -0.008674563 0.03284723
0.03853718 0.09850264 0.01821666 -0.06150836 -0.075210296 0.009804344 0.004974461 -0.037935548
-0.1162388 -0.02193935 -0.005498479 0.035588145 0.0796434 -0.03592688 -0.09234278 0.13434662
0.049279284 -0.0012173324 0.04477598 0.08224724 -0.07626804 -0.1715747 -0.016336607 0.060094565
-0.025029693 0.2025354 -0.05928845 0.033100914 -0.027891139 0.0007301832 -0.00522046 -0.10358975

local_block.conv_chan.conv.0.bias f4 [8]
00000000: 4aa2 61bd b572 3238 98e2 943c b35c db3c
00000010: ea3b 9b3c c361 9b3b 41c6 4b3d 2994 c236
-0.05508641 4.2545336e-05 0.018174455 0.0267776 0.018949468 0.0047418787 0.049749617 5.7988987e-06

local_block.conv_chan.conv.1.weight f4 [8]
00000000: 831e 543f 3535 7c3f 868a 833f fe03 713f
00000010: d279 603f 16e5 8c3f 3eca 763f bec6 733f
0.8285906 0.9851869 1.0276649 0.94146717 0.87685883 1.1007411 0.9640235 0.9522513

local_block.conv_chan.conv.1.bias f4 [8]
00000000: f838 48be 00bb 69be 11f5 dcbd d906 58be
00000010: d778 3fbe 7391 3dbe 151a 18be 9332 47be
-0.19552982 -0.22825241 -0.1078893 -0.21096362 -0.1869844 -0.18512516 -0.148537 -0.19452886

local_block.conv_chan.conv.1.running_mean f4 [8]
00000000: 4c55 713d 1015 d2bc 2258 b1bd 72df 773d
00000010: 4d26 ec3c 7378 903c ea68 063e f338 8ebd
0.058919236 -0.025644809 -0.08659388 0.06051583 0.028826857 0.01763556 0.13125959 -0.06944456

local_block.conv_chan.conv.1.running_var f4 [8]
00000000: dac3 b63d 9d48 843d d241 c83d 6c36 a83d
00000010: 6478 4f3e 24ad 323d cc95 d63d 349a f93d
0.089240745 0.064591624 0.09778179 0.08213505 0.20260769 0.04362215 0.1047779 0.12187615

tcn.network.0.conv1.weight f4 [16, 16, 16]
00000000: b4ce 2ebd a213 4dbd f6a2 71bb 60fe 65bd
00000010: b328 abbc 8a93 12bb 8441 3d3c 8639 7bbc
00000020: 2215 ae3c 6bd8 d9bc 7103 f7bc 3f0a 41bd
00000030: 3a9c 52bd 46b8 03bd 4e5a a4bc 0448 013d
00000040: 55a3 083d 39c4 0e3d f01b 0bbb 9767 483d
00000050: f05a 91bc d6da 093d 33e7 0c39 74fb 043c
00000060: af20 d33b 023d 233c 9f11 903c 34ad e33b
00000070: 95dc 85bc c6de 32bc 1e73 a2bc aab0 613d
00000080: 1b4d bbbc 5654 2e3a ceae e1bc 9cf5 25bc
00000090: 4031 5c3c 768f 873d 5326 af3d 53a8 f43c
000000a0: a521 b63d 6ee9 903c 496f fbbb 5ba4 3f3d
000000b0: 28a8 8c3c b944 c83c 3e67 613d ceac 093c
000000c0: 85ce b43b bad8 f2bc cc90 91bb 6915 153d
000000d0: c491 e9b9 fceb de3c d97d 1f3d b28c b73c
000000e0: 299b d03c 708b b2bc 8d32 933b fc09 47bc
000000f0: a096 fcbc 3ffd b8bc f7e9 413d 3804 873d
00000100: 0581 443c 085f 203d 9850 fb3c 66a8 b13d
00000110: 7ebb a23d 0ef1 1b3d 4d70 8e3c 5e7d 0abc
00000120: 0e88 533d 5acc 8c3a 96ff cd3c 7aea f43c
00000130: c4f7 d1bc 2416 9d3c 74f6 e93c c6eb 4bbc
00000140: 7010 113d 2be5 383d ddd8 5b3d 3c53 7e3d
00000150: de94 1d3d fa7e a73c de75 ec3c 4c00 8fbb
00000160: c671 1bbb 2814 41bd 4da6 1a3b e874 6a3c
00000170: c73e fd3b 2c0a 1f3d 1ce8 803d 62b9 6e3c
00000180: 6a74 5c3d 1ddc b5bc a762 5dbd 12f2 6abd
00000190: 891b 86bc e2af 2ebd 4fef bcbc 97e2 113d
000001a0: 4ecd 17bc 21aa 4ebc 9a39 d9bc 5d76 aebc
000001b0: 902b f0bc b852 c2bc 8830 973c 7fd6 9abb
000001c0: 99fd 8238 3889 713c 8f44 2f3c 9ff0 be3c
000001d0: fd1d dbbc 4af8 fc3b cf55 56bc caae ba3c
000001e0: 07ed 7d3c fbb5 acbc 4cc2 a7bb e965 b73a
000001f0: f06c 2d3c 2ed2 b83c 7974 333c cebe 243c
00000200: 096a 843c 70e3 27bc 2bd2 523c d3fb 01bd
00000210: 6555 1cbd d805 5bbb fcbe ddbb bea4 b3bc
00000220: ef65 6dbc cd05 0d3d 37e8 023c 2310 023d
00000230: 0d33 963c f718 b13c 1915 ab3b 04c6 04bd
00000240: cf47 b73b 498a cf3c fcfc 453c d90c a83b
00000250: dbf8 613b 89af 1c3d 20f8 d93c 5d37 943c
00000260: 8a99 70bb 6081 883c a3ff cf3b 9542 c6bb
00000270: 5466 8abc 6060 4dbb 8150 713c 38fc 9c3d
00000280: 4636 713d 569d 083d 14d0 403d e960 bc3b
00000290: 53ac 863c d478 cd3c 3a46 343d d9b7 593d
000002a0: 490a 903a f1f2 72bc 6cff d53b 0241 20bd
000002b0: 59d6 413c 64ad bfbd 31d0 3dbd 1cd4 93bc
000002c0: 7b0b 2ebd 78fd 00bd 4968 1cbd 8c50 94bb
000002d0: b34a e73b 98ce d8bc 1824 9c3c dc5e bf3b
000002e0: c9d3 2c3d 520f fe3c 58fa bc3c 6ed8 a8bc
000002f0: 7222 b73b 92e7 0abd ed19 d6bc 2af8 d6bc
00000300: 89f5 9b3c 18b5 f93c 080f 1b3d 86a9 17bb
00000310: 4097 e7bc 3d16 2dbd c609 e3bc a9e3 24bd
00000320: abca 4fbd 9f5d 4bbd 5c27 cfbc e176 e5bb
00000330: 994b 07bd cea0 afbc 0076 bfbd acd2 80bd
00000340: f638 b0bd 2c5e babc fa4e c5bc 8b1b 04bc
00000350: 69ef 13bc 7e1a ea3c 620c 773d 15ab 843d
00000360: 9890 b23c f667 f4bb 395b 463a 7fd6 b2bc
00000370: 6c19 3fbd 2f95 0cbd d347 713a 97f2 adba
00000380: 7a54 7e3a 8fdb 20bd 4d33 603c b611 68bb
00000390: db51 cf3c b725 0e3d 9227 5a3c 3a59 ed3a
000003a0: 8857 90bd fbee ccbc 7f40 51bd 4340 183d
000003b0: 4bea af3a e4b7 debb ec1f 82b9 6692 833b
000003c0: 617b 7bbc 3767 3bbd 7e68 42bd 49e8 e9bc
000003d0: 4886 0d3d 6339 3abc 0242 963c 82a0 3e3c
000003e0: 392f 97bc 3351 383c 53fb 0fbd ded4 dbbc
000003f0: 7630 cfbb 23be 043d 62fd 023d 0793 2c3d
-0.042677596 -0.05006755 -0.0036870814 -0.056150794 -0.02089343 -0.0022365772 0.011551265 -0.015333539
0.021250311 -0.026592454 -0.030153008 -0.047128912 -0.05141852 -0.03215816 -0.020062592 0.03156282
0.03335889 0.0348551 -0.002122637 0.048926916 -0.017743558 0.033655964 0.00013437569 0.008116592
0.006443105 0.009963276 0.017586527 0.0069481377 -0.016340533 -0.010917371 -0.019830283 0.05510012
-0.022863915 0.000665014 -0.027549174 -0.010129359 0.0134394765 0.0661916 0.08552232 0.02986542
0.08893136 0.017689433 -0.0076731783 0.0467876 0.017170027 0.024446832 0.0550301 0.008403016
0.005517783 -0.029644359 -0.00444231 0.03639737 -0.00044549827 0.027212135 0.038938377 0.022405956
0.025464611 -0.021795005 0.00449211 -0.012148377 -0.030833542 -0.022581695 0.047342267 0.065926015
0.011993651 0.03915313 0.030678079 0.086746976 0.079459175 0.038071685 0.017387534 -0.008452741
0.051643424 0.0010742054 0.025146287 0.029896963 -0.02563084 0.019175597 0.0285599 -0.0124463495
0.035416067 0.045140427 0.053673614 0.062091097 0.03847205 0.02044629 0.028864797 -0.004364049
-0.0023718937 -0.047138363 0.0023597658 0.014310099 0.007728431 0.03882806 0.06294271 0.014570566
0.05382196 -0.022199685 -0.05404916 -0.057359762 -0.016370552 -0.042648204 -0.02306333 0.035616484
-0.009265257 -0.012613804 -0.026516724 -0.021296674 -0.029317647 -0.023721084 0.018455759 -0.004725277
6.246119e-05 0.014742188 0.010697498 0.023308096 -0.026747698 0.007720028 -0.013081982 0.022788424
0.015498406 -0.021082869 -0.0051195975 0.0013992164 0.010585055 0.022561159 0.010953062 0.010055257
0.016163843 -0.010247096 0.012867491 -0.0317343 -0.038167376 -0.0033420231 -0.006767152 -0.021929141
-0.014489635 0.03442936 0.007989935 0.03175367 0.01833489 0.02161835 0.005221021 -0.032415405
0.005593277 0.025334494 0.012084242 0.0051284847 0.0034480605 0.03825334 0.026607573 0.018092806
-0.003671261 0.016663253 0.006347613 -0.0060504177 -0.016894497 -0.0031337962 0.014728666 0.076652944
0.05888965 0.033353172 0.04707344 0.0057488573 0.016439592 0.02508203 0.044012286 0.053153846
0.0010989393 -0.01482843 0.006530693 -0.039124496 0.01183089 -0.093592435 -0.046341125 -0.018045478
-0.042491417 -0.031491727 -0.03818539 -0.0045262035 0.0070584654 -0.0264657 0.01906018 0.0058401655
0.04219416 0.031013165 0.023068592 -0.020611014 0.005588823 -0.03391225 -0.02613541 -0.02624138
0.019037979 0.03048186 0.03785613 -0.0023141815 -0.028270364 -0.042257536 -0.027714621 -0.040256176
-0.05073039 -0.04964983 -0.025287323 -0.007002697 -0.03303108 -0.021438982 -0.093486786 -0.062901825
-0.086046144 -0.022749983 -0.02408551 -0.008063207 -0.009029248 0.028577086 0.060314544 0.06477944
0.021797463 -0.007458682 0.0007566694 -0.021830795 -0.046655104 -0.03432196 0.0009204123 -0.001327115
0.0009701919 -0.039271887 0.013684106 -0.0035410947 0.025307586 0.034703936 0.013315098 0.0018108257
-0.07047945 -0.025016299 -0.0510869 0.03717066 0.0013421265 -0.006796824 -0.00024819316 0.004015255
-0.01534924 -0.04575273 -0.047462933 -0.028553145 0.03455189 -0.011366221 0.018342022 0.011634948
-0.018455135 0.011249828 -0.03515179 -0.026834901 -0.0063229157 0.03240789 0.031979926 0.042132404

tcn.network.0.conv1.bias f4 [16]
00000000: 1177 27b7 e70d 7a37 2610 bcb8 f201 6135
00000010: cbd2 31bc 1db2 a036 ee2d 1935 dc2c 6dbb
00000020: 6515 09b7 2318 0f34 7a0c c0b6 a352 8137
00000030: 3eda 8eb6 0211 0b35 516b 8b39 c18c 073c
-9.981698e-06 1.4904398e-05 -8.9675465e-05 8.382186e-07 -0.01085348 4.7891067e-06 5.706378e-07 -0.0036190068
-8.170818e-06 1.3326694e-07 -5.7234984e-06 1.5416479e-05 -4.2573365e-06 5.1806285e-07 0.00026592103 0.008273304

tcn.network.0.bn1.weight f4 [16]
00000000: aa61 8b3f cbbc 833f fcd0 793f 34ef 843f
00000010: dfb2 853f af89 843f 71de 7f3f 3fc8 8b3f
00000020: 7875 8c3f 34eb 8c3f acef 8b3f 5ac5 8f3f
00000030: 425d 813f 0df7 893f ddcc 7f3f 28f8 883f
1.088918 1.029199 0.9758451 1.0385499 1.0445212 1.0354518 0.99948794 1.0920485
1.0973349 1.1009278 1.0932517 1.1232102 1.0106585 1.0778519 0.9992197 1.0700731

tcn.network.0.bn1.bias f4 [16]
00000000: 0f3f 9ebe b1a0 c2be d17e a3be 04a2 b3be
00000010: c87f 96be 42b8 95be ddff b1be 729a 8dbe
00000020: 7318 7abe 7006 b0be d87f bcbe e79b d5be
00000030: f54a 8cbe 0fba bebe 3dc2 92be 5110 86be
-0.30907485 -0.38013223 -0.3193269 -0.35084546 -0.29394364 -0.2924214 -0.3476552 -0.27656895
-0.24423389 -0.3437991 -0.36816287 -0.41720507 -0.27400938 -0.37251326 -0.28663817 -0.26184323

tcn.network.0.bn1.running_mean f4 [16]
00000000: 3712 a0bc 8328 96bd 02e1 9dbc 2571 3d3b
00000010: d3b9 b43c d11f 913c abd6 f5bc d707 8cbd
00000020: ff59 51bc a1e5 44bc 6bbd 5c3d d1ef 02bc
00000030: febf 0ebd a4f3 0c3d 9b17 8c3a f987 883d
-0.019539936 -0.07331946 -0.019272331 0.002890655 0.022061264 0.017715367 -0.030009588 -0.06837433
-0.012777804 -0.012017638 0.05389158 -0.007991747 -0.034851067 0.03441204 0.0010688187 0.0666656

tcn.network.0.bn1.running_var f4 [16]
00000000: 10f3 0e3f 9692 073f c8c3 ae3e 389e f63e
00000010: 9298 cd3e e7dc f13e 1576 f23e 0e95 043f
00000020: 3b1b d73e dbde 133f 7f14 fe3e 903f d83e
00000030: 5e27 de3e 0a3f 1b3f 19fd c53e 48a3 e63e
0.55839634 0.5295805 0.34133744 0.48167586 0.40155464 0.47238848 0.47355714 0.5178994
0.42012963 0.57761925 0.49625012 0.42235994 0.4338941 0.60643065 0.3866966 0.4504645

tcn.network.0.conv2.weight f4 [16, 16, 16]
00000000: 21ff 8ebc eaca c93a 0e7c 2abd 046e 44bd
00000010: 4e78 3dbd cad1 07bc 90c0 bbbc 02ce e7bb
00000020: 25d0 e5bc 622f 06bd e867 b8bc 6da8 f2bb
00000030: 866b 7a3a 3559 953c e102 74bd c70f d1bc
00000040: 823c 6b3d 0b3f 3e3d 2361 cf3c bb7e ebba
00000050: 0c43 3b3c d06f 04bb 9a28 f93c 3aaf 283d
00000060: 2565 443d de5b 183d d818 963d 03b9 b73d
00000070: c823 eb3c 480e 063d 1dd9 88bc 4e55 d7bc
00000080: bc2d 8f3b e1b4 06bd 44cf 9bbc 6b25 e1bc
00000090: 794b c9bc 5248 8fbc 78c1 b13b 2a12 91bc
000000a0: e636 e03c 9e12 203c f4bd 0cbb a179 913c
000000b0: 2602 26bb 2799 d7bb 7380 12bd 2745 3ebd
000000c0: 54ad 84bc 0334 0c3c b274 a93c 9b74 8dbb
000000d0: f699 9cbb 5df5 95bc 1a4a 01bd 9e07 203a
000000e0: de48 863b 1d14 1cbc a291 4ebc 03f2 f3bc
000000f0: dae4 f7bb 2d8c 393c 6f89 ae3b 6dc4 54bb
00000100: e95b a73b 3cd5 0c3c 913f debc 713f 053c
00000110: 8c66 3dbd 2849 04bd fa21 da3b 0715 91bc
00000120: a351 08bd 1154 3abc a06c 333d fc24 a2bc
00000130: 991b 14bd d9a6 32bd d0bc f2bc 7858 63bd
00000140: 4793 9abd 6eaf 32bd aa0b afbc 487e 93ba
00000150: 159f 933b c2bc b43c dcf7 fa3b 1910 4f3c
00000160: 90c7 3f3d 14c9 6e3d e5ae 4f3d a892 9e3d
00000170: 346a 8d3b aeef bc3c 7db7 91bd 946d 9cbd
00000180: 840a 053d 7068 193c f017 073d ae78 803c
00000190: 5812 fc3c b48d 2d3d b5d3 ce3c 4c8a 373d
000001a0: 3e9b 9d3c ac82 d43c 3645 533d dba3 803c
000001b0: 2ccb 6f3d 3870 873d b7cc 373d a0a3 073c
000001c0: 52cd dabc 0ad5 36bd 0032 a3bc 6a10 cfbc
000001d0: ccc5 e43c 5ecb fb3c 57ee b9bb e981 393d
000001e0: 145b 7fbc 5860 08bd 031d 52bd 0dca 80bc
000001f0: e232 92bd 6d8c 36bd efc7 bfbd d7e5 90bd
00000200: 52df 0fbd 4516 37bd c0b7 29bd 205f 42bd
00000210: 5ff5 bfbc fbdb 12bd 35ee d33b d545 72bc
00000220: d76f 233c efef 773c e243 1fbc dc87 f23c
00000230: 90fe f63c 03f3 10bb 3ed3 11bb c2bc 9e3c
00000240: 0700 b0bc 28fb 2dbd 82d5 15bd 3ee0 a6bc
00000250: 018d 5abc c0ef 36bd fa81 f83a a18c 72bc
00000260: 85c0 9ebc 4b22 98bc 53b1 08bd 8c44 b93c
00000270: 58cf 9dbb 475d a93b 4c57 debc 3801 083c
00000280: b7f7 323d 83a9 6e3d a3b9 eb3b 9d4e 7c3d
00000290: f3cf 4b3d d508 09bc 3aaa 2d3d bd9c 3cbc
000002a0: 44dc be3b a660 bbbc ce57 00bd 85f9 273b
000002b0: e45f 60bc a476 1dbc 2269 7abd 3013 ffbc
000002c0: 0a5a 163d fd9c d5bb c1fe 2dbd 11c5 b0bc
000002d0: 2ce5 413b 1a3d 2bbd 9be9 1ebc 81e5 903c
000002e0: dd19 24bc d635 65bc be81 3b3d 4892 953b
000002f0: f3cd b53c c167 553d 2b04 653d f55f e23d
00000300: cfbf a93c 8388 c73b 2d32 9ebc 680c 3e3c
00000310: cb00 0c3c 34d6 153c fcbc 77ba c7ab 66bc
00000320: 17b0 2c3c 6722 c83b bc98 7c3d ff13 1c3c
00000330: 7b93 933c 4704 ad3c d841 303b b6fa a7bc
00000340: b1cd 853d 1000 603d ad62 833d 8134 353d
00000350: 2e10 573c 4fd3 a53c ca52 68bc 3172 d4bc
00000360: adfc 86bd aba0 c5bc 1365 31bd 5c0e bcbc
00000370: 908d bd3b c7f4 dd3c 85af d33c fb44 973d
00000380: 8e5a f8bc 6d48 61bc 1622 ccbb 9dca cf3c
00000390: 6220 9b3c a78c 113d 8c57 4c3c 943a 743c
000003a0: c431 3b3c 5d1b 10bd 8e52 11ba 2102 9abc
000003b0: a83f c2bc 8d67 edbb 10d8 1ebd b2fd 55bd
000003c0: f0ba b3bd 9193 49bd 4e3f 7cbd fca0 1fbd
000003d0: cd01 04bd 7024 4c3a ab8b 0a3a 7536 283d
000003e0: 2f15 0a3c fc39 cdbc d304 7cbd 20ae d4bd
000003f0: 7e57 62bd 9b76 7bbd 963d 28bc 5ab7 b3bc
-0.01745564 0.0015395556 -0.041622214 -0.04795648 -0.04625731 -0.008289764 -0.02291897 -0.0070741186
-0.028053353 -0.03276003 -0.022510484 -0.007405332 0.00095527654 0.018231014 -0.059573058 -0.025520219
0.05743075 0.04644684 0.025314873 -0.0017966846 0.011429559 -0.0020208247 0.030414868 0.041182734
0.04794802 0.037196986 0.07328957 0.08970835 0.028703585 0.032728463 -0.01670509 -0.026285794
0.0043694656 -0.032887343 -0.01901973 -0.027483663 -0.024572121 -0.01749054 0.0054246746 -0.017708857
0.027369928 0.009770064 -0.0021475526 0.017758192 -0.002533087 -0.0065795365 -0.03576703 -0.046452668
-0.01619593 0.008557322 0.020685527 -0.004316879 -0.0047790958 -0.018305475 -0.03156481 0.00061046507
0.004098042 -0.00952628 -0.012607964 -0.029778486 -0.007565123 0.011324924 0.005326442 -0.0032465712
0.005107392 0.008595761 -0.02712992 0.008132801 -0.046240374 -0.03229633 0.0066568824 -0.017710222
-0.03328098 -0.011372582 0.043804765 -0.019793026 -0.03615913 -0.04361615 -0.029631048 -0.055504292
-0.07547622 -0.043624334 -0.021367867 -0.0011252845 0.004505048 0.022062663 0.0076589417 0.012638115
0.046821177 0.05829723 0.0507039 0.07742816 0.004315639 0.023063507 -0.07115076 -0.07638088
0.03248073 0.009363279 0.032981813 0.015682545 0.030770466 0.042371467 0.025247434 0.044809625
0.019239064 0.025941215 0.051579677 0.015703132 0.05854337 0.06613201 0.044872966 0.008278757
-0.026709232 -0.044636764 -0.019921303 -0.025276382 0.027926348 0.030736621 -0.0056741643 0.045289908
-0.01558568 -0.033295006 -0.0512972 -0.015721345 -0.071386114 -0.044567514 -0.09364306 -0.070750885
-0.035125084 -0.044698972 -0.041435003 -0.047454 -0.023432432 -0.03585432 0.0064676055 -0.014787157
0.009975395 0.015132888 -0.009720774 0.029605798 0.030150682 -0.0022117503 -0.0022251154 0.019377116
-0.021484388 -0.04247585 -0.03658057 -0.020370599 -0.013339282 -0.044662237 0.0018959634 -0.014804036
-0.01937891 -0.01857104 -0.033372235 0.022615694 -0.004815977 0.00516859 -0.027141236 0.008301072
0.04369327 0.058267128 0.0071937605 0.06159841 0.049758863 -0.008363922 0.04239867 -0.011511979
0.0058245976 -0.022873234 -0.031333737 0.0025630903 -0.013694737 -0.009610806 -0.06113542 -0.031137079
0.03670696 -0.0065189586 -0.04247928 -0.021578344 0.002958606 -0.041806318 -0.009699251 0.017687561
-0.010015932 -0.013989886 0.04577803 0.004564557 0.02219293 0.0521009 0.055912178 0.110534586
0.020721344 0.0060892715 -0.019311035 0.011599638 0.008545111 0.009145308 -0.0009450463 -0.014079041
0.01054003 0.0061076167 0.061669096 0.009526252 0.01801466 0.021120204 0.0026894715 -0.02050529
0.06533373 0.05468756 0.06415305 0.044239525 0.013126416 0.020242361 -0.014179895 -0.025933357
-0.06591163 -0.024124464 -0.043309283 -0.022956066 0.005784698 0.027094258 0.02584053 0.07386204
-0.030316617 -0.013750178 -0.0062296493 0.025365168 0.01893634 0.035534527 0.012472045 0.014906544
0.011425439 -0.035182346 -0.00055436126 -0.018799843 -0.023711994 -0.00724501 -0.038780272 -0.052243896
-0.0877589 -0.049212996 -0.06158381 -0.038971886 -0.03222828 0.0007787412 0.00052850944 0.04106756
0.008427902 -0.025052063 -0.06152804 -0.10384774 -0.05525922 -0.061392408 -0.0102685895 -0.021938015

tcn.network.0.conv2.bias f4 [16]
00000000: e401 9937 53f3 f63b 0ad1 e7b9 75dc e83b
00000010: 0774 70ba 466d 12b6 fab9 d236 496f 37b8
00000020: 680d 2e3c 4c5f 4bb6 0097 93b6 18e7 83b9
00000030: a0b2 3cb4 6c8e 813b f77c afb8 9469 55bc
1.8239902e-05 0.0075363307 -0.000442155 0.0071063587 -0.0009172563 -2.18193e-06 6.280138e-06 -4.3734242e-05
0.0106233135 -3.0304827e-06 -4.39852e-06 -0.00025158445 -1.7573848e-07 0.0039537456 -8.367927e-05 -0.01302566

tcn.network.0.bn2.weight f4 [16]
00000000: 0000 803f 0000 803f 0000 803f 0000 803f
00000010: 0000 803f 0000 803f 0000 803f 0000 803f
00000020: 0000 803f 0000 803f 0000 803f 0000 803f
00000030: 0000 803f 0000 803f 0000 803f 0000 803f
1.0 1.0 1.0 1.0 1.0 1.0 1.0 1.0
1.0 1.0 1.0 1.0 1.0 1.0 1.0 1.0

tcn.network.0.bn2.bias f4 [16]
00000000: 0000 0000 0000 0000 0000 0000 0000 0000
00000010: 0000 0000 0000 0000 0000 0000 0000 0000
00000020: 0000 0000 0000 0000 0000 0000 0000 0000
00000030: 0000 0000 0000 0000 0000 0000 0000 0000
0.0 0.0 0.0 0.0 0.0 0.0 0.0 0.0
0.0 0.0 0.0 0.0 0.0 0.0 0.0 0.0

tcn.network.0.bn2.running_mean f4 [16]
00000000: 0000 0000 0000 0000 0000 0000 0000 0000
00000010: 0000 0000 0000 0000 0000 0000 0000 0000
00000020: 0000 0000 0000 0000 0000 0000 0000 0000
00000030: 0000 0000 0000 0000 0000 0000 0000 0000
0.0 0.0 0.0 0.0 0.0 0.0 0.0 0.0
0.0 0.0 0.0 0.0 0.0 0.0 0.0 0.0

tcn.network.0.bn2.running_var f4 [16]
00000000: 0000 803f 0000 803f 0000 803f 0000 803f
00000010: 0000 803f 0000 803f 0000 803f 0000 803f
00000020: 0000 803f 0000 803f 0000 803f 0000 803f
00000030: 0000 803f 0000 803f 0000 803f 0000 803f
1.0 1.0 1.0 1.0 1.0 1.0 1.0 1.0
1.0 1.0 1.0 1.0 1.0 1.0 1.0 1.0
