model/BETA/DTCN_b2_1s_S3.pth (torch, 181815 bytes, 74 tensors)

global_block.conv_time.conv.0.weight f4 [8, 1, 1, 125]
0	0x3c16b6b0	0.0091988295
1	0x3cc58fa7	0.02411635
2	0xbb60b56c	-0.0034287823
3	0xbb9a6ba6	-0.0047125397
4	0xbd3c314d	-0.045945454
5	0x3cb86b8a	0.022512216
6	0xbced3004	-0.02895356
7	0x3aa7a535	0.0012790324
8	0x3bb42609	0.005497698
9	0xbd153508	-0.036427528
10	0x3c78d7ec	0.015188199
11	0xbca3b995	-0.019985953
12	0x3b09ed14	0.002104585
13	0x3c56cebd	0.013110814
14	0xbca9cffd	-0.02072906
15	0x3d5afec5	0.053465623
16	0x3d1ccb18	0.038279623
17	0x3d89451e	0.06702636
18	0xbcb91b21	-0.022595944
19	0x3d0f5032	0.03498859
20	0x3d229710	0.039694846
21	0x3c83de22	0.016097132
22	0x3b43ce29	0.002987752
23	0x3ca2f1bb	0.019890657
24	0x3ceb19c5	0.028698811
25	0x3c393dfc	0.011306282
26	0x3c92f37e	0.017938372
27	0x3cfd1d37	0.03089772
28	0x3d60bd09	0.054867778
29	0xbcfebfd3	-0.031097328
30	0x3cb7dc06	0.022443783
31	0xbc56a9e4	-0.0131020285
32	0x3d4c58e0	0.049889445
33	0xba14fe8b	-0.0005683682
34	0xbc6cfa05	-0.014463906
35	0xbc634dba	-0.013873512
36	0x3d2aab6d	0.04166739
37	0x3b4ced4b	0.0031269367
38	0x3d3b09f2	0.04566378
39	0xbd8660d5	-0.06561438
40	0xbb99706f	-0.0046825926
41	0xbd4de21d	-0.050264467
42	0x3c1934ab	0.009350936
43	0x3d22d273	0.03975148
44	0xbc438614	-0.011933822
45	0x3c4b590a	0.012411365
46	0xbc897cfe	-0.016783234
47	0xbd50315d	-0.050828326
48	0x3d3dfb81	0.04638243
49	0x3d2fd49b	0.042927366
50	0x3d6a4496	0.057194315
51	0x3d3c6918	0.045998663
52	0xbc1a2ba1	-0.009409816
53	0x3b74add1	0.0037335048
54	0x3c9e1218	0.019295737
55	0xbd5fe4d0	-0.054661572
56	0xbd899282	-0.06717397
57	0x3bb0f1ac	0.0053999033
58	0x3d03b750	0.032157242
59	0x399757a2	0.00028866256
60	0xbc8bf7ba	-0.017085899
61	0xbb8de493	-0.0043302267
62	0xbcc3ed83	-0.023916965
63	0xbd3ac369	-0.045596514
64	0x3cb2d9a9	0.021832304
65	0x3c569968	0.013098098
66	0x3d17e730	0.037085712
67	0xb93b1cc7	-0.0001784443
68	0xba00c02b	-0.0004911448
69	0xbcd9487a	-0.026523817
70	0xbd76cc9f	-0.060253736
71	0xbcb52ee3	-0.022117084
72	0xbd31cdd3	-0.04340918
73	0x3d9c57f6	0.07633965
74	0x3c81bf97	0.015838427
75	0xbd14f4ba	-0.036366202
76	0x3c07c02c	0.008285563
77	0x3df9ec77	0.12203305
78	0x3e2b5a95	0.16733773
79	0xbc076ee8	-0.008266188
80	0xbd80aeae	-0.062833175
81	0xbc1d38d9	-0.009596073
82	0xbd90db67	-0.07073098
83	0xbcb138f9	-0.021633612
84	0xbd8e6d09	-0.069543906
85	0x3cf2e7e1	0.029651584
86	0xbba5e6bb	-0.0050629056
87	0xbd93b2fa	-0.072118714
88	0xbd59ec21	-0.053203706
89	0xbcd82fef	-0.026390044
90	0xbd3d243f	-0.046177145
91	0xbc39960e	-0.01132728
92	0xbdb41aed	-0.08794198
93	0xbda0da0a	-0.07854088
94	0x3c9f99c4	0.0194825
95	0xbc712a98	-0.014719628
96	0x3d8151e9	0.06314451
97	0x3de4cba0	0.11171651
98	0x3daba46c	0.0838097
99	0x3c596c6d	0.01327048
100	0xbc051b3e	-0.008124171
101	0x3c56a8eb	0.013101797
102	0xbcb52018	-0.02211003
103	0xbd5bd937	-0.05367395
104	0x3d0f1ebe	0.034941427
105	0x3db32edf	0.08749174
106	0x3d0353a6	0.032062195
107	0xbd819ad9	-0.06328363
108	0xbd9b3832	-0.07579078
109	0xbd767c6a	-0.060177244
110	0xbc94a65d	-0.018145734
111	0xbd557496	-0.05211314
112	0xbd17440e	-0.036930136
113	0xbd3fa3d1	-0.046787087
114	0xbc248f16	-0.01004388
115	0xbc47fc5b	-0.012206162
116	0xbd86a1ba	-0.06573816
117	0xbda7d12f	-0.081941955
118	0xbc6f2f02	-0.01459861
119	0x3b52835e	0.0032121758
120	0xbcc59c02	-0.024122242
121	0x3d3ba80a	0.04581455
122	0x3dc0d681	0.094159134
123	0xbbd63033	-0.0065365075
124	0xbbfec796	-0.0077752573
125	0x3ceaef29	0.028678494
126	0xbcb62eda	-0.022239137
127	0xbc1453cf	-0.009053185
128	0x3dc639ee	0.09679018
129	0x3bb2924f	0.0054495702
130	0x3c81928a	0.015816946
131	0xbcc55fd2	-0.024093542
132	0x3cc132e6	0.02358384
133	0x3b73b0a3	0.003718414
134	0x3bae6301	0.005321861
135	0x3c6e105d	0.0145302685
136	0x3c97e473	0.01854155
137	0x3ce41c15	0.027845422
138	0x3d6de4f6	0.058079682
139	0x3d83603b	0.06414839
140	0xbd32782b	-0.043571632
141	0x3d66bb79	0.05633113
142	0x3bd6529f	0.006540611
143	0x3c259a5f	0.010107606
144	0x3d3cfe6e	0.04614108
145	0xbd360004	-0.04443361
146	0xbd31b85e	-0.043388717
147	0x3c0fe7b7	0.0087832725
148	0x3c0004ce	0.0078136455
149	0x3a1b9aae	0.000593583
150	0x3c2a8d88	0.01040972
151	0x3d412570	0.047154844
152	0xbb8eda7e	-0.0043595424
153	0x3c3e7508	0.011624582
154	0xbd624593	-0.055242132
155	0x3c412d22	0.011790546
156	0x3c0bea17	0.008539698
157	0xbc4ec33c	-0.01261979
158	0x3c44a4b7	0.012002162
159	0xbcb6eabb	-0.022328725
160	0xbc42764c	-0.0118690245
161	0x3b288ab3	0.0025717437
162	0x3d1c5c7c	0.038174137
163	0xbbae8725	-0.005326169
164	0xbd8a29d8	-0.06746262
165	0xbd408dac	-0.04701011
166	0xbc7382c8	-0.014862724
167	0xbc9d680c	-0.019214652
168	0x3cfbabd5	0.030721584
169	0x3bee38f3	0.0072699725
170	0xbcca67c5	-0.024707684
171	0xbd609c8b	-0.05483679
172	0x3d1dea17	0.038553324
173	0xbc5ab257	-0.013348184
174	0xbcf60ac4	-0.03003443
175	0x3d2c068d	0.041998435
176	0xbd401619	-0.046896074
177	0xbd25c417	-0.04047021
178	0xbcd45170	-0.025917739
179	0xbc47c3c3	-0.012192669
180	0xbde582ac	-0.11206564
181	0x3d31ee9a	0.04344044
182	0x3cfdc002	0.030975346
183	0x3d61dc72	0.055141874
184	0xbcf09102	-0.02936602
185	0x3d45c907	0.048287418
186	0x3d7913b6	0.060809813
187	0xbc665ca1	-0.01406017
188	0x3d3cb75d	0.046073306
189	0xbcec2bdf	-0.028829513
190	0x3bd85d67	0.0066029313
191	0xbd96c23a	-0.073612645
192	0xbd1f7e29	-0.038938675
193	0xbc92689d	-0.01787215
194	0x3d5cee52	0.053938217
195	0x3d73992a	0.05947224
196	0x3b3c1657	0.002869984
197	0xbced41ec	-0.028962098
198	0xbd1df80b	-0.03856663
199	0x3d2e3576	0.042531453
200	0xbd4a571a	-0.049399473
201	0x3c5e563c	0.013570365
202	0xbd171f75	-0.036895234
203	0x3dda21ee	0.10651003
204	0x3e3faf51	0.18719222
205	0x3e1f978d	0.15585156
206	0x3cb38dfa	0.021918286
207	0xbd8cf045	-0.06881765
208	0xbddaa42b	-0.10675844
209	0xbc8cef64	-0.017203994
210	0x3ca30f97	0.019904895
211	0xbbc3f835	-0.0059805163
212	0x3d15efdf	0.036605712
213	0x3cc36386	0.023851167
214	0xbd9ed699	-0.07755775
215	0xbdb00f15	-0.08596627
216	0xbd97d73b	-0.07414099
217	0xbd24a689	-0.040197883
218	0xbd777e9a	-0.06042347
219	0xbb5e2823	-0.0033898435
220	0xbbcf9679	-0.0063350764
221	0xbcc37fa6	-0.023864578
222	0x3b00359c	0.0019563204
223	0x3bd55536	0.006510402
224	0xbda2fb3e	-0.07958077
225	0x3cdfdabf	0.027325986
226	0x3c6d76c7	0.014493651
227	0x3d83ecca	0.06441648
228	0xbd1387ca	-0.03601817
229	0xbd0e94cd	-0.034809876
230	0x3d80539f	0.062659495
231	0xbd054972	-0.032540746
232	0xbcc80ab4	-0.024419166
233	0x3d90ff7a	0.07079978
234	0x3cce03e8	0.025148347
235	0xbdcc11be	-0.099643216
236	0x3d390625	0.045171876
237	0x3c92e1d2	0.017929945
238	0x3d7dd042	0.06196619
239	0xbd1b3288	-0.037889987
240	0xbd983359	-0.07431669
241	0xbd8ca241	-0.06866885
242	0xbcb20cc6	-0.021734606
243	0xbd04217c	-0.032258496
244	0x3cdac998	0.026707456
245	0xbd17f058	-0.037094444
246	0xbd3cc7b9	-0.046088908
247	0xbcbfd8d0	-0.023418814
248	0xbc5dffbe	-0.013549743
249	0xbdc0e56c	-0.09418759
250	0x3c106030	0.008811995
251	0xbd820af0	-0.063497424
252	0x3b188dc7	0.0023277865
253	0x3c96ecce	0.018423464
254	0xbd1b30d6	-0.03788837
255	0xb99de59f	-0.00030116455

global_block.conv_time.conv.0.bias f4 [8]
0	0xb1496ade	-2.9310097e-09
1	0x3a592b35	0.00082843314
2	0x3a4e7630	0.00078758877
3	0x3a844f05	0.001009435
4	0xbbe4512c	-0.0069676843
5	0xbb2ce70b	-0.002638283
6	0xb30cce0c	-3.278369e-08
7	0xb1b34142	-5.2170046e-09

global_block.conv_time.conv.1.weight f4 [8]
0	0x3f6afdd6	0.9179357
1	0x3f6d5c30	0.9271879
2	0x3f57bcfb	0.84272736
3	0x3f4fe441	0.8120766
4	0x3f80b7b5	1.0056063
5	0x3f4ab784	0.7918627
6	0x3f65b6f3	0.89732283
7	0x3f601556	0.87532556

global_block.conv_time.conv.1.bias f4 [8]
0	0xbce151b4	-0.02750478
1	0xbc1da589	-0.009621986
2	0x3dc3c508	0.09559065
3	0xbb99e5fd	-0.004696606
4	0xbcdd4c22	-0.027013842
5	0x3d4fac1b	0.050701242
6	0xbd0d740d	-0.034534503
7	0x3c217d54	0.009856541

global_block.conv_time.conv.1.running_mean f4 [8]
0	0x3c6f74a6	0.0146152135
1	0x3c86fec1	0.016478898
2	0x3c36afa9	0.011150279
3	0xbbd13517	-0.0063845026
4	0xbccbac85	-0.024862537
5	0xbcbbb661	-0.022914113
6	0x3ae4b443	0.0017448742
7	0x3ba04074	0.004890496

global_block.conv_time.conv.1.running_var f4 [8]
0	0x41727d79	15.155633
1	0x414ac02d	12.671918
2	0x41985f5a	19.046558
3	0x413d32c1	11.824891
4	0x41718bb3	15.096606
5	0x418a158b	17.260519
6	0x4178f877	15.56066
7	0x418d62e2	17.673283

global_block.conv_chan.conv.0.weight f4 [8, 8, 11, 1]
0	0xbdb89c9c	-0.09014246
1	0xbca97433	-0.02068529
2	0xbc357787	-0.011075861
3	0xbd4d07ac	-0.050056145
4	0x3dbe3c15	0.092888035
5	0x3da46c8a	0.08028515
6	0x3d7ea19d	0.062165845
7	0xbda36b19	-0.07979412
8	0x3d19064c	0.03735952
9	0xbcc1c9b7	-0.023655755
10	0x3dd4dd8d	0.1039382
11	0x3d599622	0.053121693
12	0xbda959fd	-0.08269117
13	0xbd974048	-0.073853076
14	0x3d97699f	0.073931925
15	0x3c2c6807	0.010522849
16	0x3c876f8f	0.016532687
17	0xbcc40850	-0.023929745
18	0xbe04237c	-0.12904161
19	0x3d8d617b	0.069033585
20	0xbd7083f1	-0.05871958
21	0x3cfccd9a	0.030859757
22	0xbd47b236	-0.04875394
23	0x3c9d777f	0.01922202
24	0x3d60cc1a	0.054882146
25	0xbcd62a3d	-0.026143188
26	0xbc866fa6	-0.01641066
27	0xbd90bdbc	-0.07067439
28	0x3d97181d	0.07377646
29	0xbcf47ef9	-0.029845702
30	0xbd3a68c6	-0.045510076
31	0xbd01d9ae	-0.031701736
32	0xbc83c784	-0.016086347
33	0x3d2d4c12	0.042308874
34	0xbd592198	-0.053010553
35	0xbd76bde3	-0.060239684
36	0xbc6db0eb	-0.014507513
37	0xbc9fb043	-0.019493228
38	0x3c304583	0.01075876
39	0xbcd21d08	-0.025648609
40	0xbdc6b6ee	-0.0970286
41	0x3abc8d47	0.0014385366
42	0x3d6af10d	0.05735879
43	0x3d89bbaa	0.06725247
44	0xbdcf56b5	-0.1012396
45	0x3d8093cb	0.06278189
46	0xbb810334	-0.0039371494
47	0xbda15ae5	-0.07878665
48	0xbdb3b074	-0.0877389
49	0xbd1f943d	-0.03895973
50	0x3dc39f19	0.0955183
51	0x3d94a0b9	0.07257218
52	0x3d49a125	0.049225945
53	0xbc2b173a	-0.010442549
54	0xbe0667cb	-0.13125531
55	0xbc94b311	-0.018151792
56	0x3c9a56bc	0.018840186
57	0x3d820b0a	0.06349762
58	0xbcdee70c	-0.027209781
59	0xbe1e7e54	-0.15477878
60	0x3d275308	0.04085067
61	0x3d7cde2a	0.06173531
62	0x3ded5c4f	0.11589872
63	0xbcb8bd2d	-0.022551144
64	0x3d9295a9	0.07157452
65	0xbd7e103a	-0.062027194
66	0x3d3f0a61	0.046640757
67	0xbd2a6bee	-0.041606836
68	0x3c6cf613	0.014462966
69	0x3c34cc05	0.01103497
70	0xbc3a4070	-0.011367902
71	0xbd971fb7	-0.07379096
72	0x3c7f802f	0.015594526
73	0xbc86d00a	-0.016456623
74	0x3d27627d	0.04086541
75	0x3d26890b	0.040658038
76	0xbccb4e6d	-0.02481767
77	0xbd73cc05	-0.05952074
78	0xbd5f678f	-0.05454212
79	0xbd67ad36	-0.05656167
80	0xbce744ad	-0.02823099
81	0xbcc3e5c2	-0.023913268
82	0x3df6c2bf	0.120488636
83	0x3d8c09e8	0.06837827
84	0xbded99d7	-0.11601608
85	0xbc60071a	-0.013673568
86	0xbcbdead3	-0.023183262
87	0x3bb31d37	0.005466129
88	0xbb85cd77	-0.004083331
89	0xbd9ab728	-0.075544655
90	0xbd1338c4	-0.035942808
91	0x3cc9c1d8	0.024628565
92	0xbb3c902f	-0.0028772464
93	0xbd3d8058	-0.046264976
94	0xbc96a52c	-0.018389307
95	0x3cade43a	0.021226991
96	0x3d2e7375	0.042590577
97	0x3d893936	0.06700365
98	0xbcd678e3	-0.02618069
99	0x3c1fbad1	0.00974913
100	0xbdcfc8e7	-0.10145741
101	0x3c3be08d	0.011467111
102	0x3c848d13	0.01618055
103	0x3d8dda53	0.06926408
104	0xbbb393d2	-0.005480268
105	0xbdc12481	-0.09430791
106	0x3d59e35f	0.053195354
107	0x3d4e95b5	0.05043574
108	0x3d8724f1	0.06598843
109	0x3da4b198	0.08041686
110	0x3dbd1d5d	0.09234116
111	0xbe22cf6c	-0.15899438
112	0xbd303e80	-0.043028355
113	0xbd578a12	-0.05262191
114	0x3d25a467	0.04043999
115	0x3d7d0374	0.06177087
116	0xbd494001	-0.049133305
117	0xbd618484	-0.055058017
118	0xbd101aa5	-0.03518166
119	0x3d955072	0.07290734
120	0x3dab8fc0	0.083770275
121	0xbd1cab8c	-0.038249537
122	0xbd94abe1	-0.07259346
123	0xbd910fe3	-0.07083108
124	0x3d3ea1fe	0.046541207
125	0xbc4e1837	-0.012579015
126	0xbd2a5ab5	-0.04159041
127	0x3d463a40	0.048395395
128	0x3d8749cf	0.06605875
129	0x3da8cbf2	0.082420245
130	0xbd337775	-0.043815095
131	0xbdd81796	-0.10551374
132	0x3d5430d8	0.051804394
133	0x3e03dd84	0.1287747
134	0x3c57400a	0.013137827
135	0xbd8f8340	-0.07007456
136	0x3b831bb8	0.004001107
137	0xbdac9ee9	-0.08428747
138	0x3ce7a8cf	0.028278736
139	0x3db0efd2	0.08639492
140	0x3d5eb2c8	0.054369718
141	0xbde31211	-0.1108743
142	0xbd5a3a4f	-0.053278264
143	0xbd7ec8dd	-0.062203277
144	0x3df1dd2d	0.11809764
145	0x3d52e3f7	0.051486935
146	0xbd0a90a6	-0.033829354
147	0xbded214b	-0.11578616
148	0xbcaaecba	-0.020864833
149	0x3d4e5e45	0.05038287
150	0xbc992d13	-0.01869825
151	0xbd37b213	-0.04484756
152	0xbd501319	-0.050799463
153	0x3d4f9504	0.05067922
154	0xbd5c9888	-0.053856403
155	0xbe1559bb	-0.1458501
156	0xbc25634d	-0.010094476
157	0x3d9be55e	0.07612108
158	0x3cdfa698	0.027301118
159	0xbca1bec2	-0.01974428
160	0xbc291510	-0.010319963
161	0x3cabb9df	0.020962654
162	0x3d26884d	0.04065733
163	0xbcbfa3a1	-0.023393454
164	0x3d8ed398	0.06973952
165	0xbd4277d5	-0.047477562
166	0x3cb48ac3	0.022038823
167	0x3cf57d0c	0.029966854
168	0xbd2b592a	-0.04183308
169	0xbdc26fc5	-0.094939746
170	0x3d1a04da	0.037602283
171	0xbb88726e	-0.0041640317
172	0x3dbc5cdd	0.091974
173	0xbd941c4a	-0.07231958
174	0xbd4b0825	-0.049568314
175	0xbd09d3a2	-0.033649094
176	0xbca8c82c	-0.020603262
177	0xbd032ab9	-0.032023165
178	0xbdc89e89	-0.09795863
179	0x3c95d45e	0.018289741
180	0x3d571d2e	0.052518062
181	0x3a840ce6	0.0010074645
182	0xbd900323	-0.07031848
183	0x3d37190c	0.04470162
184	0xba9b7db9	-0.001186303
185	0x3d83d6fc	0.064374894
186	0x3c41af1a	0.011821533
187	0xbd50ddd2	-0.050992794
188	0xbe3acc01	-0.18241884
189	0xbc8846c8	-0.016635314
190	0x3ce6ef44	0.028190263
191	0x3dba3ce4	0.09093645
192	0xbc99bab9	-0.018765794
193	0x3d28a9e5	0.04117765
194	0x3d94ddb2	0.072688475
195	0x3d4bafbc	0.04972814
196	0x3d14d6f2	0.0363378
197	0x3d9993b2	0.07498874
198	0x3ccb5522	0.024820868
199	0x3e0d7cc2	0.13817123
200	0xbd9d4118	-0.07678431
201	0xbd68bdea	-0.05682174
202	0xbd61a322	-0.055087216
203	0xbd9adddf	-0.0756185
204	0x3d198dbd	0.037488688
205	0x3df14775	0.117812075
206	0x3d8cbcc2	0.0687194
207	0xbd4237b4	-0.047416404
208	0xbc4b7fba	-0.012420589
209	0x3c23b785	0.009992485
210	0x3cbab34a	0.02279057
211	0x3cf6ca2c	0.0301257
212	0xbdbfb834	-0.09361306
213	0xbcf269bc	-0.029591434
214	0xbdacfa19	-0.0844614
215	0xbd0d1a32	-0.03444881
216	0x3dfbd95f	0.122973196
217	0x3c549ef2	0.012977349
218	0x3b84c84b	0.004052197
219	0xbd8bdd9c	-0.06829378
220	0xbd37b2dc	-0.044848308
221	0xbe1ddcab	-0.1541621
222	0x3c7cf4c3	0.015439215
223	0x3d76a755	0.060218174
224	0x3d28f07f	0.04124498
225	0x3db3985d	0.08769295
226	0xbdab8ab3	-0.08376064
227	0x3d19df25	0.037566323
228	0x3c000886	0.007814532
229	0xbd77068d	-0.06030898
230	0x3c0c6ea3	0.0085713
231	0x3bf939d5	0.007605771
232	0x3c14665d	0.009057608
233	0x3c9bc998	0.019017026
234	0x3dc8282e	0.09773289
235	0xbcc2fc84	-0.02380205
236	0x3c877586	0.016535532
237	0xbda65349	-0.08121354
238	0xbd47669f	-0.04868185
239	0xbdce1785	-0.1006308
240	0x3d16c136	0.036805354
241	0x3d413dab	0.04717795
242	0xbda3e954	-0.08003488
243	0x3e0882bc	0.13331121
244	0xbd1c360f	-0.03813749
245	0xbde13fd0	-0.109984994
246	0xbd4b30cb	-0.04960708
247	0x3be0693b	0.006848482
248	0x3d85cb76	0.06532948
249	0xbc5d8203	-0.013519767
250	0x3d9417fa	0.07231136
251	0x3caa69db	0.020802429
252	0xbda3c7b6	-0.07997076
253	0xbd108d96	-0.035291277
254	0xbd388ff5	-0.045059163
255	0xbca5752b	-0.020197472

global_block.conv_chan.conv.0.bias f4 [8]
0	0xb3843149	-6.155694e-08
1	0xb1dfab47	-6.509626e-09
2	0xbb20bff5	-0.0024528478
3	0xb5e94ef8	-1.7382836e-06
4	0x3a3d2747	0.00072156306
5	0xbc22e9af	-0.00994341
6	0x32d1c867	2.4421935e-08
7	0x31eba13f	6.8577317e-09

global_block.conv_chan.conv.1.weight f4 [8]
0	0x3f7636b7	0.9617724
1	0x3f6f8a36	0.9357027
2	0x3f80a86f	1.0051402
3	0x3f5df0ac	0.8669536
4	0x3f64c1a1	0.89357954
5	0x3f505dae	0.81392944
6	0x3f6d4c24	0.92694306
7	0x3f5d1e11	0.86374

global_block.conv_chan.conv.1.bias f4 [8]
0	0xbe7d774f	-0.24752544
1	0xbddd6603	-0.10810473
2	0xbe1c1bd5	-0.15244992
3	0xbde65d3a	-0.1124825
4	0xbe0c6a1c	-0.13712353
5	0xbe1672c2	-0.14692214
6	0xbe278b89	-0.16361822
7	0xbe13e97e	-0.14444539

global_block.conv_chan.conv.1.running_mean f4 [8]
0	0xbda34185	-0.07971481
1	0xbd855ceb	-0.06511863
2	0xbd3b901b	-0.045791727
3	0xbd2adb14	-0.041712835
4	0x3c6177c5	0.013761465
5	0xba2a27ee	-0.00064909353
6	0xbd240eaf	-0.040053066
7	0xbcbf8111	-0.023376973

global_block.conv_chan.conv.1.running_var f4 [8]
0	0x3db76361	0.08954502
1	0x3e0232a1	0.12714626
2	0x3e132e4c	0.1437313
3	0x3e0af8bd	0.13571449
4	0x3d8694b8	0.065713346
5	0x3ddfc2d6	0.10925834
6	0x3d98ae0b	0.07455071
7	0x3d8af111	0.06784261

local_block.conv_time.conv.0.weight f4 [8, 1, 1, 51]
0	0xbd8d74de	-0.06907056
1	0x3c28c362	0.010300489
2	0x3c8352e4	0.016030736
3	0xbc0466d3	-0.008081156
4	0xbd33a9aa	-0.043862976
5	0xbe0b62a4	-0.13611847
6	0x3ce6d761	0.028178873
7	0xbcb3a2a3	-0.021928137
8	0x3dd838ba	0.10557695
9	0x3b35a7f9	0.0027718528
10	0xbd881f78	-0.06646627
11	0x3a895075	0.0010476249
12	0x3dd75c26	0.10515623
13	0xbda75435	-0.08170358
14	0x3cca9a05	0.024731645
15	0xbd12d832	-0.03585071
16	0xbd490b07	-0.049082782
17	0x3e167171	0.14691712
18	0x3e2aa4e8	0.16664469
19	0x3d6ae731	0.057349388
20	0xbe1d5f39	-0.15368356
21	0xbd2d8234	-0.0423605
22	0xbca4c6bb	-0.020114293
23	0xbcc1d6fb	-0.023662081
24	0x3c426ec3	0.011867228
25	0x3dc00162	0.09375264
26	0x3b8c3c84	0.004279675
27	0xbd093961	-0.033501986
28	0x3d32ccfe	0.043652527
29	0x3ddbb1f8	0.10727304
30	0x3c58e8e2	0.013239117
31	0x3d861e16	0.06548707
32	0x3d2056dd	0.03914534
33	0xbdd64733	-0.10462799
34	0x3dd5c586	0.10438065
35	0x3e07b006	0.13250741
36	0x3a8362b9	0.0010023928
37	0xbe5ec172	-0.21753481
38	0xbd4f679b	-0.050635915
39	0x3dad4633	0.08460655
40	0x3dc93d00	0.09826088
41	0xbdb7912f	-0.089632384
42	0x3e0d90de	0.13824794
43	0x3e0ccbc0	0.137496
44	0x3d200da6	0.039075516
45	0xbd799681	-0.060934547
46	0xbb876bd2	-0.004132726
47	0xbd633c31	-0.055477325
48	0xbd02b672	-0.031912275
49	0x3d812b1b	0.0630705
50	0xbd03bd04	-0.03216268
51	0x3cc2cbff	0.023778914
52	0xbd642634	-0.055700496
53	0xbd2f4d09	-0.042798076
54	0xbd99dc45	-0.07512716
55	0xbbf39ce0	-0.0074344724
56	0xbd7ba47c	-0.06143616
57	0xbd5c9d06	-0.053860687
58	0x3d0fcbc5	0.03510644
59	0xbdd745b2	-0.1051134
60	0x3cf2ce42	0.029639367
61	0xbd70bb89	-0.058772597
62	0x3dfa373d	0.12217567
63	0x3dd723af	0.10504853
64	0xbc01fba4	-0.007933531
65	0xbbaaa12d	-0.005207202
66	0xbaca963f	-0.0015456154
67	0xbbcff691	-0.0063465317
68	0xbdc16e64	-0.094448835
69	0xbc98839f	-0.01861745
70	0xbbca329a	-0.006170583
71	0xbd99bef4	-0.075071245
72	0x3d0ff181	0.035142425
73	0xbd6ad693	-0.05733354
74	0xbd2c1ac9	-0.04201773
75	0x3d20dcba	0.039273
76	0xbd5c8a57	-0.05384287
77	0xbb418dc8	-0.002953397
78	0x3d983047	0.07431083
79	0x3e063572	0.13106325
80	0x3d8bfac7	0.06834941
81	0xbd37be4f	-0.044859227
82	0x3c9b0f87	0.018928302
83	0xbd146313	-0.036227297
84	0x3d22e045	0.03976466
85	0x3dbb69c6	0.09151034
86	0xbd2d77cc	-0.042350575
87	0x3d36ccac	0.044628784
88	0x3d546b24	0.05185999
89	0x3dd49cc6	0.10381465
90	0x3d9e6f5c	0.07736084
91	0x3b2477bb	0.002509578
92	0xbccd829a	-0.02508669
93	0xbdda95a0	-0.1067307
94	0xbd3d2043	-0.046173345
95	0x3d112b63	0.035441767
96	0x3e232ea3	0.15935759
97	0x3caffdbc	0.021483295
98	0x3d4b74b7	0.049671855
99	0xbcd7dae7	-0.026349498
100	0x3d919a3a	0.071094945
101	0xbd9aada5	-0.07552651
102	0xbd5f4d7e	-0.05451726
103	0xbe013325	-0.12617166
104	0x3d821098	0.06350821
105	0xbd39e3e8	-0.045383364
106	0xbcee4744	-0.029086716
107	0x3d5c6128	0.053803593
108	0x3d054be5	0.03254308
109	0x3cfcc7e5	0.030857036
110	0x3df7413c	0.12072989
111	0xbbe44daa	-0.006967266
112	0x3df5cd43	0.12002041
113	0x3c8d2a8d	0.017232204
114	0xbd664d6a	-0.05622617
115	0xbd0e3a29	-0.034723435
116	0xbd2a1ac0	-0.041529417
117	0xbd1b366d	-0.0378937
118	0xbd334e26	-0.0437757
119	0xbc8c4651	-0.017123373
120	0xbdc07ba3	-0.09398582
121	0x3de1b6fc	0.110212296
122	0x3e119023	0.1421514
123	0x3d998d8f	0.07497703
124	0x3dc552af	0.09634911
125	0xbd539c70	-0.051662862
126	0x3a4496ae	0.00074992597
127	0xbd81dd8d	-0.063410856
128	0x3cd517c6	0.026012313
129	0xbd3b6c79	-0.045757744
130	0xbd37fcb2	-0.044918723
131	0x3d216120	0.039399266
132	0xbb9d8f98	-0.0048083775
133	0xbd5fd045	-0.05464198
134	0x3b0c4490	0.002140317
135	0xbd54b6ea	-0.051932253
136	0x3d263b11	0.040583674
137	0xbd9767f3	-0.073928736
138	0x3c8d12b2	0.017220829
139	0x3e2010f1	0.15631463
140	0x3d4ffbfa	0.050777413
141	0x3de8dcf6	0.1137027
142	0x3db1a731	0.08674467
143	0xbda05846	-0.07829337
144	0xbe12ae3a	-0.14324275
145	0xbcd74b5e	-0.026281055
146	0xbd93fb32	-0.07225646
147	0xbdac2457	-0.08405369
148	0xbdcb9e04	-0.099422485
149	0x3de79a1b	0.1130869
150	0x3e06fe18	0.13182867
151	0xbd466f3a	-0.048445918
152	0xbcab79e0	-0.020932138
153	0x3d25417f	0.040345665
154	0x3c8e3955	0.017361322
155	0x3a9caac7	0.0011952751
156	0x3d0c60b0	0.034271896
157	0x3d84a9d2	0.06477703
158	0xbc2ae27f	-0.010429977
159	0x3c075903	0.008260968
160	0xba34fb25	-0.00069038785
161	0x3dc0236f	0.093817584
162	0xbd79b2df	-0.0609616
163	0xbc8ab008	-0.016929641
164	0x3d62d5df	0.055379745
165	0xbdfab654	-0.122418076
166	0xbd832a6e	-0.06404577
167	0x3d71afae	0.05900543
168	0xbd3692bd	-0.044573534
169	0x3d3355b7	0.043782916
170	0x3ce0d2ec	0.027444325
171	0x3d8b37ca	0.0679775
172	0x3e10ba83	0.14133649
173	0x3c63c420	0.01390174
174	0xbd6d207a	-0.0578923
175	0x3d62917d	0.05531453
176	0xbd87196c	-0.06596646
177	0xbcf82194	-0.030289449
178	0x3d229401	0.03969193
179	0xbcc6a333	-0.024247741
180	0xbd29a17f	-0.04141378
181	0xbd5a569d	-0.053305257
182	0x3d822367	0.06354409
183	0xbdac12ce	-0.08402024
184	0x3da756b6	0.08170836
185	0xbd90aefd	-0.07064626
186	0x3d91ca46	0.07118659
187	0x3df7ec5b	0.12105628
188	0x3c3b1614	0.011418838
189	0xbd805ee2	-0.062680975
190	0x3d4c6d91	0.04990918
191	0x3d029c15	0.031887133
192	0xbdc22254	-0.09479204
193	0xbe233f04	-0.15942007
194	0x3d6ef091	0.05833489
195	0xbcf93fc4	-0.030425914
196	0xbb46a571	-0.0030311013
197	0xbe19aff7	-0.15008532
198	0xbdb52e44	-0.08846715
199	0x3d70e4d7	0.05881199
200	0xbd9e5132	-0.077303305
201	0x3d8a949b	0.067666255
202	0x3bef402d	0.0073013515
203	0x3e11efd2	0.1425164
204	0xbd64132a	-0.05568234
205	0x3d9b5367	0.07584267
206	0xbdd782c0	-0.105229855
207	0xbd3b33ef	-0.045703825
208	0xbcfcdb1c	-0.030866198
209	0xbdc6b474	-0.097023875
210	0x3c83f07d	0.016105885
211	0xbcb66d42	-0.022268895
212	0x3d4e2b55	0.050334293
213	0x3d0eee21	0.034895066
214	0xbd87de3c	-0.06634185
215	0xbd77f6bb	-0.060538035
216	0xbdd35daa	-0.103205994
217	0x3c8361b4	0.0160378
218	0x3cac6879	0.02104591
219	0xbd323d31	-0.043515388
220	0x3d84941d	0.06473563
221	0xbdc49600	-0.09598923
222	0x3cc07ca4	0.023496933
223	0x3d616a94	0.05503328
224	0xbe05f3b4	-0.13081247
225	0xbda23a1c	-0.0792124
226	0xbcac968d	-0.021067882
227	0xbbd55d2e	-0.006511352
228	0x3d03e916	0.03220471
229	0x3d2507d0	0.040290654
230	0x3d90cf01	0.07070733
231	0xbcc0211c	-0.023453288
232	0xbda10d5e	-0.07863878
233	0xbd22c97f	-0.039742943
234	0xbb9a3575	-0.0047060796
235	0xbd257959	-0.04039893
236	0xbd4ed414	-0.050495222
237	0x3d67d054	0.05659516
238	0x3babffb2	0.005248987
239	0xbd0e4470	-0.034733236
240	0x3da94c4b	0.08266505
241	0xbda52e2f	-0.080654494
242	0xbdcbcb72	-0.099509135
243	0x3c6c40c9	0.014419743
244	0xbe05d52f	-0.13069604
245	0xbdad2868	-0.084549725
246	0x3e1dd0b7	0.1541165
247	0x3e14a1bc	0.14514822
248	0xbde49dfc	-0.11162946
249	0xbdf07e67	-0.11742859
250	0xbe37852d	-0.17921896
251	0xbd6a1189	-0.05714563
252	0xbd0fb0ef	-0.035080846
253	0x3c962dc7	0.018332375
254	0x3bbb0cc3	0.0057083084
255	0x3cdde1d9	0.027085232

local_block.conv_time.conv.0.bias f4 [8]
0	0x3acfd20e	0.0015855448
1	0xbccecc98	-0.025244042
2	0x3b06ef9d	0.0020589598
3	0x3ce914dd	0.028452331
4	0x3c06ec28	0.008235015
5	0x3c983f6f	0.018584935
6	0x3cf1d5fa	0.029520977
7	0x3c857bc4	0.016294368

local_block.conv_time.conv.1.weight f4 [8]
0	0x3f74a383	0.95562
1	0x3f5c553a	0.86067545
2	0x3f4cbe74	0.7997811
3	0x3f51c949	0.8194776
4	0x3f477e71	0.7792731
5	0x3f800d9d	1.0004154
6	0x3f54f28b	0.8318259
7	0x3f75f5e1	0.96078306

local_block.conv_time.conv.1.bias f4 [8]
0	0x3cfb4b41	0.030675532
1	0x3d59c65b	0.053167682
2	0x3ba0dd15	0.0049091675
3	0x3d4d8729	0.050177727
4	0xbcaefc3d	-0.021360511
5	0xbbc6240e	-0.0060467785
6	0x3da10bbc	0.07863566
7	0xbdf44624	-0.11927441

local_block.conv_time.conv.1.running_mean f4 [8]
0	0x3bb1b3a1	0.0054230248
1	0xbd01169d	-0.031515706
2	0x3c37b9f4	0.011213768
3	0x3d0b52a5	0.034014363
4	0x3cab30fc	0.020897381
5	0x3c4e3284	0.012585286
6	0x3d285461	0.041096095
7	0x3c6c5481	0.014424444

local_block.conv_time.conv.1.running_var f4 [8]
0	0x41003088	8.011848
1	0x41086553	8.524737
2	0x41707561	15.028657
3	0x41156419	9.336938
4	0x40ec3326	7.3812437
5	0x4116bf0b	9.421641
6	0x41340f80	11.253784
7	0x40f6dd1a	7.71449

local_block.conv_chan.conv.0.weight f4 [8, 8, 11, 1]
0	0xbca002fc	-0.019532673
1	0x3d4a923d	0.04945587
2	0xbc7d60ba	-0.015464956
3	0xbcd8493b	-0.026402107
4	0x3b30e6a6	0.0026992946
5	0x3c964606	0.018343937
6	0xbc34dfac	-0.011039656
7	0xbd21935d	-0.039447177
8	0xbd47d91c	-0.048791036
9	0x3d5d03ce	0.053958707
10	0xbd4fef58	-0.050765365
11	0xbc59b462	-0.0132876355
12	0x3ca54d34	0.020178415
13	0x3ced63b4	0.028978206
14	0xbd1c26e3	-0.038123023
15	0x3dce151e	0.100626215
16	0x3d3c679b	0.045997243
17	0xbd4afc33	-0.049556922
18	0xbe38cb8d	-0.18046398
19	0xbcb6538a	-0.022256631
20	0x3c9584f6	0.018251877
21	0x3d0ae146	0.033906244
22	0x3c9ec406	0.01938058
23	0x3da82f15	0.08212105
24	0x3c9a698e	0.01884916
25	0x3d77771a	0.06041632
26	0xbb0e21d5	-0.0021687646
27	0xbd4abbbb	-0.04949544
28	0xbd2fd7a7	-0.04293027
29	0xbb0af09c	-0.0021200543
30	0xbdb742e3	-0.089483045
31	0x3bc97a36	0.006148602
32	0xbdd81d9f	-0.10552525
33	0xbc1e5a09	-0.009665021
34	0xbcb07113	-0.021538293
35	0xbd31eace	-0.043436818
36	0x3bfe2c61	0.007756755
37	0x3c584bf3	0.013201701
38	0x3dab4181	0.08362103
39	0x3cc764bb	0.024340024
40	0x3d74d3ed	0.05977242
41	0xbdbe09bf	-0.09279203
42	0xbb9efcc8	-0.004851911
43	0x3daae8c5	0.083451785
44	0x3c570fb0	0.013126299
45	0xbcaeeab8	-0.021352157
46	0xbd8d1a9a	-0.068898395
47	0xbcfffdfb	-0.031249037
48	0xbc6eeff5	-0.014583577
49	0xbd8061ac	-0.062686294
50	0x3d7def71	0.061995927
51	0x3dd0aef7	0.10189622
52	0xbcbddf17	-0.023177667
53	0x3bfe6323	0.007763283
54	0xbd1ffcfd	-0.039059628
55	0xbce2fbdb	-0.027707985
56	0x3e1f247b	0.1554126
57	0x3d19a602	0.037511833
58	0x3d95c677	0.07313245
59	0x3c21fcbf	0.0098869195
60	0xbcbba516	-0.022905868
61	0x3dd075b6	0.101787016
62	0xbdebb493	-0.11509051
63	0xbe026ae8	-0.12736094
64	0xbb8be90b	-0.0042697242
65	0x3cd438a4	0.025905915
66	0xbb4cd15a	-0.0031252713
67	0x3d99df07	0.07513242
68	0xbccc47e6	-0.024936628
69	0x3df6f28d	0.12057982
70	0xbd0d0d26	-0.034436367
71	0xbd90d78a	-0.07072361
72	0xbcbe99e7	-0.023266746
73	0x3de68f1d	0.112577654
74	0x3d057a9a	0.032587625
75	0xbd93345e	-0.071877226
76	0xbcd00d5a	-0.025396992
77	0xbd484880	-0.048897266
78	0x3cdd83e7	0.027040435
79	0x3d220481	0.039555077
80	0xbca0e47d	-0.019640202
81	0xbc1a8ae4	-0.009432528
82	0xbdb7dc3c	-0.08977553
83	0x3d5eb5e3	0.05437268
84	0x3d30e85b	0.04319034
85	0x3db0f18b	0.08639821
86	0xbd744ec4	-0.05964543
87	0xbdb85bbc	-0.09001872
88	0x3c17531f	0.009236126
89	0xbc3010e8	-0.010746218
90	0x3cffd775	0.031230668
91	0xbd06b407	-0.03288653
92	0x3dbf65d8	0.09345597
93	0x3beddec5	0.007259222
94	0x3b4ace0b	0.0030945565
95	0xbd49932b	-0.049212616
96	0xbd829dc8	-0.06377751
97	0xbb07e539	-0.0020735993
98	0xbd5e13d5	-0.054218132
99	0xbd2fb9ed	-0.042901922
100	0x3dac1124	0.08401707
101	0x3d60ff07	0.054930713
102	0xbc33340b	-0.010937701
103	0xbd083680	-0.0332551
104	0xbd53ed55	-0.05174001
105	0x3d2f8f36	0.042861186
106	0x3ce54f61	0.027991952
107	0xbd869381	-0.06571103
108	0x3d94af0d	0.07259951
109	0xbd7b19f9	-0.061304066
110	0xbe05756f	-0.13033079
111	0x3d36137a	0.044452168
112	0xbdb05142	-0.08609249
113	0xbbb3caff	-0.0054868455
114	0x3d07bf57	0.03314146
115	0xbdbd5659	-0.09244985
116	0x3d2d6d76	0.04234072
117	0x3e7b4b4f	0.24540447
118	0x3d0ea83b	0.034828406
119	0xbca192c4	-0.019723304
120	0xbc471b47	-0.0121524995
121	0x3d7a1c53	0.06106217
122	0xbdbcbb85	-0.09215454
123	0xbd632754	-0.055457428
124	0xbd3e4086	-0.046448253
125	0xbc374f2b	-0.011188309
126	0x3d18aeea	0.037276186
127	0xbb16c113	-0.0023003265
128	0x3b8eb036	0.004354502
129	0xbce296e0	-0.027659833
130	0xbd900954	-0.07033029
131	0x3dd59221	0.104282625
132	0x3c768c46	0.015048092
133	0xbbc0f8e2	-0.005889044
134	0x3c7ed084	0.015552644
135	0xbd226900	-0.039650917
136	0xbcab28e8	-0.020893529
137	0x3d93815b	0.07202407
138	0xbd25e2b7	-0.040499415
139	0xbe2bcbcf	-0.16776966
140	0x3d000d40	0.031262636
141	0xbcf9f2ca	-0.030511279
142	0x3b09fd32	0.0021055457
143	0x3d4c93cb	0.049945634
144	0xbdde39c4	-0.10850862
145	0xbcc9c815	-0.02463154
146	0x3d9bae41	0.07601596
147	0xbd59c733	-0.053168487
148	0x3af25c4a	0.0018490639
149	0x3d82cec5	0.063870944
150	0xbb8d5a3c	-0.0043137353
151	0x3c44303a	0.011974389
152	0x3dc0cf45	0.094145335
153	0xbcee4a76	-0.02908824
154	0xbd3d0d75	-0.04615541
155	0xbd4ceb90	-0.050029337
156	0xbdacead3	-0.08443227
157	0x3c3e1b71	0.011603222
158	0xbc3c99b1	-0.011511252
159	0xbd5bef62	-0.05369509
160	0x3cb66b2b	0.022267899
161	0x3e11e910	0.14249063
162	0x3d29a57e	0.04141759
163	0x3c48591d	0.0122282775
164	0x3c684d94	0.014178652
165	0x3d0ce437	0.03439733
166	0x3dcdab96	0.10042493
167	0xbd03906a	-0.032120146
168	0x3d20ed03	0.039288532
169	0x3d103c7a	0.035213925
170	0xbca0c569	-0.019625382
171	0xbd96999c	-0.073535174
172	0x3dae5a4c	0.085133165
173	0x3d50efd3	0.051009964
174	0x3bff386f	0.00778871
175	0xbd31816e	-0.043336324
176	0x3d382b5b	0.044963222
177	0xbda671f5	-0.08127204
178	0xbde21b9c	-0.11040422
179	0x3e34a2e8	0.17640269
180	0x3df5d3f7	0.1200332
181	0xbb9bdb63	-0.0047563775
182	0xbdda25ee	-0.10651766
183	0xbc5ec51b	-0.013596798
184	0x3d056b10	0.032572806
185	0x3d866c23	0.06563594
186	0xbc473a4b	-0.012159894
187	0xbde61163	-0.11233785
188	0xbe1e050f	-0.15431617
189	0xbdb81251	-0.089878686
190	0x3dc407a2	0.09571768
191	0x3d802466	0.062569425
192	0x3c05d3a0	0.008168131
193	0x3c12ea7c	0.008967038
194	0x3d8a3e04	0.0675011
195	0x3d0659b6	0.0328004
196	0xbc7c342c	-0.015393298
197	0x3d7c8bad	0.061656643
198	0xbc9784b0	-0.018495888
199	0xbd795a9d	-0.06087743
200	0x3d98d245	0.07461981
201	0xbd9e27df	-0.077224486
202	0x3d45988b	0.04824118
203	0xbc40ea73	-0.011774647
204	0x3d3653df	0.04451358
205	0x396bf253	0.00022501619
206	0x3d22eebd	0.03977846
207	0xbd547ff2	-0.05187983
208	0xbd2fcc7f	-0.042919632
209	0xbd8b6fa4	-0.06808403
210	0x3d807b91	0.062735684
211	0xbd35ab8b	-0.04435305
212	0x3cf8fe0b	0.030394575
213	0x3d84eac2	0.06490089
214	0x3cdef217	0.027215047
215	0xbdb299fa	-0.08720775
216	0xbc9154b7	-0.01774059
217	0xbc87e838	-0.016590223
218	0x3de0cd3b	0.109766446
219	0xbd186a47	-0.03721073
220	0xbd3e98c8	-0.046532422
221	0x3bff9998	0.007800292
222	0x3bf5a3a7	0.0074963155
223	0x3d15a20c	0.036531493
224	0x3c94f226	0.018181872
225	0x3d959fc4	0.073058635
226	0x3b93c006	0.004508975
227	0xbd69cc48	-0.057079583
228	0xbd51fead	-0.05126827
229	0x3cf3b01f	0.029747067
230	0x3cabdedc	0.020980291
231	0xbcd05f79	-0.02543615
232	0xbdf18e75	-0.1179475
233	0xbd366d94	-0.044538096
234	0xbc1b5d63	-0.009482714
235	0x3d796285	0.06088497
236	0x3dd06233	0.1017498
237	0xbcda9274	-0.026681162
238	0xbda7ebb3	-0.08199253
239	0x3de4a3b7	0.11164039
240	0x3cef84d1	0.029238136
241	0xbc927b50	-0.017881066
242	0x3c1dfe6b	0.0096431775
243	0x3d73c551	0.059514347
244	0xbda77d61	-0.08178211
245	0xbe3348a6	-0.17508182
246	0xbd03ee14	-0.03220947
247	0x3d2aef7f	0.041732308
248	0xbd61f894	-0.055168703
249	0x3e2ff235	0.17182238
250	0xbd81702c	-0.06320223
251	0x3cc0abb2	0.02351937
252	0xbd2eba27	-0.042657997
253	0x3c51727d	0.012783644
254	0x3cd7b53c	0.026331536
255	0xbd92db85	-0.07170776

local_block.conv_chan.conv.0.bias f4 [8]
0	0xbc983b3c	-0.018582933
1	0xb28e375e	-1.6556154e-08
2	0x3ae04b57	0.0017112297
3	0x3b8b1e11	0.0042455276
4	0x3af85d93	0.0018948786
5	0x3807110a	3.2202377e-05
6	0x3c7b42e9	0.015335777
7	0xb1f729a1	-7.193379e-09

local_block.conv_chan.conv.1.weight f4 [8]
0	0x3f4032f0	0.75077724
1	0x3f6ce15e	0.92531383
2	0x3f7721f5	0.9653619
3	0x3f6349ad	0.88784295
4	0x3f50e730	0.81602764
5	0x3f88bfd2	1.0683539
6	0x3f66bf9b	0.90136117
7	0x3f62dbe7	0.88616794

local_block.conv_chan.conv.1.bias f4 [8]
0	0xbe0e7410	-0.13911462
1	0xbe4116d6	-0.18856367
2	0xbd91ec31	-0.07125128
3	0xbe3a5669	-0.18197025
4	0xbe1d2b5a	-0.15348569
5	0xbe36bdfe	-0.17845914
6	0xbdfe4542	-0.12415554
7	0xbe215346	-0.15754423

local_block.conv_chan.conv.1.running_mean f4 [8]
0	0xbc1db7d8	-0.009626351
1	0xbcb401cb	-0.021973511
2	0xbd28d8b7	-0.0412223
3	0x3c7d7f66	0.015472269
4	0xbd310b6b	-0.04322378
5	0x3c046b43	0.008082214
6	0x3b929997	0.0044738757
7	0xbc29ca27	-0.010363138

local_block.conv_chan.conv.1.running_var f4 [8]
0	0x3d4a135a	0.04933486
1	0x3d8ecac9	0.06972272
2	0x3d68a18a	0.05679468
3	0x3daee0da	0.08538981
4	0x3e15f857	0.14645515
5	0x3db3657e	0.087595925
6	0x3e255afa	0.16147986
7	0x3dd5f302	0.10446741

tcn.network.0.conv1.weight f4 [16, 16, 16]
0	0xbd43921a	-0.047746755
1	0xbd18e989	-0.03733209
2	0x3b700e10	0.0036629476
3	0xbcae2627	-0.021258427
4	0x3acc4f58	0.0015587611
5	0x3bd4c26e	0.0064929044
6	0x3c643de0	0.013930768
7	0xbc524891	-0.012834684
8	0x3cee0fde	0.0290603
9	0xbca67e45	-0.020323882
10	0xbca123b7	-0.01967035
11	0xbd051ca6	-0.032498024
12	0xbd0cb0ae	-0.034348182
13	0xbc9202b9	-0.017823564
14	0xbc33b437	-0.01096826
15	0x3cf898bb	0.030346265
16	0x3ced3323	0.028955048
17	0x3c69888d	0.014253748
18	0xbc31c3fd	-0.01084995
19	0x3cc33062	0.023826782
20	0xbc3e6cab	-0.011622588
21	0x3ce8d680	0.028422594
22	0x3b752694	0.0037407028
23	0x3c8cc2eb	0.017182788
24	0x3c842a69	0.016133504
25	0x3c86f969	0.01647635
26	0x3c5b6dad	0.013392848
27	0x3b556d56	0.003256639
28	0xbc4eb398	-0.012616061
29	0xbc0d8a07	-0.008638865
30	0xbc53137f	-0.012883066
31	0x3d1be369	0.038058672
32	0xba7bfb09	-0.0009612297
33	0x3bb3edec	0.005491009
34	0xbc884854	-0.016636051
35	0xbc61463d	-0.013749656
36	0xba1fe8c1	-0.00061000517
37	0x3d362a37	0.044473853
38	0x3d84a872	0.06477441
39	0x3ca76307	0.020432962
40	0x3d6ebe3d	0.058286894
41	0x3c120b49	0.008913823
42	0xbb29ce81	-0.002591044
43	0x3d1e5e62	0.03866423
44	0x3c89bd02	0.016813759
45	0x3ca80a7d	0.020512814
46	0x3d406755	0.046973545
47	0x3c1b6d1f	0.009486466
48	0x38d2e59c	0.000100563484
49	0xbcf703c7	-0.030153168
50	0xbbf9b85f	-0.0076208557
51	0x3ce8185e	0.028331932
52	0x3bb11835	0.005404497
53	0x3caa22a5	0.020768473
54	0x3cef10cf	0.02918282
55	0x3cee3c60	0.029081523
56	0x3d114c11	0.035472933
57	0xbb816338	-0.0039485954
58	0x3c97b533	0.01851902
59	0xb9861f47	-0.00025581775
60	0xbc9dc28d	-0.019257808
61	0xbc528cdc	-0.012850966
62	0x3d2b8460	0.04187429
63	0x3d48bc3f	0.04900765
64	0x3cb5a1af	0.022171823
65	0x3d19d813	0.03755958
66	0x3cfb1ec9	0.030654328
67	0x3d9c1c11	0.07622541
68	0x3d9576fb	0.07298084
69	0x3d2a8e6c	0.04163973
70	0x3cc66091	0.024215968
71	0x3b072844	0.0020623365
72	0x3cfc74aa	0.030817349
73	0xba9bc98a	-0.0011885625
74	0x3c3b0737	0.011415294
75	0x3c8694fb	0.016428461
76	0xbca2c1fd	-0.019867891
77	0x3c2f6aa9	0.010706582
78	0x3c8b00da	0.01696818
79	0xbc2ecda1	-0.010669143
80	0x3be4aaa2	0.006978349
81	0x3c2b57bc	0.010457929
82	0x3c96a32a	0.01838835
83	0x3cfb0126	0.030640196
84	0x3c883e0d	0.01663115
85	0x3c515be9	0.012778261
86	0x3cb71704	0.022349842
87	0x3b34ee83	0.0027607984
88	0x3b46b1d5	0.0030318398
89	0xbcd72e42	-0.026267175
90	0x3be43c37	0.006965186
91	0x3c4f8f0e	0.012668384
92	0x3c03cddc	0.008044686
93	0x3cf210db	0.029549053
94	0x3d5ad7b8	0.05342838
95	0x3c4d5d0b	0.01253439
96	0x3ccfc8cc	0.025364302
97	0xbc4bcf62	-0.012439581
98	0xbce47a29	-0.027890282
99	0xbcbe0b0d	-0.023198629
100	0x3b82159c	0.003969861
101	0xbc840018	-0.016113326
102	0xbc8fb91a	-0.017544318
103	0x3c2a5272	0.010395633
104	0xbca2596a	-0.019818027
105	0xbc862ebc	-0.016379707
106	0xbc8ee5a2	-0.017443482
107	0xbc2c1689	-0.01050342
108	0xbc5a474b	-0.013322662
109	0xbc171477	-0.009221188
110	0x3c4ce146	0.012504881
111	0xb9ee8f78	-0.0004550179
112	0xbb07d26b	-0.0020724784
113	0x3bbb7ba1	0.005721525
114	0x3b93c25b	0.004509253
115	0x3c86d7c5	0.016460309
116	0xbc7f7064	-0.015590761
117	0x3c822d13	0.015890634
118	0x3a93e3b9	0.0011283077
119	0x3ce2a14e	0.027664807
120	0x3cd6a46d	0.026201451
121	0xbc023fbf	-0.007949769
122	0x3b55638e	0.003256056
123	0x3bde0e37	0.006776597
124	0x3c821c8f	0.015882758
125	0x3ceccdda	0.028906751
126	0x3cc3dc96	0.023908895
127	0x3cba9056	0.022773903
128	0x3c6515da	0.013982261
129	0xbbd4f291	-0.0064986427
130	0x3c3840fe	0.011245964
131	0xbcb37748	-0.021907464
132	0xbcd75e6f	-0.026290147
133	0xbc1b3349	-0.009472677
134	0xbc57f218	-0.013180278
135	0xbc9d93cb	-0.019235512
136	0xbc35311a	-0.01105907
137	0x3c6baf56	0.014385065
138	0x3c181db6	0.009284427
139	0x3ced51bb	0.028969636
140	0x3cda0a57	0.026616259
141	0x3ccc6596	0.024950784
142	0x3c2a7884	0.01040471
143	0xbccfb776	-0.025356036
144	0xbb8c59cd	-0.004283166
145	0x3c187d71	0.009307251
146	0xbabff0ce	-0.0014643909
147	0xbb711624	-0.0036786878
148	0xba83d198	-0.0010056971
149	0x3c647457	0.013943753
150	0xba7c00fd	-0.00096131844
151	0xbc54ae7f	-0.012981056
152	0xbcce00a1	-0.025146784
153	0x3bd252c6	0.006418559
154	0x3b3dc31a	0.00289554
155	0xbb88d4b5	-0.0041757473
156	0xbc0f7e83	-0.00875819
157	0x3bb84f14	0.005624661
158	0x3bef2000	0.007297516
159	0x3d1ea2d3	0.0387295
160	0x3d12d96e	0.03585189
161	0x3c85755a	0.01629131
162	0x3ccdbc89	0.025114315
163	0x3badf180	0.00530833
164	0x3c59d1e8	0.013294674
165	0x3cc2e45f	0.023790536
166	0x3cfb7eee	0.030700173
167	0x3cfa2ce4	0.030538984
168	0x3a6c3262	0.0009010193
169	0xbbebfb76	-0.0072016073
170	0x3c0abbc3	0.008467617
171	0xbce83da7	-0.02834971
172	0x3b8ad91c	0.0042373072
173	0xbd63ce99	-0.05561695
174	0xbcac827a	-0.02105831
175	0xbbd6a0a6	-0.0065499125
176	0xbcb18de3	-0.021674102
177	0xbbecb48a	-0.0072236704
178	0xbc32be00	-0.010909557
179	0x3b2a181f	0.0025954319
180	0x3bd9800e	0.0066375798
181	0xbc114418	-0.0088663325
182	0x3badf559	0.0053087887
183	0xbc051af8	-0.008124106
184	0x3caccdb8	0.021094188
185	0x3c84c92f	0.016209213
186	0x3c17d61f	0.009267359
187	0xbcc5cc6e	-0.024145331
188	0x3a906c69	0.0011018637
189	0xbc92c69b	-0.017916968
190	0xbc473c50	-0.012160376
191	0xbc0e578c	-0.008687865
192	0xbb5f2895	-0.0034051288
193	0x3a6304e7	0.00086600933
194	0x3bfffe37	0.007812287
195	0xbbc78eae	-0.006090007
196	0xbc81751b	-0.01580291
197	0xbca5dfe0	-0.020248353
198	0xbc77daeb	-0.015127878
199	0xbcaec059	-0.021331953
200	0xbcf2fbb6	-0.02966104
201	0xbceba0e6	-0.028763246
202	0xbc0da321	-0.00864485
203	0x3aa514b0	0.0012594666
204	0xbc5c2184	-0.013435725
205	0xbb9b4ada	-0.0047391476
206	0xbd421404	-0.04738237
207	0xbd045368	-0.032306105
208	0xbd6bd318	-0.05757436
209	0xbb7b0068	-0.0038299803
210	0xbc3d4964	-0.011553142
211	0xbc130421	-0.008973152
212	0xbc5312dd	-0.012882915
213	0x3b71b025	0.0036878672
214	0x3ce40c1e	0.02783781
215	0x3d0de354	0.034640625
216	0x3c442f7c	0.011974212
217	0x3a3de3d6	0.0007243728
218	0x3b59d58d	0.0033238858
219	0xbc1d58ba	-0.009603674
220	0xbce95382	-0.028482202
221	0xbcb2485f	-0.021763025
222	0xbb695224	-0.0035601938
223	0xbb5169f4	-0.0031954022
224	0x3a654bab	0.0008746932
225	0xbca809cc	-0.020512484
226	0x3c02a361	0.007973523
227	0xbb848137	-0.004043724
228	0x3c317df4	0.010833252
229	0x3c95cf16	0.018287223
230	0x3c119f62	0.0088880975
231	0x3bcc8bfd	0.006242274
232	0xbd2ccb5c	-0.042186126
233	0xbc615362	-0.01375279
234	0xbd04af5d	-0.032393802
235	0x3cba9ece	0.022780802
236	0x3b938ef1	0.004503124
237	0xbb855874	-0.0040693823
238	0xbb0009b2	-0.001953703
239	0xba154300	-0.00056938827
240	0xbbe563f5	-0.007000441
241	0xbce64ac1	-0.028111817
242	0xbcdaca4d	-0.026707793
243	0xbc86a671	-0.016436787
244	0x3c8e7dd1	0.017393978
245	0xbc07f467	-0.008298016
246	0x3c028582	0.007966401
247	0x3bbc6ca4	0.0057502557
248	0xbb8d4a75	-0.0043118545
249	0x3c42575e	0.01186165
250	0xbccd7954	-0.025082268
251	0xbccebfb1	-0.02523789
252	0xbc190e60	-0.009341806
253	0x3cdcfa09	0.026974695
254	0x3cf5ffcc	0.0300292
255	0x3d214167	0.039369013

tcn.network.0.conv1.bias f4 [16]
0	0xb3125346	-3.406901e-08
1	0x31b961a6	5.39531e-09
2	0xb2b52693	-2.1088715e-08
3	0xb149bb97	-2.9355982e-09
4	0xb9e9b6d7	-0.0004457745
5	0xb1e93b2d	-6.78792e-09
6	0x31e16570	6.559894e-09
7	0xb732275b	-1.061879e-05
8	0xb0b19094	-1.2919537e-09
9	0x325cf063	1.2860343e-08
10	0x313b4d1d	2.7255915e-09
11	0xb141da31	-2.8209224e-09
12	0xb040d6b4	-7.0154305e-10
13	0xb206d782	-7.848827e-09
14	0x33dcc28c	1.0279936e-07
15	0x3955c61f	0.00020387069

tcn.network.0.bn1.weight f4 [16]
0	0x3f84f546	1.0387352
1	0x3f77e732	0.9683715
2	0x3f685d8a	0.9076773
3	0x3f7d906e	0.9904851
4	0x3f7fd606	0.9993595
5	0x3f7a72cd	0.9783142
6	0x3f6f8058	0.9355521
7	0x3f8471a2	1.0347178
8	0x3f8421ba	1.0322793
9	0x3f84ec53	1.038462
10	0x3f83ab2d	1.0286614
11	0x3f8ace4b	1.0844206
12	0x3f6f58d9	0.93494946
13	0x3f85e2fd	1.0459896
14	0x3f6d2534	0.9263489
15	0x3f8210c4	1.0161366

tcn.network.0.bn1.bias f4 [16]
0	0xbe914900	-0.28376007
1	0xbea97c6d	-0.33102742
2	0xbe8beead	-0.27330533
3	0xbe9f80a6	-0.31152838
4	0xbe8ad595	-0.27116075
5	0xbe77bf79	-0.24194135
6	0xbe9a8844	-0.30182087
7	0xbe5f1fea	-0.21789518
8	0xbe3c9f8b	-0.18420236
9	0xbe933dda	-0.28758126
10	0xbe9e0797	-0.30865166
11	0xbec560c6	-0.38550395
12	0xbe65b795	-0.22433312
13	0xbeb577ff	-0.35443112
14	0xbe6a889e	-0.22903678
15	0xbe6a338c	-0.22871226

tcn.network.0.bn1.running_mean f4 [16]
0	0xbc7cec11	-0.015437142
1	0xbd81b06a	-0.063324764
2	0xbc784c64	-0.015154932
3	0x3c5d0df5	0.013492097
4	0x3cf2c914	0.029636897
5	0x3bda21a3	0.006656842
6	0xbcd71d3a	-0.026259053
7	0xbd49c400	-0.049259186
8	0xbc761fc7	-0.015022225
9	0xbc182184	-0.0092853345
10	0x3cf933bb	0.030420175
11	0xbc686e70	-0.014186487
12	0xbcd014cb	-0.02540054
13	0xbb4ecc7d	-0.003155499
14	0xbc179a91	-0.00925316
15	0x3ce448ba	0.02786671

tcn.network.0.bn1.running_var f4 [16]
0	0x3f0d32d6	0.55155694
1	0x3e83b127	0.25721094
2	0x3e1fb648	0.15596879
3	0x3edf06d8	0.4355991
4	0x3ee6db9a	0.45089418
5	0x3e577005	0.21038826
6	0x3e8976db	0.26848492
7	0x3e5eee4c	0.2177059
8	0x3e568804	0.20950323
9	0x3e9d201b	0.30688557
10	0x3e9ac7dd	0.3023061
11	0x3e94c0f8	0.29053473
12	0x3e77c6d4	0.2419694
13	0x3f3b0452	0.7305347
14	0x3e1fa1a2	0.15589002
15	0x3e3de455	0.18544133

tcn.network.0.conv2.weight f4 [16, 16, 16]
0	0xbc8a9440	-0.016916394
1	0x3ac57e64	0.0015067575
2	0xbd0c01ff	-0.03418159
3	0xbd04b990	-0.03240353
4	0xbcc85457	-0.024454279
5	0x3bd7b745	0.0065831267
6	0xb93f79d8	-0.0001826057
7	0x3baff256	0.005369465
8	0xbc29e1f6	-0.010368815
9	0xbc703561	-0.014661164
10	0xbc402695	-0.011727949
11	0xbb71684b	-0.0036835845
12	0x3a002ea1	0.0004889761
13	0x3c498038	0.012298636
14	0xbd72a999	-0.059243772
15	0xbd0a3255	-0.033739407
16	0x3d0fd57d	0.035115708
17	0x3cb66594	0.022265233
18	0x3c1b5429	0.009480515
19	0xbb0fd41b	-0.0021946493
20	0x3be71f0d	0.007053262
21	0xba4afcea	-0.00077433756
22	0x3ca634dd	0.020288879
23	0x3cf5a9e2	0.029988233
24	0x3d2f0c5e	0.042736404
25	0x3d2e7635	0.0425932
26	0x3d94908e	0.07254134
27	0x3da387eb	0.07984909
28	0x3cc1309a	0.023582745
29	0x3ca5d6da	0.02024405
30	0xb960a07a	-0.00021422087
31	0xbb84ede0	-0.004056677
32	0xbba5c76b	-0.005059173
33	0xbce4d3df	-0.02793306
34	0xbca7f6cd	-0.020503426
35	0xbd179a61	-0.03701246
36	0xbd12ab44	-0.035807863
37	0xbcdb13a3	-0.026742762
38	0x3bcd763f	0.0062701995
39	0xbc8f33ef	-0.017480819
40	0x3c96e063	0.018417543
41	0x3bf4fdb2	0.007476532
42	0x3bb534a0	0.005529955
43	0x3cc699d8	0.02424328
44	0xbb0eb10e	-0.0021773013
45	0xbc018f2d	-0.007907671
46	0xbcf8c063	-0.030365175
47	0xbd08e4d2	-0.033421345
48	0xbc30b5c9	-0.010785528
49	0x3c04f22c	0.008114379
50	0x3c89c96e	0.016819682
51	0xbb96e931	-0.0046054353
52	0xbb28d8b5	-0.0025763933
53	0xbbd22295	-0.006412814
54	0xbbcbbf91	-0.006217905
55	0x3c7d8930	0.015474603
56	0x3c9b551b	0.01896148
57	0x3ba082df	0.0048984136
58	0xbac66f29	-0.001513933
59	0xbcaa30d2	-0.020775232
60	0xbb9595a7	-0.004564959
61	0x3c038d0d	0.008029235
62	0x3afef6c3	0.0019452203
63	0xbb804fc5	-0.0039157593
64	0x3b7f6937	0.0038972625
65	0x3bf32906	0.007420662
66	0xbcab5d59	-0.020918535
67	0x3bcab0b4	0.0061856154
68	0xbce93218	-0.02846627
69	0xbcb2973c	-0.02180063
70	0x3a50b649	0.0007961733
71	0xbc9d0bbd	-0.019170636
72	0xbd0b4b67	-0.034007456
73	0xbc88d675	-0.016703824
74	0x3cd95e88	0.026534334
75	0xbcad94ad	-0.021189058
76	0xbcecf4e9	-0.028925376
77	0xbd035884	-0.032066837
78	0xbcb59b0c	-0.022168659
79	0xbd1c91e1	-0.03822506
80	0xbd71d3ff	-0.059040066
81	0xbd00978b	-0.031394523
82	0xbc51a953	-0.012796718
83	0x3b7d1d1b	0.0038622085
84	0x3c093f8a	0.008376965
85	0x3cafd695	0.021464625
86	0x3bee69af	0.007275782
87	0x3c0fe6a2	0.0087830145
88	0x3d0cdf70	0.034392774
89	0x3d395a71	0.045252267
90	0x3d1d5803	0.038414013
91	0x3d708fc0	0.05873084
92	0x3b0cce23	0.0021485172
93	0x3c5d46b3	0.013505626
94	0xbd12a47c	-0.035801396
95	0xbd083a50	-0.033258736
96	0x3cc046b4	0.023471214
97	0xba39af38	-0.00070832996
98	0x3cea8b7a	0.02863096
99	0x3c2f6a75	0.010706534
100	0x3cdb6f1f	0.026786385
101	0x3d0588ca	0.032601155
102	0x3c97b488	0.018518701
103	0x3cc6637d	0.024217362
104	0x3c7d8adf	0.015475004
105	0x3cad05b2	0.02112088
106	0x3d225367	0.03963032
107	0x3bfab8a5	0.007651406
108	0x3d3a066b	0.045416277
109	0x3d5898d6	0.05288013
110	0x3d116082	0.035492428
111	0x3b711f9e	0.0036792527
112	0xbcac418e	-0.021027353
113	0xbcf4738f	-0.029840259
114	0xbba8043e	-0.005127459
115	0xbc5595c5	-0.013036196
116	0x3cd17de5	0.025572727
117	0x3cd20fd1	0.025642307
118	0xbbb6b35c	-0.0055755805
119	0x3d1d08b9	0.038338397
120	0xbc3bed94	-0.011470217
121	0xbcc58b70	-0.02411434
122	0xbd14c360	-0.036319137
123	0xbb1d6df3	-0.0024021834
124	0xbd35a8ed	-0.044350553
125	0xbca9e68b	-0.020739814
126	0xbd76c24a	-0.060243882
127	0xbd0f93e1	-0.035053138
128	0xbccb657a	-0.024828661
129	0xbd008aac	-0.031382248
130	0xbce3ba08	-0.027798668
131	0xbcee5449	-0.029092925
132	0xbc7f6812	-0.015588777
133	0xbcce62c4	-0.02519358
134	0x3c55262d	0.01300959
135	0xbb33ba20	-0.0027424172
136	0x3c4054f4	0.011739004
137	0x3c854351	0.01626745
138	0x3b62f102	0.0034628515
139	0x3d031c2c	0.03200929
140	0x3ce2bbc6	0.027677428
141	0xbbc20b04	-0.0059217233
142	0xbbe8f79e	-0.0071095964
143	0x3b46a0d9	0.0030308275
144	0xbcd7302f	-0.026268093
145	0xbd50d489	-0.05098394
146	0xbd254cfa	-0.040356614
147	0xbca27f58	-0.019836113
148	0xbc755f57	-0.014976344
149	0xbd2fae17	-0.042890634
150	0xba263fc9	-0.0006341902
151	0xbc5d25a1	-0.013497741
152	0xbc759c96	-0.014990946
153	0xbc9313d3	-0.017953789
154	0xbd03dfac	-0.032195732
155	0x3c9b96bd	0.018992776
156	0xbbc614b3	-0.006044948
157	0x3b735120	0.0037127212
158	0xbcd2ec23	-0.025747364
159	0x3c1a91eb	0.009434204
160	0x3d2ac5f5	0.041692693
161	0x3d4d9e84	0.0502
162	0x3c0e4244	0.008682791
163	0x3d567088	0.052353412
164	0x3d428b60	0.0474962
165	0xbb9914af	-0.004671655
166	0x3d330a52	0.043711014
167	0xbbe746ec	-0.007058015
168	0x3c212a6d	0.009836775
169	0xbc931305	-0.017953405
170	0xbcd65c68	-0.02616711
171	0x3b6e22a2	0.003633656
172	0xbc17509a	-0.0092355255
173	0xbbfc6870	-0.0077028796
174	0xbd599dcb	-0.053129
175	0xbd316433	-0.043308448
176	0x3d2334a4	0.039845124
177	0xbb0d1e6f	-0.0021533032
178	0xbd162c6e	-0.036663465
179	0xbc8d6909	-0.017261999
180	0x3b8bf426	0.004271048
181	0xbd0dec10	-0.034648955
182	0xbbfc4154	-0.0076982174
183	0x3c66bb97	0.014082811
184	0xbb934b03	-0.004495026
185	0xbba9745c	-0.005171342
186	0x3d2035ba	0.039113738
187	0x3c109e01	0.008826734
188	0x3ccbeadb	0.024892261
189	0x3d55f56e	0.052236013
190	0x3d62804d	0.05529814
191	0x3dd1fea2	0.102536455
192	0x3ce3ba91	0.027798923
193	0x3c5ba8d3	0.01340695
194	0xbbfa9df6	-0.007648225
195	0x3c83986a	0.016063888
196	0x3c766abd	0.015040097
197	0x3c926512	0.01787046
198	0x3c038499	0.008027219
199	0xbc1d12ca	-0.009586999
200	0x3c4d7834	0.012540866
201	0x3b6733ac	0.0035278602
202	0x3d50e4ed	0.05099957
203	0x3a5a6bda	0.0008332111
204	0x3bb82d22	0.0056206146
205	0x3ba10f08	0.004915122
206	0xbbebf9be	-0.0072014024
207	0xbc81105b	-0.01575487
208	0x3d823561	0.063578375
209	0x3d57ebbc	0.05271505
210	0x3d70561a	0.058675863
211	0x3d1e35a0	0.03862536
212	0x3c1c715e	0.009548513
213	0x3c774f0d	0.015094531
214	0xbc38a89e	-0.01127067
215	0xbc64f177	-0.013973585
216	0xbcf49167	-0.02985449
217	0xbc3e13bd	-0.011601386
218	0xbd0c12b4	-0.034197524
219	0xbcaf3fb9	-0.02139269
220	0x3b8c10ff	0.004274487
221	0x3ce451e9	0.027871089
222	0x3ce439f1	0.02785966
223	0x3da1364c	0.078716844
224	0xbc6a057a	-0.014283532
225	0xb9f36b8a	-0.00046428695
226	0x3be97683	0.0071247234
227	0x3d216fe5	0.03941335
228	0x3ce192ea	0.027535874
229	0x3d1ab9ef	0.037774976
230	0x3beb0738	0.0071724914
231	0x3b64affd	0.0034894936
232	0xbb3c20e8	-0.0028706137
233	0xbcf361a6	-0.029709648
234	0xbc5fc7d8	-0.013658486
235	0xbca5ccf0	-0.020239323
236	0xbc7b19fb	-0.015326018
237	0x3abedb97	0.0014561292
238	0xbcaf6c9a	-0.02141409
239	0xbcfdc1f9	-0.030976282
240	0xbd7d0be7	-0.06177893
241	0xbcfe6bbc	-0.031057231
242	0xbd256a2f	-0.040384468
243	0xbcc9c68d	-0.02463081
244	0xbca9f9f1	-0.020749064
245	0xbc29e73e	-0.010370074
246	0xbc578e6e	-0.0131565165
247	0x3c517d62	0.012786241
248	0xbb0fa9a7	-0.002192119
249	0xbd0f43c5	-0.03497674
250	0xbd73763a	-0.05943892
251	0xbdb96daf	-0.090541236
252	0xbd4505b0	-0.048101127
253	0xbd3cb7e6	-0.046073817
254	0xbc39b555	-0.011334737
255	0xbc8bec8b	-0.017080566

tcn.network.0.conv2.bias f4 [16]
0	0xb1e357f7	-6.61657e-09
1	0x3921044b	0.00015355756
2	0xb3d35b36	-9.842044e-08
3	0x39061d4f	0.00012790154
4	0x3486d83f	2.5116785e-07
5	0xb2586e5f	-1.259795e-08
6	0x319b2461	4.5152295e-09
7	0xb2d70f82	-2.5036346e-08
8	0x39dc2a80	0.00041993335
9	0xb1d3a371	-6.1594894e-09
10	0xb1c2198e	-5.6490483e-09
11	0xb3d0e251	-9.7269215e-08
12	0x30b01dd5	1.2814164e-09
13	0x378370c4	1.5668928e-05
14	0xb2642486	-1.3279651e-08
15	0xba3fc22f	-0.00073150074

tcn.network.0.bn2.weight f4 [16]
0	0x3f800000	1.0
1	0x3f800000	1.0
2	0x3f800000	1.0
3	0x3f800000	1.0
4	0x3f800000	1.0
5	0x3f800000	1.0
6	0x3f800000	1.0
7	0x3f800000	1.0
8	0x3f800000	1.0
9	0x3f800000	1.0
10	0x3f800000	1.0
11	0x3f800000	1.0
12	0x3f800000	1.0
13	0x3f800000	1.0
14	0x3f800000	1.0
15	0x3f800000	1.0

tcn.network.0.bn2.bias f4 [16]
0	0x00000000	0.0
1	0x00000000	0.0
2	0x00000000	0.0
3	0x00000000	0.0
4	0x00000000	0.0
5	0x00000000	0.0
6	0x00000000	0.0
7	0x00000000	0.0
8	0x00000000	0.0
9	0x00000000	0.0
10	0x00000000	0.0
11	0x00000000	0.0
12	0x00000000	0.0
13	0x00000000	0.0
14	0x00000000	0.0
15	0x00000000	0.0

tcn.network.0.bn2.running_mean f4 [16]
0	0x00000000	0.0
1	0x00000000	0.0
2	0x00000000	0.0
3	0x00000000	0.0
4	0x00000000	0.0
5	0x00000000	0.0
6	0x00000000	0.0
7	0x00000000	0.0
8	0x00000000	0.0
9	0x00000000	0.0
10	0x00000000	0.0
11	0x00000000	0.0
12	0x00000000	0.0
13	0x00000000	0.0
14	0x00000000	0.0
15	0x00000000	0.0

tcn.network.0.bn2.running_var f4 [16]
0	0x3f800000	1.0
1	0x3f800000	1.0
2	0x3f800000	1.0
3	0x3f800000	1.0
4	0x3f800000	1.0
5	0x3f800000	1.0
6	0x3f800000	1.0
7	0x3f800000	1.0
8	0x3f800000	1.0
9	0x3f800000	1.0
10	0x3f800000	1.0
11	0x3f800000	1.0
12	0x3f800000	1.0
13	0x3f800000	1.0
14	0x3f800000	1.0
15	0x3f800000	1.0
