model/BETA/DTCN_b2_1s_S9.pth (torch, 181815 bytes, 74 tensors)

global_block.conv_time.conv.0.weight f4 [8, 1, 1, 125]
000000 84 6d 0d 3d 62 fa 5c 3d c3 49 83 3c 12 67 1a 3a
       0.03452827 0.05394972 0.016026383 0.00058899925
000010 57 c7 75 bd aa 6c f6 3c 7b 45 07 bd e3 c1 b6 3b
       -0.06000456 0.030081112 -0.033025246 0.0055773123
000020 36 e8 26 3c 37 db 24 bd a7 f0 7f 3c 2a f4 e5 bc
       0.010187199 -0.040248122 0.015621341 -0.028070528
000030 8f c1 cf bb ff d3 49 3b 1a 51 f8 bc 80 65 6e 3d
       -0.0063402127 0.0030796526 -0.03031211 0.058202267
000040 63 ce 49 3d a9 fa 9a 3d 27 b3 ce bc 91 87 fa 3c
       0.04926909 0.07567341 -0.02523191 0.030582221
000050 9c ed 0e 3d 34 03 8b 3b cd b5 77 bc 44 2a e2 3b
       0.03489457 0.004242325 -0.015119028 0.006902011
000060 88 fd be 3c 75 39 2b 3c 6b 61 4d 3c 91 30 d0 3c
       0.023314252 0.010450711 0.012535433 0.025413783
000070 46 cc 63 3d c4 20 e1 bc df 31 0b 3d e8 bf c3 bb
       0.055614732 -0.027481444 0.033983108 -0.0059738047
000080 67 9d 88 3d e9 6c 34 3b 1c 84 06 bc f1 70 8d bb
       0.06670647 0.0027530736 -0.008210208 -0.004316442
000090 f0 85 58 3d a0 ce 77 3c 5b fd 5d 3d 93 d4 81 bd
       0.052862108 0.015124947 0.054196697 -0.063393734
0000a0 70 45 26 bc cd 80 8b bd 99 ce a2 3b 75 60 14 3d
       -0.010148391 -0.06811676 0.004968476 0.0362248
0000b0 75 4a c6 bc 0a 26 be 39 ef 38 07 bd fe af 8c bd
       -0.024205426 0.00036267965 -0.03301328 -0.06869505
0000c0 d3 6d 0e 3d 62 42 06 3d b8 47 55 3d 96 cf 3b 3d
       0.034772705 0.03277815 0.05207035 0.045852266
0000d0 a1 1b f9 ba 4c 62 a0 3c 4b 45 16 3d 50 a8 6c bd
       -0.0019005426 0.019578122 0.036687177 -0.057777703
0000e0 92 b3 8d bd 13 41 5b 3c 96 86 33 3d fe a1 fa 3b
       -0.06919016 0.013382214 0.043829523 0.0076487055
0000f0 52 f3 3e bc 7d 8d 6e 3b 48 fe a5 bc 5b 58 4a bd
       -0.011654692 0.0036400252 -0.020262852 -0.04940067
000100 f4 e2 9b 3c b9 46 cf 3b 3f cb 0a 3d 81 da 1e bc
       0.019029118 0.0063255695 0.033885237 -0.00969565
000110 6a 32 7c bb 97 19 cd bc 2f 07 6a bd 6c aa a0 bc
       -0.0038482198 -0.025036616 -0.057135757 -0.019612513
000120 ec 4b 24 bd 66 69 a7 3d 1e 76 b9 3c 1f 61 3e bd
       -0.040111467 0.081744 0.02263933 -0.04647934
000130 93 c3 ec bb d5 d3 c5 3d 8f 1a 21 3e 72 b8 25 bc
       -0.0072254627 0.096595444 0.15732788 -0.010114776
000140 76 3f 83 bd 1f d3 81 bc c1 a6 9f bd b7 6a 07 bd
       -0.064085886 -0.01584774 -0.07795478 -0.033060756
000150 3a f6 a6 bd ab a0 b0 3c 84 41 6b bc 84 4e af bd
       -0.08152433 0.021560987 -0.014358882 -0.085598975
000160 67 98 59 bd 45 df 1c bc 38 e5 da bc 43 b9 c9 3b
       -0.053123858 -0.009574716 -0.026720628 0.006156118
000170 af 5d 8f bd 84 5f 84 bd bd ac b0 3c e8 ac 63 bc
       -0.070002906 -0.06463531 0.021566743 -0.0138962045
000180 4e 14 55 3d 0a f4 ec 3d 9d bd d3 3d e6 4e 56 3c
       0.052021317 0.11569984 0.103389 0.013080334
000190 5e 07 fc bb a2 2f 69 3c 80 2c 84 bc 79 fc 44 bd
       -0.007691308 0.014232548 -0.0161345 -0.04809234
0001a0 8d 36 f0 3c 60 55 a1 3d b6 32 a1 3c 06 a2 a7 bd
       0.029322887 0.07877612 0.019677501 -0.081852004
0001b0 90 d0 d1 bd b0 93 9e bd b7 af ea bc 7a ca 46 bd
       -0.10244858 -0.07743013 -0.02864824 -0.04853294
0001c0 df 49 c7 bc d5 8a 96 bc e9 13 b4 3c 05 f1 b9 3c
       -0.024327217 -0.018376747 0.02198215 0.022697935
0001d0 3a 61 0a bd 80 b4 53 bd 0a 9f 23 3c 05 d2 89 3c
       -0.03378413 -0.05168581 0.009986648 0.016823778
0001e0 99 bb a7 bc 83 5c 08 3d 85 c9 93 3d d5 9e f1 bc
       -0.020475196 0.03329135 0.07216171 -0.029494682
0001f0 55 66 1d bd 7c f9 1b 3d 32 a9 9f bc f3 a7 c6 ba
       -0.03842767 0.038079724 -0.019489858 -0.0015156254
000200 05 00 df 3d 23 fe 68 3c 53 ee c1 3c 6a 6b 8c bc
       0.108886756 0.014220747 0.023673212 -0.017141063
000210 3b e7 d7 3c 3f e6 a3 b9 78 d5 8b bb b3 e9 62 3b
       0.026355376 -0.0003126133 -0.004267391 0.003462416
000220 a2 ae 13 3c 9e d4 ce 3c ec 4f 84 3d a6 3f 91 3d
       0.009013804 0.025247868 0.064605564 0.07092218
000230 10 90 0e bd a9 98 6a 3d b5 e6 71 3b a0 e7 4d 3c
       -0.034805357 0.057274494 0.0036911194 0.012567431
000240 ae 87 7c 3d 22 59 5f bd 39 42 54 bd aa c9 f9 3b
       0.06165283 -0.054528363 -0.051820967 0.007622917
000250 6f 04 c4 3a f9 98 c6 bb 60 8e a0 3b 98 d4 32 3d
       0.0014954935 -0.006060716 0.004899785 0.043659776
000260 5d d2 24 bb 28 31 aa 3c 11 21 43 bd 98 c7 c8 3c
       -0.00251498 0.020775393 -0.047638956 0.024509236
000270 25 0c 70 3c 55 e4 57 bc 39 e3 6f 3c f2 74 89 bc
       0.014651333 -0.013176997 0.014641576 -0.016779397
000280 bd 12 70 bb 3a 41 48 3c c9 65 45 3d 57 be 9e 3b
       -0.0036632263 0.0122225825 0.048192773 0.0048444676
000290 65 a3 65 bd 58 34 4a bd af bd cb bc 0b e6 16 bd
       -0.05606403 -0.049366325 -0.024870722 -0.03684048
0002a0 0d 54 8f 3c fe 76 c4 bb c2 1b 0d bd 2c 4a 71 bd
       0.017496133 -0.0059956303 -0.0344503 -0.058908626
0002b0 61 b5 04 3d d8 06 6a bc e7 60 d3 bc 8d 1c 27 3d
       0.03239954 -0.014283858 -0.025803043 0.040798713
0002c0 b1 d7 0e bd 0d 63 ed bc 60 4d cc bc d4 1b ba bc
       -0.034873668 -0.028977895 -0.024939239 -0.022718348
0002d0 fa 5b e0 bd 56 4f c8 3c 52 30 8a 3c 33 c1 08 3d
       -0.10955043 0.024451893 0.016868744 0.033387374
0002e0 64 c2 1b bd 4c 98 1c 3d dd 6d 80 3d 46 e5 a1 bb
       -0.038027182 0.03823118 0.06270955 -0.0049406616
0002f0 9f d0 99 3d c8 5c 12 bc 30 cf 1a 3d 22 6f 6e bd
       0.075104944 -0.008933254 0.037795246 -0.058211453
000300 00 36 ec bc eb 1d 28 bc 09 8d 70 3d 60 16 84 3d
       -0.028834343 -0.010261039 0.05872825 0.0644958
000310 90 8c 17 3c b5 0f c2 bc 9c 24 0e bd 5e 0e 29 3d
       0.009249821 -0.02368913 -0.034702882 0.041273467
000320 66 d1 61 bd ad f7 c9 3a 03 c2 6e bd d5 88 d5 3d
       -0.05513134 0.0015408896 -0.058290493 0.10426489
000330 ef 0e 39 3e 3e 58 fc 3d 23 1f 9d 3c dd aa 6f bd
       0.18072103 0.12321518 0.019179886 -0.058512557
000340 da 64 c0 bd 43 03 5d bc 40 2c a1 3c 3d f9 ed bb
       -0.09394236 -0.013489547 0.01967442 -0.0072623775
000350 0f c3 1c 3d d5 e4 ee 3c 28 62 c3 bd 0f 70 af bd
       0.03827196 0.02916185 -0.09540206 -0.08566295
000360 1a 03 8f bd a1 0e 00 bd a2 1b 2a bd fa 08 1e 3c
       -0.069830135 -0.03126395 -0.04153026 0.009645695
000370 67 13 09 3c 79 14 3f bb 95 56 c6 3c 72 d2 f2 3c
       0.008366442 -0.002915649 0.024211207 0.029641364
000380 23 7b 5e bd 63 8c 2f 3d ec 5d fb 3c 8b 26 8c 3d
       -0.05431665 0.042858493 0.030684434 0.06843289
000390 d3 c9 73 bd 56 2a 88 bd ad e1 d2 3c 5b 34 93 bd
       -0.059518646 -0.066487 0.025742376 -0.071877204
0003a0 f4 a0 7f bd 8f 95 ed 3c f7 d5 0a 3c f9 c1 bb bd
       -0.062409356 0.02900198 0.008473865 -0.09167857
0003b0 76 8c 66 3d f3 c0 14 3d 90 25 9e 3d c5 de c5 bc
       0.056286298 0.036316823 0.07722008 -0.024154076
0003c0 1b a7 78 bd ab c4 6f bd 5a 61 81 bc 95 f9 e6 bc
       -0.06070624 -0.058537167 -0.015793491 -0.028195182
0003d0 e5 72 e4 3c cc ee fa bc 02 bb 1b bd fc a8 34 bc
       0.027886817 -0.030631445 -0.03802014 -0.011026617
0003e0 31 8d c6 3b b5 a5 86 bd db 00 5b bc 01 5e aa bd
       0.006059312 -0.06574575 -0.013366903 -0.08318711
0003f0 42 f3 22 bc 80 94 39 3c 6e a9 4d bd 69 ff be bb
       -0.0099456925 0.011326909 -0.05021041 -0.005828787

global_block.conv_time.conv.0.bias f4 [8]
000000 da 88 58 b1 ff 2a 59 3a 38 76 4e 3a 08 4f 84 3a
       -3.1509928e-09 0.00082843 0.00078758923 0.0010094354
000010 37 51 e4 bb 0f e7 2c bb 6e 12 0a b3 4b 64 6c 32
       -0.0069676894 -0.002638284 -3.214739e-08 1.3759812e-08

global_block.conv_time.conv.1.weight f4 [8]
000000 d1 ba 6e 3f b4 df 6e 3f 7f 05 55 3f e8 8c 4f 3f
       0.9325381 0.93310094 0.8321151 0.8107438
000010 73 7f 7c 3f c3 91 4e 3f 21 7e 69 3f da f7 5f 3f
       0.9863197 0.80691165 0.9120808 0.87487566

global_block.conv_time.conv.1.bias f4 [8]
000000 ba 2f 02 bd 9b 0c ce bc 41 13 c9 3d a5 72 4a 3b
       -0.031783797 -0.025152495 0.098181255 0.0030891087
000010 99 1d 7e bc 2c 21 0b 3d 3d 0e 52 bd fb f5 48 3c
       -0.015509986 0.033967182 -0.05128311 0.012265678

global_block.conv_time.conv.1.running_mean f4 [8]
000000 2b c7 19 bc 2c 3e 55 bb ea b4 9e ba 2d dc 1a bc
       -0.009385864 -0.0032538278 -0.001210836 -0.009451908
000010 6a fb e7 bb 5c 9f 52 b9 63 95 de 3b 35 f3 5e 3a
       -0.0070795314 -0.00020086527 0.0067927106 0.00085048686

global_block.conv_time.conv.1.running_var f4 [8]
000000 de ed e6 40 c0 ea c2 40 d9 62 23 41 37 35 d0 40
       7.2165365 6.091156 10.211633 6.506496
000010 69 88 00 41 c6 a0 db 40 7a 27 f2 40 ed 87 fd 40
       8.033303 6.8633757 7.567319 7.9228425

global_block.conv_chan.conv.0.weight f4 [8, 8, 11, 1]
000000 f1 b1 be bd ae e1 ac bc de d2 10 bd 70 91 15 bd
       -0.093112834 -0.021103706 -0.03535735 -0.036515653
000010 77 26 88 3d 30 6b 5f 3d ce 38 0c 3d 5b 9f 82 bd
       0.066479616 0.05454558 0.03423386 -0.06378051
000020 66 76 ca 3b c1 ec 43 bd e2 f8 9d 3d 5b bd 82 3d
       0.006178665 -0.047833208 0.07713486 0.06383773
000030 b7 31 7b bd c0 c5 53 bd 45 65 b0 3d 75 91 c5 3b
       -0.06132671 -0.05170226 0.08613066 0.0060293027
000040 24 57 42 3c 71 53 2e bc 5d 71 e3 bd 05 0b 99 3d
       0.011861596 -0.010640011 -0.11105607 0.07472805
000050 1b 00 4b bd 3f 22 0c 3d a1 c6 4c bd 5e bf a9 3c
       -0.049560647 0.034212347 -0.049994115 0.020721134
000060 71 b9 4e 3d 73 2d 1c bd 1c 7b ba 3a 95 44 60 bd
       0.05046982 -0.03812928 0.0014227363 -0.054752905
000070 9e 2f 80 3d 95 9a e0 bc 29 d6 50 bd 67 f9 03 bd
       0.06259082 -0.02741746 -0.05098549 -0.03222027
000080 cb 46 7e bc 00 fd 39 3d b4 08 2c bd f5 9f 48 bd
       -0.015519808 0.045407295 -0.042000487 -0.048980672
000090 d8 d4 b6 bc b8 ec fa bc 58 24 af 3a 9d cf 07 bd
       -0.022318289 -0.030630454 0.0013362272 -0.03315698
0000a0 a8 4b b7 bd 96 94 4a 3b b1 fa 48 3d 99 fa 66 3d
       -0.08949977 0.0030911318 0.049067203 0.056391332
0000b0 42 35 d9 bd 5b 62 67 3d 9c 08 d4 b8 b2 ab ac bd
       -0.10605861 0.056490283 -0.000101105514 -0.08431186
0000c0 da 19 af bd bc 52 00 bd 94 53 af 3d 1c 1a 8b 3d
       -0.08549853 -0.0313289 0.08560863 0.06792089
0000d0 e4 d3 38 3d b5 b4 0e bc 53 68 de bd a8 1a c3 bc
       0.04512395 -0.008710076 -0.10859742 -0.023816422
0000e0 a9 8d b5 3c 84 9b 5b 3d 11 0d 40 bd d6 4c 0d be
       0.022162275 0.053615108 -0.04688746 -0.13798842
0000f0 20 9b 20 3d dc 04 80 3d 06 8b fc 3d 57 fa bb bc
       0.03921044 0.06250927 0.12331204 -0.02294652
000100 12 54 42 3d c9 d9 83 bd a1 72 97 3d ea 8c 17 bd
       0.047443457 -0.064380236 0.073949106 -0.03699962
000110 a8 ee 13 3c 35 70 b1 3c 7f a3 ad 3c b1 1c 30 bd
       0.009029068 0.02165995 0.021196125 -0.042996112
000120 b7 b5 e6 3c 3d 11 f4 ba 78 c9 22 3d f3 a9 4b 3d
       0.02816282 -0.001862086 0.039742917 0.049722623
000130 bd 2c 9b bc 41 b0 a0 bd 8e c4 76 bd df d0 70 bd
       -0.018942231 -0.07846118 -0.060246043 -0.058792945
000140 35 c0 ca bc 2e e2 54 bd 15 30 e0 3d 40 9a 91 3d
       -0.024749855 -0.051973514 0.10946671 0.07109499
000150 5a 9b 08 be 0c f6 22 bc 9c 49 01 bd 22 54 fa 3a
       -0.13340512 -0.009946357 -0.03156434 0.001909856
000160 fe 29 93 bc 24 8a 8f bd ed ae e4 bc 2f e3 ff 3c
       -0.01796436 -0.0700877 -0.027915442 0.03123626
000170 6b 7d 71 bb 15 91 20 bd 0b 77 3f 3b 4e 39 93 3c
       -0.0036848437 -0.03920086 0.0029215242 0.017971661
000180 da ed 0a 3d bb 32 70 3d 62 a3 e9 bc 8b f1 98 bc
       0.03391824 0.05864213 -0.02852029 -0.018669864
000190 2b cf f2 bd 4f ec bd bb f8 e1 ce 3b 4c a8 8e 3d
       -0.118559204 -0.0057959924 0.0063135587 0.06965694
0001a0 61 24 ea bb c4 35 be bd 93 14 be 3c e1 42 0c 3d
       -0.00714545 -0.09287599 0.02320317 0.03424347
0001b0 25 68 58 3d 5d c6 8a 3d 97 ec a4 3d b6 49 2b be
       0.052833695 0.06776116 0.080529384 -0.16727337
0001c0 38 6a 56 bd e9 7c 83 bd 80 ce 1c 3d 50 ff 80 3d
       -0.05234739 -0.06420309 0.03828287 0.06298697
0001d0 92 18 32 bd 06 ee 81 bd 69 30 44 bd a7 c0 94 3d
       -0.043480463 -0.063442275 -0.04789773 0.07263308
0001e0 1d f7 ad 3d 55 5d 4c bd 48 a8 81 bd 51 e5 80 bd
       0.08494399 -0.049893696 -0.06330925 -0.06293739
0001f0 97 e5 6e 3d f3 e9 ac bc 5a ff 2b bd 8a df 5f 3d
       0.058324423 -0.02110765 -0.04199157 0.054656543
000200 2b f0 9e 3d 97 84 c2 3d 62 bf f8 bc 34 61 c2 bd
       0.07760652 0.09497946 -0.030364696 -0.09491196
000210 d6 36 b1 3d f3 aa 06 3e a5 72 9b 3c 90 82 86 bd
       0.08653037 0.1315115 0.018975565 -0.065678716
000220 ab a4 90 3c 3a 1e b5 bd 24 90 6d 3c 36 b9 cc 3d
       0.017656645 -0.08843656 0.014499698 0.09996264
000230 24 5d 68 3d 4d 02 d3 bd 86 79 3b bd e8 f9 6e bd
       0.05672945 -0.10303173 -0.04577019 -0.058343798
000240 38 df cb 3d 58 6a 01 3d b1 58 2a bd b0 b8 d7 bd
       0.09954685 0.031595558 -0.04158849 -0.10533273
000250 01 6b 4d bc 03 05 21 3d b8 96 ac bc e0 72 80 bd
       -0.012537719 0.03931142 -0.021067962 -0.06271911
000260 08 30 66 bd 37 8d 3d 3d 87 90 7e bd 44 8f 14 be
       -0.05619815 0.04627725 -0.06214955 -0.14507776
000270 90 7e de 3b 1d d5 a3 3d 58 cf b4 3c 2c 88 d3 bc
       0.00678999 0.079996325 0.022071525 -0.025821768
000280 16 f8 0c bc 16 6e 03 3d d6 d5 4a 3d 9c ff 70 bc
       -0.00860407 0.032087408 0.049520336 -0.0147093795
000290 d0 c4 b5 3d 29 24 49 bd 04 5d e5 3c 03 4a 43 3d
       0.0887543 -0.04910675 0.027998455 0.047678005
0002a0 75 15 01 bd d2 d7 c5 bd 8e 82 28 3d cd ab 44 3c
       -0.031514604 -0.09660305 0.04114013 0.012003851
0002b0 72 b1 ba 3d b5 48 81 bd e2 9d 4c bd a2 fb 0c bd
       0.09115876 -0.06312696 -0.049955256 -0.034419663
0002c0 e2 9a 22 bc 85 61 fd bc 2d b3 d0 bd 58 fe 10 3d
       -0.009924622 -0.03093029 -0.10190425 0.03539881
0002d0 41 28 86 3d ee b2 71 3b 4f 81 94 bd 37 46 85 3d
       0.065506466 0.0036880332 -0.07251226 0.06507533
0002e0 1f 60 0b bb e1 7b 6c 3d 82 7e 01 3b 2e d5 99 bd
       -0.002126701 0.057735328 0.0019759242 -0.07511364
0002f0 3b e7 51 be b5 a5 d8 bc 33 a2 37 3d e1 b0 9a 3d
       -0.20498364 -0.026446203 0.04483242 0.07553268
000300 98 6b 29 bd 59 c8 17 3d e8 31 b2 3d cd a4 2a 3d
       -0.041362375 0.0370563 0.08700925 0.041661073
000310 f4 65 96 3c 6a 49 7a 3d bf 8e 7c 3d c8 3d 1d 3e
       0.018359162 0.06110517 0.06165957 0.15355599
000320 ea 6f d0 bd 7a fc 61 bd 10 49 4c bd 4a 27 a1 bd
       -0.10177596 -0.05517242 -0.049874365 -0.07868822
000330 c5 e3 e2 3c e0 88 1a 3e e0 bf 5f 3d 0e eb 70 bd
       0.0276965 0.15091276 0.054626346 -0.058817916
000340 f8 95 b1 bc 74 af 9e 3c dd 2e fe 3b e8 74 34 3c
       -0.021677956 0.019370772 0.0077570514 0.011014201
000350 a1 57 ef bd 67 18 9d bc 2d c9 9b bd c4 d2 27 bd
       -0.11686636 -0.019176675 -0.076067306 -0.040972486
000360 88 ae fb 3d 31 cd ed bb a6 3e cc bc f6 2f d2 bd
       0.122891486 -0.0072571267 -0.024932217 -0.10263054
000370 a6 e1 8b bd 30 78 2a be 39 7e ca 3c a3 69 90 3d
       -0.068301484 -0.1664741 0.02471839 0.070513986
000380 d6 c9 e8 3c 55 c8 9c 3d b6 ea a4 bd cc d4 0b 3d
       0.028416555 0.07655398 -0.0805258 0.034138486
000390 0e e0 bd 3c bf 79 32 bd 4f a7 e9 3c 35 56 f7 bc
       0.023178127 -0.043573137 0.028522162 -0.030192474
0003a0 c5 f5 90 3b 0a f5 dd 3c 61 03 ec 3d 24 72 f1 bc
       0.0044238293 0.027094383 0.11524082 -0.029473372
0003b0 24 f3 c4 3c ae bb a5 bd 7d 48 a6 bd a3 2e dd bd
       0.02404172 -0.08092438 -0.08119295 -0.10799911
0003c0 d8 4f 2b 3d de b8 5a 3d a6 80 a9 bd f9 46 04 3e
       0.04182419 0.05339896 -0.08276491 0.12917699
0003d0 a4 ba 57 bd 8d 95 0e be c5 37 29 bd 0c b9 58 bc
       -0.05266823 -0.13924237 -0.04131295 -0.013227712
0003e0 fd 8e 47 3d 80 4b db bc d5 88 89 3d 0b e4 0e 3d
       0.04872035 -0.0267694 0.06715552 0.034885447
0003f0 0a 65 92 bd 29 dc 29 bd ee fb ee bc 8d c9 5a ba
       -0.07148178 -0.041469727 -0.029172864 -0.00083460734

global_block.conv_chan.conv.0.bias f4 [8]
000000 ab 4d 72 b3 61 51 76 b1 04 c0 20 bb 99 a5 e9 b5
       -5.6415654e-08 -3.584397e-09 -0.0024528513 -1.7408048e-06
000010 51 27 3d 3a bc e9 22 bc f1 f7 f3 32 e1 4d bc 31
       0.00072156364 -0.009943422 2.8401674e-08 5.480374e-09

global_block.conv_chan.conv.1.weight f4 [8]
000000 59 8e 71 3f a9 56 72 3f ca b3 80 3f 57 08 5f 3f
       0.9435783 0.9466348 1.0054867 0.871221
000010 9a cb 62 3f 1a f3 53 3f fa 10 6d 3f e0 7a 60 3f
       0.8859192 0.8279282 0.9260403 0.8768749

global_block.conv_chan.conv.1.bias f4 [8]
000000 b0 5e 70 be e6 96 e6 bd 88 2b 15 be f2 53 f6 bd
       -0.2347362 -0.1125925 -0.14567387 -0.1202773
000010 91 8f db bd d5 98 28 be 97 9f 28 be 8c ac 25 be
       -0.107207425 -0.16464551 -0.16467129 -0.16179103

global_block.conv_chan.conv.1.running_mean f4 [8]
000000 1f ec 00 be 9e 64 59 bd 5c 16 85 bd 57 36 95 3c
       -0.12590073 -0.05307447 -0.06498405 0.018214388
000010 b4 96 85 3d cd 13 04 bd bb c7 15 3c bd c6 02 3d
       0.06522885 -0.032245446 0.009141858 0.031927813

global_block.conv_chan.conv.1.running_var f4 [8]
000000 01 dc 0f 3e 1b 26 f1 3d 3b 99 aa 3d 49 c0 d2 3d
       0.14048769 0.11774846 0.08330008 0.10290582
000010 3d d1 9e 3d dc 2d ca 3d d8 80 59 3d fd 3f 87 3d
       0.07754753 0.09872028 0.05310139 0.06604002

local_block.conv_time.conv.0.weight f4 [8, 1, 1, 51]
000000 6a 44 3f bd 90 36 f0 3c 45 28 13 3d 32 e3 62 3c
       -0.046696104 0.029322892 0.035927076 0.013848113
000010 ef 25 89 bc 2d 39 d5 bd f9 0f 3c 3d 42 45 64 ba
       -0.016741721 -0.10411296 0.04591367 -0.000870783
000020 b9 26 d5 3d 59 70 71 3c 8b d7 44 bd 46 de 3b bb
       0.104077764 0.014736258 -0.04805712 -0.002866642
000030 17 53 ba 3d 70 ca bf bd 98 77 0e 3b 12 7e 7a bd
       0.090978794 -0.09364784 0.0021738764 -0.061155386
000040 5a ba 80 bd f5 01 e7 3d 5c a6 0c 3e a2 a2 46 3d
       -0.06285544 0.1127967 0.13735336 0.048494942
000050 70 ae 06 be a1 dd 27 bd b5 4b a5 bc 83 01 ba bc
       -0.1315248 -0.040982846 -0.020177701 -0.022705799
000060 2e 2e eb 3b 88 fc a9 3d b9 d7 64 3b 59 c0 f5 bc
       0.007177136 0.0830012 0.003491862 -0.029998945
000070 80 36 17 3d 0c f3 b5 3d 78 13 42 3c 11 00 87 3d
       0.03691721 0.08884248 0.011845462 0.065918095
000080 53 f1 55 3d 9c fb 93 bd 46 d5 de 3d d8 98 0b 3e
       0.052232098 -0.07225725 0.108805224 0.13632524
000090 81 a3 05 3c 11 9e 5b be ab 18 96 bd 00 0d 89 3d
       0.008156658 -0.21447016 -0.07328924 0.06691933
0000a0 83 3d a4 3d d9 19 bb bd 62 c5 d1 3d 7f bb c3 3d
       0.08019545 -0.091357894 0.10242726 0.095572464
0000b0 6a 4b 80 3c 5a 97 7d bd 7f ac 8a bb a8 cf 5c bd
       0.01566096 -0.06191192 -0.004231989 -0.053908974
0000c0 7e 26 04 bd 69 02 86 3d d5 74 b0 bc 0e 94 05 3d
       -0.03226327 0.065434285 -0.021540085 0.0326119
0000d0 cc 54 58 bd d9 f2 2b bd ad 14 a9 bd 55 3f 8e bc
       -0.052815244 -0.041979644 -0.08255897 -0.017364183
0000e0 4b 21 91 bd bc bd 79 bd da 82 f8 3c 62 5c e9 bd
       -0.07086428 -0.06097196 0.030335832 -0.11394574
0000f0 ba 67 c7 3c cd 81 8d bd a1 51 07 3e 08 2d f0 3d
       0.024341453 -0.06909523 0.13214733 0.11727339
000100 13 60 f4 3b 07 92 ca 3b d3 5d 7a 3b 76 d5 cf bb
       0.007457742 0.0061819586 0.0038202896 -0.006342585
000110 27 26 d0 bd c1 02 a7 bc cd f0 92 bb 10 aa b1 bd
       -0.10163527 -0.020387055 -0.004484272 -0.08675015
000120 bc bb 17 3d bc f9 60 bd b1 05 2c bd 79 0a 26 3d
       0.03704427 -0.054925665 -0.041997615 0.04053733
000130 63 9a 6b bd 49 39 7d bb 88 49 98 3d b3 db 0b 3e
       -0.05752028 -0.003863888 0.074359 0.13658027
000140 4e 09 ae 3d 4c 2d 1c bd 9f 9c eb 3c b4 97 c2 bc
       0.084978685 -0.038129136 0.028761206 -0.023753978
000150 8d 78 20 3d 6c 4d a6 3d 77 38 63 bd 29 09 c8 3c
       0.039177466 0.08120236 -0.05547377 0.02441843
000160 0a fd f9 3c 07 9a b6 3d 62 89 80 3d 96 97 ff bb
       0.030516166 0.08916097 0.06276204 -0.007800053
000170 25 7b be bc a5 63 c2 bd e5 b4 f4 bc 3d fc 36 3d
       -0.02325208 -0.09491662 -0.029871413 0.044674147
000180 fa df 1b 3e 64 d8 fc 3c e4 a7 72 3d cd 5c bb bc
       0.15222159 0.030864902 0.059242144 -0.0228714
000190 b8 4b aa 3d 15 0b 8d bd 25 95 4f bd 88 77 e8 bd
       0.083152235 -0.06886879 -0.050679345 -0.11350924
0001a0 b9 0c 2d 3d 02 f2 5b bd f2 53 3c bd 9c 5c 22 3d
       0.04224846 -0.053697594 -0.045978494 0.0396391
0001b0 6a 33 e9 3c a0 7c 0b 3d 83 8f f1 3d cd 79 96 bb
       0.028466899 0.0340544 0.11794951 -0.0045921565
0001c0 e3 86 e9 3d 19 ed a7 3c 93 11 4a bd 3f e7 00 bd
       0.11402681 0.0204988 -0.049333166 -0.031470533
0001d0 66 78 1a bd 27 48 08 bd 82 df 1f bd bd be b9 bc
       -0.037712477 -0.033271935 -0.039031513 -0.022673959
0001e0 44 85 c0 bd e0 74 dd 3d 88 15 10 3e 35 67 9c 3d
       -0.094004184 0.10813308 0.14070714 0.07636873
0001f0 94 67 cc 3d 60 dc 43 bd 59 b6 a5 3b 15 29 88 bd
       0.099806935 -0.047817588 0.005057138 -0.06648461
000200 d2 04 f2 3c 94 4f 5d bd ca d9 53 bd 09 15 23 3d
       0.029543314 -0.05403097 -0.05172137 0.039814983
000210 5d 97 6b bc 9c 33 89 bd 6d e4 76 bb 45 15 6b bd
       -0.01437935 -0.06699297 -0.0037672773 -0.05739333
000220 11 8e 15 3d 32 ff 9d bd 55 47 48 3c 03 aa 22 3e
       0.03651244 -0.0771469 0.012224038 0.15885167
000230 28 b6 49 3d 4b b6 f5 3d 93 45 c0 3d f4 6f f8 bd
       0.049245983 0.1199766 0.0938827 -0.12130728
000240 4f e8 49 be 36 e8 13 bd 66 32 8c bd 09 71 9b bd
       -0.19717525 -0.036110125 -0.0684555 -0.07589919
000250 bc a4 c0 bd c6 f9 03 3e 92 2e 1a 3e 7d 3d 2e bd
       -0.094064206 0.1288825 0.15056828 -0.04253911
000260 20 f4 4e bc 5a 6a c1 3c f3 8c 90 3b 00 68 92 bc
       -0.012631446 0.023610283 0.0044113337 -0.017871857
000270 4c ce 04 3c 9c 92 16 3d 35 36 17 bd 73 2e d5 bb
       0.008105826 0.03676091 -0.03691693 -0.0065057813
000280 15 b3 7a bb c3 10 d6 3d cd 28 59 bd da 9c 45 bc
       -0.0038253714 0.10452416 -0.053017426 -0.012061322
000290 68 15 5a 3d f3 e3 03 be 07 78 94 bd 15 d6 5f 3d
       0.05324307 -0.12879924 -0.07249456 0.054647524
0002a0 b5 08 9c bd f9 3f 86 3c b6 2e 96 3c 7a 02 94 3d
       -0.07618848 0.016387926 0.01833282 0.07227035
0002b0 2e f7 1d 3e d0 d6 b0 3c 19 84 6d bd 1a 0b 86 3d
       0.15426323 0.021586806 -0.057987306 0.06545086
0002c0 bf 87 88 bd 45 3b b6 bc cf 41 5e 3d 3c 6e 85 bc
       -0.066665165 -0.022245059 0.05426198 -0.016287915
0002d0 6e 30 e3 bc 34 90 20 bd 09 d0 9c 3d a8 0d 9c bd
       -0.027733054 -0.039200023 0.07656867 -0.07619792
0002e0 61 47 b3 3d da 46 94 bd bc 8b 99 3d da f1 01 3e
       0.08753849 -0.07240076 0.07497355 0.12689915
0002f0 07 43 44 bb 2f b3 c0 bd 45 b6 1c 3d f8 a3 b0 3c
       -0.0029947178 -0.094091766 0.038259763 0.021562561
000300 76 9d d2 bd 8c c0 1b be ed 6c 9e 3d ca 7d 58 bc
       -0.102839395 -0.1521017 0.0773562 -0.013213584
000310 d9 8a 09 3b c9 43 1b be d6 43 ba bd 17 97 5e 3d
       0.00209873 -0.15162577 -0.0909497 0.05434331
000320 d1 ce 9c bd 68 68 aa 3d a2 df aa 3c 37 b0 2f 3e
       -0.076566346 0.08320695 0.02085859 0.17157064
000330 cf 63 d1 bc da c1 a5 3d 6a 14 ae bd 20 ed 15 bd
       -0.025560288 0.08093615 -0.084999874 -0.036603093
000340 24 12 df bc 6a 39 d9 bd 41 12 28 3c bd 6e 41 bd
       -0.02723033 -0.10606654 0.010258258 -0.04722475
000350 9b 26 0b 3d 1a 78 e7 3c c7 14 53 bd e2 5b 57 bd
       0.033972364 0.028255511 -0.051533487 -0.05257786
000360 21 7d cf bd a7 59 71 3c 77 6f ad 3c 83 5e 3f bd
       -0.10131288 0.014730847 0.021171315 -0.046720993
000370 6b 6b 98 3d 35 d5 b4 bd c7 51 d8 3b 25 ce 25 3d
       0.07442363 -0.088297285 0.0066015455 0.040479798
000380 41 f0 0b be 06 51 ac bd 52 b0 e2 bc b3 91 47 bc
       -0.13665868 -0.084138915 -0.027671967 -0.0121807335
000390 c8 9f fd 3c 2e bc 35 3d 3a 03 9c 3d dd 82 1f bd
       0.030959979 0.044368915 0.07617803 -0.03894316
0003a0 8c c3 cb bd af bf 26 bd 9a b6 1d 3c 0f bb 93 bc
       -0.09949407 -0.040710147 0.009626055 -0.018033532
0003b0 61 6e 08 bd 79 6d b7 3d de 1a 91 3c d4 22 e3 bc
       -0.03330839 0.08956427 0.017713007 -0.027726568
0003c0 8d bb a4 3d 69 6d a2 bd 4a 78 c9 bd cc 5e 5c 3a
       0.08043585 -0.079310246 -0.098373964 0.000840646
0003d0 02 fa fb bd a6 27 a9 bd 98 84 13 3e e0 c1 0d 3e
       -0.123035446 -0.082595155 0.14406049 0.13843489
0003e0 4d ba b4 bd 15 0f bb bd 97 4a 29 be 1b c8 5b bd
       -0.088245966 -0.09133736 -0.1653236 -0.053657632
0003f0 a2 77 38 bd 6f 14 ce 3a a8 76 94 bc 4d 98 ef 3c
       -0.045035966 0.0015722642 -0.018122986 0.029247427

local_block.conv_time.conv.0.bias f4 [8]
000000 d9 d1 cf 3a 95 cc ce bc 98 ef 06 3b e1 14 e9 3c
       0.0015855386 -0.025244037 0.0020589586 0.028452339
000010 18 ec 06 3c 63 3f 98 3c f4 d5 f1 3c c0 7b 85 3c
       0.008235 0.018584913 0.029520966 0.01629436

local_block.conv_time.conv.1.weight f4 [8]
000000 7f c0 6d 3f 4a 25 63 3f f1 b5 4e 3f d0 d6 59 3f
       0.9287185 0.88728774 0.8074637 0.850934
000010 6f f0 47 3f ab 5f 80 3f 50 f6 51 3f a2 a7 75 3f
       0.7810125 1.0029196 0.8201647 0.9595891

local_block.conv_time.conv.1.bias f4 [8]
000000 03 bd 61 3c 30 5b 20 3d d4 37 c3 3b 59 ce 45 3d
       0.013777974 0.039149463 0.005957583 0.04829249
000010 23 ef ad bc 8c 37 a3 bb 53 25 b5 3d 07 54 f0 bd
       -0.021232193 -0.004980987 0.0884501 -0.11734777

local_block.conv_time.conv.1.running_mean f4 [8]
000000 75 30 e6 3b 52 f9 98 bc 86 df 89 3b ed ca 0d 3d
       0.0070248195 -0.018673573 0.0042075543 0.034617353
000010 93 30 62 3c 1b 72 9b 3c 50 5e f9 3c f4 c8 4a 3c
       0.013805526 0.018975308 0.03044048 0.0123770125

local_block.conv_time.conv.1.running_var f4 [8]
000000 a6 d6 79 40 e1 4d a6 40 02 33 ff 40 b6 89 a0 40
       3.903726 5.1970067 7.9749765 5.0168104
000010 0e 98 87 40 d6 ff 99 40 c8 17 bb 40 8a 10 83 40
       4.2373114 4.81248 5.846653 4.095769

local_block.conv_chan.conv.0.weight f4 [8, 8, 11, 1]
000000 f9 f1 da bc cd 83 39 3d 1b 62 7a bc 0d c3 ff bc
       -0.02672671 0.04529171 -0.015282179 -0.031220937
000010 70 c1 f2 3b d7 8b 91 3c da 5a e6 bb d5 e5 22 bd
       0.0074083135 0.017766876 -0.0070298733 -0.039769966
000020 12 a3 54 bd 2c 3f 22 3d ef 63 91 bd 58 9d bf bc
       -0.05191333 0.039611027 -0.07099139 -0.023390457
000030 44 c5 b1 3c 8a 94 00 3d 8b eb 2d bd fe 98 b0 3d
       0.021700509 0.031391658 -0.04246096 0.08622931
000040 4d 9a 00 3d e9 35 26 bd 97 15 47 be 93 54 99 bc
       0.031397153 -0.040578756 -0.1944183 -0.018717086
000050 40 81 97 3c e7 39 0e 3d 6a 43 f0 3c 83 12 a4 3d
       0.018494248 0.03472319 0.02932902 0.08011343
000060 40 08 c4 3c 36 8a 87 3d 58 c0 55 3c 5f 45 dd bc
       0.023929715 0.066181585 0.013046347 -0.027010618
000070 ed fe ed bc 67 92 a7 bb 23 45 ad bd 39 f9 e9 3c
       -0.029052222 -0.005113888 -0.084604524 0.028561221
000080 45 28 d5 bd 5f 49 ad bc 13 7d ba bc 0d c0 25 bd
       -0.104080714 -0.02115315 -0.022764718 -0.040466357
000090 ef 6f 12 3c 13 b8 74 bb 34 ec 83 3d 49 38 ae 3c
       0.00893782 -0.0037341162 0.064415365 0.021267073
0000a0 95 57 6a 3d b6 15 bf bd 86 be a1 bc 36 f9 85 3d
       0.05721243 -0.09330313 -0.019744169 0.06541674
0000b0 a4 db 35 3d 66 d4 14 bc 93 5e 64 bd c1 fc ac bc
       0.04439892 -0.009083843 -0.055754256 -0.021116616
0000c0 84 ff b1 3c aa e1 00 bd 03 f5 4d 3d 50 cb e2 3d
       0.021728285 -0.03146521 0.05028249 0.11073935
0000d0 df 63 c7 bc a1 e1 5c 3b 55 1f 1f bd a0 90 c6 bc
       -0.024339614 0.0033703821 -0.03884824 -0.024238884
0000e0 0f 38 24 3e 93 6d 1a 3d 3c ad c3 3d ad 3c b1 3c
       0.1603701 0.037702154 0.09554526 0.021635378
0000f0 1f a5 e5 ba 52 63 ed 3d c8 a1 e7 bd e8 38 f5 bd
       -0.0017520523 0.115912095 -0.11310154 -0.11973745
000100 11 10 d7 bb ef 98 ce 3c e8 a4 42 3c 59 7d 99 3d
       -0.0065631946 0.025219409 0.011880137 0.07494611
000110 b3 43 d2 bc 69 ee 03 3e 37 8b dd bc 8e 94 75 bd
       -0.025667047 0.12883915 -0.027043922 -0.059956126
000120 59 eb e0 bc 3a f0 ef 3d 95 f9 e2 3c 07 e4 87 bd
       -0.027455973 0.117157415 0.0277069 -0.0663529
000130 e9 8a 99 bc 45 c3 1b bc 34 97 4a 3d 2d 82 22 3d
       -0.018742995 -0.009507005 0.049460605 0.039674927
000140 c7 0b 3f b9 f2 35 86 3b e0 aa 41 bd 25 24 5f 3d
       -0.00018219567 0.0040957863 -0.0472821 0.05447783
000150 f1 4c 74 3d 66 49 c5 3d d5 8f 0c bd a8 76 80 bd
       0.05964369 0.0963314 -0.034316856 -0.06272632
000160 50 96 1c 3c 74 6e a8 bb ef ba 1e 3d c7 62 a2 bc
       0.009557322 -0.00514012 0.038752493 -0.019822491
000170 31 6b ad 3d 6c fd 2f bb ee 3f 9c 3b e0 11 28 bd
       0.08467711 -0.0026853932 0.004768363 -0.041032672
000180 24 b5 56 bd 1c bd b1 3c 25 a3 ef bc 69 e8 3b bd
       -0.052418843 0.02169662 -0.029252598 -0.04587594
000190 5a 7c 9f 3d 77 8a 23 3d 14 0b 08 bc f3 9d 0a bd
       0.0778739 0.039926972 -0.0083034225 -0.03384204
0001a0 e6 20 5b bd 47 0c 20 3d 4f 6a fe 3c 86 ff 7e bd
       -0.05349817 0.03907421 0.031056551 -0.062255405
0001b0 5a eb 9e 3d 2f 55 68 bd 41 3b d7 bd bd 11 39 3d
       0.077597335 -0.056721862 -0.10509349 0.045182932
0001c0 a0 92 88 bd 39 60 06 bc 98 e6 48 3d 13 0e 96 bd
       -0.066685915 -0.008201652 0.049048036 -0.07326903
0001d0 48 77 1d 3d 94 1e 6c 3e 19 05 17 3d 97 e3 a3 bc
       0.038443834 0.2305854 0.036870096 -0.020005984
0001e0 f3 a5 4d bc a6 0a c5 3d 27 ac 95 bd 90 57 09 bd
       -0.012551772 0.09621172 -0.07308226 -0.03353077
0001f0 c0 73 09 bd 31 61 8b 3b 4f 26 46 3d 46 7a e6 3b
       -0.033557653 0.0042535295 0.048376378 0.007033619
000200 a3 c1 ee 3c 60 e7 80 bc 4e de 57 bd 3d 44 03 3e
       0.029145068 -0.015735328 -0.05270224 0.12819
000210 66 86 6d 3c d4 96 94 3b 45 89 18 3d 7b 49 00 bd
       0.014497375 0.0045345817 0.037240285 -0.031320076
000220 5c 21 eb bc eb 74 84 3d 32 ba be bc 56 f4 16 be
       -0.02870243 0.06467613 -0.023282144 -0.14741644
000230 a7 73 4d 3d bd fb 82 bc f9 61 8e 3c 0e e6 92 3d
       0.050159123 -0.015989179 0.017380701 0.07172786
000240 c9 bd d3 bd 8e fb e4 bc 57 9c ad 3d 43 54 6f bd
       -0.10338933 -0.027951982 0.08477085 -0.058429968
000250 ac 42 f5 bb bf b0 48 3d c2 a2 c7 3b 6c f7 56 3c
       -0.0074847545 0.048996683 0.0060924003 0.013120513
000260 53 6e f6 3d 78 b5 a6 bc c3 3f 3d bd f2 98 34 bd
       0.120327614 -0.020350203 -0.046203386 -0.044091173
000270 5c 6c 93 bd ca 70 65 3b 7a dd e3 bb bc 7c 2b bd
       -0.07198402 0.0035009854 -0.0069538923 -0.041867003
000280 4a 91 ef 3c 19 5c 1c 3e c5 ef 32 3d 90 43 6c bb
       0.029244084 0.15269507 0.043685693 -0.0036051013
000290 d3 63 ca ba bb 6c 2d 3d 49 6f 9c 3d 9e 0e 42 bd
       -0.0015441127 0.04234002 0.076384135 -0.04737722
0002a0 a1 d5 10 3d 28 d8 17 3d bf 88 63 bc 3d 4d 82 bd
       0.035359982 0.037071377 -0.013887583 -0.06362388
0002b0 03 24 8e 3d 12 7b c2 3c 91 38 af bc f9 2f 89 bd
       0.069404624 0.023740325 -0.021389278 -0.06698603
0002c0 16 c4 1f 3d 50 7c 98 bd 64 48 d4 bd 60 ab 44 3e
       0.03900536 -0.07445586 -0.1036537 0.19206
0002d0 1b 30 db 3d 8e ef f0 bb 13 4b d6 bd 98 ee 1d bc
       0.10702535 -0.007352776 -0.10463538 -0.009639405
0002e0 2d 51 fc 3c 89 48 7e 3d 01 07 70 bc 84 84 fc bd
       0.030800426 0.062080894 -0.014650107 -0.12329963
0002f0 82 54 0c be 94 8e 84 bd fc 5e c7 3d a6 4f 83 3d
       -0.13704112 -0.06472507 0.09734914 0.06411676
000300 e4 21 e2 3b 20 1b 5e 3c cb 67 a8 3d d7 ec 2a 3d
       0.0069010127 0.013556272 0.08222922 0.041729774
000310 ba c1 7e bc 2c f5 84 3d 95 8e 83 3b 6d 9f 35 bd
       -0.015549118 0.06492075 0.0040148 -0.044341493
000320 3f bd bd 3d 77 1b b1 bd 01 13 31 3d a5 a6 cd bc
       0.092646115 -0.08647817 0.043231014 -0.025103876
000330 63 7d 0e 3d b5 62 47 3c 2c d3 29 3d 6c 94 4a bd
       0.034787547 0.01216953 0.041461155 -0.049457952
000340 0a ca 27 bd 55 f0 97 bd 8d e0 6c 3d 88 4b 4d bd
       -0.040964164 -0.074188866 0.057831336 -0.05012086
000350 6f 04 0e 3d ab 12 74 3d 42 f0 cf 3c 58 81 b1 bd
       0.034672197 0.059588116 0.025383119 -0.086672485
000360 e5 ea c4 bc 61 f7 a0 bc 66 a3 d2 3d b1 1c 5d bd
       -0.024037788 -0.01964921 0.10285072 -0.05398244
000370 2f e3 a6 bd 13 dc 3e bc 73 5d c9 bb 58 b2 06 3d
       -0.081488006 -0.0116491495 -0.006145173 0.032884926
000380 2c 1a 8a 3c 38 a2 86 3d ca 52 84 3b 00 14 a8 bd
       0.016858183 0.065739095 0.0040381895 -0.0820694
000390 6a 34 81 bd 94 ee bd 3c 6e 05 8c 3c ec b7 41 bc
       -0.06308825 0.023185052 0.017092433 -0.011823636
0003a0 90 62 d5 bd 60 0b f5 bc b3 fd c0 bb 25 6f 27 3d
       -0.1041919 -0.02991265 -0.0058896183 0.04087748
0003b0 7f 0f a0 3d 1d 51 f4 bc f6 e9 a6 bd cd b1 da 3d
       0.07815456 -0.029823834 -0.08150093 0.10678444
0003c0 0b ae 16 3d fc 46 eb bb 92 4d 11 3d b0 95 7b 3d
       0.036787074 -0.007180093 0.035474367 0.06142205
0003d0 40 c1 b4 bd ea 66 36 be bf 81 10 bd a7 e0 e9 3c
       -0.08825922 -0.17812696 -0.035279986 0.028549505
0003e0 bd 5f 64 bd f2 31 34 3e 4b c3 53 bd 81 29 01 3d
       -0.055755366 0.17597178 -0.051699918 0.03153372
0003f0 ec 21 0f bd f8 4a df 3b d3 63 14 bc c0 90 96 bd
       -0.03494446 0.006814357 -0.009057003 -0.073518276

local_block.conv_chan.conv.0.bias f4 [8]
000000 3e 3b 98 bc be 93 8f b2 4e 4b e0 3a 42 1e 8b 3b
       -0.018582936 -1.6714576e-08 0.0017112286 0.0042455504
000010 97 5d f8 3a 41 23 07 38 e9 42 7b 3c f4 a0 87 b2
       0.001894879 3.221934e-05 0.015335777 -1.5789261e-08

local_block.conv_chan.conv.1.weight f4 [8]
000000 b9 83 41 3f f8 0f 6d 3f a9 97 79 3f 61 26 64 3f
       0.7559162 0.9260249 0.9749704 0.8912106
000010 ae 36 51 3f 31 5d 88 3f e6 a7 6a 3f 18 e3 61 3f
       0.8172406 1.065344 0.9166244 0.8823714

local_block.conv_chan.conv.1.bias f4 [8]
000000 a9 f1 20 be 53 6d 33 be c0 0a a9 bd fd a5 39 be
       -0.15717186 -0.17522173 -0.082540035 -0.18129726
000010 f9 94 0f be 84 66 37 be 1f e2 12 be ff 5e 33 be
       -0.14021672 -0.179102 -0.14344071 -0.17516707

local_block.conv_chan.conv.1.running_mean f4 [8]
000000 ee b7 1c bc 98 39 67 3d 5a 48 dc bc 7d 29 bc bc
       -0.009565337 0.05645141 -0.026889969 -0.022969002
000010 08 28 46 bb 2d 6c 1c bd e9 d4 13 3d e3 5d 37 bd
       -0.0030236263 -0.038189102 0.03609172 -0.04476727

local_block.conv_chan.conv.1.running_var f4 [8]
000000 03 b9 d0 3d f3 36 60 3d 80 df 65 3d c2 7d 94 3d
       0.10191538 0.054739904 0.05612135 0.07250549
000010 42 d5 03 3e 13 0c 94 3d 17 23 fe 3d 3c 16 bf 3d
       0.1287432 0.072288655 0.124090366 0.09330413

tcn.network.0.conv1.weight f4 [16, 16, 16]
000000 58 47 85 bd 9e eb 8e bd 75 fc c2 bc 35 fb 75 bd
       -0.06507748 -0.06978534 -0.023802022 -0.060054023
000010 df 70 d4 bc 2c af 14 bc e4 bc ab 3b ed 99 87 bb
       -0.025932727 -0.009074967 0.0052410234 -0.0041382224
000020 4e 2d 16 3d 5b 27 0b bc 96 e1 48 bc be bb 09 bd
       0.0366643 -0.00849327 -0.012260815 -0.03362631
000030 a2 22 26 bd 7e 30 c0 bc fa c4 74 bc c0 96 22 3d
       -0.040560372 -0.023460623 -0.014939541 0.039694548
000040 57 a8 b6 3c 9d 0f 3d 3c f7 0c 16 bc 00 9b b7 3c
       0.022297068 0.011539367 -0.0091583645 0.022412777
000050 e1 e7 70 bc f0 3d 9f 3c a8 39 b4 ba d8 44 05 3c
       -0.014703722 0.019438714 -0.0013750093 0.008134089
000060 81 ab e1 3b 49 c4 15 3c e0 0c 74 3c 71 7d 0c 3c
       0.0068869 0.009141036 0.014895648 0.008574829
000070 cb dd 12 bc e7 e5 b3 bb e6 19 7e bc 3d 93 57 3d
       -0.008964012 -0.005490053 -0.015509104 0.05263065
000080 dc 67 8f bc ee 03 bd bb 70 9d ed bc 10 0d 82 bc
       -0.017505579 -0.0057682907 -0.029005736 -0.01587537
000090 3f 4e 20 3b 2a 62 2a 3d d0 f3 86 3d 9c b7 17 3d
       0.00244607 0.041597523 0.06589472 0.037040338
0000a0 4d f5 9e 3d c1 ac 8a 3c 11 64 94 bb e3 ea 10 3d
       0.07761631 0.016928079 -0.0045285304 0.035380255
0000b0 87 82 ff 3b a1 7f d7 3b 85 5e af 3c 0f df 5f bc
       0.0077975425 0.006576494 0.021407375 -0.013664021
0000c0 9a 8c 85 bb f1 02 f8 bc fb c4 16 bc d4 c5 ed 3c
       -0.004075599 -0.03027484 -0.009202237 0.029024996
0000d0 06 4f ca 3a aa ff 87 3c dc 09 b9 3c 1a aa b9 3c
       0.0015434928 0.016601402 0.02258771 0.022664119
0000e0 1b 50 15 3d c3 86 2b bc de 1f a6 3c 7a ad af ba
       0.036453348 -0.010469141 0.020278867 -0.001340314
0000f0 30 14 ba bc 7d 40 71 bc d9 ea 41 3d 17 89 64 3d
       -0.022714704 -0.014724848 0.04734311 0.0557948
000100 9f 69 3c 3c cb 00 0f 3d ed 2e dd 3c 8c 28 90 3d
       0.011499791 0.034912866 0.026999915 0.07038984
000110 98 ba 74 3d 78 4c d2 3c f2 8d 43 3c 32 0f a7 bb
       0.059748262 0.025671229 0.011935698 -0.005098247
000120 c2 ba ec 3c c6 fe 14 bc b8 7e 14 3c 58 8f 89 3c
       0.028897647 -0.009093946 0.009063415 0.016791984
000130 bb 29 dd bc e1 1a 83 3c 16 74 d5 3c 1a 61 c2 3a
       -0.026997438 0.016004028 0.02605633 0.0014829964
000140 5c 9d 0c 3c 33 52 9e 3c d1 70 02 3d f9 55 32 3d
       0.008582439 0.019326305 0.03184587 0.04353902
000150 21 d6 b9 3c 4d 55 23 3c 74 39 a4 3c d5 62 fb 3a
       0.022685112 0.009969068 0.020046927 0.0019179235
000160 7e 14 9b 3b 96 4d d3 bc 67 a1 10 3c c8 8f 62 3c
       0.0047326675 -0.025793832 0.008827544 0.013828225
000170 da db 90 3b fd 30 9e 3c 23 a9 1f 3d a1 41 51 3b
       0.0044207396 0.019310469 0.03897966 0.0031929987
000180 37 c1 24 3d 4f 92 eb bc e5 65 40 bd 11 13 1b bd
       0.040223327 -0.028756289 -0.046972174 -0.03785998
000190 17 e2 17 bc c5 ad b3 bc 5c 78 73 bc cb f1 94 3c
       -0.009270213 -0.021933446 -0.014860239 0.018181702
0001a0 1f 01 5a bc 60 f6 54 bc dd 83 98 bc 3d 47 38 bc
       -0.013305931 -0.0129981935 -0.018617565 -0.011247453
0001b0 21 9f 7e bc 86 2b da bb ab 69 c9 3c fc 2e 1a 3c
       -0.015540869 -0.0066580204 0.02458652 0.009410616
0001c0 d0 4f 25 bc 95 6f 78 bb 36 f2 dd bb f5 3d 40 3c
       -0.01008983 -0.0037908305 -0.0067732586 0.011733522
0001d0 a3 85 8c bc 91 45 c1 3c 3a 88 7a 3c 09 85 4f 3d
       -0.017153567 0.023592742 0.015291268 0.05066398
0001e0 20 2d 46 3d e1 25 93 3a 0e 8b e5 3b 6b ce 26 3b
       0.04838288 0.0011226499 0.007005102 0.0025452625
0001f0 f0 f1 89 3b 44 37 3c 3c 3a ff fe 3a 18 e3 c4 39
       0.0042097494 0.011487786 0.0019454726 0.0003755323
000200 c6 d1 74 3c 4f 7a 6d bc 5b 3f 4d 3c f2 9b 83 bc
       0.014942592 -0.014494493 0.012527312 -0.016065571
000210 ad 23 88 bc c4 10 37 3a 7e c3 84 bb 68 db 90 bc
       -0.016618574 0.0006983394 -0.004051625 -0.017682746
000220 ca df 85 bc d4 92 64 3c e8 31 93 3b a8 3c c9 3c
       -0.016342063 0.013951022 0.0044920333 0.024565056
000230 02 58 9f 3c ed 9b 9a 3c fb e5 7b ba 8e 18 cd bc
       0.019451145 0.01887318 -0.000960916 -0.025036123
000240 0f 8f d6 bb 19 2d cb 3b 81 fb 3a bc b0 41 84 bb
       -0.0065478156 0.0062004444 -0.011412502 -0.004036151
000250 27 8d 48 3b 69 db e9 3c 40 a8 96 3c d3 ba ce 3b
       0.0030601711 0.028547006 0.018390775 0.0063088923
000260 9c 44 88 bc ba 96 18 3c a0 74 5b bb b3 87 7a bc
       -0.016634278 0.00931328 -0.0033486262 -0.015291142
000270 21 c9 a6 bc db c0 01 bc 52 30 71 3b 33 bc 50 3d
       -0.020359578 -0.0079195155 0.0036802483 0.05096073
000280 00 8f 2e 3d 5d 1c be 3c fe 88 02 3d 96 0c b6 bb
       0.042616844 0.023206884 0.031868927 -0.0055556996
000290 c3 c7 98 3b c6 76 83 3c bd 11 03 3d b1 64 55 3d
       0.0046624853 0.016047847 0.03199934 0.05209798
0002a0 1a d8 cc 3b 09 a6 14 bc 68 1e 5d 3c 41 0c 07 bd
       0.0062513473 -0.009072789 0.013496019 -0.03297067
0002b0 08 a9 96 3b 32 fe 82 bd d6 b0 02 bd 52 91 a5 bc
       0.004597787 -0.0639614 -0.031906925 -0.020210896
0002c0 4f 08 f0 bc c4 76 93 bc e6 20 72 bc c0 a4 05 3c
       -0.029300837 -0.018000968 -0.014778351 0.008156955
0002d0 c1 f7 a5 3c c2 40 70 bc fb 69 8b 3c 2d 31 8a 3a
       0.02025974 -0.014663877 0.017018309 0.001054322
0002e0 46 36 e6 3c 1b 1c 5f 3c d2 91 f3 3a fe 14 ad bc
       0.028102051 0.013617541 0.0018582887 -0.021128174
0002f0 7c 8f 02 3b 88 12 97 bc 57 fe 82 bc 18 3b 8d bc
       0.001992195 -0.018441454 -0.01599042 -0.017240092
000300 76 c9 9a ba 12 33 ff 3b 84 88 83 3c d7 30 ae 3b
       -0.0011809308 0.0077880705 0.016056307 0.0053158808
000310 37 76 28 bc fa 62 a6 bc fa 6a 76 bc 97 d1 e7 bc
       -0.010282091 -0.020310868 -0.015040154 -0.028298182
000320 23 cb 39 bd 40 8b 17 bd fc 1c 04 bc 4a 80 2b 3b
       -0.045359742 -0.036998034 -0.008063551 0.0026168996
000330 7a 37 6f bc 68 5a 53 bc 7a da 97 bd ad 75 59 bd
       -0.014600629 -0.0128999725 -0.07414718 -0.05309074
000340 e2 47 8e bd 72 86 8a bc 1e 3b a3 bc 57 3f 37 bc
       -0.06947304 -0.016909812 -0.01992565 -0.011184535
000350 95 3b 4a bc 62 e3 8e 3c 15 ec 30 3d 20 f1 3a 3d
       -0.012343307 0.017442409 0.043193895 0.04564011
000360 46 99 8b 3c af ca a7 ba d4 bc 80 3b 9f 86 07 bc
       0.01704086 -0.0012801493 0.00392876 -0.008271842
000370 d5 1e de bc 50 64 7c bc 24 3f 11 3c ee 07 29 3c
       -0.027114311 -0.015404776 0.008865152 0.010316832
000380 6b 60 4a bc 90 1e 17 bd a9 8a 58 3a 4d fc 8f bc
       -0.012352089 -0.03689438 0.0008260408 -0.017576361
000390 6b bd 01 3c af f0 63 3c 5e 0b 42 3c cc d3 7a 3c
       0.007918696 0.013912364 0.01184353 0.015309285
0003a0 ee 6b 59 bd 6e 94 6f bc 19 f1 20 bd 3a 08 35 3d
       -0.053081445 -0.014622791 -0.03929243 0.0441973
0003b0 d2 77 17 3c f5 74 05 bc 29 96 fd bb 10 e8 e2 bb
       0.009244876 -0.0081455605 -0.0077388478 -0.0069246367
0003c0 e5 d0 e1 bb 19 02 10 bd 53 cf 0a bd 76 e7 be bc
       -0.0068913572 -0.03515825 -0.033889126 -0.023303729
0003d0 0e f3 bc 3c 93 bb a5 bc fe ee ff 3b 95 55 ca ba
       0.023065116 -0.020231044 0.0078104725 -0.0015436882
0003e0 b8 7a cb bc 30 a5 15 3a 62 0d 41 bd e7 30 28 bd
       -0.02483879 0.0005708514 -0.047131903 -0.041062262
0003f0 bd 56 94 bc 30 c4 ac 3c 52 ee b9 3c fa 97 07 3d
       -0.018107766 0.021089643 0.022696648 0.03310392

tcn.network.0.conv1.bias f4 [16]
000000 fb 5a 06 b3 a9 b1 1e 32 14 03 90 b2 56 fd 52 31
       -3.1282053e-08 9.237206e-09 -1.6765206e-08 3.0703027e-09
000010 a1 b6 e9 b9 ef f7 d7 b0 0f e8 f4 b1 28 45 32 b7
       -0.00044577292 -1.5713776e-09 -7.1277166e-09 -1.06257285e-05
000020 f3 f9 4f 31 75 49 9e 32 43 ea 4a b1 bd bb 17 b1
       3.0264544e-09 1.8427025e-08 -2.9528031e-09 -2.2080109e-09
000030 bc 4e 59 2f 24 53 b0 32 48 34 d3 33 65 c6 55 39
       1.9764007e-10 2.0526905e-08 9.834963e-08 0.0002038717

tcn.network.0.bn1.weight f4 [16]
000000 bf ae 84 3f 32 44 78 3f fd bb 6b 3f 05 16 80 3f
       1.0365828 0.9697906 0.9208372 1.000672
000010 e7 ee 78 3f 00 58 79 3f 8a 49 71 3f 0c 4f 84 3f
       0.97239536 0.973999 0.94252837 1.0336623
000020 5b 5d 86 3f fe f4 83 3f 99 05 84 3f 79 e2 89 3f
       1.049724 1.0309141 1.0314208 1.0772239
000030 28 47 71 3f b4 97 85 3f ca 14 71 3f 05 82 82 3f
       0.942492 1.0436921 0.94172347 1.0195929

tcn.network.0.bn1.bias f4 [16]
000000 98 11 91 be 98 59 a9 be 10 0d 90 be cc 71 a9 be
       -0.28333735 -0.33076167 -0.28134966 -0.33094633
000010 2f ad 7a be dc 91 82 be cc 50 99 be f0 92 63 be
       -0.24480127 -0.25501907 -0.29944456 -0.22224021
000020 fd 97 60 be c0 59 93 be b6 6a a2 be b7 f1 c6 be
       -0.21932979 -0.2877941 -0.3172204 -0.3885629
000030 cf 8c 68 be a6 e7 b7 be 45 00 7f be 30 d2 6d be
       -0.22709964 -0.3591892 -0.24902447 -0.23224711

tcn.network.0.bn1.running_mean f4 [16]
000000 48 a6 66 bc 47 2f 8a bd 65 5c 50 3b 5a 6c 7d bb
       -0.0140777305 -0.06747299 0.0031793353 -0.003866932
000010 23 98 9d 3c cf ea 68 3b a2 fe 02 bd 2a 46 23 bd
       0.019237584 0.0035540347 -0.031981118 -0.039861836
000020 45 44 7f bc 95 1c 5c bc 6a a5 1e 3d 16 e1 75 bc
       -0.015580242 -0.013434549 0.03873197 -0.015007278
000030 bf 32 26 bd 96 8c 8a bc 29 a0 00 bc 2a c8 0e 3d
       -0.04057574 -0.01691274 -0.007850685 0.03485886

tcn.network.0.bn1.running_var f4 [16]
000000 e2 f8 a2 3e 02 32 8e 3e a7 c6 86 3e 31 4d bb 3e
       0.31830508 0.27772528 0.26323435 0.3658233
000010 5b cf 9c 3e 75 32 94 3e bd 8d a2 3e 61 2a 74 3e
       0.3062695 0.28944746 0.31748763 0.23844291
000020 bc f9 67 3e 0e ce a9 3e c2 e9 c7 3e 21 41 98 3e
       0.2265386 0.3316502 0.3904553 0.2973719
000030 4f 5d a2 3e 00 cb 04 3f 22 75 77 3e ce 4b b8 3e
       0.31711814 0.51872253 0.24165776 0.35995334

tcn.network.0.conv2.weight f4 [16, 16, 16]
000000 8f 37 ec bb 8d 40 b3 3b 05 e0 a2 bc ab 91 c5 bc
       -0.0072087715 0.0054703415 -0.019882211 -0.024117311
000010 fa f2 c1 bc b8 76 92 bb 54 43 37 bc cf 00 2e ba
       -0.02367543 -0.004469719 -0.011185486 -0.0006637694
000020 e2 14 13 bc 50 81 17 bc e9 17 19 bc 6d 71 39 bb
       -0.008977147 -0.009247139 -0.0093440795 -0.0028296367
000030 bf a7 e5 39 4c 3a 24 3c 73 3d 51 bd 08 e8 ea bc
       0.00043803264 0.010023665 -0.051083993 -0.028675094
000040 ac 84 0e 3d 9b 80 a6 3c 38 9b 59 3c e0 f4 69 3b
       0.034794495 0.020324996 0.013281636 0.0035698935
000050 e0 06 18 3c 82 d0 2a 39 e7 2c 76 3c aa 27 d9 3c
       0.009278983 0.00016290139 0.015025354 0.026508171
000060 17 53 25 3d 5e 3d 1b 3d 7c e5 73 3d 1f c1 7d 3d
       0.040362444 0.03790032 0.059545025 0.061951753
000070 1d df c4 3c e6 95 c8 3c 43 4f f1 bb d3 b8 1a bc
       0.02403217 0.02448554 -0.007364185 -0.00944348
000080 95 0f 01 3c 23 ce a1 bc 41 75 90 bc ee cc fa bc
       0.00787725 -0.019751614 -0.017634036 -0.030615296
000090 9f 1f f8 bc f1 79 bc bc e4 b5 e9 ba 0d 6f 3e bc
       -0.030288516 -0.023007365 -0.0017830697 -0.011623156
0000a0 ed eb 81 3c b9 86 27 3c fd b2 8a 3b a4 60 7f 3c
       0.015859568 0.0102249915 0.004232763 0.015587006
0000b0 00 c4 04 bb a8 6d b7 bb d8 d6 d0 bc a6 9b 10 bd
       -0.0020258427 -0.005597789 -0.02549307 -0.035304688
0000c0 0a 7f de bb 7d 0f a8 3b 78 d6 6c 3c 67 bd 05 bc
       -0.0067900466 0.0051287995 0.01445543 -0.008162833
0000d0 47 90 0b bc d9 96 9c bc e3 42 ec bc f4 25 1e bb
       -0.008518285 -0.019114899 -0.028840488 -0.0024131509
0000e0 5e da 8c 3a 60 70 c3 bb f7 eb 01 bc 85 a9 b5 bc
       0.0010746231 -0.005964324 -0.007929794 -0.02217556
0000f0 37 2f 6f bc 73 71 7f bb d8 18 23 bc 31 f0 89 bc
       -0.014598659 -0.0038977533 -0.009954654 -0.016838165
000100 ee 98 80 bc 41 70 62 bc c2 49 d9 bc ca b4 3e bc
       -0.015697923 -0.013820709 -0.026524428 -0.011639783
000110 55 0b 18 bd dc 7d d9 bc bf 5a 78 3b e3 74 36 bc
       -0.037120182 -0.026549272 0.0037895886 -0.011136266
000120 6e e9 9b bc f4 1e 0b bb f7 f7 02 3d 4c e2 b4 bb
       -0.019032206 -0.0021228166 0.03197476 -0.0055201408
000130 14 e0 40 bc e4 df 98 bc 99 e7 84 bc d1 88 26 bd
       -0.011772174 -0.018661447 -0.016223716 -0.040657822
000140 cb ff 5a bd 91 f3 ed bc 66 7b 40 bc a5 60 17 3b
       -0.0534666 -0.029046806 -0.0117481705 0.0023098376
000150 4a ec 8b 3b 43 03 34 3c 34 47 30 3b 79 f1 03 3b
       0.004270111 0.010987106 0.002689791 0.0020132943
000160 7f 1f d1 3c 83 4a 06 3d 36 eb cb 3c 99 87 1e 3d
       0.025527714 0.032785904 0.02489243 0.038703535
000170 41 22 97 bb 38 1e 5a 3b 2e 83 07 bd f8 07 1a bd
       -0.0046122377 0.0033282172 -0.033084087 -0.037605256
000180 2b 48 50 3c 9e ed ec bb 31 20 95 3c 42 66 bc 3b
       0.012712519 -0.0072304746 0.018203827 0.005749495
000190 5f 86 be 3c 08 73 12 3d f7 86 c5 3c b6 f8 23 3d
       0.023257433 0.035754234 0.024112208 0.04003211
0001a0 b9 ce 8b 3c 6a d2 73 3c ac dd f3 3c a5 52 37 3c
       0.017066346 0.01488171 0.029768787 0.011189138
0001b0 d6 16 53 3d d2 6a 80 3d fb 52 40 3d fb 9c 4b 3c
       0.05153545 0.06270374 0.046954136 0.012427564
0001c0 72 44 bf bc 97 f6 1b bd cf 2d b1 bc 43 34 04 bd
       -0.023348067 -0.038076963 -0.021628289 -0.032276403
0001d0 0a 8c ee 3a d2 05 a8 3b 4e 1f 6e bc 60 73 ad 3c
       0.0018199694 0.005127647 -0.014533831 0.02117318
0001e0 73 2c 45 bc 2f 7c 94 bc 4b f5 bf bc ab ef 7f 3b
       -0.012034523 -0.018125622 -0.023432394 0.0039052765
0001f0 06 72 32 bd fa b3 bf bc e9 76 88 bd 7c 2f 25 bd
       -0.043565772 -0.02340125 -0.06663305 -0.040328488
000200 8b f3 1c bd bf f7 28 bd dd 3c 04 bd 48 d6 ef bc
       -0.0383182 -0.041251894 -0.032284606 -0.029276982
000210 be aa 22 bc db 2f 47 bc fd 02 db 3c 4e 08 50 3c
       -0.009928403 -0.012157406 0.026734823 0.0126972925
000220 b2 d4 00 3d 5a 10 11 3d 6a 45 87 3c 03 1a 1b 3d
       0.031452842 0.035415985 0.016512591 0.037866604
000230 70 5d e3 3c 2e 77 5a bc 95 35 ad bc 1b 98 0f bc
       0.027754515 -0.013334079 -0.021143714 -0.008764292
000240 d6 80 ed bc f5 66 45 bd 4d e9 1b bd 94 48 aa bc
       -0.028992098 -0.04819389 -0.03806429 -0.020786561
000250 4a 94 74 bc 59 76 28 bd 75 4b 3f bb 83 06 88 bc
       -0.014927933 -0.04112849 -0.0029189263 -0.016604668
000260 fd 04 8c bc b6 2b 95 bc 2f 16 f7 bc 82 bc 6e 3c
       -0.017092222 -0.01820932 -0.030161945 0.014571311
000270 6b 7b e7 bb a2 bc 00 3b c6 30 c4 bc a6 32 f9 3b
       -0.007064273 0.0019643684 -0.023949038 0.0076049147
000280 be e0 0a 3d 4d 4c 30 3d e2 cf 5b bc 52 a3 b5 3c
       0.033905737 0.043041516 -0.013416262 0.022172604
000290 9d a4 a5 3c 72 5f 44 bc 29 7e f1 3c fe a9 32 bc
       0.020220095 -0.011985647 0.029479103 -0.010904787
0002a0 5f 1c af 3b 48 05 98 bc 87 d6 d5 bc b4 96 4b 3b
       0.0053439583 -0.018557206 -0.026103271 0.0031065168
0002b0 5a 23 35 bc 52 d7 f0 bb 84 4d 41 bd 05 78 19 bd
       -0.011055792 -0.007349887 -0.047193065 -0.037467975
0002c0 46 31 0b 3d 9a e9 76 bb 56 ef 17 bd 3b bd 90 bc
       0.033982538 -0.0037675858 -0.037093483 -0.017668357
0002d0 07 b5 9b 3b 14 c8 0e bd 94 77 c0 bb 39 e9 8e 3c
       0.0047518048 -0.034858778 -0.00587363 0.017445194
0002e0 8b 42 bf bb 68 d0 e2 bb 9b 4c 1f 3d a6 e4 8c 3b
       -0.00583679 -0.0069218166 0.038891416 0.004299718
0002f0 dc 40 99 3c e9 e9 35 3d 5c 99 43 3d ea 58 c2 3d
       0.018707685 0.044412527 0.047753677 0.09489615
000300 87 9c a2 3c 01 21 26 3c e6 c3 f5 bb 73 06 7a 3c
       0.019850029 0.010139705 -0.0075001596 0.015260327
000310 ef 4e 74 3c 42 57 8b 3c 01 5d fa 3b 4c 3c 31 bc
       0.014911397 0.017009381 0.0076404815 -0.010817599
000320 39 80 14 3c 5f 80 75 3a a4 f6 49 3d 0b 81 80 3a
       0.009063774 0.0009365137 0.04930748 0.0009804083
000330 61 f6 c7 3b 00 2a e4 3b 9b 99 b4 bb 86 d4 90 bc
       0.0061023687 0.0069630146 -0.0055114753 -0.017679464
000340 ca dc 1d 3d d0 a9 1c 3d 84 4e 4c 3d d5 1a 17 3d
       0.03854064 0.038247883 0.049879566 0.036890823
000350 7f a0 7b 3c bd 66 c3 3c 49 05 d2 3a 64 a9 16 ba
       0.0153580895 0.0238527 0.0016023304 -0.0005747287
000360 da 87 f6 bc 33 01 e7 bb 92 57 fc bc bd ea 7d bc
       -0.030094076 -0.0070497035 -0.030803476 -0.0154978605
000370 17 dd 15 3b e4 f6 89 3c b3 84 70 3c 90 6c 56 3d
       0.0022867376 0.01684136 0.014680075 0.052349627
000380 44 ba 23 bc 9b 9f 9c 3b dd db 40 3c 6d e7 01 3d
       -0.00999314 0.0047797686 0.0117711695 0.031714845
000390 19 0e db 3c a8 ae 0f 3d e6 06 5f 3c 7b a3 36 3c
       0.02674012 0.035078675 0.013612485 0.011147375
0003a0 e0 8a a4 3b bc 61 83 bc 14 58 eb bb ae 4c 72 bc
       0.005021438 -0.016037814 -0.0071821306 -0.01478879
0003b0 f9 aa 9a bc 21 ea 36 bb 53 99 04 bd 4b 58 2d bd
       -0.018880354 -0.0027910548 -0.032372784 -0.04232053
0003c0 df 66 3a bd 2c 83 ff bc 72 0c 3b bd 19 2b 18 bd
       -0.04550826 -0.031190477 -0.045666166 -0.037150476
0003d0 42 39 0c bd 32 20 7a bc a1 44 82 bc 3a 31 46 3c
       -0.034234293 -0.015266465 -0.015901865 0.012096697
0003e0 bf 96 05 bc 14 ff db bc 9e e7 50 bd 0f 6d a8 bd
       -0.008153616 -0.02685503 -0.051002137 -0.08223926
0003f0 d4 0c 2b bd 00 b8 2c bd 86 c0 d7 ba 94 00 b9 bb
       -0.04176028 -0.042167664 -0.0016460575 -0.005645821

tcn.network.0.conv2.bias f4 [16]
000000 fa ec cb b1 10 05 21 39 a2 c9 d7 b3 dd 1c 06 39
       -5.9350187e-09 0.00015356042 -1.00483945e-07 0.00012789988
000010 64 c1 86 34 28 d1 35 30 3b c8 74 b0 f2 eb e1 b2
       2.5100155e-07 6.6144645e-10 -8.905123e-10 -2.6300743e-08
000020 f6 2a dc 39 d3 22 23 b0 0b 45 00 b0 98 ed d1 b3
       0.00041993678 -5.934854e-10 -4.6664245e-10 -9.775539e-08
000030 7e 90 56 b1 87 6e 83 37 39 37 80 b2 0d c2 3f ba
       -3.1223233e-09 1.5667885e-05 -1.4926274e-08 -0.00073149876

tcn.network.0.bn2.weight f4 [16]
000000 00 00 80 3f 00 00 80 3f 00 00 80 3f 00 00 80 3f
       1.0 1.0 1.0 1.0
000010 00 00 80 3f 00 00 80 3f 00 00 80 3f 00 00 80 3f
       1.0 1.0 1.0 1.0
000020 00 00 80 3f 00 00 80 3f 00 00 80 3f 00 00 80 3f
       1.0 1.0 1.0 1.0
000030 00 00 80 3f 00 00 80 3f 00 00 80 3f 00 00 80 3f
       1.0 1.0 1.0 1.0
