model/Benchmark/ablation/LocalNet_b4_1s_S12.pth (torch, 80033 bytes, 62 tensors)

local_block.conv_time.conv.0.weight f4 [8, 1, 1, 51]
-0.13138019 -0.037248768 -0.06393033 -0.030946003 -0.08477988 0.10545281 -0.041396704 0.041565843
0.08649968 0.0011101351 0.07919871 0.033045992 0.089177944 0.064945936 -0.08560811 0.04432556
-0.04700077 -0.010796503 -0.15059935 -0.009458039 0.0010293532 -0.036708754 -0.034870517 0.02760764
0.084706865 0.06523782 0.04490929 0.042186227 0.08243466 -0.08192525 0.034348283 -0.09743857
-0.009495233 -0.05993684 0.04173063 0.065409064 0.10365849 0.021307725 0.14165267 -0.09388798
0.026112065 -0.027614115 0.064501524 0.068537846 0.0026927332 0.09895349 -0.007639984 -0.10248512
0.10110989 0.07169664 0.01349951 0.113002606 0.0061841942 -0.0027129338 0.04917753 -0.04314105
-0.098945454 -0.06987352 0.0024582937 0.005660059 -0.03140876 0.012920403 0.017484067 -0.081343725
-0.045052867 -0.032984298 0.115467 0.034903307 0.017359858 0.008231444 -0.037662625 -0.04376904
-0.14238074 0.01248766 -0.04106941 -0.08104604 -0.060257297 -0.0008129439 0.071739346 -0.045143533
-0.014467809 0.069079354 -0.016689453 0.039065294 -0.06307903 0.1619743 0.09629439 -0.15963487
-0.13954136 -0.0033802285 -0.054599453 -0.05701894 -0.15269896 -0.11253504 0.009329564 -0.09121001
0.014858133 0.07680801 0.07283049 0.024059247 0.041057903 0.06724942 0.045621514 -0.027774157
0.035534203 0.031618197 0.0015733785 -0.03844521 -0.05561457 -0.10775865 -0.038279638 -0.074962676
-0.02672034 0.01872652 0.16775964 0.13724867 -0.07222821 -0.122386165 0.048321 0.018733501
-0.11802775 0.018682089 0.09659606 -0.12051162 -0.04168888 0.051911134 -0.051499594 -0.09227219
0.06003343 -0.06587673 0.11969629 0.10123177 0.075077966 -0.11478168 -0.087456465 0.01779767
0.0034196407 -0.055328805 0.024631483 0.08730482 -0.11683488 0.11771985 0.014460985 -0.057313997
-0.033227317 -0.13390893 -0.03375956 0.09070177 0.04039818 -0.011439207 0.0011799298 0.08715336
0.07623267 0.011976917 -0.11287869 0.036015823 0.03455709 0.008410212 0.065831006 0.0013289944
0.022831546 0.013175247 0.023443004 -0.04431132 -0.12156687 -0.09764619 -0.033143982 -0.0506215
0.0366024 0.010418092 -0.0217915 -0.0683295 0.10669669 0.07397612 0.080950364 0.13283877
-0.06025744 -0.061860062 -0.03942096 0.028223664 -0.08500458 0.101673394 0.00079548534 0.044522468
-0.06302408 0.015432922 0.007777911 -0.11775182 0.0011270121 -0.15229851 -0.06501232 -0.12522532
-0.0025438967 -0.00088859437 0.06168071 0.096584275 0.070754945 0.0461934 0.021730365 0.1446331
-0.0033999132 0.08444511 -0.03413831 0.15296152 0.057073493 0.016966952 0.060283482 0.07453621
-0.010242425 0.03714964 0.047818966 -0.033065174 0.03562426 0.09275092 -0.12931307 -0.14713433
-0.08043579 0.007829918 -0.024779418 0.046851065 0.01122537 -0.06343872 0.02004774 0.09215138
-0.050479185 0.10858834 0.022441119 0.10436202 -0.10144851 -0.124589585 -0.017081352 -0.16415255
-0.112782285 0.058669742 0.041628513 -0.10061358 0.14211804 0.01771728 0.063191645 -0.09064033
-0.07384284 -0.039890278 -0.028711122 -0.1247038 0.03405818 -0.020923909 -0.02671459 -0.016685467
-0.014722806 -0.14321423 0.018281896 -0.11289035 0.027277317 0.077848464 -0.087229945 0.011980807
00000000: 8788 06be 2a92 18bd e8ed 82bd 7982 fdbc
00000010: 13a1 adbd a5f7 d73d 978f 29bd f240 2a3d
00000020: bf26 b13d f481 913a ef32 a23d 3c5b 073d
00000030: eda2 b63d 6002 853d 4e53 afbd b88e 353d
00000040: e183 40bd d1e3 30bc b736 1abe e4f5 1abc
00000050: 5deb 863a eb5b 16bd 63d4 0ebd 6b29 e23c
00000060: cb7a ad3d 689b 853d cef2 373d 77cb 2c3d
00000070: 81d3 a83d 6dc8 a7bd c9b0 0c3d df8d c7bd
00000080: e591 1bbc 5580 75bd bded 2a3d 30f5 853d
00000090: e74a d43d 8a8d ae3c 660d 113e 5748 c0bd
000000a0: f8e8 d53c ff36 e2bc 6019 843d 925d 8c3d
000000b0: 9178 303b 21a8 ca3d d558 fabb b8e3 d1bd
000000c0: b412 cf3d b0d5 923d 0c2d 5d3c e96d e73d
000000d0: c8a4 ca3b 7acb 31bb 616e 493d abb4 30bd
000000e0: eaa3 cabd d919 8fbd 531b 213b 0478 b93b
000000f0: 79a6 00bd 19b0 533c bf3a 8f3c 8a97 a6bd
00000100: 5b89 38bd 8b1a 07bd f679 ec3d c5f6 0e3d
00000110: 4336 8e3c 2edd 063c 2044 1abd 2a47 33bd
00000120: 42cc 11be 0b99 4c3c 6638 28bd 77fb a5bd
00000130: 5bd0 76bd be1b 55ba 14ec 923d 6de8 38bd
00000140: 640a 6dbc 7a79 8d3d 52b8 88bc ee02 203d
00000150: 942f 81bd 97dc 253e fe35 c53d 5377 23be
00000160: eee3 0ebe d386 5dbb ada3 5fbd b18c 69bd
00000170: 1e5d 1cbe c578 e6bd 07db 183c 50cc babd
00000180: 876f 733c 854d 9d3d 2728 953d e617 c53c
00000190: 552c 283d 10ba 893d a0dd 3a3d a186 e3bc
000001a0: 508c 113d 1582 013d d239 ce3a b978 1dbd
000001b0: 1acc 63bd 91b0 dcbd 1ccb 1cbd 0886 99bd
000001c0: 9de4 dabc 5c68 993c 2fc9 2b3e ea8a 0c3e
000001d0: 62ec 93bd 99a5 fabd 3eec 453d 0077 993c
000001e0: 88b8 f1bd 2e0b 993c 28d4 c53d ccce f6bd
000001f0: f6c1 2abd c5a0 543d 3df1 52bd 34f9 bcbd
00000200: 9de5 753d 61ea 86bd 5423 f53d 9a52 cf3d
00000210: 7ac2 993d a812 ebbd 601c b3bd 6bcc 913c
00000220: 0d1c 603b 75a0 62bd f7c7 c93c dfcc b23d
00000230: 2047 efbd 1b17 f13d c4ed 6c3c 15c2 6abd
00000240: 5e19 08bd 6c1f 09be 7747 0abd d9c1 b93d
00000250: 9078 253d 836b 3bbc e0a7 9a3a 767d b23d
00000260: e01f 9c3d d53a 443c f12c e7bd 5485 133d
00000270: bc8b 0d3d fcca 093c 68d2 863d a731 ae3a
00000280: 3909 bb3c fedc 573c 8b0b c03c c97f 35bd
00000290: 0df8 f8bd bafa c7bd fcc1 07bd 7d58 4fbd
000002a0: 66ec 153d a5b0 2a3c 1684 b2bc 56f0 8bbd
000002b0: cb83 da3d cb80 973d 4ec9 a53d e306 083e
000002c0: 81d0 76bd fa60 7dbd df77 21bd 5035 e73c
000002d0: e216 aebd 243a d03d 1e88 503a 315d 363d
000002e0: c512 81bd 5eda 7c3c d9dd fe3b de27 f1bd
000002f0: 40b8 933a 24f4 1bbe 2e25 85bd 113b 00be
00000300: 81b7 26bb 8ff0 68ba eaa4 7c3d facd c53d
00000310: f8e7 903d 4a35 3d3d e103 b23c b31a 143e
00000320: 14d1 5ebb 8ff1 ac3d 9dd4 0bbd f2a1 1c3e
00000330: e5c5 693d 47fe 8a3c d0eb 763d 71a6 983d
00000340: d8cf 27bc 392a 183d d2dd 433d 596f 07bd
00000350: beea 113d 32f4 bd3d a56a 04be 62aa 16be
00000360: 85bb a4bd 0e49 003c 35fe cabc e7e6 3f3d
00000370: 9dea 373c 29ec 81bd 283b a43c ddb9 bc3d
00000380: 43c3 4ebd 9063 de3d 70d6 b73c c1bb d53d
00000390: 3dc4 cfbd d328 ffbd 31ee 8bbc 9b17 28be
000003a0: 66fa e6bd af4f 703d a982 2a3d 7e0e cebd
000003b0: 6487 113e d423 913c 9f6a 813d a3a1 b9bd
000003c0: ea3a 97bd fd63 23bd 9633 ebbc b564 ffbd
000003d0: 9780 0b3d 9e68 abbc 8ed8 dabc f6af 88bc
000003e0: ed37 71bc c0a6 12be eac3 953c 0e33 e7bd
000003f0: ae74 df3c 046f 9f3d 9da5 b2bd 264b 443c

local_block.conv_time.conv.0.bias f4 [8]
-4.4765907e-06 -9.821459e-09 -8.5923716e-07 0.06090442 2.1289535e-08 -0.008270218 -2.8728929e-08 -0.00047415702
00000000: 9f35 96b6 3cbb 28b2 54a6 66b5 ea76 793d
00000010: 2fe0 b632 cf7f 07bc 95c7 f6b2 4798 f8b9

local_block.conv_time.conv.1.weight f4 [8]
0.83704895 0.88258 0.8894239 0.82165045 0.955597 0.8606356 0.83952236 1.0204027
00000000: d748 563f c3f0 613f 49b1 633f af57 523f
00000010: 01a2 743f 9d52 5c3f f0ea 563f 8e9c 823f

local_block.conv_time.conv.1.bias f4 [8]
0.1426039 0.076394126 -0.07070751 -0.08627705 0.020629238 0.07847712 0.021053659 0.024752298
00000000: c206 123e 8674 9c3d 19cf 90bd 06b2 b0bd
00000010: a6fe a83c 9db8 a03d b978 ac3c 55c5 ca3c

local_block.conv_time.conv.1.running_mean f4 [8]
0.0019218026 -0.02187174 -0.008739921 0.057377614 -0.0077807503 -0.0005425291 0.015352769 -0.0062337364
00000000: ffe4 fb3a 5d2c b3bc e331 0fbc ca04 6b3d
00000010: aaf5 febb 8338 0eba 2e8a 7b3c 5f44 ccbb

local_block.conv_time.conv.1.running_var f4 [8]
16.014265 23.971718 19.81818 23.072582 18.081947 19.31814 19.279112 22.748215
00000000: 371d 8041 14c6 bf41 a28b 9e41 a694 b841
00000010: d4a7 9041 8d8b 9a41 9f3b 9a41 58fc b541

local_block.conv_chan.conv.0.weight f4 [8, 8, 11, 1]
-0.022995526 -0.018811774 0.042391367 0.0081848595 0.007358693 0.029104924 -0.012223026 -0.07486087
-0.07421304 0.05188125 -0.025408244 0.022982724 0.015384722 -0.031644423 0.08548467 -0.035292547
-0.012612364 0.08032288 -0.058349513 -0.028427241 0.05663586 -0.0049168817 0.0029632773 0.054806042
0.09757308 -0.03916925 0.015294138 -0.0038387158 -0.08714298 -0.099427186 -0.001237581 -0.058065653
-0.03156164 -0.009631745 0.004187289 0.045295883 0.08314021 0.06169992 -0.029278 -0.06620089
-0.12078099 -0.058406197 -0.032222394 0.014037349 -0.010291953 0.039724145 0.05838493 -0.007324942
-0.0381962 -0.053561732 0.06772607 0.13208437 0.03254147 0.004647234 -0.10921552 -0.007413566
-0.05483896 0.054449815 0.094139025 0.028190667 0.0044937655 -0.064723104 -0.08026016 0.035277415
0.0544132 0.015794752 0.0007343347 0.05460658 -0.010111202 -0.046310563 -0.05257088 -0.034459785
-0.004327685 0.16148414 -0.07918453 -0.0039817165 0.029388119 -0.11558268 -0.02183485 0.06147268
0.058682416 0.01821014 0.03213733 -0.0020565721 -0.072533995 0.075792685 -0.045487307 0.049141902
-0.0065536294 0.013644617 0.0006104683 -0.049807187 0.019559704 -0.02338552 0.003212999 0.09355699
0.042783447 0.05819076 -0.1005758 0.023932256 0.067435496 0.013756722 -0.029887857 0.09292946
-0.030568345 -0.078662165 -0.013660437 0.018419735 0.027895052 0.0036280944 0.02635424 0.07989956
-0.039903432 0.01878086 -0.04359669 -0.0067841234 0.007020149 -0.023260795 0.06602295 -0.049187362
-0.05259672 0.029018208 -0.03387497 0.11751747 0.06899597 0.07208724 0.025157038 -0.0871105
-0.21979609 -0.07617428 0.08699171 0.07658173 -0.025447365 -0.02086934 0.018555438 0.016506923
-0.0040485687 -0.027135188 0.12522562 -0.038842168 -0.029807303 -0.06634969 0.07996565 -0.052784365
0.018956391 -0.060115818 0.045304168 -0.050527975 0.05060923 0.06853266 -0.21970095 0.09743311
-0.05369416 0.07211448 0.003293938 -0.023380453 -0.038663182 -0.0774884 -0.024842812 -0.08456621
0.050515145 0.23265965 -0.055869345 -0.03994514 0.0434121 0.0226668 -0.02398747 -0.027756095
0.018577619 0.016982954 0.02903093 -0.012217308 -0.13406318 0.045963842 0.00029412488 0.012743608
-0.08072641 0.0966468 -0.02821987 0.02387465 0.076142125 -0.0093456 -0.0032255775 0.012032724
-0.037651237 -0.04209397 0.0031174896 -0.011071189 -0.06416615 -0.031034673 -0.02235633 -0.0015149501
0.046950135 -0.06347319 0.022156702 -0.014857676 -0.01989565 0.038460888 -0.0015737342 -0.16203447
-0.004252902 0.06857194 0.04312859 -0.016148295 -0.033052437 -0.044625815 0.0037919257 -0.001825999
0.02078124 0.059651207 0.014914834 0.0040055327 -0.09167506 -0.0252351 0.016404001 0.118147865
-0.027610665 0.02663978 0.018307302 0.015313423 0.050305597 -0.069017574 -0.10769125 0.029030431
0.02978292 0.014258872 -0.13532804 -0.062098987 0.023877233 0.030141763 0.054262497 0.061898395
0.09056013 0.10127587 -0.06898635 -0.004214879 -0.035756163 -0.020592054 -0.11260044 -0.08757639
-0.12563108 0.018192133 -0.030800493 -0.08642885 -0.08598633 0.113404796 -0.013761919 0.035207704
-0.03555235 0.049641326 0.07506185 0.03842511 0.07290362 -0.037390374 0.02722674 0.014587384
00000000: 1d61 bcbc 261b 9abc 92a2 2d3d ca19 063c
00000010: 3121 f13b 736d ee3c 1643 48bc a850 99bd
00000020: 02fd 97bd 6f81 543d f324 d0bc 4446 bc3c
00000030: 3310 7c3c 959d 01bd 9612 af3d eb8e 10bd
00000040: 17a4 4ebc 5280 a43d e6ff 6ebd 3fe0 e8bc
00000050: 01fb 673d cb1d a1bb 8b33 423b 4d7c 603d
00000060: 65d4 c73d ef6f 20bd 4494 7a3c f792 7bbb
00000070: 0578 b2bd 7ba0 cbbd 5436 a2ba 40d6 6dbd
00000080: c746 01bd 77ce 1dbc 8735 893b 2d88 393d
00000090: 6a45 aa3d 0eb9 7c3d 6bd8 efbc 5594 87bd
000000a0: 065c f7bd 563b 6fbd a1fb 03bd e9fc 653c
000000b0: 949f 28bc c9b5 223d 0925 6f3d 1106 f0bb
000000c0: 9e73 1cbd 8c63 5bbd f7b3 8a3d 2041 073e
000000d0: 344a 053d d347 983b 63ac dfbd 80ed f2bb
000000e0: d19e 60bd c506 5f3d f6cb c03d 1df0 e63c
000000f0: 7040 933b 8c8d 84bd 705f a4bd 0d7f 103d
00000100: 60e0 5e3d ff63 813c 5e80 403a 26ab 5f3d
00000110: 74a9 25bc 25b0 3dbd 9054 57bd b425 0dbd
00000120: 41cf 8dbb 195c 253e 802b a2bd 0f79 82bb
00000130: 5abf f03c 9db6 ecbd 00df b2bc c7ca 7b3d
00000140: f95c 703d 6e2d 953c 6fa2 033d 8ec7 06bb
00000150: b48c 94bd 3239 9b3d e650 3abd 0549 493d
00000160: d4bf d6bb ac8d 5f3c d607 203a 9f02 4cbd
00000170: ac3b a03c fd92 bfbc 2e91 523b cf9a bf3d
00000180: b23d 2f3d 6f59 6e3d affa cdbd 940d c43c
00000190: 9f1b 8a3d e063 613c 61d7 f4bc cd51 be3d
000001a0: 776a fabc a119 a1bd 07d0 5fbc fce4 963c
000001b0: 2a84 e43c 53c5 6d3b d9e4 d73c 61a2 a33d
000001c0: c871 23bd 51da 993c 7192 32bd 5a4d debb
000001d0: 4709 e63b 6c8d bebc 0a37 873d b078 49bd
000001e0: a96f 57bd 98b7 ed3c 7bc0 0abd 00ad f03d
000001f0: c24d 8d3d 7aa2 933d 2216 ce3c fd66 b2bd
00000200: 3a12 61be 4301 9cbd b628 b23d e2d6 9c3d
00000210: fe76 d0bc 2ef6 aabc 9301 983c 8739 873c
00000220: dba9 84bb 9d4a debc 253b 003e f718 1fbd
00000230: 722e f4bc 59e2 87bd 08c5 a33d 6b34 58bd
00000240: 6f4a 9b3c 013c 76bd dd90 393d 6cf6 4ebd
00000250: a04b 4f3d da5a 8c3d 49f9 60be 038b c73d
00000260: 68ee 5bbd c2b0 933d 1cdf 573b 5d88 bfbc
00000270: 495d 1ebd 3db2 9ebd 2783 cbbc 0d31 adbd
00000280: f8e8 4e3d 553e 6e3e 41d7 64bd 849d 23bd
00000290: e3d0 313d baaf b93c 5f81 c4bc c060 e3bc
000002a0: 1730 983c d61f 8b3c 46d2 ed3c 1b2b 48bc
000002b0: dc47 09be 9544 3c3d c634 9a39 91ca 503c
000002c0: e353 a5bd c2ee c53d 5b2d e7bc c594 c33c
000002d0: 67f0 9b3d 4a1e 19bc 3664 53bb e724 453c
000002e0: 2f38 1abd ba6a 2cbd cc4e 4c3b ef63 35bc
000002f0: 8b69 83bd 6d3c febc 9f24 b7bc 4a91 c6ba
00000300: c94e 403d 3bfe 81bd f981 b53c 9c6d 73bc
00000310: 34fc a2bc 2a89 1d3d c245 ceba 5dec 25be
00000320: ee5b 8bbb 726f 8c3d 9ba7 303d 6e49 84bc
00000330: fe61 07bd 8fc9 36bd f581 783b 5c56 efba
00000340: 6b3d aa3c d354 743d 595d 743c d840 833b
00000350: 22c0 bbbd d7b9 cebc af61 863c 82f7 f13d
00000360: c32f e2bc ab3b da3c 32f9 953c 27e5 7a3c
00000370: 3e0d 4e3d 1659 8dbd 3b8d dcbd 3ad1 ed3c
00000380: 4ffb f33c 0b9e 693c 6f93 0abe 825b 7ebd
00000390: 309a c33c dceb f63c 5a42 5e3d 2c89 7d3d
000003a0: 9777 b93d b969 cf3d b748 8dbd f81c 8abb
000003b0: 0e75 12bd abb0 a8bc 0f9b e6bd 405b b3bd
000003c0: 6fa5 00be ab07 953c 5151 fcbc 9c01 b1bd
000003d0: 9a19 b0bd c640 e83d ac79 61bc f435 103d
000003e0: 579f 11bd b454 4b3d 07ba 993d a663 1d3d
000003f0: 7e4e 953d a626 19bd 9d0a df3c ecff 6e3c

local_block.conv_chan.conv.0.bias f4 [8]
-5.027276e-05 -0.00055358093 0.002322009 0.006038547 -0.0052401843 -2.1728795e-08 -0.0011134357 0.027746117
00000000: f7db 52b8 301e 11ba d92c 183b 01df c53b
00000010: dab5 abbb 20a6 bab2 b4f0 91ba d34b e33c

local_block.conv_chan.conv.1.weight f4 [8]
0.8160145 0.85895586 0.8279991 0.91876554 0.94016707 0.913179 0.9111093 0.8533816
00000000: 54e6 503f 88e4 5b3f c0f7 533f 3834 6b3f
00000010: caae 703f 19c6 693f 763e 693f 3777 5a3f

local_block.conv_chan.conv.1.bias f4 [8]
-0.12611736 -0.099958315 -0.15731862 -0.23279405 -0.30057192 -0.17480218 -0.06004311 -0.15714023
00000000: e924 01be f2b6 ccbd 2218 21be 9061 6ebe
00000010: 90e4 99be 58ff 32be c4ef 75bd 5ee9 20be

local_block.conv_chan.conv.1.running_mean f4 [8]
0.025274426 0.0119243385 -0.065075815 -0.00287364 -0.030074673 -0.05504672 -0.017190427 0.026709443
00000000: 500c cf3c 4d5e 433c 7846 85bd ae53 3cbb
00000010: 295f f6bc ab78 61bd f0d2 8cbc c3cd da3c

local_block.conv_chan.conv.1.running_var f4 [8]
0.046623245 0.038991448 0.07281284 0.100952506 0.047662646 0.1313602 0.09385377 0.034937568
00000000: 04f8 3e3d 7fb5 1f3d e61e 953d 30c0 ce3d
00000010: e839 433d 4a83 063e 6836 c03d b21a 0f3d

tcn.network.0.conv1.weight f4 [8, 8, 16]
0.026116336 0.009270483 0.020576788 0.012467532 0.017888496 0.0011717606 -0.0392181 0.019607281
0.038344044 0.025900852 -0.045115426 -0.05751041 -0.0048157 -0.005973111 -0.074939325 -0.07849869
0.021762375 -0.03069414 0.032536164 0.0016313244 0.018261021 -0.034325767 -0.02886159 -0.07190023
0.034171797 0.0033842912 -0.031643756 -0.11408597 -0.038381957 -0.03126097 -0.09489693 -0.14769047
-0.019016614 0.03755567 -0.06392446 -0.033175267 -0.0044476166 0.033730704 0.0032296143 -0.0067074057
-0.010875612 0.02161331 -0.029144775 -0.054600805 -0.010654512 -0.037668467 -0.03467258 -0.0344516
-0.095250495 -0.09619696 -0.024486454 -0.08191464 -0.028830275 -0.07614969 -0.063509345 -0.010948101
-0.039352056 -0.03227591 -0.08472383 -0.032206204 -0.03854548 -0.05579904 -0.09757798 0.0055261725
0.0049887463 0.020588627 -0.021477668 -0.041625157 -0.050718486 0.014900048 -0.0150732985 0.08881494
0.034533907 0.06584883 0.09108046 0.10134816 0.07277452 0.07725917 0.033387095 0.041736484
-0.08129854 0.007098598 -0.04540269 -0.057970643 -0.00361168 0.016330592 0.029448763 -0.019953756
0.0031822522 -0.031218467 -0.01832593 -0.04996773 -0.08327412 -0.07126649 -0.042395465 0.03447269
0.065702565 0.028092787 0.015071626 -0.04157683 0.010951167 -0.022192841 0.04430847 -0.028109245
0.041960265 0.046383426 -0.049462587 0.051459886 -0.0004466272 -0.0174998 0.01600939 0.021351447
0.06073737 -0.0004823022 0.0375438 -0.07668932 -0.029318597 -0.06765453 -0.023291249 -0.08866812
-0.009383969 -0.0055797915 -0.07287682 0.03036083 -0.06337241 -0.065302104 -0.064290665 -0.058849975
0.045893062 -0.047912415 0.01939917 0.014085324 -0.021034043 -0.035830233 0.03638186 0.0074632172
0.053956345 0.03450826 0.014967233 0.05205859 0.05032261 0.030686311 0.0356481 0.059024006
-0.07965185 -0.06362059 -0.084493235 -0.018705789 -0.004501568 -0.0014552617 0.039446916 -0.01975564
-0.019405527 0.07736465 0.07032223 0.07950715 0.059287377 0.042974595 0.041887008 0.06433459
-0.053117752 -0.052938882 -0.0032782056 0.03442109 0.0047874474 0.036124375 0.06296316 0.018255329
-0.005108516 0.040716656 -0.019557962 0.04547157 -0.00044463953 0.07789039 0.014442348 0.05835974
0.013471356 -0.01726861 -0.009404868 -0.025034273 0.021103954 -0.06276771 -0.024236696 0.010496803
0.00990854 -0.013591118 0.053121634 -0.018318942 0.04997041 0.03555316 -0.00749913 0.02903177
0.009813532 -0.005628906 -0.023568895 0.017095301 -0.0028374293 0.018231057 0.006922435 0.0052039507
0.014161665 0.010397833 -0.042956486 -0.03304235 0.019484812 0.04887869 -0.03665336 -0.00014929773
-0.049436 -0.04744602 -0.041452236 0.020364545 0.0052749305 -0.034015905 0.041937783 -0.030847684
-0.020603295 0.0282906 -0.058777127 -0.028833393 -0.06073529 -0.019339282 -0.026705626 -0.06704864
0.009249121 0.0116814785 0.07089149 0.03835343 -0.00883095 0.04925496 0.05450456 0.059623037
0.016095659 0.061911095 -0.00032663636 0.009524423 0.017287571 -0.03672887 0.027935456 0.0149362385
-0.035972442 -0.041671876 -0.043584056 0.041422002 -0.024215097 0.058526486 0.014294508 0.05576233
0.037013423 0.070444085 0.021832753 0.03729713 -0.00019956895 0.0731268 0.023298556 0.016724668
00000000: edf1 d53c 39e3 173c a790 a83c 9f44 4c3c
00000010: e58a 923c c395 993a 29a3 20bd 739f a03c
00000020: a50e 1d3d 062e d43c f4ca 38bd 0990 6bbd
00000030: 05cd 9dbb 16ba c3bb ca79 99bd ecc3 a0bd
00000040: 0247 b23c 4772 fbbc a444 053d 2ad2 d53a
00000050: 2398 953c 2d99 0cbd 246f ecbc 6e40 93bd
00000060: baf7 0b3d fcca 5d3b e29c 01bd e8a5 e9bd
00000070: 6636 1dbd 810b 00bd 5259 c2bd 2c3c 17be
00000080: bbc8 9bbc f9d3 193d d4ea 82bd cae2 07bd
00000090: 50bd 91bb 3529 0a3d f0a7 533b ccc9 dbbb
000000a0: 9f2f 32bc 650e b13c 06c1 eebc 18a5 5fbd
000000b0: 4390 2ebc 404a 1abd d604 0ebd 1f1d 0dbd
000000c0: b112 c3bd e902 c5bd d197 c8bc ddc2 a7bd
000000d0: 782d ecbc 5ef4 9bbd 3011 82bd aa5f 33bc
000000e0: 9f2f 21bd bf33 04bd b083 adbd a7ea 03bd
000000f0: dee1 1dbd 898d 64bd f7d6 c7bd e514 b53b
00000100: a378 a33b 7ba9 a83c eff1 afbc 247f 2abd
00000110: 30be 4fbd 551f 743c fff5 76bc 9be4 b53d
00000120: 6d73 0d3d c0db 863d 6488 ba3d a08f cf3d
00000130: cf0a 953d 0e3a 9e3d e8c0 083d e0f3 2a3d
00000140: d97f a6bd 5b9b e83b 2cf8 39bd a072 6dbd
00000150: efb1 6cbb bcc7 853c 883e f13c 0f76 a3bc
00000160: 558d 503b dfbd ffbc 4320 96bc f6aa 4cbd
00000170: 9f8b aabd 2af4 91bd dea6 2dbd 3c33 0d3d
00000180: 118f 863d d822 e63c fbee 763c 774c 2abd
00000190: 866c 333c c3cd b5bc cc7c 353d 5c45 e6bc
000001a0: 87de 2b3d 8cfc 3d3d 4899 4abd 9ac7 523d
000001b0: 4a29 eab9 be5b 8fbc 2026 833c 3be9 ae3c
000001c0: c0c7 783d 81dd fcb9 87c7 193d 4a0f 9dbd
000001d0: 8e2d f0bc 758e 8abd 4acd bebc a297 b5bd
000001e0: 38bf 19bc afd6 b6bb 7140 95bd 46b7 f83c
000001f0: 65c9 81bd 1cbd 85bd d3aa 83bd ac0c 71bd
00000200: 5dfa 3b3d cf3f 44bd 02eb 9e3c 21c6 663c
00000210: 964f acbc b9c2 12bd 2505 153d 018e f43b
00000220: 5401 5d3d 8958 0d3d 2039 753c 633b 553d
00000230: 151f 4e3d dc61 fb3c be03 123d 28c3 713d
00000240: 8220 a3bd 834b 82bd ca0a adbd e23c 99bc
00000250: e481 93bb 7bbe beba 1793 213d 94d6 a1bc
00000260: 57f8 9ebc 5c71 9e3d 1a05 903d a5d4 a23d
00000270: 52d7 723d 2106 303d b691 2b3d dbc1 833d
00000280: 0092 59bd 71d6 58bd 2ad7 56bb 21fd 0c3d
00000290: 05e0 9c3b 27f7 133d d4f2 803d 338c 953c
000002a0: 5765 a7bb 82c6 263d 0538 a0bc 6640 3a3d
000002b0: 821e e9b9 ff84 9f3d 999f 6c3c 9f0a 6f3d
000002c0: f6b6 5c3c e676 8dbc e016 1abc ad14 cdbc
000002d0: 33e2 ac3c 5b8c 80bd 098c c6bc c8fa 2b3c
000002e0: 6e57 223c 48ad 5ebc 1296 593d 9b11 96bc
000002f0: c6ad 4c3d 31a0 113d 43bb f5bb 09d4 ed3c
00000300: f0c8 203c b072 b8bb 8e13 c1bc 720b 8c3c
00000310: 2af4 39bb 4c59 953c 98d5 e23b e785 aa3b
00000320: 5406 683c ac5b 2a3c 24f3 2fbd 6a57 07bd
00000330: 9d9e 9f3c 0535 483d d521 16bd ce8c 1cb9
00000340: 677d 4abd c256 42bd d2c9 29bd 8cd3 a63c
00000350: 53d9 ac3b 4354 0bbd f4c6 2b3d 48b4 fcbc
00000360: 3ec8 a8bc b0c1 e73c 49c0 70bd 0234 ecbc
00000370: 91c5 78bd 6a6d 9ebc c2c5 dabc cc50 89bd
00000380: a089 173c ac63 3f3c 8f2f 913d 7c18 1d3d
00000390: b0af 10bc 92bf 493d 2c40 5f3d 4937 743d
000003a0: 0bdb 833c 7d96 7d3d 6440 abb9 530c 1c3c
000003b0: aa9e 8d3c 0371 16bd e6d8 e43c 20b7 743c
000003c0: d757 13bd 21b0 2abd 3285 32bd 1eaa 293d
000003d0: bd5e c6bc 78b9 6f3d 8333 6a3c 0a67 643d
000003e0: 639b 173d fd44 903d 9ada b23c e0c4 183d
000003f0: 6243 51b9 81c3 953d 9ddc be3c 2c02 893c

tcn.network.0.conv1.bias f4 [8]
1.2701882e-09 -0.00028045126 -5.087437e-09 0.019542765 0.003173706 0.001512332 -5.3161678e-08 0.009308178
00000000: c692 ae30 8809 93b9 92cd aeb1 2618 a03c
00000010: f3fd 4f3b 7139 c63a e253 64b3 5481 183c

tcn.network.0.bn1.weight f4 [8]
1.049831 1.0510323 1.0270027 1.1103761 1.1404705 1.1053469 1.0151981 1.0542898
00000000: dd60 863f 3a88 863f d374 833f ce20 8e3f
00000010: f0fa 913f 027c 8d3f 03f2 813f f8f2 863f

tcn.network.0.bn1.bias f4 [8]
-0.25222597 -0.13298638 -0.21609122 -0.20325221 -0.2461094 -0.25954935 -0.15845214 -0.16268283
00000000: c323 81be 952d 08be 0447 5dbe 5921 50be
00000010: 1a04 7cbe a7e3 84be 4741 22be 5496 26be

tcn.network.0.bn1.running_mean f4 [8]
0.0044595483 -0.006414591 -0.055003893 -0.01930124 -0.016480384 -0.06694754 -0.005308201 -0.016052216
00000000: 6721 923b 7d31 d2bb c34b 61bd a21d 9ebc
00000010: df01 87bc cb1b 89bd 6bf0 adbb f07f 83bc

tcn.network.0.bn1.running_var f4 [8]
0.4269719 0.52231055 0.37715387 0.444617 0.5545118 0.44232118 0.4718872 0.44152987
00000000: 109c da3e 25b6 053f 501a c13e d7a4 e33e
00000010: 7cf4 0d3f ec77 e23e 339b f13e 3410 e23e

tcn.network.0.conv2.weight f4 [8, 8, 16]
0.13231367 0.10160266 0.06823236 0.011829576 0.03333955 0.014731527 -0.026158541 0.011114296
-0.059904423 -0.052026235 -0.07900281 -0.07298217 -0.034917664 -0.038060796 -0.021432428 -0.020669192
-0.014732492 -0.061934166 -0.044973094 0.017300999 0.033017967 0.010978695 -0.051392447 -0.001676465
0.01303771 -0.015598169 0.035193563 0.044725865 -0.00090345956 0.034682184 0.019321026 0.019357134
-0.06275099 -0.07094878 -0.015545449 -0.013051119 -0.019510927 0.057648964 -0.0032771996 -0.012965268
0.03577271 0.032473523 -0.04384938 -0.02012786 -0.051057678 -0.017777568 -0.052208923 -0.06580018
-0.045902487 0.008382455 -0.023682864 -0.05410647 -0.023076793 0.00468156 0.034804046 0.06604326
0.051501393 0.048754305 0.028488459 0.013607059 0.022842081 0.058844548 0.01666655 -0.014468338
0.09120302 0.037358608 0.013882668 -0.013040568 0.006740482 -0.029445847 -0.018129183 0.014398988
-0.018984584 0.02126164 -0.025797771 -0.017686775 0.042402655 0.026148701 0.086071335 0.07919999
-0.013269413 0.0134841595 -0.021306155 -0.041441955 0.009417401 -0.023965728 -0.042826552 0.013298032
-0.029161878 -0.014418398 0.027265843 -0.03234612 0.022643019 0.04516086 0.017061545 -0.01901159
0.022773042 0.05828954 -0.021938639 -0.008277743 -0.0480509 -0.03274134 -0.027486231 -0.030809851
-0.008635329 -0.020048512 -0.040970095 0.023467157 0.02440433 0.043776594 0.07573118 0.051189777
-0.008428268 0.030676818 -0.013648621 -0.029557908 -0.0035816084 -0.04111905 -0.041391525 0.0233461
-0.03871663 -0.003917901 0.036359116 0.01704501 0.028102566 0.034744646 0.0007178932 -0.045543868
0.07418787 0.02174818 0.077287205 0.052083746 0.025254996 0.047966722 0.012514883 0.0008173375
-0.010601053 -0.023961043 -0.032136444 -0.030474583 -0.027146256 -0.025249168 -0.02218003 -0.066999614
-0.011784082 0.01594065 -0.015941923 -0.04212021 -0.012007727 -0.048156984 -0.07101238 -0.08736963
-0.05187765 -0.05130439 -0.08837706 0.010097019 0.061651163 0.022725975 0.00420957 0.045394648
-0.053274322 0.0039271605 -0.032627974 -0.019179242 -0.014643495 -0.044754237 -0.012573743 -0.0068088295
-0.029385895 -0.01973094 -0.034538053 -0.06679846 -0.092530556 -0.0268387 -0.04713991 -0.096296474
0.02942832 -0.008371475 0.034961335 0.028163001 0.027653305 -0.027674949 -0.026122283 -0.08132131
-0.09543466 -0.04358749 0.0034119722 -0.0310995 -0.016238479 0.01846164 -0.011202791 -0.011343659
-0.019444862 -0.019093646 0.01781138 -0.02927186 -0.050993472 -0.008309694 -0.030280564 -0.0118477605
-0.06351645 0.036557037 0.05813674 0.03693027 0.031797174 0.038175944 0.021627506 -0.027213572
-0.032468736 0.008681367 0.009249368 0.039283987 0.041660845 0.04722217 -0.005184765 0.021080842
-0.017094038 -0.032096118 0.004027934 0.012734628 -0.0024875042 0.004726941 0.017845612 0.06353012
-0.09208003 -0.013179443 -0.055825356 -0.016432613 -0.0232863 -0.04606196 0.008503185 -0.032885373
5.8641606e-05 0.0024494801 0.051152866 -0.015891246 -0.02442779 0.003733695 -0.021205382 -0.0380381
-0.025851842 -0.034765363 0.010393087 -0.03159578 0.008032607 0.019152632 0.00420061 0.007993228
0.016491827 -0.0409873 0.03910196 0.022313831 0.051878374 -0.011949396 -0.006312337 0.04444049
00000000: 3c7d 073e 0e15 d03d 68bd 8b3d d7d0 413c
00000010: 0d8f 083d 815c 713c 704a d6bc bc18 363c
00000020: 575e 75bd 7619 55bd 3acc a1bd ad77 95bd
00000030: d305 0fbd a3e5 1bbd 0f93 afbc 7052 a9bc
00000040: 8d60 71bc aeae 7dbd b535 38bd d3ba 8d3c
00000050: d93d 073d fcdf 333c e380 52bd d5bc dbba
00000060: 1f9c 553c 768f 7fbc 2027 103d 7832 373d
00000070: 25d6 6cba e80e 0e3d 2147 9e3c da92 9e3c
00000080: 9783 80bd 984d 91bd 57b2 7ebc 5cd4 55bc
00000090: 61d5 9fbc 5221 6c3d 49c6 56bb 476c 54bc
000000a0: 6886 123d f502 053d 689b 33bd 2fe3 a4bc
000000b0: db21 51bd 43a2 91bc 06d9 55bd 3fc2 86bd
000000c0: 3f04 3cbd 9156 093c 9102 c2bc bf9e 5dbd
000000d0: 8b0b bdbc c667 993b b08e 0e3d b041 873d
000000e0: 20f3 523d 98b2 473d a160 e93c 24f0 5e3c
000000f0: 511f bb3c fb06 713d 4a88 883c 9c0c 6dbc
00000100: a6c8 ba3d 5705 193d 2174 633c 1ba8 55bc
00000110: 43df dc3b 6b38 f1bc a783 94bc bce9 6b3c
00000120: 8f85 9bbc e42c ae3c d955 d3bc dbe3 90bc
00000130: 68ae 2d3d cd35 d63c 2b46 b03d 9b33 a23d
00000140: f467 59bc aaec 5c3c 3f8a aebc 0abf 29bd
00000150: 714b 1a3c c653 c4bc e56a 2fbd fddf 593c
00000160: e4e4 eebc 253b 6cbc 9e5c df3c 5d7d 04bd
00000170: da7d b93c 98fa 383d a7c4 8b3c 32be 9bbc
00000180: 888e ba3c 03c1 6e3d a9b8 b3bc 5f9f 07bc
00000190: 05d1 44bd c91b 06bd ce2a e1bc f164 fcbc
000001a0: 327b 0dbc c73c a4bc 42d0 27bd 323e c03c
000001b0: 97eb c73c 164f 333d f318 9b3d 5fac 513d
000001c0: b816 0abc f34d fb3c 779e 5fbc 6d23 f2bc
000001d0: 6bb9 6abb 736c 28bd 298a 29bd 5240 bf3c
000001e0: 5495 1ebd bc61 80bb 4ced 143d faa1 8b3c
000001f0: 5a37 e63c 6750 0e3d ff30 3c3a 358c 3abd
00000200: cfef 973d 3d29 b23c c148 9e3d c455 553d
00000210: 91e3 ce3c c178 443d 390b 4d3c 9742 563a
00000220: 0ab0 2dbc f349 c4bc 81a1 03bd d5a5 f9bc
00000230: d361 debc 58d7 cebc e5b2 b5bc 1837 89bd
00000240: 0612 41bc f795 823c a398 82bc 3e86 2cbd
00000250: 0fbc 44bc 4240 45bd f06e 91bd d9ee b2bd
00000260: a97d 54bd 8d24 52bd 08ff b4bd f86d 253c
00000270: ee85 7c3d d32b ba3c 6ff0 893b bdef 393d
00000280: 2d36 5abd 69af 803b e9a4 05bd c91d 9dbc
00000290: 45eb 6fbc 3850 37bd 1a02 4ebc 9a1c dfbb
000002a0: b0ba f0bc c8a2 a1bc c677 0dbd a2cd 88bd
000002b0: a980 bdbd d5dc dbbc c715 41bd 1637 c5bd
000002c0: a913 f13c 8328 09bc 9e33 0f3d 18b6 e63c
000002d0: 2f89 e23c 93b6 e2bc 66fe d5bc c98b a6bd
000002e0: 3f73 c3bd cc88 32bd 659b 5f3b 61c4 febc
000002f0: 8f06 85bc de3c 973c e98b 37bc c1da 39bc
00000300: d54a 9fbc 476a 9cbc 2ce9 913c 8acb efbc
00000310: 88de 50bd 6225 08bc f20e f8bc 1c1d 42bc
00000320: ea14 82bd d5bc 153d ca20 6e3d 3244 173d
00000330: c13d 023d 615e 1c3d 2b2c b13c ffee debc
00000340: f0fd 04bd 4b3c 0e3c a98a 173c 3fe8 203d
00000350: 90a4 2a3d 096c 413d f6e4 a9bb bbb1 ac3c
00000360: cc08 8cbc 3877 03bd c2fc 833b e7a4 503c
00000370: 6505 23bb 75e4 9a3b f630 923c 141c 823d
00000380: 7494 bcbd 97ee 57bc 21a9 64bd b09d 86bc
00000390: e9c2 bebc 77ab 3cbd f150 0b3c d0b2 06bd
000003a0: f2f5 7538 7587 203b ab85 513d 5c2e 82bc
000003b0: ca1c c8bc 02b1 743b e9b6 adbc d7cd 1bbd
000003c0: 3ec7 d3bc 2066 0ebd c447 2a3c 946a 01bd
000003d0: 329b 033c fbe5 9c3c 45a5 893b 07f6 023c
000003e0: de19 873c 4de2 27bd 6029 203d 7fcb b63c
000003f0: 6b7e 543d 66c7 43bc b8d7 cebb 3b07 363d

tcn.network.0.conv2.bias f4 [8]
0.014114902 4.89491e-07 0.0018256566 -0.006626257 4.4057968e-05 0.0012896718 -6.259134e-09 0.006329978
00000000: 3142 673c 9165 0335 df4a ef3a 1321 d9bb
00000010: e2ca 3838 340a a93a ed0f d7b1 b46b cf3b

tcn.network.0.bn2.weight f4 [8]
1.0 1.0 1.0 1.0 1.0 1.0 1.0 1.0
00000000: 0000 803f 0000 803f 0000 803f 0000 803f
00000010: 0000 803f 0000 803f 0000 803f 0000 803f

tcn.network.0.bn2.bias f4 [8]
0.0 0.0 0.0 0.0 0.0 0.0 0.0 0.0
00000000: 0000 0000 0000 0000 0000 0000 0000 0000
00000010: 0000 0000 0000 0000 0000 0000 0000 0000

tcn.network.0.bn2.running_mean f4 [8]
0.0 0.0 0.0 0.0 0.0 0.0 0.0 0.0
00000000: 0000 0000 0000 0000 0000 0000 0000 0000
00000010: 0000 0000 0000 0000 0000 0000 0000 0000

tcn.network.0.bn2.running_var f4 [8]
1.0 1.0 1.0 1.0 1.0 1.0 1.0 1.0
00000000: 0000 803f 0000 803f 0000 803f 0000 803f
00000010: 0000 803f 0000 803f 0000 803f 0000 803f

tcn.network.0.net.0.weight f4 [8, 8, 16]
0.026116336 0.009270483 0.020576788 0.012467532 0.017888496 0.0011717606 -0.0392181 0.019607281
0.038344044 0.025900852 -0.045115426 -0.05751041 -0.0048157 -0.005973111 -0.074939325 -0.07849869
0.021762375 -0.03069414 0.032536164 0.0016313244 0.018261021 -0.034325767 -0.02886159 -0.07190023
0.034171797 0.0033842912 -0.031643756 -0.11408597 -0.038381957 -0.03126097 -0.09489693 -0.14769047
-0.019016614 0.03755567 -0.06392446 -0.033175267 -0.0044476166 0.033730704 0.0032296143 -0.0067074057
-0.010875612 0.02161331 -0.029144775 -0.054600805 -0.010654512 -0.037668467 -0.03467258 -0.0344516
-0.095250495 -0.09619696 -0.024486454 -0.08191464 -0.028830275 -0.07614969 -0.063509345 -0.010948101
-0.039352056 -0.03227591 -0.08472383 -0.032206204 -0.03854548 -0.05579904 -0.09757798 0.0055261725
0.0049887463 0.020588627 -0.021477668 -0.041625157 -0.050718486 0.014900048 -0.0150732985 0.08881494
0.034533907 0.06584883 0.09108046 0.10134816 0.07277452 0.07725917 0.033387095 0.041736484
-0.08129854 0.007098598 -0.04540269 -0.057970643 -0.00361168 0.016330592 0.029448763 -0.019953756
0.0031822522 -0.031218467 -0.01832593 -0.04996773 -0.08327412 -0.07126649 -0.042395465 0.03447269
0.065702565 0.028092787 0.015071626 -0.04157683 0.010951167 -0.022192841 0.04430847 -0.028109245
0.041960265 0.046383426 -0.049462587 0.051459886 -0.0004466272 -0.0174998 0.01600939 0.021351447
0.06073737 -0.0004823022 0.0375438 -0.07668932 -0.029318597 -0.06765453 -0.023291249 -0.08866812
-0.009383969 -0.0055797915 -0.07287682 0.03036083 -0.06337241 -0.065302104 -0.064290665 -0.058849975
0.045893062 -0.047912415 0.01939917 0.014085324 -0.021034043 -0.035830233 0.03638186 0.0074632172
0.053956345 0.03450826 0.014967233 0.05205859 0.05032261 0.030686311 0.0356481 0.059024006
-0.07965185 -0.06362059 -0.084493235 -0.018705789 -0.004501568 -0.0014552617 0.039446916 -0.01975564
-0.019405527 0.07736465 0.07032223 0.07950715 0.059287377 0.042974595 0.041887008 0.06433459
-0.053117752 -0.052938882 -0.0032782056 0.03442109 0.0047874474 0.036124375 0.06296316 0.018255329
-0.005108516 0.040716656 -0.019557962 0.04547157 -0.00044463953 0.07789039 0.014442348 0.05835974
0.013471356 -0.01726861 -0.009404868 -0.025034273 0.021103954 -0.06276771 -0.024236696 0.010496803
0.00990854 -0.013591118 0.053121634 -0.018318942 0.04997041 0.03555316 -0.00749913 0.02903177
0.009813532 -0.005628906 -0.023568895 0.017095301 -0.0028374293 0.018231057 0.006922435 0.0052039507
0.014161665 0.010397833 -0.042956486 -0.03304235 0.019484812 0.04887869 -0.03665336 -0.00014929773
-0.049436 -0.04744602 -0.041452236 0.020364545 0.0052749305 -0.034015905 0.041937783 -0.030847684
-0.020603295 0.0282906 -0.058777127 -0.028833393 -0.06073529 -0.019339282 -0.026705626 -0.06704864
0.009249121 0.0116814785 0.07089149 0.03835343 -0.00883095 0.04925496 0.05450456 0.059623037
0.016095659 0.061911095 -0.00032663636 0.009524423 0.017287571 -0.03672887 0.027935456 0.0149362385
-0.035972442 -0.041671876 -0.043584056 0.041422002 -0.024215097 0.058526486 0.014294508 0.05576233
0.037013423 0.070444085 0.021832753 0.03729713 -0.00019956895 0.0731268 0.023298556 0.016724668
00000000: edf1 d53c 39e3 173c a790 a83c 9f44 4c3c
00000010: e58a 923c c395 993a 29a3 20bd 739f a03c
00000020: a50e 1d3d 062e d43c f4ca 38bd 0990 6bbd
00000030: 05cd 9dbb 16ba c3bb ca79 99bd ecc3 a0bd
00000040: 0247 b23c 4772 fbbc a444 053d 2ad2 d53a
00000050: 2398 953c 2d99 0cbd 246f ecbc 6e40 93bd
00000060: baf7 0b3d fcca 5d3b e29c 01bd e8a5 e9bd
00000070: 6636 1dbd 810b 00bd 5259 c2bd 2c3c 17be
00000080: bbc8 9bbc f9d3 193d d4ea 82bd cae2 07bd
00000090: 50bd 91bb 3529 0a3d f0a7 533b ccc9 dbbb
000000a0: 9f2f 32bc 650e b13c 06c1 eebc 18a5 5fbd
000000b0: 4390 2ebc 404a 1abd d604 0ebd 1f1d 0dbd
000000c0: b112 c3bd e902 c5bd d197 c8bc ddc2 a7bd
000000d0: 782d ecbc 5ef4 9bbd 3011 82bd aa5f 33bc
000000e0: 9f2f 21bd bf33 04bd b083 adbd a7ea 03bd
000000f0: dee1 1dbd 898d 64bd f7d6 c7bd e514 b53b
00000100: a378 a33b 7ba9 a83c eff1 afbc 247f 2abd
00000110: 30be 4fbd 551f 743c fff5 76bc 9be4 b53d
00000120: 6d73 0d3d c0db 863d 6488 ba3d a08f cf3d
00000130: cf0a 953d 0e3a 9e3d e8c0 083d e0f3 2a3d
00000140: d97f a6bd 5b9b e83b 2cf8 39bd a072 6dbd
00000150: efb1 6cbb bcc7 853c 883e f13c 0f76 a3bc
00000160: 558d 503b dfbd ffbc 4320 96bc f6aa 4cbd
00000170: 9f8b aabd 2af4 91bd dea6 2dbd 3c33 0d3d
00000180: 118f 863d d822 e63c fbee 763c 774c 2abd
00000190: 866c 333c c3cd b5bc cc7c 353d 5c45 e6bc
000001a0: 87de 2b3d 8cfc 3d3d 4899 4abd 9ac7 523d
000001b0: 4a29 eab9 be5b 8fbc 2026 833c 3be9 ae3c
000001c0: c0c7 783d 81dd fcb9 87c7 193d 4a0f 9dbd
000001d0: 8e2d f0bc 758e 8abd 4acd bebc a297 b5bd
000001e0: 38bf 19bc afd6 b6bb 7140 95bd 46b7 f83c
000001f0: 65c9 81bd 1cbd 85bd d3aa 83bd ac0c 71bd
00000200: 5dfa 3b3d cf3f 44bd 02eb 9e3c 21c6 663c
00000210: 964f acbc b9c2 12bd 2505 153d 018e f43b
00000220: 5401 5d3d 8958 0d3d 2039 753c 633b 553d
00000230: 151f 4e3d dc61 fb3c be03 123d 28c3 713d
00000240: 8220 a3bd 834b 82bd ca0a adbd e23c 99bc
00000250: e481 93bb 7bbe beba 1793 213d 94d6 a1bc
00000260: 57f8 9ebc 5c71 9e3d 1a05 903d a5d4 a23d
00000270: 52d7 723d 2106 303d b691 2b3d dbc1 833d
00000280: 0092 59bd 71d6 58bd 2ad7 56bb 21fd 0c3d
00000290: 05e0 9c3b 27f7 133d d4f2 803d 338c 953c
000002a0: 5765 a7bb 82c6 263d 0538 a0bc 6640 3a3d
000002b0: 821e e9b9 ff84 9f3d 999f 6c3c 9f0a 6f3d
000002c0: f6b6 5c3c e676 8dbc e016 1abc ad14 cdbc
000002d0: 33e2 ac3c 5b8c 80bd 098c c6bc c8fa 2b3c
000002e0: 6e57 223c 48ad 5ebc 1296 593d 9b11 96bc
000002f0: c6ad 4c3d 31a0 113d 43bb f5bb 09d4 ed3c
00000300: f0c8 203c b072 b8bb 8e13 c1bc 720b 8c3c
00000310: 2af4 39bb 4c59 953c 98d5 e23b e785 aa3b
00000320: 5406 683c ac5b 2a3c 24f3 2fbd 6a57 07bd
00000330: 9d9e 9f3c 0535 483d d521 16bd ce8c 1cb9
00000340: 677d 4abd c256 42bd d2c9 29bd 8cd3 a63c
00000350: 53d9 ac3b 4354 0bbd f4c6 2b3d 48b4 fcbc
00000360: 3ec8 a8bc b0c1 e73c 49c0 70bd 0234 ecbc
00000370: 91c5 78bd 6a6d 9ebc c2c5 dabc cc50 89bd
00000380: a089 173c ac63 3f3c 8f2f 913d 7c18 1d3d
00000390: b0af 10bc 92bf 493d 2c40 5f3d 4937 743d
000003a0: 0bdb 833c 7d96 7d3d 6440 abb9 530c 1c3c
000003b0: aa9e 8d3c 0371 16bd e6d8 e43c 20b7 743c
000003c0: d757 13bd 21b0 2abd 3285 32bd 1eaa 293d
000003d0: bd5e c6bc 78b9 6f3d 8333 6a3c 0a67 643d
000003e0: 639b 173d fd44 903d 9ada b23c e0c4 183d
000003f0: 6243 51b9 81c3 953d 9ddc be3c 2c02 893c

tcn.network.0.net.0.bias f4 [8]
1.2701882e-09 -0.00028045126 -5.087437e-09 0.019542765 0.003173706 0.001512332 -5.3161678e-08 0.009308178
00000000: c692 ae30 8809 93b9 92cd aeb1 2618 a03c
00000010: f3fd 4f3b 7139 c63a e253 64b3 5481 183c

tcn.network.0.net.1.weight f4 [8]
1.049831 1.0510323 1.0270027 1.1103761 1.1404705 1.1053469 1.0151981 1.0542898
00000000: dd60 863f 3a88 863f d374 833f ce20 8e3f
00000010: f0fa 913f 027c 8d3f 03f2 813f f8f2 863f

tcn.network.0.net.1.bias f4 [8]
-0.25222597 -0.13298638 -0.21609122 -0.20325221 -0.2461094 -0.25954935 -0.15845214 -0.16268283
00000000: c323 81be 952d 08be 0447 5dbe 5921 50be
00000010: 1a04 7cbe a7e3 84be 4741 22be 5496 26be

tcn.network.0.net.1.running_mean f4 [8]
0.0044595483 -0.006414591 -0.055003893 -0.01930124 -0.016480384 -0.06694754 -0.005308201 -0.016052216
00000000: 6721 923b 7d31 d2bb c34b 61bd a21d 9ebc
00000010: df01 87bc cb1b 89bd 6bf0 adbb f07f 83bc

tcn.network.0.net.1.running_var f4 [8]
0.4269719 0.52231055 0.37715387 0.444617 0.5545118 0.44232118 0.4718872 0.44152987
00000000: 109c da3e 25b6 053f 501a c13e d7a4 e33e
00000010: 7cf4 0d3f ec77 e23e 339b f13e 3410 e23e

tcn.network.0.net.5.weight f4 [8, 8, 16]
0.13231367 0.10160266 0.06823236 0.011829576 0.03333955 0.014731527 -0.026158541 0.011114296
-0.059904423 -0.052026235 -0.07900281 -0.07298217 -0.034917664 -0.038060796 -0.021432428 -0.020669192
-0.014732492 -0.061934166 -0.044973094 0.017300999 0.033017967 0.010978695 -0.051392447 -0.001676465
0.01303771 -0.015598169 0.035193563 0.044725865 -0.00090345956 0.034682184 0.019321026 0.019357134
-0.06275099 -0.07094878 -0.015545449 -0.013051119 -0.019510927 0.057648964 -0.0032771996 -0.012965268
0.03577271 0.032473523 -0.04384938 -0.02012786 -0.051057678 -0.017777568 -0.052208923 -0.06580018
-0.045902487 0.008382455 -0.023682864 -0.05410647 -0.023076793 0.00468156 0.034804046 0.06604326
0.051501393 0.048754305 0.028488459 0.013607059 0.022842081 0.058844548 0.01666655 -0.014468338
0.09120302 0.037358608 0.013882668 -0.013040568 0.006740482 -0.029445847 -0.018129183 0.014398988
-0.018984584 0.02126164 -0.025797771 -0.017686775 0.042402655 0.026148701 0.086071335 0.07919999
-0.013269413 0.0134841595 -0.021306155 -0.041441955 0.009417401 -0.023965728 -0.042826552 0.013298032
-0.029161878 -0.014418398 0.027265843 -0.03234612 0.022643019 0.04516086 0.017061545 -0.01901159
0.022773042 0.05828954 -0.021938639 -0.008277743 -0.0480509 -0.03274134 -0.027486231 -0.030809851
-0.008635329 -0.020048512 -0.040970095 0.023467157 0.02440433 0.043776594 0.07573118 0.051189777
-0.008428268 0.030676818 -0.013648621 -0.029557908 -0.0035816084 -0.04111905 -0.041391525 0.0233461
-0.03871663 -0.003917901 0.036359116 0.01704501 0.028102566 0.034744646 0.0007178932 -0.045543868
0.07418787 0.02174818 0.077287205 0.052083746 0.025254996 0.047966722 0.012514883 0.0008173375
-0.010601053 -0.023961043 -0.032136444 -0.030474583 -0.027146256 -0.025249168 -0.02218003 -0.066999614
-0.011784082 0.01594065 -0.015941923 -0.04212021 -0.012007727 -0.048156984 -0.07101238 -0.08736963
-0.05187765 -0.05130439 -0.08837706 0.010097019 0.061651163 0.022725975 0.00420957 0.045394648
-0.053274322 0.0039271605 -0.032627974 -0.019179242 -0.014643495 -0.044754237 -0.012573743 -0.0068088295
-0.029385895 -0.01973094 -0.034538053 -0.06679846 -0.092530556 -0.0268387 -0.04713991 -0.096296474
0.02942832 -0.008371475 0.034961335 0.028163001 0.027653305 -0.027674949 -0.026122283 -0.08132131
-0.09543466 -0.04358749 0.0034119722 -0.0310995 -0.016238479 0.01846164 -0.011202791 -0.011343659
-0.019444862 -0.019093646 0.01781138 -0.02927186 -0.050993472 -0.008309694 -0.030280564 -0.0118477605
-0.06351645 0.036557037 0.05813674 0.03693027 0.031797174 0.038175944 0.021627506 -0.027213572
-0.032468736 0.008681367 0.009249368 0.039283987 0.041660845 0.04722217 -0.005184765 0.021080842
-0.017094038 -0.032096118 0.004027934 0.012734628 -0.0024875042 0.004726941 0.017845612 0.06353012
-0.09208003 -0.013179443 -0.055825356 -0.016432613 -0.0232863 -0.04606196 0.008503185 -0.032885373
5.8641606e-05 0.0024494801 0.051152866 -0.015891246 -0.02442779 0.003733695 -0.021205382 -0.0380381
-0.025851842 -0.034765363 0.010393087 -0.03159578 0.008032607 0.019152632 0.00420061 0.007993228
0.016491827 -0.0409873 0.03910196 0.022313831 0.051878374 -0.011949396 -0.006312337 0.04444049
00000000: 3c7d 073e 0e15 d03d 68bd 8b3d d7d0 413c
00000010: 0d8f 083d 815c 713c 704a d6bc bc18 363c
00000020: 575e 75bd 7619 55bd 3acc a1bd ad77 95bd
00000030: d305 0fbd a3e5 1bbd 0f93 afbc 7052 a9bc
00000040: 8d60 71bc aeae 7dbd b535 38bd d3ba 8d3c
00000050: d93d 073d fcdf 333c e380 52bd d5bc dbba
00000060: 1f9c 553c 768f 7fbc 2027 103d 7832 373d
00000070: 25d6 6cba e80e 0e3d 2147 9e3c da92 9e3c
00000080: 9783 80bd 984d 91bd 57b2 7ebc 5cd4 55bc
00000090: 61d5 9fbc 5221 6c3d 49c6 56bb 476c 54bc
000000a0: 6886 123d f502 053d 689b 33bd 2fe3 a4bc
000000b0: db21 51bd 43a2 91bc 06d9 55bd 3fc2 86bd
000000c0: 3f04 3cbd 9156 093c 9102 c2bc bf9e 5dbd
000000d0: 8b0b bdbc c667 993b b08e 0e3d b041 873d
000000e0: 20f3 523d 98b2 473d a160 e93c 24f0 5e3c
000000f0: 511f bb3c fb06 713d 4a88 883c 9c0c 6dbc
00000100: a6c8 ba3d 5705 193d 2174 633c 1ba8 55bc
00000110: 43df dc3b 6b38 f1bc a783 94bc bce9 6b3c
00000120: 8f85 9bbc e42c ae3c d955 d3bc dbe3 90bc
00000130: 68ae 2d3d cd35 d63c 2b46 b03d 9b33 a23d
00000140: f467 59bc aaec 5c3c 3f8a aebc 0abf 29bd
00000150: 714b 1a3c c653 c4bc e56a 2fbd fddf 593c
00000160: e4e4 eebc 253b 6cbc 9e5c df3c 5d7d 04bd
00000170: da7d b93c 98fa 383d a7c4 8b3c 32be 9bbc
00000180: 888e ba3c 03c1 6e3d a9b8 b3bc 5f9f 07bc
00000190: 05d1 44bd c91b 06bd ce2a e1bc f164 fcbc
000001a0: 327b 0dbc c73c a4bc 42d0 27bd 323e c03c
000001b0: 97eb c73c 164f 333d f318 9b3d 5fac 513d
000001c0: b816 0abc f34d fb3c 779e 5fbc 6d23 f2bc
000001d0: 6bb9 6abb 736c 28bd 298a 29bd 5240 bf3c
000001e0: 5495 1ebd bc61 80bb 4ced 143d faa1 8b3c
000001f0: 5a37 e63c 6750 0e3d ff30 3c3a 358c 3abd
00000200: cfef 973d 3d29 b23c c148 9e3d c455 553d
00000210: 91e3 ce3c c178 443d 390b 4d3c 9742 563a
00000220: 0ab0 2dbc f349 c4bc 81a1 03bd d5a5 f9bc
00000230: d361 debc 58d7 cebc e5b2 b5bc 1837 89bd
00000240: 0612 41bc f795 823c a398 82bc 3e86 2cbd
00000250: 0fbc 44bc 4240 45bd f06e 91bd d9ee b2bd
00000260: a97d 54bd 8d24 52bd 08ff b4bd f86d 253c
00000270: ee85 7c3d d32b ba3c 6ff0 893b bdef 393d
00000280: 2d36 5abd 69af 803b e9a4 05bd c91d 9dbc
00000290: 45eb 6fbc 3850 37bd 1a02 4ebc 9a1c dfbb
000002a0: b0ba f0bc c8a2 a1bc c677 0dbd a2cd 88bd
000002b0: a980 bdbd d5dc dbbc c715 41bd 1637 c5bd
000002c0: a913 f13c 8328 09bc 9e33 0f3d 18b6 e63c
000002d0: 2f89 e23c 93b6 e2bc 66fe d5bc c98b a6bd
000002e0: 3f73 c3bd cc88 32bd 659b 5f3b 61c4 febc
000002f0: 8f06 85bc de3c 973c e98b 37bc c1da 39bc
00000300: d54a 9fbc 476a 9cbc 2ce9 913c 8acb efbc
00000310: 88de 50bd 6225 08bc f20e f8bc 1c1d 42bc
00000320: ea14 82bd d5bc 153d ca20 6e3d 3244 173d
00000330: c13d 023d 615e 1c3d 2b2c b13c ffee debc
00000340: f0fd 04bd 4b3c 0e3c a98a 173c 3fe8 203d
00000350: 90a4 2a3d 096c 413d f6e4 a9bb bbb1 ac3c
00000360: cc08 8cbc 3877 03bd c2fc 833b e7a4 503c
00000370: 6505 23bb 75e4 9a3b f630 923c 141c 823d
00000380: 7494 bcbd 97ee 57bc 21a9 64bd b09d 86bc
00000390: e9c2 bebc 77ab 3cbd f150 0b3c d0b2 06bd
000003a0: f2f5 7538 7587 203b ab85 513d 5c2e 82bc
000003b0: ca1c c8bc 02b1 743b e9b6 adbc d7cd 1bbd
000003c0: 3ec7 d3bc 2066 0ebd c447 2a3c 946a 01bd
000003d0: 329b 033c fbe5 9c3c 45a5 893b 07f6 023c
000003e0: de19 873c 4de2 27bd 6029 203d 7fcb b63c
000003f0: 6b7e 543d 66c7 43bc b8d7 cebb 3b07 363d

tcn.network.0.net.5.bias f4 [8]
0.014114902 4.89491e-07 0.0018256566 -0.006626257 4.4057968e-05 0.0012896718 -6.259134e-09 0.006329978
00000000: 3142 673c 9165 0335 df4a ef3a 1321 d9bb
00000010: e2ca 3838 340a a93a ed0f d7b1 b46b cf3b

tcn.network.0.net.6.weight f4 [8]
1.049831 1.0510323 1.0270027 1.1103761 1.1404705 1.1053469 1.0151981 1.0542898
00000000: dd60 863f 3a88 863f d374 833f ce20 8e3f
00000010: f0fa 913f 027c 8d3f 03f2 813f f8f2 863f

tcn.network.0.net.6.bias f4 [8]
-0.25222597 -0.13298638 -0.21609122 -0.20325221 -0.2461094 -0.25954935 -0.15845214 -0.16268283
00000000: c323 81be 952d 08be 0447 5dbe 5921 50be
00000010: 1a04 7cbe a7e3 84be 4741 22be 5496 26be

tcn.network.0.net.6.running_mean f4 [8]
0.0044595483 -0.006414591 -0.055003893 -0.01930124 -0.016480384 -0.06694754 -0.005308201 -0.016052216
00000000: 6721 923b 7d31 d2bb c34b 61bd a21d 9ebc
00000010: df01 87bc cb1b 89bd 6bf0 adbb f07f 83bc

tcn.network.0.net.6.running_var f4 [8]
0.4269719 0.52231055 0.37715387 0.444617 0.5545118 0.44232118 0.4718872 0.44152987
00000000: 109c da3e 25b6 053f 501a c13e d7a4 e33e
00000010: 7cf4 0d3f ec77 e23e 339b f13e 3410 e23e

tcn.network.1.conv1.weight f4 [8, 8, 16]
-0.031991877 0.010792542 0.06055963 0.0024321037 -0.010968253 -0.021043384 -0.04283436 0.018642193
-0.05013315 0.0034405866 0.01307278 -0.05968343 -0.08542319 0.0035882825 0.06062776 0.03914479
0.031971876 0.009035092 0.067139804 0.026700415 -0.04940825 0.026863478 0.019603897 -0.02462919
0.019429335 -0.03716406 -0.0674463 -0.086165965 -0.04058717 0.08961839 0.08300689 0.0940178
0.020665495 0.0055378806 -0.016856637 -0.010244156 0.011043932 -0.009580946 0.014875038 -0.034236103
0.0012906888 0.006552517 0.0097962115 0.009693733 -0.025393125 0.026389206 0.014278208 0.008141526
0.0045650993 0.01680522 -0.030387318 -0.028962178 0.015011087 0.03275673 0.021243894 0.002306403
-0.028178874 -0.0029803847 0.03374425 -0.014121551 -0.03445588 0.05861003 0.051259533 0.04980999
-0.016038872 -0.0029601483 -0.026556745 0.034922823 0.017300282 -0.027692683 -0.035374075 0.0034617197
0.041955188 -0.008829563 -0.044739194 -0.040717117 -0.014132412 -0.060547348 -0.04349386 -0.05730299
0.0494746 0.04432531 -0.04074681 -0.026707817 -0.055020876 0.0068234536 -0.00941849 -0.0075760023
-0.06560808 0.01869433 0.020538509 0.025421316 -0.010535276 0.08115134 0.049417756 -0.08368491
0.008290506 0.013090913 -0.010791688 0.004102184 -0.023449756 0.0051696706 -0.0043414105 0.0018806888
0.042359315 0.012943185 -0.0291206 -0.032405633 -0.05737074 -0.07143012 -0.102980375 -0.024823524
-0.039250612 0.0058409385 0.035167772 0.0025661143 0.030235821 -0.042128164 -0.01931955 -0.076199204
-0.025617793 -0.027312467 -0.07360008 -0.07932751 -0.110096976 0.020147456 0.028035283 -0.0040674563
0.04270241 0.031034585 0.008451567 -0.025775783 0.020611089 0.005762638 -0.018241547 0.05686474
0.026775664 0.027145596 0.009771593 0.011749102 0.054028098 0.01662695 0.03898788 0.0495025
-0.010566998 0.0016553666 0.031810775 -0.047195684 -0.046358015 0.015965149 -0.0340801 -0.05029597
0.034736093 0.004903809 0.034334574 -0.020838039 0.03852382 0.048859835 -0.0381847 -0.03456262
-0.009627369 -0.061726704 -0.014785498 -0.040915005 0.027544413 -0.009661437 0.007948251 -0.0006280114
-0.008674811 0.028257824 -0.00240448 -0.00080747483 -0.038461477 0.026669605 -0.002195757 -0.055880737
-0.033738915 0.031474914 -0.020879542 0.034723878 0.032850068 0.032113556 0.048437685 -0.021134377
-0.012246229 0.0082967095 -0.061172433 0.003460655 0.07594873 0.071774244 0.10798529 0.072429374
0.032778703 0.003574165 -0.043523654 0.005181637 -0.0051438888 -0.0067571537 0.04224308 -0.011413821
-0.004003853 -0.011949476 -0.011609462 -0.034049205 -0.04824579 -0.054078616 -0.0068450705 0.024928637
-0.011677474 -0.04319942 -0.007004848 -0.005789476 0.01483231 -0.0013150808 -0.033338085 -0.054134507
0.008421689 0.03568715 0.05321857 0.01885117 0.0007601059 0.018574981 -0.064950846 -0.08908534
-0.04329913 -0.0285639 -0.043529935 -0.01357587 -0.030669421 -0.061914954 -0.054543015 -0.040341973
-0.073924646 -0.027004868 -0.030301828 -0.042536855 -0.035935923 0.025157824 0.014338898 -0.054916393
0.025609698 0.014658811 -0.010839501 -0.0284871 -0.035777565 -0.0671501 -0.032607514 0.03703016
0.05848356 -0.009967575 0.0024096717 0.0036163926 -0.04318549 -0.00591392 0.0040649488 0.0110495165
00000000: ea09 03bd 34d3 303c 600d 783d ee63 1f3b
00000010: 30b4 33bc 2d63 acbc 1573 2fbd 83b7 983c
00000020: 6b58 4dbd 777b 613b 372f 563c 9d76 74bd
00000030: 5af2 aebd 6429 6b3b d054 783d 4a56 203d
00000040: f1f4 023d ec07 143c 9880 893d d4ba da3c
00000050: 4e60 4abd cc10 dc3c 5a98 a03c 28c3 c9bc
00000060: 452a 9f3c 5739 18bd 4921 8abd c877 b0bd
00000070: bb3e 26bd d989 b73d 84ff a93d 688c c03d
00000080: af4a a93c 1c77 b53b ee16 8abc 1bd7 27bc
00000090: 9cf1 343c 66f9 1cbc 6eb6 733c 283b 0cbd
000000a0: 542c a93a 7fb6 d63b 4a80 203c 77d2 1e3c
000000b0: 3e05 d0bc 2d2e d83c 25ef 693c 0964 053c
000000c0: d496 953b 1aab 893c d3ee f8bc 1742 edbc
000000d0: 10f1 753c ec2b 063d ad07 ae3c 0527 173b
000000e0: 62d7 e6bc 8f52 43bb 6937 0a3d 145e 67bc
000000f0: 9c21 0dbd 1211 703d 84f5 513d 8f05 4c3d
00000100: f463 83bc 0cff 41bb 888d d9bc 3c0b 0f3d
00000110: 52b9 8d3c c4db e2bc 68e4 10bd 05de 623b
00000120: 34d9 2b3d dfa9 10bc 7240 37bd fec6 26bd
00000130: a28b 67bc 7f00 78bd 9e26 32bd 8ab6 6abd
00000140: e1a5 4a3d 758e 353d 21e6 26bd 5aca dabc
00000150: 925d 61bd 4797 df3b 0350 1abc 1d40 f8bb
00000160: 875d 86bd da24 993c 6040 a83c 5d40 d03c
00000170: 269c 2cbc ac32 a63d 466a 4a3d fe62 abbd
00000180: e7d4 073c 457b 563c 9fcf 30bc 9d6b 863b
00000190: b419 c0bc 5766 a93b 6442 8ebb 7281 f63a
000001a0: f680 2d3d a70f 543c 538e eebc c5bb 04bd
000001b0: 95fd 6abd f449 92bd 60e7 d2bd b45a cbbc
000001c0: 40c5 20bd 5865 bf3b 150c 103d 412c 283b
000001d0: 1db1 f73c 958e 2cbd 0844 9ebc 540e 9cbd
000001e0: 68dc d1bc 65be dfbc a4bb 96bd 7676 a2bd
000001f0: 867a e1bd 470c a53c 40aa e53c 4c48 85bb
00000200: b9e8 2e3d 3e3c fe3c 7178 0a3c bc27 d3bc
00000210: 96d8 a83c 83d4 bc3b 4c6f 95bc 00eb 683d
00000220: a358 db3c 7160 de3c 0819 203c 4e7f 403c
00000230: 914c 5d3d 3e35 883c c1b1 1f3d 22c3 4a3d
00000240: 3421 2dbc e3f8 d83a 044c 023d 4350 41bd
00000250: e7e1 3dbd 58c9 823c 9397 0bbd 2603 4ebd
00000260: 6f47 0e3d 22b0 a03b 69a2 0c3d 89b4 aabc
00000270: 27cb 1d3d 4021 483d 8f67 1cbd 8991 0dbd
00000280: 1dbc 1dbc 24d5 7cbd e03e 72bc 7e96 27bd
00000290: d2a4 e13c 014b 1ebc 6239 023c 22a1 24ba
000002a0: cb20 0ebc f47c e73c 7b94 1dbb b8ac 53ba
000002b0: c889 1dbd 377a da3c b1e6 0fbb 33e3 64bd
000002c0: d131 0abd d7eb 003d 930b abbc a03a 0e3d
000002d0: cb8d 063d 8189 033d 9866 463d 0022 adbc
000002e0: 68a4 48bc ecee 073c f28f 7abd 28cc 623b
000002f0: 028b 9b3d 60fe 923d 6427 dd3d da55 943d
00000300: f642 063d 8a3c 6a3b dc45 32bd b9ca a93b
00000310: 118e a8bb 1d6b ddbb 1407 2d3d 0901 3bbc
00000320: c132 83bb bcc7 43bc 9d35 3ebc 2e77 0bbd
00000330: 619d 45bd 8a81 5dbd 9d4c e0bb 2437 cc3c
00000340: e052 3fbc e0f1 30bd ed88 e5bb a5b5 bdbb
00000350: 3803 733c ca5e acba 848d 08bd 25bc 5dbd
00000360: 20fb 093c b02c 123d b7fb 593d c56d 9a3c
00000370: d841 473a 8f2a 983c f304 85bd 6072 b6bd
00000380: 6e5a 31bd d7fe e9bc 724c 32bd 536d 5ebc
00000390: 703e fbbc 899a 7dbd 7f68 5fbd a03d 25bd
000003a0: ce65 97bd 5039 ddbc 8a3b f8bc 203b 2ebd
000003b0: 8c31 13bd c817 ce3c b2ed 6a3c 03f0 60bd
000003c0: 6ecb d13c 822b 703c 2a98 31bc c75d e9bc
000003d0: 7f8b 12bd fe85 89bd 758f 05bd f0ac 173d
000003e0: 758c 6f3d 0a4f 23bc 95eb 1d3b 0001 6d3b
000003f0: 45e3 30bd 8ec9 c1bb 4333 853b 0809 353c
