model/Benchmark/ablation/NoTCNet_b4_1s_S14.pth (torch, 101259 bytes, 26 tensors)

global_block.conv_time.conv.0.weight f4 [8, 1, 1, 125]
00000000: 0cf6 a3bd f4ec 0fbd 057a 44bd e8d6 3dbd
00000010: 383a c7bd fc9c 3cbc 14e8 5ebd ed84 c3bb
00000020: d691 ee3c 51c3 a03c 77c7 9a3d 48bc 823c
00000030: 4423 f83b 35e5 c53c ac7d 89bc 776f c03c
00000040: 99d5 edbc 46fa b43c a440 eabc dc4a b7bb
00000050: 9234 39bd 0461 4abd cc05 afbc b51e 69bc
00000060: 68a1 ebbb 357d cc3b 10fe 903c 10b4 0d3c
00000070: caef b73c c190 27bd f018 a23c a1ce d9bc
00000080: be19 1a3c af09 33bd ad2d e8bc 5aad de3b
00000090: cbc5 883d 877d b23c b283 a13d e1cb edbc
000000a0: 3c04 223c 3b88 25bd bdbd 553c f21f 823c
000000b0: 59ae edbc 5e70 4e3c 5777 963b c48f 40b9
000000c0: 1d23 b03d 186b 3d3d c6fc da3c b092 503d
000000d0: a974 2f3d b45c 303d bf4e 143d 4844 70bd
000000e0: 7043 ddbd 17c9 a7bd a57b 1ebd 13e0 f1bc
000000f0: 277c 16bd c491 debb 7779 c33c 368e 7e3c
00000100: 9221 173d ac9d 0abc a600 603c 4584 d7bc
00000110: 89d6 19bc 6f52 133c 52e2 d43b 8f37 613c
00000120: 6f34 f0bc 36b0 773d 0c94 103d e9d2 97b9
00000130: 5d87 0ebc 08e5 72bc ea88 b2bc 71ed c9bd
00000140: 51f1 71bd 33c9 6ebb d794 35bd 71b7 eeba
00000150: b6ba 77bd bd5c 43bb e3f8 2ebc 0ab3 95bd
00000160: 9007 a4bd fef2 74bd faa8 98bd a8b5 2ebd
00000170: cc64 d3bd 9a62 d4bd 88e1 09bd ef72 6fbd
00000180: ae29 9abc d285 2bbb 2263 dc3c 6e5a 193d
00000190: f5b5 e63c 329a 203c 5be9 043b f696 c33c
000001a0: 8578 933d be27 a53d 5542 573d f254 9e3c
000001b0: ff29 333c 06c4 a9bc 0a3c 47b9 39c4 87bc
000001c0: ddde 26bb 8a41 d7bc d914 013c 8f6a 653d
000001d0: 1e02 293d 316b 103c 39da d93c 3d1c 073c
000001e0: 2eac d8bc 9cca 263c 8e94 e63c c7b9 30bd
000001f0: ff30 8dbc 59d4 0b3b c20a afbb 3918 febb
00000200: 2e9c 983c 15bd 47bd 509b 8bbc 1568 36bd
00000210: e292 ffbc 7d96 62bd 9b2c edbc 6bb8 4e3b
00000220: a44c df3a 1edc 7ebc 5479 0f3c 59b3 1b3d
00000230: 5bd6 19bd 7c94 773c 76a0 42bd 40ea 35bd
00000240: 9613 6d3c d66a 3bbd 4a15 f0bc d07b 343c
00000250: c33d c7bb 7020 07bc 6d8a 6e3c 14e6 583d
00000260: 54dc b63c 0031 093d b385 25bd e933 96bc
00000270: d713 14bc cbe1 693c c577 5e3d d585 ea3c
00000280: e03c 2a3d ddae d93c 8139 dc3c 3650 053c
00000290: 01da 2bbd d7f1 90bd 4dfa 45bd 5db5 11bd
000002a0: f048 f23b 62f7 713b b09d 603b 8c7c f9ba
000002b0: 8879 e23d 93c3 d03d ca5f aa3d eef5 a13d
000002c0: 2a9f 2bbd 760d 0bbd c496 723a 0239 be3c
000002d0: 4d63 a3bd 3504 343c 9664 31bc 5585 763c
000002e0: 2ac4 1ebd 7199 b3bb e85a 9e3c 737d 953a
000002f0: 6b5f 8f3d f25d a2bc 1765 a73c 842a 0abd
00000300: 6ce8 92bb e119 b2bc 6aea 56bc 648d 74bc
00000310: 8081 43bc 5830 eb3a 583c 6dbc 5b7d 813c
00000320: 277e d9bc 2c56 d93c e0e9 83bd e51e f03c
00000330: af17 a03d 9414 a83d e590 8b3d 2ff9 243d
00000340: 94b2 bfbc 4fcf 72bc 8b3e 8e3a 6691 e2bc
00000350: 23c7 f4bc 151d d1bc f109 9ebd babb 9cbd
00000360: 301d 62bd 5481 63bc d394 f4bc b426 8ebc
00000370: 30ff 98bc 4928 57bc f4c1 703c 840c 363d
00000380: 8a72 3ebc 888f b83c 064c 00bd 12a3 253d
00000390: 94f3 eebb af93 b9bc a0db 033d efe6 00bd
000003a0: 70ee fbbc 8a41 763c 8bad 0f3c 2818 37bd
000003b0: 5e37 463d 61dc 10bd e06c 0fbc dd07 82bd
000003c0: 4d7c 7dbd 3d30 5dbd debd ddbc a39c 53bd
000003d0: c539 abbc 51d1 69bd 958d 21bd 9143 30bc
000003e0: 1cea bfba 5f1c 37bd 6325 9b3d 2347 7abc
000003f0: b63e ff3c 749e 323d 7d36 d3bc 2909 80bc
-0.08005914 -0.035138085 -0.04796793 -0.04634753 -0.09727901 -0.011512037 -0.054420546 -0.0059667737
0.029122274 0.019624384 0.07557576 0.01595892 0.0075725634 0.024157146 -0.016783558 0.02349065
-0.029032515 0.022091996 -0.028595276 -0.0055936407 -0.04521615 -0.049408928 -0.021365069 -0.0142285125
-0.007190872 0.006240512 0.017699271 0.008648887 0.022453208 -0.040909532 0.019787282 -0.026587786
0.0094055515 -0.043710407 -0.028342092 0.0067955675 0.06678351 0.021788372 0.07886447 -0.029027881
0.009888705 -0.040413123 0.013045725 0.015884373 -0.0290138 0.012600033 0.004591863 -0.00018364104
0.08600447 0.04624471 0.02673186 0.050921142 0.042835865 0.04305716 0.03620791 -0.058658868
-0.10803878 -0.08192652 -0.038692135 -0.029525792 -0.036739495 -0.006792279 0.02386163 0.015536835
0.03689725 -0.0084604435 0.01367203 -0.026308188 -0.009389528 0.008991822 0.006496706 0.013746156
-0.029321877 0.060470782 0.03529744 -0.00028958105 -0.008699265 -0.014825113 -0.021793801 -0.098597415
-0.059068028 -0.0036435842 -0.044331398 -0.0018212629 -0.060480796 -0.0029809915 -0.010679456 -0.073095396
-0.08009255 -0.059802048 -0.07454105 -0.04265371 -0.1032196 -0.10370369 -0.03366235 -0.05845922
-0.018818703 -0.0026172292 0.026902739 0.037439756 0.028162936 0.009802388 0.0020280692 0.023875695
0.07200722 0.08064221 0.052553494 0.019327614 0.010935306 -0.020723354 -0.00019000485 -0.016573058
-0.0025462427 -0.026276369 0.007878506 0.056009825 0.041261785 0.008814619 0.026593314 0.008246479
-0.02644929 0.010180142 0.028147008 -0.04314592 -0.017235277 0.0021336286 -0.0053418586 -0.0077543524
0.01862916 -0.048764307 -0.017041832 -0.044532854 -0.031197969 -0.055319298 -0.028951934 0.0031543027
0.001703639 -0.01555541 0.008756954 0.038012836 -0.03755794 0.015111085 -0.04751631 -0.04441285
0.014470002 -0.045756184 -0.029307026 0.011015847 -0.0060803606 -0.00824748 0.01455937 0.052953795
0.022321858 0.033493996 -0.04041071 -0.0183353 -0.009037933 0.014275025 0.05431344 0.02862827
0.04156196 0.02657264 0.026882889 0.0081368 -0.04195595 -0.07077377 -0.04833441 -0.035573352
0.0073939487 0.0036921133 0.0034273677 -0.001903431 0.110583365 0.10193553 0.083190516 0.079082355
-0.041899838 -0.033948384 0.0009254033 0.023220543 -0.079779245 0.010987331 -0.010827204 0.015046437
-0.038761295 -0.005480938 0.019330457 0.0011405185 0.070006214 -0.019820187 0.020433946 -0.033731952
-0.0044832733 -0.021740856 -0.013117412 -0.014926288 -0.011932731 0.0017943485 -0.014479719 0.015806844
-0.026549412 0.026530348 -0.064410925 0.029311607 0.07817017 0.0820705 0.06814746 0.040276702
-0.023400582 -0.014819934 0.001085238 -0.027657222 -0.029880112 -0.025526563 -0.0771674 -0.076529935
-0.055203617 -0.013885815 -0.029856121 -0.01735244 -0.01867637 -0.013132163 0.0146946795 0.04444553
-0.011623988 0.022529379 -0.0313225 0.04043872 -0.0072922204 -0.022653429 0.032191873 -0.031470235
-0.030753344 0.015030274 0.008769403 -0.04470077 0.048392646 -0.03536642 -0.008753985 -0.06349156
-0.06188612 -0.05400108 -0.027068075 -0.051663052 -0.02090157 -0.057084385 -0.039441664 -0.010758297
-0.0014641914 -0.04470479 0.0757549 -0.015275749 0.031157833 0.043608144 -0.025782818 -0.015629368

global_block.conv_time.conv.0.bias f4 [8]
00000000: 13ea 7fba 019a 3c3b 128e de3a dd48 b63b
00000010: 18c2 a4bb 60ad 88bb 4763 8e30 d730 5635
-0.0009762358 0.0028778317 0.0016979596 0.005562885 -0.0050280206 -0.0041710585 1.0360076e-09 7.9792284e-07

global_block.conv_time.conv.1.weight f4 [8]
00000000: 2bcd 863f 855e 703f 3fd3 783f 3214 6c3f
00000010: ba91 683f 6901 833f 96e3 5d3f d3a5 593f
1.0531362 0.93894225 0.97197336 0.92218316 0.9084736 1.0234805 0.86675394 0.8501865

global_block.conv_time.conv.1.bias f4 [8]
00000000: 1b40 da3b fe7c f53d 34f3 663c fe3e 21bd
00000010: 23a0 e4bc 9b02 3fbd 827f fcbd 221a 313c
0.006660474 0.11986731 0.01409607 -0.039366715 -0.02790839 -0.046633344 -0.12329008 0.010809453

global_block.conv_time.conv.1.running_mean f4 [8]
00000000: 472b 5f3c a205 cdba ca87 323c ebf8 863b
00000010: 32d1 32bc 0d6a 29bc f8b5 883b 5df5 03bc
0.013621158 -0.0015641937 0.010896632 0.004119029 -0.010914134 -0.010340226 0.004172083 -0.008054105

global_block.conv_time.conv.1.running_var f4 [8]
00000000: b5b5 4241 c9ec 1c41 597a 2741 a542 f440
00000010: f59f 1a41 1b1a 6841 afc7 2641 c8f5 0541
12.169362 9.807809 10.46737 7.6331353 9.664052 14.506373 10.423751 8.372505

global_block.conv_chan.conv.0.weight f4 [8, 8, 11, 1]
00000000: 96df 26bd 3ace 0b3d 76b0 d6bc 4d1a 41bd
00000010: 5f43 333d ab66 6dbd a0f9 853c 0633 d4bc
00000020: aa43 46bd 1547 abbd 36f2 6f3d 7cf1 c63d
00000030: 5b2d 6cbd a2be e23c 4ab7 363d 67d5 013d
00000040: 7574 66bd ad30 5bbc 755d d7bd 08e2 6b3b
00000050: c64c 43bd 985d 913d 2a03 92bd 5d4d 4fbc
00000060: e6dd 623d 4873 5cbd 703f 653c ca9e aabc
00000070: ecac be3d c7bd 20bd 1ef1 26bd 30cb 21bc
00000080: 939c 893b 1cbb 543d ab43 5fbd 3049 9ebd
00000090: 5d38 e13c 062e fabb 353c edbc b840 3a3d
000000a0: 1e8a a8bd b858 07bd 5ac4 123d 9a8c d43c
000000b0: 28d2 80bd c443 73bc 6f5c 9ebd c3e4 903c
000000c0: 0513 d0bc e567 8a3c 25b8 6d3d eeeb 903c
000000d0: 64f1 623d df86 0bbd fbe5 60bd 5a84 1b3a
000000e0: a5eb 033e bbaa c83d ccdc fdbd ccc6 fbbd
000000f0: 5a4f 1fbc b080 5c3d ff68 353e 3eae 04bd
00000100: 8fd9 8e3d cc92 6abd 98b2 d43c 5b12 283d
00000110: dbd8 313c ca77 cbbc 6a9f db3c 9b8e a8bd
00000120: 7f50 7f3d cc5c 383d 362f f53c 47a7 b93c
00000130: b60a acbb 4544 5dbd e342 6cbd 0771 63bd
00000140: e573 203d 2a29 20bc 084a c93d 8d20 2a3d
00000150: 8673 fbbd 9e26 373c dcfd c1bc 289f d13c
00000160: 0a90 8a3c 76bf 753c ca38 80bc 66e3 43bd
00000170: aa0e 45bd 0ba5 4abd 4438 e53c c34f 733d
00000180: 5502 b03d d767 1e3d 1963 60bd 2240 89bc
00000190: 043b c939 6f40 cd3c b786 b2bd 08f3 683c
000001a0: c3bf 24bd 2561 a1bd 7d05 473e 1d2a 1e3e
000001b0: 512d 37bc 429a 8fbd 2b6e ba3d 9afa c5bd
000001c0: 443e 0fbc deb7 053d 8bfb 323d 9135 4d3d
000001d0: 07a5 e6bd f55b f2bd c31c f9bb 0974 823d
000001e0: 781e ab3d d6f4 cabc 7204 763d f1d3 b7bc
000001f0: 7132 f7bc dacb 42bd eb27 58bd 53ec ed3b
00000200: 5029 333e 183e cf3d 5faf 80bd 3ccf e0bd
00000210: 8e32 fc3c 5713 b73c e5c9 8abd ca72 9cbd
00000220: 2e1e 143c ab67 8ebd 5e25 a33d 98f9 aabb
00000230: 94f7 733d b1f5 083b da83 02bd 9e83 1bbd
00000240: 63ed 4c3d 8077 383d bded 37bb 5a99 83bd
00000250: 2ec1 813c 2339 903d 1015 4fbd 9dde 87bd
00000260: e25e 13bd be69 383d 4aba 59bd c772 c4bc
00000270: 34ab 21bd 2609 253d 69ce 8f3c 1166 e63b
00000280: 36d0 903c 5a50 efbc 8443 843c f0c3 c9bc
00000290: f0a4 663d f272 1cbd 0bd1 bd3c 0dd2 6a3c
000002a0: 2410 9fbd 2409 f8bd 120d e03c 3385 e03b
000002b0: 58d6 2c3e 8652 323d f5d6 05bc 48e5 63bd
000002c0: b062 0dbd e3c1 bfbd 738b 8ebd 1e74 083e
000002d0: 3183 f53d afc7 993d abed bbbd b5b9 17bd
000002e0: d8c5 9dbc bc5f 383d eb9e 233d 34da 74bd
000002f0: fea3 4abd 8733 ad3c 6c86 b9bd 4ae5 a23d
00000300: 1f82 2dbd dff3 453d 105c ce3d ab21 a43d
00000310: 6c23 2cbd cfa4 ffbc 7a8c 6f3c b627 073e
00000320: ab0e 83bd 0296 59bd d2da b3bd 35be 9cbd
00000330: 4185 bdbc a3ca 5a3e 3177 583d 16d8 97bc
00000340: b400 b1bc 83fe df3b 661a 18ba 030b 3b3d
00000350: 32dd f7bd 54c9 30bd 3e4f 6abd 5475 e13c
00000360: 3303 d53d a824 7e3d f281 523d 80cd 2fbd
00000370: 9830 08bd 4098 a6bd 8f6c 9f3b 944a 8a3d
00000380: ce57 703d 75d2 823d 1901 91bd a19b 54bd
00000390: 5f9e 6d3c fe72 83bd e591 813c b364 cb3c
000003a0: 9621 cd3b a32f 2fbd 212d 1b3d be90 e0bc
000003b0: 3ae3 9a3c 4cd8 3dbd cb80 efbb 8da6 b7bd
000003c0: 7226 003d aa48 6b3d 9223 06bd 07bd 663d
000003d0: f2b6 96bd f7d1 413b f602 12bd 6a5c 2c3d
000003e0: 9191 9bb9 3ab7 12bc f692 ce3d 3e92 2d3d
000003f0: 16da b1bd 45a6 8bbc f1a2 c43c c969 acbc
-0.040740572 0.03413222 -0.02620719 -0.047144223 0.043765422 -0.05795924 0.016354382 -0.025903236
-0.048404373 -0.08363167 0.0585806 0.09714028 -0.05766044 0.027678791 0.04460839 0.031697657
-0.056263406 -0.013378304 -0.105158724 0.003599288 -0.04768064 0.0709793 -0.0712951 -0.012652722
0.0553874 -0.05382088 0.013992175 -0.02082767 0.09310326 -0.039243486 -0.04075729 -0.009875104
0.0041995733 0.051936254 -0.054507893 -0.07728803 0.027492696 -0.007634881 -0.028959373 0.045471877
-0.08229469 -0.033043593 0.035831787 0.02594595 -0.06290084 -0.0148477 -0.07732474 0.017687207
-0.025399694 0.016895244 0.058036942 0.017690625 0.05540599 -0.03406417 -0.054906826 0.00059325027
0.1288286 0.09798189 -0.12395629 -0.12293777 -0.009723509 0.053833663 0.17715834 -0.032392733
0.0697509 -0.057268903 0.025964066 0.04103313 0.010854925 -0.024837393 0.026809413 -0.08230325
0.062332626 0.045010373 0.029929738 0.022662772 -0.0052503003 -0.054020185 -0.057680976 -0.055527713
0.039173026 -0.009775439 0.098285735 0.04153495 -0.12277894 0.011178641 -0.02368062 0.025588587
0.016914386 0.014999261 -0.01565208 -0.047824286 -0.048109688 -0.049473803 0.027980931 0.05940224
0.08594195 0.03867325 -0.054782007 -0.016754214 0.00038381678 0.025055138 -0.08717101 0.014218099
-0.04022194 -0.07879857 0.19435687 0.15445752 -0.011180238 -0.07011844 0.09103044 -0.09666939
-0.008742873 0.032646053 0.04369692 0.050099913 -0.11261945 -0.11833946 -0.0076023056 0.06369788
0.08355421 -0.02477495 0.060062833 -0.022439929 -0.03017542 -0.04755769 -0.052772444 0.007260838
0.17496228 0.10119265 -0.062834494 -0.10977027 0.030785825 0.02234809 -0.067767896 -0.07639082
0.0090403985 -0.06953367 0.079661116 -0.005217742 0.05956228 0.0020898397 -0.031864025 -0.037967317
0.050031077 0.04503584 -0.0028065287 -0.06425734 0.015839186 0.07042148 -0.050557196 -0.06634257
-0.03597916 0.04502272 -0.053156175 -0.023980511 -0.039469913 0.040291928 0.017554479 0.00703121
0.017677408 -0.02921312 0.016145475 -0.024629563 0.05630964 -0.038195558 0.023170969 0.014332307
-0.077667505 -0.121111184 0.027349982 0.006851816 0.1687864 0.04353573 -0.0081689255 -0.05563858
-0.034517944 -0.09363153 -0.069601916 0.13325545 0.119879134 0.0750879 -0.09176191 -0.03704234
-0.019259378 0.045013174 0.039946478 -0.059778407 -0.0494728 0.021142734 -0.09058842 0.0795389
-0.04236042 0.048328277 0.10076153 0.08014234 -0.04202597 -0.031206517 0.014620895 0.13198742
-0.06399282 -0.053121574 -0.08781971 -0.076534666 -0.02313483 0.21366362 0.052848045 -0.018535655
-0.02160678 0.00683576 -0.00058022735 0.0456648 -0.121027365 -0.04316075 -0.057204477 0.027521767
0.10401001 0.062046677 0.051393457 -0.04292059 -0.033249468 -0.08134508 0.004865236 0.06752506
0.058677487 0.06387798 -0.070802875 -0.05190623 0.014503091 -0.064184174 0.015816638 0.02482829
0.0062601073 -0.04277004 0.037884835 -0.027412768 0.018907178 -0.046348855 -0.0073090545 -0.08967314
0.031286664 0.057442345 -0.032748766 0.056332614 -0.07359113 0.0029574612 -0.035647355 0.04208032
-0.0002967236 -0.008954817 0.10086624 0.042375796 -0.08684175 -0.017047057 0.024003478 -0.021046536

global_block.conv_chan.conv.0.bias f4 [8]
00000000: d17d 09b3 b7cb 663d 073e 56ba b3ff a6bc
00000010: 9767 e93d 9223 3fbc abbb 493b 8483 f63c
-3.2012228e-08 0.05634662 -0.0008172695 -0.020385599 0.11396711 -0.0116661955 0.0030782025 0.030092008

global_block.conv_chan.conv.1.weight f4 [8]
00000000: 9067 c33f 1630 ca3f 1e88 ce3f 8ddf cd3f
00000010: 1d0b c83f 3439 cc3f 94e6 d13f 7188 c03f
1.526598 1.5795925 1.613529 1.6083847 1.5628392 1.5954957 1.6398492 1.5041639

global_block.conv_chan.conv.1.bias f4 [8]
00000000: 1fc8 acbd 07e9 d8bd da4f f3bd cad8 6abd
00000010: c8e9 e9bd fa5f c8bd caca cbbd 7aa7 a5bc
-0.084366076 -0.105913214 -0.11880465 -0.057335652 -0.11421543 -0.09783931 -0.09950788 -0.02022146

global_block.conv_chan.conv.1.running_mean f4 [8]
00000000: fc44 1dbd f38d b33d a96d b33b 602a a8bd
00000010: 2d53 dc3d 4aba 50bc dbfb b43c 3d5e 223d
-0.038395867 0.08767309 0.005475719 -0.082112074 0.10758052 -0.012739727 0.02209275 0.039640654

global_block.conv_chan.conv.1.running_var f4 [8]
00000000: 7deb a93d 3301 c43d 66b3 9f3d 2fcd bb3d
00000010: 9c4a bb3d 8698 bb3d b6e5 9b3d d7f5 a33d
0.08296869 0.09570541 0.077978894 0.09169995 0.0914509 0.09159951 0.07612173 0.080058746

local_block.conv_time.conv.0.weight f4 [8, 1, 1, 51]
00000000: 23a6 86bd 5f68 7bbc 877e f5bc 3e89 42bc
00000010: 2b56 db3b 442f 39bd 2f33 be3d 152f 8d3d
00000020: e3ed 213e 2153 a83d 82ff 2abc a6f0 6dbd
00000030: 3707 943c 6eb3 9bbd 82bc 803d b964 a43c
00000040: 7da0 b5bc 97f9 bd3c b0d3 483c a0c0 9e3c
00000050: 6e73 6cbd dfc4 e0bc bce6 55bd d8e0 9cbd
00000060: 64ca c5bd d845 2fbd 1636 88bd 0e24 2fbd
00000070: 498c ae3c eaab f53d 794c ed3d 6934 323e
00000080: c7a1 123e a87f 8e3c 50b9 6b3d e415 ccbc
00000090: 61a3 19bd 055e ccbd 3fac c83a 0c45 473c
000000a0: a21b ca3c 15b0 7dbd 4a3f 603d 10b6 a83c
000000b0: 71ed a7bc a18f a6bd dc9f 59bd 38be c0bd
000000c0: dfc3 7ebd 8a7f 333c 8c28 91bd c3be dd3c
000000d0: e1c6 f4bc 1db7 01bc 964c f7bc 2572 b83c
000000e0: db08 7ebc 2650 f9bc e1c8 103c b637 bbbd
000000f0: f7f3 ad3c 6355 a2bd 154d 1a3d 1234 e73c
00000100: 46ba 5c3c 1c57 b13d 74de b83d 07a3 1d3d
00000110: d2d3 84bd 87e5 f4bc 7e3d 32bd 82cc f1bd
00000120: c4b1 443b d6e5 53bd 05fe f7bb 3ebd a53d
00000130: 1e98 103c 7970 433d fc9e 463d f5ef bf3c
00000140: 7c0a 9dbc 0644 57bd 18be 9d3c e679 ddbc
00000150: fe7c b73c 30f4 a73d 3d87 d33c 7951 a13d
00000160: cbb4 583d f248 9e3d 41d2 803d 2a30 303d
00000170: f304 733d c4e1 6d3b b38d babc 4b91 1cbd
00000180: 3517 1a3d 3f96 d8bc 2b5b a83a c034 86bd
00000190: 0964 92bc f275 c8bd f12a c2bc 4c55 61bd
000001a0: ecaf 493d f477 65bd 6066 0ebd aeb2 113d
000001b0: bb5c 1f3d 4493 913d b6c5 133e ca78 973b
000001c0: b437 853d 55c5 6ebc 5938 9cbd 0bc5 31bd
000001d0: 2f64 c7bc d668 8ebc 7473 aebc 04f6 f73c
000001e0: ac98 14bc a10b fc3d fee6 c93d 3604 403d
000001f0: e48f 8b3d 3c33 66bd 1864 25bd 14cd e3bd
00000200: 265f 31bd a884 d6bd 6869 b5bd 04ea 76bc
00000210: 2fbc 23bd 9c90 51bd 7d22 073c f6fc 35bc
00000220: 3bde d13d ee12 af3d 140c e83d 2433 043e
00000230: 7b46 adbb 2291 143d ebb4 503d da65 dfbc
00000240: 82dc 62bd 007f 963c b5d6 a4bd 695f bbbd
00000250: fe69 0ebe a706 f4bc a3e8 d9bc 0203 9dbd
00000260: 5406 a13c 2392 f33c 0cba 20bc 9c42 e4bc
00000270: a121 cdbb fbcb 393d acb4 03ba 280f eebc
00000280: a11b 7dbd 8b2e 8e3d 81b4 99bc 4c5e 933b
00000290: 11b3 5f3d 4633 0ebd a054 593c 7632 5a3d
000002a0: 6e72 6ebd 6e9c 4d3d e3d6 c23b 099e 9ebc
000002b0: 4617 8d3d 6736 5f3d 6bcd 4a3b 3396 813d
000002c0: 47b5 3abd 6b86 8ebc 0411 0cbc 1fe5 b7bd
000002d0: df9e a8bd 7e30 ebbd cf4f 99bc 85bb abbd
000002e0: aa4a fb3d 1e21 993c 8add ee3d b0d3 093e
000002f0: 6d05 8e3d 2276 d53c d8d9 2e3d 3b4f aeba
00000300: a58d 00bd a14c 94bd 46be 7fbc 734d 24be
00000310: a49c aabc 252e 43bd 7f3a 36bd 342c 2a3d
00000320: 7a32 54bd abdb a43d f934 a83b 0644 b93d
00000330: 905e 24bc d43d b93d fbf7 5cbc 053b 6a3b
00000340: b54a f3bb 4fc6 67bd 9a90 d73c 55c1 36bd
00000350: 69e2 acbc c534 0ebd 29dc c5bd 4ff2 c5bd
00000360: a074 0fbe b1c1 1fbd 31b9 5ebc 9c48 febc
00000370: f5b9 c13d 2077 39bd 5663 a93b 066c 253d
00000380: eca2 823c 1394 ab3d 8fb8 8d3d cf44 85bc
00000390: bc85 81bd 9f71 0fbd c731 bd3c 4b8b b8bd
000003a0: edc7 04be a0c5 d1bc e25d e739 fedd 1dbd
000003b0: acce 6bbd 0a8f 803c c56d 66bd beca bfbd
000003c0: 3ed1 86bb 9307 e7bd 9bc2 a2bd a045 593d
000003d0: 1046 c4bc 76e7 1bbd 0058 943d 8431 c53d
000003e0: 828e 3ebc 5897 d43c 57c9 70bd f75f d7bc
000003f0: ce38 f3bc 4cbf 943c f208 a33c 4388 adbd
-0.06574657 -0.015344708 -0.02996756 -0.011873541 0.0066936216 -0.04521109 0.09287106 0.06893746
0.15813403 0.082189806 -0.010436894 -0.05809083 0.018069847 -0.07602583 0.06285955 0.02006756
-0.022171253 0.023190303 0.0122575015 0.01937896 -0.05772727 -0.027437625 -0.052222 -0.07660073
-0.096577436 -0.042791218 -0.06650941 -0.042758994 0.021307128 0.11995681 0.115868516 0.17402805
0.14319526 0.017394856 0.057549775 -0.024912782 -0.037509326 -0.0997887 0.0015310122 0.012162458
0.02467138 -0.061935503 0.054747857 0.020594627 -0.020498963 -0.08132864 -0.05313097 -0.09411281
-0.062198516 0.010955701 -0.07087812 0.027068501 -0.02987999 -0.007917193 -0.030187886 0.022515366
-0.015505041 -0.030433726 0.008836956 -0.091414854 0.021234496 -0.079264425 0.037671167 0.028223071
0.013472145 0.08659193 0.090268046 0.038485553 -0.06485714 -0.029894603 -0.043515675 -0.11806585
0.0030013183 -0.05173286 -0.0075681233 0.08092736 0.00882533 0.047714684 0.048491463 0.02342985
-0.019170038 -0.052555107 0.019255683 -0.027035665 0.022398468 0.08200872 0.025821323 0.07876868
0.052906793 0.07728757 0.06290103 0.043014683 0.05933089 0.0036297897 -0.022772646 -0.0382245
0.03761979 -0.02643883 0.0012844553 -0.0655303 -0.017869966 -0.09788121 -0.023702117 -0.055012986
0.049240038 -0.0560226 -0.0347656 0.035570793 0.038906794 0.07108167 0.1443089 0.0046225535
0.06504765 -0.014573415 -0.07627935 -0.043400805 -0.024339763 -0.017383974 -0.021295287 0.030268677
-0.009069603 0.123069055 0.098585114 0.046879016 0.06814554 -0.056201205 -0.04037866 -0.111231
-0.04330363 -0.10474521 -0.08857995 -0.015070442 -0.039974388 -0.0511633 0.008247969 -0.011107674
0.10247465 0.085485324 0.11330429 0.12910134 -0.005287943 0.036271222 0.050953787 -0.027270246
-0.055386074 0.018371105 -0.080487646 -0.091490574 -0.1390762 -0.029788328 -0.026600188 -0.07666589
0.019656338 0.02973277 -0.009809982 -0.027863793 -0.0062601124 0.045360547 -0.00050241756 -0.029059961
-0.061793927 0.06942471 -0.018762829 0.004497325 0.05461413 -0.034716867 0.013264805 0.05327078
-0.058214597 0.05019801 0.0059460266 -0.019362466 0.06889205 0.05449524 0.0030945193 0.06327476
-0.045583036 -0.01739808 -0.008548979 -0.08979248 -0.08233427 -0.114838585 -0.018714814 -0.08385376
0.122701004 0.01869255 0.11663349 0.13459659 0.06934629 0.026057307 0.04268822 -0.0013298759
-0.031385083 -0.07241178 -0.01560933 -0.1604517 -0.020826645 -0.04765143 -0.04448938 0.04154606
-0.05180595 0.08049711 0.005133268 0.090461776 -0.010032311 0.09044996 -0.0134868575 0.0035740745
-0.0074246773 -0.056585606 0.026314069 -0.04461797 -0.021104055 -0.034718294 -0.09661133 -0.09665357
-0.14009333 -0.039003078 -0.013593958 -0.031040482 0.094592966 -0.045279622 0.0051693125 0.040386222
0.015946828 0.08377852 0.069199674 -0.016268162 -0.06324336 -0.035020467 0.023095025 -0.09010943
-0.1296689 -0.02560693 0.00044129702 -0.038541786 -0.057570145 0.015693206 -0.056257028 -0.09364842
-0.004114299 -0.112807415 -0.07947274 0.053044915 -0.02395919 -0.038062535 0.07243347 0.09628585
-0.011630656 0.025951073 -0.058785763 -0.026290877 -0.029690173 0.018157624 0.019901726 -0.084732555

local_block.conv_time.conv.0.bias f4 [8]
00000000: c698 633b 8d7e 9ebb fe61 413a c756 223c
00000010: 3fa7 bb3b 87a6 c43c ee87 073d 6a93 403d
0.0034728511 -0.0048368634 0.00073769677 0.009908385 0.0057267244 0.024005188 0.033088617 0.047015585

local_block.conv_time.conv.1.weight f4 [8]
00000000: 334b 813f 52c4 403f e7fa 593f e50e 6f3f
00000010: a234 633f ac51 633f 6b93 663f 7e68 4e3f
1.0101074 0.7529956 0.8514847 0.933821 0.88752186 0.88796496 0.9006869 0.8062819

local_block.conv_time.conv.1.bias f4 [8]
00000000: 6eda 523b cc96 273e a6d9 9e3e 1a6d aa3e
00000010: 67fb 6bbc c3de 2b3c 5fad 033e 3a62 483e
0.0032173651 0.16366118 0.31025428 0.33286363 -0.014403201 0.010490122 0.12859105 0.1956872

local_block.conv_time.conv.1.running_mean f4 [8]
00000000: 1f01 943c 67f7 06bb b26c f03b 58a7 803c
00000010: 1cca a0bb b11e d03c 9bda 193d e141 453d
0.01806694 -0.002059424 0.0073371762 0.015704796 -0.004906906 0.02540526 0.037561994 0.04815853

local_block.conv_time.conv.1.running_var f4 [8]
00000000: c68a 7f41 d818 c940 fb83 8d41 a3e9 2d41
00000010: 2f77 1b41 f1eb e240 26b6 eb40 5ec4 ed40
15.97138 6.2842827 17.689444 10.86954 9.716598 7.0913014 7.365985 7.4302206

local_block.conv_chan.conv.0.weight f4 [8, 8, 11, 1]
00000000: c617 a5bd 8532 ee3d d94e 0e3d 3469 a8bd
00000010: 500a 8fbd a775 36bd 62a5 ce3b d4de 633e
00000020: 0d48 0fbd eb4e b13c 5726 46bd 2fcd 003d
00000030: d28a 323d 9a14 8b3d 379f 73bc adba 42bc
00000040: 4535 45bc 607f 8dbd 3d27 b9bd 0479 e43b
00000050: 1c69 343d 5b2d 113d c2b0 83bc b5c6 5b3d
00000060: 3e0d c53d c85a 74bd 50a7 8cbd 79ec 83bd
00000070: 10ba 2c3c 7b89 0f3e 13d3 44bd a7a7 8e3d
00000080: 5e55 e7bd 2117 793c b836 e9bc 992a 02bd
00000090: de11 51bb 4355 c7bc 0cf6 083d be7a ccbc
000000a0: 24ae ef3d 7114 22bd 9916 903b e287 693d
000000b0: 5cb3 88bd 243e 013c 3c13 10be d15d eebc
000000c0: c367 8a3c 3efb 4dbd bcbf bd3d c3ae 6b3d
000000d0: abea d03c f8c7 dc3c 002f 5e3c 4e31 afbc
000000e0: 1fd6 2e3d 4726 3c3d b61a 7b3d abaf 1b3c
000000f0: daf4 20bd c88c 023d 2a58 6ebd 1376 06be
00000100: 339e 0b3c 811c f83b c45d 26bd 7bad d2bc
00000110: c069 e0bd 5bd1 7f3d a970 ef3b 9f38 3d3d
00000120: 4289 dd3c 91b1 903d 8c6e 6a3c 612b 55bd
00000130: 97e6 ba3c b2a1 3ebc ec75 353c 15a2 673d
00000140: 2df2 b2bd e49e 3abd cd33 2cbd f861 393d
00000150: ac7c 0a3e 7bd1 d93c b6e6 dcbc 9d5e 80bd
00000160: 6ae2 c73c f04f 36bd be11 efbc adbb ff3c
00000170: 310e 583d a003 83bb 9b57 45bd 3215 8bbb
00000180: ab67 0abd c556 b63c e771 b2bb d69f 2fbd
00000190: e266 1f3b 6443 39bc 2ed6 223d 7d8a 60bc
000001a0: 2c34 2c3c a621 0f3d 2733 b4bc 0592 01bd
000001b0: 8dca 853d 1415 27bd 779f a6bd 3cae 073e
000001c0: 96a0 f8bb 3344 dabd a694 23bd 9408 bebd
000001d0: a4fb 153d 7765 8d3e 9350 0b3d 505c 9bbc
000001e0: 2441 bebd dc71 663d e234 35bd 5b05 213d
000001f0: 533c 113c 3304 00bc 7ec5 433d db2f ddbd
00000200: bdc6 2b3d b486 09bd 8222 51bd 4be7 963d
00000210: 47ed 333c 4730 08bd 59e2 163d 53a1 5cbd
00000220: f6d2 12bc 1aab a13d 3bb0 46bd f2d7 f9bd
00000230: 6156 003c 9459 b83c bb56 53bc 0d03 983d
00000240: 708d c1bd bc5b acbc 21ae 2e3d b1de f3bb
00000250: 35e5 f13c c132 fe3b cf8a 93bd 16bb a9bb
00000260: 09a7 3f3d 1bab 03bd 9b05 1dbd 87d5 34bc
00000270: ec6a 0cbd 4a9a 33bd 65b6 80bd 897f 48bd
00000280: 6f22 863d 6c0f 4e3e 9093 db3c 2924 41bc
00000290: 289f 9cbd 2948 f6bc 1225 0e3d 8b39 8cbc
000002a0: cf24 59bd 3733 b2bc aafc 6cbc 7be8 8fbd
000002b0: 82eb 303e 623c 7b3d b8c1 1e3d dc28 79bd
000002c0: 4a1b 4f3d 07b5 7ebd dab3 d5bd 25fa 093e
000002d0: fb63 d53d efcc fbbb 3041 a0bc c020 98bd
000002e0: 7d86 3bbc f72e 263d 3c59 bd37 40e0 c6bd
000002f0: 4286 a5bd 4e39 d7bd 0e8a ad3d 3bf8 fb3d
00000300: 478e 9d3c 5732 bd36 ecfa 72bd 62e7 af3c
00000310: d5e2 fcbc 7863 c33d d584 13bd 0552 eebd
00000320: 845a 523d d29a 273d 2d45 673d 7d55 1d3d
00000330: ccad c53c fa8d 92bd 6594 573d 6e66 3fbd
00000340: 320c 79bc 4e3a 1fbd 5c19 05bd 1210 98bc
00000350: 46f3 2e3d b7ea 853d c995 d13c 0cc7 9f3c
00000360: dbbd 8fbd f756 b0bd f30c 863d e955 3b3c
00000370: 206c e9bd 2700 ef3c 7caa 863d 0d59 bfbc
00000380: 240e 99bd 72c3 9a3d 9165 22bd d602 1f3d
00000390: f3f7 023c 0139 953d e674 bebc f51d 46bc
000003a0: e772 80bd 114d e3ba 5061 d73c 974b 123c
000003b0: db43 6bbc 2558 643d cc08 e3bd 0220 5c3d
000003c0: 23ba 01bd a59a 7a3d 89e5 3e3c dbc5 363d
000003d0: 6c1e aebd eaec 53bd 02eb 01bd 247b 623d
000003e0: 3c85 d6bd 0ef0 e13d 39df 28bc 0ae6 9a3d
000003f0: 0c5a 69bc f5a5 d1bd c8ed 363d 690a d2bd
-0.08061175 0.116307296 0.034743164 -0.08223191 -0.06984389 -0.044545796 0.0063063363 0.22252971
-0.034980822 0.021644076 -0.048376407 0.03144568 0.04358942 0.06791039 -0.014869503 -0.011885327
-0.012036626 -0.069090605 -0.09040687 0.006972434 0.044045553 0.035443645 -0.016075496 0.0536563
0.09621666 -0.05965689 -0.0686785 -0.06441588 0.010542408 0.14017288 -0.04805286 0.06965571
-0.112955794 0.015203268 -0.028468475 -0.031778906 -0.0031901519 -0.024332648 0.033437774 -0.024960872
0.117031366 -0.039570276 0.004397225 0.057014354 -0.06674835 0.007888351 -0.14069837 -0.02909747
0.01689518 -0.05028843 0.09265086 0.057539713 0.025502523 0.026950821 0.01356101 -0.021385815
0.04268467 0.04593494 0.06130477 0.009502332 -0.03929601 0.03187254 -0.05818955 -0.13130979
0.008521604 0.0075717573 -0.040616766 -0.025717488 -0.1095767 0.062455516 0.0073071313 0.046196576
0.027042989 0.07065118 0.014308583 -0.052043322 0.022815032 -0.011635231 0.011075478 0.056551058
-0.087375976 -0.045561686 -0.04204159 0.045259446 0.13524121 0.026589146 -0.02696548 -0.06268046
0.024399955 -0.044509828 -0.029183265 0.03121742 0.05274791 -0.003998235 -0.04817925 -0.00424447
-0.03379027 0.022258172 -0.005445707 -0.04287704 0.0024322798 -0.011307571 0.03975504 -0.013704893
0.010510486 0.0349442 -0.021997048 -0.031633396 0.06532774 -0.040791586 -0.08135884 0.13250059
-0.0075875027 -0.10657539 -0.039936684 -0.0927898 0.036616936 0.27616474 0.03401239 -0.018964916
-0.09289768 0.05626093 -0.044239886 0.039311748 0.00886448 -0.007813501 0.047795765 -0.10800143
0.04193758 -0.03357573 -0.0510583 0.073683344 0.010981864 -0.033249166 0.036836956 -0.05386479
-0.00896143 0.07893963 -0.04850791 -0.121993914 0.007833094 0.022503652 -0.012899096 0.07422457
-0.09450805 -0.021039836 0.04264653 -0.0074423184 0.02952824 0.007757515 -0.0720421 -0.005179773
0.046790157 -0.0321456 -0.038335424 -0.011037237 -0.034281656 -0.043848313 -0.06284789 -0.048949752
0.065495364 0.2012307 0.026803762 -0.011788406 -0.07647544 -0.030063706 0.03470332 -0.017117282
-0.05301362 -0.021752937 -0.014464537 -0.07026764 0.17277339 0.061336882 0.038758963 -0.060829982
0.050563134 -0.06218436 -0.104346946 0.13474329 0.104194604 -0.007684342 -0.019562334 -0.074281216
-0.011445639 0.040572133 2.2572109e-05 -0.09710741 -0.08082248 -0.10508977 0.084735975 0.123032056
0.019232882 5.6384993e-06 -0.05932133 0.021472637 -0.03086988 0.095404565 -0.03601535 -0.11636738
0.051355854 0.040919133 0.056462456 0.038411606 0.024130724 -0.07155986 0.052631754 -0.046728544
-0.0152006615 -0.038873963 -0.032494888 -0.01856235 0.042712472 0.06538909 0.025584118 0.019504093
-0.07018634 -0.08610337 0.065454386 0.011434057 -0.11397576 0.029174877 0.06575486 -0.023357892
-0.074734 0.075568095 -0.039647643 0.038821064 0.007993686 0.07286263 -0.0232491 -0.012092103
-0.06271916 -0.0017341693 0.02629152 0.008929155 -0.01435944 0.055748124 -0.11085662 0.053741463
-0.031671654 0.061182637 0.011651405 0.044622283 -0.08501896 -0.05173961 -0.03171826 0.055293217
-0.10474631 0.11032115 -0.010307127 0.07563408 -0.01424266 -0.10236732 0.04466036 -0.10255892

local_block.conv_chan.conv.0.bias f4 [8]
00000000: 1fad bdbb a11f d7bc c5e8 a53d 7371 123d
00000010: 86a3 cc3c 5683 903d 3ea3 833d dde6 0cb3
-0.00578846 -0.026260199 0.08101038 0.035752725 0.024980318 0.070563 0.0642762 -3.280626e-08

local_block.conv_chan.conv.1.weight f4 [8]
00000000: 365d ce3f c9d0 d23f 65f4 c83f 659c d13f
00000010: e46b da3f 4e44 cb3f 46d1 c23f 23dc df3f
1.6122196 1.6469966 1.5699583 1.6375853 1.7064176 1.588022 1.5220115 1.7489055

local_block.conv_chan.conv.1.bias f4 [8]
00000000: 45a3 25be a5e9 42be 1112 c4bd 33ff 92bd
00000010: 7cd3 e4bd fc3f 24be 2af0 5bbd 846f 21be
-0.16175564 -0.19034441 -0.095737584 -0.07177582 -0.1117315 -0.16040033 -0.053695835 -0.15765196

local_block.conv_chan.conv.1.running_mean f4 [8]
00000000: 9638 043d 9eed acbc ae57 2e3d 2620 903d
00000010: 5fbb 5abc 4fc7 723d 5a28 7a3d 6d8f eebd
0.032280527 -0.021109398 0.042564087 0.07037382 -0.013350337 0.059272107 0.06107364 -0.1164845

local_block.conv_chan.conv.1.running_var f4 [8]
00000000: 828e 9a3d fc23 733d cd5e ae3d e6b2 a53d
00000010: 2f2e df3d 45b4 c13d 3242 9d3d e3a7 c63d
0.075467125 0.05936049 0.085141756 0.08090763 0.10897481 0.09458212 0.076786414 0.096999906

fc.weight f4 [40, 496]
00000000: 1924 cabc eab1 39bb 33e3 1a3b 0c68 d4bc
00000010: d355 94bd 2999 00bd f11d 92bb 5229 babc
00000020: 4354 95bc fcb8 d0bc 23c7 133c e46b ad39
00000030: d648 f93c fa07 a73c 8432 88bc 36d7 343d
00000040: cacc 99bc 1ea2 b9bd 46fd 91bb c9c6 553c
00000050: 0364 7cbc f743 04bd 861c 923d 34ca d53b
00000060: 7b2e 1ebd 9ef6 a8bc 8fde b13c 3dc2 0dbd
00000070: 8fba 04bd 2813 80bc a538 29bc 5490 503c
00000080: e7f4 87bb 4a4b b1bc d732 edbc 421c 343b
00000090: 64dd 20bc eff8 0f3c e5d0 a3bc b80c f73c
000000a0: b9c6 933c 8295 5c3b be2d 88bd 107d 913c
000000b0: 1d09 013c e9c5 613c e5fc ddbc 925c d03c
000000c0: c973 fc3c ee0c f0bc 1b31 57bd 7554 b83c
000000d0: fe1f cd3c a5ac e2bc 5e20 b73c 51cd 903c
000000e0: 49e6 ea3c b56c f3bd 5f5b 293d 8dda 763d
000000f0: a449 90bc f455 14bd e3ec 033d 47da 25bc
00000100: 4d95 a73c 8346 2dbd 5b74 e33c 3588 a0bc
00000110: c89c 133d ae34 b5bc 7998 e53a a1f1 fd3c
00000120: 89b0 8f3d ea18 c1bd 080c b1bc 5b67 aebb
00000130: 8110 213d d483 21bc f4d2 d5bb 0f83 283b
00000140: 13c3 a53c d4cf b63c 71d1 e9bc a556 5f3c
00000150: 477b 47bb 54bd c23c 254b a7bc 00dc 093c
00000160: 8428 8e3c b50c 6dbd 2c6c a4bd 9619 b7bc
00000170: 8f90 6d3d 8182 6cbc bd30 753d 882d 32bd
00000180: 177f bd3c 8c61 60bd ee53 17bc b5f6 bdbc
00000190: 448d 423d e1bb 38bd 7d1d 89bd f72c e63b
000001a0: fd5d 503d 51f1 b1bd 6f42 89bd 9e43 dd3c
000001b0: 490b 8c3d aacb 87bd 4c39 f0bc 5197 0a3d
000001c0: 8c89 1e3d b9ca 3abd c0fe 8dbd 3cfd 4c3d
000001d0: 1745 933c 0ddb 9ebc 016e e8bd da75 033e
000001e0: 3b0d 7abd 58a6 06bc 0736 71bd d0db 1d3d
000001f0: 64a3 c23c 98ae c83c 2d65 6bbd 87e9 523d
00000200: 707e a83a 40df a0bc ecc4 22bd d985 eabd
00000210: d96d bb3a ad38 523b 092d 37bd e863 b9bc
00000220: 612a 3e3c b6b1 51bb 2fd7 23bd f95e 5fbc
00000230: 1485 aa3c f9c2 10bc 10c0 00bd 34c9 23bd
00000240: 62d3 1cbc 39d1 4dba 9f56 87bd e5ec 99bc
00000250: c2e7 acbb 8171 b4bb 7156 60bd 0099 d8bc
00000260: 981c 5ebc ff16 163b 9e18 1cbd db0c 673c
00000270: 0504 15bd d73d f73c c659 4fbc 8b6c fabb
00000280: b382 b5bd 73b9 443c dd4b 70bc e3d0 56bd
00000290: b049 a73b 87a4 a23c 1430 12bd f3e3 db3c
000002a0: 7a33 053b 78d4 c23b 26e1 e0bd 5a93 aa3b
000002b0: 8721 1bbc e5ad aebc 8aa5 92bd d045 af3c
000002c0: 894f 28bc 0a4b f1bc 76f5 94bc 4c96 d43c
000002d0: 4727 7ebb 2c0e efbb a87c 9bbd 3edf db3c
000002e0: 4292 eebc 5ca1 7cbc 8a2f 85bc 3a87 9abc
000002f0: fada 653d aa77 373d 04bb 06bd 3bc4 21bb
00000300: 5cd8 7cbb fd07 c93c 22b8 f8ba 0c0f 19bd
00000310: 6280 323c 4c31 42bc 5737 cc3c e8ee 5ebd
00000320: 33fb 3d3d 3abf 1c3b 79c6 14bc f4bb c1bc
00000330: a5a1 3b3c 92fd 343c 12a6 aebd 4ec2 51bd
00000340: f416 153d 5d9c 9cbc dd6c 03be 2f01 b7bb
00000350: 1b55 af3d 20ab e3bc 7caf ac3b 6c08 12bc
00000360: 347d 263d d6ab 9fbc eba8 fe3c 57c6 113c
00000370: bbcb 15bd 2e96 bdbc 597c f1bc 517f 753d
00000380: 41a6 633b 73f4 57bc c8e8 bdbb 4b39 ea3c
00000390: e172 a639 19b9 cbbc 6fe7 c7bc 9189 b33d
000003a0: 8c00 43bd 6dd9 b5bd 7281 8bbd f1af b93d
000003b0: fe8d c83b 4d1b 24bd 8168 1ebd ac7c 633d
000003c0: 49ea 4ebd b52c e9bc c2d8 2bbd bb9b b13d
000003d0: 7f1e b6bc 2c00 83bb 60f4 fabc b132 a43d
000003e0: 5167 143d 15dc 963c f3e6 e4bc 22d2 363a
000003f0: abd5 a63c 6fc3 83bb d32a 95bd 0336 88bc
-0.024675416 -0.0028334805 0.0023633956 -0.02592852 -0.07242932 -0.031396065 -0.0044591357 -0.022724781
-0.018228656 -0.025478832 0.009019646 0.00033077516 0.030430239 0.020389546 -0.01662565 0.044150554
-0.018774409 -0.090641245 -0.0044552414 0.013047882 -0.015404704 -0.03229138 0.07134347 0.0065243486
-0.038618546 -0.020625409 0.02171257 -0.03460907 -0.03240448 -0.015634134 -0.0103284465 0.012729723
-0.0041490677 -0.021642346 -0.028954906 0.0027482663 -0.009818409 0.008787378 -0.01999707 0.030157432
0.018039094 0.003365845 -0.0664935 0.01775983 0.007875708 0.013780096 -0.027098129 0.025434766
0.03081693 -0.02930304 -0.052537065 0.02250121 0.02503967 -0.027670214 0.022354301 0.017676027
0.028674262 -0.118859686 0.041346904 0.06026702 -0.01761324 -0.036214784 0.032208335 -0.010122842
0.020456934 -0.042303573 0.027765444 -0.019596199 0.03603819 -0.022119846 0.0017516754 0.030999007
0.07016093 -0.0942858 -0.021612182 -0.0053223795 0.03932238 -0.00985809 -0.0065253917 0.0025712883
0.02023462 0.022315897 -0.028542252 0.0136314975 -0.003043847 0.02377192 -0.020421574 0.0084142685
0.017353304 -0.057873446 -0.08028445 -0.022351068 0.05799919 -0.014435411 0.059860934 -0.043500453
0.02313189 -0.054780528 -0.009236319 -0.023188928 0.047498003 -0.04510105 -0.066950776 0.007024403
0.050870884 -0.086886056 -0.06702124 0.027009781 0.0683809 -0.06630643 -0.029324196 0.033835713
0.038705394 -0.045603488 -0.06933355 0.05004619 0.01797728 -0.01939156 -0.113491066 0.12837926
-0.061047774 -0.00821837 -0.058889415 0.038539708 0.023759551 0.024497315 -0.057469536 0.05149224
0.0012855064 -0.019637704 -0.03973858 -0.11451311 0.0014299705 0.0032077238 -0.044720683 -0.022630647
0.011606784 -0.0031996793 -0.040000137 -0.013633483 0.02081541 -0.008835548 -0.031433165 -0.039986804
-0.009571882 -0.0007851306 -0.066083185 -0.018789718 -0.005276651 -0.005506695 -0.054769937 -0.026440144
-0.013556622 0.002290189 -0.038109414 0.014102186 -0.036380786 0.030180855 -0.012655681 -0.007642334
-0.088628195 0.012007105 -0.014666525 -0.052445304 0.00510522 0.019853843 -0.035690382 0.026842093
0.0020324872 0.0059457384 -0.10980444 0.005205554 -0.009468443 -0.021323154 -0.0716048 0.021395594
-0.010272869 -0.029454727 -0.018183451 0.025950573 -0.0038780735 -0.0072953906 -0.07592136 0.026839849
-0.029122476 -0.01541933 -0.01625802 -0.01886331 0.056117035 0.044791855 -0.032893196 -0.0024683613
-0.0038581109 0.024539942 -0.0018975774 -0.037367865 0.010894867 -0.011852574 0.024928732 -0.054427058
0.04638214 0.002391769 -0.009080523 -0.023649193 0.011452113 0.011046784 -0.08527769 -0.051210694
0.036398843 -0.019117529 -0.12834497 -0.005584858 0.085611545 -0.02779156 0.005269943 -0.008913141
0.040646747 -0.019491117 0.031086406 0.008897386 -0.036571246 -0.0231429 -0.029478239 0.05993587
0.0034736546 -0.01318084 -0.005795572 0.028591773 0.0003174758 -0.024868535 -0.024402348 0.08766473
-0.047607943 -0.08879361 -0.06811799 0.09066761 0.0061204424 -0.0400651 -0.03867388 0.05553882
-0.0505164 -0.0284637 -0.041954763 0.08672281 -0.022231339 -0.003997823 -0.030634105 0.08017481
0.036231343 0.01841549 -0.027942156 0.0006974061 0.020365557 -0.0040211002 -0.07283559 -0.016627317

fc.bias f4 [40]
00000000: 24db bb3a 4c23 cdbc c480 6fbc d949 2f3c
00000010: a7ed 393d e2f2 513b 58d9 073d c8d7 233d
00000020: 8328 8fbc 9459 05bc 3bd7 25bb addd 5d3b
00000030: 43a0 b93c 24d0 6eba b388 203c 63ac 5cbb
00000040: d5bc 213b 1377 21b9 f797 21bc 5502 9f3b
00000050: c786 8d3b 2ffa a1bb 43cd 0bba 9b2e 24ba
00000060: a50a 37bc fe0b 1fbd ce58 28b8 2e9f 363c
00000070: 68bf 01bb a20f 1e3c 5c66 be3a 90e0 bcbb
00000080: 054f b4bd cbca f7bb 9bea f5bb 9526 143c
00000090: 2cf9 94bb 7d48 20bc d5cf 9bbc 8ad1 2b3c
0.0014332277 -0.025041245 -0.014618102 0.010698759 0.04539266 0.0032035639 0.03316626 0.040000707
-0.017475372 -0.008139033 -0.002530529 0.0033854053 0.022659427 -0.0009109995 0.009798217 -0.0033672086
0.0024679203 -0.00015398515 -0.009862891 0.004852573 0.004319045 -0.0049431543 -0.00053330156 -0.0006263048
-0.011171971 -0.038829796 -4.0137027e-05 0.01114635 -0.0019797925 0.009647282 0.0014526355 -0.0057640746
-0.08804134 -0.0075620166 -0.007504774 0.009042402 -0.004546305 -0.009782908 -0.01902 0.01048697
