model/Benchmark/ablation/NoTCNet_b4_1s_S35.pth (torch, 101259 bytes, 26 tensors)

global_block.conv_time.conv.0.weight f4 [8, 1, 1, 125]
0	0xbdb0ab22	-0.08626391
1	0xbd26f3cf	-0.040759858
2	0xbd52e705	-0.05148985
3	0xbd30c1ae	-0.043153457
4	0xbdc2dad6	-0.09514396
5	0x3b7e6d6d	0.0038822547
6	0xbd28cfd3	-0.04121382
7	0x3ac51297	0.0015035447
8	0x3d0af643	0.03392626
9	0x3cb0382f	0.021511165
10	0x3d9ded00	0.0771122
11	0x3c4e05bf	0.012574612
12	0xbaba4a54	-0.0014212825
13	0x3c356f62	0.011073919
14	0xbce3ec53	-0.02782265
15	0x3caafdc2	0.020872954
16	0xbce64cc1	-0.028112771
17	0x3cbdd00c	0.023170494
18	0xbd03b443	-0.032154333
19	0xbc791c97	-0.01520457
20	0xbd5cb624	-0.05388464
21	0xbd6a5832	-0.057213016
22	0xbce2b283	-0.027673012
23	0xbcaba5d8	-0.020953104
24	0xbbff3dd3	-0.0077893524
25	0x3c10e7b1	0.008844302
26	0x3c90f29e	0.017693814
27	0x3b9af743	0.004729183
28	0x3cebc940	0.028782487
29	0xbcbeefa2	-0.023307625
30	0x3d368458	0.044559807
31	0xbb128477	-0.0022356787
32	0x3d081482	0.033222683
33	0xbce86a74	-0.028371073
34	0xbc01b14f	-0.007915809
35	0x3cd51c1d	0.026014382
36	0x3da58387	0.080817275
37	0x3d0e62eb	0.034762304
38	0x3dc3a506	0.0955296
39	0xbd251a93	-0.040308546
40	0xbb97bfc8	-0.0046310164
41	0xbd7d097e	-0.06177663
42	0xbc74b587	-0.014935858
43	0xbbda792e	-0.006667278
44	0xbd5f3bcd	-0.05450039
45	0x3bde957b	0.006792722
46	0x3b84df74	0.004054958
47	0x3be33bc4	0.006934615
48	0x3dcf997d	0.101366974
49	0x3d8abe3d	0.06774566
50	0x3d345d27	0.04403415
51	0x3d90ca1a	0.07069798
52	0x3d6d5777	0.05794474
53	0x3d559026	0.052139424
54	0x3d349afe	0.044093125
55	0xbd5c9540	-0.053853273
56	0xbde2037a	-0.11035819
57	0xbdb413ec	-0.08792862
58	0xbd3e2a59	-0.046427105
59	0xbd2c12ed	-0.042010237
60	0xbd5802f4	-0.05273719
61	0xbc955688	-0.018229738
62	0x3c58e09a	0.013237143
63	0xba255687	-0.0006307144
64	0x3cbab49c	0.0227912
65	0xbcf0af8a	-0.029380579
66	0xbb1ee682	-0.002424628
67	0xbd3deb58	-0.04636702
68	0xbce95b79	-0.028486
69	0x3a105c64	0.00055069313
70	0x3bba7ff7	0.005691524
71	0x3c985a30	0.018597692
72	0xbcda09fd	-0.02661609
73	0x3d97cadb	0.074117385
74	0x3d66b40a	0.056324042
75	0x3c41e783	0.011834982
76	0xbb73c7d5	-0.0037197967
77	0xbc9e69f4	-0.019337632
78	0xbcb5872f	-0.022159187
79	0xbdb643ec	-0.08899674
80	0xbd5c50b8	-0.053787917
81	0xbc852e63	-0.01625747
82	0xbd35d263	-0.044390094
83	0x3c2c1223	0.010502371
84	0xbd5e2a5e	-0.054239623
85	0x3ca430cf	0.020042805
86	0x3c9914bc	0.018686645
87	0xbd3394fe	-0.043843262
88	0xbd5de841	-0.054176573
89	0xbd31a853	-0.043373417
90	0xbd86d951	-0.065844186
91	0xbd0f6cea	-0.035015978
92	0xbdc85c3b	-0.097832166
93	0xbdd5ff51	-0.10449088
94	0xbd1d7b63	-0.03844775
95	0xbd914645	-0.07093481
96	0xbce78f0d	-0.028266454
97	0xbc106db6	-0.00881522
98	0x3caa2df6	0.020773869
99	0x3cd4a5ea	0.02595802
100	0x3ca0dccd	0.019636536
101	0x3b56e9bf	0.0032793132
102	0xbb106758	-0.0022034254
103	0x3ce3d654	0.02781216
104	0x3dac2b4d	0.084066965
105	0x3dbd1097	0.0923168
106	0x3d65dc68	0.0561184
107	0x3c687609	0.014188298
108	0xba17643f	-0.00057751307
109	0xbcedb38b	-0.029016277
110	0xba84b37e	-0.0010124294
111	0xbc6746f5	-0.014116039
112	0xbb064ebb	-0.0020493704
113	0xbcee9b00	-0.029126644
114	0x3c382414	0.01123907
115	0x3d716da6	0.05894246
116	0x3d188187	0.037232902
117	0x3bdd8ef1	0.0067614247
118	0x3cf19f9b	0.029495051
119	0x3bef49be	0.007302492
120	0xbd29bb0b	-0.041438144
121	0x3a32e753	0.0006824631
122	0x3d041870	0.032249868
123	0xbd3c659e	-0.045995347
124	0xbc3b7ead	-0.011443776
125	0xbc5c235b	-0.013436164
126	0xbc6cbb95	-0.01444902
127	0xbca66470	-0.020311564
128	0x3cd6fe18	0.026244208
129	0xbd6fc2ef	-0.058535513
130	0xbb0f3864	-0.002185368
131	0xbd0de991	-0.034646574
132	0xbc8727f7	-0.016498549
133	0xbd281a02	-0.041040428
134	0xbc82a405	-0.015947351
135	0x3c1d3f1f	0.009597569
136	0x3b754528	0.0037425254
137	0xbca88013	-0.020568883
138	0x3c1c6609	0.009545811
139	0x3d5061be	0.050874464
140	0xbd1a93fe	-0.037738793
141	0x3cacb407	0.021081937
142	0xbd844533	-0.06458511
143	0xbd5ea427	-0.054355767
144	0x3c8aab56	0.016927402
145	0xbd3d5736	-0.04622575
146	0xbcefd11c	-0.029274516
147	0x3c887b6b	0.016660413
148	0xbc57c19b	-0.013168718
149	0xbceeb197	-0.029137416
150	0xbb8a1ba6	-0.0042147217
151	0x3d59ee57	0.053205814
152	0x3c3add67	0.0114053255
153	0x3cefef6a	0.029288966
154	0xbd93433b	-0.071905576
155	0xbcfb12eb	-0.03064867
156	0xbbded63d	-0.0068004415
157	0x3d021375	0.031756837
158	0x3da91b57	0.08257168
159	0x3d80bd23	0.06286075
160	0x3d9341f8	0.07190317
161	0x3d50813d	0.0509045
162	0x3d325939	0.04354212
163	0x3c88f798	0.016719624
164	0xbd5f04b1	-0.054447833
165	0xbda5cea8	-0.08096057
166	0xbd653fee	-0.05596917
167	0xbd4399c9	-0.047754083
168	0x3bc7d19e	0.0060979864
169	0x3bc5fe1a	0.006042254
170	0x3c6dc68f	0.014512672
171	0x3cace7c7	0.021106614
172	0x3e06c738	0.13161933
173	0x3df3ac64	0.11898115
174	0x3dbe4ddd	0.09292195
175	0x3daabdae	0.0833696
176	0xbd37f145	-0.044907827
177	0xbd29ce88	-0.04145673
178	0xbc82967a	-0.015940893
179	0x3b0f212c	0.002183984
180	0xbdbb44c3	-0.09143975
181	0xbc49bf3c	-0.01231366
182	0xbd18e208	-0.037324935
183	0xbbba2e45	-0.0056817853
184	0xbd9aede3	-0.075649045
185	0xbd26ac50	-0.040691674
186	0x3aeb0bf5	0.0017932641
187	0xbc22cdc2	-0.009936752
188	0x3d98e7dc	0.07466099
189	0xbc30ee88	-0.010799058
190	0x3d2ffe96	0.0429674
191	0xbc78f880	-0.015195966
192	0x3c803600	0.01565075
193	0xbaa7f6eb	-0.0012814676
194	0x3c2da3bb	0.010598118
195	0x3c4018b4	0.01172464
196	0x3c8aad59	0.016928362
197	0x3cd4811b	0.025940469
198	0xbc0ab185	-0.0084651755
199	0x3cd251e1	0.025673809
200	0xbcfec0c9	-0.031097787
201	0x3cd921b9	0.026505338
202	0xbd8f0a1d	-0.06984351
203	0x3cb89ff0	0.022537202
204	0x3d8a6dd7	0.067592315
205	0x3d8f3343	0.06992199
206	0x3d842ba3	0.064536355
207	0x3d26f244	0.040758386
208	0xbd145f5f	-0.036223765
209	0xbd0692b0	-0.032854736
210	0xbc3f6b75	-0.011683335
211	0xbd2f6c95	-0.04282816
212	0xbd1427c3	-0.036170732
213	0xbca1b038	-0.019737348
214	0xbda893c6	-0.082313105
215	0xbdabcabf	-0.0838828
216	0xbd939573	-0.072062396
217	0xbca0cae6	-0.019628
218	0xbd0efad0	-0.034907162
219	0xbca60ef7	-0.020270808
220	0xbcd21b14	-0.025647677
221	0xbc610d5c	-0.013736095
222	0x3c8ab2ce	0.016930964
223	0x3d24e82e	0.040260486
224	0xbcc8a8f9	-0.024494635
225	0x3cd5e03f	0.026107905
226	0xbceece55	-0.029151121
227	0x3d416379	0.047214005
228	0xbbd6e728	-0.0065583177
229	0xbcda4937	-0.02664624
230	0x3ce4eaa7	0.027943922
231	0xbd048749	-0.03235558
232	0xbce3bf9c	-0.027801327
233	0x3c98754f	0.018610625
234	0x3c3ab67c	0.011396047
235	0xbd0d2aa2	-0.034464486
236	0x3d57caa3	0.052683484
237	0xbcdbaaa4	-0.026814766
238	0xbbdbe742	-0.0067109177
239	0xbd7161ec	-0.058931276
240	0xbd83536d	-0.064123966
241	0xbd811cdd	-0.06304333
242	0xbd1781bc	-0.03698896
243	0xbd6ed764	-0.05831088
244	0xbc26ace1	-0.0101730535
245	0xbd268ad1	-0.04065973
246	0xbcb23481	-0.021753551
247	0x3c0c1bb0	0.008551523
248	0x3cbf466a	0.023349006
249	0xbcdcd883	-0.02695871
250	0x3db0c046	0.08630423
251	0xbc9f49fb	-0.019444456
252	0x3cc80813	0.024417913
253	0x3d225c6a	0.039638914
254	0xbd044ef5	-0.03230186
255	0xbc6cf1ea	-0.014461974

global_block.conv_time.conv.0.bias f4 [8]
0	0xba7fea29	-0.00097623706
1	0x3b3c9a07	0.002877833
2	0x3ade8e24	0.0016979617
3	0x3bb648d8	0.005562883
4	0xbba4c21c	-0.0050280225
5	0xbb88ad62	-0.0041710595
6	0x31864708	3.9079886e-09
7	0x3556c6f8	8.001075e-07

global_block.conv_time.conv.1.weight f4 [8]
0	0x3f874eeb	1.0570959
1	0x3f708cbe	0.93964756
2	0x3f776dc6	0.96651876
3	0x3f6de921	0.9293385
4	0x3f68cfe0	0.9094219
5	0x3f8347d1	1.0256292
6	0x3f5e130d	0.8674782
7	0x3f594a67	0.84879154

global_block.conv_time.conv.1.bias f4 [8]
0	0x3bbaa996	0.0056964858
1	0x3df4ff81	0.11962796
2	0x3b9054ed	0.004404655
3	0xbd0a0f56	-0.03370603
4	0xbd20e704	-0.039282814
5	0xbd40002f	-0.046875175
6	0xbe03ab6d	-0.12858362
7	0x3c1fb54b	0.009747813

global_block.conv_time.conv.1.running_mean f4 [8]
0	0x3bc694d4	0.006060222
1	0xbc249fe9	-0.010047891
2	0x3d063938	0.03276941
3	0xb9fbfc33	-0.00048062354
4	0xbc8af65b	-0.016963175
5	0xb9c6cefc	-0.00037919718
6	0xbb8b42db	-0.004249913
7	0xbd039330	-0.03212279

global_block.conv_time.conv.1.running_var f4 [8]
0	0x41396560	11.58725
1	0x41209cb4	10.038258
2	0x413e4596	11.891989
3	0x40e3416a	7.101735
4	0x411cff37	9.812308
5	0x4142b330	12.168747
6	0x4132df40	11.179504
7	0x40f66048	7.699253

global_block.conv_chan.conv.0.weight f4 [8, 8, 11, 1]
0	0xbd08b96e	-0.033379965
1	0x3d01339e	0.031543367
2	0xbcb94ebd	-0.022620553
3	0xbd239ce0	-0.03994453
4	0x3d6f1af9	0.058375333
5	0xbd1f21b2	-0.038850494
6	0x3cfe13ed	0.03101536
7	0xbca9aeaf	-0.020713178
8	0xbd0ff305	-0.03514387
9	0xbd9e465e	-0.07728265
10	0x3d830207	0.06396871
11	0x3dbeb2f7	0.093114786
12	0xbdae4c71	-0.08510674
13	0x3c82d7b4	0.015971996
14	0x3d0c21fc	0.034212098
15	0x3d3a3006	0.045455955
16	0xbd44e50a	-0.04806999
17	0xbb21aafb	-0.0024668563
18	0xbde3c0c7	-0.11120754
19	0xbab0285e	-0.0013439765
20	0xbd0443ad	-0.032291103
21	0x3dbad001	0.09121705
22	0xbd81f0cb	-0.06344756
23	0xbcb46759	-0.022021936
24	0x3d25965e	0.040426604
25	0xbd5f3a0b	-0.054498713
26	0x3cdf3ced	0.027250731
27	0xbbfa56c1	-0.0076397364
28	0x3dddf7e0	0.10838294
29	0xbd35e342	-0.044406183
30	0xbd1feb16	-0.039042555
31	0xbc270776	-0.01019465
32	0x3c066574	0.008202899
33	0x3da71525	0.0815833
34	0xbd820971	-0.06349457
35	0xbd9f00b5	-0.07763807
36	0x3cb50185	0.022095451
37	0x3c921db1	0.017836424
38	0xbc31154d	-0.010808301
39	0x3d8e8c5d	0.06960366
40	0xbdacbab5	-0.08434049
41	0xbd47571a	-0.04866705
42	0x3cce97ca	0.025218863
43	0x3c978832	0.01849756
44	0xbd971e42	-0.07378818
45	0xbbf39aa0	-0.007434204
46	0xbd9ab20c	-0.07553491
47	0x3cb1949d	0.02167731
48	0xbcbd7724	-0.0231281
49	0x3c1d7725	0.009610926
50	0x3d569911	0.05239207
51	0x3cc5f555	0.024164835
52	0x3d781376	0.060565434
53	0xbd11f243	-0.03563143
54	0xbd78682d	-0.060646225
55	0x3cc15a91	0.023602756
56	0x3e0b93ec	0.13630646
57	0x3d734c75	0.059399087
58	0xbdfc0bb4	-0.1230692
59	0xbde0f9b5	-0.10985128
60	0x3cab3204	0.020897873
61	0x3da2d9de	0.07951711
62	0x3e230ace	0.1592209
63	0xbcb3febb	-0.02197205
64	0x3d64d992	0.055871554
65	0xbd33c530	-0.043889225
66	0x3caf0910	0.021366626
67	0x3d02f0c8	0.03196791
68	0xbb1544fc	-0.0022776714
69	0xbcfeebd0	-0.031118304
70	0x3d030735	0.031989295
71	0xbda4004b	-0.080078684
72	0x3d6f9962	0.058495887
73	0x3d3a1362	0.04542864
74	0x3d2b167c	0.04176949
75	0x3cca6159	0.024704622
76	0x39593386	0.00020713927
77	0xbd62f786	-0.055411838
78	0xbd80004f	-0.06250059
79	0xbcf1ba9c	-0.029507928
80	0x3d517716	0.05113896
81	0xbc4b1f6a	-0.012397626
82	0x3dba5d59	0.09099836
83	0x3d1777ea	0.036979593
84	0xbdf1e150	-0.11810553
85	0x3cf2eb94	0.029653348
86	0x3be84365	0.007088112
87	0x3d3e5578	0.046468228
88	0x3ce51f05	0.027968893
89	0x3ce55c10	0.027998
90	0xbd0b95d2	-0.034078427
91	0xbd43080d	-0.0476151
92	0xbd159416	-0.03651818
93	0xbcdc92b1	-0.026925417
94	0x3d5b7b5c	0.05358444
95	0x3d7a2891	0.061073843
96	0x3da7c447	0.08191734
97	0x3ceccbca	0.028905768
98	0xbd8573c5	-0.06516222
99	0xbc5385b4	-0.012910295
100	0x3c6b80a4	0.014373932
101	0x3c1fafae	0.009746475
102	0xbdb8b42b	-0.09018739
103	0x3d17799b	0.036981206
104	0xbc5c8bbd	-0.013461051
105	0xbd570db4	-0.052503303
106	0x3e32acd1	0.17448737
107	0x3e11c372	0.14234713
108	0xbcbedc0e	-0.02329829
109	0xbd98aa8d	-0.07454405
110	0x3d886276	0.06659405
111	0xbe060cdd	-0.13090844
112	0x3c465330	0.012104794
113	0x3d0a384d	0.0337451
114	0x3d0d6c87	0.034527328
115	0x3d0a8f62	0.033828147
116	0xbdfe735e	-0.12424348
117	0xbdeadd63	-0.114680074
118	0xbb8b3427	-0.0042481604
119	0x3d8a427e	0.06750964
120	0x3db421d8	0.08795518
121	0xbcc93f9c	-0.024566464
122	0x3da073d1	0.0783459
123	0xbd0ebc74	-0.03484769
124	0xbd1c262d	-0.038122345
125	0xbd57dc17	-0.05270013
126	0xbd697b4e	-0.05700236
127	0x3bbb6188	0.0057184137
128	0x3e3c2be1	0.18376113
129	0x3dcd6e2a	0.10030778
130	0xbd79b3b6	-0.0609624
131	0xbde81c18	-0.113334835
132	0x3d2d38f7	0.042290654
133	0x3cdd1f75	0.026992539
134	0xbd81808a	-0.06323345
135	0xbdbe632f	-0.092962615
136	0x3c35a444	0.011086527
137	0xbd9f1d71	-0.077692874
138	0x3d9a077f	0.07520961
139	0xbc215c79	-0.009848707
140	0x3d993c77	0.07482236
141	0x3c1dbfd1	0.009628252
142	0xbcce920a	-0.025216121
143	0xbd2df0c3	-0.042465936
144	0x3d48189f	0.048851606
145	0x3d3474fd	0.04405688
146	0xbb79ada8	-0.0038097892
147	0xbd678109	-0.056519542
148	0x3cb2c8b6	0.021824222
149	0x3d9be79a	0.07612534
150	0xbd4ab7af	-0.04949158
151	0xbd8f76af	-0.07005059
152	0xbce943fc	-0.0284748
153	0x3d66a832	0.056312747
154	0xbd83d973	-0.064379595
155	0xbd0936b7	-0.033499446
156	0xbd08322a	-0.033250965
157	0x3d1966e1	0.03745163
158	0x3ba1c7be	0.004937141
159	0xbbf113fe	-0.0073571196
160	0x3b858aa4	0.004075365
161	0xbcad0dfe	-0.021124836
162	0x3cc6f9bf	0.02428901
163	0xbc376831	-0.011194275
164	0x3d6c8102	0.05774022
165	0xbc814330	-0.015779108
166	0x3d5ef579	0.05443332
167	0x3bad9e0f	0.005298383
168	0xbd98be6e	-0.074581966
169	0xbe051628	-0.12996733
170	0x3d2f16d3	0.042746376
171	0x3cb2f99e	0.021847542
172	0x3e37afed	0.17938204
173	0x3d2b8ce6	0.041882418
174	0xbc8e2fde	-0.01735681
175	0xbd84d63b	-0.06486174
176	0xbd0806eb	-0.033209722
177	0xbdbc7312	-0.092016354
178	0xbd289ce8	-0.041165262
179	0x3e1514e6	0.14558753
180	0x3dbb7767	0.091536336
181	0x3d202632	0.039098926
182	0xbde23ccf	-0.110467546
183	0xbcae7b1c	-0.021298937
184	0xbb989492	-0.004656383
185	0x3d51890f	0.0511561
186	0x3d07b31d	0.0331298
187	0xbd3426ba	-0.043982245
188	0xbd35576b	-0.04427282
189	0x3ccde049	0.025131362
190	0xbda9234f	-0.08258688
191	0x3d9483ff	0.07251739
192	0xbd3bf74f	-0.04589015
193	0x3d291821	0.041282777
194	0x3de6a5bd	0.11262081
195	0x3dbcf3d3	0.09226193
196	0xbd08880f	-0.03333288
197	0xbd069276	-0.03285452
198	0x3d1ec9e8	0.03876677
199	0x3e23d52b	0.15999286
200	0xbd91b838	-0.07115215
201	0xbd2d7088	-0.042343646
202	0xbd847f63	-0.064696096
203	0xbd675222	-0.056474812
204	0xbbe40ef1	-0.006959789
205	0x3e45e350	0.19324994
206	0x3d703428	0.05864349
207	0xbd05fe46	-0.032713197
208	0xbd05bcb8	-0.03265068
209	0x3c1c7b20	0.00955084
210	0x3ba22e6e	0.0049493825
211	0x3d01d92e	0.03170126
212	0xbdf488ff	-0.119401924
213	0xbccc8e49	-0.02497019
214	0xbd4643b7	-0.04840442
215	0x3d22aecc	0.03971748
216	0x3dc7a0ed	0.09747491
217	0x3d97f2a1	0.07419325
218	0x3d4af2f9	0.049548123
219	0xbd07c019	-0.033142183
220	0xbd38e5a4	-0.045140877
221	0xbdac2509	-0.084055014
222	0x3d0db209	0.034593616
223	0x3d88f914	0.06688133
224	0x3d1aa03f	0.03775048
225	0x3d3a2af1	0.04545111
226	0xbdc9ff06	-0.09863095
227	0xbd165339	-0.03670046
228	0x3c13ac14	0.009013195
229	0xbd311b4d	-0.043238927
230	0x3ccbe685	0.024890194
231	0x3ceac146	0.028656613
232	0x3ae40e81	0.0017399342
233	0xbd2a2269	-0.041536722
234	0x3cecfdd1	0.028929623
235	0xbc9ffe3b	-0.019530406
236	0x3c8aaebd	0.016929025
237	0xbd407e80	-0.04699564
238	0xbc5cf087	-0.013485081
239	0xbdcea4f2	-0.100900546
240	0x3c00fe11	0.007873074
241	0x3d151769	0.03639928
242	0xbd47cb84	-0.048778072
243	0x3d787d80	0.06066656
244	0xbda0388e	-0.07823287
245	0x3cb08131	0.021545978
246	0xbce99cf5	-0.028517226
247	0x3d1bb378	0.03801295
248	0xbb7bdf63	-0.003843271
249	0xbbecf3ae	-0.0072311973
250	0x3dbc5365	0.09195594
251	0x3cea19c9	0.028576748
252	0xbdc3d626	-0.0956233
253	0xbcab17ef	-0.020885436
254	0x3c88ddb1	0.016707273
255	0xbca65b5d	-0.020307237

global_block.conv_chan.conv.0.bias f4 [8]
0	0x3154ee1a	3.0985405e-09
1	0x3d66cbbc	0.05634664
2	0xba563dec	-0.0008172679
3	0xbca6ffb7	-0.020385606
4	0x3de96796	0.113967106
5	0xbc3f2393	-0.011666196
6	0x3b49bb9c	0.003078199
7	0x3cf68385	0.03009201

global_block.conv_chan.conv.1.weight f4 [8]
0	0x3fc40af5	1.5315844
1	0x3fca80fa	1.582061
2	0x3fceb19c	1.6147952
3	0x3fcdd538	1.6080694
4	0x3fc8003f	1.5625075
5	0x3fcc9743	1.5983661
6	0x3fd1e80a	1.6398938
7	0x3fc0b698	1.5055723

global_block.conv_chan.conv.1.bias f4 [8]
0	0xbdd3d7be	-0.10343884
1	0xbdd7e982	-0.10542585
2	0xbdf7ce49	-0.12099893
3	0xbd83ee7c	-0.06441972
4	0xbdf650de	-0.12027143
5	0xbde2067f	-0.11036395
6	0xbdd17625	-0.102276124
7	0xbcded4f3	-0.027201151

global_block.conv_chan.conv.1.running_mean f4 [8]
0	0xbc12b3cf	-0.0089540025
1	0x3dd7f75b	0.10545226
2	0xbb6a89ab	-0.0035787623
3	0xbe0ace12	-0.13555172
4	0x3e0a910b	0.13531892
5	0xbd31e99a	-0.04343567
6	0xbc00fb4a	-0.007872412
7	0x3d93472f	0.071913116

global_block.conv_chan.conv.1.running_var f4 [8]
0	0x3dcf39de	0.10118459
1	0x3da4c977	0.08046239
2	0x3de2e4ad	0.11078773
3	0x3dfad2bb	0.12247225
4	0x3e273867	0.1633011
5	0x3de75749	0.11295945
6	0x3e080830	0.13284373
7	0x3dec6446	0.11542563

local_block.conv_time.conv.0.weight f4 [8, 1, 1, 51]
0	0xbd5cf89e	-0.053948037
1	0x3c81e71d	0.015857274
2	0xbbc3c2a9	-0.005974133
3	0x3c06f93d	0.008238134
4	0x3c90b024	0.017662115
5	0xbd4ebb55	-0.050471622
6	0x3db22cda	0.08699961
7	0x3d64944e	0.055805497
8	0x3e251798	0.16122282
9	0x3d6676cf	0.05626565
10	0xbd0eba0c	-0.034845397
11	0xbd834668	-0.06409913
12	0x3c1bf5a4	0.0095190145
13	0xbd8bb352	-0.06821312
14	0x3d5b8360	0.053592086
15	0x3cdb04f5	0.026735762
16	0xbc17d819	-0.00926783
17	0x3d4496aa	0.047995247
18	0x3d0a8533	0.033818435
19	0x3d1142ff	0.035464283
20	0xbd4c50c3	-0.049881708
21	0xbc9bc0b1	-0.01901278
22	0xbd40c228	-0.04706016
23	0xbd979156	-0.074007675
24	0xbdc86bbd	-0.097861744
25	0xbd3aef7e	-0.045638554
26	0xbd8436f3	-0.06455793
27	0xbd0adcf3	-0.03390212
28	0x3ceabddc	0.028654985
29	0x3defeb54	0.11714807
30	0x3de745e0	0.112926245
31	0x3e375d80	0.17906761
32	0x3e101209	0.1406938
33	0x3c6d62b0	0.014488861
34	0x3d3ba4e1	0.045811538
35	0xbcc8f1c4	-0.024529345
36	0xbd0c10cb	-0.034195703
37	0xbdc90487	-0.09815317
38	0xbbf259f3	-0.0073959767
39	0x3b86cf00	0.004114032
40	0x3d1a2f90	0.037643015
41	0xbd41d443	-0.04732157
42	0x3d7a166b	0.061056536
43	0x3cf3d7b4	0.029765941
44	0xbc590533	-0.0132458685
45	0xbdc020b8	-0.093812406
46	0xbd8c5be8	-0.06853467
47	0xbde3305d	-0.11093209
48	0xbd9d0daf	-0.076686256
49	0x3b9512d1	0.004549362
50	0xbda374e1	-0.07981277
51	0x3d5d9bc1	0.054103617
52	0xbc701c0f	-0.014655127
53	0x3a1fba4b	0.00060931285
54	0xbd339a44	-0.04384829
55	0x3b9ed8cd	0.004847622
56	0xbd1d28ee	-0.03836911
57	0xbd4c0e1b	-0.04981814
58	0xbc21cb35	-0.0098751085
59	0xbdd834fd	-0.10556982
60	0x3c804392	0.01565722
61	0xbdac1544	-0.084024936
62	0x3d24517a	0.040116765
63	0x3ce6fbca	0.028196234
64	0x3bc6c031	0.0060653915
65	0x3da0e81f	0.078567736
66	0x3da8aaab	0.08235677
67	0x3d0ba4cb	0.034092706
68	0xbd8876ab	-0.06663259
69	0xbd144a74	-0.036203817
70	0xbd6ba184	-0.05752708
71	0xbe070c55	-0.13188298
72	0x3b491553	0.0030682876
73	0xbd4b7ec4	-0.04968144
74	0x3bf5b180	0.0074979663
75	0x3dac426f	0.08411109
76	0x3ca4af1d	0.020103032
77	0x3d692002	0.05691529
78	0x3d83164d	0.06400738
79	0x3d2308fe	0.039803497
80	0xbc307411	-0.01076986
81	0xbd7fe597	-0.062474813
82	0x3c923a70	0.01785013
83	0xbd231670	-0.03981632
84	0x3c27b92c	0.0102370195
85	0x3d8e50e2	0.06949021
86	0x3c52340b	0.012829791
87	0x3d94a342	0.072577015
88	0x3d3c14b0	0.045918167
89	0x3d97ded3	0.07415547
90	0x3d42f4fa	0.04759691
91	0x3cdf0584	0.02722431
92	0x3d855938	0.06511158
93	0x3c565491	0.013081686
94	0xbc9bcae3	-0.019017642
95	0xbd2fdf02	-0.042937286
96	0x3d1c4453	0.038151097
97	0xbd0e16ac	-0.03468959
98	0xbb6e697b	-0.003637879
99	0xbda0e9ac	-0.078570694
100	0xbcb8217a	-0.0224769
101	0xbdd4ca88	-0.10390192
102	0xbd46decf	-0.04855233
103	0xbda55134	-0.08072129
104	0x3d03f2ae	0.03221386
105	0xbda6dd35	-0.08147661
106	0xbd60d756	-0.05489286
107	0x3d0ef87a	0.034904934
108	0x3d24854d	0.040166188
109	0x3da385cc	0.07984504
110	0x3e283b92	0.16428974
111	0x3cb9778e	0.022640016
112	0x3db74008	0.0894776
113	0xbc57519b	-0.013142015
114	0xbdac88cd	-0.0842453
115	0xbd5a16de	-0.053244464
116	0xbd1b69f3	-0.037942838
117	0xbd0bc42a	-0.034122624
118	0xbd1ed9b1	-0.038781825
119	0x3ccc2045	0.024917731
120	0xbcae0997	-0.021244807
121	0x3df6e81d	0.12055991
122	0x3dc93a31	0.09825552
123	0x3d5ca435	0.053867538
124	0x3da63d4e	0.08117162
125	0xbd784fd1	-0.060622994
126	0xbd112de1	-0.035444144
127	0xbddb02ec	-0.10693917
128	0xbd1d5da0	-0.038419366
129	0xbde222d6	-0.11041801
130	0xbdc8bc92	-0.09801592
131	0xbcd23811	-0.0256615
132	0xbd7701e1	-0.060304526
133	0xbd8f48af	-0.06996285
134	0x3c0ee518	0.008721612
135	0xbc8d3c6d	-0.017240727
136	0x3def377b	0.11680504
137	0x3da87cb5	0.08226911
138	0x3dd91d59	0.10601301
139	0x3e07b185	0.13251312
140	0x3b9b80b7	0.0047455686
141	0x3d24623b	0.040132742
142	0x3d4c7c9f	0.049923535
143	0xbd0b1712	-0.03395755
144	0xbd80553e	-0.06266259
145	0x3c7b1d36	0.015326789
146	0xbdbd3ce6	-0.09240131
147	0xbdca50f6	-0.09878723
148	0xbe1a19d1	-0.1504891
149	0xbd073d58	-0.033017486
150	0xbcc78d49	-0.024359362
151	0xbd8a3ed3	-0.06750264
152	0x3cb3cf95	0.021949569
153	0x3cb86931	0.022511097
154	0xbc155c03	-0.009116176
155	0xbc889954	-0.016674675
156	0xbbd8bf72	-0.006614619
157	0x3d28319a	0.04106293
158	0x3b8f2c02	0.00436926
159	0xbc6fcf8c	-0.014636885
160	0xbd6d5658	-0.057943672
161	0x3dad9793	0.08476176
162	0xbcd2b6c3	-0.025721913
163	0xbb363385	-0.0027801704
164	0x3d78a4ab	0.060703915
165	0xbd425eb0	-0.047453582
166	0x3cc0e9fd	0.023549074
167	0x3d8ff237	0.07028621
168	0xbd86b70a	-0.06577881
169	0x3d454ce9	0.04816905
170	0x3af5efee	0.0018763521
171	0xbcac8dcb	-0.021063706
172	0x3d939e25	0.07207898
173	0x3d6e1602	0.058126457
174	0x3ba8b1a1	0.005148128
175	0x3d926e67	0.07149964
176	0xbd3eb483	-0.04655887
177	0xbc7837fd	-0.015150067
178	0xbbf227b5	-0.0073899874
179	0xbdd631b8	-0.10458702
180	0xbdb6fe88	-0.08935267
181	0xbdfd85a5	-0.12379006
182	0xbc37cebb	-0.011218722
183	0xbda3dac0	-0.080007076
184	0x3e16a564	0.14711529
185	0x3d2768b3	0.040871333
186	0x3e08a164	0.13342816
187	0x3e1622d1	0.14661719
188	0x3da61ea7	0.08111315
189	0x3c615971	0.013754235
190	0x3d072ce1	0.033001784
191	0xbc9ffb2e	-0.019528951
192	0xbd519cab	-0.0511748
193	0xbdbff08e	-0.09372054
194	0xbd014cbf	-0.03156733
195	0xbe3f8316	-0.18702349
196	0xbd1737be	-0.036918394
197	0xbd8859c4	-0.066577464
198	0xbd5c87d7	-0.053840484
199	0x3d6b230d	0.057406474
200	0xbd7f02dd	-0.06225859
201	0x3db473f7	0.08811181
202	0xbb0da10c	-0.0021610884
203	0x3dc2de4b	0.09515055
204	0xbc4b6118	-0.012413286
205	0x3dc1f7fc	0.094711274
206	0xb8f84a4c	-0.000118394004
207	0x3c925806	0.017864238
208	0x3b72be55	0.0037039716
209	0xbd55a86a	-0.052162565
210	0x3d2b1066	0.041763686
211	0xbd43ea9e	-0.04783117
212	0xbd19d1ab	-0.03755347
213	0xbd588ba5	-0.05286755
214	0xbdc6f522	-0.09714724
215	0xbdbf2f28	-0.09335166
216	0xbe0c6a96	-0.13712534
217	0xbd1d9dd7	-0.038480606
218	0xbc7840f2	-0.015152203
219	0xbd018f95	-0.03163107
220	0x3dc34745	0.09535078
221	0xbd37e10c	-0.044892356
222	0x3c933d09	0.01797344
223	0x3d8096e5	0.06278781
224	0x3d091757	0.033469524
225	0x3dcb928c	0.09940061
226	0x3dae9fe3	0.0852659
227	0xbc859ce3	-0.016310161
228	0xbd75e85b	-0.060036045
229	0xbd1532b5	-0.03642531
230	0x3c8dc9d5	0.017308155
231	0xbdaedee0	-0.08538604
232	0xbdfff38b	-0.12497624
233	0xbc840ef9	-0.01612042
234	0x3c3f0790	0.011659518
235	0xbd24dc78	-0.040249318
236	0xbd7b9f69	-0.061431322
237	0x3c645426	0.013936078
238	0xbd78bf54	-0.06072934
239	0xbdc0c611	-0.09412778
240	0xbaddd709	-0.0016925047
241	0xbdf83d0e	-0.1212102
242	0xbdcff626	-0.10154371
243	0x3d3f2210	0.046663344
244	0xbd6cc21a	-0.057802297
245	0xbd94c7c8	-0.07264668
246	0x3d873b7c	0.066031426
247	0x3dc45b17	0.095876865
248	0xbcdbf5ea	-0.02685066
249	0x3ce84c6b	0.028356751
250	0xbd7199ae	-0.05898445
251	0xbc8871f0	-0.016655892
252	0xbc9c7190	-0.01909712
253	0x3ce568cc	0.028004073
254	0x3cce7fcb	0.02520742
255	0xbdcf5736	-0.10124056

local_block.conv_time.conv.0.bias f4 [8]
0	0x3b6398c4	0.0034728507
1	0xbb9e7e84	-0.004836859
2	0x3a4161f6	0.0007376963
3	0x3c2256c9	0.0099083865
4	0x3bbba744	0.0057267267
5	0x3cc4a687	0.024005188
6	0x3d0787f0	0.033088624
7	0x3d409367	0.047015574

local_block.conv_time.conv.1.weight f4 [8]
0	0x3f811b56	1.0086467
1	0x3f408a54	0.7521107
2	0x3f5d9258	0.8655143
3	0x3f701312	0.937791
4	0x3f635695	0.8880399
5	0x3f6368c4	0.88831735
6	0x3f65dee5	0.89793235
7	0x3f4e2ab9	0.8053394

local_block.conv_time.conv.1.bias f4 [8]
0	0xbc303e38	-0.010757022
1	0x3e25e655	0.16201146
2	0x3e9f29b9	0.3108652
3	0x3eb1a798	0.34698176
4	0xbca3559b	-0.01993828
5	0x3cb0f0b9	0.02159916
6	0x3e004d0f	0.12529396
7	0x3e4395c2	0.19100097

local_block.conv_time.conv.1.running_mean f4 [8]
0	0x3d0bfe03	0.03417779
1	0xbbb035a1	-0.005377487
2	0x3c1db2d0	0.009625152
3	0x3cdad034	0.026710607
4	0xbc83a38e	-0.0160692
5	0x3d09feb9	0.033690188
6	0x3d617d49	0.05505112
7	0x3d4b6598	0.049657434

local_block.conv_time.conv.1.running_var f4 [8]
0	0x413a2a49	11.635324
1	0x40adb22b	5.427999
2	0x416a446c	14.641705
3	0x412ae6b3	10.681323
4	0x41086228	8.523964
5	0x40d9fe72	6.81231
6	0x40de2b08	6.942753
7	0x40b8b4c7	5.7720675

local_block.conv_chan.conv.0.weight f4 [8, 8, 11, 1]
0	0xbd4f39bd	-0.050592173
1	0x3e10e58b	0.14150064
2	0x3c7cdfba	0.0154342
3	0xbdb4c4b5	-0.088265814
4	0xbd5256eb	-0.051352423
5	0xbbc298b5	-0.0059386143
6	0x3d2c2d48	0.04203537
7	0x3e4dbdd8	0.20091951
8	0xbce95042	-0.028480653
9	0x3c5311ed	0.012882692
10	0xbd32ad77	-0.04362246
11	0x3ca33f7e	0.019927736
12	0x3d514292	0.051088877
13	0x3d8fde35	0.070248045
14	0xbcb79b0a	-0.022412796
15	0xbcaef523	-0.021357125
16	0xbcf17a1f	-0.029477177
17	0xbdab0b62	-0.083517805
18	0xbdb6f3c9	-0.08933217
19	0x3c306a65	0.010767554
20	0x3d1397c4	0.036033407
21	0x3d4b5544	0.049641863
22	0xbc16e9b3	-0.009210992
23	0x3da42df4	0.08016577
24	0x3db1fa8a	0.08690365
25	0xbd2744b8	-0.04083702
26	0xbd8aac1b	-0.06771108
27	0xbd801bbf	-0.06255292
28	0x3c2670e3	0.01015875
29	0x3e098878	0.13430965
30	0xbce4c8d8	-0.027927801
31	0x3d680f81	0.05665541
32	0xbde11196	-0.109896824
33	0x3c6ff9c0	0.014646947
34	0xbcf19b78	-0.029493079
35	0xbd1a83c9	-0.037723336
36	0x3bf4f603	0.007475616
37	0xbd0d74ce	-0.03453522
38	0x3cde4782	0.027133707
39	0xbceb2940	-0.028706193
40	0x3ddb211a	0.10699673
41	0xbd0a163a	-0.033712603
42	0xbc4b3f26	-0.0124051925
43	0x3d01c594	0.031682566
44	0xbd948c7b	-0.07253357
45	0x3c65281b	0.013986613
46	0xbdf56a00	-0.119831085
47	0xbc15072d	-0.009095949
48	0x3ba09444	0.004900487
49	0xbd616a49	-0.055033002
50	0x3dc38064	0.09545973
51	0x3d9e275c	0.07722351
52	0x3d049a25	0.032373566
53	0x3d3e5889	0.046471152
54	0x3cb36bbe	0.021901961
55	0xbcf7a7f0	-0.030231446
56	0x3d22489d	0.03962003
57	0x3d031e92	0.032011576
58	0x3d421d81	0.04739142
59	0x3c203100	0.0097773075
60	0xbd1ee4f6	-0.038792573
61	0x3d0d55a7	0.034505513
62	0xbd8ffc53	-0.07030549
63	0xbe07e6bd	-0.13271613
64	0xbb15c684	-0.002285392
65	0x3b41d33b	0.0029575366
66	0xbd6183c0	-0.055057287
67	0xbd11547e	-0.03548097
68	0xbdb1d3ca	-0.08682974
69	0x3d834d77	0.064112596
70	0xbca6a4f4	-0.020342328
71	0x3c2b346e	0.010449512
72	0xbc15e64f	-0.009149148
73	0x3d9fe5b7	0.078074865
74	0x3d057045	0.03257777
75	0xbd25b016	-0.04045113
76	0x3bec1800	0.0072050095
77	0xbc7e182a	-0.015508691
78	0x3ce944e8	0.02847524
79	0x3d51f76e	0.051261358
80	0xbdb13c66	-0.08654098
81	0xbd70789a	-0.058708765
82	0xbd540bc2	-0.051769026
83	0x3d1c2d53	0.038129162
84	0x3e07a203	0.13245396
85	0x3d060a39	0.032724593
86	0xbce507b0	-0.027957767
87	0xbd84b597	-0.06479948
88	0x3ca6d4b0	0.02036509
89	0xbd564c57	-0.052318897
90	0xbc5b8968	-0.013399459
91	0x3c10370c	0.008802187
92	0x3d87abdd	0.06624577
93	0xbc47139e	-0.012150673
94	0xbd68517a	-0.056718327
95	0x3a09f5fb	0.0005262789
96	0xbd2c8805	-0.042121906
97	0x3c9729a4	0.018452473
98	0xbc409566	-0.011754369
99	0xbd431704	-0.04762937
100	0xba6277eb	-0.0008639085
101	0xbc9ef515	-0.019403974
102	0x3d2ef75a	0.04271636
103	0xbc589866	-0.013219928
104	0x3c00a21d	0.007851151
105	0x3d00840a	0.031375922
106	0xbc894216	-0.016755145
107	0xbcbdf6e9	-0.023189025
108	0x3d821882	0.06352331
109	0xbd62a3ea	-0.055332102
110	0xbd8f0810	-0.0698396
111	0x3e1a0293	0.15040044
112	0xbcfe4013	-0.031036412
113	0xbdeda1f9	-0.116031595
114	0xbc993098	-0.01869993
115	0xbd7f3245	-0.0623038
116	0x3d7bae32	0.061445422
117	0x3e84e48c	0.25955617
118	0x3d067c9a	0.032833673
119	0xbc3c4654	-0.011491377
120	0xbda6073e	-0.0810685
121	0x3d4b4929	0.049630318
122	0xbd507611	-0.050893847
123	0x3ce2872c	0.027652346
124	0xbc35e55c	-0.011102047
125	0xbc8c0bcd	-0.01709547
126	0x3d447725	0.047965188
127	0xbde30265	-0.11084441
128	0x3cbee1ae	0.023300972
129	0xbd82165c	-0.06351921
130	0xbd8471de	-0.06467031
131	0x3d9d3003	0.07675173
132	0xbab2a44f	-0.001362929
133	0xbd335801	-0.0437851
134	0x3d2c0e7b	0.042005997
135	0xbd248fbb	-0.040176135
136	0xbd0697d4	-0.03285964
137	0x3d923eab	0.07140859
138	0xbd7ea0c7	-0.062165048
139	0xbe048d76	-0.12944588
140	0x3c20422a	0.0097814
141	0x3ccdc49c	0.025118165
142	0xbbf99dbc	-0.0076176804
143	0x3d6f5f1d	0.058440316
144	0xbdcb6287	-0.09930902
145	0x3b68a5a6	0.0035499125
146	0x3d0578d5	0.032585938
147	0xbb59f8eb	-0.003325994
148	0x3ca30c36	0.019903284
149	0xbb006cd0	-0.0019596107
150	0xbd843030	-0.064545035
151	0xbc602952	-0.0136817265
152	0x3d33c9d7	0.04389366
153	0xbd0403e5	-0.032230277
154	0xbca8d488	-0.020609155
155	0x3c34266f	0.010995491
156	0xbd3e8401	-0.046512607
157	0xbd512a31	-0.051065627
158	0xbd8ba4fe	-0.06818579
159	0xbd163e44	-0.036680475
160	0x3d8dd7be	0.06925915
161	0x3e4d8162	0.20068887
162	0x3d32fe3d	0.04369949
163	0xbc35c36e	-0.011093957
164	0xbd9d71b9	-0.076877065
165	0xbd367762	-0.044547446
166	0x3d242356	0.04007276
167	0xbd1bee69	-0.038069163
168	0xbd75f4c2	-0.060047872
169	0xbcabfbab	-0.020994028
170	0xbc530ff3	-0.012882221
171	0xbd89b2f7	-0.06723588
172	0x3e14db15	0.14536698
173	0x3d717551	0.058949772
174	0x3cc38d53	0.0238711
175	0xbd86a926	-0.06575231
176	0x3d4bb9f1	0.049737874
177	0xbd9ec7a2	-0.07752921
178	0xbdae12a6	-0.08499651
179	0x3df64cca	0.12026365
180	0x3dc5100c	0.09622201
181	0xbcae4a45	-0.021275649
182	0xbcf7063a	-0.030154336
183	0xbd8ba787	-0.06819063
184	0xbc705500	-0.014668703
185	0x3d3b8fe5	0.045791525
186	0x3c0b70a8	0.008510746
187	0xbddbf1f1	-0.10739506
188	0xbdc16edf	-0.09444975
189	0xbd9083a4	-0.070563585
190	0x3d8f837d	0.07007501
191	0x3dd68710	0.1047498
192	0x3a63fe44	0.00086972513
193	0xbca16a21	-0.019703927
194	0xbd222c84	-0.039593235
195	0x3c196882	0.0093632955
196	0xbc6c9183	-0.01443899
197	0x3db9564f	0.09049665
198	0xbd474c23	-0.048656594
199	0xbe0bc8ee	-0.13650867
200	0x3d80ce45	0.06289343
201	0x3cdf5859	0.027263807
202	0x3d207878	0.039177388
203	0x3c8eeac3	0.017445927
204	0x3b1ecefc	0.002423226
205	0xbd88a0d3	-0.066713
206	0x3d2b7a6a	0.04186479
207	0xbd2cd214	-0.042192534
208	0xbc8b85ed	-0.017031634
209	0xbd4b14cc	-0.04958038
210	0xbd528609	-0.051397357
211	0xbc0f7838	-0.00875669
212	0x3cb5eb26	0.022206854
213	0x3d595542	0.053059824
214	0x3bb12bcb	0.005406832
215	0xba0a1df7	-0.00052687473
216	0xbd98a9ca	-0.0745426
217	0xbdc35bd4	-0.09538999
218	0x3d6725f3	0.056432676
219	0x3add15f0	0.00168675
220	0xbddb246a	-0.10700305
221	0x3d860a0c	0.06544885
222	0x3d82dd56	0.06389873
223	0xbcb0c335	-0.021577457
224	0xbd9e1489	-0.077187605
225	0x3da173bf	0.07883405
226	0xbd068313	-0.032839846
227	0x3d23bfd2	0.039977856
228	0x3c80fb81	0.015744926
229	0x3d4a45f2	0.04938311
230	0xbcfc7da2	-0.030821625
231	0xbc5852e8	-0.01320336
232	0xbd98b997	-0.074572735
233	0xbada91a3	-0.0016675483
234	0x3c8641a6	0.016388725
235	0x3ca29ef2	0.019851182
236	0xbc58ef32	-0.013240622
237	0x3d5f7821	0.054557923
238	0xbde1a396	-0.1101753
239	0x3d1c13a3	0.038104665
240	0xbca848ae	-0.020542469
241	0x3d8906ae	0.06690727
242	0x3c2442f0	0.010025725
243	0x3d65dc29	0.056118164
244	0xbdb8b9c7	-0.09019809
245	0xbd1b4113	-0.037903856
246	0xbce24b87	-0.027623905
247	0x3d873ad2	0.06603016
248	0xbdb8c75f	-0.09022402
249	0x3dc79c96	0.09746663
250	0xbc8d5612	-0.017252956
251	0x3d460cff	0.048352238
252	0xbcd07548	-0.025446549
253	0xbdd25d4e	-0.10271703
254	0x3d228f52	0.039687462
255	0xbdac5295	-0.08414189

local_block.conv_chan.conv.0.bias f4 [8]
0	0xbbbdad3d	-0.005788474
1	0xbcd71fac	-0.02626022
2	0x3da5e8c5	0.08101038
3	0x3d127170	0.035752714
4	0x3ccca383	0.024980312
5	0x3d908358	0.07056302
6	0x3d83a340	0.06427622
7	0xb3d370f4	-9.845999e-08

local_block.conv_chan.conv.1.weight f4 [8]
0	0x3fceb011	1.6147481
1	0x3fd31bc1	1.6492845
2	0x3fc9458d	1.572435
3	0x3fd152a0	1.635334
4	0x3fda3c33	1.7049621
5	0x3fcb90db	1.5903581
6	0x3fc35f1a	1.5263398
7	0x3fdfb06e	1.7475717

local_block.conv_chan.conv.1.bias f4 [8]
0	0xbe2c95b3	-0.1685398
1	0xbe43dd28	-0.19127333
2	0xbdcf0bfa	-0.10109706
3	0xbd91a05e	-0.07110666
4	0xbe02b10f	-0.12762855
5	0xbe2a5b0f	-0.16636299
6	0xbd5435d7	-0.05180916
7	0xbe1e9c42	-0.15489295

local_block.conv_chan.conv.1.running_mean f4 [8]
0	0x3c936152	0.017990742
1	0xbda15773	-0.07878008
2	0xbe071a72	-0.13193682
3	0x3daee155	0.085390724
4	0xbe4c1433	-0.1992958
5	0x3e254c38	0.16142356
6	0x3d29e210	0.041475356
7	0xbe660c84	-0.22465712

local_block.conv_chan.conv.1.running_var f4 [8]
0	0x3dd74e56	0.10512988
1	0x3d6d3a39	0.057916854
2	0x3e1b5642	0.15169623
3	0x3e43ce34	0.19121629
4	0x3e230f19	0.15923728
5	0x3e3a1661	0.181726
6	0x3d527788	0.051383525
7	0x3e0cfef1	0.13769127

fc.weight f4 [40, 496]
0	0xbc999f68	-0.018752769
1	0x3bccef5e	0.0062541207
2	0x3c848112	0.016174827
3	0xbce57823	-0.028011387
4	0xbd939ce7	-0.07207661
5	0xbca75e06	-0.020430576
6	0xbc0e60ad	-0.0086900415
7	0xbcba6f86	-0.022758257
8	0xbcc66ef1	-0.024222823
9	0x3c81588c	0.015789293
10	0xbc3deda6	-0.011592304
11	0x3c10e485	0.008843546
12	0x3d1bf339	0.038073752
13	0xba9df325	-0.0012050612
14	0xbc8db1a8	-0.017296627
15	0x3d0abf9b	0.033874135
16	0xbcf06f17	-0.029349847
17	0xbda442c3	-0.08020546
18	0xbbf1b843	-0.007376702
19	0xb9eb1468	-0.00044837897
20	0xbbc27872	-0.0059347684
21	0xbca989df	-0.020695625
22	0x3d07f968	0.033196837
23	0x3ce957f7	0.028484328
24	0xbcc4b371	-0.024011346
25	0xbca04b43	-0.019567138
26	0x3ac0a007	0.0014696129
27	0xbcb10861	-0.02161044
28	0xbd4f0b5f	-0.050547954
29	0xbc8084e5	-0.015688369
30	0xbc5d4e16	-0.013507387
31	0x3a641549	0.00087006815
32	0x3d060291	0.03271729
33	0xbc3fb0b0	-0.01169984
34	0xbd39b54b	-0.04533891
35	0x3d2846bf	0.041083094
36	0x3d44bcd8	0.048031658
37	0xbc2f5f97	-0.010703943
38	0xbbb3f8e6	-0.0054923175
39	0x3d589b52	0.0528825
40	0xbbe36501	-0.006939531
41	0x3b037214	0.002005701
42	0xbd6a8fb4	-0.057265952
43	0x3d1836ef	0.037161764
44	0x3a9bc652	0.0011884666
45	0x3ccf2ad0	0.02528897
46	0xbca7d86b	-0.020488938
47	0x3c23aee6	0.0099904295
48	0x3d3bcf57	0.04585203
49	0xbc54c9be	-0.012987552
50	0xbd7a6d39	-0.06113932
51	0x3d5b6635	0.05356427
52	0x3c26e09e	0.010185389
53	0xbc883dee	-0.016631093
54	0x3c828360	0.015931785
55	0x3cbda746	0.023151051
56	0x3c3d3788	0.011548884
57	0xbde6073e	-0.1123185
58	0x3d26081b	0.040535074
59	0x3d33e042	0.04391504
60	0xbc90e36f	-0.017686574
61	0xbd4ec6a1	-0.050482396
62	0x3d38ea1b	0.045145135
63	0xbb964ac5	-0.00458655
64	0x3ce3a580	0.027788877
65	0xbd255c3f	-0.040371176
66	0x3d8480c9	0.06469876
67	0xbd0b586c	-0.034019873
68	0x3d47d2ba	0.04878495
69	0xbcdc67c4	-0.026904948
70	0x3d101f8b	0.03518633
71	0xbc592070	-0.013252363
72	0x3da0eb4f	0.078573816
73	0xbdcb0224	-0.09912518
74	0xbd09f4e5	-0.033680815
75	0xbcc70137	-0.024292571
76	0x3d7c3c30	0.061580837
77	0xbc890d86	-0.016730081
78	0xbba0452a	-0.0048910575
79	0x38974f6d	7.215035e-05
80	0x3d2a4ee6	0.04157915
81	0xbba2a4c1	-0.004963488
82	0x3aae5915	0.0013301695
83	0x3babdd56	0.005244891
84	0x3bb64d31	0.005563401
85	0xbc3ffa67	-0.011717415
86	0xbc7d189d	-0.015447763
87	0x3c37baa7	0.011213935
88	0x3d1d0044	0.03833033
89	0xbd58f68b	-0.052969497
90	0xbda0d258	-0.0785262
91	0xbc884cb3	-0.016638136
92	0x3d248d0f	0.040173586
93	0xbad6c919	-0.0016386836
94	0x3c81a0c8	0.015823737
95	0xbd30a11a	-0.04312239
96	0x3d7e1954	0.062035874
97	0xbd2e4806	-0.042549156
98	0xbd50bf79	-0.050963853
99	0xbc534ef8	-0.012897246
100	0x3d62cc1b	0.05537043
101	0xbd2eac80	-0.042644978
102	0xbd80700a	-0.0627137
103	0x3d148a35	0.036264617
104	0x3c883238	0.016625509
105	0xbdb8e20d	-0.09027491
106	0xbd817d4a	-0.06322725
107	0x3c07aa41	0.008280338
108	0x3d3a12f4	0.04542823
109	0xbd4cd0f2	-0.050003953
110	0xbca749d1	-0.02042094
111	0x3d076c2c	0.033062145
112	0x3ce7d8ae	0.028301563
113	0xbd21bb46	-0.03948524
114	0xbd42242d	-0.04739778
115	0x3d88e53c	0.06684348
116	0x3b829026	0.003984469
117	0x3beca137	0.0072213667
118	0xbde233bc	-0.11045024
119	0x3dff96a2	0.12479903
120	0xbd6380fb	-0.055542927
121	0x3d0d0d6e	0.034436636
122	0xbd705a50	-0.05867988
123	0x3d8520fa	0.065004304
124	0xbcb22321	-0.021745266
125	0x3d1dd7a1	0.038535718
126	0xbd6142b1	-0.054995243
127	0x38b2c339	8.5240645e-05
128	0x3b8f9fd9	0.004383069
129	0xbcf1e380	-0.029527426
130	0xbd44c87c	-0.04804276
131	0xbdc01628	-0.09379226
132	0xba82daf4	-0.0009983466
133	0x3c7693da	0.015049899
134	0xbd0bbce8	-0.034115702
135	0x3c98aaf1	0.018636199
136	0x3d130f56	0.035903297
137	0xbb3c7af5	-0.0028759812
138	0xbd2892fe	-0.041155808
139	0x3b0dbd29	0.002162764
140	0x3ceb839e	0.028749283
141	0xbcc5b85a	-0.024135757
142	0xbd0bd7a7	-0.03414121
143	0xbd07b7ff	-0.033134457
144	0x3c5a68e6	0.013330674
145	0xbc99eb76	-0.018789034
146	0xbd6e0e12	-0.058118887
147	0xbc1be291	-0.009514467
148	0x3c1adae5	0.009451603
149	0xbcaf2359	-0.02137916
150	0xbd330911	-0.04370982
151	0xbd1b94b6	-0.03798362
152	0xbc1c797f	-0.009550451
153	0x397096d4	0.00022944371
154	0xbd3e5554	-0.046468094
155	0x3c4d3d41	0.012526811
156	0xbd0c845c	-0.034305915
157	0x3c8eaa7d	0.01741528
158	0xbc923dea	-0.017851789
159	0x3cde5066	0.027137946
160	0xbda16613	-0.07880797
161	0xbc1b388f	-0.009473934
162	0xbc87861e	-0.016543444
163	0xbd7269f0	-0.05918306
164	0x3d14d401	0.036334995
165	0x3d383cd4	0.044979885
166	0xbaebf16b	-0.0018001025
167	0x3bb942d7	0.00565372
168	0xbc0918a7	-0.008367694
169	0x3d2e8c89	0.042614494
170	0xbdeb9983	-0.115038894
171	0xbcbf416a	-0.023346622
172	0x3bc50082	0.0060120234
173	0xbcb098f2	-0.021557305
174	0xbdb068ae	-0.08613716
175	0x3cc09995	0.023510734
176	0xbcfabb93	-0.03060702
177	0xbcff920d	-0.031197572
178	0xbcded719	-0.027202176
179	0x3d62e7c0	0.055396795
180	0xbcc16e6e	-0.023612227
181	0xbb80683e	-0.0039186766
182	0xbda1a18a	-0.07892139
183	0xbb45238b	-0.0030081
184	0xbb4d33d3	-0.0031311407
185	0xbccfd891	-0.025371822
186	0xbabb50b6	-0.0014291022
187	0xbcd01cc4	-0.025404342
188	0x3cb441a9	0.022003965
189	0x3d77e4b3	0.06052084
190	0xbd25e040	-0.040497065
191	0xbcedf00c	-0.029045127
192	0x3c9d4386	0.019197237
193	0x3d3b7ff0	0.045776308
194	0xbb7be0c3	-0.003843353
195	0xbd4b1b82	-0.04958678
196	0x3d07753d	0.03307079
197	0xbcd4c33f	-0.025972007
198	0x3c9f09a4	0.019413777
199	0xbd724a54	-0.059152916
200	0x3d543439	0.051807616
201	0x3c049d69	0.00809417
202	0xbcf66b9c	-0.030080609
203	0xbcb98d0f	-0.02265027
204	0x3c0f80cf	0.008758738
205	0x3baab7de	0.005209907
206	0xbdb38300	-0.08765221
207	0xbc9ab7b0	-0.018886417
208	0x3d04fa9d	0.032465566
209	0xbc4f16cb	-0.012639712
210	0xbe03b9c2	-0.1286383
211	0xbc109f7e	-0.008827088
212	0x3d976523	0.07392337
213	0xbcbd4c91	-0.023107799
214	0x3c807e36	0.015685182
215	0xbbc241fe	-0.005928277
216	0x3d6d138b	0.057879966
217	0xbb726708	-0.003698768
218	0x3cb95fe9	0.022628741
219	0xbc88d031	-0.016700836
220	0x3a03fcd7	0.00050349295
221	0x3c399c7f	0.0113288155
222	0xbcddd796	-0.027080338
223	0x3d067353	0.032824825
224	0x3cf40936	0.029789548
225	0x3abd2069	0.0014429215
226	0x3b85e35e	0.004085942
227	0x3cd58550	0.026064545
228	0x3bca661b	0.0061767227
229	0xbcd9875b	-0.0265538
230	0xbd1ad9c2	-0.037805326
231	0x3dd3aa97	0.10335272
232	0xbc7ecc84	-0.01555169
233	0xbdaf2eb6	-0.08553831
234	0xbd7c74db	-0.06163488
235	0x3d9e653f	0.07734155
236	0x3bc3aedb	0.005971772
237	0xbd1ca159	-0.03823981
238	0xbc5bf616	-0.013425371
239	0x3d8409df	0.06447195
240	0xbd0dede5	-0.034650702
241	0xbd139757	-0.036033
242	0xbd2a882d	-0.041633774
243	0x3d883021	0.06649805
244	0xbb895afa	-0.0041917535
245	0xbb8fe62d	-0.0043914528
246	0xbc8534d7	-0.016260548
247	0x3d9625d6	0.073314354
248	0x3caf4f14	0.021400012
249	0x3c9d1333	0.019174194
250	0xbc0b0278	-0.008484475
251	0xbc267832	-0.010160493
252	0xba947211	-0.0011325498
253	0x3d27273d	0.040808905
254	0xbd87e600	-0.06635666
255	0xbd1c59ee	-0.0381717

fc.bias f4 [40]
0	0xba8e152a	-0.0010840048
1	0xbc5ca87f	-0.013467907
2	0xba587f55	-0.000825872
3	0x3ce283c0	0.027650714
4	0x3d5a179d	0.053245176
5	0x3c3923f2	0.011300074
6	0x3d506fd1	0.050887886
7	0x3d8144d0	0.06311953
8	0xbcd28150	-0.025696427
9	0xbbd5a305	-0.0065196776
10	0xbbaa15a4	-0.005190568
11	0x3c880a66	0.01660652
12	0x3cf18e63	0.02948684
13	0x3c1c3f0e	0.009536518
14	0x3c75e1f0	0.015007481
15	0x3b67828a	0.003532561
16	0x3a1419ab	0.0005649577
17	0xbc137239	-0.008999401
18	0xbd062116	-0.032746397
19	0x3b5dd7c0	0.003385052
20	0xbbb42e13	-0.0054986565
21	0xbc694f06	-0.014240032
22	0x3a134f70	0.0005619442
23	0xb86af9bc	-5.602253e-05
24	0xbc140714	-0.009034891
25	0xbd1a4226	-0.03766074
26	0xbb2a0f3f	-0.0025949029
27	0x3c6a6e03	0.014308455
28	0xbc386766	-0.011255121
29	0x3cd17d2b	0.02557238
30	0xbb4245f6	-0.002964375
31	0xbca1679a	-0.019702721
32	0xbdaedeee	-0.08538614
33	0xbca41dd3	-0.020033753
34	0xbc8c9484	-0.017160662
35	0xbb0c95e2	-0.0021451642
36	0xbc530d74	-0.012881625
37	0xbc7e63b2	-0.015526699
38	0xbc61303c	-0.01374441
39	0x3bdc7623	0.00672795
