model/Benchmark/ablation/NoTCNet_b4_1s_S3.pth (torch, 101259 bytes, 26 tensors)

global_block.conv_time.conv.0.weight f4 [8, 1, 1, 125]
-0.08123205 -0.03849614 -0.040597208 -0.03212507 -0.084724255 0.008847327 -0.029578846 0.019222504
0.042556375 0.027313698 0.07199135 0.009136406 -2.4475246e-05 0.014729076 -0.014946026 0.028336255
-0.021531899 0.034426685 -0.019583618 0.0031289454 -0.040275 -0.05023186 -0.029150154 -0.021692557
-0.0064116763 0.01092328 0.018740207 0.005949279 0.02179843 -0.0408864 0.024282198 -0.030252922
-0.0021119174 -0.06716899 -0.035575036 0.016538717 0.08759343 0.050155744 0.1049869 -0.028082164
0.0023463105 -0.049413763 0.0013180714 0.0068342183 -0.046371847 0.0005291884 -0.008880934 -0.009079359
0.0911763 0.043562666 0.013686995 0.045303147 0.043336164 0.04570011 0.035770178 -0.059324764
-0.114967085 -0.09498612 -0.047942936 -0.02843332 -0.029161328 0.010371685 0.04145204 0.030358436
0.04853725 -0.0033382846 0.012072596 -0.030404503 -0.015211312 0.010773151 0.014107964 0.01949219
-0.027853062 0.06716551 0.036550127 -0.008802258 -0.016503861 -0.020090584 -0.028712174 -0.09801864
-0.06527065 -0.013430848 -0.04643138 -0.0070090867 -0.064144306 0.0047029546 0.0013496751 -0.06476421
-0.07602735 -0.05082937 -0.057187412 -0.019022688 -0.08638521 -0.0879492 -0.015681537 -0.04669146
-0.01401328 -0.0014814278 0.028372275 0.035589118 0.023571556 0.0067741186 0.002751827 0.030692993
0.08275455 0.08194597 0.039049253 -0.0010217279 -0.0146011235 -0.041307703 -0.018153016 -0.02601689
-0.00984752 -0.037728082 0.0015395243 0.053124703 0.03785989 0.011970357 0.033719864 0.022036504
-0.012084089 0.026550744 0.049544945 -0.020212 0.015458089 -0.01900508 -0.025041573 -0.024203144
0.0068987138 -0.063891776 -0.03056261 -0.04933974 -0.033723403 -0.04989979 -0.021962734 0.005609185
0.008404539 -0.00046108628 0.026343137 0.055705335 -0.02289646 0.041275974 -0.041737486 -0.037235357
0.027211653 -0.033228103 -0.0214035 2.8138307e-05 -0.02220022 -0.025196582 0.001278276 0.05123686
0.011061802 0.023201719 -0.06827754 -0.031714946 -0.013813559 0.013618822 0.059160564 0.04700402
0.06282803 0.05336442 0.053732846 0.02959354 -0.04527357 -0.07799701 -0.053169418 -0.04056586
0.0030014757 -0.0019183267 -0.0003588328 -0.00574767 0.11576639 0.106764 0.08564154 0.07582545
-0.048136197 -0.037916005 -0.0060165403 0.009672589 -0.081551775 -0.008227072 -0.025632199 0.0023160826
-0.05465859 -0.021274064 0.011852919 -0.0018159922 0.070505366 -0.013537191 0.029330116 -0.019803042
0.014227594 0.005253156 0.020323254 0.017734325 0.01242345 0.013425387 -0.01520298 0.010320429
-0.036619976 0.0069659892 -0.06726854 0.0040673646 0.054344643 0.07017796 0.06729785 0.0458832
-0.018122725 -0.0073308786 0.015320902 -0.015476589 -0.012643962 -0.00662145 -0.07180173 -0.07288237
-0.05227537 -0.010194263 -0.026273021 -0.013355391 -0.01628923 -0.0130092045 0.014922334 0.04719059
-0.011462434 0.02268001 -0.031493865 0.038940776 -0.012057005 -0.031834286 0.012081107 -0.04436955
-0.0415799 0.0012012755 -0.006325212 -0.049880225 0.0418936 -0.025313338 -0.0031731238 -0.058417067
-0.06207096 -0.050447356 -0.02115579 -0.042652808 -0.012637848 -0.042412154 -0.022285916 0.0082921535
0.025232604 -0.014863411 0.064716645 -0.025023796 0.021478392 0.03287431 -0.032912146 -0.01884886
00000000: fd5c a6bd 21ae 1dbd 4249 26bd 9495 03bd
00000010: e983 adbd 61f4 103c 564f f2bc 8378 9d3c
00000020: 984f 2e3d fac0 df3c 3370 933d ddb0 153c
00000030: 3150 cdb7 3952 713c 2de0 74bc 6f21 e83c
00000040: aa63 b0bc ff02 0d3d d36d a0bc fe0e 4d3b
00000050: 66f7 24bd ecbf 4dbd 4ecc eebc 97b4 b1bc
00000060: 0a19 d2bb 8ff7 323c 1085 993c 2bf2 c23b
00000070: 9f92 b23c 7f78 27bd 76eb c63c fad4 f7bc
00000080: 1868 0abb e58f 89bd 21b7 11bd 347c 873c
00000090: 2f64 b33d 1c70 4d3d 5f03 d73d 910c e6bc
000000a0: 8fc4 193b 1666 4abd 23c3 ac3a 94f1 df3b
000000b0: 68f0 3dbd 3bb9 0a3a 5681 11bc 97c1 14bc
000000c0: a4ba ba3d c46e 323d 6b3f 603c cb8f 393d
000000d0: 4381 313d 0a30 3b3d c083 123d 86fe 72bd
000000e0: dd73 ebbd 1588 c2bd d05f 44bd feec e8bc
000000f0: bde3 eebc 00ee 293c 9dc9 293d 41b2 f83c
00000100: ffce 463d 1fc7 5abb 23cc 453c dd12 f9bc
00000110: de38 79bc df81 303c 1725 673c 16ae 9f3c
00000120: 1b2c e4bc 128e 893d 96b5 153d 5937 10bc
00000130: 1b33 87bc 0295 a4bc cb35 ebbc ffbd c8bd
00000140: 9eac 85bd 0f0d 5cbc d52e 3ebd 7bac e5bb
00000150: 175e 83bd 3e1b 9a3b 95e7 b03a 19a3 84bd
00000160: 3ab4 9bbd 7532 50bd 593d 6abd 78d5 9bbc
00000170: bbea b0bd b61e b4bd 9176 80bc 8b3f 3fbd
00000180: f597 65bc 782c c2ba f96c e83c e5c5 113d
00000190: 2319 c13c 6df9 dd3b ff57 343b df6f fb3c
000001a0: 387b a93d 4ad3 a73d 1cf2 1f3d 80eb 85ba
000001b0: 8d39 6fbc 4432 29bd a2b5 94bc 5f21 d5bc
000001c0: 7e57 21bc c388 1abd ddc9 c93a 4a99 593d
000001d0: f912 1b3d 511f 443c d71d 0a3d e685 b43c
000001e0: 58fc 45bc f280 d93c a4ef 4a3d a393 a5bc
000001f0: ed43 7d3c 8bb0 9bbc fc23 cdbc ac45 c6bc
00000200: 9b0e e23b b1d9 82bd 705e fabc 7818 4abd
00000210: 8d21 0abd b963 4cbd 31eb b3bc 41cd b73b
00000220: 31b3 093c f4bd f1b9 90cd d73c 472b 643d
00000230: 5b91 bbbc ff10 293d edf4 2abd 1a84 18bd
00000240: f9ea de3c 311a 08bd 6556 afbc 8e0a ec37
00000250: 3cdd b5bc 1069 cebc d38b a73a bedd 513d
00000260: 8f3c 353c 8811 be3c 18d5 8bbd 88e7 01bd
00000270: 4452 62bc 7b21 5f3c 5952 723d 4a87 403d
00000280: fbab 803d a694 5a3d f916 5c3d 276e f23c
00000290: c770 39bd e5bc 9fbd 2dc8 59bd 6328 26bd
000002a0: 68b4 443b 5d70 fbba b921 bcb9 f356 bcbb
000002b0: ee16 ed3d 16a7 da3d d564 af3d 604a 9b3d
000002c0: 762a 45bd d04d 1bbd 6626 c5bb c779 1e3c
000002d0: 9e04 a7bd d7ca 06bc 9efa d1bc 6bc9 173b
000002e0: b0e1 5fbd f246 aebc bf32 423c 9606 eeba
000002f0: 1e65 903d 18cb 5dbc b645 f03c fd39 a2bc
00000300: db1a 693c ab22 ac3b f47c a63c 9347 913c
00000310: ba8b 4b3c 28f6 5b3c eb15 79bc 0417 293c
00000320: d4fe 15bd f442 e43b 17c4 89bd 8747 853b
00000330: 7d98 5e3d 76b9 8f3d 75d3 893d 06f0 3b3d
00000340: 1c76 94bc de37 f0bb 8504 7b3c 8591 7dbc
00000350: 9f28 4fbc c0f8 d8bb c90c 93bd 5a43 95bd
00000360: b31e 56bd d705 27bc 853a d7bc 92d0 5abc
00000370: fe70 85bc 8f24 55bc ce7c 743c ec4a 413d
00000380: efcc 3bbc 6ecb b93c b6ff 00bd 5d80 1f3d
00000390: bf8a 45bc ab64 02bd d6ef 453c d8bc 35bd
000003a0: af4f 2abd 1e74 9d3a b943 cfbb 354f 4cbd
000003b0: a098 2b3d eb5d cfbc 2ff4 4fbb bc46 6fbd
000003c0: 1e3e 7ebd e3a1 4ebd e84e adbc b6b4 2ebd
000003d0: fa0e 4fbc 5eb8 2dbd f490 b6bc d0db 073c
000003e0: 9bb4 ce3c aa85 73bc 298a 843d b4fe ccbc
000003f0: 74f3 af3c 36a7 063d e3ce 06bd ed68 9abc

global_block.conv_time.conv.0.bias f4 [8]
-0.0009762375 0.0028778338 0.0016979608 0.005562879 -0.0050280225 -0.0041710567 -2.3697355e-09 8.003541e-07
00000000: 31ea 7fba 0a9a 3c3b 1c8e de3a d048 b63b
00000010: 1cc2 a4bb 5cad 88bb d4d8 22b1 ead7 5635

global_block.conv_time.conv.1.weight f4 [8]
1.0539902 0.9367744 0.9676686 0.9265561 0.9048541 1.0202734 0.86738515 0.85097086
00000000: 27e9 863f 72d0 6f3f 21b9 773f c832 6d3f
00000010: 85a4 673f 5298 823f f40c 5e3f 3ad9 593f

global_block.conv_time.conv.1.bias f4 [8]
0.0068005803 0.123533815 0.00019432949 -0.028834503 -0.018610397 -0.044941142 -0.11944062 0.005723805
00000000: 67d7 de3b 4cff fc3d edc4 4b39 5636 ecbc
00000010: d574 98bc 3414 38bd 499d f4bd c28e bb3b

global_block.conv_time.conv.1.running_mean f4 [8]
0.012345474 -0.0053847586 0.016769957 0.004747635 -0.013944814 -0.0013892736 0.0020117385 -0.009425821
00000000: ac44 4a3c a172 b0bb 2661 893c 0d92 9b3b
00000010: ca78 64bc 4918 b6ba 5fd7 033b c26e 1abc

global_block.conv_time.conv.1.running_var f4 [8]
9.162601 6.8579073 7.033445 5.8889213 7.7798653 10.109774 6.92288 5.730817
00000000: 049a 1241 fa73 db40 fb11 e140 0b72 bc40
00000010: a8f4 f840 a2c1 2141 3c88 dd40 da62 b740

global_block.conv_chan.conv.0.weight f4 [8, 8, 11, 1]
-0.03182036 0.048307396 -0.013456769 -0.024117762 0.053848144 -0.046833813 0.026316732 -0.011918537
-0.03674843 -0.07036698 0.055795614 0.09778671 -0.06774938 0.01925513 0.061947912 0.037037216
-0.058304247 -0.01311165 -0.090079464 -0.0021122755 -0.051368818 0.06511494 -0.06894747 -0.010824561
0.04322242 -0.06585684 0.015930986 -0.017538367 0.09371536 -0.059289563 -0.0414918 -0.009536338
0.014239064 0.054712698 -0.07143933 -0.07894733 0.047610514 -0.003849223 -0.028664269 0.046941437
-0.056689672 -0.037723746 0.0312577 0.025449246 -0.055389702 -0.0017021399 -0.06773092 -0.001579652
-0.012090833 0.025925972 0.06596533 0.0030473885 0.05796473 -0.02666486 -0.05838929 0.040225994
0.1823319 0.063721254 -0.1558042 -0.13259281 -0.004368348 0.058274914 0.1274711 -0.05652213
0.03110188 -0.07325423 0.023324937 0.03933249 -0.0098759215 -0.030964771 0.024524707 -0.087972686
0.054721802 0.034173407 0.015170446 0.005830668 -0.031760182 -0.059955686 -0.0628349 -0.034287125
0.06536563 -0.017997522 0.082216196 0.032118056 -0.098134235 0.03169696 0.0004953823 0.03254675
0.038885664 0.036116593 -0.023183744 -0.056940436 -0.05147844 -0.042127024 0.037007183 0.034353353
0.07428999 0.03083318 -0.05923808 0.022989199 0.04470944 0.015404619 -0.08976735 0.019662647
-0.029636174 -0.064752966 0.13686286 0.12073322 -0.019845625 -0.0821211 0.06699065 -0.13645643
-0.0014303396 0.054231443 0.040805366 0.042356215 -0.1189108 -0.071715966 -0.0018485929 0.06538578
0.08105311 -0.012595242 0.08516035 -0.020392505 -0.022337606 -0.039300684 -0.042398322 0.01506447
0.16902798 0.09292595 -0.05536246 -0.11048169 0.04568139 0.03557722 -0.065068364 -0.088796146
0.021764738 -0.06583487 0.0824561 -0.017644323 0.060355548 0.0026886493 -0.025292683 -0.032229792
0.04969177 0.041750167 0.0016254946 -0.056045037 0.025863396 0.08080932 -0.041949052 -0.07103469
-0.03913353 0.046184037 -0.06413997 -0.035262935 -0.02955445 0.043408252 0.02110658 0.010002394
0.01955062 -0.022313735 0.03225768 -0.008556486 0.060620364 0.0043344763 0.074322246 0.013669261
-0.081444845 -0.12764205 0.041303888 0.021066299 0.1547774 0.04059557 -0.009768342 -0.0649644
-0.055951726 -0.11260347 -0.054115374 0.13564047 0.111593045 0.058881313 -0.09956441 -0.008708693
0.0046425923 0.059427038 0.047055975 -0.050441626 -0.03316224 0.01993234 -0.089524984 0.07636842
-0.035312857 0.048381682 0.09586955 0.07899591 -0.035367787 -0.037644573 0.046152357 0.16497985
-0.06761405 -0.074486025 -0.06814913 -0.060382612 -0.010386969 0.15752573 0.024567792 -0.033328604
-0.031552073 0.030394604 0.029915942 0.029944234 -0.12920986 -0.0410662 -0.0629427 0.026333392
0.053183127 0.041782185 0.030857533 -0.04662578 -0.04809527 -0.09885406 0.021709908 0.064769745
0.052604083 0.059999976 -0.08374297 -0.00088166894 0.026870366 -0.029216567 0.031263318 0.014975259
-0.0016993833 -0.034513623 0.04141415 -0.021691684 0.016871266 -0.04887946 0.0066574495 -0.084015995
0.033523377 0.044127926 -0.054706544 0.04611434 -0.076760516 -0.0048774667 -0.031460363 0.03569828
-0.0062206616 -0.01579645 0.09036222 0.027853204 -0.08659062 -0.020843007 0.015147594 -0.009915958
00000000: 1156 02bd fadd 453d c879 5cbc 9d92 c5bc
00000010: df8f 5c3d d0d4 3fbd 3096 d73c f845 43bc
00000020: 8685 16bd 901c 90bd f189 643d 6644 c83d
00000030: 30c0 8abd efbc 9d3c 18bd 7d3d 56b4 173d
00000040: 6fd0 6ebd 3fd2 56bc 957b b8bd 1a6e 0abb
00000050: 1c68 52bd fb5a 853d 5534 8dbd 8059 31bc
00000060: fe09 313d f3df 86bd b381 823c 9fac 8fbc
00000070: d7ed bf3d 9dd9 72bd 4ef3 29bd 4d3e 1cbc
00000080: f74a 693c 6c1a 603d c94e 92bd 23af a1bd
00000090: 3e03 433d 3f43 7cbb 54d1 eabc aa45 403d
000000a0: 6e33 68bd 3784 1abd 1308 003d f07a d03c
000000b0: 50e0 62bd 561a dfba 82b6 8abd 530c cfba
000000c0: a118 46bc b462 d43c d518 873d b2b6 473b
000000d0: 6d6c 6d3d 4470 dabc 9c29 6fbd 03c4 243d
000000e0: 37b5 3a3e 4a80 823d 238b 1fbe 69c6 07be
000000f0: 5c24 8fbb adb1 6e3d c987 023e c083 67bd
00000100: 5fc9 fe3c 5006 96bd f013 bf3c 1b1b 213d
00000110: 9ece 21bc d5a9 fdbc 0ae8 c83c 062b b4bd
00000120: f823 603d 6af9 0b3d 768d 783c 300f bf3b
00000130: f716 02bd 1894 75bd 96af 80bd a870 0cbd
00000140: 6ade 853d 8a6f 93bc f760 a83d 398e 033d
00000150: 9afa c8bd acd4 013d 8bdc 013a be4f 053d
00000160: 9346 1f3d feee 133d d6eb bdbc 603a 69bd
00000170: 0fdb 52bd 638d 2cbd d894 173d 1ab6 0c3d
00000180: 5a25 983d dd95 fc3c a1a3 72bd d853 bc3c
00000190: 3f21 373d a863 7c3c f2d7 b7bd 8f13 a13c
000001a0: 90c7 f2bc 349d 84bd c725 0c3e fa42 f73d
000001b0: 4b93 a2bc 1b2f a8bd 6532 893d 3cbb 0bbe
000001c0: 3c7a bbba ca21 5e3d 8723 273d b67d 2d3d
000001d0: 8187 f3bd d2df 92bd 7c4c f2ba fbe8 853d
000001e0: 2cff a53d 465c 4ebc 8d68 ae3d 2f0e a7bc
000001f0: 5bfd b6bc c1f9 20bd dda9 2dbd f7d0 763c
00000200: ac15 2d3e f64f be3d bfc3 62bd 3944 e2bd
00000210: 691c 3b3d 6bb9 113d 9042 85bd c1da b5bd
00000220: f74b b23c 6fd4 86bd bede a83d d48a 90bc
00000230: 6137 773d 0d34 303b 9a32 cfbc 6303 04bd
00000240: 9989 4b3d 3902 2b3d 8c0e d53a 7b8f 65bd
00000250: 79df d33c 5b7f a53d c5d2 2bbd a37a 91bd
00000260: 7b4a 20bd 792b 3d3d d15b 83bd de6f 10bd
00000270: 2d1c f2bc dacc 313d b5e7 ac3c 15e1 233c
00000280: 9f28 a03c 4bcb b6bc a120 043d 8130 0cbc
00000290: 0f4d 783d 3908 8e3b 4336 983d 09f5 5f3c
000002a0: 8ecc a6bd 99b4 02be 442e 293d 3b93 ac3c
000002b0: f77d 1e3e 8a47 263d 650b 20bc 0e0c 85bd
000002c0: a32d 65bd a69c e6bd 15a8 5dbd 56e5 0a3e
000002d0: e58a e43d 882d 713d 6de8 cbbd e8ae 0ebc
000002e0: e320 983b c469 733d c4bd 403d e19b 4ebd
000002f0: 21d5 07bd 2649 a33c e058 b7bd 0c67 9c3d
00000300: 37a4 10bd df2b 463d 4157 c43d 9cc8 a13d
00000310: d0dd 10bd 3231 1abd 410a 3d3d 7af0 283e
00000320: 3c79 8abd 218c 98bd c591 8bbd c253 77bd
00000330: 1b2e 2abc 6d4e 213e 6542 c93c 9383 08bd
00000340: bf3c 01bd 1bfe f83c 4712 f53c 9c4d f53c
00000350: 974f 04be 0835 28bd 1ae8 80bd 20b9 d73c
00000360: 8dd6 593d cc23 2b3d f0c8 fc3c adfa 3ebd
00000370: 8cff 44bd ff73 cabd fad8 b13c 00a6 843d
00000380: 6177 573d 89c2 753d 6f81 abbd cd1f 67ba
00000390: 3e1f dc3c 9557 efbc f70d 003d ca5a 753c
000003a0: d7bd deba 285e 0dbd e2a1 293d c2b2 b1bc
000003b0: 9c35 8a3c d435 48bd bc26 da3b 9410 acbd
000003c0: cf4f 093d 7cbf 343d f813 60bd 64e2 3c3d
000003d0: 9e34 9dbd 28d3 9fbb 95dc 00bd 5c38 123d
000003e0: b1d6 cbbb 8f67 81bc d40f b93d 672c e43c
000003f0: 6c56 b1bd f4be aabc 9d2d 783c 8b76 22bc

global_block.conv_chan.conv.0.bias f4 [8]
-1.9909095e-08 0.056346625 -0.00081728975 -0.020385591 0.11396713 -0.011666199 0.0030781964 0.030092014
00000000: 9004 abb2 b8cb 663d 633f 56ba afff a6bc
00000010: 9967 e93d 9623 3fbc 91bb 493b 8783 f63c

global_block.conv_chan.conv.1.weight f4 [8]
1.5288109 1.5848871 1.6157883 1.6063095 1.5630211 1.5993209 1.6402978 1.5073543
00000000: 13b0 c33f 95dd ca3f 27d2 ce3f 8d9b cd3f
00000010: 1311 c83f 8cb6 cc3f 47f5 d13f fcf0 c03f

global_block.conv_chan.conv.1.bias f4 [8]
-0.08343189 -0.10247942 -0.110549726 -0.05551111 -0.11206211 -0.103773296 -0.09082369 -0.027309457
00000000: 57de aabd bbe0 d1bd e567 e2bd 9e5f 63bd
00000010: d280 e5bd 1887 d4bd c501 babd 15b8 dfbc

global_block.conv_chan.conv.1.running_mean f4 [8]
-0.0067364317 0.1193598 -0.00040100107 -0.08177735 0.08361477 -0.021583032 -0.017637277 0.034349293
00000000: 49bd dcbb e972 f43d 743d d2b9 e27a a7bd
00000010: 383e ab3d e6ce b0bc 0d7c 90bc d8b1 0c3d

global_block.conv_chan.conv.1.running_var f4 [8]
0.054388706 0.073774606 0.06114403 0.061603054 0.081616126 0.062872276 0.0639391 0.052133415
00000000: b1c6 5e3d 2417 973d 2a72 7a3d 7c53 7c3d
00000010: 5b26 a73d 2ec3 803d 81f2 823d d989 553d

local_block.conv_time.conv.0.weight f4 [8, 1, 1, 51]
-0.0529892 -0.00075816247 -0.024658296 -0.015390158 -0.0045127138 -0.06426622 0.07204216 0.044336703
0.15783122 0.050394256 -0.036201082 -0.066932425 0.00021190176 -0.077948086 0.058019977 0.030815963
-0.003114134 0.06703394 0.061515637 0.06483568 -0.02201294 -0.011673043 -0.052291702 -0.0798441
-0.09206685 -0.037255432 -0.057989653 -0.0351791 0.019935802 0.11056974 0.11252141 0.17698292
0.12662904 0.002418334 0.028115923 -0.03262552 -0.042491205 -0.0977519 -0.008886398 0.0032313713
0.02184196 -0.061857935 0.047408126 0.016478965 -0.02539606 -0.08129114 -0.052515894 -0.08987084
-0.055359703 0.032094985 -0.044815507 0.037988253 -0.021771474 0.003701158 -0.020439647 0.025302848
-0.014008674 -0.027505621 0.010603874 -0.089173265 0.01616488 -0.07946601 0.044037882 0.03741589
0.023025109 0.09439518 0.09999737 0.044258498 -0.06778783 -0.034622584 -0.05418271 -0.1320329
-0.012189202 -0.06246542 -0.0009292693 0.08071785 0.013836033 0.049059495 0.05678771 0.047596186
0.015136252 -0.038154624 0.04305338 -0.0225141 0.02992444 0.072942175 -0.009286846 0.037668344
0.014618451 0.05263207 0.036625396 0.021033376 0.05222665 -0.0141704995 -0.0422004 -0.05967761
0.027775124 -0.057353407 -0.017599478 -0.08497983 -0.013216028 -0.095791 -0.04964679 -0.07894411
0.03434913 -0.06684436 -0.032976825 0.05469226 0.062108282 0.08839842 0.15410407 0.010525866
0.06374211 -0.026475864 -0.08629528 -0.056891114 -0.03980119 -0.034547027 -0.038323306 0.01596289
-0.026525075 0.11007931 0.08669508 0.039338227 0.068649225 -0.05632377 -0.023805067 -0.091690466
-0.012079005 -0.08519579 -0.082654774 -0.020710595 -0.06600116 -0.08066127 -0.004434965 -0.027685761
0.103287384 0.07512733 0.10023048 0.11409923 8.461878e-05 0.03659465 0.051311083 -0.040146705
-0.069485575 0.009485912 -0.083349384 -0.09450588 -0.14511007 -0.029939778 -0.027741242 -0.06852251
0.014520497 0.040879473 0.0027524878 -0.015052105 0.009204617 0.063412726 0.01121523 -0.027874604
-0.06653501 0.06503451 -0.03691075 -0.014197306 0.053454407 -0.04584835 0.019846236 0.0685467
-0.06101935 0.044744004 -0.0080647385 -0.025506781 0.072030865 0.06342181 0.01700128 0.07888987
-0.032351833 -0.009025567 -0.003622865 -0.09356587 -0.09235157 -0.13038647 -0.02774688 -0.0977398
0.12130191 0.013214703 0.115893066 0.13535655 0.07796395 0.020955632 0.04693472 -0.007496045
-0.047395192 -0.08677985 -0.008048098 -0.1576421 -0.022106593 -0.050035115 -0.04412068 0.054488186
-0.069612116 0.088559605 -0.0016944642 0.08682952 -0.015261692 0.08704238 -0.02022518 -0.0024342863
-0.012004281 -0.05920119 0.011991852 -0.055808783 -0.029916994 -0.032711077 -0.08880216 -0.08238995
-0.12531337 -0.014524133 0.0056568673 -0.012404226 0.09388321 -0.04404007 -0.004391656 0.025084492
0.0026503669 0.08520886 0.07235656 -0.025248248 -0.06711047 -0.038163368 0.0071759755 -0.08758173
-0.12889765 -0.044716436 -0.0010655182 -0.039232537 -0.049489453 0.026002513 -0.032306064 -0.07011078
0.018707518 -0.111434005 -0.0857368 0.059811648 -0.038399775 -0.047834143 0.07881122 0.10416616
0.012817886 0.04998227 -0.03958862 -0.006445687 -0.010339673 0.043788917 0.036413427 -0.0898165
00000000: 340b 59bd 6cbf 46ba 3200 cabc 0027 7cbc
00000010: 63df 93bb 029e 83bd d78a 933d 679a 353d
00000020: 829e 213e 356a 4e3d 9647 14bd de13 89bd
00000030: f231 5e39 3fa3 9fbd 5ba6 6d3d c271 fc3c
00000040: 8016 4cbb 1749 893d d2f7 7b3d 92c8 843d
00000050: 7b54 b4bc 4a40 3fbc d32f 56bd 4e85 a3bd
00000060: 8b8d bcbd 2799 18bd 8f86 6dbd f617 10bd
00000070: 6850 a33c 6372 e23d a071 e63d 033b 353e
00000080: 0bab 013e e97c 1e3b 5d53 e63c 56a2 05bd
00000090: 420b 2ebd 2632 c8bd 4198 11bc 6ac5 533b
000000a0: e9ed b23c bf5e 7dbd 062f 423d e5fe 863c
000000b0: 660b d0bc f87b a6bd e81a 57bd 340e b8bd
000000c0: dbc0 62bd 0876 033d 7790 37bd 9299 1b3d
000000d0: 175a b2bc 218f 723b 0c71 a7bc eb47 cf3c
000000e0: a384 65bc 7853 e1bc dfbb 2d3c 79a0 b6bd
000000f0: 366c 843c 13bf a2bd 1161 343d 6741 193d
00000100: 279f bc3c 4352 c13d 6ccb cc3d 6648 353d
00000110: 59d4 8abd 69d0 0dbd b0ee 5dbd a233 07be
00000120: 38b5 47bc bedb 7fbd 359a 73ba 664f a53d
00000130: 87b0 623c 9cf2 483d 3b9a 683d 38f4 423d
00000140: 0bfe 773c 0648 1cbd be58 303d 7d6f b8bc
00000150: 1924 f53c b562 953d db27 18bc 1f4a 1a3d
00000160: 3a82 6f3c ba94 573d 8304 163d 304e ac3c
00000170: 9deb 553d 622b 68bc 54da 2cbd 8270 74bd
00000180: a888 e33c 68eb 6abd c82c 90bc e809 aebd
00000190: 0a88 58bc 122e c4bd 6f5a 4bbd 73ad a1bd
000001a0: acb1 0c3d b2e5 88bd b512 07bd fe04 603d
000001b0: 4165 7e3d 3b0a b53d 75cd 1d3e af74 2c3c
000001c0: 398b 823d e9e3 d8bc 94bb b0bd a806 69bd
000001d0: 9306 23bd 2f81 0dbd e6f8 1cbd 9bc4 823c
000001e0: 1d4b d9bc 4371 e13d 318d b13d 1f21 213d
000001f0: f797 8c3d c1b3 66bd d802 c3bc 36c8 bbbd
00000200: 05e7 45bc 217b aebd e846 a9bd 44a9 a9bc
00000210: 9e2b 87bd bc31 a5bd 2f53 91bb 40cd e2bc
00000220: 5688 d33d 5cdc 993d a345 cd3d dbac e93d
00000230: 5d75 b138 46e4 153d 922b 523d df70 24bd
00000240: 744e 8ebd cc6a 1b3c 15b3 aabd 4c8c c1bd
00000250: bc97 14be 4444 f5bc 9a41 e3bc 8855 8cbd
00000260: 61e7 6d3c 3c71 273d 1563 343b 1b9d 76bc
00000270: f6ce 163c 88de 813d 16c0 373c 4859 e4bc
00000280: 8243 88bd d030 853d ba2f 17bd d19b 68bc
00000290: 02f3 5a3d 7bcb 3bbd 9394 a23c 3662 8c3d
000002a0: 6def 79bd 7d45 373d f721 04bc 99f3 d0bc
000002b0: eb84 933d 4be3 813d 4546 8b3c 0391 a13d
000002c0: 5b83 04bd f9df 13bc 976d 6dbb 769f bfbd
000002d0: d222 bdbd 0884 05be 6d4d e3bc ce2b c8bd
000002e0: 236d f83d 7b82 583c 5859 ed3d e89a 0a3e
000002f0: 90ab 9f3d 25ab ab3c 9f3e 403d 62a1 f5bb
00000300: 7621 42bd a2b9 b1bd 2bdc 03bc ee6c 21be
00000310: e318 b5bc 9ff1 4cbd e3b7 34bd 012f 5f3d
00000320: cc90 8ebd bd5e b53d c918 deba add3 b13d
00000330: 2d0c 7abc 4643 b23d 47af a5bc 8c88 1fbb
00000340: 9bad 44bc f27c 72bd 7979 443c c097 64bd
00000350: 7c14 f5bc 0dfc 05bd e8dd b5bd 10bc a8bd
00000360: 2652 00be a1f6 6dbc 3e5d b93b 183b 4bbc
00000370: d745 c03d 5c63 34bd e1e7 8fbb fe7d cd3c
00000380: c7b1 2d3b fc81 ae3d ad2f 943d 6ad5 cebc
00000390: 3771 89bd 3151 1cbd 7224 eb3b 0d5e b3bd
000003a0: bffd 03be 9528 37bd dca8 8bba 4cb2 20bd
000003b0: 74b5 4abd 3903 d53c 5d53 04bd 3e96 8fbd
000003c0: 8240 993c 8337 e4bd c796 afbd 0ffd 743d
000003d0: 1549 1dbd bced 43bd c767 a13d 1155 d53d
000003e0: 1c02 523c 35ba 4c3d ad27 22bd 5736 d3bb
000003f0: bb67 29bc 025c 333d 3f26 153d b7f1 b7bd

local_block.conv_time.conv.0.bias f4 [8]
0.003472851 -0.0048368624 0.0007376968 0.009908395 0.0057267267 0.024005188 0.033088617 0.04701558
00000000: c598 633b 8b7e 9ebb ff61 413a d256 223c
00000010: 44a7 bb3b 87a6 c43c ee87 073d 6993 403d

local_block.conv_time.conv.1.weight f4 [8]
1.0108848 0.7512154 0.8602667 0.9362899 0.8939678 0.8865814 0.89248985 0.80320144
00000000: ac64 813f a74f 403f 703a 5c3f b2b0 6f3f
00000010: 13db 643f 00f7 623f 377a 643f 9c9e 4d3f

local_block.conv_time.conv.1.bias f4 [8]
-0.002690667 0.16353828 0.3116739 0.3367683 -0.018610593 -0.007254149 0.123237066 0.18973699
00000000: e755 30bb 9476 273e b993 9f3e e56c ac3e
00000010: 3e75 98bc 36b4 edbb b763 fc3d 6a4a 423e

local_block.conv_time.conv.1.running_mean f4 [8]
0.014872443 0.0048854756 0.012081915 0.016700892 -0.013734754 0.031355184 0.052148286 0.04938502
00000000: 8cab 733c 5716 a03b 39f3 453c 4fd0 883c
00000010: bc07 61bc 4b6e 003d 7199 553d f247 4a3d

local_block.conv_time.conv.1.running_var f4 [8]
10.002995 5.463483 12.276173 8.079564 7.098786 5.409027 6.0654955 4.997311
00000000: 440c 2041 dad4 ae40 346b 4441 e545 0141
00000010: 4129 e340 c016 ad40 8a18 c240 f9e9 9f40

local_block.conv_chan.conv.0.weight f4 [8, 8, 11, 1]
-0.03496928 0.16948177 0.011560585 -0.10865707 -0.067840256 -0.024397127 0.025532614 0.18480165
-0.060264077 -0.008010394 -0.065927304 0.025451818 0.03289855 0.038168225 -0.02894269 -0.011401174
-0.02044059 -0.08289103 -0.11984869 -0.025333792 0.011834814 0.029543161 0.014752317 0.088178635
0.0828223 -0.07855228 -0.053869214 -0.04748308 0.028952906 0.08794909 -0.047188796 0.05890346
-0.10886032 0.018050967 -0.025108501 -0.03388054 -0.012070752 -0.03607617 0.028527666 -0.031810418
0.07978851 -0.039180387 0.0029651748 0.05876716 -0.09730817 -0.008729873 -0.121663034 -0.020010654
-0.002172354 -0.068820715 0.097755596 0.08173024 0.039800745 0.041943625 0.012930212 -0.01406845
0.055829298 0.043489467 0.05437519 0.008028448 -0.04351058 0.034827612 -0.06748055 -0.12720327
0.0041291947 0.011418083 -0.058139633 -0.04716165 -0.09010987 0.051805045 -0.0073445127 0.023997616
0.0043445453 0.07252109 0.039713476 -0.01932879 0.017643996 0.009509435 0.03631019 0.05148508
-0.09281556 -0.039915748 -0.0327014 0.061492186 0.113805786 0.019757114 -0.03285164 -0.07257862
0.0014896718 -0.071273066 -0.021807807 0.007529459 0.06930617 -0.009174109 -0.054464024 0.0035329268
-0.03121852 0.018176192 -0.0015623866 -0.041899383 0.0066864383 -0.011934598 0.02224626 -0.011036876
0.0072709396 0.030744608 -0.037228305 -0.02656937 0.06815743 -0.045299917 -0.034512572 0.17574261
-0.008457808 -0.10623617 -0.024959505 -0.06826074 0.0487034 0.2371346 0.026757592 -0.02020104
-0.089420855 0.051527597 -0.053659983 0.027668621 0.015836194 -0.008346647 0.050681658 -0.09954197
0.03806157 -0.046377014 -0.062418085 0.07729447 0.0033382585 -0.047530193 0.036242068 -0.01917786
-0.024382222 0.079815604 -0.05781463 -0.11291385 0.009585893 0.025627013 0.0019061284 0.054575287
-0.12016642 -0.010111182 0.044279248 -0.005638613 0.020104803 -0.0022706988 -0.04013697 0.00402045
0.05043686 -0.025980959 0.0026645206 0.037258588 -0.038698792 -0.056113336 -0.07147639 -0.041187607
0.06741833 0.180077 0.024902724 -0.012496964 -0.087570034 -0.004209741 0.0703674 -0.02071641
-0.06164955 -0.016133886 -0.008800305 -0.06261171 0.124546304 0.045936573 0.02709698 -0.062126685
0.032561515 -0.081331186 -0.07198782 0.14225338 0.101218134 -0.029600954 -0.04008428 -0.034415558
0.015732935 0.06281985 0.0028836066 -0.13236386 -0.10887947 -0.07645478 0.10124966 0.11456226
0.004906931 -0.014286532 0.0011428775 0.03036605 -0.013598942 0.09580816 -0.059626404 -0.15258284
0.05354668 0.054657158 0.058057584 0.03362145 0.022340478 -0.01223676 0.05632237 -0.022393147
0.0055071497 -0.064715385 -0.06831192 -0.0065205004 0.057504565 0.06784527 0.018051459 0.013434188
-0.018766157 -0.060553603 0.06649438 0.022399195 -0.10450961 0.05696376 0.042790003 -0.04558945
-0.07112302 0.098361254 -0.022855304 0.0020830696 -0.0113968905 0.046305846 -0.020894533 -0.027108027
-0.076403655 0.008459188 0.042988595 0.008730129 -0.027570207 0.050510995 -0.08799911 0.05613242
-0.024714692 0.049848724 0.019255748 0.046912756 -0.08537314 -0.059061613 -0.030076826 0.061465316
-0.09257069 0.07343442 -0.017842216 0.05582835 0.0037254638 -0.11681961 0.026552701 -0.08568161
00000000: f33b 0fbd a18c 2d3e 9c68 3d3c 9987 debd
00000010: d5ef 8abd 7cdc c7bc c629 d13c a53c 3d3e
00000020: 77d7 76bd 073e 03bc e504 87bd 5580 d03c
00000030: a1c0 063d 4956 1c3d 3819 edbc fdcb 3abc
00000040: 0673 a7bc c6c2 a9bd 3b73 f5bd d088 cfbc
00000050: cfe6 413c 8004 f23c b4b3 713c 0097 b43d
00000060: bd9e a93d 05e0 a0bd f7a5 5cbd 9e7d 42bd
00000070: a52e ed3c a71e b43d 0a49 41bd c144 713d
00000080: 29f2 debd 9fdf 933c 58b0 cdbc 52c6 0abd
00000090: 67c4 45bc 9bc4 13bd dab2 e93c a44b 02bd
000000a0: 2968 a33d 9d7b 20bd 6153 423b d5b5 703d
000000b0: 8149 c7bd be07 0fbc 782a f9bd 62ed a3bc
000000c0: 0d5e 0ebb e0f1 8cbd 1634 c83d 2f62 a73d
000000d0: 1b06 233d 14cd 2b3d 3dd9 533c 5b7f 66bc
000000e0: 43ad 643d 0322 323d 85b8 5e3d c089 033c
000000f0: 2638 32bd 66a7 0e3d 3e33 8abd 9341 02be
00000100: 324e 873b e912 3b3c d323 6ebd 932c 41bd
00000110: 868b b8bd 8731 543d 3daa f0bb a696 c43c
00000120: b05c 8e3b f085 943d 99aa 223d 6957 9ebc
00000130: 248a 903c 76cd 1b3c feb9 143d 05e2 523d
00000140: 1616 bebd b27e 23bd e7f1 05bd 3bdf 7b3d
00000150: 0213 e93d acd9 a13c 718f 06bd 19a4 94bd
00000160: 1741 c33a 9df7 91bd 49a6 b2bc aeb9 f63b
00000170: 65f0 8d3d 014f 16bc ab15 5fbd ad88 673b
00000180: fbbd ffbc 3de6 943c ffc8 ccba b09e 2bbd
00000190: e919 db3b 5589 43bc ca3d b63c 03d4 34bc
000001a0: 1041 ee3b 1edc fb3c b57c 18bd 02a8 d9bc
000001b0: 1f96 8b3d 688c 39bd 0e5d 0dbd dff5 333e
000001c0: 9e92 0abc 5992 d9bd e077 ccbc 49cc 8bbd
000001d0: 377d 473d 6ad3 723e bd32 db3c a77c a5bc
000001e0: 4822 b7bd 9a0e 533d 92ca 5bbd 4ea9 e23c
000001f0: e8ba 813c 60c0 08bc 9297 4f3d a9dc cbbd
00000200: 73e6 1b3d d3f5 3dbd 1baa 7fbd 904c 9e3d
00000210: afc6 5a3b 05af 42bd 9072 143d e31a 9dbc
00000220: 3abd c7bc 5d76 a33d 09cf 6cbd 603f e7bd
00000230: 260e 1d3c beef d13c 0ed7 f93a 568a 5f3d
00000240: d019 f6bd 5fa9 25bc 285e 353d 1dc4 b8bb
00000250: d4b2 a43c 01d0 14bb aa66 24bd fbbd 833b
00000260: e296 4e3d 05d6 d4bc 3d9f 2e3b 769c 183d
00000270: a082 1ebd 19d7 65bd 3762 92bd 56b4 28bd
00000280: 9f12 8a3d 1b66 383e cc00 cc3c 11c0 4cbc
00000290: eb57 b3bd def1 89bb c91c 903d 76b5 a9bc
000002a0: 3d84 7cbd 362b 84bc 282f 10bc 913a 80bd
000002b0: 2212 ff3d fd27 3c3d 7cfa dd3c 8d78 7ebd
000002c0: 395f 053d f790 a6bd 5a6e 93bd dfaa 113e
000002d0: 744b cf3d b37d f2bc 6a2f 24bd 54f7 0cbd
000002e0: 5be2 803c b2a7 803d e4fa 3c3b 648a 07be
000002f0: 33fc debd 5394 9cbd fb5b cf3d 9e9f ea3d
00000300: 52ca a03b 0f12 6abc 9bcc 953a 39c2 f83c
00000310: 19ce 5ebc 1237 c43d d13a 74bd ad3e 1cbe
00000320: c353 5b3d 2fe0 5f3d cacd 6d3d a5b6 093d
00000330: 6103 b73c b17c 48bc 49b2 663d d571 b7bc
00000340: 5275 b43b 8089 84bd 1fe7 8bbd eca9 d5bb
00000350: e889 6b3d 76f2 8a3d a7e0 933c 121b 5c3c
00000360: 7cbb 99bc 0e07 78bd 352e 883d 847e b73c
00000370: 2209 d6bd d552 693d 9244 2f3d 01bc 3abd
00000380: f2a8 91bd a071 c93d 0c3b bbbc 1c84 083b
00000390: 06ba 3abc 33ab 3d3d 032b abbc a711 debc
000003a0: 8579 9cbd 6898 0a3c cf14 303d d108 0f3c
000003b0: eada e1bc 9ee4 4e3d e138 b4bd 1ceb 653d
000003c0: 7776 cabc 2d2e 4c3d 3bbe 9d3c 9727 403d
000003d0: 1dd8 aebd 97ea 71bd ad63 f6bc 0ec3 7b3d
000003e0: b495 bdbd c964 963d d729 92bc 45ac 643d
000003f0: e926 743b 1f3f efbd 0d85 d93c d779 afbd

local_block.conv_chan.conv.0.bias f4 [8]
-0.0057884697 -0.026260203 0.08101039 0.035752695 0.024980305 0.07056302 0.0642762 -6.7327164e-08
00000000: 34ad bdbb a31f d7bc c6e8 a53d 6b71 123d
00000010: 7fa3 cc3c 5883 903d 3ea3 833d 8095 90b3

local_block.conv_chan.conv.1.weight f4 [8]
1.6147159 1.6506166 1.5710695 1.6366714 1.7038362 1.5892944 1.527355 1.7478193
00000000: 03af ce3f 6847 d33f ce18 c93f 737e d13f
00000010: 4e17 da3f 006e cb3f 5e80 c33f 8bb8 df3f

local_block.conv_chan.conv.1.bias f4 [8]
-0.15418263 -0.184121 -0.10183508 -0.06957376 -0.10676404 -0.15861075 -0.060006946 -0.15710077
00000000: 0de2 1dbe 378a 3cbe e98e d0bd b07c 8ebd
00000010: 1ba7 dabd db6a 22be d8c9 75bd 06df 20be

local_block.conv_chan.conv.1.running_mean f4 [8]
-0.016768068 -0.013324018 0.050705325 0.009951794 -0.101817675 0.07067773 -0.026581626 -0.1608516
00000000: 305d 89bc fb4c 5abc 63b0 4f3d d90c 233c
00000010: c985 d0bd 7cbf 903d b6c1 d9bc 48b6 24be

local_block.conv_chan.conv.1.running_var f4 [8]
0.057040315 0.08209479 0.043496456 0.06687397 0.071696214 0.06584204 0.08731873 0.08625831
00000000: 1ba3 693d 5021 a83d 5729 323d 38f5 883d
00000010: 77d5 923d 31d8 863d 2ad4 b23d 32a8 b03d

fc.weight f4 [40, 496]
-0.0081376685 -0.014581525 0.0041446695 -0.014154363 -0.0646761 -0.02208896 -0.00043123422 -0.013653458
-0.012405667 -0.01083822 0.005616013 0.0014867918 0.010004787 0.0045464663 0.005570919 0.008945108
-0.0023188614 -0.06825173 0.0070213904 -0.0037005262 0.0058124964 -0.005269052 0.030290065 -0.003893289
-0.011279035 -0.012118326 0.021400068 -0.0354094 -0.023902848 -0.015366924 0.0036225747 0.0057726796
0.018172719 -0.017236158 -0.01150227 0.00921988 0.02080728 -0.022610547 0.006230579 0.010742912
0.019823456 -0.020559596 -0.045905076 0.003040481 0.005973772 -0.0052877213 0.0034277872 0.007371298
0.008172585 -0.011965614 -0.017632041 0.0051617287 0.0028710044 -0.009488157 0.020316372 -0.0032801603
0.015512847 -0.098190255 0.034493744 0.036809444 0.0055237184 -0.03560138 0.014081738 -0.010228619
0.020334559 -0.027220353 0.038606323 -0.015898526 0.038832963 -0.0180794 0.0069949105 -0.0085798865
0.06591062 -0.09303691 0.012663699 -0.00654794 0.052701216 -0.012492335 0.004207271 -0.0012486466
0.03135285 -0.008910369 0.0056624985 0.012985051 0.007377474 0.0065156063 8.0899095e-05 0.013285848
0.01788972 -0.042720597 -0.062283486 -0.002803225 0.024923569 -0.019682197 0.00750003 -0.028900608
0.029684845 -0.038187508 -0.019433666 0.002973496 0.029333973 -0.028761022 -0.048839804 0.00826086
0.00604418 -0.08071427 -0.04730632 0.010509416 0.01835272 -0.04626702 -0.010662817 0.030834835
0.0021248336 -0.024908893 -0.044514105 0.03356332 -0.008081234 -0.0072285547 -0.10491244 0.11622387
-0.056399938 0.019280689 -0.050467413 0.02786861 0.014236303 0.013197718 -0.051297892 -0.0062630167
0.006174484 -0.0068026837 -0.03689945 -0.078623705 -0.009019165 -0.003365745 -0.026000336 -0.00030492243
0.006309982 -0.017229926 -0.032894004 -0.00015764948 0.016829612 -0.01441717 -0.013028598 -0.01391047
0.0047898064 -0.008825845 -0.042501383 -0.0108659975 0.00068266544 -0.009514772 -0.040457208 -0.013431905
-0.01243246 -0.001690045 -0.02923091 0.007979171 -0.031351015 0.03277216 -0.009453038 0.011577046
-0.06482962 0.0044240705 -0.018131243 -0.036683768 -0.009928545 0.04264208 -0.018478265 0.021386765
-0.010149019 0.03254632 -0.10661104 0.0034520202 -0.014580724 0.0061212527 -0.070795946 0.025911806
-0.01657702 0.008042266 -0.024060294 0.03405817 -0.011712271 0.006690065 -0.07088731 0.02195744
-0.014309153 -0.008825763 -0.0051377947 -0.018171854 0.034570474 0.020133793 -0.031359624 -0.021184724
0.025827438 -0.0015438753 0.0017911843 -0.041884553 0.03197128 -0.02096029 0.014601274 -0.042937253
0.042520363 -0.014020334 -0.0088185975 -0.012596627 0.016533531 -0.013568344 -0.07899604 -0.024150992
0.020891888 -0.022621471 -0.121256344 -0.002594692 0.040190913 -0.021562368 0.0010238418 -0.012651896
0.046439245 -0.004289277 0.011076674 0.010294173 0.00076988345 -0.009710223 -0.024008565 0.026670353
-0.007107782 -0.00941655 -0.016936013 0.03503529 -0.010532916 0.0033691442 -0.017537177 0.077995464
-0.018988153 -0.066618994 -0.057720855 0.06655198 -0.018015504 -0.008734487 -0.021725088 0.044122502
-0.034715846 -0.01215864 -0.033161968 0.056410696 -0.029329779 0.013669306 -0.023726737 0.055686157
-0.0006328674 -0.00084311544 -0.0032069678 0.0044520316 0.0023906126 0.0035081732 -0.044186488 -0.015867425
00000000: db53 05bc 59e7 6ebc 02d0 873b b4e7 67bc
00000010: e774 84bd e8f3 b4bc 4717 e2b9 c1b2 5fbc
00000020: 2441 4bbc ca92 31bc 8806 b83b 74e0 c23a
00000030: 1eeb 233c 86fa 943b 418c b63b 818e 123c
00000040: 0af8 17bb 90c7 8bbd b113 e63b 8784 72bb
00000050: c176 be3b 03a8 acbb df22 f83c 8d26 7fbb
00000060: b4cb 38bc f18b 46bc 324f af3c 7209 11bd
00000070: e8cf c3bc 8dc5 7bbc b868 6d3b bf28 bd3b
00000080: f4de 943c d832 8dbc 0474 3cbc fb0e 173c
00000090: 0774 aa3c c139 b9bc e329 cc3b 0a03 303c
000000a0: cd64 a23c 996c a8bc f606 3cbd ce42 473b
000000b0: a2bf c33b 9f44 adbb baa4 603b ee8a f13b
000000c0: 4ee6 053c 6c0b 44bc 1271 90bc b823 a93b
000000d0: 7627 3c3b 3774 1bbc 856e a63c f5f7 56bb
000000e0: 9929 7e3c f917 c9bd 5049 0d3d 80c5 163d
000000f0: 4f00 b53b c1d2 11bd 17b7 663c f095 27bc
00000100: a994 a63c 38fd debc aa21 1e3d a03d 82bc
00000110: 500f 1f3d 401b 94bc 9035 e53b a792 0cbc
00000120: 26fc 863d 238a bebd 677b 4f3c 1a90 d6bb
00000130: 3bdd 573d a7ac 4cbc 26dd 893b a1a9 a3ba
00000140: d96b 003d ccfc 11bc 7b8c b93b 40bf 543c
00000150: bdbe f13b de80 d53b 5fa8 a938 e3ac 593c
00000160: 768d 923c cbfb 2ebd f81c 7fbd 50b6 37bb
00000170: 832c cc3c 8f3c a1bc d0c2 f53b f8c0 ecbc
00000180: a22d f33c 816a 1cbd 5a33 9fbc fcde 423b
00000190: cd4d f03c 3c9c ebbc 3f0c 48bd 8f58 073c
000001a0: 420e c63b 864d a5bd 46c4 41bd b02f 2c3c
000001b0: 7258 963c 7d82 3dbd 19b3 2ebc 5699 fc3c
000001c0: cb40 0b3b bc0d ccbc 6c54 36bd b179 093d
000001d0: 2767 04bc 83dd ecbb 55dc d6bd c806 ee3d
000001e0: 9f03 67bd 89f2 9d3c ebb6 4ebd b64c e43c
000001f0: 623f 693c 3e3b 583c bd1d 52bd fe39 cdbb
00000200: 5353 ca3b 0ce9 debb e123 17bd 7705 a1bd
00000210: 1fc5 13bc d593 5cbb a8fe d4bc ffdd 9fb9
00000220: f7c3 ce3b c625 8dbc ddbb 06bd b64e 25b9
00000230: 41de 893c fe35 6cbc e775 55bc bde8 63bc
00000240: cff3 9c3b 479a 10bc ee15 2ebd 4c07 32bc
00000250: e7f4 323a d9e3 1bbc 75b6 25bd 7e11 5cbc
00000260: 84b1 4bbc 8084 ddba a975 efbc 12bb 023c
00000270: ec69 00bd 1a3c 063d eae0 1abc a6ad 3d3c
00000280: 64c5 84bd cbf7 903b f987 94bc b841 16bd
00000290: 56ab 22bc 76a9 2e3d bb5f 97bc 4c33 af3c
000002a0: 1248 26bc 4a4f 053d e456 dabd 4a3b 623b
000002b0: fde3 6ebc ca94 c83b 77fd 90bd ff44 d43c
000002c0: 88cc 87bc b5c3 033c 181a c5bc 9480 0b3d
000002d0: d3e4 3fbc 5538 db3b 5e2d 91bd 17e0 b33c
000002e0: f070 6abc ef99 10bc f25a a8bb 24dd 94bc
000002f0: c599 0d3d a0ef a43c f372 00bd 968b adbc
00000300: 1094 d33c dc5b caba 2cc6 ea3a 238f 2bbd
00000310: 51f4 023d eab4 abbc 2f3a 6f3c f9de 2fbd
00000320: d529 2e3d 8bb5 65bc e17b 10bc 1562 4ebc
00000330: 5471 873c c24d 5ebc adc8 a1bd 4dd8 c5bc
00000340: 7725 ab3c aa50 b9bc 3f55 f8bd b50b 2abb
00000350: 3a9f 243d 90a3 b0bc 6e32 863a e649 4fbc
00000360: 1437 3e3d 108d 8cbb f07a 353c e4a8 283c
00000370: 01d2 493a a117 1fbc 9cad c4bc c97b da3c
00000380: 66e8 e8bb e047 1abc 65bd 8abc 2a81 0f3d
00000390: 4092 2cbc dccc 5c3b 20aa 8fbc 16bc 9f3d
000003a0: 0b8d 9bbc 8a6f 88bd b46c 6cbd 684c 883d
000003b0: 4095 93bc 181b 0fbc d0f8 b1bc ccb9 343d
000003c0: 3432 0ebd 0835 47bc d8d4 07bd e70e 673d
000003d0: 0145 f0bc 3af5 5f3c 935e c2bc 2b17 643d
000003e0: 03e7 25ba 8504 5dba fe2b 52bb 59e2 913b
000003f0: d3ab 1c3b 61e9 653b e4fc 34bd 67fc 81bc

fc.bias f4 [40]
0.0037097915 -0.0025413008 0.009805155 0.022125512 0.04804089 -0.0009376835 0.04835497 0.023718858
-0.0121424245 0.0016856734 0.004396523 0.007656133 0.02406872 0.010147231 0.0013768052 -0.0011821268
-0.009590776 -0.0001667996 -0.004090846 0.0053476556 0.023442475 -0.0012799364 0.0018677823 -0.0126415435
-0.009985264 -0.015983952 0.006049667 0.001595493 -0.007092577 0.011913264 -0.002899437 -0.010064586
-0.07660419 -0.0011569996 -0.008929706 0.004987572 -0.002269393 -0.0071659926 -0.017821023 0.011808707
00000000: f91f 733b f48b 26bb cda5 203c 9040 b53c
00000010: 86c6 443d e0ce 75ba dc0f 463d 0d4e c23c
00000020: 05f1 46bc d0f1 dc3a b510 903b 4ce0 fa3b
00000030: c42b c53c 9240 263c eb75 b43a 98f1 9aba
00000040: a122 1dbc ede6 2eb9 810c 86bb 633b af3b
00000050: 6f0a c03c 8ac3 a7ba 60d0 f43a 7a1e 4fbc
00000060: 3c99 23bc c7f0 82bc 493c c63b dd1f d13a
00000070: d968 e8bb da2f 433c 7b04 3ebb efe5 24bc
00000080: a8e2 9cbd 77a6 97ba e74d 12bc c96e a33b
00000090: 19ba 14bb b4d0 eabb 65fd 91bc 4f79 413c
