model/Benchmark/ablation/NoTCNet_b4_1s_S7.pth (torch, 101259 bytes, 26 tensors)

global_block.conv_time.conv.0.weight f4 [8, 1, 1, 125]
-0.080034174 -0.031862002 -0.06080686 -0.061801475 -0.117723234 -0.0032362153 -0.04859554 0.014877177
0.05156828 0.026886873 0.08027214 0.0005876299 -0.0043041036 0.024171846 -0.021451624 0.029457577
-0.035517816 0.022036746 -0.037928816 -0.010556195 -0.051104803 -0.062745385 -0.04206789 -0.032093726
-0.010732197 0.015396148 0.03232557 0.021001935 0.035373025 -0.03004257 0.048426222 -0.009581241
0.02531325 -0.0543707 -0.03134919 0.010008499 0.08141887 0.03123754 0.09622652 -0.060566053
-0.015276546 -0.070651166 0.0058691567 0.02891462 -0.025010094 0.035648935 0.02139453 0.01871805
0.11044657 0.05391598 0.016246526 0.05376315 0.05545133 0.053398263 0.03509732 -0.08565754
-0.13314687 -0.10133353 -0.059978753 -0.048050754 -0.048978064 -0.0041406336 0.037021615 0.04047101
0.07240886 0.009152954 0.021450337 -0.037389766 -0.025181495 -0.0070340442 -0.0068077943 0.007430133
-0.048216585 0.06770939 0.041549545 0.00056377094 -0.006284004 -0.016300201 -0.03009067 -0.105610766
-0.06931173 -0.010152365 -0.057866488 -0.008888289 -0.07732392 0.0019388724 -0.0102228355 -0.077563934
-0.079089664 -0.050835427 -0.05598409 -0.018387884 -0.11220019 -0.12866294 -0.040646195 -0.071976855
-0.024220675 0.0022880824 0.049765363 0.055151638 0.033807136 0.014167853 0.010579663 0.03449918
0.08157043 0.07987157 0.030039128 -0.010705025 -0.0069193235 -0.035530563 -0.013884565 -0.030065825
0.00049363426 -0.027328683 0.021947972 0.078086264 0.0580331 0.017385175 0.035711117 0.013145222
-0.0375645 0.0056284666 0.03408205 -0.050425593 -0.007876616 -0.01632681 -0.033393692 -0.03701484
0.017264975 -0.0735973 -0.009708116 -0.040487397 -0.022027062 -0.05797146 -0.027803037 0.013841774
0.016405186 -0.011408657 0.016998578 0.05373711 -0.05009338 0.015430156 -0.07409043 -0.072955236
-0.0054957303 -0.07204082 -0.054162655 -0.004614653 -0.020150935 -0.011861735 0.022572873 0.071814716
0.037491336 0.059162136 -0.0531398 -0.015489178 -0.0010482391 0.024534874 0.06250134 0.030622346
0.0516623 0.046890214 0.054169457 0.026834782 -0.053514957 -0.082269944 -0.054927234 -0.039719664
0.019305905 0.01115387 0.01305459 0.014899254 0.1360322 0.12402188 0.09839376 0.09085023
-0.0463082 -0.038426585 -0.010006689 0.006271176 -0.104958765 -0.017810537 -0.045867387 -0.004980035
-0.06683091 -0.0130619155 0.02702398 0.01017133 0.09359607 -0.0009264558 0.042855494 -0.027657416
0.0036141975 -0.0135912 -0.0033630414 -0.006445168 0.0022201426 0.025393765 -0.0012565868 0.031086218
-0.036320705 0.01834332 -0.07469931 0.015585245 0.06893386 0.07898184 0.07037623 0.0393795
-0.04569647 -0.036830015 -0.007326799 -0.040877663 -0.035720605 -0.024051506 -0.098407924 -0.0946313
-0.06320765 -0.003726409 -0.02630874 -0.009517672 -0.014278515 -0.0106448205 0.024580153 0.06369538
-0.01634663 0.028723897 -0.04228161 0.048111644 -0.0211152 -0.050947465 0.0031691242 -0.06989992
-0.05327482 0.016163573 0.0069531975 -0.06050139 0.052028738 -0.029614015 0.00746841 -0.05816219
-0.06080372 -0.05670063 -0.029097764 -0.06530321 -0.019350233 -0.070890486 -0.055918258 -0.020820927
0.0029639578 -0.026406577 0.08492299 -0.02175526 0.04039938 0.055884227 -0.03484358 -0.019490551
00000000: f5e8 a3bd bb81 02bd 9d10 79bd 8b23 7dbd
00000010: e118 f1bd af16 54bb 1e0c 47bd 67bf 733c
00000020: 4339 533d dc41 dc3c b865 a43d 2d0b 1a3a
00000030: 7009 8dbb 0904 c63c 51bb afbc 0451 f13c
00000040: 217b 11bd 6886 b43c 3f5b 1bbd e4f3 2cbc
00000050: 4553 51bd a780 80bd 614f 2cbd b674 03bd
00000060: 19d6 2fbc 2040 7c3c d167 043d 400c ac3c
00000070: 4ee3 103d d61b f6bc 935a 463d a3fa 1cbc
00000080: bc5d cf3c d0b3 5ebd 0268 00bd b0fa 233c
00000090: f0be a63d dfe5 ff3c 6912 c53d 1c14 78bd
000000a0: 7a4a 7abc 8fb1 90bd 0e52 c03b 5ade ec3c
000000b0: f8e1 ccbc 9e04 123d 9543 af3c 9956 993c
000000c0: d031 e23d 01d7 5c3d 6f17 853c c036 5c3d
000000d0: ef20 633d 23b8 5a3d 35c2 0f3d 386d afbd
000000e0: a757 08be f487 cfbd 48ac 75bd ded0 44bd
000000f0: 399d 48bd 27ae 87bb faa3 173d eec4 253d
00000100: 194b 943d 46f6 153c 9eb8 af3c 0326 19bd
00000110: 6c49 cebc d77d e6bb eb13 dfbb 7978 f33b
00000120: c17e 45bd 38ab 8a3d db2f 2a3d 07ca 133a
00000130: 0cea cdbb 0088 85bc b580 f6bc 754a d8bd
00000140: 4ff3 8dbd 1b56 26bc 6905 6dbd 30a0 11bc
00000150: 015c 9ebd c321 fe3a ae7d 27bc d7d9 9ebd
00000160: c3f9 a1bd cf38 50bd 934f 65bd 30a2 96bc
00000170: 37c9 e5bd 38c0 03be a07c 26bd 9a68 93bd
00000180: 706a c6bc a7f3 153b c4d6 4b3d afe6 613d
00000190: 5a79 0a3d 4820 683c 5356 2d3c 034f 0d3d
000001a0: 660e a73d b593 a33d 9e14 f63c 2164 2fbc
000001b0: 7ebb e2bb 7f88 11bd 167c 63bc 9b4c f6bc
000001c0: 3c67 013a 67e0 dfbc 3ccc b33c b1eb 9f3d
000001d0: 1eb4 6d3d 5b6b 8e3c d245 123d 0f5f 573c
000001e0: 3cdd 19bd 006f b83b 9f99 0b3d 118b 4ebd
000001f0: ec0c 01bc cdbf 85bc d3c7 08bd df9c 17bd
00000200: 476f 8d3c 2eba 96bd ca0e 1fbc 1dd6 25bd
00000210: 1972 b4bc 7b73 6dbd 32c3 e3bc 9cc8 623c
00000220: 2b64 863c 60eb 3abc 9a40 8b3c 721b 5c3d
00000230: b72e 4dbd c4ce 7c3c b9bc 97bd 8e69 95bd
00000240: 8715 b4bb 238a 93bd a9d9 5dbd 8436 97bb
00000250: 9313 a5bc b957 42bc bfea b83c 9813 933d
00000260: 8490 193d ff53 723d 1ea9 59bd 52c6 7dbc
00000270: 1165 89ba 5cfd c83c b400 803d b7db fa3c
00000280: d99b 533d f40f 403d cbe0 5d3d 9ed4 db3c
00000290: 8032 5bbd 257d a8bd 61fb 60bd 16b1 22bd
000002a0: 6b27 9e3c b9be 363c ebe2 553c 001c 743c
000002b0: 064c 0b3e 2fff fd3d ab82 c93d af0f ba3d
000002c0: abad 3dbd 3265 1dbd 18f3 23bc 707e cd3b
000002d0: 9ff4 d6bd 67e7 91bc 71df 3bbd 902f a3bb
000002e0: a5de 88bd a501 56bc 6561 dd3c a6a5 263c
000002f0: 4caf bf3d 65dd 72ba 3e89 2f3d ce91 e2bc
00000300: 2cdc 6c3b a0ad 5ebc 7966 5cbb fd31 d3bb
00000310: d07f 113b 9606 d03c 0eb4 a4ba 86a8 fe3c
00000320: 05c5 14bd bb44 963c f4fb 98bd 4159 7f3c
00000330: 322d 8d3d 3bc1 a13d 6a21 903d 664c 213d
00000340: 392c 3bbd 12db 16bd a515 f0bb 566f 27bd
00000350: c54f 12bd aa07 c5bc 188a c9bd 0ece c1bd
00000360: 0373 81bd c536 74bb 6d85 d7bc 02f0 1bbc
00000370: 6ff0 69bc 9d67 2ebc 515c c93c b972 823d
00000380: 5ee9 85bc 614e eb3c 7b2f 2dbd b710 453d
00000390: c9f9 acbc 4aae 50bd 15b1 4f3b b027 8fbd
000003a0: b336 5abd 7869 843c a6d7 e33b 4ed0 77bd
000003b0: 161c 553d 1799 f2bc 90b9 f43b 7a3b 6ebd
000003c0: 520d 79bd eb3e 68bd 6f5e eebc b0bd 85bd
000003d0: 6184 9ebc 082f 91bd 8b0a 65bd a690 aabc
000003e0: f63e 423b 9b52 d8bc 1bec ad3d 1638 b2bc
000003f0: d279 253d dce6 643d 24b8 0ebd a6aa 9fbc

global_block.conv_time.conv.0.bias f4 [8]
-0.0009762467 0.002877835 0.0016979596 0.0055628843 -0.005028019 -0.0041710543 1.1620068e-09 7.968162e-07
00000000: cfea 7fba 0f9a 3c3b 128e de3a db48 b63b
00000010: 15c2 a4bb 57ad 88bb 7bb4 9f30 cbe4 5535

global_block.conv_time.conv.1.weight f4 [8]
1.0556494 0.9397156 0.9680975 0.92632586 0.912738 1.0240096 0.86949027 0.8551513
00000000: 851f 873f 3491 703f 3dd5 773f b123 6d3f
00000010: 33a9 693f bf12 833f ea96 5e3f 32eb 5a3f

global_block.conv_time.conv.1.bias f4 [8]
-0.012683442 0.12655638 0.03358595 -0.047616143 -0.04166703 -0.064157955 -0.13679153 -0.0033791484
00000000: 36ce 4fbc ff97 013e 6c91 093d 2509 43bd
00000010: 0cab 2abd 3f65 83bd 1413 0cbe b474 5dbb

global_block.conv_time.conv.1.running_mean f4 [8]
0.035711523 0.009474038 -0.020130122 0.014817518 -0.033631008 -0.013357364 0.010382772 0.01064794
00000000: 3f46 123d ff38 1b3c ede7 a4bc 2dc5 723c
00000010: abc0 09bd d8d8 5abc 811c 2a3c b374 2e3c

global_block.conv_time.conv.1.running_var f4 [8]
25.48819 20.91136 23.747728 19.449785 24.428513 27.754576 20.121191 18.551651
00000000: d0e7 cb41 774a a741 59fb bd41 2999 9b41
00000010: 986d c341 5f09 de41 33f8 a041 c869 9441

global_block.conv_chan.conv.0.weight f4 [8, 8, 11, 1]
-0.036763612 0.037471503 -0.026099134 -0.01946779 0.059475828 -0.055639755 0.026703397 -0.018266376
-0.041375834 -0.097409315 0.071119465 0.11394655 -0.083627194 0.03653442 0.0858124 0.043598067
-0.06713317 -0.016013348 -0.11809269 0.005787779 -0.045049887 0.10073561 -0.09285942 -0.021838553
0.05124459 -0.04844455 0.006628161 -0.03450003 0.10310906 -0.035834476 -0.03513231 -0.017110698
0.00721443 0.07641047 -0.084222205 -0.09152748 0.04578255 0.005128723 -0.029556133 0.07049705
-0.108273804 -0.042416975 0.054303806 0.04933186 -0.071233936 -0.008140307 -0.070391804 0.0019766372
-0.019419752 0.022199532 0.06987424 0.010993891 0.05973747 -0.016479323 -0.048583403 0.001877991
0.1735115 0.06635323 -0.1275973 -0.15611945 -0.007983475 0.06457531 0.20532498 -0.036704313
0.020859659 -0.09479228 0.015681649 0.022610357 -0.0053210226 -0.033407245 0.023846675 -0.10642362
0.058930647 0.03598874 0.02388021 0.009697692 -0.016995607 -0.059918515 -0.06731197 -0.031585816
0.06627829 -0.018070139 0.1074359 0.043161035 -0.12364608 0.028797012 0.012637356 0.0562475
0.024862308 0.046940323 -0.015213881 -0.07528025 -0.059260346 -0.048396017 0.038034286 0.061998826
0.08123526 0.03496038 -0.06361381 -0.012739812 0.028144807 0.010223635 -0.11678884 0.022546748
-0.037061885 -0.08079659 0.19253755 0.1370033 -0.034656398 -0.08837115 0.09577078 -0.1462411
-0.006250244 0.042350356 0.044183336 0.04657764 -0.13450372 -0.11638661 -0.003094188 0.07372152
0.094737224 -0.015276881 0.09364575 -0.016369037 -0.054309275 -0.045579895 -0.04860746 0.02093755
0.18882738 0.1008086 -0.057189565 -0.11185514 0.030005105 0.018343184 -0.07730144 -0.097635016
0.014031406 -0.08696135 0.084924094 -0.0018301838 0.08682096 0.003267094 -0.03789212 -0.050396785
0.04884059 0.04243324 0.017620293 -0.079831526 0.011194868 0.072985575 -0.038718928 -0.07230343
-0.046086367 0.04714187 -0.06510515 -0.037413757 -0.038234003 0.048423 0.02416787 0.010514413
0.023404162 -0.027533546 0.02774129 -0.01843197 0.064226195 -0.01504524 0.057230785 -0.0013204219
-0.095679194 -0.13326526 0.057581462 0.035161946 0.18206827 0.022689948 -0.03189334 -0.08196244
-0.04847319 -0.120623246 -0.05790873 0.15405071 0.1287589 0.06861861 -0.110162765 -0.055674456
-0.026752168 0.06840127 0.048595753 -0.064949736 -0.048717223 0.028589893 -0.10275097 0.09345746
-0.044008538 0.057923045 0.11174991 0.08151996 -0.04387877 -0.04162379 0.03142521 0.18317807
-0.07947793 -0.098522775 -0.08379532 -0.07536017 -0.012917686 0.20849463 0.041408844 -0.04182642
-0.042168442 0.012147431 0.019877687 0.01858769 -0.14313088 -0.04223109 -0.06911091 0.039330777
0.10103616 0.054550227 0.017198792 -0.07692002 -0.044319738 -0.12039202 0.027722599 0.092218615
0.08174361 0.090485685 -0.09458052 -0.045641575 0.018635683 -0.04615807 0.037924632 0.028912928
-0.009438647 -0.043874517 0.06609737 -0.020509524 0.02492192 -0.05316713 -0.010750747 -0.09302785
0.02993941 0.059844796 -0.036177643 0.078932524 -0.07722698 -0.03659961 -0.028731247 0.054586995
0.0023942294 -0.036975704 0.09224736 0.05302568 -0.10080502 -0.016960913 0.019613214 -0.0125702545
00000000: 7195 16bd b87b 193d dacd d5bc ea7a 9fbc
00000010: ed9c 733d 83e6 63bd 15c1 da3c 5ea3 95bc
00000020: b579 29bd 897e c7bd 15a7 913d cf5c e93d
00000030: bc44 abbd 1ea5 153d 69be af3d e393 323d
00000040: 1e7d 89bd 6d2e 83bc 95da f1bd 69a7 bd3b
00000050: 3b86 38bd 794e ce3d 142d bebd c4e6 b2bc
00000060: d9e5 513d cb6d 46bd 0b31 d93b e74f 0dbd
00000070: d82a d33d 2cc7 12bd e6e6 0fbd bc2b 8cbc
00000080: 0667 ec3b 187d 9c3d b17c acbd c272 bbbd
00000090: 7c86 3b3d d90e a83b b41f f2bc c260 903d
000000a0: a8be ddbd 6cbd 2dbd ab6d 5e3d 3410 4a3d
000000b0: 19e3 91bd ec5e 05bc 9429 90bd 788a 013b
000000c0: 2c16 9fbc cbdb b53c 3a1a 8f3d b91f 343c
000000d0: 47af 743d a5ff 86bc 64ff 46bd ec26 f63a
000000e0: 00ad 313e 34e4 873d dea8 02be c7dd 1fbe
000000f0: 1fcd 02bc 0f40 843d b640 523e 4357 16bd
00000100: e0e1 aa3c 7422 c2bd cd76 803c 5b39 b93c
00000110: f95b aebb 09d6 08bd 1a5a c33c a0f4 d9bd
00000120: 4361 713d ee68 133d 6ea0 c33c 11e3 1e3c
00000130: 5f3a 8bbc 1e6d 75bd dcda 89bd 2160 01bd
00000140: e9bc 873d d407 94bc 5a07 dc3d a0c9 303d
00000150: 283a fdbd b6e7 eb3c ea0c 4f3c c763 663d
00000160: 0aac cb3c 7f44 403d a443 79bc 882c 9abd
00000170: faba 72bd e73a 46bd d7c9 1b3d 7bf2 7d3d
00000180: ac5e a63d 9e32 0f3d f547 82bd a5ba 50bc
00000190: f08f e63c 0881 273c fd2e efbd f5b3 b83c
000001a0: 34ce 17bd af78 a5bd 9028 453e 984a 0c3e
000001b0: def3 0dbd effb b4bd 7923 c43d 3ac0 15be
000001c0: d9ce ccbb 9177 2d3d 96f9 343d 32c8 3e3d
000001d0: 58bb 09be 1a5c eebd dcc7 4abb 4ffb 963d
000001e0: 9705 c23d e24b 7abc 58c9 bf3d 5c18 86bc
000001f0: 6773 5ebd fcb1 3abd 9e18 47bd 3a85 ab3c
00000200: f75b 413e bd74 ce3d 9b3f 6abd 4f14 e5bd
00000210: 44cd f53c 7244 963c 3850 9ebd def4 c7bd
00000220: fbe3 653c cb18 b2bd afec ad3d c7e2 efba
00000230: 30cf b13d be1c 563b c534 1bbd dc6c 4ebd
00000240: 120d 483d 7ace 2d3d 6f58 903c b67e a3bd
00000250: ae6a 373c 7679 953d bd97 1ebd d213 94bd
00000260: 0fc5 3cbd d517 413d d955 85bd 2b3f 19bd
00000270: 429b 1cbd 3257 463d b2fb c53c a544 2c3c
00000280: 16ba bf3c 088e e1bc b441 e33c a5fe 96bc
00000290: 0689 833d 4f80 76bc d46a 6a3d 0212 adba
000002a0: 74f3 c3bd b076 08be 8ada 6b3d f905 103d
000002b0: 1b70 3a3e 45e0 b93c 97a2 02bd ecdb a7bd
000002c0: d38b 46bd 5209 f7bd b431 6dbd 78bf 1d3e
000002d0: 60d9 033e ea87 8c3d 049d e1bd e60a 64bd
000002e0: 5d27 dbbc f715 8c3d 570c 473d 5e04 85bd
000002f0: b68b 47bd 5a35 ea3c 1a6f d2bd a066 bf3d
00000300: 4c42 34bd b740 6d3d 23dd e43d f0f3 a63d
00000310: 3aba 33bd b57d 2abd b9b7 003d 0893 3b3e
00000320: 53c5 a2bd 4fc6 c9bd e19c abbd 6f56 9abd
00000330: b4a4 53bc 9e7f 553e 529c 293d 2e52 2bbd
00000340: d1b8 2cbd 0506 473c 88d6 a23c 3645 983c
00000350: e790 12be 82fa 2cbd 058a 8dbd 4f19 213d
00000360: 0cec ce3d 0f70 5f3d 7be4 8c3c 3e88 9dbd
00000370: 9d88 35bd 1790 f6bd 811a e33c 1ddd bc3d
00000380: 3269 a73d 8f50 b93d 6fb3 c1bd a9f2 3abd
00000390: dca9 983c 3f10 3dbd dc56 1b3d ceda ec3c
000003a0: 8ea4 1abc c4b5 33bd 0f5e 873d 9703 a8bc
000003b0: 0e29 cc3c c7c5 59bd e723 30bc 6385 bebd
000003c0: 7e43 f53c d11f 753d 022f 14bd 60a7 a13d
000003d0: 2e29 9ebd 79e9 15bd cb5d ebbc 9d96 5f3d
000003e0: 81e8 1c3b d673 17bd 2fec bc3d 7531 593d
000003f0: dd72 cebd 9df1 8abc e4ab a03c 78f3 4dbc

global_block.conv_chan.conv.0.bias f4 [8]
-6.1254156e-08 0.056346647 -0.000817323 -0.020385642 0.11396711 -0.011666235 0.0030781971 0.030092027
00000000: d48a 83b3 becb 663d 9e41 56ba caff a6bc
00000010: 9767 e93d bc23 3fbc 94bb 493b 8e83 f63c

global_block.conv_chan.conv.1.weight f4 [8]
1.5276049 1.581761 1.6138653 1.6087168 1.5622358 1.5968587 1.6411047 1.5066007
00000000: 8f88 c33f 2577 ca3f 2393 ce3f 6fea cd3f
00000010: 58f7 c73f de65 cc3f b80f d23f 4bd8 c03f

global_block.conv_chan.conv.1.bias f4 [8]
-0.09333139 -0.11895068 -0.13620348 -0.076704524 -0.12583593 -0.12629816 -0.11330089 -0.033960067
00000000: 8724 bfbd 6a9c f3bd ed78 0bbe 4317 9dbd
00000010: 22db 00be 4e54 01be 4c0a e8bd b619 0bbd

global_block.conv_chan.conv.1.running_mean f4 [8]
-0.007332422 0.036192305 -0.020571664 -0.03827972 0.07377448 -0.06762836 0.016541025 0.001580922
00000000: d044 f0bb 623e 143d e885 a8bc 32cb 1cbd
00000010: 1317 973d bd80 8abd 0b81 873c f136 cf3a

global_block.conv_chan.conv.1.running_var f4 [8]
0.037975308 0.05967359 0.027663501 0.04427982 0.062064588 0.050756764 0.04908337 0.033506405
00000000: ff8b 1b3d 4b6c 743d 919e e23c c25e 353d
00000010: 7037 7e3d 53e6 4f3d a50b 493d 033e 093d

local_block.conv_time.conv.0.weight f4 [8, 1, 1, 51]
-0.06420594 0.013777857 -0.010018111 0.008986942 0.022940844 -0.0567265 0.082801536 0.049320407
0.16999283 0.07262328 -0.028416242 -0.07311925 -0.0016722222 -0.09872874 0.037560523 -0.003357776
-0.033579506 0.039032567 0.035368346 0.05142349 -0.030006861 0.005890019 -0.03618157 -0.07150528
-0.09082694 -0.02619226 -0.0450551 -0.014023249 0.050611444 0.14597693 0.15272723 0.2039245
0.1667901 0.014224148 0.041276358 -0.052858282 -0.065628506 -0.12496252 -0.02546744 0.0026111146
0.041957766 -0.06783733 0.06582441 0.024619546 -0.017840106 -0.08804013 -0.053437814 -0.10618541
-0.07564213 0.019983355 -0.07985335 0.04644099 -0.03734295 -0.010032333 -0.048450403 0.011954254
-0.029685587 -0.04228625 -0.00018425097 -0.12105007 -0.002291485 -0.119546354 0.024927262 0.013375183
-0.00838549 0.0841511 0.093322866 0.039550073 -0.07545223 -0.03470343 -0.053083986 -0.13721347
-0.00091528153 -0.058728084 0.02099029 0.11153842 0.038824122 0.081353776 0.08357891 0.05542417
0.0028212802 -0.06117999 0.018200094 -0.05077222 0.00951309 0.06830526 -0.017176442 0.072549246
0.06283496 0.09758034 0.06850886 0.046095077 0.07486813 -0.0035804776 -0.04216223 -0.06830378
0.035103418 -0.044147667 0.0050795316 -0.08692637 -0.001127369 -0.09698452 -0.04719616 -0.07126713
0.07064386 -0.06059752 -0.03496661 0.06136043 0.064304434 0.09828707 0.17827503 0.020003002
0.09644736 -0.015770255 -0.09764444 -0.07689375 -0.06722501 -0.062887356 -0.06585965 0.010555457
-0.03529635 0.12647825 0.10066976 0.047128472 0.07933154 -0.060098015 -0.020450324 -0.09725262
-0.007170252 -0.08783014 -0.075894065 0.010668293 -0.043495808 -0.062105402 0.01616049 -0.017395865
0.115560144 0.08444769 0.11477712 0.12384276 -0.041950267 0.0011072215 0.025976932 -0.07139886
-0.10024573 -0.018189723 -0.12229478 -0.12862106 -0.18034196 -0.06876758 -0.040802136 -0.08228206
0.045966264 0.035089277 -0.002223804 -0.012556368 0.015473271 0.07122443 0.018035585 -0.020710384
-0.06378349 0.09332876 -0.023206754 -0.0011592044 0.06378561 -0.041810893 0.027326753 0.077048
-0.06298049 0.0524372 -0.0017258391 -0.025656134 0.07003481 0.043275785 -0.019914605 0.058466773
-0.0517057 -0.015063855 -0.0052786 -0.10414103 -0.09518361 -0.12972103 -0.0028005755 -0.069827996
0.16313429 0.049259823 0.13520251 0.14872879 0.08301279 0.023137923 0.044114508 -0.016100029
-0.055667806 -0.09466441 -0.016287075 -0.18001881 -0.02082684 -0.058515687 -0.04823617 0.06271226
-0.054240417 0.10131327 0.012811092 0.10786052 -0.0023465946 0.113768086 -0.020512532 -0.0081493035
-0.024058634 -0.07385814 0.031126047 -0.06421168 -0.026722604 -0.036011405 -0.10140929 -0.09997541
-0.15279944 -0.040955964 -0.024571568 -0.047561288 0.104847826 -0.05928638 0.0033006223 0.05497659
0.032199465 0.12599154 0.095399715 -0.042975444 -0.09149917 -0.058291934 0.0109468475 -0.10829971
-0.14974469 -0.047431313 0.0045659607 -0.045133326 -0.062525466 0.030995972 -0.052857958 -0.10027473
0.01332837 -0.13052715 -0.100426644 0.07840639 -0.04567085 -0.050287895 0.1138815 0.1321231
0.0036084251 0.055218928 -0.0597184 -0.019138493 -0.03151705 0.024567803 0.015936524 -0.10268169
00000000: 677e 83bd 85bc 613c 0123 24bc f73d 133c
00000010: 70ee bb3c 0c5a 68bd da93 a93d 3204 4a3d
00000020: 9a12 2e3e 84bb 943d 2ec9 e8bc 8cbf 95bd
00000030: 772e dbba 4b32 cabd 10d9 193d 220e 5cbb
00000040: aa8a 09bd 9de0 1f3d 66de 103d 70a1 523d
00000050: f3d0 f5bc 0f01 c13b 2033 14bd 5c71 92bd
00000060: 7a03 babd 2791 d6bc b28b 38bd c5c1 65bc
00000070: f24d 4f3d fa7a 153e 8764 1c3e 96d1 503e
00000080: 06cb 2a3e 670c 693c 6611 293d ed81 58bd
00000090: 3d68 86bd 5aec ffbd 18a1 d0bc 3c1f 2b3b
000000a0: e8db 2b3d 4cee 8abd f3ce 863d eeae c93c
000000b0: 6a25 92bc 624e b4bd 9ce1 5abd bc77 d9bd
000000c0: 43ea 9abd 22b4 a33c 278a a3bd e838 3e3d
000000d0: ecf4 18bd a85e 24bc ee73 46bd c6db 433c
000000e0: 302f f3bc 5934 2dbd 7e33 41b9 19e9 f7bd
000000f0: bd2c 16bb b8d4 f4bd 4234 cc3c 9523 5b3c
00000100: 4b63 09bc 6957 ac3d 0f20 bf3d 42ff 213d
00000110: b386 9abd 2f25 0ebd 986e 59bd b081 0cbe
00000120: 81ef 6fba dc8c 70bd d4f3 ab3c 416e e43d
00000130: 0b06 1f3d cf9c a63d 6b2b ab3d 7404 633d
00000140: 3ae5 383b df97 7abd 5d18 953c 88f6 4fbd
00000150: cbdc 1b3c a1e3 8b3d 9cb5 8cbc b394 943d
00000160: 9eaf 803d 34d8 c73d 604e 8c3d 31ce 3c3d
00000170: 7654 993d 72a6 6abb 4db2 2cbd dae2 8bbd
00000180: 9ac8 0f3d 2fd4 34bd 3372 a63b 7406 b2bd
00000190: 3ac4 93ba d29f c6bd c350 41bd 80f4 91bd
000001a0: baad 903d 1b35 78bd 2639 0fbd 1355 7b3d
000001b0: 0bb2 833d bb4a c93d bb8d 363e 56dd a33c
000001c0: 3286 c53d 9f30 81bc cff9 c7bd 787a 9dbd
000001d0: 44ad 89bd 16cb 80bd 6de1 86bd ccf0 2c3c
000001e0: e892 10bd 8483 013e f22b ce3d c909 413d
000001f0: 9378 a23d 5629 76bd 7087 a7bc 622c c7bd
00000200: 6ff4 eabb 4ae0 b3bd 596e 9bbd 10ca 2e3c
00000210: a928 32bd 3c62 7ebd 0163 843c c681 8ebc
00000220: ccaa ec3d e9f2 ac3d 4410 eb3d 46a1 fd3d
00000230: 0bd4 2bbd 3020 913a 93cd d43c 9139 92bd
00000240: a24d cdbd 9d02 95bc b075 fabd 3db5 03be
00000250: 90ab 38be 04d6 8cbd 2420 27bd 7f83 a8bd
00000260: 1f47 3c3d c6b9 0f3d 3dbd 11bb 39b9 4dbc
00000270: 9a83 7d3c 1dde 913d 5dbf 933c d3a8 a9bc
00000280: eba0 82bd 2623 bf3d 171c bebc 72f0 97ba
00000290: 08a2 823d e641 2bbd 5bdc df3c 58cb 9d3d
000002a0: eafb 80bd 64c8 563d 8d35 e2ba d02c d2bc
000002b0: 696e 8f3d f341 313d f423 a3bc db7a 6f3d
000002c0: 5bc9 53bd 63ce 76bc 1bf8 acbb e447 d5bd
000002d0: a0ef c2bd 97d5 04be dc89 37bb fb01 8fbd
000002e0: ad0c 273e abc4 493d 8772 0a3e 5c4c 183e
000002f0: 9c02 aa3d be8b bd3c 6ab1 343d 35e4 83bc
00000300: ed03 64bd 6adf c1bd 796c 85bc da56 38be
00000310: 0d9d aabc 25ae 6fbd 4a93 45bd 496f 803d
00000320: 332b 5ebd 557d cf3d 9de5 513c fae5 dc3d
00000330: 53c9 19bb 3eff e83d e609 a8bc a884 05bc
00000340: 9d16 c5bc f042 97bd 0dfc fe3c 6a81 83bd
00000350: 5de9 dabc b280 13bd adaf cfbd e8bf ccbd
00000360: 7577 1cbe 71c1 27bd 504a c9bc a0cf 42bd
00000370: 75ba d63d 46d6 72bd 414f 583b 222f 613d
00000380: 96e3 033d ed03 013e ed60 c33d 0507 30bd
00000390: eb63 bbbd 86c3 6ebd 685a 333c 3dcc ddbd
000003a0: ac56 19be 5647 42bd 0e9e 953b b9dd 38bd
000003b0: 5a0d 80bd 44eb fd3c 9681 58bd d65c cdbd
000003c0: 3c5f 5a3c e9a8 05be 7cac cdbd 8893 a03d
000003d0: 5b11 3bbd aefa 4dbd b43a e93d 474b 073e
000003e0: 547b 6c3b 3e2d 623d 489b 74bd 54c8 9cbc
000003f0: 0618 01bd 6b42 c93c 508d 823c c74a d2bd

local_block.conv_time.conv.0.bias f4 [8]
0.0034728514 -0.0048368634 0.0007376972 0.009908389 0.005726728 0.024005193 0.033088624 0.047015604
00000000: c798 633b 8d7e 9ebb 0562 413a cc56 223c
00000010: 47a7 bb3b 8aa6 c43c f087 073d 6f93 403d

local_block.conv_time.conv.1.weight f4 [8]
1.0071919 0.76028645 0.8624828 0.9364399 0.8995581 0.8878433 0.9021898 0.8166488
00000000: aaeb 803f 22a2 423f accb 5c3f 86ba 6f3f
00000010: 7149 663f b349 633f e9f5 663f e50f 513f

local_block.conv_time.conv.1.bias f4 [8]
0.015239171 0.1729111 0.310863 0.33668837 -0.04886638 0.004822503 0.1395742 0.20193715
00000000: b7ad 793c 9b0f 313e 6f29 9f3e 6b62 ac3e
00000010: 1d28 48bd 1606 9e3b 8aec 0e3e 9dc8 4e3e

local_block.conv_time.conv.1.running_mean f4 [8]
0.0065503162 0.012096243 0.024666883 0.013165618 0.0029069008 0.011185072 0.034516953 0.06498438
00000000: 09a4 d63b 522f 463c 3412 ca3c 9bb4 573c
00000010: b481 3e3b 9841 373c a661 0d3d 8816 853d

local_block.conv_time.conv.1.running_var f4 [8]
30.4137 14.613055 31.528498 22.504234 22.548264 15.155845 17.73099 15.280334
00000000: 424f f341 13cf 6941 5d3a fc41 ac08 b441
00000010: d862 b441 577e 7241 11d9 8d41 407c 7441

local_block.conv_chan.conv.0.weight f4 [8, 8, 11, 1]
-0.078271076 0.16972747 0.030366797 -0.10223082 -0.086014934 -0.036099367 0.020612685 0.2317451
-0.036957145 0.0035053664 -0.059656724 0.03723686 0.035693977 0.04826321 -0.015020952 -0.0059485496
-0.018500654 -0.0883002 -0.11104418 -0.020055652 0.017381204 0.034183647 -0.009539473 0.08283873
0.08797827 -0.05896295 -0.06998112 -0.060892113 0.02173283 0.13757205 -0.049357694 0.060917355
-0.12430238 0.0027868978 -0.02226613 -0.033880044 0.012605137 -0.047412746 0.026147956 -0.03793635
0.12176612 -0.036814664 -7.926775e-05 0.053476404 -0.0786402 0.011049752 -0.11669888 -0.037148092
0.009113912 -0.061427906 0.117367655 0.06608797 0.03188357 0.055208925 0.027612938 -0.030565992
0.05350276 0.049897473 0.067084946 0.0020929493 -0.056892365 0.032344934 -0.061764013 -0.12599488
0.008460722 0.013690108 -0.060614403 -0.046478808 -0.0930763 0.08402481 -0.002015816 0.035661228
0.012337908 0.08791889 0.026658837 -0.021530295 0.032877706 -0.012116029 0.025515893 0.05212453
-0.11155744 -0.054264087 -0.046520174 0.051728386 0.12840858 0.021911992 -0.037364475 -0.076040395
0.024676131 -0.068797514 -0.02855659 0.016780347 0.08554164 -0.0032792292 -0.053608093 -0.0032166531
-0.038149837 0.026777621 -0.004838314 -0.053466566 0.0029495324 0.0011637002 0.019502355 -0.015031896
0.005734145 0.031385835 -0.03846236 -0.034191754 0.09150482 -0.04157285 -0.07494856 0.16920792
-0.015453544 -0.15585461 -0.03672837 -0.085442275 0.051582884 0.26785874 0.015611661 -0.02605963
-0.1005162 0.07088115 -0.048201047 0.036610305 -0.016188594 -0.011925663 0.059697635 -0.1164724
0.028890092 -0.049701627 -0.059742473 0.09371888 0.010220686 -0.041738465 0.04337213 -0.02489309
-0.025957767 0.08968311 -0.061089955 -0.12733223 0.01535865 0.031247461 -0.0037756928 0.07162205
-0.12264583 -0.004005235 0.057968363 -0.009402526 0.019400937 -0.0059838183 -0.06655682 0.013274735
0.06799228 -0.017892726 -0.035197333 0.02202803 -0.028677855 -0.06307635 -0.082867526 -0.048902765
0.07111316 0.21224213 0.033114526 -0.0028253072 -0.07649404 -0.015500305 0.06489755 -0.03224268
-0.07406738 -0.0015345813 0.0060031423 -0.058689505 0.16301392 0.03609628 0.021974567 -0.079066366
0.04259546 -0.105085716 -0.0876245 0.16720487 0.119045116 -0.028430337 -0.04144454 -0.075637974
0.0075585986 0.07333962 0.02817268 -0.11699727 -0.11676555 -0.078711085 0.084708616 0.15489532
0.021532223 -0.0031833898 -0.06118294 0.017246947 -0.009109862 0.12074623 -0.050496787 -0.15097256
0.07429109 0.024132995 0.06064299 0.03314421 0.016995544 -0.071490996 0.05242672 -0.022132797
0.005292986 -0.060030255 -0.06396997 -0.006927057 0.043114394 0.073274344 0.0152243255 0.010248239
-0.06545968 -0.07320999 0.08629273 0.027163548 -0.11880696 0.068178765 0.0433582 -0.04679015
-0.07505124 0.11689321 -0.020997891 0.030920781 -0.013525267 0.050983127 -0.04778521 -0.020970512
-0.09337771 0.0035534862 0.052836757 0.016584944 -0.026196482 0.06439189 -0.117437735 0.06812094
-0.036119632 0.074053906 0.018686557 0.070869595 -0.10237205 -0.07516012 -0.044154402 0.07004835
-0.11889475 0.11379681 -0.015399893 0.0736528 -0.01769158 -0.114208534 0.05845095 -0.084973335
00000000: 964c a0bd 0acd 2d3e cac3 f83c 645e d1bd
00000010: 9928 b0bd eedc 13bd efdb a83c 964e 6d3e
00000020: 6060 17bd 4aba 653b 9c5a 74bd ad85 183d
00000030: d933 123d a5af 453d 701a 76bc 0dec c2bb
00000040: af8e 97bc bcd6 b4bd 226b e3bd c04b a4bc
00000050: 0763 8e3c 2704 0c3d 734b 1cbc 5aa7 a93d
00000060: f42d b43d 2283 71bd 4352 8fbd 026a 79bd
00000070: 0c09 b23c b0df 0c3e 4b2b 4abd 7a84 793d
00000080: 3f92 febd 63a4 363b 7667 b6bc cdc5 0abd
00000090: c785 4e3c de33 42bd 3d34 d63c 2563 1bbd
000000a0: 8460 f93d f9ca 16bd 8d3c a6b8 130a 5b3d
000000b0: 1d0e a1bd 050a 353c d3ff eebd 9928 18bd
000000c0: 8452 153c d49b 7bbd 745e f03d 2159 873d
000000d0: 5998 023d c122 623d 8734 e23c 8865 fabc
000000e0: b625 5b3d 4b61 4c3d d563 893d dd29 093b
000000f0: f807 69bd 1f7c 043d 43fc 7cbd cd04 01be
00000100: d79e 0a3c 7a4c 603c cf46 78bd 9060 3ebd
00000110: ca9e bebd 3315 ac3d c81b 04bb 8211 123d
00000120: f024 4a3c d20e b43d a263 da3c 4d60 b0bc
00000130: c6aa 063d 4f82 46bc b506 d13c 8880 553d
00000140: 3a78 e4bd 0544 5ebd f08b 3ebd 25e1 533d
00000150: 8a7d 033e c780 b33c 7e0b 19bd 11bb 9bbd
00000160: 9925 ca3c b6e5 8cbd 83ef e9bc f076 893c
00000170: 7530 af3d 56e8 56bb 2994 5bbd 7cce 52bb
00000180: 0143 1cbd be5c db3c b88a 9ebb c2ff 5abd
00000190: f14c 413b 4d87 983a 67c3 9f3c 5748 76bc
000001a0: 7fe5 bb3b 6f8e 003d b58a 1dbd a70c 0cbd
000001b0: e166 bb3d 4b48 2abd a17e 99bd d744 2d3e
000001c0: dd30 7dbc 5a98 1fbe 7d70 16bd 5cfc aebd
000001d0: 9348 533d c824 893e 0dc8 7f3c 017b d5bc
000001e0: 70db cdbd 232a 913d 766e 45bd b0f4 153d
000001f0: f19d 84bc db63 43bc 8285 743d 1589 eebd
00000200: eaaa ec3c ef93 4bbd 86b4 74bd afef bf3d
00000210: aa74 273c f4f5 2abd f9a6 313d 98ec cbbc
00000220: 62a5 d4bc c7ab b73d 7639 7abd 6163 02be
00000230: d9a2 7b3c adfa ff3c 9d71 77bb 95ae 923d
00000240: bd2d fbbd 593e 83bb 3c70 6d3d 0d0d 1abc
00000250: b7ee 9e3c e813 c4bb f14e 88bd 467e 593c
00000260: 893f 8b3d c493 92bc 142b 10bd 2174 b43c
00000270: d2ed eabc 2c2e 81bd 73b6 a9bd 444e 48bd
00000280: c7a3 913d 0056 593e 19a3 073d ca28 39bb
00000290: e8a8 9cbd fef4 7dbc 02e9 843d e710 04bd
000002a0: a3b0 97bd 0124 c9ba 02b6 c43b 6864 70bd
000002b0: 1fed 263e b1d9 133d 0204 b43c 8ced a1bd
000002c0: 9478 2e3d 2e37 d7bd 7974 b3bd c137 2b3e
000002d0: edcd f33d bde6 e8bc c0c1 29bd 15e8 9abd
000002e0: 1fae f73b 1533 963d 64ca e63c 449c efbd
000002f0: c722 efbd 4733 a1bd b67b ad3d e19c 1e3e
00000300: 5864 b03c 6ba0 50bb f69a 7abd 7849 8d3c
00000310: 8841 15bc cd49 f73d b8d5 4ebd 8d98 1abe
00000320: ed25 983d 8fb2 c53c c964 783d 39c2 073d
00000330: 3d3a 8b3c df69 92bd 66bd 563d d74f b5bc
00000340: c970 ad3b 49e2 75bd b002 83bd 5efc e2bb
00000350: b898 303d dc10 963d 736f 793c 3be8 273c
00000360: ba0f 86bd 1fef 95bd 3eba b03d 1786 de3c
00000370: 1051 f3bd 4fa1 8b3d 5e98 313d 07a7 3fbd
00000380: 77b4 99bd b565 ef3d c503 acbc 944d fd3c
00000390: 1599 5dbc afd3 503d 6dba 43bd 5aca abbc
000003a0: d03c bfbd 9be1 683b 5b6b 583d 26dd 873c
000003b0: 019a d6bc e5df 833d 3283 f0bd fe82 8b3d
000003c0: 2ef2 13bd 93a9 973d 8d14 993c 1424 913d
000003d0: 70a8 d1bd 8ded 99bd 3fdb 34bd 8275 8f3d
000003e0: 177f f3bd 4d0e e93d d54f 7cbc 47d7 963d
000003f0: efed 90bc 2ae6 e9bd 436a 6f3d 8006 aebd

local_block.conv_chan.conv.0.bias f4 [8]
-0.00578851 -0.0262602 0.08101039 0.03575266 0.024980295 0.07056303 0.06427621 -1.6208357e-07
00000000: 8bad bdbb a21f d7bc c6e8 a53d 6271 123d
00000010: 7aa3 cc3c 5a83 903d 3fa3 833d 3109 2eb4

local_block.conv_chan.conv.1.weight f4 [8]
1.6155722 1.6463584 1.5758185 1.6407336 1.7083052 1.5887748 1.5281104 1.743886
00000000: 12cb ce3f dfbb d23f 6cb4 c93f 8f03 d23f
00000010: bfa9 da3f f95c cb3f 1f99 c33f a837 df3f

local_block.conv_chan.conv.1.bias f4 [8]
-0.17825574 -0.20033553 -0.10718843 -0.106294766 -0.13989198 -0.17613809 -0.065622196 -0.16675787
00000000: ac88 36be c224 4dbe 9c85 dbbd 12b1 d9bd
00000010: d83f 0fbe 8b5d 34be ee64 86bd 93c2 2abe

local_block.conv_chan.conv.1.running_mean f4 [8]
-0.024713432 -0.044962298 0.07565293 -0.02438864 -0.05742045 -0.014274919 0.11913868 -0.10183384
00000000: d373 cabc 632a 38bd ecef 9a3d afca c7bc
00000010: b531 6bbd 5ae1 69bc fbfe f33d 438e d0bd

local_block.conv_chan.conv.1.running_var f4 [8]
0.03586626 0.036110867 0.019869873 0.026519906 0.066158846 0.031090489 0.062126208 0.041019022
00000000: 80e8 123d fde8 133d 25c6 a23c 4640 d93c
00000010: 4a7e 873d 7bb1 fe3c 0d78 7e3d 9003 283d

fc.weight f4 [40, 496]
-0.018769601 -0.014867764 0.011592648 -0.022985531 -0.08205103 -0.025700338 -0.024248915 0.008004284
-0.022400593 0.0033886647 -0.01840118 0.021901075 0.015767392 -0.0008754233 0.01934271 0.029517027
-0.025912048 -0.070718504 -0.015221102 0.0033575438 -0.004071799 -0.020726621 0.02705535 -0.0056757936
-0.009909437 -0.022815986 0.040413182 -0.029309126 -0.037209596 -0.011936764 -0.022835517 -0.0044384105
0.028901936 -0.02165505 -0.020261861 0.018497469 0.0076899747 -0.0011625389 0.010235222 0.04511782
-0.00070424535 0.018979281 -0.07203541 0.038472675 -0.004786483 0.017106792 -0.012102659 0.0286048
0.016787205 -0.02514757 -0.03740769 0.022014275 0.029252868 -0.017987743 0.028150374 0.003462942
0.027000468 -0.10201632 0.051818263 0.056372423 -0.0029239377 -0.049853764 0.04673977 -0.020328343
0.051120184 -0.042161707 0.06087016 -0.033318665 0.06992454 -0.02976719 0.039712314 -0.0026948417
0.080401495 -0.107078 0.0003682882 -0.014661168 0.04763254 -0.018792534 0.012458548 -0.017265473
0.052179694 -0.0020250233 0.0027374728 0.03311258 -0.006599168 -0.0049060634 -0.020198483 0.053227354
0.017537128 -0.05972239 -0.07743391 -0.02245951 0.03567963 -0.014064177 0.02048422 -0.03851609
0.015717532 -0.04002449 -0.02124226 -0.018308792 0.06145822 -0.035615694 -0.05508597 -0.01005905
0.04636777 -0.102876075 -0.053511064 0.022568865 0.039485987 -0.05840938 -0.021280203 0.034527235
-0.009783698 -0.03846404 -0.054602157 0.041436195 0.014785339 -0.015575975 -0.10775167 0.11849561
-0.06256741 0.011956973 -0.053881504 0.029284462 0.0036294071 0.030640546 -0.07222228 0.032378342
0.006227064 -0.026182547 -0.043590527 -0.087037526 0.008653495 0.010077895 -0.03370726 -0.022764312
0.038707115 -0.032278746 -0.035952594 -0.018264169 0.059841715 -0.033388574 -0.023628118 -0.021387475
-0.010041955 0.009540795 -0.059115686 -0.01369092 0.020722145 -0.022401718 -0.05020733 -0.03421991
-0.0067224526 -0.0036089926 -0.046132 0.011883197 -0.029996254 0.013392683 -0.011591589 0.0055964612
-0.07150511 -0.00702569 0.006510595 -0.051940892 0.019828593 0.044831976 -0.023348372 0.0066581112
-0.0037931344 0.04292566 -0.1159696 0.005804756 -0.00772181 -0.0052777794 -0.079645514 0.029601898
-0.02204217 -0.014386938 -0.039478883 0.049933217 0.0015494323 0.0021523058 -0.07602244 0.028311439
-0.022494052 -0.031567227 -0.015009743 -0.016583329 0.05918351 0.043543357 -0.047662955 -0.008677417
0.01596341 0.02039206 -0.006175778 -0.04570446 0.022707442 -0.021714086 0.005834946 -0.049786676
0.053418163 -0.0017608289 -0.017423132 -0.017850932 0.04424053 -0.024782002 -0.09006732 -0.036277644
0.0014673764 -0.022902252 -0.12442434 0.0038274126 0.076957546 -0.044571932 -0.0038105554 -0.020569576
0.05901269 -0.018217146 0.032437988 -0.0016498395 -0.033815715 -0.0059044748 -0.018280657 0.02887413
0.0075094937 0.017099163 -0.0024957494 0.030760344 -0.0032765176 -0.0072549437 -0.019938614 0.08634325
-0.024055067 -0.07034889 -0.06028705 0.0754369 -0.0011916881 -0.033516966 -0.043103874 0.07826921
-0.048206728 -0.0018988381 -0.049771283 0.07613188 -0.015827073 -0.007907626 -0.01577261 0.07741706
0.01673305 -0.008136097 -0.016994907 -0.00744653 0.023502983 0.012518949 -0.04785591 -0.0031464905
00000000: b5c2 99bc ec97 73bc 17ef 3d3c 274c bcbc
00000010: 5f0a a8bd 8489 d2bc a9a5 c6bc 6724 033c
00000020: 7381 b7bc 5c14 5e3b 12be 96bc e269 b33c
00000030: 9e2a 813c aa7c 65ba 9a74 9e3c b1cd f13c
00000040: 8145 d4bc ddd4 90bd ee61 79bc 3d0a 5c3b
00000050: ba6c 85bb e0ca a9bc 2ea3 dd3c 02fc b9bb
00000060: 315b 22bc 97e8 babc 4b88 253d b119 f0bc
00000070: 1769 18bd 6b92 43bc 8d11 bbbc 1670 91bb
00000080: c1c3 ec3c ee65 b1bc 34fc a5bc 0188 973c
00000090: 2ffc fb3b 5560 98ba a2b1 273c 77cd 383d
000000a0: 1b9d 38ba 707a 9b3c 4d87 93bd 8695 1d3d
000000b0: eed7 9cbb 8b23 8c3c 3b4a 46bc 9d54 ea3c
000000c0: 5285 893c 4702 cebc ce38 19bd 4857 b43c
000000d0: b6a3 ef3c 085b 93bc 9d9b e63c 87f2 623b
000000e0: 1630 dd3c efed d0bd 633f 543d c5e6 663d
000000f0: 899f 3fbb 7633 4cbd 3372 3f3d a087 a6bc
00000100: 6663 513d c1b1 2cbd fd52 793d 2779 08bd
00000110: 9934 8f3d 52da f3bc 61a9 223d f19b 30bb
00000120: 8aa9 a43d b64b dbbd ce16 c139 6535 70bc
00000130: 571a 433d cdf2 99bc f01e 4c3c 5270 8dbc
00000140: 60ba 553d 41b6 04bb 2c67 333b 0fa1 073d
00000150: d53d d8bb 0bc3 a0bb 4a77 a5bc ed04 5a3d
00000160: 06aa 8f3c 779f 74bd ab95 9ebd 02fd b7bc
00000170: ce24 123d 6f6d 66bc 86ce a73c 0cc3 1dbd
00000180: 0ec2 803c b8f0 23bd 3f04 aebc 52fc 95bc
00000190: 9dbb 7b3d c3e1 11bd d3a1 61bd b7ce 24bc
000001a0: 21ec 3d3d b1b0 d2bd 6b2e 5bbd 57e2 b83c
000001b0: 0fbc 213d ad3e 6fbd d253 aebc 6e6c 0d3d
000001c0: ce4b 20bc 788c 1dbd 83a6 5fbd 00b9 293d
000001d0: 353e 723c 6032 7fbc e8ac dcbd d4ad f23d
000001e0: 5823 80bd 2ee7 433c dab2 5cbd f8e5 ef3c
000001f0: 59db 6d3b e201 fb3c 46e9 93bd 279f 043d
00000200: 660c cc3b c87c d6bc fb8b 32bd bb40 b2bd
00000210: 64c7 0d3c c11d 253c a010 0abd 397c babc
00000220: 5a8b 1e3d b836 04bd 0743 13bd bd9e 95bc
00000230: 961c 753d 75c2 08bd c18f c1bc c934 afbc
00000240: 0387 24bc ff50 1c3c 4a23 72bd e14f 60bc
00000250: 7dc1 a93c cf83 b7bc 34a6 4dbd 2d2a 0cbd
00000260: 0548 dcbb d984 6cbb e8f4 3cbd beb1 423c
00000270: b4ba f5bc fc6c 5b3c a6ea 3dbc 8562 b73b
00000280: 4571 92bd c237 e6bb d456 d53b f9bf 54bd
00000290: 936f a23c bca1 373d 1645 bfbc 492c da3b
000002a0: 3c96 78bb d1d2 2f3d 7881 edbd d335 be3b
000002b0: 3d07 fdbb 39f1 acbb 301d a3bd ae7f f23c
000002c0: c891 b4bc 31b7 6bbc 9cb4 21bd c686 4c3d
000002d0: 5216 cb3a b30d 0d3b a7b1 9bbd 64ed e73c
000002e0: 7245 b8bc a34c 01bd 6deb 75bc c3d9 87bc
000002f0: 686a 723d 855a 323d 3b3a 43bd ba2b 0ebc
00000300: b2c5 823c 400d a73c 2e5e cabb 9a34 3bbd
00000310: f504 ba3c bde1 b1bc 1333 bf3b 1ded 4bbd
00000320: 01cd 5a3d 9dcb e6ba f5ba 8ebc 1e3c 92bc
00000330: 8f35 353d a003 cbbc 3775 b8bd de97 14bd
00000340: fb54 c03a 819d bbbc 30d2 febd 54d5 7a3b
00000350: eb9b 9d3d 0f91 36bd 83ba 79bb 8781 a8bc
00000360: 4ab7 713d 203c 95bc b2dd 043d 6d3f d8ba
00000370: 5982 0abd 537a c1bb 51c1 95bc 7189 ec3c
00000380: 3312 f63b 8b13 8c3c ba8f 23bb 1efd fb3c
00000390: d8ba 56bb e1ba edbb 4e56 a3bc bbd4 b03d
000003a0: 220f c5bc 1413 90bd 8eef 76bd a97e 9a3d
000003b0: 6b32 9cba 1649 09bd b08d 30bd 9c4b a03d
000003c0: 6b74 45bd 6fe2 f8ba f9dc 4bbd 08eb 9b3d
000003d0: c7a7 81bc fd8e 01bc 9035 81bc d68c 9e3d
000003e0: c013 893c 444d 05bc e738 8bbc 0502 f4bb
000003f0: 5489 c03c 471c 4d3c 8f04 44bd 5a35 4ebb

fc.bias f4 [40]
-0.011093589 -0.018738871 -0.016115516 0.02825705 0.07365229 0.010575067 0.056223854 0.03637204
-0.030467145 -0.0072959093 -0.015606332 0.010930201 0.03816306 0.0008440177 0.024320897 -0.0080585005
0.0033342803 -0.011059043 -0.020617327 0.014275553 0.029176386 -0.012734616 0.013986699 -0.006914063
-0.021846816 -0.031040093 -0.0011702343 0.008196708 0.015721085 0.03204429 -0.0032762995 -0.024516383
-0.07799366 -0.0206461 -0.03689246 0.009546959 -0.012962031 -0.01908125 -0.038250882 0.020109275
00000000: e2c1 35bc 4382 99bc b004 84bc 547b e73c
00000010: 03d7 963d 0c43 2d3c fc4a 663d d9fa 143d
00000020: 3c96 f9bc 8612 efbb b3b1 7fbc 9614 333c
00000030: de50 1c3d 1241 5d3a 9e3c c73c cd07 04bc
00000040: f183 5a3b fd30 35bc abe5 a8bc 02e4 693c
00000050: 5103 ef3c daa4 50bc 7828 653c 5d8f e2bb
00000060: 18f8 b2bc cb47 febc 8c62 99ba 7c4b 063c
00000070: 81c9 803c e040 033d 2fb7 56bb 95d6 c8bc
00000080: 24bb 9fbd 0322 a9bc 8c1c 17bd d96a 1c3c
00000090: b35e 54bc 4850 9cbc f5ac 1cbd 35bc a43c
