model/Benchmark/DATCN_b1_1s_S27.pth (torch, 182388 bytes, 75 tensors)

global_block.conv_time.conv.0.weight f4 [8, 1, 1, 125]
-0.06007594 -0.025724925 -0.027319437 -0.0025328887 -0.022679748 0.075409815 -0.030717114 -0.010363284
0.0088708345 -0.023551367 0.020712836 -0.02699128 0.005186918 0.018332038 -0.040225938 0.00046321758
-0.042975467 -9.7399155e-05 -0.05106588 0.011299991 0.0030307216 -0.015833884 -0.017791117 0.007852402
0.037029546 0.025134852 0.0076651773 0.006020671 0.037126396 -0.030426899 0.041699085 -0.0013081821
0.029810298 -0.051833455 -0.032960806 -0.00894051 0.018035717 -0.025659924 0.05129794 -0.04753191
0.0025883843 -0.044580195 0.034226984 0.052494593 -0.012027838 0.018562622 -0.0194533 -0.059999723
0.058783695 0.048071597 0.027219798 0.022918982 -0.02159604 0.0027759157 0.03510328 -0.049882926
-0.081569284 -0.028846601 0.015156316 0.018440329 0.02200346 0.066121355 0.04995333 -0.041155163
-0.01504201 -0.014785995 0.025348142 -0.03636181 -0.033599555 -0.016412728 -0.029985482 -0.039365083
-0.09524515 0.030162772 0.016098319 -0.032301437 0.0036392217 0.108934484 0.15582399 -0.016134033
-0.047148187 -0.006191969 -0.09068391 -0.0813449 -0.14427207 0.024552478 0.048320483 -0.033642773
-0.029847562 0.01124896 -0.015979094 -0.01058646 -0.08223145 -0.036171697 0.051002026 -0.033552527
-0.010153692 0.017734349 0.012997597 -0.012129048 0.016246665 0.037690695 -0.003711797 -0.008942914
0.0923406 0.11749374 0.04781251 -0.03888599 -0.067339644 -0.06568485 0.0015540161 -0.019205874
-0.010741611 -0.012388984 0.061644852 0.077286825 0.007837951 -0.016486019 0.029551215 -0.0074173165
-0.06935627 0.0044981698 0.052188814 -0.07752544 -0.0314902 0.0010050288 -0.04179562 -0.022886772
0.0756383 -0.0067422353 0.03912123 -0.017619267 -0.023259332 -0.061997876 -0.01211508 0.042125426
0.045821495 0.040223856 0.064401634 0.0615349 -0.08208924 0.008820628 -0.075664565 -0.07794839
-0.01367941 -0.07848053 -0.0006840739 0.10027051 0.046974424 -0.021872386 -0.031779855 0.027654653
0.012055026 0.04681334 -0.035685867 0.018994713 -0.010816258 -0.03501252 0.016776184 0.02039302
0.04775385 0.028742835 0.03272788 0.011970903 -0.039308023 -0.05072671 -0.017278533 0.0011730519
0.07370024 0.04963949 0.011296465 -0.045653775 0.019363334 -0.00037546948 0.015713885 0.08017357
-0.040255003 -0.05758902 -0.073451445 -0.030746909 -0.07025015 0.07074575 0.009703321 0.030687137
-0.012479999 0.051077064 0.06191337 0.015447958 0.07442132 -0.05823954 -0.020453878 -0.061249852
0.04037672 0.048767462 0.07604105 0.055828143 0.00044164536 -0.014394061 -0.0067091333 0.08157096
-0.005992487 0.04986099 -0.04521801 0.061378997 0.10637958 0.06415049 8.0093785e-05 -0.044732876
-0.08827862 -0.022017756 0.018247195 -0.028051414 -0.017247366 -0.013295295 -0.12699053 -0.0871491
-0.036858533 0.013152641 0.0015232201 0.043595947 0.03341739 0.0069302227 0.028138297 0.031231582
-0.05720698 0.07332747 0.043043457 0.06852648 -0.086202234 -0.07880417 0.034093883 -0.042388715
-0.031268813 0.0489913 0.031649098 -0.065354735 0.08769424 0.0173527 0.05867506 -0.059558332
-0.07059308 -0.039650843 0.00023245392 -0.061607327 -0.014312543 -0.095596924 -0.07559241 -0.0048106406
0.020783639 -0.057586167 0.024856715 -0.048717514 0.018902358 0.028103402 -0.05832923 -0.012160377
00000000: 3012 76bd 14bd d2bc 03cd dfbc d2fe 25bb
00000010: e1ca b9bc 7670 9a3d 75a2 fbbc c3ca 29bc
00000020: fa56 113c ccee c0bc f7ad a93c d11c ddbc
00000030: 06f7 a93b 122d 963c f4c3 24bd 03dc f239
00000040: 0b07 30bd c642 ccb8 752a 51bd 9923 393c
00000050: 129f 463b 10b6 81bc adbe 91bc 5ca7 003c
00000060: 4bac 173d 9be7 cd3c 2b2c fb3b 0d49 c53b
00000070: d911 183d d541 f9bc a9cc 2a3d 4f77 abba
00000080: ba34 f43c 514f 54bd e901 07bd 387b 12bc
00000090: a4bf 933c c334 d2bc ca1d 523d d2b0 42bd
000000a0: e2a1 293b b999 36bd 9831 0c3d 9204 573d
000000b0: 6910 45bc a410 983c 875c 9fbc 45c2 75bd
000000c0: 2cc7 703d b9e6 443d 0efc de3c 97c0 bb3c
000000d0: 2eea b0bc 23ec 353b 75c8 0f3d 0a52 4cbd
000000e0: cc0d a7bd b54f ecbc 3252 783c 2c10 973c
000000f0: 9a40 b43c a26a 873d dd9b 4c3d 5192 28bd
00000100: c372 76bc f540 72bc e8a6 cf3c 1ff0 14bd
00000110: b09f 09bd fc73 86bc 1da4 f5bc 483d 21bd
00000120: e40f c3bd eb17 f73c 9fe0 833c 834e 04bd
00000130: 0280 6e3b 0b19 df3d 5390 1f3e 852b 84bc
00000140: 751e 41bd 00e6 cabb 7cb8 b9bd 2898 a6bd
00000150: 0fbc 13be 4722 c93c b3eb 453d 01cd 09bd
00000160: e082 f4bc 8f4d 383c 97e6 82bc d572 2dbc
00000170: f668 a8bd c628 14bd 80e7 503d 606e 09bd
00000180: ac5b 26bc a047 913c e0f3 543c eab8 46bc
00000190: ba17 853c 8f61 1a3d 9f41 73bb 4d85 12bc
000001a0: 121d bd3d 8fa0 f03d 0dd7 433d ea46 1fbd
000001b0: 5ee9 89bd c785 86bd 21b0 cb3a a355 9dbc
000001c0: 95fd 2fbc 2afb 4abc 507f 7c3d 8e48 9e3d
000001d0: c06a 003c b00d 87bc 6415 f23c f60c f3bb
000001e0: a90a 8ebd 6265 933b f0c3 553d a8c5 9ebd
000001f0: defb 00bd 2cbb 833a e231 2bbd 0a7d bbbc
00000200: 41e8 9a3d f8ed dcbb 953d 203d 4856 90bc
00000210: 5b8a bebc 7cf1 7dbd 547e 46bc b68b 2c3d
00000220: 52af 3b3d c5c1 243d 01e5 833d 050c 7c3d
00000230: 671e a8bd 6584 103c 06f6 9abd 68a3 9fbd
00000240: 9b1f 60bc 66ba a0bd 6c53 33ba a05a cd3d
00000250: 4168 403d b82d b3bc 982b 02bd 038c e23c
00000260: 7282 453c 58bf 3f3d 582b 12bd cd9a 9b3c
00000270: ad36 31bc 4a69 0fbd 356e 893c 430f a73c
00000280: 8b99 433d 1876 eb3c ab0d 063d 9b21 443c
00000290: 7301 21bd d0c6 4fbd b68b 8dbc 17c1 993a
000002a0: 27f0 963d c752 4b3d cf14 393c 74ff 3abd
000002b0: db9f 9e3c a9da c4b9 68ba 803c 0a32 a43d
000002c0: 6ee2 24bd 77e2 6bbd b66d 96bd f1e0 fbbc
000002d0: 50df 8fbd 26e3 903d aefa 1e3c 9763 fb3c
000002e0: e978 4cbc 2f36 513d e098 7d3d 6f19 7d3c
000002f0: 346a 983d 958c 6ebd e48e a7bc 20e1 7abd
00000300: 0f62 253d 64c0 473d 69bb 9b3d 0dac 643d
00000310: a38c e739 11d5 6bbc 4ad8 dbbb ad0e a73d
00000320: a05c c4bb 0a3b 4c3d 8536 39bd 8b68 7b3d
00000330: 8add d93d 5561 833d 06f8 a738 d239 37bd
00000340: 6ccb b4bd 955e b4bc 247b 953c 14cc e5bc
00000350: 594a 8dbc 82d4 59bc ce09 02be 3a7b b2bd
00000360: f9f8 16bd 2d7e 573c c9a6 c73a aa91 323d
00000370: ace0 083d ec16 e33b 4982 e63c 60d9 ff3c
00000380: de51 6abd b62c 963d 564e 303d 9c57 8c3d
00000390: cc8a b0bd 1564 a1bd 07a6 0b3d ca9f 2dbd
000003a0: ba13 00bd 1aab 483d 7ca2 013d b4d8 85bd
000003b0: 0a99 b33d 4027 8e3c 4255 703d 70f3 73bd
000003c0: 1b93 90bd ec68 22bd e0be 7339 f757 7cbd
000003d0: 287f 6abc 52c8 c3bd 32d0 9abd 94a2 9dbb
000003e0: 7342 aa3c 79df 6bbd 4fa0 cb3c 048c 47bd
000003f0: 1ed9 9a3c 1b39 e63c a1ea 6ebd 513c 47bc

global_block.conv_time.conv.0.bias f4 [8]
-0.0019427094 0.057783496 0.028090142 0.047590904 -0.05826856 -0.067071915 -4.8273427e-07 0.014321556
00000000: 83a2 feba 63ae 6c3d 4c1d e63c aeee 423d
00000010: 03ab 6ebd 005d 89bd 3f95 01b5 f6a4 6a3c

global_block.conv_time.conv.1.weight f4 [8]
0.8527043 1.0612758 0.91657305 0.92017037 0.97538006 1.0790716 0.9256918 0.9972475
00000000: d44a 5a3f e3d7 873f 88a4 6a3f 4990 6b3f
00000010: 82b2 793f 051f 8a3f 23fa 6c3f 9d4b 7f3f

global_block.conv_time.conv.1.bias f4 [8]
-0.08299855 -0.024252025 0.04578338 -0.07176859 0.0639762 -0.051941488 -0.015850669 0.044762593
00000000: 25fb a9bd 2fac c6bc 5a87 3b3d 69fb 92bd
00000010: f405 833d 99c0 54bd 43d9 81bc fb58 373d

global_block.conv_time.conv.1.running_mean f4 [8]
0.0062266407 0.08112952 0.047808647 0.040195543 -0.06892532 -0.065317616 -0.0048491317 0.025461223
00000000: d908 cc3b 3c27 a63d 00d3 433d 15a4 243d
00000010: b828 8dbd 3ec5 85bd 77e5 9ebb 0e94 d03c

global_block.conv_time.conv.1.running_var f4 [8]
5.2979603 7.337215 9.822455 6.1837087 8.362467 8.312142 7.9533024 14.270637
00000000: e488 a940 77ca ea40 c728 1d41 f1e0 c540
00000010: aacc 0541 89fe 0441 7481 fe40 8754 6441

global_block.conv_chan.conv.0.weight f4 [8, 8, 11, 1]
-0.040957447 0.027260344 0.017996019 -0.057651013 0.024579667 0.015930636 0.043448035 -0.017411081
-0.019144354 -0.0705304 0.024440207 0.1238308 -0.049860578 0.02812286 0.06281445 0.0022333201
-0.03440409 -0.012582421 -0.06468213 0.06520064 -0.045871463 0.02748632 -0.09142601 0.051980898
0.071879886 -0.12820272 0.0074562076 -0.028874367 0.06904775 -0.020376302 -0.06651844 -0.048017666
-0.02431582 0.12187773 -0.025843317 -0.043877456 0.0075464905 0.03904941 0.021963064 0.027934289
-0.06206321 -0.015702715 0.038649753 0.052212793 -0.010008808 0.054004755 -0.07372629 0.02095631
0.0021632505 0.036098417 0.07970391 0.006206675 0.05903065 -0.03318549 -0.096930094 0.024261452
0.0482725 0.07073122 -0.0060795825 -0.0573364 0.14068861 0.067163095 0.07671873 -0.05329038
0.030047579 -0.08336507 0.021571524 0.07066003 0.05407387 -0.040758662 -0.024907757 -0.055728644
0.04731854 0.10569207 0.06710225 0.06420143 -0.02049199 -0.07353919 -0.07461747 -0.044682603
0.011502506 -0.056237623 0.0934357 0.062356777 -0.06145653 -0.027957104 -0.05619627 -0.03695293
0.071012095 -0.051360704 -0.02985413 -0.0027886946 0.00982499 -0.035636354 0.021820689 -0.06881793
0.0858057 0.0697307 -0.029455842 0.04734775 -0.027873544 0.02698763 -0.031231945 0.043178465
-0.049925793 -0.06590495 0.073031835 0.08093375 0.0011164602 -0.030802619 0.046231806 -0.18170203
-0.039917972 0.006025211 0.06806432 0.06737371 -0.086938955 -0.045136828 -0.05010062 0.06630661
0.09159011 0.035773385 0.08835473 0.018010227 -0.038976528 -0.029737217 -0.0929956 -0.0050160554
0.12586573 0.05607401 -0.049754646 -0.099387154 0.049429424 0.04626499 -0.046165407 -0.07722009
0.0012342621 -0.07783131 0.089974225 0.07998717 0.062120825 -0.03631904 -0.04761139 -0.03347147
0.10097946 0.015699457 0.09897887 -0.1089634 0.004886931 0.11869404 -0.028976481 -0.056406036
-0.061238877 0.062095627 -0.103291556 -0.13001892 0.00083706225 0.1538262 0.056915976 -0.028445667
-0.029034661 0.011445532 -0.00013013138 -0.028236764 0.0734943 0.047998417 0.08799775 -0.0029580037
-0.098480724 -0.128677 0.025027012 0.003583492 0.084455706 -0.028352031 -0.056160487 -0.06255195
-0.100280076 -0.06969799 -0.07042532 0.0915046 0.10284539 -0.0055512786 -0.120440096 0.026252242
0.022067335 0.02503645 -0.0062906276 -0.08578879 -0.114391625 -0.026725762 0.04003128 0.097906575
-0.024812486 -0.017137123 0.09992283 0.09077869 -0.01785309 0.041448507 0.057180315 0.13036305
-0.10164703 0.001340725 -0.10143561 -0.12095138 0.023686117 0.06642583 0.039337754 -0.015284471
0.03756767 -0.02410083 -0.068761975 -0.030207884 -0.015260519 -0.017898792 -0.044143155 0.021273911
0.10207619 0.06257691 0.006792895 -0.06623307 -0.021146405 -0.10219172 0.03377904 -0.018297298
0.000459475 0.05051412 -0.111774206 0.06259076 0.0024577235 -0.034400348 -0.007961679 0.0030936084
0.043674238 -0.0149865085 0.037623864 -0.055239294 0.0100231 -0.13848859 -0.022124175 -0.05396055
0.07221188 0.020898044 -0.046206877 0.1059261 -0.11074426 -0.054678325 -0.056058515 0.0054784412
0.10685261 -0.06933536 0.06954455 0.036114223 -0.040459894 -0.094971836 -0.013068203 -0.01768927
00000000: ffc2 27bd 1651 df3c 636c 933c 7823 6cbd
00000010: 4c5b c93c f780 823c 91f6 313d afa1 8ebc
00000020: 9fd4 9cbc 3e72 90bd d436 c83c 019b fd3d
00000030: 9b3a 4cbd e961 e63c dda4 803d e55c 123b
00000040: 4eeb 0cbd 8026 4ebc 1178 84bd ea87 853d
00000050: b7e3 3bbd fe2a e13c 8f3d bbbd ece9 543d
00000060: c335 933d 9347 03be 3453 f43b f089 ecbc
00000070: e868 8d3d 34ec a6bc d23a 88bd 2cae 44bd
00000080: f831 c7bc 089b f93d 5db5 d3bc d9b8 33bd
00000090: 8d48 f73b 46f2 1f3d e2eb b33c 73d6 e43c
000000a0: fe35 7ebd fba2 80bc 344f 1e3d 15dd 553d
000000b0: fcfb 23bc 1734 5d3d cffd 96bd 91ac ab3c
000000c0: 52c5 0d3b efdb 133d ce3b a33d 5d61 cb3b
000000d0: 1fca 713d 82ed 07bd 4983 c6bd f4bf c63c
000000e0: 63b9 453d 88db 903d 3c37 c7bb 93d9 6abd
000000f0: ad10 103e ce8c 893d b61e 9d3d 0347 5abd
00000100: 5726 f63c 4ebb aabd c4b6 b03c 35b6 903d
00000110: 907c 5d3d 8ef2 26bd 5a0b ccbc b843 64bd
00000120: 16d1 413d 1675 d83d e86c 893d 0a7c 833d
00000130: d1de a7bc b79b 96bd 0bd1 98bd 1b05 37bd
00000140: 0275 3c3c 6c59 66bd 375b bf3d d269 7f3d
00000150: d8b9 7bbd 4c06 e5bc 0f2e 66bd f55b 17bd
00000160: ca6e 913d 9a5f 52bd a690 f4bc 88c2 36bb
00000170: fff8 203c 6df7 11bd 4dc1 b23c 6af0 8cbd
00000180: e6ba af3d f8ce 8e3d 614d f1bc b7ef 413d
00000190: 0f57 e4bc 2a15 dd3c 23da ffbc e7db 303d
000001a0: fd7e 4cbd 2df9 86bd b791 953d 98c0 a53d
000001b0: 3056 923a c655 fcbc 905d 3d3d 1910 3abe
000001c0: 0781 23bd 226f c53b 4e65 8b3d 3afb 893d
000001d0: 0d0d b2bd 65e1 38bd 4f36 4dbd c3cb 873d
000001e0: 9893 bb3d 1d87 123d 53f3 b43d 2f8a 933c
000001f0: daa5 1fbd 779b f3bc 7a74 bebd b95d a4bb
00000200: f2e2 003e dcad 653d 87cb 4bbd 7e8b cbbd
00000210: 8276 4a3d 5c80 3d3d f017 3dbd 9125 9ebd
00000220: f7c6 a13a 0666 9fbd 6844 b83d 50d0 a33d
00000230: 6872 7e3d 46c3 14bd 2904 43bd 6119 09bd
00000240: 52ce ce3d 269c 803c 6fb5 ca3d 3428 dfbd
00000250: 8c22 a03b dc15 f33d 1660 edbc 040a 67bd
00000260: 9ed5 7abd fc57 7e3d 868a d3bd ae23 05be
00000270: 4c6e 5b3a 9e84 1d3e ba20 693d e306 e9bc
00000280: 19da edbc 0a86 3b3c e073 08b9 c950 e7bc
00000290: 2e84 963d fd99 443d 2a38 b43d 11db 41bb
000002a0: 43b0 c9bd e7c3 03be 7305 cd3c 05d9 6a3b
000002b0: 1df7 ac3d 8542 e8bc 8a08 66bd 3d1b 80bd
000002c0: a45f cdbd d2bd 8ebd 263b 90bd c466 bb3d
000002d0: 9ba0 d23d 80e7 b5bb 4ca9 f6bd f10e d73c
000002e0: 8ec6 b43c 3e19 cd3c 9c21 cebb 08b2 afbd
000002f0: 2846 eabd fcef dabc d7f7 233d 3e83 c83d
00000300: 8e43 cbbc 2763 8cbc 57a4 cc3d 2eea b93d
00000310: a540 92bc e9c5 293d e835 6a3d e47d 053e
00000320: 512c d0bd 44bb af3a 79bd cfbd 5bb5 f7bd
00000330: 6309 c23c 440a 883d a020 213d b86b 7abc
00000340: 8fe0 193d 1b6f c5bc 14d3 8cbd 8676 f7bc
00000350: 4207 7abc 7da0 92bc 74cf 34bd a046 ae3c
00000360: 520d d13d 5328 803d ef96 de3b 34a5 87bd
00000370: 3a3b adbc e449 d1bd e45b 0a3d 37e4 95bc
00000380: b1e5 f039 e5e7 4e3d e0e9 e4bd 962f 803d
00000390: c211 213b 61e7 0cbd b471 02bc 23be 4a3b
000003a0: c2e3 323d f989 75bc 7b1b 1a3d 9942 62bd
000003b0: ee37 243c f4cf 0dbe c23d b5bc bd05 5dbd
000003c0: d2e3 933d 6032 ab3c 6c43 3dbd c8ef d83d
000003d0: e3cd e2bd 61f6 5fbd 9d9d 65bd 7f84 b33b
000003e0: 8bd5 da3d b2ff 8dbd 5f6d 8e3d 82ec 133d
000003f0: 46b9 25bd 9880 c2bd 041c 56bc 17e9 90bc

global_block.conv_chan.conv.0.bias f4 [8]
-1.3196878e-06 0.04547242 -0.012830201 -0.036585737 0.097059 -0.0833045 -0.0007689584 0.013499451
00000000: 2120 b1b5 4a41 3a3d c335 52bc edda 15bd
00000010: dec6 c63d 8d9b aabd ed93 49ba cd2c 5d3c

global_block.conv_chan.conv.1.weight f4 [8]
0.88429654 1.0766039 0.9202378 0.9622912 1.003238 0.9885987 0.92510444 1.0287557
00000000: 4261 623f 28ce 893f b494 6b3f b758 763f
00000010: 1a6a 803f ce14 7d3f a5d3 6c3f 44ae 833f

global_block.conv_chan.conv.1.bias f4 [8]
-0.18720502 -0.019514715 -0.13934658 -0.098928735 -0.05495463 -0.12244174 -0.10378199 -0.11831988
00000000: acb2 3fbe 53dd 9fbc dfb0 0ebe 269b cabd
00000010: 1b18 61bd bcc2 fabd a78b d4bd b151 f2bd

global_block.conv_chan.conv.1.running_mean f4 [8]
0.06014081 0.041648258 -0.14421764 -0.07521133 0.1336439 -0.049954895 0.06399106 0.03368473
00000000: 3656 763d 5d97 2a3d caad 13be 6608 9abd
00000010: f2d9 083e 819d 4cbd bf0d 833d 00f9 093d

global_block.conv_chan.conv.1.running_var f4 [8]
0.13385122 0.16846877 0.1299157 0.10452921 0.07642982 0.12553568 0.08155969 0.08070948
00000000: 4b10 093e 1483 2c3e 9f08 053e 6913 d63d
00000010: 3d87 9c3d 6d8c 003e c408 a73d 034b a53d

local_block.conv_time.conv.0.weight f4 [8, 1, 1, 51]
-0.01952738 0.04562821 0.027515378 0.029442858 0.03445659 -0.0678499 0.052506026 -0.052555606
0.057887767 -0.004485482 -0.029716821 0.051967748 0.15717009 -0.09449784 -0.05655468 -0.12747923
-0.050713047 0.19632177 0.21678644 0.1168648 -0.07483425 -0.015881674 -0.050006554 -0.050368134
-0.022605091 0.038076967 -0.05969164 -0.060718164 0.041043144 0.09195661 -0.021351626 0.005991591
0.0047694244 -0.07320135 0.15679495 0.1680498 0.038873468 -0.17923127 -0.069558114 0.028265238
0.054899845 -0.12906912 0.05169207 0.0811353 0.06246385 -0.03025141 0.011306028 -0.054316226
-0.027744893 0.08113633 -0.066198535 0.052109286 -0.04259573 -0.011148603 -0.02580207 0.021175452
-0.03308435 -0.031582367 0.02856653 -0.107298076 0.023856731 -0.12421911 0.052820228 0.10095394
0.03770931 0.0014989408 -0.029088384 0.042608093 0.00959105 0.019511366 0.0029369881 -0.026565835
0.08395176 -0.120027035 -0.053890113 0.09650821 -0.029272527 -0.05149472 0.032180928 0.09952247
0.03634028 -0.05762624 0.04791356 -0.013964872 0.055495355 0.11512997 -0.034945894 0.018736115
0.018968103 0.10214884 0.11721722 0.043514553 -0.015098868 -0.1375258 -0.08909461 0.0022006168
0.13313076 0.009589567 0.030071462 -0.066712424 0.026784595 -0.08917528 -0.049976155 -0.08449503
0.11079794 -0.06437846 -0.047762517 0.09018038 0.075273015 0.05715689 0.13488649 -0.024689173
0.07855933 -0.030391054 -0.09460647 -0.063054316 -0.038220603 -0.0010388192 -0.016029513 -0.026938844
-0.14345585 0.116346836 0.16722989 0.08846245 0.12151384 -0.009286848 0.009349431 -0.13417837
-0.035033286 -0.088388026 -0.089933984 0.01607649 -0.049928486 -0.08052531 0.044016153 0.034847837
0.1839986 0.060941543 0.05357145 0.050657723 -0.07539281 0.07218334 0.120821066 -0.072546564
-0.1348412 0.07203568 -0.024324447 -0.0935256 -0.13927236 0.07584562 0.07721806 -0.12504351
-0.079972126 0.0030860119 0.020816047 0.05488689 0.052474286 -0.008424875 -0.10068322 -0.009332334
0.010447405 0.09279183 -0.06748967 0.009126496 0.047226675 -0.14984824 -0.021775216 0.14197989
-0.01664346 0.050370764 -0.0087633915 -0.015156187 0.076990925 -0.010608822 -0.059374034 0.0961525
-0.013992344 0.0013853617 0.04441204 -0.047125187 -0.065592915 -0.03007036 0.21138294 0.037336905
0.08843105 -0.11618794 0.038180776 0.05236791 -0.03325133 -0.071250886 0.036524463 -0.0057349345
-0.03993814 -0.036727685 0.13815156 -0.04680391 0.04273671 -0.14596081 -0.13244574 0.08140554
-0.008624794 0.1661013 0.038234796 0.10510109 -0.043870155 0.095020086 -0.091437146 -0.039165497
0.001299905 -0.054503668 0.04056919 -0.062760584 0.017732937 -0.010855886 -0.14393471 -0.116847366
-0.09402301 0.05613299 0.07030183 0.013464033 0.12422858 -0.08341324 0.04867533 0.05363056
-0.18714657 -0.1349466 -0.017490648 -0.02080587 -0.033688087 0.006117445 0.12325093 0.009019401
-0.09567855 -0.02596567 0.06605417 0.05338163 -0.002466661 0.057653338 -0.043913018 -0.052052666
0.075825796 -0.13577542 -0.16474004 0.027456513 -0.09145381 -0.05487326 0.15868333 0.12673919
-0.080221005 0.0136223845 -0.07213527 -0.03040877 -0.06381111 0.014882281 0.032478012 -0.035736036
00000000: e2f7 9fbc a5e4 3a3d ee67 e13c 2632 f13c
00000010: 5a22 0d3d e3f4 8abd 8f10 573d 8c44 57bd
00000020: b91b 6d3d f3fa 92bb b170 f3bc 22dc 543d
00000030: 32f1 203e 1588 c1bd e1a5 67bd ea89 02be
00000040: 7cb8 4fbd 9308 493e 44fd 5d3e d056 ef3d
00000050: b342 99bd 491a 82bc acd3 4cbd d14e 4ebd
00000060: 502e b9bc 98f6 1b3d 397f 74bd 9cb3 78bd
00000070: db1c 283d bf53 bc3d 9be9 aebc 1c55 c43b
00000080: d548 9c3b 97ea 95bd db8e 203e 3f15 2c3e
00000090: c939 1f3d 6788 37be 7c74 8ebd 808c e73c
000000a0: a9de 603d b22a 04be 10bb 533d 442a a63d
000000b0: 18da 7f3d ced1 f7bc eb3c 393c b17a 5ebd
000000c0: 4249 e3bc ce2a a63d 1993 87bd 8c70 553d
000000d0: dc78 2ebd a1a8 36bc dd5e d3bc 2478 ad3c
000000e0: 7583 07bd 835c 01bd 5b04 ea3c 18bf dbbd
000000f0: 316f c33c 9766 febd 065a 583d f0c0 ce3d
00000100: 1475 1a3d 1b78 c43a c34a eebc d385 2e3d
00000110: c823 1d3c 4dd6 9f3c 7c7a 403b 98a0 d9bc
00000120: e6ee ab3d bcd0 f5bd e1bb 5cbd 19a6 c53d
00000130: f0cc efbc 21ec 52bd 26d0 033d 70d2 cb3d
00000140: 8cd9 143d 7e09 6cbd 0241 443d ebcc 64bc
00000150: 194f 633d 43c9 eb3d 6d23 0fbd 7b7c 993c
00000160: ff62 9b3c 6933 d13d 950f f03d 513c 323d
00000170: 3e61 77bc 90d3 0cbe 3c77 b6bd 3938 103b
00000180: 6e53 083e 8f1d 1d3c 6d58 f63c 86a0 88bd
00000190: 5e6b db3c 87a1 b6bd ccb3 4cbd bb0b adbd
000001a0: 08ea e23d dbd8 83bd a1a2 43bd 7eb0 b83d
000001b0: bd28 9a3d 581d 6a3d af1f 0a3e f340 cabc
000001c0: b7e3 a03d a9f6 f8bc 09c1 c1bd 9f22 81bd
000001d0: 358d 1cbd fd28 88ba 5350 83bc daae dcbc
000001e0: 17e6 12be 4047 ee3d 503e 2b3e cd2b b53d
000001f0: 40dc f83d dd27 18bc 5b2e 193c 0e66 09be
00000200: 107f 0fbd c804 b5bd 4f2f b8bd d8b2 833c
00000210: d081 4cbd 74ea a4bd 484a 343d 9bbc 0e3d
00000220: 216a 3c3e d79d 793d bd6d 5b3d 797e 4f3d
00000230: 8c67 9abd dcd4 933d 0971 f73d 4b93 94bd
00000240: d013 0abe 7187 933d 1044 c7bc 5a8a bfbd
00000250: 6a9d 0ebe f354 9b3d 8124 9e3d 680b 00be
00000260: 6dc8 a3bd b03e 4a3b 6a86 aa3c 13d1 603d
00000270: 47ef 563d 7d08 0abc 0133 cebd a5e6 18bc
00000280: 982b 2b3c a509 be3d 0638 8abd 4c87 153c
00000290: c270 413d d171 19be f061 b2bc 2d63 113e
000002a0: de57 88bc 9351 4e3d 5494 0fbc a851 78bc
000002b0: 6bad 9d3d a0d0 2dbc 3032 73bd 9aeb c43d
000002c0: 2540 65bc 0695 b53a 66e9 353d 5706 41bd
000002d0: 9455 86bd 1e56 f6bc c574 583e 95ee 183d
000002e0: 571b b53d f1f3 edbd 7263 1c3d bc7f 563d
000002f0: 8c32 08bd fceb 91bd ad9a 153d 1eec bbbb
00000300: 2d96 23bd c56f 16bd 9a77 0d3e 75b5 3fbd
00000310: b00c 2f3d c076 15be db9f 07be f3b7 a63d
00000320: 024f 0dbc 7616 2a3e 179c 1c3d 3e3f d73d
00000330: 31b1 33bd e499 c23d 6643 bbbd 006c 20bd
00000340: 9361 aa3a 3d3f 5fbd e12b 263d 9f88 80bd
00000350: aa44 913c e3dc 31bc 9f63 13be ac4d efbd
00000360: 238f c0bd b5eb 653d 68fa 8f3d 3f98 5c3c
00000370: 8e6b fe3d 90d4 aabd c85f 473d b8ab 5b3d
00000380: 5aa3 3fbe 712f 0abe 8c48 8fbc 1271 aabc
00000390: 85fc 09bd d974 c83b fc6a fc3d 1cc6 133c
000003a0: 1ef3 c3bd f5b5 d4bc 6947 873d b2a6 5a3d
000003b0: b4a7 21bb e825 6c3d 23de 33bd 2d35 55bd
000003c0: 8e4a 9b3d b608 0bbe 9db1 28be 7bec e03c
000003d0: 234c bbbd c9c2 60bd e27d 223e ebc7 013e
000003e0: e94a a4bd 6c30 5f3c a8bb 93bd d01b f9bc
000003f0: 66af 82bd d0d4 733c aa07 053d f35f 12bd

local_block.conv_time.conv.0.bias f4 [8]
0.046676498 -0.110892326 0.05254167 0.032019917 0.042059444 0.08830522 0.1252236 0.050918818
00000000: db2f 3f3d 841b e3bd ef35 573d 5127 033d
00000010: 8646 2c3d 5ed9 b43d 9e3a 003e 4090 503d

local_block.conv_time.conv.1.weight f4 [8]
1.0155131 0.9303243 1.088402 0.9864381 0.8922422 0.9709389 0.93955696 0.98502845
00000000: 55fc 813f bc29 6e3f c250 8b3f 3587 7c3f
00000010: fc69 643f 748f 783f ce86 703f d32a 7c3f

local_block.conv_time.conv.1.bias f4 [8]
-0.20431203 -0.05068763 0.082944654 -0.034071933 -0.021367947 0.005483537 0.016720174 0.004188225
00000000: 2c37 51be d59d 4fbd e3de a93d 038f 0bbd
00000010: d50b afbc 3eaf b33b bff8 883c 613d 893b

local_block.conv_time.conv.1.running_mean f4 [8]
0.060001254 -0.098206066 0.07100096 0.031206477 0.03201572 0.089689285 0.14175978 0.051482312
00000000: e0c3 753d 4320 c9bd f468 913d baa4 ff3c
00000010: ea22 033d 04af b73d 7a29 113e 1edf 523d

local_block.conv_time.conv.1.running_var f4 [8]
4.0005007 3.1949518 9.743827 3.2808244 4.557176 4.133359 2.0771532 4.7534847
00000000: 1a04 8040 177a 4c40 b7e6 1b41 07f9 5140
00000010: 63d4 9140 7a44 8440 14f0 0440 8c1c 9840

local_block.conv_chan.conv.0.weight f4 [8, 8, 11, 1]
-0.029899504 0.072890736 -0.01765362 0.028549967 -0.031716317 -0.0077724257 -0.027898941 0.06073805
-0.0005245556 0.058473136 -0.036271077 0.036636464 0.1402039 0.112073585 -0.02760691 0.022761501
-0.016374579 -0.09774982 -0.0409813 0.01910294 0.02247711 -0.004122632 -0.057408202 0.024299623
0.056185585 -0.0061761243 0.0019671416 -0.023311267 -0.051751066 -0.09183513 -0.07983962 0.07842273
-0.0910077 -0.043432668 -0.040787984 -0.005310929 0.05554702 0.019230366 -0.01616941 0.019674053
0.03881455 -0.096624084 -0.060229763 0.08327241 0.07282628 0.11606665 -0.043846153 -0.024518475
-0.0297356 -0.08078389 0.12643662 0.22166595 -0.008983925 0.013154832 0.0068604415 0.02617223
0.16268182 0.07549446 0.12533733 0.03704894 -0.04305099 0.03394046 -0.13014266 -0.12859301
0.0038503185 -0.0016436029 0.017147295 0.068922535 -0.038063616 0.057827808 -0.021052482 -0.03280056
0.0245266 -0.009744772 0.004772448 -0.023272902 0.0149637265 0.02643364 0.059373528 0.029095344
-0.006522137 0.013909111 -0.0065718773 -0.037622683 -0.04047285 0.006023897 -0.009028712 -0.033337917
0.012086012 0.023649208 0.053617228 -0.07274366 0.04560794 -0.01568563 0.005238333 0.12553743
-0.013142829 0.054980274 -0.03766746 -0.0719966 0.012751421 0.010460571 0.04634321 0.005164413
0.020803938 0.029505568 -0.024578208 -0.050005607 0.0724831 -0.061560236 -0.06744533 0.12710173
-0.059336662 -0.11034876 0.0019368657 -0.0648209 0.09949807 0.2113214 0.03729009 -0.055189926
-0.088385954 0.0439676 -0.04605727 0.04414648 -0.022744395 0.025992002 0.05679942 -0.10362438
-0.03894977 -0.008282319 -0.03725083 0.11611273 0.01167036 0.038234033 0.06541375 0.01593047
0.016493408 0.049859125 -0.048400447 -0.14309631 -0.0009204709 -0.033163972 0.0028620935 0.07289904
-0.080310285 -0.0069876416 0.038395666 -0.011261168 0.012139452 -0.016311288 -0.0606593 -0.02383424
0.063788496 -0.07061336 -0.028719483 -0.051083677 -0.080665134 -0.023355318 -0.034710553 -0.022989595
0.07596656 0.184432 0.03959741 0.006273417 -0.039592277 -0.035754964 0.04940724 -0.03766774
-0.084265135 0.0042573097 -0.0075531513 -0.016314995 0.13817255 0.0030468914 -0.031401716 -0.0665437
0.010276098 -0.04861738 -0.08724547 0.10009826 0.09288653 -0.039669707 -0.093561165 0.05493845
0.01055456 0.014489858 -0.02761734 -0.116421334 -0.14026979 -0.09517036 0.10290589 0.10106235
-0.0053101424 0.019877765 0.067074835 0.033754773 0.008752222 0.10180626 -0.0605012 -0.1515796
0.05848941 0.03868745 0.020702714 -0.015883647 0.008617517 -0.07134447 0.05803141 -0.036971748
-0.031826563 0.03213862 -0.0049128816 -0.04969245 0.034601532 0.065493874 -0.014673075 -0.020606466
-0.049823083 -0.054014966 0.057667285 -0.035507694 -0.06579775 -0.005997565 -0.007213714 0.0013878162
-0.009844138 0.07981746 -0.019383753 -0.014343098 -0.053089075 -0.0026096744 -0.0027604671 -0.04613837
-0.13876215 -0.075685695 0.04240326 0.025057739 0.022550704 0.043813687 -0.1072632 0.07105366
0.02307176 0.07006889 -0.00023007113 -0.011598752 -0.13449529 -0.120127074 -0.02362507 0.093675174
-0.0776641 0.10563752 -0.044502094 0.059001993 -0.0060698236 -0.012753928 0.13103351 -0.07578761
00000000: ceef f4bc bd47 953d 539e 90bc 9fe1 e93c
00000010: f8e8 01bd d5af febb 528c e4bc 76c8 783d
00000020: 5582 09ba 8781 6f3d fb90 14bd 1e10 163d
00000030: 9c91 0f3e d686 e53d e327 e2bc 5476 ba3c
00000040: fb23 86bc 0f31 c8bd 02dc 27bd c57d 9c3c
00000050: eb21 b83c 2517 87bb dd24 6bbd 0110 c73c
00000060: db22 663d 1661 cabb 29eb 003b 45f7 bebc
00000070: edf8 53bd 0e14 bcbd f482 a3bd 199c a03d
00000080: 3f62 babd 74e6 31bd 4d11 27bd 4d07 aebb
00000090: 4685 633d 0089 9d3c b675 84bc 7b2b a13c
000000a0: 01fc 1e3d d9e2 c5bd 7cb3 76bd ba8a aa3d
000000b0: f225 953d 5ab4 ed3d 0698 33bd f8da c8bc
000000c0: 1398 f3bc 0672 a5bd 9a78 013e 66fc 623e
000000d0: 5031 13bc 5d87 573c 8ecd e03b 2567 d63c
000000e0: 1096 263e d79c 9a3d 6e58 003e a1c0 173d
000000f0: 3c56 30bd 2705 0b3d 1e44 05be e3ad 03be
00000100: a055 7c3b 296e d7ba 7c78 8c3c 4227 8d3d
00000110: 98e8 1bbd dadc 6c3d 4176 acbc e159 06bd
00000120: 02ec c83c 89a8 1fbc 3262 9c3b d0a6 bebc
00000130: 6b2a 753c 5c8b d83c a831 733d 5c59 ee3c
00000140: a7b7 d5bb 0ae3 633c e758 d7bb 3e1a 1abd
00000150: dcc6 25bd 1c64 c53b 2aed 13bc 578d 08bd
00000160: 6904 463c fcbb c13c bd9d 5b3d a1fa 94bd
00000170: 64cf 3a3d 267f 80bc 52a6 ab3b e28c 003e
00000180: 0555 57bc ff32 613d 3249 1abd f472 93bd
00000190: 56eb 503c d162 2b3c 61d2 3d3d 3c3a a93b
000001a0: 056d aa3c a9b5 f13c 3d58 c9bc aed2 4cbd
000001b0: 0572 943d 9626 7cbd c720 8abd f526 023e
000001c0: 000b 73bd 88fe e1bd 6ede fd3a d2c0 84bd
000001d0: a5c5 cb3d a364 583e 7ebd 183d d50e 62bd
000001e0: b203 b5bd 5f17 343d 8ca6 3cbd f0d2 343d
000001f0: 7452 babc 2eed d43c 82a6 683d 0539 d4bd
00000200: cb89 1fbd 90b2 07bc 5494 18bd 83cc ed3d
00000210: 0a35 3f3c 4a9b 1c3d a5f7 853d 9e80 823c
00000220: 2f1d 873c 1539 4c3d 8c3f 46bd d787 12be
00000230: c24b 71ba f2d6 07bd f691 3b3b 184c 953d
00000240: b879 a4bd 96f8 e4bb c644 1d3d c380 38bc
00000250: 8de4 463c 409f 85bc e375 78bd 0640 c3bc
00000260: 8ba3 823d bd9d 90bd 1f45 ebbc 1e3d 51bd
00000270: c333 a5bd a753 bfbc a72c 0ebd ad54 bcbc
00000280: 5b94 9b3d bedb 3c3e e530 223d 3c91 cd3b
00000290: 832b 22bd cc73 12bd 3f5f 4a3d 7d49 1abd
000002a0: 3393 acbd e780 8b3b 6d80 f7bb 06a7 85bc
000002b0: 1b7d 0d3e 5bae 473b 169f 00bd 1048 88bd
000002c0: 145d 283c 0523 47bd c1ad b2bd 5100 cd3d
000002d0: 4b3b be3d b47c 22bd ff9c bfbd 2407 613d
000002e0: 09ed 2c3c df66 6d3c c33d e2bc 4f6e eebd
000002f0: e2a2 0fbe ade8 c2bd 53c0 d23d c7f9 ce3d
00000300: b400 aebb b2d6 a23c 885e 893d 7242 0a3d
00000310: 7b65 0f3c cd7f d03d 1bd0 77bd af37 1bbe
00000320: 9792 6f3d bb76 1e3d bd98 a93c 6c1e 82bc
00000330: 7c30 0d3c 0d1d 92bd 58b2 6d3d b06f 17bd
00000340: 925c 02bd c9a3 033d 3dfc a0bb 4f8a 4bbd
00000350: 56ba 0d3d a721 863d 5667 70bc e4ce a8bc
00000360: 4a13 4cbd cc3e 5dbd 8834 6c3d 8470 11bd
00000370: f9c0 86bd 3987 c4bb 0561 ecbb 62e7 b53a
00000380: 4f49 21bc 5677 a33d adca 9ebc 50ff 6abc
00000390: ee73 59bd 1207 2bbb f4e8 34bb 96fb 3cbd
000003a0: aa17 0ebe 1a01 9bbd 0aaf 2d3d e345 cd3c
000003b0: 41bc b83c fb75 333d cfac dbbd 9584 913d
000003c0: fd00 bd3c 4780 8f3d 403f 71b9 b108 3ebc
000003d0: 22b9 09be 2f05 f6bd 5d89 c1bc c5d8 bf3d
000003e0: 5b0e 9fbd 7c58 d83d d447 36bd 13ac 713d
000003f0: 5fe5 c6bb daf5 50bc a62d 063e 8936 9bbd

local_block.conv_chan.conv.0.bias f4 [8]
-0.0019368374 -0.051984593 0.046690065 0.06341096 0.06998038 0.0062641073 0.07914382 -0.012090814
00000000: 7bdd fdba cced 54bd 153e 3f3d 9bdd 813d
00000010: e051 8f3d 2443 cd3b 2816 a23d 8d18 46bc

local_block.conv_chan.conv.1.weight f4 [8]
0.97121286 1.0926162 1.1144419 0.88994306 1.0223839 1.1830883 1.0014077 1.064726
00000000: 68a1 783f d9da 8b3f 08a6 8e3f 4fd3 633f
00000010: 7add 823f 706f 973f 212e 803f f148 883f

local_block.conv_chan.conv.1.bias f4 [8]
-0.10245859 -0.11478755 -0.079998344 -0.18414123 -0.08372564 0.0119100325 -0.07537679 -0.124938406
00000000: cfd5 d1bd bc15 ebbd 2cd6 a3bd 858f 3cbe
00000010: 5978 abbd 4c22 433c 255f 9abd b5df ffbd

local_block.conv_chan.conv.1.running_mean f4 [8]
0.03398069 -0.037984688 -0.069966145 0.13488966 0.02778144 0.05301024 0.046531375 -0.014238855
00000000: 562f 0b3d d595 1bbd 694a 8fbd 8420 0a3e
00000010: e795 e33c 4421 593d af97 3e3d 164a 69bc

local_block.conv_chan.conv.1.running_var f4 [8]
0.18717691 0.12582257 0.08806086 0.2086058 0.1563043 0.080970265 0.110308036 0.17166096
00000000: 4eab 3f3e a2d7 003e 4159 b43d c29c 553e
00000010: 3c0e 203e bdd3 a53d 2ee9 e13d e4c7 2f3e

atten.conv.weight f4 [1, 1, 3]
-1.1509376 -0.54056966 0.16679457
00000000: ec51 93bf c662 0abf 32cc 2a3e

tcn.network.0.conv1.weight f4 [16, 16, 16]
-0.02555805 -0.0063864924 -0.00790762 -0.0035696512 -0.04208168 0.025458615 -0.021326002 -0.023980172
-0.028525032 -0.020955963 -0.026101487 -0.03988248 0.02610983 0.0049762507 0.013151468 -0.02060168
0.07837387 0.0011407919 0.032646973 -0.024229651 -0.012854812 -0.0086617395 -0.0054979385 -0.009098676
-0.023839077 -0.06959256 -0.06543408 -0.0901709 -0.0041159056 -0.055791445 -0.019556908 -0.035349663
-0.032146573 -0.01955992 0.017273022 0.036445063 0.014721188 0.047657702 -0.011904065 -0.016588232
0.02445489 -0.026552722 -0.034914184 -0.00014011118 -0.010094539 0.01347605 -0.017554656 -0.0055818963
0.07296107 0.007627855 0.017754974 0.03994814 0.047658853 0.046632707 -0.011253714 0.030515777
0.008538821 -0.027642477 -0.041066773 -0.0012208539 0.022183912 0.009053047 0.06130571 0.037246935
0.05053324 0.02030306 -0.01068684 -0.012153737 -0.020836258 0.052404515 -0.0011538165 0.018225944
0.016243106 -0.021057684 0.002614262 0.010896841 -0.018027904 -0.005246887 0.007190671 0.016098358
0.03755879 -0.017891392 -0.041795593 -0.012962702 -0.023686545 -0.00061126833 -0.042694855 -0.0033366706
0.006229004 -0.008332019 0.0037783748 0.013138067 -0.05496119 0.020610288 -0.016251717 -0.018933194
0.020360207 0.046458736 -0.018459784 -0.02841786 0.036617648 -0.0039595827 -0.012996664 -0.025829664
-0.0023959102 -0.022740856 -0.0148863625 0.019131284 0.0020972746 0.009327725 0.010313407 -0.0027751394
0.008199894 -0.05717785 -0.0158522 -0.04458237 -0.0061814766 -0.010148274 -0.06529192 -0.023078505
0.015435326 0.03164758 0.024946121 0.004318836 0.018010376 -0.015511035 -0.06616395 -0.014885478
-0.04370834 -0.038172096 0.009497751 -0.0069449567 -0.014045198 0.008256191 0.05803282 0.017828932
0.05594569 0.026991863 0.01864545 -0.0056597968 -0.04697066 -0.009769264 0.014029382 -0.021386988
0.017100703 0.015460715 0.04705051 -0.009014121 -0.025344396 -0.05102335 -0.0363143 -0.05239509
-0.066653736 -0.05403718 0.011658882 0.03536872 0.050796907 0.0652723 0.06644263 0.13251464
-0.0061703483 -0.013422431 -0.0042189006 -0.0014353652 -0.0003253613 -0.036345933 -0.021670269 0.013881434
-0.027919354 0.02706167 -0.04156791 -0.023818204 -0.032709405 -0.042337894 -0.021108545 -0.016177922
-0.01852864 -0.016374871 -0.057974257 -0.011815933 -0.04281953 -0.005565161 -0.0041385437 0.010170604
-0.016051663 0.030338982 0.012532007 0.019312823 0.0049481937 0.008794523 0.010181239 0.015278477
-4.432425e-05 -0.006833925 -0.0011056892 0.018480813 -0.008298368 -0.02008935 -0.023799786 -0.024396958
-0.023064168 -0.015067924 0.08271255 0.0184176 0.00560364 -0.0027772586 0.019939747 -0.029077118
0.010585306 -0.010340325 -0.005266415 -0.0067014694 0.009960935 -0.025976703 -0.06314747 -0.023271056
-0.027478863 -0.064206645 -0.039717738 0.036026303 0.0518638 0.049570255 -0.011616008 -0.0040157274
-0.054881126 -0.005817593 0.020790799 0.032203425 0.04991284 0.006321 0.038947713 0.0008283778
0.082115725 0.02804985 -0.002976068 -0.022852372 -0.029131329 -0.038995493 -0.051770534 -0.029181734
-0.037056282 -0.0028878183 -0.04372655 0.0074018547 0.006334025 -0.0058150166 0.035419926 0.0281618
0.017337102 0.013894332 0.056397278 0.06199778 0.036347874 0.028956536 -0.030050483 0.007674812
00000000: 1e5f d1bc c845 d1bb f68e 01bc cff0 69bb
00000010: d75d 2cbd 968e d03c deb3 aebc 1172 c4bc
00000020: 54ad e9bc d7ab abbc c9d2 d5bc d05b 23bd
00000030: 48e4 d53c d10f a33b 4179 573c dbc4 a8bc
00000040: 7b82 a03d a086 953a d5b8 053d 437d c6bc
00000050: fd9c 52bc f8e9 0dbc 0d28 b4bb 9d12 15bc
00000060: 2b4a c3bc 8b86 8ebd 4e02 86bd 85ab b8bd
00000070: b8de 86bb 9285 64bd cf35 a0bc cfca 10bd
00000080: 20ac 03bd 203c a0bc 2780 8d3c 6b47 153d
00000090: 2331 713c b934 433d 4409 43bc 0be4 87bc
000000a0: 9f55 c83c 1885 d9bc 2d02 0fbd cfea 12b9
000000b0: 9163 25bc a7ca 5c3c c8ce 8fbc 57e8 b6bb
000000c0: 9d6c 953d 16f3 f93b e172 913c a9a0 233d
000000d0: ee35 433d f001 3f3d 7f61 38bc 39fc f93c
000000e0: 69e6 0b3c 7a72 e2bc a235 28bd 0f05 a0ba
000000f0: 09bb b53c 3b53 143c b21b 7b3d 3e90 183d
00000100: f1fb 4e3d 9a52 a63c db17 2fbc 7820 47bc
00000110: cdb0 aabc 1ea6 563d a83b 97ba 934e 953c
00000120: 4310 853c 2a81 acbc 0a54 2b3b aa88 323c
00000130: 41af 93bc 14ee abbb b89f eb3b b4e0 833c
00000140: 3fd7 193d f890 92bc db31 2bbd 8361 54bc
00000150: 490a c2bc 863d 20ba cde0 2ebd 0bac 5abb
00000160: ac1c cc3b 0583 08bc 9c9e 773b 0c41 573c
00000170: fc1e 61bd e8d6 a83c 5222 85bc c919 9bbc
00000180: 73ca a63c 844b 3e3d f938 97bc 92cc e8bc
00000190: 63fc 153d 63bf 81bb f6ef 54bc bb98 d3bc
000001a0: b404 1dbb 084b babc eee5 73bc 36b9 9c3c
000001b0: 6e72 093b 50d3 183c 90f9 283c 1ddf 35bb
000001c0: d958 063c 5233 6abd 79dc 81bc 019c 36bd
000001d0: fc8d cabb f244 26bc c5b7 85bd 220f bdbc
000001e0: 73e4 7c3c e5a0 013d cf5b cc3c 0685 8d3b
000001f0: 7f8a 933c ff21 7ebc f780 87bd 38e2 73bc
00000200: 8407 33bd 585a 1cbd 749c 1b3c 8592 e3bb
00000210: d51d 66bc fa44 073c d2b3 6d3d fb0d 923c
00000220: 4f27 653d 0a1e dd3c 58be 983c d175 b9bb
00000230: 4f64 40bd 430f 20bc 7edb 653c c433 afbc
00000240: c616 8c3c f04e 7d3c 09b8 403d f7af 13bc
00000250: 0d9f cfbc dcfd 50bd 4ebe 14bd 3c9c 56bd
00000260: c181 88bd 1756 5dbd e504 3f3c cade 103d
00000270: 6b10 503d 7cad 853d 1313 883d ebb1 073e
00000280: a230 cabb c2e9 5bbc b43e 8abb dd22 bcba
00000290: 4195 aab9 79df 14bd d985 b1bc f46e 633c
000002a0: 21b7 e4bc 6fb0 dd3c 1d43 2abd 651e c3bc
000002b0: 4cfa 05bd 806a 2dbd d4eb acbc 9087 84bc
000002c0: 60c9 97bc 9824 86bc 6a76 6dbd 9d97 41bc
000002d0: 8863 2fbd f45b b6bb 9f9c 87bb 9ba2 263c
000002e0: c77e 83bc 7589 f83c 0c53 4d3c ed35 9e3c
000002f0: 7524 a23b e716 103c 36cf 263c 9452 7a3c
00000300: cde8 39b8 1eef dfbb c6ec 90ba 1365 973c
00000310: e1f5 07bc 6c92 a4bc c5f7 c2bc 21dc c7bc
00000320: 11f1 bcbc 74df 76bc 3365 a93d 82e0 963c
00000330: bd9e b73b ab02 36bb ae58 a33c 2333 eebc
00000340: fe6d 2d3c 776a 29bc e491 acbb 0098 dbbb
00000350: 3133 233c 18cd d4bc 7653 81bd f1a2 bebc
00000360: 5a1b e1bc c67e 83bd 11af 22bd 5190 133d
00000370: 236f 543d 2e0a 4b3d 1251 3ebc 5d96 83bb
00000380: 08cb 60bd 82a1 bebb 7751 aa3c bde7 033d
00000390: 6871 4c3d 6420 cf3b a387 1f3d 7e27 593a
000003a0: 4a2c a83d cdc8 e53c 230a 43bb e634 bbbc
000003b0: d3a4 eebc bdb9 1fbd 570d 54bd 880e efbc
000003c0: 54c8 17bd 8d41 3dbb 9c1a 33bd 428b f23b
000003d0: a78d cf3b e58b bebb 7c14 113d 93b3 e63c
000003e0: 8a06 8e3c 0da5 633c d500 673d 62f1 7d3d
000003f0: 82e1 143d 4236 ed3c 6e2c f6bc fd7c fb3b

tcn.network.0.conv1.bias f4 [16]
0.00072250806 -0.0025100552 0.013771101 -1.27701e-06 -0.013868457 9.398824e-06 0.0029435195 0.0005237022
9.291299e-06 -8.61718e-05 -1.8202898e-05 -2.6802465e-05 0.025514523 2.83137e-05 0.026331883 -0.029236838
00000000: b266 3d3a bd7f 24bb 2fa0 613c bb65 abb5
00000010: 8638 63bc a4af 1d37 10e8 403b 0f49 093a
00000020: d3e1 1b37 22b7 b4b8 6db2 98b7 dbd5 e0b7
00000030: d503 d13c 3583 ed37 f6b5 d73c 1882 efbc

tcn.network.0.bn1.weight f4 [16]
1.0595194 1.0736368 1.0238894 1.0817862 1.1375785 1.1118153 1.0118396 1.0739969
1.0276536 1.0612196 1.0647026 1.0037928 1.0165064 1.034503 1.0544629 1.0237217
00000000: 559e 873f ee6c 893f cf0e 833f f877 8a3f
00000010: 2c9c 913f f74f 8e3f f683 813f bb78 893f
00000020: 278a 833f 0bd6 873f 2d48 883f 487c 803f
00000030: e21c 823f 986a 843f a4f8 863f 5009 833f

tcn.network.0.bn1.bias f4 [16]
-0.17456228 -0.24613857 -0.32922128 -0.200194 -0.20896865 -0.28334856 -0.21587056 -0.16657725
-0.19858803 -0.28555346 -0.23716848 -0.21160448 -0.23670858 -0.23722565 -0.19482775 -0.2419759
00000000: 74c0 32be c00b 7cbe b18f a8be a8ff 4cbe
00000010: e1fb 55be 1013 91be 2c0d 5dbe 3a93 2abe
00000020: a95a 4bbe 1034 92be 4bdc 72be d8ae 58be
00000030: bc63 72be 48eb 72be ed80 47be 88c8 77be

tcn.network.0.bn1.running_mean f4 [16]
-0.03940325 -0.061983135 -0.08595333 -0.006631908 -0.016557876 -0.02995854 -0.027014572 0.00016519928
-0.061802793 -0.021926815 -0.022725694 -0.0500344 -0.04438177 -0.039301313 -0.036176227 -0.030084897
00000000: 4d65 21bd 07e2 7dbd 4d08 b0bd 7a50 d9bb
00000010: 62a4 87bc 9d6b f5bc aa4d ddbc 5839 2d39
00000020: ed24 7dbd dd9f b3bc 3c2b babc dff0 4cbd
00000030: a9c9 35bd 6afa 20bd 862d 14bd 9a74 f6bc

tcn.network.0.bn1.running_var f4 [16]
0.6473818 0.6933034 0.46941304 0.6797013 0.52147293 0.54700136 0.5153241 0.59468156
0.6538207 0.6272144 0.48612538 0.48242825 0.53649795 0.63605136 0.4971067 0.44490594
00000000: d0ba 253f 557c 313f e856 f03e e800 2e3f
00000010: 407f 053f 4808 0c3f 48ec 033f 0d3d 183f
00000020: cb60 273f 1f91 203f 6de5 f83e d600 f73e
00000030: ee57 093f 43d4 223f c584 fe3e b6ca e33e

tcn.network.0.conv2.weight f4 [16, 16, 16]
-0.005366682 -0.007816703 0.020976197 0.0034339107 0.030163737 0.003493123 -0.003130859 -0.029189039
-0.023492722 -0.018329984 0.0016442977 -0.03871631 -0.0019147024 0.034519803 -0.00035251366 -0.024173599
0.006898021 0.01721224 0.0062943287 0.019779043 0.0320896 0.024985328 -0.0028476021 0.018989658
0.012611946 -0.023146594 -0.016535778 -0.062519595 -0.03893373 -0.0029759444 -0.012623777 0.03899589
0.011641494 0.018474765 0.010364496 0.031804837 -0.016292209 0.01899539 -0.0048715486 -0.01675864
0.0036628533 -0.0075514885 0.01070845 0.020733438 0.008857577 0.050953075 0.0498877 0.03481636
0.034292154 0.02338435 -0.0034412974 -0.030360289 -0.015121149 -0.01570243 -0.03188368 -0.042451464
-0.044393517 -0.020033611 0.0034978474 -0.0053751734 -0.007017623 0.032126565 0.034741987 -0.0007366576
0.0028478915 -0.07743781 -0.065469466 -0.010928812 -0.056260027 -0.069291815 -0.042889975 0.004910727
-0.030751515 -0.03509427 -0.037810937 -0.0053946185 -0.015619368 -0.07822254 -0.040133458 -0.035712346
-0.010437535 0.003894604 0.04198592 0.034359228 0.014494309 0.028529888 0.019665897 0.0001933045
0.023783226 -0.03261823 0.004532674 -0.061354402 -0.028854735 0.01101463 -0.0269902 -0.0059448835
0.0047631883 0.0069020474 0.0004289791 -0.025959508 -0.030307781 -0.017058864 -0.007849447 0.019939179
-0.01537636 0.04223785 0.043934796 0.03045113 0.0017938213 0.04867084 0.014380004 0.050331496
0.022424754 0.0648127 0.044037282 -0.011914257 0.03883027 -0.02577354 -0.03278474 -0.0661962
-0.027883891 -0.08967367 0.004494013 -0.008353814 0.016858073 0.01736441 -0.01299743 -0.041451845
-0.008215055 0.0064744283 -0.022944322 0.033306304 0.013059813 0.020802626 0.00094331236 -0.047142096
-0.0031151297 -0.008514492 -0.05139205 -0.03427556 0.0009032738 -0.042537767 -0.059850086 -0.040778887
0.06575117 0.06377878 -0.01008744 0.020817822 -0.010079145 -0.010097022 -0.015608527 -0.013322207
0.03179311 0.0060040425 0.005030299 -0.015706647 0.005505642 0.0058901524 0.019261863 -0.032864925
-0.0056476756 -0.029248819 -0.077772446 -0.014887275 -0.042849872 -0.028634522 -0.036114186 -0.03425971
-0.012440287 -0.028482826 0.001536281 -0.05057142 0.0052697677 0.034719136 0.025671173 0.016225804
0.009208638 0.0048977137 -0.03818462 -0.021895481 -0.009488909 -0.020268438 -0.019521015 0.043181904
0.013281018 0.014644588 0.038817853 0.020314159 0.019614317 0.02479909 0.026109142 0.0059140525
0.02933163 0.04101968 0.05487201 0.028449908 -0.030508991 -0.048737936 -0.07248003 -0.02648257
-0.051063858 0.002011751 0.03732747 0.043723572 0.04347495 0.041494187 0.02491182 0.0101153655
0.04932772 -0.00243299 0.012570446 -0.0072459015 -0.019729212 -0.052653965 -0.004393031 -0.030514393
-0.0068506203 0.012711239 0.02037255 0.012153678 0.01509454 -0.0051020337 -0.005467208 -0.006422415
-0.02386223 -0.030696237 -0.0042037736 -0.021079771 0.009333032 0.01677703 -0.012138368 0.015762271
-0.0050886855 0.0034471182 0.03494825 -0.015920036 -0.020077957 -0.026553014 -0.008204169 -0.044133637
0.0051974677 0.015770208 0.019843344 -0.0116020925 -0.001791151 -0.026944093 -0.045747835 -0.030386422
-0.016364232 0.04235272 0.028680574 0.054239504 0.0047889934 0.031499643 0.05824565 0.056266557
00000000: feda afbb a111 00bc 46d6 ab3c 760b 613b
00000010: f119 f73c e1ec 643b 192f 4dbb da1d efbc
00000020: cf73 c0bc c328 96bc 7a85 d73a fe94 1ebd
00000030: c0f6 faba a364 0d3d 95d1 b8b9 b607 c6bc
00000040: cb08 e23b af00 8d3c a840 ce3b a907 a23c
00000050: 6270 033d 08ae cc3c d69e 3abb 3390 9b3c
00000060: 56a2 4e3c ed9d bdbc 0a76 87bc 460a 80bd
00000070: fa78 1fbd 1008 43bb f5d3 4ebc 28ba 1f3d
00000080: f7bb 3e3c 6458 973c d9cf 293c ca45 023d
00000090: 3d77 85bc 389c 9b3c 83a1 9fbb 6a49 89bc
000000a0: 7b0c 703b 7a72 f7bb 7f72 2f3c 2cd9 a93c
000000b0: 5f1f 113c 2cb4 503d 0b57 4c3d 999b 0e3d
000000c0: ee75 0c3d 8990 bf3c 6487 61bb 24b6 f8bc
000000d0: b2be 77bc 62a2 80bc 7698 02bd 96e1 2dbd
000000e0: fad5 35bd 871d a4bc 243c 653b 3922 b0bb
000000f0: 17f4 e5bb 2597 033d 9d4d 0e3d 411c 41ba
00000100: b1a3 3a3b b797 9ebd db14 86bd c30e 33bc
00000110: ea70 66bd dee8 8dbd 66ad 2fbd 2aea a03b
00000120: 9aea fbbc 02bf 0fbd a4df 1abd 57c5 b0bb
00000130: 61e8 7fbc 2433 a0bd fb62 24bd 1c47 12bd
00000140: 3202 2bbc 9d3c 7f3b 6ef9 2b3d 43bc 0c3d
00000150: 8a79 6d3c 83b7 e93c 601a a13c c8b1 4a39
00000160: 0ad5 c23c b19a 05bd d386 943b c14e 7bbd
00000170: c460 ecbc b576 343c 8d1a ddbc 4ccd c2bb
00000180: 8514 9c3b 922a e23b 9ae8 e039 09a9 d4bc
00000190: 0648 f8bc 08bf 8bbc f89a 00bc 7d57 a33c
000001a0: 21ed 7bbc 9901 2d3d f9f4 333d a674 f93c
000001b0: a81e eb3a 135b 473d 1c9a 6b3c 6628 4e3d
000001c0: 1eb4 b73c 85bc 843d 7060 343d 0434 43bc
000001d0: 7d0c 1f3d 0823 d3bc 4b49 06bd e091 87bd
000001e0: c26c e4bc d4a6 b7bd 8342 933b 6fde 08bc
000001f0: f119 8a3c cf3f 8e3c 2cf3 54bc 69c9 29bd
00000200: 7098 06bc 7127 d43b bbf5 bbbc 316c 083d
00000210: d3f8 553c 456a aa3c 9f48 773a 1218 41bd
00000220: 3427 4cbb 5e80 0bbc 7880 52bd 8864 0cbd
00000230: aec9 6c3a 153c 2ebd 5d25 75bd c307 27bd
00000240: 8da8 863d 739e 823d ca45 25bc 238a aa3c
00000250: 0023 25bc fb6d 25bc e8ba 7fbc 6345 5abc
00000260: 7e39 023d 8fbd c43b 35d5 a43b 3aab 80bc
00000270: ac68 b43b 2e02 c13b 0ecb 9d3c 5f9d 06bd
00000280: 2310 b9bb 389b efbc 2947 9fbd c2e9 73bc
00000290: 5983 2fbd f292 eabc 78ec 13bd e953 0cbd
000002a0: 58d2 4bbc d154 e9bc 095d c93a fa23 4fbd
000002b0: 04ae ac3b a735 0e3d 5a4c d23c faeb 843c
000002c0: d4df 163c 007d a03b 7a67 1cbd 275e b3bc
000002d0: 5e77 1bbc ff09 a6bc 89ea 9fbc 82df 303d
000002e0: a098 593c dbef 6f3c 78ff 1e3d e169 a63c
000002f0: 34ae a03c 7627 cb3c d7e2 d53c abca c13b
00000300: e348 f03c 4104 283d 79c1 603d c80f e93c
00000310: feed f9bc 6ea1 47bd 6970 94bd faf1 d8bc
00000320: 5628 51bd 95d7 033b b0e4 183d 7d17 333d
00000330: ca12 323d cff5 293d e013 cc3c ebba 253c
00000340: dd0b 4a3d cc72 1fbb 46f4 4d3c 076f edbb
00000350: 289f a1bc afab 57bd 6af3 8fbb 52f9 f9bc
00000360: 2b7b e0bb cd42 503c 55e4 a63c 3820 473c
00000370: 174f 773c f62e a7bb 4426 b3bb 1f73 d2bb
00000380: b97a c3bc ad76 fbbc cfbf 89bb 7caf acbc
00000390: 93e9 183c fb6f 893c 01e0 46bc e11f 813c
000003a0: fdbe a6bb 0ce9 613b e525 0f3d bc6a 82bc
000003b0: 877a a4bc b585 d9bc c76a 06bc 79c5 34bd
000003c0: 854f aa3b 8630 813c 828e a23c b416 3ebc
000003d0: 0ec5 eaba dcb9 dcbc 1562 3bbd f2ec f8bc
000003e0: 480e 86bc 0c7a 2d3d 86f3 ea3c 3e2a 5e3d
000003f0: fdec 9c3b c505 013d fe92 6e3d c377 663d

tcn.network.0.conv2.bias f4 [16]
0.01933814 -0.0054853954 0.0017805675 0.00043150465 0.009196724 0.043098785 0.006389762 -3.2090707e-06
-0.011075268 -0.0010807044 0.014364392 -8.2258e-06 -0.013662132 -5.595637e-06 0.0023044469 -1.9390935e-05
00000000: 056b 9e3c d5be b3bb ee61 e93a 933b e239
00000010: dbad 163c 5a88 303d 3561 d13b 6a5b 57b6
00000020: 0a75 35bc 6ca6 8dba a058 6b3c 8b01 0ab7
00000030: 23d7 5fbc 28c2 bbb6 3406 173b b7a9 a2b7

tcn.network.0.bn2.weight f4 [16]
1.0 1.0 1.0 1.0 1.0 1.0 1.0 1.0
1.0 1.0 1.0 1.0 1.0 1.0 1.0 1.0
00000000: 0000 803f 0000 803f 0000 803f 0000 803f
00000010: 0000 803f 0000 803f 0000 803f 0000 803f
00000020: 0000 803f 0000 803f 0000 803f 0000 803f
00000030: 0000 803f 0000 803f 0000 803f 0000 803f

tcn.network.0.bn2.bias f4 [16]
0.0 0.0 0.0 0.0 0.0 0.0 0.0 0.0
0.0 0.0 0.0 0.0 0.0 0.0 0.0 0.0
00000000: 0000 0000 0000 0000 0000 0000 0000 0000
00000010: 0000 0000 0000 0000 0000 0000 0000 0000
00000020: 0000 0000 0000 0000 0000 0000 0000 0000
00000030: 0000 0000 0000 0000 0000 0000 0000 0000

tcn.network.0.bn2.running_mean f4 [16]
0.0 0.0 0.0 0.0 0.0 0.0 0.0 0.0
0.0 0.0 0.0 0.0 0.0 0.0 0.0 0.0
00000000: 0000 0000 0000 0000 0000 0000 0000 0000
00000010: 0000 0000 0000 0000 0000 0000 0000 0000
00000020: 0000 0000 0000 0000 0000 0000 0000 0000
00000030: 0000 0000 0000 0000 0000 0000 0000 0000

tcn.network.0.bn2.running_var f4 [16]
1.0 1.0 1.0 1.0 1.0 1.0 1.0 1.0
1.0 1.0 1.0 1.0 1.0 1.0 1.0 1.0
00000000: 0000 803f 0000 803f 0000 803f 0000 803f
00000010: 0000 803f 0000 803f 0000 803f 0000 803f
00000020: 0000 803f 0000 803f 0000 803f 0000 803f
00000030: 0000 803f 0000 803f 0000 803f 0000 803f
