model/Benchmark/DATCN_b2_1s_S2.pth (torch, 182388 bytes, 75 tensors)

global_block.conv_time.conv.0.weight f4 [8, 1, 1, 125]
00000000: 03b1 62bd 7087 cfbc 7191 c8bc fc33 493c
00000010: 8332 0cbc 6f10 a13d ade5 bdbc 9014 debb
00000020: cef9 113c 255e e0bc 5b06 3a3c 0d5f 02bd
00000030: fe96 1c39 baeb c83c b22e 37bd 5953 e43b
00000040: 9082 49bd 5daf f23a 454b 5cbd 6f0b 073c
00000050: 6e3f 453a eb06 78bc 935c 9ebc 0d53 0e3b
00000060: 0755 fa3c a1f4 a33c 532b 263b a128 263a
00000070: de67 093d 4bc3 38bd b60b 243d 0501 88bb
00000080: a7a6 013d 731f 41bd cad5 e3bc 2f87 d8bb
00000090: c275 ab3c 995d b2bc 2773 743d 008f 34bd
000000a0: d8d9 633c 0718 07bd 32ea 573d 833e 883d
000000b0: 480a 9ebb eaa6 a33c c2aa e7bc 849f 8ebd
000000c0: ba1a 423d 9a70 1c3d 9582 ad3c 4368 a73c
000000d0: 8329 76bc cdcb d03b 39cd 0d3d 0fcf 36bd
000000e0: 1cc0 a9bd 1311 18bd 3345 f73b 474f 433c
000000f0: 04d1 713c 28b8 703d 996c 353d 4f64 09bd
00000100: dc5a 77bc 84fb 9fbc 408b d23c 353f 04bd
00000110: d5b2 d5bc 0d92 02bc ae4f a6bc c471 05bd
00000120: d1c0 b8bd 658f 093d 9787 6e3c 8e3f 17bd
00000130: e38b 2dba 1b42 d63d 2362 153e d332 95bc
00000140: 112b 4fbd 031c 2cbc 38d3 b3bd 2a05 a2bd
00000150: 5ecb 09be 34f5 993c c371 443d 090c d2bc
00000160: 0a96 9dbc 5f7f a73c 79a4 f2bb 0a3e 86bb
00000170: 82d1 93bd b3be 13bd c340 2a3d 4bef 0bbd
00000180: 756c 73bc 566a 223c 2dc0 723b a342 bbbc
00000190: 8200 2d3c f01f 1a3d 62b8 7b3b b104 7c3b
000001a0: e7a5 b43d fca0 da3d be01 473d 8890 f0bc
000001b0: 28e9 76bd 4037 79bd fea7 74ba d4c9 cabc
000001c0: 5409 a2bc 03da bbbc b396 3d3d 391c 793d
000001d0: af91 deba 2390 90bc bccf 0d3d b3e1 8d3a
000001e0: b429 86bd 80c0 2d3c 6b99 453d b059 92bd
000001f0: 49bf 05bd 0617 81bb 71da 32bd bccb ecbc
00000200: e49a 973d bc22 64bc 7980 293d 2477 70bc
00000210: 9eab 55bc 6776 4cbd 2e7b d3ba 0c36 263d
00000220: a675 1a3d 66b9 ec3c e8ca 6e3d f2e3 7b3d
00000230: c9e4 b8bd 1680 613b 9694 a3bd ad10 a3bd
00000240: 88b6 8bbc ff32 a5bd 4e9c 733a dcb7 c33d
00000250: 5a26 2c3d b39c 04bd c132 30bd d613 bb3c
00000260: 590e 0d3c 16b6 393d 5c67 1fbd 175e a63c
00000270: 4496 1dbc d914 0fbd 0f3a 9c3c 7f95 bb3c
00000280: 07d4 543d 333d fb3c ad48 163d 831a 9d3c
00000290: 3ded 11bd 477d 3fbd a8aa 49bc 986a 053c
000002a0: 156e a03d 5a74 593d 142d 3e3c fc50 54bd
000002b0: 9bb6 ac3c b15f 423b 4001 b53c 2aab a93d
000002c0: 315a c5bc afeb 1cbd 920b 67bd 6ba2 9dbc
000002d0: f36b 83bd 2c20 983d 9c26 9e3b d033 c13c
000002e0: 2de5 c1bc e85a 363d 7d65 7a3d 91d0 913c
000002f0: f5a7 953d 6924 81bd c8bc 03bd 5de5 93bd
00000300: a355 c03c 23e5 fc3c bf4c 773d adac 313d
00000310: 06f0 58bc fe45 cabc db55 a5bb a985 ab3d
00000320: 53aa 043c 87b1 803d a863 00bd 0b45 8a3d
00000330: af1f d33d 9829 7f3d 4a48 e0b9 15a7 36bd
00000340: be94 b4bd af8a 8abc ca18 ae3c 69bf 0ebd
00000350: 0dc3 c4bc b1c9 a6bc b20f f3bd a048 9bbd
00000360: 3d72 ebbc 171a da3c 2772 603c 9356 833d
00000370: 8ccf 473d 65ee 583c c3ef 003d 45f6 ed3c
00000380: 1735 81bd 6b7c 7d3d b08d 003d 018c 763d
00000390: 514f babd 3310 a5bd 7816 b63c 2bbd 4abd
000003a0: e6de 1cbd e941 2f3d 9328 db3c 354c 6bbd
000003b0: 04c6 933d e431 fb3b b15c 2d3d bc10 73bd
000003c0: cd26 8cbd 0152 34bd dc0f 45bc 9feb 84bd
000003d0: ea72 a8bc e5e7 b9bd ec5e 96bd e3a6 32bc
000003e0: f9db 933c 9593 7bbd 3281 243d 438e 12bd
000003f0: d84d ce3c bc06 eb3c 6517 4dbd 9cf8 0ebc
-0.055344593 -0.025333136 -0.024483414 0.01228046 -0.008556965 0.078644626 -0.023180807 -0.0067773536
0.008909656 -0.027388642 0.011354054 -0.03182893 0.00014933568 0.024526466 -0.044722266 0.0069679436
-0.04919678 0.0018515397 -0.05378272 0.008242472 0.00075244054 -0.015138368 -0.019331252 0.0021716983
0.030558122 0.02001411 0.0025355413 0.00063384516 0.03354632 -0.04510812 0.04005023 -0.004150512
0.031653073 -0.047149133 -0.027811904 -0.006607912 0.020930175 -0.021773146 0.05968013 -0.044081688
0.0139069185 -0.0329819 0.05271358 0.06652548 -0.004823003 0.019977052 -0.028279666 -0.06964019
0.04738877 0.038193323 0.02118043 0.020435458 -0.015024546 0.006371951 0.034619544 -0.04463106
-0.08288595 -0.03712566 0.007546091 0.011920757 0.014759306 0.058769375 0.04429302 -0.033542927
-0.015097346 -0.019529112 0.025701165 -0.03228684 -0.02608625 -0.0079693915 -0.020301666 -0.0325792
-0.09021152 0.033584017 0.014558694 -0.036925845 -0.0006620271 0.10461827 0.14588217 -0.018212711
-0.05057818 -0.010504725 -0.08780521 -0.07911141 -0.13456485 0.01879368 0.047960054 -0.025640504
-0.019236583 0.020446477 -0.0074048606 -0.004096751 -0.07217695 -0.036070537 0.041565668 -0.034163754
-0.014857401 0.009913048 0.0037040815 -0.022858923 0.010559203 0.037628114 0.0038409461 0.0038454945
0.08820706 0.106752366 0.048585646 -0.029365793 -0.06028095 -0.060843706 -0.0009332894 -0.024754442
-0.019779839 -0.022931105 0.046286296 0.06081793 -0.0016980673 -0.017646855 0.03462194 0.001082471
-0.06550923 0.010604978 0.048242014 -0.07146013 -0.032653127 -0.003939512 -0.043665353 -0.028905742
0.0740259 -0.013924297 0.041382287 -0.014676843 -0.013041405 -0.049917605 -0.0016134733 0.040578887
0.037709855 0.028896999 0.058298975 0.061496682 -0.09028012 0.003440862 -0.07987325 -0.07962165
-0.017054811 -0.08066367 0.00092930056 0.09556553 0.042028762 -0.032376003 -0.043017153 0.022836607
0.008609378 0.045339666 -0.03891693 0.020308537 -0.009618346 -0.03493199 0.019070653 0.022898434
0.051960018 0.03066883 0.036690403 0.01917768 -0.03562664 -0.046750333 -0.012308754 0.00814309
0.078334965 0.053089477 0.011607427 -0.051835045 0.021083167 0.0029659087 0.022095323 0.082846
-0.024090858 -0.038310703 -0.05640752 -0.019242486 -0.06417074 0.07428011 0.00482638 0.023584276
-0.02366885 0.04452029 0.061131943 0.017799648 0.07307426 -0.06305773 -0.032162458 -0.07221482
0.023478335 0.03087098 0.060375925 0.043377567 -0.01324082 -0.024691578 -0.005045635 0.08375103
0.008097249 0.06283861 -0.03134504 0.0675145 0.103087775 0.062295526 -0.0004277847 -0.044592936
-0.08817433 -0.016911833 0.021252055 -0.03485051 -0.024018789 -0.020359846 -0.11868228 -0.075822115
-0.028740996 0.026623769 0.013699091 0.06412997 0.048781916 0.013240431 0.031478655 0.029048095
-0.06308954 0.061886232 0.031385124 0.060192112 -0.0909716 -0.080597304 0.02222751 -0.04949681
-0.03829851 0.042787466 0.026752746 -0.057445724 0.07215503 0.0076658595 0.042324726 -0.05934213
-0.06843338 -0.044023518 -0.012027707 -0.06490254 -0.020562608 -0.090774335 -0.07342324 -0.010904047
0.018049227 -0.061420042 0.040162273 -0.035780203 0.025183603 0.028689735 -0.05007114 -0.008726265

global_block.conv_time.conv.0.bias f4 [8]
00000000: 847f 14b6 b2d5 023d fbfa 183c 28b6 c03c
00000010: 6f85 04bd 22b1 23bd e10a f632 9343 153b
-2.2127942e-06 0.031942077 0.009337182 0.023524359 -0.032353815 -0.03996385 2.8643116e-08 0.0022775873

global_block.conv_time.conv.1.weight f4 [8]
00000000: af02 513f 0306 833f a142 623f c889 613f
00000010: 1c83 703f 3e92 853f 176c 633f 05b1 773f
0.8164472 1.023621 0.8838292 0.8810086 0.9395006 1.0435255 0.88836807 0.96754485

global_block.conv_time.conv.1.bias f4 [8]
00000000: a200 80bd a825 12bc 82c3 ca3c d1fa 61bd
00000010: b913 3f3d 875f 46bd bbe7 55bc abda 003d
-0.06250121 -0.008920111 0.024751429 -0.055170838 0.04664967 -0.048430946 -0.013055737 0.031458538

global_block.conv_time.conv.1.running_mean f4 [8]
00000000: 7c34 abb9 1841 d63c fc32 3c3d bc88 763c
00000010: e36e edbc 4585 43bd c12a d2bc 3324 d5bc
-0.00032654766 0.026154086 0.04594706 0.015047248 -0.028983539 -0.047734518 -0.025655152 -0.026018238

global_block.conv_time.conv.1.running_var f4 [8]
00000000: 7cd3 3841 dc9b 9641 11c7 bd41 84e9 6c41
00000010: ecd6 8b41 3903 9841 0e5e 8f41 4903 e541
11.551632 18.826103 23.7222 14.807011 17.479942 19.001574 17.920925 28.626604

global_block.conv_chan.conv.0.weight f4 [8, 8, 11, 1]
00000000: 89d9 1fbd 4a8f 273d 494e 103d 1c4f 73bd
00000010: a56c 2f3d ed5c 0c3d 27dc 783d 083d 25bc
00000020: 4c20 f1bb 6784 89bd b612 0f3d 55ad ff3d
00000030: 8b2a 43bd 3c80 253d b18e ae3d fae5 f639
00000040: 03dd 19bd d121 f1ba 4455 72bd b39b a53d
00000050: 58c8 2dbd f826 1a3d 3d40 bfbd ab53 4f3d
00000060: 6fdd 923d a437 08be 0da3 bc3b abb7 efbc
00000070: 99a0 5b3d a531 0dbd e0d5 8dbd c9ca 48bd
00000080: bdb2 bcbc cc27 f63d 004b 19bd 0a10 53bd
00000090: ecbe 5f3c 0467 0a3d c871 523c a4c6 213d
000000a0: 02da 5cbd dc50 79bc 8e1e 033d febe 423d
000000b0: 3721 20bc ab10 8e3d ab66 69bd ead2 cc3c
000000c0: 8c8d 043c 2d08 283d befd b63d a56b 233c
000000d0: 9709 923d 0ce7 98bc a429 afbd 958f e63c
000000e0: 6eac 6f3d 7543 a73d 9242 87bc 68c8 4fbd
000000f0: 44a9 0b3e 3fb5 813d 9ec5 903d ed82 32bd
00000100: 36f1 113d df45 92bd 87ed 653c 3cb3 923d
00000110: a101 5a3d 0fdf 59bd dc36 c6bc 6f6d 5dbd
00000120: dae1 063d c79a c73d d360 7e3d 493d 863d
00000130: ab90 a5bc 7aba 81bd 4cba 88bd 8048 0abd
00000140: f47a c83c dff7 67bd d53f b13d 2e8d 913d
00000150: 12ae 49bd 3909 87bc 2867 4cbd 3e39 f6bc
00000160: 08af 903d 2c68 3dbd b42a babc 1ddc 49bb
00000170: cb83 803c a354 f3bc 94fe b83c b090 7fbd
00000180: b981 b83d e037 9a3d b950 02bd 4dd4 293d
00000190: c14c 83bc a91d 063d b1c0 10bd 999c 313d
000001a0: a1a3 5bbd 002a 8bbd 6f56 933d ba24 ac3d
000001b0: 3741 9bbb 9d19 1dbd a593 4d3d 72e7 4abe
000001c0: 0fbb 5fbd d034 853c c0b0 7f3d 0b9f 803d
000001d0: 381f abbd 8103 0fbd 4a44 75bd f711 803d
000001e0: edbb b73d 2a5a 183d 13bb de3d f394 fa3c
000001f0: f635 71bd 9d6c a0bc 302a b2bd d743 aa3b
00000200: a4a1 f33d a445 6f3d 8d08 3ebd 2eff c6bd
00000210: 9731 7e3d 23ed 503d 4fb4 53bd ba4e adbd
00000220: 56ec 263c fc35 93bd a6d7 b53d 0a36 a43d
00000230: 2bbf 693d d206 4abd a3cd 80bd 6567 00bd
00000240: 829b b43d c8b1 ef3b 16d4 db3d 5d93 e5bd
00000250: 3677 67ba cb2f d63d 5911 dbbc e55d 4dbd
00000260: 2769 63bd 1fbc 843d 63d7 bebd 41c7 10be
00000270: 1961 74b9 fe91 2d3e 0389 6c3d 3ad3 fdbc
00000280: 1c23 8abc 0798 043d 1b14 0d3c b00a 07bd
00000290: 8110 9d3d 1775 283d 375c ca3d c23e d33b
000002a0: 88d0 d9bd 5f82 03be 9050 e33c 261f 77bb
000002b0: e090 a13d 2d8a efbc 2e5c 70bd dff6 83bd
000002c0: 3352 c1bd 87d2 93bd 7129 91bd 6e52 dc3d
000002d0: 73f2 d33d 7ce8 34bc ff2f f4bd eca2 363d
000002e0: 5a24 123d 6984 1e3d f9ac 923b ab68 9bbd
000002f0: 53b9 f0bd 427c c1bc 11da 523d 609b ba3d
00000300: a1e4 0dbd bc6b 05bc b1d3 f43d 8a42 d23d
00000310: 3fb7 25bc 0bfe 513d c6d1 503d 7b00 073e
00000320: cd8f c0bd 8e1c a03b 5d59 b6bd 36fe dcbd
00000330: 33af 613c eef8 7b3d 4a40 303d e792 bebb
00000340: 4c9b 4b3d f83d 45bc 36bd 92bd 2cf2 e2bc
00000350: 257e 0dbc 1c9e 50bc ec70 1abd 3668 093d
00000360: 3f92 df3d c4ce 8e3d 860b a93b 4369 9abd
00000370: bfbe bcbc 8ce5 bbbd 3cd2 4a3d 27c5 fdbc
00000380: 7bf1 943b f56d 5f3d f2cd d8bd 7e2b 803d
00000390: 8dd8 1e3c b0c2 10bd 6690 67bb deb3 88bb
000003a0: 86eb 653d d564 0cbc 74ca a13c 983a 61bd
000003b0: 9d72 4a3c e3f1 0ebe f5b0 25bd 3fce 88bd
000003c0: 3aea 8c3d 563d 8d3c f727 46bd c771 d63d
000003d0: 0902 d6bd a1fa 53bd 205e 4cbd 5774 0a3c
000003e0: 74c0 ba3d f1a0 9abd 18e2 7a3d 8105 1d3d
000003f0: 0d10 22bd e1e9 b4bd ed81 34bc 1f99 8abc
-0.039025817 0.040908135 0.03523091 -0.059401616 0.04282822 0.03426831 0.06075683 -0.010085352
-0.0073585864 -0.06714707 0.034929954 0.12484232 -0.047647994 0.040405497 0.0852331 0.00047092122
-0.03756429 -0.0018396919 -0.059163347 0.08086338 -0.04242739 0.03763482 -0.09338424 0.0506169
0.07171141 -0.13302475 0.005756742 -0.029262384 0.053619955 -0.034471173 -0.06925559 -0.049021516
-0.023034448 0.120193094 -0.03742504 -0.051528968 0.013656359 0.03378965 0.01284451 0.03949608
-0.053918846 -0.015217032 0.03201156 0.047545426 -0.009773544 0.06936773 -0.056982677 0.025002915
0.008090388 0.041023422 0.08935116 0.009974395 0.07130735 -0.01866486 -0.08552864 0.028144637
0.05851405 0.08167163 -0.016511235 -0.05072823 0.13638788 0.06333398 0.070689425 -0.04358189
0.035630427 -0.07142233 0.014033682 0.071630925 0.05322421 -0.05319124 -0.02419608 -0.054059442
0.032930233 0.09746318 0.062104058 0.06554658 -0.020210585 -0.06334396 -0.06676158 -0.033760548
0.024472691 -0.056632873 0.08654753 0.07107006 -0.049238272 -0.01648389 -0.049903065 -0.030056592
0.070646346 -0.046241924 -0.02272544 -0.0030801364 0.015687844 -0.029703444 0.02258233 -0.062393844
0.09009118 0.075301886 -0.031815264 0.04146223 -0.01602781 0.03274313 -0.035340015 0.043362234
-0.053622846 -0.0679512 0.0719422 0.084054425 -0.004737999 -0.038354505 0.050189633 -0.19814852
-0.054621752 0.016260535 0.06242442 0.06280335 -0.08355564 -0.03491545 -0.05987958 0.062534265
0.08971391 0.037195362 0.10875525 0.030588603 -0.05888935 -0.01958304 -0.08699453 0.0051960754
0.11896065 0.058416024 -0.046394873 -0.097166404 0.06205901 0.0510074 -0.051685628 -0.084622815
0.010188183 -0.07188031 0.08879022 0.0801812 0.057067078 -0.04932291 -0.06289222 -0.031348605
0.08818723 0.0073148943 0.107338116 -0.11209748 -0.00088297145 0.104583345 -0.02674167 -0.050138373
-0.055520203 0.06481194 -0.093184255 -0.1413851 -0.00023305825 0.16950223 0.057747852 -0.03098451
-0.016862445 0.032371547 0.008610751 -0.032969177 0.076691635 0.04112729 0.0988087 0.0064466903
-0.10635477 -0.12842701 0.027748376 -0.0037707775 0.07888961 -0.029240692 -0.05868166 -0.06443571
-0.094395064 -0.07217889 -0.070879824 0.1075791 0.10348978 -0.011041757 -0.11923217 0.04458897
0.0356792 0.038700495 0.0044761864 -0.07588323 -0.11754098 -0.023618821 0.051477496 0.09111667
-0.034641866 -0.008143362 0.119544394 0.102665976 -0.01011449 0.051267665 0.050981306 0.13183777
-0.09402428 0.0048862165 -0.089037634 -0.107906744 0.013774681 0.061516695 0.04303006 -0.005815852
0.04970865 -0.0120387 -0.07164995 -0.027703367 -0.008636032 -0.012733009 -0.037705347 0.03354665
0.10916566 0.06973031 0.0051588444 -0.07539608 -0.023040174 -0.09174642 0.0495169 -0.030977799
0.0045453883 0.054548223 -0.10586156 0.062582955 0.009695184 -0.03534192 -0.003533387 -0.0041718325
0.056132816 -0.008568962 0.019749857 -0.05498752 0.0123564275 -0.1395946 -0.040451963 -0.06679963
0.06880613 0.017241161 -0.048377957 0.1047092 -0.10449607 -0.05175269 -0.049894452 0.008450589
0.09118739 -0.075502284 0.061250776 0.038335327 -0.03956609 -0.08833671 -0.011017305 -0.016918717

global_block.conv_chan.conv.0.bias f4 [8]
00000000: 6ea8 3b32 3deb b23c a2c3 e6ba bf84 77bc
00000010: fca7 893d a950 5fbd 29c4 4a34 bf19 023b
1.0923129e-08 0.021840686 -0.001760591 -0.015107333 0.067214936 -0.054520283 1.8884079e-07 0.0019851772

global_block.conv_chan.conv.1.weight f4 [8]
00000000: 3d24 5a3f 6e61 853f 3faf 623f d86b 6d3f
00000010: 7751 783f 43b6 733f e95b 633f 7316 7e3f
0.85211545 1.0420358 0.88548654 0.9274268 0.96999305 0.95199984 0.8881212 0.99253005

global_block.conv_chan.conv.1.bias f4 [8]
00000000: 9b6e 32be 12f0 73bc fcac f4bd 8936 abbd
00000010: f5d7 5bbd 87b4 e8bd c6c5 b6bd 265f cebd
-0.17425005 -0.01488878 -0.11947057 -0.08360011 -0.05367275 -0.11362558 -0.08924441 -0.10076742

global_block.conv_chan.conv.1.running_mean f4 [8]
00000000: 56f4 b13d 3cc8 093c f5e1 a6bd 41e9 58bc
00000010: ec37 c13d 8738 32bd 3c25 7d3d 6709 963b
0.086891815 0.008409556 -0.08148567 -0.013239206 0.094344944 -0.04351094 0.061803088 0.0045787576

global_block.conv_chan.conv.1.running_var f4 [8]
00000000: ad78 d63d 640f d13d 1708 b03d 8a51 d23d
00000010: fcad 993d 107e 863d aab9 843d 7731 803d
0.10472236 0.10208014 0.08595293 0.102694586 0.07503888 0.06567013 0.06480725 0.06259435

local_block.conv_time.conv.0.weight f4 [8, 1, 1, 51]
00000000: 9d48 d7bc ec74 1b3d b8cc 9b3c 4002 8c3c
00000010: ff9d ac3c 6b6a a1bd c0db 403d 8df4 60bd
00000020: f2c1 873d 08b6 1a3c ab03 45bc 42c4 883d
00000030: abd5 2a3e aee7 a9bd 2e4f 6fbd de60 09be
00000040: e937 74bd dd9d 3c3e a199 563e 180f e63d
00000050: ab30 a3bd 2caa b4bc 99f4 5dbd c9d2 41bd
00000060: 2950 90bc afaf 233d c1a9 8abd d8bd 93bd
00000070: ea3b 013d 9874 b93d fb76 a6bc ada5 8e3c
00000080: fe2a a83c 8d12 74bd 8de2 273e d3f9 2b3e
00000090: cbd7 0a3d 69ba 34be 4810 8ebd 4478 d33c
000000a0: 0ad1 4e3d 5891 0ebe 9415 283d c259 8d3d
000000b0: d790 433d 5bd1 3dbd 0d17 a4ba 830a 56bd
000000c0: ccf0 64bc 7ede cb3d 9076 35bd 724f 353d
000000d0: e063 52bd 73d4 fabb 1145 b0bc ad86 043d
000000e0: 2183 f3bc cbfb cdbc a2a3 2c3d 2b4c c9bd
000000f0: 85d8 053d 851e efbd 09af 8d3d a8b5 f23d
00000100: 22c4 633d 2b50 533c 0dc4 e4bc 89ec 133d
00000110: 7e18 12bb a2e3 0f3c c194 f3bb 4ebc 0cbd
00000120: 9b4d 993d 9bab 01be bdbb 8cbd 1bc4 ab3d
00000130: 75f3 33bd 8d0d 85bd ab5f 8e3c 3410 cd3d
00000140: 64c6 4a3d 548c 39bd ddb8 883d 23ee a4ba
00000150: fa28 753d 188c dd3d 6605 29bd 0ab3 0c3c
00000160: 2b1f 243c b60c d13d a160 e43d 24a5 393d
00000170: 8421 8abb c84b 00be 3294 c1bd b76b 79bc
00000180: dcec 023e b7dc cdbb e43f a23c b1d5 a0bd
00000190: a9f9 cd3c 9ce2 a8bd 5a57 04bd ae97 88bd
000001a0: e4a1 f13d 7873 63bd 0acb 3abd fafb b13d
000001b0: b8a7 8a3d 3c8a 453d d008 033e 9ca1 e6bc
000001c0: 06a1 a13d 1e61 c2bc 2b3d acbd 99d5 6abd
000001d0: 77f7 27bd b252 10bc 4a3d d2bc 5a9b 18bd
000001e0: 4efb 16be 6b34 d93d 49ab 243e 9ab9 af3d
000001f0: 9957 ed3d d987 26bc c6c2 e53b e45d 00be
00000200: 4c07 eebc 7810 bcbd 029e b6bd a282 503c
00000210: 6305 4abd 484a 9ebd a942 553d c4ee 573d
00000220: 3cb5 3d3e a4cb 913d bcfd 5e3d 1342 453d
00000230: a9d2 c0bd 057c 753d d78d df3d 3b83 b0bd
00000240: afbc 0fbe 09fa 783d a251 17bd 49b2 d1bd
00000250: b0aa 13be d10a a23d 6378 a73d d848 e5bd
00000260: 1023 75bd 330f b2ba c9ba a63c f206 623d
00000270: f055 583d 07e2 bcbb 65fb c8bd 3930 70bb
00000280: 0b77 593c be8a c03d 8309 88bd 9232 4f3c
00000290: 57b9 3a3d c5b6 1fbe 6a71 0ebd 5284 043e
000002a0: 788d f0bc 2cba 373d 2328 f5bb 90a3 a8bb
000002b0: 5c4f b63d 3feb b13b 105b 3dbd 7587 cb3d
000002c0: 24b5 a3bc 11e2 2ebc ff93 f33c 31f2 79bd
000002d0: 797a 9bbd 184c c7bc 3ac6 573e 8ccc 4b3d
000002e0: 3466 cd3d 9dec cdbd a27f 243d 344e 473d
000002f0: 277d 09bd c478 8cbd 2a6f 2c3d c357 b83b
00000300: 416c e8bc e321 ccbc f3bd 0a3e 75cb 16bd
00000310: 13c8 3d3d b404 12be 2382 0cbe fce3 943d
00000320: 6574 7abc 6609 1c3e 9989 ef3c 5b93 ba3d
00000330: 905c 6dbd 6169 b63d c286 c7bd 41f2 2dbd
00000340: 0129 13bb 51f8 64bd b732 183d 8137 81bd
00000350: 8459 473c cb70 5cbc c99d 09be 4ac6 e8bd
00000360: 3987 c3bd 8ce7 5b3d 8eb9 853d 4948 783c
00000370: a404 fc3d 8fbf 96bd 7804 833d ad74 8e3d
00000380: a442 33be 0127 03be 072c afbc e2f3 febc
00000390: 025e 38bd 360f 22bc d1a4 c33d 0ee6 17bb
000003a0: badd c8bd 272f 06bd 43d4 7b3d 1879 483d
000003b0: 7fab 953b ae81 7e3d ed53 b0bc 070a 27bd
000003c0: e44a b33d ebdd 00be 7134 1cbe 3e2d da3c
000003d0: 7df6 b0bd 235e 69bd ed51 103e 60a3 e73d
000003e0: 58dd a1bd 592a 193c c637 96bd 8cb2 18bd
000003f0: a4b3 85bd d78c 0f3c da92 d73c 617b 35bd
-0.026279742 0.037953302 0.019018516 0.017090917 0.021071432 -0.07881626 0.04708457 -0.05492072
0.06628789 0.009442814 -0.0120248 0.06678058 0.1668307 -0.082961425 -0.05842512 -0.13415858
-0.059623633 0.18419595 0.20957042 0.11233348 -0.07968267 -0.0220538 -0.054188345 -0.04732016
-0.017616348 0.039962467 -0.06770659 -0.07213944 0.03155128 0.090554416 -0.020320406 0.017412985
0.020528313 -0.059588004 0.16395016 0.16794519 0.033897202 -0.17649235 -0.06936699 0.025814183
0.050492324 -0.13922632 0.041036204 0.069018856 0.047745552 -0.046342235 -0.0012519077 -0.05225612
-0.013973426 0.099545464 -0.044302523 0.044265218 -0.05136478 -0.0076547205 -0.021517308 0.032355
-0.029725613 -0.025144478 0.04214824 -0.09828981 0.032677192 -0.11675743 0.06918151 0.118510544
0.05560697 0.0128975315 -0.027925516 0.03611425 -0.002229243 0.008782299 -0.0074335043 -0.03435927
0.07485505 -0.12663119 -0.06871746 0.083870135 -0.04393335 -0.06496725 0.017379602 0.10012856
0.049505606 -0.045299843 0.06675885 -0.0012583177 0.05985353 0.108177364 -0.041264914 0.008587608
0.010017197 0.102075025 0.11151243 0.045323506 -0.004215421 -0.12528908 -0.09452094 -0.015223435
0.12785667 -0.006282415 0.019805856 -0.078532584 0.025143461 -0.08246347 -0.032309867 -0.066695556
0.11798456 -0.05553004 -0.04560379 0.08690639 0.06770271 0.048227534 0.1279633 -0.028153233
0.07892041 -0.02372795 -0.08410104 -0.05733261 -0.041007485 -0.008808779 -0.02566399 -0.03725753
-0.14744303 0.10605701 0.16080965 0.085803226 0.115889736 -0.010164225 0.007011744 -0.12535816
-0.029056214 -0.09182829 -0.08916856 0.012726458 -0.049321543 -0.07729012 0.052065525 0.05271794
0.18526167 0.071189195 0.0544412 0.048158716 -0.0941518 0.059932727 0.10915726 -0.0861878
-0.14036821 0.060785327 -0.036943085 -0.10239083 -0.14420581 0.07912219 0.08177259 -0.111955345
-0.05984789 -0.0013584852 0.020352738 0.055182405 0.05281633 -0.0057642492 -0.09813575 -0.0036649837
0.013273011 0.09401463 -0.06642439 0.012646334 0.04558691 -0.15597065 -0.03477613 0.12941101
-0.029364333 0.04485528 -0.0074815913 -0.0051464513 0.08901855 0.005429655 -0.046229422 0.09937946
-0.019983836 -0.010674016 0.029733656 -0.061021987 -0.07591719 -0.024328277 0.21071711 0.049755618
0.10029259 -0.10054896 0.040160783 0.048658565 -0.03356662 -0.06858972 0.0420982 0.0056256964
-0.028371932 -0.024918502 0.13549022 -0.036815125 0.046333384 -0.14259607 -0.13721518 0.07270047
-0.01528654 0.1523796 0.029240416 0.09110137 -0.057949603 0.08906818 -0.097425 -0.04246736
-0.002245486 -0.055900875 0.03715774 -0.06309415 0.012167338 -0.013454626 -0.13439097 -0.11365946
-0.09547276 0.053687617 0.065295324 0.015153953 0.12305573 -0.07360756 0.06397337 0.06955848
-0.1750589 -0.12807848 -0.021383299 -0.031122152 -0.045011528 -0.009891322 0.095529206 -0.0023177895
-0.09807916 -0.03275981 0.061481725 0.04894361 0.004567563 0.06213539 -0.021524394 -0.040781047
0.08754519 -0.12584655 -0.1525438 0.026632901 -0.08640764 -0.05697454 0.14093752 0.11310458
-0.07903546 0.009348475 -0.07334857 -0.03727965 -0.06528404 0.008761606 0.026315141 -0.044307116

local_block.conv_time.conv.0.bias f4 [8]
00000000: 66bb ba3c 3e43 a4bd 7eb7 e13c 8818 433c
00000010: bd2d 9d3c cc17 723d 4e2c c03d 74c9 d63c
0.022794437 -0.08020638 0.027553316 0.011907704 0.019186849 0.059104726 0.093834504 0.026219107

local_block.conv_time.conv.1.weight f4 [8]
00000000: 8545 7b3f ad70 653f 83df 863f 2bd6 723f
00000010: 8fd2 5b3f fe90 6e3f 7e12 683f 154a 743f
0.98152953 0.89625055 1.053696 0.94858044 0.8586816 0.9318999 0.90653217 0.9542554

local_block.conv_time.conv.1.bias f4 [8]
00000000: 42d4 3cbe a618 02bd 1dc9 943d 3d41 b3bc
00000010: 4db8 8ebc 7b8b a63c 7916 423c c6a3 983b
-0.18440345 -0.031761788 0.07264922 -0.021881694 -0.017421866 0.020330181 0.011846178 0.004658195

local_block.conv_time.conv.1.running_mean f4 [8]
00000000: b165 0c3d 94b4 9bbd 1ffa fe3c 9f44 c63c
00000010: e553 45bb c0b4 6b3d e62b ee3d d1f3 653c
0.034276668 -0.07602802 0.031125126 0.024202643 -0.003010982 0.057545424 0.11629467 0.014035181

local_block.conv_time.conv.1.running_var f4 [8]
00000000: 40a3 3441 8428 2c41 43e5 cb41 e44b f840
00000010: 5762 3a41 ee2c 0c41 060e be40 aece 3a41
11.289856 10.7598915 25.486944 7.759264 11.649009 8.760969 5.939212 11.675459

local_block.conv_chan.conv.0.weight f4 [8, 8, 11, 1]
00000000: 0e93 8dbc abe9 673d 8ef7 2fbc aafc 9e3c
00000010: 7e32 73bc a536 fe3b 0ce5 51bc ad02 393d
00000020: eebc 203b 8964 5c3d e3d2 25bd 3000 c33c
00000030: 6e81 033e da49 d43d 3141 04bd 0028 8c3c
00000040: 20f8 bfbc ee99 b8bd 782a 3dbd dd28 523c
00000050: 8c68 a83c 4385 d7bb ec69 7abd c9db a43c
00000060: 277e 413d f002 9d3b 7d63 173c 40ff 85bc
00000070: 6369 18bd 45a9 a2bd ee0a 86bd 24ab 913d
00000080: e8fe b1bd 0493 21bd 84c7 4ebd 9a8a 99bc
00000090: 1924 6d3d e0a7 593c 418a a4bc e5bf 803c
000000a0: 70d1 2c3d b65a c3bd 8ef5 86bd 696a 9f3d
000000b0: 1efe ad3d 4892 e93d eb2e 2dbd 5e02 d1bc
000000c0: 5894 aabc 692b a1bd 4b91 ec3d ac52 483e
000000d0: 921d 17bc 647b 293c a427 753b 8437 393c
000000e0: 4f15 093e afe5 753d 3aeb cd3d e356 943c
000000f0: 1a3d 3bbd e3d4 c33c 483c e2bd 1880 f3bd
00000100: 58c6 d03b 7159 9739 b9a1 4f3c 684d 283d
00000110: 0cde 3dbd 3d3e 423d 5250 70bc 864c ccbc
00000120: 8633 a33c 1226 22bc d3d7 8bbb 02d8 c1bc
00000130: 4694 ab3b 7698 8d3c 35c5 4e3d 1418 e63c
00000140: 8dfd 883b 6cdf 843c a1e6 48bb c551 abbc
00000150: b025 a8bc 22c1 873c 5816 a6ba ca02 c5bc
00000160: 29c4 493c 7258 0b3d 1618 883d 2b4b abbd
00000170: 8969 3a3d 1025 7fbc f32c 1c3c 5f3b e03d
00000180: ced6 76bc d089 703d 48e0 19bd b931 9abd
00000190: 02e8 ba3c 7023 b93c 57a3 333d c2fa a23c
000001a0: b4ef 153d 2bc3 1f3d 3e1d 01bd 338c 4abd
000001b0: d8ba 953d a8de 70bd 007f 85bd bd45 0b3e
000001c0: a9fd 7ebd 69b7 05be bb11 bd3b 0d51 80bd
000001d0: 042d b93d 607d 4c3e 7837 ea3c f143 8abd
000001e0: 7a6d d5bd 1167 113d 2443 60bd fd3f 1d3d
000001f0: 526a c6bc ed6a 983c 9b87 4b3d ee0a debd
00000200: 101f 32bd 3e31 2fbc a7dd 19bd 4361 063e
00000210: 4c08 f3bb 45d6 003d f1bf 763d 9fff 9d3c
00000220: 342a 18bb 6781 023d dcd7 4fbd 214d 0bbe
00000230: 97bc dc3a d53a 03bd c9d1 2d3c c056 a93d
00000240: baa3 babd 2e76 20bc 2d36 363d a9cd 92bb
00000250: fd12 b43c e8d7 8abc 9898 8fbd 4bf2 e2bc
00000260: 2419 903d e8f6 8dbd dd36 87bc aa7a 1fbd
00000270: 308d 8cbd 967a c8bc b2ff d7bc 0564 78bc
00000280: 7b6f a03d 9002 323e e05d 1a3d afd2 033b
00000290: 905f 3bbd c867 edbc fc6b 813d 52f7 00bd
000002a0: ecc6 d6bd 430c 803c 661a 163b 6c38 87bc
000002b0: 0494 083e ffc5 983b 71b6 12bd 5a2c a0bd
000002c0: fc56 123c aa18 88bd c79c b8bd 2fdc c73d
000002d0: f362 a43d ec6a 28bd 9ed3 b2bd 913d 883d
000002e0: 3a46 ee3b d173 ed3b 9253 f6bc cb84 cdbd
000002f0: 2c89 07be fb3a c2bd 42d7 d43d 3d81 e03d
00000300: 6468 f33b 7542 193d e65b 9e3d 1d0c f33c
00000310: b60f 023a 678f bf3d ba18 92bd f9a4 24be
00000320: 5c4f 7c3d 4f11 ee3c 84d9 003c e712 f2bc
00000330: 9be8 2c3c 8159 94bd 853e 713d a781 12bd
00000340: 5659 f5bc 10e8 1a3d 7875 8bbc f2c0 24bd
00000350: 4faf 303d 2225 a73d e7be 3fbb ee32 a2bc
00000360: 2efb 4ebd cc97 4abd 686f 993d 3145 dfbc
00000370: b45b 79bd 0ab6 40ba 9d2c f5bb 2ad8 f43a
00000380: 9750 b53b dd65 d83d 1011 80bc 0bfe 48bc
00000390: 1049 61bd 04d8 d6bb 5b71 d4bb 286f 19bd
000003a0: 8e24 0cbe d0d4 8fbd 4617 4a3d 4ffc 013d
000003b0: c547 f33c 7b4d 553d 219b c3bd c56e 8b3d
000003c0: fca1 903c 700f 823d 894d 78bb 53d5 1aba
000003d0: 37d1 e6bd 648f 01be c48a dbbc 7fc7 a43d
000003e0: 1353 8cbd 5a34 c83d 539a 2cbd d9d9 5a3d
000003f0: 7438 34bc f650 f1bc e238 e43d 57ca aebd
-0.017282035 0.056619328 -0.010740174 0.019407589 -0.014843581 0.007757979 -0.012810957 0.045168567
0.0024526673 0.053806815 -0.04048432 0.0238038 0.12842342 0.103656486 -0.032288734 0.017108917
-0.023433745 -0.09013735 -0.04618308 0.012827125 0.020557664 -0.0065771653 -0.06113617 0.020124333
0.04723945 0.00479161 0.009240028 -0.016357064 -0.03720988 -0.07942442 -0.065450534 0.071127206
-0.08691198 -0.039446846 -0.05048324 -0.018742848 0.057895754 0.013284653 -0.020085456 0.015716502
0.042191923 -0.09538786 -0.065898046 0.07783968 0.08495735 0.11404854 -0.042281073 -0.025513824
-0.020822689 -0.07869608 0.1155115 0.19562787 -0.009223359 0.01034436 0.003740766 0.01130474
0.13387035 0.060033496 0.100546315 0.018107837 -0.045712568 0.023905223 -0.11046654 -0.11889666
0.0063713007 0.00028867603 0.012672835 0.041089445 -0.04635434 0.047422636 -0.014667587 -0.024938833
0.01992203 -0.009896772 -0.0042676716 -0.02366257 0.0052361814 0.017284613 0.05048104 0.028087653
0.0041806162 0.016219817 -0.0030655044 -0.020913014 -0.020525783 0.016571585 -0.0012671454 -0.024049181
0.012314835 0.034019895 0.06645219 -0.083639465 0.045510802 -0.015572801 0.009532201 0.10948824
-0.015065862 0.05872518 -0.037567407 -0.07529015 0.022815708 0.022599906 0.043856945 0.019894961
0.03660555 0.039004486 -0.03152203 -0.04945011 0.07311028 -0.05880609 -0.06518364 0.13600822
-0.062253628 -0.13058247 0.005769936 -0.06265459 0.09041789 0.19969702 0.028590903 -0.0675124
-0.104212716 0.035498682 -0.05475153 0.038391102 -0.02422062 0.018605674 0.04968987 -0.108419284
-0.043486655 -0.010692893 -0.0375649 0.1312304 -0.0074167605 0.031454343 0.060241643 0.019286929
-0.0023218514 0.03186169 -0.05074297 -0.13603641 0.0016840872 -0.03203853 0.010609099 0.082684994
-0.091132596 -0.009793801 0.04448526 -0.004480083 0.02198171 -0.016948655 -0.07011527 -0.027703425
0.07036045 -0.06931859 -0.016505653 -0.03893534 -0.06862867 -0.024472516 -0.026367042 -0.015160565
0.07833763 0.1738379 0.037687182 0.002011459 -0.045745432 -0.02898015 0.063194245 -0.031485863
-0.1048716 0.015630847 0.0022903918 -0.016506396 0.13337713 0.004662275 -0.03581852 -0.078209594
0.0089318715 -0.06645329 -0.09014278 0.097587936 0.080266856 -0.041117594 -0.08731769 0.06652368
0.0072715553 0.0072464724 -0.030069146 -0.10035094 -0.1323592 -0.09483906 0.1039262 0.1096215
0.007428216 0.037416894 0.07732372 0.029668862 0.00049614476 0.09353524 -0.071336225 -0.16078557
0.06159912 0.029060988 0.00786436 -0.029550029 0.010553504 -0.07243634 0.058897514 -0.035768177
-0.029949825 0.03781897 -0.017023787 -0.04022307 0.043135937 0.081613794 -0.0029258074 -0.019799676
-0.050532512 -0.04946117 0.07491952 -0.027254673 -0.06087847 -0.00073513447 -0.007482125 0.0018680145
0.0055332887 0.10566304 -0.015633136 -0.0122676 -0.05500132 -0.006556513 -0.0064832396 -0.037459522
-0.1368582 -0.07023013 0.0493386 0.03173476 0.029697308 0.052075844 -0.09551073 0.06808237
0.017655365 0.06350601 -0.0037888011 -0.00059064216 -0.11270373 -0.12652355 -0.026799567 0.08045863
-0.06851783 0.0977561 -0.042139363 0.053430412 -0.010999788 -0.02945755 0.11143662 -0.08534687

local_block.conv_chan.conv.0.bias f4 [8]
00000000: a284 11b6 0ef4 ddbc 0ad2 ba3c 809b 163d
00000010: 2532 2e3d 81ad 8a39 4bd2 4f3d 6b25 c8ba
-2.1683886e-06 -0.027093913 0.022805233 0.03676939 0.04252829 0.00026450682 0.05073766 -0.001526994

local_block.conv_chan.conv.1.weight f4 [8]
00000000: 75fa 6f3f 5994 873f 2248 8a3f 1a11 5b3f
00000010: 4967 7c3f 8d1b 933f 6921 773f 5ac1 833f
0.9374154 1.0592147 1.0803263 0.8557297 0.985951 1.1492783 0.96535355 1.0293381

local_block.conv_chan.conv.1.bias f4 [8]
00000000: b2bc abbd 084b b5bd 4146 91bd 1dfc 20be
00000010: 4a07 7ebd d178 013b 473f a4bd 8ed6 dfbd
-0.083856 -0.08852202 -0.07093478 -0.15721174 -0.06201867 0.001975585 -0.08019882 -0.10929595

local_block.conv_chan.conv.1.running_mean f4 [8]
00000000: b5bd e63b 70a6 11bd 2712 87bd 812d 973d
00000010: 43e9 81bc 7534 1f3c 4a73 043d c931 29bd
0.007041658 -0.035559118 -0.06595259 0.07381726 -0.015858298 0.009717097 0.03233651 -0.041307244

local_block.conv_chan.conv.1.running_var f4 [8]
00000000: 7980 e83d 2635 ad3d 403f d03d 6195 153e
00000010: 9d41 b83d 00b7 ae3d 3f1b a43d e0ec cf3d
0.11352629 0.08457403 0.10168314 0.14607765 0.0899689 0.08530998 0.08013009 0.10152602

atten.conv.weight f4 [1, 1, 3]
00000000: 8cd2 8ebf 412a 01bf 6aa8 0d3e
-1.1158004 -0.504551 0.13833776

tcn.network.0.conv1.weight f4 [16, 16, 16]
00000000: 97ed e7bc 490f e9bb b97e 09bc 13aa 08bc
00000010: 4cee 0dbd e3c4 5a3c af3b 46bc a7d2 8fbc
00000020: 6e6d d0bc 91c7 d4bc 4af2 08bd 4958 1fbd
00000030: 1ffa bb3c b030 483c 847a b63c da5a 2cbc
00000040: 40e8 923d 3b83 b53b 9d6d 133d d4cf c9bc
00000050: c664 3dbc 3551 afbb b59d 52ba 73af 0dbc
00000060: 3fac cebc 9f14 7bbd 5281 71bd 2402 a4bd
00000070: d271 23bc 7727 57bd 192e dbbc 8097 2cbd
00000080: 62e9 c3bc 0ba8 53bc 6460 823c fff3 0c3d
00000090: 9d2c 3d3c 8017 413d 476e 8dbc 7895 a0bc
000000a0: c555 b03c 53c3 e5bc bcab 19bd 46e9 bd3a
000000b0: e535 52bc 88f6 853c 0a00 cbbc bcb2 88bb
000000c0: 9f9c 803d 6164 643c 32e3 e93c 069b 403d
000000d0: 7d46 493d 0f3e 2c3d 04b6 25bc 5d92 c43c
000000e0: 4ddf 0b3c 0a74 d9bc 54da 05bd 3553 d63b
000000f0: 7563 c43c 2897 7a3c cbd5 663d b7db 223d
00000100: 665b 273d cb48 6f3c 20a1 6dbc 09d7 6dbc
00000110: c6c0 a7bc 7bf6 4b3d e3c4 b23a 68fe c93c
00000120: c58a d83c 9591 a4bc 5be8 7f3c c9f0 a83c
00000130: 58a7 83bc fb2f f2bb e44c 453b 8dd2 2c3c
00000140: f704 0a3d c275 60bc 53af 0abd c678 66bc
00000150: 3163 dabc 911f bcbb 32f5 1fbd 4818 05bc
00000160: 9f7d 6a3b 41ce e0bb 7489 ca3b e877 843c
00000170: 3e59 4cbd 10c4 213c 0a86 fdbc 4361 18bd
00000180: 8af3 433c bfac 193d 4d59 bdbc 9bb7 05bd
00000190: 4385 1f3d aa64 f0ba 566b 89bc cd4b 04bd
000001a0: 50ac 16bc 1144 04bd 7e26 d4bc 574b 903c
000001b0: f4ca febb 59ec 1b3c 9a2e 9a3c e789 b63b
000001c0: 8902 173c 47d9 47bd f432 51bc fb2c 28bd
000001d0: d81e 49bc 8053 67bc a38e 55bd 7f37 dcbc
000001e0: efe8 65bb de51 683c 1a24 8d3c 97ca 25bb
000001f0: 7509 f13b 08ea acbc a08a 6ebd a8e4 b7bc
00000200: 71ad 12bd 2362 f6bc 93b8 143c 7a2f 1fbc
00000210: e05b a1bc 96d1 c2bb 2e3b 4b3d 75fc 793c
00000220: ae02 473d 2d51 cb3c b609 a53c d3ee 6d3b
00000230: 8f5f 3abd 1d5f 5dbc e9b2 923c fcab 91bc
00000240: 9df1 833b 0588 733b 07ce 003d 3f6f 74bc
00000250: b557 c7bc 6fac 26bd 02fc debc 25c2 1bbd
00000260: 33d4 47bd fe24 1abd fdf8 e93b 4137 ad3c
00000270: 0d71 113d 19e8 583d be52 5e3d dfcd e63d
00000280: 09e4 b6bb c21a 29bc ac62 563a 26f4 7d3b
00000290: c3ff 663b c38d 0dbd 550e cabc 922d 753c
000002a0: 1555 0dbd e8fb 163d 1e96 1dbd f95f 3dbc
000002b0: bec8 6bbc 47fd c3bc ee7c 8fbc 78d0 cabc
000002c0: ac40 94bc 9747 b3bc 43d5 77bd 3d73 71bc
000002d0: d288 36bd 5557 23bc ebf7 3fbc 53d4 203c
000002e0: b2d5 9bbc 1154 013d 7ffe 3b3c bf71 8c3c
000002f0: 10c0 3c3b fc3e bf3b 35ba 073c 9ddf 6b3c
00000300: f561 44bb 5bec 11bc 5294 c13b 704e d73c
00000310: 6c48 923b 4893 89bc fd8e c9bc 4a01 f3bc
00000320: aa60 02bd 0720 c3bc ad44 943d 620e e43c
00000330: e2c9 ad3c eba1 fe3b e3c3 ec3c 940c 9ebc
00000340: 3adb 8c3c b022 3ebb b983 83bb 8245 c0bb
00000350: b6ee 053c a9ed c7bc abb6 5cbd b4fb d4bc
00000360: 4f56 f3bc 9e7f 63bd aad0 17bd 56df 943c
00000370: 57d6 f83c 00e8 053d 8a5e eebc 7e5f 18bc
00000380: 7850 51bd 05c8 e8bb f743 983c 8cdc 083d
00000390: af3f 623d 0f2f 383c f0d3 523d 1e40 4b3c
000003a0: 5ee1 823d 4112 b13c b449 aabb 2e1d e6bc
000003b0: d406 1bbd 7e21 35bd 52aa 3abd 32ad d3bc
000003c0: af7d 0cbd 73fb 05bb aee6 33bd 623f c93b
000003d0: c60a c63b e910 38bc 74ee 143d 1caa d33c
000003e0: e5f1 3b3c 2fdd 2b3c ff91 543d b131 653d
000003f0: 2b2c 2a3d 8900 173d 7490 d3bc e419 c93b
-0.028311534 -0.007112418 -0.008392029 -0.00834133 -0.034651086 0.0133526055 -0.012099191 -0.017556502
-0.025442805 -0.025974067 -0.03343419 -0.038902555 0.022946415 0.012218639 0.022275217 -0.010519708
0.071732044 0.0055393255 0.035993207 -0.024635233 -0.011559671 -0.005350257 -0.00080343644 -0.008647787
-0.025228618 -0.061298963 -0.05896122 -0.08008221 -0.009975867 -0.05252787 -0.02675538 -0.04213667
-0.023914997 -0.012918483 0.015915103 0.03441238 0.011546281 0.047141552 -0.017264498 -0.019602522
0.021525273 -0.02804724 -0.037517294 0.0014489077 -0.012830232 0.016352907 -0.024780292 -0.0041716974
0.06279873 0.013939948 0.028550718 0.047022842 0.04913949 0.04205137 -0.010114197 0.023995573
0.008537126 -0.02654459 -0.032678917 0.006540681 0.023973206 0.0152948275 0.056356233 0.039760318
0.04085865 0.014604758 -0.014503747 -0.0145166 -0.020477664 0.04979561 0.0013638999 0.024657443
0.026433358 -0.02008895 0.015619363 0.020622628 -0.016071007 -0.0073909736 0.0030105645 0.010548246
0.03369614 -0.013699951 -0.03385861 -0.014066881 -0.026658626 -0.0057410677 -0.039052196 -0.008123465
0.0035780442 -0.006860525 0.0061809365 0.016170457 -0.049889795 0.009873405 -0.030947704 -0.03720213
0.01195992 0.03751826 -0.023113871 -0.032645803 0.038945448 -0.0018340547 -0.016774815 -0.03229885
-0.009196356 -0.032291476 -0.02589726 0.01761405 -0.0077756587 0.009516799 0.01882105 0.0055706385
0.009216913 -0.048791196 -0.012768496 -0.04105852 -0.01227542 -0.014119029 -0.052137982 -0.026881931
-0.0035081466 0.014179675 0.017229129 -0.0025297755 0.0073558637 -0.021107689 -0.05823767 -0.022447899
-0.035809938 -0.030076092 0.009077209 -0.009715909 -0.01969713 -0.0059453947 0.049616985 0.015257944
0.04858654 0.024818981 0.020146232 0.003630568 -0.045501288 -0.013511446 0.017907577 -0.017782204
0.0040266053 0.0037159931 0.031446483 -0.014919101 -0.024333814 -0.04069179 -0.027219776 -0.038026948
-0.048786353 -0.037632935 0.0071402774 0.021144511 0.035508204 0.05295572 0.054278128 0.112697355
-0.005581383 -0.010321321 0.00081781554 0.003875026 0.003524766 -0.034559023 -0.024665037 0.014964478
-0.03450497 0.03686133 -0.03847324 -0.011558526 -0.014391122 -0.023924483 -0.017515626 -0.024757609
-0.018097244 -0.021884723 -0.060506117 -0.014736948 -0.044564076 -0.009969552 -0.011716823 0.009816247
-0.019022796 0.031574313 0.011474251 0.017144082 0.0028801002 0.0058363657 0.008284141 0.014396575
-0.0029965614 -0.008906449 0.0059075737 0.02628252 0.0044641998 -0.016793862 -0.024604315 -0.0296637
-0.031830467 -0.023818983 0.07239661 0.02783889 0.02121443 0.007770767 0.028902 -0.019293107
0.01719438 -0.0029012375 -0.0040135053 -0.005867661 0.008174589 -0.024405317 -0.053885143 -0.025998928
-0.029704241 -0.055541627 -0.037064232 0.018172901 0.030375643 0.032691956 -0.029097814 -0.009300111
-0.05110213 -0.0071039223 0.018587096 0.033413455 0.055236515 0.011241688 0.05147165 0.012405423
0.06390642 0.02161515 -0.0051967744 -0.028090086 -0.03784831 -0.044221394 -0.045572586 -0.025839422
-0.03429955 -0.0020444065 -0.043921165 0.006141589 0.0060437648 -0.0112345 0.03636022 0.02583795
0.011471246 0.010489746 0.051897045 0.055955593 0.041546028 0.036865745 -0.025825717 0.0061371196

tcn.network.0.conv1.bias f4 [16]
00000000: 4644 16b4 b9f6 21b7 474d 083b d2a9 bdb3
00000010: 598e 0abb e143 cd34 9eb9 a437 e7c4 2933
00000020: 7e36 d734 b42b dc32 a6ab ca32 82a4 7ab2
00000030: a058 fe3b 0335 cab2 aa31 073c 9cf2 24bc
-1.3994676e-07 -9.653792e-06 0.0020798014 -8.8318885e-08 -0.0021141975 3.8233614e-07 1.9636758e-05 3.952746e-08
4.008652e-07 2.5631245e-08 2.3593952e-08 -1.458932e-08 0.0077620298 -2.3540002e-08 0.008251587 -0.010067608

tcn.network.0.bn1.weight f4 [16]
00000000: 487a 833f 1904 853f 535d 7d3f 073a 873f
00000010: 28cd 8c3f 1d73 8a3f 9529 7a3f 5098 843f
00000020: b28e 7e3f 48d4 823f ecac 833f d819 793f
00000030: 73b9 7a3f 6ffc 7f3f 7e14 823f 8604 7e3f
1.0271692 1.0391876 0.98970526 1.0564584 1.1000109 1.081638 0.977197 1.0358982
0.99436486 1.0221033 1.0287147 0.9730506 0.97939223 0.9999456 1.0162504 0.9922565

tcn.network.0.bn1.bias f4 [16]
00000000: a57e 1ebe 9f6b 60be 7a9a 98be 21d8 3bbe
00000010: f1ba 36be 69dc 86be 8c92 3dbe 62a1 13be
00000020: 9125 32be e7a5 83be a67f 58be 1cff 34be
00000030: 0b54 61be a8f0 54be 305e 2ebe 6324 61be
-0.15477999 -0.21916054 -0.29805356 -0.18344165 -0.1784475 -0.26340035 -0.18512934 -0.14417031
-0.17397143 -0.2571251 -0.21142444 -0.17675442 -0.22004716 -0.20794928 -0.17028117 -0.21986537

tcn.network.0.bn1.running_mean f4 [16]
00000000: d154 34bd 6b21 5abd d959 a3bd 3f6e 22bc
00000010: 625e aebb c880 d2bc 7666 b2bc 8a64 ccba
00000020: 8ba3 4bbd 224f 75bc f825 c8bc 5aa8 4bbd
00000030: d25b 3fbd f4ed 16bd ae0c 22bd 85f6 dcbc
-0.0440262 -0.053254526 -0.079761215 -0.00991398 -0.00532131 -0.025696173 -0.021777373 -0.0015593928
-0.049716514 -0.01497248 -0.024432167 -0.0497211 -0.046718426 -0.036848024 -0.039562874 -0.026973018

tcn.network.0.bn1.running_var f4 [16]
00000000: 4222 ae3e f9be c53e 2a02 7c3e 9ba7 b43e
00000010: 9b3a b03e 4c39 a43e 94ad 723e 7337 9c3e
00000020: be90 933e 4586 913e 654c 953e ffac a03e
00000030: e4fb b03e 7bce a63e 17f3 913e 0f14 783e
0.34010512 0.38622263 0.246102 0.35284123 0.34419712 0.32074964 0.23699027 0.30511054
0.28821367 0.28422752 0.29159847 0.31381986 0.34567177 0.32579407 0.28505775 0.24226402

tcn.network.0.conv2.weight f4 [16, 16, 16]
00000000: e434 22bc cc55 7ebc dfd0 4f3c 93be 24bc
00000010: 9b6f ae3c 9d0b c2bb 3b2a 65bc 1aa1 fdbc
00000020: d505 cfbc f77f b4bc 89f5 2b3a ab4c 12bd
00000030: a920 083b b4ea cd3c 8c63 803b 7c5a 4fbc
00000040: 6309 933c d498 d43c eb9b f33b 681b 883c
00000050: e18e ce3c ba44 8c3c 606a 1abc 8118 9c3c
00000060: 858f 423c 943e ccbc 8cf5 77bc cda5 3ebd
00000070: 329c fabc 3e2c 94bb 04b9 5fbc 80c8 f43c
00000080: 642e e83b fc4f 2f3c 8a6a 583a e828 843c
00000090: e38b 72bc f600 173c 70f6 afbb 3763 65bc
000000a0: b858 04bb 608d 1fbc f297 683b 4467 463c
000000b0: 6840 ce3b afda 093d ff9e 0f3d 1af3 d63c
000000c0: 29a7 043d 0fbc 973c 471e 35bc dccc 06bd
000000d0: e83a 89bc ce33 67bc 1721 e8bc c3a9 10bd
000000e0: 4752 1abd e2fb 5bbc 9b2a 9d3c 2def b73b
000000f0: 3648 e73a 56cb 0c3d 2f52 003d e899 43bb
00000100: e018 cdbb 92a8 88bd 7c87 76bd b7f0 96bc
00000110: 1ce0 4abd 81ce 6abd 35a5 1cbd 8438 463b
00000120: 6e4c 01bd 4ef9 ffbc 6ec3 febc 703a ac3b
00000130: bcba c6bb c0af 81bd bb11 fcbc 61db d0bc
00000140: 6deb cfb8 7a71 ad3b 75d7 233d 1379 0f3d
00000150: 47dd 8c3c 9fe9 e23c 6dd8 a73c 153b 053b
00000160: b88d ae3c dcf5 d7bc a99f 8aba ad1d 58bd
00000170: 3bef 03bd 3409 fe3b 1ba3 96bc 8fdf 00bb
00000180: 166c 8d3a 6d3d d53b ed34 2d3a 64db a5bc
00000190: 1279 9fbc 3655 cdbb 5bdb a13a 1ebf ba3c
000001a0: de7f c7bb 6636 1d3d 7a88 213d 3eea dc3c
000001b0: 0a53 733b 479b 243d 12d6 963c fe92 283d
000001c0: 3998 4c3c 4eb6 5b3d 7d06 1c3d 8642 babb
000001d0: 89ca 013d cdb5 18bc 55f6 94bc 15d2 39bd
000001e0: 7ff3 b0bc 42ae 83bd f03b 6cbc a6f6 bdbc
000001f0: 9d1c 123c 25ab 523c b98e 86bc 5ac6 1ebd
00000200: 3685 9cbc 5200 46bb c272 f0bc c5a3 a53c
00000210: 3d35 c3ba e4de 103c 1003 7cbb dbcc 1ebd
00000220: 07dc b3ba 71eb 04bb d1af 19bd fe11 bebc
00000230: 02f5 1a3c 9d5a 0dbd 3582 52bd 315c 22bd
00000240: 45bd 613d 898b 4e3d 37e7 b13b 2eed e73c
00000250: 6700 3e3c b5be a13b 7b04 0fbb abea 3ebb
00000260: e657 fa3c b6eb 393c c1b5 0b3c 854b 9ebb
00000270: c733 ef3b 4072 183c 09a0 7a3c a7b3 9bbc
00000280: c9c0 fabb 3127 d4bc 0495 82bd 5465 6cbc
00000290: e5b1 08bd 3f20 94bc cf9d b3bc bb8e b6bc
000002a0: c709 4abc 28f8 e5bc d74d 10bc 06ca 36bd
000002b0: 9f9c a6bb 9d93 d43c 2235 943c 657b 2e3c
000002c0: b3eb dc3b 6bc3 af3b e73f febc 6b3c 89bc
000002d0: c9dc a2bb aff6 85bc a454 95bc 03bb 2e3d
000002e0: db60 763c a28a 713c 1a8c 1a3d 4c14 ae3c
000002f0: 76bc c63c 3d50 fa3c 96d3 053d 2004 7e3c
00000300: 9829 c53c e799 033d 258a 2d3d 63cf ef3c
00000310: b54b 83bc 7d36 1abd b46c 70bd e99f 99bc
00000320: dce2 14bd cb38 0dbb 9edc e13c 2669 1d3d
00000330: 829f 183d 5859 153d 5b07 dd3c 2880 713c
00000340: 99a7 2c3d 66c6 853b f62b 613c 123f 33bb
00000350: 982f 83bc f4e7 1cbd 42e3 eebb 4ed4 dfbc
00000360: 68f0 04bc 105b 073c cea1 3a3c 1869 af3b
00000370: 8d71 0c3c b676 47bb e44e c5bb 2d6d 3abc
00000380: 881e 9cbc 6e8b cebc 59da 5f3b 8e00 a1bc
00000390: 3799 933c cfd0 b43c 2f2b 47bc 5b9a 463c
000003a0: 0ea8 5ebc 9fb7 0ebb 95a5 0b3d 2030 9bbc
000003b0: bd9c a2bc c355 d5bc c567 19bc ce66 2abd
000003c0: 8645 e7bb 86a3 0b3a 3a91 ca3b e1b0 a6bc
000003d0: 69a7 b4bb 390f d3bc 1e62 0cbd 2514 a4bc
000003e0: 1cd7 30bc d30d 273d 20c4 fc3c cec6 4f3d
000003f0: fdf7 aa3b 6644 0b3d a177 633d 924a 573d
-0.009900305 -0.015523385 0.012684076 -0.010055202 0.021293452 -0.0059217946 -0.013987119 -0.030960608
-0.025271336 -0.022033675 0.000655972 -0.035717648 0.002077142 0.02513633 0.003918117 -0.0126558505
0.017948812 0.02595178 0.0074343584 0.01661463 0.025214614 0.017122615 -0.009424776 0.019054653
0.011875038 -0.024932183 -0.0151342265 -0.04654484 -0.030592058 -0.0045218756 -0.013654951 0.029880762
0.0070856083 0.010700222 0.00082556217 0.016132787 -0.014803859 0.009216538 -0.005369954 -0.014000705
-0.0020194482 -0.009738296 0.0035490957 0.012109581 0.006294299 0.03365582 0.03506374 0.026238967
0.03238598 0.01852229 -0.011054582 -0.032910213 -0.016751722 -0.014111472 -0.028336091 -0.035318147
-0.037676122 -0.013426753 0.019185355 0.005613229 0.0017645422 0.034373604 0.031328376 -0.0029846374
-0.006259069 -0.06672777 -0.0601878 -0.018425329 -0.049530134 -0.057325844 -0.03824349 0.0030246088
-0.03156703 -0.031246807 -0.031099048 0.0052559897 -0.006064741 -0.0633235 -0.030770173 -0.025495233
-9.914381e-05 0.0052930685 0.040000398 0.035027575 0.017195357 0.02769929 0.020488942 0.0020329405
0.021307811 -0.026362352 -0.0010576147 -0.052762676 -0.03221057 0.007752562 -0.018388322 -0.0019664501
0.0010789658 0.0065075667 0.0006607313 -0.020246215 -0.01946691 -0.0062662615 0.0012348698 0.02279621
-0.006088241 0.038381957 0.039436795 0.026967164 0.0037128353 0.040187147 0.018412624 0.041155808
0.012487465 0.053640656 0.038092125 -0.0056841997 0.031687293 -0.009320688 -0.018183867 -0.045366365
-0.021600483 -0.064297214 -0.014418587 -0.0231889 0.008917955 0.012858187 -0.016425477 -0.03876338
-0.019106489 -0.0030212593 -0.029351596 0.020219693 -0.0014893186 0.008842204 -0.0038453974 -0.038769584
-0.001372219 -0.0020281936 -0.037521187 -0.023201939 0.0094578285 -0.034510244 -0.051393706 -0.0396387
0.055112142 0.05042604 0.0054291743 0.028311338 0.011596776 0.004936064 -0.002182274 -0.0029131572
0.030559491 0.011347702 0.00852722 -0.00483078 0.0072998735 0.009304583 0.015296944 -0.019006563
-0.0076523763 -0.025897594 -0.06376079 -0.014428455 -0.03337278 -0.018081782 -0.021925835 -0.022284856
-0.012331433 -0.028072432 -0.008807621 -0.04462626 -0.0050845887 0.025949294 0.018091742 0.010649537
0.0067419647 0.005363872 -0.03103633 -0.016752442 -0.0049701673 -0.01635298 -0.018228836 0.042658817
0.015037741 0.014742525 0.037731268 0.021249913 0.024259787 0.030555839 0.032672487 0.015503913
0.024067685 0.032129195 0.042368073 0.029273694 -0.01602731 -0.03764962 -0.058697417 -0.018753009
-0.036349162 -0.0021548744 0.027571019 0.038430355 0.037261494 0.036462158 0.026981046 0.0147400275
0.04215202 0.004082489 0.013743391 -0.0027350825 -0.016013905 -0.038307145 -0.007290275 -0.027322914
-0.008113958 0.008261457 0.011391116 0.0053531043 0.0085719945 -0.0030435747 -0.0060213674 -0.011378569
-0.019057527 -0.02521297 0.0034157245 -0.019653585 0.018017394 0.022072224 -0.012156292 0.012121762
-0.013589872 -0.0021776927 0.03409346 -0.018943846 -0.01985013 -0.026041871 -0.0093631195 -0.04160195
-0.0070578484 0.0005326796 0.006181863 -0.020348014 -0.005513121 -0.025764095 -0.03427326 -0.020029137
-0.010793474 0.04078467 0.030855238 0.050726704 0.005217551 0.034000777 0.05553401 0.05256135

tcn.network.0.conv2.bias f4 [16]
00000000: fede 903b 53fc 39b9 da08 8f35 986a a633
00000010: 8520 493a 7bbb a33c e8ff 9239 562f 29b2
00000020: 1773 a1ba 0f4a ff34 754b 163b f476 b4b4
00000030: 65cc 05bb 4208 1a31 70d1 d236 f131 4ab1
0.004421114 -0.00017736973 1.0656906e-06 7.749367e-08 0.00076723873 0.019986859 0.00028037955 -9.847858e-09
-0.0012317625 4.7551336e-07 0.002293316 -3.3614162e-07 -0.0020416018 2.2414643e-09 6.2828694e-06 -2.9423257e-09

tcn.network.0.bn2.weight f4 [16]
00000000: 0000 803f 0000 803f 0000 803f 0000 803f
00000010: 0000 803f 0000 803f 0000 803f 0000 803f
00000020: 0000 803f 0000 803f 0000 803f 0000 803f
00000030: 0000 803f 0000 803f 0000 803f 0000 803f
1.0 1.0 1.0 1.0 1.0 1.0 1.0 1.0
1.0 1.0 1.0 1.0 1.0 1.0 1.0 1.0

tcn.network.0.bn2.bias f4 [16]
00000000: 0000 0000 0000 0000 0000 0000 0000 0000
00000010: 0000 0000 0000 0000 0000 0000 0000 0000
00000020: 0000 0000 0000 0000 0000 0000 0000 0000
00000030: 0000 0000 0000 0000 0000 0000 0000 0000
0.0 0.0 0.0 0.0 0.0 0.0 0.0 0.0
0.0 0.0 0.0 0.0 0.0 0.0 0.0 0.0

tcn.network.0.bn2.running_mean f4 [16]
00000000: 0000 0000 0000 0000 0000 0000 0000 0000
00000010: 0000 0000 0000 0000 0000 0000 0000 0000
00000020: 0000 0000 0000 0000 0000 0000 0000 0000
00000030: 0000 0000 0000 0000 0000 0000 0000 0000
0.0 0.0 0.0 0.0 0.0 0.0 0.0 0.0
0.0 0.0 0.0 0.0 0.0 0.0 0.0 0.0

tcn.network.0.bn2.running_var f4 [16]
00000000: 0000 803f 0000 803f 0000 803f 0000 803f
00000010: 0000 803f 0000 803f 0000 803f 0000 803f
00000020: 0000 803f 0000 803f 0000 803f 0000 803f
00000030: 0000 803f 0000 803f 0000 803f 0000 803f
1.0 1.0 1.0 1.0 1.0 1.0 1.0 1.0
1.0 1.0 1.0 1.0 1.0 1.0 1.0 1.0
