model/Benchmark/DATCN_1.2s_S9.pth (torch, 197748 bytes, 75 tensors)

global_block.conv_time.conv.0.weight f4 [8, 1, 1, 125]
0	0xbc96384f	-0.018337397
1	0x3c197ebf	0.0093685975
2	0x3b1ab8c0	0.0023608655
3	0x3c27d82b	0.01024441
4	0xbc8eb3f6	-0.017419796
5	0x3c85b5dc	0.016322069
6	0xbd04d5ba	-0.032430388
7	0xbb89bda2	-0.004203514
8	0x3c54f367	0.012997485
9	0xbc19684d	-0.009363246
10	0x3c5a81e0	0.013336629
11	0xbc1aba63	-0.009443852
12	0x3a15d3b5	0.0005715446
13	0x3b1a485c	0.0023541665
14	0xbd11d5fe	-0.03560447
15	0x3bbbe400	0.005733967
16	0xbc0906ae	-0.008363409
17	0x3c050eb0	0.008121178
18	0xbd093e8e	-0.033506922
19	0x3c8b9c28	0.017042235
20	0x3ccc2d7a	0.024924029
21	0xb9d0163c	-0.00039689417
22	0xbc84f0e0	-0.01622814
23	0x3bcda5c3	0.006275864
24	0x3ca6afce	0.020347502
25	0x3b0ca697	0.00214616
26	0x39533521	0.0002014232
27	0x3c85a8b5	0.016315797
28	0x3cff529b	0.031167319
29	0xbcb0f925	-0.021603176
30	0x3c4640e4	0.012100432
31	0xbbb8f89e	-0.005644872
32	0x3d03fe1c	0.03222476
33	0xbc7c2d35	-0.015391638
34	0xbca65ed3	-0.020308888
35	0xbc7ba6fa	-0.0153596345
36	0x3c564653	0.01307829
37	0xbb629825	-0.0034575548
38	0x3d37a5e7	0.04483595
39	0xbc542e5c	-0.012950506
40	0x3c82350e	0.01589444
41	0xbcaf0def	-0.021368949
42	0x3c5842f8	0.01319956
43	0x3c88cee6	0.01670022
44	0xbc51e294	-0.012810368
45	0x3cf1dd12	0.02952436
46	0x3c333d75	0.0109399455
47	0xbd072f69	-0.0330042
48	0x3c9186af	0.017764417
49	0x3c9f3518	0.019434497
50	0x3ca63b9c	0.020292096
51	0x3cae0e13	0.021246945
52	0xbbba31f3	-0.005682224
53	0x3b6062f4	0.0034238668
54	0x3ca4dcf2	0.020124886
55	0xbc8c5416	-0.017129939
56	0xbd090537	-0.03345224
57	0xbc9f1e8c	-0.019423746
58	0xbbb5dda1	-0.005550102
59	0xbacc63a8	-0.0015593665
60	0x3b6c1349	0.0036022237
61	0x3cde9dd6	0.027174871
62	0x3cb7ec53	0.022451555
63	0xbc79e8ad	-0.015253228
64	0x3bfdee7f	0.007749378
65	0x3c061a37	0.008184961
66	0x3d0c7e35	0.034300048
67	0xbc272dc2	-0.010203781
68	0xbc39bac1	-0.0113360295
69	0x3b724545	0.0036967557
70	0xbaf1686d	-0.0018417962
71	0xbcb1e911	-0.02171758
72	0xbd8e5f5c	-0.06951782
73	0xba412995	-0.0007368562
74	0xbc099fa0	-0.008399874
75	0xbd1d348a	-0.038380183
76	0xbcdf574c	-0.027263306
77	0x3d12e13a	0.035859324
78	0x3da1b158	0.07895154
79	0x3c639ea9	0.013892808
80	0x3b595bb4	0.0033166232
81	0x3cd55055	0.026039282
82	0xbc8db0ae	-0.017296162
83	0xbc135c52	-0.008994179
84	0xbd48cdb5	-0.049024303
85	0x3c55de0e	0.01305343
86	0xbb51b77f	-0.0032000241
87	0xbd311da9	-0.043241177
88	0xbd01737e	-0.031604283
89	0xbc84b235	-0.016198257
90	0xbc7fb36d	-0.015606743
91	0x3ac5ab69	0.0015080991
92	0xbd481a46	-0.04885318
93	0xbd30ad50	-0.043134034
94	0x3c929bf2	0.017896626
95	0xbbbf3a9a	-0.0058358433
96	0x3cbf0eea	0.023322541
97	0x3d0ec62c	0.03485696
98	0x3c800928	0.015629366
99	0xbc0113a1	-0.007878215
100	0x3b418d9d	0.002953387
101	0x3c4bb3d5	0.012433012
102	0xbc11dae3	-0.008902284
103	0xbc577f1f	-0.013152867
104	0x3d2651ca	0.040605344
105	0x3d6dde8e	0.058073573
106	0x3d11cb6d	0.035594393
107	0xbbdcd7b2	-0.00673958
108	0xbcec769b	-0.02886515
109	0xbd033d34	-0.03204079
110	0x3bbd7c26	0.005782622
111	0xbc4374fd	-0.011929748
112	0xbc63a77f	-0.013894915
113	0xbc8fe66b	-0.017565927
114	0x3cab17df	0.020885406
115	0x3ca9a5cd	0.020708943
116	0xbc92563e	-0.01786339
117	0xbcb01b0f	-0.021497278
118	0x3c26ad54	0.010173161
119	0xbc556453	-0.013024407
120	0xbd34a06a	-0.044098295
121	0x3c5e47f1	0.013566957
122	0x3d240f05	0.040053386
123	0xbce768c7	-0.028248204
124	0xbb7bbc97	-0.003841197
125	0x3c6cfa2c	0.0144639425
126	0xbbcbfc7b	-0.0062251664
127	0x3a38f90d	0.00070561544
128	0x3d3700db	0.04467855
129	0x3bea726b	0.007154753
130	0x3ce667e6	0.028125715
131	0x3c1b3459	0.00947293
132	0x3c82f5c0	0.015986323
133	0xbb5f3831	-0.0034060592
134	0x3b5d5ae6	0.0033776104
135	0x3c136a76	0.00899755
136	0xbb2a9829	-0.0026030636
137	0xbc704a7e	-0.014666198
138	0xba3cef37	-0.00072072766
139	0x3c8d0436	0.017213922
140	0xbcd1c2e2	-0.025605623
141	0x3cd0774e	0.025447514
142	0xbbca48a6	-0.006173211
143	0xbc6e65a1	-0.014550597
144	0x3b638b8f	0.0034720635
145	0xbcf210d8	-0.029549047
146	0xbc3bb841	-0.011457504
147	0x3ca872ec	0.020562612
148	0x3b95de3e	0.0045736125
149	0xbbc949f5	-0.0061428496
150	0x39f6bbcd	0.000470607
151	0x3cab72f9	0.020928847
152	0x3914f5d1	0.00014205954
153	0x3c50ef57	0.012752376
154	0xbcb70783	-0.022342449
155	0x3bfe8100	0.007766843
156	0xb9cf3799	-0.0003952354
157	0xbc132eaa	-0.008983294
158	0x3bd49f15	0.0064886906
159	0xbc8558c0	-0.01627767
160	0xbc6dbb04	-0.01450992
161	0xbc161ed9	-0.009162628
162	0x3c14a520	0.009072572
163	0x3c376897	0.01119437
164	0x3b9def26	0.0048197685
165	0x3bd4ac1e	0.0064902445
166	0x3ae26797	0.0017273304
167	0xbc197590	-0.009366408
168	0x3cde2d5f	0.027121244
169	0x3c8ca2cd	0.017167473
170	0xbbc5508f	-0.006021566
171	0xbc6bc012	-0.014389055
172	0x3d44c3f6	0.048038445
173	0x3d036868	0.03208199
174	0x3c5ffb8b	0.013670812
175	0x3d23a79a	0.03995476
176	0xbbecce6f	-0.0072267572
177	0xbc678f6c	-0.0141333155
178	0xbccb64e5	-0.024828384
179	0xbc39448b	-0.011307846
180	0xbd31f4d8	-0.04344639
181	0x3c90d286	0.01767851
182	0xbb8fe490	-0.0043912604
183	0x3c9d88be	0.019230243
184	0xbb09a2e0	-0.0021001622
185	0x3cc1e3a3	0.023668116
186	0x3cd61c13	0.026136434
187	0xbabbcfaa	-0.0014328856
188	0x3ccbd444	0.02488149
189	0xbcfc7671	-0.030818196
190	0xbb06082f	-0.0020451655
191	0xbcf05b2b	-0.029340347
192	0xbc34549e	-0.011006502
193	0xbc9c1924	-0.019054957
194	0x3bd56a5e	0.006512924
195	0x3cb8deb7	0.022567136
196	0x3c883906	0.016628753
197	0x3c8cbf1d	0.017180974
198	0x3c915733	0.017741775
199	0x3d517874	0.051140264
200	0x3c363009	0.011119851
201	0x3ccad8ca	0.024761576
202	0xbcba02d9	-0.022706436
203	0x3c95d317	0.018289132
204	0x3d3553c9	0.044269357
205	0x3d11ad70	0.035565794
206	0x3c3a4b63	0.011370513
207	0xbc309283	-0.010777119
208	0xbd45fc49	-0.0483363
209	0xbd0c0a5d	-0.03418957
210	0xbcbc0bce	-0.022954848
211	0xbd0f0de4	-0.034925357
212	0xbcc76c4f	-0.024343638
213	0xbc6d31e0	-0.014477223
214	0xbd0e7472	-0.03477902
215	0xbcfdcf16	-0.030982535
216	0xbca8c33f	-0.020600913
217	0x3c30cc10	0.01079084
218	0x3bdc158c	0.006716436
219	0x3cdb333e	0.026757833
220	0x3c9780e2	0.018494073
221	0x3c408465	0.011750315
222	0x3ce58951	0.02801958
223	0x3ce5cc59	0.028051542
224	0xbc4f4a1d	-0.012651947
225	0x3cce6302	0.025193695
226	0x3c888db5	0.016669134
227	0x3d2cb359	0.042163227
228	0xbcac439e	-0.021028336
229	0xbcf0f895	-0.029415408
230	0x3be5b2c7	0.0070098373
231	0xbd1d4961	-0.038400058
232	0xbd06536e	-0.03279441
233	0x3b888cd4	0.0041671786
234	0xbc06c4db	-0.008225645
235	0xbd60e159	-0.05490241
236	0x3b8c145f	0.0042748894
237	0xbc67071d	-0.014100817
238	0x3cb843dc	0.022493295
239	0xbc9426e3	-0.018084949
240	0xbcbfd374	-0.023416258
241	0xbc0edc01	-0.008719445
242	0x3b3c66b6	0.0028747744
243	0xbcf06f26	-0.029349875
244	0x3b10797d	0.002204507
245	0xbc56ac9f	-0.0131026795
246	0xbc34f9e1	-0.011045904
247	0xbb59a20d	-0.0033208162
248	0x3b7d30a1	0.0038633721
249	0xbcece563	-0.028917974
250	0x3c848069	0.016174512
251	0xbca81cbc	-0.020521514
252	0x3c4b8bfc	0.012423512
253	0x3ca0a06e	0.019607749
254	0xbc800a32	-0.015629862
255	0x3b0a24a8	0.0021078978

global_block.conv_time.conv.0.bias f4 [8]
0	0x33450485	4.5871747e-08
1	0x31c9ac1a	5.8694356e-09
2	0x331b6a52	3.6185448e-08
3	0xb3a0654c	-7.4690064e-08
4	0x3387e214	6.327551e-08
5	0xb398346c	-7.087587e-08
6	0xb32ca4c2	-4.0196717e-08
7	0x33b9408a	8.6264734e-08

global_block.conv_time.conv.1.weight f4 [8]
0	0x3f032286	0.51224554
1	0x3ef55d91	0.47922948
2	0x3ef4f0e3	0.47840032
3	0x3ef2e8d3	0.47443256
4	0x3ef348b8	0.47516418
5	0x3ef5edc4	0.48032963
6	0x3efa40d6	0.4887759
7	0x3ef82be3	0.48470983

global_block.conv_time.conv.1.bias f4 [8]
0	0xbc254f60	-0.010089725
1	0x3c815212	0.015786204
2	0xbbd2eb7c	-0.0064367633
3	0xbbf20b89	-0.007386629
4	0x3b19e72d	0.0023483739
5	0xbbfcee49	-0.0077188355
6	0xbc2a1655	-0.010381301
7	0x3c05ccd3	0.00816651

global_block.conv_time.conv.1.running_mean f4 [8]
0	0x3c0642ce	0.008194638
1	0x3a3f9188	0.00073077576
2	0x3c9c26f8	0.01906155
3	0xb98c368d	-0.00026743524
4	0x3b374cbc	0.0027969321
5	0xbc6b84d2	-0.014374929
6	0xbc8781d9	-0.016541408
7	0xbb5bdc15	-0.0033547927

global_block.conv_time.conv.1.running_var f4 [8]
0	0x40a8fe38	5.2810326
1	0x410a869c	8.657864
2	0x40bf09a3	5.9699264
3	0x4067c2c3	3.6212623
4	0x407b4ce5	3.9265683
5	0x4059d7e8	3.4038029
6	0x40cdd4fa	6.432248
7	0x40cf38ed	6.475699

global_block.conv_chan.conv.0.weight f4 [8, 8, 11, 1]
0	0xbcd9a099	-0.026565837
1	0x3c34c847	0.011034078
2	0xba9eb0b4	-0.0012107105
3	0x3c225357	0.009907565
4	0x3ccc2c0a	0.024923343
5	0x3c2538b6	0.010084322
6	0xbb09e38c	-0.002104017
7	0xbd40feda	-0.047118045
8	0xbbb59f09	-0.00554264
9	0xbc15816e	-0.009125097
10	0x3d2bf30f	0.041979846
11	0x3d4dd982	0.05025626
12	0xbbfbbc27	-0.0076823416
13	0x3cd22f2c	0.025657259
14	0x3d37241a	0.044712164
15	0x3b561bbe	0.0032670344
16	0xbcac73f7	-0.02105139
17	0xbcd3af67	-0.025840474
18	0xbd47531f	-0.048663255
19	0x3d0cf080	0.034409046
20	0xbcfbc149	-0.030731814
21	0x3b97ff4c	0.004638588
22	0xbcd9f58e	-0.026606347
23	0x3c6e2daa	0.014537254
24	0x3c8be823	0.017078465
25	0xbd22d4bf	-0.03975367
26	0x3c899b58	0.016797706
27	0xbc1f3e95	-0.009719511
28	0x3c2d791a	0.010587955
29	0x3c96d3f2	0.01841161
30	0xbcd5243c	-0.026018254
31	0xbcd96ff2	-0.026542637
32	0xbc85d397	-0.016336245
33	0x3d27dc19	0.040981386
34	0xbd1599ed	-0.03652375
35	0xbcc04eab	-0.023475012
36	0x3caaf329	0.0208679
37	0x3c9075e3	0.017634338
38	0x3bb82ddd	0.0056207017
39	0xbcff0078	-0.031128153
40	0xbd768eb7	-0.060194697
41	0xbcf2271a	-0.02955966
42	0x3d0c97d8	0.034324497
43	0x3d0815d3	0.03322394
44	0xbcb198d6	-0.021679323
45	0xbcf124c0	-0.02943647
46	0xbcda59d1	-0.026654156
47	0xbc96cedc	-0.018409185
48	0x3c7f26a0	0.015573174
49	0x3cadd33d	0.02121889
50	0x3cd1fa1f	0.025631962
51	0xbd03fa3b	-0.03222106
52	0x3d062dbd	0.032758463
53	0x3cddb4fc	0.02706384
54	0x3b1f6996	0.0024324409
55	0xbc15f57e	-0.009152768
56	0x3d33ce31	0.04389781
57	0x3c7d624f	0.015465333
58	0xbc7dad13	-0.015483159
59	0xbd50646b	-0.050877016
60	0xb9b71254	-0.00034918135
61	0x3cbd58ce	0.023113634
62	0x3db7a2f3	0.08966627
63	0x3c874160	0.016510665
64	0xbc1299c7	-0.008947796
65	0xbd643f79	-0.055724595
66	0x3bd8773f	0.006606012
67	0x3c5f0352	0.0136116315
68	0xbcae0698	-0.021243379
69	0xbca918f2	-0.020641778
70	0x3c7b145c	0.015324678
71	0xbc62253b	-0.013802822
72	0xba6b90c3	-0.000898611
73	0x3d5e9c97	0.054348554
74	0x3c7044a3	0.014664802
75	0x3c28f71e	0.010312824
76	0xbd024023	-0.031799447
77	0xbcbbb6f1	-0.022914382
78	0xbc92d0ee	-0.017921891
79	0x3a8ca547	0.0010730409
80	0x3c29cce3	0.01036379
81	0xbc83abff	-0.016073225
82	0x3d58c080	0.052917957
83	0x3d2088d8	0.039193004
84	0xbd3b42de	-0.045718066
85	0x3b1c3554	0.0023835497
86	0x3b99c91c	0.0046931636
87	0x3c152977	0.009104124
88	0x3d01e4b6	0.031712256
89	0xbca9dae1	-0.020734252
90	0x3c46239a	0.012093449
91	0x3c95c8db	0.018284252
92	0x3c44c886	0.012010699
93	0xbcd8dfcf	-0.026473908
94	0xbbbe430b	-0.005806332
95	0xbcb5d756	-0.022197407
96	0x3d2fedc5	0.042951364
97	0x3cf6598f	0.030072002
98	0xbc953f5b	-0.018218687
99	0x3c5d05b8	0.013490133
100	0xbd5425f9	-0.051794026
101	0x3ce44648	0.027865544
102	0xbbb142b9	-0.0054095653
103	0x3d7cfbd1	0.06176359
104	0xbc2e1c98	-0.0106269345
105	0xbd2f7a28	-0.042841107
106	0x3cdf1160	0.027229965
107	0x3d219383	0.03944732
108	0x38d83312	0.00010309195
109	0xbb9bff12	-0.0047606314
110	0x3d8cebc3	0.068809055
111	0xbd91b4c9	-0.0711456
112	0xbcea21f1	-0.028580638
113	0x3b91bcaa	0.0044475393
114	0x3d54ee3d	0.051985014
115	0x3d2ad2d1	0.041704956
116	0xbd96ee66	-0.0736969
117	0xbd2f627a	-0.042818524
118	0xbd8cfe21	-0.06884409
119	0x3d3f0ec2	0.046644934
120	0x3d7452b2	0.059649177
121	0x3c1e1d44	0.009650532
122	0x3cea6f72	0.028617594
123	0xb9c5c0d6	-0.00037718442
124	0xbb90f157	-0.004423301
125	0xbbd2522d	-0.0064184875
126	0xbd025b18	-0.031825155
127	0x3ce67ef7	0.028136713
128	0x3db231df	0.087009184
129	0x3d694f23	0.056960236
130	0xbd12d22b	-0.035844963
131	0xbd4d4f66	-0.05012455
132	0x3d087694	0.03331621
133	0x3d75f38c	0.060046718
134	0xbc675cd6	-0.014121255
135	0xbd20a016	-0.03921517
136	0xbc2d6e60	-0.0105853975
137	0xbd11b6b0	-0.035574615
138	0x3d64df09	0.055876765
139	0x3d563a23	0.052301537
140	0x3d90e903	0.070756935
141	0xbcd0c9cb	-0.025486847
142	0xbd088216	-0.033327185
143	0xbd1f057b	-0.038823586
144	0x3d2e4d6a	0.042554297
145	0x3d0373a0	0.03209269
146	0x3c958af0	0.018254727
147	0xbd37093a	-0.044686534
148	0x3ce748b0	0.028232902
149	0x3d8028d3	0.062577866
150	0xbc5fde1a	-0.013663793
151	0xbcdac1bc	-0.026703708
152	0xbcbb2b34	-0.02284775
153	0x3cb3730a	0.02190544
154	0xbcb7213c	-0.022354715
155	0xbcd92c61	-0.02651042
156	0xbc3f536e	-0.011677606
157	0x3d4cde92	0.050016947
158	0x3cbf166e	0.023326125
159	0xbc8de918	-0.017323062
160	0xbcc5ee86	-0.024161588
161	0x3b8d850f	0.0043188403
162	0xbbaf18b8	-0.005343523
163	0xbc978560	-0.018496215
164	0x3d2eee2b	0.042707603
165	0x3befca5b	0.007317824
166	0x3c827337	0.01592408
167	0xbc8ba497	-0.017046256
168	0xbd4d1a71	-0.050074045
169	0xbd95756a	-0.072977856
170	0x3d184e4f	0.037184056
171	0x3c729c09	0.0148077095
172	0x3d8894b2	0.066689864
173	0xbc8ff170	-0.017571181
174	0xbd50fa9f	-0.05102026
175	0xbd131c89	-0.035915885
176	0xbcf8e870	-0.030384272
177	0xbd622c30	-0.05521792
178	0xbd53815f	-0.05163705
179	0x3d0ff911	0.035149638
180	0x3d865697	0.065594845
181	0x3cf49cb5	0.02985988
182	0xbd82b69f	-0.063824885
183	0x3c605b1f	0.0136936
184	0xbbf796db	-0.007555825
185	0x3cdc8ea5	0.026923487
186	0x3c518a60	0.012789339
187	0xbd7251a8	-0.059159905
188	0xbdc1d6fd	-0.09464834
189	0xbc02b149	-0.007976838
190	0x3ab02f8a	0.0013441902
191	0x3d8176e7	0.06321507
192	0xbb60c101	-0.0034294727
193	0xbd084911	-0.033272807
194	0x3c6aedbc	0.014338907
195	0x3cd66dfd	0.026175493
196	0xbbcc1c1e	-0.006228938
197	0x3d498548	0.049199373
198	0x3c779932	0.015112208
199	0x3d943330	0.07236326
200	0xbd5adcd0	-0.05343324
201	0x3b2bbfc7	0.0026206838
202	0xbd2e5aef	-0.04256719
203	0xbd66e1a3	-0.056367528
204	0x3d706e6f	0.058699068
205	0x3d95752e	0.07297741
206	0x3d295aa1	0.041346196
207	0xbd12aa7a	-0.03580711
208	0xbc92271b	-0.017840913
209	0x3c93bf9f	0.018035708
210	0xbce08c8e	-0.027410772
211	0xbcbd873f	-0.02313578
212	0xb894fa3c	-7.1038e-05
213	0xbb38dfe9	-0.0028209633
214	0xbc752eeb	-0.014964799
215	0xbd0fbe0e	-0.03509336
216	0x3c9e7c01	0.019346239
217	0x3c16fa91	0.009215013
218	0x3d1b5bc8	0.037929326
219	0x3be495a6	0.0069758473
220	0x3a100982	0.0005494581
221	0xbcc59e0e	-0.024123218
222	0x3d0db99e	0.034600846
223	0xbd0949cc	-0.033517644
224	0x3cb54e55	0.022132078
225	0x3ce150b4	0.027504303
226	0xbd86cd58	-0.06582135
227	0x3d4972ac	0.049181625
228	0xbbdf969a	-0.006823373
229	0xbcb55007	-0.022132887
230	0xbab48615	-0.001377287
231	0x3b056a06	0.0020357384
232	0x3d5694f0	0.05238813
233	0x3c2b19ca	0.01044316
234	0x3d1d0342	0.038333185
235	0xbc8d55a3	-0.017252749
236	0x3b7f5625	0.0038961258
237	0xbd0482c5	-0.032351274
238	0x3ccc32da	0.024926592
239	0xbd364d82	-0.04450751
240	0x3c5d7c1a	0.013518358
241	0x3c171047	0.009220189
242	0xbd5773ca	-0.05260066
243	0x3d56dc67	0.052456286
244	0xbd5e1080	-0.054214954
245	0xbd59738b	-0.053088706
246	0xbd152aea	-0.03641788
247	0xbce86a84	-0.028371103
248	0x3d813fc4	0.063109905
249	0xbd2d05c5	-0.04224183
250	0x3d5f5f8f	0.05453449
251	0x3c775c65	0.015097712
252	0xbd296e00	-0.04136467
253	0xbcb70855	-0.02234284
254	0xbc4e86a0	-0.012605339
255	0xbc5222a8	-0.0128256455

global_block.conv_chan.conv.0.bias f4 [8]
0	0x3493a609	2.750169e-07
1	0xb455a82b	-1.989835e-07
2	0xb3135ca5	-3.4310364e-08
3	0xb44a2f67	-1.8829961e-07
4	0x340c4681	1.3064165e-07
5	0x353ecd7a	7.1079523e-07
6	0x34e13f6b	4.1955659e-07
7	0xb559c7b5	-8.112941e-07

global_block.conv_chan.conv.1.weight f4 [8]
0	0x3f06df96	0.52684915
1	0x3ef8a918	0.48566508
2	0x3f0c45d6	0.5479406
3	0x3f0d99d6	0.5531286
4	0x3eff2af5	0.4983746
5	0x3ef3d0fa	0.47620374
6	0x3ef0268c	0.4690441
7	0x3f031230	0.51199627

global_block.conv_chan.conv.1.bias f4 [8]
0	0xba5f7079	-0.00085235346
1	0x3cef5018	0.029212996
2	0x3c53046b	0.012879471
3	0x3d325653	0.043539356
4	0x3d055446	0.032551073
5	0x3d21889e	0.03943693
6	0x3c887ab5	0.016660074
7	0x3d216ed2	0.039412327

global_block.conv_chan.conv.1.running_mean f4 [8]
0	0x3b6d3fc2	0.0036201333
1	0x3c1f81c6	0.00973553
2	0xbc28d517	-0.010304711
3	0x3bcc7fc4	0.006240817
4	0x3b92262c	0.004460117
5	0xbbe9c016	-0.007133494
6	0xbc0ebf36	-0.00871258
7	0xbb630c47	-0.003464477

global_block.conv_chan.conv.1.running_var f4 [8]
0	0x3ba2aa87	0.004964176
1	0x3c273640	0.010205805
2	0x3c1ed457	0.00969418
3	0x3c7f6830	0.015588805
4	0x3b88fe8b	0.0041807345
5	0x3bd30ef5	0.006440992
6	0x3bf2f6dc	0.007414682
7	0x3c1fd986	0.0097564515

local_block.conv_time.conv.0.weight f4 [8, 1, 1, 51]
0	0x3c297601	0.010343076
1	0x3ca4abd5	0.020101467
2	0x3a987afa	0.001163333
3	0x3a8a6594	0.0010558837
4	0x3be6d97f	0.0070449705
5	0xbd041119	-0.032242868
6	0x3c683cdc	0.014174666
7	0xbcb044cf	-0.021517185
8	0x3ced8945	0.02899612
9	0x3adc7c02	0.0016821625
10	0xbcaa7cd1	-0.02081147
11	0xbc1bf20f	-0.0095181605
12	0x3ce071ca	0.027398009
13	0xbd323bcb	-0.043514054
14	0x3c2fa6c2	0.0107209105
15	0xba96a2c2	-0.0011492597
16	0xbbb6081a	-0.005555165
17	0x3d2515ea	0.040304102
18	0x3d04f045	0.0324557
19	0x3c8b7d0b	0.017027399
20	0xbd0840ee	-0.033265047
21	0xbcd4707e	-0.025932547
22	0xbd0a7680	-0.033804417
23	0xbcd962ac	-0.026536308
24	0xbc87ee29	-0.016593056
25	0x3c0aa56e	0.008462293
26	0xbcb7107b	-0.022346726
27	0xbc9f42dc	-0.01944106
28	0x3c5eb35d	0.013592568
29	0x3d029358	0.0318788
30	0x3d0a8dc0	0.03382659
31	0x3d822494	0.06354633
32	0x3d5752b6	0.052569114
33	0x3a0da1d9	0.00054028403
34	0x3d0dfcc8	0.0346649
35	0x3c085baf	0.00832264
36	0xbcdb4c84	-0.026769884
37	0xbda8ae0b	-0.08236321
38	0xbd48718a	-0.048936404
39	0xbd440ed8	-0.04786572
40	0xbd012ce0	-0.031536937
41	0xbd4a3659	-0.049368236
42	0x3d32c0a7	0.04364076
43	0x3d483d2e	0.04888647
44	0x3cf3a912	0.029743705
45	0xbbfe4b7a	-0.0077604624
46	0x3c32bebc	0.010909732
47	0xbb56fa7c	-0.003280311
48	0x3cb1951a	0.021677542
49	0x3d44c44d	0.04803877
50	0xbd07fb74	-0.03319879
51	0x3d14086c	0.036140844
52	0xbbe77a4a	-0.0070641385
53	0x3b035260	0.0020038113
54	0xbc5ff4c0	-0.013669193
55	0x3c00d214	0.0078625865
56	0xbc2acc3e	-0.010424672
57	0xbb1f9963	-0.00243529
58	0x3cdc2136	0.026871305
59	0xbcfbd120	-0.030739367
60	0x3cea177b	0.02857565
61	0xbd1affed	-0.037841726
62	0x3cec5d65	0.028853128
63	0x3d4469c2	0.04795242
64	0x3cfc4bcd	0.030797863
65	0xbb607501	-0.0034249427
66	0xbccee203	-0.025254255
67	0x3c55de55	0.013053496
68	0x3b51db8b	0.0032021727
69	0xbabe098d	-0.0014498696
70	0xbc81dbff	-0.015851973
71	0xbcc2c118	-0.023773715
72	0x3d111d86	0.035428546
73	0xbd241cee	-0.040066652
74	0xbc102d6e	-0.008799894
75	0x3d6e85bb	0.058233004
76	0x3be17542	0.0068804333
77	0xbc1f84c4	-0.009736244
78	0xbb4aad65	-0.0030926105
79	0x3ca45c75	0.020063618
80	0x3c3bc064	0.011459444
81	0xbc0cd45d	-0.008595553
82	0x3cedd0d8	0.029030249
83	0xbce8833d	-0.028382892
84	0xbbd0812d	-0.006363055
85	0x3d01b63d	0.031667937
86	0xbc6c1c7a	-0.014411086
87	0x3c93d6ad	0.018046701
88	0x3c7462a6	0.014916098
89	0x3d4373f7	0.047718015
90	0x3d677beb	0.05651466
91	0x3ca51237	0.020150287
92	0xbc7725b6	-0.015084675
93	0xbd8a16d1	-0.06742633
94	0xbd3b8b8f	-0.04578739
95	0xbc929acb	-0.017896077
96	0x3d28d443	0.041218054
97	0xbccd1a02	-0.025036816
98	0xbc0eb2a1	-0.008709581
99	0xbd1156eb	-0.035483282
100	0x3ce8b28e	0.028405454
101	0xbad80af6	-0.0016482759
102	0xbc6222db	-0.0138022555
103	0xbd364548	-0.044499665
104	0x3cc8f0c8	0.024528876
105	0xbd483aba	-0.04888413
106	0xbd3cc73f	-0.046088453
107	0x3c415bf9	0.011801713
108	0x3cacd305	0.021096716
109	0x3c8a2c8b	0.016866943
110	0x3d3345ac	0.043767616
111	0xbc4dcc0e	-0.012560857
112	0x3d4247e7	0.047431853
113	0x3b966da7	0.0045907083
114	0xbcfeba10	-0.03109458
115	0xbceb7496	-0.028742116
116	0xbd1563c3	-0.036472093
117	0xbd17563a	-0.036947466
118	0xbd064082	-0.032776363
119	0xbc031a60	-0.008001894
120	0xbd29d527	-0.041463044
121	0x3d2997f9	0.041404698
122	0x3d5192c0	0.051165342
123	0x3ccf838b	0.02533128
124	0x3d4a941f	0.049457666
125	0xbbd60426	-0.0065312563
126	0x3c2d422c	0.010574859
127	0xbcd2c9c1	-0.02573097
128	0x3c262200	0.010139942
129	0xbd23631b	-0.039889436
130	0xbd60271e	-0.054724805
131	0xbc816bba	-0.015798438
132	0xbcfdc8c6	-0.030979525
133	0xbd3a6e96	-0.04551562
134	0x3aacdae9	0.0013187799
135	0x3a6683f2	0.0008793465
136	0x3d6edb48	0.05831459
137	0x3c63dbb3	0.013907361
138	0x3cb28ef5	0.021796683
139	0x3cccc9d5	0.024998585
140	0xbd0321a9	-0.032014523
141	0x3c911164	0.017708488
142	0x3d29ea37	0.04148313
143	0xbd2a24e0	-0.041539073
144	0xbd851dd0	-0.06499827
145	0x3d11acdd	0.035565246
146	0xbc4c1c55	-0.012457927
147	0xbd27a9f8	-0.04093358
148	0xbd4e273e	-0.050330393
149	0x3d2d4cb6	0.042309485
150	0x3d2494e9	0.040181074
151	0xbc8086d1	-0.015689285
152	0x3d0ae8a1	0.03391326
153	0x3adad30f	0.001669498
154	0x3aa5a8be	0.001263879
155	0x3b0ab911	0.0021167437
156	0x3b0056a9	0.0019582903
157	0xbbb3a546	-0.0054823486
158	0xbd05c2e4	-0.032656565
159	0x3c16bfcb	0.009201
160	0x3c2b2365	0.01044545
161	0x3d5c95d3	0.05385382
162	0xbca71cc9	-0.020399468
163	0x3bb6802c	0.0055694785
164	0x3ce49c69	0.027906613
165	0xbd2ef269	-0.04271165
166	0xbaf30880	-0.0018541962
167	0x3d37a220	0.04483235
168	0xbd07a2be	-0.033114187
169	0x3cbd7e7f	0.023131607
170	0xbac63d0e	-0.0015124397
171	0xbc95c30a	-0.018281478
172	0x3c97b7de	0.018520292
173	0xbc7b31b2	-0.0153316725
174	0xbd272b68	-0.04081288
175	0x3ce2b810	0.027675658
176	0x3c0a1a6a	0.008429149
177	0x3d532943	0.051553022
178	0x3d8af297	0.067845516
179	0xbc7ecdfc	-0.01555204
180	0xbd78bbb2	-0.060725875
181	0xbd4d063f	-0.050054785
182	0x3d4e4d66	0.05036678
183	0xbca5f0c0	-0.0202564
184	0x3d52459e	0.051335923
185	0xbca41fd2	-0.020034704
186	0x3d21620a	0.039400138
187	0x3d1ce128	0.038300663
188	0x3c55dc8e	0.013053073
189	0xbba7d9fb	-0.005122421
190	0x3d0b5417	0.03401574
191	0x3cb8fee1	0.022582473
192	0x3b5e0f97	0.0033883804
193	0xbc84fa3f	-0.016232608
194	0x3d10fa34	0.035394862
195	0xbd01da3d	-0.03170227
196	0x3ca0718a	0.01958539
197	0xbd4a01f2	-0.04931826
198	0xbd8b3acb	-0.06798323
199	0x3c7086d5	0.014680584
200	0xbccf8dfc	-0.025336258
201	0x3d7d4e23	0.061842095
202	0x3c599f46	0.013282603
203	0x3d6bcc15	0.057567675
204	0xbc4f3540	-0.012646973
205	0x3d2bfd45	0.041989584
206	0xbc8269a9	-0.015919523
207	0x3c0a0ec8	0.008426376
208	0x3cf78d62	0.030218784
209	0x3b6b1a15	0.00358737
210	0x3d0cfb6d	0.034419466
211	0xbc49699f	-0.012293248
212	0x3c94df32	0.018172834
213	0x3bff1f39	0.0077857045
214	0xbcfe03de	-0.031007703
215	0xbd173597	-0.03691634
216	0xbd617fee	-0.055053644
217	0xbc97d6b3	-0.018534994
218	0xb9fdcadd	-0.00048407065
219	0xbc39f892	-0.011350768
220	0x3d322cbc	0.043499693
221	0xbd1d0cb8	-0.038342208
222	0x3ce8fe2b	0.02844151
223	0x3ccfeb3a	0.02538072
224	0xbd83963d	-0.0642514
225	0xbd1463e0	-0.03622806
226	0x3be81fcc	0.0070838686
227	0x3c160a67	0.009157754
228	0x3b2f9277	0.002679018
229	0x3c4456a5	0.011983548
230	0x3d332fd2	0.043746777
231	0xbbe9367d	-0.007117091
232	0xbd325e6f	-0.04354709
233	0xbc42d128	-0.011890687
234	0x3c35abdf	0.011088341
235	0xbc1d4522	-0.009599002
236	0xbcdda390	-0.027055532
237	0x3c6f3e8c	0.014602315
238	0xbc6c3e6c	-0.014419179
239	0xbcd40c29	-0.025884705
240	0x3d41ba08	0.047296554
241	0xbb2f0825	-0.0026707735
242	0xbb733806	-0.003711225
243	0x3cfd7536	0.03093968
244	0xbd372d6d	-0.044721056
245	0xbd1dc875	-0.03852125
246	0x3cf59ff0	0.02998349
247	0x3c822f71	0.015891762
248	0xbd468304	-0.04846479
249	0x3c00e24a	0.0078664515
250	0xbcf6adac	-0.03011211
251	0xbcd66d31	-0.026175113
252	0xbd125bc9	-0.035732064
253	0xbbb07f2b	-0.0053862534
254	0xbcac1a5b	-0.021008661
255	0xbcc01280	-0.023446321

local_block.conv_time.conv.0.bias f4 [8]
0	0x337bfd47	5.8670846e-08
1	0xb3dc1dc5	-1.02499634e-07
2	0xb29ee060	-1.8495655e-08
3	0xb3132cae	-3.426674e-08
4	0x3325f988	3.8644004e-08
5	0x32e233a3	2.6333344e-08
6	0xb3c40ae7	-9.1289444e-08
7	0x32c853e3	2.3321212e-08

local_block.conv_time.conv.1.weight f4 [8]
0	0x3ef11b25	0.47091022
1	0x3eeb6926	0.4597866
2	0x3ee929ed	0.455398
3	0x3eea2f64	0.4573928
4	0x3ee21cee	0.44162697
5	0x3ef49f21	0.47777656
6	0x3eefd588	0.468426
7	0x3eedf6e2	0.4647742

local_block.conv_time.conv.1.bias f4 [8]
0	0x3c87cd51	0.016577395
1	0xbbe4c275	-0.006981189
2	0x382d11fa	4.1263156e-05
3	0xbc964511	-0.01834348
4	0xb9dc593b	-0.00042028152
5	0xbcec9cc8	-0.028883353
6	0x3c1f9c91	0.009741918
7	0xbbc2dc29	-0.0059466553

local_block.conv_time.conv.1.running_mean f4 [8]
0	0xba8f9e39	-0.0010957188
1	0x3b48406b	0.0030555974
2	0xbc167cb5	-0.009185006
3	0xba162f35	-0.00057290803
4	0x38877f94	6.461065e-05
5	0xbb995bb0	-0.0046801195
6	0x3b194872	0.0023389128
7	0xbbe2a29d	-0.0069163577

local_block.conv_time.conv.1.running_var f4 [8]
0	0x40a4d212	5.1506433
1	0x4013900e	2.3056674
2	0x405eb8f1	3.480038
3	0x402a3ca0	2.6599503
4	0x3ff9aef9	1.9506522
5	0x40683fff	3.628906
6	0x402e9f2a	2.7284646
7	0x403c9ecb	2.947192

local_block.conv_chan.conv.0.weight f4 [8, 8, 11, 1]
0	0x3bfe6550	0.0077635422
1	0x3d410a48	0.047128946
2	0x3c9c3fdd	0.019073421
3	0x3ca7777a	0.020442713
4	0xbc89212b	-0.016739449
5	0x3c0fb5e2	0.008771392
6	0xbcdf271f	-0.027240334
7	0x3b8b495d	0.004250689
8	0xbc9756cc	-0.018474005
9	0x3c592fe0	0.013256043
10	0xbc14ca8f	-0.009081497
11	0xbc14595e	-0.00905451
12	0x3cdfcf4a	0.027320523
13	0x3cb837af	0.02248749
14	0xbc19d349	-0.009388753
15	0xbbac6b68	-0.0052618273
16	0xbb6f843b	-0.0036547321
17	0xbc04024e	-0.00805719
18	0x3ce463fd	0.02787971
19	0x3c67425b	0.0141149415
20	0x3a9c8ff2	0.0011944755
21	0xbca175ea	-0.019709546
22	0x3b8acedc	0.0042360853
23	0x3d0e0735	0.034674842
24	0x3d1070a8	0.035263687
25	0xbc847578	-0.016169295
26	0x3b52e819	0.0032181798
27	0xbca54127	-0.020172669
28	0xbb14fc19	-0.002273327
29	0xbbf840e7	-0.0075760963
30	0xbc5bbc8b	-0.013411651
31	0x3c8391a9	0.016060667
32	0xbcc166d2	-0.023608599
33	0xbcb90eba	-0.02259003
34	0xbccc1604	-0.024912842
35	0xbb7e077b	-0.0038761783
36	0x3ba1c749	0.0049370867
37	0xbc2194bc	-0.009862121
38	0x3c227685	0.009915953
39	0x3bc636af	0.0060489993
40	0x3c0ca7a0	0.008584887
41	0xbcf99f08	-0.03047134
42	0xbb391bb2	-0.0028245267
43	0x3d2c9e94	0.04214342
44	0x3c8b8f75	0.01703618
45	0x3c15e11b	0.009147908
46	0xbc8f829c	-0.017518334
47	0xbbdc7072	-0.0067272717
48	0x3ccd9a6f	0.025098054
49	0xbcd772be	-0.02629983
50	0x3bbb7b88	0.005721513
51	0x3bed4baf	0.007241688
52	0xbc37d1c3	-0.011219445
53	0x3c8bacee	0.017050233
54	0x3c917612	0.017756496
55	0xbc0b0b7f	-0.008486628
56	0x3d1ac672	0.03778691
57	0x3c6195d5	0.013768633
58	0x3c444da6	0.011981403
59	0xbc508d53	-0.012729007
60	0x3bf3995e	0.0074340543
61	0x3d5f44d4	0.054509
62	0x3cce4363	0.025178617
63	0xbc7430be	-0.014904199
64	0xbc0a405e	-0.008438198
65	0xbc86af7b	-0.016441097
66	0xbcbad40f	-0.022806196
67	0x3a979a2f	0.0011566336
68	0x3b57c343	0.0032922782
69	0xbbc3353c	-0.0059572738
70	0x3b48b878	0.003062753
71	0xbc0822b5	-0.008309056
72	0x3cafe544	0.021471627
73	0x3cd79135	0.026314357
74	0x3c84eabd	0.016225213
75	0xbc44cfc3	-0.012012425
76	0x3a7ac87e	0.0009566619
77	0x3b2a0c61	0.002594732
78	0x3bbc79e9	0.0057518375
79	0x3c204563	0.009782168
80	0xbcc331d8	-0.023827478
81	0x3ab0a48d	0.0013476774
82	0xbbf0eff3	-0.007352823
83	0x3cebf15c	0.028801613
84	0x3c361560	0.011113495
85	0x3d07405f	0.033020373
86	0xbc85dfab	-0.016342005
87	0xbcebc264	-0.028779216
88	0xbc203542	-0.009778323
89	0xbc059e03	-0.008155349
90	0x3c0e8aa0	0.008700043
91	0xbd051eb9	-0.032500003
92	0x3aea1217	0.0017858174
93	0xbc8529c1	-0.016255261
94	0x3d3b2eb5	0.04569884
95	0x3d833b6e	0.0640782
96	0xbc4ecff4	-0.012622822
97	0x3cad26f7	0.021136744
98	0xbd107717	-0.035269823
99	0xbd1e5de9	-0.03866378
100	0x3c9d16c0	0.019175887
101	0x3c993be9	0.018705325
102	0x3af7eacc	0.0018914579
103	0x3c0c0233	0.008545446
104	0x3bd7f2d5	0.006590227
105	0x3c265369	0.0101517225
106	0xbd0b4414	-0.03400047
107	0xbcf52d1b	-0.029928735
108	0x3d4dd7c5	0.050254602
109	0xbce7083c	-0.028202169
110	0xbd5d5961	-0.054040316
111	0x3d83ef5c	0.064421386
112	0xbd4ce059	-0.050018642
113	0xbd8178b9	-0.06321854
114	0x3c148c7d	0.009066698
115	0xbd38b5d9	-0.0450953
116	0x3d52118e	0.051286273
117	0x3dc2c622	0.09510447
118	0x3d28aeb8	0.04118225
119	0xbc6ff07a	-0.014644736
120	0xbd126f11	-0.035750452
121	0x3c4cb8df	0.012495249
122	0xbd23a264	-0.03994979
123	0xbaf18a04	-0.0018427973
124	0xbc12da53	-0.008963185
125	0xbcf14689	-0.02945258
126	0x3c03d181	0.008045555
127	0xbca1ef29	-0.01976736
128	0x3cfc8955	0.030827204
129	0xb9fc3bf4	-0.00048109854
130	0xbd00e5c0	-0.031469107
131	0x3d327cee	0.043576173
132	0x3c802474	0.015642382
133	0xbcd777a6	-0.02630217
134	0x3b83f9ce	0.004027582
135	0x3b457000	0.0030126572
136	0x3ba14956	0.0049220724
137	0x3d4fabd6	0.050700985
138	0xbcc17fbc	-0.023620479
139	0xbd89b81d	-0.0672457
140	0x3cc25392	0.02372149
141	0xbc8b5c8c	-0.017011903
142	0xba90e909	-0.0011055778
143	0x3d3f2f3c	0.046675906
144	0xbc9e840e	-0.019350078
145	0x3c3c7392	0.0115021635
146	0x39dba081	0.0004189052
147	0xbcfedc7d	-0.031110996
148	0xbbeb463c	-0.0071800034
149	0x3d002397	0.03128394
150	0x3bdbb098	0.006704401
151	0xbc822c56	-0.015890282
152	0x3cb0f42e	0.021600809
153	0xbcc72828	-0.02431114
154	0xbba41026	-0.005006808
155	0xbcbb7aa7	-0.022885634
156	0xbd5eb126	-0.05436816
157	0x3c898c6d	0.016790593
158	0x3c15ccc7	0.009143061
159	0x3b63013e	0.0034638192
160	0x3c027f08	0.007964857
161	0x3d2f83da	0.042850353
162	0x3c94ad0a	0.018148918
163	0x3adda675	0.001691057
164	0xbcaaabbd	-0.020833844
165	0xbce43472	-0.02785704
166	0x3d36184b	0.04445676
167	0xbd051f61	-0.03250063
168	0xbd24d130	-0.04023856
169	0x3b884337	0.0041584033
170	0x3b0c30c2	0.0021391367
171	0x3c6f5591	0.014607803
172	0x3db5dd47	0.08880096
173	0x3cd744c1	0.026277902
174	0xbd216b75	-0.03940912
175	0xbd801015	-0.062530674
176	0x3d18a5bd	0.037267435
177	0xbb9c5527	-0.004770893
178	0xbd054bea	-0.0325431
179	0x3d8f1719	0.069868274
180	0x3d87992c	0.06621012
181	0xbbe3a242	-0.006946833
182	0xbdafff81	-0.085936554
183	0xbd517159	-0.051133487
184	0xbcaf3491	-0.02138737
185	0x3d2b8eae	0.041884117
186	0x3c128bca	0.008944461
187	0xbd3088ff	-0.0430994
188	0xbcd760b6	-0.026291233
189	0xbd1d1d48	-0.038358003
190	0x3d0b81f8	0.034059495
191	0x3c984726	0.018588614
192	0x3bf23ac0	0.0073922575
193	0x3cded2ba	0.027200092
194	0x3d7197bc	0.058982596
195	0x3a47dba5	0.0007623977
196	0xbca6ee60	-0.020377338
197	0x3c2a61e2	0.010399314
198	0xbc915437	-0.017740352
199	0xbccaa0a8	-0.02473481
200	0x3d76f205	0.0602894
201	0xbc09f1d9	-0.008419477
202	0x3aa02137	0.001221693
203	0xbcd8b457	-0.02645318
204	0x3d64ed09	0.055890117
205	0x3bf62f6b	0.007512977
206	0x3ce75c40	0.02824223
207	0xbd25dc62	-0.040493377
208	0xbc8818d3	-0.0166134
209	0xbb83f708	-0.004027251
210	0x3d81df62	0.06341435
211	0x3c89462e	0.016757097
212	0xbcceb9e5	-0.025235126
213	0x3b06821e	0.0020524333
214	0xbc88af4b	-0.016685149
215	0x3bb03f92	0.005378672
216	0x3cd18ec2	0.025580768
217	0xbcc5e7b8	-0.024158344
218	0x3d0d9d20	0.034573674
219	0xbcc5dc56	-0.024152916
220	0xbd77808f	-0.060425337
221	0xbc4f6ca8	-0.012660183
222	0xbc831f92	-0.016006265
223	0xbcb78b82	-0.02240539
224	0xbc4a8b09	-0.01236225
225	0x3d48c43e	0.049015276
226	0x3d002b76	0.031291448
227	0xbc85ca03	-0.016331678
228	0xbccd78bb	-0.025081983
229	0x3c27abf5	0.010233869
230	0xba4f8f1f	-0.000791775
231	0xbcd0a415	-0.025468865
232	0xbc061647	-0.008184022
233	0x3b96e594	0.0046050046
234	0xbc1e7cec	-0.009673338
235	0xbc4bbcea	-0.012435177
236	0x3c9b1ef0	0.01893565
237	0x3cabb0ba	0.020958293
238	0xbc4c07b2	-0.012453007
239	0x3cee528c	0.029092096
240	0x3a304f05	0.0006725642
241	0xbc79a36b	-0.015236716
242	0x3b6a71ff	0.0035773513
243	0x3c89ad91	0.016806396
244	0xbcf42d7f	-0.02980685
245	0xbd5f2321	-0.05447686
246	0xbd16f77e	-0.03685712
247	0x3ccdbb01	0.025113584
248	0x39c89c96	0.00038263638
249	0x3d9cbb8c	0.07652959
250	0xbb87b407	-0.004141334
251	0x3c16aa75	0.009195914
252	0x3a491037	0.00076699577
253	0xbc0862cc	-0.008324336
254	0x3d1be561	0.03806055
255	0xbb25f9cc	-0.0025325892

local_block.conv_chan.conv.0.bias f4 [8]
0	0x34842a6a	2.4617776e-07
1	0xb5c76b57	-1.4857895e-06
2	0x34bad9b5	3.4803602e-07
3	0x33c99f66	9.388786e-08
4	0xb490bf48	-2.6961266e-07
5	0x3475e162	2.2899397e-07
6	0xb4a1429e	-3.0037057e-07
7	0xb4884bfa	-2.5387254e-07

local_block.conv_chan.conv.1.weight f4 [8]
0	0x3ef8d85f	0.48602578
1	0x3f00cadc	0.5030954
2	0x3ef7b963	0.48383626
3	0x3f02c1f6	0.5107721
4	0x3f02aa65	0.5104125
5	0x3efd4684	0.49467862
6	0x3efd4942	0.49469954
7	0x3f01a3b0	0.5064039

local_block.conv_chan.conv.1.bias f4 [8]
0	0x3cc15ddc	0.023604326
1	0x3b57179b	0.0032820466
2	0x3cb32a69	0.021870809
3	0x3cdf9ccc	0.027296446
4	0xbb50cdf6	-0.0031861044
5	0x3cfc8f03	0.030829912
6	0x3c49debb	0.0123211695
7	0x3bd5b01c	0.006521238

local_block.conv_chan.conv.1.running_mean f4 [8]
0	0x3bd95842	0.0066328356
1	0x3a824163	0.00099377
2	0xb818e530	-3.645307e-05
3	0xbba18553	-0.0049292236
4	0xbb10bba4	-0.0022084499
5	0xbbdf4aea	-0.0068143504
6	0x3b209a9e	0.0024506222
7	0xbbd2f738	-0.006438162

local_block.conv_chan.conv.1.running_var f4 [8]
0	0x3b0e1e0e	0.0021685394
1	0x3b7e995d	0.0038848736
2	0x3b8f15ce	0.004366613
3	0x3bea0616	0.007141839
4	0x3baa1767	0.005190778
5	0x3b87b3e4	0.0041413177
6	0x3bc83329	0.0061096144
7	0x3b7368c6	0.0037141307

atten.conv.weight f4 [1, 1, 3]
0	0xbdbd3c56	-0.09240024
1	0x3c6502c6	0.013977712
2	0x3c3e0066	0.011596775

tcn.network.0.conv1.weight f4 [16, 16, 16]
0	0xbc90dcf7	-0.01768349
1	0xbc4700cf	-0.012146189
2	0xbc82991a	-0.015942145
3	0xbc84ad43	-0.016195899
4	0xbc9f9809	-0.019481676
5	0x3b8109f7	0.0039379555
6	0xbbcdbc1e	-0.006278529
7	0xbbe99eab	-0.0071295104
8	0xbc4cd9a4	-0.012503061
9	0xbc4c28ed	-0.012460929
10	0xbc71edfb	-0.014766212
11	0xbcac89da	-0.021061826
12	0xbba3053f	-0.0049749906
13	0xbc092081	-0.008369566
14	0xbaf34b7e	-0.0018561927
15	0xbc27a175	-0.010231365
16	0x3c06f334	0.008236695
17	0xbb83bb9d	-0.004020168
18	0x3beccfa7	0.0072269025
19	0xbbdd91ac	-0.00676175
20	0xbb74284f	-0.003725547
21	0xbbb43755	-0.00549976
22	0xbb811cf2	-0.003940218
23	0xbb55840b	-0.0032579924
24	0xbbe48883	-0.0069742813
25	0xbc804166	-0.015656184
26	0xbc3d3eb2	-0.011550592
27	0xbc8677cd	-0.016414547
28	0xbbd4a71b	-0.006489647
29	0xbca95e90	-0.020674974
30	0xbc7d97b5	-0.015478064
31	0xbcca335a	-0.02468269
32	0xbc684d2a	-0.014178554
33	0xbc1c5b80	-0.0095433
34	0x3ba963fc	0.00516939
35	0x3bc567f0	0.006024353
36	0xbc1265b9	-0.008935385
37	0xb9a40290	-0.00031282427
38	0xbc98dd0a	-0.018660087
39	0xbcb90d96	-0.022589486
40	0xbaddc0f4	-0.0016918466
41	0xbc1ac3ac	-0.009446066
42	0xbc2b6dae	-0.010463161
43	0x3ba667bc	0.005078284
44	0xbc17c0f2	-0.00926231
45	0x39ccff9a	0.0003910035
46	0xbc176bd5	-0.009242018
47	0x3b3f547c	0.0029194644
48	0xbb7c5ee1	-0.00385087
49	0xbc919ded	-0.0177755
50	0xbbfd71fa	-0.0077345343
51	0x3b123a2b	0.0022312503
52	0x3ba9429b	0.0051654107
53	0x3c07ab22	0.008280547
54	0xbc0c8216	-0.008575937
55	0x3bda94d8	0.0066705756
56	0x3b233dd5	0.002490868
57	0xbb62b467	-0.0034592391
58	0xbbd7778c	-0.0065755304
59	0x3c23ed9f	0.010005384
60	0x3c767953	0.015043574
61	0x3c69c9c5	0.014269297
62	0x3cca5641	0.024699332
63	0x3c8e1046	0.017341744
64	0x3c69c87f	0.014268993
65	0x3bbd672b	0.005780121
66	0xbb7b7548	-0.0038369466
67	0xbbbc8b23	-0.005753891
68	0xbc28e00d	-0.010307324
69	0x3c200ec9	0.00976915
70	0xbbf79495	-0.007555554
71	0xba85ffbe	-0.0010223312
72	0x3b862170	0.0040933415
73	0xbb3c966f	-0.002877619
74	0x3c9d243d	0.019182319
75	0x3cc7fd55	0.02441279
76	0x3c3763c9	0.011193224
77	0x3c34643b	0.011010225
78	0x3c04b153	0.008098918
79	0x3b4411c1	0.0029917809
80	0x3c151e23	0.009101423
81	0xbb97ccf8	-0.0046325885
82	0xbb9ceb79	-0.0047888127
83	0x3c1f4839	0.009721809
84	0x3b6311cd	0.0034648061
85	0x3c16d9cf	0.009207203
86	0xbb9942ca	-0.0046771513
87	0x3b8da5a4	0.0043227244
88	0x3bacc7d1	0.0052728434
89	0xbba1ccb1	-0.004937731
90	0xbac4219d	-0.0014963631
91	0x3b5aede2	0.003340595
92	0xbca310f8	-0.019905552
93	0x3bf5bac7	0.0074990722
94	0xbc1eabef	-0.009684547
95	0xbc626660	-0.013818353
96	0x3be7ac40	0.0070700943
97	0x3c3b9f82	0.011451604
98	0xbbbe0618	-0.0057990663
99	0xbba27575	-0.0049578496
100	0x3c66921f	0.014072924
101	0x3c15348c	0.009106766
102	0x3c5c3ba7	0.013441957
103	0x3c442ad1	0.011973099
104	0x3c5de4b4	0.013543297
105	0x3aab4658	0.0013067229
106	0xbb2cf61a	-0.0026391805
107	0x3b92ecbe	0.0044837883
108	0xbc02df36	-0.007987788
109	0xbb8b0501	-0.00424254
110	0x3abe8f38	0.0014538532
111	0xbad2247e	-0.0016032604
112	0xbc142d24	-0.0090439655
113	0xbcb4defe	-0.022078987
114	0xbb3b7268	-0.0028602127
115	0xbb9c383b	-0.0047674454
116	0x3c621e6e	0.0138012
117	0x3ca17bfc	0.01971244
118	0x3c0e7441	0.008694709
119	0x3c163f54	0.009170372
120	0x3c131358	0.00897678
121	0x3c3faf40	0.011699498
122	0x3c495769	0.012288907
123	0x3be2a730	0.006916903
124	0x3bb60cab	0.0055557094
125	0xbbf7a7a4	-0.007557826
126	0xbcc9273a	-0.024554837
127	0xbc40c258	-0.011765085
128	0x3af167f8	0.0018417826
129	0xbaf698cf	-0.0018813851
130	0x3bb0539e	0.0053810617
131	0x3b5543fc	0.0032541743
132	0x3abbb265	0.0014320133
133	0x3bcd51b3	0.006265843
134	0x3ca073d8	0.019586489
135	0x3c47eec1	0.012202919
136	0x3cb38fc3	0.021919137
137	0x3c6b612c	0.014366429
138	0x3c2bb4bc	0.010480102
139	0x3b9f9d1a	0.004871023
140	0xbc007573	-0.007840502
141	0xb94ecd78	-0.00019722234
142	0x3c262748	0.010141201
143	0x3b45c23f	0.0030175594
144	0xbac83b56	-0.0015276473
145	0x3bbc7be8	0.0057520755
146	0x3c8f66ff	0.017505167
147	0x3c2aa596	0.010415455
148	0x3c03096d	0.007997853
149	0xbb2d443b	-0.0026438374
150	0xbb904119	-0.0044022915
151	0xbc0e03c4	-0.00866789
152	0xbbed2e82	-0.00723821
153	0xba410a53	-0.0007363904
154	0x3bf192a4	0.0073722173
155	0x3c1b9fff	0.009498595
156	0x3c627106	0.013820892
157	0x3c84b3f6	0.016199093
158	0x3bcc1edf	0.006229266
159	0x3bb4c90b	0.0055171303
160	0xbc4bb189	-0.012432464
161	0xbc64b25d	-0.013958541
162	0xbc191ba6	-0.009344971
163	0xbb9f401b	-0.004859937
164	0x39d363d2	0.00040319428
165	0x38cdea4f	9.818805e-05
166	0x3c1e2c01	0.009654046
167	0x3c9e212f	0.019302933
168	0x3ba847ef	0.0051355283
169	0x3c179c41	0.009253562
170	0xbc6b897b	-0.01437604
171	0xbc0ef87d	-0.008726236
172	0xbc6fc397	-0.014634035
173	0xbc668a80	-0.014071107
174	0xbb31a870	-0.0027108453
175	0x3ae4ae0e	0.0017446892
176	0xbbd0454e	-0.006355918
177	0x3b008da6	0.001961568
178	0xbc3e7b59	-0.011626088
179	0x3b8ef8d7	0.00436316
180	0xbbd0e787	-0.0063752565
181	0x3c3724ed	0.011178237
182	0x3bfce1f5	0.007717366
183	0x3b94c1d7	0.004539709
184	0xbc11ecbb	-0.008906539
185	0x3c0aa578	0.008462302
186	0xbba508e3	-0.00503646
187	0xbbd3304e	-0.0064449674
188	0xbbd232ed	-0.006414762
189	0x3af231ed	0.0018478014
190	0x3bb88e39	0.0056321886
191	0x3c15c5ae	0.009141369
192	0xbc3bc467	-0.0114604
193	0x3a549d12	0.00081105635
194	0x3c59784f	0.013273313
195	0x3c70ab92	0.014689343
196	0xb961a367	-0.00021518544
197	0xbc2c4c58	-0.010516249
198	0xbc55dcf7	-0.01305317
199	0xbc3419d9	-0.010992491
200	0xbc1026f2	-0.008798348
201	0xbbd03fc4	-0.0063552577
202	0x3c101833	0.008794832
203	0xbc66ca99	-0.014086389
204	0xbc9f45af	-0.019442407
205	0xbccc8f4e	-0.024970677
206	0xbc575b12	-0.013144271
207	0xbca92eb9	-0.020652162
208	0xbbe11637	-0.0068691033
209	0xbc61e27a	-0.013786906
210	0x3a6435c2	0.00087055203
211	0x3c2113a0	0.009831339
212	0x3c6d9f6c	0.014503341
213	0x3bc72701	0.0060776477
214	0x3b9f061a	0.0048530223
215	0x3c894ea8	0.016761139
216	0x3c91b716	0.017787497
217	0x3c41fb15	0.011839648
218	0x3c378b09	0.011202582
219	0x3c72d9c2	0.014822425
220	0x3b6ec849	0.0036435297
221	0x3a7a955e	0.00095590006
222	0xbc874ede	-0.016517099
223	0xba24fb64	-0.00062935636
224	0xbbc2728d	-0.0059340657
225	0xbb89b0e6	-0.004201996
226	0xbb5b35ea	-0.0033448883
227	0xbbae04cd	-0.005310631
228	0x3a10327f	0.00055006886
229	0xbc03a4ea	-0.008034924
230	0x3c0813e2	0.008305522
231	0x394effd2	0.00019740991
232	0x3c96de51	0.018416556
233	0x3c12a73b	0.008951004
234	0x3b549555	0.0032437642
235	0xba3b4b17	-0.0007144673
236	0xbb250abd	-0.0025183402
237	0xbbfdcaab	-0.007745107
238	0xbc1da61a	-0.009622121
239	0xbb847b06	-0.004042986
240	0x3c4c1e3f	0.012458383
241	0x3ca939fa	0.020657528
242	0x3c095bdd	0.008383718
243	0x3c85d32d	0.016336048
244	0x3c3f025e	0.011658279
245	0x3b56de77	0.0032786408
246	0x3b9d265b	0.004795832
247	0xbbd6bd6f	-0.006553344
248	0xbc6a1fd5	-0.014289816
249	0xbc580c33	-0.013186502
250	0xba447366	-0.00074940023
251	0x3b83c1f9	0.004020926
252	0x3c402e1b	0.011729742
253	0x3ca6cbc0	0.020360827
254	0x3c3d274c	0.011545014
255	0x3ce71902	0.028210167

tcn.network.0.conv1.bias f4 [16]
0	0x34738c68	2.2682218e-07
1	0x34bb32d1	3.4868438e-07
2	0xb43731b4	-1.7061285e-07
3	0xb54151fb	-7.20174e-07
4	0xb429b2e8	-1.5804437e-07
5	0xb41bd0c2	-1.4511446e-07
6	0x331e117b	3.680314e-08
7	0xb4543e96	-1.9766807e-07
8	0xb385dd54	-6.2335545e-08
9	0x33b33915	8.34572e-08
10	0xb41498b2	-1.3839124e-07
11	0x34240a3e	1.5277416e-07
12	0xb3d41d2d	-9.877326e-08
13	0x34174bd7	1.4090561e-07
14	0xb44d44fd	-1.911721e-07
15	0xb4e4589c	-4.253278e-07

tcn.network.0.bn1.weight f4 [16]
0	0x3f180a0a	0.5939032
1	0x3f12a3f6	0.57281435
2	0x3f1ca809	0.611939
3	0x3f20e4d7	0.6284918
4	0x3f1d072b	0.6133906
5	0x3f1c4f91	0.6105891
6	0x3f1be86b	0.60901517
7	0x3f10a4a0	0.565012
8	0x3f10815f	0.56447405
9	0x3f0fd167	0.561789
10	0x3f1dc050	0.6162157
11	0x3f13fefc	0.5781095
12	0x3f159b27	0.5843987
13	0x3f208d02	0.6271516
14	0x3f1ad4b1	0.6048079
15	0x3f1424b2	0.5786849

tcn.network.0.bn1.bias f4 [16]
0	0x3d4127a2	0.047156937
1	0x3d816ff9	0.06320185
2	0x3c33be50	0.010970667
3	0x3d55929d	0.052141774
4	0x3b868aef	0.0041059176
5	0x3d16b43a	0.03679297
6	0xbc1a97eb	-0.009435634
7	0x3d2af411	0.041736666
8	0x3d9461fd	0.07245252
9	0x3d89c757	0.06727474
10	0x3ccf3efd	0.02529859
11	0x3d902429	0.07038147
12	0x3ce2a7c2	0.027667884
13	0x3ceb3f22	0.028716628
14	0x3c4a9f97	0.012367151
15	0x3d84d25a	0.06485434

tcn.network.0.bn1.running_mean f4 [16]
0	0xbc612c42	-0.013743462
1	0xbc387ac8	-0.011259742
2	0xbd1a1fb6	-0.0376279
3	0xbbca52ca	-0.00617442
4	0x3a338776	0.00068484934
5	0xbc2066ba	-0.009790117
6	0xbb968bd3	-0.004594305
7	0xbb91e6d2	-0.0044525648
8	0xbc5af9c6	-0.013365215
9	0xbb817308	-0.0039504804
10	0xbc89344b	-0.016748568
11	0xbbec8f23	-0.0072192117
12	0xbc79aa26	-0.01523832
13	0xbc4daab6	-0.012552908
14	0x397d961d	0.00024183882
15	0xbc2d33fa	-0.010571474

tcn.network.0.bn1.running_var f4 [16]
0	0x3c7d244f	0.015450551
1	0x3c42c11b	0.01188686
2	0x3c600546	0.013673132
3	0x3c84de0a	0.016219158
4	0x3c44b036	0.012004903
5	0x3c9102f7	0.017701609
6	0x3c83c01c	0.016082816
7	0x3c563d18	0.013076089
8	0x3c21ad3b	0.0098679615
9	0x3c235a93	0.009970325
10	0x3c7f935b	0.015599097
11	0x3c5ddeaf	0.013541861
12	0x3c44a588	0.012002356
13	0x3c4d4e93	0.012530941
14	0x3cb5be03	0.022185331
15	0x3c7caeb6	0.015422514

tcn.network.0.conv2.weight f4 [16, 16, 16]
0	0xbad562b6	-0.0016280029
1	0xbb909bcb	-0.004413103
2	0xbb2de106	-0.002653183
3	0xbbf197b2	-0.00737282
4	0xbbe06cd3	-0.0068489104
5	0xbc531294	-0.012882847
6	0xbc50423d	-0.012711105
7	0xbc64cd23	-0.013964924
8	0xbc233a35	-0.009962608
9	0xbc05be3e	-0.008163033
10	0xbb610949	-0.003433781
11	0xbbf6a7a5	-0.007527309
12	0xbb313300	-0.0027038455
13	0x3a48162b	0.0007632698
14	0x3ad7e215	0.0016470576
15	0x3bb1ee6c	0.0054300334
16	0xbc7ff67c	-0.015622731
17	0xbc21c09b	-0.009872581
18	0xbc1bfaab	-0.009520213
19	0xbc1224dc	-0.008919921
20	0xbb8f1a62	-0.0043671587
21	0xbbb5fcae	-0.0055538034
22	0xbc08f732	-0.008359717
23	0xbb1116c3	-0.0022138811
24	0xbb3a67f8	-0.0028443318
25	0xbc05e64c	-0.008172583
26	0xbc00a886	-0.007852679
27	0xbc1b3355	-0.009472688
28	0xbbe9a16f	-0.00712984
29	0xbbe19844	-0.0068846066
30	0xbc779800	-0.015111923
31	0xbc8d0700	-0.017215252
32	0x3bba5241	0.005686075
33	0x3c18a4d9	0.0093166465
34	0x3c1ab6cc	0.009442996
35	0x3c532b8f	0.012888803
36	0x3bbc5bc6	0.005748245
37	0x3c4eba8d	0.012617719
38	0x3c0a94f9	0.008458369
39	0x3b8733de	0.004126056
40	0x3bd1db5b	0.006404323
41	0xba9bb23b	-0.0011878678
42	0xbb2c0160	-0.0026245937
43	0xbb94125c	-0.00451879
44	0xbc032aff	-0.008005857
45	0xbc0bfd81	-0.008544327
46	0xbc202bc0	-0.009776056
47	0xbc64fe5f	-0.013976662
48	0x3bbca541	0.0057570045
49	0x3bdf60ab	0.0068169436
50	0x3b99b7ac	0.004691085
51	0x3ade8409	0.0016976605
52	0x3b9f6ffd	0.004865645
53	0x3b9a883f	0.004715949
54	0x3a8cfaab	0.0010755857
55	0xbada2889	-0.001664416
56	0xbc0f6033	-0.008750963
57	0xbc2025e7	-0.009774662
58	0xbbbba2e1	-0.005726204
59	0xbbd16afb	-0.006390927
60	0xbbdcf812	-0.0067434395
61	0xbab3e307	-0.0013724276
62	0x3ad65226	0.0016351386
63	0x3ba6557e	0.0050761094
64	0xbc2e0293	-0.010620731
65	0xbc49b071	-0.012310133
66	0xbc3fc8b4	-0.011705566
67	0xbbd28bf7	-0.0064253765
68	0xbc187b21	-0.0093067
69	0xbc207fc9	-0.009796091
70	0xbc4bad42	-0.012431445
71	0xbc3a6ce1	-0.011378498
72	0xbc888658	-0.016665623
73	0xbc604b48	-0.013689823
74	0xbc47fc23	-0.01220611
75	0xbc223b77	-0.009901873
76	0xbc491dfc	-0.012275215
77	0xbc88a6d5	-0.016681114
78	0xbc8246fd	-0.01590299
79	0xbc94384a	-0.018093247
80	0xbba8fc9a	-0.0051570656
81	0xbb583abb	-0.003299399
82	0xbabb267b	-0.0014278436
83	0xba314cdd	-0.00067634677
84	0xba97cb5e	-0.0011580994
85	0x3b219a66	0.002465868
86	0x3b9def19	0.0048197624
87	0x3b8955f0	0.0041911528
88	0x3c1d4d0e	0.009600891
89	0x3b210a9e	0.0024572979
90	0x3c17bd58	0.009261452
91	0xbadceabf	-0.0016854628
92	0xba61d0c1	-0.00086141756
93	0x3b606f09	0.003424587
94	0xbbf89300	-0.007585883
95	0xbbd20989	-0.006409828
96	0xb851c9fd	-5.00176e-05
97	0x3998f67b	0.00029175341
98	0x3b5da5c6	0.0033820732
99	0x38f1256e	0.00011498747
100	0x38c56d01	9.4139956e-05
101	0xb9bf403d	-0.0003647822
102	0xbb7d7529	-0.003867457
103	0xbb2887fe	-0.0025715823
104	0xbc13cfcd	-0.009021712
105	0xbac756d7	-0.0015208375
106	0xb9c38ac2	-0.0003729668
107	0xbb162868	-0.0022912268
108	0xbc002217	-0.007820628
109	0xbbaf8d90	-0.0053574517
110	0xbc344e5b	-0.0110050095
111	0xbc516e55	-0.012782653
112	0xbb1dcb4d	-0.0024077476
113	0xbacf8d18	-0.0015834896
114	0xbb34bca7	-0.0027578266
115	0xbbc6f9d6	-0.0060722632
116	0xbb210abe	-0.0024573053
117	0xbbf1a42d	-0.0073743076
118	0xbc1646ee	-0.009172184
119	0xbc49d01f	-0.012317686
120	0xbbf734f5	-0.0075441548
121	0xbc103c95	-0.008803506
122	0x3bb1d7e5	0.005427348
123	0x3b75d006	0.0037508025
124	0x3c3d41d4	0.011551339
125	0x3c637a50	0.013884142
126	0x3c38e826	0.011285817
127	0x3c668c1d	0.014071492
128	0xbbeb3722	-0.007178203
129	0xbc04f15f	-0.008114188
130	0xbc5bc070	-0.01341258
131	0xbc0310c1	-0.0079996
132	0xbc1963f1	-0.009362207
133	0xba183582	-0.0005806313
134	0x3b2ba12a	0.002618859
135	0x3a469ce8	0.00075764814
136	0x3c2163bc	0.009850439
137	0x3c4a003e	0.012329159
138	0x3c2bc5a2	0.010484131
139	0x3c2af5bb	0.010434563
140	0x3c383edd	0.0112454565
141	0x3a5ce806	0.0008426908
142	0xbb77b7da	-0.0037798793
143	0xbbeac256	-0.00716428
144	0x3cff2213	0.031144178
145	0x3ca009f5	0.019535998
146	0x3b5444a1	0.0032389539
147	0x3bd301ab	0.006439408
148	0xbb1d0272	-0.0023957756
149	0xbba6ead7	-0.005093913
150	0xbb945a1c	-0.0045273434
151	0xbbff0c26	-0.0077834306
152	0xbbb232b8	-0.005438175
153	0xbc1eae37	-0.009685091
154	0xbbba8230	-0.005691789
155	0xbba91177	-0.0051595527
156	0x3bf04340	0.0073322356
157	0x3c359076	0.011081805
158	0x3c86f915	0.016476193
159	0x3c692e38	0.014232211
160	0x3ca28834	0.019840337
161	0x3c1b1e8a	0.00946773
162	0xba01e5c6	-0.00049551984
163	0x3b2375c7	0.0024942027
164	0xbba74972	-0.005105191
165	0xbaa61ca5	-0.0012673332
166	0xbba5d51d	-0.0050608055
167	0xbc122cd0	-0.008921817
168	0xbbd0d306	-0.006372812
169	0xbc027842	-0.007963242
170	0x3b1172d7	0.0022193694
171	0xb9625d77	-0.00021587858
172	0x3c737272	0.014858829
173	0x3c9946c4	0.018710501
174	0x3cb17a63	0.021664804
175	0x3cc03a2f	0.023465244
176	0x3befb333	0.0073150634
177	0x3bf2bb8d	0.0074076117
178	0x3aec0cd8	0.0018009199
179	0x3b53ac00	0.0032298565
180	0x3b4fdbc5	0.0031716686
181	0xb9089cd9	-0.00013028401
182	0xbaefc242	-0.0018292146
183	0x3c5f0f32	0.013614463
184	0x3c1a814d	0.009430242
185	0x3c3eb56e	0.011639936
186	0x3c4bfac3	0.012449923
187	0x3c0378cd	0.008024407
188	0x3bc37724	0.0059651304
189	0x3ba033ae	0.004888973
190	0x39792f76	0.00023764171
191	0xbb90918b	-0.0044118813
192	0xbb68d57a	-0.0035527633
193	0xbb2db25c	-0.0026504016
194	0x3a2e283d	0.0006643569
195	0x3afb4cce	0.001917267
196	0x39a3e6bf	0.00031261702
197	0x3982d92c	0.00024957338
198	0xba0bef17	-0.00053380564
199	0x3b3946eb	0.002827103
200	0xbb8198ee	-0.003954998
201	0x3b96b615	0.0045993426
202	0x3c2a058d	0.0103773
203	0x3c36909b	0.011142875
204	0x3c05be71	0.008163081
205	0x3bdef209	0.006803755
206	0x3b36e521	0.0027907568
207	0x3ace8f5f	0.0015759281
208	0xbba1e222	-0.004940287
209	0xbb9fd283	-0.00487739
210	0xba12c7db	-0.0005599239
211	0xba9ee4be	-0.0012122614
212	0xbb0239d8	-0.0019870903
213	0xbb9e0c98	-0.0048232786
214	0x394a004d	0.00019264333
215	0xbb864aa5	-0.004098254
216	0xbaa771e4	-0.0012775031
217	0x3aae78a1	0.0013311097
218	0x3b71c771	0.0036892558
219	0x399ecc51	0.00030288336
220	0xbaa8cbcb	-0.0012878118
221	0xbb80783f	-0.0039205845
222	0xbba0eb92	-0.0049108947
223	0xbc192a5d	-0.009348479
224	0xbbc2cf47	-0.0059451195
225	0xbbc9c723	-0.006157772
226	0xbb50793f	-0.003181055
227	0xbba07287	-0.004896465
228	0xbac6c5a4	-0.0015165103
229	0x3ab30474	0.0013657943
230	0xbb2d06da	-0.002640179
231	0x3ae6a59f	0.0017596966
232	0xbb8d9993	-0.004321286
233	0xbaa5e551	-0.0012656843
234	0x3bdf4356	0.006813447
235	0xbb3d4a68	-0.002888346
236	0xbb20ae37	-0.0024517903
237	0xbb3e8c12	-0.0029075188
238	0xbaee7a5c	-0.0018194425
239	0xbb5b3b02	-0.003345192
240	0xbaf7e9c0	-0.0018914267
241	0xbae6e807	-0.0017616757
242	0xbba3ef8b	-0.005002921
243	0xbc33d68b	-0.010976444
244	0xbbe60b36	-0.0070203794
245	0xbc0fe3ec	-0.008782368
246	0xbc41cd29	-0.011828699
247	0xbc44b366	-0.012005663
248	0xbc2f8419	-0.010712647
249	0xbad33e02	-0.0016116502
250	0x3ac1c094	0.0014782124
251	0x3b939fb9	0.0045051244
252	0xbae4d227	-0.001745765
253	0xbaa5eebd	-0.001265965
254	0xbb5a8ff6	-0.0033349968
255	0xbbfb0c94	-0.0076614115

tcn.network.0.conv2.bias f4 [16]
0	0x325337b7	1.22944845e-08
1	0xb2fbcfa3	-2.9314668e-08
2	0x335be55f	5.1198523e-08
3	0xb36ea657	-5.556498e-08
4	0x33d464eb	9.890376e-08
5	0xb2965913	-1.7502805e-08
6	0x326da8ee	1.3833626e-08
7	0x32bdc1ce	2.2090628e-08
8	0xb329db42	-3.9547793e-08
9	0xb18848d0	-3.9663988e-09
10	0xb2ac4c53	-2.0058144e-08
11	0xb2d52dc3	-2.4817274e-08
12	0xb3999f42	-7.1535865e-08
13	0x344f4631	1.9303913e-07
14	0x3310d981	3.372543e-08
15	0xb27b72fe	-1.4636269e-08

tcn.network.0.bn2.weight f4 [16]
0	0x3f800000	1.0
1	0x3f800000	1.0
2	0x3f800000	1.0
3	0x3f800000	1.0
4	0x3f800000	1.0
5	0x3f800000	1.0
6	0x3f800000	1.0
7	0x3f800000	1.0
8	0x3f800000	1.0
9	0x3f800000	1.0
10	0x3f800000	1.0
11	0x3f800000	1.0
12	0x3f800000	1.0
13	0x3f800000	1.0
14	0x3f800000	1.0
15	0x3f800000	1.0

tcn.network.0.bn2.bias f4 [16]
0	0x00000000	0.0
1	0x00000000	0.0
2	0x00000000	0.0
3	0x00000000	0.0
4	0x00000000	0.0
5	0x00000000	0.0
6	0x00000000	0.0
7	0x00000000	0.0
8	0x00000000	0.0
9	0x00000000	0.0
10	0x00000000	0.0
11	0x00000000	0.0
12	0x00000000	0.0
13	0x00000000	0.0
14	0x00000000	0.0
15	0x00000000	0.0

tcn.network.0.bn2.running_mean f4 [16]
0	0x00000000	0.0
1	0x00000000	0.0
2	0x00000000	0.0
3	0x00000000	0.0
4	0x00000000	0.0
5	0x00000000	0.0
6	0x00000000	0.0
7	0x00000000	0.0
8	0x00000000	0.0
9	0x00000000	0.0
10	0x00000000	0.0
11	0x00000000	0.0
12	0x00000000	0.0
13	0x00000000	0.0
14	0x00000000	0.0
15	0x00000000	0.0

tcn.network.0.bn2.running_var f4 [16]
0	0x3f800000	1.0
1	0x3f800000	1.0
2	0x3f800000	1.0
3	0x3f800000	1.0
4	0x3f800000	1.0
5	0x3f800000	1.0
6	0x3f800000	1.0
7	0x3f800000	1.0
8	0x3f800000	1.0
9	0x3f800000	1.0
10	0x3f800000	1.0
11	0x3f800000	1.0
12	0x3f800000	1.0
13	0x3f800000	1.0
14	0x3f800000	1.0
15	0x3f800000	1.0
