model/Benchmark/DATCN_1s_S32.pth (torch, 182388 bytes, 75 tensors)

global_block.conv_time.conv.0.weight f4 [8, 1, 1, 125]
-0.019711202 -0.0027908864 7.8154684e-05 0.0036051774 -0.0036304635 0.024614744 -0.0066777063 -0.00152267
0.0031387366 0.0009784965 0.006687452 -0.0008524592 0.003967208 0.0044252835 -0.00677419 0.001188884
-0.009022166 -0.0006977166 -0.015363989 -0.005343722 -0.0066006817 -0.008064128 -0.007398465 -0.0027556412
0.0076355073 0.007290418 0.0050578467 0.0043359725 0.011317863 5.10018e-05 0.013041076 0.0008075775
0.0052735372 -0.01349599 -0.004503496 0.0013441353 0.0059361695 0.0019548084 0.017702911 -0.0033182336
0.010430842 -0.004339441 -0.0012454354 0.0016265393 -0.0148351 -0.0114101125 -0.014575301 -0.024776896
0.0053568953 0.0032282937 0.002666856 0.0101995375 0.011347075 0.015256691 0.019944208 0.00771496
-0.014658888 0.007398855 0.006384868 0.002656388 -0.00019190079 0.01440685 0.0037242116 -0.01231274
-0.0062805577 -0.0102593 -0.0048820362 -0.011487068 -0.0078920005 -0.0073006274 -0.009169104 -0.0063547967
-0.03949061 0.010470616 0.010971355 0.0015486332 0.012460387 0.04988357 0.09370722 0.009071738
-0.0030633858 0.007323145 -0.034722287 -0.023929248 -0.0768739 -0.0012152407 0.0020644632 -0.020358078
-0.01919419 -0.013525454 -0.014458629 -0.007215757 -0.029410506 -0.0040079774 0.01340725 -0.0035472957
-4.042058e-05 -9.92101e-05 -0.00391539 -0.003970033 0.002314298 0.008162879 0.0027494885 -0.0010013618
0.033316076 0.054078672 0.0062117316 -0.010603164 -0.022962544 -0.023853455 -0.0040991814 -0.008641692
-0.010168864 -0.011563689 0.0072539775 0.01861532 -0.0036736636 -0.0013928773 0.009655579 0.010209008
-0.014355535 0.012010021 0.019779509 -0.015254935 0.009984447 0.0034475427 -0.007082061 -0.0078084865
0.019833602 -0.014027777 -0.00067820406 -0.01173458 -0.01124017 -0.019252144 -0.008935872 0.0041957907
0.0047145225 0.00041957077 0.01645682 0.01972341 -0.03078678 0.011949821 -0.022452472 -0.024570465
0.004488294 -0.027089361 0.0051442035 0.04449479 0.014640947 -4.1286974e-05 -0.0040811948 0.0015247567
-0.007450841 0.0024244413 -0.016021552 -0.005816716 -0.010779766 -0.017929487 -0.0062911017 -0.000918633
0.012984446 0.012671848 0.017696867 0.016168483 -0.00010297354 -0.008171343 -0.0017074639 -0.0044514225
0.020083625 0.0066414196 -0.0038448405 -0.015511618 0.004231255 0.0012615467 0.005728121 0.03482223
-0.0012491192 -0.003003448 -0.010369973 0.006638606 -0.015910132 0.02684376 0.0037469382 0.010415171
-0.0056256372 0.005631439 0.0064148693 -0.024064172 0.012509079 -0.027059937 -0.0057228203 -0.016130786
0.011399031 0.011362138 0.023690408 0.013117844 -0.0024497765 -0.0014683583 0.006549886 0.03018262
0.007642359 0.013701122 -0.0067809913 0.013446359 0.043715917 0.016461942 0.004126289 -0.00631788
-0.03508792 0.0035243663 0.0046484508 -0.0023731408 -0.00018447555 -0.004518976 -0.06303062 -0.038422517
-0.02237268 -0.012177643 -0.01440606 0.0068943356 0.0039811707 0.0011279489 0.007214961 0.00927135
-0.014569202 0.024100315 0.011796567 0.024863008 -0.034709975 -0.029183293 0.008595148 -0.0063549494
0.000587227 0.017723244 0.013047027 -0.0023059123 0.0375731 0.007202299 0.015749184 -0.01496609
-0.022395587 -0.010580578 -0.003461626 -0.023968436 -0.001701283 -0.042439964 -0.028105523 -0.0028812198
0.0016709458 -0.016121943 0.013353482 -0.0046627508 0.008882747 0.011347003 -0.014029104 -0.0037487939
00000000: 6379 a1bc 4ee7 36bb fae6 a338 d744 6c3b
00000010: 12ed 6dbb dca4 c93c a9d0 dabb 5494 c7ba
00000020: 43b3 4d3b e540 803a 6a22 db3b 9277 5fba
00000030: 5aff 813b f801 913b 06fa ddbb 54d4 9b3a
00000040: b5d1 13bc f8e6 36ba 3eb9 7bbc 641a afbb
00000050: 884a d8bb 681f 04bc d36e f2bb fd97 34bb
00000060: 4733 fa3b 75e4 ee3b 4bbc a53b c614 8e3b
00000070: 8f6e 393c c4ea 5538 3daa 553c 9cb3 533a
00000080: a3cd ac3b 491e 5dbc 1092 93bb b22d b03a
00000090: 3384 c23b 3e1c 003b b205 913c b976 59bb
000000a0: 1fe6 2a3c df31 8ebb e13d a3ba 9a31 d53a
000000b0: eb0e 73bc 7bf1 3abc 3ecd 6ebc ebf8 cabc
000000c0: e588 af3b c891 533b 6bc6 2e3b f61b 273c
000000d0: 15e9 393c 33f7 793c 0962 a33c c6cd fc3b
000000e0: d52b 70bc 1872 f23b 2838 d13b cc16 2e3b
000000f0: fa38 49b9 b50a 6c3c e711 743b 60bb 49bc
00000100: 23cd cdbb 9f16 28bc 7df9 9fbb 4134 3cbc
00000110: 734d 01bc 1a3a efbb 023a 16bc e63b d0bb
00000120: e8c0 21bd f28c 2b3c 33c1 333c 82fb ca3a
00000130: a726 4c3c b752 4c3d 92e9 bf3d a1a1 143c
00000140: 16c3 48bb fef6 ef3b f538 0ebd 4507 c4bc
00000150: 1070 9dbd b648 9fba f24b 073b fcc5 a6bc
00000160: 223d 9dbc de99 5dbc e3e3 6cbc 2872 ecbb
00000170: 4dee f0bc 5a55 83bb 15aa 5b3c bf79 68bb
00000180: 4489 29b8 040f d0b8 ac4c 80bb 0d17 82bb
00000190: 7aab 173b 99bd 053c c330 343b 2040 83ba
000001a0: 7076 083d 9981 5d3d c88b cb3b e5b8 2dbc
000001b0: f21b bcbc 5268 c3bc 6d52 86bb e295 0dbc
000001c0: 4f9b 26bc a175 3dbc c6b2 ed3b 287f 983c
000001d0: d9c1 70bb 3591 b6ba 6f32 1e3c af43 273c
000001e0: 7a33 6bbc aec5 443c a308 a23c d6ef 79bc
000001f0: ce95 233c 2bf0 613b a210 e8bb 55de ffbb
00000200: 147a a23c c3d4 65bc 81c9 31ba 6542 40bc
00000210: b128 38bc acb6 9dbc c467 12bc d87c 893b
00000220: 487c 9a3b d6f9 db39 74d0 863c fd92 a13c
00000230: 8f34 fcbc 2fc9 433c 3fee b7bc 0048 c9bc
00000240: 8a12 933b 82ea ddbc b590 a83b 2b40 363d
00000250: 95e0 6f3c 8d2b 2db8 8bbb 85bb 58da c73a
00000260: 2f26 f4bb 60e3 1e3b a13f 83bc 269a bebb
00000270: 9e9d 30bc dce0 92bc 9625 cebb 6bd0 70ba
00000280: b7bc 543c 959d 4f3c 05f9 903c c473 843c
00000290: 80f3 d7b8 19e1 05bc fbcc dfba 3ddd 91bb
000002a0: 6a86 a43c 44a0 d93b b8f9 7bbb 7124 7ebc
000002b0: 57a6 8a3b 7c5a a53a f6b2 bb3b c1a1 0e3d
000002c0: 7cb9 a3ba 7fd5 44bb d2e6 29bc aa88 d93b
000002d0: f755 82bc 72e7 db3c 318f 753b 65a4 2a3c
000002e0: 4457 b8bb ef87 b83b d333 d23b 3a22 c5bc
000002f0: e1f2 4c3c cdac ddbc 7f86 bbbb b624 84bc
00000300: 00c3 3a3c 4328 3a3c 6312 c23c 3aec 563c
00000310: 6e8c 20bb ee75 c0ba 6da0 d63b 8b41 f73c
00000320: c16c fa3b ac7a 603c 1433 debb 1e4e 5c3c
00000330: 760f 333d 32db 863c d235 873b 3806 cfbb
00000340: 5ab8 0fbd 0ef9 663b 0852 983b b286 1bbb
00000350: c76f 41b9 eb13 94bb 3316 81bd ee60 1dbd
00000360: e946 b7bc bd84 47bc 6507 6cbc e1e9 e13b
00000370: 7b74 823b afd7 933a 7b6b ec3b dce6 173c
00000380: aab3 6ebc 066e c53c 6346 413c 82ad cb3c
00000390: 0c2c 0ebd cd11 efbc aad2 0c3c 2e3d d0bb
000003a0: 23f0 193a 5630 913c 33c3 553c ca1e 17bb
000003b0: 40e6 193d 4301 ec3b 6f04 813c 5534 75bc
000003c0: f376 b7bc 295a 2dbc 72dc 62bb 7459 c4bc
000003d0: 96fd deba 87d5 2dbd 8e3d e6bc d9d2 3cbb
000003e0: a303 db3a 2a12 84bc 90c8 5a3c fdc9 98bb
000003f0: f188 113c c8e8 393c 54da 65bc 53ae 75bb

global_block.conv_time.conv.0.bias f4 [8]
-3.5150122e-10 0.015138337 0.0020431858 0.009466997 -0.015432063 -0.021078525 -7.911765e-09 0.00014385895
00000000: 663d c1af ca06 783c f8e6 053b 771b 1b3c
00000010: c3d6 7cbc dfac acbc 4fec 07b2 d8d8 1639

global_block.conv_time.conv.1.weight f4 [8]
0.780338 0.98710525 0.8443122 0.84745497 0.9014512 1.0054555 0.8524113 0.9243118
00000000: 3bc4 473f eeb2 7c3f d824 583f cff2 583f
00000010: 81c5 663f c4b2 803f a137 5a3f b39f 6c3f

global_block.conv_time.conv.1.bias f4 [8]
-0.0288057 0.0026015907 0.0020644052 -0.022451993 0.021835657 -0.0146573065 -0.0010965341 0.0039777067
00000000: eef9 ebbc 737f 2a3b f94a 073b 3eed b7bc
00000010: b1e0 b23c 3325 70bc 94b9 8fba 6c57 823b

global_block.conv_time.conv.1.running_mean f4 [8]
0.012383263 0.031731404 0.0062469803 0.0040598367 -0.021022413 -0.019474033 -0.00042448696 0.0133198965
00000000: 2be3 4a3c caf8 013d 78b3 cc3b 6108 853b
00000010: 3237 acbc 0288 9fbc ad8d deb9 b23b 5a3c

global_block.conv_time.conv.1.running_var f4 [8]
2.664398 1.9121981 2.3071806 1.6911541 2.6232648 2.8349233 2.6929126 5.2520027
00000000: 7f85 2a40 e8c2 f43f d9a8 1340 bd77 d83f
00000010: 92e3 2740 626f 3540 ae58 2c40 6810 a840

global_block.conv_chan.conv.0.weight f4 [8, 8, 11, 1]
-0.023795731 0.0012766412 -0.00037871682 -0.017643983 0.003964411 0.0015623335 0.008662106 -0.0026701204
-0.0012591528 -0.021187682 0.0066760024 0.06376832 -0.022394136 -0.0029440036 0.019175781 0.0052776085
-0.0076163365 -0.00042864666 -0.024774209 0.019345507 -0.010985709 0.009389157 -0.023312354 0.045694068
0.040869698 -0.063439004 0.003418702 -0.0044750227 0.021943789 0.01350184 -0.01804518 -0.011493948
-0.010438122 0.059549686 -0.015650436 -0.018278819 0.003656828 0.0032261629 -0.0010327683 -5.4291104e-05
-0.019821515 0.0036018924 0.00881249 0.014265454 0.014049379 0.034169797 -0.020823518 0.00032828748
0.00014257169 0.012717932 0.041230015 0.0075434432 0.011824509 -0.009242417 -0.044935495 -0.0014372584
0.019558763 0.031094879 -0.0134844035 -0.03845194 0.07055784 0.011600468 0.026714668 -0.018708609
-0.0031026248 -0.031208642 0.012056028 0.021664614 0.011045388 -0.013993102 -0.014462014 -0.02529622
0.005381041 0.044152975 0.011849315 0.014456468 -0.018121239 -0.0294007 -0.028293189 -0.016768271
0.002911985 -0.011024006 0.03620618 0.021292614 -0.0148809645 0.0024279598 -0.0103608025 0.0019978164
0.04303711 -0.027573379 -0.026946282 -0.0012793553 0.008922483 -0.013393841 0.011376352 -0.038520467
0.04525326 0.034614783 -0.027335111 0.026319988 -0.021333447 0.013081822 -0.0061851013 0.023001695
-0.032161586 -0.031508982 0.03265055 0.043047797 -0.0014182603 -0.018131945 0.015581447 -0.11488254
-0.020470615 0.007653927 0.030365936 0.031556454 -0.03936435 -0.0041667544 -0.01965616 0.03335761
0.04997525 0.019696604 0.0494981 0.005686266 -0.023145508 -0.021027628 -0.061116397 -0.0056229923
0.07613687 0.020276759 -0.031818762 -0.059586663 0.046222575 0.051692873 -0.017119236 -0.03162271
-0.0027830144 -0.045306258 0.04667403 0.054456577 0.030495944 -0.022952944 -0.031243281 -0.016204728
0.05884334 0.0031157194 0.040397123 -0.06431576 -0.00044832987 0.059302952 -0.019589746 -0.028374827
-0.031690072 0.024465475 -0.05480672 -0.06398728 -0.0105242 0.08427734 0.027060933 -0.0125446385
-0.007941722 0.014126062 0.0024846576 -0.010396009 0.034619313 0.03523983 0.055656154 0.009751096
-0.049158093 -0.07787039 0.012327167 -0.0039603356 0.03787833 -0.0126380725 -0.027971508 -0.034056943
-0.055645213 -0.033836685 -0.028869592 0.037667226 0.05163473 0.0037615418 -0.0639161 0.013488127
0.01714785 0.018326296 0.01248423 -0.04782612 -0.06671673 -0.023280693 0.008998553 0.061457675
0.0002854047 0.002553562 0.05231293 0.044796616 -0.0040866686 0.024199393 0.04605206 0.073445834
-0.048317604 0.0027576168 -0.046397403 -0.06123857 0.013200282 0.023651063 0.00914247 -0.012434769
0.008970012 -0.012308116 -0.026479458 -0.014575144 -0.0010111697 -0.0002557367 -0.0090945335 0.0037916142
0.04874276 0.023910929 0.003039027 -0.027633583 0.008304001 -0.049159836 0.027924273 -0.0041195797
0.0063875383 0.02954947 -0.046299335 0.035099506 0.0036492166 -0.012551762 0.0004010808 0.0070603136
0.028656503 -0.004904835 0.01625024 -0.013638635 0.010677032 -0.081431724 -0.0067076623 -0.027842406
0.02788815 0.0014403625 -0.021597696 0.055137053 -0.0611873 -0.01803442 -0.03268793 -0.0021183018
0.052448526 -0.036510263 0.029533364 0.017317371 -0.016317362 -0.04969766 -0.010608073 -0.011727276
00000000: 44ef c2bc f854 a73a 838e c6b9 1d8a 90bc
00000010: e4e7 813b 37c7 cc3a 81eb 0d3c 30fd 2ebb
00000020: 280a a5ba ca91 adbc 5ec2 da3b f798 823d
00000030: e873 b7bc 2ff0 40bb 8716 9d3c caef ac3b
00000040: 7692 f9bb fbbb e0b9 48f3 cabc 787a 9e3c
00000050: 67fd 33bc fbd4 193c 8df9 bebc b429 3b3d
00000060: fc66 273d 4fec 81bd 4d0c 603b 36a3 92bb
00000070: 76c3 b33c d236 5d3c 7cd3 93bc 1d51 3cbc
00000080: a804 2bbc 5fea 733d 5835 80bc 76bd 95bc
00000090: 65a7 6f3b 086e 533b f45d 87ba a1b6 63b8
000000a0: bb60 a2bc ba0d 6c3b 4362 103c a7b9 693c
000000b0: 5e2f 663c a1f5 0b3d 1596 aabc 001e ac39
000000c0: 4c7f 1539 e05e 503c cee0 283d fd2e f73b
000000d0: 96bb 413c 826d 17bc 480e 38bd 6462 bcba
000000e0: b339 a03c b0ba fe3c b0ed 5cbc c87f 1dbd
000000f0: a180 903d e40f 3e3c b8d8 da3c cc42 99bc
00000100: 6855 4bbb 44a9 ffbc a586 453c fd79 b13c
00000110: b7f7 343c 5343 65bc 15f2 6cbc 053a cfbc
00000120: 7253 b03b c0d9 343d a123 423c d2da 6c3c
00000130: fe72 94bc bdd9 f0bc 1ec7 e7bc 9d5d 89bc
00000140: 00d7 3e3b 089e 34bc ee4c 143d d96d ae3c
00000150: 4acf 73bc 681e 1f3b 5bc0 29bc cced 023b
00000160: ae47 303d 91e1 e1bc 73be dcbc 0ab0 a7ba
00000170: 9b2f 123c d771 5bbc e163 3a3c a3c7 1dbd
00000180: 7b5b 393d 3bc8 0d3d e2ed dfbc 049d d73c
00000190: 7bc3 aebc 2355 563c 64ac cabb 0d6e bc3c
000001a0: debb 03bd 900f 01bd 95bc 053d e352 303d
000001b0: ebe4 b9ba 7289 94bc 5349 7f3c 8a47 ebbd
000001c0: feb1 a7bc cbcd fa3b fcc1 f83c 5741 013d
000001d0: 833c 21bd 4589 88bb f505 a1bc fda1 083d
000001e0: d9b2 4c3d c65a a13c 85be 4a3d db53 ba3b
000001f0: a69b bdbc 2242 acbc 3055 7abd 1441 b8bb
00000200: a6ed 9b3d 721b a63c 6454 02bd 2511 74bd
00000210: e253 3d3d e8bb 533d a43d 8cbc d186 01bd
00000220: 3c63 36bb 0e93 39bd 452d 3f3d dc0d 5f3d
00000230: a1d2 f93c d007 bcbc e9f1 ffbc c7bf 84bc
00000240: b705 713d 1931 4c3b 7477 253d fbb7 83bd
00000250: d10d ebb9 a7e7 723d ad7a a0bc 5372 e8bc
00000260: 73cd 01bd d26b c83c 037d 60bd c30b 83bd
00000270: b26d 2cbc 9999 ac3d e4ae dd3c 0788 4dbc
00000280: ff1d 02bc 0071 673c a3d5 223b 0654 2abc
00000290: fbcc 0d3d a457 103d b5f7 633d 10c3 1f3c
000002a0: ff59 49bd 837a 9fbd e3f7 493c b4c5 81bb
000002b0: 4f26 1b3d eb0f 4fbc 8124 e5bc 4b7f 0bbd
000002c0: 3cec 63bd 5698 0abd ec7f ecbc f348 1a3d
000002d0: f07e 533d 3384 763b 72e6 82bd 4efd 5c3c
000002e0: a679 8c3c 0721 963c a88a 4c3c 52e5 43bd
000002f0: c8a2 88bd 27b7 bebc ab6e 133c 0bbb 7b3d
00000300: 5fa2 9539 a959 273b 1546 563d a87c 373d
00000310: 76e9 85bb ce3d c63c 16a1 3c3d c56a 963d
00000320: aee8 45bd 22b9 343b 340b 3ebd 4bd5 7abd
00000330: ff45 583c e0bf c13c 4cca 153c 34bb 4bbc
00000340: f5f6 123c fba7 49bc 73eb d8bc 96cc 6ebc
00000350: 3a89 84ba 6614 86b9 3d01 15bc bb7c 783b
00000360: 7da6 473d dae0 c33c 6a2a 473b d35f e2bc
00000370: 810d 083c d35b 49bd 72c1 e43c 8afd 86bb
00000380: 8e4e d13b bb11 f23c 5fa4 3dbd 80c4 0f3d
00000390: b227 6f3b e8a5 4dbc 2748 d239 345a e73b
000003a0: 0bc1 ea3c bdb8 a0bb 391f 853c 9574 5fbc
000003b0: b8ee 2e3c adc5 a6bd f3cb dbbb c215 e4bc
000003c0: b175 e43c 8cca bc3a a7ed b0bc 64d7 613d
000003d0: 899f 7abd ecbc 93bc c7e3 05bd 35d3 0abb
000003e0: 44d4 563d c98b 15bd f4ef f13c 29dd 8d3c
000003f0: fdab 85bc c68f 4bbd 7ccd 2dbc c323 40bc

global_block.conv_chan.conv.0.bias f4 [8]
-2.7526337e-09 0.008422166 -8.47604e-05 -0.0046355943 0.043571655 -0.03275451 -3.2420524e-09 0.000108689776
00000000: d828 3db1 20fd 093c 65c1 b1b8 2fe6 97bb
00000010: 3178 323d 9829 06bd caca 5eb1 61f0 e338

global_block.conv_chan.conv.1.weight f4 [8]
0.8123546 1.0038034 0.84832335 0.8893286 0.93136454 0.91558415 0.8537962 0.9562695
00000000: 79f6 4f3f a17c 803f b82b 593f 0aab 633f
00000010: e86d 6e3f b963 6a3f 6392 5a3f 14ce 743f

global_block.conv_chan.conv.1.bias f4 [8]
-0.12155174 0.0078046443 -0.07440541 -0.044763386 -0.004034536 -0.06458139 -0.045894865 -0.0595839
00000000: 1ef0 f8bd 1abe ff3b dd61 98bd d059 37bd
00000010: 2434 84bb 3f43 84bd 41fc 3bbd 3f0e 74bd

global_block.conv_chan.conv.1.running_mean f4 [8]
0.039028894 0.01794516 -0.030911561 -0.025223786 0.08909546 -0.01119465 0.00998868 0.03883657
00000000: c3dc 1f3d ba01 933c 3e3a fdbc 1da2 cebc
00000010: ae77 b63d c469 37bc 8fa7 233c 1813 1f3d

global_block.conv_chan.conv.1.running_var f4 [8]
0.017715707 0.033784185 0.01930954 0.03677386 0.029644348 0.02550985 0.018126292 0.025178948
00000000: 8820 913c 4961 0a3d 0a2f 9e3c 30a0 163d
00000010: b4d8 f23c 08fa d03c 977d 943c 1544 ce3c

local_block.conv_time.conv.0.weight f4 [8, 1, 1, 51]
-0.0128778005 0.0121258255 0.00069031183 0.003706223 0.009981858 -0.03370172 0.025286227 -0.02378734
0.040552806 0.017005598 0.004959805 0.034799285 0.09183705 -0.03696106 -0.01670529 -0.07154467
-0.018959101 0.11597962 0.13742799 0.055834062 -0.04154569 -0.014786599 -0.030516567 -0.028159883
-0.022650696 -0.006355214 -0.047076814 -0.046086572 -0.0025862784 0.040879358 -0.003547508 0.016122077
0.02122244 -0.012468655 0.09407475 0.10178195 0.028631477 -0.107694 -0.022374922 0.009131542
0.020811895 -0.067340426 0.021530254 0.03218864 0.020129187 -0.018450398 -0.00020343142 -0.029481314
-0.021095531 0.038966794 -0.02750124 0.016047072 -0.011139929 -0.0058195684 -0.011164252 -0.0014092858
-0.019343067 -0.012941188 0.016022474 -0.045828633 0.0331708 -0.062319133 0.04454222 0.05680085
0.029376894 0.019643795 0.007381115 0.020137658 0.004413564 0.00294885 -0.003581705 -0.013770918
0.033288755 -0.058545936 -0.024456555 0.034578197 -0.023360293 -0.028062813 -0.0026436038 0.04456586
0.017928604 -0.011855791 0.03223554 0.010055714 0.017657004 0.044947498 -0.012164386 0.0016957619
0.0007305164 0.053388275 0.058605514 0.009736869 0.00012672307 -0.064144194 -0.037327804 -0.0027076504
0.070189856 -0.012835898 -0.0038254743 -0.026390621 0.0053985356 -0.04043874 -0.013144537 -0.036422107
0.053247303 -0.026423829 -0.016955908 0.0328738 0.026308876 0.02408646 0.078436434 -0.0062244018
0.0444677 -0.006347312 -0.040857982 -0.019305808 -0.0056632576 0.008389787 -0.003122441 -0.013468829
-0.08181316 0.051955294 0.09955645 0.03587912 0.0675208 -0.0037169326 0.00979847 -0.06579998
-0.0119255185 -0.050292 -0.052336764 -0.007266152 -0.027934385 -0.043563943 0.021938585 0.020331876
0.12006407 0.030620124 0.028695874 0.03258226 -0.019414652 0.03529777 0.06676073 -0.016563434
-0.066781476 0.024536602 -0.01917518 -0.044498708 -0.07911773 0.025687905 0.026661364 -0.07782013
-0.050860714 0.0027568545 0.0066415584 0.016269531 0.016486172 -0.006165461 -0.055646088 -0.011378895
-0.009200736 0.042000007 -0.038449533 -0.0019418314 0.020987624 -0.08859322 -0.004803489 0.07462541
-0.0022871078 0.026857678 0.008057689 0.0038692246 0.03568177 0.007294039 -0.016219394 0.049339917
-0.012918701 -0.01047033 0.008943132 -0.023145465 -0.026891656 -0.005877988 0.14721483 0.010600533
0.04405144 -0.060851764 0.015330578 0.026560478 -0.0051515126 -0.027579611 0.016502632 -0.009135043
-0.026808256 -0.033339802 0.06895351 -0.037912436 0.0070585054 -0.07835311 -0.077731706 0.025803816
-0.0060514 0.08761351 0.022090863 0.049374554 -0.003992782 0.042264197 -0.029567154 0.0056589986
0.015819332 -0.0037836214 0.021131903 -0.00726157 0.0029682836 -0.0031920746 -0.06940975 -0.050190233
-0.037407007 0.011361831 0.016300369 0.007005062 0.05365198 -0.027715368 0.0047428757 0.010577967
-0.11163715 -0.059714925 -0.014705258 -0.018241625 -0.016434012 -0.009520176 0.04400248 0.007828255
-0.030248921 0.012068017 0.029455453 0.028907312 0.02408781 0.028463278 0.0031935843 -0.012063755
0.019759145 -0.07224885 -0.09666235 0.00016136866 -0.038551714 -0.027862975 0.08919 0.059846006
-0.024347102 0.004462242 -0.01940163 -0.006433688 -0.019592924 0.0028311936 0.0060866605 -0.019796673
00000000: 69fd 52bc 66ab 463c 0bf6 343a 1be4 723b
00000010: f28a 233c d10a 0abd 1025 cf3c abdd c2bc
00000020: b31a 263d 534f 8b3c dc85 a23b b289 0e3d
00000030: 1015 bc3d 7b64 17bd 88d9 88bc 0386 92bd
00000040: 1e50 9bbc b986 ed3d ecb9 0c3e 42b2 643d
00000050: d02b 2abd 7e43 72bc e1fd f9bc 8eaf e6bc
00000060: f48d b9bc 663f d0bb 9ed3 40bd 46c5 3cbd
00000070: 8d7e 29bb 1d71 273d 4f7d 68bb 7212 843c
00000080: afda ad3c 5449 4cbc 43aa c03d 0e73 d03d
00000090: 8f8c ea3c ac8e dcbd 9d4b b7bc 779c 153c
000000a0: b57d aa3c c7e9 89bd 3760 b03c 3cd8 033d
000000b0: f7e5 a43c 4a25 97bc 3550 55b9 cc82 f1bc
000000c0: 89d0 acbc a59b 1f3d 484a e1bc 2675 833c
000000d0: 4084 36bc 14b2 bebb 44ea 36bc c9b7 b8ba
000000e0: 5a75 9ebc 4707 54bc 9041 833c ceb6 3bbd
000000f0: 1bde 073d 5942 7fbd e771 363d 02a8 683d
00000100: d0a7 f03c 06ec a03c 48dd f13b bbf7 a43c
00000110: a99f 903b 7e41 413b 0abb 6abb 6b9f 61bc
00000120: ca59 083d ddcd 6fbd 1d59 c8bc dea1 0d3d
00000130: 165e bfbc fce3 e5bc 5040 2dbb b18a 363d
00000140: 02df 923c cb3e 42bc 6a09 043d b9c0 243c
00000150: 6ca5 903c de1a 383d 224d 47bc 5444 de3a
00000160: 2080 3f3a aaad 5a3d 560c 703d 6387 1f3c
00000170: f7e0 0439 085e 83bd 0ae5 18bd d672 31bb
00000180: b3bf 8f3d a94d 52bc cfb4 7abb 2531 d8bc
00000190: 33e6 b03b 18a3 25bd 2f5c 57bc 592f 15bd
000001a0: d819 5a3d c976 d8bc 1ee7 8abc ada6 063d
000001b0: b685 d73c f850 c53c 48a3 a03d 11f6 cbbb
000001c0: c323 363d 1dfd cfbb b35a 27bd 3727 9ebc
000001d0: d992 b9bb 5175 093c dea1 4cbb 5dac 5cbc
000001e0: a88d a7bd 13cf 543d 41e4 cb3d fcf5 123d
000001f0: 5848 8a3d c897 73bb c389 203c 24c2 86bd
00000200: 4063 43bc fcfe 4dbd 135f 56bd e718 eebb
00000210: a7d6 e4bc 1b70 32bd 8cb8 b33c 098f a63c
00000220: 27e4 f53d 0ed7 fa3c 9c13 eb3c fa74 053d
00000230: 7a0b 9fbc 6594 103d dab9 883d 0ab0 87bc
00000240: bac4 88bd fc00 c93c 4415 9dbc 4744 36bd
00000250: 7a08 a2bd 716f d23c ef68 da3c 2960 9fbd
00000260: 5353 50bd 58ac 343b 6ea1 d93b ae47 853c
00000270: 020e 873c a307 cabb 27ed 63bd 8b6e 3abc
00000280: afbe 16bc 3308 2c3d 427d 1dbd 0d85 feba
00000290: 3dee ab3c 5d70 b5bd 9666 9dbb 35d5 983d
000002a0: 4de3 15bb a204 dc3c 6604 043c d192 7d3b
000002b0: 0c27 123d d502 ef3b 89de 84bc a718 4a3d
000002c0: f6a8 53bc bf8b 2bbc 3786 123c 8f9b bdbc
000002d0: e44b dcbc 239c c0bb 7cbf 163e dcad 2d3c
000002e0: 486f 343d b33f 79bd 1b2d 7b3c 5c95 d93c
000002f0: 05ce a8bb a3ee e1bc 8730 873c 26ab 15bc
00000300: fd9c dbbc 518f 08bd 7f37 8d3d 124a 1bbd
00000310: 094b e73b 9877 a0bd cd31 9fbd 8662 d33c
00000320: d34a c6bb b66e b33d e6f7 b43c f93c 4a3d
00000330: e2d5 82bb 391d 2d3d d136 f2bc 1f6f b93b
00000340: 8b97 813c a2f6 77bb d01c ad3c 77f2 edbb
00000350: 8987 423b 2032 51bb b326 8ebd 4694 4dbd
00000360: 1738 19bd f926 3a3c 5a88 853c b88a e53b
00000370: 2ec2 5b3d 570b e3bc 206a 9b3b 364f 2d3c
00000380: 05a2 e4bd a397 74bd 53ee 70bc 766f 95bc
00000390: 9fa0 86bc 83fa 1bbc f23b 343d 1542 003c
000003a0: 96cc f7bc efb8 453c 904c f13c 07cf ec3c
000003b0: cd53 c53c d22b e93c 744b 513b 0ea7 45bc
000003c0: eedd a13c 34f7 93bd e9f6 c5bd 1235 2939
000003d0: 67e8 1dbd e540 e4bc 3fa9 b63d 1621 753d
000003e0: 9373 c7bc 0038 923b 2bf0 9ebc b0d1 d2bb
000003f0: 5781 a0bc 8c8b 393b 9c72 c73b a22c a2bc

local_block.conv_time.conv.0.bias f4 [8]
0.009009819 -0.055049818 0.012096391 0.003108154 0.0068491534 0.03660587 0.06740441 0.011206836
00000000: eb9d 133c eb7b 61bd f12f 463c 2cb2 4b3b
00000010: dd6e e03b 09f0 153d 530b 8a3d e19c 373c

local_block.conv_time.conv.1.weight f4 [8]
0.94310266 0.8572827 1.0170699 0.9117951 0.8196587 0.8963666 0.8660986 0.91317177
00000000: 2d6f 713f e176 5b3f 592f 823f 676b 693f
00000010: 27d5 513f 4878 653f a3b8 5d3f a0c5 693f

local_block.conv_time.conv.1.bias f4 [8]
-0.14243062 -0.007906263 0.033268705 -0.0022944252 -0.00048117933 0.0007734892 -4.764291e-05 0.0020886746
00000000: 55d9 11be 4589 01bc c444 083d 115e 16bb
00000010: cc46 fcb9 fbc3 4a3a 2fd4 47b8 25e2 083b

local_block.conv_time.conv.1.running_mean f4 [8]
0.021655913 -0.04120659 0.038475648 0.0013360819 0.0037537203 0.042271513 0.07097563 0.012273807
00000000: be67 b13c 3ec8 28bd a498 1d3d 781f af3a
00000010: fa00 763b e524 2d3d ac5b 913d 1418 493c

local_block.conv_time.conv.1.running_var f4 [8]
3.9449108 1.8845167 5.6230416 2.5394635 2.7181141 2.665168 0.99814075 2.3851612
00000000: 6b79 7c40 d837 f13f f5ef b340 9286 2240
00000010: 95f5 2d40 1d92 2a40 2786 7f3f 7ba6 1840

local_block.conv_chan.conv.0.weight f4 [8, 8, 11, 1]
-0.0054141474 0.019430833 -0.011063004 0.005377247 -0.009032957 -0.008477127 -0.01041078 0.012646115
-0.0042815628 0.013250532 -0.01275522 0.010373492 0.0631299 0.03883064 0.0032032328 0.0013627326
-0.006071946 -0.04525931 -0.009877665 -0.0011308015 0.00049347995 -0.0051189833 -0.015008621 0.0057087964
0.016887167 0.010045528 0.0034164444 -0.0018987271 -0.0051585874 -0.026763385 -0.012847483 0.033500697
-0.03117856 -0.014420032 -0.007099293 0.002641843 0.014368356 0.0028176098 -0.0021923021 0.00022204907
0.010422982 -0.042385247 -0.01877309 0.030650817 0.026757728 0.0632998 -0.011810133 -0.014153305
-0.024341397 -0.035549607 0.067145355 0.1560833 -0.022491863 -0.018974625 -0.021853626 0.001772258
0.081649244 0.02347047 0.059586685 0.004395797 -0.016728735 0.009247842 -0.07016211 -0.06874383
0.0061072353 0.0046202624 -0.0018042572 0.0017161395 -0.023288468 0.018841125 0.0049229222 0.0012962301
0.0003306545 -0.0036021848 0.0010332367 -0.0013990469 0.0018703459 0.0016064561 0.007967988 -0.00077018124
0.0032908479 0.0027310795 0.0007136732 -0.0016835772 -0.005759348 0.0076632807 0.005193519 -0.00025935547
0.0017484664 0.005815576 0.03215451 -0.021546189 0.0008428846 -0.021903008 -0.0005322747 0.05017931
-0.008705933 0.021659188 -0.020269379 -0.043065455 0.006202401 0.010350005 0.018268479 0.0024429492
0.009536029 0.013614476 -0.014016656 -0.02450366 0.043727003 -0.03024641 -0.031034252 0.098797016
-0.022230107 -0.054850094 -0.010054112 -0.04848361 0.0469983 0.14221291 0.01511783 -0.03359012
-0.057951737 0.009552882 -0.029434377 -0.0003845259 0.003474193 0.014843947 0.026233584 -0.046113264
-0.01670205 -0.022476245 -0.02924679 0.061048735 0.0018981622 0.008627127 0.037761275 0.010277082
0.011516032 0.02669103 -0.005537473 -0.081848174 0.0043925242 -0.00941925 0.008984333 0.029387798
-0.025230639 -0.0041297795 0.01982612 -0.007625358 0.0003615039 -0.01715367 -0.020686233 -0.0084386105
0.03289504 -0.024203153 -0.01241873 -0.022335792 -0.04424521 -0.01622844 -0.018737458 -0.013398015
0.027421443 0.11651216 0.016560685 -0.0006162131 -0.02048423 -0.0134040695 0.040967338 -0.0133288065
-0.036485218 -0.00872521 -0.016121693 -0.028836058 0.0822712 0.007748643 -0.009994789 -0.034151338
-0.019576851 -0.010397877 -0.036210988 0.036018435 0.031116728 -0.019944482 -0.048923895 0.018127564
0.017876757 0.01748409 0.006619571 -0.0609985 -0.06612937 -0.037630852 0.04225077 0.05398696
-0.0010135693 -0.0011600856 0.02842829 0.014522343 0.0077016973 0.04645039 -0.039433356 -0.09465478
0.03704055 0.012066292 0.014500895 -0.00037140265 0.023235224 -0.0321421 0.030490318 -0.012472382
-0.008304071 0.0022107735 0.0056665763 -0.020555325 0.007311744 0.026845934 -0.0061398637 -0.021132255
-0.01697047 -0.017887544 0.033980712 -0.0030442348 -0.023097223 0.0060761413 -0.009592414 -0.0074839364
0.0026591534 0.03541309 -0.018893981 -0.0010044288 -0.021385295 -0.0025828984 -0.0022263 -0.025729036
-0.07381587 -0.027056921 0.012323261 0.018959112 0.018862085 0.021650208 -0.046065908 0.029038291
0.015026224 0.034901574 -0.012212345 -0.005187216 -0.059221596 -0.05905296 -0.011488771 0.044556063
-0.031535976 0.046556555 -0.0047582183 0.024139319 0.0075935447 -0.0067878338 0.056837834 -0.028218625
00000000: 2969 b1bb 692d 9f3c 9a41 35bc 9e33 b03b
00000010: f8fe 13bc a6e3 0abc fa91 2abc a731 4f3c
00000020: 5a4c 8cbb c218 593c 45fb 50bc 94f5 293c
00000030: 404a 813d e10c 1f3d 54ed 513b b89d b23a
00000040: 2df7 c6bb d461 39bd eed5 21bc 6737 94ba
00000050: e15c 013a 25bd a7bb b8e6 75bc db10 bb3b
00000060: f556 8a3c 0096 243c 6de6 5f3b b6de f8ba
00000070: 5e09 a9bb e33e dbbc 407e 52bc 0738 093d
00000080: 2e6a ffbc ff41 6cbc 30a1 e8bb c522 2d3b
00000090: 4169 6b3c a6a7 383b baac 0fbb d8d5 6839
000000a0: 28c5 2a3c 279c 2dbd 06ca 99bc 6c17 fb3c
000000b0: 0633 db3c 53a3 813d 4a7f 41bc 44e3 67bc
000000c0: 9c67 c7bc 779c 11bd 8183 893d 4dd4 1f3e
000000d0: db40 b8bc ac70 9bbc 6006 b3bc 1c4b e83a
000000e0: b837 a73d 2545 c03c 2b11 743d 9e0a 903b
000000f0: b30a 89bc 4384 173c 27b1 8fbd 91c9 8cbd
00000100: 341f c83b 9265 973b d37c ecba 16f0 e03a
00000110: 75c7 bebc b458 9a3c 7750 a13b 44e6 a93a
00000120: b25b ad39 a212 6cbb ac6d 873a 3960 b7ba
00000130: 6526 f53a b98f d23a 2a8c 023c fde5 49ba
00000140: 44ab 573b e9fb 323b cc15 3b3a 7aab dcba
00000150: eab8 bcbb 421c fb3b 652e aa3b 1afa 87b9
00000160: cc2c e53a 9690 be3b 73b4 033d a281 b0bc
00000170: 07f5 5c3a f06d b3bc 5a88 0bba d288 4d3d
00000180: 54a3 0ebc 9c6e b13c f80b a6bc 6765 30bd
00000190: 833d cb3b 1193 293c c7a7 953c e319 203b
000001a0: 013d 1c3c 400f 5f3c 1ea6 65bc e6bb c8bc
000001b0: 161b 333d 52c7 f7bc 8b3b febc 1756 ca3d
000001c0: ea1b b6bc 7eaa 60bd 01ba 24bc c096 46bd
000001d0: 4a81 403d 43a0 113e c6b0 773c cb95 09bd
000001e0: cd5e 6dbd b183 1c3c 5d20 f1bc 319a c9b9
000001f0: 49af 633b 0734 733c d0e7 d63c 43e1 3cbd
00000200: bdd2 88bc 1a20 b8bc f796 efbc 3d0e 7a3d
00000210: c1cb f83a cb58 0d3c 91ab 1a3d 3561 283c
00000220: bdad 3c3c 26a7 da3c b173 b5bb 04a0 a7bd
00000230: 2aef 8f3b 3353 1abc 0633 133c aebe f03c
00000240: 7cb0 cebc 1a53 87bb 636a a23c 24de f9bb
00000250: 3b88 bd39 da85 8cbc 2d76 a9bc 1942 0abc
00000260: f3bc 063d b145 c6bc ee77 4bbc 8df9 b6bc
00000270: 773a 35bd 81f1 84bc 4c7f 99bc 5983 5bbc
00000280: efa2 e03c ed9d ee3d 46aa 873c 5c89 21ba
00000290: 8bce a7bc be9c 5bbc 5ecd 273d 1161 5abc
000002a0: 8671 15bd 2ff4 0ebc a411 84bc 9939 ecbc
000002b0: ce7d a83d 54e8 fd3b 2fc1 23bc 46e2 0bbd
000002c0: a25f a0bc db5b 2abc f951 14bd 1188 133d
000002d0: 82e8 fe3c 9c62 a3bc 6c64 48bd 4280 943c
000002e0: 4772 923c cb3a 8f3c fce8 d83b 90d9 79bd
000002f0: d66e 87bd cf22 1abd 250f 2d3d 6e21 5d3d
00000300: bed9 84ba 030e 98ba 72e2 e83c 1fef 6d3c
00000310: 855e fc3b c442 3e3d df84 21bd 5eda c1bd
00000320: d5b7 173d b2b1 453c 2995 6d3c d2b8 c2b9
00000330: cc57 be3c 6fa7 03bd d5c6 f93c f658 4cbc
00000340: cc0d 08bc a0e2 103b b0ae b93b a463 a8bc
00000350: 5b97 ef3b 01ec db3c e930 c9bb 8d1d adbc
00000360: a805 8bbc e688 92bc 5c2f 0b3d c981 47bb
00000370: 6336 bdbc 5e1a c73b 8029 1dbc cf3b f5bb
00000380: 3145 2e3b 510d 113d 8dc7 9abc 0aa7 83ba
00000390: 3730 afbc d845 29bb 1ee7 11bb b3c5 d2bc
000003a0: c62c 97bd 7aa6 ddbc 81e7 493c 2450 9b3c
000003b0: a984 9a3c c75b b13c 9baf 3cbd b6e1 ed3c
000003c0: 8d30 763c f4f4 0e3d 4a16 48bc 86f9 a9bb
000003d0: 5892 72bd 84e1 71bd 663b 3cbc 6b80 363d
000003e0: de2b 01bd 16b2 3e3d d4ea 9bbb d2bf c53c
000003f0: 45d3 f83b 7a6c debb cace 683d bf2a e7bc

local_block.conv_chan.conv.0.bias f4 [8]
1.0292237e-09 -0.011788104 0.009016545 0.018661208 0.02306232 7.4288033e-07 0.029632093 -6.281035e-05
00000000: 9774 8d30 e422 41bc 21ba 133c 64df 983c
00000010: 31ed bc3c 596a 4735 01bf f23c 0db9 83b8

local_block.conv_chan.conv.1.weight f4 [8]
0.8987733 1.0181909 1.0429722 0.8185772 0.94773865 1.1109409 0.9292151 0.99239725
00000000: 0216 663f 1454 823f 1d80 853f 468e 513f
00000010: 009f 723f 5033 8e3f 0ae1 6d3f bf0d 7e3f

local_block.conv_chan.conv.1.bias f4 [8]
-0.040399425 -0.050094586 -0.023419512 -0.114354536 -0.020801518 0.004812709 -0.019483672 -0.064544134
00000000: de79 25bd fb2f 4dbd 47da bfbc b632 eabd
00000010: f267 aabc eeb3 9d3b 399c 9fbc b72f 84bd

local_block.conv_chan.conv.1.running_mean f4 [8]
0.031705122 0.001174953 -0.044033796 0.036609996 0.020426309 0.034012068 0.019122235 0.0067595295
00000000: 3bdd 013d e100 9a3a c85c 34bd 5df4 153d
00000010: 1355 a73c 3d50 0b3d 3ca6 9c3c 0b7f dd3b

local_block.conv_chan.conv.1.running_var f4 [8]
0.025477728 0.030126376 0.03217536 0.01614803 0.027836462 0.03079913 0.019010186 0.03431252
00000000: abb6 d03c 97cb f63c 4fca 033d e048 843c
00000010: 4b09 e43c 754e fc3c 40bb 9b3c 498b 0c3d

atten.conv.weight f4 [1, 1, 3]
-1.0773116 -0.4676879 0.10505888
00000000: 59e5 89bf ca74 efbe 1c29 d73d

tcn.network.0.conv1.weight f4 [16, 16, 16]
-0.006023825 -0.006717264 -0.008898078 -0.01019262 -0.015830528 -0.007515026 -0.007108712 -0.0042531514
-0.003585593 -0.00044802745 -0.0010197508 -0.0026765459 0.005507268 0.003766308 0.0036219698 -0.0003647409
0.025882369 -0.010322674 -0.0038129324 -0.012795674 -0.010745212 -0.009135113 -0.0070303124 -0.0055904253
-0.0052585863 -0.023413943 -0.01926889 -0.035835706 -0.00010622187 -0.014545809 -0.006123821 -0.010074575
-0.007131598 -0.0051719937 -0.004186704 -0.00066251087 -0.004083999 0.005874019 -0.004500161 -0.004117531
-0.0012427006 -0.004164168 -0.0058081704 -0.0010962234 -0.0017726957 -0.0009483625 -0.0027726782 -0.0010871077
0.022122737 -0.0018016165 -0.00039749005 0.0048602833 0.0064290348 0.0053850734 -0.0034593518 0.0001137171
-0.002946025 -0.005380922 -0.009060262 -0.003726599 0.0016660636 -0.0012039255 0.019834422 0.0035009263
0.013858619 0.0027603991 -0.0015664537 -0.0040961565 -0.005774593 0.011277325 -0.0012084091 0.0018751018
0.0024259118 -0.0010018512 -0.00056858326 -0.0008719427 -0.0027331065 -0.0015506804 0.0006022314 0.0036825882
0.009617384 0.0003263896 -0.004950261 -0.0038051873 -0.003342492 0.00055292976 -0.006497583 0.0009991202
0.00060948316 -3.2003783e-05 0.0011949735 0.0023937605 -0.014380954 0.0026706967 -0.0004893465 -0.0037817524
-0.003842134 0.0058284416 -0.0042778216 -0.005789009 0.0065464177 -0.0014015364 -0.0027916592 -0.0053915465
0.0009187918 -0.0026131484 -0.0006079129 0.0014009866 0.00047504416 -0.00047959623 -0.0012866826 -0.004259077
-0.003543666 -0.017220762 -0.0056217657 -0.0112332 -0.001839318 0.001469885 -0.015759822 0.0034026005
0.0052336804 0.005026109 0.004202469 -0.00044733076 -0.0011596157 -0.0036491759 -0.015994223 -0.007619047
-0.0053879814 -0.0019625416 0.004169589 0.0020962646 -0.0022865497 -0.0049676266 0.010710691 -0.0042070593
0.011178461 0.000709769 0.0015793236 0.003783483 -0.0034288657 0.007930344 0.009602127 0.0063448874
0.004302867 0.0050059725 0.011332812 0.0062732543 0.0075854124 -0.0028762543 0.0031983275 -0.0041063856
-0.0115397265 -0.004339533 0.0032531912 -0.0013735251 0.0026778386 0.01530658 0.017789586 0.073122375
-0.0064954273 -0.007312379 -0.00635045 -0.004454913 -0.0012804165 -0.0035148035 0.0019749163 0.00538481
0.00018597483 0.0073203063 -0.0045551145 0.001142955 -0.0007636187 -0.0057172966 -0.0013583903 -0.0012711757
0.004057802 0.0011856699 -0.015617845 -0.0036412415 -0.009156081 -0.0035606457 -0.0017501939 0.00097497995
0.004726332 0.009450119 0.0076278322 0.0045140544 0.0013172561 -0.0006332293 -0.0034489299 -0.0026319672
-0.002741995 -0.0042237495 -0.005877363 -0.0040556407 -0.0026907746 -0.0018259531 -0.0036006696 -0.004215813
-0.0037988569 -0.005499381 0.030868018 -0.0052432944 -0.0050140964 -0.0022574782 0.0018505503 -0.000493361
0.0047093946 0.0023130157 0.0005752736 -0.0013043275 -0.0016580209 -0.0014297814 -0.014767663 0.0029259485
0.0023253306 -0.014312438 -0.0033006484 -0.0005040165 0.0007389553 0.0011042897 -0.014118728 -0.010004405
-0.01278179 0.004422513 0.006983213 0.0077604726 0.010959855 0.0049940953 0.00923324 0.0026186684
0.027211772 -0.0004027822 0.00060650735 -7.852818e-05 -0.004851219 -0.011686204 -0.015699089 -0.00877712
-0.004858941 -0.003690332 -0.011193372 -0.007830813 -0.0068256115 -0.0049796808 0.0025866036 0.0019949374
0.0047104284 0.005079886 0.013982853 0.018292487 0.008857419 0.008046836 0.00020569233 0.0030403992
00000000: 8263 c5bb 7f1c dcbb 3fc9 11bc f2fe 26bc
00000010: 06af 81bc 9b40 f6bb 33f0 e8bb 055e 8bbb
00000020: 45fc 6abb 3ae5 eab9 29a9 85ba fd68 2fbb
00000030: 5076 b43b 2ad4 763b 925e 6d3b b23a bfb9
00000040: 4307 d43c 6f20 29bc 64e2 79bb f2a4 51bc
00000050: b00c 30bc 71ab 15bc 895e e6bb e32f b7bb
00000060: 3850 acbb 99ce bfbc cbd9 9dbc 76c8 12bd
00000070: 6fc3 deb8 8b51 6ebc 55aa c8bb d50f 25bc
00000080: 2eb0 e9bb d479 a9bb 9e30 89bb 5aac 2dba
00000090: 11d3 85bb d87a c03b 1676 93bb 5aec 86bb
000000a0: 1de2 a2ba 9373 88bb 7752 bebb 27af 8fba
000000b0: cc59 e8ba 889b 78ba d2b5 35bb 487d 8eba
000000c0: be3a b53c 3824 ecba 3666 d0b9 0343 9f3b
000000d0: a7aa d23b 4575 b03b 4bb6 62bb 677b ee38
000000e0: 1912 41bb 7252 b0bb 7e71 14bc f539 74bb
000000f0: d15f da3a 09cd 9dba cc7b a23c cc6f 653b
00000100: 430f 633c d0e7 343b 7751 cdba 0d39 86bb
00000110: cc38 bdbb 88c4 383c 7b63 9eba fac5 f53a
00000120: 0cfc 1e3b 8c50 83ba fa0c 15ba 1693 64ba
00000130: eb1d 33bb 3340 cbba 11df 1d3a 9457 713b
00000140: 3b92 1d3c 451f ab39 cd35 a2bb 7360 79bb
00000150: b60d 5bbb 7df2 103a ade9 d4bb e9f4 823a
00000160: b9c5 1f3a cd3b 06b8 a8a0 9c3a a3e0 1c3b
00000170: 189e 6bbc db06 2f3b 7d47 00ba 47d7 77bb
00000180: 50cc 7bbb 83fc be3b f82c 8cbb bab1 bdbb
00000190: 5583 d63b c2b3 b7ba 45f4 36bb 92ab b0bb
000001a0: 13db 703a 5b41 2bbb 585c 1fba 4fa1 b73a
000001b0: 590f f939 5172 fbb9 e7a5 a8ba ba8f 8bbb
000001c0: da3c 68bb 8e12 8dbc ca36 b8bb 750b 38bc
000001d0: 4515 f1ba 28a9 c03a be1a 81bc 2afe 5e3b
000001e0: 4b7f ab3b 0fb2 a43b ddb4 893b b887 eab9
000001f0: 3ffe 97ba 0327 6fbb 5106 83bc 33a9 f9bb
00000200: aa8d b0bb fc9d 00bb 0ca1 883b 7c61 093b
00000210: f0d9 15bb 79c7 a2bb e57b 2f3c 5fdb 89bb
00000220: dd25 373c cb0f 3a3a 4e01 cf3a 50f4 773b
00000230: d2b6 60bb 46ee 013c 3d52 1d3c c6e8 cf3b
00000240: 11ff 8c3b 2409 a43b 42ad 393c df8f cd3b
00000250: 0d8f f83b 8a7f 3cbb 089b 513b dc8e 86bb
00000260: 1f11 3dbc a432 8ebb 7e33 553b db07 b4ba
00000270: ad7e 2f3b 73c8 7a3c 77bb 913c 2fc1 953d
00000280: 98d7 d4bb ae9c efbb 7017 d0bb 85fa 91bb
00000290: a6d3 a7ba 9e58 66bb 996d 013b 0f73 b03b
000002a0: 3d02 4339 2edf ef3b 1243 95bb 35cf 953a
000002b0: 952d 48ba 2958 bbbb 040c b2ba 949d a6ba
000002c0: 4ff7 843b 7b68 9b3a fde1 7fbc e5a1 6ebb
000002d0: 6303 16bc b959 69bb c366 e5ba cc95 7f3a
000002e0: 59df 9a3b acd4 1a3c e5f2 f93b a2ea 933b
000002f0: c8a7 ac3a 4dff 25ba 7107 62bb 157d 2cbb
00000300: 0bb3 33bb 6167 8abb e596 c0bb 2ee5 84bb
00000310: b557 30bb d254 efba 36f9 6bbb cd24 8abb
00000320: 3ef6 78bb 2734 b4bb edde fc3c f1cf abbb
00000330: 4a4d a4bb 33f2 13bb 2a8e f23a e554 01ba
00000340: 4451 9a3b f795 173b f5cd 163a f8f5 aaba
00000350: f351 d9ba 8167 bbba 11f4 71bc 45c1 3f3b
00000360: 9364 183b b77e 6abc b14f 58bb fa1f 04ba
00000370: 73b6 413a d0bd 903a 3d52 67bc 84e9 23bc
00000380: b76a 51bc baea 903b 70d3 e43b 904b fe3b
00000390: f790 333c 82a5 a33b 0447 173c f79d 2b3b
000003a0: 39eb de3c 832c d3b9 05fe 1e3a 7faf a4b8
000003b0: f9f6 9ebb 7e77 3fbc 609b 80bc e9cd 0fbc
000003c0: c037 9fbb 7fd9 71bb 6864 37bc cf4c 00bc
000003d0: 61a9 dfbb 972c a3bb 0284 293b 7fbd 023b
000003e0: f059 9a3b 2c75 a63b 5618 653c 20da 953c
000003f0: b51e 113c e0d6 033c 1daf 5739 6f41 473b

tcn.network.0.conv1.bias f4 [16]
-1.1513097e-09 -2.3499673e-09 0.000119574725 4.6053397e-09 -0.0001236629 1.1277916e-08 4.5990163e-09 1.142928e-08
5.28882e-09 -9.583308e-09 5.8014e-11 -2.3175435e-09 0.0014747073 6.5480363e-09 0.0016439273 -0.0023294252
00000000: 1c3c 9eb0 107d 21b1 31c4 fa38 ff3c 9e31
00000010: 82ab 01b9 cdc0 4132 6005 9e31 815a 4432
00000020: f4b8 b531 d6a3 24b2 f525 7f2e a842 1fb1
00000030: f74a c13a 23fd e031 0c79 d73a 45a9 18bb

tcn.network.0.bn1.weight f4 [16]
0.9888133 1.002803 0.95439374 1.0109586 1.0663878 1.040483 0.9416198 1.002008
0.9581446 0.9884748 0.99394596 0.93280005 0.94403005 0.9643872 0.98436487 0.9519098
00000000: de22 7d3f d95b 803f 2653 743f 1767 813f
00000010: 657f 883f 8c2e 853f ff0d 713f cc41 803f
00000020: f748 753f af0c 7d3f 3e73 7e3f fccb 6e3f
00000030: f4ab 713f 14e2 763f 56ff 7b3f 5cb0 733f

tcn.network.0.bn1.bias f4 [16]
-0.10397249 -0.1722428 -0.25638887 -0.12708268 -0.13612048 -0.21070424 -0.14577141 -0.09896337
-0.12568681 -0.21568826 -0.16183707 -0.13714392 -0.16280524 -0.16541907 -0.119515635 -0.1729184
00000000: 87ef d4bd 6b60 30be 6745 83be f621 02be
00000010: 2b63 0bbe dac2 57be 1a45 15be 4fad cabd
00000020: 0bb4 00be 62dd 5cbe 9eb8 25be 756f 0cbe
00000030: 6bb6 26be 9e63 29be 9dc4 f4bd 8511 31be

tcn.network.0.bn1.running_mean f4 [16]
-0.020532466 -0.0236859 -0.03910105 -0.00720573 0.000892697 -0.018624108 -0.004681886 0.017987965
-0.008057646 -0.0067620915 -0.022285707 -0.0290055 -0.013417029 -0.017036093 -0.01654911 -0.011527439
00000000: b433 a8bc ef08 c2bc 6c28 20bd 0b1e ecbb
00000010: e203 6a3a 9691 98bc 826a 99bb 7f5b 933c
00000020: 3804 04bc 8994 ddbb 8490 b6bc f19c edbc
00000030: 19d3 5bbc 478f 8bbc 0092 87bc 95dd 3cbc

tcn.network.0.bn1.running_var f4 [16]
0.02758526 0.034683384 0.028709862 0.036321018 0.06341774 0.030949323 0.026066614 0.0364887
0.044559456 0.04086041 0.03035564 0.033971556 0.03517156 0.044672262 0.040698446 0.037390843
00000000: 7cfa e13c 2a10 0e3d f230 eb3c 59c5 143d
00000010: 29e1 813d 6f89 fd3c a789 d53c 2d75 153d
00000020: fa83 363d 3f5d 273d 64ac f83c c225 0b3d
00000030: 0e10 103d 43fa 363d 6ab3 263d 2427 193d

tcn.network.0.conv2.weight f4 [16, 16, 16]
-0.005094136 -0.003947355 -0.0032670882 -0.003294607 -0.0036244378 -0.006156362 -0.0063693477 -0.008949233
-0.008258651 -0.008155982 -0.008342947 -0.010815546 -0.008134838 -0.004123857 -0.0076682186 -0.008125233
-0.0022311253 -0.001197957 -0.0010651983 -0.001151456 -0.0005541632 -0.002595475 -0.0038075373 -0.003628794
-0.004941589 -0.006695183 -0.0051490227 -0.014029743 -0.0033400354 0.0035429066 0.0038761247 0.0088892365
-0.002018957 -0.00058419496 0.0015453867 0.0030170341 0.0016843941 -0.0020175907 -0.003484037 -0.007605713
-0.007578628 -0.0035602297 0.0002628226 0.003939165 0.0058575463 0.0140577145 0.012531664 0.008064835
0.004331788 0.003301892 0.0021376477 -0.0004276681 0.00030099569 9.914416e-05 -0.0019322789 -0.004469589
-0.0045010666 0.0016645722 0.0011146464 0.0016999665 0.0014144185 0.0034693142 0.0040800334 0.0023592832
-0.0015016469 -0.02393757 -0.016903397 -0.002294219 -0.01194866 -0.01710571 -0.005334194 -0.0041975514
-0.0068583777 -0.006649727 -0.006091537 -0.0018645718 -0.0021772832 -0.026322225 -0.010748765 -0.011729856
0.0042717154 0.005624467 0.007838094 0.0080105 0.00769111 0.0091325855 0.0060446053 0.0030974124
0.0005110098 -0.0040770653 -0.001379198 -0.012563105 0.0003249841 0.00086973753 -0.0010733153 -0.0029541485
-0.0007325659 -0.0008584023 0.0003478624 -0.00086091505 -0.002515687 -0.001718798 -0.0017382734 -0.0012728303
-0.001696941 0.004003682 0.006459669 0.005239699 0.0058822534 0.012080484 0.010275253 0.0170743
-0.0059196786 0.009868079 -0.00093756383 -0.006172489 0.0006396988 -0.00015868292 3.984303e-05 -0.014449325
0.0030994625 -0.030285362 -0.0012723983 -0.0044524004 -0.005478241 -0.0064821076 -0.00680449 -0.009221882
-0.005486019 -0.004255993 -0.0040496103 -0.0013154236 -0.0035671403 -0.0052731014 -0.0068515236 -0.010856385
-0.006701149 -0.0057523493 -0.011920925 -0.0058515994 -0.0028698482 -0.0070729763 -0.015926255 -0.010125182
0.018323792 0.017157685 0.0067600408 0.005589678 0.0026254847 0.0011909064 -0.0008568147 -0.0007567852
0.0019108058 0.0016236906 0.0012885954 0.0012807526 0.001579235 0.0002462248 0.00059890235 -0.0028505726
-0.0063102525 -0.009132783 -0.028246077 -0.009315038 -0.011449586 -0.0076598683 -0.008128851 -0.009133635
-0.008417611 -0.008073683 -0.002497754 -0.007014003 0.0050265524 0.0073516276 0.00631458 0.009005036
-0.0026468274 -0.0020005263 -0.0048875026 -0.0016217367 -0.00016326955 -0.00063010387 -0.00027290027 0.0068236473
-0.0003449645 -0.0015756272 0.0030409708 -0.001928081 -0.0013208839 -0.00019091037 0.0017707086 0.0018463205
-0.0005939438 0.0022653553 0.0070578284 -0.002069442 -0.0021359064 -0.0063129105 -0.01965164 0.002326615
-0.0026363356 0.0060241953 0.004661215 0.007564433 0.007837171 0.008202449 0.00437098 0.002855175
0.010181429 0.0023894694 -0.0015903164 -0.004036357 -0.003938594 -0.009869539 0.0014665462 -0.0010791859
-0.0003765526 -3.702085e-05 -0.0018260244 -0.0033783745 -0.002689544 -0.0005643511 0.001234669 0.004507157
-0.003065865 -0.0007523579 0.0019207075 0.001343586 0.0012953277 0.0018452909 -4.571612e-05 -0.0008206296
-0.0019981558 -0.00036679476 0.004022995 0.0011266583 -0.0009369193 -0.0022336184 -0.0027942527 -0.008970204
-0.0028566215 -0.0027491716 -0.0019999272 -0.0022247864 -0.00056789373 -0.0011179665 -0.0065703252 -0.004294846
-0.003645629 0.0014427224 0.0004897518 0.009445769 0.0031987885 0.0055132434 0.015259159 0.017248906
00000000: b6ec a6bb d058 81bb a51c 56bb 55ea 57bb
00000010: fa87 6dbb 4fbb c9bb f6b5 d0bb ce9f 12bc
00000020: 4b4f 07bc aba0 05bc dbb0 08bc b033 31bc
00000030: fc47 05bc 6b21 87bb ae45 fbbb b31f 05bc
00000040: 1238 12bb c404 9dba 209e 8bba 74ec 96ba
00000050: 4345 11ba d818 2abb e087 79bb 10d1 6dbb
00000060: 0eed a1bb 4463 dbbb 22b9 a8bb 02dd 65bc
00000070: 7fe4 5abb 1c30 683b 9506 7e3b 29a4 113c
00000080: 7a50 04bb a924 19ba 938e ca3a 6fb9 453b
00000090: e3c6 dc3a 8e39 04bb 7154 64bb 5839 f9bb
000000a0: 2456 f8bb be52 69bb 74cb 8939 1c14 813b
000000b0: a9f0 bf3b 5452 663c 9c51 4d3c 5f22 043c
000000c0: acf1 8d3b 8e64 583b c717 0c3b a438 e0b9
000000d0: f5ce 9d39 9eeb cf38 8544 fdba a175 92bb
000000e0: af7d 93bb c62d da3a 5419 923a 69d1 de3a
000000f0: 0264 b93a 6f5d 633b cdb1 853b 349e 1a3b
00000100: e9d2 c4ba b918 c4bc fe78 8abc 9c5a 16bb
00000110: 50c4 43bc 4621 8cbc 76ca aebb 9d8b 89bb
00000120: 3ebc e0bb f4e5 d9bb 849b c7bb a664 f4ba
00000130: c0b0 0ebb b5a1 d7bc 971b 30bc 952e 40bc
00000140: bff9 8b3b 734d b83b 596b 003c 793e 033c
00000150: b505 fc3b d7a0 153c d311 c63b f5fd 4a3b
00000160: 4af5 053a e798 85bb 35c6 b4ba 7bd5 4dbc
00000170: a162 aa39 19ff 633a 7cae 8cba 639a 41bb
00000180: aa09 40ba 6706 61ba 4d61 b639 08af 61ba
00000190: 39de 24bb 4a49 e1ba c7d6 e3ba 19d5 a6ba
000001a0: e46b deba 5231 833b a2ab d33b c8b1 ab3b
000001b0: ebbf c03b 39ed 453c 8959 283c 67df 8b3c
000001c0: ddf9 c1bb b9ad 213c d8c6 75ba 9742 cabb
000001d0: 76b1 273a 1f64 26b9 211d 2738 ddbc 6cbc
000001e0: 5a20 4b3b 0219 f8bc 9ac6 a6ba 71e5 91bb
000001f0: d182 b3bb dc67 d4bb 33f8 debb 6017 17bc
00000200: 10c4 b3bb db75 8bbb 98b2 84bb 4b6a acba
00000210: afc6 69bb fbc9 acbb bf82 e0bb fbde 31bc
00000220: 5095 dbbb 347e bcbb fc4f 43bc c6be bfbb
00000230: 1014 3cbb 6dc4 e7bb c777 82bc 17e4 25bc
00000240: c71b 963c 468e 8c3c 5583 dd3b 9e29 b73b
00000250: 5310 2c3b 3018 9c3a dc9b 60ba ff62 46ba
00000260: 0174 fa3a 04d2 d43a 16e6 a83a edde a73a
00000270: 55fe ce3a bc17 8139 a8ff 1c3a acd0 3abb
00000280: 3cc6 cebb aba1 15bc 5164 e7bc 1a9e 18bc
00000290: 0b97 3bbc a2ff fabb df2e 05bc 3ea5 15bc
000002a0: 05ea 09bc 7b47 04bc 5cb1 23bb b9d5 e5bb
000002b0: c7b5 a43b ece5 f03b 89ea ce3b dc89 133c
000002c0: 6576 2dbb 431b 03bb 5827 a0bb 7490 d4ba
000002d0: 5633 2bb9 8e2d 25ba 0e14 8fb9 e798 df3b
000002e0: 5adc b4b9 4785 ceba 064b 473b aab7 fcba
000002f0: 8221 adba 1d2f 48b9 1f17 e83a 3c00 f23a
00000300: e5b2 1bba 5b76 143b 5b45 e73b 7a9f 07bb
00000310: 90fa 0bbb 88dc cebb 7afc a0bc 1f7a 183b
00000320: 5fc6 2cbb 9d66 c53b 1bbd 983b 10df f73b
00000330: 7a67 003c 9163 063c 703a 8f3b e31d 3b3b
00000340: 02d0 263c a598 1c3b 2a72 d0ba 6b43 84bb
00000350: 520f 81bb d9b3 21bc 2039 c03a 7873 8dba
00000360: 096c c5b9 d646 1bb8 3657 efba b867 5dbb
00000370: 1043 30bb f6f0 13ba 9ed4 a13a c6b0 933b
00000380: aeec 48bb e239 45ba 40c0 fb3a 441b b03a
00000390: fcc7 a93a b0dd f13a 4fbf 3fb8 851f 57ba
000003a0: 7ef3 02bb 5c4e c0b9 54d3 833b 61ac 933a
000003b0: 979b 75ba e661 12bb c81f 37bb c3f7 12bc
000003c0: 2836 3bbb 722b 34bb 3611 03bb b9cd 11bb
000003d0: b4de 14ba bb88 92ba e24b d7bb c8bb 8cbb
000003e0: 81eb 6ebb bb19 bd3a b062 003a 6dc2 1a3c
000003f0: c4a2 513b 70a8 b43b 8d01 7a3c 944d 8d3c

tcn.network.0.conv2.bias f4 [16]
0.0005254173 -1.6868792e-07 -5.243385e-09 -9.041918e-09 1.3482484e-05 0.007313232 8.9537895e-07 1.6380405e-08
-3.95218e-05 -4.6218798e-09 0.00014587384 -1.5537614e-08 -0.00011512882 -7.7829885e-09 -8.216672e-11 -3.4605065e-09
00000000: 28bc 093a 9520 35b4 4d29 b4b1 c756 1bb2
00000010: d432 6237 d6a3 ef3b f959 7035 e4b4 8c32
00000020: 36c4 25b8 7cce 9eb1 b6f5 1839 9377 85b2
00000030: 5171 f1b8 f2b5 05b2 c0af b4ae e0cd 6db1

tcn.network.0.bn2.weight f4 [16]
1.0 1.0 1.0 1.0 1.0 1.0 1.0 1.0
1.0 1.0 1.0 1.0 1.0 1.0 1.0 1.0
00000000: 0000 803f 0000 803f 0000 803f 0000 803f
00000010: 0000 803f 0000 803f 0000 803f 0000 803f
00000020: 0000 803f 0000 803f 0000 803f 0000 803f
00000030: 0000 803f 0000 803f 0000 803f 0000 803f

tcn.network.0.bn2.bias f4 [16]
0.0 0.0 0.0 0.0 0.0 0.0 0.0 0.0
0.0 0.0 0.0 0.0 0.0 0.0 0.0 0.0
00000000: 0000 0000 0000 0000 0000 0000 0000 0000
00000010: 0000 0000 0000 0000 0000 0000 0000 0000
00000020: 0000 0000 0000 0000 0000 0000 0000 0000
00000030: 0000 0000 0000 0000 0000 0000 0000 0000

tcn.network.0.bn2.running_mean f4 [16]
0.0 0.0 0.0 0.0 0.0 0.0 0.0 0.0
0.0 0.0 0.0 0.0 0.0 0.0 0.0 0.0
00000000: 0000 0000 0000 0000 0000 0000 0000 0000
00000010: 0000 0000 0000 0000 0000 0000 0000 0000
00000020: 0000 0000 0000 0000 0000 0000 0000 0000
00000030: 0000 0000 0000 0000 0000 0000 0000 0000

tcn.network.0.bn2.running_var f4 [16]
1.0 1.0 1.0 1.0 1.0 1.0 1.0 1.0
1.0 1.0 1.0 1.0 1.0 1.0 1.0 1.0
00000000: 0000 803f 0000 803f 0000 803f 0000 803f
00000010: 0000 803f 0000 803f 0000 803f 0000 803f
00000020: 0000 803f 0000 803f 0000 803f 0000 803f
00000030: 0000 803f 0000 803f 0000 803f 0000 803f
