model/Benchmark/DATCN_b3_1s_S27.pth (torch, 182388 bytes, 75 tensors)

global_block.conv_time.conv.0.weight f4 [8, 1, 1, 125]
000000 de b7 3c bd 33 1b 9d bc d5 93 9b bc be bf 8e bb
       -0.046073787 -0.019178009 -0.01899139 -0.0043563535
000010 40 81 a4 bc 54 c8 58 3d 6f 34 c8 bc 5b 2a e6 bb
       -0.020081162 0.052925423 -0.024439065 -0.007024092
000020 14 a3 f2 3b f7 01 1d bc 45 26 97 3c 70 5d 50 bc
       0.0074046943 -0.009582988 0.018450866 -0.01271759
000030 f3 0b 85 3b 83 99 20 3c 48 9e d4 bc b4 f6 11 3c
       0.0040602623 0.009802225 -0.02595438 0.008908916
000040 75 e7 cd bc 9c 8b 92 3b b1 fc ee bc 5e 86 55 3a
       -0.025134781 0.004472209 -0.029173227 0.00081453274
000050 43 29 7d ba a3 dd 09 bc 55 21 22 bc 40 6d 90 3b
       -0.00096573326 -0.008414659 -0.009895642 0.004407555
000060 39 5e c1 3c 14 79 82 3c d4 bb 92 3a 9b b2 38 bb
       0.0236045 0.015926875 0.0011194893 -0.002818263
000070 dc ed 9f 3c 12 28 d1 bc 66 88 b8 3c 5e a3 20 bc
       0.0195226 -0.025531802 0.022525977 -0.009804575
000080 b8 e4 88 3c dd 6c 0f bd d4 a4 a1 bc d4 0a 85 bb
       0.016710624 -0.03501593 -0.019731916 -0.0040601287
000090 95 69 5a 3c 64 1a 8c bc 71 2d 09 3d a2 c0 f6 bc
       0.013330837 -0.017102428 0.033490602 -0.030121151
0000a0 c6 25 2c 3a 92 23 cd bc ae ef 80 3c b6 d8 02 3d
       0.0006566908 -0.025041375 0.015739288 0.031944953
0000b0 e9 fe 9c ba fb a5 c8 3c 00 0e bf bb d8 0c 31 bd
       -0.0011977825 0.024493208 -0.0058305264 -0.04322514
0000c0 0d b4 59 3d 61 12 21 3d 30 ec a6 3c 45 e2 76 3c
       0.053150225 0.039324168 0.020376295 0.015068595
0000d0 49 ec 36 bc d2 2c 66 39 c2 dc c1 3c a9 18 16 bd
       -0.011164733 0.00021951206 0.023664836 -0.03664461
0000e0 dc a2 74 bd 3c 93 6c bc 20 c6 47 3c 40 06 45 3c
       -0.059725627 -0.0144394 0.012193233 0.012025416
0000f0 05 f2 3d 3c a2 a9 2f 3d 68 15 f8 3c be cd f9 bc
       0.0115933465 0.042886384 0.030283645 -0.030493613
000100 8a a9 68 bc ec fa 9a bc e7 3f 95 3b 1d 5c 13 bd
       -0.0142005775 -0.018918477 0.004554737 -0.035976518
000110 9f 50 11 bd ac f2 d0 bc b7 ec 09 bd eb 8c 18 bd
       -0.035477277 -0.02550634 -0.033673014 -0.037243765
000120 ff e0 96 bd ec 22 72 3c 77 1f 5d 3c 0d 4b 9e bc
       -0.07367133 0.014778834 0.013496271 -0.019322896
000130 62 71 74 3c b0 0e b5 3d ae bc 05 3e a5 1a 70 bb
       0.014919611 0.08840692 0.13060257 -0.0036636975
000140 df 9d ff bc 33 9c ec ba b4 60 86 bd b7 7a 59 bd
       -0.031203208 -0.0018051922 -0.065614134 -0.053095546
000150 db e1 ea bd a1 26 ab 3c b6 41 12 3d ae 6a 96 bc
       -0.1146886 0.020892443 0.035707198 -0.018361416
000160 e6 4c 5a bc cd 5d 4f 3c 67 b0 16 bc f1 d6 b7 bb
       -0.013323998 0.012656641 -0.009197331 -0.00561034
000170 be b7 6b bd e8 74 9d bc 7c ad 0d 3d 06 ea c3 bc
       -0.057548277 -0.019220784 0.034589276 -0.023915302
000180 f1 e3 20 bc a0 0e 46 3c 52 eb db 3b 80 3c 89 bc
       -0.0098199705 0.012088448 0.006711402 -0.016752481
000190 94 ef 4e 3b 7b f4 9d 3c 56 31 04 bb 56 d2 3b bb
       0.0031575905 0.019281616 -0.0020171008 -0.0028659306
0001a0 cf bf 8f 3d e4 ac c2 3d 52 a7 17 3d 0e e8 a3 bc
       0.070190065 0.095056325 0.037024803 -0.020008113
0001b0 bc 23 2f bd d2 36 28 bd 5e c5 ca 3b 23 d8 28 bc
       -0.04275869 -0.041067906 0.006188079 -0.010305437
0001c0 4c cc 05 bc a2 cb 13 bc fc 49 11 3d 8b f4 4a 3d
       -0.008166384 -0.009020718 0.035470948 0.04954962
0001d0 5a 7c 45 3a 57 9f 6c bc 8e 4d 4d 3c 55 1a fa bb
       0.00075334834 -0.014442286 0.0125306975 -0.0076325336
0001e0 2c 28 41 bd a3 12 2e ba d1 b8 0c 3d e1 0d 5e bd
       -0.04715745 -0.00066403503 0.034355942 -0.054212455
0001f0 09 3d a0 bc 93 02 9c ba 3a 8d df bc 53 05 7f bc
       -0.019560354 -0.0011902623 -0.027289022 -0.015565234
000200 41 c4 33 3d cd c1 fc bb 74 a2 b9 3c 3c 88 52 bc
       0.043888334 -0.0077135325 0.022660471 -0.012849864
000210 65 8e 67 bc 71 77 14 bd cc 70 21 ba ff 1c 02 3d
       -0.014133071 -0.03624672 -0.00061584706 0.031765934
000220 0f 43 15 3d 76 b1 01 3d 25 82 43 3d 5a 15 32 3d
       0.036440905 0.03166338 0.047731537 0.043477394
000230 39 20 68 bd b8 f5 53 3b 63 2b 4a bd 96 18 5c bd
       -0.056671355 0.0032342505 -0.049357783 -0.053734384
000240 09 ec 23 bc 42 2d 63 bd 35 a1 1b bb 4b b7 9a 3d
       -0.010005006 -0.055463083 -0.002374721 0.075544916
000250 18 3a ee 3c 8a 17 a9 bc 7d 3a d0 bc 8f 1c 68 3c
       0.029080436 -0.020641107 -0.025418514 0.014166965
000260 9e b7 b5 3b 81 9c df 3c 06 31 a8 bc a9 d8 7c 3c
       0.0055455705 0.027296307 -0.020531189 0.015432515
000270 e7 53 51 ba 20 7b 95 bc a5 ca 96 3c 50 ab ab 3c
       -0.00079852197 -0.018247187 0.018407175 0.020955712
000280 3d 03 0b 3d 06 5c 92 3c d8 fa 98 3c 62 1e b6 3b
       0.033938635 0.017866146 0.0186743 0.005557821
000290 57 6b fc bc 32 91 20 bd a4 8d 8e bc a2 8f eb bb
       -0.030812902 -0.03920097 -0.017401524 -0.007188753
0002a0 40 e7 42 3d 94 3f 09 3d ed cd 92 3c ca 9d c2 bc
       0.04758382 0.0335079 0.017920459 -0.02375688
0002b0 4f 5e 02 3d 5f 49 67 3c 1a 08 88 3c 76 ff 74 3d
       0.03182822 0.014116614 0.016605426 0.05981394
0002c0 fd d0 03 bd 4d 07 36 bd c9 77 64 bd 37 1b c6 bc
       -0.03218173 -0.044440556 -0.0557783 -0.024182899
0002d0 32 a2 5b bd 9a 84 4c 3d 27 d9 0a bb 4d 4c 3f 3c
       -0.05362148 0.049931146 -0.0021186562 0.011675906
0002e0 86 f9 8d bc e0 dd cd 3c a3 e6 02 3d d1 b4 af 3a
       -0.017330896 0.025130212 0.031958234 0.0013405328
0002f0 7f 00 57 3d 51 1d 32 bd 14 c7 6b bc 0e a5 46 bd
       0.052490707 -0.04348499 -0.014390726 -0.048497252
000300 57 00 f2 3c e2 05 08 3d 68 fd 5e 3d 83 0a 19 3d
       0.029541178 0.033208735 0.054440886 0.03736354
000310 b9 12 38 bb 91 ba 27 bc 9c d7 1f ba 48 6f 8b 3d
       -0.0028087331 -0.010237352 -0.0006097497 0.068083346
000320 00 ca de b9 c3 bf 32 3d 9a 52 f6 bc b1 f2 41 3d
       -0.0004249364 0.04363991 -0.030068684 0.04735059
000330 60 10 a0 3d 72 70 4d 3d ee e0 2a 3c e0 d0 da bc
       0.07815623 0.050156064 0.010429604 -0.026710927
000340 ca be 84 bd f2 d1 0e bc a3 40 6b 3c cb 31 8c bc
       -0.064817026 -0.008717047 0.014358672 -0.017113587
000350 68 f9 35 bc 23 e9 47 bc 6e 0c d1 bd 62 66 8d bd
       -0.011106826 -0.01220158 -0.10207449 -0.069042936
000360 c4 fd 0a bd e8 dd 70 ba d0 a2 2c bc f4 7e c3 3c
       -0.033933416 -0.000918834 -0.010536864 0.023864247
000370 46 e9 64 3c 4e 74 5b 3a 3f b3 88 3c cf 52 af 3c
       0.013971632 0.0008371518 0.016687034 0.02140179
000380 ac 46 28 bd e7 23 63 3d b5 4b 0a 3d 94 14 6d 3d
       -0.041083023 0.05545416 0.033763606 0.057880953
000390 f8 27 89 bd 22 d6 74 bd 3d 24 f6 3c 6b 15 c9 bc
       -0.066970766 -0.059774525 0.030046577 -0.024546346
0003a0 01 e4 8c bc 9b 24 e4 3c f4 19 8e 3c 92 18 5f bd
       -0.017198564 0.027849486 0.01734636 -0.05446679
0003b0 fb a7 8d 3d f9 84 17 3c d2 20 2e 3d 02 82 17 bd
       0.06916805 0.009248012 0.04251177 -0.03698922
0003c0 f3 64 34 bd 7e 57 ca bc e5 3e 91 ba f3 59 3b bd
       -0.044041585 -0.024699923 -0.0011081366 -0.04574008
0003d0 d1 75 0a bc c6 79 9e bd fb 35 76 bd 11 e0 29 b9
       -0.008450941 -0.0773807 -0.060110074 -0.00016200567
0003e0 9d 93 b7 3c cc 1f 17 bd 9b 97 c1 3c 69 ed ff bc
       0.022409255 -0.03689556 0.023631861 -0.031241136
0003f0 00 08 47 3c 17 99 6f 3c 47 78 2c bd f9 42 2f bc
       0.012147903 0.014623902 -0.042106893 -0.01069712

global_block.conv_time.conv.0.bias f4 [8]
000000 72 b5 14 b6 b4 d5 02 3d f9 fa 18 3c 2c b6 c0 3c
       -2.2159334e-06 0.031942084 0.00933718 0.023524366
000010 6e 85 04 bd 21 b1 23 bd 11 de fa 32 94 43 15 3b
       -0.03235381 -0.039963845 2.9204815e-08 0.0022775875

global_block.conv_time.conv.1.weight f4 [8]
000000 c1 ed 50 3f 64 42 83 3f bd bf 60 3f 3c 44 62 3f
       0.81612784 1.0254636 0.8779257 0.8838537
000010 60 40 70 3f d7 8e 85 3f f2 aa 63 3f bc e9 75 3f
       0.9384823 1.0434216 0.88932717 0.96059775

global_block.conv_time.conv.1.bias f4 [8]
000000 84 79 59 bd c5 45 d5 bb 93 48 03 3d b2 47 35 bd
       -0.053094402 -0.0065085613 0.032051634 -0.044257827
000010 2c 3a 29 3d ff 44 e3 bc 75 52 93 bb 60 3b dc 3c
       0.041315243 -0.02774286 -0.0044959136 0.026883781

global_block.conv_time.conv.1.running_mean f4 [8]
000000 e5 13 3e 3b 68 34 2d 3d 91 23 c6 3c ab ba d1 3c
       0.0029003557 0.042286307 0.024186881 0.025601706
000010 d6 e1 02 bd 10 9c 2b bd 70 e3 10 bc 75 c1 f6 b9
       -0.031953655 -0.04189688 -0.008843288 -0.00047064913

global_block.conv_time.conv.1.running_var f4 [8]
000000 16 7b 5d 40 2f e8 8c 40 5e 2e b5 40 c8 55 78 40
       3.4606376 4.4033427 5.66191 3.8802357
000010 c6 21 b0 40 81 a1 b2 40 ea b2 a6 40 2f 79 1d 41
       5.5041227 5.582215 5.20934 9.842086

global_block.conv_chan.conv.0.weight f4 [8, 8, 11, 1]
000000 1d 97 d7 bc b6 da b5 3c a8 5b 55 3c 80 dd 0f bd
       -0.026317174 0.022199016 0.013022341 -0.03512335
000010 a3 d8 94 3c ac cb 43 3c f7 41 0a 3d 1b a7 c3 bb
       0.018169707 0.011950415 0.033754315 -0.0059708483
000020 6e c5 22 bc 3b 51 26 bd 1f 26 39 3c 9c c2 d2 3d
       -0.009934766 -0.04060481 0.011300593 0.10291025
000030 31 cd 36 bd 95 57 a2 3c 3c 64 25 3d 89 a0 9f bb
       -0.04462928 0.019817153 0.040378794 -0.004871432
000040 d1 12 09 bd 1c 11 71 bc d7 39 4a bd 27 3b 44 3d
       -0.03346521 -0.014713552 -0.049371567 0.047907975
000050 8b d3 f2 bc 65 fe b6 3c f7 15 8c bd 99 c9 49 3d
       -0.029641887 0.022338102 -0.06840127 0.049264524
000060 c9 7f 43 3d 75 13 ca bd 96 ed 8a 3b 3e f8 b7 bc
       0.047729287 -0.098669924 0.004239748 -0.022457238
000070 41 7d 61 3d 0a 81 54 bc 0f 85 3c bd 40 59 3c bd
       0.055051092 -0.012970218 -0.046025332 -0.045983553
000080 a7 3c f8 bc 53 dc c1 3d b0 1b cd bc 96 a8 d7 bc
       -0.030302359 0.09465852 -0.025037616 -0.026325505
000090 3e 96 1e ba 10 a1 ba 3c de 51 42 3c e4 eb 3f 3c
       -0.00060496095 0.022781879 0.011860339 0.011713956
0000a0 51 80 39 bd 79 21 4d bc b7 11 9f 3c 93 60 f4 3c
       -0.045288388 -0.012520188 0.019417627 0.029831206
0000b0 bb 2c 9d bb 70 d8 32 3d 4e 08 80 bd bb 00 8e 3c
       -0.004796592 0.043663442 -0.06251584 0.017334333
0000c0 98 f6 60 3b 1b fb e5 3c 4d 9e 84 3d 6d 74 1b 3c
       0.0034326669 0.028073838 0.06475506 0.009488207
0000d0 d6 8f 39 3d b6 9e 9f bc 10 49 a1 bd 44 59 a3 3c
       0.04530319 -0.019484859 -0.07875264 0.019940026
0000e0 c3 58 15 3d 9b 06 3d 3d cf 60 b5 bb d5 f0 29 bd
       0.036461603 0.046148878 -0.005535222 -0.04148944
0000f0 97 ed e8 3d df 85 53 3d 11 1e 60 3d cd c4 09 bd
       0.11373442 0.05164134 0.054716174 -0.03363495
000100 fb a2 b0 3c 46 d5 5f bd 60 5f 7a 3c d0 d3 72 3d
       0.02156209 -0.054646753 0.015281528 0.05928403
000110 a0 fb 02 3d c3 5c 01 bd 70 ee a1 bc 1b aa 34 bd
       0.03197825 -0.031582605 -0.019767016 -0.044107538
000120 70 81 0c 3d 62 8a af 3d b3 e3 3f 3d fe f8 22 3d
       0.03430313 0.08571316 0.04684801 0.03978824
000130 b5 48 b6 bc 54 e6 78 bd f2 fb 82 bd 38 22 db bc
       -0.022251466 -0.060766533 -0.06395711 -0.026749715
000140 ff 3d 74 3b 85 0f 36 bd fe b2 93 3d 4c 18 35 3d
       0.0037268398 -0.044448394 0.072118744 0.044212624
000150 59 e9 3c bd c7 e8 86 bc 85 dc fb bc 6a fe 6b bc
       -0.046120975 -0.016468419 -0.0307448 -0.014403919
000160 f0 c4 81 3d e4 56 35 bd ec 88 d7 bc 0d e7 72 3c
       0.06336391 -0.04427232 -0.026310407 0.014825595
000170 9d 97 e1 3b 22 35 05 bd 10 6d a2 3c 33 53 50 bd
       0.006884529 -0.032521375 0.019827396 -0.050860595
000180 fc 3b 96 3d 15 a7 62 3d 62 2d a0 bc e3 c2 1b 3d
       0.0733566 0.055335123 -0.01955289 0.038027655
000190 8e 48 06 bd 9a 50 8c 3c a2 8b 9e bc 1d 7c 05 3d
       -0.032784037 0.017128278 -0.019353691 0.032589067
0001a0 ef 2f 45 bd 9f 90 83 bd f4 16 7a 3d 94 f5 92 3d
       -0.048141416 -0.06424069 0.061057046 0.071757466
0001b0 6b f2 3a 3a bd 96 e5 bc 59 ca f1 3c 33 d3 18 be
       0.000713146 -0.02802598 0.029515432 -0.14924316
0001c0 73 cb 7f bc 39 dd 01 bc d1 85 80 3d d6 82 76 3d
       -0.015612471 -0.007926279 0.062755235 0.06018337
0001d0 9d f3 92 bd c1 d4 3c bd ef bb 07 bd a0 63 5f 3d
       -0.07175372 -0.046101335 -0.03313821 0.05453837
0001e0 41 48 9c 3d 0e 9a 04 3d 5c 00 9e 3d a6 c3 03 3c
       0.07630969 0.03237348 0.07714912 0.008042252
0001f0 04 7c b3 bc 71 71 c8 bc e8 24 9d bd 8e 17 07 bb
       -0.021909721 -0.024468156 -0.07673055 -0.0020613405
000200 eb 38 dc 3d 6f 21 3c 3d 0d f4 1f bd 71 75 a7 bd
       0.10753044 0.045930322 -0.039051104 -0.08176697
000210 0e 4a 34 3d 27 c8 45 3d f2 c8 27 bd 00 c2 94 bd
       0.044015937 0.048286583 -0.04096312 -0.07263565
000220 da 11 9e 3a 3d 29 8a bd 33 48 a4 3d fe b0 8c 3d
       0.0012059764 -0.06746147 0.080215834 0.06869696
000230 9c d7 5b 3d 79 22 19 bd e9 4b 44 bd b2 62 f9 bc
       0.053672418 -0.03738639 -0.047923956 -0.03044257
000240 77 34 c8 3d cc 32 58 3c 71 80 a4 3d 0c 02 ce bd
       0.09775632 0.013195705 0.08032311 -0.10058984
000250 ba ae 33 b9 8c a8 dc 3d 97 35 c2 bc 42 72 50 bd
       -0.00017135861 0.10774335 -0.023707194 -0.050890215
000260 0a f8 6d bd 4b c8 3c 3d 04 22 ad bd aa 1e db bd
       -0.058097877 0.04608945 -0.084537536 -0.10699208
000270 b4 14 80 3c d2 b0 00 3e a7 f5 61 3d 61 fb 94 bc
       0.015634872 0.12567452 0.055165913 -0.018186273
000280 a7 53 c6 bc 30 6e d3 3b 89 77 a1 3a aa ba 96 bc
       -0.02420981 0.0064523444 0.001231895 -0.018399555
000290 fe a6 85 3d 97 e1 3e 3d e0 b2 a0 3d 81 38 48 bc
       0.06525992 0.046601858 0.07846618 -0.012220503
0002a0 8e 86 9c bd 3e 63 d4 bd 07 32 ef 3c 5d 64 17 3c
       -0.07642852 -0.103704914 0.02919866 0.009240237
0002b0 00 f2 9b 3d bd 64 d9 bc 14 09 4d bd df b6 5f bd
       0.07614517 -0.026537294 -0.050057486 -0.05461776
0002c0 2a 00 a9 bd 9c ea 66 bd 20 54 53 bd 89 27 84 3d
       -0.082519844 -0.056376085 -0.0515939 0.06452853
0002d0 7a bd a1 3d 98 79 4e bb 56 81 cc bd 3e 35 92 3c
       0.07897468 -0.003150558 -0.09985606 0.017847653
0002e0 ab 3f ab 3c 5e 72 9a 3c 64 3c 80 ba 68 e5 96 bd
       0.020904383 0.018853363 -0.0009783623 -0.073679745
0002f0 17 36 d3 bd bd f8 88 bc 83 f9 fc 3c 48 06 ba 3d
       -0.10313051 -0.01672017 0.030880695 0.09083229
000300 ea 47 a8 bc 43 46 3e bc 33 04 c0 3d 31 99 ae 3d
       -0.020542104 -0.011613431 0.09375801 0.08525313
000310 36 45 40 bc 53 16 1f 3d 37 6c 34 3d c1 17 e1 3d
       -0.011735251 0.03883965 0.044048514 0.10990859
000320 a9 57 bf bd dd 3c ed bb 4b c0 be bd 80 74 e1 bd
       -0.09342892 -0.0072399215 -0.09314021 -0.11008549
000330 8c 9d 71 3c dc 61 4b 3d c5 f8 9f 3c ac 4a cb bc
       0.014747035 0.049653873 0.019527802 -0.02481588
000340 16 68 9f 3c ed f5 a8 bc 1f bc 76 bd 43 88 a4 bc
       0.019458812 -0.020625079 -0.060238 -0.020084506
000350 49 78 51 bc 5b 87 6c bc ad d2 1b bd 98 ba a5 3c
       -0.012785026 -0.014436568 -0.038042713 0.020230576
000360 23 d7 bf 3d 12 3a 65 3d cf cb ba 37 8f 99 8a bd
       0.09367206 0.055963583 2.2267834e-05 -0.0676757
000370 4e 5c 4d bc 8f 9f bd bd 6c 2e c9 3c 6f 9a 4d bc
       -0.012534214 -0.09258949 0.024558268 -0.012549027
000380 9f ea 9c 3b 2d 02 33 3d 48 51 b7 bd 9d 72 77 3d
       0.004788711 0.043703247 -0.0895105 0.060412038
000390 b4 4e 4b 3a bf bb a2 bc b9 9a bf 3b 87 d4 34 3c
       0.0007755563 -0.019864915 0.005847302 0.011036999
0003a0 ff c8 40 3d 0f 17 5e bc 1f 04 1b 3d 58 67 29 bd
       0.047066685 -0.013555302 0.037845727 -0.041358322
0003b0 a3 a5 a4 3c 8c d0 fe bd d1 49 8c bc 5c f2 44 bd
       0.020098513 -0.12442121 -0.017125042 -0.048082694
0003c0 2b 0d 81 3d 04 c6 9b 3c d5 e7 36 bd b6 a6 c2 3d
       0.0630134 0.01901532 -0.044654686 0.09504454
0003d0 4b 69 c9 bd bc 73 58 bd 78 6e 4f bd 1e 23 83 3b
       -0.09834536 -0.052844748 -0.05064246 0.004001989
0003e0 e0 61 bd 3d 05 bf 8e bd d0 ee 68 3d 6e 59 ce 3c
       0.09247184 -0.06970028 0.056868374 0.025189128
0003f0 6b 57 16 bd 39 3b a1 bd 99 e1 6d bc 24 bb 86 bb
       -0.036704462 -0.07872624 -0.014519119 -0.0041116644

global_block.conv_chan.conv.0.bias f4 [8]
000000 ea 05 75 32 3a eb b2 3c f1 c3 e6 ba b8 84 77 bc
       1.4262222e-08 0.02184068 -0.0017606003 -0.015107326
000010 fe a7 89 3d a9 50 5f bd 2a bc 48 34 9c 19 02 3b
       0.06721495 -0.054520283 1.8694905e-07 0.001985169

global_block.conv_chan.conv.1.weight f4 [8]
000000 eb 08 59 3f 57 1e 85 3f 9f e3 61 3f 8c ac 6c 3f
       0.8477923 1.0399884 0.8823795 0.92450786
000010 a8 6f 77 3f 5c ae 73 3f 56 a6 63 3f 3a ec 7d 3f
       0.9665475 0.95187926 0.88925683 0.9918858

global_block.conv_chan.conv.1.bias f4 [8]
000000 96 82 1f be 04 0c df bb a8 3a d4 bd 16 4a 8d bd
       -0.15577158 -0.0068068523 -0.1036275 -0.068988964
000010 b8 5a 03 bd 18 2a bf bd 41 a7 97 bd 7b a2 bb bd
       -0.032068938 -0.093342006 -0.07404948 -0.0916185

global_block.conv_chan.conv.1.running_mean f4 [8]
000000 54 9c 53 3d 59 2b ed 3c a7 94 c8 bd 1b df 0e bd
       0.051662758 0.028951334 -0.09793978 -0.03488074
000010 42 3f d6 3d 5f 17 35 bd e3 4b 53 3d cf 9e 56 3c
       0.10461284 -0.04421174 0.051586043 0.013099386

global_block.conv_chan.conv.1.running_var f4 [8]
000000 1b 3e 92 3d 7b 4b d8 3d eb ad 73 3d d2 04 a8 3d
       0.07140752 0.10561272 0.059492033 0.082040444
000010 b8 77 6b 3d bf ad a5 3d b1 52 46 3d 4f dd 6b 3d
       0.05748722 0.0808978 0.048418704 0.057584103

local_block.conv_time.conv.0.weight f4 [8, 1, 1, 51]
000000 3a 0c 94 bc 6e 02 0c 3d 94 97 ac 3c cd 51 cd 3c
       -0.018072236 0.034182005 0.021068372 0.02506342
000010 d7 4c fc 3c 75 30 4e bd 2d 39 3e 3d 81 52 29 bd
       0.030798359 -0.05033918 0.046441246 -0.041338447
000020 2b cf 48 3d cf 17 f6 bb 8c 6b 01 bd c0 28 29 3d
       0.049025696 -0.0075101624 -0.031596705 0.041298628
000030 57 cc 0c 3e 11 2c a3 bd 40 f1 36 bd 1e fc df bd
       0.13749824 -0.079673894 -0.044663668 -0.109367594
000040 8f 6e 21 bd af 5a 32 3e 78 26 48 3e ea 4d dd 3d
       -0.039412078 0.17417406 0.19545925 0.108058766
000050 fb d6 81 bd b1 23 8a bc 84 cd 4a bd ef f8 45 bd
       -0.063398324 -0.016862722 -0.0495124 -0.048333105
000060 e3 84 cb bc 53 40 d3 3c 8a ba 44 bd c4 44 40 bd
       -0.024843639 0.025787508 -0.04802946 -0.04694058
000070 8b 1e 1a 3d 8c f2 a2 3d 54 04 96 bc c9 98 95 3b
       0.037626784 0.079564184 -0.01831261 0.0045653326
000080 4a 67 8b 3b 62 d9 6f bd e4 1b 08 3e 93 db 12 3e
       0.0042542564 -0.05855692 0.1329189 0.14341573
000090 cc c9 0f 3d 53 a8 1f be 53 4b 69 bd 64 9a c6 3c
       0.035104558 -0.15591554 -0.0569566 0.024243541
0000a0 6b 41 41 3d d7 00 e3 bd d3 0f 33 3d 2a 6d 86 3d
       0.047181528 -0.110841446 0.043716263 0.0656379
0000b0 f8 e5 50 3d cd 25 bb bc 3f 55 2c 3c 00 c9 54 bd
       0.051000565 -0.022845173 0.010518371 -0.0519495
0000c0 2a a1 03 bd 11 73 8d 3d 7d fa 7c bd 3d 0b 2b 3d
       -0.03213612 0.06906713 -0.06176232 0.041758765
0000d0 63 35 2b bd 5f e2 7f bc 4f 05 ea bc 55 ea 05 3c
       -0.04179896 -0.015617936 -0.028566984 0.008173545
0000e0 70 31 d3 bc 17 91 ab bc a9 79 b3 3c 71 2e aa bd
       -0.02578041 -0.020943208 0.021908598 -0.08309639
0000f0 3e 9f c2 3c 45 4b c5 bd 59 13 30 3d a0 95 a8 3d
       0.023757573 -0.09633497 0.0429872 0.08231664
000100 04 18 c4 3c f7 3e 0e bb f0 ee 97 bc 08 5a 0c 3d
       0.023937233 -0.002170501 -0.018546551 0.034265548
000110 b3 b6 3f 3c f8 26 86 3c 04 19 96 ba 38 70 e0 bc
       0.011701274 0.016376004 -0.0011451547 -0.02739726
000120 14 39 83 3d 04 c2 d0 bd 61 1f 48 bd ae 88 81 3d
       0.06407371 -0.101932555 -0.04885805 0.06324898
000130 e0 9a c7 bc 19 91 25 bd 2f 59 fd 3c d0 68 a7 3d
       -0.024365842 -0.04042158 0.030926315 0.08174288
000140 7f d2 0d 3d 3a 46 34 bd 70 36 20 3d 83 79 ce bb
       0.034624573 -0.044012286 0.039114416 -0.0063011064
000150 4f b4 41 3d dc c7 b6 3d 89 94 ae bc d0 b0 8f 3c
       0.047291096 0.08924839 -0.021311061 0.017540365
000160 54 8e 19 3c 5a 1f 9f 3d 40 95 bd 3d cb 5a ce 3c
       0.009372313 0.07769652 0.09256983 0.025189778
000170 27 e7 d5 bc 65 92 00 be 45 2c a2 bd 16 d6 02 bb
       -0.026111199 -0.12555845 -0.079186 -0.001996403
000180 7f 8c d8 3d 3a 7f 81 3c 6a 8d fe 3c ab 44 56 bd
       0.105736725 0.015807737 0.03107329 -0.05231158
000190 fa 29 e6 3c bb 4f 8a bd 62 b9 56 bd 9a c7 a0 bd
       0.028096188 -0.06753489 -0.05242289 -0.07850571
0001a0 9f 94 b7 3d d1 24 4b bd d1 b4 02 bd c2 37 ad 3d
       0.08963894 -0.049595658 -0.03191072 0.084579006
0001b0 b3 ae 97 3d 11 eb 6e 3d 5f 37 e9 3d 21 0f 9a bc
       0.07406368 0.058329646 0.11387514 -0.018806042
0001c0 bf b5 88 3d 8b 2a d8 bc ff 88 99 bd 8b 74 35 bd
       0.0667529 -0.026387474 -0.07496833 -0.044300597
0001d0 4f f8 e1 bc ab a4 bc 39 15 94 4d bc b9 46 ab bc
       -0.027584223 0.00035980841 -0.012547513 -0.020907747
0001e0 7a c9 f7 bd b9 73 bf 3d ef c7 0c 3e 1a 7e 95 3d
       -0.120989755 0.09348244 0.13748144 0.072994426
0001f0 c5 3a df 3d fa ef db bb 97 b0 11 3c 89 72 f8 bd
       0.10899881 -0.006711957 0.0088922 -0.12131221
000200 1d 13 04 bd 3b b4 8d bd 26 a7 8b bd cb e1 ad 3c
       -0.03224479 -0.06919142 -0.068189904 0.02122583
000210 9b 0c 1e bd 9d 3a 91 bd 1f 6c 24 3d b9 7a f6 3c
       -0.03858624 -0.07091258 0.040142175 0.030087816
000220 4a a8 24 3e 36 6d 2c 3d 0d 8c 0c 3d 56 58 21 3d
       0.16079822 0.04209634 0.03431325 0.039390884
000230 b1 44 69 bd 80 57 94 3d 4b 59 ea 3d 25 97 61 bd
       -0.056950275 0.07243252 0.114428125 -0.055075783
000240 5b cc e8 bd 7b 8f 7e 3d 41 91 b9 bc 3e 07 a5 bd
       -0.11367103 0.062148552 -0.02265227 -0.08058022
000250 b3 23 fe bd 74 ab 84 3d fd 5f 83 3d cf 93 e8 bd
       -0.12409153 0.064780146 0.06414793 -0.11356317
000260 ac 0f 91 bd 7f 5e 1d 3c b8 6b a5 3c be 6e 35 3d
       -0.07083067 0.009605049 0.020192966 0.044295065
000270 6d 0b 27 3d 5a 8f ef bb dd 18 ac bd f3 ef 43 bc
       0.04078238 -0.00731079 -0.0840318 -0.011959064
000280 1f 0b 82 b9 30 49 8c 3d 68 ae 54 bd a3 67 23 3c
       -0.00024803818 0.06849897 -0.05192414 0.009973439
000290 6b 88 22 3d ff d2 fa bd 0a 5e 79 bc e6 10 e7 3d
       0.03968088 -0.122472756 -0.015220175 0.1128252
0002a0 54 3e 25 bc 4f 58 3a 3d eb 89 fe 39 3a 56 cd bb
       -0.010085661 0.045494374 0.00048549412 -0.0062663825
0002b0 b5 bd 83 3d c5 14 0e bc 49 17 52 bd 5a b2 a4 3d
       0.06432668 -0.008671944 -0.051291738 0.0804183
0002c0 b1 4b a2 bc 98 da 4e bb ef 71 16 3d c3 6b 2a bd
       -0.019811483 -0.0031563397 0.03672975 -0.041606676
0002d0 34 df 6b bd d5 76 85 bc b6 e7 39 3e 8a d2 df 3c
       -0.05758591 -0.016292015 0.18154797 0.027322073
0002e0 c8 7f 94 3d 12 9f ca bd 87 b1 07 3d 58 0c 54 3d
       0.07250935 -0.098936215 0.033128288 0.051769584
0002f0 45 6f a2 bc 36 c6 5e bd a6 4b 24 3d 5c 70 af bb
       -0.019828448 -0.054388247 0.040111206 -0.0053539705
000300 8b 43 21 bd b8 c5 21 bd a2 2f fb 3d b7 ec 52 bd
       -0.039371055 -0.0394952 0.122649446 -0.05149528
000310 38 cf e5 3c 9c 4a ee bd 04 79 e5 bd ec da 93 3d
       0.028052911 -0.11635324 -0.112047225 0.072194904
000320 5d 66 6e bb 82 89 19 3e 84 a4 16 3d df d3 ad 3d
       -0.0036376931 0.14993861 0.036777988 0.08487677
000330 75 ca ce bc 38 9f aa 3d c4 0a 88 bd c0 e4 ed bc
       -0.025243023 0.0833115 -0.066426784 -0.02903974
000340 3c cc 0e bb 71 c6 46 bd a0 d9 08 3d 64 f4 7b bd
       -0.0021789214 -0.048529092 0.03341067 -0.061512366
000350 53 4d fe 3b 26 27 86 bc 1d 10 f8 bd b5 e9 c0 bd
       0.0077606826 -0.01637609 -0.12112448 -0.09419576
000360 b8 d4 96 bd b2 1d 4e 3d d8 34 77 3d da ee 8c 3c
       -0.07364792 0.05032129 0.06035313 0.017203737
000370 4e fa c6 3d db 63 83 bd f1 1a 09 3d b6 96 1c 3d
       0.097157106 -0.0641553 0.03347296 0.038229667
000380 fc b8 17 be e0 3f cd bd 69 f4 b7 bc 76 7a f4 bc
       -0.1481666 -0.10021949 -0.022455411 -0.02984355
000390 47 e3 17 bd 2b 91 d7 b8 70 2f d3 3d d8 65 5b 3c
       -0.037081983 -0.000102790385 0.10311782 0.013390981
0003a0 b0 e9 a2 bd 86 bd 24 bc 27 71 6c 3d a3 9c 2c 3d
       -0.079547286 -0.0100549515 0.057725098 0.042141568
0003b0 e2 2b 95 bb 13 7f 3a 3d fe be 32 bd 1a 53 5c bd
       -0.0045523504 0.045531344 -0.043639176 -0.05379019
0003c0 4b f4 53 3d 6b c8 cf bd 96 a4 03 be 00 dd c1 3c
       0.051746648 -0.101456486 -0.12855753 0.023664951
0003d0 18 08 8a bd b2 8a 3f bd 66 9c 07 3e 1e f0 ca 3d
       -0.06739825 -0.04676313 0.13243255 0.0990908
0003e0 14 fe 5e bd 45 da 9a 3c 79 ec 51 bd b4 92 b7 bc
       -0.054441527 0.018902907 -0.05125091 -0.02240882
0003f0 6a 15 64 bd 44 95 e7 3b b7 bc ae 3c 92 69 ea bc
       -0.055684485 0.0070673544 0.02133022 -0.028614793

local_block.conv_time.conv.0.bias f4 [8]
000000 67 bb ba 3c 3d 43 a4 bd 7f b7 e1 3c 88 18 43 3c
       0.022794439 -0.08020637 0.027553318 0.011907704
000010 bd 2d 9d 3c cc 17 72 3d 51 2c c0 3d 6e c9 d6 3c
       0.019186849 0.059104726 0.09383453 0.026219096

local_block.conv_time.conv.1.weight f4 [8]
000000 99 9d 7a 3f 13 f5 64 3f 3b aa 86 3f d6 3e 73 3f
       0.97896725 0.89436454 1.05207 0.95017755
000010 9d 67 5b 3f 96 1c 6f 3f 9b ec 66 3f 67 0c 73 3f
       0.85704976 0.93402994 0.9020478 0.949408

local_block.conv_time.conv.1.bias f4 [8]
000000 7e 4b 31 be 63 07 ef bc 27 6f 75 3d 40 3b 6f bc
       -0.17313954 -0.029178327 0.059920456 -0.014601529
000010 cc a4 23 bc 9f ca d7 3b 17 e1 25 3b f2 d5 47 bb
       -0.009988021 0.0065854336 0.0025311166 -0.0030492512

local_block.conv_time.conv.1.running_mean f4 [8]
000000 8f e7 07 3d de d3 a4 bd ed cb 17 3d 84 a8 52 3c
       0.033179816 -0.08048223 0.037059713 0.01285756
000010 4f 8c 33 3c 93 b6 57 3d 8f 4b d2 3d e4 d3 c0 3c
       0.010958745 0.05266435 0.10268318 0.023538537

local_block.conv_time.conv.1.running_var f4 [8]
000000 f4 86 67 40 4f 36 24 40 36 e3 ee 40 ea 22 2d 40
       3.617612 2.5658147 7.4652357 2.705256
000010 a7 79 5e 40 10 97 56 40 a4 56 ec 3f ff ac 64 40
       3.476175 3.3529701 1.8463941 3.5730588

local_block.conv_chan.conv.0.weight f4 [8, 8, 11, 1]
000000 f5 06 e8 bc 01 be 4b 3d 4b 28 9b bc ce 4f 1c 3c
       -0.02832363 0.04974175 -0.018940112 0.009540511
000010 4a cc b3 bc 15 df 29 bc 04 4d dc bc 5f ab 1e 3d
       -0.021947999 -0.010368128 -0.026892193 0.03873765
000020 36 29 18 bc 86 63 14 3d 30 2f d6 bc 0d a1 07 3d
       -0.009287169 0.036227725 -0.026145548 0.033112574
000030 0c 91 fd 3d 07 68 b5 3d f4 b7 46 bc 5c f7 50 3c
       0.12381181 0.08857732 -0.012128819 0.012754288
000040 c7 32 78 bc 83 7c a3 bd 22 85 d2 bc 3a 35 7a 3c
       -0.015148825 -0.07982733 -0.025698248 0.015271479
000050 83 dd b0 3b 8d 44 dc bb cf d0 3b bd ab b0 69 3c
       0.0053975 -0.006722039 -0.045853432 0.014263312
000060 56 0e 2d 3d 25 eb 88 ba 11 13 b0 3a 5e f4 88 bc
       0.04225 -0.0010446055 0.0013433417 -0.016718086
000070 f9 c7 2b bd e6 5e 92 bd fb a9 85 bd bf 5f 7d 3d
       -0.041938756 -0.07147007 -0.06526562 0.06185889
000080 98 08 9c bd c4 50 0e bd e2 f4 e8 bc 60 92 c6 3b
       -0.07618827 -0.034744993 -0.028437082 0.0060599297
000090 5a 77 0e 3d d8 41 23 3c 9e 59 6b bc 03 71 48 3c
       0.03478179 0.009964429 -0.014364628 0.012233975
0000a0 a3 ab e5 3c 30 b8 90 bd 9c dd 2a bd 1b aa 7a 3d
       0.028035944 -0.07066381 -0.04171525 0.06119738
0000b0 7c 2a 66 3d 4f b9 c8 3d eb f2 28 bd 1a e0 6c bc
       0.05619286 0.0980097 -0.04124729 -0.014457727
0000c0 1e 60 b8 bc 5d 2b 6a bd 2b 3f d7 3d 93 32 45 3e
       -0.02250677 -0.05717026 0.10510095 0.19257574
0000d0 c1 bf 35 bc af fb 10 3c e5 4c aa 3b fc 0f cd 3c
       -0.011093081 0.008849069 0.005197155 0.025032036
0000e0 96 d2 17 3e 7b 1e 8d 3d 0a e3 c0 3d ca d6 ef 3c
       0.14826426 0.06890579 0.09418304 0.029277224
0000f0 80 c1 13 bd 7f 9f 01 3d 60 49 dd bd c7 a3 e0 bd
       -0.036073208 0.031646248 -0.10805011 -0.10968738
000100 48 11 87 3b 9a d9 a3 39 f1 61 c6 3b 9f 69 14 3d
       0.004121933 0.00031251909 0.006054156 0.03623354
000110 33 89 ae bc 51 56 d8 3c 75 ae 36 bc dd e7 9f bc
       -0.021305656 0.026408346 -0.011149992 -0.01951974
000120 7e ec 09 3c d0 ac c9 bb 26 22 37 3a c4 0c 39 bc
       0.008418201 -0.006154634 0.00069859845 -0.0112945475
000130 aa ed 8a 3b e6 46 a3 3c d4 46 30 3d 18 62 96 3c
       0.0042397575 0.019931268 0.043036297 0.018357322
000140 7e 22 13 3b 8b c1 79 3c dd b0 94 3b de 7f b6 bc
       0.002245098 0.015243898 0.0045376853 -0.022277769
000150 16 e4 d1 bc c3 61 18 3b 9e 1c 7f 3a de 23 77 bc
       -0.025621455 0.002325163 0.00097317423 -0.015084235
000160 c2 91 f1 3b 89 fe 5b 3c 69 5f ca 3c af ed 6b bd
       0.007372112 0.013427385 0.024703698 -0.05759972
000170 a3 df 05 3d ee 7e 30 bc 01 72 a7 3a 52 43 dd 3d
       0.03268398 -0.01077245 0.0012775065 0.10803856
000180 46 27 c2 bc 9e 43 dc 3c 6b 9a 20 bd 8f 8f 7f bd
       -0.023700368 0.026887711 -0.039209764 -0.062392768
000190 16 81 f3 3b 60 4d 5a 3c ec 85 2b 3d 72 fa 90 3b
       0.0074311597 0.013324112 0.041875765 0.0044243867
0001a0 82 b9 94 3c f5 32 b4 3c 3a ad ca bc 00 43 18 bd
       0.018154863 0.021996954 -0.024740804 -0.03717327
0001b0 5f 74 85 3d 9b b5 40 bd 7e 49 7b bd b2 2a dc 3d
       0.06516337 -0.047048192 -0.061349384 0.10750331
0001c0 93 79 89 bd c6 1e ad bd a1 df d6 bb a0 17 83 bd
       -0.067126416 -0.08453135 -0.0065574204 -0.064009905
0001d0 e7 2b a5 3d 97 b0 3b 3e 2d 40 b8 3c 21 c4 36 bd
       0.08065014 0.18329082 0.022491539 -0.044620637
0001e0 29 41 9b bd 13 63 01 3d fd c6 2e bd fe 94 00 3d
       -0.07580788 0.031588625 -0.04267024 0.03139209
0001f0 5c 47 bb bc fb ed 23 3c 83 35 0b 3d b7 dd b8 bd
       -0.022861175 0.010005469 0.03398658 -0.09026664
000200 b8 b2 f8 bc 71 50 3a bc 9c 73 16 bd f0 74 c4 3d
       -0.030358657 -0.011371718 -0.036731347 0.095926166
000210 b8 59 a1 3c 66 ee 36 3d 18 b1 84 3d 8c 31 46 3c
       0.019696102 0.04466095 0.064790905 0.012096774
000220 7b 85 a6 3c 6f f7 58 3d c1 90 19 bd 6e f3 ff bd
       0.02032732 0.052970346 -0.037491564 -0.124976024
000230 27 79 b1 3b 4b f5 07 bd 20 10 23 bb 6d 2f 6b 3d
       0.005416054 -0.033192914 -0.0024881437 0.057418276
000240 1e 68 8e bd 8a 2a 1a bc ec 2c 04 3d f9 59 58 bc
       -0.069534525 -0.009409556 0.032269403 -0.013205045
000250 6c 47 f2 3b fc 83 a3 bc c4 e9 5f bd 85 d2 b5 bc
       0.007393768 -0.019960396 -0.054666296 -0.02219511
000260 bd 26 4c 3d 49 45 7d bd ee d6 04 bd c9 eb 5c bd
       0.04984163 -0.061833654 -0.032431535 -0.0539358
000270 f5 99 96 bd 4a 05 87 bc 03 72 10 bd b5 d1 c7 bc
       -0.07353584 -0.016482014 -0.03526498 -0.024391988
000280 20 6a 87 3d 73 1f 29 3e 0c 27 0c 3d 3a 8d 84 3c
       0.066120386 0.16515903 0.034216926 0.016180623
000290 4d 1b 9f bc b2 a4 f8 bc 9e 8d 4d 3d c3 0b 10 bd
       -0.019422198 -0.03035197 0.050183885 -0.035167467
0002a0 37 f6 6c bd 8c 29 a3 39 b2 16 26 bc 07 97 52 bc
       -0.057851996 0.00031120738 -0.010137247 -0.012853391
0002b0 94 38 02 3e dd bf 8d 3b f7 49 d3 bc e0 8e 60 bd
       0.12716895 0.0043258504 -0.025792105 -0.054823756
0002c0 db 92 76 3a ff 97 1f bd f1 55 8b bd 3b 93 94 3d
       0.00094060384 -0.038963314 -0.068035014 0.072546445
0002d0 15 69 9b 3d 09 aa d2 bc e2 16 99 bd 4b dd 12 3d
       0.07588402 -0.025715845 -0.07475068 0.035855573
0002e0 df 3b 79 3c c8 01 7b 3c 5c ab 95 bc 3c fb d4 bd
       0.015212028 0.015320249 -0.018270187 -0.10399482
0002f0 7b b4 fd bd a0 0d 8b bd 4c c9 ad 3d eb 36 c2 3d
       -0.123879395 -0.06789708 0.0848566 0.09483131
000300 5a 7f 81 3a 91 42 79 3c d2 f1 5a 3d b4 c9 d2 3c
       0.0009879873 0.015213625 0.053453274 0.025730945
000310 8d 4e 31 3c 96 f5 b2 3d d2 b2 59 bd 52 dd 11 be
       0.010821951 0.08738248 -0.053149052 -0.14244583
000320 8a 2f 56 3d c0 ab 0a 3d 74 27 9d 3c b9 d2 12 bc
       0.05229143 0.0338552 0.019183852 -0.008961373
000330 40 2f f1 3b 17 9d 7f bd e5 65 57 3d c9 e0 ea bc
       0.007360369 -0.062405672 0.05258741 -0.028671639
000340 e4 db ce bc 7d 10 8e 3c 2e 2e d4 3a 7d 90 02 bd
       -0.025251336 0.017341847 0.0016188079 -0.031876076
000350 12 3e ff 3c 9e 13 40 3d 69 bd ce bc 42 d5 b0 bc
       0.031157527 0.04689371 -0.025236802 -0.021586064
000360 fb da 3a bd 9d 48 2b bd 41 96 4a 3d a9 96 1b bd
       -0.045618992 -0.041817296 0.0494597 -0.037985478
000370 50 d6 5d bd 17 d9 0c 3c 39 42 c8 ba da 3f bc ba
       -0.054159462 0.00859668 -0.0015278525 -0.0014362291
000380 65 21 92 bb 38 5e 8c 3d bb 8c 39 bc ea 57 09 bc
       -0.0044595473 0.06853908 -0.011325057 -0.008382777
000390 3b 1b 37 bd fd 30 ae bb 9f 47 91 bb ce 68 3e bd
       -0.044703703 -0.0053158985 -0.0044335867 -0.04648667
0003a0 ac 39 f6 bd 3c 90 49 bd 75 f1 fe 3c 30 03 bc 3c
       -0.12022719 -0.04920982 0.031120995 0.022950739
0003b0 8a 2c aa 3c 97 91 07 3d 45 11 c6 bd c3 41 53 3d
       0.020773191 0.03309783 -0.09671263 0.051576387
0003c0 fb 21 8a 3c 1e 88 54 3d 06 97 3a bb 16 12 89 bc
       0.016861906 0.051887624 -0.0028471365 -0.016732257
0003d0 8f 07 f1 bd cd a5 bb bd 19 c6 48 bc 18 69 a9 3d
       -0.1176902 -0.09162483 -0.012254261 0.08271998
0003e0 ff 0d 8c bd 7d fb b0 3d 6b 07 24 bd 21 80 4f 3d
       -0.06838607 0.086417176 -0.040046137 0.050659303
0003f0 1a a0 a9 bb 71 73 21 bc 4a 09 00 3e 43 18 92 bd
       -0.0051765563 -0.0098541835 0.12503543 -0.07133534

local_block.conv_chan.conv.0.bias f4 [8]
000000 e7 68 11 b6 0d f4 dd bc 13 d2 ba 3c 81 9b 16 3d
       -2.1667745e-06 -0.027093912 0.02280525 0.036769394
000010 25 32 2e 3d 37 af 8a 39 4f d2 4f 3d 5e 25 c8 ba
       0.04252829 0.00026451956 0.050737675 -0.0015269925

local_block.conv_chan.conv.1.weight f4 [8]
000000 ab 70 6f 3f 4c 33 87 3f ca d2 89 3f db 7b 5a 3f
       0.9353129 1.056253 1.0767453 0.8534524
000010 c3 df 7c 3f 07 9e 92 3f 42 ed 76 3f 19 b3 83 3f
       0.98778933 1.1454476 0.96455777 1.0289031

local_block.conv_chan.conv.1.bias f4 [8]
000000 a1 aa 9b bd 96 3a a4 bd f0 8b 5c bd fd b4 20 be
       -0.07600904 -0.08018987 -0.053844392 -0.15694042
000010 1f 6e 83 bd 2e c8 0b 3c db 18 3d bd c5 6f c1 bd
       -0.06417488 0.008531613 -0.046166282 -0.094451465

local_block.conv_chan.conv.1.running_mean f4 [8]
000000 59 6d 3b 3d 48 13 17 bd ac 96 a1 bd 12 57 d7 3d
       0.04575858 -0.036883622 -0.078900665 0.10514654
000010 55 51 94 3b 10 45 3b 3d 91 23 07 3d ef 52 05 bc
       0.004526297 0.04572016 0.032992903 -0.008137449

local_block.conv_chan.conv.1.running_var f4 [8]
000000 43 f6 fe 3d a8 64 9d 3d d2 9e a3 3d 99 5f ea 3d
       0.124493144 0.07685214 0.07989277 0.11444015
000010 ad c3 0b 3e 39 eb 66 3d 48 26 82 3d b5 06 e3 3d
       0.13648863 0.05637667 0.06354958 0.11085264

atten.conv.weight f4 [1, 1, 3]
000000 f7 a2 8e bf 51 07 01 bf 5f 90 08 3e
       -1.1143483 -0.5040179 0.13336323

tcn.network.0.conv1.weight f4 [16, 16, 16]
000000 fd e7 8b bc 49 da e6 bb bf 4a 80 bb ca a5 1f bb
       -0.017078394 -0.0070450646 -0.0039151604 -0.0024360293
000010 2f dd ea bc db bb 7b 3c 35 9b 2f bc 11 61 4b bc
       -0.028669922 0.015364612 -0.010718157 -0.012413279
000020 80 0c 6a bc a2 29 28 bc c5 6d 90 bc fc a2 e7 bc
       -0.014285207 -0.010263832 -0.017630467 -0.02827596
000030 48 cc 88 3c 9e dd 0f 3b ce 61 05 3c 10 e0 bf bb
       0.016698971 0.0021952162 0.008140994 -0.0058555678
000040 a6 f6 71 3d 3b e6 3a 3b 44 ba c0 3c 41 e9 86 bc
       0.059073113 0.0028518576 0.023526318 -0.016468646
000050 f2 ef 3e bc f7 13 6e bc f8 28 8d bc ea cf 92 bc
       -0.011653887 -0.014531127 -0.01723145 -0.017921407
000060 82 24 b6 bc f6 ac 59 bd d0 90 43 bd 33 72 87 bd
       -0.022234205 -0.053143464 -0.047745526 -0.06613579
000070 4d 32 e2 3b ec d3 f0 bc 37 db 1f 3b 39 6a 7a bc
       0.006902969 -0.029397927 0.0024392137 -0.0152841145
000080 e5 14 5b bc 13 18 c0 bb f9 f3 a9 3b cd a4 63 3c
       -0.013371681 -0.005862245 0.0051865545 0.013894272
000090 44 15 9e 3b 65 7c ea 3c c4 e4 d6 bb c8 26 1b bc
       0.0048243124 0.028623769 -0.0065580327 -0.009469695
0000a0 09 40 61 3c 6d 40 7a bc 33 e3 9e bc d2 94 96 bb
       0.013748177 -0.015274149 -0.019395446 -0.0045953775
0000b0 ae c4 16 bc 7f 4e ac 3a ad 90 39 bc 71 e1 68 bb
       -0.0092021655 0.0013145952 -0.011325997 -0.0035534764
0000c0 be 47 32 3d 96 9c a4 bb b0 02 8a 3b b1 02 c0 3c
       0.04352545 -0.0050235493 0.004211746 0.023438783
0000d0 7c fe 00 3d 6c 89 00 3d 24 ff cb ba 2a ff 8a 3c
       0.031492695 0.031381056 -0.0015563709 0.016967375
0000e0 f2 8f 88 3b c8 97 5c bc ec fa ce bc 29 24 f0 b8
       0.0041675502 -0.013463922 -0.025266133 -0.00011450827
0000f0 56 00 74 3c e1 5d cf 3b cb 47 2b 3d cd a4 b0 3c
       0.014892658 0.00632833 0.041816514 0.021562958
000100 d3 18 c8 3c e5 23 6e 3b 38 94 23 bb 35 d3 0d bb
       0.0244259 0.0036337313 -0.0024960171 -0.0021640782
000110 8c 81 04 bc 01 40 ed 3c c5 32 88 bb f4 03 67 3b
       -0.008087527 0.028961184 -0.004156443 0.003525016
000120 a7 3c 7d 3b 8b 96 41 bc b3 93 1d 3b 42 67 01 3c
       0.0038640888 -0.011815677 0.0024044334 0.007898154
000130 46 b4 bb ba f2 0f dd 3b eb 31 57 3c 91 b8 93 3c
       -0.0014320693 0.0067462856 0.01313446 0.018032344
000140 a8 f2 9f 3c 30 b4 0d bc e9 57 b9 bc 50 6c 13 bc
       0.019524887 -0.008648917 -0.022624927 -0.008997992
000150 f6 5c 3b bc 36 e2 2a 3b 2f f7 97 bc 07 0e d8 3b
       -0.011435738 0.0026074774 -0.018550484 0.006593469
000160 5a 20 1f 3c d8 8e 38 3a 8f df 18 3b 2d 6d 7b 3b
       0.009712303 0.00070403283 0.002332661 0.0038364634
000170 88 ed 12 bd 9e 65 05 3c 66 f6 09 bc 17 80 dd bb
       -0.03587106 0.008141903 -0.008420562 -0.0067596543
000180 1a 42 f0 3b 0d 5d bd 3c 50 5f c0 bb 69 22 55 bc
       0.0073320987 0.02311566 -0.005870737 -0.013008692
000190 fa 53 89 3c 9c 9c ac bb b7 50 de bb c8 6c 5e bc
       0.016763676 -0.0052676927 -0.0067845243 -0.01357574
0001a0 98 ab 11 bb 7b 7f 3e bc 1a c6 b5 bb 7a 52 14 3c
       -0.0022227522 -0.011627073 -0.005547297 0.009052867
0001b0 52 20 ab 3a 01 d0 23 3b 7f da 43 3b bb 51 d7 b9
       0.0013055897 0.0024995806 0.0029884872 -0.0004106889
0001c0 25 b3 20 3c fb 56 05 bd 76 c1 44 bb d9 0e d0 bc
       0.009808336 -0.032553654 -0.0030022538 -0.025397705
0001d0 af 80 3f bb d8 76 26 bb 71 5b 25 bd bb e4 bf bb
       -0.0029220989 -0.0025400426 -0.04037041 -0.005856124
0001e0 bf ac 4d 3c 38 5e 5d 3c 5c d7 45 3c 07 5e 8a 3a
       0.012553393 0.013511233 0.012075271 0.0010556587
0001f0 b4 3e 33 3c 07 b7 2f bc 1d d3 33 bd ee ba 9d bb
       0.010940243 -0.010724789 -0.043902505 -0.0048135435
000200 22 0e dd bc 9d 49 b3 bc f1 d4 bd 3b b2 45 49 39
       -0.026984278 -0.021885687 0.005793207 0.00019194817
000210 7b 45 95 bb eb 92 f6 39 e8 1a 12 3d e4 ef c5 3b
       -0.004555402 0.0004703024 0.03567019 0.00604056
000220 f8 da 06 3d 99 a3 39 3c 67 3f f9 3b 13 76 53 bb
       0.03292367 0.011330509 0.007606435 -0.0032266423
000230 4b d7 d6 bc a1 bb 63 bb 12 35 dc 3b 7b 57 fb bb
       -0.026225707 -0.0034749287 0.0067201937 -0.0076703406
000240 fa 48 8d 3c 86 8d 3c 3c 25 b9 f9 3c 5c 88 f1 bb
       0.017246712 0.011508351 0.030483792 -0.0073709916
000250 4a 66 54 bc c8 80 f6 bc d9 ba b0 bc f6 94 04 bd
       -0.012963841 -0.030090705 -0.02157347 -0.032368623
000260 69 82 30 bd 02 64 03 bd f6 8d 62 3c 59 21 bf 3c
       -0.04309312 -0.032077797 0.013827791 0.023331331
000270 0b cf 00 3d 52 db 39 3d 0e 61 3e 3d 00 e9 d3 3d
       0.03144745 0.045375176 0.046479277 0.103471756
000280 41 ee f1 bb dc 3d 4a bc de 47 01 bc 79 77 94 bb
       -0.0073831384 -0.01234385 -0.00789067 -0.004530844
000290 9e 36 16 bb 58 10 a3 bc 4e b8 22 bc 22 24 05 3c
       -0.0022920738 -0.019905254 -0.009931637 0.0081262905
0002a0 f0 51 69 bc 8d 22 35 3c 54 df ba bc 9d 30 40 bc
       -0.014240727 0.011055601 -0.02281157 -0.01173034
0002b0 23 83 57 bc 73 2d 7d bc 8a 6b d4 b9 bc f2 06 ba
       -0.013153824 -0.0154527305 -0.00040515914 -0.00051478646
0002c0 0d f5 8b bb 72 56 b4 bb 91 93 0b bd 05 eb 8e bb
       -0.0042711557 -0.005503469 -0.034076277 -0.0043615126
0002d0 6e a2 9d bc b2 b4 b8 ba 94 64 55 ba 6e 17 11 3b
       -0.019242492 -0.0014091937 -0.00081402925 0.002213921
0002e0 f6 72 96 bb 06 2b 85 3c d2 ab c4 3b 65 f2 c5 3b
       -0.004591341 0.016255867 0.006001928 0.0060408586
0002f0 1f af 95 3a c6 99 c3 ba 6d 27 54 bb 0f ce a1 3a
       0.0011419988 -0.0014923147 -0.0032372132 0.0012344735
000300 14 86 0d ba c7 f3 0a bc 2c c4 05 bc 50 42 bc 3b
       -0.00053987023 -0.008480973 -0.008164447 0.0057452098
000310 eb 8c 21 bc c3 51 60 bc 95 82 6f bc 8b 49 58 bc
       -0.009860258 -0.0136913685 -0.0146185355 -0.013201128
000320 ed 9e 1b bc fb 66 74 ba 6c c8 5d 3d 7b f8 62 3b
       -0.00949834 -0.00093232066 0.054146215 0.003463297
000330 04 31 de ba ab 69 a0 bb 9a f9 f0 3b 27 db 8e bc
       -0.0016951864 -0.004895409 0.0073539736 -0.017438484
000340 da f0 d6 3b 41 e6 0c 39 cb 02 0c bb 02 a8 a7 bb
       0.0065594735 0.00013437217 -0.002136397 -0.0051164636
000350 4b 29 b6 3a bd ce 8a bc 23 57 2f bd 76 3d 37 bc
       0.0013897804 -0.016944284 -0.04280771 -0.011184087
000360 19 78 09 bc 35 6e 1b bd 0c ef a9 bc d8 38 aa 3c
       -0.00839045 -0.0379469 -0.02074387 0.020779058
000370 eb 24 cc 3c e8 0d 90 3c 53 c6 83 bc c7 23 60 bc
       0.024919948 0.017584756 -0.01608578 -0.013680405
000380 74 09 1c bd ce ff d0 ba e1 eb 55 3c 09 01 a5 3c
       -0.038094953 -0.0015945376 0.013056726 0.020142095
000390 48 3e fd 3c 8b 84 03 3c 7b 5a c6 3c c3 2d 07 3a
       0.030913487 0.008027206 0.024213066 0.00051566603
0003a0 1b 12 66 3d 34 5f 45 3c 9d 8c 1d bb 11 0f d0 bb
       0.05616961 0.012046624 -0.002404011 -0.0063494523
0003b0 cd 02 41 bc fe e5 c2 bc 3d 1d 0a bd 96 42 a1 bc
       -0.011780453 -0.02379131 -0.03371929 -0.019685071
0003c0 51 ec 9e bc a6 63 da bb bc d2 ea bc e1 7e 8c bb
       -0.019399794 -0.006664711 -0.02866494 -0.004287586
0003d0 6f aa ea ba 69 e8 57 bb 34 91 9e 3c 68 a4 83 3c
       -0.0017903576 -0.0032944924 0.019356348 0.016069606
0003e0 25 45 30 3c 77 5f ea 3b 25 9a ef 3c 20 ee 06 3d
       0.010758673 0.0071524936 0.029248307 0.032941937
0003f0 fc 0d 7c 3c 1c a2 7c 3c a7 cb 8a bc df f3 dd 3b
       0.0153841935 0.015419509 -0.016942812 0.0067734565

tcn.network.0.conv1.bias f4 [16]
000000 b8 be 15 b4 11 f4 21 b7 3f 4d 08 3b d8 ba e1 b3
       -1.394609e-07 -9.653174e-06 0.0020797995 -1.05113656e-07
000010 53 8e 0a bb 05 c6 d7 34 e8 aa a4 37 f0 01 31 33
       -0.002114196 4.019095e-07 1.9629908e-05 4.1212786e-08
000020 e1 94 cf 34 87 fb 10 33 87 96 02 33 0c 7d 09 31
       3.8665078e-07 3.3756375e-08 3.0404887e-08 2.0007205e-09
000030 a6 58 fe 3b c0 4e de b2 ad 31 07 3c 95 f2 24 bc
       0.0077620326 -2.5880013e-08 0.00825159 -0.010067602

tcn.network.0.bn1.weight f4 [16]
000000 53 da 82 3f 9b dd 84 3f 3e f7 7c 3f 8b c6 85 3f
       1.0222877 1.0380129 0.9881476 1.0451216
000010 2f 0c 8d 3f 8b d4 89 3f 32 e9 79 3f a2 c1 84 3f
       1.1019343 1.0767988 0.9762145 1.0371592
000020 f7 a6 7d 3f a6 09 83 3f 97 d6 83 3f f0 b1 77 3f
       0.99082893 1.023732 1.0299863 0.96755886
000030 71 b4 7b 3f a6 9d 7f 3f fd 72 82 3f e6 02 7d 3f
       0.98322207 0.9984993 1.0191342 0.9883255

tcn.network.0.bn1.bias f4 [16]
000000 4b 29 12 be a2 86 58 be ac 9c 96 be e3 83 2d be
       -0.14273565 -0.21145108 -0.29416406 -0.16944842
000010 1d 51 32 be bd 08 7e be 63 45 3d be a6 7d 0b be
       -0.17413755 -0.24808021 -0.184835 -0.1362215
000020 86 b6 28 be bc 08 81 be b3 62 50 be a8 51 38 be
       -0.16475877 -0.25201976 -0.20350151 -0.179999
000030 20 24 51 be 12 92 4e be 6d 88 21 be 30 74 55 be
       -0.20423937 -0.20172909 -0.15774699 -0.20845103

tcn.network.0.bn1.running_mean f4 [16]
000000 af 73 fc bc da 07 1f bd 2d 4e 89 bd 06 0d d2 bb
       -0.030816881 -0.038825847 -0.06704364 -0.006410244
000010 13 9c d2 bb 68 57 04 bd 15 d3 57 bc bc df 44 3c
       -0.006427297 -0.03230992 -0.0131728845 0.012016233
000020 d8 f4 23 bd f5 b2 5c bc 86 a8 c8 bc 3a 7f 29 bd
       -0.040028423 -0.013470401 -0.02449442 -0.0413811
000030 6a 79 f5 bc 4a 7c ef bc c6 4f 02 bd a4 92 a9 bc
       -0.029965121 -0.02923407 -0.03181436 -0.020699807

tcn.network.0.bn1.running_var f4 [16]
000000 cd 36 43 3e e0 ad 80 3e fd 53 08 3e 1c a5 71 3e
       0.19063874 0.25132656 0.13313289 0.2359814
000010 4c a7 80 3e 1f 4a 2b 3e 4d a3 0c 3e d6 cd 1d 3e
       0.25127637 0.16727494 0.1373417 0.15410551
000020 1c f0 3f 3e 60 7e 57 3e c0 8a 32 3e b7 f4 3f 3e
       0.18743938 0.21044302 0.17435741 0.18745695
000030 e1 b8 55 3e 6a 56 71 3e 49 52 13 3e 21 f1 33 3e
       0.20871307 0.2356812 0.14386858 0.17572452

tcn.network.0.conv2.weight f4 [16, 16, 16]
000000 15 f9 a0 ba b2 85 67 ba 26 54 32 3c df 87 40 3b
       -0.0012281263 -0.0008831873 0.01088432 0.002937786
000010 16 25 48 3c e6 02 9e ba 04 60 d5 bb 1d a5 99 bc
       0.012215873 -0.0012055307 -0.00651169 -0.01875549
000020 a8 e2 73 bc db 80 52 bc 2f 8e d9 bb 0c ea c9 bc
       -0.014885582 -0.012848104 -0.006639264 -0.024647735
000030 a9 7f d3 bb 78 1c 80 3c 6e 18 bf bb da 92 50 bc
       -0.0064544273 0.015638575 -0.0058317697 -0.012730325
000040 01 f8 92 ba 7a 2b c8 3a a9 61 1c bb 91 34 65 3b
       -0.0011212827 0.0015271746 -0.002386192 0.003497396
000050 1a 83 3e 3c 68 66 14 3c d6 7e 1a 39 a2 2e 31 3c
       0.011627937 0.009057619 0.00014733835 0.010814341
000060 e9 42 d1 3b 8b 21 24 bc 62 c1 83 bb 9d 48 0c bd
       0.00638615 -0.010017763 -0.0040208558 -0.034248937
000070 c8 b8 67 bc 6e 91 e8 3b a3 51 24 3b d6 de 87 3c
       -0.014143176 0.0070974147 0.0025073073 0.016585749
000080 c6 47 34 3b 50 09 d5 3b 43 53 a0 3a f7 70 0b 3c
       0.00275086 0.0065013543 0.0012231845 0.00851082
000090 dc 07 9a bb bd 05 b7 3a a5 6f bd bb 28 ca 01 bc
       -0.004700644 0.0013963502 -0.0057811313 -0.007921733
0000a0 08 70 7e b9 ea f8 7a 3a 52 cc d0 3b 2c 75 25 3c
       -0.00024265063 0.0009573834 0.006372013 0.010098737
0000b0 3a ff 7a 3b 52 e9 f8 3c 07 79 e1 3c 21 44 89 3c
       0.00382991 0.030384693 0.02752353 0.01675612
0000c0 98 11 a1 3c f5 92 2b 3c 65 1a 02 bb a7 35 7a bc
       0.01966171 0.010472049 -0.0019852158 -0.015271581
0000d0 b8 53 bc bb 64 3b 83 bb 5c fb 17 bc 24 2a 88 bc
       -0.0057472847 -0.0040048826 -0.009276237 -0.016621657
0000e0 60 6d aa bc 65 93 e3 bb 9a 02 ec 3b 5b bd 06 3b
       -0.020804107 -0.006945061 0.0072024586 0.0020559642
0000f0 61 65 da 39 64 81 b7 3c 21 78 b1 3c 2b 1f f7 3a
       0.00041655733 0.022400565 0.021663727 0.0018853893
000100 23 a4 a4 3a d9 b0 5c bd 2f 6a 26 bd ad 28 d7 bb
       0.0012561124 -0.053879593 -0.04062861 -0.006566128
000110 27 85 09 bd ab f3 3b bd 6e 90 e4 bc c4 93 94 ba
       -0.03357425 -0.045886677 -0.0279009 -0.0011335541
000120 24 9a b2 bc 09 63 ad bc 40 72 a4 bc 9b ba 43 bc
       -0.021802016 -0.021165388 -0.02007401 -0.011946346
000130 f0 cc 5d bc 79 08 60 bd 4e ba f4 bc 1e 97 d8 bc
       -0.01353763 -0.05469558 -0.029873993 -0.026439246
000140 38 8f 7e 3b 31 2c 3b 3c 37 5e c1 3c 70 8d a0 3c
       0.003884269 0.01142411 0.023604495 0.019598693
000150 f7 30 25 3c fa 62 6e 3c aa 38 0f 3c ad 71 f2 3a
       0.010082475 0.014549965 0.008741537 0.0018497013
000160 bb ed 2a 3c d9 af 30 bc 96 5c c1 3b 7c 91 0e bd
       0.010432656 -0.010784113 0.0059009297 -0.034806713
000170 8b 58 3d bc 47 cc 1e 3b 78 a2 8c bc 2a 16 22 bc
       -0.011556755 0.0024230646 -0.017167315 -0.00989298
000180 b5 60 7a ba 11 62 9c 3a fd 5b 8f ba 3b 55 4c bc
       -0.00095511536 0.0011931082 -0.0010937449 -0.012471492
000190 0c 7b 8f bc d7 fe 20 bc e3 e1 7b bb 6c 71 43 3c
       -0.017514728 -0.009826384 -0.00384342 0.011928897
0001a0 dc 30 c9 ba cf 29 c2 3c 78 91 c4 3c da f8 83 3c
       -0.0015349644 0.023701577 0.023995146 0.016109873
0001b0 75 bd be 3b 80 e4 ef 3c 12 c7 dd 3b 81 94 f2 3c
       0.005820925 0.029283762 0.006768116 0.029611828
0001c0 68 4f 31 3c 41 fa 19 3d 73 f2 a1 3c 43 2c 07 bc
       0.010822155 0.037592176 0.01976893 -0.008250299
0001d0 c1 1a a3 3c 8c a1 2b bc fc 4d 68 bc ee c9 2d bd
       0.019910218 -0.0104755275 -0.014178749 -0.042428903
0001e0 e5 e0 4d bc df be 85 bd a6 e3 52 3b 7a 6e b3 bb
       -0.012565826 -0.065305464 0.0032179146 -0.0054758163
0001f0 12 7a 0f ba b7 39 07 3b d2 f4 d0 bb 2d 3f 9c bc
       -0.0005473207 0.0020633766 -0.006376841 -0.019073093
000200 14 d8 d8 ba 80 d7 75 3b 2f 7f ce bb e0 1b 5b 3c
       -0.0016543888 0.0037512481 -0.0063017826 0.013373345
000210 c1 b7 a1 3b 39 d3 b6 3b 75 37 59 bb 10 02 d5 bc
       0.0049352353 0.005579379 -0.0033144627 -0.02600196
000220 23 a3 9b bb b8 c0 ae bb 89 3c ee bc b3 ef 84 bc
       -0.004749672 -0.0053330325 -0.0290816 -0.016227579
000230 23 b6 06 bb 99 89 be bc 71 c6 1e bd 31 55 dc bc
       -0.002055534 -0.023258971 -0.038763467 -0.026896091
000240 15 0e 2a 3d 0b 3a 11 3d 8e f4 00 3b 01 69 26 3c
       0.041517336 0.035455745 0.0019677016 0.010156871
000250 7f 16 57 3b 09 28 7b 3b 94 bf 08 3b 94 ce ff 3a
       0.0032819805 0.0038323423 0.0020866143 0.0019516521
000260 05 ae 83 3c 22 4d 1d 3b 5e 02 1a b9 b8 a3 46 bc
       0.01607419 0.0024002274 -0.00014687466 -0.0121239945
000270 b4 f8 30 3a ec 36 28 3b de 66 35 3c f8 20 e2 bb
       0.0006750927 0.0025667502 0.011071889 -0.006900903
000280 f4 df 1c bc 50 e8 83 bc 0c fa 46 bd 13 ac e6 bb
       -0.009574879 -0.016101986 -0.048578307 -0.007039556
000290 4c 55 ac bc 9a 90 26 bc 85 99 74 bc 71 b0 71 bc
       -0.021036766 -0.010166312 -0.01492918 -0.01475154
0002a0 73 a1 d4 bb 84 13 5c bc 43 4a b9 38 13 a3 df bc
       -0.006488973 -0.013432387 8.83532e-05 -0.02729944
0002b0 96 6b f0 3b cd f9 91 3c fe 7d 60 3c 77 a8 01 3c
       0.007337044 0.01781931 0.013701914 0.0079137
0002c0 77 26 57 bb d0 39 4f bb 0a 01 a3 bc bc 46 4e bc
       -0.0032829323 -0.0031620152 -0.019897956 -0.012590107
0002d0 0f 03 59 bb 57 80 f5 bb 5a 02 e2 bb c1 df 00 3d
       -0.0033113395 -0.007492106 -0.006897253 0.03146339
0002e0 d7 e3 33 3c 71 a9 f6 3b 34 2a 8e 3c f8 6b 3c 3b
       0.010979614 0.007527523 0.017354108 0.0028750878
0002f0 56 ba 43 3b 7a ac 15 3c 3f d0 50 3c f5 4e 7d 3b
       0.0029865704 0.00913536 0.012744962 0.0038651798
000300 9b ed 54 3c 55 22 81 3c 5c d1 f6 3c 67 40 4c 3c
       0.012996103 0.015763441 0.030129127 0.012466527
000310 71 c4 81 bc 31 db ea bc a2 35 39 bd 8b 45 e3 bb
       -0.01584074 -0.028668972 -0.045217164 -0.0069357804
000320 93 84 da bc 4c 46 c4 3b 5f 74 80 3c 3e eb cc 3c
       -0.026674544 0.0059898254 0.01568049 0.025014516
000330 95 94 da 3c 80 c7 c7 3c 83 18 51 3c ea 1c 93 3b
       0.026682178 0.024387121 0.012762192 0.004489531
000340 0e 40 e5 3c 53 bd 6d bb fe 81 87 3b c2 31 88 bb
       0.027984645 -0.0036276176 0.0041353693 -0.004156322
000350 3b 9b 47 bb 32 8d c3 bc 3e f0 9a 3b 23 37 31 bc
       -0.0030457515 -0.023871038 0.004728346 -0.010816368
000360 83 2e 82 ba ca f0 5a 3a d8 81 85 3b f9 6c c0 ba
       -0.0009932074 0.00083519204 0.0040743165 -0.0014680914
000370 14 3c 0f b9 30 95 99 ba 37 fc 84 3b e9 9b e1 3b
       -0.00013659924 -0.0011717435 0.0040583867 0.006885041
000380 05 43 3f bc ed 0f 8c bc 0a b2 2c bb 3c f5 48 bc
       -0.011673694 -0.017097438 -0.0026351237 -0.0122655
000390 c4 f9 dc 3b 08 21 35 3c ad 77 42 bb 1a 98 0e 3c
       0.0067436416 0.011055239 -0.0029673383 0.008703256
0003a0 c9 2c 82 ba c8 a7 1d 39 97 85 8e 3c 4f 2c 22 bc
       -0.000993156 0.0001503519 0.017397685 -0.009898259
0003b0 1c 6a 54 bc a9 19 8b bc c8 5d bc bb 72 af d7 bc
       -0.012964752 -0.01698001 -0.0057484843 -0.026328776
0003c0 bc ba 47 bb 28 08 82 3b 5d 88 1a 3c f1 25 e2 bb
       -0.0030476293 0.0039682575 0.009431926 -0.0069014956
0003d0 65 8d b1 ba 0b ab 33 bc 2b 06 c0 bc 56 74 3a bc
       -0.0013546167 -0.010966073 -0.023440441 -0.011380276
0003e0 16 0e 89 bb c4 cb bf 3c 75 8b 88 3c 72 02 14 3d
       -0.0041825874 0.023412593 0.01666806 0.036135145
0003f0 23 97 7b 3b 1e 03 aa 3c b3 24 28 3d 9a 13 15 3d
       0.0038389645 0.02075344 0.041050624 0.036395647

tcn.network.0.conv2.bias f4 [16]
000000 05 df 90 3b fc fb 39 b9 79 d0 8e 35 44 09 a5 33
       0.0044211172 -0.00017736846 1.0640498e-06 7.685097e-08
000010 88 20 49 3a 7b bb a3 3c 1e 00 93 39 e6 00 a4 31
       0.0007672389 0.019986859 0.00028038112 4.7731303e-09
000020 1a 73 a1 ba 43 5a ff 34 7d 4b 16 3b 28 43 b5 b4
       -0.0012317628 4.7563125e-07 0.0022933178 -3.376274e-07
000030 64 cc 05 bb a2 ab b6 b0 e5 da d2 36 56 be af b0
       -0.0020416016 -1.3291024e-09 6.2839704e-06 -1.2787023e-09
