model/Benchmark/DATCN_b1_1s_S28.pth (torch, 182388 bytes, 75 tensors)

global_block.conv_time.conv.0.weight f4 [8, 1, 1, 125]
000000 e9 44 8e bd 61 4a 1f bd 2c ef 1a bd 3f e4 70 bb
       -0.06946737 -0.038889293 -0.03782575 -0.003675714
000010 f8 71 9f bc 2a 76 a2 3d a1 e0 e1 bc 5c b4 f8 bb
       -0.019463524 0.07932694 -0.027572932 -0.00758986
000020 ab b8 57 3c 4a 64 e3 bc 1e 5c aa 3c 0c 9e 14 bd
       0.013166587 -0.027757782 0.020795878 -0.036283538
000030 7b 4b 70 bb 3c c4 71 3c b1 d5 4c bd b8 8a e2 bb
       -0.0036666084 0.014756259 -0.05000848 -0.006913509
000040 ed a6 63 bd 82 c5 0c bb b3 67 71 bd ac c5 54 3c
       -0.055579115 -0.0021480029 -0.058936786 0.012986582
000050 1d 26 38 3b 75 66 ad bc 0b 2c d3 bc 10 81 79 3b
       0.002809889 -0.02116702 -0.025777837 0.0038071312
000060 3a 15 19 3d aa 52 bb 3c 51 da dc 3b 3f 21 17 3c
       0.03737376 0.022866566 0.0067398925 0.009224235
000070 79 84 3f 3d 91 12 0e bd 86 71 69 3d bc 9a d9 3b
       0.046757195 -0.034685675 0.05699303 0.00664076
000080 00 10 39 3d 8b 2e 67 bd 7b 3d 18 bd 12 7d 34 bc
       0.045181274 -0.05644087 -0.037168007 -0.011016147
000090 f9 dc b6 3c d4 11 e1 bc dd d5 67 3d 42 bc 49 bd
       0.022322165 -0.027474321 0.05660044 -0.049251802
0000a0 11 5a 91 3b ce 18 2f bd 6f e6 12 3d b0 a7 5b 3d
       0.0044357856 -0.042748265 0.03586429 0.053626716
0000b0 74 f8 0c bc e5 43 ad 3c cb 9d c8 bc 10 8c 8b bd
       -0.008604158 0.021150539 -0.024489304 -0.06813824
0000c0 11 a2 72 3d 71 0f 57 3d 17 09 06 3d 99 04 d3 3c
       0.05923659 0.05250496 0.032723513 0.025759028
0000d0 a2 93 ac bc 3d c9 af b9 48 d1 fa 3c 7b cf 6b bd
       -0.02106649 -0.00033528535 0.030617371 -0.057570916
0000e0 50 a3 c0 bd 3b a3 33 bd da 70 6c 3b 32 77 07 3c
       -0.094061494 -0.04385684 0.0036078007 0.0082681645
0000f0 b9 17 5e 3c eb 56 84 3d 1c 1e 3a 3d be 31 33 bd
       0.013555461 0.06461891 0.04543887 -0.04374861
000100 2b 62 5f bc 82 e5 6c bc 15 3c 32 3d e8 50 d0 bc
       -0.013634245 -0.014459016 0.04351433 -0.025429204
000110 7e d3 a8 bc 19 c5 27 bb 28 42 a1 bc 71 65 0e bd
       -0.02060866 -0.0025599657 -0.019684866 -0.03476471
000120 6c e6 c7 bd 10 80 04 3d af e9 58 3c b6 b0 13 bd
       -0.09760746 0.032348692 0.013239308 -0.036057197
000130 bf aa 28 bb 50 86 ea 3d 6b ff 27 3e 26 0e 99 bc
       -0.0025736538 0.11451399 0.16406028 -0.018683504
000140 b4 27 6c bd 75 65 10 bc 9b 53 ce bd 50 16 b7 bd
       -0.05765505 -0.008813252 -0.1007454 -0.08939803
000150 35 8a 18 be 57 31 ce 3c 70 a7 32 3d 05 79 02 bd
       -0.14896472 0.025170011 0.043616712 -0.031853694
000160 e3 97 f2 bc a7 1f 84 3c b7 05 60 bc 42 ea 06 bc
       -0.02961344 0.016128374 -0.0136732375 -0.008234562
000170 55 5f c0 bd b4 03 43 bd 34 f1 5c 3d ee cf 2b bd
       -0.09393183 -0.047610953 0.053940967 -0.041946344
000180 40 81 86 bc c8 77 4a 3c e4 c0 f1 3b 8b 39 99 bc
       -0.016419053 0.01235766 0.0073777307 -0.018704196
000190 63 e2 89 3c f6 cf 39 3d eb 71 2e 3b 3d b7 64 bb
       0.016831582 0.045364343 0.0026618193 -0.0034899258
0001a0 66 57 c5 3d 27 6d f8 3d bc ca 55 3d ef c1 30 bd
       0.096358106 0.12130194 0.052195296 -0.0431537
0001b0 eb 70 9b bd 70 10 98 bd 51 31 c1 bb e1 1e d6 bc
       -0.07589897 -0.0742501 -0.0058957716 -0.026137771
0001c0 25 87 87 bc c0 e0 89 bc d3 d3 87 3d a5 d3 a5 3d
       -0.016543934 -0.016830802 0.06632199 0.080970086
0001d0 16 d8 00 3c 3c c3 80 bc d7 80 0d 3d 3f 32 e3 ba
       0.007864019 -0.015718095 0.0345467 -0.00173337
0001e0 68 18 97 bd 86 2b 3f 3c 4d c1 65 3d 2f 5c 8f bd
       -0.07377702 0.011668092 0.05609255 -0.070000045
0001f0 72 9e b5 bc dd 3c 8c bc 0d bc 5b bd 50 53 05 bd
       -0.02217028 -0.017118866 -0.053646136 -0.032550156
000200 26 ce 90 3d 86 c3 15 bc 2a f9 38 3d ee 59 19 bc
       0.0707057 -0.009140855 0.045159496 -0.00935982
000210 76 98 38 bc 2b a7 49 bd cb af 2f 3b 99 57 5a 3d
       -0.011266818 -0.04923169 0.0026807662 0.053306196
000220 df 6a 71 3d 50 83 54 3d 6d ce 9d 3d 3c 19 97 3d
       0.05893981 0.05188304 0.07705388 0.0737786
000230 7c ad b2 bd 07 a4 15 3c 8a 7a a4 bd db ac aa bd
       -0.08724496 0.009133345 -0.08031185 -0.08333751
000240 46 44 96 bc 0d 3a a9 bd b1 06 be bb 26 1e cb 3d
       -0.018343102 -0.082630254 -0.0057991375 0.0991786
000250 a1 cf 36 3d 4a 66 ff bc 67 34 22 bd bd f9 ef 3c
       0.044631604 -0.031176705 -0.039600756 0.02929389
000260 c2 9f 48 3c a7 cc 50 3d 54 3f 28 bd ad f5 8d 3c
       0.0122451205 0.05097642 -0.04107602 0.017329061
000270 50 22 68 bc 33 de 19 bd 85 3b 99 3c b0 1c c8 3c
       -0.014168337 -0.03756542 0.018705139 0.024427742
000280 42 49 64 3d 33 fa 09 3d c6 ef 1e 3d 5f 03 87 3c
       0.055733927 0.033685874 0.038802885 0.0164811
000290 42 8e 30 bd bf 38 71 bd 94 45 ad bc 0d ad 70 39
       -0.043104418 -0.058892008 -0.021151341 0.0002295265
0002a0 b6 1e 9a 3d 05 df 48 3d 32 03 15 3c 43 7b 54 bd
       0.07525389 0.049040813 0.009095 -0.051875364
0002b0 b5 c8 ac 3c 40 5a 31 3b 0b d4 b3 3c e3 74 aa 3d
       0.021091798 0.002706185 0.021951696 0.083230756
0002c0 68 ef d4 bc 98 35 2f bd 23 c3 81 bd ae 52 bd bc
       -0.025993064 -0.04277572 -0.063360475 -0.023110714
0002d0 6e 71 8c bd c7 4d 8f 3d f9 54 97 ba 3a 7a 99 3c
       -0.068575725 0.06997257 -0.001154571 0.01873504
0002e0 88 e0 01 bd 63 16 32 3d a1 8b 6b 3d 5b 5d c3 3b
       -0.03170827 0.04347838 0.057506207 0.0059620566
0002f0 84 02 8f 3d 67 fb 67 bd f6 aa 88 bc 3c 8b 67 bd
       0.06982902 -0.05663624 -0.016683083 -0.05652927
000300 d5 a8 40 3d 99 fd 60 3d 57 09 a8 3d a4 64 7e 3d
       0.04703601 0.05492935 0.082049064 0.062107697
000310 9a d2 9b ba ce 34 8a bc 77 fa ae b9 b4 06 a9 3d
       -0.0011888326 -0.016870882 -0.00033374477 0.08253232
000320 39 00 1c 3b 90 2c 45 3d 76 59 39 bd 01 21 64 3d
       0.0023803844 0.0481382 -0.045251332 0.055695537
000330 a6 7b cd 3d 7d 27 5a 3d 15 08 cf bb 0d f4 27 bd
       0.1003335 0.053260315 -0.006318102 -0.04100423
000340 82 23 a9 bd ac 98 d5 bb 27 69 f6 3c f1 ae 80 bc
       -0.08258726 -0.006518444 0.030079437 -0.015708419
000350 4b 0b e8 bb 05 d7 1c bc ab 1a 03 be 43 16 bb bd
       -0.0070814244 -0.009572749 -0.12803142 -0.091351055
000360 e7 58 3f bd f5 70 53 3b e0 f3 0a bc 53 d1 25 3d
       -0.046715643 0.0032263373 -0.008480996 0.04048283
000370 3f 1f d8 3c b8 50 ed bb 4c fc 83 3c 51 55 ba 3c
       0.026382087 -0.0072422884 0.016111515 0.02274576
000380 03 10 86 bd ec 05 95 3d 83 9a 31 3d 2e 7e 92 3d
       -0.06546023 0.0727652 0.043360244 0.07152973
000390 2c a1 ae bd 72 ac 9d bd 0e 7a 05 3d 33 22 30 bd
       -0.08526835 -0.07698907 0.032587104 -0.043001365
0003a0 1f 76 f1 bc 5c 6a 68 3d cd e7 1f 3d a7 9c 46 bd
       -0.02947527 0.056742057 0.03903942 -0.04848924
0003b0 12 d2 ad 3d a5 01 dc 3c dc a6 82 3d e2 27 3f bd
       0.08487333 0.026856253 0.06379482 -0.046668895
0003c0 75 3d 80 bd 37 d4 0d bd 29 51 d6 3a cc c5 87 bd
       -0.06261722 -0.034626212 0.0016351092 -0.06629524
0003d0 24 f6 a3 bc 65 92 c2 bd 4b 5d 9e bd 77 74 92 bc
       -0.02001483 -0.09500579 -0.07732638 -0.0178778
0003e0 d4 2a 4a 3c 14 df a3 bd ac 8a f1 3c f8 4d 3a bd
       0.012339313 -0.08001533 0.02948507 -0.045484513
0003f0 0a eb e1 3c 38 1b 14 3d bd 9f 7a bd 29 39 67 bc
       0.027577896 0.03615877 -0.061187495 -0.014112749

global_block.conv_time.conv.0.bias f4 [8]
000000 61 a2 fe ba 63 ae 6c 3d 4d 1d e6 3c ae ee 42 3d
       -0.0019427055 0.057783496 0.028090144 0.047590904
000010 05 ab 6e bd 00 5d 89 bd f2 a3 01 b5 f6 a4 6a 3c
       -0.058268566 -0.067071915 -4.8294817e-07 0.014321556

global_block.conv_time.conv.1.weight f4 [8]
000000 e6 45 5a 3f 70 ac 87 3f 23 23 6b 3f 05 95 6b 3f
       0.85262907 1.0599499 0.9185049 0.9202426
000010 87 50 79 3f be 0f 8a 3f 29 e6 6c 3f 62 5a 7f 3f
       0.973885 1.0786054 0.92538697 0.9974729

global_block.conv_time.conv.1.bias f4 [8]
000000 42 c0 ab bd 0e 60 c7 bc 87 d0 0d 3d b9 07 94 bd
       -0.0838628 -0.024337795 0.034622695 -0.072280355
000010 ac f8 8b 3d 4f 8f 63 bd 67 3c 9d bc 43 c3 25 3d
       0.0683454 -0.05555659 -0.019193841 0.04046942

global_block.conv_time.conv.1.running_mean f4 [8]
000000 a2 7f 5f 3a 90 e7 b7 3d e6 f0 9d 3d ef 5d 19 3c
       0.00085257937 0.08979714 0.07711963 0.009360774
000010 37 3f 8b bd e6 f7 95 bd cb c5 ee 3b 7e de 9b bc
       -0.06799167 -0.073226735 0.0072867624 -0.019026991

global_block.conv_time.conv.1.running_var f4 [8]
000000 02 4f 23 41 3f 0a 31 41 f1 4d 84 41 f4 a8 14 41
       10.206789 11.0650015 16.538057 9.291248
000010 8a 29 68 41 f7 e3 55 41 10 4e 4d 41 f6 51 ac 41
       14.510141 13.3681555 12.831558 21.54002

global_block.conv_chan.conv.0.weight f4 [8, 8, 11, 1]
000000 8b 46 24 bd 13 56 0c 3d 48 c7 c0 3c 8b 62 76 bd
       -0.040106338 0.034261774 0.023532525 -0.06015257
000010 57 0e f8 3c e0 f5 b2 3c a5 3c 4d 3d d9 cb 38 bc
       0.030280275 0.021845758 0.050106663 -0.01127907
000020 ce 8e 44 bc 07 11 95 bd e6 b2 eb 3c b4 aa 00 3e
       -0.011996938 -0.07278638 0.028771829 0.12565118
000030 8b 6d 5b bd 7e 76 03 3d fc 90 88 3d c8 d2 7f 3b
       -0.053571265 0.032095425 0.066682786 0.0039035548
000040 77 a1 04 bd 15 8a 90 bb eb 8c 8e bd 76 dd 91 3d
       -0.032380547 -0.004410992 -0.06960472 0.071223184
000050 2f ef 6d bd bb 63 d8 3c d8 d0 bf bd 79 ed 3e 3d
       -0.05808943 0.026414743 -0.09366006 0.04661319
000060 47 ba 88 3d ea 3c 0a be 65 56 09 3c 90 3d e5 bc
       0.066761546 -0.134998 0.0083824145 -0.027983457
000070 6d 2c 85 3d 75 73 f4 bc 00 32 86 bd 59 cb 4e bd
       0.06502614 -0.02984021 -0.065525055 -0.050486896
000080 5a fa d9 bc e4 40 fd 3d 4d 4c 05 bd e5 bb 71 bd
       -0.026608635 0.123658925 -0.03254347 -0.05901708
000090 5b a6 34 3c d9 1b 17 3d 37 3d 8c 3c b4 7d 08 3d
       0.01102599 0.036891792 0.017119033 0.033323005
0000a0 84 5e 78 bd f0 61 02 bd 13 5a cc 3c ff f6 33 3d
       -0.060637012 -0.03183168 0.024945294 0.043936726
0000b0 30 06 a5 bb 6e 65 87 3d 21 db 84 bd b0 82 24 3d
       -0.005036138 0.06611143 -0.06487108 0.040163696
0000c0 2d 09 ce 3b de 79 27 3d ff bd b1 3d e3 0f b4 3c
       0.006287715 0.040887706 0.08678817 0.021980232
0000d0 f3 b5 9e 3d b9 31 d1 bc 57 64 cd bd 4a 00 ce 3c
       0.07749548 -0.025536405 -0.10028904 0.025146622
0000e0 f8 1e 78 3d 65 c5 a9 3d 6d 6c ae bb 58 81 6f bd
       0.06057641 0.08289603 -0.005322984 -0.05847296
0000f0 f0 8e 16 3e 78 a2 91 3d 44 fa ac 3d dc 64 39 bd
       0.14702964 0.071110666 0.08446172 -0.045262203
000100 b2 82 34 3d 3a 84 a0 bd 20 6e 66 3c 28 b6 9d 3d
       0.044069953 -0.0783772 0.014064342 0.07700759
000110 22 be 80 3d 4f 78 2c bd e3 08 d3 bc c5 9d 6a bd
       0.06286265 -0.042106923 -0.025761073 -0.057279367
000120 70 ea 20 3d ee 0a ce 3d 3c 0c a3 3d 1b 86 a3 3d
       0.039286077 0.100606784 0.07961318 0.07984563
000130 ee d6 54 bc 25 7f 7a bd f0 fc 83 bd 5a 68 08 bd
       -0.012990696 -0.06115641 -0.064447284 -0.033302642
000140 53 57 97 3c aa a2 54 bd f6 63 b5 3d 5f ea 77 3d
       0.018474257 -0.05191294 0.08856957 0.060526248
000150 20 85 5b bd 6c 4d a1 bc f3 d5 47 bd 25 47 e8 bc
       -0.053593755 -0.019690238 -0.048788022 -0.028354237
000160 5f af a6 3d 83 5d 22 bd 88 22 9e bc fd 96 10 bc
       0.08138918 -0.03963996 -0.019303575 -0.008825061
000170 9a 45 aa 3c 3b 64 d4 bc 20 1f 06 3d 6e 90 80 bd
       0.020785142 -0.0259267 0.032744527 -0.06277548
000180 21 61 ca 3d 2f 7b ac 3d 33 4d cf bc 05 b6 51 3d
       0.09881807 0.08421933 -0.025305366 0.051198978
000190 8d db ca bc a3 6a 16 3d 12 c1 e8 bc 42 67 57 3d
       -0.024762893 0.03672279 -0.028412376 0.05258871
0001a0 d9 d4 38 bd 61 e8 7c bd 32 35 ac 3d 10 6e c8 3d
       -0.045124862 -0.06174505 0.08408584 0.09786618
0001b0 df b1 c0 3b 89 03 f8 bc 80 e6 7c 3d 16 f7 43 be
       0.005880579 -0.030275123 0.06174326 -0.19137225
0001c0 18 b3 59 bd 4b bb a7 3c 82 a1 97 3d e1 02 99 3d
       -0.053149313 0.02047505 0.07403852 0.07471252
0001d0 e8 17 b0 bd 8b f7 13 bd 29 ba 85 bd 8a 95 80 3d
       -0.0859831 -0.036124747 -0.06529648 0.06278522
0001e0 10 bf ba 3d 23 d1 19 3d b9 93 c7 3d 3a 0f 03 3d
       0.091184735 0.037552964 0.09744973 0.031996943
0001f0 53 15 56 bd 47 a9 f3 bc 55 80 cd bd a8 8a a2 bb
       -0.05226643 -0.029743804 -0.10034243 -0.004960377
000200 96 2f 05 3e 85 b0 94 3d 86 b4 29 bd ae 0b c6 bd
       0.13006434 0.07260231 -0.041431926 -0.096701965
000210 77 e2 66 3d 81 7f 6c 3d d3 f4 41 bd ef e1 a8 bd
       0.056368317 0.057738785 -0.047352623 -0.082462184
000220 cd f2 a4 b9 93 ff a7 bd 44 16 bb 3d 79 24 b1 3d
       -0.00031461418 -0.08203044 0.09135106 0.08649535
000230 f2 71 8c 3d fe b1 30 bd 77 64 6b bd a1 3d 14 bd
       0.06857671 -0.043138497 -0.057468858 -0.036191586
000240 dc 57 b7 3d 55 2f 8c 3b 1e c1 d5 3d bf bf d6 bd
       0.08952305 0.0042781034 0.10437225 -0.104857914
000250 23 bd 39 3c 9c 09 fa 3d d1 f8 25 bd 0c 65 8c bd
       0.011336598 0.12208864 -0.040520493 -0.06855211
000260 46 64 97 bd 83 9c 64 3d 9e cf b9 bd e7 14 04 be
       -0.073921725 0.055813324 -0.09072803 -0.12898599
000270 82 4e c9 3b cb 2d 28 3e 3e 27 86 3d 87 85 d3 bc
       0.006143392 0.16423719 0.065504536 -0.025820507
000280 83 29 8e bc c0 19 b8 3c 0a d0 4f 3b 86 aa 24 bd
       -0.017353779 0.022473216 0.0031709694 -0.040201686
000290 20 a3 a0 3d af 21 30 3d 49 10 c3 3d da 1d b5 b9
       0.078436136 0.043000873 0.095245905 -0.0003454525
0002a0 43 71 ed bd ee e8 00 be c1 00 ef 3c dd 17 05 3b
       -0.115938686 -0.12588856 0.029175164 0.0020308413
0002b0 27 7e a4 3d 8d a3 e7 bc b2 83 73 bd 63 61 87 bd
       0.08031874 -0.02827623 -0.059451766 -0.06610372
0002c0 e8 05 cd bd 31 66 a2 bd c1 48 b6 bd 34 da cb 3d
       -0.10010892 -0.07929648 -0.089005955 0.09953728
0002d0 4b 5e db 3d 64 45 05 bb 78 e4 f0 bd bc 2c 03 3d
       0.10711344 -0.002033555 -0.11762327 0.032025084
0002e0 09 76 b6 3c f2 6c d3 3c 37 61 22 bc b6 bb a1 bd
       0.02227308 0.025808785 -0.009910873 -0.07897131
0002f0 7a f3 fd bd 89 25 ed bc 36 d2 35 3d 7b cc cf 3d
       -0.12399955 -0.028948562 0.044389926 0.101464234
000300 e2 ec 94 bc 95 1a b7 bb 23 bc d7 3d 76 bb c7 3d
       -0.01817936 -0.0055878856 0.10533931 0.09752552
000310 b9 8e 9e bc ea a3 3b 3d 90 9c 3c 3d ba 69 f5 3d
       -0.019355165 0.045810618 0.046047747 0.11983056
000320 d9 5b c5 bd 6f 15 b1 bb 93 27 d2 bd 04 81 fb bd
       -0.09636659 -0.0054041664 -0.102614544 -0.12280467
000330 26 80 92 3c 21 1b 6a 3d 51 1e 30 3d 1d 10 18 bc
       0.017883372 0.05715478 0.042997662 -0.009281185
000340 c7 f7 30 3d b4 3f 24 bc e6 18 84 bd 0d ae 02 bd
       0.04320505 -0.010024954 -0.064500615 -0.03190427
000350 64 e1 f6 bb 52 d6 3f bc da 66 1b bd bc 5c fe 3c
       -0.007534193 -0.011708813 -0.037939884 0.031050079
000360 00 6b cc 3d 80 fa 83 3d 53 20 ca ba 63 f5 ae bd
       0.09981346 0.064442635 -0.001542101 -0.085428976
000370 8d c0 9a bc 8e c2 d3 bd bd 5b 42 3d a7 f8 ce bc
       -0.018890643 -0.10339843 0.04745077 -0.025265051
000380 67 8c 98 3b cc 89 60 3d d0 4f d9 bd f0 97 95 3d
       0.004655409 0.054818913 -0.10610926 0.073043704
000390 09 63 51 3c fd 4f 0c bd eb c6 1b b9 8a 61 76 bc
       0.0127799595 -0.03425597 -0.00014856055 -0.015037904
0003a0 24 4e 45 3d 76 c8 3e bc e5 3e d8 3c 64 31 95 bd
       0.048170224 -0.011644473 0.026397178 -0.07284811
0003b0 ee 38 4d bb fe 30 20 be e5 51 0c bd 0f dd 75 bd
       -0.003131445 -0.15643689 -0.03425779 -0.06002527
0003c0 10 af af 3d 8c 3c f9 3c e0 16 41 bd 0d 16 db 3d
       0.085783124 0.030424379 -0.047140956 0.10697565
0003d0 ec 67 e7 bd d0 19 6d bd 72 15 6a bd 96 23 ac 3a
       -0.112991184 -0.057885945 -0.057149358 0.0013133164
0003e0 62 d8 be 3d 47 36 91 bd a2 a5 95 3d c4 23 3c 3d
       0.093186155 -0.07090431 0.073069826 0.045932546
0003f0 df 9d 18 bd 70 b7 ac bd b7 4c 13 bc fb b9 17 bc
       -0.037259933 -0.084334254 -0.008990458 -0.00926065

global_block.conv_chan.conv.0.bias f4 [8]
000000 67 85 b1 b5 49 41 3a 3d c9 35 52 bc ee da 15 bd
       -1.3226353e-06 0.045472417 -0.012830206 -0.03658574
000010 dc c6 c6 3d 8d 9b aa bd 9b 93 49 ba d3 2c 5d 3c
       0.09705898 -0.0833045 -0.00076895364 0.013499456

global_block.conv_chan.conv.1.weight f4 [8]
000000 da 49 62 3f af e1 89 3f 02 d4 6b 3f f9 1f 77 3f
       0.8839394 1.0771998 0.92120373 0.9653316
000010 d1 77 80 3f b1 10 7d 3f 38 9c 6c 3f 84 e7 83 3f
       1.0036565 0.98853594 0.9242587 1.0305028

global_block.conv_chan.conv.1.bias f4 [8]
000000 fd c5 3f be 95 71 9c bc bb 33 12 be 56 3f cb bd
       -0.1872787 -0.019097129 -0.14277546 -0.0992419
000010 62 fb 73 bd 28 dc 01 be 67 b0 e5 bd a9 48 f0 bd
       -0.05956591 -0.12681639 -0.11215287 -0.11732609

global_block.conv_chan.conv.1.running_mean f4 [8]
000000 15 cc 82 3d e1 65 80 3d 20 38 bd bd 2a df 87 bd
       0.06386582 0.06269432 -0.092392206 -0.06634362
000010 12 9b d5 3d 74 a7 49 bd 62 b4 a9 3d 36 79 de 3c
       0.10429968 -0.04923196 0.082863584 0.027157407

global_block.conv_chan.conv.1.running_var f4 [8]
000000 f3 77 20 3e 3e 1c dc 3d ba d7 c7 3d 5a 37 a0 3d
       0.15670757 0.10747574 0.097579435 0.078230575
000010 80 b7 aa 3d 59 af a8 3d 5a 92 a4 3d d0 7d 8c 3d
       0.08335781 0.0823657 0.08035727 0.06859934

local_block.conv_time.conv.0.weight f4 [8, 1, 1, 51]
000000 8d b4 ff bc 59 16 14 3d d8 68 a9 3c 0f 1a ad 3c
       -0.031214023 0.036154125 0.020679876 0.02113059
000010 0f ef cd 3c 71 56 98 bd 0c 78 4b 3d d5 bc 36 bd
       0.025138406 -0.074383624 0.049675032 -0.044613678
000020 78 eb 99 3d 09 18 80 3c eb 8f 1a bc 94 48 92 3d
       0.07515615 0.01563646 -0.009433727 0.071427494
000030 7c 70 2e 3e 18 21 a8 bd 8d 02 82 bd 5d 0d 12 be
       0.17035097 -0.08209437 -0.06348143 -0.1426291
000040 a5 e6 88 bd aa c1 3f 3e 59 88 55 3e 31 33 d7 3d
       -0.06684617 0.1872622 0.20852794 0.10507811
000050 e5 00 b2 bd 94 07 cf bc 11 e2 45 bd a9 32 10 bd
       -0.08691577 -0.025272168 -0.048311297 -0.035204563
000060 4b e4 c2 bb 0a 2a 56 3d 10 3e 75 bd b2 10 8b bd
       -0.005947625 0.052286185 -0.05987364 -0.06790294
000070 8f 26 19 3d 6d 33 c2 3d e8 60 b1 bc 1d 80 65 3c
       0.037390288 0.09482465 -0.021652654 0.014007595
000080 68 26 7a 3c 2a a0 83 bd 36 d5 30 3e db 18 39 3e
       0.015267946 -0.06427033 0.17268834 0.18075888
000090 7a a8 31 3d 2f 54 3d be eb a9 9d bd 27 b6 c8 3c
       0.043373562 -0.18489145 -0.07698425 0.02450092
0000a0 29 50 54 3d 2f 2a 12 be 50 b1 46 3d 4e 41 a4 3d
       0.05183426 -0.14273904 0.048508942 0.080202684
0000b0 53 3d 79 3d 23 fc 08 bd 1c b3 60 3c 38 a0 32 bd
       0.0608495 -0.03344358 0.013714578 -0.043609828
0000c0 3b 30 66 bc 44 98 bd 3d 89 a5 66 bd a8 36 21 3d
       -0.014049585 0.09257558 -0.05631021 0.039358765
0000d0 99 11 7f bd 01 99 a0 bc a0 69 07 bd 8e c3 be 3c
       -0.06227264 -0.019604208 -0.033059716 0.023286607
0000e0 7b 48 1b bd f0 22 00 bd e4 5e 26 3d 18 d9 ce bd
       -0.03791092 -0.03128332 0.04061784 -0.10100001
0000f0 10 84 24 3d 44 c8 01 be ee 11 98 3d ae ab 01 3e
       0.040165007 -0.12674052 0.07425295 0.12663147
000100 a5 de 65 3d dc f5 1d 3c df 40 00 bd 14 5d 08 3d
       0.056120533 0.009641137 -0.031311866 0.03329189
000110 99 ee 1c ba 60 10 64 3c 9f 5e b8 ba aa 9d fc bc
       -0.00059864816 0.01391992 -0.0014066285 -0.030836899
000120 9a 06 ab 3d f6 44 07 be 3a e3 8a bd 6a e9 aa 3d
       0.083508685 -0.132099 -0.06781621 0.083453014
000130 f0 a1 f7 bc 0b a6 62 bd 33 ca 4e 3c bd 96 bf 3d
       -0.030228585 -0.055334132 0.01262145 0.09354923
000140 2d 17 17 3d 27 f9 57 bd 0f 8c 81 3d 13 99 90 bb
       0.036887337 -0.052727845 0.06325542 -0.004412779
000150 64 67 81 3d ba 78 eb 3d 15 6d 33 bd 50 b3 3f 3c
       0.06318548 0.11497636 -0.0438052 0.011700466
000160 f0 21 92 3c 3d 8f ed 3d 2e e6 02 3e 95 72 6b 3d
       0.017838448 0.11599586 0.12783119 0.05748232
000170 4b 36 fd 3a a0 ee 06 be 1d 01 cd bd a6 94 3b bc
       0.0019318549 -0.13176966 -0.10009978 -0.011449015
000180 36 f2 11 3e 3a ab d3 ba 6e e2 e0 3c 82 d1 9e bd
       0.14252552 -0.0016149052 0.02745172 -0.07754804
000190 a3 b2 f8 3c f6 6a c5 bd 50 7e 25 bd 8f d9 94 bd
       0.030358618 -0.09639542 -0.040403664 -0.072680585
0001a0 c1 6f df 3d cd 85 78 bd bd f5 4a bd 21 c7 a4 3d
       0.10909987 -0.060674477 -0.04955076 0.08045793
0001b0 2f 9e 8a 3d f0 a9 64 3d 26 1f 12 3e a2 44 82 bc
       0.067684524 0.055826128 0.14269695 -0.015901867
0001c0 30 57 c1 3d 19 b5 87 bc 2c 26 ac bd b0 f2 70 bd
       0.09440458 -0.016565846 -0.08405718 -0.058825195
0001d0 e2 32 3f bd 7b 2b 81 bc 78 36 fb bc ec 7e 30 bd
       -0.046679385 -0.015767803 -0.030665621 -0.043089792
0001e0 b7 1a 22 be e7 b1 d9 3d cd 2e 28 3e 8f 2c af 3d
       -0.15830503 0.10629635 0.16424103 0.08553421
0001f0 c4 38 f9 3d f8 58 0f 3c 3f 9a 04 3d fe 3b ef bd
       0.1216903 0.008749239 0.032373663 -0.116813645
000200 9a 2d 65 bc a4 2d b7 bd 5b fb bf bd d8 94 53 ba
       -0.013987923 -0.08944252 -0.09374114 -0.00080711907
000210 e1 d9 80 bd dd 06 b9 bd a7 ed 2b 3d aa d7 35 3d
       -0.06291557 -0.09034512 0.04197469 0.044395126
000220 b1 8c 48 3e 45 14 9b 3d 63 2f 83 3d 33 99 4e 3d
       0.1958492 0.075722255 0.06405523 0.05043907
000230 ec aa c4 bd 26 93 87 3d bd 55 f5 3d a0 70 aa bd
       -0.09602913 0.06619863 0.11979244 -0.08322263
000240 ba ac 12 be d4 6b 9b 3d 10 ff e9 bc 69 d9 cd bd
       -0.14323702 0.07588926 -0.028564006 -0.10051233
000250 fc d5 13 be d9 c2 9b 3d 95 fd a1 3d 60 02 fd bd
       -0.14437097 0.076055236 0.07909695 -0.123539686
000260 a4 89 92 bd cd 06 bb bb 41 bc 14 3c a4 65 2c 3d
       -0.07155159 -0.005707598 0.009078086 0.04208912
000270 98 04 1f 3d 68 49 ce bc be be f4 bd ba f5 11 bc
       0.03882274 -0.025181487 -0.11950444 -0.008908683
000280 b1 20 9a 3c 73 bb e0 3d cd a2 74 bd ba 46 de 3c
       0.018814417 0.10973253 -0.05972557 0.027133334
000290 30 d1 85 3d 58 11 19 be 8a 7f 9f bc 59 f2 0f 3e
       0.0653404 -0.14948022 -0.019469995 0.14057292
0002a0 4b 18 a7 bc 24 9f 4b 3d ec 76 7e bb 8d 29 72 bb
       -0.020397326 0.049712315 -0.0038828207 -0.0036951036
0002b0 b5 a8 b8 3d e8 50 cc 3b 62 50 3a bd a2 83 d5 3d
       0.09016553 0.0062352307 -0.045486815 0.104254976
0002c0 dd c9 bb bc 50 1d 4b bc 16 ad fa 3c 4c 66 85 bd
       -0.022923404 -0.012397125 0.030600112 -0.06513652
0002d0 b7 60 ab bd 4e b1 06 bd bb 27 5d 3e 64 0e 1c 3d
       -0.08368056 -0.032883935 0.21597187 0.03809966
0002e0 29 7f ba 3d 11 8d f8 bd 8d f3 f8 3c 0b 68 2e 3d
       0.09106285 -0.12136281 0.030389572 0.04257969
0002f0 e3 b0 17 bd 7f dd 91 bd 69 b4 26 3d 08 9e a4 3b
       -0.037033927 -0.07122325 0.040699396 0.0050237216
000300 0a 77 f1 bc d6 1a 08 bd 01 80 06 3e 22 00 4e bd
       -0.029475708 -0.033228718 0.13134767 -0.050293095
000310 24 ba 18 3d f0 8f 14 be d5 78 0c be 57 df 98 3d
       0.037286893 -0.14508033 -0.13717969 0.07464474
000320 34 93 3f bc a6 56 22 3e 73 0f 10 3d ac ae cb 3d
       -0.011692811 0.15853366 0.035170984 0.099454254
000330 8e 61 54 bd 83 11 d3 3d 46 a9 c7 bd 14 da 35 bd
       -0.051850848 0.103060745 -0.09749083 -0.04439743
000340 1b f8 2c bb db d5 77 bd 7a 41 41 3d 36 15 6b bd
       -0.0026393 -0.060506683 0.047181584 -0.057393275
000350 44 ac da 3c 7b df 8b bb 12 3f 17 be f9 83 f8 bd
       0.02669347 -0.0042685843 -0.14770153 -0.12134547
000360 fb 3c c6 bd b3 24 37 3d 5e 91 70 3d 26 5b 58 3b
       -0.096796 0.044712733 0.058732383 0.0033013313
000370 ec 2e f3 3d 8e 3f b0 bd 7f c6 5b 3d 8d 5b 88 3d
       0.11874184 -0.08605872 0.053656098 0.06658087
000380 8a 90 39 be 71 12 03 be 00 99 73 bc 9a f9 b3 bc
       -0.18121544 -0.12800004 -0.014868021 -0.021969605
000390 0f 75 19 bd 10 0e 73 bb 61 5f d9 3d c0 4e 4f 3b
       -0.03746515 -0.003708724 0.10613895 0.0031632632
0003a0 f8 7b be bd 56 d2 b9 bc 0f e8 9d 3d 95 ba 82 3d
       -0.09300989 -0.022683304 0.07710277 0.06383244
0003b0 a4 ca 1d 3c fd 5b 85 3d b6 79 0d bd 20 65 66 bd
       0.009630833 0.06511686 -0.0345399 -0.056248784
0003c0 22 e2 8f 3d f1 c6 10 be a2 42 2c be 57 df be 3c
       0.07025553 -0.1413839 -0.16822293 0.023299856
0003d0 04 50 b5 bd 19 8d 41 bd 01 79 1f 3e d5 05 03 3e
       -0.088531524 -0.0472537 0.15573503 0.12795193
0003e0 98 2c 8c bd 9b f8 b8 3c ad 18 86 bd 1b 94 f3 bc
       -0.06844443 0.022579482 -0.06547675 -0.029733708
0003f0 54 03 8a bd 7c f1 80 3c ed f7 05 3d 9f 21 02 bd
       -0.06738916 0.015740149 0.032707144 -0.031770345

local_block.conv_time.conv.0.bias f4 [8]
000000 db 2f 3f 3d 85 1b e3 bd f1 35 57 3d 51 27 03 3d
       0.046676498 -0.11089233 0.052541677 0.032019917
000010 85 46 2c 3d 5e d9 b4 3d 9d 3a 00 3e 3f 90 50 3d
       0.04205944 0.08830522 0.12522359 0.050918814

local_block.conv_time.conv.1.weight f4 [8]
000000 75 2f 82 3f e9 9f 6e 3f ac 99 8b 3f 72 7e 7c 3f
       1.0170733 0.93212754 1.0906272 0.9863044
000010 0c ce 64 3f a3 4e 78 3f af 7d 70 3f 81 93 7c 3f
       0.893769 0.9699499 0.9394178 0.98662573

local_block.conv_time.conv.1.bias f4 [8]
000000 79 10 52 be 4b 28 65 bd 9e 7a ab 3d 3f 84 01 bd
       -0.20514096 -0.05594663 0.08372997 -0.03162026
000010 c9 18 ed bc 8a 81 7a 3b 58 50 6b 3c 96 bc 00 3c
       -0.028942483 0.0038224184 0.014362417 0.007857462

local_block.conv_time.conv.1.running_mean f4 [8]
000000 cb 9b 88 3d e9 25 8c bd ed 97 93 3d 81 4f 1d 3d
       0.0667034 -0.06843168 0.07206712 0.0384059
000010 e4 af 05 3d 90 32 eb 3d c9 c1 20 3e 46 dc 2d 3d
       0.032638445 0.114842534 0.15698923 0.042446397

local_block.conv_time.conv.1.running_var f4 [8]
000000 33 2a cd 40 7c c4 e4 40 1b d1 78 41 8e f6 99 40
       6.4114013 7.148985 15.551051 4.811347
000010 61 bf f6 40 19 19 bd 40 af 46 5e 40 51 b1 ee 40
       7.7108617 5.9093137 3.4730642 7.459145

local_block.conv_chan.conv.0.weight f4 [8, 8, 11, 1]
000000 f4 73 5f bc 13 5d 8f 3d 9d 57 19 bc b2 e8 f2 3c
       -0.013638485 0.070001744 -0.009359268 0.029651973
000010 54 8b 9d bc a3 47 08 3b f4 de 86 bc 99 d7 79 3d
       -0.019231476 0.0020794652 -0.016463734 0.060996626
000020 78 73 e7 3b 59 6c 81 3d 66 83 21 bd 87 95 b6 3c
       0.0070633255 0.06319494 -0.039431952 0.022288097
000030 63 40 08 3e 2e b8 da 3d 86 2d df bc e2 fc fa 3b
       0.13305812 0.10679661 -0.027243387 0.0076595405
000040 a0 b2 0a bd 75 41 d6 bd e0 08 2f bd fc f3 76 3c
       -0.033861756 -0.10461704 -0.042733073 0.015072819
000050 0a 41 bb 3c 27 64 c8 bb 05 0b 3c bd 57 15 f1 3c
       0.022858161 -0.0061154547 -0.045908947 0.029429121
000060 bb 6b 63 3d 30 49 ab 3b b5 52 1a 3c 94 44 6f bc
       0.05552266 0.0052272305 0.009419133 -0.014603753
000070 93 e0 06 bd 55 a0 a5 bd 5e fb 90 bd 41 88 af 3d
       -0.032929014 -0.080872215 -0.070791945 0.0857091
000080 50 47 c1 bd 55 51 1d bd 3b 9c 32 bd 87 1f ee bb
       -0.0943743 -0.038407642 -0.043606024 -0.007266942
000090 c2 13 7f 3d aa f4 ae 3c 76 4e 42 bc 4b 83 93 3c
       0.062274702 0.0213569 -0.011859527 0.018006941
0000a0 0b 1e 2c 3d 37 dc cf bd 68 4c 8e bd 13 da ba 3d
       0.04202084 -0.101494245 -0.06948167 0.091236256
0000b0 ac b4 8e 3d a5 c7 e3 3d 41 75 33 bd d0 e0 03 bd
       0.06968054 0.111220635 -0.043812994 -0.03219682
0000c0 62 5c 0b bd c8 fc b1 bd b3 1a 02 3e 19 28 60 3e
       -0.03402365 -0.08690792 0.12705497 0.21890296
0000d0 06 f5 0f bb 29 c7 55 3c b9 08 c1 3b 31 4a 90 3c
       -0.0021966114 0.013047972 0.0058909324 0.017613502
0000e0 25 9d 16 3e f9 8d 8b 3d e2 7e fb 3d 73 77 c8 3c
       0.14708383 0.068141885 0.1228006 0.02447102
0000f0 24 f1 27 bd 7f 7a de 3c 28 1c 01 be 51 e6 01 be
       -0.041001454 0.02715802 -0.12608397 -0.12685515
000100 5a 89 c4 3b fe 7d 24 b9 b6 8c 80 3c bf 99 51 3d
       0.005997819 -0.00015687195 0.015692096 0.051172014
000110 0d 12 48 bd b1 20 80 3d dc ca ae bc fa 74 0a bd
       -0.04884534 0.062562354 -0.021336965 -0.033802964
000120 69 f5 ed 3c cf bc 16 bc e9 ec 40 bc b6 a5 1b bd
       0.029047685 -0.009200289 -0.011775234 -0.03799983
000130 7d 4e f7 39 3e a1 f3 3c ab 56 6d 3d c4 f5 ee 3c
       0.0004716999 0.029739972 0.05794398 0.029169925
000140 4d 34 19 ba d9 fa a2 3c 9b 1d 07 3b 70 83 ba bc
       -0.000584428 0.019895004 0.0020617011 -0.022767752
000150 3d 8c f9 bc 2e da 18 3c c1 26 15 bc a3 4b 16 bd
       -0.030462379 0.009329362 -0.009103478 -0.036693227
000160 41 a4 1d bb a3 81 84 3c 02 cd 6d 3d f1 58 93 bd
       -0.0024054202 0.016175097 0.05805684 -0.071946986
000170 0a 3a 05 3d fd 5c 01 bd 62 45 0c bc 1a 4e d7 3d
       0.032526053 -0.03158282 -0.008561464 0.105129436
000180 7e 4c 86 bb b3 6f 8d 3d a6 e4 e2 bc bf d4 a9 bd
       -0.004098474 0.069060706 -0.027696919 -0.08292531
000190 7d b5 85 3c da e7 ae 3c c3 78 76 3d a7 b0 30 3c
       0.016321892 0.02135079 0.06017376 0.010784305
0001a0 13 ed df 3c 13 ca 09 3d 68 ce b3 bc 47 e8 34 bd
       0.027334725 0.03363998 -0.021949008 -0.04416683
0001b0 f4 9c b9 3d 40 a3 5b bd 97 74 a2 bd 85 af 08 3e
       0.090631396 -0.053622484 -0.07932394 0.13348205
0001c0 5f 7a 64 bd e4 78 f5 bd 23 d6 ea bb f2 fe 9f bd
       -0.055780765 -0.11985949 -0.0071666404 -0.07812299
0001d0 7d a1 bd 3d f3 6a 54 3e 4d 0b 48 3d f8 a7 5b bd
       0.09259317 0.20743923 0.048838902 -0.053626984
0001e0 8e d0 b8 bd b4 18 10 3d eb 2f 69 bd 33 e4 13 3d
       -0.09024154 0.03517981 -0.056930464 0.0361063
0001f0 a5 7e ab bc 4c 0a dc 3c 03 88 70 3d d9 b9 d6 bd
       -0.020934412 0.026860379 0.05872346 -0.104846664
000200 e3 de 36 bd e0 b2 90 bc 76 fb 20 bd b0 aa 01 3e
       -0.044646155 -0.01766342 -0.03930231 0.12662768
000210 94 27 7b 3b fe 4f cf 3c 69 a8 67 3d cb 3f 90 3c
       0.003832315 0.025306698 0.056557093 0.017608544
000220 f1 7c 5f 3c 45 9a 43 3d 12 a0 3e bd a0 d6 0e be
       0.013640628 0.047754545 -0.046539374 -0.1394906
000230 6e 8c 0e bc 5c e1 21 bd d1 a9 03 3b 20 cf 95 3d
       -0.008700473 -0.03952156 0.0020090232 0.073148966
000240 28 21 c5 bd 7f e2 37 bc e9 aa 4e 3d 3f 59 61 bc
       -0.09625465 -0.0112234345 0.05045596 -0.013754188
000250 58 74 51 3c ec 45 c2 bc 81 6e 86 bd d5 55 c1 bc
       0.012784086 -0.023714982 -0.06564046 -0.023600498
000260 7b 3f a1 3d 92 f6 63 bd a2 00 59 bc 8a 13 04 bd
       0.07873436 -0.05565507 -0.01324478 -0.032245196
000270 e0 ab 7f bd d8 b0 c4 bc 8c ec 06 bd bf ae b3 bc
       -0.062419772 -0.024010107 -0.032940432 -0.021933911
000280 2f 86 8b 3d 57 03 36 3e d8 d3 54 3d 9a 15 85 3c
       0.06812703 0.17774712 0.051959842 0.016245652
000290 08 a5 02 bd e1 d8 2d bd 4f bd 77 3d 1d 95 cb bc
       -0.031895667 -0.04244316 0.060483273 -0.024851376
0002a0 83 63 c2 bd da 28 97 ba b4 82 7d bc f9 78 c9 bc
       -0.094916366 -0.001153256 -0.015473057 -0.024593817
0002b0 be d2 0d 3e 0b 76 95 3c 52 c0 d5 bc b5 d0 8a bd
       0.13849923 0.018244764 -0.026092682 -0.06778089
0002c0 11 49 c9 3b bd 9e 5e bd a4 d8 c5 bd 58 cb cf 3d
       0.0061427434 -0.054350603 -0.096604615 0.101462066
0002d0 64 ab ad 3d e5 d6 4b bd cd 47 c6 bd da 31 7c 3d
       0.08479956 -0.049765486 -0.09681664 0.06157098
0002e0 26 c3 51 3a 8f 16 c5 ba b1 08 38 bd 35 94 db bd
       0.00080017967 -0.001503663 -0.044930164 -0.107216276
0002f0 ef 74 09 be 30 9f c0 bd dd ed ea 3d f4 93 e5 3d
       -0.13423513 -0.094053626 0.1147115 0.112098604
000300 42 51 7e 3b cd 16 08 3d 8a 26 aa 3d 07 06 08 3d
       0.0038805758 0.03322487 0.08308132 0.033208873
000310 7d 69 cc 3b 93 8d d2 3d 49 33 7d bd 67 93 1d be
       0.006238161 0.102809094 -0.061816487 -0.15388261
000320 ca f6 87 3d 4d fc f5 3c 90 a6 4d 3c 57 0d c6 bc
       0.06638868 0.030027533 0.012551919 -0.024176283
000330 c3 df bb 3b 86 f1 99 bd 4f 2d 80 3d 65 40 f1 bc
       0.0057334616 -0.0751677 0.06258642 -0.029449651
000340 7f f7 be bc 4c 0b 0e 3d fc a0 69 bc 46 0b 7c bd
       -0.023311375 0.034678742 -0.014259573 -0.06153419
000350 0f 83 5f 3d 9e 6b a2 3d cc 65 0f bc f3 93 af bc
       0.054568347 0.079306826 -0.008752298 -0.021432852
000360 38 8a 6d bd 88 1c 8b bd ab 20 8d 3d fb b5 36 bd
       -0.057993144 -0.06792551 0.068909965 -0.044607144
000370 bb a9 8e bd 7a 18 6e 3b b1 ed a2 bb b0 99 88 3c
       -0.06965967 0.0036330507 -0.0049721827 0.016674846
000380 42 02 82 bb 30 db c6 3d ed 00 9e bc b0 b6 d8 bb
       -0.0039675543 0.097097754 -0.01928755 -0.006613575
000390 c0 99 61 bd 6d b8 d5 bb 96 a8 d8 bb 37 89 10 bd
       -0.055078268 -0.0065222294 -0.006611894 -0.03528711
0003a0 ef 4e 13 be 16 5e be bd d3 1f 64 3d 56 1e 18 3d
       -0.1438558 -0.09295289 0.055694412 0.037138306
0003b0 47 a2 12 3d b0 37 6c 3d 80 6a d2 bd 9e e5 79 3d
       0.03579929 0.057670295 -0.102742195 0.061009996
0003c0 c7 aa 1b 3c e3 ed 73 3d 90 59 41 3a e9 81 9c ba
       0.009501166 0.05955304 0.00073757116 -0.0011940572
0003d0 18 66 fc bd 28 37 16 be 42 9c db bc 31 f7 b8 3d
       -0.1232416 -0.14669478 -0.026807908 0.09031523
0003e0 57 5c a2 bd fe 63 d7 3d f3 36 10 bd 8e ac 85 3d
       -0.07927769 0.10517119 -0.035208654 0.06527053
0003f0 37 b6 fd ba e8 9e cb bc f4 05 e9 3d a6 2e a9 bd
       -0.0019356672 -0.024856046 0.113780886 -0.082608506

local_block.conv_chan.conv.0.bias f4 [8]
000000 98 dd fd ba ca ed 54 bd 14 3e 3f 3d 9b dd 81 3d
       -0.0019368408 -0.051984586 0.04669006 0.06341096
000010 e0 51 8f 3d 1b 43 cd 3b 28 16 a2 3d 90 18 46 bc
       0.06998038 0.006264103 0.07914382 -0.012090817

local_block.conv_chan.conv.1.weight f4 [8]
000000 cb 93 78 3f d6 c8 8b 3f f2 bb 8e 3f 92 60 64 3f
       0.97100514 1.0920665 1.1151106 0.89209855
000010 bd b1 82 3f 6e a4 97 3f ba 2e 80 3f 78 2f 88 3f
       1.0210491 1.1847055 1.001426 1.0639486

local_block.conv_chan.conv.1.bias f4 [8]
000000 df c1 ca bd 7c 08 e7 bd 17 3e a6 bd 2f 40 36 be
       -0.09900259 -0.11280915 -0.081173114 -0.17797922
000010 18 95 94 bd 99 c2 5d 3c ad de ad bd 38 37 02 be
       -0.07255 0.013535165 -0.08489738 -0.12716377

local_block.conv_chan.conv.1.running_mean f4 [8]
000000 f6 bb ab 3c 4b db 41 bd 9a cc 74 bd 94 c3 f1 3d
       0.02096365 -0.047328275 -0.059765436 0.11804882
000010 d5 cb c1 bb 5e c4 1d 3d 40 e2 3e 3d 37 fe 45 bd
       -0.0059141912 0.03851735 0.046602488 -0.04833814

local_block.conv_chan.conv.1.running_var f4 [8]
000000 d4 74 01 3e 3e 93 d3 3d 53 1e 9a 3d c5 27 54 3e
       0.12642223 0.103308186 0.07525315 0.20718296
000010 db 81 1f 3e 85 d6 7c 3d d6 2d d4 3d d8 86 f9 3d
       0.1557688 0.06172802 0.10360305 0.121839225

atten.conv.weight f4 [1, 1, 3]
000000 92 4a 93 bf 13 6d 0a bf 53 65 2b 3e
       -1.1507132 -0.54072684 0.16737871

tcn.network.0.conv1.weight f4 [16, 16, 16]
000000 da f4 8b bc a7 b0 12 3c 0f 37 74 3b 18 33 d4 b9
       -0.017084528 0.00895325 0.0037264263 -0.0004047386
000010 63 81 41 bd de 51 bc 3c 5f 03 aa bc 85 db e1 bc
       -0.047242533 0.022988256 -0.02075356 -0.027570495
000020 a0 db 1f bd c3 fb 17 bd 0d 58 2d bd cc 86 3a bd
       -0.03902781 -0.037105333 -0.0423203 -0.04553871
000030 7b 15 c4 3c a4 ba 70 3b e2 e7 6c 3c 3f 0a 9d bc
       0.023936024 0.003673234 0.014459582 -0.019169925
000040 70 32 a9 3d 66 04 57 3a 0e d5 26 3d d0 c9 ef bc
       0.08261573 0.00082022545 0.04073053 -0.029271036
000050 de 02 3f bc f8 8f ba ba b4 9f bc 3b 22 3e 8a bb
       -0.011658398 -0.001423358 0.005756343 -0.0042188326
000060 51 16 ee bc 85 b9 9c bd ab 51 90 bd fc 23 c0 bd
       -0.029063376 -0.076525725 -0.07046827 -0.093818635
000070 2b 3e 05 bc 2c a7 6d bd 6e e7 ee bc 65 ed 47 bd
       -0.008132498 -0.058020756 -0.029163089 -0.04881038
000080 75 61 01 bd 6e d9 ab bc d4 5c e6 3b a1 00 06 3d
       -0.031587083 -0.020977702 0.007030109 0.032715444
000090 ce c5 6e 3b 8f e4 53 3d 46 b3 ad bc 4c 12 ac bc
       0.0036433819 0.051731642 -0.021203648 -0.021004818
0000a0 98 d1 e2 3c 73 bd d7 bc 95 9a 20 bd fa a5 5e 3c
       0.027687833 -0.026335454 -0.03920992 0.013589377
0000b0 4b 8e 6b bb 62 37 fb 3c a3 e6 97 bc cc 4d b7 3b
       -0.0035942968 0.030666057 -0.018542593 0.005593991
0000c0 75 40 a2 3d 98 06 94 3c d1 b0 ee 3c 11 27 51 3d
       0.079224505 0.01806955 0.029137047 0.051062647
0000d0 13 4e 74 3d 5a d5 70 3d 95 ec 3b bc 10 4e 30 3d
       0.05964477 0.058797218 -0.01146998 0.043043196
0000e0 3d f9 ae 3c 94 ae 02 bd 86 da 36 bd b1 fc b2 3b
       0.02135908 -0.031904772 -0.044641994 0.005462252
0000f0 55 78 f2 3c b8 cc 75 3c 90 a7 95 3d 17 e3 42 3d
       0.029598394 0.015002422 0.07307351 0.04757985
000100 16 2f 61 3d 7b 1e ce 3c ff 55 c4 bb 42 95 84 bc
       0.054976545 0.025161019 -0.005991697 -0.016184453
000110 8b 60 00 bd e7 25 52 3d bf 3d 73 bc 38 8f 55 3c
       -0.03134207 0.051305678 -0.014846264 0.013034634
000120 64 aa 8f 3c 6f c5 07 bd f7 82 21 3c 8d d3 9d 3c
       0.017537303 -0.03314727 0.009857885 0.019265914
000130 69 c4 a4 bc 18 77 b3 bb 4f d8 21 3c 9e 4e ab 3c
       -0.020113187 -0.0054768436 0.009878232 0.020911511
000140 c2 68 41 3d 26 f9 82 bc d8 ed 20 bd 08 b3 e9 bb
       0.047219045 -0.015987944 -0.039289325 -0.007131938
000150 59 5a b8 bc a5 e9 01 bc df d9 58 bd be ff a8 bc
       -0.022504019 -0.00792924 -0.052942153 -0.02062976
000160 d0 e2 0f bc 14 b9 bd bc 65 45 9f ba e0 43 9f 3c
       -0.008782104 -0.023159541 -0.0012151418 0.019441545
000170 af 7c 71 bd 02 5e 04 3d c1 60 69 bc d4 9c 94 bc
       -0.0589568 0.032316215 -0.014244259 -0.018141188
000180 cb 27 00 3d 95 01 6f 3d 9b a1 ac bc b2 b3 04 bd
       0.03128795 0.058351118 -0.021073153 -0.032397933
000190 1f 4a 33 3d 10 f6 84 ba 99 c0 a8 bc 8f 74 2a bd
       0.04377186 -0.0010144133 -0.02059965 -0.041615065
0001a0 61 40 83 bc 1c 33 36 bd 3b fe 1d bd 3f bf 68 3c
       -0.01602191 -0.044482335 -0.03857253 0.014205753
0001b0 d8 17 8c bc 68 63 4c 3b 22 5f 87 3c f7 27 1f 3c
       -0.017101213 0.003118718 0.016524855 0.009714118
0001c0 96 ab 67 3b 11 06 5e bd cd f2 58 bc db f1 36 bd
       0.0035350076 -0.054205004 -0.013241482 -0.044664245
0001d0 a4 0a f3 bb e4 d6 2e bc 55 b6 80 bd 61 7d 9e bc
       -0.00741704 -0.010671351 -0.06284777 -0.019346895
0001e0 df 95 54 3c a6 a5 d3 3c cc e2 e5 3c 0b 4f 0f 3c
       0.012975185 0.025835823 0.028062247 0.008746873
0001f0 0a cd 9a 3c 09 2f 66 bc 98 28 81 bd 18 47 94 bc
       0.018896598 -0.0140493 -0.06306571 -0.018100306
000200 eb 65 2e bd 26 10 11 bd 15 3a 6f 3b c8 86 48 bc
       -0.042577665 -0.03541579 0.0036503125 -0.012239166
000210 2d 3f 9f bc 6a 7f f5 39 e6 29 6e 3d f8 0d 9d 3c
       -0.019439304 0.00046824972 0.058145426 0.0191717
000220 88 28 59 3d 49 af be 3c d0 c5 85 3c 77 3f 8e bb
       0.05301717 0.023276942 0.016329676 -0.0043410617
000230 e8 a2 56 bd 31 66 a4 bc b3 8d ba 3b 0d fd ea bc
       -0.052401453 -0.02006826 0.0056931614 -0.028685117
000240 a0 78 5b 3c b8 06 8d 3c 9c 20 4c 3d b3 a7 b4 3a
       0.013395458 0.017215118 0.049835786 0.0013782888
000250 00 bf 61 bc 0e c7 41 bd aa 99 21 bd 06 85 6d bd
       -0.013778448 -0.047308974 -0.039453186 -0.05798819
000260 ed d8 91 bd 87 66 6e bd 36 83 84 3b b7 d2 d9 3c
       -0.071214534 -0.058203246 0.004043962 0.026589734
000270 47 f9 3a 3d ea 47 87 3d 14 9d 8a 3d 82 e5 05 3e
       0.045647886 0.066055134 0.067682415 0.13075832
000280 07 c2 cf bb e2 06 46 bc 25 21 70 bb f9 b6 ed 39
       -0.0063402685 -0.012086602 -0.003664085 0.00045340488
000290 11 3a c1 3a 42 0f 4e bd 7b a7 07 bd 8d 36 2c 3c
       0.0014742037 -0.05030752 -0.033118706 0.010511053
0002a0 88 47 d4 bc e6 81 17 3d b5 e1 2c bd fb 7d 76 bc
       -0.025913015 0.036989115 -0.04220744 -0.0150446845
0002b0 66 2b e2 bc 52 bd 30 bd 5d f7 b4 bc 0f 8a b0 bc
       -0.027608585 -0.0431493 -0.022090608 -0.021550206
0002c0 b5 ea c6 bc be ac ae bc d2 50 74 bd bb 4a a0 bb
       -0.024281839 -0.021322604 -0.05964739 -0.004891721
0002d0 16 2d 39 bd c1 64 7d 3a 46 d4 48 bb f4 02 24 3c
       -0.045209013 0.00096661976 -0.0030644103 0.01001047
0002e0 e6 0c 9b bc 41 bf fa 3c 1a 95 c6 3b 66 25 7b 3c
       -0.018927049 0.030608775 0.0060602548 0.015328741
0002f0 5c 64 56 bb 50 0d 59 3b da 83 13 3c c3 05 94 3c
       -0.0032713627 0.0033119507 0.009003604 0.018069154
000300 b4 2f a7 bb 3a 59 16 bc e0 e3 b3 3b 25 0d e5 3c
       -0.005102122 -0.009176547 0.0054898113 0.02796037
000310 2e 5a c4 3b e3 0f 9a bc 66 ff d3 bc e7 5f 0a bd
       0.0059921956 -0.018806404 -0.02587862 -0.033782866
000320 90 e4 14 bd 47 82 c5 bc 55 33 ae 3d 19 2a df 3c
       -0.036350787 -0.024109973 0.085058846 0.027241753
000330 ad de 8c 3c 58 82 3f bb bd 4b a5 3c 62 dd 0b bd
       0.017196024 -0.0029221978 0.020177716 -0.034146674
000340 f3 9d 6a 3c 82 33 a2 bb e3 da 4f ba 98 24 a5 39
       0.014319885 -0.004949988 -0.000792904 0.00031498517
000350 b9 a1 95 3c 6e 5c 8b bc 59 ab 86 bd 2d d9 e6 bc
       0.018265592 -0.017011847 -0.06575651 -0.02817973
000360 e9 ba 13 bd 5d cd 88 bd ba 29 47 bd 18 3b ae 3c
       -0.036066923 -0.06679795 -0.048623778 0.021268412
000370 8f 9c 2a 3d 37 03 3f 3d aa be d3 bc 0c 51 63 bb
       0.041653212 0.046633925 -0.025847752 -0.003468576
000380 88 23 84 bd 87 94 8f bc 1f 12 2c 3c 39 16 ac 3c
       -0.064520895 -0.017526878 0.010502367 0.02100669
000390 41 d5 2e 3d 88 17 a4 3b a7 8a 50 3d 3c 85 22 3c
       0.042683844 0.005007688 0.05091348 0.009919461
0003a0 5c bb a6 3d c7 0b f1 3c 65 e2 95 3b 96 e1 84 bc
       0.08141205 0.029424561 0.0045741075 -0.016220849
0003b0 2e 7e 00 bd 60 5b 4a bd 42 27 75 bd fc 7a 13 bd
       -0.031370334 -0.04940355 -0.059851892 -0.03600596
0003c0 50 a0 25 bd 8e ae 17 3c fc da 38 bd a1 fb b5 3c
       -0.04043609 0.009257926 -0.045130715 0.022214713
0003d0 13 00 94 3c 30 40 8e bb a9 2e 1b 3d f6 ee d4 3c
       0.018066442 -0.004341148 0.037886295 0.025992852
0003e0 95 ae ec 3b 20 4a 4c 3b d0 c6 5f 3d 9b 2e 82 3d
       0.0072229602 0.0031172112 0.05463296 0.063565455
0003f0 9f 77 4d 3d 1c 22 4c 3d 0f 6e 01 bd fa aa a6 3c
       0.050162908 0.049837217 -0.0315991 0.0203452

tcn.network.0.conv1.bias f4 [16]
000000 cf 66 3d 3a bb 7f 24 bb 33 a0 61 3c f2 6c ab b5
       0.00072250975 -0.0025100547 0.013771105 -1.27722e-06
000010 84 38 63 bc 7e b3 1d 37 00 e8 40 3b 1d 49 09 3a
       -0.013868455 9.3997205e-06 0.0029435158 0.000523703
000020 91 e6 1b 37 3d b7 b4 b8 eb ac 98 b7 da d5 e0 b7
       9.292403e-06 -8.6172e-05 -1.8200333e-05 -2.6802463e-05
000030 d7 03 d1 3c 64 84 ed 37 f3 b5 d7 3c 16 82 ef bc
       0.025514526 2.831425e-05 0.026331877 -0.029236834

tcn.network.0.bn1.weight f4 [16]
000000 05 ce 87 3f 04 9d 89 3f df 07 83 3f f1 a7 8a 3f
       1.0609747 1.0751042 1.0236777 1.0832502
000010 84 3f 91 3f 43 48 8e 3f 2d 8c 81 3f c6 a1 89 3f
       1.1347508 1.1115803 1.0120903 1.0752494
000020 3c e6 83 3f 1b c6 87 3f 05 12 88 3f fd 7f 80 3f
       1.0304637 1.0607332 1.0630499 1.0039059
000030 80 92 81 3f 45 9f 84 3f 4a 38 87 3f 43 da 82 3f
       1.0122833 1.0361105 1.0564053 1.0222858

tcn.network.0.bn1.bias f4 [16]
000000 c8 24 3b be 88 12 7b be 38 bd a7 be 97 7c 4a be
       -0.1827575 -0.24518788 -0.3276155 -0.1977409
000010 55 60 59 be 0d cc 91 be b1 87 5e be 97 a6 29 be
       -0.21228154 -0.2847599 -0.2173145 -0.16567455
000020 c2 1d 4d be 42 4c 94 be 6e 93 73 be 65 64 54 be
       -0.20030883 -0.2896443 -0.23786709 -0.20741422
000030 e5 d7 77 be 1e 90 76 be 4b b9 45 be 32 2e 78 be
       -0.24203451 -0.24078414 -0.19308965 -0.24236372

tcn.network.0.bn1.running_mean f4 [16]
000000 1d b0 29 bd b0 ef 89 bd e5 85 ac bd 23 2e 86 ba
       -0.04142772 -0.0673517 -0.08423976 -0.0010237138
000010 7b 86 e7 bc 0e 55 17 bd 79 65 c7 bc 3a 84 ec 39
       -0.028262367 -0.03694635 -0.024340378 0.00045111944
000020 46 29 7f bd 20 10 46 bc 25 24 ee bc 43 08 24 bd
       -0.06229522 -0.012088805 -0.02906997 -0.04004694
000030 b4 d3 54 bd b0 75 fc bc 7d 6d 0d bd b4 b2 17 bd
       -0.05195971 -0.030817837 -0.034528244 -0.03703566

tcn.network.0.bn1.running_var f4 [16]
000000 c5 b9 04 3f 7f be 09 3f 60 91 e3 3e e9 67 11 3f
       0.5184596 0.538063 0.4444685 0.5679918
000010 d4 c9 10 3f 14 52 0a 3f 77 49 d5 3e d9 6c 1f 3f
       0.56557965 0.5403149 0.41657612 0.62275463
000020 b5 b8 f7 3e f6 4f 10 3f bb 89 f1 3e 10 59 04 3f
       0.48383108 0.5637201 0.47175393 0.516984
000030 bb 47 0d 3f 74 da 1b 3f 73 9f fc 3e 2e 7e f1 3e
       0.55187577 0.6088021 0.493404 0.4716658

tcn.network.0.conv2.weight f4 [16, 16, 16]
000000 fe c5 02 ba 90 0d fa bb 29 6d 9c 3c bf 8b 92 bb
       -0.00049886096 -0.0076310113 0.01909502 -0.0044722254
000010 f8 ad 09 3d 93 40 b0 ba 2d fa 7c bc 50 46 2c bd
       0.033613175 -0.0013446979 -0.015440506 -0.042059243
000020 8f 49 1a bd 9c ec 0f bd 4c e6 14 bb e6 02 45 bd
       -0.037667807 -0.035137758 -0.0022720275 -0.048098467
000030 d3 20 a4 ba 01 42 0a 3d 1b c2 2a 3c 7e 89 96 bc
       -0.0012521989 0.033754352 0.010422255 -0.018376108
000040 82 16 d6 3b 28 37 89 3c 57 02 ab b9 f5 75 5e 3c
       0.006533445 0.016749933 -0.00032617405 0.013577928
000050 d3 4b ef 3c fa 70 c6 3c 42 a7 3d bc d7 29 c2 3c
       0.02921096 0.024223793 -0.011575522 0.023701591
000060 a0 7d 3f 3c d0 cf a8 bc 00 68 35 bc 4c 1d 7b bd
       0.011687666 -0.020606905 -0.011072159 -0.061307237
000070 ad 98 1b bd f5 69 28 bb 3d 0e 5c bc 63 05 0b 3d
       -0.0379874 -0.002569792 -0.013431129 0.033940684
000080 10 b8 70 3c 35 43 ad 3c 4a 52 cf 3b 6f 86 dc 3c
       0.014692321 0.02115021 0.0063269483 0.026919572
000090 2c 5e 44 bc 31 c6 be 3c d4 34 30 bb 87 bb 9d bc
       -0.011985343 0.023287864 -0.0026886957 -0.019254459
0000a0 0f 94 b2 bb e1 ca 96 bc 07 6e 7d 3a 44 d4 b5 3c
       -0.005449779 -0.018407287 0.00096675794 0.022195943
0000b0 77 ae 47 3c 57 44 56 3d 08 c1 4f 3d 5a 88 2e 3d
       0.012187592 0.052311268 0.0507212 0.042610504
0000c0 8e c4 1c 3d a2 01 ba 3c 57 48 64 bc 0e a0 20 bd
       0.038273387 0.022705857 -0.013933263 -0.03921514
0000d0 81 8c b7 bc 44 04 9b bc 5e b1 0a bd ea a3 35 bd
       -0.022405865 -0.018922932 -0.033860557 -0.044345774
0000e0 3b 7e 4c bd 0b e3 b2 bc e0 c1 93 3c 6a 6f 91 3a
       -0.04992507 -0.021836778 0.018036783 0.0011095826
0000f0 73 ee 39 bb 20 50 31 3d aa fa 2d 3d b2 c6 01 bb
       -0.0028370887 0.043289304 0.04247538 -0.001980227
000100 a3 b4 76 bb 21 b5 96 bd e8 9d 80 bd 4c 51 52 bc
       -0.003764429 -0.07358766 -0.06280118 -0.0128367655
000110 39 a9 5e bd 06 50 8b bd ca 68 33 bd 2d 86 d3 3b
       -0.054360602 -0.06802373 -0.043801107 0.006455204
000120 dd 49 09 bd 10 e5 11 bd c0 52 17 bd 3e 74 70 bb
       -0.033517707 -0.03561884 -0.03694415 -0.003669038
000130 83 d9 69 bc 7f 87 9c bd a7 e4 3a bd a8 08 2f bd
       -0.01427305 -0.07643031 -0.045628216 -0.042732865
000140 d7 3b 33 bc f1 80 37 bb 20 4d 1a 3d 74 ec 09 3d
       -0.01093956 -0.002800044 0.03767121 0.033672765
000150 81 55 71 3c 12 64 f5 3c ef 52 cc 3c fa a3 13 3c
       0.014729858 0.029954944 0.02494189 0.009011263
000160 5b c4 e6 3c 79 cf e5 bc eb 01 d7 38 11 68 81 bd
       0.028169801 -0.028053032 0.00010252356 -0.06318677
000170 a6 6d 24 bd 3c 82 0f 3c 31 17 ca bc 2a 85 4e bb
       -0.04014363 0.008759078 -0.024669262 -0.0031512477
000180 aa 80 2c bb 35 4a e9 3b 23 67 f9 38 f9 f1 03 bd
       -0.0026321807 0.007119442 0.00011892456 -0.032213185
000190 10 4f f4 bc e6 a6 47 bc 9a 33 87 ba ee b4 ae 3c
       -0.029822856 -0.012185788 -0.0010315061 0.021326508
0001a0 f8 ea 2a bc 30 7c 2b 3d a8 3a 34 3d 47 76 01 3d
       -0.0104319975 0.04186648 0.04400125 0.03160694
0001b0 b1 03 e1 ba c9 fe 6b 3d cb f7 c7 3c a2 5d 5e 3d
       -0.0017167238 0.05761603 0.02441015 0.054288514
0001c0 86 1b 88 3c 41 9e 81 3d 80 a2 31 3d 29 84 89 bb
       0.016614687 0.06329013 0.043367863 -0.004196663
0001d0 0d cf 22 3d c0 15 88 bc c0 6e 13 bd 23 ad 8a bd
       0.03974824 -0.016611934 -0.03599429 -0.067713045
0001e0 f7 55 cb bc bc 7d b2 bd 7d 57 2d ba fb 48 5c bc
       -0.024821265 -0.08715388 -0.0006612463 -0.013445134
0001f0 3b 4d 8a 3c 54 04 93 3c 21 f3 26 bc a6 6c 2c bd
       0.01688253 0.0179464 -0.010189802 -0.042095803
000200 48 8a 93 bc 24 ee 9e 38 f9 16 fd bc 87 c7 fe 3c
       -0.018010274 7.578384e-05 -0.030894743 0.031101001
000210 a6 5f 2d 3b 5e 9f 90 3c 68 73 b9 bb 62 f3 49 bd
       0.0026454716 0.017654117 -0.0056595095 -0.049304374
000220 34 48 8c ba b5 df 30 ba 48 57 64 bd 3e ce 2f bd
       -0.001070267 -0.0006747202 -0.0557473 -0.042921297
000230 ca cd 5d 3c 17 9d 5a bd e5 5d 91 bd 91 b5 5b bd
       0.0135378335 -0.05337247 -0.07097987 -0.053639952
000240 8c e6 86 3d f6 f9 71 3d d5 1d 0e bc e4 09 9a 3c
       0.06586942 0.059076272 -0.008674105 0.018803544
000250 b9 c9 d0 ba ca 36 26 bc ba 4f 8c bc ee c6 97 bc
       -0.0015929259 -0.010144899 -0.01712786 -0.018527474
000260 a4 d7 14 3d 23 32 07 3c a1 2b d7 3b 87 47 b7 bb
       0.036338463 0.0082517 0.0065664803 -0.0055932435
000270 2e 90 8d 3c c6 f1 aa 3c 8f 55 0c 3d 15 80 0c bd
       0.017280664 0.02086724 0.034261283 -0.034301836
000280 7a d1 65 bc bb 0b 11 bd d5 97 a1 bd 91 dc 93 bc
       -0.014026994 -0.035411578 -0.07890288 -0.01804951
000290 72 4b 1b bd 32 e0 9e bc 48 35 e4 bc e5 dc ef bc
       -0.037913747 -0.019394014 -0.027857438 -0.029280135
0002a0 27 9f 08 bc 9b b3 dc bc 75 3a 13 bc 75 25 54 bd
       -0.008338726 -0.026941111 -0.008986105 -0.051793534
0002b0 bf ba 2c bc 2a 03 dd 3c c7 75 a6 3c 0d 59 14 3c
       -0.010542571 0.026979048 0.020319832 0.0090544345
0002c0 81 e9 03 3c 2c 0a f8 3b f5 fa 1f bd 4a 65 bb bc
       0.008051277 0.007569572 -0.03905769 -0.022875447
0002d0 4a 2a ff bb bb 39 c4 bc 34 46 b0 bc 86 42 4c 3d
       -0.0077870237 -0.02395331 -0.02151785 0.04986813
0002e0 74 da 96 3c da 99 96 3c 5b f5 24 3d 75 4f 9c 3c
       0.018414713 0.018383909 0.04027305 0.019080857
0002f0 a6 29 a8 3c 36 41 e4 3c 85 8d e9 3c 82 25 c2 3b
       0.020527672 0.027863126 0.028509865 0.0059248814
000300 a4 7b 05 3d f6 50 27 3d 2b 7a 55 3d de e3 d9 3c
       0.032588616 0.040848695 0.05211846 0.026597913
000310 2e d4 af bc d3 3c 3d bd e7 10 92 bd a1 da d0 bc
       -0.02146348 -0.046200585 -0.0713213 -0.025494875
000320 79 61 50 bd 11 46 19 bc 91 d5 08 3d dc 54 32 3d
       -0.050874207 -0.009355084 0.033406798 0.04353796
000330 80 ae 35 3d 22 e1 3c 3d 96 94 1f 3d e1 04 c6 3c
       0.04435587 0.04611314 0.038960062 0.024172248
000340 45 5c 3d 3d 62 98 2f 3b f1 80 61 3c d6 ce 5c bb
       0.046230573 0.0026793708 0.013763652 -0.003369262
000350 17 bb 8d bc 93 91 57 bd d8 2f b8 bb 07 2b f9 bc
       -0.017301125 -0.052629065 -0.005620938 -0.030416025
000360 49 45 f1 bb 0e 27 44 3c 8f 33 a2 3c 0c 03 85 3c
       -0.0073629958 0.011972202 0.019799976 0.016236804
000370 da 71 98 3c 99 ee 02 bb 66 65 e2 bb a1 b1 5f bc
       0.018608976 -0.001997864 -0.0069090603 -0.01365319
000380 1c 76 b1 bc 9b 33 f6 bc d4 17 8f 3b ff 91 ab bc
       -0.021662764 -0.030053904 0.004366854 -0.02094364
000390 50 3b 9f 3c 6e 84 c2 3c 8e f7 4a bc a1 6d a4 3c
       0.019437462 0.023744788 -0.012388123 0.020071806
0003a0 92 09 b9 bb 8b d7 02 3c 7a 85 23 3d 89 84 94 bc
       -0.005646893 0.00798596 0.039922215 -0.018129604
0003b0 d4 13 ac bc 64 47 e3 bc 00 1c 48 bc 4b 81 40 bd
       -0.021005549 -0.027744003 -0.012213707 -0.046998303
0003c0 d3 dc 61 bb 95 86 0e 3c 0c dc 96 3c 61 bc a2 bc
       -0.0034463897 0.008699079 0.018415473 -0.019865217
0003d0 65 5b dd b7 5e 8c f1 bc aa 0b 30 bd 7d a2 d2 bc
       -2.6387812e-05 -0.029485878 -0.042979874 -0.025712246
0003e0 fe 02 3e bc 5a 6b 3f 3d 6a d8 08 3d dd c5 66 3d
       -0.011597393 0.046733238 0.033409514 0.05634104
0003f0 40 b9 f6 3b b8 7f 0f 3d a9 3a 7d 3d 7a b3 76 3d
       0.0075294077 0.03503391 0.06182352 0.060229756

tcn.network.0.conv2.bias f4 [16]
000000 05 6b 9e 3c d1 be b3 bb 0e 62 e9 3a 86 3b e2 39
       0.01933814 -0.0054853936 0.0017805712 0.00043150428
000010 db ad 16 3c 5a 88 30 3d 35 61 d1 3b 01 5f 57 b6
       0.009196724 0.043098785 0.006389762 -3.2092796e-06
000020 05 75 35 bc 67 a6 8d ba a0 58 6b 3c 0b 0b 0a b7
       -0.011075263 -0.0010807038 0.014364392 -8.228012e-06
000030 20 d7 5f bc bc c1 bb b6 3c 06 17 3b 2a ab a2 b7
       -0.01366213 -5.595588e-06 0.0023044487 -1.939161e-05

tcn.network.0.bn2.weight f4 [16]
000000 00 00 80 3f 00 00 80 3f 00 00 80 3f 00 00 80 3f
       1.0 1.0 1.0 1.0
000010 00 00 80 3f 00 00 80 3f 00 00 80 3f 00 00 80 3f
       1.0 1.0 1.0 1.0
000020 00 00 80 3f 00 00 80 3f 00 00 80 3f 00 00 80 3f
       1.0 1.0 1.0 1.0
000030 00 00 80 3f 00 00 80 3f 00 00 80 3f 00 00 80 3f
       1.0 1.0 1.0 1.0
