model/Benchmark/DATCN_1s_S1.pth (torch, 182388 bytes, 75 tensors)

global_block.conv_time.conv.0.weight f4 [8, 1, 1, 125]
0	0xbd5946eb	-0.05304615
1	0xbd07eeb0	-0.033186615
2	0xbd0a082b	-0.033699196
3	0xbbb381b8	-0.00547811
4	0xbc83f89b	-0.016109755
5	0x3d7a6081	0.06112719
6	0xbc407584	-0.011746768
7	0x3bc1a3c4	0.005909415
8	0x3c850368	0.016236976
9	0xbc446749	-0.011987516
10	0x3c619f6a	0.013770917
11	0xbcc0d294	-0.023537911
12	0xbb55a928	-0.0032602046
13	0x3c4caec6	0.012492841
14	0xbd13231e	-0.035922162
15	0x3b852c3d	0.0040641115
16	0xbd0a590d	-0.03377633
17	0x3a8c1085	0.0010686076
18	0xbd1c5dbf	-0.03817534
19	0x3c2a2354	0.010384399
20	0x3bf173ac	0.0073685255
21	0xbb9574f7	-0.0045610624
22	0xbb3ecb4e	-0.0029112878
23	0x3c9e150f	0.01929715
24	0x3d1587ef	0.03650659
25	0x3ca54f53	0.020179426
26	0x39a8e959	0.00032217315
27	0xbbb33a27	-0.005469579
28	0x3c8493cb	0.016183754
29	0xbd2e66b4	-0.042578414
30	0x3cc13c8a	0.023588438
31	0xbc3d5081	-0.011554838
32	0x3cac719e	0.02105027
33	0xbd47b2b3	-0.048754405
34	0xbcfa75e2	-0.030573789
35	0xbbe7e6e9	-0.007077087
36	0x3c9a4fbf	0.018836854
37	0xbc66a8c0	-0.014078319
38	0x3d35fe1e	0.0444318
39	0xbd0dc710	-0.03461367
40	0x3c188ef7	0.009311429
41	0xbcc7c847	-0.024387492
42	0x3d2e9b2d	0.042628456
43	0x3d5e7854	0.054313973
44	0x3aaae0d8	0.0013036979
45	0x3c9c8f0c	0.019111179
46	0xbc92897a	-0.01788782
47	0xbd46f8ea	-0.048577227
48	0x3d29a356	0.041415535
49	0x3d08e664	0.033422843
50	0x3c5238a8	0.012830891
51	0x3bc92be4	0.0061392654
52	0xbce7a76b	-0.028278073
53	0xbc2623f1	-0.010140405
54	0x3c520d56	0.012820562
55	0xbd3b92d2	-0.045794316
56	0xbd8789c7	-0.06618076
57	0xbce4452a	-0.027865011
58	0x3be5bfa0	0.007011369
59	0x3c7c5dc8	0.015403219
60	0x3caf2788	0.021381155
61	0x3d42f2f9	0.047594998
62	0x3d13a32b	0.03604428
63	0xbcccf49e	-0.025018986
64	0xbc571e35	-0.0131297605
65	0xbc777dd6	-0.015105685
66	0x3caf38e4	0.021389432
67	0xbcf507c9	-0.029910939
68	0xbce6ae62	-0.028159324
69	0xbc57f693	-0.0131813465
70	0xbcaa1d30	-0.02076587
71	0xbcece8ae	-0.028919544
72	0xbd8ddcb9	-0.06926865
73	0x3c4b6184	0.012413386
74	0xba9f3c54	-0.0012148716
75	0xbd34a534	-0.044102862
76	0xbc92a778	-0.017902121
77	0x3da0a11a	0.07843228
78	0x3df139a7	0.117785744
79	0xbbf21b3d	-0.007388501
80	0xbce6fc97	-0.028196616
81	0x3c2a3394	0.010388274
82	0xbd7a6c04	-0.061138168
83	0xbd583267	-0.052782442
84	0xbdde25f3	-0.10847082
85	0x3cd11e0e	0.025527027
86	0x3d2ffe85	0.042967338
87	0xbcb06abe	-0.021535274
88	0xbc73a927	-0.014871872
89	0x3ca0cc83	0.019628769
90	0xbba07c9b	-0.0048976666
91	0xbbf23452	-0.007391491
92	0xbd9011c7	-0.07034641
93	0xbd2aa4d1	-0.041661087
94	0x3d05d658	0.032675117
95	0xbd156dac	-0.036481544
96	0xbc6ef8c3	-0.014585677
97	0x3c370d04	0.011172537
98	0x3b8558fe	0.0040694466
99	0xbc9e1b58	-0.019300148
100	0x3bac7111	0.005262502
101	0x3cdb3904	0.026760586
102	0x3b0ba701	0.002130926
103	0x3b71a471	0.0036871696
104	0x3d9ecdf2	0.07754125
105	0x3dc1a148	0.0945459
106	0x3d418cfa	0.047253586
107	0xbc98432a	-0.018586714
108	0xbd3be62f	-0.045873817
109	0xbd501c7d	-0.05080842
110	0xbb11471f	-0.0022167636
111	0xbccf13d7	-0.025278015
112	0xbcb21185	-0.02173687
113	0xbcc11701	-0.02357054
114	0x3d156144	0.036469713
115	0x3d504a9e	0.05085241
116	0x3b19e592	0.0023482782
117	0xbc1beae8	-0.009516455
118	0x3d01c7dd	0.031684745
119	0x3c045851	0.008077697
120	0xbd4b143b	-0.04957984
121	0x3c1bd6e9	0.009511688
122	0x3d07ec84	0.033184543
123	0xbd7d1a94	-0.061792925
124	0xbcff9e26	-0.03120334
125	0x3c594f46	0.013263529
126	0xbc92e824	-0.017932959
127	0xbc5b2681	-0.013375879
128	0x3d4fef83	0.050765526
129	0xbcbe463b	-0.023226848
130	0x3cd468e9	0.025928931
131	0xbcd71e3e	-0.026259538
132	0xbcd70ce9	-0.026251273
133	0xbd64ef53	-0.0558923
134	0xbc5528f7	-0.013010255
135	0x3cec68bc	0.028858535
136	0x3cf925b1	0.03041348
137	0x3ce15bfa	0.027509678
138	0x3d4edbfd	0.050502766
139	0x3d663362	0.056201346
140	0xbd6c6cff	-0.057721134
141	0x3c966301	0.018357756
142	0xbd5bd82c	-0.053672954
143	0xbd67b7dc	-0.056571826
144	0xbc09e47f	-0.008416294
145	0xbd70ed16	-0.058819853
146	0xbb1ed4da	-0.0024235756
147	0x3d8fd3f8	0.07022852
148	0x3cf68cc4	0.03009642
149	0xbca66fab	-0.02031692
150	0xbce9c537	-0.028536422
151	0x3c86454e	0.016390469
152	0x3b03330c	0.002001944
153	0x3cc9e71b	0.024646332
154	0xbd35d80d	-0.044395495
155	0xbb4cadbd	-0.0031231486
156	0xbc9da209	-0.019242303
157	0xbcf8324b	-0.030297419
158	0x3c5ed3fd	0.013600347
159	0x3ca0c9bf	0.01962745
160	0x3d2dfa40	0.042474985
161	0x3cc920a0	0.02455169
162	0x3cd902ea	0.026490647
163	0x3c638217	0.013885996
164	0xbcaf0744	-0.02136577
165	0xbcd7058a	-0.026247758
166	0x3ac4ba4f	0.0015009138
167	0x3c373b94	0.011183638
168	0x3d6b88f3	0.05750365
169	0x3d19e70f	0.03757387
170	0x3c010a08	0.007875927
171	0xbd20277b	-0.03910015
172	0x3c93a2c9	0.018021958
173	0x3b955932	0.004557752
174	0x3c8a68d6	0.016895693
175	0x3d82487d	0.06361482
176	0xbca82b9d	-0.020528609
177	0xbce50f8b	-0.027961513
178	0xbd2c78ef	-0.04210752
179	0xbc5e841d	-0.013581303
180	0xbd49fa49	-0.049310956
181	0x3d62221f	0.05520832
182	0x3a9d0cac	0.0011981926
183	0x3c796d87	0.015223867
184	0xbca1bfdb	-0.019744804
185	0x3cfb162b	0.030650219
186	0x3d1e6094	0.038666323
187	0x3b02bdce	0.0019949558
188	0x3d4642c6	0.048403524
189	0xbd57bf25	-0.052672524
190	0xbd015ad8	-0.031580776
191	0xbd7db90b	-0.06194405
192	0x3c53b011	0.0129203955
193	0x3cb1e8a5	0.021717379
194	0x3d4d6f4d	0.050154973
195	0x3d201652	0.039083786
196	0xbc02c4ad	-0.0079814615
197	0xbca4a967	-0.020100309
198	0xbbd43048	-0.006475482
199	0x3d82db85	0.06389526
200	0x3c58c937	0.013231567
201	0x3d68171c	0.056662664
202	0xbcc6938c	-0.024240278
203	0x3d564e21	0.052320603
204	0x3da9a3f2	0.08283223
205	0x3d43c66f	0.047796663
206	0xbb636360	-0.0034696683
207	0xbd1a4b7a	-0.037669636
208	0xbd8ff327	-0.070287995
209	0xbb904587	-0.0044028196
210	0x3cdb6fc9	0.026786702
211	0xbc2221ef	-0.009895786
212	0xb9f7ea1d	-0.0004728594
213	0xb8238e94	-3.8995015e-05
214	0xbdbcc69c	-0.09217569
215	0xbd8ca974	-0.06868258
216	0xbd1afb7c	-0.03783749
217	0x3a923023	0.0011153262
218	0xbc3ff66f	-0.011716469
219	0x3cdea68e	0.027179029
220	0x3c89844e	0.01678672
221	0xbc05ea45	-0.00817353
222	0x3c0c706e	0.008571727
223	0x3c5acbdc	0.013354268
224	0xbd616843	-0.055031072
225	0x3d6d7772	0.05797524
226	0x3d1aa066	0.037750624
227	0x3d85a44c	0.06525478
228	0xbd6947de	-0.056953304
229	0xbd57945a	-0.052631713
230	0x3d00d6a5	0.0314547
231	0xbceb1d28	-0.028700426
232	0xbc946f7c	-0.018119566
233	0x3d2c0432	0.04199619
234	0x3ce68217	0.028138204
235	0xbd17fd4a	-0.03710679
236	0x3d85ae67	0.06527405
237	0x3cc65b82	0.024213556
238	0x3d4799ff	0.048730846
239	0xbd1a66c4	-0.03769566
240	0xbd5f45c9	-0.05450991
241	0xbd26e1b2	-0.040742584
242	0xbc806e4f	-0.0156776
243	0xbd69d9d6	-0.05709251
244	0xbcc1ed05	-0.02367259
245	0xbd97a4b6	-0.07404463
246	0xbd7c0cc5	-0.061535615
247	0xbcc633b0	-0.024194568
248	0xbc092922	-0.008371623
249	0xbd7c0324	-0.061526433
250	0x3ce24c24	0.027624197
251	0xbcbe6906	-0.023243438
252	0x3d06cf54	0.032912567
253	0x3d064b5d	0.032786716
254	0xbd12cc13	-0.03583915
255	0xbb970f0a	-0.004609947

global_block.conv_time.conv.0.bias f4 [8]
0	0xae88d500	-6.2224004e-11
1	0x3c7806c6	0.015138334
2	0x3b05e6fe	0.0020431872
3	0x3c1b1b78	0.009466998
4	0xbc7cd6c3	-0.015432063
5	0xbcacacdb	-0.021078518
6	0xb234b13a	-1.0517676e-08
7	0x3916d822	0.0001438563

global_block.conv_time.conv.1.weight f4 [8]
0	0x3f485f2b	0.78270215
1	0x3f7cb2aa	0.9871012
2	0x3f58f36b	0.84746426
3	0x3f588dcc	0.84591365
4	0x3f6799bb	0.9046895
5	0x3f812a43	1.0091022
6	0x3f5a4a7f	0.8526992
7	0x3f6d3e93	0.92673606

global_block.conv_time.conv.1.bias f4 [8]
0	0xbd31bd5d	-0.04339348
1	0xbbadb681	-0.005301297
2	0x3cbf5a6d	0.023358548
3	0xbd0a2792	-0.033729143
4	0x3cef92db	0.02924483
5	0xbca75ee5	-0.020430991
6	0xbb9bda72	-0.0047562653
7	0x3c62f9cc	0.0138535015

global_block.conv_time.conv.1.running_mean f4 [8]
0	0xbb3ae85e	-0.002851985
1	0x3cb24aac	0.021764122
2	0x3c286786	0.010278588
3	0xbb34a09d	-0.0027561553
4	0xbccbdd07	-0.024885667
5	0xbcb83a6b	-0.022488793
6	0xbb9a355f	-0.0047060694
7	0xbc125d43	-0.008933368

global_block.conv_time.conv.1.running_var f4 [8]
0	0x407f3a6d	3.987941
1	0x409a1ed1	4.816262
2	0x40cd590e	6.417121
3	0x409627d8	4.6923637
4	0x40a1f52f	5.0611796
5	0x40b50c0f	5.657722
6	0x40999b29	4.8001904
7	0x4104c91c	8.299099

global_block.conv_chan.conv.0.weight f4 [8, 8, 11, 1]
0	0xbcce3d41	-0.025175693
1	0x3c9e0b4f	0.019292502
2	0x3c891a20	0.01673609
3	0xbd2b672b	-0.041846436
4	0x3ca5ccd6	0.020239275
5	0x3c6f7891	0.014616148
6	0x3cf97e69	0.030455785
7	0xbc1dcc1e	-0.009631185
8	0xbba73f09	-0.00510395
9	0xbd6a2582	-0.057164676
10	0x3c81832d	0.01580962
11	0x3deba903	0.11506846
12	0xbd37beb4	-0.044859603
13	0x3ccf6c3f	0.02532017
14	0x3d56e72d	0.05246656
15	0x3c3a91f0	0.011387333
16	0xbcb50061	-0.022094907
17	0x3af6064f	0.0018770191
18	0xbd394d83	-0.045239937
19	0x3d55d613	0.05220611
20	0xbd137e5a	-0.03600917
21	0x3cecf06d	0.028923238
22	0xbd94632e	-0.072454795
23	0x3d5a7eb9	0.05334351
24	0x3d6bd55c	0.057576522
25	0xbdba9d1e	-0.09111999
26	0x3c3e32e7	0.011608816
27	0xbc97740f	-0.018487958
28	0x3d4af0c0	0.049546003
29	0xbcab472a	-0.020907957
30	0xbd29d108	-0.041459113
31	0xbd0027bf	-0.031287905
32	0xbc42fbe3	-0.011900875
33	0x3de2a7ec	0.11067185
34	0xbcf91f12	-0.030410323
35	0xbd2f3677	-0.04277655
36	0x3c3b519e	0.011433033
37	0x3ce15d3a	0.027510274
38	0x3beb09bb	0.007172791
39	0x3cf53ec5	0.029937157
40	0xbd34890b	-0.044076007
41	0xbcc4a864	-0.024006076
42	0x3cef5d9d	0.029219443
43	0x3d2c5a7b	0.042078476
44	0xbc8131f2	-0.015770886
45	0x3d6b782b	0.057487648
46	0xbd4baf8c	-0.04972796
47	0x3c4984b1	0.0122997025
48	0x3bdd9d36	0.006763126
49	0x3d1fb155	0.038987476
50	0x3d841c19	0.06450672
51	0x3bb1c140	0.0054246485
52	0x3d58b799	0.052909467
53	0xbcacc591	-0.0210903
54	0xbda75eba	-0.081723645
55	0x3c4ab5e5	0.012372469
56	0x3d0f2d25	0.034955163
57	0x3d62e02d	0.055389572
58	0xbc090ace	-0.008364392
59	0xbd536a47	-0.051615026
60	0x3dd55cee	0.104181156
61	0x3d2d65f4	0.04233356
62	0x3d662511	0.056187693
63	0xbd0acf1d	-0.033888925
64	0x3cc6bc69	0.024259763
65	0xbd89686c	-0.0670937
66	0x3c123c92	0.008925574
67	0x3d8aea71	0.067829974
68	0x3d339d65	0.043851275
69	0xbcde2f20	-0.02712208
70	0xbc97b80c	-0.018520378
71	0xbd363502	-0.044484146
72	0x3d0a0310	0.033694327
73	0x3d9f5375	0.0777959
74	0x3d729823	0.05922712
75	0x3d5d542c	0.05403535
76	0xbc81d59f	-0.015848933
77	0xbd467c51	-0.0484584
78	0xbd81023e	-0.06299256
79	0xbd040947	-0.03223541
80	0x3c79a93d	0.015238103
81	0xbd511767	-0.05104771
82	0x3d916fd1	0.071014054
83	0x3d2bd5fa	0.04195211
84	0xbd148cea	-0.0362672
85	0xbc9dad32	-0.019247625
86	0xbd449253	-0.04799111
87	0xbd030e39	-0.031995986
88	0x3d810148	0.062990725
89	0xbd216fa3	-0.039413106
90	0xbd0805a9	-0.033208523
91	0x3a63c6ee	0.00086890056
92	0x3cdb9690	0.026805192
93	0xbc9e4b10	-0.019322902
94	0x3d158b2d	0.03650968
95	0xbd619b23	-0.05507959
96	0x3d9c7b85	0.07640747
97	0x3d8d9fec	0.06915268
98	0xbcfc3cd4	-0.030790724
99	0x3d0d7b37	0.034541335
100	0xbc9ff3d1	-0.01952544
101	0x3ce8c01d	0.02841192
102	0xbcfec7fb	-0.031101217
103	0x3d395090	0.045242846
104	0xbd4b8a5b	-0.049692493
105	0xbd86be69	-0.065792866
106	0x3d8e1264	0.069371015
107	0x3dac419e	0.08410953
108	0x3a983740	0.0011613145
109	0xbd028057	-0.031860676
110	0x3d83a141	0.06427241
111	0xbe3d2fce	-0.18475267
112	0xbd43eb3e	-0.047831766
113	0x3c9f946a	0.019479949
114	0x3d9764eb	0.073922954
115	0x3d9699fb	0.07353588
116	0xbd9c153f	-0.0762124
117	0xbcdf205f	-0.027237115
118	0xbd68edab	-0.056867283
119	0x3d547748	0.051871568
120	0x3da19dcc	0.078914255
121	0x3cc8fa7a	0.024533499
122	0x3dc0daeb	0.09416755
123	0x3cc862fc	0.024461262
124	0xbd76a903	-0.060219776
125	0xbcd7e9da	-0.026356626
126	0xbdb9953f	-0.090616696
127	0xbc06fac0	-0.008238494
128	0x3debded2	0.11517109
129	0x3d82d335	0.06387941
130	0xbd3740e6	-0.044739626
131	0xbdc0650c	-0.09394273
132	0x3d68f491	0.05687386
133	0x3d2cb95c	0.04216896
134	0xbd7c1e15	-0.061552126
135	0xbd83e20b	-0.06439599
136	0x3b4a5198	0.0030871388
137	0xbd9f1811	-0.07768262
138	0x3db1b5a1	0.08677221
139	0x3da36df6	0.07979958
140	0x3d807d46	0.06273894
141	0xbd53cf73	-0.05171151
142	0xbd8675dd	-0.065654494
143	0xbd15ce36	-0.03657361
144	0x3db55f23	0.088560365
145	0x3bf13f14	0.007362256
146	0x3dc8e8aa	0.09810002
147	0xbdef3af6	-0.11681168
148	0xbc45d297	-0.012074134
149	0x3ddcf3c6	0.107886836
150	0xbcf8c4f9	-0.030367361
151	0xbd47b9f0	-0.04876131
152	0xbd5661db	-0.052339416
153	0x3d84181f	0.06449913
154	0xbd9faa98	-0.0779621
155	0xbe036732	-0.12832335
156	0x3af909ff	0.0019000171
157	0x3e1d7198	0.15375364
158	0x3d85e3eb	0.065376125
159	0xbcc1ee15	-0.023673097
160	0xbc44beb7	-0.012008361
161	0x3d0291bb	0.03187726
162	0x3b7924e0	0.0038016364
163	0xbd242b0f	-0.040080126
164	0x3d8e68eb	0.06953605
165	0x3ce3908f	0.027778892
166	0x3dbbc984	0.091692954
167	0x3b2281f5	0.0024796699
168	0xbdc91879	-0.09819121
169	0xbe04a054	-0.12951785
170	0x3cc25a53	0.02372471
171	0xbaaacba1	-0.0013030657
172	0x3d952aaf	0.07283532
173	0xbc9b0554	-0.01892344
174	0xbd272358	-0.04080519
175	0xbd40f16b	-0.047105234
176	0xbda83443	-0.08213093
177	0xbd8aa83e	-0.06770371
178	0xbd7640fa	-0.06012056
179	0x3db2c5f5	0.087291636
180	0x3dcc2907	0.09968763
181	0xbc2dd11e	-0.010608939
182	0xbde2c081	-0.110718735
183	0x3d13b239	0.03605864
184	0x3d0b2cad	0.033978153
185	0x3cd05bf9	0.025434481
186	0xbb978483	-0.004623951
187	0xbd83f3eb	-0.06443008
188	0xbdef52db	-0.11685725
189	0xbcd782fe	-0.02630758
190	0x3d0d24ca	0.034458913
191	0x3dc51342	0.09622814
192	0xbcd6910b	-0.026192209
193	0xbc21e6f8	-0.009881727
194	0x3dd09247	0.1018415
195	0x3da7bb74	0.08190051
196	0xbcb0f096	-0.021599095
197	0x3d14501e	0.03620922
198	0x3d2848d4	0.04108508
199	0x3e00c512	0.12575176
200	0xbdb23684	-0.08701804
201	0x3bbf7bf6	0.0058436347
202	0xbdbc892e	-0.092058524
203	0xbde0d849	-0.10978753
204	0x3cafe79c	0.021472745
205	0x3d534f7e	0.05158948
206	0x3d22d3f7	0.039752927
207	0xbbf8cde0	-0.0075929016
208	0x3d29aed0	0.04142648
209	0xbc560766	-0.013063287
210	0xbd9242dc	-0.07141659
211	0xbd03c56c	-0.032170698
212	0xbba1e193	-0.0049402206
213	0xbc9a20e6	-0.018814515
214	0xbd3ae3fd	-0.045627583
215	0x3d00f2c2	0.031481512
216	0x3dd34735	0.10316316
217	0x3d4bf51f	0.049794313
218	0x39ba7730	0.00035565486
219	0xbd9fbde4	-0.07799891
220	0xbc8bced9	-0.017066406
221	0xbda3c39d	-0.07996295
222	0x3d5d0932	0.053963847
223	0xbc9c3893	-0.019069945
224	0x3c2dca1c	0.010607269
225	0x3d7407b5	0.059577662
226	0xbdc6f4b0	-0.09714639
227	0x3d7b0a3c	0.061289057
228	0x3c0778cf	0.008268549
229	0xbce1e877	-0.027576668
230	0x3b6fa6eb	0.0036567997
231	0x3a7b4d72	0.00095864304
232	0x3d59cf10	0.053175986
233	0xbb435659	-0.0029806106
234	0x3c8db3f4	0.017297722
235	0xbd5ccca9	-0.053906117
236	0x3c3286ba	0.010896379
237	0xbe089ded	-0.13341494
238	0xbcf26598	-0.02958946
239	0xbd3b0bfe	-0.045665734
240	0x3d966054	0.07342592
241	0x3cceb535	0.02523289
242	0xbd60878b	-0.054816764
243	0x3dcd4d02	0.10024454
244	0xbdcbcdb8	-0.09951347
245	0xbd2bebca	-0.041972913
246	0xbd532445	-0.05154826
247	0x3bf321d7	0.0074198055
248	0x3db68d7b	0.08913704
249	0xbd93afed	-0.072112896
250	0x3d82d4d6	0.063882515
251	0x3d13590c	0.035973594
252	0xbd163665	-0.03667297
253	0xbd8a125a	-0.067417815
254	0xbbfc8c2e	-0.0077071404
255	0xbbbf05a9	-0.005829532

global_block.conv_chan.conv.0.bias f4 [8]
0	0x3164d502	3.3299448e-09
1	0x3c09fd19	0.00842216
2	0xb8b1c28a	-8.4762534e-05
3	0xbb97e63f	-0.004635602
4	0x3d327832	0.04357166
5	0xbd062998	-0.03275451
6	0xb2a2f122	-1.8968937e-08
7	0x38e3f65b	0.00010870091

global_block.conv_chan.conv.1.weight f4 [8]
0	0x3f514983	0.81752795
1	0x3f8054cd	1.0025879
2	0x3f58e89c	0.84729934
3	0x3f651c43	0.8949625
4	0x3f6e9a03	0.93203753
5	0x3f6a64ce	0.91560066
6	0x3f5a6840	0.8531532
7	0x3f74bdc9	0.9560209

global_block.conv_chan.conv.1.bias f4 [8]
0	0xbdfe4143	-0.124147914
1	0xbc229c55	-0.009924968
2	0xbdba95d4	-0.09110609
3	0xbd65da37	-0.05611631
4	0xbce3e873	-0.027820801
5	0xbd9a6b12	-0.07539953
6	0xbd7770a2	-0.06041015
7	0xbd82235e	-0.06354402

global_block.conv_chan.conv.1.running_mean f4 [8]
0	0x3d253f8e	0.040343814
1	0xbc022740	-0.007943928
2	0xbd67d2a0	-0.056597352
3	0xbbdaddcf	-0.0066792737
4	0x3d45ad66	0.04826107
5	0xbd4757a2	-0.048667558
6	0x3d0ad889	0.03389791
7	0xbbb0a03e	-0.005390196

global_block.conv_chan.conv.1.running_var f4 [8]
0	0x3d4c3075	0.0498509
1	0x3d486a0d	0.048929263
2	0x3d393bf8	0.045223206
3	0x3d28420f	0.041078623
4	0x3cf25e5a	0.029586006
5	0x3cdd0ca7	0.026983572
6	0x3d0612a8	0.032732636
7	0x3cd6c5ac	0.026217304

local_block.conv_time.conv.0.weight f4 [8, 1, 1, 51]
0	0xbcc659e8	-0.024212793
1	0x3d05ef27	0.032698777
2	0x3cd7ca04	0.026341446
3	0x3d069328	0.032855183
4	0x3d080e19	0.03321657
5	0xbd5589cf	-0.052133378
6	0x3d3deefd	0.046370495
7	0xbd26a9b6	-0.040689193
8	0x3d48aa7a	0.048990704
9	0xbbb68aeb	-0.0055707595
10	0xbca49112	-0.020088706
11	0x3d47731a	0.048693754
12	0x3e043927	0.12912427
13	0xbd9a4ee3	-0.07534578
14	0xbd5a1bf2	-0.053249307
15	0xbddfacc7	-0.109216265
16	0xbd2a57bb	-0.041587573
17	0x3e1c2f25	0.15252359
18	0x3e3573ca	0.17719951
19	0x3dd3d6a9	0.103436776
20	0xbd66850e	-0.056279235
21	0xbc16c47d	-0.00920212
22	0xbd0afb01	-0.033930782
23	0xbce1b387	-0.027551426
24	0xbc19af78	-0.009380214
25	0x3cf1f7ca	0.0295371
26	0xbd645326	-0.05574336
27	0xbd6a2638	-0.057165354
28	0x3cafd526	0.021463942
29	0x3d83d139	0.064363904
30	0xbce4cbbc	-0.02792918
31	0xba4db455	-0.0007847001
32	0x3a6eefb0	0.0009114696
33	0xbd7cbb26	-0.061701916
34	0x3e02bb44	0.12766749
35	0x3e10c474	0.14137441
36	0x3d1397b4	0.036033347
37	0xbe1776c3	-0.14791398
38	0xbd623daf	-0.055234607
39	0x3cccefe6	0.025016736
40	0x3d3db499	0.04631481
41	0xbdf000dc	-0.11718914
42	0x3d17a0ab	0.03701846
43	0x3d7f06c6	0.06226232
44	0x3d43f1d5	0.04783805
45	0xbd056b8c	-0.032573268
46	0x3a5982b2	0.0008297368
47	0xbd5cbeac	-0.053892776
48	0xbcd1649f	-0.025560675
49	0x3d9c9fad	0.07647643
50	0xbd4a7cdc	-0.04943548
51	0x3d0e137a	0.034686543
52	0xbd44aa59	-0.04801402
53	0xbc1a91e8	-0.009434201
54	0xbca81e98	-0.0205224
55	0x3cac04af	0.020998327
56	0xbcf85062	-0.030311767
57	0xbd034667	-0.032049563
58	0x3cc1cfdf	0.023658691
59	0xbdbdbf14	-0.09264961
60	0x3ced923f	0.0290004
61	0xbddce6fe	-0.10786246
62	0x3d693e2c	0.056944057
63	0x3dc57872	0.09642114
64	0x3d2f9d4c	0.04287462
65	0x3c87f3df	0.016595779
66	0xbc1564d5	-0.0091182785
67	0x3d1930fb	0.037400227
68	0x3b28acb1	0.0025737698
69	0x3c3bf03b	0.01147085
70	0x3ac560f2	0.0015058799
71	0xbcb3ce72	-0.021949027
72	0x3d91e506	0.07123761
73	0xbde2134b	-0.11038836
74	0xbd81108c	-0.06301984
75	0x3d789b3e	0.060694925
76	0xbd2b233b	-0.041781645
77	0xbd4a29fb	-0.049356442
78	0x3cadde65	0.02122421
79	0x3dc26b30	0.09493101
80	0x3d45071f	0.048102494
81	0xbd3606be	-0.044440024
82	0x3d4229c2	0.047403105
83	0xbca4ee5d	-0.020133192
84	0x3d031e2d	0.0320112
85	0x3da38140	0.07983637
86	0xbd0fe5de	-0.035131328
87	0x3c649367	0.013951159
88	0x3c8e7370	0.01738903
89	0x3dcb084e	0.09913693
90	0x3ddba69e	0.10725139
91	0x3d5029e5	0.050821204
92	0x3bd9d7c9	0.006648038
93	0xbdd7ac84	-0.105309516
94	0xbd9d0765	-0.07667426
95	0xbbf99011	-0.007616051
96	0x3df49022	0.11941554
97	0x3b4c1b43	0.003114418
98	0x3cedf6cf	0.029048352
99	0xbd8165c9	-0.06318242
100	0x3ca80e06	0.0205145
101	0xbdb9add6	-0.0906636
102	0xbd355d32	-0.04427833
103	0xbd9bbd11	-0.07604421
104	0x3daba86a	0.08381732
105	0xbd621841	-0.05519891
106	0xbd29928f	-0.041399535
107	0x3d814b66	0.06313209
108	0x3d507907	0.05089667
109	0x3d1c5786	0.038169406
110	0x3ddaaf3e	0.10677956
111	0xbc91064b	-0.017703196
112	0x3d8dfabc	0.069325894
113	0xbc96e389	-0.018419044
114	0xbd925680	-0.07145405
115	0xbd3a471f	-0.045477983
116	0xbccdce6c	-0.025122844
117	0x3c045bfe	0.008078573
118	0xba8040f7	-0.0009784986
119	0xbc166121	-0.009178431
120	0xbdd3cb13	-0.10341468
121	0x3dc58fe2	0.09646584
122	0x3e11dc63	0.14244227
123	0x3da33833	0.079697035
124	0x3dd92e62	0.1060455
125	0xbbb333a1	-0.005468801
126	0x3bcba10b	0.006214266
127	0xbdddf60e	-0.10837947
128	0xbd03cb65	-0.032176394
129	0xbda4934b	-0.080359064
130	0xbd99572d	-0.074873306
131	0x3c096f7e	0.008388398
132	0xbd2e4710	-0.04254824
133	0xbd98e12f	-0.07464825
134	0x3ccdb73c	0.025111787
135	0x3cb3a13c	0.021927468
136	0x3e1a6156	0.15076193
137	0x3d42a55d	0.047520984
138	0x3d3fc8d4	0.046822384
139	0x3d5f1153	0.05445988
140	0xbd3af753	-0.045646023
141	0x3d6052ae	0.05476635
142	0x3dc0c507	0.0941258
143	0xbd9285bb	-0.07154413
144	0xbdfaf043	-0.122528575
145	0x3d54b52e	0.0519306
146	0xbd01c4b0	-0.031681716
147	0xbd9b0280	-0.07568836
148	0xbddc3984	-0.10753158
149	0x3d806f06	0.06271176
150	0x3d945fcd	0.07244835
151	0xbdbeddd5	-0.09319655
152	0xbd50d58a	-0.050984897
153	0xbb63b0d9	-0.003474286
154	0x3c6024b2	0.013680624
155	0x3d280171	0.041017
156	0x3d068633	0.032842826
157	0xbca3f654	-0.02001492
158	0xbdb74d19	-0.08950252
159	0xbb7e3339	-0.0038787855
160	0x3c5c3bac	0.013441961
161	0x3dac6713	0.08418097
162	0xbd5562eb	-0.05209629
163	0x3c9cc824	0.019138403
164	0x3d4055dd	0.046956886
165	0xbe0b6d22	-0.1361585
166	0xbd022ce8	-0.031781107
167	0x3dd6b543	0.10483792
168	0xbcb05d20	-0.02152878
169	0x3d3144cc	0.0432785
170	0x3b81037e	0.003937184
171	0x3a74286c	0.00093138847
172	0x3d9b14ba	0.07572313
173	0x3a04c933	0.00050653814
174	0xbd3570ef	-0.044297155
175	0x3db35b58	0.08757657
176	0xbc977cd9	-0.01849215
177	0xbc410bd0	-0.0117826015
178	0x3c9ff998	0.019528195
179	0xbd62ee98	-0.055403322
180	0xbd8f8917	-0.0700857
181	0xbd00a1d4	-0.03140433
182	0x3e35af79	0.17742719
183	0x3d11ea90	0.035624087
184	0x3da9c93c	0.082903355
185	0xbdc14aa4	-0.09438065
186	0x3d1941c9	0.037416253
187	0x3d5411f8	0.05177495
188	0xbc8dba85	-0.017300854
189	0xbd4fda30	-0.05074519
190	0x3d33d4d8	0.043904155
191	0x3c399f0b	0.011329423
192	0xbc7e34df	-0.015515535
193	0xbc97e79f	-0.018543063
194	0x3ddff545	0.10935453
195	0xbd4b5c5c	-0.049648628
196	0x3ccb979d	0.024852568
197	0xbe05f3f2	-0.13081339
198	0xbdfc0016	-0.12304704
199	0x3d836312	0.064153805
200	0xbbc00008	-0.0058593787
201	0x3e04fef2	0.12987879
202	0x3c8011b9	0.01563345
203	0x3d7820f8	0.060578316
204	0xbce8959c	-0.028391652
205	0x3dbe0e8e	0.0928012
206	0xbd808c61	-0.06276775
207	0xbc99ae1a	-0.018759776
208	0x3c26dc3f	0.010184347
209	0xbd2e7f94	-0.042602137
210	0x3d0e4546	0.034734033
211	0xbd3f12a5	-0.04664864
212	0x3c8c8278	0.017152056
213	0xbbbfb0b9	-0.0058499244
214	0xbdedc055	-0.1160895
215	0xbdc95b42	-0.09831859
216	0xbda9d323	-0.08292224
217	0x3d0c376c	0.034232542
218	0x3d49bf24	0.04925455
219	0x3c8870ae	0.016655292
220	0x3dced930	0.10100019
221	0xbd7921cd	-0.06082325
222	0x3d453629	0.048147354
223	0x3d50133e	0.0507996
224	0xbe19a395	-0.15003808
225	0xbdd13723	-0.102155946
226	0xbbda5e34	-0.006664062
227	0xbc74867d	-0.014924643
228	0xbd00ce6a	-0.03144685
229	0xbb52688a	-0.0032105767
230	0x3db87e53	0.090084694
231	0x3bad1482	0.0052819857
232	0xbd93c7b1	-0.072158225
233	0xbca1e184	-0.019760855
234	0x3d4c54e9	0.049885664
235	0x3d2edf17	0.042693224
236	0x3c065330	0.008198544
237	0x3d6c17c2	0.057639845
238	0xbca359ab	-0.019940218
239	0xbd081c07	-0.033229854
240	0x3d890da6	0.06692056
241	0xbdcfc154	-0.10144296
242	0xbe070a56	-0.13187537
243	0x3c62e5f8	0.013848774
244	0xbda692a8	-0.08133441
245	0xbd5931bc	-0.053025946
246	0x3df9b5c3	0.121928714
247	0x3dc1e333	0.09467163
248	0xbd666b4f	-0.05625468
249	0x3c98b8ec	0.018642865
250	0xbd66945a	-0.056293823
251	0xbd07e8a9	-0.033180866
252	0xbd8e6f28	-0.06954795
253	0xbb1695db	-0.0022977504
254	0x3c6a23f8	0.014290802
255	0xbca7925a	-0.020455528

local_block.conv_time.conv.0.bias f4 [8]
0	0x3c139de9	0.009009817
1	0xbd617bec	-0.05504982
2	0x3c462fe9	0.012096384
3	0x3b4bb234	0.003108156
4	0x3be06ed3	0.006849149
5	0x3d15f00e	0.036605887
6	0x3d8a0b53	0.06740441
7	0x3c379ce0	0.0112068355

local_block.conv_time.conv.1.weight f4 [8]
0	0x3f71b89c	0.94422317
1	0x3f5bb61b	0.85824746
2	0x3f81fd2b	1.0155386
3	0x3f69962d	0.91244775
4	0x3f52fbba	0.82415354
5	0x3f665ac1	0.8998223
6	0x3f5e090e	0.86732566
7	0x3f6aa000	0.9165039

local_block.conv_time.conv.1.bias f4 [8]
0	0xbe10604c	-0.14099234
1	0xbca7d461	-0.020487012
2	0x3d230d1a	0.039807416
3	0xbc6a8b8e	-0.014315499
4	0x3a1785ad	0.0005780112
5	0x3bba6494	0.0056882594
6	0xbb4e55cd	-0.0031484247
7	0xba560c0c	-0.0008165247

local_block.conv_time.conv.1.running_mean f4 [8]
0	0x3c7234df	0.014783113
1	0xbd1b622a	-0.037935413
2	0x3cc3c128	0.023895815
3	0x3bfe44bc	0.0077596586
4	0xbb07b15a	-0.0020705075
5	0x3d3b92e7	0.045794394
6	0x3da4ae8a	0.08041103
7	0x3c358c58	0.011080824

local_block.conv_time.conv.1.running_var f4 [8]
0	0x4043d1bf	3.059677
1	0x4071d448	3.7785816
2	0x4101c9b0	8.11174
3	0x4019fcea	2.4060616
4	0x405185f9	3.273802
5	0x40447156	3.0694175
6	0x3fcff30c	1.6246047
7	0x4067ceac	3.6219893

local_block.conv_chan.conv.0.weight f4 [8, 8, 11, 1]
0	0xbb50d424	-0.0031864727
1	0x3d5b9813	0.053611826
2	0xbb42142d	-0.0029614076
3	0x3c124cbe	0.00892943
4	0xbbe8b75c	-0.0071019363
5	0x3c4954e8	0.01228831
6	0xbb69f492	-0.0035698754
7	0x3d304752	0.043036766
8	0x3b756a17	0.0037447268
9	0x3d768169	0.06018201
10	0xbce47b9a	-0.027890969
11	0x3cb3034e	0.021852162
12	0x3dceeeba	0.10104127
13	0x3db2b83c	0.08726546
14	0xbc98f5c6	-0.018671881
15	0x3c329760	0.010900348
16	0xbca1e550	-0.019762665
17	0xbd8b83f4	-0.068122774
18	0xbcdb5a3f	-0.026776431
19	0x3c99b2d5	0.018762032
20	0x3d070771	0.03296608
21	0x3c12d357	0.00896152
22	0xbd42b951	-0.047540013
23	0x3c1fd64c	0.009755682
24	0x3d1b2462	0.037876494
25	0x3c24a55d	0.010049191
26	0x3b878ad0	0.004136421
27	0xbc94f06c	-0.018181048
28	0xbcadbe2e	-0.021208849
29	0xbd5fbbea	-0.05462257
30	0xbd5eee71	-0.054426614
31	0x3d85595e	0.06511186
32	0xbd8de7f0	-0.06929004
33	0xbc93e079	-0.018051373
34	0xbce5229e	-0.027970608
35	0xbb14e069	-0.0022716767
36	0x3d0f9cc1	0.0350616
37	0x3c9c54bc	0.019083373
38	0xbbff272b	-0.0077866516
39	0x3c845bd4	0.016157068
40	0x3cf78d0a	0.03021862
41	0xbd84ce44	-0.064846545
42	0xbd4012d9	-0.046892975
43	0x3d84e7bd	0.06489513
44	0x3d57c603	0.052679073
45	0x3d98ebe0	0.074668646
46	0xbd191412	-0.037372656
47	0xbd009993	-0.03139646
48	0xbcbaea15	-0.022816697
49	0xbd852ae6	-0.06502323
50	0x3d981375	0.07425586
51	0x3e26f6f2	0.1630514
52	0xbc398c9b	-0.011325027
53	0x3a87cba1	0.0010360369
54	0xbb3806c2	-0.00280802
55	0x3c9b5870	0.018963069
56	0x3ddbae2a	0.107265785
57	0x3d4c5714	0.04988773
58	0x3d93cc70	0.07216728
59	0x3c7fe1cc	0.015617799
60	0xbd166d5f	-0.0367254
61	0x3c5be16d	0.013420445
62	0xbdb0e928	-0.08638221
63	0xbdb07d5f	-0.08617663
64	0x3bac6333	0.005260849
65	0x3a992314	0.0011683428
66	0xbabe84c2	-0.0014535415
67	0x3cfaaedf	0.030600963
68	0xbd1b0a9d	-0.03785192
69	0x3d0fbb56	0.035090767
70	0xbc45f666	-0.012082672
71	0xbca10138	-0.019653901
72	0x3c66a731	0.0140779475
73	0xbc072476	-0.008248439
74	0xbc39fa97	-0.011351249
75	0xbcde05d2	-0.027102385
76	0x3a0d86d8	0.00053988164
77	0x3c4a6f8b	0.0123556955
78	0x3d0bdb6c	0.034144804
79	0x3ca8ea11	0.020619424
80	0x3c4adbcd	0.012381506
81	0x3c4f8543	0.012666049
82	0xbb597096	-0.0033178679
83	0xbc0b51f3	-0.008503425
84	0xbc59498b	-0.013262163
85	0x3bf88c2a	0.0075850682
86	0x3b1322ae	0.002245109
87	0xbc900955	-0.017582575
88	0xb9c93170	-0.0003837454
89	0x3cedc256	0.02902333
90	0x3d4f6bd2	0.050639935
91	0xbd83dcb8	-0.06438583
92	0x3d14fdc7	0.036374833
93	0xbca29eaf	-0.019851057
94	0xbc3b929a	-0.011448527
95	0x3db430d8	0.08798379
96	0xbc3a29c4	-0.011362497
97	0x3d4654ea	0.048420824
98	0xbd227ea6	-0.039671563
99	0xbd8db0c6	-0.069184825
100	0x3c8b03a3	0.016969508
101	0x3ca65819	0.02030568
102	0x3d5a18f3	0.05324645
103	0x3c8313c5	0.016000638
104	0x3d00dfa7	0.03146329
105	0x3d10300c	0.03520207
106	0xbc5799c4	-0.013159219
107	0xbd0ea8a2	-0.03482879
108	0x3dafcc96	0.085839435
109	0xbd25acfa	-0.040448166
110	0xbd8f0ae0	-0.06984496
111	0x3e07ecc1	0.13273908
112	0xbd44ea9e	-0.04807531
113	0xbdcec68e	-0.10096465
114	0xba24fa26	-0.00062933785
115	0xbd8875a8	-0.06663066
116	0x3da5373e	0.08067177
117	0x3e3ca3bf	0.18421839
118	0x3d2f3ca3	0.042782437
119	0xbd475b33	-0.04867096
120	0xbda44e42	-0.08022739
121	0x3cb99fca	0.022659201
122	0xbd4d3289	-0.050097022
123	0x3cea0582	0.02856708
124	0xbcbf5044	-0.023353703
125	0x3c901537	0.017588241
126	0x3d3ea64d	0.046545316
127	0xbdc2396e	-0.0948361
128	0xbd29b3a9	-0.041431103
129	0xbc6b3353	-0.014355498
130	0xbd39842e	-0.045292072
131	0x3de1c33b	0.110235654
132	0xbb7307c4	-0.0037083486
133	0x3cc0e3ae	0.023546066
134	0x3d457fdf	0.04821765
135	0x3cbfdc68	0.023420528
136	0xba006403	-0.00048977154
137	0x3d006980	0.031350613
138	0xbd147012	-0.03623969
139	0xbde82636	-0.11335413
140	0xba854743	-0.0010168332
141	0xbd0fd518	-0.03511533
142	0x3a5c4e1d	0.0008403974
143	0x3d825213	0.06363311
144	0xbd962222	-0.07330729
145	0xbba088c0	-0.0048991144
146	0x3d3bc222	0.045839436
147	0xbae4a769	-0.0017444912
148	0x3caf573e	0.021403905
149	0xbc09e8ff	-0.008417367
150	0xbd344fb8	-0.04402134
151	0xbc488552	-0.012238817
152	0x3d91233e	0.070868
153	0xbd5a4a95	-0.053293783
154	0xbc5e2add	-0.013560024
155	0xbcfeb1ce	-0.031090643
156	0xbd55d777	-0.052207436
157	0xbce372d8	-0.027764723
158	0xbc869b35	-0.01643143
159	0xbbac4ab6	-0.0052579297
160	0x3d7478a0	0.05968535
161	0x3e16b09b	0.14715807
162	0x3d035dd4	0.032071903
163	0x3b748c78	0.0037315171
164	0xbd08cd9b	-0.033399206
165	0xbd0f1106	-0.034928344
166	0x3d80cb3e	0.06288765
167	0xbcc3e451	-0.02391258
168	0xbdb53951	-0.08848823
169	0x3b908e6b	0.004411509
170	0xbc203b5f	-0.00977978
171	0xbcbf65d0	-0.023363978
172	0x3dfaf392	0.122534886
173	0x3c51e43f	0.012810766
174	0xbcb68be5	-0.022283504
175	0xbd6e9ef3	-0.058257055
176	0xbad7ae9d	-0.0016455237
177	0xbd623ffe	-0.05523681
178	0xbd940473	-0.07227411
179	0x3dc5a33b	0.09650274
180	0x3d81babd	0.063344456
181	0xbd8516c3	-0.06498482
182	0xbda35436	-0.07975046
183	0x3d6b6f2d	0.057479072
184	0x3c0e1fe4	0.0086745955
185	0x3be9d626	0.007136124
186	0xbceee93e	-0.029163953
187	0xbda6ba97	-0.08141058
188	0xbdf81102	-0.12112619
189	0xbdba7d49	-0.091059275
190	0x3dcda3d2	0.10041012
191	0x3deb6108	0.114931166
192	0x3c710edb	0.0147130145
193	0x3d08ce10	0.03339964
194	0x3d93e87e	0.07222079
195	0x3cb7db91	0.022443565
196	0xbc962ac9	-0.018330948
197	0x3d9c848a	0.07642467
198	0xbd74600c	-0.05966191
199	0xbe0ef9ef	-0.1396253
200	0x3d83975e	0.064253554
201	0x3d124a0e	0.035715155
202	0x3c69b614	0.014264602
203	0xbcab75be	-0.020930167
204	0x3c9e6e2e	0.019339647
205	0xbd617590	-0.055043757
206	0x3d776ac1	0.060404543
207	0xbcfa8638	-0.030581579
208	0xbcc4f7c5	-0.024043927
209	0x3cf6831b	0.030091813
210	0xbc963bd1	-0.01833907
211	0xbd454558	-0.048161834
212	0x3d260315	0.040530283
213	0x3d840676	0.06446545
214	0xbc85c33b	-0.016328445
215	0xbcad0ea4	-0.021125145
216	0xbd41b2df	-0.047289725
217	0xbd52818b	-0.051393073
218	0x3d93814d	0.072023965
219	0xbca896d1	-0.020579727
220	0xbd5dc4e8	-0.054142863
221	0x3acf2576	0.0015804011
222	0xbc1b4b30	-0.009478375
223	0x3c9ea032	0.019363496
224	0xbc8bccfc	-0.017065518
225	0x3d8f67a7	0.07002192
226	0xbcdb27c1	-0.026752355
227	0xbbac3e4b	-0.0052564493
228	0xbd2d1307	-0.042254474
229	0xbb1c21ae	-0.0023823786
230	0xbb166ed1	-0.0022954235
231	0xbcdc8941	-0.026920917
232	0xbe035f03	-0.12829213
233	0xbd9129ae	-0.07088028
234	0x3d1f3cec	0.03887646
235	0x3d06e727	0.032935288
236	0x3d007e0d	0.03137021
237	0x3d433b1a	0.047663786
238	0xbdbb4f76	-0.09146015
239	0x3d2ccce0	0.04218757
240	0x3bfbbf06	0.007682684
241	0x3d4f0424	0.05054106
242	0x3b94eeac	0.0045450535
243	0xbb7f45d4	-0.0038951533
244	0xbdd59dcb	-0.10430487
245	0xbdc9bb7f	-0.09850215
246	0xbc6deb55	-0.01452144
247	0x3dba28fe	0.0908985
248	0xbd8229a7	-0.06355601
249	0x3daa62e3	0.083196424
250	0xbd118c3e	-0.035534136
251	0x3d4d0710	0.050055563
252	0xbc06e336	-0.008232882
253	0xbc6f69f3	-0.014612663
254	0x3de79bb5	0.11308996
255	0xbd873369	-0.066016026

local_block.conv_chan.conv.0.bias f4 [8]
0	0xb20ebfe3	-8.309118e-09
1	0xbc4122e7	-0.0117881065
2	0x3c13ba26	0.009016549
3	0x3c98df62	0.018661205
4	0x3cbced2d	0.023062313
5	0x35494469	7.4977885e-07
6	0x3cf2befb	0.029632082
7	0xb883bd55	-6.2818326e-05

local_block.conv_chan.conv.1.weight f4 [8]
0	0x3f666b69	0.90007645
1	0x3f82d958	1.0222578
2	0x3f85530c	1.0415969
3	0x3f51665d	0.8179682
4	0x3f72c1aa	0.9482676
5	0x3f8e9abc	1.1140971
6	0x3f6defb9	0.9294391
7	0x3f7dd871	0.9915839

local_block.conv_chan.conv.1.bias f4 [8]
0	0xbd4abbe5	-0.049495596
1	0xbd8f378c	-0.069930166
2	0xbd1cb191	-0.038255278
3	0xbdfe0026	-0.12402372
4	0xbd40eef8	-0.0471029
5	0x3c83f24d	0.016106749
6	0xbd701aee	-0.058619432
7	0xbd9bdfb2	-0.07611026

local_block.conv_chan.conv.1.running_mean f4 [8]
0	0x3cb6ba05	0.022305498
1	0xbb7e6b20	-0.0038821176
2	0xbd10febb	-0.03539918
3	0x3d23fb43	0.040034544
4	0xbc4b78fb	-0.012418981
5	0xbc9ca23e	-0.019120332
6	0x3c94fe99	0.018187808
7	0xbc1d5307	-0.009602315

local_block.conv_chan.conv.1.running_var f4 [8]
0	0x3d70d144	0.05879332
1	0x3d251617	0.04030427
2	0x3d29f17a	0.041490056
3	0x3daccc50	0.08437407
4	0x3d7de552	0.061986275
5	0x3d229d8c	0.03970103
6	0x3d32e6d9	0.043677185
7	0x3d33481b	0.043769937

atten.conv.weight f4 [1, 1, 3]
0	0xbf89eea6	-1.0775955
1	0xbef05197	-0.46937248
2	0x3de4cea7	0.11172228

tcn.network.0.conv1.weight f4 [16, 16, 16]
0	0xbcb27427	-0.021783901
1	0xbbd0b294	-0.0063689444
2	0xbba3d286	-0.0049994616
3	0xbb481b1f	-0.0030533744
4	0xbcaec556	-0.021334331
5	0x3c3f144d	0.011662555
6	0xbb7f8400	-0.003898859
7	0xbb7cd334	-0.0038578035
8	0xbbe24bab	-0.006905993
9	0xbb3b2961	-0.00285586
10	0xbbceac44	-0.0063071568
11	0xbc301a7a	-0.0107485
12	0x3c938541	0.018007876
13	0x3ba1c33c	0.004936604
14	0x3b8449ec	0.0040371325
15	0xbc8b5b2f	-0.017011253
16	0x3d2bcfb8	0.041946143
17	0xb7e33b1c	-2.7088034e-05
18	0x3cb4f247	0.022088183
19	0xbc73ec07	-0.014887816
20	0xbb59c9d3	-0.003323187
21	0x3b37ee6f	0.0028065701
22	0x3bb442c2	0.005501122
23	0xbb21411a	-0.0024605454
24	0xbc8bf144	-0.017082818
25	0xbd336fe1	-0.043807868
26	0xbd17faa3	-0.03710426
27	0xbd505b33	-0.050868224
28	0xbbd9a3a2	-0.006641821
29	0xbd05950a	-0.032612838
30	0xbc85bbca	-0.016324896
31	0xbcde8aef	-0.027165858
32	0xbc5cb37b	-0.013470526
33	0xbc23d881	-0.010000349
34	0x3b4b6806	0.0031037345
35	0x3c8b78bc	0.017025344
36	0x3c0243c9	0.007950732
37	0x3cebc680	0.028781176
38	0xb98df9de	-0.0002707978
39	0xbb0b9002	-0.0021295552
40	0x3c4eef07	0.012630231
41	0xbc1a1fc8	-0.009406991
42	0xbc625883	-0.013815048
43	0x3b7a6461	0.0038206803
44	0xb94b4c46	-0.00019388003
45	0x3c2795b7	0.010228566
46	0xbba4f7f2	-0.00503444
47	0x3ae8584d	0.0017726511
48	0x3d0cbbe3	0.03435887
49	0xbafdc77c	-0.0019361819
50	0x3bd4463d	0.0064780996
51	0x3c952902	0.01820803
52	0x3ca5df99	0.020248221
53	0x3ca439f2	0.020047162
54	0xbbf1485c	-0.0073633622
55	0x3c83ec6a	0.016103942
56	0x3c0f1f40	0.008735478
57	0xbc823fd5	-0.015899578
58	0xbcb5be77	-0.022185547
59	0x3b313996	0.002704238
60	0x3c501280	0.012699723
61	0x3bab28fa	0.0052233906
62	0x3d032148	0.03201416
63	0x3c90440b	0.01761057
64	0x3cf17043	0.029472476
65	0x3c239c99	0.009986066
66	0xbc4ea934	-0.012613583
67	0xbc9f07eb	-0.019412955
68	0xbccbb6b1	-0.024867387
69	0x3ca10b41	0.019658687
70	0xbc427e78	-0.011870973
71	0x3bd843e5	0.0065998905
72	0x3c4d4c9a	0.01253047
73	0xbca25773	-0.01981709
74	0x3bf9fd86	0.0076290993
75	0x3c4aa5ad	0.012368602
76	0xbbb1edbb	-0.005429951
77	0x3bb6ab11	0.005574592
78	0x3c63416f	0.013870581
79	0x3ca99507	0.020700945
80	0x3c91a3f2	0.01777837
81	0xbc7568ef	-0.014978631
82	0xbccee3fa	-0.025255192
83	0xbc7768c4	-0.015100662
84	0xbca8107d	-0.020515675
85	0xbc483872	-0.012220489
86	0xbcdefe6d	-0.027220929
87	0xbc5633b8	-0.013073854
88	0xbc0854a9	-0.008320966
89	0xbc281da5	-0.010260974
90	0xba502790	-0.00079404656
91	0x3c0dba9a	0.008650446
92	0xbccdee5c	-0.025138073
93	0x3c8b0ae7	0.016972972
94	0xbb1cab5a	-0.0023905844
95	0xbbb7406f	-0.005592398
96	0x3baa4377	0.0051960307
97	0x3ca0e192	0.01963881
98	0xbc7f401d	-0.015579251
99	0xbc9fc39c	-0.019502454
100	0x3c6e5485	0.014546518
101	0xb9c42247	-0.00037409572
102	0xbb96eabf	-0.0046056206
103	0xbc635f7f	-0.0138777485
104	0xb9a20a93	-0.00030906926
105	0xbc7647b7	-0.015031747
106	0xbc52f065	-0.012874697
107	0x3b863a5f	0.004096314
108	0xbbf84c6e	-0.0075774705
109	0xbabf0d6f	-0.0014576147
110	0x3bb080ec	0.0053864624
111	0x3aea0eb4	0.0017857165
112	0x3bc9831f	0.006149664
113	0xbce91366	-0.028451633
114	0xbb2fda3e	-0.0026832963
115	0xbc8f782f	-0.017513363
116	0x3b1e0eb9	0.0024117662
117	0x3bb77fd8	0.005599957
118	0xbc99461c	-0.018710189
119	0x3b94585c	0.004527135
120	0x3c4e3e48	0.012588091
121	0x3c6140b4	0.013748337
122	0x3c405726	0.011739528
123	0x3aaf4973	0.001337333
124	0x3bd445bf	0.006478041
125	0xbb793211	-0.0038024227
126	0xbcf4c9d0	-0.029881388
127	0xbb86bfcb	-0.004112219
128	0xbca6b78e	-0.020351198
129	0xbca57881	-0.020199062
130	0xbbf074b1	-0.0073381294
131	0xbc68f5b8	-0.01421874
132	0xbc808226	-0.01568706
133	0xbb2593b1	-0.0025265033
134	0x3cd4e4f6	0.025988083
135	0x3c46b26e	0.012127502
136	0x3cd80dd2	0.026373778
137	0x3c2fe98e	0.010736836
138	0x3bad2d5a	0.0052849473
139	0xbb62a119	-0.0034580885
140	0xbce4a3fb	-0.027910223
141	0xbc07a515	-0.008279105
142	0x3bd42c98	0.0064750426
143	0xbc1c3009	-0.009532937
144	0x3c053117	0.00812938
145	0x3c30c0d1	0.0107881585
146	0x3cdbf0ad	0.026848162
147	0x3a810349	0.0009842898
148	0xbc243f6c	-0.010024887
149	0xbcf24842	-0.02957547
150	0xbc7dc9c6	-0.015490001
151	0xbcaca9c4	-0.021077044
152	0xbcebf24d	-0.028802061
153	0xbcc0cee7	-0.023536159
154	0x3a4fa28b	0.0007920644
155	0x3c0e3d33	0.008681583
156	0x3c9ca825	0.019123146
157	0x3d0c4d18	0.03425321
158	0x3d1c6244	0.03817965
159	0x3db5b939	0.08873219
160	0xbc015e87	-0.007896072
161	0xbbf3b1ea	-0.0074369805
162	0xbb008638	-0.001961125
163	0x3ace00a5	0.0015716745
164	0x3ae3331b	0.0017333956
165	0xbc9b14c4	-0.0189308
166	0xbc843a46	-0.016141068
167	0xbb16dc31	-0.0023019428
168	0xbc910f15	-0.017707387
169	0x3c7ee13c	0.01555663
170	0xbc93cbc5	-0.0180415
171	0xbb2e9a1e	-0.0026642154
172	0xbbcbda24	-0.0062210727
173	0xbc78390d	-0.015150321
174	0xbc256674	-0.0100952275
175	0xbc69aadf	-0.01426193
176	0xbb2eb3b1	-0.0026657397
177	0xbaf8d07c	-0.0018983032
178	0xbccabb41	-0.024747493
179	0xba6b0a4a	-0.0008966072
180	0xbc9a8961	-0.018864335
181	0xbac84ada	-0.0015281097
182	0xba5f2bd8	-0.0008513308
183	0x3bc65ad4	0.006053308
184	0xbbaada21	-0.0052139913
185	0x3c21ce1a	0.009875799
186	0xb9c182a7	-0.00036909172
187	0x3b692462	0.0035574664
188	0x3a349b9b	0.0006889642
189	0x3be8ef62	0.007108615
190	0x3c5e274c	0.013559174
191	0x3ca16c75	0.019705037
192	0x3b3e8d30	0.0029075854
193	0xbb1b455a	-0.002369246
194	0x3b4c5251	0.0031176994
195	0x3c8e8eb5	0.017402032
196	0x3b64b85f	0.0034899933
197	0xbc288852	-0.010286408
198	0xbc475128	-0.012165345
199	0xbc3ddc6c	-0.011588197
200	0xbc814da3	-0.01578409
201	0xbc80133b	-0.01563417
202	0x3d2e420c	0.042543456
203	0x3c089b84	0.008337859
204	0x3c4fe78e	0.012689484
205	0x3c19a958	0.009378754
206	0x3cca2a0e	0.024678256
207	0xbbb7aa3e	-0.0056050112
208	0x3c504245	0.012711112
209	0x3bea1e58	0.0071447305
210	0x3bff4b08	0.007790927
211	0x3b7e3af9	0.0038792475
212	0x3c0cf590	0.008603469
213	0xbc174e1e	-0.009234933
214	0xbd08cdd0	-0.033399403
215	0xbbf4e4b5	-0.007473553
216	0xbc590bd1	-0.013247446
217	0xbd0724f5	-0.03299423
218	0xbca70147	-0.020386351
219	0x3c0faa44	0.008768622
220	0x3c5d58e8	0.013509966
221	0x3c498ba4	0.012301359
222	0xbca88797	-0.020572467
223	0xbc1e211f	-0.009651451
224	0xbceb8dfc	-0.028754227
225	0xbb0a593b	-0.0021110314
226	0x3c1baaa4	0.009501133
227	0x3c8d3e14	0.017241515
228	0x3cdec260	0.027192295
229	0x3bcb6bbc	0.0062079113
230	0x3cb4f140	0.022087693
231	0x3c0d0751	0.008607701
232	0x3d3e8829	0.04651657
233	0x3c390f43	0.011295143
234	0xbbab7ef1	-0.0052336385
235	0xbc44bc39	-0.012007766
236	0xbc850d14	-0.016241588
237	0xbcbc9661	-0.023020925
238	0xbce993a2	-0.02851278
239	0xbc841e9d	-0.016127879
240	0xbc802a12	-0.01564506
241	0xb9cc2b7f	-0.0003894232
242	0xbc9c925b	-0.019112756
243	0xbb35ce31	-0.0027741308
244	0xbb07d6e6	-0.0020727455
245	0xbbe7ca09	-0.007073645
246	0x3c977f21	0.018493237
247	0x3c530c10	0.012881294
248	0x3b79fed2	0.003814627
249	0x3adbac3d	0.0016759705
250	0x3cf5d2ff	0.030007837
251	0x3d15580b	0.036460917
252	0x3cf3664c	0.029711865
253	0x3d022c41	0.031780485
254	0xbbf98e99	-0.007615876
255	0x3c615958	0.013754211

tcn.network.0.conv1.bias f4 [16]
0	0x3187b6cb	3.9497983e-09
1	0x302049a4	5.831231e-10
2	0x38fac70d	0.00011958005
3	0x31c92bec	5.8548633e-09
4	0xb901a6ce	-0.00012364538
5	0xb15573b5	-3.1061351e-09
6	0xb29fd5ab	-1.8607201e-08
7	0xb28db04d	-1.6494733e-08
8	0xb1c0d3f3	-5.6120313e-09
9	0x32989002	1.7760616e-08
10	0x323f8711	1.1148374e-08
11	0xb26db451	-1.3836215e-08
12	0x3ac14b19	0.0014747112
13	0x320a6b51	8.057058e-09
14	0x3ad77908	0.0016439268
15	0xbb18a928	-0.0023294184

tcn.network.0.bn1.weight f4 [16]
0	0x3f7daaf3	0.9908897
1	0x3f7fee88	0.99973345
2	0x3f753bec	0.9579456
3	0x3f82413f	1.0176162
4	0x3f8802c9	1.062585
5	0x3f851aff	1.0398864
6	0x3f715c19	0.94281155
7	0x3f80aa30	1.0051937
8	0x3f75c61a	0.96005404
9	0x3f7d12ee	0.9885701
10	0x3f7fa62c	0.99862933
11	0x3f6f18ec	0.933974
12	0x3f71fdff	0.9452819
13	0x3f7761b7	0.96633476
14	0x3f7bd8e5	0.9837783
15	0x3f7416a2	0.95347035

tcn.network.0.bn1.bias f4 [16]
0	0xbde5c7f6	-0.1121978
1	0xbe3d10bf	-0.1846342
2	0xbe83bac9	-0.25728443
3	0xbe1b3275	-0.15155967
4	0xbe18de1e	-0.14928481
5	0xbe66c457	-0.22535835
6	0xbe1f385e	-0.15548846
7	0xbdda697e	-0.10664652
8	0xbe05311d	-0.13007016
9	0xbe5eedba	-0.21770373
10	0xbe3a00c2	-0.18164352
11	0xbe1bb44c	-0.15205497
12	0xbe3dd5b9	-0.1853856
13	0xbe2d06d0	-0.1689713
14	0xbe0b0a84	-0.1357823
15	0xbe34c664	-0.17653805

tcn.network.0.bn1.running_mean f4 [16]
0	0xbcf2a2ba	-0.02961861
1	0xbd266a08	-0.040628463
2	0xbd6206bb	-0.0551822
3	0xbbaba9f5	-0.0052387663
4	0x3c2515aa	0.010075966
5	0xbd1b8dad	-0.03797691
6	0xbcc5fdd5	-0.024168888
7	0x3c7ff1d8	0.015621625
8	0xbc9124e3	-0.017717784
9	0xbc3bbce2	-0.011458607
10	0xbd187cce	-0.037228398
11	0xbd0ceeab	-0.0344073
12	0xbd2e9750	-0.04262477
13	0xbc8c7a50	-0.017148167
14	0xbcb59b8c	-0.022168897
15	0xbcaca29a	-0.021073628

tcn.network.0.bn1.running_var f4 [16]
0	0x3dd3790b	0.103258215
1	0x3e0b0669	0.13576664
2	0x3da2b010	0.079437375
3	0x3deb8c00	0.11501312
4	0x3e462ea0	0.19353724
5	0x3de80a50	0.11330092
6	0x3d9641b1	0.073367484
7	0x3dd35f4c	0.10320911
8	0x3dc06708	0.09394652
9	0x3dec7f17	0.11547678
10	0x3dc1f5f2	0.094707385
11	0x3de2556a	0.11051448
12	0x3e03678a	0.12832466
13	0x3dd45b2f	0.103689544
14	0x3dca0171	0.09863556
15	0x3dd62fd8	0.10458344

tcn.network.0.conv2.weight f4 [16, 16, 16]
0	0x3ac4d0f6	0.0015015888
1	0x3aa9de8e	0.0012960003
2	0x3c3f95ea	0.011693457
3	0x3ab4b4b8	0.0013786769
4	0x3c3479e1	0.011015386
5	0x3abeda9c	0.0014561
6	0xbae38105	-0.0017357176
7	0xbc267071	-0.010158644
8	0xbc43f07b	-0.0119591905
9	0xbc649508	-0.013951547
10	0xbc4430b0	-0.011974499
11	0xbcb8030a	-0.022462387
12	0xbc2a3bdc	-0.010390248
13	0x3bcf75d3	0.0063311844
14	0xba1358b2	-0.00056208216
15	0xbba1ddaa	-0.0049397545
16	0x3c3d32bc	0.011547741
17	0x3c3eec3c	0.011653002
18	0x3bb6d391	0.00557942
19	0x3bf0d27f	0.007349312
20	0x3c3f5fed	0.011680585
21	0x3bd2a25c	0.006428046
22	0xbc3a9c1e	-0.01138976
23	0x3b6e654b	0.0036376293
24	0xbb0181eb	-0.0019761275
25	0xbc688483	-0.0141917495
26	0xbc1b1b5a	-0.00946697
27	0xbce45a0b	-0.027874967
28	0xbc90af21	-0.017661633
29	0xbb4e0dea	-0.00314414
30	0xbc0369e5	-0.008020853
31	0x3ca95e9c	0.020674996
32	0x3a2a3651	0.0006493079
33	0x3ba159aa	0.004924019
34	0x3b866985	0.0041019344
35	0x3c3368fd	0.010950324
36	0xba63db31	-0.0008692025
37	0x3b0ce292	0.002149735
38	0xbb91331e	-0.0044311425
39	0xbc4f1652	-0.012639599
40	0xbc03c06d	-0.008041483
41	0xbc32cead	-0.010913533
42	0xbaf7d3b1	-0.0018907693
43	0x3bf583f7	0.007492538
44	0x3bc38933	0.005967283
45	0x3cae6a9b	0.021291068
46	0x3c97b497	0.01851873
47	0x3c5c0b93	0.013430494
48	0x3c0a2da6	0.008433735
49	0x3ad17158	0.0015979214
50	0xbc0b1179	-0.0084880525
51	0xbc7283b8	-0.014801912
52	0xbc04d780	-0.00810802
53	0xbbe85fe9	-0.0070915115
54	0xbc6be97d	-0.01439893
55	0xbc94005f	-0.018066583
56	0xbc93e80c	-0.018054985
57	0xbb89760e	-0.0041949814
58	0x3c0b7279	0.008511179
59	0x3b46daaf	0.0030342748
60	0xbb74129c	-0.0037242537
61	0x3c261e5f	0.010139077
62	0x3bfbde01	0.007686377
63	0xbc659618	-0.014012836
64	0xbb6cfeed	-0.003616269
65	0xbd2b273a	-0.041785456
66	0xbd0c5aaa	-0.03426615
67	0xbc8439ab	-0.01614078
68	0xbcf52907	-0.02992679
69	0xbd0e7803	-0.03478242
70	0xbcb408f3	-0.021976924
71	0x3a0723ac	0.0005155157
72	0xbc8f18cc	-0.017467879
73	0xbca3eac7	-0.020009411
74	0xbcb09bc3	-0.021558648
75	0xbc0f812f	-0.008758827
76	0xbc00ba64	-0.007856939
77	0xbd13fb5e	-0.036128394
78	0xbcb9ec23	-0.022695607
79	0xbcd914fd	-0.026499266
80	0x3b901f15	0.0043982365
81	0x3c1fb1ce	0.009746982
82	0x3cc38650	0.023867756
83	0x3c9c0d8f	0.019049434
84	0x3c511c10	0.012763038
85	0x3cabd0ef	0.02097365
86	0x3c9591a8	0.01825793
87	0x3c09f283	0.008419636
88	0x3c959ebd	0.018264169
89	0xbc14f2d6	-0.0090911
90	0x3b2a4eec	0.0025986983
91	0xbcd945a5	-0.026522467
92	0xbc7726d7	-0.015084944
93	0xbb89a576	-0.0042006327
94	0xbc610665	-0.013734435
95	0xbbe686fe	-0.0070351353
96	0x3b4a4c34	0.0030868175
97	0x3b49199c	0.003068543
98	0xba87ac6d	-0.001035107
99	0xbc59384d	-0.013258052
100	0xbc638b45	-0.013888185
101	0xbc445238	-0.011982493
102	0xbbe54def	-0.006997816
103	0x3b963e05	0.00458503
104	0xbba12b20	-0.004918471
105	0x3c9af2a2	0.018914524
106	0x3ca55cf0	0.020185918
107	0x3c69f0b9	0.014278584
108	0x3ba1b247	0.0049345824
109	0x3cd39109	0.025825994
110	0x3ca15bfc	0.019697182
111	0x3d126a04	0.035745636
112	0x3bece0b9	0.0072289375
113	0x3ced3fe4	0.02896113
114	0x3c7c851f	0.015412598
115	0xbb1997d2	-0.002343644
116	0x3c6d3cc1	0.014479817
117	0x3ae96335	0.0017806055
118	0xbb19a207	-0.0023442523
119	0xbca736f5	-0.020411948
120	0x3b2ca4df	0.0026343388
121	0xbd198bb9	-0.037486766
122	0x3b6c942d	0.0036099062
123	0xbbd917ee	-0.006625167
124	0x3bbea054	0.0058174524
125	0x3bb4a09e	0.005512311
126	0xbc0b041c	-0.0084848665
127	0xbc9ee894	-0.019398011
128	0xbc54ac13	-0.012980479
129	0xbbc3a8ee	-0.0059710657
130	0xbc5212ec	-0.012821894
131	0x3ba86528	0.005139012
132	0xbb5b745a	-0.00334861
133	0x3a05a1bc	0.00050976477
134	0xbbd65dc2	-0.0065419385
135	0xbcb94d69	-0.02261992
136	0xbb9f9b2c	-0.004870793
137	0xbb297221	-0.002585538
138	0xbca990ce	-0.020698931
139	0xbc3de36d	-0.011589867
140	0x3b6dbf0e	0.0036277208
141	0xbc7c52a1	-0.01540056
142	0xbcdd794d	-0.02703538
143	0xbcd89bf9	-0.026441561
144	0x3d1f6e52	0.03892357
145	0x3d16d13d	0.03682064
146	0x3b710e94	0.003678237
147	0x3c7dad29	0.015483179
148	0x3b8cd119	0.0042973873
149	0x3b39c4e8	0.0028346125
150	0x3adaff2f	0.0016708131
151	0x3b777b40	0.0037762672
152	0x3c5b36fc	0.0133798085
153	0x3b8b5715	0.0042523243
154	0x3ad0d692	0.0015933088
155	0xbbd345ea	-0.0064475434
156	0xbae0501a	-0.0017113716
157	0xba869dce	-0.0010270418
158	0x3c139c59	0.009009444
159	0xbba0727f	-0.0048964615
160	0xbb83bb6f	-0.0040201466
161	0xbc5b25d3	-0.013375717
162	0xbd2203ed	-0.039554525
163	0xbc18f01e	-0.009334592
164	0xbc9da3ce	-0.019243147
165	0xbc3d809f	-0.01156631
166	0xbc48b6f8	-0.012250654
167	0xbc2af995	-0.010435482
168	0xb9ece04c	-0.00045180542
169	0xbc102b4b	-0.008799384
170	0x3ab6ea00	0.0013955235
171	0xbca28260	-0.019837558
172	0xbac5d5fd	-0.0015093681
173	0x3c16d339	0.009205633
174	0x3bc1a3e8	0.0059094317
175	0x3bc75355	0.006082932
176	0xb8ddef29	-0.00010582648
177	0x3a8c663a	0.0010711618
178	0xbc7f78a2	-0.015592726
179	0xbbf8762c	-0.0075824466
180	0xbae4c1a3	-0.0017452728
181	0xbbbd59f4	-0.0057785455
182	0xbb89d7b3	-0.0042066216
183	0x3c882510	0.016619235
184	0x3bbd52c5	0.005777689
185	0x3b4e1c02	0.00314498
186	0x3c5a78f4	0.013334502
187	0x3a9931e9	0.0011687848
188	0x3b4e2c06	0.0031459345
189	0x3bc40a69	0.0059826863
190	0x3c13d5e4	0.0090231635
191	0x3ad65f5f	0.0016355327
192	0x3c56c593	0.013108629
193	0x3c67fec1	0.014159859
194	0x3c938d95	0.018011848
195	0x3b95b41d	0.0045685903
196	0xbc32c78e	-0.010911835
197	0xbc993fdb	-0.018707206
198	0xbd032c19	-0.032024477
199	0xbbc90d9c	-0.0061356556
200	0xbc80c177	-0.015717251
201	0xbaacc7c4	-0.0013182093
202	0x3c16b7df	0.009199112
203	0x3c82e24e	0.015977051
204	0x3c9f616f	0.01945564
205	0x3cb366aa	0.02189954
206	0x3ca306fc	0.019900791
207	0x3c807565	0.015680978
208	0x3ca33d34	0.019926645
209	0xbaf7a4aa	-0.0018893678
210	0xbaf62147	-0.0018778228
211	0xbbf39ee9	-0.007434715
212	0xbc09fd2e	-0.008422179
213	0xbc91a677	-0.017779572
214	0xbb5c1478	-0.0033581536
215	0xbc58583d	-0.013204631
216	0xbc19f4e6	-0.009396767
217	0xbb4cb132	-0.0031233546
218	0xba8ee75e	-0.0010902693
219	0xba4d2073	-0.00078249647
220	0x3b85074e	0.0040597087
221	0x3b079741	0.002068952
222	0xbb1598ab	-0.0022826593
223	0xbbeab3ad	-0.0071625323
224	0xbca69276	-0.02033351
225	0xbc8fc2a3	-0.017548865
226	0xbae7d65d	-0.0017687787
227	0xbbe91805	-0.007113459
228	0x3c37e3f3	0.011223781
229	0x3c309b49	0.01077921
230	0xbb39b406	-0.0028336062
231	0x3be2b0c0	0.006918043
232	0xbacccfff	-0.0015625953
233	0x3b6c1a85	0.003602655
234	0x3ca868f4	0.020557858
235	0xbbeb88d6	-0.007187943
236	0xbc1d0774	-0.0095842965
237	0xbc80f360	-0.01574105
238	0xbc8a3659	-0.016871618
239	0xbcfded8b	-0.030997058
240	0x3b3e7190	0.0029059388
241	0x3bbcbdad	0.005759916
242	0x3bf716ea	0.0075405734
243	0xbb9d91fd	-0.004808663
244	0xbb2f4072	-0.0026741293
245	0xbc46a719	-0.0121248
246	0xbc96168e	-0.018321302
247	0xbc045ff2	-0.008079516
248	0xbb507502	-0.0031808023
249	0x3c857032	0.01628885
250	0x3c5e9dee	0.013587458
251	0x3cec550a	0.028849144
252	0xb90fa4de	-0.0001369896
253	0x3c73e357	0.014885745
254	0x3ce98288	0.028504625
255	0x3cc31d29	0.023817616

tcn.network.0.conv2.bias f4 [16]
0	0x3a09bc00	0.00052541494
1	0xb42f6a53	-1.6336826e-07
2	0xb182a254	-3.8019525e-09
3	0xb2432c37	-1.1360547e-08
4	0x376237c4	1.3483634e-05
5	0x3befa3e0	0.0073132366
6	0x356f7e26	8.921801e-07
7	0xb25bed9d	-1.2801505e-08
8	0xb825c5e9	-3.9523384e-05
9	0xb1362bde	-2.6509421e-09
10	0x3918f5a2	0.00014587355
11	0xb1d7a6c3	-6.276282e-09
12	0xb8f171d4	-0.00011512978
13	0xb1c40773	-5.7051976e-09
14	0xb167550f	-3.3663274e-09
15	0x310e41f6	2.0701214e-09

tcn.network.0.bn2.weight f4 [16]
0	0x3f800000	1.0
1	0x3f800000	1.0
2	0x3f800000	1.0
3	0x3f800000	1.0
4	0x3f800000	1.0
5	0x3f800000	1.0
6	0x3f800000	1.0
7	0x3f800000	1.0
8	0x3f800000	1.0
9	0x3f800000	1.0
10	0x3f800000	1.0
11	0x3f800000	1.0
12	0x3f800000	1.0
13	0x3f800000	1.0
14	0x3f800000	1.0
15	0x3f800000	1.0

tcn.network.0.bn2.bias f4 [16]
0	0x00000000	0.0
1	0x00000000	0.0
2	0x00000000	0.0
3	0x00000000	0.0
4	0x00000000	0.0
5	0x00000000	0.0
6	0x00000000	0.0
7	0x00000000	0.0
8	0x00000000	0.0
9	0x00000000	0.0
10	0x00000000	0.0
11	0x00000000	0.0
12	0x00000000	0.0
13	0x00000000	0.0
14	0x00000000	0.0
15	0x00000000	0.0

tcn.network.0.bn2.running_mean f4 [16]
0	0x00000000	0.0
1	0x00000000	0.0
2	0x00000000	0.0
3	0x00000000	0.0
4	0x00000000	0.0
5	0x00000000	0.0
6	0x00000000	0.0
7	0x00000000	0.0
8	0x00000000	0.0
9	0x00000000	0.0
10	0x00000000	0.0
11	0x00000000	0.0
12	0x00000000	0.0
13	0x00000000	0.0
14	0x00000000	0.0
15	0x00000000	0.0

tcn.network.0.bn2.running_var f4 [16]
0	0x3f800000	1.0
1	0x3f800000	1.0
2	0x3f800000	1.0
3	0x3f800000	1.0
4	0x3f800000	1.0
5	0x3f800000	1.0
6	0x3f800000	1.0
7	0x3f800000	1.0
8	0x3f800000	1.0
9	0x3f800000	1.0
10	0x3f800000	1.0
11	0x3f800000	1.0
12	0x3f800000	1.0
13	0x3f800000	1.0
14	0x3f800000	1.0
15	0x3f800000	1.0
