model/Benchmark/DATCN_b3_1s_S7.pth (torch, 182388 bytes, 75 tensors)

global_block.conv_time.conv.0.weight f4 [8, 1, 1, 125]
000000 df a4 64 bd 3d f2 db bc 77 d8 b6 bc 8d f7 06 3c
       -0.055821296 -0.026848907 -0.022320015 0.008237732
000010 fa b9 4a bc a3 cb 72 3d 6b a6 b2 bc 5a 82 ef bb
       -0.012373442 0.059276234 -0.02180787 -0.0073092403
000020 e1 20 07 3c 2b ff ad bc c5 dd 3c 3c 46 23 0d bd
       0.008247585 -0.021239838 0.011527483 -0.034457467
000030 c4 e6 fd bb e0 c9 78 3c a0 7e 12 bd b6 c9 3d 3a
       -0.0077484567 0.0151848495 -0.03576529 0.0007239835
000040 97 6c 25 bd 8a b2 7c 3b 4e 6f 18 bd 14 33 64 3c
       -0.040386762 0.0038558566 -0.037215523 0.013928194
000050 5d 56 f7 3b 1f 72 0e bc 1b d0 a3 bc 6e 0e 9d bb
       0.007548137 -0.008694201 -0.019996693 -0.00479298
000060 3d 38 d7 3c e4 3a 00 3d 08 4c a5 3c fe 14 56 3c
       0.026271934 0.031306162 0.020177856 0.013066528
000070 07 0f 11 3d 6f 84 08 bd a1 e3 13 3d 61 f7 50 39
       0.03541472 -0.033329424 0.036105756 0.00019928582
000080 32 c2 11 3d fe 92 35 bd 55 28 01 bd 47 8e bf bc
       0.03558559 -0.044329636 -0.031532604 -0.023383273
000090 93 30 50 39 44 d4 28 bd c5 f2 2e 3d fb 87 58 bd
       0.00019854521 -0.041218057 0.04271199 -0.052864056
0000a0 05 7a 68 ba fa 7a 12 bd 77 17 e4 3c 6e 9f 2c 3d
       -0.000886828 -0.03576181 0.02784322 0.04214423
0000b0 b5 b7 02 bc 81 34 82 3c db b9 c2 bc 01 fd 7a bd
       -0.0079783695 0.015894176 -0.023770263 -0.06127644
0000c0 16 bf 4d 3d 23 65 4a 3d a3 01 14 3d 00 4f ee 3c
       0.050231062 0.049412858 0.036134373 0.029090405
0000d0 ed 8f 4e bc 65 11 33 3c 1c 2e 2c 3d e8 f3 cf bc
       -0.012607557 0.01092944 0.04203616 -0.025384858
0000e0 6f ab 83 bd 66 d4 ef bc f3 99 4f 3b 47 54 8f 3b
       -0.06429183 -0.029276084 0.0031677454 0.0043740603
0000f0 df d7 0f 3c 67 fe 62 3d 68 77 32 3d a8 b4 14 bd
       0.008779495 0.0554184 0.043570906 -0.0363051
000100 f7 da 7a bc aa 32 7f bc 1b a2 03 3d 63 2b 9c bc
       -0.015310994 -0.015576044 0.032137018 -0.019063657
000110 b6 b3 94 bc be 59 e3 bb 86 cf 90 bc 57 35 e0 bc
       -0.0181521 -0.0069381883 -0.01767708 -0.027369184
000120 20 d7 b0 bd aa 40 c7 3c e6 c2 e3 38 fe 20 30 bd
       -0.08634782 0.024322826 0.00010860506 -0.043000214
000130 6b 65 14 bc 22 08 c1 3d e6 d4 0d 3e 4e 41 c1 bc
       -0.009057383 0.09425379 0.13850746 -0.02359071
000140 82 90 63 bd 89 22 86 bc 16 9e b7 bd 43 52 a3 bd
       -0.055557735 -0.01637389 -0.089656994 -0.079746746
000150 00 54 03 be 5a 53 91 3c 71 fc 1f 3d 5a b7 1c bd
       -0.12825012 0.01773994 0.039059106 -0.038260795
000160 eb 03 d9 bc a5 aa 94 3c d6 78 11 bc c9 3f 29 bc
       -0.026491126 0.018147776 -0.008878907 -0.010330149
000170 2d 5c 90 bd c2 e2 08 bd c9 e6 4a 3d 53 e5 cb bc
       -0.07048831 -0.033419378 0.0495365 -0.024889624
000180 73 33 95 b9 33 a4 dd 3c e1 aa 70 3c 9a 69 73 bc
       -0.00028457827 0.027055835 0.014689178 -0.01485672
000190 6d b6 4b 3c ec 33 00 3d 8f 07 34 ba 8c 1f 2b bb
       0.01243363 0.031299517 -0.00068675814 -0.0026111333
0001a0 10 d2 a3 3d fa 10 cf 3d c8 40 4b 3d fc ea 97 bc
       0.079990506 0.1011066 0.049622327 -0.018544666
0001b0 c6 88 51 bd 64 e6 57 bd 31 46 0f 3c 24 cb 98 bc
       -0.051155828 -0.052709952 0.008744762 -0.018651552
0001c0 6a 4d ad bc 09 fa de bc 51 3e 2b 3d 0f bc 64 3d
       -0.021155078 -0.027218835 0.041807476 0.05584341
0001d0 de ed 68 bc 72 32 fb bc 1b d0 d4 3c 93 51 3c 3b
       -0.014216868 -0.030663703 0.025978139 0.0028735145
0001e0 e9 6e 69 bd 68 cd aa 3c 7f d4 73 3d a0 d6 68 bd
       -0.056990538 0.020849898 0.059528824 -0.056845307
0001f0 b5 35 bd bc cc 12 1f 3c 24 38 20 bd 2f 94 08 bd
       -0.023096899 0.009709071 -0.03911604 -0.033344444
000200 d3 0c 72 3d f9 83 9f bc e9 c0 0e 3d 84 9c 0d bc
       0.05909426 -0.01947211 0.034851942 -0.008643273
000210 28 d3 01 bc d9 ef 45 bd ff bc cf bb 5a 24 1a 3d
       -0.007923879 -0.04832444 -0.0063396688 0.037632324
000220 1e 09 21 3d a6 13 df 3c 7e 93 46 3d a8 6b 4f 3d
       0.039315335 0.027231049 0.048480503 0.05063978
000230 38 dd 98 bd 04 0a 25 3c 8f 6c 8b bd bb f2 92 bd
       -0.07464069 0.010073189 -0.06807815 -0.071752034
000240 a0 34 a0 bc 92 24 8e bd 28 71 0a bb 27 2a ad 3d
       -0.019556344 -0.06940569 -0.0021124575 0.084553055
000250 d3 58 26 3d 27 83 c0 bc 78 8b f4 bc 8f 33 f3 3c
       0.040612053 -0.023500038 -0.02985166 0.029687671
000260 83 f6 60 3c 11 7e 11 3d 63 a3 44 bd d3 99 5e 3b
       0.013730648 0.035520617 -0.04800738 0.0033966198
000270 a5 50 98 bc c4 43 1d bd e7 b9 d0 3b 9f fc 8a 3c
       -0.018593142 -0.038394704 0.0063698175 0.016966162
000280 ea db 4d 3d b4 66 0b 3d 21 2f 1a 3d 9c ac 9d 3c
       0.050258555 0.034033492 0.037642602 0.019247346
000290 b1 8c f8 bc cd 64 22 bd cf 1f 99 bb a2 d3 35 3c
       -0.030340524 -0.039646912 -0.0046729813 0.0110978205
0002a0 a5 e4 87 3d e8 25 2d 3d 39 1f 30 3c 40 f0 29 bd
       0.06635407 0.04227248 0.010749632 -0.041488886
0002b0 6e 91 68 3c e3 5f bf ba 5c 83 86 3c 66 37 8f 3d
       0.014194829 -0.001460072 0.016420059 0.06992988
0002c0 0c 80 f2 bc 51 8e 3a bd f3 af 79 bd f5 0f ce bc
       -0.029602073 -0.04554588 -0.060958814 -0.025154093
0002d0 53 64 70 bd 5a 78 63 3d 80 59 34 bb 17 de b8 3c
       -0.058689427 0.055534698 -0.0027519166 0.022566838
0002e0 d2 4c 6c bc 25 fb 29 3d 49 b1 68 3d 94 9e b8 3c
       -0.014422612 0.041499276 0.056809697 0.022536553
0002f0 6b 21 9d 3d 2a ae 4d bd 82 04 54 bc 0e 1f 4a bd
       0.076723896 -0.050214924 -0.012940528 -0.049346022
000300 ac 54 3e 3d 38 9c 60 3d 08 3d 99 3d 21 d2 33 3d
       0.04646747 0.05483648 0.07482344 0.043901566
000310 67 94 9f bc a3 5a f0 bc 5b 70 3a bc 09 f2 8f 3d
       -0.019479943 -0.029340094 -0.011379327 0.070285864
000320 1c 1b 66 bc f3 f8 17 3d 98 f8 49 bd 78 4a 34 3d
       -0.014044549 0.03710265 -0.049309343 0.04401633
000330 25 d9 b0 3d f2 b2 48 3d c0 d9 93 bb 62 c9 2b bd
       0.08635167 0.04899878 -0.004512042 -0.0419401
000340 34 a8 9c bd ef 5c 18 bc 50 26 c5 3c 11 48 af bc
       -0.0764927 -0.009299501 0.02406612 -0.021396669
000350 95 b8 41 bc 15 52 50 bc eb f2 f1 bd 88 94 b2 bd
       -0.011823793 -0.012714882 -0.11813911 -0.08719736
000360 de de 28 bd 75 1f 1f 3c 06 0b 40 3a 23 dd 2b 3d
       -0.041228168 0.00971209 0.00073258614 0.04195894
000370 9c 50 00 3d 50 72 12 3b 6d c7 a2 3c b2 61 d6 3c
       0.031326875 0.0022345968 0.019870484 0.026169632
000380 86 14 65 bd 83 b2 a7 3d 30 d9 5b 3d 3d 69 9d 3d
       -0.055927776 0.08188345 0.053673923 0.07686088
000390 20 93 8e bd 61 e4 75 bd ae f2 37 3d b8 f8 08 bd
       -0.069616556 -0.060032252 0.04490917 -0.03344032
0003a0 5b 36 ca bc eb dc 68 3d ad a2 1a 3d fa a3 6e bd
       -0.024684122 0.05685131 0.037752796 -0.05826185
0003b0 66 e6 99 3d 6f ac d7 3b f4 0a 3a 3d 2c d6 55 bd
       0.07514648 0.006581835 0.045420602 -0.052206203
0003c0 03 30 84 bd 1f 39 30 bd 38 c7 29 bc 2c d9 88 bd
       -0.0645447 -0.043023225 -0.010362439 -0.06682047
0003d0 07 79 bd bc 5a e3 bc bd cf 13 8d bd b2 95 0c 3b
       -0.023129 -0.09223051 -0.06888544 0.002145153
0003e0 ad f3 00 3d 9e f9 4b bd 0a ed 3a 3d 7f 43 14 bd
       0.031482387 -0.0497986 0.045636214 -0.03619718
0003f0 a2 3a 78 3c e3 c3 91 3c e5 22 5d bd 6c 5b 76 bc
       0.015150698 0.017793601 -0.053988356 -0.015036445

global_block.conv_time.conv.0.bias f4 [8]
000000 64 b2 14 b6 b4 d5 02 3d fe fa 18 3c 26 b6 c0 3c
       -2.2157556e-06 0.031942084 0.009337185 0.023524355
000010 70 85 04 bd 21 b1 23 bd 93 ed b8 32 8b 43 15 3b
       -0.03235382 -0.039963845 2.1528455e-08 0.0022775854

global_block.conv_time.conv.1.weight f4 [8]
000000 26 67 51 3f 0d 28 83 3f b3 1c 61 3f 71 5d 62 3f
       0.8179802 1.0246598 0.87934417 0.8842383
000010 71 cd 70 3f 98 62 85 3f 5c 5f 63 3f d2 87 76 3f
       0.9406348 1.0420713 0.8881738 0.96300995

global_block.conv_time.conv.1.bias f4 [8]
000000 95 0f 6d bd 70 1b ae bc 34 3e 8f 3c d8 d6 41 bd
       -0.05787619 -0.021253318 0.017485715 -0.04732403
000010 0c 5e 4f 3d c8 83 48 bd eb 51 73 bc c1 f9 cc 3c
       0.0506268 -0.0489538 -0.014851074 0.025021436

global_block.conv_time.conv.1.running_mean f4 [8]
000000 9f 2a 39 3c 28 fe 2a 3d 7a 0e 06 3c 69 b5 ca 3c
       0.011301666 0.04174629 0.008182162 0.024744706
000010 11 60 31 bd cf 33 31 bd 12 1d 94 3b d2 6f 0c bb
       -0.043304507 -0.0432623 0.004520067 -0.0021428955

global_block.conv_time.conv.1.running_var f4 [8]
000000 f5 af 27 41 f0 ba 51 41 cc f2 76 41 1a 38 3c 41
       10.480458 13.108139 15.434277 11.763697
000010 ea 3c 7b 41 e3 72 8a 41 80 45 6e 41 3a a7 98 41
       15.702372 17.306097 14.891968 19.081654

global_block.conv_chan.conv.0.weight f4 [8, 8, 11, 1]
000000 be 4b 18 bd a8 96 0b 3d 4a 6d 0e 3d 5c 24 4b bd
       -0.03718161 0.034079224 0.034772195 -0.049595222
000010 70 00 1e 3d 45 98 f2 3c 7e 0b 5f 3d a6 e8 49 bc
       0.038574636 0.029613623 0.05445432 -0.012323534
000020 6f 66 2c bc b8 50 66 bd 03 c2 0e 3d 7c 9a fc 3d
       -0.010522469 -0.056229323 0.034852993 0.12334153
000030 df db 49 bd aa 22 12 3d f9 04 64 3d 55 4b 0f 3c
       -0.04928195 0.03567759 0.055668805 0.008745988
000040 38 0b eb bc f2 29 b1 bb 4f 6b 8f bd d1 6f 69 3d
       -0.028691873 -0.0054066116 -0.07002889 0.056991402
000050 49 88 48 bd 5c 39 bd 3c 07 28 c3 bd 61 ab 42 3d
       -0.048958097 0.02309864 -0.09529119 0.04752672
000060 78 0e 7d 3d f7 c7 ee bd 45 b4 b8 3b b9 c0 01 bd
       0.061781377 -0.11659234 0.005636724 -0.031677935
000070 21 4f 84 3d a1 44 95 bc a9 8c 6b bd b2 00 55 bd
       0.06460405 -0.018221201 -0.05750719 -0.052002616
000080 1a 82 d7 bc 97 97 f5 3d 24 62 28 bd 45 a4 5d bd
       -0.026307154 0.11991804 -0.04110922 -0.054111738
000090 d4 fe d5 ba 67 24 f5 3c c1 bc 17 3c 90 59 b8 3c
       -0.0016326555 0.029924585 0.009261311 0.022503644
0000a0 76 c9 89 bd 10 ae 05 bd 4e 03 8f 3c f0 19 09 3d
       -0.06727879 -0.032636702 0.01745763 0.033472
0000b0 8f 08 ee ba c0 07 78 3d 43 5a 82 bd 5e a0 45 3c
       -0.001816051 0.060554266 -0.06364872 0.01206216
0000c0 4f bf 21 3c fc 01 30 3d 96 8b a6 3d 2a 37 dc 3b
       0.009872272 0.042970642 0.08132093 0.0067204433
0000d0 e3 ca 86 3d ea bb 99 bc ee 46 b2 bd 94 6a aa 3c
       0.06581666 -0.018766362 -0.08704935 0.020802774
0000e0 16 ee 68 3d f8 e4 89 3d 14 3c bd bb 2d e0 23 bd
       0.05686768 0.067331254 -0.005774984 -0.040008713
0000f0 9c f0 f5 3d 7c 01 66 3d d0 73 a4 3d a6 0e 23 bd
       0.12008783 0.05615376 0.08029902 -0.03980889
000100 c0 05 28 3d f5 4f 8d bd 0d d0 96 3c 98 96 92 3d
       0.04102111 -0.06900016 0.018409753 0.0715763
000110 3f 07 39 3d 8d e9 f8 bc 51 dc d4 bc 2c b7 6b bd
       0.045172926 -0.030384803 -0.025983961 -0.057547733
000120 96 40 3f 3d ad 09 d5 3d 33 a1 9d 3d 4a 6f 82 3d
       0.046692453 0.10402236 0.07696762 0.06368883
000130 51 69 8d bc 6a 75 83 bd 85 59 81 bd dd db 04 bd
       -0.017262133 -0.06418879 -0.063159026 -0.03243624
000140 32 25 ec 3b ae 5b 41 bd b4 9d c4 3d 78 cf 89 3d
       0.0072065825 -0.047206573 0.09600392 0.06729025
000150 34 90 4c bd 10 30 e3 bc 32 87 4f bd a6 4c 05 bd
       -0.04994221 -0.027732879 -0.05066604 -0.0325438
000160 47 20 95 3d 64 19 4c bd 78 99 0b bd 1a 25 b3 3a
       0.07281547 -0.049828902 -0.034081906 0.0013667673
000170 0f 16 68 3c f0 f7 fe bc f9 69 d9 3c cc cb 84 bd
       0.014165415 -0.031124085 0.02653979 -0.06484184
000180 59 ce a3 3d d3 1c 7b 3d e3 00 3c bd 45 08 2b 3d
       0.07998342 0.061306786 -0.045899283 0.041755933
000190 f5 6f eb bc 69 d9 c9 3c cc e5 05 bd de 16 1e 3d
       -0.028739909 0.024639802 -0.032689855 0.038596027
0001a0 8b 44 74 bd 0c 7d 9e bd 9c f3 94 3d 42 9d cd 3d
       -0.05963568 -0.077386945 0.07273027 0.1003976
0001b0 4a f2 d6 39 a7 02 0c bd cb c5 80 3d 88 61 3e be
       0.0004099778 -0.034182217 0.06287726 -0.18591893
0001c0 74 f5 4a bd 83 a3 60 3c 92 a0 a3 3d 81 65 a3 3d
       -0.04955049 0.013710859 0.07989611 0.07978345
0001d0 68 cc a7 bd ab 83 1d bd a9 54 88 bd a1 0d 7a 3d
       -0.08193284 -0.038455646 -0.06656773 0.061048154
0001e0 44 15 b4 3d 2b fd 0e 3d e3 46 d6 3d 5f 27 f8 3c
       0.087931186 0.03490941 0.10462739 0.030292211
0001f0 47 f5 80 bd b2 1b 00 bd a1 9b ca bd 39 84 a5 bb
       -0.06296783 -0.031276412 -0.09892965 -0.0050511626
000200 76 de 00 3e ff c4 97 3d 55 dd 08 bd fe f0 b0 bd
       0.12584862 0.07410621 -0.033414204 -0.086397156
000210 ec cf 2d 3d 16 e4 60 3d 7c fd 1c bd 1c 5d 7d bd
       0.042434618 0.05490502 -0.03832768 -0.061856374
000220 b8 51 11 bc 37 b8 b9 bd ca 49 ab 3d 0d 46 b8 3d
       -0.008869581 -0.09068339 0.083636835 0.08997736
000230 56 dd 83 3d eb a3 38 bd 95 59 70 bd 79 22 1c bd
       0.06438701 -0.0450782 -0.058679182 -0.038118813
000240 9d a9 b0 3d 19 e4 4e 3c a5 2e f9 3d bb a2 ea bd
       0.08626101 0.012627625 0.121671 -0.114568196
000250 3e de 5a ba 0d 3d e4 3d 35 e0 f0 bc 3f 8a 48 bd
       -0.00083491567 0.11144457 -0.029403785 -0.048959967
000260 0d d3 83 bd f6 24 80 3d 5c 56 b9 bd d1 5a 04 be
       -0.06436739 0.0625705 -0.09049675 -0.12925269
000270 56 0f 16 3c af c0 1e 3e 41 6e 89 3d 6f e1 b5 bc
       0.00915893 0.1550319 0.067104824 -0.022202222
000280 2f 3b 85 bc 5a 9e 99 3c a0 86 50 bb 9b 05 33 bd
       -0.016263572 0.018752266 -0.0031818524 -0.043706518
000290 ac c8 92 3d 32 f8 2a 3d 1f 80 bc 3d ab a0 61 3b
       0.071671814 0.041740604 0.09204125 0.003442804
0002a0 a7 62 d3 bd 28 55 0e be cd 18 b6 3c 59 75 79 bb
       -0.10321551 -0.13899672 0.022228623 -0.003806433
0002b0 66 b4 a7 3d e0 42 90 bc 0c f6 59 bd e2 28 71 bd
       0.08188705 -0.017610013 -0.053213164 -0.05887688
0002c0 3d 3d ae bd 34 58 93 bd 14 d2 8a bd 95 76 ad 3d
       -0.08507774 -0.07194558 -0.067783505 0.08469883
0002d0 34 3d cf 3d 8d 2b 1a 3a 20 f3 d5 bd e6 8c cd 3c
       0.101190954 0.00058811234 -0.10446763 0.0250916
0002e0 e1 9c 97 3c 14 e7 e8 3c ba cc d9 ba 70 65 a4 bd
       0.018507423 0.0284305 -0.0016616799 -0.0802716
0002f0 8d 82 ef bd 91 0e be bc c8 8f 20 3d 60 a0 c7 3d
       -0.116948225 -0.023200305 0.03919962 0.09747386
000300 b7 35 c6 bc b1 7b 6a bc b2 ff cc 3d 93 81 af 3d
       -0.024195535 -0.014311717 0.100097075 0.08569636
000310 16 b5 a3 bc 26 4d 1f 3d bf e8 47 3d 27 88 f5 3d
       -0.01998381 0.038891934 0.04880595 0.119888596
000320 49 04 cf bd e0 be 05 3c 22 9e d5 bd dc 6e fc bd
       -0.10108239 0.008163184 -0.10430552 -0.12325832
000330 0d 85 8e 3c a0 4d 81 3d e5 89 3b 3d d5 ea 81 bc
       0.017397428 0.06313634 0.045785803 -0.015859047
000340 b8 3e 1d 3d ee 36 2c bc 88 d8 65 bd f6 b8 85 bc
       0.03838989 -0.010511143 -0.056114703 -0.016323548
000350 ee 5c 82 bc ed 9f 1f bc 93 e8 0e bd ae e2 f4 3c
       -0.015913453 -0.009742719 -0.03488977 0.029893246
000360 12 98 c0 3d e3 59 75 3d 97 e9 02 3b 8c 15 9f bd
       0.09404005 0.059900176 0.0019975656 -0.077677816
000370 e6 16 12 bc 80 52 bb bd 9f 5d e4 3c c8 42 30 bd
       -0.008916592 -0.09146595 0.027876673 -0.043032438
000380 1f 9b 64 3c 59 23 7b 3d ad 9d c4 bd 1d 26 79 3d
       0.013952999 0.061313007 -0.09600387 0.060827363
000390 af 8d 51 3c 3d a6 13 bd 86 e5 c8 bb 77 37 b1 bc
       0.012790128 -0.03604721 -0.006130877 -0.021632893
0003a0 b8 2f 19 3d 8f 5e d6 bc eb e3 52 3c 15 53 92 bd
       0.037399024 -0.026168136 0.012871723 -0.07144753
0003b0 85 97 19 bc dd c8 16 be 27 6e 18 bd 95 63 68 bd
       -0.009374504 -0.14725061 -0.037214424 -0.056735594
0003c0 5f bf 9f 3d 60 b3 d2 3c 0c 0f 5d bd 9c 0e c2 3d
       0.07800173 0.025720298 -0.053969428 0.09475443
0003d0 0c 5d ef bd 88 84 3d bd 99 1c 78 bd 5c f4 15 bb
       -0.11687669 -0.04626897 -0.060574148 -0.0022881245
0003e0 76 f9 c1 3d 37 a1 84 bd aa 30 93 3d 0c 17 f7 3c
       0.09471409 -0.06476062 0.07187016 0.030162357
0003f0 4e 8c 3e bd b4 07 ac bd 03 07 f3 bb 50 52 56 bc
       -0.046520524 -0.08399907 -0.0074166073 -0.013081148

global_block.conv_chan.conv.0.bias f4 [8]
000000 62 a9 94 30 3a eb b2 3c a2 c3 e6 ba aa 84 77 bc
       1.0816559e-09 0.02184068 -0.001760591 -0.015107313
000010 fe a7 89 3d a9 50 5f bd 4d 5c 49 34 d3 19 02 3b
       0.06721495 -0.054520283 1.8753163e-07 0.0019851818

global_block.conv_chan.conv.1.weight f4 [8]
000000 1b 6c 59 3f 8a 1d 85 3f 20 39 63 3f 90 65 6d 3f
       0.8493058 1.039964 0.8875904 0.927331
000010 37 52 78 3f b8 a4 73 3f 36 73 63 3f 8d 29 7e 3f
       0.9700045 0.95173216 0.8884767 0.9928215

global_block.conv_chan.conv.1.bias f4 [8]
000000 ba 1a 29 be 7b 9b 72 bc 49 5d e7 bd 5c db a7 bd
       -0.16514102 -0.014807577 -0.112970896 -0.08196136
000010 3a 5e 47 bd c5 51 cf bd 5b 81 b2 bd 5a e4 c4 bd
       -0.048673846 -0.10123018 -0.08716079 -0.09613867

global_block.conv_chan.conv.1.running_mean f4 [8]
000000 22 e8 8b 3d 29 fd 08 bc 63 4e 07 be a0 93 cb bc
       0.06831385 -0.008361139 -0.13213496 -0.024850667
000010 26 d0 dd 3d e7 98 76 bd 3c be c2 3d 3a cb 1c 3b
       0.10830717 -0.060204413 0.095089406 0.0023924843

global_block.conv_chan.conv.1.running_var f4 [8]
000000 56 de f7 3d 2f 90 3e 3d d7 7d ab 3d d6 e0 8a 3d
       0.12102954 0.046524223 0.083736114 0.06781165
000010 49 b2 86 3d 8f 7b 20 3d 46 ac 78 3d 5a 81 29 3d
       0.06576974 0.039180335 0.060711168 0.041383125

local_block.conv_time.conv.0.weight f4 [8, 1, 1, 51]
000000 65 6a e6 bc 3e 67 15 3d c4 83 c9 3c 78 25 ec 3c
       -0.028126905 0.036475413 0.024598964 0.02882646
000010 bf b7 10 3d 2b af 76 bd ed f4 6c 3d 87 2e 44 bd
       0.035331484 -0.060225647 0.057850767 -0.047895934
000020 04 30 6e 3d 90 13 81 3b 50 f4 3f bc c2 a0 77 3d
       0.05815126 0.0039390996 -0.0117159635 0.060456045
000030 75 c6 1a 3e 73 34 ad bd 4e ce 8c bd d1 4b 1a be
       0.15114768 -0.084572695 -0.06875287 -0.15067984
000040 07 f6 9c bd c1 9a 2f 3e 0c 39 48 3e b6 12 cb 3d
       -0.076641135 0.17148878 0.19553012 0.09915678
000050 aa 01 9d bd 98 fc 0c bc 10 74 05 bd 1b 7f ec bc
       -0.07666333 -0.008605145 -0.03258139 -0.028869202
000060 16 43 5b bb 47 4b 57 3d 09 1f 5e bd a5 13 7d bd
       -0.0033456734 0.052562024 -0.054228816 -0.061786313
000070 ca 00 1b 3d 76 fb b7 3d 99 3e d4 bc 32 7b 45 3b
       0.03784255 0.08983509 -0.025908755 0.0030133245
000080 dc 5e c9 3b aa f8 70 bd e9 96 1d 3e 5f 9a 21 3e
       0.0061453413 -0.058830895 0.15389599 0.15781544
000090 cf a3 01 3d 06 58 39 be d1 1f 90 bd 83 c1 f2 3c
       0.03165036 -0.18099985 -0.070373185 0.02963329
0000a0 28 68 5b 3d 00 77 06 be eb 70 23 3d 7c 55 7d 3d
       0.053566128 -0.13131332 0.03990261 0.061849102
0000b0 78 d9 25 3d e0 a4 36 bd 1f b9 ea 3b af e7 45 bd
       0.040490597 -0.04459083 0.0071631814 -0.048316654
0000c0 ac e0 93 bc b2 43 b7 3d 6d 47 3f bd d1 65 46 3d
       -0.018051468 0.08948459 -0.046698976 0.048436943
0000d0 59 42 1b bd 89 39 ce bb f3 89 d5 bc 5c 11 97 3c
       -0.03790507 -0.00629348 -0.026066756 0.018440895
0000e0 20 92 30 bd 5c fd 19 bd 3d 89 f7 3c 9d ca bf bd
       -0.043108106 -0.037595138 0.030216807 -0.09364817
0000f0 48 5f 10 3d be ed d9 bd 2b ee a4 3d 54 c1 e3 3d
       0.035247117 -0.10641049 0.080532394 0.11120859
000100 cc 95 2b 3d 87 16 76 3b 48 73 f5 bc 5e fc 04 3d
       0.041890904 0.0037550048 -0.029962197 0.03246724
000110 2c 16 03 bb fb 52 33 3c 44 20 95 bb af 7f 10 bd
       -0.002000223 0.010945077 -0.0045509655 -0.03527802
000120 f0 9f 90 3d e9 12 f4 bd 04 39 68 bd ea 92 9e 3d
       0.07061756 -0.11917669 -0.056695 0.077428654
000130 d9 8d 0b bd 24 3d 4c bd e2 8c eb 3c 2f 6a ce 3d
       -0.034070823 -0.049862996 0.028753702 0.10078847
000140 8e 73 44 3d d9 e9 2e bd dc 97 82 3d d1 6e ac ba
       0.047961764 -0.042703483 0.06376621 -0.0013155584
000150 25 7c 4d 3d 45 86 bb 3d c6 74 30 bd a5 be eb ba
       0.05016722 0.09156469 -0.043080114 -0.0017985894
000160 37 2d b5 ba ff d3 c6 3d d5 3b ea 3d 17 8e 53 3d
       -0.0013822679 0.09708404 0.11437193 0.05164918
000170 ae 82 5f b9 0d ea fa bd c1 6b c0 bd 85 df be bc
       -0.00021315619 -0.12251673 -0.093955524 -0.023299942
000180 34 fd ee 3d 9b 09 30 bc f9 bb a6 3c ff e8 90 bd
       0.116693884 -0.010744478 0.020353304 -0.070756905
000190 c8 e5 c7 3c 37 6b b6 bd cc 57 01 bd c8 ae 81 bd
       0.02440156 -0.08907168 -0.03157787 -0.06332165
0001a0 b0 4a e9 3d 26 a3 56 bd 1a 29 40 bd e0 a7 91 3d
       0.11391199 -0.052401684 -0.046914198 0.07112098
0001b0 f8 9a 5d 3d 5d b7 13 3d 41 02 f5 3d 36 bf 00 bd
       0.054102868 0.03606354 0.119633205 -0.031432353
0001c0 b9 f7 a4 3d 89 88 35 bc fe f6 9a bd 91 a2 60 bd
       0.08055062 -0.011079916 -0.07566641 -0.054842535
0001d0 a5 87 41 bd d1 40 ce bc 2b 8a 30 bd 2b 81 28 bd
       -0.0472485 -0.025177391 -0.043100517 -0.04113881
0001e0 57 bc 08 be 20 9e da 3d c5 28 1d 3e f5 55 ab 3d
       -0.13353096 0.10674691 0.15347584 0.083660044
0001f0 3f 6c f9 3d 86 ea ed 3b 9b 04 be 3c 1e 5a dd bd
       0.121788494 0.0072606234 0.023195555 -0.10808204
000200 4c 66 4c bc 83 88 9e bd ff 8c 96 bd 25 64 b9 3c
       -0.012475561 -0.07740881 -0.073511116 0.02263076
000210 90 a1 51 bd 53 09 b2 bd 43 50 20 3d 31 5e 43 3d
       -0.05117947 -0.08693185 0.039139044 0.04769725
000220 6c 18 44 3e de 61 9c 3d 3e 0d 88 3d e6 26 56 3d
       0.19149941 0.07635854 0.06643151 0.05228319
000230 8f fc ca bd 0e 0d 48 3d e1 b0 d1 3d 89 e8 bb bd
       -0.09911453 0.048840575 0.10238815 -0.09175212
000240 d1 17 1a be 69 ca 65 3d 7c d7 30 bd a5 f5 d9 bd
       -0.15048148 0.056101236 -0.043174252 -0.10642556
000250 d3 8c 11 be ea a4 95 3d ee 23 a0 3d 39 be dc bd
       -0.14213876 0.073068455 0.07819353 -0.107784696
000260 e5 68 72 bd bd 91 be bb 0a 26 11 3c ec 4c 31 3d
       -0.059182066 -0.005815713 0.008859167 0.04328625
000270 a0 cc 2b 3d bd 53 a0 bc 0b b9 df bd 45 be 51 bc
       0.041943192 -0.01957118 -0.10923966 -0.012801711
000280 2d 8e f0 3b fd 18 b6 3d 79 08 77 bd fe 53 d4 3c
       0.0073411674 0.08891485 -0.060310815 0.025918957
000290 dd 18 86 3d 4e e0 12 be cb e0 84 bc 28 fb 0c 3e
       0.06547711 -0.14343378 -0.01622047 0.13767684
0002a0 d0 f1 ae bc 4d 0b 35 3d 7c 6b 34 3b 8e 05 19 3a
       -0.02135554 0.04420023 0.0027529886 0.00058373145
0002b0 3c af ae 3d 57 b4 3e b9 46 0c 47 bd 36 19 d6 3d
       0.08529517 -0.00018186994 -0.04859569 0.10454027
0002c0 52 4d 3d bc ad e7 9c bb 02 97 f7 3c 60 b0 76 bd
       -0.011554079 -0.00478836 0.030223373 -0.060226798
0002d0 98 51 9b bd 39 64 f0 bc d6 ca 4b 3e 2a af 3e 3d
       -0.07583922 -0.029344665 0.19901595 0.04655377
0002e0 42 43 c5 3d 33 64 ed bd 1e b1 8b 3c 6b a3 f2 3c
       0.09631969 -0.11591377 0.01705223 0.02961894
0002f0 6c c2 11 bd d2 27 86 bd 82 d3 25 3d 69 4e 1f 3c
       -0.035585806 -0.06550564 0.040484913 0.009723284
000300 fe 0d 95 bc 85 73 a5 bc 89 ca 05 3e d0 36 26 bd
       -0.018195149 -0.020196686 0.13065542 -0.040579617
000310 19 7e 26 3d b5 94 12 be 3d 8b 0e be bd 6a 7e 3d
       0.0406476 -0.1431454 -0.13920303 0.062113512
000320 3f 2d c0 bc 22 47 0b 3e b3 0a d2 3c 3e 7c b4 3d
       -0.023459075 0.13601354 0.025639867 0.0881276
000330 8e e0 60 bd 27 97 b7 3d dc 9b bc bd aa e7 03 bd
       -0.054901652 0.08964377 -0.09209415 -0.032203354
000340 1d ac 41 3c 1e 31 19 bd 71 d9 6a 3d 53 37 35 bd
       0.01182082 -0.037400357 0.057336275 -0.044242214
000350 b6 5f bc 3c cf 5b e6 bb c4 9d 08 be f0 eb ef bd
       0.022994857 -0.0070299874 -0.13341433 -0.117149234
000360 e6 b2 d9 bd 4a 44 08 3d d0 82 46 3d 44 bc a9 3a
       -0.10629825 0.03326825 0.048464596 0.0012949784
000370 37 c6 e7 3d 99 20 9f bd 0f f4 38 3d 26 a5 62 3d
       0.11317103 -0.077698894 0.045154627 0.05533328
000380 8f 1b 2f be c9 15 01 be 1b 72 a5 bc da 5c 86 bc
       -0.17100357 -0.12605967 -0.020196011 -0.016401697
000390 0f 9e 8f bc 82 78 71 3c 8c 6b e0 3d d6 08 12 3c
       -0.017531423 0.014738204 0.10958013 0.008913239
0003a0 79 bc ab bd 3d ec c1 bc 62 1c 86 3d f9 2b 67 3d
       -0.08385558 -0.023672218 0.06548382 0.05643842
0003b0 aa 3d ab 3b db 11 43 3d 19 61 3f bd 9a 4e 74 bd
       0.005225857 0.04762445 -0.04672346 -0.059645273
0003c0 2a de 8f 3d 3e 91 01 be be e8 1b be 0a 24 cd 3c
       0.07024796 -0.12653062 -0.15225503 0.025041599
0003d0 ed c5 b0 bd 8b 71 5f bd 78 3a 0f 3e dd a3 e3 3d
       -0.08631501 -0.054551642 0.13987148 0.11115239
0003e0 96 31 9c bd 1f f9 05 3c ac c4 93 bd 6f 65 09 bd
       -0.07626645 0.008177071 -0.072152466 -0.033544
0003f0 11 1a 64 bd a3 fe b2 3c 94 0b 24 3d 0f 5e 06 bd
       -0.05568892 0.021849936 0.040050104 -0.032804545

local_block.conv_time.conv.0.bias f4 [8]
000000 65 bb ba 3c 3d 43 a4 bd 7e b7 e1 3c 85 18 43 3c
       0.022794435 -0.08020637 0.027553316 0.011907701
000010 bc 2d 9d 3c cc 17 72 3d 50 2c c0 3d 70 c9 d6 3c
       0.019186847 0.059104726 0.09383452 0.0262191

local_block.conv_time.conv.1.weight f4 [8]
000000 8e fe 7a 3f 08 93 65 3f ef d3 86 3f 46 90 71 3f
       0.9804467 0.89677477 1.0533427 0.9436077
000010 d3 4d 5b 3f 03 2a 6f 3f e3 9c 67 3f db 8b 73 3f
       0.85665625 0.9342348 0.90473765 0.9513528

local_block.conv_time.conv.1.bias f4 [8]
000000 1c f2 31 be b1 d9 13 bd 8b 10 9a 3d c7 c2 bd bc
       -0.17377514 -0.03609628 0.075226866 -0.023164166
000010 f1 fe a2 bc 9a fe 39 3c 36 d9 b8 3b ec 20 06 bb
       -0.019896956 0.011352206 0.005641128 -0.00204664

local_block.conv_time.conv.1.running_mean f4 [8]
000000 39 17 bb 3c 9c 81 97 bd b5 e0 3b 3d 9d a3 9b 3b
       0.022838222 -0.07397768 0.045868594 0.004749729
000010 1d 6a 79 3c da 5c 71 3d 90 31 c4 3d f9 0e 15 3d
       0.015223053 0.05892644 0.09579766 0.036391232

local_block.conv_time.conv.1.running_var f4 [8]
000000 4d b4 2e 41 fe dc 03 41 d1 16 a9 41 19 c8 fd 40
       10.919019 8.241453 21.13614 7.930676
000010 bb ce 31 41 0b 2a 0f 41 d8 7d b2 40 b1 c0 35 41
       11.112971 8.947764 5.577862 11.359544

local_block.conv_chan.conv.0.weight f4 [8, 8, 11, 1]
000000 59 7c b0 bc a8 3d 88 3d 70 e4 63 bb b4 5d df 3c
       -0.021543669 0.06652385 -0.003477361 0.02726636
000010 ec 9f cd bc 5d b1 bc bb cb d1 a3 bc 2d e5 62 3d
       -0.02510067 -0.005758448 -0.019997498 0.05539434
000020 9c a1 5a 3b fa 53 7c 3d e7 24 2e bd ee cb c4 3c
       0.0033360487 0.061603524 -0.04251566 0.024023023
000030 94 20 fa 3d 1f 59 b9 3d 7c 44 52 bc 05 08 7a 3c
       0.12213245 0.090502016 -0.012833711 0.015260701
000040 5a 0f c4 bc 97 94 c0 bd ee 23 00 bd 3b 72 94 3c
       -0.023933101 -0.09403341 -0.031284265 0.018120876
000050 c8 c8 8f 3c 2a 9f 2c bc 0c 47 0b bd 8d 5e d2 3c
       0.017551795 -0.010535995 -0.034003302 0.025679851
000060 76 63 68 3d b9 fe 9e 3b ef 98 b2 3c 35 75 50 bb
       0.05673548 0.0048521427 0.02180144 -0.0031808142
000070 c1 40 ea bc a7 5e 8b bd 7f 82 7f bd 04 6c 9b 3d
       -0.02859533 -0.06805163 -0.06238031 0.07588962
000080 1b 04 ae bd a9 c6 34 bd 8b 85 18 bd b7 5f 67 bc
       -0.08496877 -0.04413477 -0.03723673 -0.014121941
000090 7e 5e 66 3d cd e5 88 3c 9b b3 96 bc ba 2c 8f 3c
       0.05624246 0.01671114 -0.01839619 0.017477382
0000a0 7d a0 2c 3d 5e cf be bd 87 ea 98 bd 48 dc 9f 3d
       0.04214524 -0.09316896 -0.074666075 0.07805687
0000b0 bd 71 78 3d 93 3b ee 3d 02 fb 28 bd 55 b7 8e bc
       0.060655344 0.11632457 -0.041255005 -0.017421404
0000c0 bf c2 16 bd 4a be b4 bd f9 3b e1 3d 7d 26 48 3e
       -0.036806818 -0.08825357 0.10997767 0.19545932
0000d0 63 46 8a bb 15 ea d6 3b 3e 5c ef ba 1e a0 74 3c
       -0.0042198165 0.0065586665 -0.0018261743 0.014930753
0000e0 1a c6 07 3e 42 f3 6e 3d 98 10 e1 3d 6c 6c cb 3c
       0.13259163 0.058337457 0.10989493 0.024831973
0000f0 43 b7 2f bd 81 87 b3 3c eb 07 db bd 57 3c da bd
       -0.04289938 0.0219152 -0.106948696 -0.1065604
000100 8c db 05 3c 2a 3d 38 3b 28 70 5e 3c e4 3c 1a 3d
       0.00817002 0.0028112628 0.013576545 0.037655726
000110 9b 10 29 bd 1d 2a 26 3d 90 52 8a bc 29 ec d2 bc
       -0.0412756 0.040567506 -0.016885072 -0.025747376
000120 87 20 a2 3c e1 c7 91 bc e1 91 78 bc 0e ca f8 bc
       0.0197909 -0.017795505 -0.015171499 -0.030369785
000130 c6 92 43 3b 80 a2 e1 3c 01 c4 31 3d 18 92 f0 3c
       0.0029842122 0.027543306 0.043399815 0.029366538
000140 c5 3e 90 3b 7d 46 87 3c 74 00 70 39 e4 e0 cb bc
       0.004402014 0.016513104 0.00022888352 -0.02488751
000150 b0 99 bb bc b1 2d aa 3c d1 4c 98 ba 2b 24 d5 bc
       -0.022900432 0.02077374 -0.0011619573 -0.026018223
000160 16 77 2d bb 7c 24 02 3d c8 1f 73 3d 4c 0a 80 bd
       -0.0026468686 0.031773075 0.05935648 -0.06251964
000170 3c 93 f6 3c b1 02 e9 bc 2e df 02 bc d6 3f ec 3d
       0.030099504 -0.028443666 -0.0079877805 0.11535613
000180 e2 81 c4 ba 08 cb 72 3d 19 d2 09 bd 8a 48 97 bd
       -0.0014992321 0.059275657 -0.03364763 -0.073868826
000190 2e 60 aa 3c ef e2 d9 3c de 3f 4d 3d b2 4c 55 3c
       0.020797815 0.026597468 0.050109737 0.013018774
0001a0 23 6c f0 3c c2 b7 16 3d 33 14 77 bc 16 af 1e bd
       0.029348439 0.03679634 -0.015080499 -0.038741194
0001b0 c9 84 b8 3d 8b e2 40 bd 5f c4 a0 bd b2 01 0e 3e
       0.09009702 -0.04709105 -0.07849955 0.13867834
0001c0 4a 01 59 bd cd 0b 00 be 2f a1 9b bb 79 d9 95 bd
       -0.052979745 -0.12504502 -0.004749439 -0.0731687
0001d0 80 ae be 3d 3e 40 4b 3e b8 14 22 3d c4 0d 44 bd
       0.09310627 0.19848725 0.03957054 -0.04786469
0001e0 a4 ce ac bd 1b 8a 10 3d da d6 70 bd 68 eb 0a 3d
       -0.08437851 0.035287958 -0.05879865 0.033915907
0001f0 84 11 06 bd 5f e9 a8 3c 86 bd 4d 3d 1c d9 cf bd
       -0.032731548 0.020619093 0.05022957 -0.10148832
000200 5f 75 4d bd 6a f4 e8 bc 85 ac 3c bd 11 fd eb 3d
       -0.050160762 -0.028436858 -0.046062965 0.11522878
000210 11 8c 19 3c d0 ed ba 3c fb 0c 4e 3d 40 1c af 3c
       0.009371773 0.022818476 0.050305348 0.021375775
000220 4b 08 61 3c 3b 6b 42 3d 7f a5 4c bd ba cf 0a be
       0.013734887 0.047465544 -0.049962517 -0.13555804
000230 15 7d 4a bc 9b f1 3f bd 1d c8 bd bb d4 6e a5 3d
       -0.012358923 -0.046861272 -0.0057916776 0.080777794
000240 6e 09 bb bd ba 2a 28 ba f2 4c 52 3d 8c 31 ff bb
       -0.09132658 -0.0006415058 0.051342912 -0.007787889
000250 0a 0a 9a 3c 7f 4d 74 bc b3 1b 64 bd 8d 16 c0 bc
       0.018803615 -0.014911055 -0.05569048 -0.023448253
000260 c4 ad a2 3d 5f 09 6b bd 39 0e e9 bc 0c 4f 03 bd
       0.079432994 -0.057381984 -0.028449165 -0.032057807
000270 94 fb 59 bd 0b b2 dc bc d5 a2 0b bd cc e2 ba bc
       -0.05321844 -0.026940366 -0.034090836 -0.022813223
000280 81 8a 8c 3d 61 6f 30 3e 7d 4e 31 3d 64 a2 91 3c
       0.06862355 0.17229988 0.043287743 0.01777763
000290 5e d9 f1 bc 95 bb 46 bd 55 33 7e 3d 8c 98 ac bc
       -0.029522594 -0.048518736 0.062060673 -0.021068834
0002a0 41 c6 d6 bd 54 d0 cb bb c3 13 9e bc 25 90 dd bc
       -0.10487033 -0.006219903 -0.019296532 -0.027046273
0002b0 0b 83 f4 3d 27 e7 fc 3b 7f 62 95 bc 28 a7 71 bd
       0.11939057 0.007717985 -0.018235443 -0.058997303
0002c0 f3 6c a3 3c cc 53 1e bd d2 31 96 bd 47 77 af 3d
       0.019949412 -0.038654134 -0.07333721 0.08567672
0002d0 50 32 c2 3d 9f 42 02 bd e1 2b a4 bd 36 5c 72 3d
       0.094822526 -0.031801816 -0.08016182 0.05916997
0002e0 4b ed ee 3b 89 79 84 3c 06 ad b5 bc 57 d7 e0 bd
       0.007291471 0.016171234 -0.02217723 -0.10978573
0002f0 5f 26 11 be e7 ab d7 bd 20 62 bd 3d e4 56 da 3d
       -0.14174794 -0.10530835 0.092472315 0.10661104
000300 02 de 2f ba 8f 18 df 3c 0f bc 6b 3d 72 2f 75 3c
       -0.0006708802 0.02723339 0.057552394 0.014964925
000310 a2 46 86 bb 44 39 c3 3d 1b 6a 88 bd 61 21 1a be
       -0.0040977756 0.09532407 -0.06660863 -0.15051796
000320 94 c2 5a 3d a2 67 39 3c 96 22 da 3b 0e 26 e7 bc
       0.05340822 0.011316212 0.006656955 -0.028216388
000330 44 a4 2c bb c0 ff 9f bd ca df 44 3d 82 99 22 bd
       -0.0026343027 -0.07812452 0.048064984 -0.039697178
000340 9b b5 0e bd 63 22 bd 3c 43 b2 cd bc 2b 39 86 bd
       -0.03484116 0.023087686 -0.025109416 -0.06553873
000350 28 34 0d 3d 93 a1 80 3d b4 b1 92 bc 73 db e9 bc
       0.03447357 0.06280818 -0.017907001 -0.028547024
000360 49 f3 7b bd fb ea 7e bd cf 3a 71 3d ff f6 31 bd
       -0.06151131 -0.062235814 0.058893975 -0.043448444
000370 dc 1c 65 bd 46 6b 48 3c d1 48 b8 bb d5 fa ac 3c
       -0.055935726 0.012232607 -0.0056239148 0.0211157
000380 db d0 bf 3b 42 53 cd 3d 72 6c 15 bc 57 d6 19 3b
       0.005853755 0.10025646 -0.009120094 0.0023473704
000390 3f 0d 28 bd 52 d0 59 bb d4 f8 84 bb da ec 11 bd
       -0.041028257 -0.003323574 -0.004057983 -0.03562627
0003a0 ff 6c 0b be 24 48 9a bd ad 3f 02 3d f2 6d 0a 3d
       -0.13615797 -0.07533291 0.031799007 0.03379626
0003b0 0b 13 fe 3c 03 a0 55 3d 21 9b de bd 99 46 56 3d
       0.03101494 0.052154552 -0.10869432 0.05231342
0003c0 86 3a 4a 3c 9e ac 6f 3d 09 38 1b 3c dc 77 c3 3b
       0.012343055 0.05851423 0.009473809 0.005965216
0003d0 4f 7f e0 bd 22 fe e5 bd 7c 82 3a bc d8 67 c1 3d
       -0.10961782 -0.112301126 -0.011383649 0.09443635
0003e0 12 90 71 bd 01 cf c8 3d e1 7f 09 bd 25 7f 81 3d
       -0.058975287 0.09805108 -0.03356922 0.06323079
0003f0 a9 ae b1 3a 1d 5a 89 bc 04 6a d8 3d a5 f3 af bd
       0.0013556081 -0.016766602 0.10567096 -0.085913934

local_block.conv_chan.conv.0.bias f4 [8]
000000 c0 67 11 b6 0e f4 dd bc 14 d2 ba 3c 81 9b 16 3d
       -2.1667074e-06 -0.027093913 0.022805251 0.036769394
000010 27 32 2e 3d e6 af 8a 39 4b d2 4f 3d 90 24 c8 ba
       0.042528298 0.00026452466 0.05073766 -0.0015269686

local_block.conv_chan.conv.1.weight f4 [8]
000000 6d 80 6f 3f 43 d4 86 3f 5f 7e 8a 3f 1b 0f 5b 3f
       0.9355534 1.0533527 1.0819815 0.85569924
000010 48 17 7c 3f 3a dd 92 3f 00 6d 77 3f b8 04 83 3f
       0.98473024 1.1473763 0.96650696 1.0235815

local_block.conv_chan.conv.1.bias f4 [8]
000000 f0 55 a0 bd 0b 7c b2 bd be a2 82 bd 66 77 1d be
       -0.07828891 -0.087150656 -0.06378697 -0.15377578
000010 de 49 8c bd c6 d7 ae ba 48 69 8c bd 6f e6 d2 bd
       -0.068500265 -0.0013339452 -0.06856018 -0.10297858

local_block.conv_chan.conv.1.running_mean f4 [8]
000000 2a 41 48 3c 3c fa 3a bd 05 5a a1 bd da 93 98 3d
       0.012222568 -0.0456488 -0.07878498 0.074500754
000010 e3 00 5c 3c 96 06 0b 3c d9 5a 2f 3d 3f af 47 bd
       0.013427946 0.008485457 0.04281125 -0.048751112

local_block.conv_chan.conv.1.running_var f4 [8]
000000 d7 b6 50 3d e6 77 5a 3d 8a c6 98 3d 77 a3 fd 3d
       0.05095562 0.053337 0.07459743 0.12384694
000010 ac a8 89 3d 29 ac 05 3d 3e c8 14 3d 47 da 2e 3d
       0.06721625 0.032634888 0.03632378 0.042688634

atten.conv.weight f4 [1, 1, 3]
000000 d7 a3 8e bf e2 02 01 bf 1f a7 09 3e
       -1.114375 -0.50395024 0.13442658

tcn.network.0.conv1.weight f4 [16, 16, 16]
000000 25 a5 4d bc 7f e2 7c bb bb f8 71 bc d2 12 a2 bc
       -0.012551581 -0.003858715 -0.014768775 -0.019784365
000010 a5 27 49 bd b9 c5 3c 3c 4c 6f b8 bc e7 d3 b3 bc
       -0.049110074 0.01152175 -0.022514008 -0.021951629
000020 05 51 d3 bc 9b a4 c5 bc cb e2 f3 bc 3e 85 02 bd
       -0.025795469 -0.024126342 -0.02977123 -0.03186535
000030 ab 07 ec 3c b1 b5 4a 3c da 73 83 3c c4 ef 88 bc
       0.02881225 0.01237242 0.016046453 -0.016715892
000040 97 ac 87 3d 66 cb 8c bb 30 3c e0 3c 76 ed 07 bd
       0.06624716 -0.004296708 0.02737245 -0.033185445
000050 27 d1 9f bc 61 48 1e bc ff db 9a b9 49 86 bf bb
       -0.019508911 -0.009660811 -0.0002953708 -0.0058448655
000060 c5 bb b7 bc 27 98 70 bd 4a 35 55 bd d2 d3 93 bd
       -0.022428403 -0.058738854 -0.052052774 -0.07218136
000070 be fd 9b b9 e8 a2 2e bd 6e 8e 73 bc 16 dd fe bc
       -0.00029752956 -0.04263583 -0.014865501 -0.031111281
000080 42 82 dc bc ff c1 89 bc 9e 7d 27 3c 9f a8 ea 3c
       -0.02691758 -0.016816137 0.010222821 0.028644858
000090 64 55 c2 3b 7a 57 26 3d fd 24 45 bc f5 23 29 bc
       0.0059305895 0.040610768 -0.0120327445 -0.010323514
0000a0 75 a9 c5 3c 62 0f 31 bc fa e6 ae bc 3d 1f 2f 3c
       0.024128655 -0.01080689 -0.021350373 0.0106886
0000b0 9e 5c 82 bb d9 6b 88 3c 26 68 4e bc 28 d2 be 3b
       -0.003978326 0.016652988 -0.012598073 0.0058233924
0000c0 cf 62 83 3d 68 21 63 3c d8 46 b4 3c fa e7 1d 3d
       0.064153306 0.013862945 0.022006437 0.03855131
0000d0 0d fc 27 3d f9 58 14 3d 4b fd 25 bc 0b 9c ef 3c
       0.04101186 0.036217663 -0.0101311905 0.029249212
0000e0 91 47 a1 3c 76 d1 99 bc 0a 4d f4 bc c9 ee 79 3c
       0.019687446 -0.018776637 -0.029821891 0.015254685
0000f0 96 eb 04 3d 9b 0d a2 3c 20 14 66 3d 95 31 07 3d
       0.032451235 0.019781878 0.056171536 0.03300627
000100 f5 83 31 3d b7 42 ce 3c 9c 8b 02 bb 0c e3 0d bc
       0.043338735 0.025178296 -0.001991964 -0.008660089
000110 bb ef 9f bc 22 9f 62 3d e3 cb 2e 3b 84 f8 af 3c
       -0.019523492 0.055327542 0.002667182 0.021480806
000120 91 5b 9f 3c 0c 83 e2 bc 9d e0 a9 3b ed 39 4a 3c
       0.019452842 -0.027650379 0.0051842467 0.012342912
000130 ae 65 7e bc de 2d 0e bb cf e5 f7 3b 67 ea 71 3c
       -0.015527172 -0.002169482 0.007565237 0.0147653585
000140 b2 5f c3 3c 69 e4 a3 bc 7f 37 0f bd 65 50 f2 ba
       0.023849342 -0.020006375 -0.034965035 -0.0018487094
000150 d9 b3 90 bc 93 44 c6 3b fe a3 0d bd ac 72 af 3a
       -0.017663883 0.006050655 -0.034580223 0.0013385615
000160 6f 89 3f 3c 79 d2 bd b9 e8 ff fa 3b 84 8e 88 3c
       0.011690482 -0.00036205704 0.007659901 0.01666952
000170 7f 6a 46 bd 09 4d 76 3c c7 1f db bc 96 69 05 bd
       -0.048441406 0.015033015 -0.026748551 -0.032571398
000180 fd 1a bf 3c 41 36 30 3d f2 cc b8 bc f8 2e 05 bd
       0.023328299 0.04302049 -0.022558663 -0.032515496
000190 98 59 1d 3d d3 ee 8d bb 53 d8 99 bc 52 c1 05 bd
       0.03841552 -0.0043314486 -0.01877991 -0.032655068
0001a0 2b 98 2d bc 9e 0a 02 bd a8 aa df bc 12 70 12 3c
       -0.010595362 -0.031748407 -0.027303055 0.008937852
0001b0 01 80 86 bc 0e 47 b6 ba 89 29 30 3c f7 4d c7 3b
       -0.016418459 -0.0013906674 0.01075209 0.006082292
0001c0 1c b4 51 3c a6 bd 31 bd f9 8a e8 bb 3b 9a 15 bd
       0.012799289 -0.043393753 -0.007096645 -0.03652404
0001d0 d8 f4 3d bc c2 a9 87 bc 79 a3 53 bd 24 30 b1 bc
       -0.01159402 -0.016560439 -0.05166957 -0.0216294
0001e0 94 ae 49 3b 66 88 99 3c e2 86 a1 3c 02 54 02 3c
       0.0030774223 0.018741798 0.019717637 0.007954599
0001f0 de de 8b 3c 0e 0a f1 ba a4 45 39 bd 69 82 14 bb
       0.017074045 -0.0018389837 -0.04523243 -0.0022660738
000200 b2 4f 04 bd de 0c d6 bc 67 ba 04 3c 37 09 24 bb
       -0.032302566 -0.026129182 0.008101082 -0.0025029907
000210 ba 2d c3 bb 3f cc 2f 3c 05 41 44 3d 19 f9 9a 3c
       -0.0059563788 0.010729848 0.04791357 0.018917607
000220 b7 f9 36 3d 6c 48 9e 3c e6 93 38 3c 4e 4c 64 bb
       0.04467174 0.019321643 0.0112657305 -0.003483552
000230 99 83 18 bd 0a 67 03 bc 28 9d 84 3c 6c 81 3b bc
       -0.037234876 -0.008020172 0.01618822 -0.011444431
000240 a8 75 08 3c 74 1c 67 3c 62 7b 1f 3d e0 03 dd 3b
       0.008328833 0.014105905 0.038936026 0.0067448467
000250 36 13 cb bb 9a 58 17 bd e8 c3 d5 bc d6 1c 18 bd
       -0.0061973585 -0.03694973 -0.026094392 -0.037136875
000260 8a c2 40 bd a9 2a 1a bd 1d 4a a7 3b 7c 7b cd 3c
       -0.047060527 -0.03763834 0.0051052705 0.025083296
000270 86 50 32 3d 6e f4 7a 3d db 4c 85 3d 06 95 e2 3d
       0.043533824 0.061268263 0.065088 0.1106358
000280 3f 11 80 bc 13 39 67 bc c0 7d d8 ba 10 a0 b1 3b
       -0.015633224 -0.014112729 -0.0016516969 0.0054206923
000290 11 8d ec 3b 9d d3 02 bd af f0 95 bc 05 b5 80 3c
       0.007218965 -0.03194009 -0.018303243 0.015711317
0002a0 53 ed b4 bc bb 1f cf 3c 96 2f fc bc 89 96 5c bc
       -0.022085821 0.025283685 -0.03078441 -0.013463625
0002b0 70 f5 a3 bc 92 1c ed bc f3 a7 84 bc 26 8d 9a bc
       -0.020014495 -0.028944287 -0.016193366 -0.018866133
0002c0 b6 c3 81 bc 12 e9 28 bc 48 55 39 bd fd 0c 0b bb
       -0.015840393 -0.010309475 -0.045247346 -0.0021217458
0002d0 f6 cf fb bc a5 33 c9 39 be c3 3b bb 85 97 2f 3c
       -0.030738812 0.00038376186 -0.0028650607 0.010717277
0002e0 d4 7b 24 bc 11 49 c0 3c 11 4a f6 3b 20 b4 38 3c
       -0.010039289 0.02347234 0.0075161536 0.011273414
0002f0 5c d4 aa bb 30 6e bb bb 15 58 8a bb e6 fb 94 3b
       -0.0052133035 -0.0057199225 -0.004221926 0.00454663
000300 f8 72 4b bc 59 44 a1 bc ba a4 3c bc dd c4 03 3c
       -0.012417547 -0.019685911 -0.011513883 0.008042541
000310 fb d1 23 bc cd 4e ba bc 37 b9 cf bc 48 79 de bc
       -0.009998794 -0.022742653 -0.025356872 -0.02715744
000320 1c 4c d5 bc d2 23 a9 bc da b7 83 3d 8e 8d 87 3c
       -0.026037268 -0.020646963 0.06431551 0.01654699
000330 08 78 91 3c 74 42 1d 3c ac 8c fe 3c 4f d2 7b bc
       0.01775743 0.009598363 0.031072937 -0.015369966
000340 b8 0b f1 3b 54 a1 5b bc 8c 18 58 bc 8b a9 69 bc
       0.0073561333 -0.013405163 -0.013189446 -0.014261614
000350 39 4d 16 3b 60 c7 b3 bc e9 a7 4c bd e4 ca 9c bc
       0.0022934212 -0.021945655 -0.04996482 -0.019139715
000360 b8 d2 ca bc c5 4f 49 bd ea 21 f5 bc 0d a7 6b 3c
       -0.024758682 -0.04914834 -0.029923398 0.01438309
000370 b6 43 eb 3c d5 91 00 3d 66 b1 98 bc f2 32 02 bc
       0.02871881 0.031389076 -0.018639278 -0.007946717
000380 d3 ca 41 bd e8 cf 31 bc 15 9f de 3b b1 32 59 3c
       -0.04731257 -0.010852791 0.0067938664 0.013256715
000390 6c 0d fb 3c d2 f3 c0 bb 70 4f 0a 3d 4a 20 b1 3b
       0.030646048 -0.0058884406 0.033767164 0.0054054605
0003a0 b3 77 85 3d 5a b6 c4 3c 10 6e d5 3b d9 37 08 bc
       0.065169714 0.024012733 0.0065133646 -0.008314096
0003b0 a0 0c b7 bc 9f 43 1a bd 8f e0 3b bd cc a8 08 bd
       -0.022344887 -0.037662145 -0.045868453 -0.033364102
0003c0 5f f3 d7 bc 96 fc 98 3c a0 8e c6 bc ba 47 e3 3c
       -0.026361166 0.01867513 -0.02423793 0.027744163
0003d0 5b 75 b5 3c 3d 7c b4 3a 6e 53 dd 3c f7 30 6e 3c
       0.022150686 0.0013769936 0.027017321 0.014538041
0003e0 ee f8 e6 3a 2f 5c 8d 3a 5d 5f 28 3d f5 f5 63 3d
       0.0017621794 0.0010784919 0.04110657 0.055654485
0003f0 47 cc 49 3d 14 0b 48 3d 1c 61 89 bc 66 cd e7 3c
       0.04926708 0.04883869 -0.016769938 0.028296184

tcn.network.0.conv1.bias f4 [16]
000000 b3 af 11 b4 f4 03 22 b7 42 4d 08 3b c9 91 db b3
       -1.3568096e-07 -9.656873e-06 0.0020798002 -1.02245004e-07
000010 47 8e 0a bb 43 75 d4 34 2d ca a4 37 d7 c2 2a 33
       -0.0021141933 3.9573396e-07 1.9644469e-05 3.9758415e-08
000020 fa 66 d5 34 c6 75 73 32 34 94 22 33 db be 03 b1
       3.9749267e-07 1.417124e-08 3.7853354e-08 -1.9171498e-09
000030 ba 58 fe 3b 92 5d e1 b2 a6 31 07 3c 96 f2 24 bc
       0.007762042 -2.6235998e-08 0.008251583 -0.010067603

tcn.network.0.bn1.weight f4 [16]
000000 6c ff 82 3f 5f 05 85 3f 27 e3 7c 3f 7c cd 86 3f
       1.0234199 1.0392264 0.98784107 1.0531459
000010 97 34 8d 3f 48 ca 89 3f ad 4a 79 3f a5 03 85 3f
       1.1031674 1.0764856 0.9737957 1.0391737
000020 5a dd 7d 3f 9d 1f 83 3f fc 8b 84 3f 91 ca 77 3f
       0.9916588 1.0244023 1.035522 0.96793467
000030 09 45 7a 3f 1e 9e 7f 3f 7e da 82 3f 0f ee 7c 3f
       0.9776159 0.9985064 1.0222929 0.9880075

tcn.network.0.bn1.bias f4 [16]
000000 ce 68 1c be 89 2b 5a be 78 8b 96 be 12 d9 39 be
       -0.15274355 -0.2130567 -0.2940328 -0.18149212
000010 22 b1 3c be 59 d0 82 be cb 28 41 be 2c 8d 0f be
       -0.18426946 -0.25549582 -0.18863218 -0.14018697
000020 ee 89 2c be 97 30 83 be e2 2c 53 be 04 1b 30 be
       -0.16849491 -0.2562301 -0.2062259 -0.17197806
000030 9e 19 58 be e4 75 53 be a7 89 2b be a4 87 57 be
       -0.21103522 -0.2065044 -0.16751729 -0.21047837

tcn.network.0.bn1.running_mean f4 [16]
000000 34 0b 17 bd cc 5d 56 bd 93 ca 86 bd e0 f8 5e bc
       -0.03687592 -0.052335545 -0.06581607 -0.013609141
000010 39 16 91 bc 8d 1e 27 bd 47 f1 ab bc 67 39 8a 3b
       -0.017710792 -0.04080062 -0.020989073 0.0042182687
000020 15 2b 0d bd 6d 6f 1d bc e1 e3 0a bd f9 fd 0d bd
       -0.034464914 -0.0096090855 -0.03390873 -0.034666035
000030 e8 00 63 bd bf 5d e6 bc bb d0 e6 bc 6f d8 f7 bc
       -0.055420786 -0.028120873 -0.028175702 -0.03025457

tcn.network.0.bn1.running_var f4 [16]
000000 fd bf 7b 3e 4f c8 84 3e ea 1a 56 3e 6c 42 88 3e
       0.24584956 0.25934073 0.20908704 0.26613176
000010 3f b5 a0 3e a9 f7 9b 3e cc 66 44 3e 82 fe 7a 3e
       0.3138828 0.30462387 0.19179839 0.2451115
000020 47 a4 52 3e eb c8 78 3e cc 67 8f 3e e7 a2 82 3e
       0.2057048 0.24295394 0.28008878 0.2551491
000030 8d 33 8b 3e 7a d1 84 3e 77 3b 72 3e c3 b4 60 3e
       0.27187768 0.25941068 0.23655497 0.21943955

tcn.network.0.conv2.weight f4 [16, 16, 16]
000000 84 62 b1 bb 8d 4a 6d bc 63 55 5e 3c 0d af 1a bc
       -0.0054133553 -0.014483106 0.0135701625 -0.009441149
000010 6f 14 89 3c b0 73 3d bc ce 38 94 bc d6 a9 e3 bc
       0.016733376 -0.011563227 -0.018093493 -0.027790945
000020 b9 86 cd bc e1 3e b4 bc a3 3d 85 bb fb f0 02 bd
       -0.025088655 -0.02200264 -0.0040661856 -0.031968098
000030 67 92 ac bb c3 41 a2 3c bb 6f 8e bb d9 7e a1 bc
       -0.005266476 0.019806748 -0.0043468154 -0.019713806
000040 24 a8 39 3c 50 32 86 3c 62 03 d7 3b 31 3e 72 3c
       0.011331592 0.016381413 0.0065616826 0.014785335
000050 97 1f c4 3c 52 7d 95 3c c5 06 ee bb dd f0 55 3c
       0.023940844 0.018248234 -0.0072639906 0.013057915
000060 9c 4f 04 3c 15 89 9e bc c4 fa 2e bc fa 75 43 bd
       0.008075621 -0.019352475 -0.010679904 -0.047719933
000070 8f 90 e3 bc 12 7b c0 3a 77 6d d7 bb 4d 7d 01 3d
       -0.027778892 0.0014685115 -0.0065743285 0.031613637
000080 9f 4e cb 3b fb 90 17 3c eb ef 3d bb 17 73 1f 3c
       0.0062044407 0.009250875 -0.0028982114 0.009732029
000090 38 c1 99 bc cd 41 cb 3b 79 f3 f8 bb 1a f8 69 bc
       -0.018768892 0.0062029124 -0.0075973836 -0.014280343
0000a0 a7 3c 9c bb 3d f6 66 bc 83 2f 38 39 60 93 57 3c
       -0.0047679725 -0.014096794 0.00017565307 0.0131576955
0000b0 b6 05 c5 3b 94 6a 01 3d 40 ca fd 3c 89 f8 bd 3c
       0.0060126437 0.03159578 0.03098023 0.0231898
0000c0 0d 3d d9 3c 30 44 77 3c e3 80 10 bc 18 14 fb bc
       0.02651837 0.015091941 -0.0088197915 -0.03064923
0000d0 5f 78 a3 bc 34 d4 a5 bc 82 92 f7 bc 60 7e 11 bd
       -0.019954858 -0.020242788 -0.030221228 -0.03552091
0000e0 27 ac 05 bd 25 5d 34 bc fb e0 08 3c 5d c0 44 3a
       -0.03263488 -0.0110085355 0.008354421 0.0007505471
0000f0 07 86 75 bb 26 2d cf 3c d7 13 d1 3c c6 2d af bb
       -0.003746392 0.025290083 0.025522156 -0.005346033
000100 55 5b 25 3b 6f c2 6b bd 51 7c 45 bd 9b 59 1b bc
       0.002523144 -0.057558473 -0.04821426 -0.009481813
000110 ff c3 34 bd 44 75 59 bd 1c 52 0f bd 13 d7 cc ba
       -0.04413223 -0.05309035 -0.034990415 -0.0015628062
000120 05 9b bd bc bf df c5 bc e8 d3 d2 bc 81 16 3d 3b
       -0.023145208 -0.024154542 -0.02573581 0.0028852525
000130 22 4c 1e bc 7d dd 81 bd 22 bf 0c bd 23 57 00 bd
       -0.009661706 -0.06341074 -0.034361966 -0.0313331
000140 0c 27 3d bb a5 37 5d 3b 20 e5 f4 3c f1 b2 cf 3c
       -0.0028862385 0.003375509 0.029894412 0.02535388
000150 ac ca 6f 3c b5 be e4 3c bf 34 c5 3c 10 21 30 3c
       0.014635723 0.027922967 0.024073003 0.01075007
000160 22 b9 e4 3c bb dc 50 bc db 36 36 3c 67 54 23 bd
       0.02792031 -0.012747939 0.011121477 -0.039875414
000170 77 0f bc bc 9d 13 87 3b a3 0b 9c bc 92 c2 14 3b
       -0.022956593 0.004122211 -0.019048518 0.002269898
000180 3f d7 63 3b 9c bf f7 3b d0 4a 61 3b f0 0f b3 bc
       0.0034765748 0.0075606834 0.0034376867 -0.021858186
000190 33 a1 b5 bc 27 db c9 bb 2c 78 a4 3b e8 4f df 3c
       -0.022171592 -0.006160158 0.0050192084 0.027259782
0001a0 5c 5d 4a bb 94 40 1e 3d cc 3d 20 3d 80 59 e1 3c
       -0.00308784 0.038635805 0.039121434 0.027508497
0001b0 91 5a c1 3b 8e a9 21 3d 4e f6 b4 3c 3c de 2b 3d
       0.005900689 0.03946834 0.022090103 0.041959986
0001c0 7e 86 87 3b 17 a1 3a 3d e3 b3 e0 3c 7b 7d f6 3a
       0.0041359058 0.045563783 0.027429527 0.0018805707
0001d0 4f 2e 0b 3d ab e5 ae bb 29 0e 96 bc f2 69 33 bd
       0.03397971 -0.005337437 -0.018317299 -0.04380221
0001e0 b1 47 48 bc 95 de 84 bd 8f 73 1a bb 28 42 92 bc
       -0.012224124 -0.06487767 -0.0023567413 -0.017853811
0001f0 73 e2 e5 3b 45 1b de 3b 2f f3 80 bc 04 d1 d8 bc
       0.0070155202 0.006778153 -0.015740959 -0.026466854
000200 2d 0f 03 bc ad b7 82 3a 22 37 b3 bc 9b 0d 87 3c
       -0.007999224 0.0009972953 -0.021876875 0.01648598
000210 46 49 a0 bb 70 16 b4 3b 8f bd 7e bc c8 9b 3e bd
       -0.0048915474 0.005495839 -0.015548124 -0.046535283
000220 91 48 1c bc 40 4c b5 bb 6c f6 17 bd b0 4d c8 bc
       -0.009538786 -0.0055327713 -0.03710024 -0.024451107
000230 36 52 d6 3b 55 e7 f0 bc e0 74 2f bd 9a 66 10 bd
       0.006540562 -0.029407183 -0.04283607 -0.0352541
000240 8e e6 54 3d ea d6 5e 3d 79 3e 1b 3c 02 16 0f 3d
       0.051977687 0.054404177 0.009475344 0.034933098
000250 9f d4 81 3c 5c 40 51 3c 68 9b 17 3c bd 83 83 3b
       0.015848456 0.012771692 0.00925336 0.004013507
000260 95 9e bf 3c 93 7e d7 39 d8 bd 5f bb a9 0d 53 bc
       0.023391047 0.000411023 -0.0034140255 -0.012881675
000270 72 e6 03 3c 96 71 9a 3c 43 47 03 3d 6f 4c 84 bc
       0.008050548 0.01885299 0.032050382 -0.016149728
000280 61 db 3e bc f5 e3 c0 bc 40 c0 78 bd 3f c7 f7 bb
       -0.011648984 -0.023546198 -0.06073022 -0.007561594
000290 53 47 fd bc 5d c1 88 bc 71 17 bf bc 1d b4 b8 bc
       -0.0309178 -0.016693765 -0.023326607 -0.022546822
0002a0 b7 f2 a1 bb 6e 09 a6 bc c3 c9 29 3a 47 15 f5 bc
       -0.004942264 -0.020268168 0.0006476903 -0.029917372
0002b0 3a 53 4d 3b 8c ff d1 3c 17 6e ae 3c 89 f4 81 3c
       0.0031330124 0.02563455 0.02129273 0.015863674
0002c0 9a 97 d9 3b da af 80 3b c5 8e 0a bd a9 5f b2 bc
       0.006640387 0.003927213 -0.033827562 -0.02177413
0002d0 ef 11 4b bc 82 bd b0 bc 52 41 ba bc 9e 89 1c 3d
       -0.012394412 -0.02157474 -0.022736225 0.03821718
0002e0 f6 f6 0f 3c b1 4b cb 3b f6 ed e0 3c ff b7 f5 3b
       0.008786907 0.0062040915 0.027457219 0.0074987407
0002f0 fe 67 25 3c ea 5f 81 3c 04 6d 8b 3c d7 24 db 3a
       0.010095594 0.015792806 0.017019756 0.0016719353
000300 79 09 de 3c 98 4b 08 3d 38 1f 32 3d 06 cf fb 3c
       0.027104126 0.033275217 0.043486804 0.030738365
000310 5b 6d 10 bc c1 01 fb bc af 03 4f bd e0 aa f3 bb
       -0.008815135 -0.030640485 -0.050540622 -0.0074361414
000320 86 80 c7 bc 66 af 73 3b 7d fe cc 3c f5 c1 10 3d
       -0.024353277 0.0037183403 0.025023693 0.03534122
000330 e8 8c 15 3d ff 90 29 3d cd 57 1c 3d 69 f0 07 3d
       0.03651133 0.041398045 0.03816967 0.033188257
000340 a1 02 05 3d e5 38 89 3b 51 5d 37 3c 3f f7 e3 ba
       0.03247321 0.0041876906 0.011191682 -0.0017392411
000350 db 56 16 bc 4b 1a f3 bc d4 4c a9 b9 43 f5 b2 bc
       -0.009175981 -0.029675623 -0.00032291433 -0.021845466
000360 c2 fd 2f bc 9c 36 c6 3a 23 39 d8 3b 16 89 21 3b
       -0.010741653 0.0015122476 0.006598608 0.002464836
000370 ec 74 f7 3b 68 6a 71 bb 88 f4 a1 bb 11 68 92 bb
       0.00755178 -0.0036837105 -0.0049424805 -0.004467972
000380 31 dd 4c bc 27 40 8f bc 46 7c 85 3b 1f 2f 56 bc
       -0.012503908 -0.017486645 0.0040736524 -0.013072758
000390 70 eb 83 3c 9d 21 9e 3c 72 44 17 bc 34 10 5a 3c
       0.016103476 0.019303137 -0.009232627 0.013309527
0003a0 71 8a 11 bc f8 2b 9d 39 ff f3 da 3c 94 ec a3 bc
       -0.008883105 0.00029978133 0.026727675 -0.02001027
0003b0 26 fa b7 bc 24 70 c4 bc 9e d6 7f bc 98 8d 25 bd
       -0.022458147 -0.023979254 -0.015615134 -0.040418237
0003c0 61 8c 94 bb 56 db a4 3b b1 51 0e 3c f6 19 af bc
       -0.004533336 0.0050310297 0.008686469 -0.021374684
0003d0 28 ce 13 bc 31 4c f0 bc a7 6f 02 bd 0f 56 89 bc
       -0.009021319 -0.029333206 -0.03184476 -0.016764669
0003e0 ff aa 1a bc f8 09 ff 3c 65 5a bb 3c 57 f0 33 3d
       -0.009440183 0.031132683 0.022870252 0.043930378
0003f0 83 0f 68 3b cf 41 ec 3c a1 49 3a 3d 68 f1 36 3d
       0.0035409636 0.028839974 0.045480374 0.044663817

tcn.network.0.conv2.bias f4 [16]
000000 fb de 90 3b c6 fc 39 b9 20 8f 8e 35 66 82 af 33
       0.0044211126 -0.0001773714 1.0621479e-06 8.172792e-08
000010 7b 20 49 3a 7b bb a3 3c 1c 00 93 39 25 75 dc 2f
       0.00076723815 0.019986859 0.00028038106 4.0101003e-10
000020 f8 72 a1 ba 45 52 fd 34 6f 4b 16 3b 0b 85 b5 b4
       -0.0012317589 4.718478e-07 0.0022933146 -3.381068e-07
000030 6a cc 05 bb 19 aa 73 2f 7d c8 d2 36 71 5f 09 32
       -0.002041603 2.2161152e-10 6.2818276e-06 7.99615e-09
