model/Benchmark/DATCN_b1_1s_S2.pth (torch, 182388 bytes, 75 tensors)

global_block.conv_time.conv.0.weight f4 [8, 1, 1, 125]
000000 62 3e 92 bd 75 6f 17 bd e5 43 10 bd 21 3a 35 3c
       -0.07140805 -0.036971528 -0.035221 0.011061222
000010 60 41 62 bc 2f bf ae 3d 5b cd f6 bc eb 92 50 bc
       -0.013809532 0.08532559 -0.030127218 -0.0127303405
000020 cd 8d b0 3b 44 f8 16 bd 95 07 4f 3c 3a 9d 2b bd
       0.0053879977 -0.03685786 0.012636085 -0.04189799
000030 74 61 6f bb 54 be b9 3c 80 dd 41 bd 96 44 c6 3b
       -0.0036526592 0.022673763 -0.04733038 0.0060506565
000040 53 64 53 bd c3 0f 8a b6 88 46 7d bd 8b 0b 35 3c
       -0.05160935 -4.1145554e-06 -0.061834842 0.011050115
000050 c3 45 ec 3a 31 db a3 bc 93 d7 c3 bc b8 f3 70 3b
       0.0018026162 -0.02000198 -0.023906505 0.0036766361
000060 0e d2 16 3d 22 9b c0 3c fb 6b 4e 3b 6e cb 37 3a
       0.036821418 0.023511473 0.0031497467 0.00070112094
000070 25 38 17 3d ab 45 3a bd 1a 9f 3a 3d 04 66 3f bb
       0.036918778 -0.045476597 0.045561887 -0.0029205093
000080 9c 07 19 3d eb e1 79 bd fb 72 22 bd e9 6e 25 bc
       0.037360772 -0.061006468 -0.039660435 -0.010097244
000090 aa 9f d6 3c 97 89 e8 bc 34 4c 8f 3d 73 35 5b bd
       0.02619918 -0.02838592 0.069969565 -0.05351777
0000a0 47 30 39 3c 9c 84 39 bd fb df 52 3d b5 81 8e 3d
       0.011303014 -0.04529248 0.051483136 0.069583334
0000b0 0c 05 f9 bb af a6 bc 3c 5f 21 f8 bc 10 85 9e bd
       -0.0075994786 0.0230287 -0.03028935 -0.077402234
0000c0 28 57 67 3d 96 3f 40 3d 3a 77 e2 3c 85 38 c8 3c
       0.056479603 0.04693564 0.027644742 0.024441013
0000d0 fd d0 95 bc 5c 4b 13 3c cd 51 28 3d 44 7a 4c bd
       -0.01828813 0.008990135 0.041093636 -0.04992129
0000e0 fe 5c b8 bd e0 8c 21 bd 32 09 11 3c a8 ee 67 3c
       -0.09002112 -0.03944099 0.00885229 0.014156021
0000f0 f3 f5 a0 3c 52 dd 8b 3d 04 80 56 3d eb fe 2f bd
       0.019648528 0.06829323 0.05236818 -0.042967718
000100 9c 77 a8 bc 77 6f dc bc 9b 3b fc 3c 6d 7e 29 bd
       -0.020564847 -0.02690862 0.03079014 -0.041380335
000110 95 04 13 bd c5 a4 85 bc 09 fb 01 bd 50 44 35 bd
       -0.03589304 -0.01631392 -0.031733546 -0.0442546
000120 0e 10 c7 bd 3e 68 d8 3c 3f 06 96 3c 81 91 19 bd
       -0.09719859 0.026416894 0.018313525 -0.03749228
000130 6d f7 7c 3b 00 af 00 3e 8f 9f 2e 3e 40 2c 54 bc
       0.0038599626 0.12566757 0.17053054 -0.012950003
000140 5b 2b 57 bd 2f a6 59 bb a5 4f bf bd cc 41 aa bd
       -0.05253158 -0.0033210625 -0.09341363 -0.08313331
000150 b8 0d 18 be e0 1e c3 3c e6 e0 58 3d 18 58 0c bd
       -0.14848983 0.023818433 0.052948855 -0.0342637
000160 a2 de e6 bc 7c cd 9c 3c 70 99 1c bc 0a 91 32 bb
       -0.028182331 0.019140951 -0.009558067 -0.0027247095
000170 e7 01 ac bd f2 83 27 bd 58 31 5d 3d 7e 8a 25 bd
       -0.083988 -0.040897317 0.054002136 -0.04041528
000180 50 dc 7f bc d7 bf 75 3c b0 55 7b 3b 57 31 03 bd
       -0.015616491 0.014999351 0.0038350634 -0.032029476
000190 d4 24 05 3c 0d 1b 23 3d c4 77 ab bb 7d cb d8 bb
       0.008126456 0.03982072 -0.005232783 -0.0066160546
0001a0 3a e4 c1 3d 9b 3f f6 3d 0f c1 64 3d ff 09 0f bd
       0.09467359 0.120238505 0.055848178 -0.034921642
0001b0 1e e8 8f bd ac af 93 bd 29 a0 0f bb e0 c0 00 bd
       -0.07026695 -0.07211241 -0.0021915531 -0.03143394
0001c0 f7 92 d2 bc d1 a3 f3 bc 9b bd 59 3d fb fe 90 3d
       -0.025704844 -0.0297412 0.053159337 0.07079884
0001d0 f4 f7 74 3b 99 d1 4b bc c6 91 28 3d 57 04 be 3b
       0.0037379237 -0.012440109 0.041154645 0.005798857
0001e0 0e 4b 8e bd 2e 93 34 3c e3 fb 5b 3d 45 61 9f bd
       -0.06947909 0.0110214185 0.053707015 -0.077822246
0001f0 2f f9 01 bd cd f1 9b bb 5a c7 43 bd a0 70 ed bc
       -0.03173178 -0.0047590495 -0.04779754 -0.028984368
000200 3f ca b0 3d 1b 97 1a bc 41 05 6b 3d f6 8a 33 bc
       0.086323254 -0.00943544 0.057378057 -0.010958424
000210 93 3a 45 bc f4 7b 66 bd 5c 18 cf bb 52 bd 31 3d
       -0.012037891 -0.056270555 -0.0063200425 0.04339344
000220 a1 0f 49 3d b1 1b 27 3d 79 0a 94 3d 23 b0 90 3d
       0.04908717 0.040797893 0.0722856 0.070648454
000230 6d 73 da bd 0a 26 c6 ba f6 db ba bd 21 db a8 bd
       -0.10666547 -0.0015117538 -0.091239855 -0.082449205
000240 8f d6 74 bc 86 d0 a6 bd 6c e4 6e 3b 62 d1 e0 3d
       -0.014943733 -0.081452414 0.0036452068 0.109774366
000250 d5 e0 6a 3d a7 0b ac bc cd 84 fe bc 39 2c 1b 3d
       0.057343323 -0.02100165 -0.031069184 0.03788397
000260 08 64 85 3c fa b6 49 3d 51 88 2a bd f9 dd 81 3c
       0.01628305 0.049246766 -0.041633908 0.015852915
000270 90 3f 9f bc 7d 57 45 bd 18 9a 55 3c db cf 96 3c
       -0.019439489 -0.04817914 0.013037227 0.01840966
000280 01 09 4d 3d dd 2f ca 3c fb 5e ee 3c 2d 3b 22 3c
       0.050057415 0.024681026 0.029098025 0.009901804
000290 58 7d 27 bd 52 a9 53 bd de 1d 3b bc bc 5a 31 3c
       -0.04089102 -0.05167515 -0.011420695 0.010824855
0002a0 35 f1 b2 3d 9f ba 75 3d 03 58 79 3c 3c f9 5c bd
       0.08737413 0.05999243 0.015218738 -0.053948626
0002b0 28 3b cf 3c 44 1f c6 3b 35 36 ce 3c d9 f4 ad 3d
       0.025296763 0.0060462076 0.025172332 0.084939666
0002c0 12 1e b4 bc dc e1 2d bd 46 b8 85 bd 08 24 cd bc
       -0.021986995 -0.042451724 -0.06529288 -0.025041595
0002d0 7b 3c 98 bd 08 d6 9b 3d aa 23 60 3b 97 30 d9 3c
       -0.07433411 0.076091826 0.0034200945 0.026512427
0002e0 15 3a c7 bc d2 55 52 3d 0e 25 82 3d 9d 34 4b 3c
       -0.024319688 0.051351376 0.06354724 0.012402681
0002f0 c7 ac 97 3d 04 04 95 bd 2b b7 10 bd c0 5e a2 bd
       0.074060015 -0.072761565 -0.035330933 -0.079282284
000300 1a 25 04 3d 28 26 29 3d d9 b5 96 3d 2c 3b 55 3d
       0.032261945 0.041296154 0.073589034 0.052058384
000310 90 ce 27 bc ff 9a 9c bc 64 04 8d 3a 54 55 ca 3d
       -0.010242119 -0.019116877 0.0010758755 0.09879556
000320 a0 b6 0b 3c 01 1f 8e 3d 2b e8 22 bd c5 38 a0 3d
       0.008527428 0.06939507 -0.039772194 0.07823328
000330 92 e2 f2 3d 2c a2 8b 3d a1 cb 61 bb 89 73 50 bd
       0.11859621 0.06818041 -0.0034453648 -0.050891433
000340 81 56 c4 bd 2d 9a 9c bc 80 ca cd 3c 32 3d 02 bd
       -0.09586812 -0.019116485 0.025120974 -0.03179664
000350 5d 2f 9d bc d2 2f 90 bc 39 1c 0b be f4 ed b9 bd
       -0.019187624 -0.017600928 -0.13584985 -0.09078589
000360 95 9f 17 bd c4 8e a6 3c 7b fd a1 3b 60 56 6d 3d
       -0.037017424 0.020331748 0.0049435473 0.0579437
000370 00 01 33 3d 98 95 03 3c 2e be e6 3c d3 5b ed 3c
       0.043702126 0.008031271 0.028166857 0.02897445
000380 d5 b6 90 bd ce f2 9f 3d a4 e8 2b 3d 52 cc 90 3d
       -0.070661224 0.07809983 0.04196991 0.07070221
000390 60 9b b7 bd 72 17 a0 bd b8 5e 06 3d 58 d7 36 bd
       -0.08965182 -0.07816972 0.032805175 -0.04463896
0003a0 40 d7 09 bd 8d b6 59 3d 29 4b 12 3d 69 d6 82 bd
       -0.033652544 0.05315261 0.03571621 -0.06388552
0003b0 8b aa b8 3d 09 6a 94 3c fa 18 74 3d db e0 82 bd
       0.090169035 0.018116968 0.059594132 -0.06390544
0003c0 0f 50 96 bd 40 e7 38 bd d2 8c 3d bc 0a 26 93 bd
       -0.07339489 -0.045142412 -0.011569219 -0.0718499
0003d0 c3 c9 d1 bc 62 8b cf bd 8d 00 a6 bd 54 66 14 bc
       -0.025608903 -0.10134007 -0.08105574 -0.0090576
0003e0 56 2f ce 3c 86 9a 85 bd 56 bf 17 3d 6c f3 33 bd
       0.025169056 -0.06523614 0.037047707 -0.043933317
0003f0 93 68 fe 3c b6 a8 1e 3d e2 18 63 bd 8a ea 06 bc
       0.031055724 0.038735114 -0.055443652 -0.008234629

global_block.conv_time.conv.0.bias f4 [8]
000000 77 a2 fe ba 63 ae 6c 3d 4e 1d e6 3c ae ee 42 3d
       -0.001942708 0.057783496 0.028090145 0.047590904
000010 03 ab 6e bd ff 5c 89 bd 9f 4c 00 b5 f4 a4 6a 3c
       -0.05826856 -0.06707191 -4.7795214e-07 0.014321554

global_block.conv_time.conv.1.weight f4 [8]
000000 4d 20 5a 3f d4 9a 87 3f 1e b8 6a 3f 4d 92 6b 3f
       0.8520554 1.0594125 0.9168719 0.9202011
000010 89 be 79 3f f1 1f 8a 3f ef d3 6c 3f 56 66 80 3f
       0.9755636 1.0790998 0.92510885 1.003123

global_block.conv_time.conv.1.bias f4 [8]
000000 c4 a4 b2 bd cb cb bb bc e3 cb 0d 3d 42 0e a2 bd
       -0.08722833 -0.022924324 0.03461827 -0.07912876
000010 20 f1 84 3d b5 28 83 bd 8f 81 af bc 73 25 44 3d
       0.064913034 -0.064042486 -0.021424083 0.047887277

global_block.conv_time.conv.1.running_mean f4 [8]
000000 69 9b 39 bc 9b 90 35 3d ca 4a 99 3d f4 82 e6 3c
       -0.011328557 0.04432736 0.07484968 0.028138615
000010 bf b5 22 bd 05 6b 95 bd 65 2a c0 bc db 3f ea bc
       -0.039724108 -0.07295803 -0.023457715 -0.028594902

global_block.conv_time.conv.1.running_var f4 [8]
000000 a5 40 75 41 6a 08 b7 41 44 84 ed 41 e1 ac 94 41
       15.328282 22.879108 29.689583 18.584414
000010 19 a8 c3 41 17 2b bb 41 68 07 c1 41 ad ac 22 42
       24.457079 23.39604 24.128616 40.66863

global_block.conv_chan.conv.0.weight f4 [8, 8, 11, 1]
000000 ed 3a 39 bd c9 66 3d 3d 37 cc 1a 3d 41 83 98 bd
       -0.04522221 0.0462406 0.03779241 -0.0744691
000010 88 3d 47 3d 53 b5 1c 3d 64 51 8d 3d 36 84 54 bc
       0.048642665 0.03825886 0.0690029 -0.012970975
000020 9e 99 da bb 8e e1 99 bd f0 33 2a 3d c7 22 0f 3e
       -0.0066711446 -0.07513724 0.041553438 0.1397811
000030 eb 9e 45 bd 07 41 31 3d f1 c2 b3 3d cb 0c 91 3b
       -0.04824726 0.043274906 0.087774165 0.004426574
000040 c3 b0 13 bd f3 36 b5 bb cf e8 8d bd 4a 9a b0 3d
       -0.036057245 -0.005530232 -0.0692917 0.08623178
000050 c6 75 3f bd 0c 42 24 3d 17 82 d7 bd f7 92 4c 3d
       -0.046743177 0.04010205 -0.105228595 0.049944844
000060 08 e6 97 3d ca 24 19 be 0a 31 97 3b b0 36 13 bd
       0.07416922 -0.1495544 0.004614 -0.035940826
000070 db 09 8a 3d a5 6d 09 bd 49 ed a2 bd a3 26 6d bd
       0.06740161 -0.03355183 -0.07955415 -0.057898175
000080 b9 c1 ee bc fd 33 00 3e 74 bc 14 bd 21 90 55 bd
       -0.029145109 0.12519832 -0.036312535 -0.052139405
000090 6e 0d 2e 3c ef 25 13 3d f6 eb 7e 3c 36 d5 0f 3d
       0.010623319 0.03592485 0.015559187 0.035115443
0000a0 61 f5 91 bd ce 0e a6 bc b4 a7 19 3d 2f 29 65 3d
       -0.071268804 -0.020270731 0.03751345 0.05594748
0000b0 0c 31 be bb 18 93 93 3d 33 7f 8b bd 11 16 f0 3c
       -0.0058041867 0.0720579 -0.06811371 0.029307397
0000c0 fc 94 ab 3b c4 69 2c 3d dc 7c b8 3d 80 74 17 3c
       0.005236266 0.042093053 0.0900819 0.009244084
0000d0 9a cc 9f 3d c2 80 cb bc fc f2 cc bd 75 17 10 3d
       0.078026965 -0.02484167 -0.10007283 0.03517862
0000e0 37 82 89 3d 8a dc af 3d 1d d2 6d b8 76 e3 59 bd
       0.0671429 0.08586986 -5.6700886e-05 -0.05319544
0000f0 6e ad 1c 3e 66 6f af 3d fc a7 ba 3d 8d dd 3e bd
       0.15300533 0.085661694 0.09114072 -0.046598006
000100 f4 ac 1d 3d 76 2f 9d bd 25 a8 7a 3c 18 43 96 3d
       0.03849502 -0.07675068 0.015298878 0.07337016
000110 1f 8c 5a 3d 0f 19 5b bd 6e dd db bc e3 71 72 bd
       0.053356286 -0.053490695 -0.026838984 -0.059190642
000120 37 2d 34 3d 34 85 e9 3d b5 c6 8d 3d 6b e0 93 3d
       0.043988433 0.114023596 0.06922666 0.07220539
000130 0f b1 c1 bc e4 5f 85 bd 70 b7 8f bd 2c 66 17 bd
       -0.023643998 -0.0651243 -0.0701741 -0.036962673
000140 b4 35 d6 3c 70 b1 5c bd 88 a9 c0 3d 64 d6 9c 3d
       0.026148655 -0.053880155 0.094073355 0.07658079
000150 38 76 74 bd 3b a2 a0 bc 39 1a 67 bd fc b8 0c bd
       -0.059683055 -0.019608608 -0.056421492 -0.034356102
000160 9e 00 9c 3d 39 34 41 bd cb e0 b7 bc 1a 54 86 bb
       0.07617305 -0.047168944 -0.022446057 -0.004099381
000170 e4 23 96 3c 65 27 f2 bc 42 96 db 3c 81 95 89 bd
       0.01832766 -0.0295598 0.026805047 -0.06717969
000180 c8 42 c3 3d e2 c8 a3 3d 58 ce f8 bc 9d 2c 4f 3d
       0.09534222 0.079973 -0.03037183 0.050579656
000190 ec 31 b3 bc e0 43 11 3d b0 49 f8 bc 82 5f 4c 3d
       -0.02187439 0.03546512 -0.030308574 0.04989577
0001a0 57 99 4f bd c2 15 85 bd 74 ac a2 3d e1 07 b8 3d
       -0.050683346 -0.064982906 0.07943049 0.08985878
0001b0 a2 6c ff ba b6 d5 18 bd a4 b4 44 3d 72 98 4c be
       -0.0019487331 -0.037313186 0.048023835 -0.19980028
0001c0 bd 52 6f bd 0e 4d 88 3c b3 5d 8f 3d ad 2e 92 3d
       -0.058428515 0.016638305 0.070002936 0.07137809
0001d0 0f 2a af bd a1 a2 22 bd 31 69 7c bd 4e bb 82 3d
       -0.08552944 -0.039705876 -0.061623756 0.06383382
0001e0 be e7 bb 3d 3e af 34 3d e9 84 dc 3d 51 9c 06 3d
       0.09175061 0.044112436 0.10767538 0.03286392
0001f0 72 c5 6f bd 61 3e ec bc fe 08 c8 bd f3 68 41 3a
       -0.058537908 -0.028838338 -0.0976734 0.00073780044
000200 5d 6f 04 3e e9 3e 82 3d 8d f2 30 bd 6d 89 c5 bd
       0.12933107 0.063596554 -0.043200064 -0.096453525
000210 a8 0a 80 3d 94 e8 59 3d 45 18 63 bd e4 6e a9 bd
       0.062520325 0.05320032 -0.055443067 -0.08273104
000220 19 1d 1e 3c 4b 6b 9a bd 89 04 c9 3d 49 a2 ad 3d
       0.009650492 -0.07539996 0.09815318 0.08478219
000230 05 c3 7d 3d ab 90 45 bd ca 11 80 bd bd 8d 18 bd
       0.061953563 -0.04823367 -0.06253393 -0.037244547
000240 ea 46 bc 3d 80 08 34 3c 89 31 dc 3d 62 d5 f0 bd
       0.09193213 0.010988355 0.107516356 -0.117594495
000250 d2 a5 af ba d0 93 e3 3d 94 51 18 bd c6 e3 52 bd
       -0.0013400859 0.11112177 -0.037187174 -0.051486753
000260 e1 60 68 bd b5 e4 87 3d 5e 03 d6 bd cf f7 0f be
       -0.056733016 0.06635419 -0.10449861 -0.14059375
000270 16 af 02 3b b9 77 29 3e b3 66 79 3d 81 61 01 bd
       0.0019940785 0.16549577 0.060888957 -0.031587128
000280 ce 9e c6 bc a0 1b b6 3c c9 96 64 3b 46 42 21 bd
       -0.024245646 0.02222997 0.0034879914 -0.039369844
000290 51 82 9d 3d aa 90 36 3d 6d 6d c5 3d 21 25 a9 3b
       0.076908715 0.044571556 0.09640012 0.005161897
0002a0 df d3 e7 bd 06 b6 07 be dc d5 e5 3c 32 e0 03 bb
       -0.11319708 -0.1325303 0.028056078 -0.0020122644
0002b0 6c e0 af 3d 54 fb 03 bd ce e9 7f bd 9c 30 8c bd
       0.08587727 -0.032222107 -0.062478833 -0.06845209
0002c0 ac e9 d7 bd 9a 54 99 bd 34 93 9c bd ed 41 f5 3d
       -0.10542616 -0.074868396 -0.07645264 0.11975465
0002d0 73 eb ee 3d 11 21 21 bc c2 96 05 be 29 34 3a 3d
       0.11666002 -0.009834544 -0.13045791 0.0454599
0002e0 49 26 28 3d 39 84 35 3d 40 05 f9 3b d1 1d af bd
       0.041052137 0.04431555 0.007599503 -0.08550609
0002f0 32 71 f4 bd cf 11 bc bc 0e 38 66 3d b6 5c d3 3d
       -0.11935653 -0.02295771 0.0562058 0.103204176
000300 0c df f6 bc 5e 45 1f bc f0 2f f8 3d ce d0 d7 3d
       -0.030135654 -0.009721128 0.12118518 0.10537873
000310 43 52 37 bc 67 0f 56 3d 25 d8 61 3d 24 69 05 3e
       -0.011189046 0.052260783 0.055137772 0.13028389
000320 7a a9 d2 bd fd 52 8a 3a 7a 8b ce bd a9 62 f7 bd
       -0.10286231 0.0010553297 -0.10085197 -0.12079365
000330 60 f8 80 3c b6 95 82 3d 64 fe 29 3d e5 43 0f bc
       0.015743434 0.06376211 0.04150237 -0.008744215
000340 57 b7 46 3d a0 3d 8b bc 16 04 90 bd ce f1 e7 bc
       0.04851469 -0.016997159 -0.07032029 -0.028313544
000350 5f e2 08 bc f7 7a 3a bc cd b3 17 bd 17 1f 09 3d
       -0.008354752 -0.011381856 -0.037036706 0.033476915
000360 3e a3 e7 3d 9d 68 93 3d 7b b3 97 3b 74 2f a2 bd
       0.11310433 0.07197688 0.00462955 -0.07919207
000370 c8 6f 95 bc 31 04 d2 bd ea 19 4b 3d 8f 91 19 bd
       -0.018241778 -0.10254706 0.04958526 -0.03749233
000380 c0 08 ed 3b d0 75 75 3d 99 b4 df bd 86 66 7c 3d
       0.007233709 0.059926808 -0.10923118 0.06162121
000390 a2 60 08 3c 2b 16 1f bd 57 d3 a5 bb 8b cd 8b bb
       0.00832382 -0.0388395 -0.005060594 -0.004266446
0003a0 1a 94 65 3d e1 cc 29 bc e4 58 ec 3c a7 6f 86 bd
       0.056049444 -0.010363788 0.02885098 -0.06564265
0003b0 cd f1 c0 3b 97 a6 19 be a6 a5 1b bd 8b aa 8d bd
       0.0058882 -0.15004955 -0.03799977 -0.06917294
0003c0 d5 20 99 3d 0f 4f a1 3c 02 e7 3e bd a4 e5 d9 3d
       0.07476965 0.019691018 -0.046607025 0.106395036
0003d0 ee ee e0 bd 9b 97 6b bd 08 9c 56 bd db 75 03 3c
       -0.10983072 -0.05751763 -0.052394897 0.008023704
0003e0 44 f7 c5 3d 8c 1e 9f bd ec 9f 81 3d 62 f4 22 3d
       0.09666303 -0.07769498 0.06329331 0.039783843
0003f0 9c 50 23 bd b1 a7 b8 bd 92 38 d7 bb 4c 76 5e bc
       -0.039871797 -0.090163596 -0.006568023 -0.013578009

global_block.conv_chan.conv.0.bias f4 [8]
000000 c1 c5 b1 b5 4a 41 3a 3d c5 35 52 bc ee da 15 bd
       -1.3245082e-06 0.04547242 -0.0128302025 -0.03658574
000010 de c6 c6 3d 8d 9b aa bd b9 93 49 ba d7 2c 5d 3c
       0.097059 -0.0833045 -0.0007689554 0.01349946

global_block.conv_chan.conv.1.weight f4 [8]
000000 62 87 62 3f 81 ec 89 3f 98 fd 6b 3f 13 92 76 3f
       0.8848783 1.07753 0.9218383 0.9631664
000010 70 bf 80 3f c6 0e 7d 3f 62 bb 6c 3f 63 cc 83 3f
       1.0058422 0.9885067 0.92473423 1.0296749

global_block.conv_chan.conv.1.bias f4 [8]
000000 2d 25 45 be a5 2a a3 bc e2 bb 0e be dc aa d6 bd
       -0.19252463 -0.019917795 -0.13938859 -0.104818076
000010 c3 e3 7f bd b4 3e 00 be 45 84 dd bd a7 34 f3 bd
       -0.06247307 -0.1252392 -0.10816244 -0.11875277

global_block.conv_chan.conv.1.running_mean f4 [8]
000000 5b 87 ac 3d 65 d4 03 3d 65 58 ca bd 15 c5 2e bd
       0.084242545 0.032184977 -0.09880141 -0.04266842
000010 8e f0 d9 3d 8b 45 ac bd df 71 9a 3d 52 e1 ca 3b
       0.10641585 -0.08411702 0.075412504 0.006191411

global_block.conv_chan.conv.1.running_var f4 [8]
000000 96 cb 0e 3e e3 1c f6 3d 8a bd cc 3d b4 f0 e8 3d
       0.1394485 0.120172285 0.09997089 0.113740355
000010 c8 8c c4 3d fc 97 a0 3d 9c a6 b3 3d e6 f1 8e 3d
       0.095971644 0.07841489 0.087720126 0.06979732

local_block.conv_time.conv.0.weight f4 [8, 1, 1, 51]
000000 c3 f8 c5 bc 69 52 38 3d d3 0a ce 3c b4 12 b1 3c
       -0.02416647 0.045000467 0.025151646 0.021615364
000010 3b ee bc 3c aa 7d a8 bd 8a 93 2b 3d a9 8f 7c bd
       0.023062816 -0.082270935 0.04188875 -0.061660443
000020 d5 51 83 3d dd 01 c6 3b 97 59 88 bc 02 a2 8a 3d
       0.064120926 0.0060427026 -0.016644282 0.06769182
000030 67 bf 31 3e 75 2c b3 bd ad b9 78 bd f9 79 0c be
       0.1735817 -0.08748714 -0.06072395 -0.13718404
000040 54 1f 66 bd 75 ca 41 3e 85 0a 5b 3e 58 39 e7 3d
       -0.05618222 0.18924887 0.21390732 0.11290234
000050 a1 fc ac bd 33 2b c1 bc 34 1d 65 bd a8 2e 4a bd
       -0.08446623 -0.02358017 -0.055936053 -0.0493609
000060 c6 de 99 bc 7e 17 31 3d 56 55 92 bd 68 36 99 bd
       -0.018782984 0.043235295 -0.07145183 -0.0748108
000070 39 14 0c 3d eb 4e c2 3d 85 a4 a8 bc 0b 21 87 3c
       0.034198973 0.09487709 -0.020586262 0.016495248
000080 17 12 96 3c df ad 82 bd 83 6e 2f 3e 79 9b 36 3e
       0.018319173 -0.063808195 0.17132 0.17832746
000090 4f db 2e 3d 23 6a 3b be 65 05 8a bd b6 76 05 3d
       0.042689618 -0.18302207 -0.0673931 0.032583915
0000a0 26 bc 5c 3d 16 ce 0e be 96 e5 37 3d c6 e1 9c 3d
       0.05389037 -0.13945803 0.044896685 0.0766025
0000b0 72 b8 69 3d 1c 0e 2a bd 47 57 c3 3b 43 52 64 bd
       0.057060666 -0.041517362 0.005961332 -0.055742513
0000c0 3e 0d a8 bc ae 08 c0 3d a4 ed 49 bd 8d 7b 60 3d
       -0.020514127 0.093766555 -0.049298897 0.054805327
0000d0 9d 4c 5b bd cb 51 16 bc 1a 2b cb bc 63 17 05 3d
       -0.05353986 -0.009174774 -0.024800826 0.032493006
0000e0 ad a1 0a bd 1a 45 f0 bc 38 30 2b 3d 4a da d9 bd
       -0.033845592 -0.029329825 0.04179403 -0.106373385
0000f0 1f a7 13 3d e0 97 00 be 79 c7 93 3d 22 eb f4 3d
       0.03604805 -0.12557936 0.07215781 0.119589105
000100 d6 ab 56 3d b2 50 e2 3b 1f 32 10 bd f2 46 1f 3d
       0.05240997 0.0069065923 -0.03520405 0.038886018
000110 e2 b1 48 38 1e 29 5b 3c 9a 23 fd ba fc b8 ea bc
       4.7849382e-05 0.013376502 -0.0019312978 -0.02865266
000120 10 04 ae 3d 02 7b 02 be 01 3d 8a bd 8e 18 c0 3d
       0.084968686 -0.12742236 -0.06749917 0.093796834
000130 99 67 36 bd ef 3e 8c bd 55 6d 9c 3c f2 09 d2 3d
       -0.044532392 -0.06847941 0.019095102 0.10255803
000140 9a 10 2f 3d 3c 6b 69 bd ec 42 84 3d ba b5 9b bb
       0.04274044 -0.056987032 0.06458077 -0.004751888
000150 08 7c 83 3d 96 77 ed 3d 8a 42 34 bd 0a 34 45 3c
       0.064201415 0.11595075 -0.04400877 0.012036333
000160 91 0f 9f 3c 67 8c 01 3e 0c 5c 05 3e 12 ad 5f 3d
       0.019416602 0.12651215 0.13023394 0.054608412
000170 24 13 8d bb eb 8b 0c be 21 7d d8 bd b6 88 7d bc
       -0.0043052603 -0.1372525 -0.105707414 -0.015474489
000180 27 c7 0f 3e fe 7a 95 bb 65 e1 d0 3c 39 1e aa bd
       0.14040814 -0.004561781 0.025498101 -0.08306546
000190 d5 e4 d3 3c 34 99 bb bd e4 07 14 bd 29 7c 98 bd
       0.025865952 -0.091600806 -0.036140338 -0.07445557
0001a0 90 30 01 3e df 4b 7d bd cb 65 4c bd e8 40 bc 3d
       0.12616181 -0.061839934 -0.049901765 0.091920674
0001b0 46 f8 95 3d 56 d4 58 3d 70 f5 08 3e fe d5 ec bc
       0.07322745 0.052936874 0.13374877 -0.028910633
0001c0 55 63 aa 3d 6c 89 d6 bc 5b 39 c0 bd ed 39 84 bd
       0.08319727 -0.026188575 -0.0938594 -0.06456361
0001d0 60 ea 34 bd ee ca fb bb 1d 5f d9 bc da 4c 25 bd
       -0.04416883 -0.007684103 -0.026534611 -0.040356494
0001e0 3a 3a 21 be a2 cc de 3d 94 22 2a 3e b1 2d b6 3d
       -0.15744868 0.10878874 0.16614753 0.08895434
0001f0 d5 74 00 3e 86 a0 1a bc ba d7 22 3c 61 52 09 be
       0.12544568 -0.009437686 0.0099391285 -0.13410331
000200 04 94 e3 bc e6 42 c0 bd e5 47 bf bd d1 d4 53 3c
       -0.02778054 -0.0938776 -0.09339885 0.012929157
000210 2e f0 5a bd 68 77 ab bd 1a 87 56 3d 0a c0 59 3d
       -0.05345171 -0.08372384 0.052374937 0.05316166
000220 35 3f 4d 3e 2b bb a3 3d ea 4d 86 3d 27 06 5f 3d
       0.20043643 0.07994684 0.0655783 0.054449227
000230 8c 70 bd bd 09 da 87 3d 32 91 ee 3d 65 67 ae bd
       -0.09249982 0.06633384 0.116487876 -0.08515815
000240 53 2c 0f be a4 e3 8b 3d f0 be 00 bd f3 e9 d2 bd
       -0.13981752 0.068305284 -0.031432092 -0.102985285
000250 15 4d 17 be 13 e0 a6 3d 7b 12 a6 3d 26 dd fb bd
       -0.14775498 0.081482075 0.081089936 -0.1229804
000260 e4 b5 93 bd a8 4c f1 bb c3 90 8b 3c 0f 97 63 3d
       -0.07212427 -0.0073638745 0.017036801 0.055563983
000270 e8 7f 5e 3d 9e aa d2 bb 2b 50 cf bd c4 72 e4 ba
       0.0543212 -0.0064290306 -0.10122713 -0.0017429222
000280 e6 e0 4e 3c a8 69 c6 3d 13 1f 80 bd da 7e 89 3c
       0.012626862 0.09688121 -0.06255927 0.01678412
000290 8b 94 59 3d bc 5b 23 be 29 31 f5 bc e9 67 11 3e
       0.053120177 -0.15952963 -0.029930668 0.14199795
0002a0 e7 6b e6 bc 71 11 44 3d 4f ea c2 bb 23 15 3f bb
       -0.028127624 0.047868196 -0.005948342 -0.0029156886
0002b0 0b ea c2 3d 63 cc bc 3b e4 0a 48 bd 6d 31 e4 3d
       0.095172964 0.0057616695 -0.04883851 0.1114224
0002c0 62 a8 97 bc 39 e0 08 bc c7 32 0c 3d a0 92 75 bd
       -0.018512908 -0.00835424 0.034228113 -0.059954286
0002d0 93 2b a2 bd 97 dc fa bc 49 f4 5c 3e a9 bc 2e 3d
       -0.079184674 -0.030622764 0.21577562 0.04266039
0002e0 f9 e6 c3 3d bf 14 ef bd 49 ca 05 3d 99 63 30 3d
       0.09565539 -0.11673879 0.032663617 0.043063734
0002f0 5d 09 2f bd 0a d4 a3 bd af d2 1c 3d a1 f9 5e 3b
       -0.04273354 -0.079994276 0.03828686 0.0034023302
000300 0e 44 ee bc 55 94 b5 bc 39 3b 16 3e 02 23 07 bd
       -0.029085185 -0.022165457 0.14671029 -0.03299237
000310 3b ff 62 3d c5 7f 1a be bd a4 13 be df b2 a3 3d
       0.055419188 -0.15087803 -0.14418311 0.07993101
000320 02 13 46 bc 7f e5 2a 3e e8 72 1c 3d f3 8d d9 3d
       -0.012089493 0.16689108 0.03819552 0.10622778
000330 1a ae 77 bd a6 54 cb 3d d4 fb cf bd 36 83 34 bd
       -0.06046877 0.09928255 -0.10155454 -0.044070445
000340 82 20 f9 ba 8f 68 7a bd 8a b9 2d 3d da 6f 8a bd
       -0.001900688 -0.06113487 0.042413272 -0.06759615
000350 55 36 7e 3c 38 08 77 bc d1 20 16 be cd 68 f1 bd
       0.015515883 -0.015077643 -0.14660956 -0.11787567
000360 1f 50 ca bd e7 16 66 3d bd e1 90 3d c2 e2 5d 3c
       -0.09878563 0.056174185 0.07074306 0.013542833
000370 10 50 08 3e 46 71 b2 bd 71 97 82 3d 99 90 99 3d
       0.13311791 -0.087130114 0.063765414 0.07498283
000380 50 13 41 be 19 b9 08 be fa a4 5d bc e6 b5 b0 bc
       -0.18855023 -0.13351859 -0.013528103 -0.021571111
000390 b7 ac 17 bd ec c1 1b b9 39 be e2 3d f9 99 bb b9
       -0.037029948 -0.00014854193 0.11071438 -0.00035782138
0003a0 4f af db bd 70 31 16 bd 4b 5e 8f 3d e0 6a 65 3d
       -0.10726797 -0.03666824 0.07000407 0.056010127
0003b0 07 07 7c 3a f8 62 7e 3d c9 fc fc bc c9 27 51 bd
       0.0009614084 0.062106103 -0.030882256 -0.051063333
0003c0 2b 17 b2 3d 75 23 0f be a9 91 2b be 62 fb fe 3c
       0.08695825 -0.1397837 -0.16754784 0.031125728
0003d0 64 77 b6 bd 43 f4 59 bd 00 df 1f 3e 6b 3f fe 3d
       -0.08909491 -0.05321146 0.15612411 0.1241444
0003e0 14 c0 aa bd 11 42 21 3c bd 96 a6 bd 91 2a 2c bd
       -0.08337417 0.009842412 -0.0813422 -0.042032782
0003f0 9a 91 95 bd aa d1 e9 3b 37 96 df 3c ed 27 39 bd
       -0.07303162 0.0071355896 0.027293308 -0.04520409

local_block.conv_time.conv.0.bias f4 [8]
000000 dc 2f 3f 3d 85 1b e3 bd ef 35 57 3d 50 27 03 3d
       0.0466765 -0.11089233 0.05254167 0.032019913
000010 85 46 2c 3d 5f d9 b4 3d 9c 3a 00 3e 3e 90 50 3d
       0.04205944 0.08830523 0.12522358 0.05091881

local_block.conv_time.conv.1.weight f4 [8]
000000 0e 1b 82 3f 34 0f 6e 3f 66 90 8b 3f c0 e1 7b 3f
       1.0164506 0.9299195 1.0903442 0.9839134
000010 7a a7 64 3f 77 5d 78 3f c0 03 71 3f b9 bd 7c 3f
       0.8931805 0.97017616 0.9414635 0.98726994

local_block.conv_time.conv.1.bias f4 [8]
000000 4f fd 57 be 1e 4b 5c bd f6 41 b3 3d d3 5d 02 bd
       -0.21092723 -0.053782575 0.087528154 -0.03182776
000010 49 3d e8 bc 33 6b 8b 3c 44 42 a7 3c 21 d9 07 3c
       -0.028349536 0.01701889 0.02041734 0.008291514

local_block.conv_time.conv.1.running_mean f4 [8]
000000 6b 19 76 3d 58 77 ea bd a8 b5 5b 3d ff 0d 3b 3d
       0.060082834 -0.11448544 0.053640038 0.045667645
000010 51 60 8b 3c b4 a1 b1 3d 17 1c 1a 3e 79 e6 21 3d
       0.0170137 0.086734205 0.15049778 0.039526436

local_block.conv_time.conv.1.running_var f4 [8]
000000 85 3e 33 41 54 25 3f 41 29 6f e6 41 a1 43 fb 40
       11.202764 11.946613 28.804277 7.8520055
000010 94 c9 47 41 27 6a 1f 41 23 6f b9 40 c1 9c 49 41
       12.486713 9.963416 5.7948165 12.60077

local_block.conv_chan.conv.0.weight f4 [8, 8, 11, 1]
000000 d4 4b b0 bc ce 6b 89 3d bb 19 b5 bc fd 4d 09 3d
       -0.021520533 0.06710015 -0.022106996 0.03352164
000010 57 72 bf bc d3 14 44 3b 9c 5f a1 bc c6 bb 77 3d
       -0.023369951 0.0029919639 -0.01969891 0.06048181
000020 52 e0 1d 3b af c6 86 3d 0d 05 4d bd 63 0b cf 3c
       0.0024090004 0.06580865 -0.050053645 0.025273984
000030 00 d6 0d 3e 9a 9b ec 3d 96 56 10 bd 44 02 8c 3c
       0.13851166 0.11553116 -0.035238825 0.017090924
000040 5a a5 d9 bc 26 a0 d1 bd 3d 60 43 bd 7c bc 6b 3c
       -0.026568104 -0.10235624 -0.0476992 0.0143882
000050 c1 28 c5 3c 80 34 11 bc f8 83 68 bd 65 77 f5 3c
       0.024067285 -0.008862615 -0.05676648 0.029964158
000060 c7 ce 72 3d 4d 99 7c 3a eb f4 5e 3c 33 54 6e bc
       0.05927923 0.00096358807 0.013608198 -0.014546442
000070 35 ce 2f bd 7f 52 b7 bd a2 d1 96 bd 97 15 ae 3d
       -0.042921264 -0.08951282 -0.07364203 0.08500212
000080 00 95 c9 bd 6c 43 49 bd 02 3e 6b bd 1f d2 8e bc
       -0.098428726 -0.049136564 -0.057432182 -0.017434178
000090 a1 7e 94 3d e2 3e 34 3c 12 f3 f0 bc d2 e0 20 3c
       0.07250715 0.011001321 -0.02941278 0.009819226
0000a0 7f 13 42 3d 46 36 d9 bd 66 52 95 bd cb c1 bb 3d
       0.047381874 -0.10606055 -0.07291107 0.091678225
0000b0 f1 81 c2 3d d0 9e 03 3e 4e c8 51 bd a0 a4 b7 bc
       0.094974406 0.12853551 -0.051216416 -0.022417367
0000c0 a9 54 e6 bc 40 f1 b9 bd 29 91 07 3e 9d fd 65 3e
       -0.028116541 -0.09079218 0.13238968 0.22460027
0000d0 be 84 aa bb 64 83 97 3c fb f3 31 3c ea fe fe 3b
       -0.0052038124 0.01849527 0.010861392 0.007781853
0000e0 a7 b2 1a 3e d3 e8 89 3d fb d6 00 3e 4e ad c6 3c
       0.15107213 0.06733861 0.12582009 0.02425256
0000f0 30 2f 5f bd 50 1f c8 3c d5 46 04 be 61 44 08 be
       -0.05448836 0.024428993 -0.12917645 -0.13307334
000100 cc ba 5e 3b 66 22 52 bb 3a 0d 53 3c 70 0e 7e 3d
       0.0033985851 -0.003206396 0.012881571 0.062025487
000110 4e 4c 27 bd ff 05 98 3d 4f b6 d4 bc 75 4b 1f bd
       -0.040844254 0.07423019 -0.025965838 -0.03889032
000120 71 35 d3 3c 8c 4e 14 bc 70 7d 84 3b 4a 5c c5 bc
       0.025782319 -0.00905193 0.0040432736 -0.024091858
000130 08 25 9d 3c b9 73 ea 3c ae 9b 82 3d 9b 84 0a 3d
       0.019182697 0.028619634 0.0637735 0.03381787
000140 27 50 ce ba 73 83 d7 3c f3 52 ac 3b a1 7c be bc
       -0.001574044 0.026307797 0.0052589118 -0.023252787
000150 27 db 05 bd 75 bf 47 3c 7b f3 28 bc 8a 87 20 bd
       -0.032679703 0.012191643 -0.0103119565 -0.03919176
000160 d7 ae 22 3c 12 aa fc 3c 58 dc 87 3d 86 7f b7 bd
       0.00992938 0.030842815 0.06633824 -0.0895987
000170 37 e2 20 3d 56 a4 a3 bc d7 d9 b7 39 96 a4 de 3d
       0.039278235 -0.019975822 0.00035066783 0.10871236
000180 1d 02 8f bc c9 e1 66 3d a7 b7 23 bd 3a bd 9b bd
       -0.017457062 0.05636767 -0.039970066 -0.076044515
000190 3d 9c cc 3c 3e ea c7 3c fe 7f 57 3d 7f 88 af 3c
       0.024976844 0.024403688 0.052612297 0.021427391
0001a0 0d cf 1f 3d 7b 5a 39 3d f7 28 e9 bc 54 31 56 bd
       0.03901582 0.045252305 -0.028461916 -0.052293137
0001b0 eb 2b 9e 3d cf ea 7b bd b0 12 8b bd cc 67 0d 3e
       0.077232204 -0.061503228 -0.06790674 0.13809127
0001c0 18 e7 78 bd 08 26 04 be d5 a4 6d bb 26 12 97 bd
       -0.060767263 -0.12905133 -0.0036261578 -0.073765084
0001d0 56 c0 be 3d 08 80 57 3e 86 9c 06 3d 3f 06 85 bd
       0.09314029 0.21044934 0.032864116 -0.06495332
0001e0 62 47 d1 bd d5 2e f5 3c 32 db 81 bd 77 68 11 3d
       -0.10218693 0.029929558 -0.06340636 0.035500016
0001f0 30 2d ef bc 80 c2 7a 3c 91 01 46 3d d2 cf e7 bd
       -0.029196352 0.0153051615 0.048341338 -0.113189355
000200 89 89 4c bd 81 a0 8a bc 6b c9 36 bd 2d 4c 05 3e
       -0.04993585 -0.016922237 -0.04462568 0.1301734
000210 f6 8c 61 bb 03 09 12 3d cd 1d 89 3d c1 11 43 3c
       -0.0034416295 0.035653125 0.06695137 0.011906088
000220 89 5d 04 3b 01 6b 1b 3d 56 e9 6b bd 15 e4 15 be
       0.0020197353 0.037943844 -0.057595573 -0.14637788
000230 98 0e a0 b9 71 af 0f bd e8 aa 19 3c 36 90 ae 3d
       -0.0003052845 -0.035079423 0.009379126 0.085236
000240 8b 4a ba bd 50 b2 f1 bb 9e d2 58 3d 91 48 c1 bb
       -0.09096249 -0.007375993 0.052935235 -0.005898543
000250 63 a9 b4 3c 3f af 66 bc 18 23 89 bd 92 19 ca bc
       0.022053426 -0.014079868 -0.06696147 -0.024670396
000260 df e3 9d 3d 54 74 8c bd 2b da ab bc 3b 91 39 bd
       0.077094786 -0.06858125 -0.020978054 -0.04530452
000270 81 bb a1 bd 8f 4a bc bc 6f 4d cb bc f6 2a 4e bc
       -0.07897092 -0.022984771 -0.024817197 -0.012583485
000280 fc e4 ad 3d 8d 78 3e 3e c5 9f 29 3d 11 10 5f 3b
       0.08490941 0.18600674 0.041412134 0.0034036676
000290 7f 1b 42 bd 1a ae 09 bd 6f b0 7e 3d b1 b3 07 bd
       -0.047389504 -0.0336133 0.06217998 -0.03313035
0002a0 f8 88 d2 bd 52 d1 9f 3b f3 9d 0e bc 13 24 c2 bc
       -0.10280031 0.004877248 -0.00870465 -0.023698842
0002b0 72 8a 0f 3e 9c c7 fb 3b 65 98 09 bd 13 ff 9c bd
       0.14017656 0.0076837074 -0.0335926 -0.07665839
0002c0 37 68 29 3c 8d 4b 66 bd 8c 56 be bd 84 79 e7 3d
       0.010339788 -0.056224395 -0.09293851 0.11302474
0002d0 e4 15 c4 3d 9b 24 45 bd 54 bd d0 bd 20 9a 94 3d
       0.09574488 -0.048130613 -0.101923615 0.072559595
0002e0 8e b4 1c 3c 47 eb 13 3c 9f f5 0a bd 62 39 dd bd
       0.009564532 0.009028262 -0.03392565 -0.108019605
0002f0 61 1c 0e be 8e 52 ce bd 2d de f5 3d c4 d2 e5 3d
       -0.13878013 -0.1007434 0.12005267 0.11221841
000300 3c 84 50 3b b1 3d 08 3d fa 88 a9 3d 8f a8 f2 3c
       0.00318171 0.03326196 0.08278079 0.02962139
000310 f1 13 5d bb 10 4d c8 3d 06 f8 95 bd a1 70 26 be
       -0.003373381 0.097803235 -0.07322697 -0.16253902
000320 e5 47 7f 3d 67 7a 00 3d 1c 18 07 3c d8 26 f5 bc
       0.062324423 0.031366732 0.008245494 -0.029925749
000330 17 51 e7 3b 9d e1 9a bd 6e 82 73 3d 52 aa 15 bd
       0.007059227 -0.075625636 0.05945056 -0.036539383
000340 47 69 fa bc 43 b9 13 3d 4e 5b 45 bc 87 da 5e bd
       -0.030567778 0.03606535 -0.0120456945 -0.054407623
000350 5f 96 2c 3d 7c 70 a9 3d 16 74 e8 bb 1a e2 aa bc
       0.042135593 0.08273408 -0.0070939166 -0.020859767
000360 f9 e9 55 bd 28 a9 7b bd af 9b 92 3d a3 35 1c bd
       -0.052225087 -0.061440617 0.071586005 -0.03813709
000370 39 28 8d bd 09 3f b6 3a ba ab e9 bb dd 35 d2 3b
       -0.068924375 0.0013904284 -0.007131067 0.0064151124
000380 d3 35 27 bb 9c d5 d2 3d 39 8e aa bc f3 c6 3f bc
       -0.002551426 0.10294649 -0.02081977 -0.011705148
000390 a0 ac 71 bd 27 12 fc bb e8 aa fd bb 73 03 0f bd
       -0.05900252 -0.0076925936 -0.007741321 -0.0349154
0003a0 da 0e 10 be ca 71 a8 bd eb 4e 67 3d b3 aa 18 3d
       -0.14068165 -0.082248285 0.056471746 0.037272166
0003b0 1e b9 11 3d 16 3e 6b 3d 8b 71 dc bd 9d c8 85 3d
       0.035576932 0.057432257 -0.10763844 0.065324046
0003c0 ab 7a 3f 3c 89 a4 78 3d 4e 05 90 39 34 84 a8 3b
       0.011686961 0.060703788 0.00027469773 0.005142713
0003d0 d3 38 f0 bd b5 7e 0d be 2c 55 b7 bc 84 4a c0 3d
       -0.11729588 -0.13817866 -0.02237948 0.09389213
0003e0 ea b9 8a bd ce c4 d9 3d 6b 1b 1d bd 83 63 77 3d
       -0.067737415 0.10633241 -0.038356226 0.060397636
0003f0 6a dd cb bb f6 eb da bc b5 da ee 3d e0 54 b3 bd
       -0.006221463 -0.026723843 0.11662809 -0.08756423

local_block.conv_chan.conv.0.bias f4 [8]
000000 ac dd fd ba ca ed 54 bd 17 3e 3f 3d 9a dd 81 3d
       -0.0019368432 -0.051984586 0.046690073 0.06341095
000010 e0 51 8f 3d 22 43 cd 3b 28 16 a2 3d a2 18 46 bc
       0.06998038 0.0062641064 0.07914382 -0.012090834

local_block.conv_chan.conv.1.weight f4 [8]
000000 18 9a 78 3f 8e 10 8c 3f 21 c4 8e 3f 07 02 64 3f
       0.9711013 1.0942552 1.1153604 0.89065593
000010 78 9a 82 3f b0 b8 97 3f 8c 2d 80 3f 6b e8 88 3f
       1.020339 1.1853237 1.00139 1.0695928

local_block.conv_chan.conv.1.bias f4 [8]
000000 ba 44 d6 bd de a9 f5 bd 3c 5d b1 bd 47 9a 39 be
       -0.10462327 -0.1199529 -0.08660361 -0.18125258
000010 5a b2 9e bd aa be 85 3b 70 a5 c5 bd b3 14 07 be
       -0.077488616 0.004081567 -0.09650695 -0.1319149

local_block.conv_chan.conv.1.running_mean f4 [8]
000000 51 7c b8 3b 89 1a 92 bd 54 86 0e bd 56 b7 c5 3d
       0.005630054 -0.071339674 -0.034796074 0.09654109
000010 15 3f fe bb 23 ac d0 3b 2d e9 94 3d dc dc 86 bd
       -0.007758985 0.0063681765 0.07271037 -0.06585094

local_block.conv_chan.conv.1.running_var f4 [8]
000000 ce 41 11 3e 2b 76 c6 3d b2 12 c8 3d 52 45 28 3e
       0.14185259 0.096905075 0.09769191 0.16432694
000010 b5 6d 06 3e ad cd 98 3d 86 41 d5 3d 9e 7c c9 3d
       0.13127787 0.074611045 0.10412888 0.09838222

atten.conv.weight f4 [1, 1, 3]
000000 07 65 93 bf 6a 05 0a bf 21 5f 2b 3e
       -1.1515206 -0.5391451 0.16735508

tcn.network.0.conv1.weight f4 [16, 16, 16]
000000 a2 4e 0a bd 5b 4c f1 bb 74 d9 32 bc 55 19 4c bc
       -0.033766396 -0.0073638386 -0.010916103 -0.0124572115
000010 55 aa 49 bd 25 e9 a8 3c 99 ec b2 bc a5 32 c5 bc
       -0.049234707 0.020618984 -0.021841334 -0.024072
000020 11 c0 04 bd 37 2e f7 bc e2 a8 1d bd a9 1b 3b bd
       -0.03240973 -0.030173404 -0.038491137 -0.045680676
000030 28 f6 f5 3c 8c 72 51 3c fe 89 c4 3c 2f 49 a3 bc
       0.030024603 0.012783658 0.023991581 -0.019932358
000040 92 9a a4 3d 92 b1 03 3b c5 74 17 3d 0a 43 eb bc
       0.080372944 0.0020094854 0.036976594 -0.02871849
000050 34 18 56 bc 11 5f a7 bb 76 4e 19 3b b2 05 de bb
       -0.013067294 -0.0051077683 0.0023392714 -0.0067755813
000060 aa 7b fc bc f2 ca 99 bd 77 2e 8b bd b8 ca b8 bd
       -0.030820686 -0.07509412 -0.06795972 -0.090230405
000070 62 ab 6e bc bb 5b 80 bd dc d8 ff bc 4b ed 37 bd
       -0.014567228 -0.06267496 -0.031231336 -0.044904035
000080 02 6a 17 bd 9b dc b9 bc 10 5b 71 3c 80 9b 18 3d
       -0.03696633 -0.0226882 0.014731184 0.03725767
000090 10 d7 b8 3b 07 dd 5b 3d f5 c1 dc bc 71 b4 fb bc
       0.005640872 0.053677585 -0.026947955 -0.03072569
0000a0 39 9c e0 3c 4d 90 18 bd 5f 30 47 bd 87 80 e1 3a
       0.027418243 -0.03724699 -0.048630115 0.0017204442
0000b0 5d e5 8b bc 7d 90 97 3c 7d 13 03 bd 1e a9 c6 bb
       -0.017077142 0.018501515 -0.032001007 -0.006062641
0000c0 7b 09 9b 3d 94 ff a7 3c 47 4b 0a 3d 21 11 60 3d
       0.07570168 0.020507611 0.033763196 0.054703835
0000d0 bd 28 77 3d 8a 97 6a 3d 7b d4 4a bc 59 a6 26 3d
       0.060341585 0.057273425 -0.012379761 0.040685985
0000e0 f0 9d aa 3c ee 4f ef bc 65 2e 26 bd 27 ce 0a 3c
       0.020827264 -0.029212918 -0.04057159 0.008472002
0000f0 c3 ef e3 3c 26 11 4f 3c 0e ad 87 3d 21 3f 2a 3d
       0.027824288 0.012638366 0.066248044 0.04156411
000100 5e 7a 6d 3d 19 d1 d8 3c 5e 9f 1e bc 65 40 88 bc
       0.057978027 0.026466893 -0.009681551 -0.016632268
000110 47 be fd bc 54 88 8e 3d 0f 21 27 3b 60 cb 15 3d
       -0.03097452 0.06959596 0.0025501882 0.036570907
000120 ab aa 21 3d 22 eb e7 bc 70 ca b0 3c fc 39 c7 3c
       0.039469402 -0.028310362 0.021580905 0.024319641
000130 7f e0 b3 bc bf 5a 5c bc d1 48 18 3b 85 39 87 3c
       -0.021957634 -0.01344937 0.0023236761 0.01650692
000140 31 be 36 3d dc b9 a5 bc a1 28 3b bd a9 ef 6a bc
       0.044614974 -0.020230226 -0.045693044 -0.014339366
000150 e2 e4 03 bd 79 31 e7 bb 6c 3b 51 bd 22 6d 41 bc
       -0.0322007 -0.007055458 -0.05108206 -0.011805804
000160 20 a2 b2 3a a3 31 48 bc 7a ea 9d 3b 46 4d a6 3c
       0.0013628639 -0.012218866 0.0048192116 0.020300519
000170 7a cc 79 bd 87 79 c8 3c 59 6e e3 bc 01 21 0f bd
       -0.06098602 0.024472011 -0.027762579 -0.034943584
000180 b7 78 a9 3c 4b 1b 54 3d a5 39 d7 bc cc 65 0e bd
       0.020687444 0.05178384 -0.026272604 -0.03476505
000190 01 49 3a 3d 1b 68 89 bb b2 c4 a6 bc 8b 66 1c bd
       0.04547978 -0.0041933185 -0.020357464 -0.03818373
0001a0 56 d6 29 bc dc 01 17 bd aa 38 ed bc 26 c5 b1 3c
       -0.010366043 -0.036867008 -0.028957684 0.021700453
0001b0 07 61 a9 bb f7 56 8c 3c 07 4e ed 3c 00 00 46 3c
       -0.0051690373 0.017131312 0.02896787 0.012084961
0001c0 56 a7 49 3c 77 2b 84 bd ba 85 ad bc 35 9b 70 bd
       0.012307962 -0.06453603 -0.02118193 -0.058741767
0001d0 03 6f ab bc 21 06 da bc 10 c2 99 bd ab db 1d bd
       -0.020926958 -0.02661425 -0.075077176 -0.03853957
0001e0 ba 6b 90 ba 14 b7 c5 3c 4e 6d ec 3c be 63 9c 3b
       -0.0011018433 0.02413515 0.028860714 0.0047726324
0001f0 e7 2f 94 3c 9c 42 51 bc 84 dd 89 bd 5a d2 54 bc
       0.018089248 -0.012772229 -0.06731704 -0.012989605
000200 85 d9 39 bd a4 a6 19 bd ee 26 b1 3b 16 12 7c bc
       -0.04537346 -0.037512437 0.005406252 -0.015385171
000210 4c 33 de bc 33 e4 76 bb bc 51 84 3d da ec a4 3c
       -0.02712407 -0.0037672638 0.06460902 0.02013247
000220 84 be 69 3d 00 47 04 3d b8 82 eb 3c 86 df cd 3b
       0.057066455 0.032294273 0.028748855 0.0062827496
000230 60 54 71 bd e2 2c a5 bc d0 c3 9a 3c 77 11 b3 bc
       -0.058918357 -0.020163003 0.018892199 -0.021858914
000240 73 4c 2b 3c 3f ed 75 3c 11 27 4f 3d c1 f2 ed bb
       0.010455239 0.015010177 0.050574366 -0.0072616045
000250 8f e9 bd bc 2c 3d 57 bd fc 63 14 bd 90 86 56 bd
       -0.023182658 -0.052548572 -0.036228165 -0.052374423
000260 e5 6c 87 bd ac 69 57 bd de d4 0f 3b 25 7f c0 3c
       -0.06612567 -0.05259101 0.0021946947 0.023498127
000270 01 2d 40 3d 01 46 92 3d dc 0d 98 3d a8 35 0c 3e
       0.04691792 0.071422584 0.074245185 0.13692343
000280 66 e4 f8 b9 4d 9f de bb 56 fe b4 3b 67 11 f7 3b
       -0.00047472416 -0.0067938925 0.0055234833 0.0075399163
000290 01 4b 83 3b d3 93 45 bd 63 de 0e bd 55 df 0e 3c
       0.004006744 -0.04823668 -0.034880053 0.008720239
0002a0 b2 0a 36 bd b4 d8 09 3d 6e e9 45 bd 57 33 a6 bc
       -0.044443794 0.03365393 -0.04831832 -0.020288153
0002b0 55 7e d7 bc 36 1d 2b bd e1 73 df bc ce 36 e8 bc
       -0.026305357 -0.041775905 -0.027276935 -0.028346445
0002c0 7d 58 dd bc bd 9e f8 bc 1f ac 99 bd 40 20 7f bc
       -0.027019734 -0.03034913 -0.075035326 -0.015571654
0002d0 d9 d8 55 bd ca 07 c0 bb c3 a8 ad bb fe 5a 87 3c
       -0.052208755 -0.0058603035 -0.005299659 0.01652288
0002e0 7e 76 aa bc 1d 52 24 3d 00 6e 83 3c 10 0a c9 3c
       -0.020808455 0.04011737 0.016043663 0.024540931
0002f0 83 41 bd 3b 25 dd 09 3c af 57 33 3c 2d f9 b7 3c
       0.005775632 0.008414541 0.010946198 0.022457683
000300 13 5d 2b ba f9 2d 0d bc 1a 83 0c 3c 2c 67 09 3d
       -0.00065370015 -0.008616918 0.008576179 0.033545658
000310 34 44 cb 3b 74 e9 a8 bc c4 2e e6 bc 62 92 f6 bc
       0.006203199 -0.020619132 -0.028098471 -0.030099098
000320 c3 94 03 bd 98 10 c7 bc e3 76 ae 3d 63 ae dc 3c
       -0.032124292 -0.024299905 0.085187696 0.026938623
000330 82 ba 8e 3c b2 53 81 ba d0 56 f5 3c a2 62 e5 bc
       0.017422918 -0.0009866862 0.029948622 -0.028001133
000340 91 15 2a 3c af 38 5d bc ed e3 45 bc ef d4 38 bc
       0.010381118 -0.013502284 -0.0120782675 -0.011281236
000350 3d 53 2b 3c 6c 0e fc bc da d9 8a bd 89 76 da bc
       0.010456857 -0.030768596 -0.06779833 -0.02666785
000360 cf c3 02 bd 90 de 82 bd 45 06 2d bd 5d c8 c5 3c
       -0.03192502 -0.06390107 -0.042242307 0.024143392
000370 8f 31 31 3d e6 37 40 3d 41 f1 d3 bc a4 99 9a bb
       0.043260153 0.04692831 -0.025871875 -0.0047180224
000380 04 36 86 bd fd 9e 4f bc 84 c2 88 3c b5 20 04 3d
       -0.065532714 -0.012672183 0.016694315 0.032257754
000390 ac 2e 6d 3d 59 4a f6 3b ea 10 68 3d 58 ed 36 3c
       0.057905838 0.007516187 0.056656756 0.011164986
0003a0 7d e1 a5 3d 10 4a cf 3c 15 d9 b8 bb 7c da d0 bc
       0.08099649 0.02530387 -0.0056411126 -0.025494806
0003b0 a8 27 15 bd 94 f8 53 bd 04 43 75 bd 1d eb 08 bd
       -0.036414772 -0.051750734 -0.059878364 -0.033427346
0003c0 88 9c 2d bd cc 12 88 3b cf f4 32 bd 01 1a 39 3c
       -0.042385608 0.0041526314 -0.0436905 0.011297704
0003d0 82 a4 31 3c b7 b3 16 bc 1d 60 24 3d bb 80 e7 3c
       0.010842444 -0.009198121 0.040130723 0.028259626
0003e0 a7 1c 38 3c 07 55 1d 3c 1d 31 7e 3d 4e f6 8f 3d
       0.0112373 0.009602792 0.062058557 0.07029401
0003f0 47 71 46 3d 6a 52 29 3d 3f 3f 03 bd 77 85 e8 3b
       0.048447873 0.04133836 -0.032042738 0.0070959884

tcn.network.0.conv1.bias f4 [16]
000000 b1 66 3d 3a a5 7f 24 bb 23 a0 61 3c 5f 2a ac b5
       0.000722508 -0.0025100496 0.01377109 -1.282733e-06
000010 82 38 63 bc 39 a6 1d 37 0a e8 40 3b a3 49 09 3a
       -0.013868453 9.396631e-06 0.002943518 0.0005237108
000020 4b fb 1b 37 f4 b5 b4 b8 17 b6 98 b7 fb d5 e0 b7
       9.297229e-06 -8.61696e-05 -1.8204604e-05 -2.6802523e-05
000030 d9 03 d1 3c 3b 84 ed 37 f4 b5 d7 3c 18 82 ef bc
       0.02551453 2.8314176e-05 0.02633188 -0.029236838

tcn.network.0.bn1.weight f4 [16]
000000 cb a3 87 3f f5 6b 89 3f 71 65 83 3f 32 49 8b 3f
       1.0596861 1.0736071 1.0265332 1.0881712
000010 b8 74 91 3f 3d 98 8e 3f b1 b7 81 3f 7c 34 89 3f
       1.1363745 1.114021 1.0134183 1.0719142
000020 3e b0 83 3f 6d 74 87 3f 6b 01 88 3f 82 e7 80 3f
       1.028816 1.0582405 1.0625433 1.007065
000030 16 73 81 3f 26 b3 84 3f ba a7 86 3f db 37 83 3f
       1.0113246 1.0367172 1.0519936 1.0251421

tcn.network.0.bn1.bias f4 [16]
000000 84 ef 35 be db bf 78 be 1b 75 a7 be 63 bc 51 be
       -0.17767149 -0.24291937 -0.32706532 -0.2048202
000010 bd d8 56 be f4 8e 92 be 43 a2 61 be e0 0a 30 be
       -0.20981117 -0.2862469 -0.22034554 -0.17191648
000020 e0 98 4a be 57 6a 94 be 5d 53 73 be b4 e9 54 be
       -0.1978488 -0.2898738 -0.2376227 -0.20792276
000030 0b 9b 79 be e7 49 73 be 11 76 48 be 0b 58 7e be
       -0.2437555 -0.2375866 -0.19576289 -0.24838273

tcn.network.0.bn1.running_mean f4 [16]
000000 7d 14 4e bd cc 1c 7f bd 8a bc b6 bd c4 59 21 bc
       -0.050312508 -0.062283322 -0.0892268 -0.009848062
000010 3d 10 a6 bc 16 cd b3 bc 61 71 ea bc 16 8a 04 bc
       -0.020271415 -0.021948379 -0.028618516 -0.008089563
000020 6c 4a 8f bd 43 d3 86 bc 0c 8e bd bc 5f 23 4b bd
       -0.06996617 -0.01645816 -0.023139022 -0.04959428
000030 d1 ab 45 bd 88 0f 1f bd ca 63 1b bd 7f 7f 18 bd
       -0.04825956 -0.03883317 -0.037936963 -0.037230965

tcn.network.0.bn1.running_var f4 [16]
000000 7b b8 0d 3f 54 ab 1d 3f a2 91 02 3f 59 c9 14 3f
       0.5535962 0.6158955 0.5100347 0.5811973
000010 08 67 03 3f cc 72 1d 3f 35 55 e5 3e d9 b1 11 3f
       0.5132909 0.6150329 0.4479157 0.56912
000020 0a 15 19 3f 35 33 0a 3f 5a 6a f2 3e 06 ce 04 3f
       0.5979773 0.53984386 0.47346765 0.51876867
000030 40 56 26 3f b9 08 10 3f 99 74 0f 3f 85 73 ff 3e
       0.6497536 0.5626331 0.5603729 0.49892822

tcn.network.0.conv2.weight f4 [16, 16, 16]
000000 bc 34 08 bc 5a 50 99 bc 66 1c c5 3c 3a 9d 09 bc
       -0.008313354 -0.018715072 0.024061393 -0.008399302
000010 88 0d 1a 3d af b8 2a bb b5 51 99 bc ce 2b 3c bd
       0.03761056 -0.0026050021 -0.018715719 -0.045940213
000020 aa 25 1f bd 74 e9 0a bd 36 96 38 ba fb 4b 43 bd
       -0.03885428 -0.033914044 -0.0007041426 -0.047679882
000030 e4 31 64 3a 70 c6 1e 3d 60 cd d4 3b e0 b8 c0 bc
       0.0008704944 0.038763463 0.006494209 -0.023525655
000040 94 95 9c 3c 93 78 f6 3c e4 21 2b 3c 2e e8 bc 3c
       0.019114293 0.030086791 0.010445092 0.02305993
000050 18 05 04 3d 94 e1 c9 3c 80 71 73 bb a1 ff f6 3c
       0.03223142 0.024643697 -0.0037146509 0.03015119
000060 4d c6 b9 3c 00 37 f5 bc 64 23 95 bc ce 03 8a bd
       0.022677565 -0.029933453 -0.018205352 -0.06739007
000070 cc 95 37 bd 8d 4d 23 bc 68 40 ac bc 43 01 1c 3d
       -0.04482059 -0.00996722 -0.021026805 0.03808714
000080 7f 9a 7a 3c 5f 51 ba 3c ba f0 22 3c f8 65 d7 3c
       0.015295624 0.022743879 0.009945089 0.02629374
000090 46 e2 43 bc e0 ec 9b 3c c1 84 9d ba e2 cb 94 bc
       -0.011955803 0.01903385 -0.0012017713 -0.018163625
0000a0 86 a1 04 bb 11 43 73 bc 8c 93 8a 3b f0 38 cb 3c
       -0.0020237877 -0.014847533 0.0042290147 0.024807423
0000b0 fb ff 6e 3c ac db 6b 3d 5c 2c 65 3d a1 61 24 3d
       0.014587398 0.057582542 0.055950508 0.04013217
0000c0 76 60 2e 3d dd d6 cb 3c 14 0d 6e bc a7 25 35 bd
       0.04257246 0.024882728 -0.014529485 -0.04422536
0000d0 2d a6 c7 bc c9 0e 8d bc 69 d5 10 bd 2d 68 44 bd
       -0.024371231 -0.017218964 -0.035359774 -0.047950912
0000e0 73 d4 54 bd c7 4a af bc 73 a4 b2 3c 80 be 7d 3b
       -0.05196042 -0.021397961 0.021806931 0.0038718283
0000f0 f5 e6 18 ba 69 10 41 3d cc 71 36 3d 5d 78 04 bb
       -0.0005832755 0.04713479 0.04454212 -0.0020213344
000100 8c 91 d0 bb 88 0d a2 bd 09 3d 8a bd 64 06 94 bc
       -0.006365007 -0.07912737 -0.06749923 -0.018069454
000110 03 14 72 bd 66 c2 92 bd cc 40 44 bd 6a 80 d3 3b
       -0.059101116 -0.07165985 -0.047913358 0.006454517
000120 7b df 25 bd 95 9f 2b bd b9 f2 32 bd 81 da d7 3b
       -0.04049633 -0.041900236 -0.04368851 0.006587327
000130 3d 86 57 bc 0a 0e ab bd a7 5c 38 bd 6a d2 1e bd
       -0.0131545635 -0.08352287 -0.045010235 -0.038774885
000140 71 8e 21 bc 5c c3 80 b9 5b ff 39 3d 16 c2 26 3d
       -0.009860621 -0.00024559617 0.04540954 0.04071244
000150 ec fa 8e 3c 82 a4 02 3d ce 9a b3 3c 5c 89 cf b7
       0.017453633 0.031895168 0.021924403 -2.4740286e-05
000160 84 2e c0 3c 4a 33 0f bd 13 d4 59 bb 3a 16 8f bd
       0.02345968 -0.034961022 -0.0033237978 -0.06986661
000170 86 7e 31 bd 3a e8 4c 3c cc 60 c7 bc 19 88 28 bb
       -0.043333553 0.012506539 -0.024338149 -0.0025715886
000180 6d b3 82 3b 35 60 10 3c 22 3d d7 3b 9f cf 01 bd
       0.0039886744 0.008812 0.006568567 -0.031692144
000190 1e 35 17 bd 10 c3 72 bc 23 1d 93 ba 4c f5 01 3d
       -0.03691589 -0.014817014 -0.0011223893 0.031728074
0001a0 de 91 4a bc ec a2 33 3d 80 1a 2c 3d d7 e5 d7 3c
       -0.012363879 0.043856546 0.04201746 0.026354713
0001b0 a6 19 25 bb d4 e0 50 3d b3 e8 97 3c b5 e0 5b 3d
       -0.002519229 0.050995663 0.018543577 0.053681094
0001c0 ba 5b 57 3c f5 e0 8a 3d 58 b4 3a 3d 9f b3 53 bc
       0.013144428 0.067811884 0.045582145 -0.012921243
0001d0 a1 e9 13 3d 20 45 c1 bc c6 6b 27 bd db b1 94 bd
       0.036111478 -0.023592532 -0.040874265 -0.07260486
0001e0 84 d8 20 bd 26 fb bc bd 3d 84 6a bc 1e 39 de bc
       -0.039268985 -0.0922759 -0.014313755 -0.027126845
0001f0 6a 87 92 3c 80 f0 a9 3c 7e 31 66 bc ac 21 33 bd
       0.017886836 0.020744562 -0.014049886 -0.043733284
000200 86 e4 ad bc 4b 62 be ba c9 a5 05 bd 70 6a fc 3c
       -0.021227133 -0.0014525143 -0.03262881 0.030812472
000210 3b 04 38 3b 9a e6 9b 3c 69 a6 ac bb c3 34 69 bd
       0.0028078693 0.019030858 -0.005268861 -0.056935083
000220 a0 48 36 ba f1 9c b4 bb ba 21 65 bd ba 52 1f bd
       -0.0006953571 -0.005511873 -0.055940367 -0.038897254
000230 7d 57 2d 3c 17 e2 40 bd fb 76 86 bd 5a fe 45 bd
       0.010579941 -0.047090616 -0.065656625 -0.04833827
000240 54 b9 86 3d 29 16 7b 3d ba 25 7b 3b 35 0a 06 3d
       0.06578317 0.06130043 0.0038322047 0.032724578
000250 e7 c1 b2 3b da 32 40 bb 6e ed 26 bc c8 8b 27 bc
       0.005455244 -0.0029327185 -0.010188444 -0.010226198
000260 05 5e 0f 3d d1 03 42 3c e9 57 3a 3c 82 e3 0f bc
       0.035001773 0.01184173 0.0113734985 -0.008782269
000270 98 59 1f 3c cd d2 32 3c 04 13 b8 3c 0b 18 0d bd
       0.009725951 0.010914517 0.022470005 -0.034446757
000280 72 23 3c bc 02 e3 12 bd 60 56 a9 bd 6f ec 90 bc
       -0.01148306 -0.035861023 -0.08268428 -0.017690865
000290 cf 19 39 bd d4 c9 da bc d6 64 0b bd 52 ef 02 bd
       -0.04519063 -0.026707567 -0.03403171 -0.031966515
0002a0 dc d4 19 bc 45 54 f7 bc 24 01 ba bb 48 6e 5a bd
       -0.009389129 -0.03019155 -0.0056764055 -0.05332783
0002b0 8e c5 fd bb 02 5b f8 3c a9 73 ac 3c 93 92 13 3c
       -0.0077444976 0.030316833 0.021051245 0.009007114
0002c0 d8 d7 74 3c d1 d8 5a 3c c6 c1 30 bd d6 eb c5 bc
       0.014944039 0.013357357 -0.043153547 -0.024160307
0002d0 2c 73 05 bc 8d 8f e3 bc 8a d6 e8 bc f5 9a 6d 3d
       -0.008145135 -0.027778411 -0.028422613 0.058009107
0002e0 c1 51 b9 3c b5 42 b7 3c 3a 08 48 3d 32 45 d1 3c
       0.022621991 0.022370676 0.04883597 0.02554569
0002f0 61 94 c8 3c ce 7c fe 3c fa 02 0f 3d 76 3b 82 3c
       0.024484815 0.03106537 0.034914948 0.015897494
000300 0b f6 17 3d 35 73 48 3d b5 3b 77 3d b0 93 1a 3d
       0.03709988 0.048937995 0.060359675 0.037738502
000310 91 53 be bc 67 fd 58 bd e2 04 9d bd ad 40 db bc
       -0.023233207 -0.05297604 -0.07666947 -0.026764238
000320 a3 e7 44 bd b6 5d de b9 10 8f 07 3d 8c 67 42 3d
       -0.04807247 -0.0004241296 0.03309542 0.04746203
000330 c8 46 43 3d 2c 06 40 3d c0 df 10 3d c8 ab a6 3c
       0.047674924 0.046880886 0.035369635 0.020345584
000340 b6 f2 44 3d f4 ed 98 ba 13 03 4d 3c 9b 41 01 bc
       0.04808303 -0.0011667595 0.01251294 -0.007889177
000350 de 6c a5 bc 87 0a 4f bd 21 14 e2 bb 4a 79 06 bd
       -0.020193513 -0.05054715 -0.006899372 -0.032830514
000360 da 77 e0 bb bf 01 91 3c 66 61 d2 3c 68 41 a1 3c
       -0.006850225 0.017701028 0.025681209 0.019684508
000370 94 f3 b2 3c 87 59 16 ba ed d6 29 bc df 9b 8e bc
       0.021844663 -0.00057353865 -0.010366184 -0.01740831
000380 c1 48 00 bd 26 21 1a bd d7 c1 b2 3a 1b 56 d7 bc
       -0.031319384 -0.03762927 0.0013638091 -0.026286175
000390 e8 fa aa 3c 64 9d dc 3c c4 a8 97 bc 28 51 98 3c
       0.020871595 0.026930518 -0.01851309 0.018593386
0003a0 f4 5e a1 bc 8e e2 8b ba 55 17 3a 3d 69 7d f5 bc
       -0.019698597 -0.0010672377 0.045432407 -0.029967027
0003b0 db 9d 01 bd de 6f 18 bd 95 24 8b bc 61 50 6b bd
       -0.031644683 -0.03721606 -0.016985217 -0.057449702
0003c0 38 f3 df bb 6d ca df 3b 57 a9 8d 3c ad 3b c3 bc
       -0.006834414 0.006829551 0.017292662 -0.023832167
0003d0 e3 cb 54 bb 2b 49 0d bd 7c 1b 44 bd 40 7d ed bc
       -0.0032470159 -0.034493607 -0.047877774 -0.028990388
0003e0 27 ec 5a bc 18 8b 52 3d cb 6e 18 3d af 59 68 3d
       -0.013361967 0.05140218 0.037215035 0.056726154
0003f0 e8 62 f4 3b b0 23 19 3d 60 d1 80 3d 11 86 7d 3d
       0.0074580796 0.03738755 0.06289935 0.061895434

tcn.network.0.conv2.bias f4 [16]
000000 05 6b 9e 3c d0 be b3 bb fa 61 e9 3a 6c 3b e2 39
       0.01933814 -0.005485393 0.0017805689 0.00043150352
000010 d9 ad 16 3c 5a 88 30 3d 37 61 d1 3b c8 b5 57 b6
       0.009196722 0.043098785 0.0063897627 -3.2143307e-06
000020 07 75 35 bc 5d a6 8d ba a2 58 6b 3c 98 06 0a b7
       -0.011075265 -0.0010807026 0.014364393 -8.226976e-06
000030 29 d7 5f bc ee c3 bb b6 3e 06 17 3b 8f af a2 b7
       -0.013662138 -5.5958435e-06 0.0023044492 -1.9393656e-05

tcn.network.0.bn2.weight f4 [16]
000000 00 00 80 3f 00 00 80 3f 00 00 80 3f 00 00 80 3f
       1.0 1.0 1.0 1.0
000010 00 00 80 3f 00 00 80 3f 00 00 80 3f 00 00 80 3f
       1.0 1.0 1.0 1.0
000020 00 00 80 3f 00 00 80 3f 00 00 80 3f 00 00 80 3f
       1.0 1.0 1.0 1.0
000030 00 00 80 3f 00 00 80 3f 00 00 80 3f 00 00 80 3f
       1.0 1.0 1.0 1.0
