model/Benchmark/DATCN_b3_1s_S26.pth (torch, 182388 bytes, 75 tensors)

global_block.conv_time.conv.0.weight f4 [8, 1, 1, 125]
000000 de be 51 bd 1c a3 ae bc dc 8d 5e bc e9 e5 97 3b
       -0.051207416 -0.021318011 -0.013583627 0.0046355617
000010 74 a8 e9 bb c5 5e 69 3d b1 74 a7 bb db 7e 1a 3c
       -0.007130677 0.056975145 -0.0051103462 0.009429659
000020 df c1 96 3c 98 32 96 ba fb 1a 81 3c cc 75 8f bc
       0.018402992 -0.001145917 0.015759936 -0.017512225
000030 70 43 07 bb 95 e5 c5 3b b2 cd 1a bd db 0c a5 bb
       -0.002063956 0.006039331 -0.037793823 -0.005036933
000040 a8 44 ea bc 21 17 40 bc 07 d9 10 bd 56 70 9b 3b
       -0.028597191 -0.011724264 -0.035363223 0.004743616
000050 5b 42 ab 3b ed d1 dc bb 24 45 ac bb 07 70 a5 3c
       0.005226416 -0.0067388923 -0.0052572656 0.02019502
000060 da c4 1c 3d d6 69 c5 3c 7d ed ed 3b 16 fa c4 3b
       0.03827367 0.024098318 0.007260977 0.006011258
000070 e5 a5 fb 3c a4 f5 b8 bc de 24 e6 3c 88 d3 e6 bb
       0.030718753 -0.022578068 0.028093752 -0.0070442595
000080 0c 2f 83 3c 9c 5f 28 bd dd c2 04 bd 51 0b 8a bc
       0.016013645 -0.041106805 -0.0324124 -0.0168511
000090 4f e2 b0 3a e5 54 9d bc 26 34 fc 3c d2 8c 08 bd
       0.001349518 -0.01920552 0.030786585 -0.03333742
0000a0 31 b7 89 3b 47 53 e1 bc 51 e3 c5 3c df d5 0c 3d
       0.0042027463 -0.02750553 0.024156244 0.03438365
0000b0 36 c0 78 3a bc 4f 55 3c 02 3b 10 bc 25 d0 1d bd
       0.0009489091 0.013019498 -0.008803131 -0.03852858
0000c0 18 92 1a 3d 8a 9a ff 3c af 4d 8d 3c d2 3b 91 3c
       0.037736982 0.03120162 0.017248956 0.01772872
0000d0 76 9d 48 bb 16 2e ab 3a ff 95 9e 3c 62 00 00 bd
       -0.0030611432 0.0013059999 0.019358633 -0.031250365
0000e0 91 40 6a bd f0 b4 96 bc 3b dd 24 3c 56 0d 47 3c
       -0.05719048 -0.018396825 0.010062511 0.012149176
0000f0 0f 7b 19 3c 5b 3c 0b 3d b9 ee 60 3c 57 b3 23 bd
       0.009367718 0.033993106 0.013728791 -0.039965954
000100 26 8e a0 bc 5d 14 2f bc 0d 28 bd 3c 56 7f b2 bc
       -0.019599032 -0.010686007 0.023090387 -0.021789234
000110 e0 9a a7 bc f5 88 19 bc 53 16 86 bc 51 e1 c5 bc
       -0.020459592 -0.009371032 -0.016368067 -0.02415529
000120 8c d7 9a bd a4 2c 07 3d e7 f9 ac 3c 3a c9 b8 bc
       -0.075606436 0.033001557 0.021115256 -0.02255689
000130 e6 69 b0 3b fa 32 b4 3d 6d 40 01 3e 50 e1 9f bb
       0.005383718 0.087987855 0.12622233 -0.0048791543
000140 79 47 11 bd d6 cf 31 bc 3e 7c ab bd fb 51 91 bd
       -0.035468552 -0.010852775 -0.08373307 -0.07095715
000150 cf 3c fa bd 28 22 84 3c 56 84 10 3d 3e c8 d6 bc
       -0.122186296 0.016129568 0.035282455 -0.02621853
000160 28 3c a3 bc 15 a7 24 b8 d8 c5 89 bc 8e f1 d2 bb
       -0.019926146 -3.9256254e-05 -0.016817972 -0.006437487
000170 78 cd 8b bd a4 e7 03 bd 66 19 00 3d 77 00 de bc
       -0.068262994 -0.03220333 0.03127422 -0.027099831
000180 49 12 da bb 19 ee 71 3c 3a 9f a8 3b 41 39 89 bc
       -0.006655012 0.01476624 0.0051459344 -0.016750934
000190 89 3b f3 3a ca aa c7 3c f4 1e 0f 3c 12 3b 3e 3a
       0.0018557172 0.02437343 0.008735407 0.0007256727
0001a0 cd 1d 8b 3d e3 69 bb 3d f7 3d fe 3c d0 35 9f bc
       0.067927934 0.09151056 0.031035407 -0.01943484
0001b0 b0 61 32 bd b4 dd 28 bd 10 1c 82 3a 7f b8 5a bc
       -0.043550193 -0.041227058 0.0009926576 -0.013349651
0001c0 40 d8 6a bc 86 5c 85 bc f4 94 07 3d 11 1f 50 3d
       -0.014333785 -0.01627947 0.033101037 0.050810877
0001d0 23 bc 22 3b be 77 62 bc ce 73 c2 3c bc 95 52 3b
       0.0024831377 -0.013822494 0.02373686 0.0032132706
0001e0 c3 1b 32 bd b5 7c 39 3c 62 7e 11 3d 79 22 4d bd
       -0.043483507 0.011321236 0.03552092 -0.050081704
0001f0 83 b3 42 bc b0 8e 21 bb a1 f0 02 bd ee 18 93 bc
       -0.011883619 -0.0024651699 -0.031967763 -0.017956223
000200 d3 5e 5e 3d 01 1e 92 bc bb d4 eb 3c 6d a9 66 bc
       0.05428965 -0.017836573 0.028787961 -0.01407848
000210 ed 26 47 bc 0d 8a 41 bd 22 41 24 bc a6 2f 01 3d
       -0.012155277 -0.047250796 -0.0100252945 0.03153958
000220 12 67 00 3d 17 a5 e0 3c 36 69 48 3d 42 d6 3e 3d
       0.031348296 0.027422471 0.048928462 0.04659105
000230 bb 46 93 bd fe a1 03 3c 44 3d 85 bd b6 40 83 bd
       -0.07191225 0.008034227 -0.06505826 -0.06408827
000240 a7 a3 6e bc f5 c2 88 bd 50 82 6e bb 4a 9b ad 3d
       -0.014565385 -0.0667781 -0.003639359 0.08476885
000250 8b 87 19 3d 87 e2 9e bc fe 63 ce bc ef 9f cb 3c
       0.03748278 -0.019395126 -0.025194164 0.024856536
000260 a3 a2 ce 3b fd 75 04 3d 4b 6b d5 bc 09 31 a0 3c
       0.006306009 0.032339085 -0.026052138 0.019554632
000270 a6 a9 35 bc 90 f7 10 bd 6e ab 67 3c ec 16 b3 3c
       -0.011087811 -0.035392344 0.014139993 0.021861516
000280 d8 45 3b 3d 56 85 ad 3c 93 1e 9b 3c 3c 86 19 3b
       0.045720905 0.021181744 0.018935477 0.0023425957
000290 a7 24 1a bd 86 4c 2f bd 97 6e 3f bc a5 c1 b1 3a
       -0.03763261 -0.042797588 -0.0116840815 0.0013561739
0002a0 3c d6 6d 3d 6f 28 2c 3d 75 1d 99 3c d8 cb ee bc
       0.058065638 0.042030748 0.018690804 -0.029149935
0002b0 8f 34 01 3d bb 89 45 3c 9c b4 a0 3c 60 3f 8f 3d
       0.031544264 0.012056763 0.019617371 0.0699451
0002c0 93 c3 d0 bc 03 10 08 bd 98 9b 4d bd e2 72 fa bc
       -0.025483882 -0.033218395 -0.050197214 -0.030572359
0002d0 5d d5 95 bd 29 0a 60 3d a6 22 6f bc 02 20 8c 3b
       -0.073160864 0.05469719 -0.014595663 0.0042762766
0002e0 07 72 a6 bc 60 64 dd 3c 59 0b 1c 3d bd be bc 3b
       -0.020318044 0.027025402 0.03809676 0.0057600425
0002f0 74 43 96 3d 30 59 48 bd 5d e5 45 bc 91 45 52 bd
       0.073370844 -0.04891318 -0.01207861 -0.051335875
000300 1a bb 21 3d 39 a1 36 3d 83 75 8b 3d 51 57 29 3d
       0.039485075 0.044587348 0.06809523 0.041343037
000310 71 c2 29 bc 79 22 7e bc 92 10 1b bb aa c2 8b 3d
       -0.0103613 -0.015511149 -0.0023661 0.068242386
000320 10 72 99 ba af 4d 39 3d 72 af 3c bd c4 d6 47 3d
       -0.0011706967 0.0452401 -0.046065755 0.0487888
000330 3e 75 b2 3d b0 4e 56 3d 40 fc 00 3c f5 f6 c2 bc
       0.087137684 0.052321136 0.007872641 -0.023799399
000340 c6 1f 88 bd 80 71 41 bc 95 97 55 3b cd c4 08 bd
       -0.06646685 -0.011806846 0.003259157 -0.03339081
000350 ad fc b9 bc 91 3f b8 bc af 60 d7 bd a1 ed 8f bd
       -0.022703493 -0.022491248 -0.10516488 -0.07027746
000360 c9 31 eb bc 3c 71 51 3c 5b 89 e9 3b ac a2 29 3d
       -0.028710263 0.012783345 0.0071269698 0.0414149
000370 1f 6a 07 3d 12 64 80 3c a4 52 03 3d 9b f8 c0 3c
       0.03306019 0.015672717 0.032061234 0.023556044
000380 ae a2 4b bd c6 53 8a 3d b8 27 5e 3d 92 9c a0 3d
       -0.04971569 0.0675426 0.054237098 0.078423634
000390 4b e3 94 bd b3 cd 89 bd f0 c1 61 3c aa be 49 bd
       -0.07269915 -0.06728687 0.013779148 -0.049254097
0003a0 0d 1e 32 bd 10 02 09 3d be a8 97 3c 22 58 43 bd
       -0.04348569 0.033449233 0.01851308 -0.047691472
0003b0 56 4a 8a 3d 3c e1 1b 3c 89 44 3a 3d 26 f6 19 bd
       0.0675246 0.009514149 0.045475516 -0.03758826
0003c0 79 e8 36 bd 01 25 cf bc 02 aa f2 bb 51 83 5c bd
       -0.044655297 -0.0252862 -0.0074055204 -0.05383617
0003d0 30 2c 21 bc 80 75 97 bd 18 e7 7c bd 78 3a 36 bc
       -0.009837195 -0.07395458 -0.061743826 -0.0111223385
0003e0 de d9 fc 3b b7 6e 82 bd 2d c5 e5 3c 98 0a 03 bd
       0.0077164015 -0.063687734 0.028048122 -0.031992525
0003f0 70 81 95 3c 1c 69 ea 3c 60 86 32 bd 9f db d9 bb
       0.018250197 0.028614573 -0.04358518 -0.0066484953

global_block.conv_time.conv.0.bias f4 [8]
000000 a5 a0 14 b6 b2 d5 02 3d f9 fa 18 3c 28 b6 c0 3c
       -2.2147226e-06 0.031942077 0.00933718 0.023524359
000010 6f 85 04 bd 20 b1 23 bd ad ce fe 32 8f 43 15 3b
       -0.032353815 -0.03996384 2.9663477e-08 0.0022775864

global_block.conv_time.conv.1.weight f4 [8]
000000 4b 14 51 3f a2 05 83 3f 5b c1 61 3f 5f fc 62 3f
       0.8167159 1.0236094 0.8818566 0.8866634
000010 a3 73 71 3f 95 54 85 3f 97 51 63 3f c2 e1 75 3f
       0.9431707 1.0416437 0.8879637 0.96047604

global_block.conv_time.conv.1.bias f4 [8]
000000 aa 3c 61 bd 15 8b 8f bb 21 39 dc 3c c2 84 32 bd
       -0.054989494 -0.0043805935 0.02688271 -0.04358364
000010 b5 0e 51 3d a2 80 2a bd f6 0f 6c bb 04 02 1c 3d
       0.051039416 -0.04162658 -0.0036020256 0.03808786

global_block.conv_time.conv.1.running_mean f4 [8]
000000 7d a1 0e 3c 53 76 14 3d e4 e4 4a 3c df 23 04 3c
       0.008705494 0.036245655 0.012383673 0.008065193
000010 6d 75 51 bd 2e e4 0d bd 47 a3 a9 3b 8e 25 6f bb
       -0.051137377 -0.034641437 0.005176935 -0.003649089

global_block.conv_time.conv.1.running_var f4 [8]
000000 a6 15 e5 40 09 18 23 41 d1 24 2c 41 d3 eb da 40
       7.1588926 10.193368 10.758988 6.841287
000010 63 a3 21 41 7d b7 42 41 1b f0 3f 41 bc ab 83 41
       10.102389 12.169797 11.9961195 16.458855

global_block.conv_chan.conv.0.weight f4 [8, 8, 11, 1]
000000 ca a3 f8 bc 4f 1d ed 3c fa 9a b8 3c 56 20 14 bd
       -0.030351538 0.02894464 0.022534836 -0.03616365
000010 60 e1 cc 3c a1 ec 86 3c 6b 3c 1d 3d 7d bb 5e bc
       0.02500981 0.016470255 0.038387697 -0.013594505
000020 cf 08 a5 bb 17 14 51 bd 2f 4d d3 3c aa c2 dd 3d
       -0.0050364505 -0.05104455 0.02579364 0.10828145
000030 98 f2 e7 bc a8 01 e3 3c 52 b0 6e 3d 9d 6d 77 3c
       -0.02831392 0.02771075 0.05827362 0.015101817
000040 66 f8 fc bc 09 d6 95 bc 95 e2 9b bd fa 02 62 3d
       -0.030880164 -0.018290536 -0.076115765 0.05517862
000050 a9 ca 29 bd 8b d0 9e 3c ce 97 9d bd 23 b8 31 3d
       -0.041453037 0.01938655 -0.0769497 0.043388497
000060 6a 95 7d 3d 8e 07 ee bd 7f c6 eb 3b a0 4c 84 bc
       0.06191007 -0.11622535 0.0071952934 -0.016149819
000070 f6 2b a1 3d 52 4c 17 bc 3f 01 73 bd c6 89 2a bd
       0.07869713 -0.009234505 -0.05932736 -0.041635297
000080 0c bc 90 bc 44 a1 db 3d a5 b5 44 bc e4 9a 07 bd
       -0.017667793 0.10724118 -0.012006198 -0.0331067
000090 1f 60 e1 bb df 16 1a 3d 52 1b 2b 3c 8a 2b 69 3c
       -0.0068779136 0.037619468 0.010443525 0.014231572
0000a0 20 1f 9b bd c3 67 c9 bc bd bc 5b 3c e0 a8 de 3c
       -0.07574296 -0.02458561 0.013411698 0.027180135
0000b0 58 76 ed bb fb d1 3c 3d 1a 89 82 bd 9e e6 ce 3c
       -0.0072467737 0.04609869 -0.06373806 0.025256451
0000c0 d7 fd d0 3b bc 3a 21 3d 6c 4b b2 3d 7e da 95 3c
       0.0063779163 0.039362654 0.08705792 0.018292662
0000d0 11 33 72 3d 92 ab c2 bc cb 73 af bd 13 97 f0 3c
       0.059130732 -0.023763452 -0.08567008 0.029368913
0000e0 c7 3b 3b 3d e1 25 7e 3d 8a bd d3 3a 33 29 21 bd
       0.045711305 0.062047843 0.001615451 -0.03934593
0000f0 7b 55 02 3e 0a 9e 98 3d 6f 9d b7 3d 3b 07 07 bd
       0.1272792 0.074520186 0.08965575 -0.03296588
000100 bf f2 25 3d e0 0d 7b bd e6 38 89 3c 6d 29 6a 3d
       0.040514704 -0.06129253 0.016750764 0.057168413
000110 43 ed 28 3d e7 91 e9 bc 69 cb e3 bc 5c d1 34 bd
       0.041241895 -0.028511954 -0.027806954 -0.044144973
000120 3a 86 70 3d 6f 10 ef 3d a2 22 6a 3d ec ef 6f 3d
       0.05872176 0.11673056 0.057161935 0.058578417
000130 b5 a9 5d bc 17 51 78 bd a5 8b 75 bd 6f fd 00 bd
       -0.013529231 -0.06062421 -0.05994763 -0.031491693
000140 96 0f 93 3b 77 cb 24 bd 32 0b ac 3d 67 05 60 3d
       0.004487942 -0.0402331 0.08400573 0.054692652
000150 a9 15 78 bd 8e b8 af bc 7a 4c 50 bd 95 f9 05 bd
       -0.06056753 -0.021450307 -0.050854184 -0.032708723
000160 13 ad 8b 3d 10 67 2e bd 83 12 e0 bc 0d a2 b5 3a
       0.06820121 -0.042578757 -0.027352577 0.0013857499
000170 53 32 8e 3c 75 72 9f bc 87 13 ee 3c 61 cb 5f bd
       0.01735798 -0.019463757 0.029062046 -0.054637317
000180 c6 72 9c 3d 17 36 81 3d 10 ae f3 bc 09 56 55 3d
       0.07639079 0.06309145 -0.029746085 0.052084003
000190 5d e6 b1 bc 1d fb 07 3d e6 63 d2 bc 69 79 51 3d
       -0.021716291 0.033198465 -0.0256824 0.051141176
0001a0 8e d2 2d bd 29 cf 76 bd 4c 1d b0 3d 10 36 b8 3d
       -0.04243713 -0.060256157 0.08599338 0.089946866
0001b0 4c b4 9b 3b 58 94 e6 bc 0a 48 24 3d 07 86 2b be
       0.0047517177 -0.028146908 0.040107764 -0.16750346
0001c0 e5 f9 39 bd 89 a3 0c 3b 1b 20 5e 3d e1 ad 68 3d
       -0.045404334 0.002145978 0.054229837 0.05680645
0001d0 3a 03 ce bd 67 11 62 bd 4e ca 85 bd 1e 8a 62 3d
       -0.10059209 -0.055192377 -0.06532727 0.0553075
0001e0 dc 36 a8 3d c5 d4 29 3d e0 ab ae 3d 51 74 bc 3c
       0.082135886 0.04146268 0.08528876 0.023004683
0001f0 d1 32 2f bd 92 54 ab bc 48 01 b0 bd bd 3d 14 3c
       -0.04277307 -0.02091435 -0.085939944 0.009047923
000200 9e 24 10 3e 27 ff 8e 3d b4 91 14 bd 16 73 b3 bd
       0.14076468 0.0698226 -0.036271766 -0.08762185
000210 aa 75 52 3d 1c 80 48 3d fb 93 4f bd 54 cd 67 bd
       0.051381744 0.0489503 -0.050678235 -0.0565923
000220 0b c5 f8 ba df 0c a0 bd 5b 62 c0 3d 38 ca b2 3d
       -0.0018979622 -0.07814955 0.0939376 0.087299764
000230 1a 34 81 3d 73 a8 10 bd 1a 32 43 bd a7 7e 18 bd
       0.06308766 -0.035316896 -0.047655202 -0.03723016
000240 0f c7 b7 3d 74 d5 f0 3b 80 d4 c5 3d 8c d2 dc bd
       0.08973514 0.0073496643 0.09659672 -0.10782346
000250 31 d0 c7 3a bd 58 e0 3d ff 81 07 bd 29 b1 62 bd
       0.0015244541 0.109544255 -0.03308296 -0.055344734
000260 b7 eb 76 bd 98 ef 60 3d d6 4e c7 bd b8 73 f6 bd
       -0.06028339 0.054915994 -0.09731834 -0.1203379
000270 2a d7 7e 3b aa 7f 1d 3e 2c fa 4d 3d f6 fb 0a bd
       0.0038885572 0.15380731 0.05028741 -0.033931695
000280 96 8d 02 bd 93 13 23 3c 7c 97 8b b9 e6 8b 27 bd
       -0.031873308 0.009953397 -0.0002662501 -0.040904902
000290 16 8a 90 3d 5c 4c 4a 3d 76 c5 a6 3d 2f c2 99 ba
       0.07057588 0.04938923 0.081431314 -0.0011730845
0002a0 a9 10 c5 bd 53 73 ea bd 3d ec 0b 3d ad bc 66 3c
       -0.09622318 -0.114477776 0.03416084 0.01408307
0002b0 30 0b ca 3d 2b 5a aa bc 40 cb 4f bd 6f f0 67 bd
       0.09865415 -0.020794949 -0.050730944 -0.05662578
0002c0 cf d1 af bd 71 cb 7d bd b3 f4 8c bd be 85 aa 3d
       -0.0858494 -0.061961595 -0.0688261 0.083262905
0002d0 99 64 a7 3d 4e 2d 88 bb f7 cc e2 bd 1b f2 cf 3c
       0.08173484 -0.0041557914 -0.1107425 0.025384
0002e0 75 56 8e 3c 0c 5d a7 3c 44 c1 fe bb e8 91 8a bd
       0.01737521 0.02043011 -0.007774504 -0.06766111
0002f0 ba 01 c3 bd 80 1f ae bc ec af 2a 3d c5 32 b3 3d
       -0.09521814 -0.021255255 0.04167168 0.08749918
000300 7a cf 9f bc 95 45 89 bc 1b 5b cf 3d 5c 46 a7 3d
       -0.019508112 -0.016756812 0.10124799 0.08167717
000310 4a e1 9b bc 89 a8 0f 3d d5 83 44 3d 2e aa d2 3d
       -0.019028325 0.035072837 0.047977287 0.102863654
000320 55 0c b3 bd b5 76 5b 3c f6 8f b6 bd a1 f5 ce bd
       -0.087425865 0.013395001 -0.08914177 -0.10105444
000330 21 60 09 3d 08 07 99 3d f5 be 30 3d 1f 70 73 ba
       0.03353894 0.07472044 0.04315086 -0.00092864217
000340 7d 33 43 3d f1 28 62 bc 7d 49 41 bd 3a d9 b6 bc
       0.047656525 -0.0138037065 -0.047189225 -0.022320379
000350 5b 89 5d bc 32 7a 0c bc f6 c0 1b bd e0 14 a1 3c
       -0.013521518 -0.0085740555 -0.03802582 0.019663274
000360 1f c0 c5 3d 60 15 68 3d 72 26 18 bb 9f 2b 99 bd
       0.09655785 0.05666101 -0.0023216275 -0.07479023
000370 53 96 2e bc d5 3a c0 bd 3e bf 31 3d 9b 30 ed bc
       -0.010655957 -0.09386221 0.043395273 -0.028953841
000380 04 a4 35 3c d9 52 6a 3d 57 0c d7 bd 05 dc 9a 3d
       0.011086468 0.057207916 -0.105004005 0.07561497
000390 e6 66 78 3c 43 d0 e5 bc eb 10 03 3b cd 5e 99 3b
       0.015161252 -0.028053408 0.0019999098 0.0046804906
0003a0 a0 93 20 3d b4 89 1b bc 54 a4 c1 3c c8 9f 33 bd
       0.039203286 -0.00949328 0.023637928 -0.04385355
0003b0 64 b2 24 3b 72 3f 04 be 96 d8 cf bc a1 2f 49 bd
       0.0025130743 -0.12914827 -0.02537183 -0.049117688
0003c0 98 da 97 3d b5 71 e3 3c 4b fa 1d bd 8b 16 97 3d
       0.0741474 0.02776418 -0.038568776 0.073773466
0003d0 46 25 cb bd 68 06 45 bd b4 44 74 bd 93 8b c5 3b
       -0.09919219 -0.048101813 -0.059635833 0.0060286014
0003e0 a6 de d7 3d 4c bd 80 bd 16 ea 76 3d 60 d6 20 3d
       0.10540514 -0.062861055 0.060281835 0.039266944
0003f0 48 ca e4 bc d0 c7 a6 bd db 31 d3 bb 7f 24 4c bc
       -0.027928486 -0.0814358 -0.006445152 -0.012459873

global_block.conv_chan.conv.0.bias f4 [8]
000000 7a 04 26 32 39 eb b2 3c 30 c4 e6 ba b7 84 77 bc
       9.66349e-09 0.021840679 -0.0017606076 -0.015107325
000010 fd a7 89 3d a7 50 5f bd e1 16 47 34 93 19 02 3b
       0.06721494 -0.054520275 1.8541643e-07 0.001985167

global_block.conv_chan.conv.1.weight f4 [8]
000000 c3 e7 59 3f 62 59 85 3f dc 48 64 3f 51 ca 6c 3f
       0.85119265 1.0417902 0.89173675 0.9249621
000010 32 cf 76 3f dd 08 74 3f 19 25 64 3f 79 52 7e 3f
       0.96409905 0.95326024 0.89119107 0.99344593

global_block.conv_chan.conv.1.bias f4 [8]
000000 5a 09 26 be 98 5c 79 bc ec 3c f3 bd 72 08 a0 bd
       -0.16214505 -0.01521983 -0.11876854 -0.07814111
000010 89 5c 18 bd 4a 39 cf bd e6 a3 a8 bd 9d b6 b9 bd
       -0.037197623 -0.10118349 -0.08234386 -0.09068034

global_block.conv_chan.conv.1.running_mean f4 [8]
000000 3c aa cc 3d a6 17 1c 3d 61 e1 f9 bd 40 7c 9c bd
       0.09993407 0.03810849 -0.12201191 -0.07640886
000010 e2 71 1b 3e ac 3c 18 bc e0 a6 c2 3c ec 0c 08 3d
       0.15180162 -0.009291809 0.023761213 0.03321545

global_block.conv_chan.conv.1.running_var f4 [8]
000000 3e f0 24 3e cb 63 30 3e b3 e0 dc 3d d2 35 b4 3d
       0.1610727 0.17225568 0.107850455 0.08799328
000010 fa 37 52 3d 01 39 bb 3d 6c f7 5f 3d 1b 46 ab 3d
       0.051322915 0.09141732 0.05467932 0.08362981

local_block.conv_time.conv.0.weight f4 [8, 1, 1, 51]
000000 90 09 8c bc bf 03 35 3d 23 13 d6 3c 63 3d 9e 3c
       -0.017094404 0.044193026 0.026132172 0.01931638
000010 ab 3f 9f 3c 5b 6d 8c bd 2b d8 2a 3d c9 97 2d bd
       0.019439539 -0.068567954 0.04171006 -0.04238108
000020 5e ac 85 3d 3e 55 0e 3c 7d 85 93 bc d0 40 48 3d
       0.06527017 0.0086873155 -0.018007988 0.048889935
000030 b1 c3 13 3e 72 b8 a0 bd 09 07 53 bd 83 d1 f5 bd
       0.14430119 -0.0784768 -0.05152038 -0.12002852
000040 65 d3 2e bd 19 64 25 3e aa 2a 3a 3e d3 72 b8 3d
       -0.04268207 0.16151465 0.18180338 0.09006276
000050 4a 6f 95 bd eb 51 c2 bc 38 c2 57 bd 16 cd 38 bd
       -0.07296617 -0.023720702 -0.052675456 -0.04511746
000060 40 97 5e bc d5 d6 2a 3d 12 25 3d bd a0 b7 55 bd
       -0.0135858655 0.041708786 -0.04617793 -0.05217707
000070 7c 98 13 3d f6 ea b2 3d 46 75 a5 bc 68 93 86 3c
       0.036034092 0.087362215 -0.020197522 0.01642771
000080 71 5b 8d 3c f3 0e 84 bd e2 80 13 3e 07 c3 18 3e
       0.017255517 -0.06448164 0.14404634 0.14918147
000090 87 60 2c 3d ff 83 21 be 7d d5 89 bd 6b cb ea 3c
       0.042084243 -0.15773009 -0.06730173 0.02866145
0000a0 fb 1c 63 3d 44 57 01 be b2 ee 53 3d fe 6a 9d 3d
       0.05544756 -0.12630945 0.05174131 0.07686423
0000b0 e7 a9 4b 3d fa 24 2e bd 68 e0 08 bc 09 5a 77 bd
       0.04972258 -0.042515732 -0.008354284 -0.0603886
0000c0 4f b7 ec bc d1 2c 9a 3d f6 d2 7a bd 98 9a c6 3c
       -0.028896002 0.07528079 -0.061236344 0.024243638
0000d0 0d d7 4b bd bc fe 33 bc 45 35 65 bc 24 9f 91 3c
       -0.049765635 -0.010986026 -0.013989751 0.01777608
0000e0 72 64 a2 bc 39 b7 52 bc fb 22 14 3d ed 12 af bd
       -0.019823287 -0.0128610665 0.036166172 -0.08548532
0000f0 d7 77 d9 3c 37 b1 c8 bd 47 dd 57 3d 3d 88 b9 3d
       0.026546402 -0.09799426 0.05270126 0.090591885
000100 59 52 fc 3c e4 84 45 38 4f 88 f3 bc 9e 7c ed 3c
       0.030800985 4.7092224e-05 -0.029728083 0.028990086
000110 79 32 d5 bb fa ee 7b 3b 78 92 46 ba dc 7f 98 bc
       -0.006506261 0.0038442002 -0.0007574926 -0.018615656
000120 51 7a 6f 3d fd 83 cf bd 88 f6 50 bd 0a 8d 9c 3d
       0.05846626 -0.10132597 -0.05101636 0.076440886
000130 0b 75 db bc 47 40 35 bd 11 06 10 3d 97 a0 d3 3d
       -0.026789209 -0.044250753 0.035162035 0.103333645
000140 fa c2 27 3d 84 75 1e bd 22 e3 41 3d 30 56 3e ba
       0.04095743 -0.03868629 0.04733575 -0.0007260768
000150 53 b7 65 3d 0f c8 ca 3d a6 9a ea bc 3e 88 43 3c
       0.056083035 0.099014394 -0.028638195 0.011934338
000160 60 39 49 3c 49 d5 b3 3d 74 92 c7 3d b0 5c 18 3d
       0.012281746 0.08780915 0.097447306 0.03719777
000170 82 a3 3b bb 98 f9 d0 bd eb e1 8e bd 00 75 88 ba
       -0.0028631394 -0.10203856 -0.06976684 -0.0010410845
000180 bd 74 e6 3d 22 9f 12 bc b3 ba 28 3c 5d b6 9b bd
       0.11252735 -0.008949073 0.010298419 -0.076031424
000190 1c bb 20 3c 41 ab a5 bd 19 91 33 bd 0c 41 86 bd
       0.009810235 -0.08089305 -0.043839548 -0.065553755
0001a0 2b cd bf 3d b5 f2 55 bd e8 09 20 bd 9c 96 aa 3d
       0.093653046 -0.052233417 -0.039071947 0.08329508
0001b0 54 00 88 3d 7a 57 44 3d 8a 20 f8 3d f0 45 96 bc
       0.066406876 0.047934987 0.12115581 -0.018343896
0001c0 21 13 a5 3d 23 3d 7e bc c1 2a a3 bd 52 3c 4b bd
       0.08060289 -0.015517506 -0.07967139 -0.049618073
0001d0 20 78 f1 bc 1a e3 95 3b cc 0a 41 bc 8e 7c a1 bc
       -0.029476225 0.0045741918 -0.011782359 -0.019712713
0001e0 3f 0c 06 be 8e e0 c7 3d e2 f7 1a 3e bb f9 a6 3d
       -0.13090609 0.09759627 0.15133622 0.08153101
0001f0 5a b0 f5 3d 7c f0 0d bc 42 46 49 3c 16 b1 03 be
       0.11996527 -0.008663293 0.012284817 -0.12860522
000200 a4 d0 01 bd 57 87 ad bd 14 34 af bd 2e 6d d0 3b
       -0.031693116 -0.0847308 -0.08554855 0.0063606715
000210 6f 85 5e bd fb ad ab bd 91 3d 33 3d 42 7d 29 3d
       -0.05432647 -0.083827935 0.043759886 0.04137922
000220 a9 c4 41 3e 10 fb 9b 3d 61 66 91 3d 4e 47 8c 3d
       0.18922676 0.07616246 0.07099605 0.06849538
000230 07 f4 8b bd ca 23 9a 3d eb 7c fb 3d 0f 5a 9b bd
       -0.06833654 0.075263575 0.122796856 -0.07585537
000240 56 92 11 be 85 a6 84 3d a4 6e 2e bd 1f 20 e1 bd
       -0.14215979 0.064770736 -0.042585984 -0.10992455
000250 7b 33 13 be 6c 00 60 3d 1c fa 8b 3d 6b 32 f0 bd
       -0.14375107 0.054687902 0.06834814 -0.117283665
000260 ca 38 89 bd ad 00 a5 bb d9 ad d4 3b f5 24 d4 3c
       -0.06700285 -0.005035481 0.006490451 0.025896529
000270 9a 43 a1 3c a7 fa 8a bc bb 27 ae bd 77 49 95 bb
       0.019685555 -0.016965223 -0.08503672 -0.004555877
000280 84 fe 1f 3c 8a 58 b6 3d 3e db 36 bd 7c b0 b0 3c
       0.009765271 0.08903606 -0.04464268 0.02156853
000290 04 eb 15 3d 5c fa 05 be 58 92 84 bc 8d 05 f7 3d
       0.03660108 -0.13083786 -0.016183063 0.120616056
0002a0 6c 0d 99 bc bc 68 15 3d ef de 69 bc 52 fe ab bc
       -0.018683158 0.036476836 -0.014274343 -0.020995293
0002b0 20 98 55 3d 1f 15 92 bc 78 f7 47 bd 36 bd b0 3d
       0.05214703 -0.017832337 -0.04881999 0.08629839
0002c0 75 ff 14 bc 25 a7 88 ba 34 32 12 3d b9 27 31 bd
       -0.009094109 -0.001042579 0.03569241 -0.043250773
0002d0 54 0b 63 bd c1 56 63 bc 1e a5 3f 3e 5e 43 fa 3c
       -0.055430725 -0.013875664 0.18715331 0.030549701
0002e0 b6 95 9a 3d e9 e6 c4 bd 52 ff 0d 3d 7a 16 1e 3d
       0.07548086 -0.09614355 0.03466732 0.038595654
0002f0 b5 f3 28 bd a1 92 96 bd b5 3d c4 3c 50 1c 00 bc
       -0.041248042 -0.07352186 0.023955205 -0.00781925
000300 e5 e0 0c bd 60 36 00 bd 61 47 01 3e 70 16 07 bd
       -0.034394164 -0.031301856 0.12624885 -0.032980382
000310 25 34 40 3d 74 7a 03 be 7f f7 ea bd da 76 69 3d
       0.04692473 -0.12839681 -0.114729874 0.05699811
000320 98 e7 70 bb 1b 50 f7 3d 1f 94 df 3c cb 97 a3 3d
       -0.0036759134 0.12075826 0.02729231 0.079879366
000330 9b a0 1a bd 7d 83 9f 3d aa e6 8a bd 7e 73 d8 bc
       -0.03775082 0.07788751 -0.06782277 -0.026422258
000340 3e 66 0a bb 76 30 28 bd f6 14 3c 3d 09 1c 3f bd
       -0.002111807 -0.04106184 0.045918427 -0.046657596
000350 10 66 b8 3c 45 cd cb 39 a8 a3 f4 bd b7 15 b8 bd
       0.022509605 0.00038872115 -0.119452775 -0.08988517
000360 38 31 9a bd bb ea 42 3d b5 77 53 3d 6f be 02 b9
       -0.07528919 0.047587138 0.051627833 -0.00012468708
000370 e2 73 d1 3d 56 b0 b4 bd 56 68 e2 3c 0b 92 18 3d
       0.10227181 -0.08822696 0.027637642 0.037248652
000380 4a 0e 24 be 28 b9 d6 bd 9d 61 5b bc 3f 85 7f bc
       -0.16021076 -0.104845345 -0.013389972 -0.015595733
000390 fb 38 e7 bc ef c3 ca 3b 24 ae e1 3d cb 59 6d 3c
       -0.028225413 0.006187908 0.11019543 0.01448674
0003a0 44 b4 85 bd a1 90 35 bc eb 91 67 3d 81 8e 54 3d
       -0.065285236 -0.0110818455 0.056535643 0.051893715
0003b0 b2 6a 12 3c 2f ab 66 3d 5e 4d 12 bd f5 5b 67 bd
       0.008936571 0.056315597 -0.035718314 -0.05648418
0003c0 76 3a 73 3d 67 5f f2 bd ae 10 0a be e2 30 e5 3b
       0.059381925 -0.11834603 -0.13482925 0.0069943527
0003d0 e2 31 af bd 3c 88 4c bd 4e ec 18 3e 3d be ef 3d
       -0.08554436 -0.04993461 0.14933893 0.11706207
0003e0 0d 13 70 bd 40 20 de 3c 54 f0 44 bd 7a bb 8e bc
       -0.05861192 0.027114987 -0.048080757 -0.01742338
0003f0 8e 43 51 bd c7 4f 8c 3c 6e e9 d0 3c d7 e9 0a bd
       -0.051089816 0.017127885 0.025501933 -0.033914413

local_block.conv_time.conv.0.bias f4 [8]
000000 62 bb ba 3c 3d 43 a4 bd 7c b7 e1 3c 87 18 43 3c
       0.02279443 -0.08020637 0.027553312 0.011907703
000010 bb 2d 9d 3c cc 17 72 3d 51 2c c0 3d 74 c9 d6 3c
       0.019186845 0.059104726 0.09383453 0.026219107

local_block.conv_time.conv.1.weight f4 [8]
000000 67 7e 7b 3f 34 55 65 3f 9b 94 86 3f 4f 23 73 3f
       0.9823975 0.89583135 1.0514101 0.9497575
000010 7e 51 5b 3f 49 35 6f 3f c6 91 66 3f 34 df 72 3f
       0.8567122 0.9344068 0.9006618 0.9487183

local_block.conv_time.conv.1.bias f4 [8]
000000 97 e9 34 be aa 20 f7 bc 29 c2 85 3d 39 9c 72 bc
       -0.17667232 -0.030166943 0.06531174 -0.014807754
000010 75 40 fd bb c9 70 c9 3a fb ad 12 3c fa 5b 82 3c
       -0.007728631 0.0015368696 0.008952613 0.015912998

local_block.conv_time.conv.1.running_mean f4 [8]
000000 ae 3f d9 3c 54 4b 8a bd 3e a6 31 3d 2f 79 01 3c
       0.026519623 -0.06752649 0.04337143 0.007902428
000010 5d 51 66 3c 71 6e 93 3d 1a 9c da 3d 8b fb 05 3d
       0.014057484 0.071987994 0.10674305 0.032710593

local_block.conv_time.conv.1.running_var f4 [8]
000000 34 84 2e 41 5b 1d cd 40 4e 11 8a 41 33 e0 d0 40
       10.907276 6.4098334 17.25845 6.527368
000010 8a d3 f7 40 2f 96 01 41 34 0c 9f 40 73 a8 0b 41
       7.7445726 8.099166 4.9702396 8.728625

local_block.conv_chan.conv.0.weight f4 [8, 8, 11, 1]
000000 10 c2 f2 bc 2d ed 52 3d 6e 88 63 bc 45 80 c5 3c
       -0.029633552 0.05149572 -0.013887508 0.024109015
000010 ba 33 14 bd ba e9 4a bc b8 5f 91 bc a4 3b 33 3d
       -0.036182143 -0.012384826 -0.017745838 0.04375805
000020 3f 26 1b 3a af ad 38 3d 51 fb fd bc dd 91 01 3d
       0.000591848 0.045087513 -0.031003626 0.031633247
000030 f1 d6 d0 3d bb 60 a0 3d a9 c8 e3 bb 4b c6 fa 3b
       0.10197247 0.0783095 -0.006951411 0.007653033
000040 e2 21 2d bc 08 6b 97 bd ac c6 a8 bc 79 fd 03 3c
       -0.01056716 -0.073934615 -0.020602547 0.008056038
000050 c0 cc 57 3c fd bd 82 bb 01 1e 10 bd 27 c3 37 3d
       0.013171375 -0.0039899335 -0.035184864 0.044863846
000060 1f a6 6b 3d 1d c1 46 bc 1b 4a 3d 3c cc ed 49 bc
       0.057531472 -0.012131003 0.011553313 -0.012324762
000070 18 c2 20 bd e0 51 9e bd 22 d6 87 bd d0 43 89 3d
       -0.039247602 -0.0773046 -0.066326395 0.06702387
000080 72 02 b0 bd 1a 2a 26 bd a2 64 1c bd 84 9d ab bb
       -0.085942164 -0.040567495 -0.03818191 -0.005237283
000090 d4 75 69 3d 05 83 80 3c 00 1c 3b bc 60 c4 8e 3c
       0.056997135 0.015687475 -0.01142025 0.017427623
0000a0 b2 8b 2c 3d c4 87 af bd 00 9c 67 bd 32 fa 9d 3d
       0.04212541 -0.08570817 -0.056545258 0.077137366
0000b0 77 8c 6e 3d ac 7f c9 3d ea 13 46 bd 6a b0 86 3b
       0.058239426 0.098388046 -0.048358835 0.0041103857
0000c0 e4 46 09 bd d9 3a a2 bd 05 0d d6 3d 36 b8 40 3e
       -0.033514872 -0.079213805 0.10451702 0.18820271
0000d0 1d 2e 88 3b 25 50 82 3c d7 5d 44 3c 2a ae 47 3c
       0.0041558878 0.015907357 0.011985264 0.01218752
0000e0 3c 4c ff 3d e0 0d 57 3d df d8 cc 3d f3 70 9a 3c
       0.124657124 0.052503467 0.100023024 0.018852687
0000f0 eb 03 f1 bc 26 7b ab 3c 22 d9 d4 bd c4 f8 c9 bd
       -0.029420814 0.020932745 -0.10392977 -0.098619014
000100 1a 7f e7 3b 2e 33 4c 3b e7 2c 28 3c 65 27 52 3d
       0.0070647122 0.0031158435 0.010264612 0.0513071
000110 8a 81 c9 bc cd 7a e5 3c 5b e4 d8 bc 5c 7d ca bc
       -0.024597902 0.028012658 -0.026476076 -0.02471798
000120 6c 77 27 3c 7b 37 d8 bb a6 78 ad bb 01 ce 94 bc
       0.0102213435 -0.0065984107 -0.0052939234 -0.018164637
000130 fc ed dc 38 07 ff 05 3d 83 2d 77 3d 71 39 be 3c
       0.000105347455 0.032713916 0.060346138 0.02322075
000140 96 05 30 bc 5d f9 84 3c 73 08 de 3a 1b 2a ce bc
       -0.010743519 0.016232187 0.0016939774 -0.025166562
000150 db 60 0c bd 2c 37 59 bb a0 83 af bc 4b 96 37 bd
       -0.034272056 -0.0033144457 -0.021425068 -0.044821065
000160 aa ef 0c bc f2 e8 8f bb a4 6f 1c 3d be 16 97 bd
       -0.008602062 -0.004391783 0.038192406 -0.073773846
000170 be 89 19 3d de 69 ec bc c4 d4 92 bb ba 46 d9 3d
       0.037484877 -0.028859075 -0.00448093 0.10609193
000180 f5 cc 07 bc 5f ae 7e 3d ad 05 ef bc 2b aa 95 bd
       -0.008288612 0.062178012 -0.029177511 -0.073078476
000190 5f 99 48 3c 4a 19 76 3c bd 50 31 3d 95 b1 41 ba
       0.012243598 0.015020678 0.04328989 -0.00073888275
0001a0 11 30 bd 3c bf 36 2a 3d 07 49 8f bc 58 af 1e bd
       0.023094209 0.041556116 -0.017490877 -0.03874144
0001b0 f9 07 a1 3d 73 38 3e bd 35 e9 ab bd 0f 83 df 3d
       0.07862849 -0.046440553 -0.0839409 0.10913669
0001c0 9f b0 99 bd c3 55 ca bd d3 b2 dc bb 68 6a 92 bd
       -0.07504391 -0.09879639 -0.0067351847 -0.07149202
0001d0 7f 0c cb 3d d1 7e 57 3e 8b c4 29 3d 39 bd 52 bd
       0.09914493 0.2104447 0.041447204 -0.051449988
0001e0 6f b3 b1 bd 46 5b 0b 3d a5 b7 3b bd c5 ef 39 3d
       -0.08676802 0.034022592 -0.045829434 0.045394678
0001f0 6d cd 2f bd 2a f5 c2 3c bd a9 36 3d 5e 9d dd bd
       -0.04292052 0.023798544 0.04459547 -0.10821031
000200 39 b1 4b bd bc d3 5c bc a8 bb 15 bd db 96 f1 3d
       -0.04972956 -0.013478216 -0.036555916 0.117963515
000210 2e 9c b1 3b c9 31 0d 3d b3 af 7b 3d 1c 2b 9d bb
       0.0054202294 0.034471307 0.061446857 -0.004796399
000220 40 87 b8 3c 38 55 44 3d 56 52 5b bd 58 97 15 be
       0.02252543 0.047932833 -0.05354532 -0.14608514
000230 e3 c1 f3 ba 9d fc 03 bd 57 1f 07 3c 4f f9 98 3d
       -0.0018597211 -0.032223333 0.008247218 0.07469427
000240 69 bc 8a bd 59 bd 00 3c ce c0 fd 3c 8d be b3 bc
       -0.06774218 0.007857644 0.030975726 -0.021941448
000250 8d 5f 1b 3b 94 af 45 bc 63 83 3b bd 15 81 b7 bc
       0.0023708076 -0.012065787 -0.045779597 -0.022400418
000260 ec f4 74 3d be 19 74 bd 38 23 ce bc ae 14 43 bd
       0.05980389 -0.059594862 -0.025163278 -0.047627144
000270 fd a7 96 bd 2c 6b b0 3a e3 76 eb bc 2e 1d a7 bc
       -0.0735626 0.0013459674 -0.028743213 -0.020399656
000280 a2 b5 79 3d e1 2e 1e 3e b7 83 03 3d 46 2c 2c b9
       0.060964234 0.1544757 0.032108035 -0.00016419691
000290 e5 6e 29 bd 5d df 26 bd ba 7f 26 3d 92 44 35 bd
       -0.041365523 -0.04074036 0.040649153 -0.044254847
0002a0 6e b1 8d bd ed 93 95 3b 29 f6 11 bc 67 89 6a bc
       -0.06918608 0.0045647533 -0.008908787 -0.014314986
0002b0 34 60 0e 3e fe cd 5a 3c cb 59 d4 bc e1 b7 84 bd
       0.13903886 0.013354776 -0.025921723 -0.064803846
0002c0 47 53 b6 bb 1f 6f 24 bd e6 95 a6 bd cb 80 b1 3d
       -0.0055641267 -0.040145036 -0.081340596 0.086671434
0002d0 e3 87 5c 3d be 73 44 bd 17 99 cb bd b0 4c 49 3d
       0.05384053 -0.047961943 -0.09941309 0.0491454
0002e0 9e a7 04 3b cd 1f 75 3a c4 1b 08 bd 65 45 c4 bd
       0.002024151 0.0009350747 -0.033229604 -0.095835485
0002f0 6f 44 e3 bd 4a 35 a9 bd 2f b3 b1 3d 46 e0 9e 3d
       -0.11097037 -0.08262117 0.08676755 0.077576205
000300 e7 7d 6f bc dd bf f3 3b 5b 64 5f 3d d5 ae 56 3c
       -0.01461742 0.0074386434 0.054539066 0.013103207
000310 10 2b 6b bc 84 b7 98 3d c4 f5 87 bd 70 7b 1a be
       -0.014353529 0.07456878 -0.06638673 -0.1508615
000320 ac 70 66 3d 77 fd 19 3c 13 7a 80 3c 3b 8e e8 bc
       0.056259796 0.00939881 0.01568321 -0.028388133
000330 e7 fb 01 bc 2d fd b3 bd fd 86 39 3d 91 e3 2e bd
       -0.007933593 -0.08788524 0.04529475 -0.042697493
000340 8a 6e 17 bd 3f 9b c1 3c a2 df 3f bc 91 30 59 bd
       -0.036970653 0.023633597 -0.011711033 -0.053024832
000350 28 e2 16 3d 7d 8d 61 3d 42 40 92 bc 1e e6 ec bc
       0.036836773 0.055066574 -0.017852906 -0.028918322
000360 78 cb 6f bd 76 2f 72 bd e0 1a 75 3d be 28 1a bd
       -0.058543652 -0.059127294 0.059840083 -0.03763651
000370 c3 d2 73 bd ab 4b 32 bc ca d8 b4 bc b1 12 86 3c
       -0.05952717 -0.010882298 -0.02207603 0.016366335
000380 ce 95 4a bc 25 2b a4 3d 1a d2 95 bc 66 87 02 bc
       -0.012364818 0.08016042 -0.01828866 -0.007966852
000390 09 56 46 bd 03 d7 f0 bb ce 39 f2 bb 36 b5 30 bd
       -0.048421893 -0.00734985 -0.0073921448 -0.043141566
0003a0 1f bd df bd 1e 83 86 bd b6 2c f8 3c 65 04 90 3c
       -0.10924744 -0.06567977 0.030294757 0.01758022
0003b0 b3 75 5c 3c f4 1a ef 3c 26 d3 f0 bd 70 f5 3e 3d
       0.013455796 0.029187657 -0.11759023 0.046620786
0003c0 0e 20 68 b9 2c 84 33 3d 96 76 46 3c 61 7e f2 bb
       -0.00022137185 0.04382722 0.012113234 -0.0074003194
0003d0 3a a1 cd bd 6b dc df bd 31 de 1f bc 3f b6 b4 3d
       -0.10040517 -0.10930713 -0.009757564 0.08823823
0003e0 30 e4 6a bd 44 96 cb 3d 65 74 e6 bc 13 22 4f 3d
       -0.057346523 0.0994077 -0.028131673 0.050569605
0003f0 53 7b 13 bb af 0c 64 bc 8f 16 dc 3d f3 70 a4 bd
       -0.0022503927 -0.01391904 0.1074649 -0.08029356

local_block.conv_chan.conv.0.bias f4 [8]
000000 6d 80 11 b6 0c f4 dd bc 09 d2 ba 3c 81 9b 16 3d
       -2.1681437e-06 -0.02709391 0.02280523 0.036769394
000010 25 32 2e 3d 40 ae 8a 39 4f d2 4f 3d 6c 25 c8 ba
       0.04252829 0.00026451237 0.050737675 -0.0015269942

local_block.conv_chan.conv.1.weight f4 [8]
000000 c6 f2 6e 3f 56 a7 86 3f f0 6f 8a 3f ed 64 5b 3f
       0.9333919 1.0519817 1.0815411 0.85700876
000010 93 8b 7c 3f 83 b4 92 3f 3c b1 77 3f c6 9e 83 3f
       0.98650473 1.1461338 0.96754813 1.0282829

local_block.conv_chan.conv.1.bias f4 [8]
000000 00 60 97 bd 59 a3 b1 bd e0 c4 90 bd 36 eb 1a be
       -0.073913574 -0.08673734 -0.07068801 -0.15128788
000010 33 23 87 bd 13 38 c5 3c 78 3e 5f bd 7d 6d bb bd
       -0.065985106 0.02407459 -0.054502934 -0.091517426

local_block.conv_chan.conv.1.running_mean f4 [8]
000000 12 03 78 3d 9a af 59 bd ee d4 4a be 80 b3 e7 3d
       0.060549803 -0.053145982 -0.19807789 0.11313534
000010 33 70 e2 3c 37 59 8e 3d 09 8b 31 3d dc 20 15 bb
       0.027641391 0.0695061 0.043345485 -0.0022755181

local_block.conv_chan.conv.1.running_var f4 [8]
000000 c4 f8 a4 3d 86 22 43 3d 90 1b 03 3e 46 4c 15 3e
       0.08055261 0.047640346 0.12803483 0.14579877
000010 2f 26 ad 3d 1a bb 8f 3d 25 74 cc 3d 27 9b 41 3e
       0.084545486 0.07018109 0.0998309 0.18906842

atten.conv.weight f4 [1, 1, 3]
000000 dc 9d 8e bf 7a 4b 01 bf 73 8c 0c 3e
       -1.1141925 -0.50505793 0.13725452

tcn.network.0.conv1.weight f4 [16, 16, 16]
000000 2f 69 ef bc 25 4e 6c bc 35 bf 5e bc 2d 20 05 bc
       -0.02922496 -0.014422928 -0.013595392 -0.008125347
000010 d9 4a 08 bd 21 5f b0 3c 85 a3 5b bc e2 bc 84 bc
       -0.033274505 0.021529736 -0.013405685 -0.016203348
000020 6a c6 b1 bc 7e 6f 93 bc 92 0c c7 bc 13 3f fa bc
       -0.021701057 -0.0179975 -0.024297986 -0.030547654
000030 18 d8 7f 3c ff 0b e6 ba 31 be 27 3b 18 83 e9 bc
       0.015615486 -0.0017551183 0.002559554 -0.028504893
000040 6b 73 7e 3d 7e 31 ef 3a 25 26 f7 3c da c8 bd bc
       0.06212179 0.0018249003 0.030169556 -0.023167063
000050 53 fc 6a bc f7 57 5e bc 45 d8 45 bc 33 a4 8a bc
       -0.014342385 -0.013570777 -0.012075488 -0.016924
000060 83 48 dd bc 18 20 75 bd 1f 89 67 bd 15 76 9c bd
       -0.027012115 -0.05984506 -0.056527253 -0.0763971
000070 72 c7 c0 bb 0c 23 3c bd 43 11 6f bc 35 71 c4 bc
       -0.0058831507 -0.04593186 -0.014591518 -0.023979763
000080 21 f6 1a bd 90 2e e1 bc dd 95 c2 3b 08 bd cb 3c
       -0.037832383 -0.027488023 0.0059382753 0.02487041
000090 8d 89 09 3c 94 db 13 3d a7 47 19 bc 5f 23 6b bc
       0.008394611 0.036098078 -0.009355462 -0.014351695
0000a0 18 a5 dc 3c 6d a7 b5 bc 38 32 03 bd cf 1d 16 3c
       0.026934192 -0.022174561 -0.032030314 0.00916238
0000b0 5a 05 88 bb c2 0c 6d 3c 62 10 01 bc e2 03 9a b7
       -0.0041510286 0.014468374 -0.007877441 -1.8360039e-05
0000c0 ae 8d 4f 3d 01 15 87 ba d4 e7 4e 3c 9f e2 02 3d
       0.050672226 -0.0010305942 0.012628514 0.031954404
0000d0 c5 f7 1d 3d be 3d 19 3d eb 71 c2 bb 37 f7 a9 3c
       0.03856637 0.037412398 -0.0059339902 0.020747764
0000e0 70 83 b4 3b 85 94 b0 bc 97 bf e8 bc 3d 73 41 bb
       0.0055088326 -0.021555195 -0.02841167 -0.002951815
0000f0 a1 c5 99 3c a9 81 1d 3c 91 6b 59 3d d5 99 09 3d
       0.018770995 0.009613433 0.0530811 0.03359397
000100 6b 06 13 3d 7b 24 83 3c b8 2f 20 bb 8a 01 c5 bb
       0.035894793 0.016008606 -0.0024442505 -0.0060121464
000110 c2 9c 8e bc 5f 2b 44 3d 8d cc 5b 3b cb ec 99 3c
       -0.017408732 0.047892924 0.003353867 0.01878967
000120 cf 47 7c 3c a4 8f 07 bd a1 21 91 3a 4d 47 f1 3b
       0.01539798 -0.03309597 0.0011072644 0.007363236
000130 7b f5 e0 bc 08 fd 2f bc b1 96 07 3c 32 14 c9 3c
       -0.027460804 -0.01074148 0.008275674 0.024545763
000140 8b 40 c1 3c 72 8d 96 bc 64 f6 dd bc 56 15 90 bb
       0.023590347 -0.018377993 -0.027095027 -0.0043970747
000150 fb 93 45 bc 31 03 b4 3b a2 2b eb bc d5 b3 96 b9
       -0.012059207 0.0054935445 -0.02870733 -0.00028744215
000160 f0 6f 5d 3b d9 d7 f2 bb ea c3 8a b8 65 dc 67 3c
       0.0033788644 -0.007410985 -6.6168446e-05 0.014151667
000170 e8 1d 3f bd 43 4b a4 3c 35 8c 0b bc cd 7f 0e bc
       -0.04665938 0.020055419 -0.008517315 -0.008697462
000180 51 98 19 3c 26 1f 03 3d 30 9b 38 bc 5c 1a a6 bc
       0.009374694 0.032012127 -0.011267468 -0.020276241
000190 40 8f 16 3d 4a 82 07 3c 2a 58 51 bb 2f 6f c1 bc
       0.036757708 0.008270809 -0.003194342 -0.023612587
0001a0 ea 91 25 bc 7e 4f d8 bc 71 47 b9 bc c4 fd 52 3b
       -0.010105589 -0.026405092 -0.022617074 0.0032194713
0001b0 8d c4 6c bc a7 6e 8f bb 42 70 41 3b 37 4c 28 bc
       -0.014451158 -0.0043772045 0.0029516374 -0.010272077
0001c0 32 17 b3 bb e2 45 2e bd 3d d2 49 bc 1d 5b 03 bd
       -0.0054654116 -0.042547114 -0.012318191 -0.032069314
0001d0 4c 93 a0 bb f5 41 04 bc 3e f5 46 bd bb 87 71 bc
       -0.0049003717 -0.008072366 -0.048573725 -0.014741833
0001e0 c8 51 b4 3b 7d 0b 6b 3c 2f 23 82 3c f7 1e 35 3b
       0.005502913 0.014346001 0.015885917 0.0027636865
0001f0 0b dd 35 3c c6 3f 22 bc 6d e2 37 bd 0e 73 3f bc
       0.011100064 -0.0099029 -0.04489367 -0.011685146
000200 e1 46 0c bd ba 22 e1 bc 90 b9 9f 3a 80 84 26 bb
       -0.034247283 -0.02748238 0.0012186039 -0.0025408566
000210 83 d9 c7 bb 22 31 1e 3c 18 8a 3f 3d 68 ca ac 3c
       -0.0060989275 0.009655269 0.046762556 0.021092609
000220 cd 51 3d 3d ae 5a b0 3c 27 58 50 3c d6 28 d9 bb
       0.04622059 0.021527614 0.01271633 -0.0066271825
000230 c0 9c 35 bd c6 71 d3 bc d7 aa 95 bb ce e2 f8 bc
       -0.04433894 -0.025811087 -0.004567485 -0.030381586
000240 d0 04 8b 3c d8 fe 8b 3c 6a a4 15 3d 18 5e 2c bb
       0.016970068 0.017089292 0.03653375 -0.0026301201
000250 df c5 4e bc e9 7d f7 bc 75 16 f0 bc 71 aa 2e bd
       -0.012620418 -0.030211406 -0.029307583 -0.042643014
000260 e6 96 5c bd 0b 21 35 bd e5 74 39 ba 77 15 83 3c
       -0.053854845 -0.044220965 -0.00070746086 0.016001446
000270 52 26 e4 3c ed aa 2a 3d aa c0 4f 3d 90 1f e4 3d
       0.027850304 0.041666914 0.05072085 0.111388326
000280 53 b6 ca bb 49 2c 0e bc cd a9 88 39 c4 b8 80 3b
       -0.0061862855 -0.008677551 0.00026066453 0.003928276
000290 53 47 ca 3b 8b 3d a0 bc 4e b1 19 bc 2a 97 c5 3b
       0.0061730533 -0.019560596 -0.009380652 0.006029983
0002a0 cf 4c ab bc 28 3d a1 3c de 47 d7 bc bb f2 d4 bb
       -0.020910649 0.019682482 -0.026279386 -0.0064986623
0002b0 8e e1 4c bc 9f 7a a9 bc 91 8c d3 bb df 96 3c bc
       -0.012504948 -0.020688353 -0.006455966 -0.01151058
0002c0 a0 31 22 bc 81 e8 27 bc 64 62 37 bd 4b e2 85 ba
       -0.009899527 -0.010248304 -0.044771567 -0.0010214535
0002d0 e2 cf aa bc 11 c1 48 3b b7 7e ef 3a 31 54 20 3c
       -0.02085108 0.0030632655 0.0018272017 0.009785698
0002e0 82 da 56 bc 7f b5 8f 3c cb ff 7a bb ca 32 44 3b
       -0.01311362 0.017542599 -0.0038299437 0.00299375
0002f0 43 47 af bb d0 b6 04 bb 8f 93 91 38 7c 83 28 3c
       -0.005349071 -0.0020250566 6.941624e-05 0.010285255
000300 04 32 92 3a 3e a8 80 bb 00 ea 1f bb 61 73 15 3c
       0.0011153822 -0.003926306 -0.002440095 0.009121747
000310 e2 31 6e bb 9b f2 75 bc f2 13 a1 bc e9 9c 8f bc
       -0.003634565 -0.015011455 -0.019662831 -0.017530875
000320 0e 4c 5b bc cd 54 26 bc df 84 6f 3d e9 e2 0c 3c
       -0.013384832 -0.010152054 0.058476325 0.0085990215
000330 55 16 01 b9 7f 0d 23 bc 86 67 16 3c 87 90 b4 bc
       -0.00012310718 -0.009951948 0.009179955 -0.022041572
000340 0d 16 17 3c a4 38 36 bb c1 ec b3 b9 94 dd 64 bb
       0.009221566 -0.0027804757 -0.00034317936 -0.003492211
000350 a1 d4 b5 3b c4 97 73 bc 01 63 2c bd d0 51 25 bc
       0.005549029 -0.014867727 -0.042086605 -0.010090306
000360 7c 8a 69 bc f0 ca 34 bd 21 6b e9 bc 37 dc b9 3c
       -0.014254209 -0.04413885 -0.028493466 0.022688014
000370 32 56 0b 3d fb d0 08 3d 7f 48 65 bc d9 83 eb bb
       0.03401775 0.033402424 -0.013994335 -0.0071873483
000380 df 50 10 bd e2 94 ba 3b 8f fc 1f 3c a8 ce cb 3b
       -0.035233375 0.0056940177 0.0097648045 0.0062197037
000390 cb 9c c1 3c bc c9 1b bc 1e 03 ce 3c 30 54 ec bb
       0.023634335 -0.009508546 0.02514797 -0.0072121844
0003a0 b8 85 66 3d 29 1f 10 3c 23 77 70 3a 13 09 09 bc
       0.056279868 0.008796492 0.0009173026 -0.00836398
0003b0 4a 7b 98 bc 15 c5 f8 bc e4 71 12 bd b0 a6 6f bc
       -0.018613476 -0.030367414 -0.035753146 -0.014627144
0003c0 9b 87 bd bc be 1f 22 bb ae e5 bf bc 5e 3c 79 3c
       -0.02313595 -0.0024738158 -0.02342495 0.015212147
0003d0 5f 1a 8f 3c b1 1b 11 3c 27 61 fa 3c 02 5d b5 3c
       0.01746863 0.0088567 0.030563904 0.022139076
0003e0 48 b7 3a 3c 93 80 de 3b 9d 5c fe 3c e4 8c 2a 3d
       0.011396237 0.0067902296 0.03105002 0.04163827
0003f0 a6 3d cf 3c d0 b4 9c 3c ba c6 f5 bc 65 a8 53 bb
       0.025297951 0.019129187 -0.030001987 -0.0032296416

tcn.network.0.conv1.bias f4 [16]
000000 20 cf 11 b4 58 0b 22 b7 48 4d 08 3b 53 8b dd b3
       -1.3579529e-07 -9.658594e-06 0.0020798016 -1.03164574e-07
000010 57 8e 0a bb fb d6 d4 34 9c b6 a4 37 bc 8f 26 33
       -0.002114197 3.9644496e-07 1.9635358e-05 3.8780612e-08
000020 80 81 cc 34 02 b2 22 33 6c cc 05 33 8f 84 00 b2
       3.8092185e-07 3.788046e-08 3.1152396e-08 -7.480721e-09
000030 9e 58 fe 3b 15 75 b9 b2 ab 31 07 3c 99 f2 24 bc
       0.007762029 -2.1590077e-08 0.008251588 -0.010067605

tcn.network.0.bn1.weight f4 [16]
000000 3f 7e 83 3f b8 df 84 3f e2 ca 7c 3f 16 72 87 3f
       1.0272902 1.0380774 0.98747075 1.0581691
000010 67 6a 8d 3f d3 35 8a 3f c9 49 7a 3f 89 f3 84 3f
       1.1048096 1.0797676 0.9776884 1.0386821
000020 6a 8d 7d 3f 4f 72 83 3f a0 27 85 3f 8d c5 77 3f
       0.99043906 1.0269259 1.0402718 0.96785814
000030 fd ae 7c 3f 3e 23 80 3f 8f 17 82 3f 25 bf 7d 3f
       0.9870451 1.0010755 1.016344 0.9911979

tcn.network.0.bn1.bias f4 [16]
000000 63 25 17 be cd 45 5b be 9c b8 95 be 3c 7b 40 be
       -0.14760356 -0.21413346 -0.29242408 -0.1879701
000010 08 72 36 be c7 43 82 be d6 a0 3d be 2c af 09 be
       -0.17816937 -0.25442335 -0.18518385 -0.13445729
000020 27 94 2d be 04 44 80 be 58 bb 5b be 74 30 3a be
       -0.16951047 -0.25051892 -0.21458185 -0.18182546
000030 35 6f 60 be 25 b3 5b be 45 bf 27 be 80 e3 53 be
       -0.21917422 -0.21455057 -0.16381557 -0.20692253

tcn.network.0.bn1.running_mean f4 [16]
000000 c9 4c 21 bd 57 a3 5a bd 68 6e a6 bd 6d a4 22 bc
       -0.03937987 -0.05337843 -0.08126527 -0.0099268975
000010 8d 93 35 3b a1 bc 08 bd 04 8f e5 bc d4 bf bf 3b
       0.0027706355 -0.033383016 -0.028022297 0.005851725
000020 df e8 33 bd d6 7f f5 bc 90 5a d8 bc bf 13 69 bd
       -0.043923255 -0.029968183 -0.026410371 -0.056903597
000030 07 80 30 bd e0 19 25 bd a3 4f 22 bd 89 dc ec bc
       -0.043090846 -0.04030788 -0.03962673 -0.028913753

tcn.network.0.bn1.running_var f4 [16]
000000 fa c2 a9 3e 85 a8 cf 3e 6b db 92 3e a1 5b b4 3e
       0.33156568 0.40558258 0.28683028 0.35226157
000010 85 3e ac 3e dd dd 5c 3e 51 95 46 3e 79 b4 8c 3e
       0.3364145 0.21569009 0.19392897 0.2748144
000020 dd f1 93 3e 6d 98 b3 3e 70 2e 8e 3e 28 17 9e 3e
       0.28895465 0.3507723 0.27769804 0.30877042
000030 e7 c7 9b 3e b5 cd 9c 3e 90 b5 78 3e a3 d8 84 3e
       0.3042595 0.30625692 0.2428801 0.2594653

tcn.network.0.conv2.weight f4 [16, 16, 16]
000000 a7 3e 35 bc 9b 31 63 bc 5f cc 00 3c 23 00 28 bc
       -0.011062301 -0.013866807 0.007861226 -0.010253939
000010 db ac 52 3c b6 34 2a bc 01 a0 39 bc 2e f8 b2 bc
       0.012858595 -0.010388544 -0.011329652 -0.021846857
000020 bd 7f 98 bc d2 ab 52 bc 08 9c 00 3c 69 99 b3 bc
       -0.018615598 -0.012858348 0.007849701 -0.021923738
000030 28 c5 bc 3b e0 9b 75 3c 80 6b ca b9 26 fb 29 bc
       0.0057608075 0.014990777 -0.00038608536 -0.01037482
000040 7b 00 b5 ba ef e0 97 3b 1b f2 ad bb 3d 1b cd 3b
       -0.0013809347 0.0046349685 -0.0053084022 0.0062593506
000050 d3 e2 ae 3c 07 71 98 3c 65 a0 0a bc 27 06 97 3c
       0.021348393 0.018608583 -0.008461093 0.01843555
000060 95 c1 15 3c 7b 7d 15 bc 0a 07 98 bb 62 05 3d bd
       0.009140392 -0.009124155 -0.004639511 -0.04614771
000070 f3 6e 01 bd f8 56 49 bb b6 61 32 bc 22 9f c0 3c
       -0.03159995 -0.0030722003 -0.010887554 0.02351338
000080 01 12 05 3c fc a5 4d 3c 82 bb 12 3b e4 95 46 3c
       0.008121968 0.012551781 0.0022389595 0.012120698
000090 ce d2 8f bc f9 03 3c 3b 38 61 2d bc 27 35 6e bc
       -0.017556574 0.0028688891 -0.010582261 -0.01453904
0000a0 c6 4d 55 3b 5c ab 3a 39 b8 33 65 3c 4c 31 93 3c
       0.0032547577 0.00017802179 0.0139893815 0.017967843
0000b0 ff d1 4e 3c fd f4 19 3d 98 7c 11 3d 59 c3 c0 3c
       0.012623309 0.037587155 0.035519212 0.023530649
0000c0 e0 0e 20 3d e2 9a bf 3c 86 91 e2 ba ac b4 ab bc
       0.039076686 0.023389284 -0.0017285801 -0.020960175
0000d0 5c ce 3b bc a3 5a 65 bc 5e cd e7 bc 24 ee 16 bd
       -0.011462774 -0.01399866 -0.028296169 -0.036848202
0000e0 ba bf 17 bd e1 07 a5 bc 5b db 1b 39 2d ac 0e bc
       -0.03704808 -0.020145359 0.00014863668 -0.008708042
0000f0 a2 27 1d bc 2a 8e c0 3c 4a 96 d4 3c 15 5c fe ba
       -0.009591969 0.02350529 0.02595057 -0.0019406105
000100 08 03 fd b8 dd 54 5a bd c3 de 36 bd 2c 66 6f bc
       -0.00012064545 -0.05330359 -0.044646036 -0.014611762
000110 24 84 38 bd 84 08 66 bd 81 9a 21 bd b6 27 3b 3b
       -0.045047894 -0.056160465 -0.039453987 0.0028557605
000120 17 47 d7 bc 91 8c b3 bc 7e 2d 8e bc 63 05 3c 3a
       -0.026279015 -0.021917613 -0.017355677 0.00071724335
000130 25 08 34 bc c6 98 89 bd af 6d 18 bd 20 46 02 bd
       -0.01098827 -0.06718592 -0.037213977 -0.031805158
000140 71 d7 a2 bb 67 53 9f 3b 5f d3 ce 3c 48 45 9c 3c
       -0.0049695303 0.0048622373 0.025247274 0.019076005
000150 20 43 be 3b f1 c9 a6 3c 64 c6 52 3c f0 f0 ae bb
       0.005806342 0.020359965 0.012864683 -0.0053387806
000160 cd a5 79 3c 83 31 c5 bc 8f 2f 13 3b 5f d2 27 bd
       0.015237284 -0.02407146 0.0022458767 -0.04097211
000170 5d 1e 83 bc c3 98 87 39 86 e4 6e bc 9c fa cf bb
       -0.01600569 0.00025863023 -0.014580851 -0.0063470136
000180 25 f1 08 b9 7b e8 af 3b 1d 3a 46 3a 94 5e 87 bc
       -0.00013059804 0.00536829 0.000756176 -0.01652459
000190 a0 8e 4f bc bd e8 a2 bb c9 64 13 ba 33 e0 b5 3c
       -0.012668282 -0.004971592 -0.0005622623 0.022201633
0001a0 fb 7e 37 bc a5 54 23 3d 82 18 26 3d 99 6c d0 3c
       -0.011199708 0.039875645 0.040550716 0.025442408
0001b0 49 ee 5e 3b d4 39 04 3d 20 d8 5f 3c 54 22 19 3d
       0.003401654 0.03228171 0.013662368 0.037386253
0001c0 d9 2f 45 3c c8 e3 39 3d 46 b7 d5 3c 2e 3f 1b bb
       0.012035334 0.045383245 0.026088368 -0.002368878
0001d0 05 f4 aa 3c ce 40 22 bc 20 7f b7 bc c9 04 43 bd
       0.02086831 -0.009903146 -0.022399485 -0.047611985
0001e0 a7 d6 8b bc 78 0b 84 bd b9 f1 0a bc 59 18 93 bc
       -0.017070128 -0.064475 -0.008480483 -0.017955946
0001f0 4c e1 ff 3b 5c c0 0b 3c 94 f4 16 bc b5 6d b2 bc
       0.00780884 0.008529749 -0.009213585 -0.021780828
000200 79 30 90 bb 21 24 01 3c bb 43 67 bc 31 cc be 3c
       -0.0044003096 0.007882149 -0.014115269 0.023290725
000210 59 f1 28 3c 23 41 5f 3c 01 c5 26 3b bc 09 ed bc
       0.010311448 0.01362637 0.0025447013 -0.028935306
000220 2f 09 09 3a ac 01 89 ba bb e1 0f bd fe 46 be bc
       0.0005227504 -0.0010452769 -0.035127383 -0.023227211
000230 59 eb 03 bb 9d f1 e6 bc 71 2b 2c bd 9b 2e 0d bd
       -0.0020129292 -0.028191382 -0.042033616 -0.034468275
000240 20 0c 47 3d ad d0 3f 3d 92 89 5f bc 38 75 21 3c
       0.048595548 0.046829868 -0.013643639 0.009854607
000250 6c 01 f6 bb dd fd 7a bb 7d 09 dc ba d4 1f 05 3b
       -0.0075074937 -0.0038298287 -0.0016787496 0.002031316
000260 45 2d 5a 3c f4 b3 54 3b 12 b8 92 3a 82 a6 c0 bb
       0.013316457 0.0032455893 0.0011193773 -0.0058792243
000270 44 60 65 3b 07 66 e1 3b 44 68 81 3c 2c 36 87 bc
       0.0035000006 0.0068786177 0.015796788 -0.016505323
000280 0e 77 56 bc 11 ea f5 bc a5 fa 84 bd 41 c0 50 bc
       -0.013089908 -0.030018838 -0.06493119 -0.012741149
000290 77 fa e6 bc 71 a1 02 bc 36 ca 7b bc 1b b2 b5 bc
       -0.028195603 -0.007973061 -0.015368035 -0.022179654
0002a0 67 3c 0f bc 50 46 d1 bc 4a 11 47 ba 1b 4f 26 bd
       -0.008742428 -0.025546223 -0.0007593824 -0.040602785
0002b0 fc 36 9d 3b 86 3f c0 3c 63 00 92 3c e6 37 55 3c
       0.0047978144 0.02346779 0.01782245 0.0130138155
0002c0 3a 46 b0 3b 5c 4f a3 3b e3 13 0e bd 79 93 b0 bc
       0.0053794654 0.0049838256 -0.034686934 -0.021554695
0002d0 3a 22 14 bc 1a 15 36 bc 2e 3d 11 bc 40 07 08 3d
       -0.009041363 -0.011113429 -0.008864684 0.03321004
0002e0 86 43 45 3c 42 05 5c 3c ac c9 00 3d 86 33 96 3c
       0.012040025 0.013428988 0.03144233 0.018335115
0002f0 91 60 8a 3c d2 5c 8d 3c 4d fd 79 3c 7a 2c e5 3a
       0.01689175 0.017256174 0.0152581455 0.0017484569
000300 60 ec 92 3c 9c c8 bc 3c 6f 04 06 3d 48 3b 6c 3c
       0.017934978 0.023044877 0.032719072 0.014418431
000310 3d 11 44 bc 40 e8 0e bd e0 d8 66 bd 47 6c 96 bc
       -0.011967001 -0.03488946 -0.056359172 -0.018362178
000320 25 07 08 bd ad c9 e5 bb f8 4c 7a 3c d0 81 fe 3c
       -0.03320994 -0.007012567 0.01527714 0.031067759
000330 f7 02 0e 3d 9c ca 08 3d fa 77 b3 3c 65 0b 02 3c
       0.034670796 0.03339635 0.021907795 0.007937287
000340 01 9e 02 3d cd 3a 5e ba 02 34 dd 3b 91 e4 b1 bb
       0.031888966 -0.000847739 0.0067505846 -0.0054288586
000350 f8 d5 5b bc fe 13 17 bd 9c fb 1f bc d0 d1 f7 bc
       -0.013417713 -0.0368843 -0.009764578 -0.030251414
000360 25 9a 3e bc 04 94 03 3c c3 d3 29 3c 7c 64 85 3a
       -0.011633431 0.008030895 0.010365429 0.0010177041
000370 9d fd 7d 3b 7d ba 22 bb 2c 4b 0f bb bb b7 a0 ba
       0.0038755902 -0.0024830394 -0.0021864874 -0.0012261787
000380 a4 0a 31 bc af b9 74 bc 47 87 92 3b 37 9a 1f bc
       -0.01080576 -0.014936849 0.0044716927 -0.0097413575
000390 31 9e 98 3c e5 a2 b7 3c 75 75 c6 bb e4 f6 3a 3c
       0.018630119 0.022416541 -0.0060564824 0.011411402
0003a0 53 32 b1 bb 50 12 53 bb 01 ae bf 3c 9b e1 a7 bc
       -0.0054076104 -0.003220696 0.023398401 -0.02049332
0003b0 45 33 bb bc 7d f8 df bc 4d d2 a4 bc ae f6 29 bd
       -0.022851596 -0.027340168 -0.02011981 -0.041495018
0003c0 3b 27 90 bb 96 f3 37 3b a7 c8 2f 3c ab da 38 bc
       -0.004399208 0.0028068773 0.010728992 -0.011282603
0003d0 52 f1 53 3b c5 4b a0 bc 88 97 f1 bc 25 5f 63 bc
       0.0032339883 -0.01956738 -0.029491201 -0.013877665
0003e0 41 e3 fb bb f3 0a 0b 3d 74 19 e4 3c 4b fe 4e 3d
       -0.007687003 0.03394599 0.027844168 0.05053548
0003f0 38 a3 d3 3b 52 f5 0c 3d b0 45 4d 3d d5 a8 30 3d
       0.006458666 0.034413643 0.050115287 0.04312976

tcn.network.0.conv2.bias f4 [16]
000000 ff de 90 3b eb fb 39 b9 5f a5 8e 35 6b af a8 33
       0.0044211145 -0.00017736822 1.0627954e-06 7.855018e-08
000010 84 20 49 3a 7b bb a3 3c f4 ff 92 39 31 2c 10 b2
       0.0007672387 0.019986859 0.0002803799 -8.391951e-09
000020 1d 73 a1 ba ec 79 ff 34 84 4b 16 3b 4d 96 b5 b4
       -0.0012317632 4.758616e-07 0.0022933194 -3.3823235e-07
000030 68 cc 05 bb fc f9 9b 30 71 cf d2 36 13 a6 1d b1
       -0.0020416025 1.1348784e-09 6.282637e-06 -2.294091e-09
