model/Benchmark/DATCN_b1_1s_S29.pth (torch, 182388 bytes, 75 tensors)

global_block.conv_time.conv.0.weight f4 [8, 1, 1, 125]
-0.07335582 -0.050477717 -0.04892758 0.0062827594 -0.023456397 0.08519322 -0.034669396 0.00022265436
0.024254737 -0.029394388 0.020499516 -0.03560466 0.0064524543 0.031457804 -0.050741974 0.004147224
-0.06381308 -0.005442207 -0.07627248 0.0076239314 -0.0039386186 -0.031828985 -0.0371211 0.0030193261
0.04540133 0.038395364 0.025298696 0.025881264 0.06189946 -0.034232132 0.07133101 0.0139144445
0.05358933 -0.063817315 -0.04469216 -0.027942415 0.0025964328 -0.05555251 0.051734522 -0.075961925
-0.0056604766 -0.05064841 0.042471536 0.061100565 -0.015589254 0.024989791 -0.020815738 -0.06604662
0.07444608 0.069538355 0.047999628 0.031814307 -0.025689704 0.011314685 0.053986475 -0.045990575
-0.08776987 -0.03422899 0.011472702 0.005065834 0.008062396 0.061994616 0.043602724 -0.06035993
-0.028800882 -0.028064158 0.02825627 -0.047537755 -0.035335075 -0.006233844 -0.02156599 -0.035773885
-0.10061641 0.045660328 0.019005705 -0.045448158 -0.0017515031 0.123573355 0.16888787 -0.02526002
-0.06257527 -0.0052525783 -0.09672253 -0.08662123 -0.15632907 0.029774502 0.06390707 -0.03981827
-0.037947953 0.018827155 -0.013217738 -0.005559592 -0.09109596 -0.040815618 0.060903598 -0.052810583
-0.02629595 0.0140509065 0.0022241254 -0.038747467 0.007960465 0.0414296 -0.011063957 -0.016156696
0.09908163 0.13971233 0.07681033 -0.032338403 -0.072543025 -0.07649737 0.008141658 -0.02677525
-0.025365487 -0.028101329 0.0715258 0.097298786 0.01628984 -0.011604255 0.05653497 0.00837502
-0.085894145 0.011797538 0.060188003 -0.101226844 -0.048120674 -0.005107397 -0.049539134 -0.03032131
0.09218861 -0.009452004 0.059853796 -0.012861482 -0.011133087 -0.0569787 0.0028958844 0.06113951
0.06376826 0.058124132 0.08782373 0.08071333 -0.102146916 0.003263268 -0.09874856 -0.103178814
-0.02877808 -0.104362816 -0.0053254487 0.11301063 0.054133642 -0.037143998 -0.05245623 0.02623932
0.014820848 0.066088244 -0.040746417 0.029227309 -0.011724312 -0.04369733 0.024294574 0.030076709
0.06454272 0.035649672 0.03608499 0.009944779 -0.059708703 -0.07144565 -0.025618931 -0.0034072893
0.07994377 0.052743 0.006143879 -0.06837615 0.019752529 0.00029377107 0.025428744 0.09704382
-0.02544058 -0.045324408 -0.06731999 -0.021826487 -0.07228408 0.09504728 0.01668759 0.03741625
-0.02104351 0.0571972 0.0687602 0.0068312534 0.079700336 -0.07092513 -0.026095422 -0.07289425
0.03644962 0.045600705 0.07574168 0.05067198 -0.022325289 -0.04085184 -0.019399349 0.08913862
-0.0043625566 0.061681416 -0.039619073 0.085525505 0.12969369 0.07763579 0.0020161013 -0.0489754
-0.09879464 -0.017840961 0.022618484 -0.0401215 -0.02520124 -0.019802462 -0.13875757 -0.095306575
-0.047416367 0.010195773 -0.0059948647 0.0494887 0.025746567 -0.011235987 0.017934449 0.025327718
-0.082251765 0.0808022 0.045685526 0.079753205 -0.10095362 -0.092732616 0.04287582 -0.046812627
-0.027795274 0.07709929 0.05885593 -0.05114047 0.11038805 0.029499529 0.07208335 -0.05520132
-0.069101304 -0.037892256 0.0017959817 -0.08015413 -0.043033455 -0.13104112 -0.10978187 -0.033927117
0.0060239374 -0.07574638 0.030322025 -0.06804159 0.021012966 0.02857104 -0.079103075 -0.02893005
00000000: 933b 96bd b9c1 4ebd 4968 48bd 9bdf cd3b
00000010: a127 c0bc c879 ae3d 7f01 0ebd 5378 6939
00000020: dfb1 c63c 80cc f0bc 9aee a73c 31d6 11bd
00000030: 1c6f d33b e6d9 003d d1d6 4fbd 70e5 873b
00000040: 6fb0 82bd 8b54 b2bb bf34 9cbd 2cd2 f93b
00000050: 870f 81bb 1c5f 02bd 4b0c 18bd e3df 453b
00000060: bff6 393d 7544 1d3d 363f cf3c f204 d43c
00000070: 4a8a 7d3d fe36 0cbd fe15 923d 69f9 633c
00000080: 7c80 5b3d a7b2 82bd 200f 37bd 7ee7 e4bc
00000090: ea28 2a3b 078b 63bd 94e7 533d ed91 9bbd
000000a0: 857b b9bb b574 4fbd a2f6 2d3d 9644 7a3d
000000b0: 126a 7fbc 64b7 cc3c c485 aabc 7343 87bd
000000c0: 3077 983d 206a 8e3d 429b 443d b84f 023d
000000d0: 3773 d2bc 3b61 393c ec20 5d3d 9d60 3cbd
000000e0: b1c0 b3bd b333 0cbd 00f8 3b3c 4cff a53b
000000f0: 2418 043c 11ee 7d3d c598 323d f93b 77bd
00000100: d4ef ebbc cee6 e5bc b179 e73c f3b6 42bd
00000110: 83bb 10bd 4645 ccbb 29ab b0bc a387 12bd
00000120: fa0f cebd 5306 3b3d dab1 9b3c d927 3abd
00000130: b192 e5ba 0714 fd3d f1f0 2c3e 1aee cebc
00000140: 7727 80bd d21d acbb 7616 c6bd 7966 b1bd
00000150: ba14 20be a8e9 f33c b6e1 823d 7b18 23bd
00000160: 506f 1bbd 683b 9a3c 368f 58bc 3d2d b6bb
00000170: 8590 babd 472e 27bd 0d76 793d e94f 58bd
00000180: 9b6a d7bc c635 663c a2c2 113b aab5 1ebd
00000190: 9c6c 023c 16b2 293d 9945 35bc 0c5b 84bc
000001a0: 4feb ca3d c010 0f3e bc4e 9d3d 4675 04bd
000001b0: 7091 94bd a7aa 9cbd 9764 053c c557 dbbc
000001c0: 48cb cfbc c234 e6bc 1e7c 923d 9644 c73d
000001d0: 4572 853c c61f 3ebc 3691 673d 6137 093c
000001e0: 45e9 afbd 764a 413c b287 763d 0550 cfbd
000001f0: 2f1a 45bd f45b a7bb 8ce9 4abd 6564 f8bc
00000200: 62cd bc3d 94dc 1abc 4129 753d f7b8 52bc
00000210: 8d67 36bc 7f62 69bd e1c8 3d3b 6c6d 7a3d
00000220: ef98 823d 9213 6e3d eedc b33d 084d a53d
00000230: 6732 d1bd 8ddc 553b af3c cabd 6a4f d3bd
00000240: 02c0 ebbc 2cbc d5bd 1a81 aebb 1e72 e73d
00000250: 3dbb 5d3d 4e24 18bd 58dc 56bd d8f3 d63c
00000260: 24d3 723c 4659 873d b7e5 26bd 1c6e ef3c
00000270: 5417 40bc f9fb 32bd 6a05 c73c 6e63 f63c
00000280: f92e 843d 6405 123d dbcd 133d 6def 223c
00000290: 1d91 74bd 1952 92bd cbde d1bc d44c 5fbb
000002a0: 8fb9 a33d 0b09 583d 9852 c93b cc08 8cbd
000002b0: 0ed0 a13c 4905 9a39 f14f d03c e9be c63d
000002c0: c368 d0bc 16a6 39bd 10df 89bd 76cd b2bc
000002d0: ad09 94bd 26a8 c23d 6ab4 883c c841 193d
000002e0: 7063 acbc 9c47 6a3d 26d2 8c3d b5d8 df3b
000002f0: ee39 a33d 3241 91bd 11c6 d5bc 9549 95bd
00000300: 324c 153d cec7 3a3d 741e 9b3d 6c8d 4f3d
00000310: 86e3 b6bc 4254 27bd 62eb 9ebc 4f8e b63d
00000320: c7f3 8ebb a7a5 7c3d 9c47 22bd ff27 af3d
00000330: 6cce 043e 83ff 9e3d 9120 043b 6e9a 48bd
00000340: d854 cabd 3527 92bc 664a b93c 7156 24bd
00000350: d572 cebc c638 a2bc 7716 0ebe 1830 c3bd
00000360: aa37 42bd 2c0c 273c 9270 c4bb aab4 4a3d
00000370: 77ea d23c 2517 38bc 44eb 923c 137c cf3c
00000380: 9d73 a8bd a07b a53d bf20 3b3d a655 a33d
00000390: c6c0 cebd 99ea bdbd 8e9e 2f3d 99be 3fbd
000003a0: eab2 e3bc 3ce6 9d3d ea12 713d ab78 51bd
000003b0: 2113 e23d ffa8 f13c 6fa0 933d c81a 62bd
000003c0: fc84 8dbd e934 1bbd 2567 eb3a d927 a4bd
000003d0: d943 30bd a52f 06be 51d5 e0bd 29f7 0abd
000003e0: 7364 c53b eb20 9bbd e565 f83c 6459 8bbd
000003f0: 6223 ac3c d00d ea3c cb00 a2bd b6fe ecbc

global_block.conv_time.conv.0.bias f4 [8]
-0.0019427025 0.057783507 0.028090142 0.0475909 -0.058268543 -0.06707193 -4.8067176e-07 0.014321557
00000000: 47a2 feba 66ae 6c3d 4c1d e63c adee 423d
00000010: ffaa 6ebd 025d 89bd 8307 01b5 f7a4 6a3c

global_block.conv_time.conv.1.weight f4 [8]
0.86065483 1.0593214 0.92071867 0.9226673 0.9791543 1.0780478 0.9282106 1.0005609
00000000: e053 5c3f d897 873f 38b4 6b3f ed33 6c3f
00000010: dba9 7a3f 78fd 893f 369f 6d3f 6112 803f

global_block.conv_time.conv.1.bias f4 [8]
-0.10106308 -0.023739243 0.04924522 -0.07613943 0.0855577 -0.07112182 -0.026154466 0.047117792
00000000: 29fa cebd cd78 c2bc 5bb5 493d fdee 9bbd
00000010: e038 af3d 51a8 91bd e441 d6bc 96fe 403d

global_block.conv_time.conv.1.running_mean f4 [8]
0.0070342943 0.086994424 0.051659606 0.04713314 -0.057959024 -0.08934487 -0.019112015 0.015568461
00000000: f07f e63b 222a b23d 0699 533d ae0e 413d
00000010: 7166 6dbd 71fa b6bd cd90 9cbc dc12 7f3c

global_block.conv_time.conv.1.running_var f4 [8]
18.992765 23.344797 20.933723 18.446285 24.664993 23.511295 21.130836 25.800734
00000000: 2ff1 9741 25c2 ba41 4478 a741 fe91 9341
00000010: e851 c541 2217 bc41 f40b a941 e767 ce41

global_block.conv_chan.conv.0.weight f4 [8, 8, 11, 1]
-0.0522865 0.04170447 0.032086868 -0.066505514 0.033030726 0.03446131 0.06083759 -0.007528455
-0.0006240991 -0.0886783 0.028156687 0.13621429 -0.061104577 0.03117846 0.086884424 -0.0002967421
-0.033904485 -0.019420741 -0.0763741 0.07472165 -0.06400758 0.02119418 -0.11241085 0.0475744
0.06889484 -0.16034761 0.0031506498 -0.043897945 0.07021645 -0.037692063 -0.089638144 -0.063149035
-0.02926246 0.15312858 -0.030326368 -0.059058852 0.0128666 0.04913208 0.027586712 0.04029165
-0.075060226 -0.022643454 0.03496474 0.043814838 -0.0049171117 0.063114606 -0.07852156 0.035695568
0.004766279 0.05020438 0.087568216 0.010016965 0.073928684 -0.03258701 -0.11294356 0.039084326
0.056805834 0.08959107 -0.012589914 -0.06430475 0.16001922 0.078557916 0.08518471 -0.043272205
0.03368008 -0.09215103 0.017682178 0.07134149 0.048656918 -0.060322173 -0.034745265 -0.07447802
0.050678115 0.11580651 0.0696794 0.07564998 -0.02106901 -0.066527836 -0.06141961 -0.029223718
0.032550156 -0.051369417 0.1177497 0.07670855 -0.056659747 -0.013274906 -0.05376041 -0.03900125
0.0869823 -0.044958007 -0.015234933 -0.0075154174 0.028003186 -0.022585254 0.03498737 -0.07423903
0.09337192 0.091539934 -0.022618782 0.06144752 -0.024097977 0.040021863 -0.028609449 0.06186092
-0.046733875 -0.065171815 0.087084964 0.10478888 0.0059297406 -0.02965734 0.06041365 -0.19010958
-0.04214315 0.019959006 0.07968818 0.08194019 -0.08729012 -0.03756482 -0.052143216 0.07583551
0.09095925 0.036922317 0.09170081 0.022701632 -0.055472367 -0.028837522 -0.10784819 -0.007944486
0.13253953 0.062379938 -0.052352015 -0.104091875 0.058624428 0.054808382 -0.055681605 -0.08892075
0.015317881 -0.08368008 0.10847726 0.085103646 0.058140658 -0.040601656 -0.04248891 -0.029845724
0.10946823 0.017027615 0.11812755 -0.116045 -0.002724626 0.12640381 -0.023846462 -0.05400075
-0.057454392 0.07122673 -0.09839725 -0.12624161 0.015404236 0.17823909 0.07457943 -0.02266378
-0.016263321 0.027664402 0.008203793 -0.03930519 0.07988434 0.05182867 0.0879205 -0.0129797105
-0.12329645 -0.13964637 0.021481872 -0.0037201736 0.08513553 -0.040347125 -0.073203176 -0.06890517
-0.10792614 -0.071704045 -0.07460253 0.109931424 0.12248946 -0.0029560933 -0.13448404 0.045693643
0.045403596 0.034502227 -0.0038276964 -0.08519743 -0.11931283 -0.018464334 0.06474553 0.112888336
-0.018727416 -0.014981014 0.1232472 0.1112403 -0.01717035 0.040703915 0.048998054 0.12656185
-0.11870628 -0.008499206 -0.115024604 -0.1396809 0.020176154 0.060687926 0.031675555 -0.008187034
0.060419105 -0.014103433 -0.059048336 -0.021144036 -0.00017720571 -0.011386025 -0.035399865 0.03351392
0.12390891 0.07963245 -0.003378792 -0.09666499 -0.0174667 -0.11770096 0.039037667 -0.038245898
0.0068258513 0.05739076 -0.12641104 0.06798746 0.0027241122 -0.044733305 -0.009228679 0.0049488647
0.05515066 -0.009205653 0.038236212 -0.058822874 0.014299055 -0.15205117 -0.034024797 -0.05599459
0.08915249 0.030157454 -0.059167985 0.09773193 -0.13327488 -0.0766524 -0.0676274 -0.008066559
0.10840758 -0.08975304 0.059646904 0.04906121 -0.032729935 -0.093655735 -0.0011870195 -0.00701487
00000000: 5e2a 56bd 4ed2 2a3d 856d 033d 0b34 88bd
00000010: 3a4b 073d 4d27 0d3d d630 793d 42b1 f6bb
00000020: 959a 23ba f89c b5bd daa8 e63c c27b 0b3e
00000030: cb48 7abd f869 ff3c 76f0 b13d 0d94 9bb9
00000040: 6edf 0abd 3f18 9fbc 066a 9cbd aa07 993d
00000050: 6816 83bd 6b9f ad3c a937 e6bd 60dd 423d
00000060: bd18 8d3d 2a32 24be 227b 4e3b 55ce 33bd
00000070: a4cd 8f3d fe62 1abd 3494 b7bd 4854 81bd
00000080: d4b7 efbc bdcd 1c3e 016f f8bc b2e7 71bd
00000090: 6fce 523c b83e 493d 87fd e13c db08 253d
000000a0: 2db9 99bd c47e b9bc 3037 0f3d 3077 333d
000000b0: b91f a1bb 3b42 813d e9cf a0bd 8435 123d
000000c0: 722e 9c3b 1ca3 4d3d f756 b33d 321e 243c
000000d0: ec67 973d f579 05bd f44e e7bd e316 203d
000000e0: 3cad 683d 867b b73d ed45 4ebc 35b2 83bd
000000f0: 14dc 233e f9e2 a03d 5275 ae3d 323e 31bd
00000100: 20f4 093d aeb9 bcbd 37da 903c 7d1b 923d
00000110: 7a4c 473d 6214 77bd 0d51 0ebd ef87 98bd
00000120: db93 4f3d f72b ed3d 13b4 8e3d 60ee 9a3d
00000130: eb98 acbc bf3f 88bd 2193 7bbd 9466 efbc
00000140: 5053 053d bd68 52bd c126 f13d 5f19 9d3d
00000150: 0d14 68bd fe7e 59bc e033 5cbd c6bf 1fbd
00000160: c723 b23d e325 38bd f19b 79bc e443 f6bb
00000170: f066 e53c b604 b9bc eb4e 0f3d a20a 98bd
00000180: c739 bf3d 4a79 bb3d 064b b9bc 65b0 7b3d
00000190: 1f69 c5bc f7ed 233d 5d5e eabc e061 7d3d
000001a0: 056c 3fbd cd78 85bd 9a59 b23d 8d9b d63d
000001b0: 454e c23b f3f3 f2bc 4e74 773d 16ac 42be
000001c0: 4c9e 2cbd 1281 a33c 8e33 a33d 42d0 a73d
000001d0: 2ac5 b2bd 92dd 19bd 2094 55bd a64f 9b3d
000001e0: d848 ba3d db3b 173d a2cd bb3d c6f8 b93c
000001f0: fe36 63bd ab3c ecbc 83df dcbd 9729 02bc
00000200: 71b8 073e 1b82 7f3d 116f 56bd 1f2e d5bd
00000210: 2b20 703d c17e 603d 6512 64bd 151c b6bd
00000220: d9f7 7a3c 7660 abbd 5329 de3d d24a ae3d
00000230: e624 6e3d ec4d 26bd da08 2ebd 057f f4bc
00000240: e130 e03d 7f7d 8b3c dbec f13d 00a9 edbd
00000250: a48f 32bb 0070 013e a859 c3bc e42f 5dbd
00000260: 4c55 6bbd 52df 913d 7f84 c9bd 7b45 01be
00000270: 0c62 7c3c 4f84 363e 1abd 983d 64a9 b9bc
00000280: a83a 85bc 75a0 e23c 3469 063c 7bfe 20bd
00000290: 679a a33d 4d4a 543d aa0f b43d daa8 54bc
000002a0: d982 fcbd 75ff 0ebe c0fa af3c 28ce 73bb
000002b0: 895b ae3d 0743 25bd 8ceb 95bd 271e 8dbd
000002c0: 6108 ddbd 92d9 92bd 36c9 98bd ba23 e13d
000002d0: c1db fa3d 04bb 41bb 2fb6 09be 4229 3b3d
000002e0: 1ff9 393d 3552 0d3d 17da 7abb fd7b aebd
000002f0: 495a f4bd 8442 97bc 4e99 843d 0032 e73d
00000300: 3d6a 99bc ed72 75bc 0769 fc3d f4d1 e33d
00000310: d5a8 8cbc 26b9 263d 2fb2 483d 6e99 013e
00000320: 471c f3bd 4140 0bbc 0592 ebbd 8308 0fbe
00000330: 7648 a53c e793 783d 3abe 013d e922 06bc
00000340: 067a 773d 1612 67bc abdc 71bd 4236 adbc
00000350: 4cd0 39b9 738c 3abc 73ff 10bd e445 093d
00000360: f4c3 fd3d 5716 a33d b96e 5dbb 4bf8 c5bd
00000370: 5316 8fbc 330d f1bd f6e5 1f3d bba7 1cbd
00000380: 64ab df3b 9312 6b3d e571 01be 023d 8b3d
00000390: 0587 323b 453a 37bd e333 17bc 162a a23b
000003a0: a9e5 613d 4fd3 16bc 939d 1c3d 41f0 70bd
000003b0: 9546 6a3c 4db3 1bbe 965d 0bbd 955a 65bd
000003c0: 9595 b63d c40c f73c 215a 72bd ae27 c83d
000003d0: 3679 08be effb 9cbd 3c80 8abd 9a29 04bc
000003e0: cb04 de3d 71d0 b7bd 5050 743d 68f4 483d
000003f0: d30f 06bd 94ce bfbd c495 9bba ffdc e5bb

global_block.conv_chan.conv.0.bias f4 [8]
-1.3007607e-06 0.04547244 -0.012830233 -0.036585744 0.09705903 -0.0833045 -0.0007689561 0.013499499
00000000: cc95 aeb5 4f41 3a3d e635 52bc efda 15bd
00000010: e2c6 c63d 8d9b aabd c593 49ba 012d 5d3c

global_block.conv_chan.conv.1.weight f4 [8]
0.88182664 1.0847535 0.9229996 0.9668667 1.0091819 0.99389946 0.9248291 1.0275276
00000000: 64bf 613f 34d9 8a3f b449 6c3f 9384 773f
00000010: df2c 813f 3270 7e3f 9ac1 6c3f 0686 833f

global_block.conv_chan.conv.1.bias f4 [8]
-0.20156586 -0.038408536 -0.14831488 -0.1241478 -0.07562379 -0.13602304 -0.11908025 -0.124954715
00000000: 4867 4ebe 4552 1dbd dbdf 17be 3441 febd
00000010: a5e0 9abd a049 0bbe 59e0 f3bd 42e8 ffbd

global_block.conv_chan.conv.1.running_mean f4 [8]
0.06343842 0.077548966 -0.1823829 -0.105543226 0.20600857 -0.10847655 0.04991776 0.00044670852
00000000: 01ec 813d fed1 9e3d 95c2 3abe 0c27 d8bd
00000010: e9f3 523e f428 debd 9176 4c3d 3434 ea39

global_block.conv_chan.conv.1.running_var f4 [8]
0.18274279 0.15848182 0.10131267 0.092603944 0.09899229 0.1476146 0.082372636 0.098744825
00000000: ed20 3b3e 0f49 223e 047d cf3d 23a7 bd3d
00000010: 78bc ca3d 4828 173e fcb2 a83d ba3a ca3d

local_block.conv_time.conv.0.weight f4 [8, 1, 1, 51]
-0.029477721 0.037694514 0.026536012 0.03597737 0.035361506 -0.08110033 0.047115684 -0.06321584
0.062082402 -0.0040368456 -0.030631764 0.052876145 0.16063538 -0.10080698 -0.06211065 -0.13423051
-0.053922713 0.2083503 0.2302335 0.122448 -0.080470614 -0.015479873 -0.044095717 -0.036085296
-0.007946937 0.04485364 -0.06659033 -0.07314009 0.029690549 0.08865506 -0.02755795 0.008213809
0.0064781657 -0.079299286 0.16757612 0.17915145 0.03573836 -0.18893981 -0.072888866 0.023231449
0.059847333 -0.12930118 0.06398845 0.09668054 0.07707362 -0.025168132 0.020614155 -0.050684944
-0.019981416 0.09183804 -0.069460936 0.039971035 -0.072509095 -0.023641927 -0.03837 0.018978268
-0.04680601 -0.033374645 0.044070777 -0.11012018 0.041162126 -0.1277973 0.07256636 0.1230781
0.052928627 0.0105465455 -0.031305008 0.03960355 1.43967445e-05 0.02198035 0.0122164395 -0.018426884
0.10095376 -0.1300409 -0.074572265 0.09717428 -0.042220596 -0.06404401 0.020391945 0.10447038
0.036551908 -0.07566791 0.05102931 -0.013892501 0.07241921 0.13097301 -0.040589016 0.016952265
0.020377021 0.12879945 0.13116716 0.049635105 -0.013877821 -0.14797631 -0.09893885 -0.00905363
0.14127357 0.004768953 0.029473273 -0.089900404 0.021607846 -0.09312054 -0.06083532 -0.097909704
0.11674096 -0.06614926 -0.051313005 0.09110037 0.06765608 0.047944892 0.14232364 -0.031409126
0.09163356 -0.026534626 -0.10032186 -0.07232505 -0.04949199 -0.0037828875 -0.01925947 -0.031182913
-0.1538321 0.12909567 0.18912852 0.107556835 0.14397223 5.3162752e-05 0.023359085 -0.12639822
-0.018086972 -0.10831517 -0.11469814 -0.0025132454 -0.071394175 -0.10368215 0.03702503 0.035673764
0.19508366 0.06878128 0.06668894 0.074616686 -0.08378034 0.086664796 0.1395381 -0.07549616
-0.14141755 0.08806992 -0.024669232 -0.10508928 -0.15430456 0.08842873 0.08078406 -0.13698003
-0.08641546 -0.015634038 0.0051297774 0.044304006 0.048827656 -0.009597998 -0.106216036 0.006145001
0.029515143 0.1170302 -0.061101723 0.027108697 0.06858071 -0.15489239 -0.0175841 0.14224999
-0.030666491 0.04651821 -0.016516272 -0.022865014 0.079099916 -0.0045179217 -0.053372845 0.11217362
-0.009726257 0.0028025734 0.040105965 -0.060213596 -0.07053842 -0.011790373 0.23743096 0.049471807
0.0979942 -0.12693174 0.034739576 0.05552183 -0.031661097 -0.07032341 0.044089023 -0.0005961131
-0.030586531 -0.016528131 0.14978218 -0.049029402 0.03799368 -0.17176007 -0.16202906 0.0672643
-0.031537767 0.15040176 0.023377025 0.09636002 -0.046620235 0.11751628 -0.091449864 -0.036776736
0.007888648 -0.061185975 0.043420184 -0.07587656 0.01202153 -0.019071598 -0.16937147 -0.1442858
-0.11089727 0.06240157 0.074452676 0.0048021614 0.12060606 -0.09367689 0.058002897 0.07083014
-0.19715337 -0.13742794 -0.00075147743 -0.007826052 -0.032068703 -0.0016080731 0.12021027 0.0089325085
-0.09893005 -0.026077157 0.07212085 0.058030665 -0.00017142534 0.06110671 -0.047503136 -0.06233984
0.08159951 -0.14492735 -0.16979723 0.0389963 -0.08679579 -0.05082697 0.16495264 0.13275541
-0.08188459 0.013955809 -0.08385886 -0.041106682 -0.07177064 0.020134412 0.036689676 -0.035704646
00000000: 437b f1bc 9065 1a3d 0d62 d93c 025d 133d
00000010: 3ad7 103d ee17 a6bd 60fc 403d 4e77 81bd
00000020: 1e4a 7e3d 8447 84bb 77ef fabc a894 583d
00000030: 9a7d 243e e473 cebd bd67 7ebd b973 09be
00000040: 10de 5cbd c859 553e 55c2 6b3e 04c6 fa3d
00000050: c7cd a4bd 4b9f 7dbc b69d 34bd 2dce 13bd
00000060: df33 02bc 73b8 373d 8360 88bd 79ca 95bd
00000070: 9839 f33c c990 b53d 36c1 e1bc 3693 063c
00000080: cb46 d43b aa67 a2bd 1399 2b3e 7a73 373e
00000090: 6362 123d 7079 41be c246 95bd e14f be3c
000000a0: 7a22 753d 8767 04be 600c 833d 7200 c63d
000000b0: c6d8 9d3d 662d cebc 04df a83c 049b 4fbd
000000c0: 11b0 a3bc 9515 bc3d 8941 8ebd abb8 233d
000000d0: a67f 94bd b7ac c1bc dc29 1dbd 5078 9b3c
000000e0: a9b7 3fbd dab3 08bd 8f83 343d b086 e1bd
000000f0: 9e99 283d 4cdd 02be ac9d 943d 5f10 fc3d
00000100: b0cb 583d 6bcb 2c3c ae39 00bd 5537 223d
00000110: 8c89 7137 2310 b43c 7627 483c faf3 96bc
00000120: d8c0 ce3d 7129 05be 58b9 98bd 4f03 c73d
00000130: 81ef 2cbd 8229 83bd 020d a73c 91f4 d53d
00000140: 74b7 153d c7f7 9abd 1c04 513d 5f9d 63bc
00000150: 8650 943d ca1d 063e ab40 26bd 7adf 8a3c
00000160: b6ed a63c 01e4 033e af50 063e 2e4e 4b3d
00000170: cd5f 63bc 1a87 17be 74a0 cabd ad55 14bc
00000180: 05aa 103e e144 9c3b ef71 f13c b41d b8bd
00000190: f002 b13c fbb5 bebd 752e 79bd e284 c8bd
000001a0: e215 ef3d 4379 87bd 962d 52bd d592 ba3d
000001b0: 458f 8a3d dd61 443d 4abd 113e dba6 00bd
000001c0: 60aa bb3d 255f d9bc 8c75 cdbd 281f 94bd
000001d0: 1db8 4abd 52ea 77bb 09c6 9dbc 4f73 ffbc
000001e0: 2986 1dbe a831 043e e8aa 413e c246 dc3d
000001f0: 756d 133e 12fb 5e38 8d5b bf3c 896e 01be
00000200: 212b 94bc 58d4 ddbd dce6 eabd 43b5 24bb
00000210: 1c37 92bd 4f57 d4bd 8fa7 173d a71e 123d
00000220: 03c4 473e 33dd 8c3d 3694 883d a2d0 983d
00000230: 0795 abbd 507d b13d 13e3 0e3e bb9d 9abd
00000240: c3cf 10be 015e b43d 2117 cabc 0c39 d7bd
00000250: 0402 1ebe 1f1a b53d 1d72 a53d 7e44 0cbe
00000260: 97fa b0bd f412 80bc b117 a83b 1e78 353d
00000270: 82ff 473d ec40 1dbc cb87 d9bd 015c c93b
00000280: bec9 f13c 88ad ef3d cd45 7abd 0f13 de3c
00000290: 0b74 8c3d 1c9c 1ebe 880c 90bc fba9 113e
000002a0: 4b38 fbbc e189 3e3d 224d 87bc 694f bbbc
000002b0: 23ff a13d 130b 94bb 7c9d 5abd 48bb e53d
000002c0: e15a 1fbc 61ab 373b 2746 243d 88a2 76bd
000002d0: 7276 90bd 692c 41bc 1a21 733e f3a2 4a3d
000002e0: 2fb1 c83d 65fa 01be 164b 0e3d dc6a 633d
000002f0: 11af 01bd b805 90bd b196 343d 7944 1cba
00000300: 9b90 fabc 0166 87bc 8060 193e 0ed3 48bd
00000310: 439f 1b3d dfe1 2fbe f2ea 25be dec1 893d
00000320: bf2d 01bd eb02 1a3e 2d81 bf3c 6758 c53d
00000330: dcf4 3ebd 60ac f03d 114a bbbd 34a3 16bd
00000340: 633f 013c 259e 7abd 5dd9 313d 2b65 9bbd
00000350: f4f5 443c 0a3c 9cbc b76f 2dbe a8bf 13be
00000360: 1c1e e3bd ca98 7f3d a57a 983d 735b 9d3b
00000370: 4f00 f73d abd9 bfbd 7294 6d3d 640f 913d
00000380: 93e2 49be e9b9 0cbe ccfe 44ba d738 00bc
00000390: 795a 03bd fbc5 d2ba cd30 f63d a859 123c
000003a0: d79b cabd c39f d5bc 19b4 933d 90b1 6d3d
000003b0: a4c0 33b9 084b 7a3d a692 42bd 0f58 7fbd
000003c0: a51d a73d d667 14be 53df 2dbe 96ba 1f3d
000003d0: fec1 b1bd f12f 50bd 58e9 283e 09f1 073e
000003e0: 1cb3 a7bd e8a6 643c 32be abbd 7b5f 28bd
000003f0: 7cfc 92bd ecf0 a43c ea47 163d 093f 12bd

local_block.conv_time.conv.0.bias f4 [8]
0.046676505 -0.11089234 0.052541696 0.03201991 0.04205945 0.088305235 0.12522359 0.050918818
00000000: dd2f 3f3d 861b e3bd f635 573d 4f27 033d
00000010: 8846 2c3d 60d9 b43d 9d3a 003e 4090 503d

local_block.conv_time.conv.1.weight f4 [8]
1.0185968 0.9292239 1.0938267 0.98422617 0.8919936 0.9806127 0.9384542 0.98624796
00000000: 6161 823f 9ee1 6d3f 8302 8c3f 3ff6 7b3f
00000010: b159 643f 6f09 7b3f 893e 703f bf7a 7c3f

local_block.conv_time.conv.1.bias f4 [8]
-0.21616721 -0.06479199 0.11708274 -0.051342167 -0.041088443 0.013978859 0.03428386 0.00913582
00000000: f05a 5dbe aab1 84bd 13c9 ef3d 2a4c 52bd
00000010: 5b4c 28bd 9607 653c 3c6d 0c3d 68ae 153c

local_block.conv_time.conv.1.running_mean f4 [8]
0.056612406 -0.10073923 0.057470515 0.03982435 0.030841297 0.08730933 0.14464809 0.034402236
00000000: 69e2 673d 5f50 cebd 3466 6b3d dc1e 233d
00000010: e3a6 fc3c 3ccf b23d a11e 143e 5ce9 0c3d

local_block.conv_time.conv.1.running_var f4 [8]
19.232435 11.754503 26.272224 12.175742 16.391542 11.570421 10.388307 16.758291
00000000: 07dc 9941 7212 3c41 842d d241 d7cf 4241
00000010: e121 8341 7220 3941 8136 2641 fb10 8641

local_block.conv_chan.conv.0.weight f4 [8, 8, 11, 1]
-0.025706943 0.0808796 -0.023890512 0.0350314 -0.040699434 -0.009077713 -0.027938392 0.0666522
-0.0051053395 0.06999625 -0.068206064 0.031399317 0.14604968 0.11139869 -0.04172127 0.012501243
-0.04069423 -0.121640116 -0.05809814 0.0040366496 0.014067437 -0.018537724 -0.044686895 0.03839711
0.06465558 0.0003615742 0.017788747 -0.0061966553 -0.043356497 -0.10293149 -0.0758539 0.08752478
-0.116042204 -0.065921694 -0.063923806 -0.020789867 0.093880594 0.022698792 -0.018459445 0.0245255
0.059251986 -0.10611604 -0.0696367 0.10542539 0.0782033 0.12435395 -0.06363136 -0.016525999
-0.04179866 -0.108738355 0.13289347 0.2279592 -0.013937863 0.016439103 0.009137936 0.030716687
0.1693693 0.06760648 0.13248827 0.03433119 -0.052600715 0.024694681 -0.132174 -0.13452782
-0.0010135347 -0.012938266 0.011224653 0.075153366 -0.046773028 0.07047546 -0.04242627 -0.042900074
0.014355373 -0.027380312 -0.013157516 -0.045648456 0.0021121101 0.036445413 0.058284376 0.030333517
-0.014606717 0.028753364 0.010919776 -0.03333293 -0.052624937 0.0004471819 -0.013897925 -0.046197724
-0.0061829835 0.008065418 0.06004803 -0.07182832 0.032600343 -0.03568543 -0.010200291 0.121139616
-0.0055561056 0.07704191 -0.026488865 -0.07094758 0.031740446 0.017049791 0.052395172 0.026500793
0.032031965 0.039346028 -0.030768445 -0.05903335 0.08242249 -0.06447378 -0.085341185 0.127496
-0.07219697 -0.113558725 -0.0036214585 -0.08039738 0.09933751 0.21979925 0.03470988 -0.06607226
-0.100952595 0.05140741 -0.04999377 0.046753578 -0.03900636 0.019300729 0.06361933 -0.11069311
-0.052816525 -0.016386766 -0.040586807 0.13610259 0.012331974 0.038453497 0.07310292 0.0107244365
0.013122726 0.052902717 -0.05676935 -0.15361783 0.0012523461 -0.034079775 0.010509713 0.094728686
-0.07825236 0.007861576 0.048670854 -0.005206413 0.028082343 -0.010515699 -0.072263524 -0.02772821
0.077002995 -0.073291674 -0.012998508 -0.039387323 -0.06937629 -0.015298519 -0.013905723 -0.0060043773
0.09655308 0.19526495 0.05182417 0.019770596 -0.029795108 -0.03821128 0.060301866 -0.038810465
-0.08542232 0.0038515194 -0.014556316 -0.019403372 0.15125558 0.0073008295 -0.03739523 -0.079304345
0.017585753 -0.04841381 -0.10086622 0.1293058 0.099749394 -0.04722896 -0.10296037 0.08004024
0.010575891 0.0011329333 -0.053088434 -0.107962936 -0.13518555 -0.097547516 0.13130324 0.12460215
0.0097650215 0.038852572 0.09080806 0.04777987 0.009964407 0.10170733 -0.07443141 -0.17261837
0.067974456 0.036583163 0.011480951 -0.02229096 -0.0051118485 -0.0862746 0.069041386 -0.04301146
-0.040608574 0.031009216 -0.005347254 -0.062106058 0.033402823 0.07480395 -0.009481605 -0.0249897
-0.05439536 -0.07014868 0.065747835 -0.051132888 -0.07005219 0.005790355 -0.020203996 0.015281962
-0.0027856485 0.10025299 -0.017653868 -0.004827663 -0.061358497 -0.016729591 -0.018701905 -0.037036642
-0.13993578 -0.080792524 0.054620247 0.029055182 0.03183282 0.05385977 -0.10948745 0.07756149
0.015658291 0.057244856 0.004314852 -0.013736283 -0.14382224 -0.12735257 -0.011867446 0.09696815
-0.07805075 0.10651835 -0.048141576 0.05628753 -0.010869583 -0.022428408 0.122359 -0.08948228
00000000: 5e97 d2bc 34a4 a53d 09b6 c3bc 167d 0f3d
00000010: 73b4 26bd b0ba 14bc 0edf e4bc f380 883d
00000020: b14a a7bb 325a 8f3d 9faf 8bbd 929c 003d
00000030: 0c8e 153e ff24 e43d ece3 2abd 03d2 4c3c
00000040: feae 26bd 741e f9bd 51f8 6dbd df45 843b
00000050: 1b7b 663c 6ddc 97bc 9b09 37bd 4a46 1d3d
00000060: 256a 843d ab91 bd39 b5b9 913c 500d cbbb
00000070: 9596 31bd bfcd d2bd 4a59 9bbd 3140 b33d
00000080: 89a7 edbd f401 87bd 7cea 82bd 834f aabc
00000090: 7844 c03d d1f2 b93c 4338 97bc b4e9 c83c
000000a0: 36b2 723d 5e53 d9bd b09d 8ebd 44e9 d73d
000000b0: 0d29 a03d 49ad fe3d 2951 82bd 8861 87bc
000000c0: 1235 2bbd 37b2 debd 3a15 083e 236e 693e
000000d0: a25b 64bc 4cab 863c 48b7 153c 90a1 fb3c
000000e0: 256f 2d3e 4475 8a3d 01ab 073e dd9e 0c3d
000000f0: d973 57bd 804c ca3c 9f58 07be a9c1 09be
00000100: 95d8 84ba 05fb 53bc 9be7 373c 02ea 993d
00000110: 1395 3fbd 7055 903d 2bc7 2dbd fdb7 2fbd
00000120: cc32 6b3c ad4c e0bc 9f92 57bc e0f9 3abd
00000130: 546b 0a3b c947 153d 99bb 6e3d ff7d f83c
00000140: 0351 6fbc 2d8c eb3c dce8 323c 1c88 08bd
00000150: 3f8d 57bd bd73 ea39 1fb4 63bc d339 3dbd
00000160: a09a cabb d124 043c ecf4 753d ba1a 93bd
00000170: f087 053d e32a 12bd 1f1f 27bc 0c18 f83d
00000180: fe0f b6bb 26c8 9d3d 2dff d8bc f74c 91bd
00000190: 4502 023d 01ac 8b3c 529c 563d 3118 d93c
000001a0: f333 033d 4d29 213d 1b0e fcbc f4cc 71bd
000001b0: 1fcd a83d d40a 84bd 5cc7 aebd 508e 023e
000001c0: 01dc 93bd 7a91 e8bd fe55 6dbb 62a7 a4bd
000001d0: 7771 cb3d 0e13 613e f22b 0e3d e550 87bd
000001e0: 3cc0 cebd 9490 523d 44c6 4cbd ae80 3f3d
000001f0: 22c5 1fbd 901c 9e3c da4a 823d 12b3 e2bd
00000200: 2456 58bd 8a3d 86bc 5a3e 26bd 7a5e 0b3e
00000210: 0c0c 4a3c 6a81 1d3d fcb6 953d 8cb5 2f3c
00000220: b400 573c 85b0 583d fa86 68bd fe4d 1dbe
00000230: c325 a43a 3c97 0bbd ee30 2c3c 1d01 c23d
00000240: c642 a0bd d7cd 003c 175b 473d 8f9a aabb
00000250: f10c e63c 0a4a 2cbc e6fe 93bd 4526 e3bc
00000260: bfb3 9d3d f219 96bd b2f7 54bc 9a54 21bd
00000270: 2815 8ebd a4a6 7abc d4d4 63bc 5ec0 c4bb
00000280: 9fbd c53d 89f3 473e 9545 543d f2f5 a13c
00000290: df14 f4bc 6e83 1cbd 17ff 763d b9f7 1ebd
000002a0: e6f1 aebd c669 7c3b 9d7d 6ebc d2f3 9ebc
000002b0: bee2 1a3e cc3b ef3b be2b 19bd 516a a2bd
000002c0: ff0f 903c 8f4d 46bd f392 cebd bd68 043e
000002d0: 6949 cc3d 2773 41bd e3dc d2bd 23ec a33d
000002e0: 8046 2d3c ef7e 943a 4273 59bd ac1b ddbd
000002f0: 156e 0abe fec6 c7bd 5b74 063e 692f ff3d
00000300: 78fd 1f3c e023 1f3d 93f9 b93d d3b4 433d
00000310: c141 233c ef4b d03d 7f6f 98bd dfc2 30be
00000320: 3136 8b3d 3ad8 153d 991a 3c3c 889b b6bc
00000330: 4b81 a7bb bdb0 b0bd 9265 8d3d c92c 30bd
00000340: 2d55 26bd 0a07 fe3c 0538 afbb ec62 7ebd
00000350: 66d1 083d d032 993d bc58 1bbc 33b7 ccbc
00000360: abcd 5ebd 1caa 8fbd cda6 863d b870 51bd
00000370: 8677 8fbd 05bd bd3b da82 a5bc 3261 7a3c
00000380: 6d8f 36bb 7151 cd3d d89e 90bc 5f31 9ebb
00000390: 0c53 7bbd 7f0c 89bc bd34 99bc bcb3 17bd
000003a0: 534b 0fbe 8d76 a5bd 7bb9 5f3d 2205 ee3c
000003b0: 2263 023d 109c 5c3d f53a e0bd 8fd8 9e3d
000003c0: d145 803c 9579 6a3d 9a63 8d3b 260e 61bc
000003d0: 2346 13be b668 02be ad6f 42bc 3d97 c63d
000003e0: 12d9 9fbd 4b26 da3d 1a30 45bd c18d 663d
000003f0: 5616 32bc c8bb b7bc 5b97 fa3d 7c42 b7bd

local_block.conv_chan.conv.0.bias f4 [8]
-0.0019368385 -0.05198464 0.046690073 0.06341096 0.06998038 0.006264141 0.07914382 -0.012090968
00000000: 84dd fdba d9ed 54bd 173e 3f3d 9bdd 813d
00000010: e051 8f3d 6c43 cd3b 2816 a23d 3219 46bc

local_block.conv_chan.conv.1.weight f4 [8]
0.97516143 1.0945842 1.119906 0.8936325 1.0217614 1.1846371 1.0059901 1.0693678
00000000: 2ea4 793f 561b 8c3f 1459 8f3f 19c5 643f
00000010: 14c9 823f 30a2 973f 49c4 803f 0be1 883f

local_block.conv_chan.conv.1.bias f4 [8]
-0.1119136 -0.12423978 -0.11152769 -0.18575783 -0.09800478 0.022960829 -0.10761025 -0.14863117
00000000: f532 e5bd 6d71 febd a168 e4bd 4d37 3ebe
00000010: bbb6 c8bd 5918 bc3c c362 dcbd c532 18be

local_block.conv_chan.conv.1.running_mean f4 [8]
0.03868107 -0.048067853 -0.14864089 0.10555923 0.09163508 0.03312412 0.1335934 -0.051059026
00000000: 0b70 1e3d cce2 44bd 5135 18be 702f d83d
00000010: 2cab bb3d 28ad 073d b5cc 083e 4523 51bd

local_block.conv_chan.conv.1.running_var f4 [8]
0.118134886 0.08260541 0.1149764 0.26354024 0.13082105 0.10354026 0.14090762 0.13153164
00000000: b4f0 f13d 062d a93d bf78 eb3d bfee 863e
00000010: f4f5 053e ea0c d43d 164a 103e 3bb0 063e

atten.conv.weight f4 [1, 1, 3]
-1.1531981 -0.5404909 0.16927752
00000000: ff9b 93bf 9d5d 0abf 1657 2d3e

tcn.network.0.conv1.weight f4 [16, 16, 16]
-0.042858224 -0.0111078145 -0.013925316 -0.0109526655 -0.058514792 0.037316393 -0.028320374 -0.033766504
-0.04764641 -0.045917857 -0.055871204 -0.06461637 0.03149043 0.0056113577 0.018577242 -0.026904361
0.097119115 0.004926747 0.05244696 -0.025648566 -0.0070523308 0.0026954508 0.009345816 -0.005794297
-0.035921473 -0.08523259 -0.07918046 -0.1059439 -0.022003734 -0.08234344 -0.046264775 -0.066039264
-0.04156138 -0.026083995 0.026854575 0.06073317 0.024053765 0.07511729 -0.020382624 -0.028538907
0.034533124 -0.035565272 -0.047239088 0.013823524 -0.013073389 0.02500286 -0.027645186 0.0027798754
0.08526046 0.02062734 0.037983015 0.064302884 0.07294861 0.07160229 -0.0119567225 0.049080208
0.021275438 -0.03878796 -0.052896407 0.013374094 0.038075574 0.018231569 0.07828225 0.051210653
0.057533193 0.023616888 -0.01624851 -0.021022344 -0.035623044 0.07952941 0.0007069452 0.037285507
0.037718765 -0.039349757 0.01175503 0.020289816 -0.02946782 -0.009423017 0.013223417 0.030062888
0.05174233 -0.034335587 -0.06690217 -0.019878777 -0.046096474 -0.0050492184 -0.056646086 -0.009008894
0.005291245 -0.021213498 -0.0010190919 0.020727478 -0.08263023 0.035924915 -0.022764489 -0.024232326
0.027488561 0.0624478 -0.032218292 -0.043196473 0.056316793 -0.0037406844 -0.030413833 -0.05067443
-0.012090269 -0.03498438 -0.024892645 0.04037125 0.0014240138 0.025277432 0.035260607 0.009839842
0.020416398 -0.06923069 -0.01877361 -0.064129695 -0.01975373 -0.019590868 -0.072161585 -0.026500588
0.013433415 0.035777375 0.036120243 0.007387951 0.02355341 -0.023356773 -0.09145224 -0.030358316
-0.060826946 -0.052064866 0.004053078 -0.011802102 -0.02268854 0.005308285 0.07865153 0.031531103
0.0716882 0.039980218 0.031292718 0.0009300869 -0.071389034 -0.034353685 0.0057998262 -0.042029906
0.013754894 0.014385075 0.054382715 -0.00995848 -0.034353208 -0.079207756 -0.06275549 -0.075281695
-0.08595294 -0.07254728 -0.0040194686 0.027092272 0.055997446 0.08272243 0.08300169 0.1437904
0.0036205987 -0.002288174 0.012490382 0.015647754 0.014799476 -0.047977455 -0.02804279 0.018747717
-0.046055194 0.040853318 -0.059838034 -0.03021029 -0.038614523 -0.052522562 -0.03433896 -0.034341916
-0.04611866 -0.042783316 -0.09126389 -0.019749908 -0.06513556 -0.00971801 -0.014390549 0.017518684
-0.028954107 0.04455979 0.0055188606 0.013691096 -0.013217977 -0.000242147 0.010506629 0.029540079
-0.02461004 -0.033684973 -0.008475857 0.026951851 -0.00097297283 -0.022698995 -0.029742137 -0.03265321
-0.031387214 -0.016428791 0.10214256 0.03310407 0.014435298 -0.017019052 0.020496778 -0.04885892
0.019444093 -0.007624274 -0.00061429717 -0.0016838498 0.022397116 -0.028035395 -0.08145938 -0.035779152
-0.04386895 -0.076352686 -0.04624609 0.03898761 0.054134574 0.05361517 -0.032520425 -0.004818336
-0.06960078 -0.00467704 0.030176636 0.0372802 0.055580072 -0.008420251 0.051940717 0.0019978257
0.09108239 0.0397361 0.008887693 -0.01888717 -0.035010513 -0.052776128 -0.06255772 -0.034096207
-0.058370553 0.0022776348 -0.059781283 0.02430458 0.029007494 0.005198052 0.057986267 0.043585297
0.021540964 0.013296686 0.066579096 0.07579665 0.058854442 0.04911427 -0.048448674 0.014548717
00000000: 1b8c 2fbd 8dfd 35bc 0227 64bc cf72 33bc
00000010: 35ad 6fbd 13d9 183d 2100 e8bc bf4e 0abd
00000020: e228 43bd 5d14 3cbd 34d9 64bd 9655 84bd
00000030: 1cfc 003d 7bdf b73b 4d2f 983c 8966 dcbc
00000040: 63e6 c63d 8d70 a13b a0d2 563d f11c d2bc
00000050: 3d17 e7bb 29a6 303b 321f 193c 16de bdbb
00000060: 6522 13bd 6d8e aebd 5d29 a2bd 1ef9 d8bd
00000070: 2d41 b4bc ada3 a8bd 2280 3dbd 983f 87bd
00000080: 443c 2abd 1aae d5bc 20fe db3c 58c3 783d
00000090: 670c c53c 18d7 993d 76f9 a6bc 6dca e9bc
000000a0: 9b72 0d3d e4ac 11bd c67d 41bd 107c 623c
000000b0: c531 56bc ccd2 cc3c 2878 e2bc 922e 363b
000000c0: 099d ae3d abfa a83c 1494 1b3d 3bb1 833d
000000d0: 1566 953d 39a4 923d 21e6 43bc 5408 493d
000000e0: d449 ae3c 20e0 1ebd e7a9 58bd 041f 5b3c
000000f0: 22f5 1b3d 5f5a 953c 7252 a03d 43c2 513d
00000100: eda7 6b3d 3478 c13c 981b 85bc 0d37 acbc
00000110: 78e9 11bd 51e0 a23d 4a52 393a b0b8 183d
00000120: fe7e 1a3d 362d 21bd 2b98 403c d436 a63c
00000130: 7f66 f1bc ff62 1abc 08a7 583c 7246 f63c
00000140: c4ef 533d 79a3 0cbd 0104 89bd d1d8 a2bc
00000150: a8cf 3cbd ea73 a5bb ba05 68bd 0a9a 13bc
00000160: 2e62 ad3b eec7 adbc 0d93 85ba accc a93c
00000170: 0a3a a9bd 0126 133d 987c babc df82 c6bc
00000180: b12f e13c 44c9 7f3d 54f7 03bd c9ee 30bd
00000190: 70ac 663d 4526 75bb 6e26 f9bc fe8f 4fbd
000001a0: 4316 46bc c84b 0fbd a9eb cbbc 535c 253d
000001b0: f9a5 ba3a 9e12 cf3c 6d6d 103d 4a37 213c
000001c0: 4a40 a73c d2c8 8dbd 1dcb 99bc 6e56 83bd
000001d0: 93d2 a1bc 077d a0bc 74c9 93bd c317 d9bc
000001e0: d417 5c3c 4c8b 123d d2f2 133d a016 f23b
000001f0: 15f3 c03c b456 bfbc 504b bbbd 01b2 f8bc
00000200: ad25 79bd f841 55bd afcf 843b 9b5d 41bc
00000210: 51dd b9bc 1ff1 ad3b 0e14 a13d c226 013d
00000220: 43d1 923d 4cc2 233d cb2c 003d 13d1 733a
00000230: 6a34 92bd 73b6 0cbd 780c be3b 8d27 2cbd
00000240: 355c 613c 61af 6b3c 69c0 5e3d e428 23bc
00000250: f3b5 0cbd ad37 a2bd f385 80bd 4a2d 9abd
00000260: 1808 b0bd ab93 94bd bfb5 83bb 9df0 dd3c
00000270: 945d 653d 616a a93d cafc a93d ca3d 133e
00000280: 9147 6d3b 30f5 15bb 76a4 4c3c b82f 803c
00000290: 8079 723c 0284 44bd feb9 e5bc d094 993c
000002a0: 5fa4 3cbd cf55 273d ba18 75bd 927b f7bc
000002b0: 432a 1ebd e621 57bd 02a7 0cbd 1caa 0cbd
000002c0: ece6 3cbd 8f3d 2fbd 90e8 babd 8fca a1bc
000002d0: cb65 85bd 4a38 1fbc 56c6 6bbc 5883 8f3c
000002e0: 2a31 edbc 5484 363d 8fd7 b43b 9e50 603c
000002f0: 3790 58bc d7e8 7db9 ff23 2c3c 09fe f13c
00000300: ff9a c9bc 41f9 09bd 52de 0abc 21ca dc3c
00000310: 1a0f 7fba 3ef3 b9bc c8a5 f3bc 5fbf 05bd
00000320: e18f 00bd ac95 86bc 1e30 d13d 2298 073d
00000330: 0782 6c3c 8a6b 8bbc dce8 a73c 4a20 48bd
00000340: 3849 9f3c 0cd5 f9bb c908 21ba a0b4 dcba
00000350: 287a b73c 7caa e5bc 2dd4 a6bd 298d 12bd
00000360: eeaf 33bd cc5e 9cbd 8a6c 3dbd 79b1 1f3d
00000370: 37bc 5d3d 959b 5b3d 2334 05bd 22e3 9dbb
00000380: db8a 8ebd db41 99bb fe34 f73c 1fb3 183d
00000390: eea7 633d 18f5 09bc cabf 543d f4ed 023b
000003a0: 6789 ba3d 52c2 223d b09d 113c 44b9 9abc
000003b0: 2f67 0fbd c82b 58bd 431e 80bd 77a8 0bbd
000003c0: f615 6fbd 5f44 153b 38dd 74bd 661a c73c
000003d0: 20a1 ed3c 6c54 aa3b 0283 6d3d 7f86 323d
000003e0: ad76 b03c 58da 593c 9f5a 883d 463b 9b3d
000003f0: 5b11 713d 0b2c 493d 1e72 46bd be5d 6e3c

tcn.network.0.conv1.bias f4 [16]
0.00072252855 -0.0025100317 0.013771082 -1.2689334e-06 -0.013868482 9.393595e-06 0.0029435104 0.00052369817
9.26198e-06 -8.617614e-05 -1.820649e-05 -2.6803282e-05 0.02551452 2.8305536e-05 0.026331885 -0.029236838
00000000: 1268 3d3a 587f 24bb 1ba0 613c 3850 aab5
00000010: a138 63bc 2f99 1d37 e9e7 403b ca48 093a
00000020: e763 1b37 76b9 b4b8 24ba 98b7 9cd7 e0b7
00000030: d403 d13c ad71 ed37 f7b5 d73c 1882 efbc

tcn.network.0.bn1.weight f4 [16]
1.0606673 1.0835134 1.0294833 1.09412 1.1399856 1.113923 1.012343 1.0756954
1.034249 1.0636264 1.0679331 1.0128351 1.0195613 1.0393033 1.05829 1.0279341
00000000: f2c3 873f 91b0 8a3f 1cc6 833f 200c 8c3f
00000010: 0ceb 913f 0795 8e3f 7594 813f 63b0 893f
00000020: 4562 843f e924 883f 08b2 883f 95a4 813f
00000030: fc80 823f e407 853f 0c76 873f 5893 833f

tcn.network.0.bn1.bias f4 [16]
-0.18493903 -0.26264998 -0.33790606 -0.22031666 -0.2294265 -0.2895648 -0.22232835 -0.17388004
-0.21365626 -0.29665706 -0.24547918 -0.21952452 -0.25950396 -0.25078905 -0.2089671 -0.25193596
00000000: a860 3dbe 0f7a 86be 0602 adbe b19a 61be
00000010: c8ee 6abe d641 94be 0baa 63be 9c0d 32be
00000020: b5c8 5abe 6fe3 97be e55e 7bbe 09cb 60be
00000030: b4dd 84be 6c67 80be 79fb 55be c0fd 80be

tcn.network.0.bn1.running_mean f4 [16]
-0.05465036 -0.05879779 -0.094521 -0.0101187285 -0.019617615 -0.03182568 -0.03354854 -0.027727442
-0.06672019 -0.03392284 -0.023990825 -0.044640303 -0.04439426 -0.030512597 -0.043131523 -0.042325206
00000000: 0ed9 5fbd f4d5 70bd 3a94 c1bd 06c9 25bc
00000010: 1fb5 a0bc a55b 02bd 326a 09bd a924 e3bc
00000020: 98a4 88bd adf2 0abd 6888 c4bc c0d8 36bd
00000030: c1d6 35bd 8ef5 f9bc aeaa 30bd 325d 2dbd

tcn.network.0.bn1.running_var f4 [16]
0.6520032 0.66521394 0.60403526 0.6780499 0.63669175 0.61658424 0.58551574 0.8346922
0.7370232 0.65439695 0.5766588 0.5829698 0.6620385 0.6523629 0.6976113 0.57447803
00000000: afe9 263f 764b 2a3f 0ea2 1a3f ae94 2d3f
00000010: 3bfe 223f 77d8 1d3f 5ce4 153f 63ae 553f
00000020: 8dad 3c3f 8f86 273f e99f 133f 823d 153f
00000030: 5b7b 293f 4101 273f a796 323f fe10 133f

tcn.network.0.conv2.weight f4 [16, 16, 16]
-0.013538456 -0.02756555 0.023899352 -0.014558712 0.03617561 -0.006957074 -0.024531528 -0.057458054
-0.050248243 -0.042398337 0.001738337 -0.049198136 0.007544873 0.045562945 0.0059962017 -0.028526809
0.023248965 0.03987015 0.020593911 0.036870003 0.05364978 0.04530933 -0.0025283403 0.042320423
0.030037625 -0.03303741 -0.020410014 -0.07418488 -0.049446788 -0.010571429 -0.027515138 0.043339532
0.019357039 0.027165875 0.012578617 0.03700556 -0.029300142 0.024133848 -0.007095037 -0.02736986
0.0038534843 -0.012343693 0.017814886 0.036868114 0.020383475 0.061334446 0.058775686 0.043603092
0.04419732 0.02772082 -0.01224134 -0.046660777 -0.025178436 -0.022972828 -0.045547176 -0.056931943
-0.05895247 -0.025890738 0.020910844 0.0011105018 -0.0038499862 0.045168836 0.03468987 -0.018495306
-0.010105669 -0.098805375 -0.08681992 -0.027606325 -0.07431285 -0.08393142 -0.0568044 0.009934739
-0.05605286 -0.05888934 -0.058911532 -0.005521812 -0.027137505 -0.09441195 -0.059431143 -0.05662048
-0.013632778 0.0024824922 0.055335455 0.048157927 0.024614247 0.042561177 0.034292806 0.00694794
0.0349201 -0.036678825 0.003908232 -0.072526805 -0.04397475 0.02550194 -0.030183058 -0.006863734
0.017706104 0.024439245 0.014367163 -0.03741135 -0.04238765 -0.019642768 -0.008625153 0.02449568
-0.026683655 0.045419667 0.048622746 0.032847766 -0.008820719 0.06282386 0.02773822 0.06995692
0.0346831 0.08166028 0.05733419 -0.017975517 0.045807283 -0.03739785 -0.053911 -0.08037034
-0.03638221 -0.098909564 0.0004112574 -0.016418563 0.040139437 0.042533435 -0.00916543 -0.049735587
-0.034453772 -0.004859164 -0.043457333 0.040054053 0.011081315 0.03260007 0.0064017554 -0.059856337
0.01030984 0.0030767084 -0.06275284 -0.045541894 0.018260194 -0.055497568 -0.07478989 -0.06560397
0.08041044 0.07371801 -0.008585572 0.031778153 -0.0015083168 -0.010626391 -0.01617022 -0.012790999
0.05079252 0.022772629 0.020752788 -0.010377843 0.009491193 0.0071530407 0.022204261 -0.045374624
-0.0023873562 -0.035437174 -0.09079592 -0.021310976 -0.060546115 -0.047235034 -0.054168 -0.05333648
-0.025505397 -0.04885382 -0.012126622 -0.06503858 -0.003046463 0.03832265 0.028897049 0.017624853
0.025012115 0.021051014 -0.05242819 -0.03295555 -0.014966741 -0.03325729 -0.031681005 0.06262519
0.022359945 0.023122344 0.055176552 0.029847208 0.028398529 0.035477087 0.036431827 0.0108596245
0.0596658 0.064896375 0.07231999 0.042896137 -0.03084079 -0.060704794 -0.08404117 -0.031880446
-0.056932203 -0.0016710976 0.047477443 0.05818216 0.059872087 0.059073087 0.047915287 0.030057864
0.06582201 0.0056215227 0.03228554 -0.0013202972 -0.023940898 -0.06196804 -0.013083806 -0.050749864
-0.017322216 0.01746447 0.022133568 0.012539413 0.017734414 -0.009642419 -0.009529178 -0.0125355385
-0.033230428 -0.04157774 -0.0070431894 -0.03651694 0.020963006 0.037172772 -0.02072903 0.03303143
-0.015434837 0.0024089445 0.0498455 -0.023381649 -0.025673084 -0.034440544 -0.011308378 -0.061070032
0.005687686 0.023244807 0.03098309 -0.017302733 0.005206436 -0.041168537 -0.064492516 -0.044734906
-0.023531854 0.06796083 0.053724 0.08075166 0.0055255494 0.04680615 0.07329242 0.073259704
00000000: 66d0 5dbc 26d1 e1bc 93c8 c33c aa87 6ebc
00000010: e02c 143d 2bf8 e3bb 58f6 c8bc 2359 6bbd
00000020: 1ad1 4dbd e1a9 2dbd e9d8 e33a fc83 49bd
00000030: fb3a f73b 36a0 3a3d c97b c43b 0eb1 e9bc
00000040: 9d74 be3c e24e 233d 90b4 a83c 0005 173d
00000050: dfbf 5b3d 4796 393d 83b2 25bb 2e58 2d3d
00000060: 7711 f63c 3c52 07bd e732 a7bc 3eee 97bd
00000070: b788 4abd c933 2dbc 6d67 e1bc cb84 313d
00000080: a792 9e3c f88a de3c 8b16 4e3c 2493 173d
00000090: da06 f0bc 59b4 c53c 7c7d e8bb c236 e0bc
000000a0: bd8a 7c3b 333d 4abc 86f0 913c 0503 173d
000000b0: 3ffb a63c d439 7b3d c6be 703d 2899 323d
000000c0: 4008 353d c616 e33c e78f 48bc 5f1f 3fbd
000000d0: 0243 cebc 8331 bcbc ad8f 3abd 7831 69bd
000000e0: 2578 71bd d018 d4bc 384d ab3c 428e 913a
000000f0: 0d50 7cbb f502 393d f716 0e3d 7883 97bc
00000100: 3f92 25bc 795a cabd a4ce b1bd a926 e2bc
00000110: 5631 98bd 3de4 abbd bbab 68bd 51c5 223c
00000120: af97 65bd f335 71bd 384d 71bd 51f0 b4bb
00000130: 794f debc 0d5b c1bd 126e 73bd e0ea 67bd
00000140: 045c 5fbc 4fb1 223b 6ea7 623d 3f41 453d
00000150: d1a3 c93c a154 2e3d 9d76 0c3d 8cab e33b
00000160: 6108 0f3d 893c 16bd a010 803b ef88 94bd
00000170: de1e 34bd 72e9 d03c 7642 f7bc 2de9 e0bb
00000180: 640c 913c d034 c83c 4064 6b3c a53c 19bd
00000190: ac9e 2dbd dfe9 a0bc 8450 0dbc 2aab c83c
000001a0: ae97 dabc f909 3a3d a528 473d 618b 063d
000001b0: c784 10bc cca9 803d 433b e33c 9345 8f3d
000001c0: de0f 0e3d 813d a73d 41d7 6a3d 6441 93bc
000001d0: 6ba0 3b3d 7d2e 19bd c8d1 5cbd 3499 a4bd
000001e0: 8305 15bd 1991 cabd 099e d739 3980 86bc
000001f0: 4069 243d 8a37 2e3d 9a2a 16bc 8bb7 4bbd
00000200: 661f 0dbd 9f39 9fbb 5100 32bd b80f 243d
00000210: 678e 353c a787 053d d1c5 d13b eb2b 75bd
00000220: 9aea 283c 9aa2 493b 9084 80bd 238a 3abd
00000230: 6796 953c 6b51 63bd 712b 99bd 605b 86bd
00000240: 3bae a43d 78f9 963d 80aa 0cbc cf29 023d
00000250: b7b2 c5ba 501a 2ebc 6977 84bc 5791 51bc
00000260: d10b 503d aa8d ba3c c001 aa3c d407 2abc
00000270: f380 1b3c 0e64 ea3b b6e5 b53c beda 39bd
00000280: 3175 1cbb 9226 11bd 36f3 b9bd 5b94 aebc
00000290: 34ff 77bd 8679 41bd 44df 5dbd 5a77 5abd
000002a0: b2f0 d0bc f11a 48bd bdae 46bc f232 85bd
000002b0: 2ba7 47bb 36f8 1c3d 81b9 ec3c ff61 903c
000002c0: 35e6 cc3c 2d73 ac3c f1be 56bd 66fc 06bd
000002d0: 1037 75bc cc38 08bd f1c3 01bd a341 803d
000002e0: 342c b73c 126b bd3c cf00 623d 2282 f43c
000002f0: 08a4 e83c 6c50 113d 8a39 153d 91ec 313c
00000300: 2064 743d 64e8 843d 811c 943d dcb3 2f3d
00000310: d3a5 fcbc 97a5 78bd c71d acbd 1295 02bd
00000320: be31 69bd bb08 dbba b577 423d 6b50 6e3d
00000330: 6f3c 753d 9ff6 713d d242 443d e93b f63c
00000340: b1cd 863d c034 b83b d83d 043d d30d adba
00000350: b41f c4bc 33d2 7dbd 765d 56bc 17df 4fbd
00000360: 52e7 8dbc a611 8f3c 7551 b53c 1c72 4d3c
00000370: c347 913c 3dfb 1dbc 4520 1cbc dc61 4dbc
00000380: a11c 08bd 6c4d 2abd 8eca e6bb c992 15bd
00000390: 9cba ab3c 7a42 183d edcf a9bc f74b 073d
000003a0: 66e2 7cbc 62df 1d3b cc2a 4c3d df8a bfbc
000003b0: 5c50 d2bc 8711 0dbd c646 39bc 9224 7abd
000003c0: c55f ba3b e56b be3c 40d0 fd3c 76be 8dbc
000003d0: c09a aa3b 57a0 28bd a714 84bd f33b 37bd
000003e0: e0c5 c0bc 0c2f 8b3d b20d 5c3d 2061 a53d
000003f0: ab0f b53b ceb7 3f3d 561a 963d 2f09 963d

tcn.network.0.conv2.bias f4 [16]
0.019338142 -0.005485396 0.0017805704 0.0004315065 0.009196721 0.043098785 0.006389762 -3.2011083e-06
-0.011075263 -0.0010807079 0.014364393 -8.227342e-06 -0.013662141 -5.594598e-06 0.0023044485 -1.9394425e-05
00000000: 066b 9e3c d6be b3bb 0762 e93a d23b e239
00000010: d8ad 163c 5a88 303d 3561 d13b 9fd2 56b6
00000020: 0575 35bc 8aa6 8dba a258 6b3c 2a08 0ab7
00000030: 2cd7 5fbc 3bb9 bbb6 3b06 173b 36b1 a2b7

tcn.network.0.bn2.weight f4 [16]
1.0 1.0 1.0 1.0 1.0 1.0 1.0 1.0
1.0 1.0 1.0 1.0 1.0 1.0 1.0 1.0
00000000: 0000 803f 0000 803f 0000 803f 0000 803f
00000010: 0000 803f 0000 803f 0000 803f 0000 803f
00000020: 0000 803f 0000 803f 0000 803f 0000 803f
00000030: 0000 803f 0000 803f 0000 803f 0000 803f

tcn.network.0.bn2.bias f4 [16]
0.0 0.0 0.0 0.0 0.0 0.0 0.0 0.0
0.0 0.0 0.0 0.0 0.0 0.0 0.0 0.0
00000000: 0000 0000 0000 0000 0000 0000 0000 0000
00000010: 0000 0000 0000 0000 0000 0000 0000 0000
00000020: 0000 0000 0000 0000 0000 0000 0000 0000
00000030: 0000 0000 0000 0000 0000 0000 0000 0000

tcn.network.0.bn2.running_mean f4 [16]
0.0 0.0 0.0 0.0 0.0 0.0 0.0 0.0
0.0 0.0 0.0 0.0 0.0 0.0 0.0 0.0
00000000: 0000 0000 0000 0000 0000 0000 0000 0000
00000010: 0000 0000 0000 0000 0000 0000 0000 0000
00000020: 0000 0000 0000 0000 0000 0000 0000 0000
00000030: 0000 0000 0000 0000 0000 0000 0000 0000

tcn.network.0.bn2.running_var f4 [16]
1.0 1.0 1.0 1.0 1.0 1.0 1.0 1.0
1.0 1.0 1.0 1.0 1.0 1.0 1.0 1.0
00000000: 0000 803f 0000 803f 0000 803f 0000 803f
00000010: 0000 803f 0000 803f 0000 803f 0000 803f
00000020: 0000 803f 0000 803f 0000 803f 0000 803f
00000030: 0000 803f 0000 803f 0000 803f 0000 803f
