model/Benchmark/DTCNet_b1_1s_S21.pth (torch, 181815 bytes, 74 tensors)

global_block.conv_time.conv.0.weight f4 [8, 1, 1, 125]
00000000: 4bee a43c f99f 383d da1c 6a3c 7538 743c
00000010: 790f 46bd b3f7 5c3d 9178 85bc 26a3 bb3c
00000020: 8a6e c23c 8a16 f1bc 607a cd3c 00bb 9abc
00000030: d5df 063b 0952 1d3c a7be 35bd bdc2 703d
00000040: 1e78 203d 1fe3 9c3d 204a 0cbd d4ad 083d
00000050: 4297 1a3d a18a 0b3c 1416 c6bb 9317 8c3c
00000060: 0616 063d 5392 923c 20dd ea3c 2983 3d3d
00000070: b434 9e3d 7667 bcbc 2117 263d 3f51 1fbc
00000080: 711d 853d c017 3bbc cab8 e3bc b464 d4bc
00000090: 2653 0d3d 005b e8bb c052 2b3d 07a2 aabd
000000a0: 786b 17bc 8b71 82bd e4e0 473c 8ddb 403d
000000b0: 6f08 5abc 9e4e 813c e955 66bc a9a0 43bd
000000c0: e062 693d f558 5d3d c331 933d 1a07 833d
000000d0: a9ce 07bb d81c 403c ae6f b13c 730c 98bd
000000e0: ebfd afbd 7585 8ebb d2e6 bd3c bdd0 1ebc
000000f0: 71a0 e8bc c26e 81bc 3366 2cbd 70c6 9cbd
00000100: a1c6 a53b 646c bdbb 9e59 283d 298e f6ba
00000110: 31d3 133c ca18 0abc 07b4 19bd a170 fd3a
00000120: 96a4 a7bc 96a0 cb3d 8bf8 293d 778b c8bc
00000130: 8f10 873c 5516 0a3e b605 313e 6914 4bbc
00000140: 0acf 9bbd 5358 f3bc 72e7 bbbd d376 2fbd
00000150: 5cd6 bdbd c020 853c e8ab 8fbc 237f d8bd
00000160: b62a 86bd 3e63 60bc 5957 18bd 1702 bfbb
00000170: 5df4 b2bd 93d1 a4bd cd1b a83c 45f2 8ebc
00000180: 28f7 973d 4bbc 253e aa8e 0e3e fdad 473c
00000190: 30a6 58bc 22ca 233c f2ae fabc 0936 85bd
000001a0: 20ee 023d 6dd3 bc3d 5bfb 1e3d 7325 9ebd
000001b0: 0461 d0bd 85c1 99bd 3fd8 66bb 6c1f 1bbd
000001c0: e5c8 96bc 8c98 efbc 0d5f 753c dbe5 123c
000001d0: 01d7 6ebd 0607 acbd 8ec2 22bc dcc3 9d3b
000001e0: 1f0c 0dbd a83f 2b3d 9702 bd3d 05c9 d6bc
000001f0: d0c1 0bbd fa59 f43c 02cc 19bd 39b1 8cbc
00000200: f642 013e 3707 133c 0dda c13c 32b5 e1bc
00000210: ba75 fb3c 6937 88ba 0be4 a0bb fcd1 f63b
00000220: 5061 a33c e806 213d 70f6 af3d 1044 c23d
00000230: 25b5 47bd 0685 9b3d 436e 663c 3c98 a93c
00000240: 4bcd 8a3d 0f3f 5cbd 7d3b 59bd 8d46 c93b
00000250: 362a 03bb 3543 2ebc 83f4 b93b 5c2a 593d
00000260: da51 873a 6e38 9e3c f55a 6dbd e016 d73c
00000270: 0995 7b3c 3d6e a2bc 05e7 b13b 2152 f3bc
00000280: 5407 8ebc c072 8b39 b3a4 183d 7cdb 91bb
00000290: 5605 b0bd 3003 94bd 809d bbbc 112c dfbc
000002a0: 867e 083d 9927 c73b 6e8e c9bc 3afa 3bbd
000002b0: 76df 583d fe0b d53b 5871 20bc bbde 883d
000002c0: 4370 10bd 7fe0 1ebd 4f33 14bd ff1e e9bc
000002d0: 354b 06be 4e8d 963c 5cb6 dc3b 9682 063d
000002e0: 05c9 44bd 8228 c73c 99bd 263d 524f f4bc
000002f0: 0b46 503d e20b f4bc 4e09 c73c c157 92bd
00000300: df66 bebc 8fb7 80ba 05e3 953d d99f a13d
00000310: d3d6 ae3c 77b0 44bc c1bf cabc 1099 3e3d
00000320: c7bf 39bd f39e 8b3c a112 2abd 2de6 1a3e
00000330: bdea 7e3e f701 273e c867 463c 219c a2bd
00000340: 1996 eebd e047 efbc fe35 543b bdda b8bc
00000350: 018e aa3c ec31 943c 7893 02be aec7 ccbd
00000360: fcf5 7dbd 2117 93bc 0dd4 2dbd cfd2 883c
00000370: 2efe 6f3c 8942 75bb e467 bb3c 12dd da3c
00000380: 3430 b8bd 5df6 233d f66a 9c3c 586b 9f3d
00000390: 20e7 82bd c90c 68bd fd00 253d c825 50bd
000003a0: c484 26bd 6c0f 563d 5e9f 083c 543d f4bd
000003b0: 40bc 3f3d 3332 d53c 3774 b63d 8beb 26bd
000003c0: a440 b1bd 451e a0bd 48c3 91bc 77d0 00bd
000003d0: 649c 093d 81d7 24bd e73b 3bbd b184 4bbc
000003e0: 1087 853b 8526 adbd a180 b23c d123 97bd
000003f0: aade 113c fb7c cd3c dcef 32bd 056d f93a
0.020133158 0.045074437 0.014289105 0.0149060385 -0.0483546 0.053947162 -0.016292842 0.022904944
0.02373435 -0.029429693 0.025082767 -0.018887997 0.0020580192 0.009602078 -0.044371273 0.058779467
0.039177053 0.076605074 -0.03425038 0.0333689 0.037741907 0.008516938 -0.0060451124 0.017101085
0.032735847 0.017892038 0.028669894 0.046267662 0.07724896 -0.022998553 0.0405494 -0.00972396
0.06499756 -0.011419237 -0.027798075 -0.025926925 0.034503125 -0.007090926 0.041826963 -0.083316855
-0.009241931 -0.06369313 0.012199614 0.04708438 -0.013307675 0.015784558 -0.0140585685 -0.04776064
0.05697906 0.054039914 0.07187226 0.06397839 -0.0020722544 0.011725627 0.021659698 -0.074242495
-0.08593353 -0.0043494054 0.023181353 -0.009693322 -0.028396817 -0.015799884 -0.042089652 -0.076550364
0.005059079 -0.0057807434 0.04110109 -0.0018810678 0.00902252 -0.008428762 -0.037525203 0.0019335934
-0.020464223 0.09942739 0.041496795 -0.024480565 0.016487388 0.13485081 0.17287335 -0.012395003
-0.07607849 -0.029705202 -0.09175004 -0.04283793 -0.092694014 0.016250968 -0.017538026 -0.105711244
-0.06551115 -0.013695536 -0.037192676 -0.0058291066 -0.08738015 -0.080477856 0.020521069 -0.017449507
0.07420188 0.1618511 0.1392161 0.012187478 -0.013223216 0.009996923 -0.030600999 -0.06504447
0.031965375 0.09220014 0.03881393 -0.077219866 -0.10174754 -0.07507614 -0.0035224108 -0.037871763
-0.01840634 -0.029247545 0.014976275 0.008965935 -0.058310512 -0.08399777 -0.009934081 0.004814608
-0.034435388 0.041808754 0.092290096 -0.0262189 -0.03412038 0.02982806 -0.037548073 -0.01717435
0.126232 0.008973888 0.023663545 -0.027552221 0.030695785 -0.001039249 -0.0049099973 0.0075323563
0.019943863 0.039313227 0.08591926 0.09485638 -0.048756737 0.075937316 0.014064374 0.020702474
0.06777438 -0.053771075 -0.053035248 0.0061424435 -0.0020014173 -0.010636141 0.0056749 0.053018913
0.0010324076 0.019314017 -0.05794807 0.026256025 0.015355357 -0.019827956 0.005429151 -0.029702248
-0.017337479 0.0002659764 0.037266444 -0.0044512134 -0.08594768 -0.072271705 -0.02290225 -0.027242692
0.033323787 0.0060777185 -0.024604049 -0.04589293 0.052947484 0.0065016737 -0.009792648 0.066831075
-0.03526331 -0.038788315 -0.036181744 -0.028457163 -0.13114627 0.018377926 0.006735606 0.03283938
-0.04804327 0.024311308 0.04070816 -0.02982298 0.05084805 -0.029790822 0.024296429 -0.07145644
-0.023242412 -0.000982033 0.07318691 0.07891817 0.02134267 -0.012004963 -0.024749639 0.04653269
-0.04534891 0.017043566 -0.041521672 0.15126868 0.24894233 0.16309343 0.012109704 -0.079399355
-0.116497226 -0.029209077 0.0032380815 -0.02256524 0.020819666 0.01809021 -0.12751567 -0.099990234
-0.062002167 -0.017955365 -0.042438556 0.016702084 0.0146480035 -0.0037423691 0.022876687 0.026716743
-0.08993569 0.040029872 0.019093972 0.07784146 -0.0639174 -0.056652818 0.040284146 -0.05081728
-0.04065396 0.0522608 0.008338777 -0.1192576 0.04681039 0.026024913 0.08908885 -0.040751975
-0.08654907 -0.078182735 -0.017793313 -0.031448808 0.03359641 -0.040244583 -0.045711424 -0.012421773
0.0040749386 -0.08454613 0.02178985 -0.07379878 0.008903185 0.02508401 -0.04368578 0.0019029683

global_block.conv_time.conv.0.bias f4 [8]
00000000: 7639 acbb 883a 003d 1483 123c 725d 0d3d
00000010: 91a2 f1bc ba9d cabd d55f 9a3c df07 0b3c
-0.0052558733 0.03130582 0.008942384 0.034512945 -0.029496463 -0.09893365 0.018844524 0.008485763

global_block.conv_time.conv.1.weight f4 [8]
00000000: bbef 803f d224 843f 36ee 703f 0632 6a3f
00000010: 3730 8c3f 6f63 663f 599c 7e3f dc8c 7a3f
1.007316 1.0323737 0.9411348 0.9148258 1.0952214 0.89995474 0.9945732 0.97871184

global_block.conv_time.conv.1.bias f4 [8]
00000000: 2f51 babc b984 e8bc a9b4 233e 78fd 103c
00000010: 1f1a 32bd 606c b93d b26e 6dbd 85a5 b53c
-0.02274379 -0.0283836 0.15986885 0.008849494 -0.043481942 0.09053874 -0.057966895 0.022173652

global_block.conv_time.conv.1.running_mean f4 [8]
00000000: c576 f4bc 029c 273d 238e 173d c9f3 bc3b
00000010: 68af 1fbd 79c6 a8bd 4c0e d43c 597f 5cbc
-0.02984179 0.040920265 0.037000787 0.005766366 -0.03898564 -0.08240981 0.025885724 -0.013458096

global_block.conv_time.conv.1.running_var f4 [8]
00000000: 8c0b 2941 392d bd40 5989 b140 49d4 b440
00000010: 6580 b240 8fa8 ea40 8841 ad40 22d2 cb40
10.565319 5.9117703 5.548016 5.6509137 5.578173 7.333076 5.4142494 6.369401

global_block.conv_chan.conv.0.weight f4 [8, 8, 11, 1]
00000000: 5e05 e6bd 559c 06bd fc61 9dbc 7dd5 98bd
00000010: 9c53 c23d 06b5 a43d f6df 423d 2703 c9bd
00000020: 8e64 003d d9c9 02bd 528d d93d c55f 893d
00000030: 5320 7bbd fe41 52bd e32b cc3d d399 4d3c
00000040: dab9 9c3c 9c8d 80bc a3dd f2bd 1e39 cb3d
00000050: f07e 2fbd 5d92 533d 6fad 8abd 1ae8 743b
00000060: 946d 1f3d dae8 6abd 50fd 68ba e08e 7ebd
00000070: 9ab5 873d b8b8 37bd 6958 75bd b3dc 20bd
00000080: 0930 b5bc ae2c 633d a85a 45bd e0bd 6abd
00000090: 417b a1bc 951a 01bc cfb1 e13c 6f4d c7bc
000000a0: f8d4 dabd c9f9 0f3c 381a 893d 2cf6 9f3d
000000b0: 113e b7bd 9f02 8e3d d670 95ba 42c7 acbd
000000c0: b182 c0bd 2e4a 25bd c6d4 eb3d 204a a53d
000000d0: d6a8 5d3d f949 74bc 5a49 15be 7509 1dbb
000000e0: 40a0 1b3d 56b4 9c3d f9ba 1cbd 40e6 28be
000000f0: 6749 243d ef0a c13d a5f5 163e f2cf a7bc
00000100: 76d0 993d 66cf b2bd 86e8 413d a16b 35bd
00000110: cd77 003c a8ed 5d3b 1c0c c63a 8714 86bd
00000120: 392e 583c 2779 2ebc 6c10 103d 9804 3e3d
00000130: 220f d9bc 879a 85bd ccda 47bd 207e 48bd
00000140: 7b84 89bc 50c8 45bd 96c9 003e 78b0 9c3d
00000150: 069a fdbd 9d60 543b d383 a2bc 26b5 703c
00000160: c4f8 863b 6cb5 7ebd 1589 e9bc 0023 183d
00000170: 159c 3bbc 2d4b 83bd ee3a 3cbc b35b 033d
00000180: 4bb7 5a3d f9b9 9d3d d031 c6bc 1c13 c5bb
00000190: 5eee dcbd 6aab 8cba cf23 d83c b9df 4b3d
000001a0: 9c2b 11bd 9315 f9bd ef0a 3a3d 8d76 503d
000001b0: 20c0 773d d095 9a3d 5a5c d63d 7997 4fbe
000001c0: 0e8c 3fbd 0110 acbd 3ef4 6a3d f395 aa3d
000001d0: 051c a1bd d979 a2bd 5a8d 52bd 0bbd a03d
000001e0: 594b bd3d 4b39 59bd 8ad0 94bd 529d 83bd
000001f0: 88d3 583d d46b b2bc 4119 6ebd 5fa5 573d
00000200: cf7a a33d 1edc cd3d f199 22bd bbab e1bd
00000210: 248c 923d ab9a 0f3e 8372 1abb 878d 8bbd
00000220: 4106 4c3c 4dcf c1bd 53e2 303d 1cce d73d
00000230: 5e37 573d 00e3 efbd 72ee 63bd d26b 89bd
00000240: 7e6d 003e 52b7 fa3c 2ff2 0cbd f715 f9bd
00000250: 54d5 52bb b0b9 973d bc35 4bbc 2a32 8bbd
00000260: dc4a 6abd 1cff 543d ef9a a1bd 62e2 31be
00000270: a4ac c1b8 a747 8a3d 4481 1b3d 488e 99bc
00000280: aff6 d1bc 8b33 863c 7fb5 303d 7447 97bc
00000290: 7126 c83d 02ee 34bd 0cbb 1e3d d7ab 113d
000002a0: fdae 1cbd 9f03 ffbd 135d 0c3d 8155 143c
000002b0: 9926 e23d 4164 92bd 0ba6 80bd c2a8 3cbd
000002c0: 23ab 04bd 7fbb 3ebd ff3f dcbd 17b2 dc3c
000002d0: fa95 8e3d 8ff8 d33b 2fd4 b7bd 1d33 3e3d
000002e0: 9fdc 5fbb 6bf6 803d 0cf0 e03b ed76 aebd
000002f0: bcb6 65be 2d9a 03bd b4e1 f43c eeee d63d
00000300: 0778 08bd 61a8 033d 0c54 913d d99b 373d
00000310: f5f2 fe3c 847c 9d3d 2bf4 243d 85c4 093e
00000320: 31ad f9bd 07f9 83bd a46e 4fbd 3e5e 96bd
00000330: 3979 633d 2f2b 083e 9f1a 5d3d 8886 8abd
00000340: ffed e7bc be00 ba3c 32da 823c b780 a93c
00000350: 9a45 d1bd a46e afbc cb0c a9bd 80b2 dabc
00000360: e198 053e 1c75 c43b dd12 c6bb 9fd3 aabd
00000370: a773 70bd cfd6 1ebe b48a 1a3d 6212 ab3d
00000380: c04b d83c ea00 a43d 9b65 d3bd 8173 563d
00000390: 6915 ce3c c491 69bd 6a3d 9e3c 02d5 32bc
000003a0: c3e4 cc3c d100 213d 957b ea3d c3fd 26bd
000003b0: 4302 8b3b c205 ebbd 46a3 7dbd ed2a d6bd
000003c0: b168 633d ab65 8b3d d89b b3bd e1d5 103e
000003d0: fbff 70bd a879 f9bd fb1e 7cbd b518 0c3c
000003e0: 7e92 c13d e69d 93bc f9f1 943d d136 f43c
000003f0: 133b b4bd 0666 62bd 003b 25bd 32c0 333b
-0.112314925 -0.032863934 -0.019211762 -0.07462595 0.094886035 0.0804234 0.047576867 -0.098150544
0.031345896 -0.03193078 0.10622658 0.0670772 -0.061310124 -0.051332466 0.09969308 0.012548882
0.01913159 -0.015692525 -0.1185868 0.099230036 -0.042845666 0.051653255 -0.06771361 0.0037369789
0.03892286 -0.05735097 -0.0008887844 -0.062147975 0.066264346 -0.044853896 -0.059898768 -0.039272975
-0.022117632 0.05546253 -0.04818216 -0.057309985 -0.019712092 -0.007879873 0.027550606 -0.024328915
-0.10685152 0.008787581 0.06694454 0.078106254 -0.08947385 0.06934094 -0.0011401426 -0.08436443
-0.093999274 -0.040353946 0.11515193 0.08070779 0.054116093 -0.014910215 -0.14578763 -0.0023961936
0.037994623 0.07651584 -0.03826425 -0.16494083 0.040109064 0.094259135 0.14742143 -0.020484898
0.07510464 -0.08730964 0.047340892 -0.044292096 0.007841063 0.0033863578 0.001510981 -0.06546884
0.013194614 -0.010649002 0.03517191 0.0463911 -0.026496474 -0.065236144 -0.048792645 -0.048948407
-0.016786804 -0.048286736 0.12576899 0.07650846 -0.12382893 0.0032406219 -0.01983825 0.014691627
0.0041190106 -0.062184736 -0.028507749 0.037142754 -0.011450787 -0.06410823 -0.011488659 0.032069873
0.053397458 0.07701487 -0.024193674 -0.006014241 -0.107876524 -0.0010732238 0.026384262 0.049773905
-0.03544198 -0.12162318 0.045420583 0.05089431 0.06048596 0.07548106 0.104668334 -0.20272626
-0.046764426 -0.0840149 0.057361834 0.08329382 -0.078666724 -0.07933397 -0.051404335 0.07848557
0.09242887 -0.053033154 -0.07266338 -0.06426491 0.052936107 -0.021779932 -0.058129553 0.052647945
0.07982408 0.1005175 -0.03969759 -0.11019083 0.07155636 0.14023845 -0.002356679 -0.068141036
0.012452663 -0.094633676 0.04318459 0.10537359 0.052543037 -0.11713219 -0.05564732 -0.06710018
0.12541768 0.030604992 -0.03441065 -0.121623926 -0.003217061 0.07408464 -0.012402948 -0.067966774
-0.057200298 0.052001104 -0.07890879 -0.17371514 -9.235114e-05 0.06751948 0.037965074 -0.018744603
-0.025630323 0.016382 0.04314184 -0.018466689 0.09772957 -0.044172294 0.0387526 0.03556427
-0.03825282 -0.124518625 0.03426845 0.009053589 0.11042518 -0.07148028 -0.0628167 -0.046059377
-0.03238977 -0.04656553 -0.10754394 0.026940389 0.069621995 0.0064688395 -0.08976018 0.046435464
-0.00341586 0.062970005 0.0068645533 -0.08518777 -0.22432989 -0.032129455 0.02989278 0.10494791
-0.033317592 0.032143 0.07096109 0.044826362 0.03112171 0.07689765 0.04027192 0.13453873
-0.12191237 -0.064439826 -0.050642624 -0.07342194 0.05553553 0.13297723 0.053980466 -0.06763941
-0.028311728 0.022705432 0.015973184 0.020691259 -0.102183536 -0.021415062 -0.08254393 -0.026696444
0.130466 0.005995406 -0.006044729 -0.08341145 -0.058704045 -0.1551163 0.037729934 0.083531156
0.026403308 0.08007987 -0.10322114 0.052356247 0.025156694 -0.05702378 0.019316394 -0.010915043
0.025011426 0.03930742 0.11449353 -0.04076935 0.004242213 -0.114757076 -0.061923288 -0.10457406
0.055519763 0.06806501 -0.08769959 0.14144088 -0.058837872 -0.12181407 -0.061552983 0.0085508125
0.09451769 -0.018019628 0.07272715 0.029811295 -0.0880033 -0.05527308 -0.04033947 0.002742779

global_block.conv_chan.conv.0.bias f4 [8]
00000000: 613b 5e3d 262d 8a3c 54ca a5ba 8d01 49bd
00000010: 5a8d 9c3d 68ef 27bd 494f aa3a 239f 3c3d
0.054255847 0.016867232 -0.00126488 -0.049073745 0.07644148 -0.0409998 0.00129936 0.046050202

global_block.conv_chan.conv.1.weight f4 [8]
00000000: afee 7f3f 7a57 853f c93b 8c3f 8893 703f
00000010: 87e4 7a3f 80f1 6a3f 8f26 833f 6333 733f
0.9997358 1.0417321 1.0955745 0.93975115 0.98004955 0.9177475 1.0246142 0.95000285

global_block.conv_chan.conv.1.bias f4 [8]
00000000: 69fe 80be 4ab2 1dbe cbd7 52be 0430 e0bd
00000010: 614b 23be 0418 5abe 2a22 5dbe 1c70 41be
-0.251941 -0.15400043 -0.20590131 -0.10946658 -0.15946724 -0.21298224 -0.21595064 -0.18890423

global_block.conv_chan.conv.1.running_mean f4 [8]
00000000: 4817 503c cb2b a0bd 3924 bbbd 3a6b 4fbd
00000010: bc42 b33d 1e86 acbd fa5c 593d a841 863d
0.012700863 -0.07820853 -0.09137768 -0.05063937 0.08752963 -0.08424018 0.053067185 0.06555492

global_block.conv_chan.conv.1.running_var f4 [8]
00000000: 5718 c33d 97d6 003e cd37 c83d ffad 4d3d
00000010: 30ab 2b3d 3a17 2a3e 8fa3 a13d aa1c 6e3d
0.09526127 0.1258186 0.09776268 0.050214764 0.041911304 0.16610423 0.078925245 0.058132805

local_block.conv_time.conv.0.weight f4 [8, 1, 1, 51]
00000000: f8d6 94bd abe9 173c 86d8 993c 3edd 7c3b
00000010: 7a16 c8bc 8c5e f3bd f254 4a3d 88c4 1c3a
00000020: 99a3 f53d 7250 643c 7d9e 65bd 24dc 333c
00000030: 4004 f03d 854e adbd 2dc4 7c3c 9b55 67bd
00000040: e8da 7bbd 8047 053e 45e1 1b3e 9ebf 433d
00000050: 99e4 28be 1666 62bd 2ce0 04bd 0be3 00bd
00000060: e2c6 383c c553 da3d 5288 8e3c 84bc a1bc
00000070: e892 643d cf6e f93d 749d c93c fd55 993d
00000080: ffeb 3d3d ad41 ccbd 971a e93d 6ffa 173e
00000090: 1178 aa3b c610 82be 3230 b1bd 7535 8a3d
000000a0: c146 aa3d aef4 cebd 4b12 073e c62f 0a3e
000000b0: cf2b 253d 49c1 7abd 49e5 243b d7ed 62bd
000000c0: 5096 ffbc d96f 7f3d e81e 22bd 0822 003d
000000d0: e8d2 6fbd 4c01 16bd b256 89bd 6a00 2639
000000e0: 4ca3 5fbd f9a6 37bd 962f 3e3d 0532 b9bd
000000f0: a22c 3b3d 035a 52bd 006e 273e 5223 0e3e
00000100: 562a 8bbb 88e9 d0bb 9092 0fbc 74ef 85bc
00000110: cb6f d9bd 1ed2 d2bc 1946 5cbc 73aa cebd
00000120: af76 0c3d eb4a a0bd 878c 52bd 9580 2e3d
00000130: a87c 5bbd 185c 373b 6e4e b03d 02c7 173e
00000140: a323 9e3d 2418 5bbd bebb a23c fcae 31bd
00000150: efd1 213d 0afb be3d 25be 5dbd 7e56 143d
00000160: e085 3a3d 9a84 f13d 8b36 bd3d 6ac3 7a3c
00000170: 7e52 06bc eaec c2bd 0518 14bd 0da3 343d
00000180: 4944 343e 3cf5 ea3c 8e10 5e3d 4454 14bd
00000190: bede 9b3d d28c b8bd 6b4e 79bd 40cb 11be
000001a0: 3594 7e3d 34e2 5fbd 1e02 26bd b749 5e3d
000001b0: 814d 283d f391 3c3d 723a 163e f63a 09bb
000001c0: de62 073e 0c6c ce3c 1d1a 46bd 779b e2bc
000001d0: e33c 0ebd bf41 f0bc 141a 23bd b068 a2bc
000001e0: 9751 e4bd 169c e23d 524e 0a3e 0998 813d
000001f0: b10a b63d 5175 80bd e13d 66bc 0f3c c0bd
00000200: c397 62b9 8d6e bdbd 4c5c b8bd 289b 163d
00000210: db34 8fbc 241c 8cbd a291 203c 9d81 27bd
00000220: ba11 723d f22a 71bd 9b38 233d 3016 473e
00000230: 6ee8 a33d 58f8 1a3e ed4f f43d db73 d4bd
00000240: 8e95 51be 3c74 bfbc fe99 bfbd bb82 cdbd
00000250: 581a eabd df03 e03d e036 053e ce92 5dbd
00000260: ccb4 aebc 0994 163d 2e33 5b3b 946b b8bc
00000270: 3b2d 153c b839 313d 1ff2 dfbc ade3 a33b
00000280: 9ce4 1f3c 61d2 fc3d 77b0 41bd a3a6 823b
00000290: 5fa7 a63d 67dc e7bd 1467 51bd 7219 883d
000002a0: 2ba5 82bd c720 a43c 8c62 9d3b 399b 533d
000002b0: 3b4c 0a3e 4946 fb3a 8697 98bd 7971 2f3d
000002c0: 1c99 b8bd e61c 4abd eb3c fd3c ed90 21bd
000002d0: 9013 42bd 2e44 45bd 579e bf3d cddc 81bd
000002e0: 83e0 da3d e043 43bd c082 c63d 4cd1 203e
000002f0: b39e e33c d452 a0bd 95fc 633d 9c80 133d
00000300: 8ebc c9bd 8821 30be 4767 883d 66d1 17bd
00000310: c402 88bc 9e83 43be 1e1b ecbd 5c03 3e3d
00000320: e0dd d2bd 1790 953d 295b 7c3b efff 2e3e
00000330: b5a1 35bd b82a b93d bd39 c8bd 9139 11bd
00000340: 9730 c1bc 93eb d2bd 025b ca3c 8d05 37bd
00000350: 6d17 0b3d c598 5d3c bb56 aabd 0884 9ebd
00000360: 721b f4bd 6ad7 a139 485b 113c 88f7 6fbd
00000370: 5a7c 803d b948 e2bd b7f3 fe3c 2b1c 753d
00000380: 8a2c e6bd bad5 62bd 221a 2d3b f56d 493c
00000390: 41ab 443d 9153 6b3d 8273 bb3d e726 17bd
000003a0: 9e18 c9bd 183b febc 51b2 7c3c 1206 ebbc
000003b0: caac 51bd 3f96 a03d 1126 c8ba 5f04 53bd
000003c0: a1e9 8b3d eb4d d4bd e0ed fdbd 947b 70ba
000003d0: b6e0 1dbe 7db2 c2bd 1d91 383e 07a7 303e
000003e0: 9b0c e4bd 45ae f0bd 3e0a 44be 1b0d 48bd
000003f0: 7c2d 0abd b27e ad3c 99ef 513c 83bc a33c
-0.072675645 0.009272019 0.018780004 0.003858402 -0.02442478 -0.11883268 0.049397416 0.0005980213
0.119940944 0.013935195 -0.05605935 0.010977779 0.117195606 -0.08462242 0.015427631 -0.056478124
-0.061488062 0.13015556 0.15222652 0.047790162 -0.16493453 -0.055273138 -0.03244035 -0.031466525
0.011277886 0.10660509 0.017398987 -0.019743212 0.055804163 0.12179338 0.024611212 0.07487104
0.04636764 -0.09973464 0.11382025 0.14841627 0.0052023013 -0.25403422 -0.08651771 0.06748477
0.083142765 -0.10105263 0.13190572 0.13494787 0.040324982 -0.061219487 0.0025161079 -0.055402603
-0.031199604 0.062362526 -0.039580256 0.031282455 -0.058550745 -0.03662233 -0.06705989 0.00015831148
-0.05459909 -0.044836972 0.0464321 -0.090427436 0.045696862 -0.051355373 0.16350555 0.13880661
-0.00424699 -0.0063754953 -0.008762971 -0.016349532 -0.10617026 -0.025734957 -0.013444447 -0.10091104
0.034292873 -0.078267895 -0.05140355 0.042603094 -0.05358568 0.0027978476 0.08608709 0.14822009
0.07721641 -0.05348982 0.019864913 -0.04337977 0.03950685 0.09325226 -0.054136414 0.036215298
0.04553783 0.1179287 0.09238919 0.015305379 -0.008198379 -0.09517844 -0.03615572 0.04410081
0.17604174 0.02868139 0.054215007 -0.036213174 0.07610844 -0.09011234 -0.0608658 -0.1423769
0.06215306 -0.054659083 -0.040529363 0.05426952 0.04108954 0.046037626 0.14670733 -0.0020939684
0.13221309 0.025198005 -0.048364747 -0.027662022 -0.034726035 -0.029328225 -0.039819792 -0.01982531
-0.111483745 0.11064927 0.1350644 0.063278265 0.08888758 -0.06272376 -0.014052839 -0.09386455
-0.00021609575 -0.092496015 -0.09001979 0.036769062 -0.017481258 -0.06841305 0.009800347 -0.040895093
0.059098937 -0.058878846 0.039848905 0.19442058 0.08003317 0.15133798 0.11929307 -0.1037366
-0.20467207 -0.023370855 -0.093555436 -0.100347005 -0.11430806 0.10938238 0.13009214 -0.054095082
-0.021326445 0.03676227 0.0033447254 -0.022512235 0.009105022 0.043267936 -0.027337132 0.0050015063
0.009759095 0.12344814 -0.04728743 0.00398715 0.08137392 -0.11321335 -0.051123694 0.06645478
-0.063791595 0.02003516 0.0048030075 0.051661704 0.13505642 0.0019170727 -0.07450776 0.042832825
-0.09013578 -0.049343966 0.030912837 -0.039444853 -0.047381938 -0.048160724 0.09356373 -0.063409425
0.106873535 -0.047672153 0.09692907 0.1570484 0.027785635 -0.07828298 0.055660803 0.036011323
-0.09850417 -0.17200291 0.066603236 -0.037064932 -0.016602881 -0.19093177 -0.1152861 0.046389922
-0.102962255 0.073028736 0.0038506484 0.17089818 -0.04434367 0.09041351 -0.09776638 -0.03545529
-0.02358274 -0.102988385 0.024701599 -0.044683028 0.033957887 0.013525193 -0.08317324 -0.07740027
-0.11919297 0.0003086881 0.008871861 -0.058585674 0.06273718 -0.11049027 0.031122072 0.059841316
-0.11238964 -0.055379607 0.0026413281 0.012294282 0.048014883 0.057452742 0.09152891 -0.036902335
-0.098191485 -0.031034037 0.015423373 -0.028689418 -0.051190175 0.07841157 -0.0015270134 -0.05151784
0.068316706 -0.10366424 -0.12398887 -0.0009173688 -0.15417752 -0.095067 0.18024106 0.17251216
-0.11135217 -0.11751989 -0.19144532 -0.048840623 -0.033734784 0.021178577 0.012813472 0.01998735

local_block.conv_time.conv.0.bias f4 [8]
00000000: 5c37 503d e447 03be af79 ab3c 5515 323d
00000010: 7e19 953d dabe 483d 570b c63d aba5 b53d
0.050834045 -0.12820393 0.020932047 0.043477375 0.07280253 0.049010135 0.09670132 0.08869489

local_block.conv_time.conv.1.weight f4 [8]
00000000: 23f3 833f c7dd 793f 4c95 603f 14bf 6e3f
00000010: a32b 613f 5ae0 8d3f a5b4 6d3f 30e8 883f
1.0308574 0.9760403 0.8772781 0.9326031 0.8795721 1.1084092 0.92853767 1.0695858

local_block.conv_time.conv.1.bias f4 [8]
00000000: 3c8a 163d 9c66 8e3d f818 943c b093 d43d
00000010: 51c9 2cbd 7ac4 1cbc 4415 153e 76ae 49be
0.036752924 0.06953165 0.018078312 0.10379732 -0.042184178 -0.009568328 0.14558893 -0.19695458

local_block.conv_time.conv.1.running_mean f4 [8]
00000000: fa93 873d 085d d0bd eabf ae3c 04ce 123d
00000010: 6cc2 6a3d d325 693d d2eb ca3d 4b64 983d
0.06620021 -0.10173994 0.021331746 0.035841003 0.05731432 0.056920838 0.099082604 0.07441004

local_block.conv_time.conv.1.running_var f4 [8]
00000000: 317a 4740 e0dd 7040 df48 c640 a876 8640
00000010: 9fe6 6640 2d60 3a40 8b6f 6e40 84be 0140
3.116833 3.7635422 6.1963954 4.2019844 3.607826 2.91212 3.725558 2.0272532

local_block.conv_chan.conv.0.weight f4 [8, 8, 11, 1]
00000000: 8322 f0bb 4194 793d 1000 6abb ac14 a8bc
00000010: 5300 2f3c 9e7b da3c b0af 0d3a f3c9 dcbc
00000020: 32c9 27bd 0e81 753d ea30 80bd 3c01 19bc
00000030: d021 da3c 185a 1d3d 8271 18bd ea54 d43d
00000040: 1c19 253d 55eb 4ebd 71ce 49be c0e6 31bc
00000050: 89a0 e23c 0df6 3b3d a89d 1f3d d87b ce3d
00000060: 7f63 9b3c ec1d d93d abac 323c 0e60 35bd
00000070: af59 18bd 4987 173c 7ee1 bebd 15fe b93c
00000080: fcd6 f4bd 54b7 a2bb addf 9abc b20f 21bd
00000090: 680b 513c 2451 983b b1c0 af3d bf85 0e3d
000000a0: e4dd 723d 6857 b7bd 4724 3dbc ef02 aa3d
000000b0: ee0e 273d cdad fdbb 41c5 99bd 7307 e8bc
000000c0: 9bf0 1f3c 4b19 26bd 2359 bb3d 9ff1 063e
000000d0: a8a4 83bc 312b 803c 9eb8 33bd 8de5 873a
000000e0: d989 363e 2382 4a3d c086 db3d 1353 163d
000000f0: 11ed ef37 4710 093e c34b ddbd c35a 04be
00000100: 5b31 9d3b dd2f 2c3d 241f 01bc 755b 8d3d
00000110: c711 d3bc e9c7 0a3e 3c10 e7bc 7c3c 88bd
00000120: c0ff e3bc 6c3f e03d 7c32 0c3d 5b43 8dbd
00000130: 7741 87bc dff5 b8bc 8528 5f3d 82ca 6a3d
00000140: 9bd3 07bc d528 243c 8d02 93bd a8d7 af3d
00000150: f2de 903d bd77 ec3d 2d17 78bd aa3f c7bd
00000160: 2ce1 043c 223e 57bc 16f7 0f3d 78e2 0dbd
00000170: 5140 cf3d 7266 283b d2d8 e83a 879f 6ebd
00000180: a270 7fbd eb91 723c 7172 2cbd 2927 24bd
00000190: c9ed b93d c5e8 463d 8c34 21bc 705f 17bd
000001a0: 855b 6cbd 96ca 753d 709d 183d e4b5 a8bd
000001b0: f24b a43d ad36 9cbd 4ef5 06be ce9c 413d
000001c0: 12e2 adbd 4598 563a 1013 2f3d dabc c8bd
000001d0: a9b2 583d d22d 873e bc30 113d 4ce6 03bd
000001e0: 2015 c2bc c023 903d 11ef bcbd 8afa 5bbd
000001f0: 1f0e 34bd 958f 40bc 8aef 2e3d 8afd 12ba
00000200: 3162 703c fb9a adbc 5bef 7cbd 5d1f 0d3e
00000210: 1e25 b33c 0461 5d3b df1b fc3c ef8d 3dbd
00000220: 6b1b babc 1c06 ad3d 705d 3bbd 4c2a 44be
00000230: 746c 423d b6c8 06bd fb80 d13b 697a 143d
00000240: b30b f6bd a4bc 1fbd e1af a73d ba32 8ebd
00000250: 26d4 b3bb 09b1 563d 6876 69bc 82e0 9cba
00000260: 2b8b e33d 0395 10bd d3b7 25bd ebc8 44bd
00000270: 183e a5bd 269c 093c fe5c cbb9 9d2c 44bd
00000280: 595f 163d ef1f 293e cec6 243d ab1e c5bb
00000290: 29e8 86bb a064 103d fd3d b33d 4476 6bbd
000002a0: 9e8b 5d3d 3464 2f3d 71cd 86bc 84fd a3bd
000002b0: aeb8 a33d f3ad 113d 6463 93bc 1060 96bd
000002c0: 3b73 f33c 2212 b2bd 5324 e3bd 696d 3a3e
000002d0: b17f 003e c5f3 3ebc a100 08be d80b aebc
000002e0: 0984 213d 028c a43d 5181 84bb d3ed 03be
000002f0: 7a17 15be a699 8fbd 1a20 c53d d930 813d
00000300: 0825 1d3b bf99 8a3b e160 a73d 6ccd 493d
00000310: 4f4b e8bb cc8b a13d 5237 2fbc 315d 4ebd
00000320: 0559 a13d c59d a0bd 5666 3f3d e555 91bc
00000330: 70c7 653d 8534 233c 89f2 2a3d 9a7a 70bd
00000340: 92b4 49bd 15cf 97bd 1856 763d 2740 57bd
00000350: bd8a fb3c 6d47 713d a9c3 a73c eb1b c4bd
00000360: 85ee bfbc 210a bbbc 495f d93d e221 66bd
00000370: 4e78 57bd 9adb 9a3a db78 c53a cf93 e53c
00000380: 82a4 8d3c 67bf a03d 8e0e 953b 4a75 95bd
00000390: cdee 8abd e756 973c 3a53 333c f1d0 efbc
000003a0: b917 e1bd f675 ecbc 2559 513c a4f1 423d
000003b0: 8499 be3d 0395 f5bc 8f45 adbd b8d2 063e
000003c0: c2e9 303d ebc7 b6bb fb3f 123d 34d5 933d
000003d0: 46df aebd 1137 3dbe 6ab6 e2bc a72f 553d
000003e0: 6d15 0fbd 8361 443e 8a82 84bd 9755 c63c
000003f0: d734 43bd f460 25ba 0b69 533c 09a5 a8bd
-0.007328333 0.0609324 -0.0035705604 -0.02051767 0.01068123 0.026670273 0.00054049026 -0.026951766
-0.04096336 0.05993753 -0.062593296 -0.009338673 0.026627451 0.038416 -0.037217624 0.103677586
0.04030715 -0.0505174 -0.19707657 -0.010858238 0.02766444 0.04588895 0.038968712 0.10082215
0.018968342 0.1060141 0.010905425 -0.044281058 -0.037194904 0.009248563 -0.09320353 0.022704164
-0.119550675 -0.004965702 -0.018905485 -0.03932161 0.012759067 0.0046483446 0.08581675 0.03479552
0.059293643 -0.08952218 -0.011544294 0.08301341 0.040785722 -0.007741666 -0.07508326 -0.028323865
0.009761955 -0.040551465 0.09147861 0.13178109 -0.016069725 0.015645595 -0.043877237 0.0010368094
0.17826022 0.049440514 0.10719061 0.03670032 2.8601413e-05 0.13385116 -0.10805466 -0.12925248
0.0047971434 0.042037833 -0.00788096 0.0690221 -0.025765313 0.13552822 -0.028205983 -0.066521615
-0.027831912 0.10949597 0.034227833 -0.06897613 -0.016510708 -0.022578178 0.054482 0.057322033
-0.008290197 0.010019501 -0.07178221 0.08586055 0.070737734 0.11546276 -0.060568977 -0.0972894
0.008110326 -0.013137372 0.03514775 -0.034639806 0.10119689 0.0025695828 0.0017764813 -0.058257606
-0.062363274 0.014805297 -0.042101327 -0.04007641 0.09078557 0.04856183 -0.009839188 -0.03695625
-0.057704467 0.060007654 0.03725952 -0.08237818 0.08022298 -0.07627616 -0.13179514 0.04726868
-0.08490385 0.0008186142 0.04274279 -0.098016456 0.05290476 0.26402146 0.035446867 -0.03220205
-0.023691714 0.07038069 -0.09225286 -0.05370573 -0.04395878 -0.011752983 0.04270891 -0.0005607238
0.014671848 -0.021192065 -0.061751705 0.13781495 0.021868285 0.003377975 0.030775009 -0.046277937
-0.022718152 0.08448431 -0.045743406 -0.1915676 0.04746671 -0.032906257 0.0063935495 0.036249552
-0.1201395 -0.03899826 0.08187843 -0.06943269 -0.0054879365 0.052414928 -0.014249422 -0.0011968764
0.111105286 -0.03529836 -0.04045851 -0.048043173 -0.08068484 0.008399045 -0.00038788462 -0.04789411
0.036712024 0.16516088 0.040228657 -0.006015619 -0.004117031 0.035252213 0.08752058 -0.057485834
0.054088227 0.04282017 -0.016455384 -0.08007339 0.07994209 0.03556628 -0.01799173 -0.07342541
0.029718032 -0.08694865 -0.11090913 0.18205799 0.1254871 -0.011654799 -0.1328149 -0.021245882
0.03943256 0.08034517 -0.004043736 -0.12883691 -0.14559737 -0.07011728 0.096252635 0.06308145
0.0023978371 0.0042297537 0.08172775 0.04926817 -0.0070890556 0.07887992 -0.010694342 -0.050381843
0.07878307 -0.07842592 0.046728455 -0.017741153 0.0560984 0.009961252 0.041735206 -0.058710672
-0.04924447 -0.07412545 0.0601407 -0.052551415 0.030705804 0.058906008 0.02047904 -0.095756374
-0.023429165 -0.022831978 0.10613877 -0.056184657 -0.052604966 0.0011814714 0.0015065925 0.028024582
0.017290358 0.07849007 0.004548854 -0.07297762 -0.06783829 0.018474055 0.010945136 -0.029274436
-0.10990853 -0.028864842 0.012777601 0.047593728 0.093066245 -0.02997828 -0.08460533 0.1316632
0.04319168 -0.0055780313 0.035705548 0.072184 -0.0853868 -0.18478037 -0.027674872 0.052047398
-0.034932543 0.19177823 -0.06470211 0.024210734 -0.047657814 -0.00063086976 0.012903462 -0.08234603

local_block.conv_chan.conv.0.bias f4 [8]
00000000: ec7b 65bd a2cb b0bc 3d71 2b3d 7402 a43d
00000010: 8cd4 9c3c ee7f 0b3d 7151 9c3d 3362 bb3b
-0.056026384 -0.021581475 0.04185604 0.080082804 0.019144319 0.03405755 0.07632721 0.0057184934

local_block.conv_chan.conv.1.weight f4 [8]
00000000: ef3f 5b3f 6ad8 813f 56af 873f 55d9 793f
00000010: 34b2 683f 8ded 8e3f d2ed 7d3f 7457 7b3f
0.8564443 1.0144169 1.0600383 0.9759725 0.90896916 1.1166245 0.9919101 0.9818032

local_block.conv_chan.conv.1.bias f4 [8]
00000000: 847f 56be eebb 78be de85 e8bd 443b 6ebe
00000010: 4934 5bbe 9980 30be e7fb 2fbe bbee 46be
-0.20947081 -0.2429044 -0.11353658 -0.23264796 -0.21406664 -0.17236556 -0.17185937 -0.19427006

local_block.conv_chan.conv.1.running_mean f4 [8]
00000000: 7f22 f43c fc2c 2fbd 40c8 0f3d b4f2 373d
00000010: c615 0bbd b625 333c acf5 c83d a810 3cbd
0.029801605 -0.04276751 0.035103083 0.044909194 -0.03395631 0.010934284 0.09812483 -0.045914322

local_block.conv_chan.conv.1.running_var f4 [8]
00000000: bdfc 063e dafd 833d 4afa 6c3d c947 053e
00000010: 74d3 8b3e fba8 863d e781 0d3e 78c2 b43d
0.1318235 0.06444903 0.05785588 0.13015665 0.27309763 0.06575199 0.13819085 0.088261545

tcn.network.0.conv1.weight f4 [16, 16, 16]
00000000: 21b4 70bd e0c3 88bd d32a 70bc bd81 84bd
00000010: 216a debc e1be 40bc 6450 de3b 20c5 b0bc
00000020: 2f13 033d cfe5 c8bc bb24 dbbc 82e1 51bd
00000030: 48dc 6dbd ff2b 15bd 73e1 c5bc c2d9 293d
00000040: 9d3b 3c3d 5411 eb3c 30c7 33bc 7bd4 223d
00000050: d141 8dbc 773f c33c 70d5 b4bb af6e 913b
00000060: 537d c23b 182e 4f3c 6d4a b83c df54 863c
00000070: 297f 07bc f091 01bc 0240 e2bc 40c9 633d
00000080: 7acd d4bc 1685 3bba d651 05bd 15c5 4dbc
00000090: 6e4e 733c bf45 993d c817 cf3d fadd 4a3d
000000a0: 1c3f d03d 2421 813c 7c5c 3ebc 68c3 093d
000000b0: 71e5 983b b30a 043c 1579 463d db84 86bb
000000c0: 7c84 053c a435 03bd df19 2e39 42f2 6c3d
000000d0: a7d5 9d3c 1963 4f3d b9f9 733d 4d7a 193d
000000e0: 6b09 1f3d 7bd8 87bc 9928 1d3c c11e 4cbc
000000f0: 1054 0ebd 7b43 eabc c47e 003d 6091 553d
00000100: c08d f73c f78c 503d 3b8f 043d 0b9f af3d
00000110: a525 983d 6150 dd3c 5b90 fe3b b073 8ebc
00000120: 7cf2 843d 8a0e a3bb ff34 ec3c 1726 183d
00000130: 3c66 cabc bca7 e13c 2696 2d3d cc1f 1d3c
00000140: 62d7 0f3d 58a8 423d d5a2 7d3d e62a 993d
00000150: be13 2e3d 77c3 6d3c 7ecf d33c 7710 a2bc
00000160: 3e75 80bc 972e 7bbd af0f b8bb ed45 c03b
00000170: 2264 e4ba d0f1 2a3d 6d7a a83d 027c 863c
00000180: 12c7 493d 68dd f0bc f733 8dbd cef2 8fbd
00000190: 0b2c bcbc 4d96 41bd b1ab f5bc f336 793c
000001a0: 1272 babc 60dd a5bc a5d4 cabc 0fab 32bc
000001b0: 4616 8dbc 0892 89bc 0462 d23c 88fe 0abb
000001c0: 204f 7ebb 0dd9 793b f9c5 0fb9 5a96 ce3c
000001d0: fec2 09bd 53f5 b13c 96c4 2dbb 3581 113d
000001e0: aa4d e43c 0fb3 6cbc 31ac 79bb 5090 26bb
000001f0: bc63 a53b 58f4 933c 7370 ea3b 658c c83b
00000200: 9221 ef3c da2a fabb 9e28 e03c d23d 0bbd
00000210: 41b5 2fbd 31e1 203b 6879 44bb 8e41 ffbc
00000220: 76e4 dfbc fd5e ca3c a96a 9a3b 61e3 183d
00000230: b107 f73c 7f42 2a3d 6860 943c 9564 3ebd
00000240: ef88 ec3b dddf 0f3d 368b 2a3b cf9b ecbb
00000250: 33dd e9bb 797e 903c d6d6 083c 4457 833b
00000260: e033 42bc f085 da3c 84bb 5e3c 5428 5bbb
00000270: c44d e3bc d0e1 0cbc d53b 8e3c c70d be3d
00000280: 118a 8c3d b377 fb3c d8b7 263d 4ba4 a4b9
00000290: 0ea8 9d3c 9b10 373d 2c2b 833d 37b4 863d
000002a0: 5f0f 99ba 3d14 9dbc 6283 ae3b d16c 4bbd
000002b0: 22e3 75bb 33d9 e5bd 9875 89bd 79f2 27bd
000002c0: 8c05 59bd ad2c 0dbd 3d82 28bd 930e aeba
000002d0: 6a68 f73b c942 08bd 3cf7 113c 3e8b cfbb
000002e0: 728b 733d d00a 0c3d 7db9 9d3c e000 2abd
000002f0: ad55 ce3a e831 40bd 09fc fbbc a1ba afbc
00000300: 28a7 0d3b 9a65 7f3c 85a9 de3c b172 f3bb
00000310: cdd1 12bd ce5a 46bd 98c4 dfbc 0280 43bd
00000320: 7943 97bd 565a 87bd 5ffb c3bc 4fc9 05bc
00000330: 8afb 1bbd 59b6 c0bc 872e efbd 6111 b6bd
00000340: 2c27 e5bd f282 c1bc 5128 d2bc eedb d7bb
00000350: 9c88 25bc de5c fd3c fd74 963d 5464 a13d
00000360: 2a2f e73c ce2f 8abb 62e1 9f3b cc4f efbc
00000370: beaa 81bd eeb6 19bd e77c bb3a bda1 43ba
00000380: 529f 893b e864 3cbd e728 883c 7d1b 1bbc
00000390: b462 a13c 01b3 043d bb01 933c 8375 0d3c
000003a0: 9ba0 a3bd 9a90 f0bc 6fff 6ebd 738c 1d3d
000003b0: e6da 1f3a dbb5 85bc 99e8 20bc fa19 b23b
000003c0: b68a 9abc ca10 68bd 8d50 6abd afda 14bd
000003d0: 8c0f 3b3d 895a adbc a33c e03c 62df 873c
000003e0: a9f6 5ebc 197f dd3b 81b1 28bd 3e0c 23bd
000003f0: 8460 8fbc 5143 233d 6125 3e3d b0ab 7d3d
-0.058765534 -0.06677985 -0.014658648 -0.06470058 -0.027150216 -0.011764259 0.0067844857 -0.021578372
0.032000717 -0.024523644 -0.026750913 -0.05124045 -0.058071405 -0.03641891 -0.024155354 0.041467436
0.04595529 0.028694786 -0.010972783 0.03975342 -0.017243298 0.023833973 -0.005518608 0.0044382433
0.00593535 0.012645267 0.022496426 0.016397892 -0.008270063 -0.007908329 -0.027618412 0.05561185
-0.025976885 -0.0007153315 -0.032548748 -0.012559195 0.014850242 0.07484006 0.10111958 0.0495281
0.10168287 0.015762873 -0.01161873 0.03363362 0.0046660234 0.0080591915 0.048455317 -0.004105193
0.0081492625 -0.032033578 0.00016603571 0.057848223 0.019266916 0.050631616 0.059564326 0.03747015
0.03882734 -0.016582718 0.009592199 -0.012458504 -0.034748137 -0.02859663 0.031370893 0.052140594
0.030218959 0.050915685 0.032363158 0.08575257 0.07429055 0.027015867 0.0077686734 -0.017389148
0.06491563 -0.0049760984 0.028833864 0.0371457 -0.024706952 0.027545802 0.04237952 0.0095901005
0.035117514 0.047523826 0.061922867 0.07478885 0.042499296 0.0145119345 0.025855776 -0.019783242
-0.015680905 -0.06132373 -0.005617104 0.005867711 -0.0017424861 0.041734517 0.08226476 0.016416553
0.049262114 -0.02940245 -0.06894677 -0.07028733 -0.02297022 -0.04726248 -0.029989095 0.015210855
-0.022759471 -0.020247161 -0.0247596 -0.010905041 -0.017222535 -0.016793266 0.025681503 -0.0021208841
-0.0038804486 0.0038123757 -0.00013711293 0.025218178 -0.033633225 0.021723425 -0.002651488 0.035523612
0.027869064 -0.014446988 -0.003809702 -0.0025415607 0.0050472897 0.018060848 0.0071545183 0.006120252
0.029190812 -0.007634503 0.027363118 -0.033994503 -0.042897467 0.0024548287 -0.002997959 -0.031159189
-0.027330618 0.024703497 0.004712422 0.03732622 0.030155035 0.041567322 0.018112376 -0.04648264
0.007218472 0.035125602 0.0026022918 -0.0072207223 -0.0071369647 0.017638432 0.008352002 0.0040082056
-0.011853188 0.026675195 0.013594512 -0.0033440785 -0.027747042 -0.00859876 0.017362515 0.092799716
0.068622716 0.030696725 0.04070267 -0.00031402925 0.019245174 0.04469357 0.06404719 0.06577342
-0.0011677555 -0.01917469 0.0053257206 -0.049664322 -0.0037519415 -0.11223068 -0.06711882 -0.041002724
-0.052983806 -0.034466434 -0.04113983 -0.001327949 0.007550289 -0.033266816 0.008909043 -0.0063337376
0.059459157 0.03419 0.019253487 -0.04150474 0.0015742086 -0.046922594 -0.030759828 -0.021451296
0.0021614525 0.015588189 0.027180443 -0.0074294438 -0.035844613 -0.04842644 -0.027315423 -0.0477295
-0.07385916 -0.06609027 -0.023923574 -0.0081656715 -0.038081683 -0.02352445 -0.11678796 -0.088900335
-0.11189112 -0.02362201 -0.02565399 -0.006587497 -0.010103371 0.030928072 0.073465325 0.07880464
0.028220732 -0.0042171245 0.0048791626 -0.029212855 -0.063313946 -0.03752797 0.0014304192 -0.00074627605
0.0041999007 -0.04599467 0.016621066 -0.009467003 0.019700386 0.032397274 0.017945161 0.008633974
-0.079896174 -0.029365826 -0.05834907 0.03846402 0.0006097987 -0.016322067 -0.009821081 0.0054352256
-0.01886497 -0.056656636 -0.057205725 -0.036341365 0.045669124 -0.021161335 0.027372664 0.01658601
-0.013608613 0.006759536 -0.041184906 -0.039806597 -0.017502077 0.03985912 0.046422366 0.061931312

tcn.network.0.conv1.bias f4 [16]
00000000: 80ef 8b3b 780e 5439 92c4 ff38 3168 a736
00000010: 4591 95bc 380e 86b6 69da 62b7 c709 37bb
00000020: 0d9c bb36 88f2 1a39 e45e 9337 4082 04b6
00000030: 849a 59b3 7488 bab6 4091 0c3b ea12 b83c
0.004270494 0.00020223286 0.000121959616 4.9891173e-06 -0.018257746 -3.9951665e-06 -1.3521502e-05 -0.0027929412
5.591201e-06 0.00014776934 1.7567952e-05 -1.9745348e-06 -5.066478e-08 -5.559117e-06 0.002144888 0.022469956

tcn.network.0.bn1.weight f4 [16]
00000000: 5ff7 8e3f 92f3 873f d213 803f 01f5 873f
00000010: aece 8a3f a1cd 883f d2db 843f 768c 903f
00000020: 04b5 8f3f 3bde 903f 1471 903f 5415 923f
00000030: 9fd1 853f b72e 8c3f 03b7 833f ca64 8d3f
1.1169242 1.0621207 1.0006049 1.0621644 1.0844324 1.0687753 1.0379584 1.1292865
1.1227117 1.1317819 1.1284509 1.1412759 1.0454596 1.0951756 1.0290226 1.1046383

tcn.network.0.bn1.bias f4 [16]
00000000: de55 adbe c893 d3be 0b86 aebe 64d8 b7be
00000010: e917 a4be df6d a4be 5de9 bfbe a6fc 96be
00000020: 020a 84be a78d bfbe 1098 cbbe de29 dcbe
00000030: 2512 9cbe b282 c2be 4114 9dbe d054 95be
-0.33854574 -0.41323686 -0.34086642 -0.3590728 -0.32049492 -0.32115075 -0.3748273 -0.2948963
-0.25788885 -0.3741276 -0.39764452 -0.43000692 -0.30482593 -0.37990338 -0.30679515 -0.2916627

tcn.network.0.bn1.running_mean f4 [16]
00000000: 8c31 ee3b 8692 99bd 262a a8bc 2572 ff3c
00000010: 5286 543d cd22 1d3c ddf1 cebc dd8f 90bd
00000020: 9d53 7c39 0e6d 9bbc d6d7 9e3d caba 57bd
00000030: 690b 18bd 7fb9 243d 53c7 98bc a1a8 6f3d
0.00726909 -0.0749865 -0.02052791 0.031182358 0.05188591 0.009590817 -0.025261814 -0.0705869
0.00024063741 -0.0189729 0.07756011 -0.05266837 -0.037120257 0.040215965 -0.018649733 0.058510426

tcn.network.0.bn1.running_var f4 [16]
00000000: a480 3b3f 4b8a 3b3f 9869 0e3f f39e 323f
00000010: 5581 463f a310 5b3f ab48 333f a0ca 4f3f
00000020: e0ff 403f e21d 8e3f 6c29 4d3f 4b8c 3f3f
00000030: e17f 4f3f 7d85 4e3f 7012 443f b550 4f3f
0.73243165 0.73257893 0.55629873 0.6977379 0.77541095 0.8557226 0.7003276 0.81168556
0.75390434 1.110287 0.8014133 0.74823445 0.810545 0.80672437 0.76590633 0.80982524

tcn.network.0.conv2.weight f4 [16, 16, 16]
00000000: 01a5 b9bc 28d2 a6ba c0b2 52bd 999e 65bd
00000010: 26a8 64bd 0133 50bc c0f2 02bd ac05 c2bb
00000020: d4f9 07bd eb64 c2bc c09c debb d850 e63a
00000030: 44f5 653b 916d 973c 83e1 8fbd 55ab 26bd
00000040: 11f8 923d f66d 443d 3302 b03c 7125 9ebb
00000050: 5fac c13b 2ae6 29bc e001 f33c 257d 4a3d
00000060: b620 843d 8cfa 583d 5065 bd3d 34ef df3d
00000070: 3ea1 0a3d 5834 0f3d af94 8cbc e198 d5bc
00000080: ab65 8a3c f670 e2bc 87df 0abc 8f1f fcbc
00000090: a1cb d0bc 3d2a 33bc eb3a 963c e4c3 27bc
000000a0: f96c 073d ee9c 5c3c 5e60 50ba e2ab 9d3c
000000b0: 8871 84bc 2deb bfbc 837e 56bd 0d16 6fbd
000000c0: a17d 3cbc 4c9a f93b 4197 923c 10f0 09bc
000000d0: 2b34 edbb b7ce 95bc eeb6 f1bc 9dc7 843a
000000e0: 8b70 8e3b f09f 6cbc bb67 9bbc a364 2abd
000000f0: 298c 89bc 9832 bf3b 3d5d 00bb f3b6 1dbc
00000100: 5e78 bbb9 34d6 9b3b 96ad 0fbd 572e 2a3b
00000110: 384e 6ebd fc50 0cbd 4050 b73a 9e28 b0bc
00000120: a00e 12bd dc04 59bc 5205 353d 6e3f 80bc
00000130: 1015 0cbd b261 45bd f346 0ebd fc88 8ebd
00000140: 1a7c 8bbd c745 06bd 8fe4 29bc 4074 c63b
00000150: c4b3 1b3c 306d e43c 1461 493c 898f 0e3c
00000160: 98e9 283d 2045 383d 80b3 013d a1d5 693d
00000170: d071 57bc 31da fa3b aaf1 b9bd 7b3c d2bd
00000180: 8926 1c3d aa7d 1a3c 05a1 363d 12ca c53c
00000190: 567d 273d 67e5 3b3d 819b ed3c 9315 513d
000001a0: 115a be3c 5dad cb3c 16df 4f3d 4164 feba
000001b0: 8194 2e3d 49bf 5c3d a6d4 1b3d ffb0 b03b
000001c0: ae36 fcbb 7004 d9bc cf44 0ebc 2a02 efbc
000001d0: 0223 873c f299 583c f409 79bc 5bed d63c
000001e0: c062 89bc f3c5 fbbc b174 50bd 759b 3fbc
000001f0: fdf1 b3bd d574 69bd 1507 f3bd 16d9 a2bd
00000200: cdc0 26bd e3f6 63bd 71b6 5bbd 106a 79bd
00000210: be12 1fbd e090 4ebd b4eb 373c 0b61 6bbc
00000220: 0445 6b3c 5724 c03c c409 87ba a94e 463d
00000230: b6d9 373d 43e1 5dbc 9433 71bc cb72 1e3c
00000240: 234d 58bc 124a 0cbd 5b17 cabc 133e 95bb
00000250: e83a 3fbb 0f82 48bd 7544 7fb9 c643 dbbc
00000260: bccc 08bd 138c 12bd 7f94 42bd b0dc 8b3b
00000270: 05ae 55bc b88a 21bb bbcc 03bd dd10 3c3b
00000280: 489d 503d 95d8 893d b4b9 f1bb 8394 3e3d
00000290: d576 e13c 9ed8 6dbc d961 da3c 2cde 78bc
000002a0: 49e3 443a 18b6 bdbc 68bf 03bd 21b2 e4ba
000002b0: 1f73 7cbc 630d 23bc 29cd 9abd 8bbf 13bd
000002c0: 144f b13c 39a2 52bc 71bf 30bd 4b88 b5bc
000002d0: 0257 f0bb 1d4d 31bd 6a3e 6ebc 8bc1 683c
000002e0: f799 d7bb 399c e7ba f24c 643d 332e 6f3c
000002f0: e20c f63c 5f5a 703d 9821 6e3d e7eb df3d
00000300: 1f0e 073d ac7f 7c3c f7c4 66bc 42b2 873c
00000310: 1f74 253c 757a 1f3c de2a 35bb ba69 82bc
00000320: 6a7d 833b 8be7 4bbb 1c74 2f3d f878 efbb
00000330: 269c 56ba d26e 893b 4dd9 30bc ee65 06bd
00000340: 8a04 4e3d d00e 153d 1fc8 343d c97a cf3c
00000350: 9036 73bb 4886 d13b 5970 e8bc 8a6e 21bd
00000360: ba08 afbd cae8 dfbc 51c6 48bd 888a 0ebc
00000370: f9ac bb3c d206 423d 8c7c 3a3d 22da ba3d
00000380: 2bea 1dbd e656 84bc 390e a3bb 7dd6 ed3c
00000390: 0149 a73c 2974 343d f47b bb3b b574 d13b
000003a0: fef8 b539 f15b 48bd ab69 5fbc 472e 03bd
000003b0: f126 05bd e152 e03a 2255 4dbd fa5f 83bd
000003c0: d146 dabd 82be 61bd 4020 85bd c644 2bbd
000003d0: 310a 0cbd 9d66 17bc 5fbd cebb e2c8 103d
000003e0: 0390 2d3c dd6f d7bc 6940 81bd 84ea e0bd
000003f0: 12e2 5bbd 859a 72bd a449 05bc e63c b0bc
-0.022661688 -0.0012727426 -0.05144 -0.056059454 -0.05582442 -0.012707473 -0.031969786 -0.0059210863
-0.03319724 -0.023729762 -0.0067935884 0.0017571701 0.0035088817 0.018484863 -0.07025435 -0.04069074
0.07176221 0.04795643 0.021485424 -0.0048262407 0.005910441 -0.010369817 0.02966398 0.049435753
0.064515516 0.052973315 0.092478395 0.10934296 0.03384518 0.03496203 -0.017160742 -0.026073875
0.016894182 -0.027641755 -0.008476145 -0.030776767 -0.025487723 -0.010935363 0.018338641 -0.010239575
0.03306291 0.013465149 -0.000794893 0.019247 -0.016167417 -0.02342757 -0.052366745 -0.05837064
-0.011504562 0.0076172706 0.01789439 -0.008419052 -0.007238885 -0.018287046 -0.029506173 0.001013029
0.0043469123 -0.014442429 -0.018970361 -0.04159988 -0.016790466 0.0058348887 -0.0019586824 -0.009626138
-0.000357571 0.0047557596 -0.035077654 0.0025967562 -0.058180064 -0.03425692 0.0013985708 -0.021503743
-0.03565848 -0.0132457875 0.044194527 -0.015655246 -0.034199774 -0.048188873 -0.03473563 -0.069597214
-0.0681078 -0.03278139 -0.010369434 0.0060563385 0.009503309 0.027884096 0.012291212 0.008701214
0.041238397 0.044987798 0.031665325 0.057088498 -0.013149694 0.007655405 -0.09079297 -0.10265442
0.038122687 0.009429375 0.044587154 0.024144206 0.040891014 0.045873072 0.029004814 0.051045965
0.023236306 0.02486294 0.05074986 -0.001940854 0.042622093 0.05389336 0.038044594 0.0053921933
-0.007696948 -0.026491374 -0.008683397 -0.029175837 0.016496185 0.013220297 -0.015200127 0.026236227
-0.01677072 -0.030734038 -0.050892536 -0.011694779 -0.0878639 -0.056996185 -0.11866585 -0.07951562
-0.040711213 -0.05565537 -0.053640787 -0.060892165 -0.038836233 -0.050431132 0.01122563 -0.014366399
0.014359716 0.023454828 -0.0010302593 0.04841486 0.04488536 -0.013542476 -0.01472177 0.009670923
-0.013201985 -0.034250326 -0.02466934 -0.004554519 -0.0029179398 -0.04895216 -0.00024344197 -0.026765715
-0.033398375 -0.035778116 -0.0475049 0.0042682514 -0.013041978 -0.0024649333 -0.032177668 0.0028696575
0.050931245 0.06730763 -0.007376874 0.04652835 0.027522484 -0.014516978 0.026657986 -0.015189689
0.0007510675 -0.023158118 -0.03216496 -0.0017448106 -0.015408306 -0.009951922 -0.075586624 -0.03607134
0.021644153 -0.01285606 -0.043151323 -0.022159716 -0.007334591 -0.04328643 -0.014541248 0.0142063005
-0.0065796333 -0.0017670459 0.055737443 0.014598417 0.03003544 0.058679935 0.058137506 0.10933667
0.03297245 0.015411299 -0.014085046 0.016564492 0.010098486 0.009733786 -0.002764396 -0.015919555
0.0040127533 -0.0031113352 0.04283534 -0.007308122 -0.000818672 0.004194119 -0.010793996 -0.03281205
0.050297298 0.03639108 0.044136163 0.025327103 -0.003711138 0.0063941814 -0.028373884 -0.03941206
-0.08546586 -0.027332682 -0.049017254 -0.008700021 0.022909628 0.047369786 0.045528933 0.09123637
-0.038553398 -0.016154718 -0.0049760607 0.02903294 0.020420553 0.04405609 0.0057215635 0.0063920864
0.00034708524 -0.048915807 -0.013636033 -0.032026555 -0.03250784 0.0017114544 -0.050130017 -0.064147905
-0.106580384 -0.055113323 -0.06500292 -0.041813634 -0.034189407 -0.0092407735 -0.006309196 0.035347827
0.010593417 -0.026298458 -0.063111134 -0.1098223 -0.053682394 -0.059229393 -0.008135233 -0.021513414

tcn.network.0.conv2.bias f4 [16]
00000000: eec5 f635 13dc 543b 6687 d6b9 046f 443d
00000010: e4d0 a8bb 740f 0d3b aa18 853b 3448 8f3a
00000020: 615d 643d a885 7a3c 8652 6836 2b7e 91bc
00000030: 3f07 6fbb 1523 dc3a 2256 a5b6 ebbd 0abb
1.8386033e-06 0.0032479807 -0.0004091814 0.047957435 -0.005151855 0.0021524103 0.004061778 0.0010931552
0.055753116 0.015290655 3.461873e-06 -0.017760357 -0.0036472825 0.0016795123 -4.9274104e-06 -0.002117033

tcn.network.0.bn2.weight f4 [16]
00000000: 0000 803f 0000 803f 0000 803f 0000 803f
00000010: 0000 803f 0000 803f 0000 803f 0000 803f
00000020: 0000 803f 0000 803f 0000 803f 0000 803f
00000030: 0000 803f 0000 803f 0000 803f 0000 803f
1.0 1.0 1.0 1.0 1.0 1.0 1.0 1.0
1.0 1.0 1.0 1.0 1.0 1.0 1.0 1.0

tcn.network.0.bn2.bias f4 [16]
00000000: 0000 0000 0000 0000 0000 0000 0000 0000
00000010: 0000 0000 0000 0000 0000 0000 0000 0000
00000020: 0000 0000 0000 0000 0000 0000 0000 0000
00000030: 0000 0000 0000 0000 0000 0000 0000 0000
0.0 0.0 0.0 0.0 0.0 0.0 0.0 0.0
0.0 0.0 0.0 0.0 0.0 0.0 0.0 0.0

tcn.network.0.bn2.running_mean f4 [16]
00000000: 0000 0000 0000 0000 0000 0000 0000 0000
00000010: 0000 0000 0000 0000 0000 0000 0000 0000
00000020: 0000 0000 0000 0000 0000 0000 0000 0000
00000030: 0000 0000 0000 0000 0000 0000 0000 0000
0.0 0.0 0.0 0.0 0.0 0.0 0.0 0.0
0.0 0.0 0.0 0.0 0.0 0.0 0.0 0.0

tcn.network.0.bn2.running_var f4 [16]
00000000: 0000 803f 0000 803f 0000 803f 0000 803f
00000010: 0000 803f 0000 803f 0000 803f 0000 803f
00000020: 0000 803f 0000 803f 0000 803f 0000 803f
00000030: 0000 803f 0000 803f 0000 803f 0000 803f
1.0 1.0 1.0 1.0 1.0 1.0 1.0 1.0
1.0 1.0 1.0 1.0 1.0 1.0 1.0 1.0
