model/Benchmark/DTCNet_b1_1s_S30.pth (torch, 181815 bytes, 74 tensors)

global_block.conv_time.conv.0.weight f4 [8, 1, 1, 125]
000000 7a 2e a4 3c 21 a0 3f 3d 3d 6b 7f 3c a8 b6 2f 3c
       0.020041693 0.04678357 0.015589532 0.010724701
000010 f2 57 7d bd 78 6e 55 3d 69 e9 d1 bc 21 17 b3 3c
       -0.06185145 0.052107304 -0.025623994 0.021861615
000020 c0 1d a9 3c e5 25 0c bd 45 8f ff 3c 1c 66 5d bc
       0.020644069 -0.034215827 0.031196246 -0.013513114
000030 9f ae 27 3c 6d 53 99 3c 94 1b 1b bd 7f 0d 96 3d
       0.010234504 0.018716538 -0.037868097 0.07326793
000040 35 7a 43 3d 6c bd 9d 3d 93 d3 0e bd 20 e9 f8 3c
       0.047723968 0.07702145 -0.03486974 0.0303846
000050 39 1d 10 3d 2f c0 d5 3a 4a 4a 80 bc 63 b7 63 3c
       0.03518412 0.0016307886 -0.015660424 0.013898703
000060 ac 0e 04 3d d6 b5 6f 3c 92 bd ca 3c 67 8b 33 3d
       0.032240555 0.014630755 0.024748597 0.043834116
000070 6b 5b 9e 3d 39 1c f0 bc eb c6 1b 3d 5d e6 82 bc
       0.0773228 -0.029310333 0.0380315 -0.015978986
000080 61 6a 87 3d 76 b7 84 bc d3 3c 00 bd b5 00 d9 bc
       0.06612087 -0.016200762 -0.031308006 -0.026489595
000090 f5 50 2c 3d 92 62 58 bb d3 bb 56 3d 21 06 b7 bd
       0.042069394 -0.0033017737 0.052425217 -0.08936716
0000a0 e8 b3 8b bb 98 87 7c bd bd b6 fc 3c 30 c5 8f 3d
       -0.00426339 -0.06165275 0.030848855 0.070200324
0000b0 31 ba 2b bb 1d ec df 3c a2 9c 46 bc 05 d4 5e bd
       -0.0026203508 0.027334267 -0.012122305 -0.054401416
0000c0 bb b2 70 3d f0 71 52 3d 89 a7 99 3d a9 78 8a 3d
       0.0587642 0.05137819 0.07502658 0.06761295
0000d0 02 c5 38 bc 7c 2c b6 3b 64 68 ad 3c 2c b7 be bd
       -0.011277439 0.005559502 0.021167941 -0.09312281
0000e0 c9 a0 d6 bd d1 f5 3d bc fd 49 b2 3c 42 3c 83 bc
       -0.10479886 -0.011594252 0.021763796 -0.016019944
0000f0 81 9a 0d bd 7e f5 86 bc bc 88 1c bd 27 72 97 bd
       -0.034571175 -0.016474482 -0.038216338 -0.0739482
000100 d1 2d 8e 3c 4c 51 f5 3b 2b 49 74 3d 61 c7 f1 3b
       0.017355831 0.007486498 0.05964009 0.007378504
000110 19 9a 86 3c ea eb f2 bb 38 3d 27 bd e7 92 d4 3a
       0.016430901 -0.007413377 -0.040829867 0.0016218097
000120 f8 62 a1 bc 76 a1 c7 3d 39 aa 13 3d 78 ff 10 bd
       -0.019700512 0.09747593 0.03605101 -0.035399884
000130 e5 6f ad 3b 84 4e 0b 3e 24 51 3a 3e 90 c9 e5 bc
       0.00529288 0.1360417 0.18195015 -0.028050214
000140 db 39 bf bd 45 13 19 bd bc 40 e2 bd fd 19 67 bd
       -0.09337207 -0.037371892 -0.11047503 -0.05642127
000150 d9 e3 e6 bd f4 93 96 3c 27 39 d0 bc 29 ca f2 bd
       -0.11273927 0.018381096 -0.025417877 -0.11854965
000160 8f 9c 9b bd 1c fc 94 bc af 32 30 bd f2 ec cf 3a
       -0.075982206 -0.018186621 -0.043017086 0.0015863462
000170 32 a2 b6 bd 9a 6d 9e bd fc 1c 14 3d 2f a4 aa bb
       -0.08917655 -0.077357486 0.036160454 -0.0052075605
000180 3c 99 b2 3d f2 ee 26 3e 93 7a 10 3e 84 ac 35 3c
       0.087206334 0.16302088 0.14109258 0.011088494
000190 12 9c a0 bc 12 ec 19 3c d1 7f 2b bd 07 d7 aa bd
       -0.01960567 0.009394662 -0.041869942 -0.083417945
0001a0 ae 89 f2 3c 21 9d c5 3d 1e 93 e6 3c 19 3c ad bd
       0.029606666 0.096491106 0.028146323 -0.08458728
0001b0 ff ef d2 bd fb 4f 98 bd ec 95 2d b9 18 ff 1d bd
       -0.10299682 -0.0743713 -0.00016554416 -0.038573354
0001c0 de 5f 4a bc 26 56 d6 bc a7 0f b6 3c b6 37 52 3c
       -0.012351958 -0.026164126 0.02222426 0.012830665
0001d0 16 05 8c bd 5b d9 c3 bd cd a5 a2 bc f3 a9 b1 bb
       -0.068369076 -0.09562942 -0.01985445 -0.005421871
0001e0 d4 7d 43 bd 00 19 08 3d c8 76 c7 3d 6b 63 25 bd
       -0.04772742 0.033226967 0.097394526 -0.040378015
0001f0 34 10 4b bd 8f 2f ce 3c e7 d4 11 bd 97 33 5d bc
       -0.049576 0.025169162 -0.03560343 -0.0135010695
000200 c3 1c 01 3e 67 3e 4f 3c 5f ba f3 3c e3 43 c2 bc
       0.12608628 0.012649155 0.029751955 -0.023714012
000210 15 9a 18 3d 8d 96 c5 3a fc 71 51 3a a1 81 78 3c
       0.03725632 0.0015074775 0.0007989702 0.015167625
000220 86 05 be 3c 0f 82 03 3d c3 b5 9a 3d fe 5e b5 3d
       0.023195993 0.032106455 0.075541995 0.08856009
000230 24 b5 6b bd ec ba 95 3d a7 06 3a 3b 86 25 45 3c
       -0.057545796 0.07311043 0.0028385313 0.012032872
000240 79 17 8c 3d 76 69 57 bd 71 d7 4b bd 91 3f 9e 3c
       0.068404146 -0.05259081 -0.049766008 0.01931742
000250 a8 d6 17 3c 96 a1 84 bb b7 03 14 3c 01 63 69 3d
       0.009267487 -0.004047583 0.009034089 0.056979183
000260 4a 1c 85 bb 1e 70 7f 3c 38 d3 84 bd 4a 8d bc 3c
       -0.00406221 0.015590696 -0.06485599 0.02301659
000270 dd 4c 35 3c 70 b5 c6 bc b4 a7 d1 3a d8 68 14 bd
       0.011065689 -0.024256438 0.0015995414 -0.0362328
000280 38 59 ae bc 3c 24 0e 3b b5 82 3c 3d ce 88 10 b9
       -0.021282777 0.0021689078 0.04602309 -0.00013783874
000290 9f 54 ac bd bb 5d 92 bd 4a da a7 bc 39 12 9f bc
       -0.08414578 -0.07146784 -0.02048983 -0.019417869
0002a0 47 db 25 3d ba 01 84 3c ee c6 93 bc 37 8a 4d bd
       0.040492322 0.016114105 -0.018039193 -0.05018064
0002b0 a4 60 66 3d a9 12 42 3b 11 4b 54 bc 46 4c 85 3d
       0.056244507 0.0029613173 -0.01295735 0.06508689
0002c0 3d 4a 12 bd 95 ac 1d bd cf d9 0e bd 3c 41 f7 bc
       -0.03571533 -0.038494665 -0.034875687 -0.030182473
0002d0 dc d8 10 be c4 93 cf 3c b3 fb 44 3c 5f db 19 3d
       -0.14145225 0.025339015 0.0120229 0.037562724
0002e0 39 4a 6e bd e4 e6 cd 3c 58 04 2e 3d a5 86 23 bd
       -0.058176253 0.025134511 0.04248461 -0.03992333
0002f0 ef f8 37 3d d1 aa 13 bd 60 df c8 3c 3f ae 9a bd
       0.044915136 -0.036051575 0.024520576 -0.07552766
000300 b4 ff ce bc 51 42 0f 3b dd d8 b2 3d b9 a4 bd 3d
       -0.025268413 0.0021859596 0.0873277 0.09259934
000310 71 29 db 3c fd 16 43 bc 57 9e c1 bc 74 49 5b 3d
       0.02675316 -0.011907336 -0.023635073 0.053536847
000320 51 7e 14 bd c4 93 ce 3c 9c f3 f7 bc 08 c6 16 3e
       -0.036253277 0.025216945 -0.03026753 0.1472398
000330 68 8c 7f 3e 01 e3 2b 3e c3 4b 21 3c 03 b0 b4 bd
       0.24955904 0.16785814 0.009844723 -0.08822634
000340 a8 af 04 be 23 09 18 bd cc 15 df b9 3f f1 f6 bc
       -0.12957633 -0.03711809 -0.00042550114 -0.030144332
000350 4d 15 90 3c 6e 7a 76 3c 8b 15 0d be 57 d4 e9 bd
       0.017588282 0.015043838 -0.13777749 -0.11417454
000360 d2 6e 98 bd 4c f5 af bc ff 48 1c bd 86 be f5 3c
       -0.07443012 -0.021479271 -0.038155552 0.029998075
000370 48 ce e1 3c 17 f7 d7 3b 15 6e 01 3d 29 2e de 3c
       0.027564183 0.0065907347 0.031599123 0.02712162
000380 a1 fc c3 bd 63 bd 0c 3d 70 e5 47 3c c5 4b a1 3d
       -0.095696695 0.0343603 0.012200698 0.0787578
000390 a3 0b a6 bd 44 dd 94 bd f5 93 48 3d b2 3e 74 bd
       -0.08107688 -0.072687656 0.048969228 -0.059630103
0003a0 6c c7 43 bd fa 1c 61 3d cb 7f 57 3c dc a6 f5 bd
       -0.047797605 0.054959275 0.013153027 -0.119947165
0003b0 a1 27 69 3d 92 e0 0e 3d 6f 93 cc 3d f5 a2 15 bd
       0.05692256 0.034882136 0.09989058 -0.03653236
0003c0 7c 0c b5 bd 02 ef a2 bd fe 05 64 bc 31 98 e9 bc
       -0.08840272 -0.07955743 -0.013917444 -0.028514953
0003d0 28 89 2b 3d c1 5f 21 bd 5c 14 34 bd 31 55 af bb
       0.04187885 -0.03939796 -0.04396473 -0.005350732
0003e0 d0 d7 ef 3b da 68 bd bd 40 2a 3b 3c c6 e7 9a bd
       0.007319428 -0.092485145 0.011423647 -0.075637385
0003f0 27 bf 11 3c 6e 40 03 3d 35 ff 28 bd 1e cd 26 3c
       0.008895672 0.032043867 -0.04125901 0.01018074

global_block.conv_time.conv.0.bias f4 [8]
000000 64 39 ac bb 89 3a 00 3d 07 83 12 3c 71 5d 0d 3d
       -0.005255865 0.031305823 0.008942372 0.03451294
000010 96 a2 f1 bc ba 9d ca bd d3 5f 9a 3c d9 07 0b 3c
       -0.029496472 -0.09893365 0.01884452 0.008485758

global_block.conv_time.conv.1.weight f4 [8]
000000 bd 1d 81 3f af 21 84 3f 6d 60 71 3f 57 68 6a 3f
       1.00872 1.032278 0.9428776 0.9156546
000010 60 48 8c 3f b4 87 65 3f 4f 44 7f 3f 7c 7c 7b 3f
       1.0959587 0.8966019 0.99713606 0.98236823

global_block.conv_time.conv.1.bias f4 [8]
000000 a8 75 e4 bc 4a b0 10 bd cc 44 27 3e 45 cf d1 3b
       -0.027888134 -0.035324372 0.16334838 0.0064028823
000010 d5 d3 44 bd dd 22 b5 3d 5a 0c 77 bd db a8 94 3c
       -0.04805358 0.0884454 -0.060314514 0.018146923

global_block.conv_time.conv.1.running_mean f4 [8]
000000 3c f9 c3 3b 93 9d 4b 3d 81 f3 e8 3b bb 5c 05 3d
       0.005980639 0.04971082 0.007109106 0.032559138
000010 f1 08 24 bd f0 41 d6 bd 86 1e 7a 3c 78 41 8d 3c
       -0.04004759 -0.10461795 0.015266066 0.017243132

global_block.conv_time.conv.1.running_var f4 [8]
000000 a9 20 87 41 df 43 58 41 94 60 75 41 eb 15 5d 41
       16.890947 13.51657 15.336079 13.817851
000010 2c ea 70 41 3c aa 81 41 e1 e6 82 41 ce 56 86 41
       15.057171 16.208122 16.362734 16.792385

global_block.conv_chan.conv.0.weight f4 [8, 8, 11, 1]
000000 37 b9 f2 bd 30 19 22 bd 4b 44 f6 bc c2 0f 8d bd
       -0.11851733 -0.039574802 -0.030061862 -0.06887771
000010 cf 31 ba 3d 5a d9 9c 3d fa 4e 43 3d 2a 20 c5 bd
       0.090915315 0.07658644 0.04768274 -0.096252754
000020 2c d2 05 3d 18 2e fe bc 14 c7 d1 3d 7e ce 9f 3d
       0.03267114 -0.031027839 0.10243049 0.07803057
000030 57 ca 86 bd f0 99 6a bd 41 bc e7 3d 16 32 92 3c
       -0.06581562 -0.057275712 0.113152035 0.017846148
000040 d1 fb ce 3c 5c 6a fa bb e8 b4 fc bd 90 7e c5 3d
       0.02526656 -0.0076420736 -0.12339193 0.096432805
000050 44 3c 46 bd ed 44 32 3d 84 70 8f bd 48 5b 36 3b
       -0.048397318 0.043522764 -0.070038825 0.0027825404
000060 8c 07 1c 3d ff 0f 47 bd 43 08 18 3b a2 59 75 bd
       0.038093135 -0.04859924 0.0023198284 -0.059899934
000070 ab 2b 95 3d 1a bf 1e bd af 20 69 bd 52 9c 24 bd
       0.0728372 -0.038756467 -0.056915935 -0.04018814
000080 eb bf ba bc b8 ff 59 3d e8 a4 7a bd fb e9 85 bd
       -0.022796592 0.053222388 -0.061192423 -0.06538769
000090 52 38 f1 bc 0c 7e 02 bc c4 e4 d7 3c 27 ba af bc
       -0.0294458 -0.007964622 0.026354201 -0.021451069
0000a0 f4 31 e2 bd bc 4d a5 3b 80 6f 7c 3d af a5 94 3d
       -0.11044684 0.005044667 0.061629772 0.07258164
0000b0 db 96 b8 bd cc af a7 3d 46 9f 4d 3c 45 c9 bf bd
       -0.090131484 0.081878275 0.012550181 -0.09364561
0000c0 e5 b3 de bd fc e7 54 bd 2c 8d de 3d bc 39 a8 3d
       -0.10874156 -0.05197905 0.1086677 0.08214137
0000d0 5b f6 57 3d 4b c2 56 bc 89 1e 0f be cd a8 a9 ba
       0.052725177 -0.0131078465 -0.13976492 -0.0012943983
0000e0 04 fc 57 3d 5c 32 bc 3d 1b 9e 12 bd fe 43 2e be
       0.052730575 0.09189293 -0.035795312 -0.17018124
0000f0 60 ec 0b 3d 51 54 a8 3d 06 25 14 3e 4f e6 82 bc
       0.03416097 0.08219207 0.14467248 -0.01597896
000100 57 01 a4 3d 4c 57 92 bd bd 08 63 3d f3 08 74 bd
       0.08008068 -0.07145557 0.055428255 -0.059578847
000110 46 ed d7 ba 07 94 ff 3b 13 09 ce 3b 36 ef 77 bd
       -0.0016473911 0.0077996287 0.006287703 -0.060530864
000120 65 c8 a8 3c 1a 1e 9b bc 52 6b f7 3c fe d6 32 3d
       0.020603368 -0.018935252 0.030202542 0.043662064
000130 c9 a3 ee bc e3 84 83 bd 76 1d 49 bd 27 e8 55 bd
       -0.029130833 -0.064218305 -0.04910036 -0.05222335
000140 94 76 b1 bc 0b b1 49 bd 4f bd 00 3e 39 05 a8 3d
       -0.021662988 -0.049241107 0.12572215 0.08204121
000150 fb 7b 03 be ff 47 de ba b3 27 e0 bc 68 88 df 3b
       -0.12840264 -0.0016958712 -0.02736268 0.006821681
000160 0c d0 fa 3b 31 7b 8a bd a5 72 c1 bc 46 8c 0c 3d
       0.0076541957 -0.06761778 -0.023614237 0.034313463
000170 e3 db 08 bc e0 83 72 bd 77 7a 54 bc 0c d0 cc 3c
       -0.008353206 -0.059207797 -0.012968651 0.025001548
000180 cf e1 50 3d c5 b3 9d 3d 11 cc b0 bc d7 c7 66 bb
       0.050996598 0.07700304 -0.021581681 -0.0035214329
000190 5c 3f f4 bd e5 bd a4 3b 53 ae 4f 3c 4e 0c 6d 3d
       -0.11926147 0.00502752 0.0126758395 0.057873063
0001a0 86 18 f6 bc 42 83 ff bd 62 70 1d 3d bd e1 4f 3d
       -0.03004099 -0.12476207 0.038437255 0.05075239
0001b0 b6 9c 83 3d 20 df a3 3d c1 d8 dd 3d a2 60 4c be
       0.064263746 0.08001542 0.10832358 -0.19958737
0001c0 42 6c 71 bd 60 6c ab bd f9 4f 83 3d c4 a7 b7 3d
       -0.058941133 -0.0837028 0.06411738 0.08967546
0001d0 32 e4 8d bd ca 58 89 bd c9 43 5a bd fb f6 99 3d
       -0.069282904 -0.06706388 -0.0532873 0.07517811
0001e0 c3 41 b7 3d de 47 58 bd f4 1f ba bd 39 df a1 bd
       0.0894809 -0.052802913 -0.09088126 -0.079039045
0001f0 9b 02 6a 3d 5f e6 4d bc 2c 70 42 bd f5 ac 77 3d
       0.05713139 -0.012567132 -0.047470257 0.06046768
000200 ee 20 a0 3d 38 26 c7 3d e6 bd 30 bd 3f 25 e5 bd
       0.07818781 0.097240865 -0.04314985 -0.11188745
000210 28 43 8a 3d 07 50 10 3e 97 3b cd 3b 86 bd a6 bd
       0.0675109 0.14093028 0.006263207 -0.081416175
000220 07 59 e6 3b 82 05 cb bd 80 ac 15 3d 45 9b b7 3d
       0.007029656 -0.0991316 0.036541462 0.08965162
000230 0f 45 59 3d fb 82 f4 bd 9e a0 5d bd 86 de a4 bd
       0.053044375 -0.11939045 -0.054108255 -0.080502555
000240 2a b1 e4 3d e3 72 0d 3d d5 5e 37 bd f4 cf 07 be
       0.11166604 0.034533393 -0.044768173 -0.13262922
000250 0b 29 94 bc 17 e5 69 3d 0a 29 01 bd 06 c7 88 bd
       -0.018085977 0.057103243 -0.03153328 -0.06678586
000260 4c 45 51 bd 76 8d 7b 3d 9c e1 98 bd 26 4e 34 be
       -0.051091477 0.061414205 -0.074649066 -0.17607936
000270 ab cb b1 bb 92 f1 b5 3d 8e 3d 3b 3d ca de 22 bc
       -0.0054258904 0.088839665 0.045713 -0.009940812
000280 8f 04 7b bc 01 e5 04 3d 08 d1 40 3d b5 2e 82 bc
       -0.015320911 0.032444958 0.047074348 -0.015891412
000290 59 2a c8 3d 9d 7d 41 bd 11 43 30 3d e1 ab 46 3d
       0.09773702 -0.047238935 0.04303271 0.04850376
0002a0 06 ec 3d bd 8b 91 03 be fd b4 ec 3c 7c e4 00 3b
       -0.046367668 -0.12848489 0.028894896 0.0019667437
0002b0 e4 12 db 3d eb 36 8e bd 52 41 62 bd 28 21 1d bd
       0.106969625 -0.069440685 -0.055238076 -0.0383617
0002c0 fb b3 eb bc 24 29 2a bd b3 28 e2 bd db dd 04 3d
       -0.028772345 -0.04154314 -0.11042919 0.03243814
0002d0 0b 02 a3 3d 4f 08 91 3c 09 62 9b bd 67 a7 7a 3d
       0.07959374 0.017704157 -0.07587058 0.061194804
0002e0 78 af 09 ba 65 fc 8b 3d 73 18 19 3c 7e 95 a9 bd
       -0.0005252282 0.0683525 0.009344208 -0.082804665
0002f0 f3 b4 64 be 12 ff 21 bd 52 fb 19 3d 9e f2 d7 3d
       -0.22334652 -0.039549895 0.037593193 0.105443224
000300 c8 09 d8 bc 69 98 18 3d 86 ae b5 3d 43 23 41 3d
       -0.026371852 0.037254725 0.08871178 0.04715277
000310 60 4a 07 3d 44 93 9d 3d 75 45 d9 3c 79 66 0f 3e
       0.033029914 0.07694104 0.026522378 0.14003934
000320 7c 6d dd bd 39 91 8a bd c5 d1 67 bd e2 50 a3 bd
       -0.10811898 -0.0676598 -0.056596536 -0.079744115
000330 4d ca 39 3d c2 29 0b 3e f8 03 5c 3d 64 8a 56 bd
       0.045358945 0.13590148 0.053714722 -0.052378073
000340 c4 63 6d bc b2 77 a6 3c 7c 42 da 3c 14 18 d2 3c
       -0.014489118 0.020320747 0.02664303 0.025646247
000350 64 5b dd bd d9 ff 0d bd d8 9a c6 bd 12 ea 21 bd
       -0.10808447 -0.034667823 -0.09697503 -0.039529867
000360 44 9a 09 3e ba cb 82 3b 68 76 ea bb 87 bd b2 bd
       0.13437754 0.0039915713 -0.0071552284 -0.08727556
000370 9f 5f 6b bd d5 0b 2d be 31 09 c9 3c 08 08 af 3d
       -0.05746424 -0.16899045 0.024540516 0.08546454
000380 ba 1b 03 3d c1 da ad 3d 6c f4 c1 bd e0 ee 6c 3d
       0.032008864 0.084889896 -0.09470448 0.057844996
000390 11 8a b0 3c b0 6d 8b bd 86 18 09 3c 09 49 5d 39
       0.02155021 -0.068080306 0.008367663 0.0002110341
0003a0 ad 21 c8 3c 37 0f 0a 3d 26 f3 fd 3d bc 99 26 bd
       0.02443012 0.033705916 0.123998925 -0.040673956
0003b0 53 03 c7 3b 49 ea e5 bd fe 0e 80 bd 8b 4a df bd
       0.0060733943 -0.11226327 -0.062528595 -0.1090289
0003c0 56 3b 2d 3d 12 76 60 3d 21 2d b9 bd d4 0b 1a 3e
       0.042292915 0.0548001 -0.09041811 0.15043575
0003d0 cf 55 41 bd e5 9a 11 be 60 32 91 bd 92 12 5d bb
       -0.047200974 -0.14219244 -0.070896864 -0.0033732993
0003e0 ab fa a0 3d 61 1e ca bc f8 28 89 3d f8 9c f8 3c
       0.07860311 -0.024672689 0.06697267 0.030348286
0003f0 6d e0 a8 bd a9 cf 4e bd df 82 51 bd cc 07 52 bc
       -0.08245931 -0.05049101 -0.0511502 -0.012819242

global_block.conv_chan.conv.0.bias f4 [8]
000000 60 3b 5e 3d 26 2d 8a 3c cd ca a5 ba 93 01 49 bd
       0.054255843 0.016867232 -0.001264894 -0.049073767
000010 5b 8d 9c 3d 68 ef 27 bd 01 4f aa 3a 28 9f 3c 3d
       0.07644149 -0.0409998 0.0012993516 0.04605022

global_block.conv_chan.conv.1.weight f4 [8]
000000 98 43 80 3f ba 57 85 3f 3f 68 8c 3f ad 25 70 3f
       1.0020628 1.0417397 1.0969313 0.9380749
000010 5e a1 7b 3f 68 e6 69 3f a5 58 83 3f 49 98 73 3f
       0.982931 0.913672 1.0261427 0.95154244

global_block.conv_chan.conv.1.bias f4 [8]
000000 2a 0f 87 be 67 16 25 be 5d cb 4f be 21 fe de bd
       -0.26378757 -0.16121827 -0.2029242 -0.10888315
000010 c9 2b 2d be b0 27 5b be b5 84 64 be cd 54 4a be
       -0.16911234 -0.21401858 -0.22316249 -0.19758911

global_block.conv_chan.conv.1.running_mean f4 [8]
000000 d1 06 0f bd 3f d3 ec bd fb 95 03 be 3e a5 a6 bd
       -0.03491861 -0.115637295 -0.12850182 -0.08136986
000010 5b 9c 10 3e e5 b0 db bd a7 b5 98 3b b9 ac 8b 3d
       0.14122145 -0.10727099 0.0046603265 0.068200536

global_block.conv_chan.conv.1.running_var f4 [8]
000000 45 b9 e0 3d 7d d0 2e 3e 82 c5 0e 3e d3 3e e3 3d
       0.10972837 0.1707172 0.13942531 0.11095967
000010 e5 53 ad 3d 3a c4 48 3e 40 e9 d0 3d 01 01 a7 3d
       0.08463267 0.19606104 0.10200739 0.08154488

local_block.conv_time.conv.0.weight f4 [8, 1, 1, 51]
000000 57 c1 a5 bd 49 2c 87 3b 61 ac 81 3c 76 9b c3 3b
       -0.08093517 0.0041251522 0.015829267 0.00596946
000010 66 f5 bc bc bd 3f f4 bd 39 03 5e 3d bf 76 d6 3a
       -0.023066234 -0.119262196 0.054202292 0.0016362293
000020 0b ec 02 3e 47 44 a7 3c a8 20 55 bd ef 34 58 3c
       0.12785356 0.0204183 -0.052033097 0.013196214
000030 a6 ae ea 3d 93 54 bd bd 75 9e c6 3b 83 fe 86 bd
       0.11459093 -0.09244647 0.00606137 -0.06591513
000040 c0 ee 92 bd 6e fb 07 3e d3 de 1d 3e 85 05 36 3d
       -0.07174444 0.13279507 0.15417032 0.044438858
000050 75 82 30 be 94 e2 7d bd f0 3d 28 bd b2 11 2d bd
       -0.17237265 -0.06198366 -0.041074693 -0.042253204
000060 9a 21 8e 3b 17 b6 e0 3d 13 eb ba 3c 7f 96 64 bc
       0.0043375017 0.10972231 0.02281717 -0.013951897
000070 66 a6 8c 3d 2e 77 06 3e f5 73 f0 3c 4e b5 b0 3d
       0.068676755 0.13131401 0.029352168 0.08628331
000080 87 ee 72 3d f6 d7 b4 bd e0 1b f7 3d 98 5f 1e 3e
       0.05930951 -0.08830254 0.120658636 0.15466154
000090 28 95 65 3c f4 a7 78 be 0b fa a0 bd b0 c2 9d 3d
       0.014012612 -0.24282819 -0.07860192 0.07703149
0000a0 a5 d7 b3 3d d3 a2 e5 bd 34 48 02 3e d9 1e 03 3e
       0.08781365 -0.11212697 0.12722856 0.12804736
0000b0 b2 dc ed 3c 7a 57 8c bd 0f f1 6b ba d3 05 74 bd
       0.0290359 -0.06852622 -0.0009000459 -0.059575867
0000c0 13 52 09 bd 1c d3 9a 3d 0d 09 23 bd 45 f3 be 3c
       -0.033525538 0.07559797 -0.039803553 0.02330936
0000d0 ed 9e 83 bd a6 78 29 bd e3 a9 90 bd d8 8a 21 3c
       -0.06426797 -0.041374825 -0.07063653 0.009859763
0000e0 90 fa 46 bd a5 58 20 bd d3 43 68 3d 5a ad c2 bd
       -0.0485788 -0.039147038 0.056705307 -0.095057204
0000f0 c1 fc 44 3d 80 dd 6c bd bb 28 25 3e 81 90 06 3e
       0.048092607 -0.057828426 0.16128819 0.13141061
000100 dc 36 9b bc 23 88 9b bc f2 ee 89 bc a0 39 ca bc
       -0.018947057 -0.018985813 -0.01683757 -0.02468568
000110 3c 43 01 be ce ce 28 bd d9 2c b1 bc 8f a9 e1 bd
       -0.12623304 -0.04121285 -0.02162783 -0.11018669
000120 b4 6c 24 3d b5 97 81 bd 67 c1 14 bd 94 9b 72 3d
       0.04014273 -0.06327764 -0.036317255 0.059230402
000130 72 5b 33 bd bb 2e 68 3c d9 51 d2 3d f6 55 2f 3e
       -0.04378838 0.014171298 0.102695175 0.17122635
000140 e3 8f c1 3d 7a 83 72 bd d1 1b c0 3c 6c 5b 39 bd
       0.09451272 -0.059207417 0.023450764 -0.045253202
000150 2a 4b fe 3c 8a 01 b6 3d 73 cd 82 bd 4c c4 11 3d
       0.0310417 0.08887012 -0.063868426 0.035587594
000160 b2 10 49 3d 49 01 fc 3d 0e 78 c4 3d 26 68 1a 3c
       0.049088188 0.123049326 0.09593211 0.009424245
000170 75 91 84 bc e6 d9 ce bd 9a 20 1c bd 5a 2c 34 3d
       -0.01618264 -0.101001546 -0.03811703 0.04398761
000180 ae 7f 36 3e c2 9f c5 3c 9a 0e 57 3d a8 ea 2b bd
       0.17822143 0.02412403 0.05250416 -0.041971833
000190 48 d6 98 3d 98 e2 c1 bd 7f ae 7f bd 7e 8a 10 be
       0.07462746 -0.094670475 -0.06242227 -0.1411533
0001a0 34 3c 68 3d 13 14 6c bd 25 41 22 bd b0 53 79 3d
       0.05669804 -0.05763633 -0.039612908 0.060870826
0001b0 6b 7d 3d 3d a1 7b 4e 3d 91 36 19 3e 83 d4 2b 3b
       0.046262186 0.05041087 0.14962222 0.0026219196
0001c0 71 fc 09 3e 01 6b e8 3c ea e1 39 bd 1d bf d7 bc
       0.13475205 0.028371336 -0.045381464 -0.026336247
0001d0 e2 22 15 bd 0c 98 16 bd f0 09 54 bd 94 65 f7 bc
       -0.03641022 -0.036766097 -0.05176729 -0.030199803
0001e0 9f 35 f0 bd 47 b1 e0 3d 15 fc 0d 3e cb 97 90 3d
       -0.117289774 0.10971313 0.13865693 0.07060202
0001f0 69 8f c5 3d 44 e8 75 bd 0c ec 33 bb ba b3 af bd
       0.09646494 -0.06003596 -0.0027453927 -0.08579202
000200 18 b5 91 3c 99 75 a0 bd e8 18 a3 bd d1 2c 0e 3d
       0.017786548 -0.0783493 -0.07963735 0.03471071
000210 50 b5 a5 bc 06 14 98 bd 74 73 66 3b dc 27 55 bd
       -0.020228058 -0.07425694 0.003516403 -0.052039966
000220 58 35 48 3d 58 a8 8a bd e8 7f be 3c 34 08 3a 3e
       0.048878998 -0.0677039 0.02325435 0.18167192
000230 03 aa 8d 3d 99 eb 1b 3e 73 58 fd 3d 72 5c ec bd
       0.06917193 0.15226592 0.12370386 -0.1154107
000240 91 64 5c be 30 23 0a bd e6 4a d1 bd f7 06 e0 bd
       -0.21522738 -0.033724964 -0.10219364 -0.109388284
000250 ec 7a fb bd 18 66 e4 3d 97 c9 08 3e 63 5d 7b bd
       -0.12279305 0.11152285 0.1335815 -0.061368357
000260 55 90 e0 bc e2 07 32 3d ec fe 07 3c 28 1d 92 bc
       -0.027412573 0.04346455 0.008300524 -0.017836168
000270 a3 81 88 3c d1 5c 53 3d ab 73 d7 bc 28 5c 4b 3b
       0.016663378 0.05160219 -0.026300272 0.0031030271
000280 90 c1 98 3a 2c 93 f5 3d 9b 47 7b bd 89 3b 32 bc
       0.0011654366 0.119909614 -0.061347585 -0.010878452
000290 07 9b 8c 3d b8 fa 00 be dd c9 85 bd a9 63 83 3d
       0.068655066 -0.12595642 -0.06532643 0.06415493
0002a0 9a 75 98 bd 06 1a eb 3c 78 b9 49 3c 11 cc 7a 3d
       -0.07444306 0.028698932 0.012312286 0.06122977
0002b0 81 ad 14 3e ef 73 2f 3b 6e 4f a6 bd 1b f0 3b 3d
       0.14519311 0.0026771983 -0.08120619 0.04588328
0002c0 d1 e4 c0 bd 54 a6 4b bd b2 04 0f 3d b6 0a 3c bd
       -0.09418643 -0.04971917 0.034916587 -0.045908652
0002d0 2b 70 5f bd 84 8e 63 bd 54 18 c2 3d 60 6e 92 bd
       -0.05455033 -0.055555835 0.094772965 -0.071499586
0002e0 a2 0a f1 3d 4b 0a 54 bd 54 6b c2 3d b2 fb 24 3e
       0.11769606 -0.05176763 0.094931275 0.16111639
0002f0 8e 78 e4 3c ae 1f a8 bd 67 5e 70 3d 90 22 0b 3d
       0.027889516 -0.082091674 0.05868378 0.03396851
000300 18 38 f2 bd 14 fc 49 be 15 cc 9b 3d 5d e9 29 bd
       -0.11827105 -0.19725066 0.07607285 -0.04148232
000310 6a 24 de bb 85 dc 3c be 59 a2 dd bd 0f 12 89 3d
       -0.0067792432 -0.18443497 -0.10821981 0.066928975
000320 4d 87 be bd 88 3f ba 3d e8 bf 6f 3c 22 0e 40 3e
       -0.0930315 0.09094149 0.014633156 0.18755391
000330 03 74 3f bd 17 da be 3d 67 63 d3 bd d0 60 1b bd
       -0.046741497 0.09318941 -0.10321694 -0.037934124
000340 df 33 c1 bc 2d af df bd 47 c7 c8 3c ed ce 37 bd
       -0.023584304 -0.10922084 0.024509085 -0.044875074
000350 d8 5b 36 3d 67 9c bc 3c 45 b5 ad bd 3b 0f 9b bd
       0.044521183 0.023023797 -0.0848184 -0.07571264
000360 63 4a f1 bd 93 9c 12 3c 55 24 44 3c 0a 44 84 bd
       -0.11781766 0.008948463 0.011971553 -0.0645829
000370 06 eb 87 3d 0a 98 fa bd 70 fa 09 3d 1f 88 99 3d
       0.06636624 -0.122360304 0.0336861 0.07496666
000380 79 08 00 be a1 32 7f bd ef 78 73 3b e4 00 73 3c
       -0.12503232 -0.062304143 0.003715094 0.014831755
000390 f3 cd 4d 3d f3 19 78 3d 09 bf c5 3d 5d a6 2c bd
       0.050245237 0.060571622 0.09655578 -0.042150844
0003a0 9a 28 f1 bd 85 a2 44 bd ac 8d c1 3b 54 0f 27 bd
       -0.11775322 -0.048006553 0.005906781 -0.040786102
0003b0 4c 66 83 bd ec e9 8e 3d 41 b1 5f bc f5 c9 71 bd
       -0.06415996 0.06978211 -0.0136531005 -0.05903049
0003c0 94 de 8a 3d 8a d2 d6 bd d9 08 06 be 0e ee 40 3c
       0.06780735 -0.10489376 -0.13089313 0.011775507
0003d0 34 9b 21 be 7e ed b5 bd 72 a6 47 3e 20 2e 3c 3e
       -0.15781862 -0.08883189 0.19497088 0.1837697
0003e0 ab 87 da bd 3f df ec bd f5 dc 47 be a4 90 71 bd
       -0.10670408 -0.11566018 -0.19517882 -0.05897583
0003f0 53 48 34 bd bc 56 64 3c 7f 04 b6 ba 9b 2b b3 3c
       -0.044014286 0.013936695 -0.0013886838 0.021871379

local_block.conv_time.conv.0.bias f4 [8]
000000 5c 37 50 3d e4 47 03 be ad 79 ab 3c 55 15 32 3d
       0.050834045 -0.12820393 0.020932043 0.043477375
000010 7e 19 95 3d d7 be 48 3d 57 0b c6 3d ab a5 b5 3d
       0.07280253 0.049010124 0.09670132 0.08869489

local_block.conv_time.conv.1.weight f4 [8]
000000 35 46 84 3f 90 30 79 3f e5 52 61 3f 3e 38 6e 3f
       1.0333925 0.97339725 0.8801711 0.9305457
000010 83 13 62 3f cf e4 8d 3f 65 dc 6e 3f 5f e4 88 3f
       0.8831102 1.1085452 0.93305045 1.0694693

local_block.conv_time.conv.1.bias f4 [8]
000000 b1 ce 47 3d a7 6f 9d 3d d5 34 8f 3c 3c b6 de 3d
       0.0487811 0.076873116 0.017481247 0.10874602
000010 5f a4 58 bd e0 79 53 3b 8e f6 14 3e 37 01 48 be
       -0.05289113 0.0032268688 0.14547178 -0.19531713

local_block.conv_time.conv.1.running_mean f4 [8]
000000 b6 18 6a 3d 5c 39 02 be 90 2f f8 3c b4 f0 37 3d
       0.057152472 -0.12717193 0.030296117 0.044907287
000010 01 1d 8c 3d fe 4e 4a 3d 91 a9 ee 3d 9c 56 a9 3d
       0.068414696 0.04939174 0.11653436 0.082684726

local_block.conv_time.conv.1.running_var f4 [8]
000000 1a cc ff 40 76 fc 11 41 b1 ba 6e 41 a2 14 1d 41
       7.9936647 9.124136 14.920579 9.817537
000010 d3 90 f3 40 cd dc de 40 ac 97 18 41 c0 f4 93 40
       7.6114287 6.964453 9.537029 4.6236267

local_block.conv_chan.conv.0.weight f4 [8, 8, 11, 1]
000000 c5 1d 99 bb 20 48 8b 3d 95 94 90 bb d6 cb b9 bc
       -0.0046727383 0.06800866 -0.0044122436 -0.022680204
000010 46 96 5d 3c 3a a2 f5 3c 46 f4 06 3a 5c 24 f6 bc
       0.0135245975 0.029984582 0.0005148094 -0.030046634
000020 03 bd 30 bd 5e c8 69 3d fc d5 80 bd 46 43 fe bb
       -0.043149006 0.05707585 -0.06290814 -0.0077594845
000030 a7 29 06 3d dc 66 35 3d ec c1 29 bd 04 aa cb 3d
       0.032754567 0.044287547 -0.041444704 0.09944537
000040 ac 9f 23 3d 9b a4 39 bd ce 62 4d be 46 5f b5 bb
       0.039947197 -0.045322996 -0.20057222 -0.005535039
000050 21 84 f0 3c 5c 6b 3c 3d 1f c5 16 3d 19 96 d9 3d
       0.029359879 0.046000823 0.036809083 0.10624332
000060 09 c2 b7 3c b3 c4 d2 3d fe 79 e4 3b 85 e2 38 bd
       0.02243139 0.10291424 0.0069725504 -0.0451379
000070 32 3d 23 bd 9e f1 d1 3b d2 33 c2 bd 65 e5 bc 3c
       -0.039853282 0.006406977 -0.0948254 0.023058603
000080 dc 9e fa bd 62 70 f9 bb 49 e9 47 bc a3 f8 11 bd
       -0.12237331 -0.007612274 -0.012201616 -0.03563751
000090 97 f8 1f 3c 20 e7 ef bb 5e c1 92 3d 08 63 a6 3c
       0.009763858 -0.0073212534 0.07165788 0.020310894
0000a0 97 17 73 3d 08 45 bb bd d2 ad 46 bc 4d f3 aa 3d
       0.05934867 -0.09144026 -0.012126403 0.08347187
0000b0 20 c8 1a 3d 87 8c 5b bc c6 c7 a2 bd 78 57 c3 bc
       0.03778851 -0.013400204 -0.0794826 -0.02384542
0000c0 e4 6b 7e 3c c2 fe 20 bd bc 01 bf 3d ae 79 07 3e
       0.015528653 -0.039305456 0.09326503 0.13230011
0000d0 ae 36 e6 bc 56 6a 1f 3b bc 61 54 bd 10 cd a6 bb
       -0.028102245 0.0024324856 -0.05185102 -0.0050903633
0000e0 ec aa 47 3e 26 75 70 3d a6 71 ea 3d 0e 3f e9 3c
       0.19498795 0.05870547 0.11447458 0.02847245
0000f0 7a 8d 08 bc c5 11 08 3e 9f 49 d7 bd 21 9b f8 bd
       -0.008334512 0.13288029 -0.10512089 -0.121389635
000100 80 bf 9b 3b a6 ba 24 3d 8a 26 2f bc 93 84 8a 3d
       0.004753053 0.040217064 -0.010690341 0.06763568
000110 2c ee 20 bd 97 a5 17 3e 78 f1 ba bc 9d 2f 81 bd
       -0.03928964 0.14809261 -0.02282022 -0.0630791
000120 d3 0c c3 bc 3d 44 e9 3d 5e 88 c0 3c cf 69 97 bd
       -0.023809826 0.113899685 0.023502525 -0.07393228
000130 bf 4f c4 bc f0 0c 80 bc c3 2e 8e 3d c3 70 8b 3d
       -0.023963807 -0.01563117 0.06942513 0.06808617
000140 d5 af 51 3a 5e a4 9c 3c 52 ea 8c bd 0e 5e c1 3d
       0.00079989183 0.019121345 -0.068806306 0.09441768
000150 8b 3c a3 3d ac 8b f2 3d 76 dd 3f bd cd c2 ac bd
       0.07970532 0.118430465 -0.04684206 -0.08435593
000160 b0 ee 21 3c d4 02 69 bc be f3 28 3d 1f 6f 1c bd
       0.009883568 -0.014221866 0.041248076 -0.03819191
000170 0f 28 bf 3d 37 bb 9b ba 9f c5 b4 ba 4c b4 7f bd
       0.093338124 -0.0011881356 -0.0013791806 -0.062427804
000180 c9 35 78 bd 81 34 aa 3c 49 15 1d bd ce 80 3e bd
       -0.06059817 0.020776989 -0.038350377 -0.046509556
000190 63 63 b7 3d 1f d0 64 3d 67 52 6b bc 99 be 21 bd
       0.089545034 0.055862542 -0.014362908 -0.03948841
0001a0 b0 17 7c bd 74 18 56 3d a8 63 06 3d 86 92 a1 bd
       -0.061546028 0.052269414 0.032809883 -0.07889275
0001b0 50 a0 b0 3d 04 b6 90 bd 4a 8f 03 be 24 e6 55 3d
       0.08624327 -0.07065967 -0.12847629 0.052221432
0001c0 1e 2b a6 bd 55 a1 95 b9 74 3f 2f 3d e4 c0 c4 bd
       -0.08113693 -0.00028539696 0.042785123 -0.096071035
0001d0 af 45 58 3d b0 11 88 3e 3b e8 10 3d 68 b0 f1 bc
       0.05280083 0.26575994 0.035377722 -0.029503062
0001e0 7a da ad bc 48 93 9c 3d 59 6f c5 bd ef 2f 75 bd
       -0.021222342 0.07645279 -0.096403785 -0.059860166
0001f0 09 88 39 bd 4e c5 cc bb fe e8 4b 3d 6b cc 91 3b
       -0.04529575 -0.0062491065 0.049782746 0.0044494173
000200 4a 5b 87 3c 53 f7 b6 bc 8e 42 88 bd 45 00 05 3e
       0.016523022 -0.02233473 -0.06653319 0.12988384
000210 ac d3 b1 3c c2 a7 39 3b 94 50 bf 3c 62 be 39 bd
       0.021707378 0.0028328751 0.023353852 -0.04534758
000220 ee b4 cd bc 6a f2 a2 3d 92 d0 2a bd d3 30 40 be
       -0.025110688 0.07956393 -0.041702814 -0.18768625
000230 1f f0 44 3d c2 87 0f bd c8 e6 40 3b b5 92 2c 3d
       0.04808056 -0.035041578 0.0029434431 0.0421321
000240 c4 ae 0a be 2e 90 40 bd 79 d3 a6 3d a8 c4 70 bd
       -0.1354323 -0.0470125 0.08145804 -0.058781296
000250 a3 23 9c 3b 69 8a 86 3d e6 70 c3 bb cb e4 d9 39
       0.0047649904 0.065693684 -0.0059643863 0.0004155993
000260 8b 7a e1 3d 80 35 14 bd 4c ad 0b bd f4 78 24 bd
       0.11009701 -0.036183834 -0.034100816 -0.040154412
000270 68 f6 a2 bd 72 4e 61 3c d8 26 bd 3a 39 cb 39 bd
       -0.079571545 0.013751613 0.0014431132 -0.045359824
000280 ac cb 22 3d 93 41 35 3e 32 a0 3e 3d 75 63 49 bb
       0.039745018 0.17700796 0.046539493 -0.0030729447
000290 19 7a 9a ba b3 94 d1 3c 77 c3 b9 3d 3d bf 65 bd
       -0.0011785656 0.0255836 0.09070485 -0.056090582
0002a0 b9 9b 54 3d b5 28 07 3d b9 ee da bc 59 05 b5 bd
       0.05190632 0.032997806 -0.02672516 -0.088389106
0002b0 ee 65 ab 3d 0a 88 0c 3d ed e5 92 bc 6e 89 94 bd
       0.08369051 0.034309424 -0.017931903 -0.07252775
0002c0 0a 1b 32 3d 5b 35 b1 bd 93 d0 f5 bd ee 58 4c 3e
       0.043482818 -0.08652755 -0.12002673 0.19955799
0002d0 f1 60 0d 3e cd 2c 90 3b d2 5b ea bd 54 d0 87 bc
       0.13806511 0.004399872 -0.114432946 -0.01657883
0002e0 09 9a 21 3d 54 b1 8e 3d 95 d5 3f bc e8 5f f1 bd
       0.03945354 0.069674164 -0.011708637 -0.11785871
0002f0 02 b5 17 be 7b d0 a1 bd ed 4d c9 3d 4d 8b 87 3d
       -0.14815143 -0.079010926 0.09829316 0.066183664
000300 4b 57 e6 3b 79 96 18 3c 36 9f a8 3d 57 55 32 3d
       0.007029449 0.009313219 0.08233492 0.043538418
000310 3d 85 81 bc f7 20 88 3d 97 37 51 bc a5 bb 73 bd
       -0.015810603 0.066469125 -0.012769601 -0.059505124
000320 52 36 a0 3d 8d ca c3 bd e0 a9 3b 3d e4 4e 9d bc
       0.07822861 -0.09560118 0.045816302 -0.019202657
000330 47 9a 46 3d 4f 99 6a bb 9f d7 0d 3d 99 8f 80 bd
       0.048486974 -0.0035796945 0.03462946 -0.06277389
000340 76 c2 58 bd 27 ba 86 bd e3 0d 8b 3d fc fa 37 bd
       -0.052919827 -0.065784745 0.06789758 -0.04491709
000350 68 10 e6 3c 23 4f 74 3d 2a 0e a6 3c f8 b5 bb bd
       0.028083995 0.059645783 0.020270426 -0.09165567
000360 27 d6 dc bc 0e 9b d1 bc 2b 21 d6 3d a8 2f 5e bd
       -0.026957585 -0.025586631 0.10455545 -0.054244667
000370 05 41 50 bd b0 10 49 3c cb 64 c4 3b 99 2b 4c 3d
       -0.050843257 0.012272045 0.005993461 0.049846265
000380 54 ff d6 3c c0 95 b9 3d 7e ba 0a 3c 04 c5 81 bd
       0.026244797 0.09061766 0.008467315 -0.06336406
000390 bc 6f 85 bd fe fb b7 3c 1b 63 6d 3c ee db e4 bc
       -0.06515452 0.022459026 0.014488961 -0.027936902
0003a0 36 b6 f2 bd 41 fa 02 bd 5c 8b db ba 72 d8 38 3d
       -0.1185116 -0.031976942 -0.0016749906 0.045128293
0003b0 b8 6e b8 3d 75 38 e9 bc ca fe b1 bd 38 b8 08 3e
       0.09005493 -0.028469304 -0.08691175 0.13351524
0003c0 38 fd 4d 3d 07 70 3e 3a c0 06 00 3d 95 3d 9b 3d
       0.050290316 0.0007264618 0.031256437 0.07580105
0003d0 03 e7 a0 bd 8c be 3f be a6 0d 02 bd 48 b7 3d 3d
       -0.07856562 -0.18725032 -0.031751297 0.04631737
0003e0 ab 87 33 bd e5 14 48 3e cf ec 85 bd 51 68 f0 3c
       -0.043830555 0.1953922 -0.06539308 0.029346617
0003f0 e1 06 25 bd 4c 4c 8b bb 51 54 b0 3b 9c 18 c4 bd
       -0.040289763 -0.0042510387 0.005381145 -0.09575006

local_block.conv_chan.conv.0.bias f4 [8]
000000 ee 7b 65 bd a5 cb b0 bc 44 71 2b 3d 74 02 a4 3d
       -0.05602639 -0.02158148 0.041856065 0.080082804
000010 8c d4 9c 3c ef 7f 0b 3d 72 51 9c 3d 45 62 bb 3b
       0.019144319 0.034057554 0.07632722 0.0057185018

local_block.conv_chan.conv.1.weight f4 [8]
000000 29 13 5b 3f d4 d2 81 3f 08 58 88 3f 79 d9 79 3f
       0.8557611 1.0142465 1.0651865 0.9759746
000010 56 f9 68 3f cb c5 8f 3f d7 55 7e 3f 18 32 7a 3f
       0.91005456 1.1232237 0.9934973 0.97732687

local_block.conv_chan.conv.1.bias f4 [8]
000000 6a 7e 51 be d7 06 7c be 17 f8 01 be ab 17 6e be
       -0.2045838 -0.24611984 -0.12692295 -0.23251216
000010 ab 32 5d be d5 c3 3b be 0a e8 2d be 9c e6 45 be
       -0.2160136 -0.18336423 -0.16983047 -0.19326252

local_block.conv_chan.conv.1.running_mean f4 [8]
000000 c0 b2 9f 3d 53 28 1c bd 03 28 42 bd 19 57 75 3d
       0.07797766 -0.038124394 -0.04740144 0.059897516
000010 5c 9a 22 bd cf 4d ae 3d 8e d8 10 3e 26 07 df bc
       -0.03969799 0.085109346 0.14145109 -0.027225088

local_block.conv_chan.conv.1.running_var f4 [8]
000000 d8 d7 33 3e e4 4d 94 3d bb b6 a8 3d 78 dc 09 3e
       0.17562807 0.07241419 0.08237978 0.13463008
000010 95 b6 8c 3e 87 35 7d 3d 65 a4 17 3e e8 be 04 3e
       0.2748305 0.061818626 0.14808805 0.1296345

tcn.network.0.conv1.weight f4 [16, 16, 16]
000000 31 e3 81 bd a1 d3 96 bd 7a f2 8f bc 38 7f 97 bd
       -0.063421614 -0.07364584 -0.017571677 -0.07397312
000010 d1 ca 0a bd 14 56 88 bc 8d eb 87 3b 20 8d dd bc
       -0.033884827 -0.016642608 0.004147953 -0.027044833
000020 11 6e 06 3d fa a0 fd bc 6f b1 07 bd 79 6a 59 bd
       0.03281981 -0.030960549 -0.0331282 -0.053080056
000030 df e7 77 bd 0f c4 23 bd cc 3e e7 bc fa 86 30 3d
       -0.060523864 -0.039981898 -0.028228186 0.043097474
000040 88 0d 2b 3d fa 3e d1 3c 26 94 97 bc 0e d4 34 3d
       0.04176095 0.025542725 -0.01850326 0.044147544
000050 b8 af f1 bc cb 04 02 3d 14 fc e7 bb 8e e2 23 3c
       -0.029502735 0.031742852 -0.0070796106 0.010002745
000060 5c 0f 33 3c 59 9a 88 3c 40 64 cf 3c 88 36 81 3c
       0.010928955 0.016675161 0.025316358 0.015773073
000070 66 ef 48 bc c0 88 14 bc 2a cd b1 bc 8a 67 55 3d
       -0.012264108 -0.009065807 -0.021704275 0.052100696
000080 25 f6 8d bc f0 66 18 3c e2 82 be bc e4 db 35 bb
       -0.017329285 0.009301886 -0.02325577 -0.0027749473
000090 a2 65 b0 3c 90 f4 97 3d 65 e8 d2 3d 4b 79 35 3d
       0.021532837 0.074196935 0.10298232 0.044305127
0000a0 2a 50 c8 3d 52 27 24 3b 6d 34 c4 bc b9 5e e3 3c
       0.09780915 0.002504785 -0.02395078 0.027755128
0000b0 2a eb 8e bb f0 c8 36 b9 fa a3 2b 3d 3b 1e 47 bc
       -0.00436153 -0.00017431728 0.041904427 -0.012153204
0000c0 47 04 ba 3c 48 41 d2 bc ed f6 2d 3c 3b a4 70 3d
       0.022707118 -0.025665894 0.010617954 0.058750372
0000d0 19 42 a4 3c d1 8b 2a 3d 11 5e 57 3d f9 38 07 3d
       0.020051049 0.041637246 0.052579943 0.033013318
0000e0 9e d2 14 3d df 1d e5 bc 23 42 05 3a 4a 95 b6 bc
       0.036333673 -0.027968345 0.00050834025 -0.022287983
0000f0 81 bd 30 bd da 48 0c bd 4b ec 10 3d 43 fd 68 3d
       -0.043149475 -0.034249164 0.035381597 0.056882154
000100 08 49 02 3d 14 89 49 3d 41 11 e3 3c 6b 54 a5 3d
       0.03180793 0.049202994 0.027718188 0.08072742
000110 b9 e0 94 3d b5 4d ee 3c 66 46 1c 3c b1 31 84 bc
       0.07269425 0.029089788 0.009538269 -0.016136976
000120 99 46 81 3d 69 47 f7 ba 0b 7e ed 3c 89 5d 19 3d
       0.063122936 -0.0018865886 0.028990766 0.037442718
000130 fd 04 e2 bc 7f 07 e8 3c d7 94 2a 3d d2 f7 2c bb
       -0.02759027 0.028323887 0.04164585 -0.002639283
000140 95 3b 11 3d a7 ec 53 3d 32 85 84 3d 9b 6a 9f 3d
       0.035457212 0.05173936 0.064707175 0.07784005
000150 d7 92 34 3d 8b 16 85 3c 7a c3 d6 3c ca 4c a3 bc
       0.04408535 0.0162461 0.026216257 -0.019934077
000160 98 f6 83 bc 28 fc 7e bd bc 63 d6 bb ad bd 17 3c
       -0.016108796 -0.062252194 -0.006542651 0.009261531
000170 7f fd 91 3a 94 a5 35 3d a0 77 aa 3d 6f f6 8a 3c
       0.001113817 0.04434736 0.08323598 0.016963212
000180 b6 f6 62 3d 33 e4 2c bd da 71 94 bd 9b a6 96 bd
       0.055411063 -0.042209815 -0.07248278 -0.07355996
000190 c9 a3 ef bc 97 9c 5c bd 6b e6 08 bd 4d 50 c5 3c
       -0.029252904 -0.053860273 -0.03342287 0.024086142
0001a0 4b c8 b8 bc f0 0c 96 bc de 0d df bc da 8e 54 bc
       -0.022556445 -0.018316716 -0.027228292 -0.012973512
0001b0 74 be d3 bc 22 03 91 bc 4d 7f ee 3c 26 1b d0 3a
       -0.025847651 -0.01770169 0.029113436 0.0015877231
0001c0 52 5f b0 bb b4 6f a6 3b 44 e0 99 bb cf 68 d0 3c
       -0.005382457 0.005079234 -0.004695924 0.025440602
0001d0 73 52 3c bd 43 12 a9 3c 28 97 c9 bb dd ca 20 3d
       -0.045977067 0.02063859 -0.0061520524 0.039255966
0001e0 6a a5 07 3d 4d 22 55 bc 54 ef a3 bb 68 f3 e9 bb
       0.033116736 -0.013008666 -0.0050028954 -0.007139612
0001f0 0a b3 9d 3a b2 bf 98 3c 1f a1 f3 3b db ad fa 3b
       0.0012031507 0.018646095 0.0074349786 0.0076501197
000200 7a a5 fd 3c a0 31 82 bb e2 0b dc 3c 6e 80 ff bc
       0.030962694 -0.003973201 0.026861135 -0.03118917
000210 18 bb 38 bd 22 2e bd bb 11 ca 75 bc 8b e5 33 bd
       -0.0451003 -0.0057733217 -0.01500179 -0.04392008
000220 a1 63 0f bd 26 24 d2 3c 6b 9b f3 3b c4 5d 35 3d
       -0.035007123 0.025652003 0.0074342988 0.044278875
000230 3f 68 18 3d f5 4e 3c 3d 05 96 b8 3c a1 06 2b bd
       0.03720879 0.045973737 0.022532472 -0.04175437
000240 37 cb 57 3c ce 4d 18 3d ac 9f b5 3b 7d f0 b9 bb
       0.013171009 0.037183575 0.005542716 -0.0056744204
000250 53 29 3a bc ac 92 8e 3c 01 dd af 3b e4 8d b0 39
       -0.0113623915 0.017403923 0.005366922 0.00033675053
000260 2a 1e 8e bc cc a2 f3 3c 94 9d b3 3c 43 cc af 3a
       -0.017348368 0.029740714 0.021925725 0.0013412315
000270 69 d6 ef bc e8 30 8d bb 06 f1 f4 3c 2a 3a b9 3d
       -0.029277043 -0.0043088086 0.029900085 0.09044297
000280 f9 70 94 3d 9a 7d 15 3d 11 79 3a 3d 0e 37 cc b8
       0.0724811 0.036496736 0.045525614 -9.737733e-05
000290 d6 f8 96 3c 5b 35 2a 3d 48 6e 80 3d 06 7b 86 3d
       0.018429201 0.04155479 0.062710345 0.065664336
0002a0 ea 53 24 bc 37 44 f7 bc 68 d2 5e bb d9 50 72 bd
       -0.010029772 -0.030183895 -0.0033999924 -0.059159134
0002b0 1a d7 a7 bb 24 9d dd bd 92 a6 70 bd 34 43 0c bd
       -0.0051220777 -0.10820988 -0.058752604 -0.034243777
0002c0 27 68 54 bd 06 3b fc bc bc 1e 1a bd d6 b2 c3 3b
       -0.05185714 -0.030789863 -0.037626967 0.0059722466
0002d0 af b2 64 3c 67 de f2 bc 9b 1a d9 3b b7 c7 0a bc
       0.013958617 -0.029647065 0.006625486 -0.008470467
0002e0 7b 9b 75 3d 4e 94 26 3d 29 f4 b9 3c 92 5a 0b bd
       0.05996273 0.040668778 0.022699432 -0.03402192
0002f0 95 bb dd 3b 4d cf 23 bd b2 50 d5 bc 02 8d b0 bc
       0.0067667463 -0.03999262 -0.026039455 -0.021551613
000300 b9 44 dc 3a f3 d0 45 3c 3e 62 c4 3c 68 08 8c bc
       0.0016805149 0.012073743 0.023972627 -0.017093852
000310 18 43 28 bd 71 d9 43 bd bd 04 bf bc 88 56 29 bd
       -0.04107961 -0.04781479 -0.02331769 -0.04134229
000320 ef a3 92 bd 63 11 8c bd 86 50 f3 bc fa 91 80 bb
       -0.07160174 -0.06839254 -0.029701483 -0.0039236518
000330 ae 8e f7 bc dd 51 5c bc 0d 1c e9 bd e5 13 b0 bd
       -0.030219402 -0.013447252 -0.113823034 -0.085975446
000340 25 47 e4 bd 84 60 ae bc db 84 d0 bc 3e d9 8a bb
       -0.11146382 -0.021286257 -0.025453975 -0.004237323
000350 4f 32 2c bc 56 7c 28 3d 23 45 aa 3d 9f 68 b5 3d
       -0.010510041 0.0411342 0.08313968 0.088578455
000360 35 10 0f 3d d0 4f 4f bb 87 a3 2b 3c 53 03 f1 bc
       0.034927566 -0.0031633265 0.010476 -0.02942053
000370 86 5d 92 bd b0 26 35 bd 12 62 e0 ba c7 c7 f1 bb
       -0.071467444 -0.04422635 -0.0017119071 -0.0073785516
000380 c8 e1 29 3c 50 d8 0f bd b5 fe 84 3c 10 6b 12 bc
       0.010368772 -0.0351184 0.016234735 -0.0089366585
000390 fa 47 bc 3c 84 8e 09 3d d6 8d 9f 3b 30 97 f5 bb
       0.02298354 0.03358318 0.004869203 -0.0074948296
0003a0 0d e0 a3 bd 20 16 0d bd fd 21 65 bd 13 36 16 3d
       -0.08001719 -0.03444493 -0.055940617 0.036672663
0003b0 76 fd c2 3b fc ff bc bb e1 97 ac 3b b8 34 a8 3c
       0.005950625 -0.0057678204 0.005267129 0.02053295
0003c0 09 a3 a6 bc 5f e8 5d bd e1 43 56 bd e0 4c fd bc
       -0.020341413 -0.054176684 -0.052310828 -0.030920446
0003d0 1d 1e 16 3d e8 97 a3 bc 87 d4 c6 3c 5e 70 99 3c
       0.036649812 -0.019969895 0.024271263 0.018730339
0003e0 04 7d 1b bc 57 a5 94 3c 64 8d f6 bc 49 82 d7 bc
       -0.009490255 0.018145246 -0.030096717 -0.026307242
0003f0 e5 7d 2b bc b5 54 16 3d e4 c6 27 3d 29 aa 5e 3d
       -0.010467027 0.036701877 0.04096116 0.054361496

tcn.network.0.conv1.bias f4 [16]
000000 75 ef 8b 3b 41 0a 54 39 33 c3 ff 38 3b 55 a7 36
       0.004270489 0.00020221715 0.00012195706 4.98691e-06
000010 47 91 95 bc 47 1e 86 b6 e5 dc 62 b7 c5 09 37 bb
       -0.01825775 -3.997036e-06 -1.3522081e-05 -0.0027929407
000020 d5 a3 bb 36 3a f9 1a 39 34 5d 93 37 1f 49 04 b6
       5.592107e-06 0.00014779429 1.7567167e-05 -1.9712095e-06
000030 e9 d7 4c b3 d9 a3 ba b6 3f 91 0c 3b ea 12 b8 3c
       -4.769382e-08 -5.5623063e-06 0.0021448878 0.022469956

tcn.network.0.bn1.weight f4 [16]
000000 47 02 8f 3f ad 76 88 3f 3f d7 7f 3f 2d d9 87 3f
       1.117257 1.0661217 0.99937814 1.0613152
000010 61 ce 8a 3f e3 cb 88 3f fe cf 84 3f cb e2 90 3f
       1.0844232 1.0687221 1.0375974 1.1319212
000020 83 85 8f 3f 83 47 91 3f 55 91 90 3f 06 f6 91 3f
       1.121262 1.1349949 1.1294352 1.1403205
000030 a7 a9 85 3f 7b 26 8c 3f 4b bd 83 3f c7 f4 8d 3f
       1.0442399 1.0949243 1.0292143 1.1090325

tcn.network.0.bn1.bias f4 [16]
000000 41 28 ad be 3f df d4 be 6e 1a af be df 88 b9 be
       -0.33819774 -0.41576573 -0.34199852 -0.36237237
000010 75 a7 a6 be 51 71 a3 be a7 1f c2 be 20 c2 9a be
       -0.32549635 -0.3192239 -0.37914774 -0.3022623
000020 53 3f 82 be 5e b2 c1 be f8 d2 ce be 42 ea dd be
       -0.25438938 -0.37831396 -0.4039533 -0.43342787
000030 9f b7 9a be 26 67 c3 be fa f0 9d be a6 c0 95 be
       -0.30218217 -0.38164634 -0.30847913 -0.29248542

tcn.network.0.bn1.running_mean f4 [16]
000000 79 70 52 bb 49 7c a9 bd 0f 73 8c bc f7 66 ec 3c
       -0.0032110496 -0.08275659 -0.017144708 0.028857691
000010 9f df 49 3d cd bc ae 3c b2 16 13 bd aa 5b 9f bd
       0.049285527 0.021330262 -0.035910316 -0.077811554
000020 ce e3 9d 3b b9 1c 3e bc 12 ec a7 3d c5 c0 2d bd
       0.004818416 -0.011603528 0.08199324 -0.042420167
000030 d9 20 1d bd 41 b9 13 3d ca 09 63 bc b5 95 a3 3d
       -0.038361404 0.036065344 -0.013857314 0.07987539

tcn.network.0.bn1.running_var f4 [16]
000000 46 8a 6e 3f 0e a9 4c 3f c1 29 18 3f 85 53 53 3f
       0.9317974 0.79945457 0.5943871 0.82549316
000010 64 84 73 3f 08 d2 7a 3f d1 7f 46 3f 8c 02 6e 3f
       0.9512389 0.9797673 0.7753878 0.92972636
000020 8c 8b 67 3f ea 2a 75 3f 07 f2 68 3f b0 d7 60 3f
       0.90447307 0.95768607 0.90994304 0.87829113
000030 ff c2 57 3f 9d a0 82 3f 5e 70 64 3f 41 20 4a 3f
       0.84281915 1.0205265 0.8923396 0.78955466

tcn.network.0.conv2.weight f4 [16, 16, 16]
000000 11 28 0e bd 52 e4 27 bc 58 47 76 bd bb 03 7c bd
       -0.03470618 -0.010247307 -0.060126632 -0.061526995
000010 cd 94 63 bd 40 c0 dc bb 47 30 cf bc 99 60 31 bb
       -0.05556183 -0.006736785 -0.025291575 -0.0027065633
000020 89 7b 08 bd c0 a0 e1 bc 49 3b 32 bc 94 e5 aa 3b
       -0.033320937 -0.027542472 -0.0108783925 0.005215356
000030 24 fe 35 3c 6e c8 c5 3c c7 f4 6d bd 8b ff 06 bd
       0.011107955 0.024143424 -0.058094766 -0.03295855
000040 1e 7c 9a 3d cb 06 70 3d 98 5d c7 3c b0 ae 90 bb
       0.07543205 0.05860023 0.024336621 -0.0044153556
000050 25 ac 1e 3c b4 43 5c bb b7 37 07 3d 1b b7 52 3d
       0.009684597 -0.003360969 0.03301212 0.051444154
000060 06 e9 8b 3d ac bd 69 3d 4e c0 cd 3d 47 b2 ea 3d
       0.06831555 0.05706565 0.10046445 0.11459785
000070 ab 5a 13 3d 6b 9e 2a 3d 9a f5 d3 bc f5 75 ee bc
       0.03597514 0.041654985 -0.025873948 -0.02910898
000080 19 68 af 3c 78 00 0d bd 3f 48 47 bc 85 0d 0d bd
       0.021411942 -0.034424275 -0.012163221 -0.03443672
000090 58 e6 d2 bc a9 0c 86 bc 00 bd a0 3c 32 a6 8c bc
       -0.025744602 -0.016363459 0.019621372 -0.017169092
0000a0 8f 2d 32 3d 76 e0 a6 3c 72 1a 26 bb ca a1 bc 3c
       0.04350048 0.020370703 -0.0025345352 0.023026366
0000b0 5b bd a8 bc d9 48 b8 bc bb d5 56 bd 39 95 82 bd
       -0.020598104 -0.022495674 -0.052449923 -0.06376118
0000c0 8d 9a e8 bb b7 aa a6 3c 9b e4 03 3d 2a bd d8 3a
       -0.007098502 0.020345075 0.032200437 0.0016535867
0000d0 35 af 8b 3a 82 a4 54 bc f1 3c 06 bd af 25 d7 3a
       0.0010657074 -0.012978675 -0.032772962 0.0016414429
0000e0 f3 cd 32 3b 5d 2a cb bc c8 7c 0b bd 73 46 70 bd
       0.00272834 -0.024800474 -0.034054548 -0.058660936
0000f0 02 1a f2 bc 3b ee a2 ba 4d 03 cd bb 7e 27 57 bc
       -0.029553417 -0.0012430617 -0.006256497 -0.013131974
000100 22 20 0a bb f5 96 09 3b ec 40 1e bd 40 52 72 ba
       -0.0021076282 0.0020994518 -0.038636133 -0.00092438236
000110 d4 cd 85 bd f5 b3 15 bd ac ac 96 3b 3d 9c 8e bc
       -0.06533399 -0.036548574 0.004598221 -0.017408485
000120 35 51 0c bd 1a 55 84 bc cf 1a 2c 3d 62 08 e2 bc
       -0.034257133 -0.01615386 0.042017754 -0.027591888
000130 a9 16 30 bd 5f dd 54 bd 5c 57 09 bd b9 9a 86 bd
       -0.04299036 -0.05196893 -0.033530578 -0.0657248
000140 dd 55 9c bd e2 fd fc bc 01 64 b0 bb b2 e0 70 3c
       -0.076335646 -0.03088278 -0.005383015 0.014702009
000150 70 98 8f 3c 1c 80 d9 3c ba 46 ac 3b 1c b4 3c b9
       0.017528743 0.026550345 0.0052574547 -0.00017996173
000160 67 23 1e 3d 6e 12 49 3d 9f e9 20 3d f6 ac 8c 3d
       0.03860798 0.04908984 0.0392853 0.06868927
000170 25 68 b7 bb 0a b5 70 3c b1 d5 95 bd f7 b5 b4 bd
       -0.005597132 0.014691601 -0.07316149 -0.088237695
000180 40 e6 60 3d c6 bb ac 3c 3d c5 5a 3d 23 d0 cf 3c
       0.054907084 0.021085631 0.053410757 0.025367802
000190 82 c4 1d 3d c4 05 64 3d 46 df 1c 3d 59 72 81 3d
       0.038517483 0.05566956 0.038298868 0.06320638
0001a0 17 e6 f4 3c 0e 00 f8 3c cc 10 51 3d 17 78 d8 3b
       0.029894872 0.030273464 0.05104141 0.0066061127
0001b0 13 9c 41 3d 7f e5 68 3d 9e 39 14 3d 5b 43 30 3b
       0.047267985 0.05685949 0.03618776 0.0026895616
0001c0 6f b9 62 bc 61 6a 20 bd 69 b1 9d bc 07 b4 2c bd
       -0.013838156 -0.03916395 -0.019249635 -0.042163875
0001d0 0c 09 99 3c 62 be 89 3c 7d e6 a5 bc d5 a3 f3 3c
       0.018681072 0.016814414 -0.020251507 0.029741207
0001e0 2f 55 bd bc 5f a9 10 bd a2 ee 4e bd 9d b5 8c bc
       -0.023111908 -0.035317775 -0.050520547 -0.017176444
0001f0 52 98 b7 bd ff a6 7f bd ab c7 fd bd 30 b6 b1 bd
       -0.089646 -0.06241512 -0.12391599 -0.08677328
000200 10 58 3a bd 7a f4 65 bd 91 5f 7a bd fe 50 91 bd
       -0.04549414 -0.056141354 -0.061126295 -0.07095526
000210 91 29 34 bd cd c9 61 bd a5 87 ad 3c 72 9d 3f bc
       -0.043984953 -0.055124093 0.021182844 -0.011695253
000220 ab 3b a5 3c 25 70 a4 3c a3 c2 4a bc fa b1 2c 3d
       0.020170053 0.020073006 -0.012375507 0.04216192
000230 bd dc 25 3d 1c 50 ba bc e8 7b a4 bc 2d 71 60 3c
       0.040493716 -0.022743277 -0.020078614 0.013698858
000240 a1 28 10 bc 64 41 09 bd de 34 bf bc 21 67 73 bb
       -0.008798749 -0.033509627 -0.023340639 -0.0037140327
000250 fb 64 ea ba 02 cd 3c bd 8d 92 ba 3b 40 05 ab bc
       -0.0017882878 -0.04609395 0.0056937397 -0.020876527
000260 e1 b9 db bc 8e 22 f7 bc dc 3d 3c bd 77 a3 bd 3b
       -0.026822032 -0.030167844 -0.04595743 0.005787309
000270 8f 7f a7 bc 07 bc 3d bc c8 b4 2f bd 4d a2 b8 bb
       -0.020446567 -0.011580474 -0.042897016 -0.005634582
000280 35 4c 4a 3d 0e bc 83 3d 5e 42 7f bb 93 88 5b 3d
       0.049389083 0.06432353 -0.003894947 0.053597044
000290 8d c6 1b 3d 72 2c b0 bc 17 f4 02 3d 04 9f ae bc
       0.03803115 -0.021505568 0.031971063 -0.021316059
0002a0 27 f9 d0 ba 6a c9 f1 bc 82 ad 19 bd 29 92 a5 bb
       -0.0015943394 -0.029514987 -0.037518986 -0.005052824
0002b0 2f 8f a5 bc 4a 63 7e bc fd 66 a8 bd a9 82 20 bd
       -0.020209877 -0.015526602 -0.082227685 -0.039187107
0002c0 5d 4e de 3c 38 f3 b6 bc c8 9e 6f bd 19 bf 0b bd
       0.027136976 -0.022332773 -0.058501035 -0.03411779
0002d0 38 a2 39 bc ec 02 2f bd 5e 7c 97 bc 73 11 80 3c
       -0.01133018 -0.042727396 -0.01849192 0.01563332
0002e0 5b 82 de bb e6 82 49 3b b8 3b 9d 3d d8 ab d3 3c
       -0.006790442 0.0030748188 0.07677406 0.025838777
0002f0 90 b3 35 3d 93 b1 99 3d 8c b5 9c 3d 56 94 fc 3d
       0.044360697 0.07504573 0.07651815 0.1233298
000300 0c ff 0c 3d b1 6f a0 3c e7 e5 04 bc 56 fd a7 3c
       0.03442292 0.019584509 -0.008111454 0.020506542
000310 7a 7d 71 3c ec 0f 2e 3c 31 38 70 bb 1e 35 c7 bc
       0.014739389 0.010623913 -0.0036654586 -0.02431732
000320 0d bc 17 3b 01 31 ad bb 5b b6 59 3d 45 e0 46 bb
       0.0023152858 -0.0052853827 0.053152423 -0.0030346077
000330 7c 16 ab 3b 8b 39 15 3c 03 c8 98 bb fc 39 b6 bc
       0.005221186 0.009107958 -0.004662515 -0.022244446
000340 94 3f 75 3d fa 26 35 3d 2b d4 4e 3d d6 51 e9 3c
       0.059875086 0.044226624 0.050495308 0.028481405
000350 b8 54 00 bb 71 ab eb 3b 50 a7 e0 bc 5e 2f 22 bd
       -0.0019581746 0.0071920683 -0.02742353 -0.039595954
000360 3f 0a b0 bd 7a 22 fa bc 75 d9 69 bd 2b 66 51 bc
       -0.08595704 -0.030534018 -0.05709215 -0.012780706
000370 0a a9 e4 3c e4 df 60 3d 79 55 5a 3d 5e ea d2 3d
       0.027912635 0.05490102 0.05330417 0.10298608
000380 e2 9e 24 bd 82 f9 95 bc c2 66 15 bc 3f 1f fc 3c
       -0.040190585 -0.018307451 -0.009118738 0.030776618
000390 e4 83 9e 3c e5 b9 27 3d cf 2d 86 3b 50 24 b0 3b
       0.01935 0.040948767 0.0040948163 0.0053754225
0003a0 6d b4 4f ba 84 0e 53 bd f8 47 32 bc 42 f4 03 bd
       -0.0007923309 -0.051527515 -0.0108814165 -0.032215364
0003b0 aa 1b 10 bd b6 a1 1e 3b 93 db 5e bd 08 07 85 bd
       -0.035182633 0.0024205274 -0.05440862 -0.06495482
0003c0 16 4d f7 bd 91 c9 87 bd 84 89 8e bd 46 5f 26 bd
       -0.1207525 -0.066302426 -0.06959823 -0.040618204
0003d0 1d 60 0e bd 4e 08 2c ba 25 54 0e ba 9f a2 51 3d
       -0.03475963 -0.0006562517 -0.00054294086 0.05118048
0003e0 a1 52 a2 3c a2 94 d3 bc a1 a7 79 bd 5f 8b dc bd
       0.019814791 -0.02582771 -0.06095088 -0.107687704
0003f0 99 3a 40 bd c7 91 6f bd 27 a0 5e bc f5 14 fe bc
       -0.046930883 -0.058488633 -0.013587988 -0.031015852

tcn.network.0.conv2.bias f4 [16]
000000 30 cb f4 35 13 dc 54 3b 7a 87 d6 b9 04 6f 44 3d
       1.8238552e-06 0.0032479807 -0.000409182 0.047957435
000010 ea d0 a8 bb 80 0f 0d 3b 9e 18 85 3b 48 48 8f 3a
       -0.0051518576 0.0021524131 0.0040617725 0.0010931576
000020 63 5d 64 3d a6 85 7a 3c bd 2d 68 36 2b 7e 91 bc
       0.055753123 0.015290653 3.4597317e-06 -0.017760357
000030 3b 07 6f bb 3b 23 dc 3a 82 44 a5 b6 d5 bd 0a bb
       -0.0036472816 0.0016795167 -4.9253586e-06 -0.0021170278

tcn.network.0.bn2.weight f4 [16]
000000 00 00 80 3f 00 00 80 3f 00 00 80 3f 00 00 80 3f
       1.0 1.0 1.0 1.0
000010 00 00 80 3f 00 00 80 3f 00 00 80 3f 00 00 80 3f
       1.0 1.0 1.0 1.0
000020 00 00 80 3f 00 00 80 3f 00 00 80 3f 00 00 80 3f
       1.0 1.0 1.0 1.0
000030 00 00 80 3f 00 00 80 3f 00 00 80 3f 00 00 80 3f
       1.0 1.0 1.0 1.0
