model/Benchmark/DTCNet_b1_1s_S13.pth (torch, 181815 bytes, 74 tensors)

global_block.conv_time.conv.0.weight f4 [8, 1, 1, 125]
0.014657918 0.044127658 0.01471841 0.012116929 -0.06161928 0.053968802 -0.028010948 0.020639759
0.023388326 -0.036018223 0.033033285 -0.01391585 0.010206083 0.019227622 -0.04477641 0.070336275
0.044177428 0.080281235 -0.040294535 0.034411572 0.039875377 0.0027591893 -0.018814715 0.013002847
0.033705037 0.013752724 0.025456253 0.048886493 0.0886857 -0.0223859 0.050046355 -0.005401451
0.075009115 -0.011799824 -0.02895252 -0.02581931 0.044223867 -0.0035089883 0.051118925 -0.09451703
-0.006825828 -0.06768081 0.02004018 0.056731142 -0.011947585 0.019542912 -0.017174076 -0.05651851
0.061677534 0.059006166 0.080215216 0.074430786 -0.00012377118 0.01897977 0.032394253 -0.08327064
-0.096477546 -0.008304191 0.022221135 -0.012374452 -0.019115547 -0.0029562984 -0.033655696 -0.07440715
0.01182764 -0.0012084321 0.047566436 -0.003201805 0.008937266 -0.010211035 -0.04356955 -0.003648821
-0.026122551 0.10323199 0.04926912 -0.020578653 0.022106769 0.14111973 0.1848026 -0.030150661
-0.096955895 -0.039458476 -0.108352326 -0.052610278 -0.10409039 0.025870886 -0.01286092 -0.11486929
-0.074491754 -0.020204589 -0.048386585 -0.0061768037 -0.08959331 -0.079170465 0.030161059 -0.0055210115
0.08425888 0.16221398 0.14212282 0.016842429 -0.013879355 0.007242871 -0.040295567 -0.07450195
0.032597687 0.09701432 0.029256547 -0.088542804 -0.111039035 -0.08930525 -0.015518869 -0.05193952
-0.024634287 -0.032791376 0.017832737 0.0076840515 -0.072963946 -0.094749436 -0.009570036 0.007839883
-0.0379598 0.043847833 0.10995165 -0.029376036 -0.034955073 0.026202584 -0.043832168 -0.020833075
0.12785177 0.0022044305 0.01990629 -0.032572955 0.03350055 0.00047828897 -0.00010750693 0.0100016445
0.015031107 0.034512747 0.085065715 0.09690562 -0.055080734 0.07712934 0.007095775 0.016209198
0.07028941 -0.059092496 -0.057990897 0.012661213 0.0052609188 -0.0029259264 0.016178181 0.07233502
0.0091605075 0.031206125 -0.06009393 0.031560402 0.023800597 -0.013702054 0.0046013114 -0.03993949
-0.02872996 -0.01047609 0.036032837 -0.012271624 -0.09506186 -0.07574122 -0.016667377 -0.018192476
0.04436578 0.015605494 -0.021934725 -0.054757565 0.04929008 -0.00038791195 -0.014920827 0.06844804
-0.03676311 -0.038363222 -0.033799246 -0.024574472 -0.1393592 0.022595903 0.0070841997 0.033066966
-0.057257988 0.026538914 0.043903954 -0.040019084 0.048239842 -0.04676201 0.020351889 -0.07655796
-0.024101555 0.0055312584 0.092376545 0.0986407 0.02981593 -0.01504257 -0.033961125 0.048257653
-0.04610646 0.022879349 -0.036127098 0.15209834 0.25278825 0.16757777 0.0067833117 -0.088500194
-0.12402021 -0.027926961 0.011939975 -0.017455418 0.028552497 0.022431066 -0.13757442 -0.11317075
-0.07790942 -0.03260704 -0.045945544 0.023728667 0.021600204 0.0017015375 0.028737178 0.026224729
-0.10328997 0.03207517 0.011293715 0.091189235 -0.064630546 -0.05934898 0.051774573 -0.05794253
-0.047688466 0.05424443 0.0064954576 -0.1345484 0.04845101 0.024444712 0.09055307 -0.048921157
-0.10128718 -0.09202942 -0.02167872 -0.029593538 0.04282855 -0.038640965 -0.042693555 -0.0073554153
0.0074352548 -0.08941199 0.019665306 -0.080716245 0.010074737 0.032441787 -0.042705476 0.010272249
00000000: c427 703c 34bf 343d 7c25 713c 1586 463c
00000010: 8064 7cbd 640e 5d3d 3777 e5bc b614 a93c
00000020: e098 bf3c d887 13bd e94d 073d 4eff 63bc
00000030: 6a37 273c 3f83 9d3c 7867 37bd 770c 903d
00000040: 64f3 343d 7d6a a43d e20b 25bd 26f3 0c3d
00000050: 5d54 233d 84d3 343b 5121 9abc e509 553c
00000060: 4b0e 0a3d 1b53 613c a289 d03c 343d 483d
00000070: d9a0 b53d a362 b7bc 68fd 4c3d a8fe b0bb
00000080: 619e 993d 0d54 41bc d62d edbc 0583 d3bc
00000090: 1624 353d 0ef7 65bb 1462 513d 2592 c1bd
000000a0: 32ab dfbb 3d9c 8abd 4e2b a43c ea5e 683d
000000b0: cebf 43bc 7518 a03c a6b0 8cbc f47f 67bd
000000c0: 95a1 7c3d 73b0 713d e047 a43d 2b6f 983d
000000d0: 93c8 01b9 767b 9b3c d6af 043d cc89 aabd
000000e0: 0596 c5bd 4d0e 08bc 1909 b63c 37be 4abc
000000f0: 3598 9cbc 75be 41bb 8eda 09bd c762 98bd
00000100: b8c8 413c 4164 9eba 06d5 423d 60d5 51bb
00000110: 9c6d 123c 2f4c 27bc fc75 32bd 0f21 6fbb
00000120: f6fe d5bc 4b6b d33d 6bce 493d 9094 a8bc
00000130: 4119 b53c b181 103e e53c 3d3e 85fe f6bc
00000140: d090 c6bd 369f 21bd d3e7 ddbd e07d 57bd
00000150: 582d d5bd 2eef d33c 9cb6 52bc 9740 ebbd
00000160: 228f 98bd 1884 a5bc 0331 46bd c966 cabb
00000170: b37c b7bd 2024 a2bd 5314 f73c 9ae9 b4bb
00000180: eb8f ac3d 6c1b 263e a588 113e 22f9 893c
00000190: 3c66 63bc 9b55 ed3b f70c 25bd 7a94 98bd
000001a0: 2785 053d 72af c63d 6dab ef3c ee55 b5bd
000001b0: 6f68 e3bd ace5 b6bd db42 7ebc 89be 54bd
000001c0: d8cd c9bc 4050 06bd f615 923c 7fca fb3b
000001d0: 1f6e 95bd fe0b c2bd a4cb 1cbc da72 003c
000001e0: bc7b 1bbd c999 333d 552e e13d 03a6 f0bc
000001f0: 0d2d 0fbd cda6 d63c 5c89 33bd 20aa aabc
00000200: 93eb 023e 3578 103b 8412 a33c 386b 05bd
00000210: df37 093d dcc2 fa39 5875 e1b8 f0dd 233c
00000220: 0845 763c 3d5d 0d3d ef36 ae3d 7476 c63d
00000230: 569c 61bd fdf5 9d3d ad83 e83b 27c9 843c
00000240: e5f3 8f3d f90a 72bd dd87 6dbd fa70 4f3c
00000250: c963 ac3b e6c0 3fbb 1b88 843c 6224 943d
00000260: f415 163c fda3 ff3c 0e25 76bd 7b45 013d
00000270: 78f9 c23c 947e 60bc 99c6 963b 9797 23bd
00000280: 185b ebbc e8a3 2bbc 2b97 133d ec0e 49bc
00000290: cbaf c2bd 361e 9bbd 068a 88bc 6308 95bc
000002a0: e4b8 353d 30ae 7f3c 74b0 b3bc 7849 60bd
000002b0: 65e4 493d a960 cbb9 7c76 74bc 7c2e 8c3d
000002c0: ea94 16bd c122 1dbd 1471 0abd 6750 c9bc
000002d0: 2eb4 0ebe 0b1b b93c 9322 e83b 3a71 073d
000002e0: 5a87 6abd 2368 d93c a2d4 333d 0deb 23bd
000002f0: 2497 453d 8589 3fbd 01b9 a63c 6bca 9cbd
00000300: a070 c5bc 8f3f b53b ea2f bd3d 2304 ca3d
00000310: 8a40 f43c 1d75 76bc d21a 0bbd d1a9 453d
00000320: 21da 3cbd 796d bb3c 02fa 13bd abbf 1b3e
00000330: 766d 813e 8299 2b3e 8b46 de3b 973f b5bd
00000340: 4ffe fdbd 15c7 e4bc e39f 433c aafe 8ebc
00000350: ede6 e93c 5bc1 b73c 4fe0 0cbe 11c6 e7bd
00000360: f98e 9fbd f68e 05bd 6531 3cbd 9f62 c23c
00000370: e9f2 b03c 2006 df3a 3b6a eb3c 3ed5 d63c
00000380: b189 d3bd 4161 033d 4609 393c 6cc1 ba3d
00000390: 055d 84bd eb17 73bd 9311 543d 2555 6dbd
000003a0: fb54 43bd 682f 5e3d d9d7 d43b 0ec7 09be
000003b0: 9174 463d 4740 c83c e373 b93d 8d61 48bd
000003c0: a76f cfbd ec79 bcbd 9297 b1bc 266e f2bc
000003d0: fd6c 2f3d fd45 1ebd 70df 2ebd b205 f1bb
000003e0: 70a3 f33b a21d b7bd 2319 a13c 8f4e a5bd
000003f0: 8210 253c aee1 043d f0eb 2ebd ef4c 283c

global_block.conv_time.conv.0.bias f4 [8]
-0.0052558756 0.031305823 0.008942375 0.034512937 -0.029496469 -0.09893365 0.018844519 0.008485762
00000000: 7b39 acbb 893a 003d 0a83 123c 705d 0d3d
00000010: 94a2 f1bc ba9d cabd d25f 9a3c de07 0b3c

global_block.conv_time.conv.1.weight f4 [8]
1.0071012 1.0343461 0.9433443 0.91528237 1.0929117 0.901961 0.99538237 0.97979534
00000000: b1e8 803f 7465 843f 037f 713f f24f 6a3f
00000010: 88e4 8b3f ebe6 663f 61d1 7e3f ded3 7a3f

global_block.conv_time.conv.1.bias f4 [8]
-0.018368276 -0.03577314 0.16404307 0.004388617 -0.050942905 0.0911372 -0.07324132 0.018597329
00000000: 1179 96bc db86 12bd e8fa 273e 63ce 8f3b
00000010: 82a9 50bd 24a6 ba3d 8cff 95bd 6d59 983c

global_block.conv_time.conv.1.running_mean f4 [8]
0.021984683 0.06265961 0.045291707 0.010694465 -0.053149473 -0.08999611 -0.00166991 0.0013984818
00000000: 3919 b43c ae53 803d cc83 393d d637 2f3c
00000010: 43b3 59bd e14f b8bd e2e0 daba 434d b73a

global_block.conv_time.conv.1.running_var f4 [8]
26.57615 22.26277 21.827059 22.43542 24.356714 25.655346 24.584923 25.27341
00000000: f59b d441 271a b241 d19d ae41 bd7b b341
00000010: 8dda c241 263e cd41 ecad c441 f22f ca41

global_block.conv_chan.conv.0.weight f4 [8, 8, 11, 1]
-0.12521692 -0.03322827 -0.020044254 -0.07136763 0.097099505 0.08215275 0.052209385 -0.10538692
0.03561241 -0.031847417 0.11022782 0.06460184 -0.06133351 -0.04828994 0.104003645 0.00896952
0.0163626 -0.016688995 -0.12731831 0.098426834 -0.041437276 0.054410916 -0.068060726 0.0019659013
0.034965992 -0.053259216 0.00033865726 -0.063282736 0.07180188 -0.04656707 -0.061923683 -0.04528297
-0.027286883 0.056445055 -0.052239615 -0.062012166 -0.019540815 -0.0048479917 0.032570425 -0.01928728
-0.11320509 0.012350477 0.06734503 0.079094976 -0.09723134 0.07530924 0.0013397306 -0.08932716
-0.11127671 -0.053603563 0.10956995 0.08884779 0.053167153 -0.0156061575 -0.15043299 -0.006261737
0.038168345 0.079317115 -0.046861485 -0.18016838 0.03497707 0.086535215 0.15099764 -0.02226021
0.07778974 -0.08479417 0.05747516 -0.06143037 -0.0053740614 0.017047882 0.0082022175 -0.061177257
0.022587454 -0.017239682 0.0345164 0.04173029 -0.033045992 -0.06747961 -0.046854712 -0.044296823
-0.019984076 -0.049926165 0.128922 0.08407712 -0.12547898 0.007356298 -0.016136482 0.019067468
0.010553229 -0.069280244 -0.024602221 0.055184133 0.0017433767 -0.052419264 -0.0022407048 0.0431264
0.060142074 0.08704992 -0.017567093 0.001827639 -0.11440615 0.010348576 0.029785583 0.063418955
-0.026186028 -0.12270627 0.057278614 0.062405363 0.0715892 0.0876007 0.10629533 -0.19690494
-0.05101692 -0.09829658 0.069232754 0.09450113 -0.0646088 -0.08026792 -0.052849837 0.08794769
0.10231509 -0.04968247 -0.07777166 -0.0647818 0.06498112 -0.009051981 -0.04515594 0.06561902
0.07760502 0.10788064 -0.038636897 -0.113261715 0.060572736 0.13398708 -0.0058213775 -0.06698945
-0.00092750834 -0.10774631 0.028816905 0.1042208 0.05200965 -0.135045 -0.066812806 -0.072779804
0.11705 0.032730296 -0.03203112 -0.12960678 -0.013125592 0.063197434 -0.016189078 -0.07932012
-0.0662203 0.05484759 -0.07763341 -0.17234498 -0.0024944611 0.07394871 0.04472019 -0.011378482
-0.016838623 0.011531893 0.04581645 -0.018536054 0.10170874 -0.04162413 0.034723915 0.038357373
-0.032435462 -0.13322094 0.023219585 -0.0031403748 0.11978073 -0.0746815 -0.06623756 -0.048082158
-0.017866518 -0.04218756 -0.114131756 0.029551592 0.08550559 0.02059344 -0.07646454 0.052936208
-0.0060038767 0.056983396 -0.0017775795 -0.0724614 -0.22061643 -0.025277846 0.04151712 0.12286126
-0.016184095 0.050499402 0.076926865 0.058120847 0.04112094 0.08775193 0.037762348 0.14106943
-0.12058782 -0.059430897 -0.06005222 -0.08338862 0.042416725 0.14021108 0.054074395 -0.06594637
-0.026362645 0.021116175 0.02018919 0.016842782 -0.10922168 -0.030157259 -0.09300768 -0.034572363
0.15010118 0.000853606 -0.016243083 -0.097638324 -0.05758846 -0.16874623 0.03338313 0.07448673
0.03252368 0.08638002 -0.096110955 0.04184581 0.027926918 -0.06167043 0.016279247 -0.0104308445
0.014715987 0.033583604 0.11486664 -0.047321152 0.00033391174 -0.122455455 -0.078294426 -0.108771026
0.04910325 0.061239406 -0.09296059 0.14698136 -0.059420254 -0.12702373 -0.07522197 -0.0059740962
0.0780099 -0.009206917 0.069930084 0.028989127 -0.08867466 -0.061399765 -0.042073164 0.0037069311
00000000: dd38 00be 5e1a 08bd d933 a4bc 3129 92bd
00000010: 1bdc c63d b33f a83d 82d9 553d 19d5 d7bd
00000020: 52de 113d 7072 02bd 20bf e13d f84d 843d
00000030: d938 7bbd accb 45bd ddff d43d e5f4 123c
00000040: dc0a 863c 5cb7 88bc bb5f 02be 0294 c93d
00000050: 22ba 29bd fbdd 5e3d 6c63 8bbd 5ad6 003b
00000060: 8038 0f3d 5626 5abd cf8d b139 619a 81bd
00000070: dd0c 933d 1dbd 3ebd b0a3 7dbd a37a 39bd
00000080: be88 dfbc ee32 673d 35f9 55bd 7800 7ebd
00000090: 0f14 a0bc e7db 9ebb 9168 053d 5c00 9ebc
000000a0: 12d8 e7bd a859 4a3c 31ec 893d 8cfc a13d
000000b0: 3a21 c7bd bb3b 9a3d e699 af3a 28f1 b6bd
000000c0: 0be5 e3bd 698f 5bbd 3666 e03d d5f5 b53d
000000d0: cdc5 593d f8b0 7fbc 1b0b 1abe 422f cdbb
000000e0: 6956 1c3d 0371 a23d d4f1 3fbd 0f7e 38be
000000f0: 1e44 0f3d 6039 b13d 209f 1a3e 0b5b b6bc
00000100: 3a50 9f3d 91a8 adbd 136b 6b3d 699e 7bbd
00000110: e518 b0bb 00a8 8b3c 9862 063c 0195 7abd
00000120: 5309 b93c 3c3a 8dbc 1261 0d3d 61ed 2a3d
00000130: 3c5b 07bd c032 8abd baea 3fbd 9670 35bd
00000140: a5b5 a3bc 617f 4cbd 2104 043e a030 ac3d
00000150: 907d 00be 1a0d f13b a830 84bc 6133 9c3c
00000160: 73e7 2c3c cde2 8dbd 998a c9bc c208 623d
00000170: 0482 e43a 95b5 56bd cad8 12bb 4fa5 303d
00000180: 8957 763d 3a47 b23d dde8 8fbc 638d ef3a
00000190: c64d eabd 138d 293c e500 f43c cce1 813d
000001a0: 1584 d6bc 6d4d fbbd fb9c 6a3d c49c 7f3d
000001b0: 5c9d 923d ff67 b33d 5eb1 d93d 73a1 49be
000001c0: 1ef7 50bd b84f c9bd e7c9 8d3d cf89 c13d
000001d0: 9e51 84bd 8263 a4bd 1279 58bd eb1d b43d
000001e0: 938a d13d d87f 4bbd c046 9fbd 52ac 84bd
000001f0: d214 853d c34e 14bc 6ff5 38bd 4463 863d
00000200: 61ef 9e3d 86f0 dc3d b941 1ebd c2f5 e7bd
00000210: 1e1b 783d e933 093e 41c1 bebb c431 89bd
00000220: 0824 73ba 19aa dcbd 6e11 ec3c b771 d53d
00000230: 1208 553d 3d49 0abe 27d5 88bd 940d 95bd
00000240: e9b7 ef3d 3410 063d 1033 03bd a4b7 04be
00000250: b90c 57bc a86d 813d f59e 84bc 9672 a2bd
00000260: 829e 87bd dea7 603d 44fe 9ebd 347b 30be
00000270: 1d7a 23bb 6c72 973d 852c 373d d06c 3abc
00000280: 27f1 89bc 44f0 3c3c 08aa 3b3d ecd8 97bc
00000290: ac4c d03d 107e 2abd aa3a 0e3d 9f1c 1d3d
000002a0: 0cdb 04bd 126b 08be 0037 be3c bfce 4dbb
000002b0: 994f f53d 9df2 98bd 8fa7 87bd ccf1 44bd
000002c0: ce5c 92bc ddcc 2cbd e9bd e9bd 2e16 f23c
000002d0: 8e1d af3d 93b3 a83c 7199 9cbd a3d3 583d
000002e0: 2bbc c4bb 6c67 693d acfd e8ba a466 94bd
000002f0: 46e9 61be 7c13 cfbc db0d 2a3d af9e fb3d
00000300: 8294 84bc 76d8 4e3d d58b 9d3d 2010 6e3d
00000310: 6e6e 283d 49b7 b33d b1ac 1a3d 8174 103e
00000320: bff6 f6bd d06d 73bd 51f9 75bd a7c7 aabd
00000330: 29bd 2d3d 7e93 0f3e 1d7d 5d3d e40e 87bd
00000340: 79f6 d7bc d4fb ac3c cd63 a53c e0f9 893c
00000350: 9eaf dfbd 5b0c f7bc cf7a bebd c09b 0dbd
00000360: 20b4 193e 87c4 5f3a 3710 85bc 9af6 c7bd
00000370: e1e1 6bbd d0cb 2cbe c0bc 083d 808c 983d
00000380: 8d37 053d 02e8 b03d d2d5 c4bd 8366 2b3d
00000390: fec6 e43c 229a 7cbd 0e5c 853c 22e6 2abc
000003a0: 531b 713c f68e 093d 333f eb3d d3d3 41bd
000003b0: e010 af39 edc9 fabd d458 a0bd 58c3 debd
000003c0: 7d20 493d 2cd6 7a3d 1f62 bebd 4882 163e
000003d0: a762 73bd 8212 02be fa0d 9abd 5ac2 c3bb
000003e0: a8c3 9f3d 9cd8 16bc 8137 8f3d 9b7a ed3c
000003f0: 0f9b b5bd 527e 7bbd e954 2cbd fcef 723b

global_block.conv_chan.conv.0.bias f4 [8]
0.054255854 0.016867245 -0.0012648714 -0.049073745 0.07644148 -0.040999807 0.0012993644 0.04605022
00000000: 633b 5e3d 2d2d 8a3c 0bca a5ba 8d01 49bd
00000010: 5a8d 9c3d 6aef 27bd 6f4f aa3a 289f 3c3d

global_block.conv_chan.conv.1.weight f4 [8]
0.9965684 1.0445219 1.104771 0.93456876 0.9839609 0.916035 1.0262822 0.9501615
00000000: 1b1f 7f3f e5b2 853f 2369 8d3f e63f 6f3f
00000010: dde4 7b3f 4581 6a3f 375d 833f c93d 733f

global_block.conv_chan.conv.1.bias f4 [8]
-0.26234412 -0.1625142 -0.22518113 -0.11228512 -0.16479312 -0.21354166 -0.22724321 -0.19802085
00000000: f851 86be 1f6a 26be e295 66be bef5 e5bd
00000010: 87bf 28be aaaa 5abe 72b2 68be fac5 4abe

global_block.conv_chan.conv.1.running_mean f4 [8]
-0.034041107 -0.10850772 -0.14250037 -0.07490285 0.13471772 -0.09165816 -0.00023659797 0.07248937
00000000: b06e 0bbd 4c39 debd 9eeb 11be aa66 99bd
00000010: 71f3 093e 46b7 bbbd 4917 78b9 4f75 943d

global_block.conv_chan.conv.1.running_var f4 [8]
0.100598015 0.18974547 0.13684326 0.086329184 0.06635848 0.20069987 0.10069449 0.103751294
00000000: 5506 ce3d a34c 423e a420 0c3e 5bcd b03d
00000010: f4e6 873d 4484 4d3e ea38 ce3d 8f7b d43d

local_block.conv_time.conv.0.weight f4 [8, 1, 1, 51]
-0.084565565 0.0023902867 0.012019064 -0.0042397087 -0.03155223 -0.12758847 0.043280058 -0.00887702
0.12247281 0.018447643 -0.058653098 0.0062545724 0.11535734 -0.09337139 0.009008303 -0.06275724
-0.06555794 0.13372128 0.15325247 0.0445999 -0.16819121 -0.053410865 -0.026397767 -0.025082786
0.0198922 0.11900349 0.027145712 -0.010482775 0.070291825 0.12934925 0.025337026 0.07866598
0.052949 -0.09484222 0.118076056 0.15100326 0.007148683 -0.25377357 -0.088174075 0.07221692
0.08388074 -0.10980577 0.13031754 0.13345118 0.042547002 -0.05972201 0.00477591 -0.058396045
-0.03333697 0.07870927 -0.03289675 0.019315947 -0.06843021 -0.04425623 -0.07262964 -0.00031683757
-0.057046473 -0.044437263 0.049216896 -0.09779042 0.03696125 -0.07256647 0.16024494 0.12937622
-0.018874692 -0.015098343 -0.0024624749 -0.0074041965 -0.10676125 -0.021737784 -0.0031001803 -0.096429266
0.04969428 -0.06779889 -0.046620265 0.0397143 -0.06159976 -0.0021405169 0.0889155 0.1633051
0.09145953 -0.059657317 0.0212665 -0.040962856 0.04922958 0.10627539 -0.04861892 0.047419924
0.059708178 0.12586226 0.095010996 0.0045017675 -0.025780113 -0.11364445 -0.04522714 0.04408958
0.18247968 0.028861042 0.05997663 -0.0330171 0.07865027 -0.09418122 -0.059922326 -0.14278953
0.072938845 -0.052895524 -0.035917096 0.06753995 0.048762284 0.045223095 0.14473619 -0.010000986
0.13046151 0.021293592 -0.05345134 -0.031097196 -0.035386123 -0.030674994 -0.047682054 -0.027803397
-0.111302756 0.121859364 0.14549801 0.068242766 0.091045044 -0.06529116 -0.010096416 -0.09010522
0.00936155 -0.07986816 -0.07623649 0.045124512 -0.009222767 -0.06380962 0.0132341795 -0.04385869
0.051097628 -0.06281034 0.033688728 0.18523306 0.074763894 0.15224154 0.12155802 -0.109431945
-0.21159697 -0.035887614 -0.10485883 -0.110527225 -0.12143138 0.11617687 0.14034724 -0.060033284
-0.025242552 0.043552745 0.008622729 -0.01837956 0.0142738735 0.047432493 -0.034169022 -0.00020395308
0.0034988702 0.12284286 -0.056086786 -0.0060639065 0.07668895 -0.12359778 -0.060575258 0.071264505
-0.07376714 0.027538223 0.0071202843 0.05782879 0.14380676 0.005244072 -0.07972674 0.05026875
-0.09166251 -0.045704983 0.03533183 -0.047693998 -0.05222596 -0.051516265 0.091343984 -0.06980507
0.11651112 -0.052479688 0.10940836 0.16729486 0.033371218 -0.069634 0.06360305 0.03782831
-0.11357478 -0.19129919 0.07574569 -0.034209557 -0.0034585053 -0.19413409 -0.11871611 0.048043877
-0.11170727 0.07270995 9.598693e-05 0.17658131 -0.042582784 0.10842742 -0.10091788 -0.02814852
-0.011132726 -0.10587747 0.03714357 -0.039005052 0.038225308 0.012362236 -0.09939554 -0.09155462
-0.13754384 -0.008213397 -0.0035489989 -0.080727585 0.055743515 -0.11486311 0.034872107 0.07327834
-0.12423339 -0.06315676 -0.0021924928 0.011300517 0.054065734 0.063489564 0.102123626 -0.02200566
-0.09525834 -0.031078659 0.013031895 -0.034261405 -0.057481766 0.072359726 -0.0033936976 -0.052178673
0.06898183 -0.104951836 -0.12812865 0.018047357 -0.1520007 -0.08290703 0.18344535 0.17502314
-0.12328962 -0.13590382 -0.21271232 -0.060783077 -0.039830994 0.010684318 -0.0034448644 0.013523731
00000000: b630 adbd 5ba6 1c3b 9ceb 443c 41ed 8abb
00000010: e93c 01bd 8da6 02be 6e46 313d ec70 11bc
00000020: 06d3 fa3d 831f 973c 3b3e 70bd 28f3 cc3b
00000030: 7840 ec3d 8039 bfbd 9097 133c de86 80bd
00000040: 3e43 86bd 3bee 083e 37ee 1c3e 62ae 363d
00000050: 513a 2cbe 5ac5 5abd 2140 d8bc 6a7a cdbc
00000060: f8f4 a23c 1ab8 f33d af60 de3c f2bf 2bbc
00000070: 29f5 8f3d 2174 043e 988f cf3c a11b a13d
00000080: 0de1 583d a33c c2bd dcd1 f13d 99a0 1a3e
00000090: 803f ea3b 9cee 81be 9c94 b4bd 77e6 933d
000000a0: aac9 ab3d d9e1 e0bd f671 053e 6da7 083e
000000b0: c445 2e3d 119f 74bd 3d7f 9c3b b130 6fbd
000000c0: 598c 08bd 5332 a13d bebe 06bd 7a3c 9e3c
000000d0: 2325 8cbd 0546 35bd d9be 94bd 381d a6b9
000000e0: 90a9 69bd d903 36bd a897 493d 5846 c8bd
000000f0: ae64 173d bb9d 94bd 4017 243e 337b 043e
00000100: 199f 9abc 0a5f 77bc 7961 21bb e79e f2bb
00000110: a4a5 dabd 7013 b2bc 652c 4bbb b57c c5bd
00000120: 3b8c 4b3d 25da 8abd e4f4 3ebd 76ab 223d
00000130: 0850 7cbd ea47 0cbb 5419 b63d 7439 273e
00000140: 224f bb3d 3b5b 74bd 1537 ae3c abc8 27bd
00000150: f5a4 493d e9a6 d93d a224 47bd 653b 423d
00000160: 9090 743d 09e2 003e 2095 c23d 9083 933b
00000170: d130 d3bc 6cbe e8bd 1840 39bd 4797 343d
00000180: f4db 3a3e fe6d ec3c 0eaa 753d f03c 07bd
00000190: 6513 a13d 15e2 c0bd 1d71 75bd 6b37 12be
000001a0: f660 953d faa8 58bd ce1d 13bd 6352 8a3d
000001b0: f6ba 473d da3b 393d b935 143e 2ddb 23bc
000001c0: b497 053e e66f ae3c cbef 5abd 8cbf febc
000001d0: 0af1 10bd 204a fbbc 424e 43bd f3c3 e3bc
000001e0: b3f2 e3bd 6791 f93d 6efd 143e ddc2 8b3d
000001f0: d375 ba3d 5fb7 85bd 706b 25bc 1689 b8bd
00000200: 3061 193c eb91 a3bd e021 9cbd 7bd4 383d
00000210: 171b 17bc 9eae 82bd 2cd4 583c 2ba5 33bd
00000220: bf4b 513d b5a2 80bd 31fd 093d bcad 3d3e
00000230: d01d 993d 35e5 1b3e 69f3 f83d db1d e0bd
00000240: e0ac 58be e4fe 12bd 3ac0 d6bd 195c e2bd
00000250: 04b1 f8bd 24ee ed3d 30b7 0f3e 76e5 75bd
00000260: 78c9 cebc 5d64 323d 5946 0d3c bb90 96bc
00000270: f7dc 693c 9348 423d d1f4 0bbd 3ddc 55b9
00000280: 4d4d 653b 0a95 fb3d 42bb 65bd bcb3 c6bb
00000290: 190f 9d3d d520 fdbd c31d 78bd 20f3 913d
000002a0: 3a13 97bd d797 e13c 4651 e93b e2dd 6c3d
000002b0: 1442 133e 77d6 ab3b c647 a3bd 9be6 4d3d
000002c0: 8eb9 bbbd 2635 3bbd 1cb8 103d c85a 43bd
000002d0: e3ea 55bd b802 53bd 8e12 bb3d f6f5 8ebd
000002e0: 629d ee3d f1f4 56bd 7e11 e03d 584f 2b3e
000002f0: 42b0 083d 459c 8ebd 5142 823d dcf1 1a3d
00000300: e599 e8bd efe3 43be 8e20 9b3d 521f 0cbd
00000310: 17a8 62bb 16cb 46be 6f21 f3bd a8c9 443d
00000320: c8c6 e4bd f4e8 943d 974c c938 bbd1 343e
00000330: 496b 2ebd 320f de3d 09ae cebd ba97 e6bc
00000340: 0a66 36bc 49d6 d8bd db23 183d c3c3 1fbd
00000350: 2492 1c3d fa8a 4a3c e48f cbbd fd80 bbbd
00000360: 4bd8 0cbe 7c91 06bc 5296 68bb 8154 a5bd
00000370: 5053 643d 5a3d ebbd 0ed6 0e3d f412 963d
00000380: 136e febd 5558 81bd edaf 0fbb ce25 393c
00000390: 0874 5d3d d106 823d 3126 d13d 3745 b4bc
000003a0: ce16 c3bd ac98 febc bb83 553c b055 0cbd
000003b0: 0072 6bbd 5631 943d cc68 5ebb 4eb9 55bd
000003c0: 5846 8d3d fdf0 d6bd 2834 03be 0dd8 933c
000003d0: 12a6 1bbe 29cb a9bd 19d9 3b3e 4439 333e
000003e0: 457f fcbd 5f2a 0bbe 42d1 59be adf7 78bd
000003f0: d325 23bd 470d 2f3c 3cc3 61bb a492 5d3c

local_block.conv_time.conv.0.bias f4 [8]
0.050834052 -0.12820393 0.020932043 0.04347738 0.07280253 0.049010124 0.09670132 0.088694885
00000000: 5e37 503d e447 03be ad79 ab3c 5615 323d
00000010: 7e19 953d d7be 483d 570b c63d aaa5 b53d

local_block.conv_time.conv.1.weight f4 [8]
1.034039 0.97412276 0.88007784 0.93202597 0.8790595 1.1094803 0.928091 1.0687885
00000000: 645b 843f 1c60 793f c84c 613f 4199 6e3f
00000010: 0b0a 613f 7303 8e3f 5f97 6d3f 10ce 883f

local_block.conv_time.conv.1.bias f4 [8]
0.04315035 0.07486837 0.018829634 0.11105382 -0.046008945 -0.01242818 0.14390787 -0.19676122
00000000: 6cbe 303d 9754 993d 9b40 9a3c 2f70 e33d
00000010: e073 3cbd 919f 4bbc 965c 133e c67b 49be

local_block.conv_time.conv.1.running_mean f4 [8]
0.06523268 -0.12098503 0.033281464 0.045427732 0.05284012 0.05732703 0.13425365 0.06742557
00000000: b698 853d 00c7 f7bd 2552 083d 6e12 3a3d
00000010: e26e 583d bfcf 6a3d ca79 093e 6b16 8a3d

local_block.conv_time.conv.1.running_var f4 [8]
15.438306 13.159555 23.86543 14.114914 15.875317 15.973719 13.894597 12.044009
00000000: 4d03 7741 8a8d 5241 67ec be41 b0d6 6141
00000010: 4c01 7e41 5a94 7f41 4550 5e41 43b4 4041

local_block.conv_chan.conv.0.weight f4 [8, 8, 11, 1]
-0.016315605 0.062793314 -0.013984123 -0.03227823 0.012050965 0.028719192 -0.0024228566 -0.041234054
-0.05434801 0.05041345 -0.07758775 -0.014768871 0.028571129 0.039584823 -0.055233143 0.099188305
0.033841252 -0.05922618 -0.20638476 -0.013386276 0.025001474 0.043674532 0.03100527 0.10234983
0.0152584165 0.10599501 0.0006002533 -0.056062363 -0.0507307 0.012499795 -0.10720867 0.020466143
-0.13387747 -0.0049092257 -0.015193946 -0.03497001 0.019566515 0.0007571512 0.08298036 0.030275384
0.07479568 -0.09720345 -0.0100724455 0.08794786 0.036851138 -0.014064773 -0.08238514 -0.017722864
0.011757566 -0.04598185 0.093724236 0.1399865 -0.02112266 0.0107362075 -0.04871328 -0.013438472
0.18207109 0.046528824 0.11522223 0.022417525 -0.016117675 0.13144858 -0.11878066 -0.14009829
0.00056882034 0.03923406 -0.005378216 0.06884551 -0.033601902 0.15852116 -0.031374004 -0.073064856
-0.031433754 0.12428152 0.026861643 -0.07530791 -0.022726186 -0.030507902 0.061299033 0.064829566
-0.001135529 0.013351259 -0.072724365 0.08957362 0.076967694 0.12310699 -0.05818028 -0.09727873
0.008516398 -0.016303336 0.030656068 -0.041525356 0.0966589 -0.0012590705 -0.0012401585 -0.0594479
-0.07048999 0.009957331 -0.051352292 -0.043250877 0.08839547 0.05485326 -0.01678534 -0.036269452
-0.05887694 0.051854335 0.03032256 -0.086228415 0.08498082 -0.07439536 -0.12569994 0.049072184
-0.082649775 0.00861964 0.052048653 -0.08798672 0.0620369 0.26641345 0.040039334 -0.02736783
-0.01862175 0.07367754 -0.09923573 -0.057620455 -0.04510947 -0.012476443 0.043661453 -0.0015854038
0.010668691 -0.016425405 -0.06048092 0.13267212 0.033712488 0.017346786 0.041486595 -0.05125401
-0.013624756 0.09867999 -0.031088164 -0.1912685 0.06162868 -0.025470467 0.016177582 0.047128897
-0.12525398 -0.033850342 0.079755716 -0.06196166 0.0020134859 0.06408094 -0.015482644 0.0032355296
0.120878026 -0.03218332 -0.043239314 -0.043455373 -0.08000092 0.014416789 0.0053024516 -0.04308527
0.044809006 0.17528623 0.05359484 0.002374151 0.004346482 0.03516004 0.10115585 -0.052445512
0.045710344 0.03484059 -0.020398274 -0.084039085 0.08977129 0.043411896 -0.008527809 -0.06505711
0.028638477 -0.087120675 -0.11319559 0.20218089 0.12805076 -0.003530189 -0.12058429 -0.01925982
0.040399004 0.076974444 -0.0077771125 -0.120060004 -0.14754067 -0.07030743 0.10400708 0.07575603
0.015103477 0.017349266 0.081615604 0.049971536 -0.0066775405 0.07988218 -0.016287927 -0.05689883
0.07871189 -0.08349839 0.0536968 -0.011576248 0.057872977 0.0002855385 0.034984358 -0.06084808
-0.050150692 -0.07649081 0.057221927 -0.054190047 0.03502039 0.06325859 0.024177285 -0.090380296
-0.017424986 -0.016377216 0.10476361 -0.055926565 -0.05425506 0.0074092927 -0.0009560068 0.041034233
0.015349749 0.078853235 -0.0017898817 -0.075951815 -0.07383817 0.014556488 0.0060322573 -0.024874372
-0.111489005 -0.028893834 0.008394126 0.05663146 0.10202105 -0.019185888 -0.08237666 0.14608382
0.050256677 -0.00045579346 0.032120164 0.075640395 -0.08343583 -0.18303612 -0.02433568 0.05448605
-0.03514615 0.19738983 -0.06881913 0.024034562 -0.04733759 -0.004278198 0.012914926 -0.09799193
00000000: 4ea8 85bc c899 803d aa1d 65bc 2d36 04bd
00000010: 6971 453c 8344 eb3c cac8 1ebb 0ae5 28bd
00000020: 059c 5ebd 557e 4e3d 54e6 9ebd 22f9 71bc
00000030: 000e ea3c b223 223d 263c 62bd 3d23 cb3d
00000040: 209d 0a3d 2797 72bd 8756 53be 1c52 5bbc
00000050: e4cf cc3c 11e4 323d c4fe fd3c ca9c d13d
00000060: 70fe 793c e913 d93d 515a 1d3a a6a1 65bd
00000070: ffca 4fbd f1cb 4c3c 3890 dbbd 9da8 a73c
00000080: 2d17 09be 92dd a0bb 07f0 78bc b73c 0fbd
00000090: f549 a03c 8f7b 463a 9bf1 a93d 1504 f83c
000000a0: 7a2e 993d 9a12 c7bd e606 25bc 021e b43d
000000b0: 38f1 163d ef6f 66bc 8ab9 a8bd 8a2f 91bc
000000c0: cea2 403c 7757 3cbd 7ef2 bf3d 9f58 0f3e
000000d0: 6e09 adbc ebe6 2f3c 9487 47bd 092d 5cbc
000000e0: d870 3a3e 0295 3e3d a2f9 eb3d f5a4 b73c
000000f0: 3709 84bc 759a 063e 4643 f3bd ed75 0fbe
00000100: e31c 153a e5b3 203d bf3b b0bb e0fe 8c3d
00000110: 26a2 09bd 5f53 223e 0782 00bd 07a3 95bd
00000120: aec0 00bd 4f87 fe3d f30c dc3c 093b 9abd
00000130: 442c babc b5eb f9bc b214 7b3d 5dc5 843d
00000140: 08d6 94ba 3dbf 5a3c 83f0 94bd 6072 b73d
00000150: 3da1 9d3d 841f fc3d 724e 6ebd 123a c7bd
00000160: 5d88 0b3c 938e 85bc 6f22 fb3c 7e16 2abd
00000170: 1af5 c53d 6507 a5ba d08c a2ba a47f 73bd
00000180: 0e5d 90bd 1324 233c c856 52bd d527 31bd
00000190: af08 b53d d0ad 603d 6981 89bc 478f 14bd
000001a0: f228 71bd 3665 543d 0467 f83c 8698 b0bd
000001b0: 6d0a ae3d 985c 98bd 7cb7 00be eaff 483d
000001c0: 4944 a9bd 6439 0d3c f830 553d 6232 b4bd
000001d0: 681a 7e3d 5867 883e 4900 243d 8032 e0bc
000001e0: a48c 98bc 40e4 963d 1a3c cbbd 6d03 6cbd
000001f0: b5c4 38bd ff69 4cbc 5ad6 323d 53cd cfba
00000200: bccb 2e3c 928e 86bc d7ba 77bd 33db 073e
00000210: 1b16 0a3d d91a 8e3c d9ed 293d baef 51bd
00000220: 5e3a 5fbc bc18 ca3d 9bac febc e4db 43be
00000230: 5b6e 7c3d 71a7 d0bc d986 843c 3b0a 413d
00000240: 9442 00be a8a6 0abd f756 a33d 82cb 7dbd
00000250: b0f4 033b de3c 833d eaaa 7dbc 2e0b 543b
00000260: e68e f73d a8d2 03bd b51b 31bd 43fe 31bd
00000270: 86d7 a3bd 6534 6c3c 30c0 ad3b 2e7a 30bd
00000280: a689 373d 3c7e 333e 4386 5b3d a597 1b3b
00000290: ef6c 8e3b f903 103d cc2a cf3d 1bd1 56bd
000002a0: c53a 3b3d 02b5 0e3d 481a a7bc af1c acbd
000002b0: 03da b73d acd0 313d 39b8 0bbc a93c 85bd
000002c0: 3d9b ea3c 536c b2bd 17d3 e7bd 8208 4f3e
000002d0: bd1f 033e be5a 67bb e5f4 f6bd c5c6 9dbc
000002e0: 6d79 253d c7a4 9d3d 26d7 febb 05e2 f5bd
000002f0: e714 17be 58fd 8fbd aa01 d53d fa25 9b3d
00000300: 9374 773c 0c20 8e3c 1526 a73d f4ae 4c3d
00000310: 45cf dabb 4599 a33d 426e 85bc bf0e 69bd
00000320: b333 a13d 3401 abbd 2df1 5b3d 4eaa 3dbc
00000330: 370c 6d3d 54b4 9539 c24b 0f3d d63b 79bd
00000340: d06a 4dbd 37a7 9cbd 8a61 6a3d 62f6 5dbd
00000350: 8a71 0f3d b88d 813d 710f c63c 4e19 b9bd
00000360: d8be 8ebc 8329 86bc 4e8e d63d 4113 65bd
00000370: 8e3a 5ebd a7c9 f23b 889c 7aba 8313 283d
00000380: 837d 7b3c ce7d a13d 779a eaba a08c 9bbd
00000390: 7738 97bd 567e 6e3c 3eaa c53b 57c5 cbbc
000003a0: 5954 e4bd c3b2 ecbc 8487 093c 64f6 673d
000003b0: 6af0 d03d b92b 9dbc 18b5 a8bd ff96 153e
000003c0: f2d9 4d3d 90f7 eeb9 6f90 033d 5ae9 9a3d
000003d0: 68e0 aabd d26d 3bbe 9f5b c7bc c42c 5f3d
000003e0: 69f5 0fbd 8f20 4a3e 0bf1 8cbd 21e4 c43c
000003f0: 10e5 41bd 2030 8cbb 2099 533c feaf c8bd

local_block.conv_chan.conv.0.bias f4 [8]
-0.056026384 -0.021581484 0.04185602 0.080082804 0.019144326 0.034057554 0.07632722 0.0057184715
00000000: ec7b 65bd a7cb b0bc 3871 2b3d 7402 a43d
00000010: 90d4 9c3c ef7f 0b3d 7251 9c3d 0462 bb3b

local_block.conv_chan.conv.1.weight f4 [8]
0.8561457 1.0147288 1.0594627 0.9779397 0.91016287 1.1244293 0.9916092 0.9805313
00000000: 5d2c 5b3f a2e2 813f 799c 873f 425a 7a3f
00000010: 6f00 693f 4ded 8f3f 1ada 7d3f 1904 7b3f

local_block.conv_chan.conv.1.bias f4 [8]
-0.21241559 -0.24703847 -0.11482776 -0.23417605 -0.2154423 -0.18656786 -0.17994596 -0.19782722
00000000: 7983 59be a7f7 7cbe d12a ebbd d9cb 6fbe
00000010: e89c 5cbe a50b 3fbe c143 38be 3893 4abe

local_block.conv_chan.conv.1.running_mean f4 [8]
0.03798603 -0.029857986 -0.039870597 0.118610844 -0.027201308 0.04034826 0.17964229 -0.036665536
00000000: 3d97 1b3d bc98 f4bc 5a4f 23bd 3eea f23d
00000010: 47d5 debc 3844 253d 26f4 373e 9a2e 16bd

local_block.conv_chan.conv.1.running_var f4 [8]
0.14548706 0.106784545 0.086052366 0.13126597 0.28451174 0.056579724 0.1273857 0.17013547
00000000: 8ffa 143e dbb1 da3d 393c b03d 966a 063e
00000010: 86ab 913e 24c0 673d 6671 023e fe37 2e3e

tcn.network.0.conv1.weight f4 [16, 16, 16]
-0.07065114 -0.07746841 -0.016270267 -0.070043944 -0.027396867 -0.011618602 0.006083111 -0.027153447
0.035838086 -0.03430851 -0.034111213 -0.05370826 -0.060879145 -0.040044498 -0.02954604 0.04479533
0.045982048 0.025997085 -0.02483081 0.042581834 -0.029393636 0.035426997 -0.005082778 0.012628879
0.011984635 0.016395414 0.025654266 0.013291252 -0.020254783 -0.014542952 -0.02941249 0.057194438
-0.021137223 0.006179034 -0.034034703 -0.018040085 0.012537784 0.08336302 0.1127709 0.05068815
0.105009 0.0072528156 -0.023095591 0.03084838 -0.0011797048 0.0041186754 0.052719902 -0.007262159
0.022550317 -0.02811143 0.013278414 0.0664501 0.02720519 0.05067871 0.059045482 0.04021349
0.044812907 -0.029289465 0.00569916 -0.02001388 -0.039375298 -0.029617362 0.042764857 0.06374036
0.02658802 0.050121427 0.03454613 0.094872706 0.08902094 0.045429025 0.024022758 -0.009171637
0.06684684 -0.002335061 0.0308053 0.038869917 -0.024188483 0.031502765 0.0451568 -0.0014845124
0.04165006 0.05653083 0.0690136 0.08026414 0.037732977 0.013460787 0.029270185 -0.02121696
-0.016854284 -0.06203722 -0.0041779587 0.009477566 0.0022394676 0.048590854 0.088269256 0.02395612
0.058807984 -0.041003443 -0.075580016 -0.078055784 -0.03392867 -0.057164628 -0.03603373 0.02188918
-0.02968829 -0.025136113 -0.031155176 -0.015444884 -0.027076779 -0.020637095 0.02896024 -0.0008635753
-0.0095082875 0.0031400241 -0.0041039567 0.026337102 -0.032946374 0.028692529 0.004008149 0.046046488
0.03750759 -0.021643119 -0.012906945 -0.013032801 -0.0013358097 0.01594066 0.003293395 0.00016486931
0.036979206 -0.0015268461 0.033039957 -0.035378117 -0.044312913 0.0018033637 -0.004970994 -0.03530635
-0.03547736 0.031007834 -0.00039559745 0.03624895 0.024228798 0.037776418 0.017458746 -0.047354978
0.0066914926 0.039360724 0.0068866997 -0.0034939882 -0.0070456 0.024338782 0.01177197 0.0053686127
-0.019923858 0.026954683 0.009909446 -0.007884619 -0.02875667 -0.005989999 0.029482067 0.09982369
0.07183884 0.043706127 0.058380246 0.0013974532 0.023095725 0.039559375 0.061391145 0.06959312
-0.009003253 -0.022434786 0.008529888 -0.053795755 0.0021574905 -0.10895664 -0.06323808 -0.038512204
-0.054083344 -0.033921108 -0.040583245 0.005399056 0.012593928 -0.037858892 0.0100400755 -0.0014831752
0.07259548 0.055088382 0.032227617 -0.034980457 0.004198484 -0.05157587 -0.03988143 -0.032514516
-0.00345896 0.015865512 0.027888792 -0.0068015475 -0.035372835 -0.04613767 -0.025871584 -0.046830703
-0.07448466 -0.07091727 -0.030808378 -0.0018330115 -0.032345407 -0.01318777 -0.11190548 -0.08423696
-0.11661419 -0.031009398 -0.03835334 -0.020303218 -0.022174034 0.034428317 0.08218608 0.09085908
0.043401346 0.0042178985 0.011923774 -0.03264429 -0.08243424 -0.061773244 -0.01458473 -0.016348897
0.0052596875 -0.042456012 0.021069283 -0.0044524907 0.0233876 0.03372376 0.008067543 -0.0037680962
-0.082950704 -0.034365475 -0.061796118 0.040580004 0.0066487333 -0.008631448 0.0021349126 0.015493943
-0.034525566 -0.06509395 -0.05736602 -0.036318228 0.041626777 -0.021815693 0.027083937 0.018251905
-0.015832765 0.015046413 -0.036082424 -0.030956842 -0.00945901 0.041478842 0.04656125 0.061576948
00000000: 8bb1 90bd c2a7 9ebd 3949 85bc 3373 8fbd
00000010: 656f e0bc f35b 3ebc d554 c73b e870 debc
00000020: f5ca 123d 1587 0cbd 33b8 0bbd 31fd 5bbd
00000030: 695c 79bd b305 24bd 890a f2bc 4f7b 373d
00000040: ac57 3c3d d7f7 d43c fc69 cbbc 4a6a 2e3d
00000050: ecca f0bc e61b 113d 6f8d a6bb 5ce9 4e3c
00000060: 345b 443c ad4f 863c e528 d23c 8dc3 593c
00000070: 5ced a5bc 9045 6ebc 76f2 f0bc b744 6a3d
00000080: f827 adbc 7e79 ca3b f967 0bbd cdc8 93bc
00000090: 476b 4d3c 3bba aa3d 6ef4 e63d 619e 4f3d
000000a0: f50e d73d 07a9 ed3b f732 bdbc beb5 fc3c
000000b0: 53a0 9aba f4f5 863b d3f0 573d 68f7 edbb
000000c0: 71bb b83c f149 e6bc b48d 593c fd16 883d
000000d0: 6bdd de3c 7b94 4f3d add9 713d e7b6 243d
000000e0: bd8d 373d 76f0 efbc 05c0 ba3b 26f4 a3bc
000000f0: fe47 21bd 1ca0 f2bc 342a 2f3d 4e8a 823d
00000100: 1fcf d93c 204c 4d3d 3e80 0d3d 9f4c c23d
00000110: 9c50 b63d c913 3a3d 60cb c43c a244 16bc
00000120: ffe6 883d d307 19bb 665b fc3c 1036 1f3d
00000130: ed26 c6bc 0b09 013d 56f6 383d f893 c2ba
00000140: 4199 2a3d df8c 673d 0157 8d3d 8761 a43d
00000150: e58d 1a3d a28a 5c3c 07c8 ef3c 31cf adbc
00000160: ff11 8abc bd1a 7ebd 42e7 88bb cb47 1b3c
00000170: 08c4 123b 3407 473d 83c6 b43d a03f c43c
00000180: a4e0 703d 3af3 27bd b2c9 9abd b6db 9fbd
00000190: caf8 0abd 7525 6abd 1b98 13bd f050 b33c
000001a0: db34 f3bc 40ea cdbc 2439 ffbc 8a0c 7dbc
000001b0: 1fd0 ddbc 200f a9bc 063e ed3c 8f61 62ba
000001c0: a6c8 1bbc ddc8 4d3b 7c7a 86bb e8c0 d73c
000001d0: c7f2 06bd 980c eb3c ca56 833b 3e9b 3c3d
000001e0: 8fa1 193d e94c b1bc a777 53bc 8887 55bc
000001f0: 5616 afba fd95 823c 00d6 573b c5e0 2c39
00000200: 8277 173d 7420 c8ba e854 073d a5e8 10bd
00000210: 7581 35bd d85e ec3a b8e3 a2bb 649d 10bd
00000220: b550 11bd 2404 fe3c 3168 cfb9 c779 143d
00000230: 797b c63c 72bb 1a3d a505 8f3c 4bf7 41bd
00000240: 4f44 db3b b638 213d d3a9 e13b 65fb 64bb
00000250: c7de e6bb 2062 c73c 39df 403c 30eb af3b
00000260: 5c37 a3bc 11d0 dc3c 3b5b 223c 7d2e 01bc
00000270: 1c93 ebbc c147 c4bb 6084 f13c 5d70 cc3d
00000280: 3e20 933d 3205 333d 2020 6f3d c02a b73a
00000290: 3f33 bd3c 0309 223d 4875 7b3d d686 8e3d
000002a0: 6182 13bc 28c9 b7bc f1c0 0b3c f058 5cbd
000002b0: af64 0d3b a924 dfbd f782 81bd f9be 1dbd
000002c0: 7f86 5dbd dcf0 0abd 9e3a 26bd 90ea b03b
000002d0: c356 4e3c ed11 1bbd 217f 243c 1a67 c2ba
000002e0: f0ac 943d 5ba4 613d 1b01 043d ab47 0fbd
000002f0: 7093 893b 3841 53bd b65a 23bd f12d 05bd
00000300: b8af 62bb 64f8 813c 0977 e43c 84df debb
00000310: 1be3 10bd dafa 3cbd a5f0 d3bc 8dd1 3fbd
00000320: 6a8b 98bd 133d 91bd da61 fcbc a941 f0ba
00000330: 9e7c 04bd 8411 58bc b32e e5bd 6d84 acbd
00000340: 6cd3 eebd 6c07 febc 6418 1dbd ef52 a6bc
00000350: 52a6 b5bc b504 0d3d 2d51 a83d 5314 ba3d
00000360: 9cc5 313d 4c36 8a3b ef5b 433c 05b6 05bd
00000370: 48d3 a8bd f105 7dbd cbf4 6ebc 1fee 85bc
00000380: 7559 ac3b 5be6 2dbd 7d99 ac3c 33e6 91bb
00000390: 5a97 bf3c ed21 0a3d ba2d 043c 2af2 76bb
000003a0: 0fe2 a9bd d0c2 0cbd ed1d 7dbd 3837 263d
000003b0: 9edd d93b eb6a 0dbc e4e9 0b3b 4fda 7d3c
000003c0: ae6a 0dbd fa4f 85bd a2f8 6abd 6cc2 14bd
000003d0: d780 2a3d d3b6 b2bc 22df dd3c 0585 953c
000003e0: b7b3 81bc 3b85 763c 2acb 13bd 3499 fdbc
000003f0: f7f9 1abc b8e5 293d 02b7 3e3d 1c38 7c3d

tcn.network.0.conv1.bias f4 [16]
0.0042704972 0.00020221448 0.0001219779 4.989057e-06 -0.018257748 -3.9953575e-06 -1.3520607e-05 -0.0027929365
5.593537e-06 0.00014777447 1.7564542e-05 -1.9732308e-06 -4.8884992e-08 -5.558414e-06 0.0021448883 0.022469958
00000000: 87ef 8b3b 8909 5439 63ce ff38 ac67 a736
00000010: 4691 95bc dc0f 86b6 91d6 62b7 b309 37bb
00000020: 1eb0 bb36 e8f3 1a39 9157 9337 d96b 04b6
00000030: 9ef5 51b3 6a82 bab6 4191 0c3b eb12 b83c

tcn.network.0.bn1.weight f4 [16]
1.1169797 1.0622625 1.0037309 1.0624843 1.084287 1.0689089 1.0410343 1.1300548
1.1206614 1.1363256 1.1318023 1.141478 1.0469471 1.0932064 1.0294 1.1114192
00000000: 31f9 8e3f 38f8 873f 417a 803f 7cff 873f
00000010: ebc9 8a3f 02d2 883f 9d40 853f a3a5 903f
00000020: d571 8f3f 1e73 913f e6de 903f f31b 923f
00000030: 5d02 863f 30ee 8b3f 61c3 833f fc42 8e3f

tcn.network.0.bn1.bias f4 [16]
-0.34202436 -0.4161921 -0.3455376 -0.36558506 -0.32711577 -0.3230089 -0.37958807 -0.3029768
-0.25766414 -0.3803709 -0.40149415 -0.43189403 -0.3052764 -0.38468575 -0.313365 -0.29628903
00000000: d11d afbe 2217 d5be 4eea b0be f72d bbbe
00000010: b87b a7be 6c61 a5be 5e59 c2be c61f 9bbe
00000020: 8eec 83be f9bf c2be a490 cdbe 3721 ddbe
00000030: 304d 9cbe 88f5 c4be 6171 a0be 32b3 97be

tcn.network.0.bn1.running_mean f4 [16]
-0.0057636993 -0.07554695 -0.009721016 0.017056806 0.052200098 0.015240919 -0.033627365 -0.08644572
2.59935e-05 -0.014507784 0.085876204 -0.045430284 -0.042617556 0.05286135 -0.016206328 0.07460011
00000000: 6add bcbb 5cb8 9abd e544 1fbc b7ba 8b3c
00000010: c5cf 553d 0cb5 793c d9bc 09bd 740a b1bd
00000020: 9e0c da37 0eb2 6dbc dddf af3d 1b15 3abd
00000030: bf8f 2ebd 2585 583d 22c3 84bc f1c7 983d

tcn.network.0.bn1.running_var f4 [16]
0.8048184 0.817771 0.6946086 0.7555946 0.8280637 0.73813164 0.7141176 0.8723918
0.9154436 0.9780149 0.97234684 0.8169487 0.715248 0.94768935 0.9351354 0.8671224
00000000: 9408 4e3f 7159 513f dfd1 313f a66e 413f
00000010: fcfb 533f 32f6 3c3f 69d0 363f 1255 5f3f
00000020: 835a 6a3f 2f5f 7a3f b9eb 783f 8d23 513f
00000030: 7e1a 373f c59b 723f 0965 6f3f bcfb 5d3f

tcn.network.0.conv2.weight f4 [16, 16, 16]
-0.030503925 -0.0059034135 -0.0508766 -0.05234937 -0.051755533 -0.013934517 -0.03650103 -0.016253365
-0.04306832 -0.03616142 -0.01762057 0.0011816279 0.013131442 0.028939573 -0.057054672 -0.030797908
0.07495911 0.057230968 0.026080694 -0.002576506 0.012976548 -0.002390943 0.035691705 0.055610314
0.072630785 0.061148115 0.09787154 0.10886848 0.03858307 0.04345599 -0.026563374 -0.03392381
0.021430284 -0.032750435 -0.011993752 -0.03421408 -0.030601108 -0.018218718 0.022361735 -0.007941614
0.04323905 0.022462633 0.0010335041 0.025059253 -0.0153948115 -0.023931125 -0.05658953 -0.067453034
-0.009813625 0.019765226 0.03333608 0.0047475286 0.0036090806 -0.010599387 -0.024772376 0.0053090523
0.008680062 -0.013394446 -0.022562888 -0.04894364 -0.022973232 0.004298699 -0.0031914623 -0.013348972
-0.0004236376 0.0035679622 -0.038360216 0.0007413728 -0.06790265 -0.040607486 0.006919115 -0.014804931
-0.028449595 -0.0071469783 0.049936123 -0.021909684 -0.041579444 -0.056511812 -0.0448349 -0.07851658
-0.068633474 -0.028501399 -0.0035763034 0.017220814 0.022418533 0.042612623 0.01661259 0.010199399
0.03936233 0.043669827 0.035103563 0.06265554 -0.009987292 0.010110722 -0.082689054 -0.09094242
0.041146662 0.01137544 0.048980698 0.027030079 0.04883483 0.062231075 0.046064597 0.06747924
0.0348001 0.03199414 0.05455082 0.0043779686 0.05197975 0.060579587 0.037586626 -0.003628615
-0.009888197 -0.031939294 -0.0077264425 -0.033168957 0.026780734 0.021134965 -0.017419161 0.03040449
-0.028695025 -0.04539844 -0.06323047 -0.020896679 -0.08947945 -0.059517726 -0.11902142 -0.08159108
-0.050891243 -0.0660081 -0.06695765 -0.07365007 -0.0464172 -0.05284456 0.015374721 -0.009495363
0.019473093 0.024872081 -0.005649743 0.050353438 0.049314313 -0.0124998 -0.01301489 0.011801841
-0.02235192 -0.04819561 -0.03651234 -0.014057526 -0.010096283 -0.056133267 -0.005672023 -0.03199246
-0.0380233 -0.041214995 -0.056681633 0.00597045 -0.020519327 -0.0057543786 -0.035197712 0.0030577644
0.049245577 0.066048086 -0.0072671054 0.05076392 0.03443449 -0.026160553 0.027755402 -0.022403222
-0.0047987746 -0.024866184 -0.03362928 -0.00050453487 -0.016350953 -0.008994275 -0.07990416 -0.03364087
0.023296224 -0.022398602 -0.057444595 -0.034872252 -0.007655789 -0.04559463 -0.012388056 0.024067637
-0.00081146834 0.009255997 0.07507535 0.030382548 0.047129247 0.07087889 0.071048535 0.121712804
0.02654356 0.015690235 -0.009424878 0.022706188 0.016564427 0.016215973 -0.00013160057 -0.020241642
0.0076837437 -0.0035015445 0.050237034 -0.0033014284 0.007522608 0.010953723 -0.0013599618 -0.024267443
0.05299544 0.039286863 0.048751295 0.028691273 7.621813e-05 0.012101165 -0.017144818 -0.030752447
-0.088094756 -0.023506112 -0.054532394 -0.009246395 0.026810119 0.04824185 0.04515441 0.09258422
-0.0413484 -0.020142598 -0.010913443 0.03539063 0.019482905 0.041749015 -0.00097154104 0.0014716856
-0.0026301227 -0.056072287 -0.017689025 -0.038798984 -0.040856652 0.0016247082 -0.061949804 -0.07703498
-0.11441776 -0.058493372 -0.069077775 -0.046269316 -0.04084456 -0.0073123197 -0.0064642816 0.042180363
0.015900092 -0.032389477 -0.067584924 -0.11492441 -0.054744042 -0.063044354 -0.0067067933 -0.024925223
00000000: 5ee3 f9bc 6c71 c1bb fb63 50bd 4b6c 56bd
00000010: 9cfd 53bd 9a4d 64bc 1b82 15bd c725 85bc
00000020: 6868 30bd ff1d 14bd 0359 90bc dae0 9a3a
00000030: 4225 573c af12 ed3c 29b2 69bd e54b fcbc
00000040: 2984 993d 056b 6a3d 2ea7 d53c 99da 28bb
00000050: 969b 543c 5eb1 1cbb 7731 123d a4c7 633d
00000060: 73bf 943d 7276 7a3d e070 c83d 70f6 de3d
00000070: 4809 1e3d e8fe 313d 6f9b d9bc b1f3 0abd
00000080: 908e af3c 5225 06bd 7181 44bc 1024 0cbd
00000090: 2daf fabc 6c3f 95bc f52f b73c 8b1d 02bc
000000a0: 6e1b 313d 8e03 b83c a576 873a 1049 cd3c
000000b0: 853a 7cbc 350b c4bc 6cca 67bd d124 8abd
000000c0: 54c9 20bc afea a13c 6a8b 083d 2891 9b3b
000000d0: 5386 6c3b 0da9 2dbc 70ef cabc 8ff7 ad3b
000000e0: d236 0e3c 6174 5bbc ced5 b8bc 2079 48bd
000000f0: 5c32 bcbc 1adc 8c3b da27 51bb a6b5 5abc
00000100: ad1b deb9 79d4 693b 9a1f 1dbd b058 423a
00000110: 8b10 8bbd 0954 26bd beb9 e23b 6290 72bc
00000120: 200f e9bc 3331 eabb d289 4c3d f07b b3bc
00000130: 354f 2abd ee78 67bd cda4 37bd 4dcd a0bd
00000140: b58f 8cbd c47b e9bc 6a60 6abb aa12 8d3c
00000150: 12a7 b73c 938a 2e3d 2017 883c 611b 273c
00000160: 653a 213d 22df 323d c1c8 0f3d 8c51 803d
00000170: bda1 23bc 71a7 253c e158 a9bd 0540 babd
00000180: 6789 283d 0e60 3a3c fc9f 483d 2f6e dd3c
00000190: 0807 483d 03e6 7e3d 3bae 3c3d 8e32 8a3d
000001a0: 8d8a 0e3d 4a0c 033d ae70 5f3d 1075 8f3b
000001b0: b8e8 543d 4d22 783d 6ff4 193d 0fce 6dbb
000001c0: 1b02 22bc c7d2 02bd 192e fdbb 2cdc 07bd
000001d0: 4563 db3c 3c23 ad3c a1b2 8ebc d612 f93c
000001e0: d411 ebbc b7f3 39bd fa7e 81bd 832f abbc
000001f0: 0041 b7bd dcc8 73bd 81c1 f3bd 3919 a7bd
00000200: 5673 50bd 412f 87bd 1821 89bd d9d5 96bd
00000210: f61f 3ebd 8a73 58bd 41e6 7b3c 7092 1bbc
00000220: 0986 9f3c 89c0 cb3c 7b21 b9bb 683f 4e3d
00000230: cefd 493d f6cb 4cbc 683c 55bc 825c 413c
00000240: 601b b7bc c368 45bd f78d 15bd 8a51 66bc
00000250: e16a 25bc ffeb 65bd 61dc b9bb 870a 03bd
00000260: 52be 1bbd 0ed1 28bd 002b 68bd c4a3 c33b
00000270: 2618 a8bc 3a8f bcbb 7a2b 10bd c664 483b
00000280: bbb5 493d 3844 873d e620 eebb d4ed 4f3d
00000290: 2e0b 0d3d a84e d6bc 4c5f e33c f686 b7bc
000002a0: 0a3f 9dbb 2bb4 cbbc dbbe 09bd c342 04ba
000002b0: 6ff2 85bc b95c 13bc cba4 a3bd 02cb 09bd
000002c0: b9d7 be3c 467d b7bc 064b 6bbd 35d6 0ebd
000002d0: 6add fabb 6fc1 3abd 46f7 4abc 7e29 c53c
000002e0: b8b8 54ba 77a6 173c 1bc1 993d d2e4 f83c
000002f0: 990a 413d f428 913d e581 913d 9044 f93d
00000300: e171 d93c cf88 803c ce6a 1abc 5402 ba3c
00000310: 1fb2 873c 5cd7 843c 42fe 09b9 cdd1 a5bc
00000320: eac7 fb3b 2b7a 65bb 59c5 4d3d c75c 58bb
00000330: 3680 f63b 3f77 333c bf40 b2ba 84cc c6bc
00000340: bf11 593d 43eb 203d 70af 473d f609 eb3c
00000350: 4cd7 9f38 f743 463c 4a73 8cbc 8eec fbbc
00000360: 066b b4bd e48f c0bc 5c5d 5fbd 317e 17bc
00000370: e5a0 db3c 3f99 453d d5f3 383d cc9c bd3d
00000380: f15c 29bd 1702 a5bc 4cce 32bc c4f5 103d
00000390: 9d9a 9f3c 0401 2b3d 04af 7eba 93e5 c03a
000003a0: 235e 2cbb 0eac 65bd 93e8 90bc afeb 1ebd
000003b0: 4e59 27bd 29f4 d43a 14bf 7dbd 84c4 9dbd
000003c0: dc53 eabd bf96 6fbd a678 8dbd e584 3dbd
000003d0: a04c 27bd 2f9c efbb 53d2 d3bb 51c5 2c3d
000003e0: e940 823c d4aa 04bd f769 8abd 7d5d ebbd
000003f0: 4a3b 60bd 661d 81bd a9c4 dbbb fb2f ccbc

tcn.network.0.conv2.bias f4 [16]
1.8530161e-06 0.0032479796 -0.00040918292 0.04795743 -0.005151856 0.002152408 0.0040617795 0.0010931588
0.055753123 0.0152906515 3.463931e-06 -0.017760357 -0.0036472774 0.0016795149 -4.9248374e-06 -0.0021170366
00000000: 26b5 f835 0edc 543b 9a87 d6b9 036f 443d
00000010: e7d0 a8bb 6a0f 0d3b ad18 853b 5348 8f3a
00000020: 635d 643d a485 7a3c e275 6836 2b7e 91bc
00000030: 2907 6fbb 2b23 dc3a 0840 a5b6 fbbd 0abb

tcn.network.0.bn2.weight f4 [16]
1.0 1.0 1.0 1.0 1.0 1.0 1.0 1.0
1.0 1.0 1.0 1.0 1.0 1.0 1.0 1.0
00000000: 0000 803f 0000 803f 0000 803f 0000 803f
00000010: 0000 803f 0000 803f 0000 803f 0000 803f
00000020: 0000 803f 0000 803f 0000 803f 0000 803f
00000030: 0000 803f 0000 803f 0000 803f 0000 803f

tcn.network.0.bn2.bias f4 [16]
0.0 0.0 0.0 0.0 0.0 0.0 0.0 0.0
0.0 0.0 0.0 0.0 0.0 0.0 0.0 0.0
00000000: 0000 0000 0000 0000 0000 0000 0000 0000
00000010: 0000 0000 0000 0000 0000 0000 0000 0000
00000020: 0000 0000 0000 0000 0000 0000 0000 0000
00000030: 0000 0000 0000 0000 0000 0000 0000 0000

tcn.network.0.bn2.running_mean f4 [16]
0.0 0.0 0.0 0.0 0.0 0.0 0.0 0.0
0.0 0.0 0.0 0.0 0.0 0.0 0.0 0.0
00000000: 0000 0000 0000 0000 0000 0000 0000 0000
00000010: 0000 0000 0000 0000 0000 0000 0000 0000
00000020: 0000 0000 0000 0000 0000 0000 0000 0000
00000030: 0000 0000 0000 0000 0000 0000 0000 0000

tcn.network.0.bn2.running_var f4 [16]
1.0 1.0 1.0 1.0 1.0 1.0 1.0 1.0
1.0 1.0 1.0 1.0 1.0 1.0 1.0 1.0
00000000: 0000 803f 0000 803f 0000 803f 0000 803f
00000010: 0000 803f 0000 803f 0000 803f 0000 803f
00000020: 0000 803f 0000 803f 0000 803f 0000 803f
00000030: 0000 803f 0000 803f 0000 803f 0000 803f
