model/Benchmark/DTCNet_b1_1s_S35.pth (torch, 181815 bytes, 74 tensors)

global_block.conv_time.conv.0.weight f4 [8, 1, 1, 125]
00000000: 330f 823c c6ee 273d 6322 253c 4ae6 3d3c
00000010: 4dc1 64bd 5226 5d3d 73a1 a5bc 776c de3c
00000020: 74ce ed3c a425 e5bc aae3 f03c dea3 83bc
00000030: ae49 c53b c45a 683c 0ff1 33bd 5eac 823d
00000040: 3c6b 213d 9e32 973d a507 edbc 27b8 013d
00000050: eb30 fd3c f054 053b b283 89bc 14d9 213c
00000060: dbbf e03c 396e 183c 0b52 953c 81b0 0f3d
00000070: a839 8f3d aee1 f2bc a65b 113d caa5 32bc
00000080: 8c2f 8a3d 651c e5bb 9c63 a7bc 3ae3 8dbc
00000090: 3e7b 323d 69b0 663b f914 703d 15a4 a6bd
000000a0: e768 003b 16cb 6cbd 2da5 ae3c eea6 463d
000000b0: 3b6a 8ebc 5cf1 413c 54fe 66bc db9f 4bbd
000000c0: 4910 543d 8b86 533d 63b8 953d 668d 853d
000000d0: da75 3ebb 38bd 9a3b 0bef 773c 2937 b1bd
000000e0: a10e c3bd c7ac 47bc a796 913c 928c 7bbc
000000f0: 0706 eabc fb4c cdbb fa3d e0bc c067 84bd
00000100: 8148 9d3c 9b75 1f3c f3c8 623d b336 233c
00000110: 67a5 813c bdcf eabb 8166 20bd ed32 4abb
00000120: f3ec 95bc 66f7 c03d dec7 1f3d 30cf ccbc
00000130: 1be0 b33b da28 033e 2e0d 323e 4964 cfbc
00000140: dcd1 9fbd 2878 efbc 0f88 c1bd 32c0 33bd
00000150: a98a bbbd 8ed9 cd3c 1051 33bc 6d43 dfbd
00000160: f623 9bbd ff28 ccbc 3c4e 2fbd 6e7c 98bb
00000170: 5eef adbd a436 9dbd 7ca7 923c cced 93bc
00000180: f1ef 8d3d 5766 213e 02e4 0b3e bfb4 bd3c
00000190: eb2b b13a 7758 cb3c 9eb3 a0bc 5cd4 74bd
000001a0: 7fb8 2f3d 5d10 cb3d 2e8c 033d f187 9bbd
000001b0: a2d8 c8bd 0019 8dbd 43e7 963a f964 06bd
000001c0: c2c9 40bc 02ad 08bd 96a8 8e3b f79d 5ebb
000001d0: ccff 96bd 76e3 bdbd 6ff5 9fbc 139a 83bb
000001e0: fe2d 2bbd 112a fb3c 1bc1 b83d 9747 f6bc
000001f0: 757a 22bd a565 e03c 4eec 1dbd f800 9cbc
00000200: a6f7 f93d 677c f03b 1254 db3c b533 a0bc
00000210: 754e 1a3d ec55 bf3b a9c6 fc39 b3ab 3f3c
00000220: cf38 a53c f2e5 013d 9ab5 893d 7d3c a03d
00000230: bbc2 44bd af46 883d c06c 883b 5b65 643c
00000240: c7f3 873d 0feb 43bd 2f0c 3cbd 392c 9f3c
00000250: ee0b 2f3c 4b1d f6b9 2104 283c c2ae 573d
00000260: dc6f 4bbb 2db5 ac3c 6bd9 6bbd aa14 b13c
00000270: ac9e ae3b 9304 edbc 6941 feba 1c6b 06bd
00000280: 58fb 94bc 5065 94b9 17e5 2c3d b3ba 39ba
00000290: ca50 a6bd 7599 87bd 8e1d 81bc 418e a2bc
000002a0: d677 0c3d 27bf f53b 3daf b3bc 5e9e 3fbd
000002b0: 8e84 403d fc40 b439 2ef9 80bc 4572 5e3d
000002c0: 09fd 2dbd 1850 38bd 4edf 26bd edf6 f3bc
000002d0: abba 02be a172 f23c 9f9a 913c 4ab9 213d
000002e0: 0047 22bd 5a02 073d 3008 4b3d 706f b6bc
000002f0: ae60 4d3d d3d3 fcbc 546a a73c c598 8ebd
00000300: f786 cdbc b77a 833a e5d8 8e3d 09a7 9c3d
00000310: 4501 8c3c 5802 96bc 8bc6 f4bc c722 3c3d
00000320: 697d 0abd ec2b a73c 611f ffbc 6472 153e
00000330: 080d 7b3e b538 223e 627a 523c 397b 8ebd
00000340: 37f3 e0bd 1f6e b3bc a4b8 033c a49f ffbc
00000350: 65c0 4e3c bd3c 903b 46fe 0bbe 876b dbbd
00000360: c623 85bd 5eef 93bc 5e7a 0dbd 54d4 893c
00000370: 9819 5c3c 810e f7ba 86ae e63c 1bd3 013d
00000380: 2cd4 aebd ddd1 473d b587 e33c 42cc a63d
00000390: f1cc 73bd 4dbb 68bd 1919 353d c390 62bd
000003a0: 117b 22bd 9426 4f3d ec64 c53b 3b9f e7bd
000003b0: 8a6a 3b3d 31b1 ed3c 9b29 b03d 711e 09bd
000003c0: 0bdb a3bd d2ae 98bd 456d 9abc ec46 09bd
000003d0: 68e0 0a3d 0192 33bd 0d3a 5cbd 2c6c c2bc
000003e0: f543 b9bb 4d0b aebd c023 8f3c c374 99bd
000003f0: ff60 063c aa95 e53c 110c 28bd c8ac b23a
0.015876388 0.040999196 0.010078999 0.01159055 -0.05584841 0.053991623 -0.020218587 0.02715133
0.029029109 -0.02797205 0.029405434 -0.016069349 0.006020746 0.014181796 -0.043931063 0.06380533
0.039408907 0.07382701 -0.02893431 0.031669762 0.030907115 0.0020344816 -0.01678643 0.009878416
0.027435234 0.009303623 0.018227598 0.035080437 0.06993419 -0.029648628 0.035487793 -0.010903785
0.0674735 -0.0069919103 -0.02043324 -0.017320264 0.043574564 0.0035200363 0.05861375 -0.08136765
0.0019593777 -0.057810865 0.021318996 0.04849904 -0.017384639 0.01183733 -0.0140987225 -0.049712997
0.051773343 0.051641982 0.073105596 0.0652111 -0.0029061944 0.0047222637 0.015132676 -0.08653099
-0.095242746 -0.012187189 0.017772032 -0.015353339 -0.028567327 -0.0062652803 -0.027373303 -0.06465101
0.019199612 0.009732629 0.05536742 0.009961772 0.01582594 -0.0071658776 -0.039160255 -0.0030853108
-0.018301463 0.094221875 0.039008968 -0.025001138 0.005489362 0.12808552 0.1738784 -0.025316374
-0.078036994 -0.0292321 -0.09449779 -0.043884464 -0.09157307 0.025128152 -0.01094462 -0.10901532
-0.075752184 -0.024921892 -0.04279922 -0.004653505 -0.08492921 -0.076764375 0.017902128 -0.018057726
0.06930531 0.15761696 0.13661197 0.023157476 0.0013517117 0.024822457 -0.019616898 -0.059772834
0.04290056 0.099152304 0.032116108 -0.07594288 -0.098069444 -0.06889534 0.0011513013 -0.03281114
-0.011766853 -0.033368118 0.004353593 -0.0033968666 -0.07373008 -0.092719 -0.019526212 -0.00401617
-0.04179191 0.030659707 0.09021207 -0.030063434 -0.039667565 0.027392218 -0.038555436 -0.01904343
0.12205438 0.0073390487 0.026773486 -0.019555906 0.03767248 0.0058391 0.000482132 0.011698651
0.02016869 0.031713434 0.06724091 0.07824037 -0.048037272 0.06654107 0.0041633546 0.013940181
0.06638294 -0.04783159 -0.045910057 0.019430267 0.010683997 -0.000469426 0.010254891 0.052656896
-0.0031042015 0.021082485 -0.057580393 0.021616299 0.0053289738 -0.028932845 -0.0019398156 -0.03281699
-0.018186256 -0.00028304243 0.042210665 -0.00070850103 -0.08120878 -0.066210665 -0.015761163 -0.019843223
0.034293972 0.007499594 -0.021934146 -0.04678189 0.047001414 0.00034380693 -0.015743818 0.054308195
-0.04247764 -0.04499826 -0.040740304 -0.02978083 -0.1276652 0.029595675 0.017773924 0.039483346
-0.039618492 0.032961227 0.049568355 -0.022269934 0.05014103 -0.030862724 0.020436443 -0.06962732
-0.02508877 0.0010031079 0.06974963 0.07649047 0.01709045 -0.018311664 -0.029879829 0.045931604
-0.033811007 0.020406686 -0.031142892 0.14594418 0.2451669 0.15841945 0.012846561 -0.069570966
-0.109838895 -0.021903096 0.008039627 -0.031204052 0.012619113 0.004401772 -0.13671216 -0.107138686
-0.06500964 -0.018058475 -0.034540527 0.016824879 0.013433836 -0.0018848927 0.028159391 0.031695466
-0.08536562 0.048784126 0.027774671 0.08144428 -0.05952162 -0.05681925 0.044213388 -0.055313837
-0.039668147 0.0505739 0.0060239937 -0.11309668 0.0457559 0.029015156 0.086016856 -0.033476297
-0.080007635 -0.07455219 -0.018850932 -0.033514902 0.033905417 -0.043840412 -0.0537663 -0.023733221
-0.005653853 -0.08498249 0.017473102 -0.07492974 0.008201837 0.028025467 -0.041027132 0.0013631815

global_block.conv_time.conv.0.bias f4 [8]
00000000: 7239 acbb 883a 003d 0683 123c 715d 0d3d
00000010: 8ea2 f1bc ba9d cabd d45f 9a3c df07 0b3c
-0.0052558715 0.03130582 0.008942371 0.03451294 -0.029496457 -0.09893365 0.018844523 0.008485763

global_block.conv_time.conv.1.weight f4 [8]
00000000: c2d8 803f cb16 843f be12 703f 0c53 6a3f
00000010: 6153 8c3f 61ca 653f f896 7e3f 3370 7a3f
1.0066149 1.0319456 0.937786 0.9153297 1.0962945 0.8976193 0.9944911 0.9782745

global_block.conv_time.conv.1.bias f4 [8]
00000000: 745f a5bc 68f8 d0bc 407f 1e3e d021 f539
00000010: 9081 34bd 936a a73d 838f 84bd d7ab c33c
-0.020187117 -0.025509074 0.1547823 0.00046755234 -0.044068873 0.08174624 -0.06472685 0.02388565

global_block.conv_time.conv.1.running_mean f4 [8]
00000000: 2137 a33c d043 133d f914 f93c 3017 823c
00000010: 890e 4cbd d3e0 c1bd e433 cc3b 9231 b53c
0.019923748 0.035953343 0.030405508 0.015880197 -0.04981855 -0.0946671 0.006231772 0.022118364

global_block.conv_time.conv.1.running_var f4 [8]
00000000: 5622 6141 477f 3641 ae7b 4041 2992 2a41
00000010: 5685 3241 3680 6641 38a4 5d41 7ca5 6141
14.070883 11.406074 12.030195 10.660684 11.157553 14.4063015 13.852592 14.102901

global_block.conv_chan.conv.0.weight f4 [8, 8, 11, 1]
00000000: e2fa d7bd 8b48 0abd f487 bbbc f76d 84bd
00000010: a834 a43d f3cd 853d f4f9 1d3d 8688 c8bd
00000020: 22f7 803c ba08 30bd 1e72 bf3d 1c7d 883d
00000030: 9373 87bd 85b8 57bd d5c1 c33d e1a8 3d3c
00000040: 2acc 863c fab2 38bc 82c7 f4bd dead a93d
00000050: 175d 50bd 14bf 1e3d 794b 7dbd 9551 4f3b
00000060: 462b 1b3d 54f6 40bd 508c ab3b 2933 5ebd
00000070: 25c4 913d 8721 28bd 5a0f 85bd b36c 4cbd
00000080: 7067 05bd 1dbd 503d 7a0f 5dbd 445e 7dbd
00000090: 9c84 95bc 1637 81bc 6a52 8c3c 1e46 edbc
000000a0: 1810 d5bd d0a3 31bb 3db2 5e3d 0b1e 863d
000000b0: 67fa b9bd d181 a83d 7d48 333c 8e3d 9fbd
000000c0: b4b9 bcbd ac3d 1fbd 5137 dc3d fccf b63d
000000d0: 745d 8a3d a5c9 22bb 0947 09be 8fb8 34bc
000000e0: f76c 403d 34ca a63d e624 03bd f973 25be
000000f0: e338 1a3d 87d6 aa3d 0122 143e 774e 98bb
00000100: 4291 aa3d 3fc2 93bd 7d5f 713d a755 52bd
00000110: 18bc 8f39 01b4 363c eb75 b93b a8f6 6bbd
00000120: 3c55 993c 5032 5ebc 31b1 023d 7fc3 203d
00000130: 2286 dbbc 4987 75bd 6d77 3dbd c498 46bd
00000140: 2ee1 aebc a700 46bd 57cc ec3d 38d9 963d
00000150: d0a2 fcbd 48e8 8dbb f6a6 9abc aad5 593c
00000160: 6c7e d1ba 7b5d 7fbd f334 a7bc 1183 1c3d
00000170: 9ef2 13bc 2613 69bd 8689 4bbc 65ee 0e3d
00000180: ede2 5b3d 1bc3 9a3d 8efa 9fbc 2a68 85bc
00000190: 8482 ecbd 69e9 593b 8abd 463c 13e1 1f3d
000001a0: 73d3 1bbd 4c4b f1bd 09b0 283d 1509 633d
000001b0: ceed 813d 0c6f 9e3d bfba c83d 649d 4ebe
000001c0: 6e3f 7bbd 91f9 b3bd 5bd1 503d 7a71 993d
000001d0: a082 8fbd f0cf a9bd 2275 8cbd 3cbe 923d
000001e0: b509 b03d 5452 1fbd dea0 93bd c68c 7bbd
000001f0: 4f42 723d 1f7d 77bc 07d9 3bbd 5dbd 483d
00000200: a11b 993d 9408 bc3d c7f8 3dbd 41ce e5bd
00000210: dc7c 5f3d 55f5 023e 1627 73bb 43fc 8bbd
00000220: c804 f23b a857 b7bd 5162 0e3d 8822 c03d
00000230: 0508 723d 030f e6bd 012d 41bd c929 85bd
00000240: 7fa8 f93d 5f79 2c3d a142 fabc 6bc2 eabd
00000250: 044c 06bb 14e0 8b3d 955d 3dbc e922 6fbd
00000260: df30 45bd 7662 8e3d 81ab 81bd cd74 30be
00000270: e2bb 2ebc af41 913d 0c71 1d3d f67b 39bc
00000280: f15c 8bbc de94 533c 32db f63c e696 01bd
00000290: 6bc4 b13d 8489 3cbd 8117 303d aed4 393d
000002a0: b38d e8bc 4c72 ebbd d95c cd3c 9a65 093b
000002b0: cc4c ea3d d717 6cbd d15d 49bd 68d5 02bd
000002c0: 75a3 babc 94b8 5abd b8ff f9bd 7b90 a83c
000002d0: b501 873d 8e72 383c b08c 94bd 95e0 173d
000002e0: 86e7 bcbc 40b4 3f3d 2aa0 22bc e85f 84bd
000002f0: 1d35 58be e7b4 dfbc fbcc 063d 043c cf3d
00000300: 8872 ccbc 20cc 0e3d d253 8f3d c599 1f3d
00000310: ac33 d63c 1c74 923d 05ee 0b3d 7999 133e
00000320: c008 d3bd 6e89 46bd 168a 48bd a929 91bd
00000330: 241a 4a3d a876 123e ac17 8e3d d7cd 42bd
00000340: 20dc 17bc e432 643c 3f87 c23c 78fa 183c
00000350: b6ce c7bd 9a60 9bbc 93d5 a3bd e4ee bebc
00000360: ecdb 063e f27f fb3a f382 0ebc c417 abbd
00000370: 2d52 59bd fe05 22be 3f36 233d b56e 923d
00000380: b454 c03c e2a7 983d 1216 c8bd 4421 263d
00000390: cab6 883c f72f 84bd ec17 1b3c fddc 51bb
000003a0: b8dd a73c 120a 293d 1968 e83d 3632 11bd
000003b0: 715d cd3b 35e9 d2bd 6b31 84bd f9dc d7bd
000003c0: 097c 363d bc3e 683d da92 d0bd 5908 163e
000003d0: 7a91 46bd 3510 fabd 269e 86bd 8d89 0cba
000003e0: 113c a03d 91f8 1bbc 4438 a83d 648c 2d3d
000003f0: 8f8d 94bd e977 36bd 45e4 57bd d0e6 2cbc
-0.10545899 -0.03376059 -0.022891976 -0.06466287 0.08017856 0.06533422 0.038568452 -0.09791665
0.015742842 -0.042977072 0.09347938 0.06664488 -0.06613841 -0.052666206 0.09558455 0.011575908
0.016454775 -0.01127314 -0.119521156 0.08285116 -0.050870027 0.038756445 -0.061839554 0.003163432
0.037883066 -0.047109917 0.0052352324 -0.05424801 0.0711749 -0.0410476 -0.06497069 -0.04990835
-0.03256935 0.050961602 -0.053969838 -0.061857477 -0.01825171 -0.015773337 0.017129142 -0.028964099
-0.1040346 -0.0027105696 0.0543692 0.06548699 -0.090809636 0.082278855 0.0109425755 -0.077754125
-0.092151076 -0.038877174 0.10752738 0.089263886 0.06756106 -0.0024839428 -0.13406004 -0.01103033
0.046978917 0.08144036 -0.03201761 -0.16157521 0.037651908 0.08341699 0.14466096 -0.0046480256
0.08328487 -0.07214784 0.058928955 -0.051351216 0.00027415226 0.011151315 0.005659809 -0.057608277
0.0187174 -0.0135618 0.031907264 0.03924894 -0.026797358 -0.05994347 -0.04625647 -0.048485532
-0.021347608 -0.048340466 0.11562412 0.0736565 -0.123357415 -0.0043306686 -0.018878441 0.01329557
-0.0015983111 -0.06234501 -0.02041099 0.038210932 -0.009030012 -0.056903027 -0.012422925 0.03489532
0.05368321 0.07556745 -0.019528653 -0.01628502 -0.115483314 0.0033250696 0.012130151 0.039033007
-0.03804345 -0.1178194 0.041183505 0.055428583 0.06344186 0.07736024 0.09801244 -0.20177227
-0.06133979 -0.087878354 0.050980907 0.07492347 -0.070073366 -0.08291614 -0.06858279 0.071651906
0.085956015 -0.038896874 -0.07208417 -0.06141355 0.059145268 -0.015105515 -0.04586127 0.049008716
0.07475973 0.09181324 -0.04637983 -0.112209804 0.054562435 0.12788899 -0.0037102154 -0.068352245
0.007385824 -0.08952266 0.03476173 0.09381586 0.05908968 -0.11233332 -0.04716206 -0.065021105
0.12190341 0.042107936 -0.03054935 -0.114628635 -0.0020492086 0.06829849 -0.011557956 -0.058382902
-0.04814231 0.06952374 -0.0633154 -0.17232056 -0.010664912 0.07092606 0.038437888 -0.0113210585
-0.017012091 0.012913911 0.030133817 -0.03163805 0.08680042 -0.046029583 0.042991165 0.045368843
-0.02838788 -0.1149641 0.025068687 0.00209651 0.11440429 -0.057639923 -0.049161736 -0.0319418
-0.02278302 -0.053398684 -0.122069776 0.020576706 0.065921225 0.011257781 -0.072533965 0.037079412
-0.023059618 0.04680276 -0.009925881 -0.06463605 -0.21114011 -0.02730794 0.03291033 0.10118869
-0.024956957 0.034862638 0.06998409 0.038965005 0.026147686 0.07151052 0.03416254 0.14414014
-0.10304403 -0.048470907 -0.048959814 -0.07088024 0.049341336 0.14303076 0.06938109 -0.047559585
-0.0092687905 0.013928149 0.023746131 0.00933706 -0.09756224 -0.018966962 -0.079997204 -0.023307271
0.13169831 0.0019187911 -0.008698213 -0.08354142 -0.053056885 -0.15822598 0.039846655 0.07150022
0.02347789 0.07453896 -0.097698346 0.04055907 0.016688723 -0.06454461 0.009466153 -0.0032022588
0.020491466 0.04126937 0.1134798 -0.035448276 0.0062672426 -0.10298387 -0.06454738 -0.10540194
0.044551883 0.056700453 -0.1018426 0.14651622 -0.04847858 -0.122101225 -0.06573133 -0.0005361073
0.07823957 -0.009519712 0.08213857 0.042370215 -0.07253563 -0.04454795 -0.05270793 -0.010553077

global_block.conv_chan.conv.0.bias f4 [8]
00000000: 603b 5e3d 222d 8a3c 75ca a5ba 8b01 49bd
00000010: 5d8d 9c3d 69ef 27bd 544f aa3a 259f 3c3d
0.054255843 0.016867224 -0.0012648838 -0.049073737 0.076441504 -0.040999804 0.0012993612 0.04605021

global_block.conv_chan.conv.1.weight f4 [8]
00000000: b802 7f3f 654a 853f 93f3 8b3f 9624 6f3f
00000010: 9962 7b3f be15 6a3f b8f2 823f aa05 733f
0.99613523 1.0413328 1.0933708 0.934152 0.98197323 0.91439426 1.0230322 0.9493052

global_block.conv_chan.conv.1.bias f4 [8]
00000000: 7fe7 82be e026 1ebe de59 4dbe 2c90 d7bd
00000010: c9bc 21be 50d3 55be a32d 61be 889e 42be
-0.25567243 -0.15444517 -0.20053813 -0.105255455 -0.15794672 -0.2088139 -0.21990065 -0.19005787

global_block.conv_chan.conv.1.running_mean f4 [8]
00000000: 9021 5dbd 19a0 edbd fdf9 0fbe 143a f8bd
00000010: ebf4 233e ae48 babc dbfd fbbc d361 423d
-0.053987086 -0.11602802 -0.14060207 -0.121204525 0.16011398 -0.022739735 -0.030760696 0.047456574

global_block.conv_chan.conv.1.running_var f4 [8]
00000000: 8408 1e3e 2205 823e 23ae 643e e74b f33d
00000010: 7b97 ae3d 4e2b 4b3e 8400 a93d fdc9 043e
0.15432936 0.2539454 0.22332053 0.118797116 0.08524986 0.19840738 0.082520515 0.12967677

local_block.conv_time.conv.0.weight f4 [8, 1, 1, 51]
00000000: 1214 95bd 4ce9 5c3b 32d9 853c f0f1 453b
00000010: 4a9a cfbc 7181 ecbd 3bab 4a3d 88b3 d239
00000020: 5e97 e73d a1f7 023c 7984 6abd 8d0f 2a3c
00000030: f31c e53d 2a24 afbd cfb1 5e3c 14e8 59bd
00000040: eef9 75bd 568a f83d 4aaf 113e f0a4 263d
00000050: 9264 21be 4325 52bd 075a 04bd 7951 ffbc
00000060: 382e 0d3c ab3c ce3d ee12 613c 285a b2bc
00000070: ee5f 5b3d 1352 e73d a79e c43c 012f 9a3d
00000080: 48c7 4e3d f1e8 acbd 742d f43d 1bf4 1b3e
00000090: 8af6 9c3c c34f 70be 5d73 98bd 4487 983d
000000a0: 7c91 b23d 8947 c7bd 2241 063e 8b7b 013e
000000b0: 3e91 ea3c da93 91bd f781 24bc 82e4 63bd
000000c0: f3ad 08bd 0eec 7f3d 17da 35bd 3202 6d3c
000000d0: 77d0 7dbd 0ab2 24bd 6a5c 89bd a1a7 0c3c
000000e0: 726a 38bd 05c8 1bbd 8154 4e3d 14c0 b4bd
000000f0: f98a 443d 0dbf 59bd de1d 293e c401 053e
00000100: 9b82 c5bb 75dd abbb b669 edbb ea9d acbc
00000110: 123e f1bd bcf6 11bd 9ea1 87bc 80d1 cebd
00000120: 466f f53c 28ba 96bd 5389 3fbd d1d9 3c3d
00000130: 8537 3dbd ce30 1a3c 8783 ba3d 5912 1d3e
00000140: 1e23 ab3d 42f3 59bd 390a 963c fa6f 42bd
00000150: c488 0a3d 6a39 b73d f492 52bd e637 2f3d
00000160: 41b8 563d c1ee f63d 7434 bb3d ee1e d13b
00000170: 5965 2dbc cd8c c4bd 826a 06bd ddfc 403d
00000180: b400 373e ec61 fc3c 121f 6e3d 6a31 11bd
00000190: 4d83 953d 2782 b1bd 004e 7dbd 4842 10be
000001a0: 6789 5c3d 8748 7ebd c12c 3cbd f11f 583d
000001b0: d31d 213d 5103 473d 3786 143e c300 073c
000001c0: 2164 053e 7cb9 eb3c f8c4 14bd d105 7cbc
000001d0: 76b8 b4bc c6fc afbc 1ee6 1fbd 5710 e0bc
000001e0: 6b56 eebd 6ce4 cf3d 48ba 043e 4f00 783d
000001f0: 6142 b13d f1c4 79bd 2e16 0cbc 4db6 a8bd
00000200: 2086 313c c6d3 a0bd fc36 a2bd 18bd 173d
00000210: bd9d 2abc 0606 7cbd 83cb 223c 37ea 24bd
00000220: f05f 493d af2d 84bd 44b4 b13c 1c7f 383e
00000230: 10ec 813d da6c 113e 3170 ed3d fba1 dcbd
00000240: 9152 53be aea2 fabc 2d10 c1bd 03e4 c1bd
00000250: e6e9 dabd bb0f e73d b97c 083e d253 60bd
00000260: 6a4c dcbc 3dc7 3d3d ef64 583c ae76 83bc
00000270: bd74 383c bc8b 293d 2bb9 f8bc da11 2e3b
00000280: ef31 123b 2852 e43d b9ab 6abd 512b 30bc
00000290: fdde 703d 3d6f f3bd 2151 83bd a308 833d
000002a0: cf6f 8dbd 2b40 a43c a261 a23a 43c9 4c3d
000002b0: 6e24 093e af2a a13a e1e3 8fbd fa70 3e3d
000002c0: 94c5 9fbd a302 22bd ea80 0b3d 2d5f 21bd
000002d0: 3dc9 3abd 6aa0 45bd 4c6e a13d e4b1 87bd
000002e0: 6477 cc3d 9bc5 43bd 9b4b c33d 90f0 203e
000002f0: 97d6 1a3d b222 83bd cb98 593d a07e 033d
00000300: 236d c8bd 4d2a 31be f8c0 8a3d 15ad 23bd
00000310: c575 40bc 3083 35be 1634 d0bd 66af 3a3d
00000320: a4e4 b7bd b03e 933d a55a f33b 4d86 293e
00000330: 8caa 5abd e1ce b83d 4872 c3bd cb57 d3bc
00000340: 9035 38bc 57da cebd 7ec0 0c3d c313 0fbd
00000350: 9d91 293d 96e7 8d3c e979 a7bd 7694 97bd
00000360: 9a9a eebd 110f 1e3b f2c6 933a 24a9 92bd
00000370: ebce 5d3d 61d8 e5bd 5bcd 0f3d af3f 883d
00000380: 5fed edbd 6ff5 76bd 1870 03bb 16e6 323c
00000390: a419 4b3d b7c6 733d 908f bf3d 8130 d4bc
000003a0: 4ed3 c4bd dcc7 07bd c923 483c ba32 08bd
000003b0: f899 6dbd b442 803d d767 3fbc 80ea 58bd
000003c0: 44e0 6f3d bdc3 c2bd 8c2e f7bd f62c ae3a
000003d0: 1da4 1bbe f476 b6bd c161 353e 2ccf 2d3e
000003e0: 4fdf cebd 89c0 dfbd 3811 3ebe dba9 2dbd
000003f0: 2443 e1bc 0e85 b63c 46e2 f23b 1565 7f3c
-0.07279219 0.0033708392 0.016338918 0.003020402 -0.025342125 -0.115481265 0.049479704 0.00040188082
0.11308168 0.00799361 -0.057255242 0.010379684 0.11187162 -0.085518196 0.013592198 -0.053199843
-0.060052805 0.121357605 0.14227024 0.04068464 -0.15761021 -0.051305067 -0.03231242 -0.031166779
0.008616976 0.10070165 0.013737423 -0.021771505 0.053558283 0.11294951 0.024001433 0.075284965
0.05048302 -0.084428675 0.11922732 0.15229838 0.019160528 -0.23467927 -0.07443879 0.07447675
0.08719155 -0.09730441 0.13110784 0.12644784 0.02863371 -0.071082786 -0.010040752 -0.055637844
-0.033369016 0.06248098 -0.04439744 0.014465855 -0.061966386 -0.040208854 -0.0670708 0.008584888
-0.04502339 -0.03803255 0.050373558 -0.088256985 0.047984097 -0.053160716 0.165153 0.12988955
-0.0060275323 -0.0052449056 -0.0072452677 -0.021071393 -0.11779417 -0.035635695 -0.016556557 -0.10098553
0.029960286 -0.07359725 -0.046761822 0.046106163 -0.046195526 0.00941105 0.09107118 0.1533903
0.083563074 -0.053210504 0.018315421 -0.04747007 0.033821836 0.08946498 -0.051409677 0.04277792
0.052421812 0.120572574 0.09140864 0.006381861 -0.010583245 -0.09597168 -0.032816418 0.04711615
0.17871362 0.030808412 0.0581351 -0.035447516 0.07300434 -0.08667403 -0.061841965 -0.14087784
0.053841975 -0.062080886 -0.04594112 0.052764837 0.039335083 0.048587147 0.14504324 0.008239928
0.13026477 0.02877497 -0.036320657 -0.015382246 -0.022060614 -0.021482836 -0.039037816 -0.027351541
-0.11637577 0.1015099 0.12961686 0.06054717 0.08655239 -0.060978834 -0.00855021 -0.08237896
0.010835201 -0.078528926 -0.07920644 0.03704557 -0.010413584 -0.061529182 0.009936216 -0.040262427
0.04916376 -0.06454026 0.021692403 0.18017238 0.063438535 0.1420168 0.115936644 -0.10773083
-0.20636965 -0.03059515 -0.094269134 -0.09467318 -0.10689144 0.11282297 0.13328828 -0.054767437
-0.026891906 0.046332587 0.013207658 -0.016047802 0.011258301 0.041393027 -0.030361732 0.0026560933
0.0022307595 0.111484826 -0.057292674 -0.010752515 0.05880641 -0.118864514 -0.064119585 0.06398132
-0.069060914 0.020050129 0.0012388716 0.049996626 0.13392803 0.0012296046 -0.07025886 0.04649446
-0.07801357 -0.039553296 0.03405849 -0.039397407 -0.045602072 -0.048248686 0.078823656 -0.06625727
0.099837095 -0.047795873 0.09535905 0.15716767 0.037802305 -0.06403102 0.05312423 0.03210318
-0.09786441 -0.17301293 0.06775087 -0.039959986 -0.011746828 -0.17725825 -0.101661846 0.04557743
-0.089791566 0.07189691 0.007426577 0.16555138 -0.053385302 0.09023834 -0.09543282 -0.025798699
-0.011243239 -0.10100239 0.034363262 -0.034930956 0.041398633 0.017322343 -0.081775494 -0.074013636
-0.11650582 0.0024117867 0.00112745 -0.07161167 0.05415241 -0.112229116 0.03510795 0.06652772
-0.116175406 -0.060292657 -0.0020055827 0.010919115 0.049585 0.05951568 0.09353554 -0.025902035
-0.09610616 -0.033149585 0.012215563 -0.0332515 -0.058008164 0.062627226 -0.011682472 -0.05295801
0.058563486 -0.0950999 -0.12069425 0.0013288546 -0.15199323 -0.08909407 0.17713071 0.16973561
-0.101011865 -0.10925395 -0.18561256 -0.042398315 -0.027497835 0.022280242 0.007412228 0.015588065

local_block.conv_time.conv.0.bias f4 [8]
00000000: 5b37 503d e447 03be ab79 ab3c 5515 323d
00000010: 7f19 953d d7be 483d 570b c63d aba5 b53d
0.05083404 -0.12820393 0.02093204 0.043477375 0.072802536 0.049010124 0.09670132 0.08869489

local_block.conv_time.conv.1.weight f4 [8]
00000000: 4f2e 843f 77db 793f 5ccb 603f 68d0 6d3f
00000010: df58 613f 880d 8e3f 12c5 6d3f 68f1 883f
1.0326632 0.976005 0.878103 0.9289613 0.8802623 1.109788 0.9287883 1.0698671

local_block.conv_time.conv.1.bias f4 [8]
00000000: 44b9 133d 00dc 973d ecab 6e3c e23a d93d
00000010: e6b3 25bd 2910 f3bb 4aad 103e 8c2c 48be
0.036065355 0.074150085 0.014567357 0.10606934 -0.040454768 -0.007417698 0.14128605 -0.19548243

local_block.conv_time.conv.1.running_mean f4 [8]
00000000: 926b 8d3d 0d63 11be 2616 eb3c db8b 833d
00000010: 5ea0 863d d354 5e3d c943 1a3e db0e 813d
0.06905283 -0.14197941 0.028697085 0.0642316 0.06573556 0.054280113 0.1506492 0.063016616

local_block.conv_time.conv.1.running_var f4 [8]
00000000: 347e ea40 5dcf f840 4788 3341 a923 fd40
00000010: e591 c340 8898 d640 b5cd d140 44c4 a740
7.3279057 7.775313 11.220771 7.910603 6.1115594 6.7061195 6.5563607 5.242708

local_block.conv_chan.conv.0.weight f4 [8, 8, 11, 1]
00000000: 4d84 d3bb c63b 503d 68b9 71bc 9a93 b9bc
00000010: 0bca 093c 7544 b93c 6f60 56bb f54a 07bd
00000020: 14b6 49bd 6622 3a3d f176 79bd c1de 5ebc
00000030: 0023 e13c a8c6 3d3d 44a3 24bd e58a bd3d
00000040: 33ee 073d 0443 42bd 666b 45be e40f 1ebc
00000050: 9ee1 e03c 1525 373d f81f 1f3d 34e3 ea3d
00000060: bded 043d c4e2 ca3d 6794 313c 97a3 30bd
00000070: 92b3 1abd be8d 803c c179 bcbd 06fe 0d3d
00000080: 29cd f7bd 5200 93bc a5f9 b4bc 16c7 2dbd
00000090: 3a3d cb3b b844 04bc f546 883d 0436 8e3c
000000a0: 58fe 6b3d 48ab b8bd 411a 19bc daec a63d
000000b0: c31e 293d 90e3 92bc 4bf0 aabd 94de 91bc
000000c0: ff2c 3a3c 4304 0bbd 1f87 a53d 3fab 003e
000000d0: 6831 efbc 6196 4eba c896 48bd 6f04 debb
000000e0: e984 2f3e 93c3 6c3d 00de d73d 2cf1 833c
000000f0: 2726 93bc e785 f63d 9f30 c9bd f08f e9bd
00000100: 14a1 9e3c cc27 5f3d a5d3 3ebc 8d01 843d
00000110: 7304 07bd ff24 0f3e a57d ddbc 5a28 83bd
00000120: 8262 debc e601 d83d a616 bb3c 905a 99bd
00000130: ef8e e0bc e45e 62bc 77dd 7c3d a0d0 893d
00000140: 0e36 113a 75b6 973c 4656 6ebd eb7f a83d
00000150: 63a0 943d 2a80 f53d 6366 29bd d362 a6bd
00000160: f8f4 093c feee e1bb 414d 4d3d e11b 07bd
00000170: e250 b43d 96d0 3abb 8116 82bb 02e2 4cbd
00000180: 1258 52bd 0136 b13c 7161 10bd c245 12bd
00000190: 6293 c33d 3327 7b3d 67ea bfbb b77d debc
000001a0: 7591 46bd 7c33 703d 6a21 2d3d 97c8 84bd
000001b0: 5cd1 c43d 0fb3 74bd 82f3 eebd b30a 683d
000001c0: a8ef a0bd e1e1 c13b a94e 293d 896a b4bd
000001d0: 89fc 4e3d 3d81 843e 9b5e 173d 7b08 d0bc
000001e0: 5cd4 87bc b030 953d 295b c8bd 4d1a 75bd
000001f0: 621d 38bd af4c 2dbc b428 2d3d e9fa c3b9
00000200: f614 eb3b 08f5 dabc b617 8ebd d51d 003e
00000210: 1b66 c33c 4698 9c3a 6f61 e93c 3d9a 56bd
00000220: 6b2e c8bc 6f58 a43d 61e7 27bd f018 43be
00000230: 1cba 333d 680c 12bd 09ec 5b3b df5f 313d
00000240: c2c3 febd 8f7d 15bd 6e44 983d 6c06 70bd
00000250: 3a90 07bb 66d4 583d 0b24 38bc 87c2 8cbb
00000260: daf5 de3d 0211 29bd d6bd 2fbd 906c 4bbd
00000270: 7e11 bcbd 1526 ea3b 60b3 c5bb dbf7 55bd
00000280: c167 023d 3d9d 263e 15b8 103d f491 27bc
00000290: 1b82 06bc db2a b83c b771 ad3d 4b64 4ebd
000002a0: 959a 313d 790d e33c e136 ddbc a88f aebd
000002b0: 67cb 973d e807 003d 9778 aebc dc00 99bd
000002c0: e2da d53c abd1 c6bd a1d4 f6bd 1707 373e
000002d0: 2230 f23d ed21 4abc a29d 00be 7353 efbc
000002e0: 9161 b63c 82f7 7d3d be9e a4bc 58ef fabd
000002f0: 1c31 1bbe e9ec a7bd 9c3c b43d 3902 843d
00000300: da35 f73b 283b 253c 3d26 8d3d e250 033d
00000310: d6ce b8bc 829e 7a3d 61b8 f8bb 8ac4 53bd
00000320: 17e3 a33d fe1b a8bd d603 5a3d 97a5 2cbc
00000330: d1d8 683d 4a1d 0a3c 3db4 343d 4181 6fbd
00000340: 56c1 46bd a010 8bbd 4215 8d3d 6a72 36bd
00000350: 334b 153d a933 7e3d 1d08 c53c f8b2 afbd
00000360: be1d 89bc 076b 87bc 6650 e13d eb2f 3fbd
00000370: e8a8 64bd d089 ca3b b7b5 b63a cd98 343d
00000380: dd27 743c ae4f 9a3d 0956 bcba ce0e 81bd
00000390: 8a33 76bd 2d5f e13c 10f6 9a3c 8d3a fdbc
000003a0: c4d6 d0bd efa1 8fbc 8a46 223c 2e4a 343d
000003b0: 8678 b03d 704c c6bc d87b 9ebd a8bf fd3d
000003c0: 1bb3 263d 4b3d 00bc 691a 1d3d c846 aa3d
000003d0: 6f84 9bbd c72f 31be 45d2 afbc b4fd 613d
000003e0: 8ac7 06bd 8a8c 4d3e c674 55bd 30c0 173d
000003f0: 97fa 0abd e0f3 403b f445 603c ae8a a6bd
-0.0064549805 0.050838254 -0.014753677 -0.02265339 0.008409987 0.02261565 -0.0032711287 -0.03303047
-0.04924591 0.04544296 -0.060904447 -0.013602913 0.02748251 0.04633203 -0.040194765 0.09255008
0.03318615 -0.047427192 -0.1927925 -0.009647343 0.027451333 0.0447131 0.038848847 0.11469117
0.032453287 0.09906533 0.0108386045 -0.04312476 -0.037768908 0.015692588 -0.0920291 0.034666084
-0.12099678 -0.017944489 -0.022091696 -0.04242619 0.006202367 -0.008073024 0.06654159 0.017359741
0.057615608 -0.09017044 -0.009344638 0.081506446 0.041289102 -0.017930776 -0.083466135 -0.017806329
0.011363267 -0.03393961 0.08082413 0.12565325 -0.029198363 -0.00078806846 -0.04897192 -0.006775431
0.17140545 0.0578037 0.1054039 0.01610621 -0.017962528 0.120372586 -0.09823727 -0.11404407
0.019363917 0.054481313 -0.01164714 0.06445608 -0.032963227 0.13978957 -0.027037451 -0.06404181
-0.027146582 0.10547237 0.022837948 -0.074879766 -0.027411906 -0.013816569 0.061734643 0.06729245
0.0005539366 0.01851962 -0.058187746 0.082275234 0.07257154 0.11987336 -0.04135741 -0.08124318
0.0084202215 -0.006894945 0.050122503 -0.03298557 0.0880449 -0.0028505675 -0.003969968 -0.050020225
-0.05135352 0.021632196 -0.035249177 -0.035711057 0.095495954 0.06131668 -0.0058568004 -0.027159555
-0.048478562 0.05864285 0.042268194 -0.06483572 0.09610245 -0.059741076 -0.11667539 0.05665083
-0.07858211 0.0059168194 0.04133478 -0.088093825 0.050533805 0.2587985 0.036955457 -0.025394669
-0.016580753 0.07284677 -0.097830124 -0.059839536 -0.044949897 -0.010577365 0.042275146 -0.0003738024
0.0071741296 -0.026728168 -0.06938116 0.1251138 0.023852399 0.0011947236 0.028488843 -0.052393187
-0.024436196 0.0802468 -0.040992144 -0.19052482 0.04387866 -0.035656363 0.0033557436 0.04330432
-0.124396816 -0.036496695 0.07434927 -0.058599874 -0.002068533 0.052936934 -0.011239062 -0.0042956504
0.10886736 -0.041275986 -0.04290565 -0.04966408 -0.09183024 0.007145653 -0.006033346 -0.052238327
0.03183723 0.16270919 0.035331804 -0.010227669 -0.0082097305 0.022481373 0.08468955 -0.050388616
0.04336031 0.027716385 -0.027003707 -0.08523494 0.07411843 0.03125754 -0.021297736 -0.07470867
0.026105348 -0.0970796 -0.120522745 0.17873798 0.11825587 -0.01233719 -0.12560132 -0.029214596
0.02226332 0.06200362 -0.020095225 -0.122526824 -0.15155452 -0.08199484 0.08800623 0.064457364
0.0075442614 0.010084905 0.06892059 0.032059558 -0.022559565 0.06118632 -0.007590339 -0.051701106
0.08002298 -0.08208464 0.053226314 -0.010537527 0.056847397 0.008429835 0.0441172 -0.058472876
-0.048524223 -0.0679028 0.0688882 -0.044542708 0.03644867 0.062060986 0.02405172 -0.085790575
-0.016737815 -0.016530527 0.11001663 -0.046676558 -0.055825144 0.0061809793 0.0013939653 0.044091035
0.014902082 0.07534729 -0.0014368902 -0.06301652 -0.060107745 0.027511204 0.01891616 -0.030911708
-0.10197213 -0.01753327 0.009904513 0.044016056 0.08616738 -0.02420637 -0.07738465 0.12390071
0.040698152 -0.007827113 0.038355265 0.08314282 -0.07593619 -0.17303382 -0.021462569 0.05517359
-0.03290514 0.20073143 -0.052113317 0.03704852 -0.033930387 0.0029442236 0.013688553 -0.0813192

local_block.conv_chan.conv.0.bias f4 [8]
00000000: ec7b 65bd a3cb b0bc 4171 2b3d 7602 a43d
00000010: 8dd4 9c3c e57f 0b3d 7151 9c3d 3b62 bb3b
-0.056026384 -0.021581477 0.041856054 0.08008282 0.01914432 0.034057517 0.07632721 0.005718497

local_block.conv_chan.conv.1.weight f4 [8]
00000000: 1f7a 5b3f 58bd 813f 8c96 873f 6ac9 793f
00000010: 9104 693f 8214 8f3f 0df2 7d3f f045 7a3f
0.85733217 1.0135908 1.0592818 0.9757296 0.9102259 1.1178133 0.99197465 0.97762966

local_block.conv_chan.conv.1.bias f4 [8]
00000000: 0229 4cbe 8705 76be 3753 e3bd d685 6abe
00000010: 9503 57be 3ee8 30be f40d 2bbe 6b6e 44be
-0.19937518 -0.24025546 -0.11099856 -0.22902617 -0.2099746 -0.17276093 -0.16704541 -0.19182746

local_block.conv_chan.conv.1.running_mean f4 [8]
00000000: 88d8 2a3d 6c28 5fbd 1283 9bbd 740a e63d
00000010: 0890 1abd 64d2 f63d 321f 373e 19b9 6dbd
0.041710407 -0.05448191 -0.07593359 0.112324625 -0.037735015 0.120518476 0.17882994 -0.05803785

local_block.conv_chan.conv.1.running_var f4 [8]
00000000: 1387 253e 4a81 9f3d 6797 e93d 213f f93d
00000010: e83f 973e 9061 923d c6b7 043e 3a98 3e3e
0.16164808 0.07788332 0.11405831 0.12170244 0.29540944 0.07147515 0.12960729 0.18612757

tcn.network.0.conv1.weight f4 [16, 16, 16]
00000000: fcf3 59bd bb1f 81bd 381e 0abc 1642 80bd
00000010: 05a6 e9bc 7a60 7fbc 0c3d 183a 2d21 d5bc
00000020: 1db8 de3c 2b85 e9bc 84e6 cabc 8dd3 3dbd
00000030: 6faf 5fbd 98c3 0cbd 54a1 dabc 696e 0b3d
00000040: 52b5 1d3d 8fb8 cd3c ddc0 1bbc 1ef3 253d
00000050: 2deb 9cbc 75ea ba3c 96ba 06bc c5bc 553b
00000060: e7ae 7b3b 6e10 273c f1fc b13c 8ceb 913c
00000070: 4460 0dbc 124c b4bb 217d a6bc ecfe 463d
00000080: ff3a a4bc c7a2 a138 70d7 b4bc 66ac acbb
00000090: 3deb 833c b7c3 8f3d 32f4 c53d 4c1f 263d
000000a0: 6297 c33d 274c 013c 3aa1 68bc 20da e53c
000000b0: 5392 ecba 428b 9537 0f2a 1c3d 5f57 08bc
000000c0: d2bb 013c 236e ebbc c662 3b3b e582 4a3d
000000d0: 2c56 8f3c 2c30 253d 86a9 423d be00 fe3c
000000e0: 8134 133d ba48 94bc c37b 843b 6203 8abc
000000f0: 9735 18bd 9387 04bd 7f0f d83c 5269 3f3d
00000100: 737c c43c 7cc8 193d 51a2 ac3c 39e6 9b3d
00000110: ed17 8b3d 5b77 d93c 48bc 4f3c 7d0f eabb
00000120: ebe3 733d ca9b 94bb ade1 d83c a973 113d
00000130: 3299 f5bc 11e8 dc3c 6108 223d c9f9 993b
00000140: a736 1e3d 5b50 443d 6a10 743d db5f 963d
00000150: c96a 073d f73a f53b 6a8e 803c 19c7 8ebc
00000160: 7678 81bc c2f8 6ebd 66b3 62bc 2d91 5739
00000170: bca2 36bb e017 1a3d 1c43 a73d 987a ca3c
00000180: e3d7 383d a3fd eebc f029 8cbd e5c7 91bd
00000190: 44e3 eabc a4c7 56bd b342 08bd 769d 813c
000001a0: cfb3 cfbc fdb5 94bc 78d0 93bc b9fa d9bb
000001b0: 4da2 96bc 514f 2cbc 2f8e d93c cee2 d53b
000001c0: e45f 1a3b 5435 f73b bc49 ceb9 6dab b03c
000001d0: aeb9 e2bc 2cb5 873c e1e9 3836 f9b4 fd3c
000001e0: 2b44 e23c 44cc 90bc c789 18bc 250d 17bc
000001f0: f7d1 a7ba 87d5 4d3c da6e 033b 45f9 ea3a
00000200: 6fd8 c93c c984 f8bb 96fe d53c 8181 f8bc
00000210: 006b 1ebd 0b1c 1fbb ac1f b4bb 33c3 fbbc
00000220: 5b1c d8bc 22a0 113d a4e7 1b3c 6c78 163d
00000230: aa3d 9c3c 00ff dd3c 7df2 d73b b82b 29bd
00000240: 0103 a33b e53a f63c 63f8 543b 8cd2 76bb
00000250: c0a4 fbbb 5acf 6c3c f51f 4c3b 8b00 21b8
00000260: 5ae1 4fbc be0c c73c 50ed a53c 0301 103b
00000270: 6bbe d8bc 90e2 0fbc 32c8 883c 17f8 b73d
00000280: f60f 853d 2acc 0b3d c1af 373d 3ffd f6ba
00000290: 0056 323c 781b 103d f48e 6c3d c4de 773d
000002a0: c463 b0bb 0991 9cbc 6d59 bfba 2376 52bd
000002b0: ff2d 81bb caa8 dcbd 8339 6dbd 4350 12bd
000002c0: 27cc 59bd 9edf f8bc 37cc 11bd 99ac 4f3b
000002d0: 48c3 0b3c 80a7 03bd 4bf1 b13a f675 5fbc
000002e0: 50ee 773d 3726 1e3d 85ea 973c 4437 f2bc
000002f0: 06f1 123c 941b 16bd 898d cdbc bd23 b5bc
00000300: bbbb 2fbb 5909 ec3b ab91 983c 178c 20bc
00000310: 5e71 c1bc 63d6 1fbd aaae bdbc 4c75 2dbd
00000320: 95c2 8dbd 6a0d 83bd a160 b7bc 0c99 4f3a
00000330: c2c3 c5bc 1aa7 00bc 3e6f dfbd 64ab a1bd
00000340: 4e20 e4bd 9792 a9bc 1dfb c3bc a4f7 17bc
00000350: fe5b 5bbc 9c47 f03c 36f8 973d fd3f a23d
00000360: d9ad f13c 7742 02bb f0f3 8b3b 4532 f8bc
00000370: 4872 8abd 42ae 3bbd 2400 3dbc 2879 f4bb
00000380: eab7 8e3b 930d 15bd cfde 5e3c dfac 01bc
00000390: 4c49 b13c 297c 0d3d b314 263c 5b57 20ba
000003a0: 49e5 9bbd fd4b e2bc 81a1 57bd 1504 093d
000003b0: 4a83 b13b ecb7 ebbb eee1 10b9 7cba 1f3c
000003c0: 74d0 80bc 8beb 4dbd 7291 44bd a222 ebbc
000003d0: 7aeb fd3c 8623 afbc a45d 983c 6cb5 1c3c
000003e0: 017a 92bc 5b85 e33b b098 eabc fab4 b9bc
000003f0: a153 cfbb e6f0 f13c c2ef 0c3d 0326 473d
-0.053211197 -0.0630488 -0.008430056 -0.06262605 -0.028521547 -0.015586967 0.00058074365 -0.026016796
0.027187401 -0.028505882 -0.024768122 -0.04634433 -0.054610666 -0.03436622 -0.026688255 0.034040842
0.038503 0.025112418 -0.009506431 0.040515058 -0.01915511 0.022816876 -0.0082231965 0.0032613736
0.003840381 0.010196788 0.021727057 0.017812513 -0.008628909 -0.0055022324 -0.020323338 0.048582956
-0.020047663 7.707398e-05 -0.022075385 -0.005269575 0.016103381 0.070197515 0.09665717 0.04055719
0.09550358 0.007891691 -0.014198596 0.028058112 -0.0018048979 1.7827031e-05 0.038126048 -0.008321612
0.007918315 -0.02873904 0.002859281 0.049441237 0.017497145 0.040329143 0.04752495 0.031006213
0.035938744 -0.018101085 0.004043074 -0.016847316 -0.037160482 -0.032355856 0.026374577 0.0467313
0.023985123 0.037544712 0.021073492 0.07612271 0.06791673 0.026546171 0.012679167 -0.0071429596
0.05954353 -0.004535173 0.026474798 0.035510693 -0.029980276 0.026966127 0.039558772 0.004698966
0.03862634 0.047928195 0.059585966 0.07342502 0.033060823 0.007483836 0.015692908 -0.017428922
-0.01580451 -0.058342703 -0.013836717 0.0002055808 -0.0027867993 0.037620425 0.08167097 0.02471666
0.04512776 -0.029173678 -0.068439364 -0.07118205 -0.028672822 -0.052436486 -0.033266734 0.015822154
-0.025354294 -0.018153185 -0.018043742 -0.006652203 -0.018387938 -0.010516957 0.026557056 0.0065272814
0.002355569 0.007544199 -0.00039346318 0.021566117 -0.02767643 0.016565882 2.7554272e-06 0.030970084
0.027620396 -0.017675526 -0.009310192 -0.0092194425 -0.0012803663 0.012563116 0.0020055086 0.0017927071
0.024639336 -0.0075841886 0.026122373 -0.03033519 -0.038676262 -0.002427819 -0.0054969396 -0.030732727
-0.026380708 0.035553105 0.009515677 0.036735937 0.019072372 0.027099133 0.006590186 -0.04130146
0.0049747233 0.03005738 0.0032496683 -0.0037662117 -0.007679552 0.014453733 0.0031146978 -3.8385897e-05
-0.012688005 0.024298068 0.020254761 0.002197326 -0.026457986 -0.008782044 0.016697023 0.08982866
0.06497185 0.034130253 0.044845346 -0.0018843784 0.010884762 0.035182446 0.05775352 0.06051518
-0.0053829867 -0.019112127 -0.0014598795 -0.051382195 -0.0039422507 -0.107743815 -0.057916176 -0.035721075
-0.05317321 -0.030380066 -0.035595145 0.003168857 0.008530445 -0.032142162 0.0013575939 -0.013638964
0.060530007 0.038610663 0.018544445 -0.029567368 0.008968597 -0.036647394 -0.025091903 -0.022111768
-0.0026814777 0.0072032628 0.018624147 -0.009799025 -0.023613628 -0.039022814 -0.023154575 -0.04234819
-0.06921879 -0.06399043 -0.022384943 0.0007919229 -0.024141196 -0.00785234 -0.1090989 -0.07894018
-0.11138974 -0.020699782 -0.023923451 -0.009275351 -0.013388632 0.029331021 0.07420389 0.07922361
0.029501842 -0.0019876042 0.004271023 -0.030297408 -0.06760079 -0.045820482 -0.011535678 -0.007460732
0.0043554204 -0.0363899 0.013602926 -0.007914751 0.021641396 0.034542236 0.010136771 -0.00061165326
-0.07612092 -0.027624125 -0.052644257 0.03345116 0.005417262 -0.007193556 -0.00013817076 0.009749051
-0.015724398 -0.05027346 -0.04799027 -0.028703038 0.030996073 -0.021379244 0.018599339 0.009564739
-0.017880442 0.0069433874 -0.02863726 -0.022669304 -0.006327108 0.029533815 0.03440834 0.048620235

tcn.network.0.conv1.bias f4 [16]
00000000: 76ef 8b3b 1b0c 5439 00c4 ff38 1267 a736
00000010: 4491 95bc e123 86b6 32de 62b7 c309 37bb
00000020: 5b9c bb36 59f4 1a39 e261 9337 4897 04b6
00000030: 554f 44b3 5b9e bab6 4191 0c3b ea12 b83c
0.0042704893 0.00020222405 0.000121958554 4.988987e-06 -0.018257745 -3.997688e-06 -1.3522384e-05 -0.0027929402
5.5912365e-06 0.00014777611 1.7569346e-05 -1.975759e-06 -4.5706958e-08 -5.561667e-06 0.0021448883 0.022469956

tcn.network.0.bn1.weight f4 [16]
00000000: 2107 8f3f 2229 883f ac02 803f 1392 873f
00000010: ee95 8a3f 1bb2 883f 84c4 843f 97a7 903f
00000020: 6277 8f3f 01d0 903f dd82 903f b61b 923f
00000030: a987 853f fd20 8c3f 0fbb 833f a9b1 8d3f
1.117405 1.0637553 1.0000815 1.0591453 1.0827005 1.0679353 1.0372472 1.1301144
1.1208308 1.1313478 1.1289936 1.1414707 1.0432025 1.0947567 1.0291461 1.1069843

tcn.network.0.bn1.bias f4 [16]
00000000: 5c41 acbe f56d d3be 743b adbe e508 b8be
00000010: 5785 a3be cd2f a2be 2f29 c0be 9a50 97be
00000020: 6c87 80be 253d bebe 56aa cbbe d581 dcbe
00000030: 3f9e 99be 4740 c2be 3c1f 9cbe cff0 93be
-0.33643615 -0.41294828 -0.33834422 -0.35944286 -0.31937668 -0.31677094 -0.3753142 -0.29553682
-0.2510332 -0.37156025 -0.39778394 -0.43067804 -0.30003545 -0.37939665 -0.3049258 -0.2889466

tcn.network.0.bn1.running_mean f4 [16]
00000000: 2839 9bba e3a3 a9bd b017 67bc 2241 bb3c
00000010: 4aeb 3d3d 49d5 573c 2d9e 0fbd 029a 8ebd
00000020: ad2b cb3b f436 2ebc 3fd6 9a3d 83b0 48bd
00000030: ea92 29bd d79a 183d 91e0 b8bc ba70 883d
-0.0011842595 -0.08283212 -0.014104769 0.022858206 0.046366967 0.01317341 -0.035062958 -0.069629684
0.006200275 -0.010633219 0.075603954 -0.04899646 -0.041399874 0.03725704 -0.02256802 0.06662126

tcn.network.0.bn1.running_var f4 [16]
00000000: c040 503f fe60 223f 3d88 063f 0314 0f3f
00000010: 2507 073f cd67 3f3f ed3e 253f 5cbb 493f
00000020: 21cb 3b3f 2460 453f 4aae 5a3f 5da1 3a3f
00000030: 20ec 353f 9b9b 463f db28 443f 2a66 233f
0.813488 0.6342925 0.52551633 0.5588991 0.52745277 0.7476776 0.6454914 0.7880151
0.73356825 0.77099824 0.85422194 0.7290247 0.71063423 0.77581185 0.7662484 0.63827765

tcn.network.0.conv2.weight f4 [16, 16, 16]
00000000: 11df 8fbc 7e9f 243a 602c 35bd 90d5 4bbd
00000010: f743 40bd c0b6 0fbc 3775 c8bc 9025 2cbc
00000020: 8e25 e7bc 78da afbc cfa6 fdbb 91a2 923b
00000030: 44d0 043c 1f67 913c 5934 61bd ecf8 dbbc
00000040: b888 8a3d a61c 4d3d aa37 cf3c c7a5 433b
00000050: bf79 293c 56c0 3dbb 12de e73c 28a6 453d
00000060: bd20 7c3d 883e 4c3d f694 ba3d 7e1e d63d
00000070: 235d f03c 84ea 023d aa37 a2bc 499a e2bc
00000080: 9563 273c 17c6 dcbc a2ac 23bc ed87 e8bc
00000090: be26 c4bc e811 77bc d678 313c 481e 42bc
000000a0: ed8d f53c fc55 643c e4fd 973b ce8b 9c3c
000000b0: 011e b9bb 47a5 3abc 8c3a 2cbd b079 56bd
000000c0: 4e4e 9bbb e143 7b3c 5b00 dd3c cb1c e83b
000000d0: 582e fa3b 9344 abbb b66f acbc e591 1a3c
000000e0: e234 113c 2c25 4bbc 3081 b1bc 58bd 38bd
000000f0: 28e1 c5bc bac7 f4bb 10ef 4ebc 327f 90bc
00000100: 7f5b 4abb cbf3 a839 8d63 02bd df24 083b
00000110: 9ca6 71bd 6ea5 eabc c4c5 ee3b 5bc6 20bc
00000120: dccb d7bc befc 25bc 88ad 233d 2599 7dbc
00000130: e4b7 fbbc eb15 33bd ad68 f1bc 2745 81bd
00000140: a4da 80bd b4fb b3bc 066b e0bb 8008 2c3b
00000150: fb15 b13b b3f5 b63c 6abb 3a3b 7711 d0b9
00000160: 2dbf e83c c501 1b3d 343f f83c c3ca 643d
00000170: 9eed deba 9997 ea3b 014c 8dbd 06a2 a6bd
00000180: c060 1c3d 8344 303c 1042 263d e603 a73c
00000190: 0f26 1a3d 0226 433d 7799 f13c 716a 483d
000001a0: 0e5a a83c 4eeb b03c bf7b 483d ac77 d4b9
000001b0: 03fe 363d cd55 543d 8d08 013d 46db a03b
000001c0: 41c5 f9bb f433 d9bc 35fc ccbb 9261 cebc
000001d0: 46ac 583c 9253 063c 8ea5 84bc b59c b53c
000001e0: b945 aebc dc68 0ebd 52f5 5bbd 3581 7bbc
000001f0: 5876 b3bd 56b1 66bd 51a9 eabd c446 9abd
00000200: 3c95 20bd e27e 57bd 21dd 5bbd e3c3 78bd
00000210: 0083 04bd d90f 2ebd 0f54 e33b 852b 53bc
00000220: 446f 223c 6fd0 8b3c b373 23bb b964 203d
00000230: 4ee4 163d f8b3 24bc 260e 31bc 212c 083c
00000240: a675 7bbc 9612 22bd 6cbf fabc 2d50 4dbc
00000250: 8ad2 fabb 49b4 4bbd 45c6 803b 7af1 9fbc
00000260: f34a c3bc 9aac debc d026 2fbd cc94 d13b
00000270: bad8 65bc 2cf3 debb 8c74 edbc aa24 ecba
00000280: 0d57 413d d31a 803d adf9 863b cfd4 473d
00000290: 6581 0e3d 9773 5abc 81d3 ca3c e148 88bc
000002a0: beac acbb 1b5f e9bc 973a 18bd af11 27bc
000002b0: 4f2a 9dbc ba6f 3cbc 782e 93bd f022 e6bc
000002c0: cc7c b73c 5df2 7dbc c63d 35bd 612b c5bc
000002d0: 0550 f1bb 1048 1dbd 01c5 5dbc 0dd4 2e3c
000002e0: e295 16bb dca3 eb3b f3ba 6e3d 0cb7 b33c
000002f0: 6bf9 0b3d b050 653d e6ab 5f3d 596d de3d
00000300: 7553 f13c 22fd 5d3c cac1 0fbc c18e 633c
00000310: 291c 273c dc04 233c 8a9e 2fbb d0ad 92bc
00000320: 4c58 2d3b 81dd 2cbb 635a 2d3d 1c95 ecba
00000330: 9cbc f33a 19f1 953b c903 fbba 0858 8dbc
00000340: 6285 473d 5c00 133d 423a 2c3d 8881 b83c
00000350: 8b58 23ba d847 a83b 0a85 48bc 6487 b7bc
00000360: dc2d a0bd 3923 92bc c43c 36bd bb99 42bc
00000370: b408 743c ce89 143d 663c 103d eb8e b13d
00000380: d018 15bd dc89 73bc 3c2e 29bc 7756 a63c
00000390: 13ff 033c 84ee fe3c 00ca 4aba c0be 713b
000003a0: d071 7a3a 9116 48bd 0495 2ebc 1898 eabc
000003b0: 0ca7 d7bc 6c90 b53b abf6 2bbd 78a7 6ebd
000003c0: 8a97 d9bd 29bc 56bd f8a1 82bd c427 15bd
000003d0: 1859 eebc 91f5 acbb 79ea a2bb 9e6f 033d
000003e0: ad08 173c 3c41 cfbc 2be5 75bd f1dc d8bd
000003f0: fbd2 37bd cdd1 56bd 099c 16bc ad82 babc
-0.017562421 0.00062798697 -0.044231772 -0.049764216 -0.046939816 -0.008771598 -0.024469955 -0.0105070025
-0.02821615 -0.021466479 -0.0077408324 0.004474946 0.008106295 0.017749367 -0.054981563 -0.026852094
0.06764358 0.05007615 0.025295097 0.002985345 0.010343968 -0.0028953752 0.028304134 0.048254162
0.06155466 0.049864322 0.09110443 0.10455035 0.029341286 0.031961933 -0.019801933 -0.02766146
0.010216613 -0.026949925 -0.009989889 -0.028385127 -0.023944255 -0.015079953 0.010832032 -0.01184804
0.029974902 0.013936516 0.0046384204 0.019109633 -0.0056493287 -0.011391944 -0.042048022 -0.052362144
-0.0047395593 0.015336008 0.026977709 0.0070835105 0.007634919 -0.0052266805 -0.021049362 0.009434198
0.008862706 -0.012398999 -0.021668047 -0.045102447 -0.024155214 -0.0074700983 -0.012630239 -0.017638776
-0.003087729 0.00032225097 -0.03183322 0.002077393 -0.05899678 -0.028643336 0.007286759 -0.009812917
-0.026342325 -0.010131059 0.039960414 -0.015478407 -0.030727334 -0.043722074 -0.029468859 -0.06312018
-0.062917024 -0.021970607 -0.0068486957 0.0026250184 0.0054042316 0.022333955 0.0028493055 -0.00039685864
0.028411472 0.037843484 0.030303575 0.05585743 -0.0017008071 0.007159185 -0.06899262 -0.08136372
0.038178205 0.010758522 0.040590346 0.020387601 0.03763395 0.04764367 0.029492123 0.048929635
0.020550754 0.021596577 0.04894614 -0.00040524954 0.04467584 0.05183964 0.031502295 0.004908952
-0.0076223915 -0.026514031 -0.0062556514 -0.02519301 0.013224667 0.008198636 -0.016192224 0.02216945
-0.02127348 -0.03476797 -0.053700753 -0.01535063 -0.08762807 -0.056321464 -0.11458076 -0.07533029
-0.03920482 -0.05261124 -0.05367768 -0.060733687 -0.032351494 -0.042495582 0.006937511 -0.012888794
0.009914223 0.017067162 -0.0024940788 0.039158557 0.036838822 -0.0100526735 -0.010806596 0.008311302
-0.015347874 -0.039568506 -0.030608855 -0.012531322 -0.0076544927 -0.04973248 0.0039298856 -0.019524325
-0.02383945 -0.027181912 -0.042761624 0.006395912 -0.014028722 -0.0068038907 -0.028986238 -0.0018016298
0.04720216 0.06255116 0.004119119 0.048786934 0.03479137 -0.013333223 0.024759056 -0.016636314
-0.005269616 -0.028487733 -0.03716525 -0.010197087 -0.019185213 -0.011501247 -0.071865976 -0.028092831
0.022398375 -0.015499678 -0.044248365 -0.024068536 -0.0073642754 -0.038398802 -0.013535739 0.010670674
-0.002297752 0.0071911644 0.058283757 0.02193787 0.03417341 0.055985153 0.054607294 0.108607
0.02945874 0.013549121 -0.00877423 0.013889016 0.010199585 0.009949889 -0.0026797378 -0.017905146
0.0026450334 -0.0026377144 0.042322528 -0.0018049809 0.0018595639 0.00457586 -0.0019150908 -0.01725389
0.04871119 0.035889015 0.042047746 0.022522703 -0.00062311505 0.0051355176 -0.01223875 -0.022403426
-0.07821247 -0.017839061 -0.044491544 -0.0118774725 0.014894653 0.036264233 0.03521385 0.086698376
-0.036400616 -0.014864411 -0.010325965 0.020304902 0.00805642 0.031119592 -0.0007735789 0.0036887378
0.00095537025 -0.048849646 -0.010655645 -0.028636977 -0.026324771 0.005540898 -0.041983288 -0.05826518
-0.10624607 -0.052425537 -0.06378549 -0.036414877 -0.029095218 -0.0052782972 -0.004971799 0.03208887
0.009218377 -0.02529966 -0.060033005 -0.10589016 -0.04487894 -0.052446175 -0.009192475 -0.02276739

tcn.network.0.conv2.bias f4 [16]
00000000: 0a01 f535 1adc 543b 7f87 d6b9 056f 443d
00000010: ebd0 a8bb 770f 0d3b a618 853b 2e48 8f3a
00000020: 635d 643d aa85 7a3c 634a 6836 2b7e 91bc
00000030: 3f07 6fbb 1f23 dc3a 7c40 a5b6 e9bd 0abb
1.8254225e-06 0.0032479824 -0.00040918213 0.04795744 -0.005151858 0.002152411 0.004061776 0.0010931545
0.055753123 0.015290657 3.4613993e-06 -0.017760357 -0.0036472825 0.0016795135 -4.92489e-06 -0.0021170324

tcn.network.0.bn2.weight f4 [16]
00000000: 0000 803f 0000 803f 0000 803f 0000 803f
00000010: 0000 803f 0000 803f 0000 803f 0000 803f
00000020: 0000 803f 0000 803f 0000 803f 0000 803f
00000030: 0000 803f 0000 803f 0000 803f 0000 803f
1.0 1.0 1.0 1.0 1.0 1.0 1.0 1.0
1.0 1.0 1.0 1.0 1.0 1.0 1.0 1.0

tcn.network.0.bn2.bias f4 [16]
00000000: 0000 0000 0000 0000 0000 0000 0000 0000
00000010: 0000 0000 0000 0000 0000 0000 0000 0000
00000020: 0000 0000 0000 0000 0000 0000 0000 0000
00000030: 0000 0000 0000 0000 0000 0000 0000 0000
0.0 0.0 0.0 0.0 0.0 0.0 0.0 0.0
0.0 0.0 0.0 0.0 0.0 0.0 0.0 0.0

tcn.network.0.bn2.running_mean f4 [16]
00000000: 0000 0000 0000 0000 0000 0000 0000 0000
00000010: 0000 0000 0000 0000 0000 0000 0000 0000
00000020: 0000 0000 0000 0000 0000 0000 0000 0000
00000030: 0000 0000 0000 0000 0000 0000 0000 0000
0.0 0.0 0.0 0.0 0.0 0.0 0.0 0.0
0.0 0.0 0.0 0.0 0.0 0.0 0.0 0.0

tcn.network.0.bn2.running_var f4 [16]
00000000: 0000 803f 0000 803f 0000 803f 0000 803f
00000010: 0000 803f 0000 803f 0000 803f 0000 803f
00000020: 0000 803f 0000 803f 0000 803f 0000 803f
00000030: 0000 803f 0000 803f 0000 803f 0000 803f
1.0 1.0 1.0 1.0 1.0 1.0 1.0 1.0
1.0 1.0 1.0 1.0 1.0 1.0 1.0 1.0
