model/Benchmark/DTCNet_1.2s_S14.pth (torch, 197175 bytes, 74 tensors)

global_block.conv_time.conv.0.weight f4 [8, 1, 1, 125]
000000 36 d6 83 bb e4 6c 85 3c 83 d3 7d 3b bc 99 7f 3b
       -0.0040233387 0.016287275 0.0038730807 0.0039001545
000010 a0 48 05 bc cb b0 c5 3c dd 07 46 bc 16 24 19 bb
       -0.008134991 0.024132153 -0.012086836 -0.0023367456
000020 28 15 93 3b bd d2 de bb 9e a1 09 3c 14 c1 2b bc
       0.004488606 -0.0068000243 0.008400349 -0.010483045
000030 b1 74 03 3a 99 e9 00 3c 85 4b 79 bc e8 5c 01 3b
       0.0005014642 0.007868194 -0.015215759 0.0019739214
000040 04 bb 61 bb f1 2f 6d 3c 97 30 92 bc bf ed 94 ba
       -0.0034443745 0.014476762 -0.017845435 -0.0011362358
000050 d6 1b c4 bb 2d 85 d6 bc dd 89 d2 bc a8 53 ad 3a
       -0.0059847636 -0.02618655 -0.025700504 0.0013223784
000060 0f 35 95 3c ba ba 86 3b c6 d5 86 bb 28 fd 51 3c
       0.018213777 0.004111615 -0.0041148392 0.012816705
000070 de 2d 17 3d 43 2a c3 bc 9d c2 bc 3b 9c 6b a7 bb
       0.036908977 -0.023823863 0.0057605044 -0.0051092636
000080 a5 7a af 3c 25 cb 91 bc 09 ec 46 bc 41 88 a0 b8
       0.021420786 -0.017797062 -0.012141236 -7.654774e-05
000090 d4 be 47 3c e7 e6 d7 3a 86 be 0f 3d d4 e8 aa bc
       0.012191493 0.0016472013 0.035093807 -0.020862974
0000a0 c5 50 e7 b9 ed cd 2d bd 17 8b d8 3b d9 64 fa 3b
       -0.0004411993 -0.042432714 0.0066083777 0.0076414165
0000b0 90 73 2b bc 4d de 98 3c 12 13 83 3a 7d 37 ae bc
       -0.010464564 0.018660689 0.001000019 -0.021266693
0000c0 fe 0b bd 3c 8f cb 04 3d 9c 46 a5 3c cd d2 e4 3b
       0.023077007 0.03242069 0.02017527 0.006983137
0000d0 c2 67 5b bc 92 01 6c ba 78 8a bf 3c 54 10 d9 bc
       -0.013391437 -0.00090029195 0.023381457 -0.026497044
0000e0 35 97 20 bd b4 fd 44 bc ef d3 d9 bb 94 d5 e4 bb
       -0.039206702 -0.012023378 -0.006647579 -0.0069834683
0000f0 dd 5f 3b bb 1d 2a b3 3c 2e 12 b9 3c 82 bf 7d bc
       -0.0028591075 0.021870667 0.022591677 -0.015487554
000100 5f f8 4c 3a 42 43 08 bb 0e 24 8b 3c 63 02 04 bd
       0.00078189926 -0.0020792042 0.016984966 -0.03222884
000110 f9 1c b2 bc 59 ac fd ba 20 26 af ba 91 0b bc 3a
       -0.02174233 -0.0019353732 -0.0013362803 0.0014346709
000120 3a e8 c0 bc 7c 75 b0 3c 18 3a e9 3a 95 0b 3d bc
       -0.023548234 0.021540396 0.0017793803 -0.011538406
000130 1e 4b f7 ba ab b3 e3 3c 07 22 a0 3d 76 4f 28 3b
       -0.0018866991 0.027795633 0.0781899 0.0025682128
000140 84 cc db ba 67 37 96 3c ba 63 08 bb 86 3a a0 3b
       -0.0016769324 0.018336965 -0.0020811395 0.004889789
000150 8c da 69 bd 21 c5 e5 39 50 0f 37 bc 97 a3 55 bd
       -0.05709319 0.00043825156 -0.011173084 -0.052157965
000160 e9 cd 31 bd f9 01 da bc f7 29 10 bd 50 81 c9 bb
       -0.04340926 -0.026612269 -0.03519627 -0.0061494485
000170 2f 71 13 bd e1 a2 b1 bc 1c 6d 98 3c 96 29 dc 3a
       -0.035996612 -0.021684112 0.018606715 0.0016797062
000180 87 e2 d1 3c 18 01 45 3d 66 c5 c1 3c f0 f5 fb 3b
       0.025620712 0.048096746 0.023653697 0.00768923
000190 ee c2 c0 3c 61 f7 f9 3c 62 20 a9 bb 92 1c 18 bc
       0.02353045 0.030513467 -0.005161331 -0.009284155
0001a0 92 f5 d9 3c ba 2d 9d 3c d2 5b 97 ba aa 8b 98 bc
       0.026606355 0.019186843 -0.001154775 -0.018621285
0001b0 e3 66 c3 bc 7c 8d 0d bd de c3 36 bc 7c 88 d2 bc
       -0.023852771 -0.03455876 -0.011155097 -0.025699846
0001c0 c7 28 c6 bc ad 30 f0 bc 9d 18 3c 3c 72 1d 8b 3c
       -0.024189366 -0.029320085 0.011480478 0.016981814
0001d0 83 cf a3 bc 36 82 fd bc 94 34 63 bb c8 4a 02 bc
       -0.01999641 -0.030945878 -0.003466879 -0.0079524
0001e0 01 a4 2f bd ed 84 45 3b 33 9a b6 3c ae cb 5a bc
       -0.042881016 0.0030139044 0.022290325 -0.013354225
0001f0 10 86 99 3c d4 8a 33 ba 76 85 c3 bc 8e 91 05 bd
       0.018740684 -0.0006848995 -0.02386735 -0.032609515
000200 f0 57 af 3c d5 e7 55 bb 67 8d fa 3c 23 36 7b 3c
       0.021404237 -0.0032639403 0.030585004 0.015332731
000210 d6 4e a0 3c d4 cd 41 bc a8 b4 8a bb e2 2a 36 3c
       0.019568842 -0.011828858 -0.0042329617 0.0111186225
000220 88 2c 86 3b 58 ce 14 bc 04 39 0e 3c 22 34 63 3d
       0.004094664 -0.009082399 0.008680586 0.05546964
000230 9c c8 c0 bc 29 04 c1 3c 0d 8b 12 bc 32 94 f1 ba
       -0.023533158 0.023561554 -0.008944285 -0.0018431006
000240 50 fe 90 3c 77 50 23 bd 82 da 9e bc cf 03 1f 3d
       0.01769939 -0.03987166 -0.019391302 0.03882199
000250 ef 39 01 3c 7a 6a cd bc 1f a3 e5 ba 0e a0 85 3d
       0.007887348 -0.025075186 -0.0017519927 0.06524669
000260 00 99 e0 3c 5c 07 61 3c 46 86 0f bd 0f 22 a7 3b
       0.027416706 0.013734665 -0.035040163 0.0051004956
000270 de 2c a9 3a 7e 28 48 bb 3e dc 7c 3c c6 8e 38 bb
       0.0012907048 -0.0030541713 0.015433369 -0.0028161271
000280 a6 4f 4c ba 6e fe 10 3b c5 04 bd 3c c6 eb 77 3c
       -0.0007793851 0.0022124308 0.023073563 0.015131896
000290 d8 5a 47 bc 74 07 ce bc e2 81 b2 bc 4a 71 61 bc
       -0.012167655 -0.025150038 -0.021790449 -0.01375992
0002a0 8c ec b0 3c 2a 6c ae 3c 85 72 ae 3b 9a f4 07 bc
       0.02159717 0.021291811 0.0053237104 -0.008298064
0002b0 3a 6b 5c 3d 41 22 bf 3c 0b c4 02 3c d9 fc d9 3c
       0.053813197 0.023331763 0.007981311 0.026609825
0002c0 10 a2 31 bc 50 02 5e bc 7c b3 91 bc 7a 43 c3 bb
       -0.010841861 -0.013550356 -0.01778578 -0.0059589716
0002d0 fa 45 5c bd 8d 8b 60 3a 51 1c b0 bc 8b 14 5f 3c
       -0.053777672 0.00085657166 -0.021497877 0.013615738
0002e0 62 ad 26 ba ea 70 eb 3c 69 84 13 3d 72 e3 94 3c
       -0.00063582335 0.028740365 0.036014948 0.01817486
0002f0 b5 bd 88 3d 8b 6d e5 bc c3 5d ae ba e3 74 20 bd
       0.06676809 -0.028006336 -0.001330309 -0.03917397
000300 96 b6 78 bc 6d c0 e4 bc 07 b2 0c bb 1a 1c 95 3c
       -0.015180251 -0.027923787 -0.0021468417 0.018201876
000310 4e 38 d0 3b de 74 8a 3b a2 10 1c bb c5 a1 ea 3c
       0.0063543683 0.0042253574 -0.0023813625 0.02864159
000320 8b 3a df bb 11 6f fe 3c d1 db 7f bc d4 1d c3 3c
       -0.006812399 0.03105882 -0.015616373 0.023817934
000330 14 4d 5c 3d 09 4b 72 3d 40 85 2a 3d 45 00 90 3c
       0.053784445 0.05915359 0.041630983 0.017578254
000340 dd c3 0b bd b3 39 47 bc 35 ae ef bb 21 76 53 bd
       -0.034122337 -0.012159753 -0.0073144683 -0.05162633
000350 fc c3 d1 bc 16 8f 2d bc 53 af 74 bd a9 c5 1d bd
       -0.025606148 -0.010593196 -0.059737515 -0.03851858
000360 c0 d8 ee bc 28 f5 06 bb 52 0a e9 bb 06 9a d7 3c
       -0.029156089 -0.0020592902 -0.007111826 0.026318561
000370 12 4c 7b 3b 1e a7 1e bd 87 e8 a9 bc 98 da e7 3a
       0.0038344902 -0.038733594 -0.02074076 0.0017689047
000380 c0 9b 22 bd ec 7b d0 3c ed cb 13 3b 58 dc ab 3c
       -0.039699316 0.025449716 0.002255197 0.020979092
000390 76 13 be bc 42 70 97 bc 6d f9 c5 3c 89 16 20 bd
       -0.02320264 -0.018486146 0.024166787 -0.03908399
0003a0 fb 27 29 bd ea 19 f8 3b d1 f2 e4 3a 9a 3a 63 bd
       -0.041297894 0.0075714486 0.0017467384 -0.05547581
0003b0 c7 73 1a 3d bb cf ad 3c 7d 5b 8e 3d 79 97 80 3b
       0.03770807 0.021217218 0.06951044 0.003924307
0003c0 29 44 61 bc 48 5c 3a bc 5e ae 05 ba bb 35 84 bc
       -0.013749161 -0.011374541 -0.000509953 -0.016138902
0003d0 8d 9b 8a 3a 52 be 65 bc 84 1b 24 bc a0 d1 cc bb
       0.0010574922 -0.014022427 -0.010016326 -0.006250575
0003e0 85 7c 5a bc 2e fe 5c bd 95 7c 18 3c 3d 06 f1 bc
       -0.013335352 -0.053953342 0.009307046 -0.02942192
0003f0 d0 bf 82 3c 8e 98 d6 3c 0d f4 68 bc 51 86 fc 39
       0.015960604 0.02619579 -0.0142183425 0.0004816526

global_block.conv_time.conv.0.bias f4 [8]
000000 16 3c eb b9 47 c5 5d 3c 5f f0 6c 37 b1 1e 33 3b
       -0.0004486746 0.013535804 1.4122662e-05 0.0027331526
000010 56 93 24 bc 68 23 48 bc e5 d6 03 b1 d6 af 8a 2f
       -0.010044893 -0.012215473 -1.9185162e-09 2.5226993e-10

global_block.conv_time.conv.1.weight f4 [8]
000000 9e b4 5e 3f 00 80 6b 3f 86 35 72 3f a1 2a 5b 3f
       0.8699435 0.9199219 0.9461292 0.8561192
000010 d3 7f 6a 3f 62 5f 5d 3f 67 de 68 3f d7 32 70 3f
       0.91601294 0.8647367 0.9096436 0.93827575

global_block.conv_time.conv.1.bias f4 [8]
000000 f3 d7 1e 3b 9a 5e 18 bb 2e ba 84 3b 19 23 0d bd
       0.0024237602 -0.0023249746 0.0040505147 -0.0344573
000010 a9 f0 60 b9 af 8d 09 bb 62 e7 dc ba ba dc 49 3b
       -0.00021451958 -0.002098899 -0.0016853625 0.003080173

global_block.conv_time.conv.1.running_mean f4 [8]
000000 30 5c 25 bb 80 39 7b 3c 5a 1a 7a 3b a0 36 ce 3a
       -0.002523195 0.015333533 0.003816268 0.0015732832
000010 bc e6 29 bc 62 3d 72 bc 5f 54 0a 3b e5 c7 3e 39
       -0.010369953 -0.014785143 0.0021107418 0.00018194279

global_block.conv_time.conv.1.running_var f4 [8]
000000 22 1b 61 40 c6 55 6e 40 c0 6a da 40 65 9b 1e 40
       3.517281 3.7239852 6.825531 2.4782345
000010 f1 9c 76 40 ba d4 58 40 01 70 7f 40 31 f7 92 40
       3.853329 3.3879838 3.9912112 4.5926747

global_block.conv_chan.conv.0.weight f4 [8, 8, 11, 1]
000000 91 07 e8 bc 87 9c 20 3c 3d 69 a6 3b 70 d5 8b 3b
       -0.02832392 0.009802944 0.0050784633 0.004267387
000010 22 6b 3c 3c 2e c1 aa 3c 5f 4f f9 3c 20 9b 01 bd
       0.011500152 0.020844068 0.030433355 -0.03164208
000020 4a bf 9b b8 83 51 56 bd a8 72 14 3d 99 a0 0a 3d
       -7.426606e-05 -0.05232383 0.036242157 0.033844564
000030 3b dd a8 bc e6 c5 cd 3c 3e ab e4 3c 43 57 c4 bc
       -0.020613303 0.02511878 0.027913686 -0.02396739
000040 ec ee ad bc 72 3e a3 bb 35 9c e0 bc 10 e3 9b 3d
       -0.02123209 -0.0049818093 -0.027418235 0.07611668
000050 81 39 e4 bc 15 e0 b9 3c dc d1 0d bd 06 7c 70 3c
       -0.027859451 0.022689858 -0.034623966 0.014678007
000060 05 fe f1 3c 53 da 89 bd 53 49 a9 3b d8 e2 25 bd
       0.029540071 -0.06731095 0.0051662116 -0.04049954
000070 0c 0a 2d 3d d7 ed 62 bd 07 bd a2 bd fc 46 bb bc
       0.04224591 -0.055402603 -0.0794621 -0.022860996
000080 52 c6 85 bc 9e 3b 5a 3d cd d5 7a bc c2 e9 61 bd
       -0.016329918 0.05327951 -0.015309763 -0.05515457
000090 16 3d 78 bc aa a8 ce 3a 1f d5 4a 3c 74 44 6a 3b
       -0.015151283 0.0015766819 0.012379914 0.0035746368
0000a0 2a 64 dc bd 7a 92 56 bd 73 30 38 3d 21 ef 23 3d
       -0.10761292 -0.052385785 0.04496808 0.040022973
0000b0 41 d1 d0 bc 20 3f c4 3b f1 b0 b5 bc 51 49 26 bd
       -0.025490405 0.0059889704 -0.022179099 -0.040597264
0000c0 d3 27 af bc 45 6e 2e bc f1 07 01 3d f7 84 09 bc
       -0.021381294 -0.0106464075 0.031501714 -0.008393518
0000d0 13 c6 84 3d 19 b5 cd ba 19 5f 96 bd 1e 81 53 39
       0.06483092 -0.001569423 -0.07342357 0.00020170628
0000e0 3b 68 c6 3c 35 e3 a7 3d 16 2f ca bc 6e 63 b0 bd
       0.024219623 0.08197633 -0.024680655 -0.08612715
0000f0 d9 07 16 3d 9f a1 77 3d 42 0f 72 3d 11 62 c7 bc
       0.036628578 0.06045687 0.059096582 -0.024338754
000100 06 a3 87 3d 18 41 56 bd 1e 15 92 3c e4 fa 62 ba
       0.06622891 -0.052308172 0.017832335 -0.00086586014
000110 eb 0e d4 3c a4 fd 9b bc 1f 60 a7 bb c8 11 48 bd
       0.02588602 -0.019041844 -0.005107894 -0.048845083
000120 fc a8 bf 3b 1d dd 9a bb de 02 d1 3c 16 3b a1 3d
       0.005849002 -0.004726066 0.025514062 0.07872598
000130 88 0d 3e ba c8 fc 63 bd 27 3b 85 bc e2 4b 0e bd
       -0.0007249941 -0.055660993 -0.016263558 -0.034740336
000140 1a 4d a2 3c a7 f4 62 bd f3 75 50 3d 7c c0 eb 3c
       0.019812156 -0.0554091 0.050893735 0.028778307
000150 62 54 a8 bc 54 8c 3d bc f6 28 19 bd fd 27 f0 bb
       -0.02054805 -0.011569101 -0.03739258 -0.0073289857
000160 5d 7d a6 3c 85 97 0b bd d1 b1 ce bc ac d4 97 3c
       0.02032345 -0.034080047 -0.025231274 0.018534027
000170 4f e1 1b 3c 63 32 61 bc cf dd 8d bb c7 5e 69 bc
       0.009514167 -0.013744923 -0.00432942 -0.014243788
000180 c5 09 52 3d b0 13 11 3d ce 6d 64 bc fd 8b 39 bc
       0.05127885 0.035419166 -0.013942195 -0.01132488
000190 fe 0f 2e bd c6 2d bb 3a 91 b5 98 bb e4 bc 1d 3d
       -0.04249572 0.0014280609 -0.0046603163 0.03851022
0001a0 1f 57 ab bc b2 ef 23 bd db 6c 59 3d f5 2a 4f 3d
       -0.020915566 -0.040023513 0.05308233 0.050578076
0001b0 c1 a5 ee 3a 05 96 d1 bb a5 76 8e 3d d0 fa bc bd
       0.0018207357 -0.0063960575 0.069562234 -0.09227526
0001c0 86 12 ec bc 87 45 69 bc 66 65 64 3d 94 34 4f 3d
       -0.028817426 -0.014237768 0.055760764 0.05058725
0001d0 b3 30 82 bd 92 5d a6 bd 76 cf a7 bd dd 57 a4 3d
       -0.06356945 -0.08123316 -0.08193867 0.08024571
0001e0 5a d2 ad 3d 1e bb 0a 3b b1 35 50 ba c5 b9 c5 bc
       0.08487387 0.002116866 -0.0007942571 -0.024136433
0001f0 ce 0d 70 3b d9 0e eb 3b cc d4 ce bc c6 5c 44 3c
       0.0036629322 0.007173401 -0.025247954 0.01198501
000200 2b ae cc 3d be 92 36 3d 86 2c 9e bd 28 76 8d bd
       0.099941574 0.044573538 -0.07723336 -0.06907302
000210 f2 99 99 3c 29 fe 3e 3d 94 d0 a7 3c 63 e6 86 bd
       0.018750165 0.046629105 0.0204852 -0.065869115
000220 33 a4 b2 bc c4 18 56 bd 42 26 1d 3d 4f 6a 95 3d
       -0.021806812 -0.052269712 0.038366564 0.072956674
000230 9c 2f ab 3d 00 fd a0 bc ae e5 18 bd 10 11 35 bc
       0.0835869 -0.01965189 -0.037328415 -0.011051431
000240 2e b5 6e 3d b5 68 1b 3d df ae a4 bb 54 8d ad bd
       0.058278255 0.037941653 -0.005025729 -0.08474222
000250 f3 7c 09 bc ab 96 55 3d 3c 92 b6 bb 70 ec a1 bc
       -0.008391607 0.05214564 -0.0055716317 -0.019766062
000260 b1 01 ca bc ba 9a f0 3c 80 8e 8a bc 7b 81 48 bd
       -0.02465901 0.029370654 -0.016913652 -0.048951607
000270 d1 d8 09 bd 4d b7 99 3d 4a 3d c9 3c 98 dd e8 ba
       -0.033654038 0.07505665 0.024565358 -0.0017766235
000280 bb d8 a1 39 cf d5 b9 bc 4d 34 81 bb 7c ea bf bb
       0.0003086979 -0.02268496 -0.0039430023 -0.00585681
000290 bf 0d a7 3d 26 9e 16 bc 5f 92 8c 3b 97 2c e7 b9
       0.08156919 -0.009192979 0.0042899097 -0.00044092975
0002a0 02 05 e8 bc a9 81 95 bd 2a 83 24 bc de 18 14 bc
       -0.0283227 -0.07300121 -0.010041038 -0.009039132
0002b0 b0 19 ec 3d 27 78 01 3c 9d 03 01 bd 2d 4e c8 bc
       0.11528337 0.007902182 -0.031497587 -0.02445134
0002c0 0b 66 14 bd 2e ca e6 bc 06 dd b9 bd cb d3 de 3c
       -0.03623013 -0.028172579 -0.0907536 0.0272006
0002d0 97 cd 87 3d 1d 3f bc 3c 5f 05 cb bd 4a e7 0b 3d
       0.0663101 0.022979314 -0.09913134 0.03415612
0002e0 29 be 6f 3c 27 44 e7 3c 0f 0e d9 3b 88 d2 6d bd
       0.01463274 0.02823074 0.0066239904 -0.058062106
0002f0 1a e8 cf bd 0f a8 e3 bc 9e fc cb 3c 86 14 63 3d
       -0.10151692 -0.027790098 0.02490073 0.055439495
000300 1a e6 2f bb b5 56 b8 bc ce ab 6e 3d 5e 91 82 3d
       -0.0026840032 -0.022502283 0.058269314 0.06375383
000310 08 77 0d bd 22 15 49 3d f9 e5 ed 3c ca ba d9 3d
       -0.034537345 0.04909242 0.029040324 0.1063133
000320 b6 6b c5 bd b1 7a 1d bd 15 d5 32 bd fb e3 a7 bd
       -0.09639685 -0.038447086 -0.043660242 -0.08197781
000330 45 1c 07 3d 7b ad b0 3d 07 95 8b 3d 98 ec fb bc
       0.032985944 0.08626839 0.06815534 -0.030752465
000340 c2 8d b0 3c 90 02 89 3c 32 91 8e bc 7a 89 eb bc
       0.02155197 0.016724855 -0.017403219 -0.028752077
000350 47 04 10 bd 18 8e bd bb 35 78 f1 bc da 11 90 bc
       -0.03516033 -0.005784761 -0.029476264 -0.017586637
000360 00 20 b9 3d e0 12 2b 3d cc 4a f6 bc 52 21 85 bd
       0.09039307 0.041766047 -0.030064963 -0.06500496
000370 57 ce 11 bc 2f 13 66 bd e1 5f 56 3d 75 98 6d 3b
       -0.008899293 -0.05617064 0.05233753 0.0036254202
000380 fa 98 f5 3b c2 71 3d 3d 99 95 95 bd 4e c9 76 3d
       0.007495043 0.046251066 -0.07303924 0.060250573
000390 66 db c1 b9 79 d9 21 bb 61 cc b5 3c af ba 71 3a
       -0.00036975293 -0.0024696274 0.022192182 0.00092212384
0003a0 34 57 8b 3c ea 37 31 3c c8 30 33 3c ac 7a bb bc
       0.017009355 0.010816554 0.010936923 -0.022885643
0003b0 20 9c d1 3c d6 4b 92 bd 90 8e 17 bd f7 33 9b bd
       0.025587142 -0.07143371 -0.037001193 -0.07578271
0003c0 18 8f 84 3d 61 40 29 3d c6 66 ab bc 9c aa 0e 3e
       0.064726055 0.041321162 -0.02092303 0.1393227
0003d0 3c c8 32 bd d0 72 c8 bd df e9 49 bd 27 d4 2d bc
       -0.04364799 -0.09787524 -0.049295302 -0.010609663
0003e0 fc ac a4 3d 78 2f 84 ba 99 ac ca 3d 7a ad 84 3c
       0.08040807 -0.0010084948 0.09896202 0.016196001
0003f0 a9 f2 74 bd f0 70 1b bd a1 44 7e bc 4e 04 05 bd
       -0.05980173 -0.037949502 -0.015519292 -0.03247481

global_block.conv_chan.conv.0.bias f4 [8]
000000 c8 bc d5 b1 2f 4c 62 3a 4c 5a 0b bd 2e 83 46 bd
       -6.220578e-09 0.0008632568 -0.03402166 -0.048464946
000010 18 25 20 3d 11 d8 3b bb 3e 33 70 b0 cb 6d 80 39
       0.039097875 -0.002866272 -8.738431e-10 0.00024495865

global_block.conv_chan.conv.1.weight f4 [8]
000000 03 25 49 3f a2 87 69 3f 28 8c 6d 3f 14 95 6d 3f
       0.785721 0.91222584 0.92791986 0.928056
000010 a0 e8 60 3f e4 a3 69 3f 0c 76 5c 3f 11 4f 5c 3f
       0.8785496 0.912657 0.86117625 0.86058146

global_block.conv_chan.conv.1.bias f4 [8]
000000 15 28 08 be 15 c0 8d bd f8 6c 4b bd fd 38 36 bd
       -0.1329654 -0.06921402 -0.049664468 -0.044487942
000010 d7 cd 5d bd 6b 38 08 be 33 9c 02 be 15 6d 61 bd
       -0.054151382 -0.13302772 -0.12754898 -0.05503567

global_block.conv_chan.conv.1.running_mean f4 [8]
000000 db 58 cc bc 05 c1 65 3c 3c b3 24 bd ca d2 2a bd
       -0.024944713 0.01402307 -0.040209994 -0.04170493
000010 57 99 ed 3d a2 ad a1 3d 46 2e ac 3a 60 20 00 3d
       0.11601513 0.07894446 0.0013136349 0.031280875

global_block.conv_chan.conv.1.running_var f4 [8]
000000 8f 27 56 3d 83 b0 3d 3d 64 3d 7f 3d b9 9b 84 3d
       0.05228382 0.046310913 0.062314406 0.06475014
000010 6a 74 8d 3d 31 cd 5f 3d 3f 3b 47 3d 7f ad 6a 3d
       0.0690697 0.054639045 0.048640486 0.057294365

local_block.conv_time.conv.0.weight f4 [8, 1, 1, 51]
000000 cd ad 13 bd 40 e0 69 ba 26 7b 55 bc fe 13 be 3a
       -0.03605442 -0.00089216605 -0.013029849 0.0014501808
000010 7e 7c 8a 3c 4e c0 28 bd 15 e3 06 3d ec 1f bd b8
       0.016905066 -0.04119902 0.032931406 -9.018168e-05
000020 8a c4 9d 3d a5 dc 04 3d 8d 46 5d ba d9 55 ac 3c
       0.077035025 0.032436986 -0.0008440994 0.02103703
000030 63 e7 8e 3d ca fa 5a bd 19 5b 10 bc aa f7 4a bd
       0.06977727 -0.053461827 -0.008810782 -0.049552597
000040 f1 c8 ba bc 04 d1 f9 3d f8 09 f2 3d e6 0c 25 3d
       -0.022800894 0.1219807 0.11818308 0.040295504
000050 1a 4d 98 bd 42 a3 05 bd ab c1 31 bd 9b 3a 23 bd
       -0.07436581 -0.032626398 -0.043397587 -0.039850812
000060 bf c0 85 bc 63 ee 18 3d c2 73 b1 bc c2 3a 08 bd
       -0.01632726 0.03733672 -0.021661643 -0.03325916
000070 f7 78 01 3d a2 01 b8 3d 4d 64 32 3d 0d 0a 89 3d
       0.0316095 0.089846864 0.043552686 0.0669137
000080 94 7f 00 3d b4 11 2b bd 56 62 f1 3d e2 d2 c6 3d
       0.031371668 -0.04176493 0.11786334 0.097081915
000090 5e f5 e6 3b 6a a5 e7 bd ac 48 83 bc 9c 10 21 3b
       0.007048293 -0.11310847 -0.016025864 0.002457655
0000a0 cb 0f 1e ba 5c b2 6f bd 0e ac 6f 3d cd 99 41 3d
       -0.0006029575 -0.058519706 0.058513694 0.047265816
0000b0 fa fa 32 bb 4a aa 4e bd ab d8 86 bc c0 53 73 bd
       -0.0027310238 -0.05045537 -0.016460737 -0.059406042
0000c0 26 9b 6b bd cf aa ec 3b c2 9b 61 bd 9b dc 80 3c
       -0.057521008 0.0072225104 -0.055080183 0.015730193
0000d0 2b 13 74 bd 14 6e d2 bc b1 ba 21 bd e7 f8 48 3c
       -0.059588592 -0.025687255 -0.039484683 0.012266374
0000e0 e2 34 bc bc 55 d1 1d bc 64 64 1c 3d d5 e0 a4 bd
       -0.022974435 -0.009632428 0.038181677 -0.08050696
0000f0 d4 e5 dd 3c ec ce 96 bd 58 d9 0b 3e 1c 0c 27 3e
       0.02708713 -0.07363686 0.13657129 0.16313213
000100 7f 9c 90 3c 79 f7 82 bc d3 1b 4c 3c 9d a7 5b 3d
       0.017652748 -0.015987145 0.012457806 0.053626645
000110 3e c7 ee bc 7b b1 34 bc ca 80 41 bc 69 ea 3f bd
       -0.02914774 -0.011028643 -0.011810491 -0.04685441
000120 e3 bb e2 3c 39 d1 96 bd 52 77 bb bc ca 55 bc 3d
       0.027677482 -0.07364125 -0.022884045 0.091960505
000130 e0 70 8d bc 12 13 92 bc e8 d2 f9 3c 2d 90 ba 3d
       -0.017265737 -0.017831359 0.030496076 0.091095306
000140 6e 7d 83 3d 64 12 48 bc 76 89 cb 3c 10 37 28 bd
       0.06420408 -0.012211416 0.02484582 -0.041068137
000150 d2 7b 36 3c fb 15 a3 3d 24 9d 8c bc b3 be f0 3c
       0.0111379195 0.07963177 -0.017164774 0.029387807
000160 a2 d3 91 3b 6a 2b 97 3d 3a 63 be 3d c2 a6 31 3d
       0.0044502774 0.073813275 0.0929627 0.043371923
000170 4a fc bc 3b 0b 0a 9e bd 45 5e 0e bd 46 58 d9 ba
       0.00576738 -0.07716759 -0.03475787 -0.0016582094
000180 34 24 a0 3d 2a 06 77 bc 3f 7e 02 3d 46 4b 1a bd
       0.07819405 -0.015077153 0.03185868 -0.037669443
000190 f3 44 04 3d c5 c7 93 bd 48 98 59 bd ad a4 cb bd
       0.032292318 -0.072158374 -0.053123742 -0.09943519
0001a0 5f d6 8f 3c 9b be a7 bd 3f 23 9b bd 91 ce 07 3b
       0.017558275 -0.08190652 -0.07575082 0.0020722488
0001b0 0f b3 2c 3c fe ed de 3c 7a ff e8 3d a5 55 08 3c
       0.010540738 0.027213093 0.11376853 0.0083212005
0001c0 88 c7 84 3d 76 70 35 bc 11 c8 86 bd 77 8c 80 bd
       0.0648337 -0.011074176 -0.065811284 -0.062767915
0001d0 ff 03 8a bd 73 96 e1 bc eb 35 3a bc 14 05 f6 ba
       -0.067390434 -0.02753756 -0.011365394 -0.0018769824
0001e0 ca 07 90 bd ac 52 4c 3d 62 32 a8 3d 75 e5 01 3d
       -0.07032736 0.04988353 0.08212735 0.031712968
0001f0 49 e9 89 3d 29 dd 49 bd d0 e8 d4 bc b5 7d bf bd
       0.06733949 -0.04928318 -0.02598992 -0.093501486
000200 da d5 ab 3c d4 e5 02 bd 59 70 3d bd f7 2a 27 3c
       0.020975996 -0.031957462 -0.04624972 0.010203115
000210 70 cf b1 bc 49 92 1c bd 8c 6e 58 3c fc 6c 97 3b
       -0.02170536 -0.038225446 0.01320995 0.0046211462
000220 38 43 a1 3d 5c 56 97 3b b0 92 20 3d c7 a7 ae 3d
       0.07874149 0.004618449 0.039202392 0.08528095
000230 6c b1 f5 bc 5a 30 98 3d 16 8a c8 3d 3c d6 49 bd
       -0.029991828 0.07431097 0.09791963 -0.049276575
000240 4c 9a ee bd 63 16 8b 3c b3 bf c0 bc 64 85 6a bd
       -0.116505235 0.016978448 -0.02352891 -0.057256117
000250 ca 31 95 bd a0 e5 a9 3d 8a 06 b1 3d a6 5b 49 bd
       -0.07284887 0.082957506 0.08643825 -0.04915967
000260 31 da 6a bc c6 a3 1c 3c af 2d 13 bc 2a 8f 26 bc
       -0.014334247 0.009560531 -0.00898306 -0.010165969
000270 7d f9 bf bb ce b8 88 bb 95 1b 01 bd 35 9d d4 ba
       -0.0058585987 -0.004172421 -0.031520445 -0.0016221168
000280 95 d4 4f bb a2 61 4a 3d 3f df 8f bb 45 d8 de 3c
       -0.0031712402 0.049409516 -0.0043906267 0.027202735
000290 ec c4 72 3d 3f 2e 60 bd a2 96 b8 3a 4f 36 33 3d
       0.05926983 -0.054731604 0.0014082978 0.043752965
0002a0 06 c9 2e bd 1e d2 a7 3c 21 fe 03 3c 1f e6 1e 3b
       -0.04267218 0.020485934 0.0080561945 0.002424605
0002b0 2c 68 7b 3d 07 f0 58 3c b0 28 92 bc 4c c3 eb 3c
       0.061378643 0.013240821 -0.017841667 0.028779648
0002c0 a9 4f 14 bd d5 1a af bc e5 20 05 bc 0e 46 7e bd
       -0.036208782 -0.0213751 -0.008125518 -0.062078528
0002d0 e6 f4 93 bd 25 1c 48 bd f2 3b 48 3d 14 5c c7 bc
       -0.07224445 -0.048854966 0.048885293 -0.024335898
0002e0 d8 33 2b 3d be 4e 32 bd 48 da f8 3c 3b bb a5 3d
       0.04179749 -0.043532126 0.030377522 0.08092352
0002f0 d1 d2 13 3d 64 1e 03 bb 0f 3e 42 3d de 16 ff 3c
       0.036089722 -0.0020007128 0.047422465 0.031138834
000300 90 7f a5 bb 9f e4 1b bd 33 ca 0f 3d 5a 94 21 bd
       -0.005050607 -0.038059827 0.03510494 -0.03944812
000310 df f4 2d bc db 9a c0 bd 7a 81 75 bd a5 30 5c 3c
       -0.010617464 -0.09404536 -0.05993793 0.013439332
000320 5b 90 57 bd a5 0b 82 3d 42 6c db 38 65 e9 21 3d
       -0.052627902 0.06349877 0.00010462898 0.039529223
000330 8c 8b 8e 3c e3 f8 86 3d 1f 5d 0c bd 3d 56 a5 3b
       0.017400526 0.0659044 -0.034268495 0.005045681
000340 70 8b 92 3c ae 98 f7 bc 93 72 8b 3c 01 c0 2b bd
       0.017888755 -0.03022417 0.017022407 -0.041931156
000350 42 7a 57 3b d7 ca 09 bc 97 38 ca bd 59 57 f8 bd
       0.0032879268 -0.008410177 -0.09874075 -0.12126035
000360 5b 62 08 be f6 f4 d6 bc a0 79 cb bb cb 28 db bc
       -0.1331877 -0.026239853 -0.006209567 -0.02675285
000370 8a 50 1c 3d 01 91 5e bd 96 d0 a8 3c f4 ac 25 3d
       0.038162746 -0.054337505 0.020607274 0.040448144
000380 b7 12 b3 bd 1c 4b c9 bc 82 d2 64 3c a0 14 97 ba
       -0.08743804 -0.024571948 0.013966205 -0.0011526532
000390 25 e4 99 bb 18 09 21 b9 27 23 55 3d 67 86 2a bc
       -0.0046963864 -0.00015357544 0.052035477 -0.010408021
0003a0 64 b4 83 bd ad 90 1d bd 79 1a 9d 3b fd 89 27 3b
       -0.06430891 -0.03846805 0.0047944156 0.0025564425
0003b0 aa 75 bd bb 84 90 04 3d ed 80 a4 bb 84 f9 b8 bc
       -0.005781849 0.032364383 -0.005020252 -0.022579916
0003c0 4e 10 57 3d 6d 1d 33 bd d5 92 82 bd 4c 00 a4 3c
       0.052505784 -0.043729234 -0.06375662 0.020019673
0003d0 13 53 97 bd 24 60 35 bd 18 3b ba 3d f6 78 9a 3d
       -0.07388892 -0.04428114 0.090933025 0.07542603
0003e0 8c e7 1f bd d4 43 a0 3b e8 62 33 bd 03 b2 8d bc
       -0.03903918 0.0048908982 -0.043795496 -0.017296797
0003f0 34 17 cd bc 90 3b 87 3b e4 88 8f 3a 20 8c a5 bc
       -0.025035478 0.0041269735 0.0010950831 -0.020208418

local_block.conv_time.conv.0.bias f4 [8]
000000 03 3e f9 39 2c c7 62 bd 00 d0 47 3c ec 88 d8 3b
       0.00047539183 -0.055365726 0.012195587 0.0066081192
000010 b3 fd 71 3b 76 ae d6 3c 0f 00 04 3d 3c 13 77 3c
       0.0036924898 0.026206236 0.03222662 0.015080269

local_block.conv_time.conv.1.weight f4 [8]
000000 c6 f6 78 3f 9a ea 71 3f c8 24 62 3f bd f1 5c 3f
       0.97251546 0.944986 0.88337374 0.86306363
000010 7e db 52 3f 98 e8 5b 3f 1c c6 64 3f 60 c8 80 3f
       0.8236617 0.85901785 0.8936479 1.006115

local_block.conv_time.conv.1.bias f4 [8]
000000 22 4e 04 3d a4 29 32 3c 10 04 b5 ba 57 bd 5d 3c
       0.032301076 0.010874186 -0.0013810415 0.013533912
000010 26 bc fa bc ba b4 9a 3d 06 06 98 3b 7d 31 db b9
       -0.030607294 0.07554002 0.00463939 -0.00041807807

local_block.conv_time.conv.1.running_mean f4 [8]
000000 27 a3 f6 3b bc 18 63 bd 16 c2 2e 3c 65 3c 20 3c
       0.0075267735 -0.05544351 0.010666391 0.009780024
000010 8c 84 02 3b 3e 30 d6 3c 56 08 1c 3d 84 57 8f 3c
       0.001991543 0.02614605 0.038093887 0.017497785

local_block.conv_time.conv.1.running_var f4 [8]
000000 1e 13 9c 40 bf 6d 8d 40 9a 18 a2 40 c0 93 6e 40
       4.8773336 4.4196467 5.065503 3.727768
000010 86 be 73 40 ad ce 6c 40 7a 08 a9 40 57 49 5f 40
       3.8085036 3.7001145 5.2822847 3.4888513

local_block.conv_chan.conv.0.weight f4 [8, 8, 11, 1]
000000 0d a2 d7 bc a2 b4 dd 3d f1 7f 36 3d 36 5f 8a bc
       -0.026322389 0.108254686 0.04455561 -0.016891103
000010 70 8c 10 bd d9 e7 c1 bc 1d 3f 42 bd 57 40 9e 3d
       -0.03529018 -0.023670124 -0.04742347 0.077271156
000020 d9 3e 0d bd 5e 5a 9e 3c a8 3e a7 bd 5a 66 25 ba
       -0.034483764 0.0193302 -0.081662476 -0.0006309502
000030 ec 52 e9 3c 61 7c 5a 3d e4 e5 0d bc b5 89 44 3c
       0.028481923 0.053341273 -0.008660767 0.011995723
000040 7f 07 07 bc c6 da 8b bd 7f 1d a5 bc 68 7d 4f 3d
       -0.008241533 -0.06828837 -0.020155666 0.050656706
000050 76 15 63 3d f3 9b e2 3c 6e 25 6f b9 46 58 de 3b
       0.05544039 0.027662253 -0.0002280676 0.0067854254
000060 14 b2 10 3d d7 1c e8 39 41 f1 05 3c 66 b1 1b bc
       0.03532608 0.00044271976 0.008175195 -0.009502744
000070 7f a1 0c bc 25 6f ef bc 37 c9 e9 bc 7b 71 3f 3d
       -0.008583426 -0.029227803 -0.02853833 0.046739083
000080 55 49 14 bd 63 7b 18 bc 29 23 fb 38 6f 9f a2 3c
       -0.036202747 -0.009306761 0.00011975162 0.019851414
000090 81 42 f2 3a a3 de 39 bc 7d dd 8a 3c 42 76 0d 3d
       0.0018482954 -0.011344585 0.016951317 0.034536608
0000a0 f8 47 74 3d 79 04 3e bd 30 85 da 3b f0 3d 7c 3d
       0.059638947 -0.046390984 0.006668709 0.061582506
0000b0 0c eb 07 3d d1 72 7d 3c ab 73 a8 bd 0d 80 de bb
       0.033183143 0.015469269 -0.08225187 -0.006790167
0000c0 65 d0 65 3c 9e 61 a0 bc 95 11 3a 3d 84 ec 1b 3d
       0.014026736 -0.019577798 0.045426924 0.038067356
0000d0 3a 36 cd bc ac a8 81 3c 6e 63 bb 3c 39 76 83 bc
       -0.025050271 0.0158275 0.02287456 -0.016047584
0000e0 00 c7 7e 3d b6 27 ac 3c 9f e0 cd 3c 2b 6d d5 ba
       0.0622015 0.02101503 0.025131522 -0.0016283145
0000f0 80 45 55 bc 85 7b 06 3d a4 a8 04 bc a6 e9 a6 bd
       -0.013017058 0.03283264 -0.008096848 -0.08150034
000100 ae 2a c4 3c f1 1c 86 ba 26 b9 cb bc 1e 99 80 bc
       0.023946133 -0.0010232014 -0.02486856 -0.015698012
000110 35 16 66 bd b2 78 3a 3d de 93 5c 3b 1f 9b 9a 3a
       -0.056173522 0.04552526 0.0033657472 0.0011795497
000120 4b 75 30 3c 94 c8 34 bc 50 fd 40 bb be f4 db bc
       0.010770152 -0.01103415 -0.002944786 -0.0268501
000130 14 99 f7 3b b2 79 38 b9 dc 78 c6 3d 3a c5 7a 3d
       0.00755609 -0.00017592942 0.09691021 0.061223246
000140 9d 67 e9 bc 6f fe 93 bc fd 22 3a bd b2 bf 6b bc
       -0.02849179 -0.01806566 -0.045443524 -0.014388965
000150 64 36 b1 3d d1 ba 3a 3d 8b 0b 3e bd 8c 0f ce bd
       0.08652952 0.04558832 -0.046397727 -0.10061559
000160 ee 4b 23 bd d1 d6 75 bc 24 07 37 3d c1 eb 9a bc
       -0.039867334 -0.0150048295 0.044684544 -0.018911244
000170 50 16 16 3d 75 00 2e bd 1e de d9 3a 59 b0 af 3d
       0.036642373 -0.042480905 0.0016621982 0.085785575
000180 7b 08 f4 bc ac 40 1a 3d 37 cb 8e bd 22 06 80 bd
       -0.0297892 0.037659332 -0.06972354 -0.0625117
000190 ec 91 4c 3b 1a 11 31 3c cd 58 15 bc 2b 71 bf bc
       0.0031214906 0.0108073 -0.00911541 -0.023369392
0001a0 c7 ac 82 bc 98 57 ad 3d bf 92 81 b9 ca f3 ac bc
       -0.015951527 0.08463973 -0.00024714132 -0.021112341
0001b0 55 13 6e 3d ee d0 39 bd 88 e1 b9 bd 57 2d c6 3c
       0.058123905 -0.045365267 -0.0907622 0.024191542
0001c0 19 c8 49 bd 54 78 90 bd a1 37 42 3d b5 44 88 bd
       -0.049263094 -0.07054201 0.047416333 -0.0665373
0001d0 1f 1c ab 3d 45 e5 f7 3d ed a6 eb 3c 53 a7 04 3c
       0.08354973 0.121042766 0.02876612 0.008096534
0001e0 73 e1 f0 bc 56 d0 5b 3d 1c f1 12 bd ec f6 90 3c
       -0.029404378 0.05366548 -0.03587447 0.017695867
0001f0 30 fe cc bd 6f 9e 0f bd 1b ca 07 bb f4 37 a1 bc
       -0.1000942 -0.035063203 -0.002071983 -0.01968
000200 de 17 2a 3d 3f 5e c9 bc af a8 95 bc a6 c6 93 3d
       0.041526668 -0.024581073 -0.018268911 0.072156236
000210 20 ed 99 3b 9f a7 99 3b 4c 3d 6b bb 5b 34 f9 3a
       0.004697457 0.0046891714 -0.003589469 0.0019012796
000220 21 6a d8 bc a7 88 f4 3c 1e 43 0f bc a3 25 ae bd
       -0.026417794 0.029850317 -0.008744029 -0.085032724
000230 39 62 ac 3b 43 7f 1f bd ef be ec bc 25 07 45 3d
       0.0052607325 -0.038939726 -0.028899638 0.048102517
000240 08 02 95 bd 78 6e 15 bc d7 15 9c bb 60 04 61 bc
       -0.07275778 -0.009120576 -0.0047633457 -0.013733953
000250 05 f6 c4 3b ec 8b 81 3d 4b e5 ab 3c 1f 30 20 bc
       0.006010773 0.06325516 0.020983359 -0.009777098
000260 3d 58 87 3d 12 c2 5d bd 76 11 d1 bc cd bc b6 bb
       0.06608627 -0.054140158 -0.025521021 -0.005576706
000270 89 5b a4 bc d5 77 4f 3c da 9d dd bc d5 de 8a bc
       -0.020063179 0.0126628475 -0.027052809 -0.016951958
000280 13 14 92 3d 83 43 cd 3d 0e 72 86 3d 21 80 6c 3c
       0.07132735 0.100226425 0.06564723 0.014434845
000290 1f b5 3c bd 3e 7a cd bc 72 52 63 3d b5 6d 2a ba
       -0.046071168 -0.025082704 0.055498548 -0.0006501333
0002a0 e3 4a c9 bc 64 14 85 3c 8e d7 90 bc 47 0f e4 3a
       -0.024571842 0.016245075 -0.01768091 0.0017399573
0002b0 dc 1a 39 3d 43 ce f6 3c c6 9c 1b 3c 36 79 01 bd
       0.04519163 0.03012765 0.009497827 -0.031609736
0002c0 a6 f2 fe 3c fe 19 0f bd d7 12 a0 bd c7 81 fc 3d
       0.031121563 -0.034936897 -0.078160934 0.123294406
0002d0 63 f7 8a 3d af 58 b3 3b 1c 22 81 bd 84 cb e5 bc
       0.067854665 0.0054732184 -0.06305334 -0.028051145
0002e0 e5 85 96 bb f9 12 70 3d 36 a8 1f bd 0f 49 80 bd
       -0.004593598 0.058611844 -0.038978778 -0.06263935
0002f0 2c 0d 68 bd 10 81 5d bd 52 26 63 3d f3 d8 55 3d
       -0.056653187 -0.05407816 0.055456467 0.052208852
000300 67 a8 ac b8 2a f7 94 3c 02 29 5b 3d aa c6 a8 3c
       -8.2329665e-05 0.018184263 0.053505905 0.020602543
000310 bf cd 71 bc 77 a0 ec 3c 7b 4f 96 bc d4 67 8a bd
       -0.014758526 0.02888511 -0.018348446 -0.06758085
000320 11 5d 59 3d 93 9b 0f bc 04 b5 f4 3c ad 11 15 bc
       0.05306727 -0.008765119 0.029871471 -0.0090984525
000330 c3 b7 08 3d 24 05 1a bd 03 91 50 3d 72 b8 cd bc
       0.033378374 -0.03760256 0.050919544 -0.025112364
000340 0d 65 16 bc ad a2 95 b9 22 1a 09 3d 0d d3 69 bc
       -0.009179366 -0.00028540698 0.033472188 -0.01427151
000350 33 85 7b 3b 98 f9 e4 3c 03 a9 49 bc 31 48 b1 bc
       0.0038378953 0.027951047 -0.012308362 -0.021640869
000360 cb 6b 95 bd b1 a5 77 bd 4c 58 fb 3d c9 7f c6 bc
       -0.072959505 -0.06046075 0.12272701 -0.024230855
000370 10 78 74 bd ff f7 3c ba 57 74 c7 3c be ec f2 3b
       -0.059684813 -0.0007208585 0.024347467 0.007413476
000380 1c 02 2e bc fc 17 54 3d d5 47 0e 3c 86 5b 2e bd
       -0.01062062 0.051780686 0.008684118 -0.042567752
000390 36 19 98 bd 4f c5 1e 3c 47 b3 2c 3c ae 38 a4 bc
       -0.074266836 0.009690597 0.01054079 -0.020046558
0003a0 eb b4 75 bd e5 6e 9b 3b e9 d7 61 bb da 71 f7 bb
       -0.05998699 0.0047434443 -0.0034460968 -0.007551414
0003b0 e6 70 14 3d a2 7a 0a 3d cc 52 7c bd d3 69 bd 3d
       0.03624048 0.033808358 -0.0616024 0.092487
0003c0 77 62 50 3d 4e 67 3a 3c 84 94 85 bc 92 3d 9a 3c
       0.050875153 0.011377169 -0.01630617 0.018828187
0003d0 68 42 5f bd 10 89 9f bd 1a 36 9d bc 45 62 10 3d
       -0.05450669 -0.077898145 -0.019190837 0.035249967
0003e0 09 46 39 bd 9c bd 2c 3e dd b7 ad bc f7 93 12 3c
       -0.045232806 0.16869205 -0.021205837 0.00894641
0003f0 6b 3a 03 bd 30 ac 1c 3c 25 4a 05 3d 90 57 7f bd
       -0.032038134 0.009562537 0.032541413 -0.062339365

local_block.conv_chan.conv.0.bias f4 [8]
000000 12 4f 15 bb ee 2b 3b bb 15 e4 91 3c 07 94 d5 3c
       -0.0022782725 -0.002856012 0.017808953 0.026071562
000010 47 29 d8 3c fd 97 d0 3a 7e 16 4e 3c 33 fe 1f b8
       0.02638687 0.0015914437 0.012578605 -3.8145296e-05

local_block.conv_chan.conv.1.weight f4 [8]
000000 dd a7 50 3f 82 99 54 3f 0d 60 6c 3f 07 21 52 3f
       0.8150614 0.83046734 0.9233406 0.82081646
000010 19 99 4a 3f 79 c1 79 3f bf cc 70 3f 52 db 66 3f
       0.7913986 0.9756084 0.9406242 0.90178406

local_block.conv_chan.conv.1.bias f4 [8]
000000 bd fd 93 bd 44 3e 1f bd 22 3f dd bd 6c 81 0d be
       -0.07226131 -0.03887774 -0.10803057 -0.13818902
000010 96 fc 02 be 58 e7 0c bd 6a fa 11 bd 28 b0 c5 bd
       -0.12791666 -0.034400314 -0.035639204 -0.0965274

local_block.conv_chan.conv.1.running_mean f4 [8]
000000 32 1c 18 3d 1f f4 97 3c 10 6c ca 3b a7 38 57 3d
       0.037136264 0.018549023 0.006177433 0.052544262
000010 6e 3e e9 3c 0f c1 d3 3c 42 d2 bd 3b 2a ea 65 bd
       0.028472152 0.025848893 0.005792887 -0.05613152

local_block.conv_chan.conv.1.running_var f4 [8]
000000 6a 35 96 3d 59 c7 b6 3c 82 86 be 3c c3 a1 21 3d
       0.07334407 0.022311853 0.023257498 0.03946091
000010 86 04 2f 3d 48 91 c8 3d 12 37 a0 3d e7 5b 2b 3d
       0.042728923 0.09793335 0.07823004 0.04183569

tcn.network.0.conv1.weight f4 [16, 16, 16]
000000 c3 78 1f bd 20 96 a7 bc 28 6a 63 3b f0 f1 58 b9
       -0.038933527 -0.020457327 0.0034700725 -0.00020689494
000010 aa a5 a5 3b db 78 c3 3b ce 95 9c 3b 7d f4 1e 3b
       0.005055149 0.005965335 0.0047786003 0.0024254613
000020 ed dd 70 3b 49 0e 46 bb ec cc ca bb cd 28 01 bc
       0.0036753372 -0.0030220917 -0.0061889794 -0.007883263
000030 09 8e a1 bb e2 c3 82 bb c2 6f d2 bb 47 73 29 bb
       -0.004930262 -0.003990636 -0.006422014 -0.0025856064
000040 71 64 a5 3c 1e f3 9d 3c f2 ad 15 bb 32 b4 0b 3d
       0.020189496 0.019280966 -0.0022839275 0.034107395
000050 6e 90 b1 bb dd 40 58 3c 55 12 1a bc b3 f0 d3 bb
       -0.0054188287 0.013199058 -0.009403785 -0.0064679026
000060 b6 17 41 bb cc 0b c3 3a 7e 2d a9 3b 44 16 f8 3b
       -0.0029463596 0.0014880835 0.005162894 0.0075710136
000070 fd e0 03 3b 49 25 a7 3b 1d e5 92 3a a5 40 ea 3c
       0.0020123117 0.0051008803 0.0011207197 0.028595278
000080 47 6f 18 bc cc 53 58 bb c2 de e1 bb ac 1d af bb
       -0.009303874 -0.0033008931 -0.00689301 -0.0053441133
000090 55 18 f1 bb f4 a0 a8 bb ea 80 32 39 bf 78 ad bb
       -0.007357637 -0.00514614 0.00017023427 -0.005293935
0000a0 ab f4 be 3b 8e 38 29 bb 55 2d 0d bb 18 98 13 3c
       0.0058275065 -0.0025821063 -0.0021541913 0.00900843
0000b0 dd ad 0f ba 46 28 99 bb 75 7d d2 ba 9e 38 83 bb
       -0.0005480925 -0.0046739904 -0.0016059118 -0.004004552
0000c0 52 87 c4 bb 38 63 01 bc e2 14 7d 3b dc 3f c1 3c
       -0.0059975768 -0.007897191 0.0038617183 0.02359002
0000d0 93 6d 25 3c b3 58 a8 3c 75 7d a7 3c c5 bf 3f 3c
       0.010096925 0.020550108 0.020445565 0.011703436
0000e0 ca 52 9e 3c f4 b0 a4 ba 5e be f5 3b f7 c3 9c ba
       0.019326586 -0.0012564943 0.0074995 -0.0011960258
0000f0 66 d1 c9 bb cb 93 1d bc e1 d6 34 bc a4 94 3b bc
       -0.0061589954 -0.009617756 -0.011037559 -0.011449013
000100 90 99 98 ba 54 05 94 3c 9b d5 0a 3c 2a 1b b8 3c
       -0.0011642445 0.018068947 0.008473779 0.02247389
000110 7c cc 8a 3c 69 f4 1d 3c 0d 82 f1 3b c1 58 37 3a
       0.016943209 0.009640791 0.0073702396 0.00069941214
000120 f6 a2 a8 3c a6 be 87 ba 50 de ef 3b 1b 58 39 3c
       0.020585518 -0.00103565 0.007320203 0.01131251
000130 44 27 48 bc 9d 6e 46 ba 9b 9e 27 3a c1 3e a6 bb
       -0.012216393 -0.0007569583 0.00063941785 -0.005073399
000140 e5 20 07 bc 1d 5a 2b bb dd 1b b3 3b ba e0 4f 3c
       -0.008247589 -0.002614624 0.005465968 0.012687856
000150 35 54 25 bc 7c 57 a0 bc 3b b6 03 bc 19 60 61 bc
       -0.010090877 -0.019572966 -0.008039053 -0.013755822
000160 a7 48 1e bc ca 2b 17 bd 59 7f fe bb 60 cd 8c bb
       -0.009660876 -0.036906995 -0.007766646 -0.0042969435
000170 d5 1d a9 bb b4 e0 2b 39 ca dd 12 3c bc a7 15 bc
       -0.005161027 0.00016391539 0.008964011 -0.009134229
000180 5a ca 07 3b fc 3a 27 3a 48 7b 0c 3b 79 87 10 3c
       0.0020719976 0.0006379334 0.0021435786 0.008821362
000190 fa 4f a8 3c 3a e8 00 3c 9c 51 b2 3b e9 4e 18 3d
       0.020545948 0.007867867 0.0054418575 0.03718463
0001a0 79 da 6a 3b 24 0f 1f ba c1 38 32 bb 5b e9 88 bb
       0.0035835786 -0.0006067625 -0.0027194472 -0.0041782088
0001b0 a8 78 1d bc 71 ce 4a bc 08 98 1a bc 3b df 3d bc
       -0.009611286 -0.012378321 -0.009435661 -0.011588867
0001c0 c4 e8 36 3b 37 63 09 3c 65 b6 86 39 8c 37 a4 3c
       0.0027909735 0.008385471 0.00025694366 0.020046018
0001d0 12 38 e7 bb c0 f7 05 3b 2a af 86 bb d5 82 0e 37
       -0.0070562446 0.002044186 -0.0041102367 8.494321e-06
0001e0 95 41 ee 3a 19 c9 63 bc 77 9c c4 bb 53 e7 b4 ba
       0.0018177504 -0.013902926 -0.0060000974 -0.001380185
0001f0 00 54 1f 3b 69 33 bc 3b 8e fe d7 ba 66 4f ca b9
       0.0024311543 0.0057434333 -0.0016479061 -0.000385876
000200 4f 7e c9 b9 7f df 59 bc eb 1e a9 bb b0 73 e8 bb
       -0.00038431815 -0.0132979145 -0.0051611564 -0.007093869
000210 e0 f3 cf bb 6d e9 f0 ba c8 85 4c bb 98 15 ae bb
       -0.006346211 -0.0018380113 -0.003120767 -0.005312633
000220 65 00 42 bb 4b 57 fa 3b ff c2 5e 3b 22 98 27 3c
       -0.0029602286 0.0076398007 0.0033990738 0.010229142
000230 20 48 bd 3b d7 3b 14 3c 6e 37 bc 3b 83 f4 93 ba
       0.0057764202 0.00904747 0.0057439124 -0.001128808
000240 e7 69 0e 3b 19 29 d9 39 cc 8e ff ba 56 70 2f ba
       0.0021730603 0.00041420085 -0.0019497513 -0.00066924596
000250 18 8c be ba 5f 1e fd b9 bd c9 0f bb 87 58 7b bb
       -0.0014537601 -0.0004827855 -0.0021940314 -0.0038352327
000260 41 17 58 bc d7 a5 17 bb 7e af 8c bb 57 e9 cf bb
       -0.013189138 -0.002313962 -0.0042933812 -0.006344955
000270 42 48 78 bb cc 6e eb 39 4a fd 5e 3b df dc 68 3c
       -0.0037884866 0.00044905243 0.0034025484 0.014212816
000280 78 35 88 3b a3 5b fc ba 0c 48 9a 3b e3 64 58 ba
       0.0041567646 -0.0019253384 0.0047082957 -0.00082547794
000290 3e 5b 09 3b 8c 94 75 3b 29 d8 2e 3b af ce a0 3b
       0.0020958926 0.0037472574 0.0026679134 0.004907451
0002a0 e1 29 b5 ba ff f3 b2 3a 8a 86 43 3c 29 b7 8e ba
       -0.0013821685 0.0013653039 0.011933932 -0.0010888326
0002b0 f6 f9 f8 3b 60 e4 0b bc 7f c3 94 3b 72 25 a6 bb
       0.007598157 -0.008538336 0.0045399065 -0.005070382
0002c0 c4 e2 bc 3a 3a a3 6c 3b 50 5a 6d ba 2b 29 0a 3a
       0.0014410843 0.0036108033 -0.000905429 0.0005270417
0002d0 41 3d 71 3b 13 a9 92 3b a8 b5 ad 3b 8d f2 56 3b
       0.0036810192 0.0044757216 0.005301196 0.003279838
0002e0 d6 0f 72 3b 1f 99 42 3a ab e3 e5 ba bb ba 96 bb
       0.0036935708 0.00074233295 -0.0017539164 -0.0045998967
0002f0 da a1 84 38 df 1e fb bb 3b 1b bb bb 97 87 65 bb
       6.324398e-05 -0.007663592 -0.0057100332 -0.0035023445
000300 49 67 8d 3b d4 37 50 3b 4b 95 e6 3b b2 38 d4 ba
       0.004315291 0.0031771557 0.00703684 -0.0016191213
000310 1c 75 3a bb 8b 0c 22 bb bd 6d 44 bb f7 ca a0 bb
       -0.002845115 -0.0024726714 -0.0029972636 -0.004907008
000320 8e c9 1a bc de cc 1d bc cd c4 f5 bb bb f5 f6 bb
       -0.009447468 -0.009631364 -0.007500267 -0.0075366176
000330 72 51 5c bc c1 cf c5 ba 1a bf 0e bc 58 68 67 bb
       -0.013447152 -0.0015091823 -0.008712554 -0.0035309996
000340 83 19 48 bb 7f 2e 24 3b ee 31 21 bb 24 9f fc ba
       -0.0030532784 0.0025052128 -0.002459641 -0.0019273502
000350 55 3f 22 bc dc 62 c6 bb c5 e7 a9 3b 32 2b 3b 3c
       -0.009902795 -0.0060542654 0.0051851 0.011423873
000360 6e 95 fa bb 9f 18 02 bc c6 59 c5 3a 21 3b 44 b9
       -0.007647208 -0.00794044 0.0015056662 -0.00018714044
000370 e6 b7 01 bc 12 0d 95 bb 0b 74 98 3b fb 32 d3 3b
       -0.00791738 -0.0045486772 0.0046525053 0.0064452863
000380 55 e4 d7 3b f8 f9 04 bb b0 95 e0 3c f2 84 95 ba
       0.0065884986 -0.0020290595 0.027415127 -0.0011407419
000390 2a 48 3c 3b 62 e2 1f 3b ad 03 95 3a 44 e3 54 bb
       0.0028729537 0.002439641 0.0011368893 -0.0032484094
0003a0 bf bf e8 bc 72 a6 be 38 05 1d b2 bb 7c 0a 97 3c
       -0.028411744 9.090909e-05 -0.0054355883 0.018437617
0003b0 c8 9d 9a bb 83 58 b4 bb 2e 18 18 bb 47 3c e9 39
       -0.004718516 -0.0055037155 -0.0023207772 0.00044486133
0003c0 d5 ac 16 bc e9 80 15 bd a8 09 de bc cf 80 79 bc
       -0.00919648 -0.03649989 -0.027104214 -0.015228464
0003d0 f8 56 ea 3a db 3f d9 bc 9d c6 ad ba c8 6f 84 bb
       0.0017878702 -0.026519706 -0.0013258044 -0.0040416457
0003e0 be 8c 04 bc 44 61 43 bb 00 c6 2d bb 27 0d bb b9
       -0.008090196 -0.0029812614 -0.0026515722 -0.0003567722
0003f0 cd ea 8e ba 5a 06 38 3b 20 4e da 3a c5 82 c2 3b
       -0.0010903716 0.0028079958 0.0016655363 0.005935999

tcn.network.0.conv1.bias f4 [16]
000000 12 f7 1b 32 2a 56 c2 b0 7e 7b 49 2f d8 ab 08 30
       9.078365e-09 -1.4139847e-09 1.8324717e-10 4.9720716e-10
000010 76 c7 59 bb 51 69 2d 31 2c fa b3 b1 72 c1 d1 b6
       -0.003323046 2.5234679e-09 -5.238027e-09 -6.2512054e-06
000020 fe 67 de 30 0b 85 08 b1 56 1d c9 b0 9d 01 9c 35
       1.6182182e-09 -1.986623e-09 -1.4633013e-09 1.1623375e-06
000030 94 8b aa b0 0b 76 33 b1 10 06 84 31 aa c2 ce 35
       -1.2408798e-09 -2.6115028e-09 3.842395e-09 1.5404851e-06

tcn.network.0.bn1.weight f4 [16]
000000 63 a0 81 3f 16 4c 7b 3f 9e 45 80 3f 5f 69 6e 3f
       1.0127071 0.9816297 1.0021245 0.93129534
000010 96 83 79 3f 85 bd 84 3f b4 68 84 3f 72 c7 6c 3f
       0.9746641 1.0370337 1.0344453 0.9249183
000020 0a 1b 72 3f ea e7 82 3f a4 10 72 3f 39 a8 85 3f
       0.9457251 1.0227025 0.9455664 1.0441962
000030 c0 12 84 3f 1f 38 7a 3f e0 45 7b 3f ab 59 82 3f
       1.0318222 0.97741884 0.98153496 1.0183614

tcn.network.0.bn1.bias f4 [16]
000000 df 92 cf bd 7d 64 3e be 1d d7 0e be 16 a1 e1 bd
       -0.10135435 -0.1859302 -0.13949247 -0.11017053
000010 d3 78 03 be 81 11 8a be 54 86 60 be 6e 91 c7 bd
       -0.1283906 -0.2696648 -0.21926242 -0.097445354
000020 a3 e7 08 be bd 8d 3d be 78 d6 1a be 72 bf 35 be
       -0.13369612 -0.185111 -0.15120876 -0.17748812
000030 fe 23 07 be 32 4a 50 be 35 f5 43 be 97 15 1c be
       -0.13197324 -0.20340803 -0.19136508 -0.15242611

tcn.network.0.bn1.running_mean f4 [16]
000000 a0 e1 70 bb 79 00 02 bd 15 a9 27 bd fc 64 20 bc
       -0.0036755577 -0.031738732 -0.040932734 -0.009789702
000010 e4 59 17 3c da 27 01 bd 60 31 39 bd a9 bc 17 bc
       0.00923774 -0.031532146 -0.045213103 -0.009261289
000020 33 4c 2f bc 29 27 eb bc 9d 2a c6 bc 55 1f d9 ba
       -0.01069932 -0.028705196 -0.024190241 -0.0016565124
000030 9a 5d 99 bc dd 83 08 bd 81 f5 5d bc 26 86 92 bc
       -0.01872139 -0.03332888 -0.013547302 -0.017886233

tcn.network.0.bn1.running_var f4 [16]
000000 5f 1e 74 3d 09 b2 69 3d f0 8e 51 3d 25 a3 6e 3d
       0.059599277 0.057054553 0.051161706 0.058261055
000010 df 40 af 3d e5 2f 8f 3d f0 07 95 3d 79 c5 66 3d
       0.08557295 0.06991557 0.072769046 0.05634067
000020 cd fc 64 3d 66 e8 86 3d dc 83 89 3d 30 be 42 3d
       0.055905152 0.06587295 0.06714603 0.04754466
000030 c1 93 97 3d a1 80 99 3d 59 6d a3 3d a2 f3 4b 3d
       0.07401229 0.07495237 0.07979841 0.049792893

tcn.network.0.conv2.weight f4 [16, 16, 16]
000000 b5 27 27 bb 58 bd 6a ba f4 90 84 bc 08 79 6c bc
       -0.0025505845 -0.0008954606 -0.0161824 -0.014433153
000010 0e 1a ab bb f4 b5 81 ba b3 fc 05 bb 2f cd ea 3a
       -0.005221612 -0.0009896145 -0.002044481 0.0017913933
000020 19 91 d2 bb d3 e6 fa bb 40 32 c7 bb be e7 09 bb
       -0.0064259884 -0.007656911 -0.0060789883 -0.002104267
000030 a2 8c 67 bb 06 02 91 b9 72 33 36 bc 39 7a ee ba
       -0.0035331626 -0.00027658063 -0.011120664 -0.0018194384
000040 94 f8 ac 3c 5c 7b 22 b9 79 aa a4 bb 61 7f b4 bb
       0.021114625 -0.00015495479 -0.0050252047 -0.005508349
000050 38 93 a8 bb 7a 43 b7 bb e4 90 93 bb b9 df ae 38
       -0.005144503 -0.0055927606 -0.0045033563 8.338638e-05
000060 2a 64 95 3b 07 fd 74 3b 2f 70 c7 3c e4 6d d8 3c
       0.0045590596 0.0037382261 0.024345485 0.026419587
000070 2f f2 5f 3c 08 bd 73 3c a9 ee 42 3c 37 70 4a 3c
       0.013668581 0.0148766115 0.011897721 0.012355856
000080 4e ce 31 bb 04 1c 62 bb 4b 86 e5 3a 43 e0 5f 3b
       -0.0027131024 -0.0034501562 0.0017511336 0.003416077
000090 f3 4d 7f 3b 9c da 96 3b 8e 3a b1 3b 1a 7e 27 3a
       0.0038956373 0.004603697 0.0054085916 0.0006389335
0000a0 f9 e3 9f 3b af 28 4d 3a 08 22 30 bc 57 5e 8b bb
       0.0048794714 0.0007826192 -0.010750301 -0.0042531895
0000b0 7c 45 30 bc 28 b4 e7 bb b1 df 1e bc 48 32 52 bc
       -0.010758754 -0.007071037 -0.009696887 -0.012829371
0000c0 f1 23 33 bc ff 4b d1 bb a5 1b b6 bb 1c 47 b4 bb
       -0.010933862 -0.0063872333 -0.0055574947 -0.005501641
0000d0 c1 af 4b bb 05 82 fe ba eb d9 e4 b9 0a fa 77 39
       -0.00310801 -0.0019417411 -0.0004364991 0.00023648902
0000e0 b4 0c 78 3b bc bf 1d 3b c5 86 59 3b 59 a5 0c 3b
       0.0037849369 0.0024070581 0.0033191901 0.002146086
0000f0 2d e3 97 3b ee b4 5f 3c 5f 22 df 3b 11 62 c2 3b
       0.0046352358 0.013653977 0.0068095173 0.0059321006
000100 b4 a9 41 3a 01 b6 c0 3a 67 42 32 bc 3c 5d 39 3b
       0.00073876535 0.0014702679 -0.010880089 0.0028284332
000110 4c 81 36 3a 2e 48 d5 3a 0e 4c 1b 3b c2 3b 9d ba
       0.0006962016 0.0016272122 0.0023696455 -0.0011995959
000120 20 4e 66 bc 41 19 3d bb 2f fb f7 39 ca 1b 27 bc
       -0.014056712 -0.0028854164 0.00047298658 -0.0101994965
000130 3a 9e 4e bc c3 b2 31 bc 59 8b 7b 3a a4 c9 a2 3a
       -0.012610966 -0.010845843 0.00095956546 0.0012419713
000140 0c bd 12 3b f7 a0 36 3b 5c 43 2d 3b 05 cc 37 3b
       0.0022390513 0.0027866939 0.0026437854 0.002804519
000150 3c c1 f9 3a 29 6c ab 3b f4 87 10 3b d7 d5 47 ba
       0.0019054781 0.0052313996 0.002205369 -0.0007623112
000160 67 93 fa 3a 88 3d e9 39 2b 73 00 ba 5e 7d a6 3a
       0.0019117416 0.00044487067 -0.0004899974 0.0012702157
000170 5f a1 14 bb 43 b5 a1 3b 95 ce 75 bc df b1 4e bc
       -0.0022679192 0.004934938 -0.015002866 -0.01261565
000180 5d cd 05 ba 3d c7 99 bb 6c 1b a6 39 e6 56 be 39
       -0.0005104149 -0.0046929405 0.00031682418 0.00036304368
000190 8c 9c 9d 3b 8e b4 97 3b 60 17 1f 3b 68 6d 84 3b
       0.0048099216 0.004629678 0.0024275407 0.0040413626
0001a0 c1 e8 72 3b 79 97 37 3b 78 a9 b5 3b fe bf 96 ba
       0.0037065002 0.0028013869 0.005543884 -0.001150131
0001b0 5e 7c 43 3b e7 75 c1 3a c4 59 3a bb 4c ba 0b bc
       0.0029828767 0.0014759869 -0.0028434852 -0.008528303
0001c0 d9 f2 df 3b 19 f7 4d 3b 79 bb 32 3c 53 9b 08 ba
       0.0068343696 0.00314278 0.010908955 -0.00052111334
0001d0 40 f0 78 3a ac fe 2e ba e3 82 18 bc 84 45 2d ba
       0.0009496249 -0.00066755223 -0.00930855 -0.0006609785
0001e0 15 20 95 bb bd 6b 33 bc 3a c6 84 bc 20 10 51 ba
       -0.0045509436 -0.01095098 -0.016207803 -0.000797512
0001f0 25 01 b3 bc db 86 b7 b9 fe 34 c2 bb 0b db a9 3a
       -0.021851132 -0.00035004955 -0.0059267273 0.0012958957
000200 ab a5 4e 3c 3e bc 68 bb 08 28 40 bb ef cc a5 ba
       0.0126127405 -0.0035512592 -0.0029320735 -0.0012649576
000210 5f d8 96 3a 8f 81 88 bb b2 48 0d 3b 3d 21 d9 3a
       0.0011508575 -0.004165835 0.0021558222 0.0016565692
000220 54 5f da 3c e8 28 85 3c 80 c9 d6 bb 05 81 3e bb
       0.026656784 0.016254857 -0.0065547824 -0.00290686
000230 2f fe 9d bb 73 6b 28 bc e9 59 cd bb fc c4 c2 bb
       -0.004821561 -0.010279524 -0.0062668216 -0.0059438925
000240 c4 b1 c1 bc 2c bc 91 bc 1d c6 2f bb da a9 d4 3a
       -0.023644336 -0.017789923 -0.0026820966 0.0016224936
000250 d7 19 26 3b cb fb 49 ba 01 3c 96 3a b3 2c 09 bb
       0.0025344992 -0.00077050616 0.0011461974 -0.0020931184
000260 d9 b3 15 bb ef b2 81 bb c9 6f e6 bb f8 4e 4f bb
       -0.0022842793 -0.003958098 -0.007032369 -0.0031632762
000270 f9 96 81 bb 5f 9e 3b ba 17 c3 8a 3a 16 00 e8 3b
       -0.003954765 -0.0007157083 0.0010586706 0.0070800884
000280 79 ec e9 bb 58 1f ff ba 91 51 ab bb d3 17 82 3b
       -0.0071387854 -0.0019464297 -0.0052282293 0.003970125
000290 9e 85 ac b9 3c de ff ba e9 ff 2d 3b 92 54 94 b9
       -0.0003290595 -0.0019521187 0.002655024 -0.0002829177
0002a0 03 63 2b ba 66 32 a7 bb e2 2e 4d bb dd 09 6b 3b
       -0.0006537886 -0.0051024435 -0.0031308462 0.0035864033
0002b0 56 b1 29 bb 94 13 b9 b9 5f 1b 24 bd fa aa 17 bc
       -0.0025893054 -0.00035300537 -0.040065166 -0.009257073
0002c0 17 02 6c 3c 3e e1 28 3c 40 9e f9 3b d7 6a be 3b
       0.014404795 0.010307608 0.007617742 0.005811076
0002d0 61 f9 4b 3b 46 c7 df bb 6c b1 f0 ba 8e a0 c5 ba
       0.0031123983 -0.006829175 -0.0018363423 -0.0015077756
0002e0 e9 73 18 3a 6a 39 1b 3b 78 29 03 3c 9d b9 49 3b
       0.0005815612 0.0023685344 0.008005492 0.00307808
0002f0 63 49 ab 3a 02 ac a8 38 03 91 08 bb a8 88 83 ba
       0.0013068136 8.042903e-05 -0.0020838387 -0.0010035234
000300 04 d6 a6 ba b5 f3 0c 3b 33 dd 04 3b f0 0a ba 3c
       -0.0012728577 0.0021507565 0.0020273447 0.022710294
000310 84 1e ce 3c e3 25 a5 3c 60 12 05 3c bb 1a d3 3a
       0.025161035 0.020159667 0.008122057 0.0016105989
000320 3e 61 0f bc e0 86 01 bd 02 73 46 bb 17 7d ec bc
       -0.008751212 -0.031622767 -0.0030280952 -0.028868241
000330 9f a2 c4 bb 08 40 15 bb eb a7 2b bb bb 4c f5 ba
       -0.0060008313 -0.0022773761 -0.0026192616 -0.0018714884
000340 77 e5 1b 3b f6 5f e2 3a 42 db 31 3b 3b 16 8c 3b
       0.0023787895 0.001727103 0.0027138744 0.004275111
000350 63 39 6a 3b 5d 8c 70 3b fb 6d 70 3b 60 3a 87 3b
       0.0035739772 0.0036704757 0.0036686647 0.004126832
000360 ba d7 ac 39 7c b2 72 3b d6 49 f6 3a 7d ff 8a 3b
       0.00032967125 0.0037032655 0.0018790315 0.0042418824
000370 ef bd 64 3c ce a0 9c 3c 61 23 10 3c 11 fd 50 3c
       0.013961299 0.019119646 0.0087974975 0.012755648
000380 df 8b 5f 3c ac 17 45 3c 41 ca 6e 3b d9 5a dd 3b
       0.013644188 0.01202957 0.003643647 0.0067552147
000390 9e c2 17 ba 42 8f be 3a 77 35 85 bb 15 51 f6 b9
       -0.0005789193 0.0014538544 -0.0040652114 -0.00046981187
0003a0 dd bb e9 3a 04 6c aa bc a6 98 e0 3a fb 18 a3 bc
       0.0017832477 -0.020803459 0.0017135337 -0.019909373
0003b0 df 59 36 bc c8 c4 30 ba cc 8a 0b bd 88 55 05 bd
       -0.011129825 -0.000674319 -0.034067914 -0.032552272
0003c0 24 ae 4e bd eb 3c 87 3b 58 be 34 3b 5c a6 85 3b
       -0.050459042 0.004127135 0.0027579274 0.0040786695
0003d0 bc 2a 8f 3b 2e 3e 9d 3b 17 0d 45 3b 03 75 03 3c
       0.004369108 0.004798672 0.0030067617 0.008023503
0003e0 eb 03 6b 3b ce e4 2f 3a 66 7d e7 ba ee 7f f6 ba
       0.003586049 0.0006709815 -0.0017661273 -0.0018806437
0003f0 44 da 43 3c ce a9 6d 3c b1 4a a0 3c ad 99 60 3c
       0.011953894 0.014505817 0.019566866 0.013708514
