model/Benchmark/DTCNet_1.2s_S7.pth (torch, 197175 bytes, 74 tensors)

global_block.conv_time.conv.0.weight f4 [8, 1, 1, 125]
000000 fd 8f 04 bc 01 e8 b1 3c 2a 31 39 bc 91 ae 52 bc
       -0.00809097 0.021717073 -0.0113032255 -0.012859003
000010 38 d0 02 bd 4e 53 29 3d 3a 32 26 bd 79 4e 82 bc
       -0.031936854 0.04133921 -0.040575244 -0.01590656
000020 ba c1 34 3c 4a 8c 5f bc 12 b7 9c 3c 3a d1 79 bc
       0.011032516 -0.013644287 0.019130263 -0.015247637
000030 4a eb 4c 3c fe 11 f0 3c 60 5e bb bc db c5 ad 3c
       0.012507269 0.029305454 -0.02287215 0.021212509
000040 d1 09 b2 3b b4 d8 1e 3d cd 87 01 bd a0 c9 90 39
       0.005433299 0.038780883 -0.03162365 0.00027616043
000050 4d 82 1c bc 92 ff 19 bd b7 53 0f bd 54 a8 b1 b9
       -0.0095525505 -0.037597246 -0.034991946 -0.00033885485
000060 a3 cb d8 3c 51 24 9f 3b 3d 54 6e 3b f8 9b 0c 3d
       0.026464289 0.004856624 0.0036366128 0.03432843
000070 0b 66 69 3d ff 18 32 bd f6 f3 13 3c dd d6 e1 bb
       0.05698208 -0.04348087 0.009030333 -0.006892069
000080 b4 a8 08 3d aa db 04 bd 7e 98 b8 bc 49 66 d2 3b
       0.033364013 -0.03243605 -0.022533651 0.0064208847
000090 2b 5e 19 3d d1 3a e3 ba e2 8a 60 3d ed 9c 50 bd
       0.03744332 -0.0017336254 0.05481995 -0.050930906
0000a0 64 6e d7 bc d9 e1 90 bd d5 ad 30 bc af c1 97 3b
       -0.026297756 -0.07074327 -0.010783632 0.004631243
0000b0 fa 8e 8b bc bb ce 45 3d 0d 84 17 3d c9 2d 81 bc
       -0.01703595 0.048292857 0.036991168 -0.015768902
0000c0 c9 d4 4d 3d 6f f2 52 3d f9 ed 03 3d b0 3e 87 3b
       0.050251756 0.051500734 0.03220937 0.004127346
0000d0 25 35 0e bd 08 b6 10 3b 62 fa 25 3d ae ba de bc
       -0.03471865 0.0022081155 0.040521987 -0.027188625
0000e0 41 68 87 bd aa ac 0f bd 0b f6 6a bb 71 10 b1 bb
       -0.06611682 -0.035076775 -0.003585222 -0.0054035713
0000f0 35 f8 7a bb 7d 8c 18 3d cd 96 0f 3d 7a 30 33 bc
       -0.0038294916 0.037243355 0.035055924 -0.010936851
000100 f8 62 0e 3c c9 37 7c 3b ff 99 a5 3c ce a2 5e bd
       0.008690588 0.00384854 0.020215033 -0.05435448
000110 65 d9 44 bd ee 43 0b bc f9 5e a4 3b 58 c6 56 3c
       -0.048058886 -0.008500082 0.0050162044 0.013108812
000120 a6 54 09 bd e8 2d 35 3d 48 23 00 3c a2 e4 03 bd
       -0.033527993 0.044233233 0.007820912 -0.032200463
000130 ea be 97 bc d7 5e 46 3d 2c 85 d1 3d f3 05 0e bc
       -0.018523652 0.04843029 0.10230479 -0.008668411
000140 b1 03 8a bc c1 28 e1 3c e9 db c4 bc fc ce bc bc
       -0.016847463 0.027485253 -0.024030643 -0.023047917
000150 68 a7 b5 bd 86 93 6c ba 03 bd 44 bb a8 b5 7b bd
       -0.08869821 -0.0009024668 -0.0030019886 -0.061452538
000160 4e cd 14 bd 2b 90 bb bb eb d3 e1 bc 65 8f af 3a
       -0.036328606 -0.0057239733 -0.02756687 0.0013394175
000170 e0 dd 3b bd 28 6b 23 bd 9c 55 e7 3c bf d5 7f 3b
       -0.045865893 -0.039897114 0.028239064 0.0039037315
000180 be 0d 59 3d 0b 01 94 3d 1d 22 00 3d 81 ea ba bb
       0.05299162 0.072267614 0.031282533 -0.0057042246
000190 a9 2e 66 3c c2 fe c4 3c a1 8d 89 bc 6b 96 a2 bc
       0.014049211 0.02404726 -0.016791167 -0.019847116
0001a0 05 fb 40 3d 8a be 3b 3d ae 57 41 3b 8a 6e 38 bd
       0.04711439 0.04583601 0.0029501724 -0.045027293
0001b0 b4 74 76 bd f8 fd 96 bd 38 2e e3 bc 3d 51 35 bd
       -0.06016989 -0.073726594 -0.027732 -0.044266928
0001c0 59 97 11 bd f3 b9 08 bd 67 9c e9 3c 24 2d 24 3d
       -0.035544727 -0.03338046 0.028516961 0.040082112
0001d0 1e 8d 78 bc 8b d0 0c bd ba b4 79 3c ed 9c 8e bc
       -0.015170364 -0.03437857 0.0152408425 -0.017408812
0001e0 3f 65 9b bd 3d 86 74 bc 25 a8 f6 3c 20 a3 17 bd
       -0.075876705 -0.014924583 0.030109474 -0.037020802
0001f0 81 ef 80 3c 00 ba ea 3b ff 44 5b bd ce f9 72 bd
       0.015739204 0.007163286 -0.053532597 -0.059320264
000200 cb fb 17 3d 82 bb 16 bc 69 b0 1d 3d be 6b 31 3b
       0.037105363 -0.009199979 0.038498316 0.0027072276
000210 25 74 58 3c 40 e3 15 bd f6 e6 be bc d7 00 d1 3b
       0.013211285 -0.036593676 -0.02330349 0.006378274
000220 13 48 1e bc 5b 9f 24 bd 7c a8 e1 3b d7 e4 91 3d
       -0.0096607385 -0.040191036 0.00688654 0.07123726
000230 54 2a cd bc 01 2f 3e 3d 5b c7 8d bc 68 6b c7 bb
       -0.025044598 0.046431545 -0.017306974 -0.006085802
000240 b3 0d e9 3c 0d 5e 53 bd 2c 4a 82 bc 6e a6 6b 3d
       0.028448915 -0.051603366 -0.015904509 0.057531767
000250 2a e5 e0 3c ac 92 bb bc 5c a9 16 3c 8a 3d cd 3d
       0.027453024 -0.022897087 0.009195652 0.10021503
000260 33 b8 71 3d 79 10 00 3d 73 d4 84 bd ad f3 93 bb
       0.059013557 0.03126571 -0.06485834 -0.0045151324
000270 db 09 9f 3b 15 28 05 39 4c 2b 0d 3d 20 69 d4 3b
       0.00485347 0.000126988 0.03446512 0.0064822584
000280 ac d1 86 3c b0 68 a8 3c 99 bf 4b 3d 3f 09 09 3d
       0.016457401 0.020557731 0.04974327 0.033456083
000290 8e 34 99 bc 16 e8 3b bd c2 25 4e bd d7 c2 3e bd
       -0.018701818 -0.04587563 -0.050328977 -0.046572533
0002a0 62 e6 c4 3c 2c 8b a3 3c d3 36 9f bb 22 e4 dc bc
       0.024035636 0.019963823 -0.0048588305 -0.026964251
0002b0 ed f1 a7 3d 59 43 56 3d 5e e6 ee 3c 0f 83 65 3d
       0.082004406 0.05231032 0.029162582 0.05603319
0002c0 a8 c9 f8 bc 89 83 05 bd e1 90 03 bd 52 ac e1 bb
       -0.030369595 -0.032596145 -0.03212059 -0.0068869973
0002d0 de 0a aa bd 5b f1 fe 3b 5e 80 f3 bc 2d 83 ff 3c
       -0.08302854 0.0077802367 -0.029724296 0.03119048
0002e0 6a 7e dd 3b ff 9b 67 3d eb 5b 7e 3d d5 cc 00 3d
       0.0067594545 0.056545254 0.06209938 0.031445343
0002f0 bb 02 a4 3d 86 67 16 bd 79 44 55 bc 47 6f 82 bd
       0.08008333 -0.03671982 -0.013016813 -0.06368881
000300 23 c6 c7 bc a6 07 0e bd 66 34 1b 3c 0e 22 24 3d
       -0.024386471 -0.034675263 0.009472942 0.04007154
000310 ec d3 ee 3c 3c 14 d6 3c 93 ff 65 3c 92 15 4e 3d
       0.029153787 0.026132695 0.014037984 0.05031354
000320 fe e8 58 bc 60 54 48 3d 27 b6 bb bc 4a 06 32 3d
       -0.013239143 0.04890859 -0.022914005 0.04346303
000330 1c e1 9a 3d 45 5e 87 3d f9 0b e9 3c 30 6c fc ba
       0.075624675 0.06609777 0.028448092 -0.0019258317
000340 c1 7e 1f bd fb 4c 6b bc 55 c9 18 bc 3f 4f 5a bd
       -0.03893924 -0.014361615 -0.009325345 -0.05329823
000350 42 30 e9 bc 99 40 18 bc ec 93 ad bd 4f ff 79 bd
       -0.028465394 -0.009292745 -0.084754795 -0.061034497
000360 74 46 06 bd 22 11 0c 3c 5e f1 84 3a 9d e3 0d 3d
       -0.032782033 0.008549007 0.0010142734 0.034640897
000370 57 83 6f 3c d9 71 da bc ae 52 80 bc a4 3d 7f ba
       0.014618716 -0.026665615 -0.015664425 -0.0009736663
000380 e8 54 5a bd ea 1f 14 3d 2a 2e ff 3b 02 4d 45 3d
       -0.05330363 0.036163248 0.0077874856 0.048169143
000390 64 13 4f bd 8b 2f 30 bd 8d 48 d9 3c 23 6d 64 bd
       -0.0505556 -0.04301409 0.026523853 -0.055768143
0003a0 e6 29 5e bd f0 dd 60 3c 9c 9b ee 3b a5 40 84 bd
       -0.054239176 0.013724789 0.0072817337 -0.064576425
0003b0 88 a7 53 3d 69 31 d5 3c 7f 7c ad 3d 42 af f9 3a
       0.051673442 0.026024537 0.08471011 0.0019049423
0003c0 1a cc d7 bc d4 b2 cb bc ea 2b 16 bb 89 e6 38 bd
       -0.02634244 -0.024865545 -0.0022914358 -0.04514173
0003d0 23 16 15 b7 88 c1 d4 bc 61 01 c3 bb 2e 6b d4 3a
       -8.886246e-06 -0.02597119 -0.005951092 0.0016206258
0003e0 19 a0 20 bc 40 6d 6c bd 20 30 f5 3c dc d1 06 bd
       -0.009803795 -0.057721376 0.029930174 -0.03291498
0003f0 e0 12 d8 3c 53 01 0a 3d 8b 02 ee bc d1 27 90 ba
       0.026376188 0.03369267 -0.029053947 -0.0010998194

global_block.conv_time.conv.0.bias f4 [8]
000000 a4 3c eb b9 47 c5 5d 3c bb db 6c 37 99 1e 33 3b
       -0.00044867874 0.013535804 1.4117856e-05 0.002733147
000010 59 93 24 bc 62 23 48 bc 56 59 c9 b1 97 8a e7 b1
       -0.010044896 -0.012215467 -5.8600262e-09 -6.7387407e-09

global_block.conv_time.conv.1.weight f4 [8]
000000 7c dc 5e 3f e4 43 6b 3f 4b 77 72 3f c9 28 5c 3f
       0.8705518 0.9190047 0.94713277 0.85999733
000010 73 8d 69 3f b1 07 5e 3f 02 c9 68 3f 60 4e 71 3f
       0.9123146 0.86730486 0.90931714 0.94260216

global_block.conv_time.conv.1.bias f4 [8]
000000 91 77 11 3a f1 fe a9 bb 00 45 64 3c 9e e3 25 bd
       0.0005549128 -0.005187862 0.0139324665 -0.040500276
000010 91 37 a2 ba 49 dd 42 bc 42 1b c5 bb 5e 04 49 bc
       -0.0012376179 -0.011893579 -0.0060152123 -0.012269108

global_block.conv_time.conv.1.running_mean f4 [8]
000000 b2 29 33 bb 82 41 e3 3c 64 42 4a 3b 26 22 a6 bb
       -0.0027338085 0.027741197 0.0030862326 -0.005069989
000010 fe 76 1e bc 73 3d 3e bc 0e df 22 3c a5 01 19 bc
       -0.009671925 -0.01161133 0.009940876 -0.009338771

global_block.conv_time.conv.1.running_var f4 [8]
000000 84 4e 22 41 8b 5d 39 41 19 92 39 41 b5 5d 03 41
       10.144169 11.585338 11.598168 8.210378
000010 36 7b 24 41 3f 36 18 41 aa 41 0e 41 a2 22 35 41
       10.280081 9.513244 8.891031 11.320955

global_block.conv_chan.conv.0.weight f4 [8, 8, 11, 1]
000000 8a 01 35 bd e0 d8 f1 3c 22 40 68 3c b5 8b 00 bc
       -0.04419092 0.02952236 0.014175447 -0.007845809
000010 83 b3 0f 3d 06 d0 3e 3d f2 c1 75 3d 17 d7 e1 bc
       0.035083305 0.046585105 0.059999414 -0.027568383
000020 79 95 be 3b 73 01 87 bd 42 e6 3b 3d d1 bf 98 3d
       0.0058161584 -0.06592073 0.045873888 0.07458461
000030 8e a1 e3 bc 79 4f 03 3d a5 73 39 3d e2 20 df bc
       -0.027786996 0.032058213 0.045276303 -0.02723736
000040 4f 91 f9 bc b3 ad 88 ba 3d 99 d4 bc ac 73 a6 3d
       -0.030464796 -0.0010427743 -0.025951976 0.081275314
000050 92 45 36 bd 63 37 f0 3c ef 04 2f bd a6 a5 a0 3c
       -0.04449994 0.029323285 -0.042729314 0.019610237
000060 42 dd d8 3c 84 2d 94 bd f3 6a 06 3b 18 89 4b bd
       0.026472691 -0.07235244 0.0020510524 -0.04969129
000070 4e 15 5b 3d 5e 95 4f bd f8 62 8b bd e7 ae df bc
       0.053487115 -0.050679557 -0.06805986 -0.02730508
000080 97 04 ba bc ea 24 8a 3d d3 97 ea bc 91 6f 45 bd
       -0.022707267 0.06745322 -0.028636849 -0.0482021
000090 6b b4 ca bc ee 13 7c 3c f8 92 4e 3c 7e 28 65 3a
       -0.024744233 0.015385611 0.012608282 0.00087416905
0000a0 3d 90 c5 bd e1 79 31 bd df ea 38 3d 78 89 28 3d
       -0.09646652 -0.043329123 0.045145866 0.041146725
0000b0 eb ee 0d bd 80 7b e1 3c d0 d4 dc bc d6 72 39 bd
       -0.034651678 0.02752471 -0.026956946 -0.04527553
0000c0 3c 2e 04 bd 31 db 62 ba 69 2c 85 3d 4f e1 2c bc
       -0.032270655 -0.0008653878 0.06502611 -0.010551765
0000d0 57 d3 6f 3d 2b 88 45 3b fb 54 a3 bd 39 02 f9 3c
       0.05855116 0.0030140977 -0.07975193 0.030396568
0000e0 b8 9e 80 3d ef b5 b0 3d 07 e6 b7 bb d7 24 a6 bd
       0.06280273 0.08628451 -0.005612138 -0.081124954
0000f0 b0 48 8d 3d 6f 91 bc 3d 3b e5 8f 3d dd 87 bb bc
       0.0689863 0.09207427 0.07026144 -0.022891933
000100 f8 9c 76 3d 03 ac 5e bd 93 f5 b5 3c 87 47 21 3b
       0.06020829 -0.054363262 0.022211825 0.0024609284
000110 c7 b7 ac 3c 52 3a d6 3b 83 c4 ba bc 87 b8 82 bd
       0.021083726 0.006537714 -0.022798782 -0.06382852
000120 2f a1 0b 3c d9 b5 b6 3b a8 4d 15 3d 59 28 9f 3d
       0.008522316 0.005575877 0.036451012 0.077713676
000130 50 98 8b ba e3 f8 b5 bd f6 e0 10 bd 4f 6f 01 bd
       -0.0010650251 -0.08885362 -0.03537079 -0.031600293
000140 24 3d bd 3b 4c ee 96 bd 3f 55 a9 3d ff 42 55 3d
       0.005775111 -0.0736967 0.082682125 0.052065846
000150 eb ad c1 bc 5c 21 2d bc c2 58 22 bd 3f a2 8b bc
       -0.0236425 -0.0105670355 -0.039635427 -0.017045138
000160 b0 49 5a 3d 75 9e 69 bd 62 76 eb bc c0 c2 2e 3d
       0.05329293 -0.057035882 -0.028742973 0.042666197
000170 44 0b a1 3c 15 f5 5e bc d9 53 d3 3b b6 fc bc bc
       0.019658692 -0.013608237 0.0064492044 -0.02306972
000180 9f c2 90 3d 75 22 54 3d 61 6f ee bb 7d 57 7a bc
       0.07068371 0.051790673 -0.007276461 -0.015279648
000190 6e 33 8b bd 89 31 e9 3a 26 28 f1 ba d3 0b 4e 3d
       -0.06796919 0.0017791252 -0.0018398806 0.050304245
0001a0 5c 20 08 bd 6e 1c 8c bd 0d d6 8d 3d 68 1f 7b 3d
       -0.033233985 -0.0684136 0.069255926 0.06130925
0001b0 90 25 54 bc 3d 9a 29 bc 03 3f a5 3d d1 0c f9 bd
       -0.012948409 -0.010351715 0.08068659 -0.12160648
0001c0 06 fc eb bc 00 3e 0b bc 32 64 9a 3d a7 c0 63 3d
       -0.028806698 -0.008498669 0.07538642 0.05560365
0001d0 39 95 b0 bd 65 6d 8e bd 09 30 95 bd 4f dd b0 3d
       -0.08622212 -0.06954459 -0.072845526 0.08635961
0001e0 ed af bf 3d 15 b7 8b 3b 7f 8a 84 3a e0 65 d9 bc
       0.09359727 0.0042637684 0.0010112076 -0.026537836
0001f0 39 05 81 3c 84 bd 05 3c 97 5d 28 bd 0e 7a af 3c
       0.01574956 0.00816286 -0.04110488 0.021420505
000200 8a 01 db 3d 7e 50 50 3d 79 1f 98 bd 3a c7 9e bd
       0.10693653 0.050858013 -0.07427878 -0.07752843
000210 e8 3b f0 3c f5 b8 9a 3d 6f c1 25 3b 1b 35 a7 bd
       0.02932544 0.07554809 0.0025292297 -0.08164426
000220 ed f6 80 bc 97 ca 96 bd 35 b7 69 3d 51 49 80 3d
       -0.015742743 -0.0736286 0.057059485 0.06263984
000230 6b 25 8d 3d 95 bd 37 bd 71 6d 80 bd 00 5f 85 bc
       0.068919025 -0.044858534 -0.06270874 -0.016280651
000240 3e f1 b7 3d 4e 0f 4c 3d 8a 8d 61 bc 55 3f e2 bd
       0.0898156 0.049819283 -0.013766656 -0.11047236
000250 14 75 3a bc 69 aa a6 3d e4 a9 8f bc af a6 22 bd
       -0.011380453 0.08137972 -0.017537065 -0.039709743
000260 23 86 69 bd 44 a3 1d 3d 42 38 01 bd 7c 56 ac bd
       -0.05701269 0.03848578 -0.031547792 -0.08414933
000270 2d fc 35 bd 86 f6 b0 3d 8d dc 5d 3d 95 fe 4b bc
       -0.044429947 0.086407706 0.05416541 -0.012450834
000280 a5 60 1f bc d1 29 c9 bc 0c e0 a3 bb ee e0 13 bc
       -0.009727632 -0.024556072 -0.0050010737 -0.009025795
000290 0a 81 a8 3d 12 77 0d 3c 08 f0 e8 3c 77 91 83 3b
       0.08227737 0.008634346 0.028434768 0.0040151435
0002a0 7b 1f 35 bd fd 46 e3 bd 18 c3 ce 3b e2 ad 09 3c
       -0.044219475 -0.11097524 0.006309878 0.008403273
0002b0 45 ab 05 3e 61 03 d8 3b 1b 99 1e bd 4d 11 03 bd
       0.13053615 0.0065921997 -0.03872023 -0.03199892
0002c0 1c 03 2a bd 7e ea 0d bd 2e 7d 76 bd 5a f4 15 3c
       -0.04150687 -0.034647457 -0.060177974 0.009152496
0002d0 33 fd b2 3d 81 97 25 3d 7f 73 f9 bd e7 03 f3 3c
       0.087397 0.04042769 -0.12180232 0.029664947
0002e0 6c fc 1c 3c ae 7f 57 3d 26 59 01 3d d0 02 8b bd
       0.009581666 0.052612 0.03157916 -0.06787646
0002f0 55 4f 07 be f2 3a 00 bc 8d 25 b8 3c 2b 8b a0 3d
       -0.13213857 -0.007826554 0.022478843 0.07839044
000300 d5 cf ae 3b 43 97 bc bc f2 ce 75 3d c1 80 50 3d
       0.005334834 -0.023021346 0.06001181 0.05090404
000310 87 e9 f4 bc 57 e1 7d 3d de 45 11 3d 63 95 16 3e
       -0.02989651 0.06198248 0.03546702 0.14705424
000320 02 c6 e1 bd 0a eb 24 bd 80 4f 90 bd e4 02 dc bd
       -0.11024095 -0.040263213 -0.070464134 -0.10742739
000330 13 4e 3b 3d a1 1d b5 3d 23 03 93 3d a6 98 28 bd
       0.045728754 0.08843542 0.07178333 -0.041161202
000340 0b 17 2a 3c 45 a0 14 3d 75 4c 18 bc bc ca 3d bc
       0.01038147 0.036285657 -0.0092955725 -0.01158398
000350 9e cb 51 bd 69 92 1c 3c 16 53 cc bc 3a 73 1e bc
       -0.051219575 0.009556391 -0.024941962 -0.009671027
000360 b1 9c d0 3d ba e1 0c 3d 58 7b b1 bc e2 12 89 bd
       0.101861365 0.034394957 -0.02166526 -0.06693055
000370 a6 b9 40 bc d7 50 7c bd 4c 04 37 3d 51 2e 7a bb
       -0.011763012 -0.061600532 0.044681832 -0.003817458
000380 90 07 a6 3c 62 5f 7b 3d 43 5f b9 bd 5d 8c 80 3d
       0.020267278 0.06137026 -0.09051373 0.06276772
000390 07 29 af bb 79 35 93 bc b3 58 86 3c 02 9f de 3b
       -0.005345467 -0.017969834 0.016399717 0.0067938576
0003a0 26 4c 12 3d 9f 46 df bb 28 3d 00 3d 98 64 c5 bc
       0.035717152 -0.0068138386 0.031308323 -0.024095818
0003b0 de ff 2c 3d 6d d0 b9 bd 63 20 5a bd 22 69 ca bd
       0.0422362 -0.09072957 -0.053253543 -0.09883334
0003c0 34 99 5c 3d 94 24 26 3d b7 10 37 bd d3 ff 35 3e
       0.053857043 0.040562227 -0.044693675 0.1777337
0003d0 ea 3f 73 bd 61 31 e5 bd 70 75 a1 bd 14 c0 d2 bc
       -0.059387125 -0.11191059 -0.078837276 -0.025726356
0003e0 91 05 be 3d 04 5f 62 bb b9 81 be 3d 53 d3 cb ba
       0.092784055 -0.0034541497 0.093020864 -0.001555065
0003f0 2d a6 a5 bd b6 31 63 bd 7b 51 19 bd 89 f6 75 bc
       -0.08088336 -0.05546733 -0.03743122 -0.015012392

global_block.conv_chan.conv.0.bias f4 [8]
000000 65 4f 81 b1 7a 4b 62 3a 4b 5a 0b bd 2f 83 46 bd
       -3.7634202e-09 0.00086324627 -0.034021657 -0.04846495
000010 14 25 20 3d 06 d8 3b bb 22 8c e9 31 e0 6c 80 39
       0.03909786 -0.0028662696 6.7971238e-09 0.0002449518

global_block.conv_chan.conv.1.weight f4 [8]
000000 38 e2 48 3f 14 d1 68 3f ec 1b 6f 3f c7 ab 6d 3f
       0.7847018 0.9094403 0.9340198 0.92840236
000010 52 65 62 3f 7d bf 6a 3f df c6 5c 3f 00 c9 5b 3f
       0.8843585 0.9169844 0.86240953 0.85853577

global_block.conv_chan.conv.1.bias f4 [8]
000000 9a f7 0c be 85 be 92 bd b1 eb 9e bd 22 9a 7b bd
       -0.13766328 -0.07165245 -0.07759798 -0.06142629
000010 ff bf 8d bd e0 d5 09 be 46 6c 08 be 39 86 89 bd
       -0.06921386 -0.13460493 -0.13322553 -0.06715054

global_block.conv_chan.conv.1.running_mean f4 [8]
000000 ab 73 83 3c 28 cd 65 bc 31 01 7a bd c0 a7 1a bd
       0.016046366 -0.014025964 -0.061036292 -0.037757635
000010 0c 9f b4 3d 67 2a 8e 3c 2f e9 18 bc 4b f1 5b 3b
       0.08819398 0.017354203 -0.009332939 0.003356057

global_block.conv_chan.conv.1.running_var f4 [8]
000000 0d 55 af 3d bc 50 3e 3d 2a 17 b3 3c 64 84 20 3d
       0.08561144 0.046463713 0.021861631 0.039188758
000010 3b 75 61 3d f8 a1 72 3d 42 11 0b 3d 06 5a 0e 3d
       0.05504344 0.059236497 0.033952005 0.03475382

local_block.conv_time.conv.0.weight f4 [8, 1, 1, 51]
000000 6c 35 1e bd be d1 26 3c 04 1f 15 bc d8 ca ae 3a
       -0.038625166 0.010181842 -0.009101633 0.0013335599
000010 3e 6f 62 3c 83 c5 92 bd f1 0a e2 3c b8 97 cf bc
       0.0138204675 -0.071665786 0.027593108 -0.0253409
000020 7b f4 cb 3d 1e 84 54 3d d4 02 ef 39 1f 95 04 3d
       0.0995874 0.05188381 0.0004558774 0.032368775
000030 48 7d ba 3d ab e6 cb bd 27 b0 3a bd 8f f2 b2 bd
       0.09105927 -0.09956106 -0.04557815 -0.08737671
000040 7a ee 2c bd eb a5 05 3e 69 a1 01 3e e9 a4 38 3d
       -0.042219616 0.13051574 0.1265923 0.045079146
000050 55 f2 ab bd 07 37 de bc e2 bc 65 bd c0 54 6a bd
       -0.083958305 -0.027125848 -0.056088336 -0.05720973
000060 f7 fe a5 bc 0f 7c 23 3d d8 f0 14 bd de e7 3c bd
       -0.020263178 0.039913233 -0.0363625 -0.046119563
000070 ae 6e d0 3c 86 f5 c1 3d 99 35 86 3d 9d ac d0 3d
       0.025443401 0.09470658 0.06553192 0.10189173
000080 96 85 38 3d e3 25 59 bd 69 61 f1 3d ff 4c ac 3d
       0.045049272 -0.053014647 0.11786158 0.08413123
000090 44 9d a0 bb 18 b6 04 be ea 24 c7 bc ae 55 13 bb
       -0.00490156 -0.12960088 -0.024309594 -0.002248149
0000a0 94 d2 ab 3b 5e b2 b5 bd 63 80 bc 3d 7a 0b 91 3d
       0.0052436087 -0.088719115 0.09204175 0.07082267
0000b0 5e fe 2c 3c ed af 5d bd 53 67 58 bc 87 36 ab bd
       0.010558693 -0.054122854 -0.013208228 -0.0836001
0000c0 04 d1 a9 bd c3 ee d7 3b d6 1c be bd 02 3b af 3c
       -0.0829182 0.006589742 -0.09282844 0.021390442
0000d0 9d 27 4b bd fe 29 96 bc 12 bf 10 bd 9e f1 99 3c
       -0.049598325 -0.01833057 -0.03533847 0.01879197
0000e0 1c 84 98 bc cd ee 55 bc 14 61 2a 3d 69 7a bc bd
       -0.018617682 -0.013057423 0.041596487 -0.092030354
0000f0 e1 a8 dc 3c c7 cb 8e bd b6 34 01 3e f6 f9 19 3e
       0.026935996 -0.06972461 0.12617764 0.15036759
000100 57 4d 5c 3c c7 da 34 bc f6 45 94 3c 52 5f 6e 3d
       0.013446174 -0.011038489 0.018099766 0.058196373
000110 c3 3e 09 bd 35 d7 92 bc b3 f8 ea bc fd 51 9e bd
       -0.03350712 -0.017924884 -0.028683042 -0.07730482
000120 ca 14 49 3d 2d 03 93 bd 66 34 7c bc 52 70 b8 3d
       0.04909209 -0.0717834 -0.015393352 0.090057984
000130 29 f8 ac bc cf f4 71 bc 35 d2 1c 3d e4 bf d9 3d
       -0.021114426 -0.01476784 0.038286407 0.10632303
000140 e9 de b0 3d 3d c3 93 bb ae fd 27 3d 74 21 87 bd
       0.08636267 -0.004509358 0.041013412 -0.065981776
000150 05 96 6d bc ad fd 52 3d 92 5d 3b bd 5c 1a a0 3c
       -0.0145010995 0.051511455 -0.045743532 0.01954382
000160 3f 1f 42 3a be e8 ba 3d 70 02 05 3e 21 b0 9c 3d
       0.0007405169 0.09126423 0.12989211 0.076507814
000170 23 38 d0 3c ac 07 99 bd 60 7e f1 bc 67 2a 34 3c
       0.025417393 -0.074721664 -0.029479206 0.010996438
000180 d4 c1 c5 3d 4f 66 ac bc a2 73 05 3d 71 c2 4c bd
       0.096561104 -0.021044878 0.03258098 -0.04999012
000190 d3 58 02 3d fe 94 ba bd 1c d6 52 bd 9d 95 c7 bd
       0.03182299 -0.09110449 -0.05147372 -0.09745333
0001a0 56 b1 62 3d 58 38 9b bd be dd a2 bd 85 bb 53 3c
       0.055344902 -0.07579106 -0.0795245 0.012923126
0001b0 c4 b8 bf 3c f7 5c 43 3d 01 8d 0a 3e 5a 31 16 3c
       0.023403533 0.04769608 0.13530351 0.00916704
0001c0 e1 6d 98 3d 24 bd 46 bc 95 a4 8e bd d3 d4 93 bd
       0.07442833 -0.012130056 -0.06964985 -0.072183274
0001d0 c9 a6 a6 bd 3f d1 4b bd 89 dd 2a bd 66 d7 dd bc
       -0.081372805 -0.0497601 -0.04171518 -0.027080249
0001e0 18 f4 e5 bd 9c 93 7d 3d 51 cc b5 3d 43 10 2c 3d
       -0.11228198 0.06190835 0.08876861 0.042007696
0001f0 d7 12 a3 3d a7 33 18 bd 11 38 83 bc 8e 76 b7 bd
       0.07962578 -0.037158635 -0.016017945 -0.089581594
000200 ab 5c 0f 3d 49 60 b9 bc 0d a5 22 bd 08 94 23 3d
       0.035000484 -0.02262892 -0.039708186 0.039936095
000210 93 c2 b5 bc d8 1b 86 bd 19 bf c8 3c 18 df a5 3b
       -0.022187507 -0.065482795 0.024505185 0.0050619952
000220 c6 bb ba 3d 26 31 04 bc ea 0f f8 3c b1 d8 9c 3d
       0.09117846 -0.0080683585 0.030281026 0.07658518
000230 6e e5 4b bd 01 3d 69 3d 3d b6 c4 3d a9 dc b2 bd
       -0.049779348 0.056942943 0.09605072 -0.08733494
000240 cb df 26 be bd ab 87 3c 4a b0 27 bd 5f 02 9d bd
       -0.16296308 0.016561383 -0.040939607 -0.07666468
000250 a8 41 b6 bd b4 49 dc 3d a4 c4 ed 3d 1b 16 67 bd
       -0.08899242 0.10756245 0.11609772 -0.056417566
000260 19 89 a5 bb 3c e5 13 3d c0 57 5f 3c 02 c1 36 3c
       -0.0050517437 0.036107287 0.013631761 0.011154415
000270 67 c9 50 3c 2d 12 d4 3a 60 36 68 bd 6b a8 3c 3a
       0.012743331 0.0016179733 -0.05669248 0.0007196727
000280 38 74 54 3c 2a 3a b7 3d 90 56 1f bc 2e 95 4a 3d
       0.012967162 0.08946641 -0.009725228 0.049458675
000290 45 d6 b7 3d 07 6d 9c bd cf df 47 bc 6f 7c 6e 3d
       0.089764155 -0.07637983 -0.012199356 0.058224138
0002a0 2c 98 a0 bd c9 89 3a ba 3b 1a ad bc ca 6f 06 bc
       -0.078415245 -0.00071158685 -0.021130672 -0.0082053635
0002b0 8a a2 b5 3d 1f 31 d0 3c 3b b1 12 bd 11 97 55 3d
       0.088688925 0.025414048 -0.03581355 0.05214602
0002c0 56 92 41 bd 60 75 b6 bc b4 e4 6b 38 e1 85 ab bd
       -0.047258697 -0.022272766 5.6241362e-05 -0.08375145
0002d0 cf b3 c7 bd 44 22 a2 bd ea 62 92 3d 5c 6c 19 bd
       -0.09751093 -0.07916692 0.071477726 -0.037456855
0002e0 d6 ca a9 3d ee c3 80 bd 4d 87 5c 3d ac f9 d2 3d
       0.08290641 -0.062873706 0.05383997 0.103015274
0002f0 91 59 4b 3d 4a 9a 2e bc 4b 30 58 3d 86 5c 0f 3d
       0.049645964 -0.010656903 0.05278043 0.035000347
000300 65 e4 d9 bc 14 a8 92 bd 51 51 6f 3d 92 60 8b bd
       -0.026598165 -0.071609646 0.05842716 -0.06805529
000310 c2 c5 01 bc 57 09 f1 bd 2b 4d ad bd ff 67 34 3d
       -0.007920684 -0.117693596 -0.08461984 0.04404449
000320 be 0a 2c bd b5 dc c6 3d e3 a0 5b 3c bb ac 46 3d
       -0.042002432 0.09710065 0.013405058 0.048504572
000330 b6 f5 37 bb ba 5a ae 3d b4 cb 9c bd b6 5b b7 bc
       -0.002807004 0.085133985 -0.07656041 -0.022382598
000340 63 65 ee 3b 08 3b 72 bd c5 b7 48 3c 5b 91 87 bd
       0.00727527 -0.059138328 0.012250845 -0.06619521
000350 d0 02 51 bb 1e 01 4f bc 46 d1 db bd c6 2c 08 be
       -0.0031892546 -0.012634544 -0.10733275 -0.1329833
000360 92 d4 21 be 21 7c 66 bc 5f 2c c4 3c f1 d1 9b bc
       -0.15803745 -0.014067681 0.023946939 -0.019021006
000370 76 77 8d 3d 0c ac ae bd 62 5b 03 3d 2a f7 52 3d
       0.06907551 -0.08528909 0.03206957 0.051505245
000380 65 a4 f1 bd dc 0e 6a bd 3f 31 11 3c f2 44 57 bc
       -0.11798934 -0.057143077 0.008861839 -0.013138996
000390 31 75 58 bc 0b e5 f9 3b 1a 92 b6 3d 51 a0 8e ba
       -0.013211534 0.007626181 0.089145854 -0.0010881518
0003a0 f1 cd be bd 4a 45 7c bd 7e d2 66 3b 7a 14 a2 3b
       -0.09316624 -0.061589517 0.0035220678 0.0049462887
0003b0 0b ba 0d bc 11 92 6e 3d 6b 2d a3 bc 2c 10 3e bd
       -0.008650313 0.05824477 -0.019919118 -0.04640214
0003c0 5b e3 90 3d 85 4b 8d bd e5 52 c5 bd c9 52 25 3c
       0.070746146 -0.0689917 -0.096349515 0.010090538
0003d0 12 42 e0 bd 5e 0f 92 bd 92 b0 f1 3d 46 8f d0 3d
       -0.10950102 -0.07131837 0.11801256 0.10183577
0003e0 cc f4 50 bd 91 d6 1f 3c a9 81 9f bd fb ac 23 bd
       -0.051014706 0.009755746 -0.077884026 -0.03995989
0003f0 19 a9 2e bd 70 17 e1 3c 18 24 e6 3c 5c 56 e9 bc
       -0.042641733 0.027476996 0.028093383 -0.028483562

local_block.conv_time.conv.0.bias f4 [8]
000000 c1 3d f9 39 2e c7 62 bd 01 d0 47 3c fb 88 d8 3b
       0.0004753899 -0.055365734 0.012195588 0.006608126
000010 ab fd 71 3b 78 ae d6 3c 0e 00 04 3d 36 13 77 3c
       0.003692488 0.02620624 0.032226615 0.015080264

local_block.conv_time.conv.1.weight f4 [8]
000000 07 97 78 3f 9d d6 71 3f 7f 43 63 3f 9f e6 5c 3f
       0.9710545 0.944681 0.88774866 0.862894
000010 b9 ea 51 3f 87 53 5d 3f 78 e1 64 3f a1 78 80 3f
       0.81998783 0.8645558 0.8940654 1.0036813

local_block.conv_time.conv.1.bias f4 [8]
000000 7e 00 1a 3d a0 f2 38 3c 40 8a 34 bb 29 3e d6 3c
       0.037598126 0.011288315 -0.0027548224 0.026152687
000010 af 68 3e bd 4d 75 93 3d 2f 53 64 3c 0f 81 29 bc
       -0.046486553 0.07200108 0.013935848 -0.010345711

local_block.conv_time.conv.1.running_mean f4 [8]
000000 8b 82 a1 3b 5d 34 4c bd dc bb 8a 3c bf ac 29 3c
       0.004928892 -0.049854625 0.016935281 0.010356127
000010 7e 07 6a 3b dc 46 e9 3c 3e f9 02 3d a4 e6 62 3c
       0.0035710032 0.028476171 0.031975977 0.013848934

local_block.conv_time.conv.1.running_var f4 [8]
000000 70 29 54 41 53 bb 04 41 c4 1b 50 41 43 81 11 41
       13.260117 8.295733 13.006779 9.094058
000010 cf d2 03 41 ea 57 12 41 1a a7 17 41 87 be 0e 41
       8.238967 9.146463 9.478296 8.921515

local_block.conv_chan.conv.0.weight f4 [8, 8, 11, 1]
000000 68 47 fe bc 7b cb 10 3e 73 9f 11 3d ce 76 af bc
       -0.031039909 0.14140122 0.035552453 -0.021418955
000010 1a 86 1c bd 05 a6 9a bc c8 79 8f bd 82 e4 80 3d
       -0.038213827 -0.018877992 -0.0700565 0.062935844
000020 98 ba b4 bc a6 cb 8b 3c 4f cd a3 bd a6 0f a9 3a
       -0.022061631 0.01706488 -0.07998144 0.001289834
000030 e4 a2 4d 3d c4 14 97 3c ed 30 ee bb 38 a1 18 3d
       0.050204173 0.018442519 -0.007269016 0.037263125
000040 ba 7c 5c bc ee ae c7 bd 36 0b 0a bd 01 d7 08 3d
       -0.0134574715 -0.09750162 -0.033702098 0.03340817
000050 d0 1d e8 3c 4b 19 b5 3b 41 4a 1b 3b b7 fe a9 3c
       0.028334528 0.005526697 0.0023695382 0.02075134
000060 12 88 3f 3d fc 53 1c 3c aa d6 04 3d 82 d1 97 bc
       0.046760626 0.009541508 0.032431282 -0.018532518
000070 3d e6 87 bc d7 e4 59 bd 4d 4c 4f bd 92 50 8f 3d
       -0.016589278 -0.053196754 -0.050609875 0.069977894
000080 3c a3 87 bd 9c 8a 13 bd 92 85 c4 b9 45 61 94 3a
       -0.06622931 -0.03602086 -0.0003748355 0.0011320492
000090 a2 08 08 3c fd 4e 81 bc 09 0e fc 3c e4 c3 74 3d
       0.0083028395 -0.015784735 0.030768411 0.05975713
0000a0 d6 0a 6f 3d ac 28 5d bd 81 d1 8e bc d6 9e 49 3d
       0.058359943 -0.053993866 -0.017433884 0.049223743
0000b0 cc 05 5b 3d 7e af 76 3c 7b bb 9c bd 7d fe 70 bc
       0.053472325 0.015056489 -0.076529466 -0.014709112
0000c0 b7 5e 88 3c 8f 4c 58 bd ed 1c 8d 3d 6f 87 31 3d
       0.016646726 -0.052807387 0.06890283 0.04334205
0000d0 bd 81 98 bc 24 6f ca 3c 46 dd 0b 3d 46 04 14 bd
       -0.018616552 0.0247112 0.03414657 -0.036136888
0000e0 4f ff e0 3d 40 71 12 3b 98 9e 01 3d 2b 8c 19 3c
       0.10986196 0.0022345334 0.031645387 0.009371798
0000f0 d6 a1 d8 bc 2f 87 85 3d e5 8b 83 bc 0e b0 9f bd
       -0.026444357 0.06519925 -0.016057918 -0.07797252
000100 80 3f 1d 3c 56 72 5d bc bb 35 e9 bc 3c 0e fa bc
       0.009597659 -0.013516029 -0.028468003 -0.030524366
000110 5c 4d 44 bd d4 45 6c 3d 3f f8 61 3b 6b 05 13 3b
       -0.04792534 0.05768378 0.0034480242 0.002243365
000120 04 36 87 3c 2a cc a0 3b 8f 96 2e 3b de 03 ab bc
       0.016505249 0.0049071508 0.0026640033 -0.020875867
000130 53 04 65 3c 1c 6f 80 3c 1d 4e 0e 3e 70 4b 5f 3d
       0.013978082 0.015677981 0.13896985 0.054515302
000140 c4 9b 2e bd 96 60 99 bc 84 48 75 bd fa c3 2c ba
       -0.04262902 -0.018722814 -0.05988361 -0.0006590482
000150 95 75 c0 3d ec 84 55 3d 5e 0f 63 bd 27 e9 ed bd
       0.09397427 0.052128717 -0.055434577 -0.11616736
000160 b6 a9 43 bd 9f 48 81 bc c5 ab 2e 3d 36 80 95 bc
       -0.04776927 -0.015781699 0.04264428 -0.018249612
000170 21 08 43 3d c1 bf 51 bd da a0 96 3b 3b f7 b5 3d
       0.047615174 -0.05120826 0.0045968117 0.08885046
000180 a9 b4 b9 bc a1 ff 2d 3d e1 52 9e bd c9 ed bf bd
       -0.022669153 0.042480115 -0.07730652 -0.09371526
000190 6f 74 89 bc 2a 2d 37 bb a2 c4 18 3c 31 f0 17 bd
       -0.016779153 -0.0027950504 0.009324225 -0.0370943
0001a0 a4 11 12 bd 9e 71 ca 3d de e4 f0 bb e0 12 16 bd
       -0.035661355 0.09884952 -0.007351502 -0.036639094
0001b0 c7 99 a5 3d cb 87 ad bd cd f8 f9 bd e9 d3 29 3d
       0.08085971 -0.08473166 -0.12205658 0.04146186
0001c0 bd e0 7e bd 27 1c e0 bd d5 39 71 3d a6 2e b3 bd
       -0.062226046 -0.1094287 0.058893044 -0.08749132
0001d0 a4 74 dd 3d 47 79 fa 3d c6 98 00 3d 83 56 a3 3b
       0.10813263 0.12230163 0.031395696 0.0049846782
0001e0 c6 39 47 bd 91 be 8a 3d a8 cc 74 bd b5 7c 24 3c
       -0.04863908 0.06774629 -0.059765488 0.010039498
0001f0 c8 69 fd bd 13 27 77 bd 86 3f 38 bc 1d 0f 16 bd
       -0.12373692 -0.06034 -0.011245614 -0.036635507
000200 db 38 f6 3c 89 35 e9 bc ff 67 05 bd c6 52 88 3d
       0.030056408 -0.02846791 -0.03256988 0.06656413
000210 62 4d 5c 3c e3 5d 26 3c c3 64 e5 3b cd a5 6e bc
       0.013446184 0.01015422 0.007000537 -0.014565897
000220 b6 c7 5b bd 58 bd 5f 3d f8 41 9e bc c7 34 e9 bd
       -0.053657256 0.05462393 -0.019318566 -0.113870196
000230 63 72 82 3c f8 83 3d bd 8f 3e d1 bc c7 c4 65 3d
       0.015923684 -0.046268433 -0.025542526 0.056095865
000240 61 3e d0 bd f3 af 5c bc 18 cf c8 39 5f 97 cb bc
       -0.10168148 -0.013469684 0.0003830127 -0.024852453
000250 56 37 62 39 5d 6a 9a 3d 47 87 9c 3c 92 5a 5d bc
       0.00021573654 0.075398184 0.019107474 -0.013510363
000260 7f 43 9a 3d c1 39 98 bd 69 3f df bc 8a 74 90 3c
       0.07532405 -0.07432891 -0.027251916 0.017633695
000270 b0 a4 b4 bc 3b 8d 15 3c 73 a1 20 bd 3e 1e 85 bc
       -0.022051185 0.00912791 -0.03921647 -0.016249772
000280 dd 62 c9 3d bb c4 fd 3d 67 5e 8a 3d 74 61 d5 3b
       0.0983331 0.12391039 0.06756287 0.0065118615
000290 4f 44 8a bd 95 ef 05 bd 06 cc b3 3d d8 e2 78 bc
       -0.0675131 -0.032699186 0.08779149 -0.0151908025
0002a0 69 d5 1c bd e3 ae 2a 3d 9a 7f 8f bc ca de 79 3c
       -0.03828946 0.04167069 -0.0175169 0.015250871
0002b0 ed f6 8a 3d d8 7e 43 3d b6 90 62 3b 95 80 5e bd
       0.067853786 0.04772839 0.0034571118 -0.054321844
0002c0 58 aa 22 3d 6e ad 82 bd 84 0b 94 bd b3 c8 16 3e
       0.039713234 -0.06380735 -0.07228759 0.14724998
0002d0 8d 92 c2 3d 04 c6 32 38 f8 e3 ad bd 05 91 f4 bc
       0.095006086 4.2622924e-05 -0.08490747 -0.029854307
0002e0 97 06 6b bb 83 54 8f 3d d2 b2 12 bd 24 5f c1 bd
       -0.0035862082 0.06998541 -0.035815068 -0.09441975
0002f0 73 a8 96 bd b3 e7 4e bd f8 0d a7 3d e7 95 80 3d
       -0.07356348 -0.050513934 0.08156961 0.062785916
000300 05 f6 b5 bb ab 4c b9 3c 98 1f 95 3d 08 dc a7 3c
       -0.0055530095 0.022619566 0.07281417 0.020490661
000310 a4 88 2b bc 90 44 23 3d dd 3c af bc 92 86 bb bd
       -0.010469589 0.03986031 -0.021391327 -0.091565266
000320 46 a2 6f 3d 9b 7c 47 bb a5 89 2f 3d 2b fd 80 bb
       0.058504365 -0.003043926 0.042855877 -0.00393643
000330 e9 37 74 3d 6e ce 44 bd 30 0f 63 3d 98 01 e4 bc
       0.059623633 -0.04804843 0.055434406 -0.027832791
000340 1a 19 19 bc 19 c3 01 3b 8a 6a 6b 3d ef 89 be bc
       -0.009344364 0.0019800125 0.05747465 -0.023259131
000350 69 9f 7b 3b 8f a7 ee 3c 82 97 95 bc 9b 82 04 bd
       0.0038394576 0.029132633 -0.018260721 -0.032351118
000360 11 7c ac bd b5 60 69 bd 59 00 ef 3d 00 2f f9 bc
       -0.08422101 -0.056976993 0.11669988 -0.03041792
000370 30 1d b3 bd af c4 0a 3b 8d bb e2 3c ca b5 a3 3c
       -0.087458014 0.0021174361 0.027677322 0.019984145
000380 88 13 a0 bc dd a2 92 3d 5a 1f 18 3c 55 fa 2b bd
       -0.019540563 0.0715997 0.009284819 -0.041986782
000390 50 d0 89 bd 66 45 50 3c ce 55 10 3c ca a1 15 bd
       -0.067291856 0.012711858 0.00880952 -0.036531247
0003a0 7b b7 b0 bd 5e 46 76 bc 00 69 20 bc 61 13 82 bc
       -0.08628746 -0.015031425 -0.009790659 -0.015878381
0003b0 3a 21 1f 3d 53 c9 14 3d fe 63 b4 bd 2a 36 b9 3d
       0.038850047 0.03632481 -0.088081345 0.09043534
0003c0 8b b1 1a 3d 4b 3a 99 bb 56 0f 3d bc 92 41 60 3d
       0.037766974 -0.0046761385 -0.011539301 0.054750033
0003d0 b9 70 5b bd 34 0b e9 bd a2 15 d7 bc 1a b4 57 3d
       -0.053574298 -0.1137909 -0.026255433 0.052661993
0003e0 7f 4d 39 bd 3d cb 43 3e 82 56 13 bc e3 62 9e 3c
       -0.04523992 0.19120498 -0.008992793 0.019334262
0003f0 10 7f 1f bd bd 73 d6 3b ba 9b ab 3c 8d 3b d0 bd
       -0.038939536 0.006544559 0.02094828 -0.101676084

local_block.conv_chan.conv.0.bias f4 [8]
000000 1f 4f 15 bb 1c 2c 3b bb 15 e4 91 3c 0b 94 d5 3c
       -0.0022782756 -0.0028560227 0.017808953 0.026071569
000010 44 29 d8 3c c7 97 d0 3a 70 16 4e 3c 9c fd 1f b8
       0.026386864 0.0015914374 0.012578592 -3.8144746e-05

local_block.conv_chan.conv.1.weight f4 [8]
000000 fb 1a 50 3f 45 8b 54 3f aa fd 6c 3f 6a cc 52 3f
       0.8129117 0.8302501 0.9257456 0.8234316
000010 2a 27 4a 3f 3d 60 7b 3f ab b1 71 3f 1c f2 65 3f
       0.7896601 0.9819372 0.94411725 0.89822555

local_block.conv_chan.conv.1.bias f4 [8]
000000 03 02 bf bd 08 ee 73 bd 39 b9 02 be 5f 6d 1d be
       -0.093265556 -0.059553176 -0.1276597 -0.15373753
000010 8a 98 0c be dc 04 53 bd 3c 88 7a bd b3 fc c3 bd
       -0.13730064 -0.051518306 -0.06116508 -0.09569683

local_block.conv_chan.conv.1.running_mean f4 [8]
000000 ff 2b f3 3b b3 f4 21 bd 40 27 d3 bb ef 34 b4 3c
       0.007421016 -0.039540004 -0.006443888 0.021997897
000010 ed 6c dd bb 07 4a a2 bc 07 40 f2 3c 31 a9 2a bd
       -0.0067573697 -0.01981069 0.029571546 -0.04166526

local_block.conv_chan.conv.1.running_var f4 [8]
000000 56 aa 06 3d bd fe 8d 3c 63 ec 13 3d 61 9e 0b 3d
       0.03287729 0.017333383 0.036114108 0.03408659
000010 32 3d 35 3d 78 d3 01 3d 2f 70 55 3d fd e7 02 3d
       0.044247814 0.031695813 0.05210894 0.031959523

tcn.network.0.conv1.weight f4 [16, 16, 16]
000000 98 dc 36 bd 97 64 f1 bc 40 c9 d3 ba 4a 75 60 bc
       -0.04464397 -0.02946691 -0.0016158 -0.013699839
000010 99 3a 94 3b 52 3d 17 3c 2d 10 19 3c a5 90 3d bb
       0.004523587 0.0092309285 0.0093422355 -0.0028925326
000020 d5 d3 42 3c 7f 1d 2a bc 21 cd 40 bc 7f 57 44 bc
       0.011891325 -0.010383009 -0.011767657 -0.011983751
000030 27 b2 e7 bb 55 a2 db bb 64 a7 66 bc bb 42 63 3a
       -0.007070798 -0.006702701 -0.014077995 0.00086693064
000040 6f de fa 3c 92 d0 c0 3c 43 d1 eb bb ad ad 18 3d
       0.030623643 0.023536954 -0.007196577 0.037275005
000050 a7 1e 05 bb 61 1e aa 3c df a0 87 3a 84 72 99 3b
       -0.002031246 0.020766439 0.0010347626 0.004682841
000060 38 8e ef 3a e4 3f 62 3b 1b 89 c7 3b e4 3c 65 3b
       0.0018276637 0.0034522945 0.0060893423 0.003497892
000070 c2 60 00 bc 80 f2 85 39 6c 6e de bb 23 04 0b 3d
       -0.007835569 0.00025548413 -0.0067880657 0.033939492
000080 0b 54 9d bc d6 61 f6 b8 a9 5f 24 bc 45 87 b1 ba
       -0.019205114 -0.000117484175 -0.010032573 -0.0013544342
000090 71 22 f4 ba 9f 58 65 3c 7f 6c 96 3c eb ac 48 bb
       -0.0018625987 0.01399818 0.018362282 -0.0030620645
0000a0 f9 43 77 3c fb 4c a5 bc 37 31 c4 bc 46 7e e6 3b
       0.01509189 -0.020178309 -0.023949249 0.007034096
0000b0 d1 1e aa bc 8e 17 dc bc 2b 55 c5 bb 01 d0 a3 bc
       -0.020766648 -0.0268667 -0.0060221157 -0.019996645
0000c0 0f 75 0f bc b4 c3 d4 bc 85 c7 aa bb 42 91 02 3d
       -0.008755936 -0.025972225 -0.005211773 0.03187681
0000d0 77 a9 83 3c 31 df f1 3c 04 8c fb 3c 0d 38 c6 3c
       0.016072018 0.029525371 0.030706413 0.024196649
0000e0 d3 ab 07 3d 83 ec 44 ba 09 92 a4 3c e1 17 04 3c
       0.03312285 -0.00075120496 0.020089166 0.008062334
0000f0 09 2a 52 bb 31 c9 15 bc bb 4e 5c 3a 97 17 c7 bb
       -0.0032068512 -0.009142206 0.0008404066 -0.00607581
000100 b0 df 48 3c 52 84 09 3d de 72 8f 3c 09 47 f5 3c
       0.0122603625 0.033573456 0.017510828 0.029941099
000110 46 d9 a1 3c e1 21 a2 3b 9c 4e 39 39 d3 74 12 bc
       0.019756924 0.0049478863 0.00017672259 -0.008938986
000120 5a 9e 01 3d 87 de 67 3a 91 8b 7f 3c 81 d1 a0 3c
       0.031645156 0.000884511 0.01559724 0.01963115
000130 19 0d 2d bc 06 35 8a 3b d5 df 7c 3b 20 68 2b bc
       -0.010562205 0.0042177467 0.0038585563 -0.010461837
000140 07 e7 c1 bc b8 8c 02 bc da 83 23 3c e2 e8 95 3c
       -0.023669733 -0.00796812 0.009980166 0.018299524
000150 a6 4b 23 bc 09 aa f1 bc 8b 8d 51 bc 3e ad e1 bc
       -0.009966766 -0.029500024 -0.012790094 -0.027548429
000160 43 4c 91 bc 4f 8e 40 bd d1 0b fa bb d3 6d 98 39
       -0.01773656 -0.047010716 -0.007630803 0.00029073525
000170 1c b0 8e bb 5b b3 63 3b b4 55 2e 3c 3f 6a ae bc
       -0.00435449 0.0034744355 0.01064055 -0.021290896
000180 40 d1 66 3c 0e 04 2b bc 8d 79 24 bc d5 17 52 3c
       0.014087975 -0.010437978 -0.010038746 0.012823065
000190 2a 60 06 3d 59 94 e7 3b 08 48 e0 3b 0e db 4a 3d
       0.032806553 0.007067245 0.0068445243 0.049525313
0001a0 81 f4 94 3c d9 07 05 3c f7 b8 4d bb 77 09 8f 39
       0.018182995 0.008119547 -0.0031390765 0.00027282137
0001b0 3d 17 93 bc 85 4d b1 bc 7a 20 b3 bb be aa 23 bc
       -0.017955417 -0.02164341 -0.005466518 -0.009989439
0001c0 3b 7c 12 3a bf bc 4f 3c 89 c8 9a 3b ca 0d fd 3c
       0.000558797 0.012679278 0.0047236127 0.030890364
0001d0 fa e8 1b bb 6c 49 ac 3c 63 3d 81 3b 41 ee 74 3c
       -0.0023789988 0.021031104 0.0039440854 0.014949382
0001e0 31 6c 9e 3b 14 33 c4 bc eb 94 9f bc 29 c0 7e bc
       0.0048346748 -0.023950137 -0.01948019 -0.015548744
0001f0 45 a1 8b bb f9 1f 0e 3c 39 b9 0d 3b b5 77 10 3c
       -0.004261168 0.008674615 0.0021625294 0.008817603
000200 3b 4a 31 bc 74 8e b6 bc 87 fd b9 bb 81 fe 4c bc
       -0.010820921 -0.022284724 -0.005675975 -0.01251185
000210 ea aa 58 bb 50 0b 60 3c 81 94 42 3c f8 7d e3 ba
       -0.0033060857 0.013674572 0.011876226 -0.0017356267
000220 72 d2 29 bb ed 5f 68 3c a5 7a 11 3a f0 cc 77 3c
       -0.0025912789 0.014183027 0.00055495865 0.0151245445
000230 d4 65 08 3c 06 9b 44 3c da 7a 88 ba 40 6f a2 bc
       0.008325059 0.011999851 -0.0010412589 -0.019828439
000240 33 ea 16 3c bd 37 40 3c ab a5 90 3b ba 9c 9d ba
       0.009211111 0.011732039 0.0044142804 -0.0012024858
000250 0c de 21 bc 3e 4f 85 bb f7 1f 40 bc 74 9b 84 bc
       -0.0098796 -0.0040682843 -0.011726371 -0.016187407
000260 e1 53 d0 bc 9f 9d 0e bc 70 b8 3a bc b4 86 77 bc
       -0.025430622 -0.008704572 -0.011396512 -0.015107799
000270 56 12 b3 bb 8d ff 2e 3c b9 06 a3 3c 91 d0 11 3d
       -0.0054648323 0.010681045 0.019900667 0.035599295
000280 2e 2b a1 3c 19 57 25 3c 43 f8 83 3c 14 4a 92 bb
       0.01967391 0.0100915665 0.016109591 -0.004464397
000290 b6 8c 0e bb 06 24 cc 3a 3e fd 16 3b 1c 24 cb 3b
       -0.002175135 0.0015574701 0.0023039128 0.006199373
0002a0 a3 ba 3b bc 99 ab 5f 3b 70 ee a2 3c 7c 66 12 bc
       -0.011458072 0.003412938 0.019889086 -0.008935567
0002b0 cb c3 4c 3c bc 95 5a bc 58 6c 15 3b 5a 89 f7 bb
       0.012497853 -0.0133413635 0.0022800174 -0.0075542154
0002c0 f2 e3 e4 bb 84 6d 28 bb 14 5d 0c bc 74 69 5a 3b
       -0.006985181 -0.0025700042 -0.008567113 0.0033327015
0002d0 40 29 78 3c 4e 56 c3 39 53 0e c1 3b 5d f6 15 bc
       0.0151465535 0.000372576 0.0058916 -0.009152976
0002e0 85 a2 0c 3c 27 7f 28 bb 00 bc 6f bb 7a f3 5e bc
       0.00858367 -0.0025710554 -0.0036580563 -0.013607854
0002f0 82 32 64 3c ce f5 d9 bb 9c b8 12 bb 26 23 47 bb
       0.013928058 -0.0066516167 -0.0022387868 -0.003038594
000300 1d b8 07 3b 34 fe 4f 3c 14 0c a8 3c ff 0b 8a 3b
       0.0020709105 0.012694884 0.020513572 0.004212856
000310 c9 c5 51 ba a5 3c 37 bb cc b6 e0 bb 59 45 40 bc
       -0.00080021896 -0.002795973 -0.0068577286 -0.011735284
000320 6a 3c 94 bc b0 78 80 bc 9e 8d 4a bc 6c fa 75 bc
       -0.018095214 -0.015682548 -0.012362866 -0.0150133185
000330 e2 92 c9 bc 10 33 bc bb cc df c0 bc 34 dd b3 bc
       -0.024606172 -0.005743392 -0.023544215 -0.021956064
000340 ef f6 a6 bc 70 49 5e 3b 12 85 6b bc a1 fc 1a bc
       -0.020381419 0.0033918284 -0.014374988 -0.0094596455
000350 d5 81 b7 bc 14 42 45 bc df 38 8b 3b 27 0f 6e 3c
       -0.022400776 -0.01203968 0.004248723 0.01452998
000360 a0 0d 30 bb 86 01 28 bc 31 55 fa 3b 14 34 b2 3a
       -0.002686359 -0.0102542695 0.00763955 0.0013595843
000370 ce c4 30 bc 3b 54 02 bc f5 c7 b9 3b 2a f7 fe 3b
       -0.010789109 -0.007954652 0.0056695887 0.007780929
000380 df 4e 2d 3c 1a 2c 11 bc 4b ad 09 3d aa 93 4a bb
       0.010577886 -0.008860612 0.03361253 -0.0030910769
000390 1d f3 3c 3c 1d 78 26 3c 62 28 22 bb 10 fa b6 bb
       0.011532572 0.010160473 -0.0024743308 -0.005584009
0003a0 14 97 16 bd 63 39 11 3c d0 24 cc bb b3 71 cd 3c
       -0.036765173 0.00886378 -0.0062299743 0.02507863
0003b0 c3 14 41 bc ae ea ab bc 3d 47 81 bc 8b 6a 15 bc
       -0.011784735 -0.020985927 -0.01578104 -0.00911964
0003c0 01 db f2 bc 65 d2 53 bd af e2 36 bd a4 0a 02 bd
       -0.029645445 -0.05171432 -0.044649776 -0.03174843
0003d0 2d 26 4c bb 88 e4 f1 bc f7 21 c6 3b c5 c8 42 3b
       -0.0031150684 -0.029527918 0.0060465294 0.0029721719
0003e0 b5 0e 76 bc 8c c4 99 bb c6 3d 39 bc c7 3f dd ba
       -0.015018155 -0.0046926197 -0.011306232 -0.0016879969
0003f0 f6 54 f8 3a fb e1 91 3c 33 c6 6e 3c 04 7b 81 3c
       0.0018946219 0.017807951 0.014573622 0.015805729

tcn.network.0.conv1.bias f4 [16]
000000 ea 0f a2 32 6c b7 25 b1 30 c8 29 b2 f8 6d 9f b1
       1.8866519e-08 -2.4114923e-09 -9.882612e-09 -4.640011e-09
000010 73 c7 59 bb 98 d8 08 31 d0 6d 3f b2 29 df d1 b6
       -0.0033230453 1.9913724e-09 -1.1142632e-08 -6.2546646e-06
000020 b9 2d c5 32 ea e5 35 31 3b 12 14 b1 7f 71 9c 35
       2.295461e-08 2.6469658e-09 -2.1547197e-09 1.1655937e-06
000030 f7 7c c6 b1 e5 4a d6 2f 70 e4 1f 32 e9 14 ce 35
       -5.7767653e-09 3.897959e-10 9.306959e-09 1.5354282e-06

tcn.network.0.bn1.weight f4 [16]
000000 f7 a6 81 3f fe 2d 7b 3f 9c a3 80 3f dd cb 6e 3f
       1.0129079 0.98117054 1.004993 0.9327982
000010 87 64 79 3f be bb 84 3f 22 26 85 3f 4e 38 6d 3f
       0.9741902 1.0369794 1.0402262 0.9266404
000020 83 91 72 3f ad d3 82 3f 03 06 73 3f 42 69 85 3f
       0.94753283 1.0220848 0.9493105 1.0422747
000030 68 1e 84 3f 02 52 7b 3f 34 75 7c 3f 19 95 82 3f
       1.0321779 0.9817201 0.9861634 1.0201751

tcn.network.0.bn1.bias f4 [16]
000000 3b b0 e6 bd f6 fa 44 be 49 ef 1c be ee 5d fa bd
       -0.11264082 -0.19236359 -0.15325655 -0.12224947
000010 9e e0 10 be f7 73 8d be 46 a5 64 be 00 d0 dd bd
       -0.14148185 -0.27627537 -0.22328672 -0.108306885
000020 2c f0 18 be fd 22 48 be 44 19 24 be ef 1a 45 be
       -0.14935368 -0.19544597 -0.16025263 -0.19248556
000030 c0 d2 16 be 43 e4 53 be 7e 74 4c be aa 89 1f be
       -0.14728832 -0.20692544 -0.19966313 -0.15579858

tcn.network.0.bn1.running_mean f4 [16]
000000 11 09 21 bc ef 35 0f bd 1d 9b 82 bd cb 47 71 3b
       -0.009828822 -0.034963544 -0.06377242 0.0036816474
000010 3b ef 4f 3a 5e a4 5f bd 57 8d 97 bd 8a d8 18 bc
       0.00079320715 -0.054600112 -0.07400005 -0.009328971
000020 4d b9 6a bc 89 06 38 bd 07 4c 26 bd f7 e1 ee ba
       -0.014326406 -0.044928107 -0.04059985 -0.0018225302
000030 57 aa fa bc 88 2f c5 bc 01 7f af bc 1f 16 dc bc
       -0.030598802 -0.024070516 -0.021422865 -0.026866017

tcn.network.0.bn1.running_var f4 [16]
000000 70 6e da 3d 2d f5 07 3e e6 a6 d9 3d d8 01 02 3e
       0.106655955 0.13277121 0.106275365 0.12696016
000010 86 f5 f7 3d 36 d7 19 3e 06 d0 08 3e fc 01 ef 3d
       0.12107377 0.15023503 0.13360605 0.116703
000020 62 39 d3 3d 35 04 07 3e 4d 4f d6 3d 3e 45 ed 3d
       0.10313679 0.13185199 0.10464344 0.115854725
000030 ed c1 f8 3d 24 e1 32 3e 9d a6 2d 3e 56 82 f8 3d
       0.121463634 0.17468697 0.16958089 0.121342346

tcn.network.0.conv2.weight f4 [16, 16, 16]
000000 ce 32 30 bc 0d 1d 09 bc a9 f8 e4 bc fa ab cd bc
       -0.0107543 -0.008368743 -0.027950602 -0.025106419
000010 cf c2 7d bc 7b 77 83 3a 14 f7 85 bb c6 bc 05 3c
       -0.0154883405 0.0010030115 -0.004088292 0.008162683
000020 1a f1 2d bc f3 b3 43 bc 15 af 3e bc 01 9b 1a bc
       -0.010616565 -0.011944759 -0.0116384225 -0.00943637
000030 85 b3 87 bc 0a d4 4c bb 44 9c 01 bd fd eb 5c bc
       -0.016565094 -0.0031254315 -0.031643167 -0.013483998
000040 ba f4 f9 3c 6a 92 57 3c e9 01 77 3b e0 52 a0 3a
       0.030512203 0.013157466 0.0037690348 0.001223173
000050 93 3b 7d 3b 0b ae 17 bb f7 20 f3 36 8b 66 f9 3b
       0.0038640245 -0.002314451 7.245802e-06 0.007611101
000060 f0 da 7c 3c ab e1 ed 3b 0e 46 1e 3d 69 f0 23 3d
       0.015433058 0.0072595677 0.038641028 0.040024195
000070 97 75 37 3c ff c9 71 3c 71 5e 74 3b 58 97 78 3a
       0.011197469 0.014757632 0.0037287737 0.0009483001
000080 db c7 bc 3b 81 f4 9f bb 6f 5a f4 3b 97 54 fd 3b
       0.0057611293 -0.004881442 0.0074570696 0.007731031
000090 a3 8f 6a 3b e9 b0 17 bb 75 0d 18 3a 55 f6 6e bc
       0.003579118 -0.0023146218 0.0005800345 -0.014585097
0000a0 cf cf f1 39 9e be 28 bc a5 83 88 bc e1 7d bb bb
       0.00046121932 -0.010299353 -0.016664336 -0.005721793
0000b0 5d 7c 41 bc 2e 5d fc bb e7 23 2c bc 28 93 51 bc
       -0.011809436 -0.0077015376 -0.010506607 -0.012791432
0000c0 4d 64 a3 bc 0f 9d bc bb ba 55 00 3b f7 3f 16 bb
       -0.019945288 -0.0057560275 0.0019582347 -0.002292631
0000d0 7c 31 88 3b c6 e8 78 ba 33 ae 2f bb 9f aa a7 3b
       0.0041562896 -0.0009495135 -0.0026806712 0.005116775
0000e0 f7 53 70 3c 64 f5 27 3c 5c d7 46 3c 66 31 c3 3b
       0.014668456 0.010251377 0.012136307 0.0059568165
0000f0 3c 3d 8d 3c e6 69 ea 3c 06 80 9c 3c f7 ff 4c 3c
       0.017241113 0.02861495 0.019104015 0.012512199
000100 f6 86 fe bb a7 9e c7 bb 05 d4 9a bc d4 b2 92 ba
       -0.0077675534 -0.006091911 -0.018899927 -0.0011192211
000110 1e 85 01 bc f1 d1 fa bb da 34 1b ba 0e 1b 92 bc
       -0.007905273 -0.0076544215 -0.0005920656 -0.017835166
000120 94 fd f8 bc 86 5f 69 bc 4b b0 9a 3b b0 c6 85 bc
       -0.030394353 -0.014243966 0.004720723 -0.016330093
000130 4e eb 86 bc 97 46 6b bc 6e 57 f8 3b b1 6d af 3b
       -0.016469624 -0.014360092 0.007578782 0.0053536524
000140 6c 04 77 ba f8 91 97 3b c2 38 4b 3a 2d 2e ca 3a
       -0.0009422961 0.004625555 0.0007752293 0.0015425138
000150 98 1f c4 3a 63 c7 22 3c 9e 60 b9 3b 57 36 46 38
       0.0014963029 0.009935233 0.0056572696 4.7257487e-05
000160 5d fc 10 3c 5c 91 01 3c 30 94 2b 3b ac 1e d0 3b
       0.008849231 0.0079081915 0.0026180856 0.0063513126
000170 7d 55 05 bc e2 ca eb 38 d1 d5 bc bc e4 ed 97 bc
       -0.008138058 0.00011243463 -0.023051174 -0.018546052
000180 30 16 fb ba 9d 63 50 bc d5 d1 9c 3a 51 53 9f 3a
       -0.0019156393 -0.012719062 0.001196439 0.0012155568
000190 58 6f 61 3c a4 58 40 3c 25 b9 a9 3a ca 0c a3 3b
       0.013759457 0.011739884 0.0012948854 0.00497589
0001a0 96 ae c9 3b 70 6c b2 3b bd 4d 85 3c bf 37 05 3b
       0.0061548455 0.0054450557 0.01627242 0.0020327417
0001b0 63 16 34 3c 7a 6b 01 3c d3 0a aa bb 05 83 96 bc
       0.010991666 0.00789916 -0.0051892786 -0.018373022
0001c0 03 f7 80 3c 4d 8b d3 3b 4a fa 9a 3c 28 30 ca bb
       0.015742784 0.006455815 0.018918175 -0.0061702915
0001d0 e0 d8 3f 3b 46 ed 72 3a 1f 95 7a bc ee b7 ef 3b
       0.0029273555 0.0009266924 -0.015294342 0.0073156273
0001e0 7f 24 04 bc 78 47 95 bc 25 9d d8 bc 45 86 16 bc
       -0.008065342 -0.018222556 -0.02644212 -0.009187286
0001f0 7a 82 1a bd e0 e0 85 bc 01 9c b6 bc 6b 7d b8 bb
       -0.03772209 -0.01634258 -0.022291185 -0.0056301854
000200 d1 b0 b2 3c c6 7e d8 3b 7e d3 8b 3b 75 6e 8e 38
       0.021812828 0.0066069094 0.004267155 6.791662e-05
000210 ab ee a7 3b 2c e2 0c bc 41 52 bf 3b 7d 05 36 3c
       0.005124887 -0.008598845 0.005838663 0.011109707
000220 6e 19 16 3d 64 ed f9 3c d5 95 8e b8 6a 36 48 3c
       0.036645345 0.030508704 -6.798996e-05 0.012220005
000230 b6 be 59 3b 5c c7 97 bc a1 9f f9 bb 8d 6e 98 3b
       0.0033225245 -0.01852768 -0.007617906 0.0046518506
000240 52 cc eb bc 84 fa c7 bc 4e 2d 37 bc 32 fa 07 3b
       -0.028783951 -0.024411447 -0.011180235 0.0020748493
000250 70 b0 71 3b 82 85 52 bc ae 47 9b bb 84 92 78 bc
       0.0036878847 -0.012849214 -0.0047387695 -0.015171651
000260 b2 2e 5b bc 7b e7 3a bc 36 6c 39 bc 25 d8 82 3b
       -0.013377832 -0.011407728 -0.011317303 0.0039930516
000270 cd e7 fb ba 4a e7 49 3b c7 58 ea ba 4a 9c 00 3c
       -0.0019218862 0.0030808025 -0.0017879241 0.007849762
000280 78 3a 90 bc ce 43 a0 bb b5 a7 95 bc 3d 67 3b 3c
       -0.017606005 -0.0048908954 -0.018268446 0.011438188
000290 77 e4 86 3b e0 ce 7c bc 37 d8 64 3c 54 fb 8c bb
       0.0041165906 -0.015430182 0.013967565 -0.0043024216
0002a0 70 e5 b8 bb be e1 52 bc 0c d6 06 bc 2f 7f 00 3a
       -0.0056425855 -0.012871204 -0.008229744 0.00049017643
0002b0 a6 f0 80 bb 1d f9 5b bb f0 68 30 bd f4 47 a0 bc
       -0.0039349375 -0.003356523 -0.043068826 -0.01956556
0002c0 11 8c d1 3c e9 71 8e 3c 51 38 b8 3b 93 a4 a8 3b
       0.025579484 0.017388301 0.005621948 0.005146572
0002d0 e2 81 e0 3b 03 39 0d bc 83 bc af 3b 16 fa 12 3c
       0.0068514207 -0.00861955 0.0053630485 0.008970758
0002e0 64 b9 a9 3a e3 e6 86 ba fb 74 93 3c db 40 3c 3c
       0.0012948927 -0.0010292198 0.018000117 0.011490072
0002f0 6c de d6 3b f0 23 43 3c 65 07 87 3b f6 51 33 3c
       0.0065572765 0.011910424 0.0041207545 0.010944834
000300 4d 6a b9 3b 55 d3 1f 3c ee e7 14 3c d5 a2 09 3d
       0.005658424 0.009754975 0.0090884995 0.033602554
000310 38 a7 14 3d 8f ce 0b 3d 9d 57 b7 3c bd 3c bb bb
       0.036292285 0.034132537 0.022380644 -0.0057140277
000320 df df 97 bc d0 36 1d bd 34 d3 58 bc 9e 44 15 bd
       -0.018539367 -0.03838235 -0.0132339485 -0.03644239
000330 ef ff 9e bc 69 5d 6f bc 85 a6 15 bc 6d fc 04 bc
       -0.019409148 -0.014609673 -0.00913394 -0.008116824
000340 ea d7 be 3a 2a 60 16 3b a7 0f 99 3b 3d 32 d6 3b
       0.0014560197 0.0022945502 0.0046710554 0.0065367506
000350 92 3c 5e ba 26 bc 17 3c 4d 15 3b 3a ef 46 3f 3b
       -0.00084776536 0.009261167 0.0007136658 0.0029186567
000360 77 5f 21 bc ed b0 02 3c 4b c5 19 3a 9e f4 17 3c
       -0.009849421 0.007976753 0.0005865886 0.00927463
000370 2f 8e bb 3c 14 99 e8 3c de 0c 87 3c ce de ae 3c
       0.022894947 0.028393306 0.016485628 0.021346476
000380 91 63 9a 3c 05 7e 85 3c 2b c3 93 39 95 c9 19 3c
       0.018846305 0.016295442 0.00028183436 0.00938644
000390 f2 a4 8c ba 72 c7 bb 3b 3d 84 50 bc 50 1f 10 bc
       -0.001073031 0.005730563 -0.012726841 -0.008796528
0003a0 3a a2 43 bc 3e de 22 bd 9b 76 86 bc 2e 69 07 bd
       -0.011940533 -0.039762728 -0.016413977 -0.03305929
0003b0 39 91 a4 bc b4 38 c4 b9 bc c1 0d bd ad 0e f5 bc
       -0.020088779 -0.0003742628 -0.034608588 -0.029914225
0003c0 fd a2 63 bd 75 e6 05 bc d8 31 19 bc e5 6a 7e bb
       -0.05557536 -0.008172621 -0.009350263 -0.0038821038
0003d0 a2 0a 92 ba 9d ce 46 3b 6b 2b 5b bb 16 12 89 3c
       -0.0011142085 0.0030335553 -0.0033442627 0.016732257
0003e0 ed 1c b1 3b 19 d6 19 bc 73 aa 89 bc 16 e3 96 bc
       0.0054050595 -0.009389424 -0.01680491 -0.01841883
0003f0 45 20 5d 3b ff b1 68 bb 9a 9c 0a 3c 6f b2 62 bc
       0.0033741158 -0.0035506485 0.008460188 -0.013836487

tcn.network.0.conv2.bias f4 [16]
000000 1f d3 28 b1 ba d4 5b 3a c3 f6 fa b3 d3 6d 74 3b
       -2.4567226e-09 0.0008385886 -1.1686418e-07 0.0037296906
000010 e7 e5 db b1 21 28 fc b1 50 18 aa 31 3d f7 6c 38
       -6.3998757e-09 -7.3387274e-09 4.950415e-09 5.6497043e-05
000020 d7 10 48 3c f3 c2 2d 35 f5 c7 06 b2 fc ba 03 ba
       0.012211046 6.473121e-07 -7.8452915e-09 -0.0005025116
000030 53 d7 89 b1 74 2f 06 37 3e 33 33 b1 b3 de 3b ba
       -4.0117043e-09 7.998071e-06 -2.6077056e-09 -0.00071666687
