model/Benchmark/DTCNet_b4_1s_S16.pth (torch, 181815 bytes, 74 tensors)

global_block.conv_time.conv.0.weight f4 [8, 1, 1, 125]
0	0x3d09dc14	0.03365715
1	0x3d57b8ec	0.05266659
2	0x3ce799aa	0.028271515
3	0x3cb7674d	0.022388125
4	0xbd074e25	-0.03303351
5	0x3d06ac7e	0.032879345
6	0xbcbee386	-0.023301851
7	0x3be81aa5	0.0070832544
8	0x3bfe7ac0	0.007766098
9	0xbd2ae099	-0.0417181
10	0x3c023eb8	0.007949524
11	0xbce33c2c	-0.027738653
12	0xbb93fc7b	-0.004516182
13	0x3bbffd8a	0.0058590816
14	0xbd0519c1	-0.032495264
15	0x3d4c8c2b	0.049938362
16	0x3d17f1ca	0.037095822
17	0x3d8509c9	0.06496007
18	0xbc81d39a	-0.01584797
19	0x3cfe47ab	0.031040033
20	0x3d042f1a	0.032271482
21	0x3bb98a9a	0.0056622745
22	0xbc3dde22	-0.011588605
23	0x3b2fb726	0.0026812046
24	0x3c4fbee3	0.012679788
25	0x3afb5398	0.0019174693
26	0x3c553f4c	0.013015579
27	0x3ce08322	0.027406279
28	0x3d5f589c	0.054527864
29	0xbc898ff6	-0.016792279
30	0x3d189e93	0.037260603
31	0xbb30c76e	-0.0026974338
32	0x3d69c1b2	0.057069488
33	0xbb7b0242	-0.0038300906
34	0xbc95ea4a	-0.018300194
35	0xbc9bcf98	-0.019019887
36	0x3cab2cac	0.020895325
37	0xbc44b77d	-0.012006638
38	0x3cf855d6	0.030314367
39	0xbd8173e3	-0.06320932
40	0x3aff0846	0.0019457422
41	0xbd33b80c	-0.043876693
42	0x3cadfa2f	0.02123746
43	0x3d521393	0.0512882
44	0x3b8aca91	0.0042355736
45	0x3cb8db20	0.022565424
46	0xbbc8bc80	-0.0061259866
47	0xbd023bf6	-0.031795464
48	0x3d3cc900	0.046090126
49	0x3d1f1d43	0.038846266
50	0x3d4e44e5	0.05035867
51	0x3d4abebe	0.049498312
52	0x3acae633	0.0015479982
53	0x3c341baf	0.010992928
54	0x3c942f13	0.018088853
55	0xbd7e4c39	-0.06208441
56	0xbd8e7b88	-0.069571555
57	0xbb797340	-0.003806308
58	0x3c9e481d	0.019321496
59	0xbbc5d3f1	-0.0060372283
60	0xbcb998ff	-0.022655962
61	0xbc612884	-0.01374257
62	0xbcd39492	-0.02582768
63	0xbd42756c	-0.047475263
64	0x3c82aee1	0.01595253
65	0x3c339722	0.010961326
66	0x3d542a5a	0.051798202
67	0x3c56790b	0.013090382
68	0x3c85cf3f	0.016334174
69	0xbb8c2c9f	-0.00427778
70	0xbcfae674	-0.030627467
71	0xbc727014	-0.014797229
72	0xbd1b139a	-0.03786049
73	0x3d783210	0.06059462
74	0x3c78284b	0.015146325
75	0xbd11f508	-0.03563407
76	0xbac3ea23	-0.0014947098
77	0x3dcd2daf	0.10018479
78	0x3e0cd1c5	0.13751896
79	0xbc3f70e0	-0.011684626
80	0xbd5a919c	-0.05336152
81	0xbc51064d	-0.01275785
82	0xbd7e6481	-0.062107567
83	0xbcb5f68d	-0.022212291
84	0xbd7e23fb	-0.062046032
85	0x3c8c0d92	0.017096315
86	0xbc24caa2	-0.010058077
87	0xbda4789b	-0.08030816
88	0xbd5186ca	-0.051153935
89	0xbc759826	-0.014989888
90	0xbcfb112d	-0.030647838
91	0xbaa3eb2f	-0.0012506003
92	0xbd7532ce	-0.059862904
93	0xbd594896	-0.05304774
94	0x3c9a42ba	0.018830646
95	0xbb6b7ff7	-0.0035934427
96	0x3d699ca6	0.057034157
97	0x3de9f04e	0.114227876
98	0x3dbe4d83	0.09292128
99	0x3c7ff709	0.015622863
100	0x3b9a9690	0.0047176555
101	0x3cb348f5	0.021885375
102	0xbc324440	-0.01088053
103	0xbd2f9782	-0.0428691
104	0x3cd36d82	0.025809053
105	0x3d8c1f67	0.06841927
106	0x3ca0f2ef	0.01964709
107	0xbd798888	-0.060921222
108	0xbd9bbbe0	-0.07604194
109	0xbd67d182	-0.056596287
110	0xbbab078c	-0.0052194055
111	0xbd06e504	-0.03293325
112	0xbc9a0afb	-0.018804064
113	0xbceb8bdb	-0.028753212
114	0x3b926b69	0.0044683707
115	0x3aee6042	0.0018186646
116	0xbd508217	-0.050905313
117	0xbd9316fe	-0.0718212
118	0xbc3332c5	-0.010937397
119	0x3b124ae1	0.0022322463
120	0xbcf7e84f	-0.03026214
121	0x3cc78371	0.024354668
122	0x3d866ca3	0.065636896
123	0xbcf102ba	-0.029420245
124	0xbd10d8c8	-0.03536299
125	0x3c81fa2a	0.015866358
126	0xbd15a60e	-0.036535315
127	0xbc8a33bc	-0.016870372
128	0x3dc4fb22	0.09618212
129	0x3bb80404	0.005615713
130	0x3cb4a0a8	0.022049263
131	0xbc719528	-0.014745034
132	0x3cf2975c	0.02961319
133	0x3b68a20e	0.0035496983
134	0x3b45586c	0.0030112518
135	0x3c638e12	0.013888853
136	0x3cae77a2	0.02129728
137	0x3d1a7a15	0.037714083
138	0x3d9dda3b	0.0770764
139	0x3dad0eb9	0.08450074
140	0xbcdeb5d8	-0.02718632
141	0x3d90450f	0.07044422
142	0x3c603c6d	0.013686282
143	0x3c616cec	0.013758879
144	0x3d5b6361	0.053561572
145	0xbd3c9d50	-0.046048462
146	0xbd39f0f8	-0.04539582
147	0x3b42bf70	0.0029716156
148	0xbc2fd760	-0.010732502
149	0xbcbf1624	-0.023325987
150	0xbc04e362	-0.008110853
151	0x3d26c962	0.040719397
152	0x3bcd0edb	0.0062578744
153	0x3cea1652	0.028575096
154	0xbd16a3db	-0.03677736
155	0x3cfeb194	0.031090535
156	0x3c618ca3	0.013766441
157	0xbca3e4c1	-0.02000654
158	0x39b68a31	0.00034816706
159	0xbcfbe01f	-0.030746518
160	0xbcc498ca	-0.023998637
161	0xbc4521cb	-0.012031983
162	0x3cc092d6	0.023507517
163	0xbbf40b31	-0.007447623
164	0xbd7b28a2	-0.061318047
165	0xbd3b5e3d	-0.04574417
166	0xbc104931	-0.008806513
167	0xbca41a3a	-0.020032037
168	0x3cdc5e4d	0.026900435
169	0x3c24ec60	0.010066122
170	0xbc3a9180	-0.011387229
171	0xbcf60951	-0.03003374
172	0x3d47bc23	0.048763406
173	0x3bc1ef1e	0.0059183976
174	0xbc6ea6b9	-0.014566117
175	0x3d2f59ac	0.042810127
176	0xbd0ec87b	-0.03485916
177	0xbd1a44d3	-0.037663292
178	0xbd2284ec	-0.039677545
179	0xbd0db4c0	-0.034596205
180	0xbdf4985f	-0.11943125
181	0x3c51d5fc	0.0128073655
182	0x3c0708e2	0.008241864
183	0x3d134101	0.035950664
184	0xbd07fba6	-0.033198975
185	0x3cd81088	0.02637507
186	0x3d140c12	0.036144324
187	0xbce0132a	-0.027352888
188	0x3d2224a2	0.039585717
189	0xbd0256d3	-0.031821083
190	0x3c7a7bbb	0.015288289
191	0xbd643f2a	-0.0557243
192	0xbc41e86d	-0.0118352
193	0x3bec1987	0.0072051915
194	0x3d80956d	0.06278501
195	0x3d7b2809	0.061317477
196	0x3c429192	0.011875527
197	0xbc827e7f	-0.015929459
198	0xbcc13375	-0.023584107
199	0x3d256167	0.040376093
200	0xbd075611	-0.033041064
201	0x3c84322a	0.016137201
202	0xbce1d60c	-0.027567886
203	0x3ddf8262	0.109135404
204	0x3e46aa6a	0.19400945
205	0x3dfd3298	0.123631656
206	0x3c177527	0.00924424
207	0xbd69a630	-0.057043254
208	0xbdb3cc72	-0.08779229
209	0xbc83c546	-0.016085278
210	0x3c6caab0	0.014444992
211	0xbc2745a5	-0.010209476
212	0x3c835f49	0.016036646
213	0x3bc8c110	0.0061265305
214	0xbdc9beaf	-0.09850823
215	0xbda05c57	-0.078301124
216	0xbd62a57d	-0.055333603
217	0xbcc3f26b	-0.023919305
218	0xbd0703d5	-0.03296264
219	0x3c9d8385	0.019227752
220	0x3cbc2d6b	0.022970876
221	0x3bd8002d	0.006591818
222	0x3c96378a	0.01833703
223	0x3caec99e	0.021336373
224	0xbd86ea04	-0.06587604
225	0x3d2bc120	0.041932225
226	0x3cc28ddf	0.02374929
227	0x3d99f200	0.07516861
228	0xbd27a4ae	-0.040928535
229	0xbd3884a6	-0.04504838
230	0x3ce4241f	0.027849255
231	0xbd59eb16	-0.05320271
232	0xbd14f7ae	-0.03636902
233	0x3d314b1c	0.04328452
234	0x3bec7649	0.007216249
235	0xbdbeb40a	-0.093116835
236	0x3d1662bb	0.03671525
237	0x3c6688df	0.014070719
238	0x3d87aed2	0.06625141
239	0xbd173e21	-0.036924485
240	0xbd90e75a	-0.07075377
241	0xbd853547	-0.065043025
242	0xbc8bb6f8	-0.01705502
243	0xbccdc76b	-0.025119504
244	0x3d17723d	0.03697418
245	0xbcd48b95	-0.025945464
246	0xbd0f8bfe	-0.035045616
247	0xbc5c0c69	-0.013430693
248	0xba4ec9ef	-0.0007888367
249	0xbd95a286	-0.073063895
250	0x3c30dc8e	0.010794772
251	0xbd5406df	-0.051764365
252	0x3c7a3ba2	0.015273007
253	0x3cf57fbe	0.029968139
254	0xbce676cf	-0.028132824
255	0x3b257264	0.0025245184

global_block.conv_time.conv.0.bias f4 [8]
0	0xb3a823a7	-7.829595e-08
1	0x3b3ddd72	0.0028971103
2	0x373dd6e8	1.1315315e-05
3	0x3b7fe45d	0.0039046027
4	0xbb1d1807	-0.002397062
5	0xbd38b6b0	-0.0450961
6	0x39f84f42	0.00047361298
7	0x37074714	8.063176e-06

global_block.conv_time.conv.1.weight f4 [8]
0	0x3f6ede50	0.9330797
1	0x3f7617da	0.96130145
2	0x3f5f7fbb	0.87304276
3	0x3f57ce29	0.8429895
4	0x3f8326ff	1.0246276
5	0x3f546204	0.8296206
6	0x3f6bb6b7	0.92075676
7	0x3f69a330	0.9126463

global_block.conv_time.conv.1.bias f4 [8]
0	0xbb2fe28c	-0.0026837913
1	0xbc502337	-0.012703708
2	0x3ddaa7a4	0.10676506
3	0xba39e9c5	-0.00070920243
4	0xbcb69bf2	-0.022291157
5	0x3d359c78	0.044338673
6	0xbd128dc3	-0.035779726
7	0x3ade312a	0.0016951908

global_block.conv_time.conv.1.running_mean f4 [8]
0	0x3b863b1a	0.004096401
1	0x3cb07769	0.021541314
2	0x3cf1de91	0.029525073
3	0xbc148e3a	-0.009067113
4	0xbc9c4ba0	-0.01907903
5	0xbd2a6f8c	-0.041610286
6	0xbb63838f	-0.0034715866
7	0xbb25cc5c	-0.002529881

global_block.conv_time.conv.1.running_var f4 [8]
0	0x414be0d2	12.742388
1	0x41136cbd	9.214047
2	0x4122b813	10.16994
3	0x410e2109	8.883065
4	0x411bb548	9.731758
5	0x4127ab13	10.479266
6	0x413928e3	11.572482
7	0x412cbcbd	10.796079

global_block.conv_chan.conv.0.weight f4 [8, 8, 11, 1]
0	0xbdcea24a	-0.10089548
1	0xbd2020e2	-0.03909386
2	0xbd053012	-0.032516547
3	0xbd7a431b	-0.061099153
4	0x3db5957d	0.08866403
5	0x3d941853	0.07231202
6	0x3d37b24c	0.04484777
7	0xbdad9356	-0.08475368
8	0x3c154065	0.009109591
9	0xbce94c24	-0.02847869
10	0x3dd33755	0.10313288
11	0x3d953b1b	0.07286664
12	0xbd7148ea	-0.058907427
13	0xbd5913db	-0.05299745
14	0x3db9090b	0.09034928
15	0x3c9d8e32	0.019232843
16	0x3cd6d179	0.026222931
17	0xbb482dd7	-0.00305449
18	0xbdd3f512	-0.10349478
19	0x3d91682f	0.070999496
20	0xbd444e5b	-0.047926288
21	0x3d16b43c	0.03679298
22	0xbd5c6426	-0.053806446
23	0xbabc2ff7	-0.0014357556
24	0x3ce0912e	0.027412977
25	0xbd34a6ec	-0.0441045
26	0xbadc7da3	-0.0016822111
27	0xbd61acb9	-0.05509636
28	0x3d746c1b	0.05967341
29	0xbd03cece	-0.032179646
30	0xbd6d1861	-0.057884578
31	0xbd038d52	-0.032117195
32	0xbc6694fb	-0.014073606
33	0x3d69f1e5	0.057115454
34	0xbd4c277a	-0.049842335
35	0xbd97ff05	-0.07421688
36	0xbc261c33	-0.010138559
37	0xbbc65c77	-0.006053503
38	0x3cd8429b	0.026398947
39	0xbc8358de	-0.016033586
40	0xbda5cc78	-0.0809564
41	0xbbb40458	-0.005493682
42	0x3d52e858	0.05149111
43	0x3d80331e	0.0625975
44	0xbdc53dad	-0.09630904
45	0x3da92055	0.0825812
46	0x3cc411c6	0.023934256
47	0xbd9867a1	-0.07441641
48	0xbdc470cf	-0.09591829
49	0xbd3214ee	-0.04347699
50	0x3dca5872	0.09880151
51	0x3d8db22c	0.06918749
52	0x3d808d1b	0.06276914
53	0xbbe5b778	-0.0070103966
54	0xbe07cad1	-0.13260962
55	0xbc9e9bde	-0.019361433
56	0x3d12cb96	0.035838686
57	0x3d948840	0.0725255
58	0xbd3624cc	-0.044468686
59	0xbe23c0b1	-0.15991475
60	0x3cf87b35	0.030332187
61	0x3d9e673f	0.077345364
62	0x3e001578	0.1250819
63	0xbc15104b	-0.009098123
64	0x3d8be209	0.06830222
65	0xbd9c67a5	-0.07636956
66	0x3d5e2d1d	0.054242242
67	0xbd3ad6d7	-0.045615043
68	0xbb9a6d10	-0.0047127083
69	0x3b5813ff	0.0032970903
70	0x3ba75569	0.005106617
71	0xbd60dfc6	-0.054900907
72	0x3c89e51a	0.016832877
73	0xbca210bb	-0.019783368
74	0x3cd28d83	0.025702244
75	0x3d15eac6	0.03660085
76	0xbcdc88a5	-0.026920626
77	0xbd4ef58f	-0.05052715
78	0xbd17bee1	-0.03704727
79	0xbd1a0aa0	-0.03760779
80	0xbc58306b	-0.0131951375
81	0xbd0962f8	-0.03354165
82	0x3df149f8	0.117816865
83	0x3d9f87aa	0.07789548
84	0xbdd180a9	-0.10229618
85	0xbb3937dd	-0.0028262057
86	0xbcac9b2c	-0.021070085
87	0x3c43ecde	0.011958329
88	0x3c59a80e	0.013284696
89	0xbd5a0bfc	-0.053234085
90	0xbcf08f85	-0.02936531
91	0x3d032f6f	0.032027658
92	0x3bcff252	0.0063460255
93	0xbd2e8f4f	-0.04261714
94	0xbb8db5be	-0.004324644
95	0x3ca5964a	0.020213265
96	0x3d173325	0.03691401
97	0x3d74f459	0.05980334
98	0xbcc624ad	-0.02418741
99	0xbb9b3a0a	-0.0047371434
100	0xbde53434	-0.111915976
101	0xbc826ef5	-0.015922049
102	0x3ccfd03a	0.025367845
103	0x3d57ab7c	0.052653775
104	0xbc940ddf	-0.01807302
105	0xbdc1606b	-0.094422184
106	0x3ccc3c30	0.024931043
107	0x3d15679b	0.03647576
108	0x3d2761c9	0.04086474
109	0x3d54937c	0.051898465
110	0x3dc52ced	0.096277095
111	0xbe3537d7	-0.17697082
112	0xbd8ab619	-0.067730136
113	0xbd9bad04	-0.076013595
114	0x3d747cfd	0.05968951
115	0x3da554bf	0.08072805
116	0xbd5b3a78	-0.053522557
117	0xbd526af1	-0.05137152
118	0xbd7a7a2c	-0.06115167
119	0x3d966369	0.0734318
120	0x3dbeabec	0.09310135
121	0xbccb778c	-0.024837278
122	0xbd8e7d16	-0.06957452
123	0xbd8933c8	-0.066993296
124	0x3d282d9c	0.04105912
125	0xba93b7fd	-0.0011270043
126	0xbce9a7a5	-0.028522322
127	0x3d6f52fc	0.05842875
128	0x3d802803	0.06257632
129	0x3d9cfac0	0.07665014
130	0xbd1566f5	-0.03647514
131	0xbdb72610	-0.08942807
132	0x3d2f829a	0.04284916
133	0x3de4dead	0.111752845
134	0x3c5297f1	0.0128536085
135	0xbd5493e7	-0.051898863
136	0xbc50f675	-0.012754072
137	0xbdc8247c	-0.09772584
138	0x3c9b05c9	0.018923657
139	0x3d9a9a1c	0.07548925
140	0x3d5abe4d	0.05340414
141	0xbddae0a7	-0.1068738
142	0xbd5ac888	-0.053413898
143	0xbd8e3d23	-0.06945255
144	0x3ddcf0cf	0.10788118
145	0x3d31aa0f	0.04337507
146	0xbcd1925c	-0.025582485
147	0xbdea3592	-0.11435999
148	0xbc3ce573	-0.011529314
149	0x3d621736	0.055197917
150	0xbc905039	-0.017616378
151	0xbd43d631	-0.04781169
152	0xbd2e293b	-0.04251979
153	0x3d61e047	0.05514553
154	0xbd69030e	-0.05688768
155	0xbe221adc	-0.15830559
156	0xbcbe2ec5	-0.02321566
157	0x3d67a7a7	0.05655637
158	0x3cffee00	0.031241417
159	0xbc36d759	-0.011159741
160	0xbc79c225	-0.015244042
161	0x3c828520	0.01593262
162	0x3ca47190	0.020073682
163	0xbcbac125	-0.022797177
164	0x3dbecf07	0.09316831
165	0xbd3be83a	-0.045875765
166	0x3d4a4468	0.049381644
167	0x3d81b618	0.0633356
168	0xbc981845	-0.01856626
169	0xbdcfbb98	-0.101432025
170	0x3cc3e6c7	0.023913754
171	0xb9010f3f	-0.00012308078
172	0x3db57369	0.08859903
173	0xbd328979	-0.043588135
174	0xbd546d3e	-0.051861994
175	0xbd35769c	-0.044302568
176	0xbc8ae9f7	-0.016957266
177	0xbd2d8fba	-0.042373396
178	0xbdec7f2b	-0.11547693
179	0x3cc0f883	0.023556
180	0x3d855ea8	0.06512195
181	0x3c09b678	0.00840532
182	0xbd956238	-0.07294124
183	0x3d66912f	0.0562908
184	0xbc60fcb4	-0.013732124
185	0x3d59f998	0.053216547
186	0x3b263a85	0.002536447
187	0xbd5f0429	-0.054447327
188	0xbe4e1e6d	-0.20128794
189	0xbd4da47d	-0.050205696
190	0x3cf30917	0.02966742
191	0x3ddc6b4e	0.10762654
192	0xbc794286	-0.015213614
193	0x3d33d27d	0.04390191
194	0x3dadef0d	0.08492861
195	0x3cf96a8a	0.03044631
196	0x3cd3944f	0.025827555
197	0x3d9c53f6	0.07633202
198	0x3cb9be6d	0.02267381
199	0x3e0528dc	0.13003868
200	0xbda98543	-0.08277371
201	0xbd637f76	-0.055541478
202	0xbd576ef9	-0.052596066
203	0xbda0f2fa	-0.07858844
204	0x3d1bcbde	0.03803622
205	0x3de0b8bf	0.109727375
206	0x3d7f190c	0.062279746
207	0xbd41a2ba	-0.04727433
208	0xbc6c8a40	-0.014437258
209	0x3bd8769f	0.0066059376
210	0x3cbb0445	0.022829184
211	0x3cb5ccb5	0.022192338
212	0xbdadf611	-0.08494199
213	0xbce57866	-0.028011512
214	0xbda84b57	-0.08217495
215	0xbd04c810	-0.032417357
216	0x3e01778a	0.12643257
217	0x3c029a05	0.007971291
218	0xbbac3c63	-0.005256222
219	0xbda9cd67	-0.082911305
220	0xbd19dd41	-0.03756452
221	0xbe1e1fb0	-0.15441775
222	0x3c393abb	0.011305506
223	0x3d806787	0.06269746
224	0x3d251c00	0.040309906
225	0x3da54f71	0.08071793
226	0xbda3540b	-0.07975014
227	0x3d2b9f4e	0.04189997
228	0x3c373840	0.011182845
229	0xbd8960b8	-0.06707901
230	0x3b56b22e	0.0032760012
231	0xbbfcbfed	-0.007713309
232	0x3cb6ddbd	0.02232253
233	0x3d0f593a	0.034997202
234	0x3db10e96	0.0864536
235	0xbd0e16de	-0.034689777
236	0x3ad8564c	0.0016505211
237	0xbdcf7a0a	-0.10130699
238	0xbd8c9a77	-0.06865399
239	0xbddc1513	-0.10746207
240	0x3d168ba3	0.03675426
241	0x3d46bfdb	0.04852281
242	0xbdb98f40	-0.09060526
243	0x3e12056a	0.14259878
244	0xbcfd7939	-0.030941593
245	0xbde1f092	-0.11032213
246	0xbd8492e1	-0.064733274
247	0xb9cf2406	-0.00039508956
248	0x3d9a6571	0.0753888
249	0xbcab66c1	-0.02092302
250	0x3da95958	0.08268994
251	0x3cff5bc9	0.031171696
252	0xbdae0843	-0.084976695
253	0xbcd61d68	-0.026137069
254	0xbd2b4758	-0.041816086
255	0xbcc897c4	-0.02448643

global_block.conv_chan.conv.0.bias f4 [8]
0	0x3c5608e8	0.013063647
1	0x399c9fc4	0.00029873673
2	0xb1aa92b0	-4.9643276e-09
3	0xbc2792ae	-0.010227842
4	0x3ce27e79	0.027648197
5	0xbbd162b4	-0.00638994
6	0xb25be1b8	-1.27988e-08
7	0x3c0e9323	0.008702072

global_block.conv_chan.conv.1.weight f4 [8]
0	0x3f6ef857	0.93347687
1	0x3f786f66	0.9704498
2	0x3f839435	1.0279604
3	0x3f5ddaac	0.8666179
4	0x3f6a34a4	0.91486573
5	0x3f58ab4e	0.8463639
6	0x3f755684	0.9583514
7	0x3f60bf88	0.87792253

global_block.conv_chan.conv.1.bias f4 [8]
0	0xbe56e823	-0.2098699
1	0xbde564b8	-0.11200851
2	0xbe200a30	-0.15628886
3	0xbd7dc9f6	-0.061960183
4	0xbdf3fa96	-0.1191303
5	0xbe16ca5a	-0.14725628
6	0xbe2079e7	-0.15671502
7	0xbe1010d4	-0.1406892

global_block.conv_chan.conv.1.running_mean f4 [8]
0	0xbd4d69f7	-0.050149884
1	0xbda49b84	-0.08037475
2	0xbdaff8b9	-0.08592362
3	0xbcb1c63e	-0.021700975
4	0x3da790be	0.08181904
5	0xbca14202	-0.019684795
6	0x3c728aff	0.014803647
7	0x3bf52e74	0.0074823443

global_block.conv_chan.conv.1.running_var f4 [8]
0	0x3d9acade	0.07558225
1	0x3dc8039d	0.09766314
2	0x3dbacf59	0.0912158
3	0x3d7d0656	0.06177362
4	0x3d2804d6	0.041020237
5	0x3dc61c46	0.096733615
6	0x3d899600	0.06718063
7	0x3d809699	0.06278724

local_block.conv_time.conv.0.weight f4 [8, 1, 1, 51]
0	0xbd8409eb	-0.06447204
1	0x3b1757bd	0.0023093068
2	0x3bb00fa3	0.005372958
3	0xbc2c5765	-0.010518883
4	0xbcef833f	-0.029237388
5	0xbdcf7791	-0.10130227
6	0x3d685336	0.05671998
7	0x3c7aa7c7	0.01529879
8	0x3df58482	0.119881645
9	0x3cd3b133	0.025841331
10	0xbd2b51b3	-0.04182596
11	0x3c20cd07	0.009814507
12	0x3dc7ecaa	0.09761937
13	0xbdaa70ba	-0.08322282
14	0x3c02dae9	0.007986763
15	0xbd327b61	-0.043574695
16	0xbd30c0c5	-0.04315259
17	0x3dfb1a44	0.12260869
18	0x3e0ddbca	0.13853374
19	0x3d25620a	0.0403767
20	0xbe178a36	-0.14798817
21	0xbd65dbde	-0.056117885
22	0xbd26af24	-0.04069437
23	0xbd38edf0	-0.04514879
24	0xbc455477	-0.012044064
25	0x3d9ed418	0.077552974
26	0x3c3e1c4b	0.011603425
27	0xbc3892db	-0.011265482
28	0x3d7b25a3	0.06131519
29	0x3dead049	0.114655085
30	0x3ce36d99	0.027762221
31	0x3d832db0	0.064051986
32	0x3d31e545	0.04343154
33	0xbda19714	-0.07890144
34	0x3dc90193	0.098147534
35	0x3dffd598	0.12491912
36	0x3c435c66	0.011923885
37	0xbe4eadd6	-0.201835
38	0xbd62b8ec	-0.055352136
39	0x3d8e9572	0.06962098
40	0x3d9f1220	0.07767129
41	0xbdaec98a	-0.08534534
42	0x3de10aaa	0.10988362
43	0x3ddb7749	0.10716111
44	0x3cac70e6	0.021049928
45	0xbd83eb3c	-0.06441352
46	0xbc367a20	-0.011137515
47	0xbd7968f2	-0.0608911
48	0xbd1332dd	-0.03593718
49	0x3d708c43	0.058727514
50	0xbd092cbc	-0.033489928
51	0x3ca5c6ac	0.020236336
52	0xbd5b6584	-0.05356361
53	0xbd04a263	-0.032381427
54	0xbd6d2d1c	-0.057904348
55	0xbbc129d1	-0.0058948775
56	0xbd73fa27	-0.059564736
57	0xbd3fdde6	-0.04684248
58	0x3d2956c6	0.04134252
59	0xbd9084c9	-0.07056577
60	0x3d36accc	0.044598386
61	0xbd1de560	-0.038548827
62	0x3e074a96	0.13212046
63	0x3de07234	0.109592825
64	0xbc3ca288	-0.01151336
65	0xbc84b46c	-0.016199313
66	0xbc52aed2	-0.012859063
67	0xbc78d088	-0.0151864365
68	0xbdbdac18	-0.0926134
69	0xbcd2ac4c	-0.025716923
70	0xbbe5c75a	-0.00701229
71	0xbd9c4d5d	-0.076319434
72	0x3cf7507f	0.03018975
73	0xbd825953	-0.063646935
74	0xbd390a2e	-0.045175724
75	0x3d17062b	0.036871117
76	0xbd06136b	-0.032733362
77	0x3c9b8ee4	0.018989034
78	0x3db7532f	0.08951413
79	0x3e104e20	0.14092302
80	0x3d9be1f9	0.0761146
81	0xbd3ba0b3	-0.04580755
82	0x3c2e43de	0.010636298
83	0xbd5f7482	-0.05455447
84	0x3c192451	0.009347037
85	0x3d7f27f7	0.062293973
86	0xbd7a516e	-0.061112814
87	0x3cc86854	0.02446381
88	0x3d19b5b5	0.037526805
89	0x3dd407e0	0.103530645
90	0x3dacf452	0.08445038
91	0x3c2523b3	0.010079312
92	0xbc4649af	-0.0121025285
93	0xbd9f2028	-0.07769805
94	0xbccd32b8	-0.025048599
95	0x3d0d306f	0.034470018
96	0x3e158634	0.14601976
97	0x3c7fc33f	0.015610515
98	0x3d3d3a39	0.046198104
99	0xbcfeeaf0	-0.031117886
100	0x3d8080a7	0.062745385
101	0xbd972a5a	-0.07381125
102	0xbd78278b	-0.060584586
103	0xbdf69b2d	-0.12041316
104	0x3d1bbf36	0.03802415
105	0xbd4cb6f4	-0.049979165
106	0xbd1cab83	-0.038249504
107	0x3d3cfeeb	0.046141546
108	0x3d1b037c	0.03784512
109	0x3d2f4e46	0.042799257
110	0x3df5e7af	0.12007081
111	0x3c05aed0	0.008159354
112	0x3dea3bc5	0.114371814
113	0x3d1baf5c	0.038009033
114	0xbcae1aea	-0.021253068
115	0xbc2500fc	-0.0100710355
116	0xbcb34197	-0.021881862
117	0xbccdfdc8	-0.025145426
118	0xbd1eb316	-0.03874501
119	0xbca0b961	-0.019619646
120	0xbdb920dc	-0.090394706
121	0x3dbbf750	0.091780305
122	0x3de4cab5	0.11171476
123	0x3d5adafb	0.053431492
124	0x3d931878	0.071824014
125	0xbd4b712c	-0.049668476
126	0xbbbdd679	-0.0057933894
127	0xbd807684	-0.06272605
128	0x3c38d252	0.011280613
129	0xbd783cdd	-0.06060492
130	0xbd809d77	-0.06280034
131	0x3ceb9a28	0.02876003
132	0xbc71aa47	-0.01475007
133	0xbd668807	-0.05628207
134	0x3b4c13c8	0.003113972
135	0xbd171c54	-0.03689225
136	0x3d10bbc9	0.035335336
137	0xbd23aaca	-0.0399578
138	0x3c95f4f7	0.018305285
139	0x3e10876f	0.14114164
140	0x3d3bbd1d	0.04583465
141	0x3deeb88e	0.11656295
142	0x3dbf6079	0.093445726
143	0xbdb8b2ae	-0.090184554
144	0xbe2b0714	-0.16701919
145	0xbc8d5d86	-0.01725651
146	0xbd8aede7	-0.067836575
147	0xbd9f85eb	-0.07789215
148	0xbdc09208	-0.09402853
149	0x3da2f59c	0.079570025
150	0x3dd38cc5	0.10329584
151	0xbd36249f	-0.04446852
152	0xbc7398bf	-0.0148679605
153	0x3d020f95	0.03175314
154	0x3b89188c	0.0041838344
155	0xbc77ff09	-0.015136489
156	0x3c886b5c	0.016652755
157	0x3d49c8e3	0.049263846
158	0xbc8a18f3	-0.0168576
159	0x3c5a6bf3	0.013331401
160	0x3c800335	0.01562653
161	0x3dd506fd	0.104017235
162	0xbd3c27cc	-0.04593639
163	0xbc88b8a5	-0.016689608
164	0x3d3afc34	0.045650676
165	0xbdf4e78a	-0.11958225
166	0xbd897e61	-0.06713558
167	0x3d4994c5	0.049214143
168	0xbd702cb2	-0.058636375
169	0x3cf0986e	0.02936956
170	0x3c991c47	0.018690242
171	0x3d59cd59	0.05317435
172	0x3df4d283	0.119542144
173	0x3c599cc9	0.013282009
174	0xbd4f95f3	-0.050680112
175	0x3d524470	0.0513348
176	0xbd7e7792	-0.06212575
177	0xbd02e463	-0.031956088
178	0x3ccff6a7	0.025386168
179	0xbd03b95b	-0.03215919
180	0xbd1f8044	-0.038940683
181	0xbd45b3b0	-0.048267066
182	0x3d706e29	0.058698807
183	0xbd951c95	-0.07280842
184	0x3d9e7a5c	0.07738182
185	0xbd35751b	-0.044301134
186	0x3d92543a	0.07144971
187	0x3def096a	0.116717175
188	0x3cf8de5f	0.030379472
189	0xbd4ec53a	-0.05048106
190	0x3d4d01c6	0.05005052
191	0x3cdfa5c0	0.027300715
192	0xbdb1ad64	-0.0867565
193	0xbe15b180	-0.14618492
194	0x3d4b13a7	0.04957929
195	0xbd09fa82	-0.03368617
196	0xbb91e877	-0.004452761
197	0xbe13e701	-0.1444359
198	0xbda7c6ee	-0.0819224
199	0x3d37a6fc	0.044836983
200	0xbd998009	-0.07495124
201	0x3d837c1f	0.064201586
202	0x3b92460c	0.0044639166
203	0x3e08e934	0.1337021
204	0xbd096229	-0.03354088
205	0x3d924815	0.07142655
206	0xbda60f1a	-0.08108349
207	0xbcd4ef02	-0.025992874
208	0xbc5f964a	-0.013646672
209	0xbdb4ed0c	-0.088342756
210	0x3c4f959d	0.012669948
211	0xbd2a574d	-0.041587163
212	0x3d142f46	0.036177896
213	0x3cd0016f	0.025391309
214	0xbd7a92d0	-0.061175168
215	0xbd68aa81	-0.05680323
216	0xbdc0869e	-0.09400676
217	0x3be310c7	0.0069294902
218	0x3c179088	0.0092507675
219	0xbd4cd0af	-0.050003704
220	0x3d405cb4	0.04696341
221	0xbdd41e8d	-0.103573896
222	0x3c73e35e	0.0148857515
223	0x3d493215	0.049120028
224	0xbdc8e291	-0.09808839
225	0xbd487138	-0.0489361
226	0xbac7082c	-0.001518493
227	0x3c21b64d	0.009870124
228	0x3d23f0fe	0.04002475
229	0x3d369216	0.044572912
230	0x3d9324d8	0.07184762
231	0xbd08b8a8	-0.033379227
232	0xbdbc19a2	-0.091845766
233	0xbd3c7c72	-0.046017118
234	0xbc1292ba	-0.008946115
235	0xbd2555f2	-0.040365167
236	0xbd578e30	-0.052625835
237	0x3d4479da	0.04796777
238	0xbc2fec70	-0.010737523
239	0xbd3da1d3	-0.046296906
240	0x3d464ed6	0.048415028
241	0xbdaadf7a	-0.08343406
242	0xbdc8990f	-0.097948186
243	0x3cb2b818	0.021816298
244	0xbde6c02a	-0.11267121
245	0xbd59e879	-0.05320022
246	0x3e2bf1de	0.16791484
247	0x3e1f393b	0.15549175
248	0xbd9c98d1	-0.07646335
249	0xbdb3072c	-0.08741602
250	0xbe1f9df6	-0.15587601
251	0xbd23877c	-0.03992413
252	0xbceead6b	-0.029135427
253	0x3bed7031	0.0072460403
254	0xbbf96e12	-0.0076119984
255	0x3d001809	0.03127292

local_block.conv_time.conv.0.bias f4 [8]
0	0x3c36dcff	0.011161088
1	0xbd8f6757	-0.070021324
2	0x3a3bb92d	0.0007161077
3	0x3bf549b9	0.007485595
4	0x3ccd193f	0.025036452
5	0x3c27079c	0.010194685
6	0x3d314870	0.043281972
7	0x3d172f0c	0.0369101

local_block.conv_time.conv.1.weight f4 [8]
0	0x3f7531cf	0.95779127
1	0x3f677306	0.90409887
2	0x3f4fd28d	0.8118065
3	0x3f5baad4	0.8580754
4	0x3f4f23f6	0.8091425
5	0x3f84ae75	1.036574
6	0x3f5d398c	0.86415935
7	0x3f7fc467	0.9990906

local_block.conv_time.conv.1.bias f4 [8]
0	0x3cbecb69	0.023290353
1	0x3d3401b3	0.043946933
2	0x3b841a2a	0.0040314393
3	0x3d8de3c7	0.06928211
4	0xbc87ce21	-0.016577782
5	0xbc3ced7f	-0.011531233
6	0x3dbbbcca	0.09166868
7	0xbe0bb560	-0.13643408

local_block.conv_time.conv.1.running_mean f4 [8]
0	0x3cb85d78	0.022505507
1	0xbd8b26f4	-0.06794539
2	0x3bc00ed4	0.0058611427
3	0x3bbb555d	0.005716963
4	0x3c47aca1	0.012187154
5	0x3c4d2351	0.012520627
6	0x3d8ae15c	0.06781265
7	0x3cb6adc6	0.022299659

local_block.conv_time.conv.1.running_var f4 [8]
0	0x40ede1a1	7.4337926
1	0x40d12ccf	6.53672
2	0x4125b1d1	10.355912
3	0x40d6d09a	6.712964
4	0x40847168	4.1388435
5	0x40be4545	5.9459558
6	0x40af2f72	5.4745417
7	0x40887067	4.263721

local_block.conv_chan.conv.0.weight f4 [8, 8, 11, 1]
0	0xbc50bc46	-0.0127402
1	0x3d3d83fe	0.046268456
2	0xbc6902dd	-0.014221874
3	0xbcaa9aa3	-0.02082569
4	0x3c59f6e0	0.0133034885
5	0x3c9c095a	0.019047428
6	0xbba0a69d	-0.0049026744
7	0xbcf82a3f	-0.030293582
8	0xbd4527a6	-0.048133515
9	0x3d03e01c	0.03219615
10	0xbd928cb8	-0.07155746
11	0xbc3c888d	-0.011507166
12	0x3cc0f37a	0.023553599
13	0x3d0ed01a	0.03486643
14	0xbcef6e42	-0.02922738
15	0x3dbd4150	0.09240973
16	0x3cf75d5f	0.03019589
17	0xbd2e143e	-0.042499773
18	0xbe254527	-0.16139661
19	0xbc3ceb34	-0.011530686
20	0x3cae1ecc	0.02125492
21	0x3d224be7	0.039623167
22	0x3cbfeaa7	0.02342732
23	0x3db74124	0.089479715
24	0x3cf56a8c	0.029958032
25	0x3da9f87b	0.08299347
26	0x39d990f3	0.0004149746
27	0xbd39074a	-0.045172967
28	0xbd2be283	-0.041964065
29	0x3bf41209	0.007448439
30	0xbd831756	-0.06400935
31	0x3c687064	0.014186952
32	0xbde5ea56	-0.11226337
33	0xbc1104aa	-0.00885121
34	0xbc24c249	-0.010056087
35	0xbd095e30	-0.03353709
36	0x3c87dc9c	0.016584687
37	0x3b81ec5d	0.0039649443
38	0x3d8938d6	0.06700294
39	0x3cbbb2f5	0.022912482
40	0x3d55d5bd	0.05220579
41	0xbd87a114	-0.0662252
42	0xbc375345	-0.011189287
43	0x3d84b0d6	0.06479041
44	0x3d0c7ee2	0.034300692
45	0xbc5055c5	-0.012715762
46	0xbd7a724b	-0.061144155
47	0xbcc4fdad	-0.024046743
48	0xbb27fd07	-0.0025632994
49	0xbd1bd2b7	-0.03804275
50	0x3d85e238	0.065372884
51	0x3dc7825a	0.097416595
52	0xbcc3bb08	-0.023892894
53	0xb966f43d	-0.00022025495
54	0xbd149238	-0.036272258
55	0xbcba5d76	-0.022749644
56	0x3e1b0deb	0.15142028
57	0x3d5c059f	0.0537163
58	0x3d9b39ca	0.07579382
59	0x3b3dcfc6	0.0028962954
60	0xbcd3a63a	-0.025836099
61	0x3dbf51c8	0.093417704
62	0xbdade652	-0.08491196
63	0xbdc72914	-0.09724632
64	0xbc874ef8	-0.016517147
65	0x3c2b789d	0.010465768
66	0xbc783148	-0.015148468
67	0x3d37a771	0.04483742
68	0xbd1ffd66	-0.03906002
69	0x3de34694	0.11097446
70	0xbcec1f88	-0.028823629
71	0xbd6a88ac	-0.057259247
72	0xbcd97513	-0.026545083
73	0x3db438a8	0.08799869
74	0x3ca559fb	0.020184508
75	0xbd915c79	-0.07097716
76	0xbd019365	-0.031634707
77	0xbcf31eda	-0.029677797
78	0x3d30f2c3	0.043200266
79	0x3d6b50fe	0.057450287
80	0xbc3a21a4	-0.01136056
81	0x3b4aa83d	0.0030923032
82	0xbd956eff	-0.072965614
83	0x3d810f53	0.06301751
84	0x3d1b8d9b	0.037976842
85	0x3dc52e7a	0.09628005
86	0xbd3d2f3c	-0.046187624
87	0xbda5a9a5	-0.08088998
88	0x3b6c66f1	0.00360721
89	0xbc01b694	-0.007917065
90	0x3d534d22	0.05158723
91	0xbccd914b	-0.025093695
92	0x3db501a1	0.08838201
93	0x3b2b2476	0.0026114262
94	0x3b374e30	0.0027970187
95	0xbd45379a	-0.04814873
96	0xbd5d308e	-0.054001383
97	0x3c32bb97	0.010908983
98	0xbd2dfb67	-0.042476084
99	0xbd1b5665	-0.03792419
100	0x3dacf5d4	0.084453255
101	0x3d5fce55	0.054640133
102	0x3aa8d73f	0.0012881531
103	0xbcf77981	-0.030209305
104	0xbd5922cc	-0.0530117
105	0x3d46735e	0.048449866
106	0x3cd0e978	0.025501952
107	0xbd866ead	-0.065640785
108	0x3d96992b	0.07353433
109	0xbd8b8f5f	-0.06814455
110	0xbdf29461	-0.11844707
111	0x3d2920e3	0.04129113
112	0xbdaad884	-0.08342078
113	0x3acfdd0a	0.0015858721
114	0x3d0a735d	0.033801425
115	0xbdaaee42	-0.08346225
116	0x3d30510e	0.04304605
117	0x3e6abf6a	0.22924581
118	0x3d02dbe6	0.031947993
119	0xbcba65fa	-0.022753704
120	0xbc7cea71	-0.015436755
121	0x3d8dd614	0.06925598
122	0xbdaf3d0b	-0.08556565
123	0xbd48c9d8	-0.04902062
124	0xbd215e9f	-0.03939688
125	0xbc9474e4	-0.018122144
126	0x3d2ecb45	0.04267432
127	0x3b65b050	0.0035047717
128	0x3c95fee9	0.018310027
129	0xbcab144a	-0.020883698
130	0xbd4943c1	-0.04913688
131	0x3e026a38	0.12735832
132	0x3c957862	0.01824588
133	0x3c02501e	0.007953672
134	0x3d364ab2	0.04450483
135	0xbd007221	-0.03135884
136	0xbc449d7c	-0.012000438
137	0x3da86556	0.08222453
138	0xbcca36c8	-0.024684325
139	0xbe202743	-0.15639977
140	0x3d69a965	0.057046313
141	0xbc6b6ff7	-0.014369956
142	0x3cb156d3	0.021647846
143	0x3d46578e	0.048423342
144	0xbded30bf	-0.11581563
145	0xbd4bc105	-0.049744625
146	0x3d80cd09	0.06289107
147	0xbd3d251e	-0.046177976
148	0x3c422a5e	0.011850921
149	0x3d870d13	0.065942906
150	0xbb8ea382	-0.0043529877
151	0xbc5f089b	-0.013612892
152	0x3dd077dc	0.10179111
153	0xbca6be23	-0.020354336
154	0xbd312d05	-0.043255825
155	0xbd4e2887	-0.05033162
156	0xbda94882	-0.08265783
157	0x3b8f8959	0.004380387
158	0xbbf0da45	-0.0073502385
159	0xbd570e43	-0.052503835
160	0x3cb410e0	0.021980703
161	0x3e0b1b23	0.1358457
162	0x3d2d3bfa	0.042293526
163	0x3c3e234f	0.011605098
164	0x3c90fb5b	0.01769798
165	0x3c2d1ae8	0.010565497
166	0x3d88c912	0.06678976
167	0xbd5530da	-0.05204854
168	0x3ce5bbc9	0.028043645
169	0x3cee6330	0.02910003
170	0xbcd19f17	-0.025588555
171	0xbda3b8cb	-0.07994231
172	0x3d8870e1	0.06662155
173	0x3ceb6fce	0.028739836
174	0xbbb9311e	-0.005651607
175	0xbd434e3c	-0.047682032
176	0x3d38ecfd	0.045147885
177	0xbdc02e6e	-0.09383856
178	0xbe0354d7	-0.12825333
179	0x3e24a9ee	0.16080448
180	0x3e0592ba	0.13044253
181	0x3c09fb22	0.008421691
182	0xbdd00254	-0.10156694
183	0xbc45132a	-0.012028495
184	0x3c60db89	0.013724216
185	0x3d6a4dee	0.057203226
186	0xbc92d7d3	-0.017925179
187	0xbdc22f5a	-0.09481688
188	0xbe132011	-0.14367701
189	0xbdc108cb	-0.09425505
190	0x3d97e7ad	0.074172355
191	0x3d940241	0.072269924
192	0x3c9f841c	0.019472174
193	0x3cb8157b	0.02247118
194	0x3d936f4b	0.07198962
195	0x3cdfda12	0.027325664
196	0xbcaddb5e	-0.021222766
197	0x3d7d7e27	0.061887886
198	0xbca90f29	-0.020637112
199	0xbd3f9852	-0.046776123
200	0x3dab975b	0.08378478
201	0xbd88c6a1	-0.066785105
202	0x3d3f9d63	0.046780955
203	0xbc9135e2	-0.017725889
204	0x3d311e29	0.043241654
205	0xbb53494c	-0.0032239733
206	0x3d0cfa1b	0.034418207
207	0xbd56a096	-0.05239924
208	0xbd24ac99	-0.040203664
209	0xbd83ab82	-0.06429197
210	0x3d936d2b	0.071985565
211	0xbcf30858	-0.029667065
212	0x3d29b60f	0.04143339
213	0x3d5f105c	0.05445896
214	0x3cfb21d0	0.030655771
215	0xbd93b1b5	-0.07211629
216	0xbc9e165a	-0.019297767
217	0xbc337bd7	-0.010954819
218	0x3dd42f97	0.103606395
219	0xbd408e57	-0.047010746
220	0xbd804162	-0.06262471
221	0x3bef9245	0.007311138
222	0x3c856cb3	0.016287183
223	0x3d035bd1	0.032069985
224	0x3c9f5935	0.019451717
225	0x3d7fe8e8	0.062477976
226	0xbbafc8b7	-0.0053645032
227	0xbd58bc8c	-0.052914187
228	0xbd37057a	-0.044682957
229	0x3caa3a16	0.02077965
230	0x3c613244	0.013744894
231	0xbcb57011	-0.022148164
232	0xbde5fe37	-0.11230128
233	0xbd33465d	-0.043768276
234	0x3bf77202	0.0075514326
235	0x3d683b34	0.056697085
236	0x3dd434f9	0.10361666
237	0xbbe99a61	-0.007128999
238	0xbd9f8693	-0.0778934
239	0x3de3c7ad	0.111220695
240	0x3d0cf1f2	0.034410425
241	0xbc011d82	-0.00788057
242	0x3c4dc991	0.012560264
243	0x3dad48df	0.08461165
244	0xbd692dfc	-0.05692862
245	0xbe21f85e	-0.15817401
246	0xbd132430	-0.035923183
247	0x3d01c76a	0.031684317
248	0xbd5840df	-0.05279624
249	0x3e324343	0.17408471
250	0xbd29250d	-0.0412951
251	0x3d211dd2	0.03933508
252	0xbcf863fe	-0.030321117
253	0xbb54dd1c	-0.0032480424
254	0x3c2749c4	0.010210458
255	0xbd980ee8	-0.07424718

local_block.conv_chan.conv.0.bias f4 [8]
0	0xbc66dec4	-0.014091197
1	0xba52dc4e	-0.0008043692
2	0x3bdd8249	0.006759916
3	0x3cf87628	0.030329779
4	0x3a044bd2	0.00050466985
5	0x3b75e8e1	0.003752284
6	0x3ce1d03a	0.02756511
7	0x34979394	2.823332e-07

local_block.conv_chan.conv.1.weight f4 [8]
0	0x3f482b46	0.7819103
1	0x3f71e0a3	0.94483393
2	0x3f7d88d7	0.99036926
3	0x3f682885	0.9068683
4	0x3f566d95	0.8376096
5	0x3f86d612	1.0534079
6	0x3f6de33d	0.92924863
7	0x3f690e04	0.9103701

local_block.conv_chan.conv.1.bias f4 [8]
0	0xbe1cecb2	-0.15324667
1	0xbe3fcb7f	-0.18729971
2	0xbd9c163e	-0.0762143
3	0xbe333686	-0.17501268
4	0xbe1eb9e4	-0.15500599
5	0xbe0652e0	-0.13117552
6	0xbe02b7c3	-0.12765412
7	0xbe15cb8f	-0.14628433

local_block.conv_chan.conv.1.running_mean f4 [8]
0	0x3c75c435	0.015000393
1	0xbaab1a68	-0.0013054134
2	0xbbd96dcb	-0.006635403
3	0xbc051fba	-0.00812524
4	0xbd0f3e42	-0.034971483
5	0x3c87891a	0.016544867
6	0x3ccea63c	0.025225751
7	0xbbd73877	-0.0065680104

local_block.conv_chan.conv.1.running_var f4 [8]
0	0x3d78eed4	0.06077464
1	0x3d193938	0.037408084
2	0x3d828682	0.063733116
3	0x3d8d2d36	0.06893389
4	0x3dc8d08b	0.098054014
5	0x3d7b26da	0.06131635
6	0x3da630e1	0.08114792
7	0x3daab866	0.083359525

tcn.network.0.conv1.weight f4 [16, 16, 16]
0	0xbcf831a9	-0.030297117
1	0xbd15e956	-0.03659948
2	0xbb475a2f	-0.0030418744
3	0xbd22c8f2	-0.039742418
4	0xbc647291	-0.01394333
5	0xbb692569	-0.0035575277
6	0x3c021fdc	0.007942166
7	0xbbe2d64f	-0.00692252
8	0x3cb5f84b	0.022213122
9	0xbc327325	-0.01089171
10	0xbc7abbd3	-0.01530357
11	0xbcfb4a55	-0.030675093
12	0xbd102fbe	-0.03520178
13	0xbcb2190e	-0.021740463
14	0xbc692f1a	-0.014232421
15	0x3cb30e63	0.021857446
16	0x3cbbf7d8	0.02294533
17	0x3c716f24	0.014735971
18	0xb99347f1	-0.00028091625
19	0x3cbf8858	0.023380443
20	0xbb8fbc93	-0.0043864935
21	0x3c87c5bd	0.016573781
22	0xbb0890a8	-0.0020838175
23	0x38fd1023	0.00012066986
24	0xbb56c2b6	-0.0032769865
25	0xbb107e8f	-0.002204809
26	0x3b1567dd	0.0022797503
27	0xbaa25dda	-0.0012387589
28	0xbc56584e	-0.013082577
29	0xbc1029d9	-0.00879904
30	0xbc581797	-0.013189218
31	0x3cc52ec1	0.024070146
32	0xbb8e1deb	-0.0043370626
33	0x3bce7a25	0.006301182
34	0xbc04022d	-0.008057159
35	0xbb3442aa	-0.0027505555
36	0x3bde26b1	0.0067795147
37	0x3d257fdf	0.04040515
38	0x3d7d5966	0.061852835
39	0x3cc7f432	0.024408434
40	0x3d818c92	0.0632564
41	0x3c1a515e	0.0094188135
42	0xbb4196dd	-0.0029539384
43	0x3c9c8605	0.019106874
44	0x3b357f09	0.0027694127
45	0x3836db1c	4.3596243e-05
46	0x3c8f38be	0.017483111
47	0xbc0aa734	-0.008462716
48	0x3bd556c5	0.006510588
49	0xbc283f1b	-0.010268952
50	0x3b64e1b1	0.0034924562
51	0x3cce17d2	0.025157843
52	0x3c0b5f72	0.008506643
53	0x3cba7227	0.02275951
54	0x3d018331	0.031619254
55	0x3cd818a9	0.026378946
56	0x3d03077d	0.031989563
57	0xbbea3c3d	-0.0071482942
58	0x3c15975c	0.009130325
59	0xbbedb744	-0.007254513
60	0xbcbc61b9	-0.022995817
61	0xbcb81894	-0.022472657
62	0x3b6e4d19	0.0036361872
63	0x3c6840f7	0.014175645
64	0x3cd6961c	0.026194625
65	0x3d117a3b	0.03551696
66	0x3cb6130a	0.022225875
67	0x3d462230	0.048372447
68	0x3d2b0182	0.041749485
69	0x3c59fe43	0.01330525
70	0x3b1d3f34	0.002399397
71	0xbc4fc262	-0.012680622
72	0x3d00471a	0.031317808
73	0xbc11f0f6	-0.008907547
74	0x3bec1cd6	0.007205586
75	0x3c4ef260	0.012631029
76	0xbcaa9840	-0.020824552
77	0x3c1e3069	0.009655097
78	0x3cb974d4	0.022638716
79	0x3b85c1c6	0.0040819375
80	0x3cbdeff3	0.023185706
81	0x3cebf352	0.028802548
82	0x3d0afd5a	0.03393302
83	0x3d27ba16	0.04094895
84	0x3c527c85	0.012847071
85	0xbb08063b	-0.0020755667
86	0x3b7647d9	0.0037579446
87	0xbbdbe62e	-0.006710789
88	0xbbe070a7	-0.0068493667
89	0xbd019f7c	-0.031646237
90	0xbc3a6027	-0.011375464
91	0xbbf24c71	-0.0073943664
92	0xbc41a578	-0.011819236
93	0x3c470999	0.012148284
94	0x3d1c37bb	0.038139086
95	0x3c79dfe3	0.015251133
96	0x3c998aac	0.018742882
97	0xbce90885	-0.028446445
98	0xbd2e3160	-0.042527556
99	0xbd1e0bf8	-0.038585633
100	0xbc361f73	-0.0111158965
101	0xbca65d36	-0.020308118
102	0xbc116091	-0.008873121
103	0x3c501be1	0.012701959
104	0xbbe16e3b	-0.0068795956
105	0xbb9c9e48	-0.004779611
106	0xbc055d39	-0.008139902
107	0xbac459aa	-0.0014980335
108	0xbbdbc8e9	-0.0067073
109	0xbba1d614	-0.00493885
110	0x3c1ae83d	0.009454784
111	0xbb9f279e	-0.0048570177
112	0x3b10dfd7	0.0022106075
113	0x3bb2441a	0.0054402472
114	0x3b32e221	0.0027295428
115	0x3c6b2a63	0.0143533675
116	0xbc5ffbc0	-0.013670862
117	0x3c6fcbac	0.0146359615
118	0x3b3b4658	0.0028575864
119	0x3ca9f8d1	0.020748528
120	0x3c7fccba	0.015612775
121	0xbbad1918	-0.0052825324
122	0xbb3e84ed	-0.002907093
123	0xbba15ffd	-0.004924773
124	0xbb0d4d6d	-0.0021561042
125	0x3ba1af8c	0.004934257
126	0x3b4ddac4	0.0031410912
127	0x3b95166f	0.0045497934
128	0x3bbe36e7	0.0058048847
129	0xbbc76371	-0.0060848524
130	0x3c554e29	0.013019123
131	0xbc36f866	-0.011167621
132	0xbc8595d4	-0.016306795
133	0x3bce4a91	0.00629551
134	0xbb5c447c	-0.0033610156
135	0xbcc26c57	-0.023733301
136	0xbcc5f787	-0.024165882
137	0x3bdf036c	0.006805828
138	0xbbb8513c	-0.0056249183
139	0x3c5571e2	0.01302764
140	0x3c2e5ec9	0.010642716
141	0x3c92aec2	0.017905597
142	0x3c104a1a	0.00880673
143	0xbccadd67	-0.024763776
144	0x3ca7c0e8	0.020477727
145	0x3ce4e076	0.027939063
146	0x3c02d82e	0.007986112
147	0xbb03261b	-0.0020011726
148	0xbc0b5bdc	-0.008505788
149	0xbb2b775f	-0.002616368
150	0xbc257cc0	-0.0101005435
151	0xbc209b6c	-0.00980268
152	0xbc5f71cf	-0.013637974
153	0x3bbb0240	0.0057070553
154	0x3b92608c	0.0044670757
155	0x3b4c3ff2	0.0031166044
156	0xbb9e8c70	-0.004838519
157	0x3c2031cf	0.0097775
158	0x3cd8a6d7	0.026446743
159	0x3d6cd0d6	0.05781635
160	0x3d1d5c49	0.038418088
161	0x3ca13bf2	0.019681904
162	0x3cd36b7e	0.025808092
163	0x3a1ae5cc	0.0005908876
164	0x3bee7927	0.007277626
165	0x3c82fe7d	0.01599049
166	0x3ce00836	0.027347665
167	0x3ce77e75	0.028258542
168	0xbc082169	-0.008308747
169	0xbc470c08	-0.012148865
170	0xbb013f72	-0.0019721654
171	0xbcd54a61	-0.026036443
172	0xbb027a2c	-0.0019909246
173	0xbd7ea8b0	-0.06217259
174	0xbce3ad78	-0.027792677
175	0xbc850b57	-0.016240759
176	0xbcaf5578	-0.02140306
177	0xbc37baf6	-0.011214009
178	0xbc847824	-0.016170569
179	0x3ad498c2	0.0016219842
180	0x3b4885f2	0.0030597416
181	0xbc5dcb95	-0.013537307
182	0x3b9c8275	0.004776294
183	0x3b5f60bb	0.0034084755
184	0x3d02393e	0.03179287
185	0x3c9dd95a	0.01926868
186	0x3be49f9d	0.006977035
187	0xbca23e95	-0.019805232
188	0x3ab880a1	0.001407642
189	0xbc8e5860	-0.017376125
190	0xbc24fc0c	-0.010069858
191	0xbc2bc32d	-0.010483545
192	0x3b71e6a5	0.0036911156
193	0x3b83c80c	0.00402165
194	0x3b82e0cd	0.0039940835
195	0xbc517203	-0.01278353
196	0xbc966e6a	-0.018363196
197	0xbc8e0e1a	-0.017340709
198	0xbbb08c06	-0.005387786
199	0xbc3b354d	-0.011426282
200	0xbce11d1e	-0.027479704
201	0xbcd3857b	-0.025820484
202	0xbc1ca278	-0.00956022
203	0xbc0095f9	-0.007848256
204	0xbc91ee53	-0.017813837
205	0xbc176e36	-0.009242585
206	0xbd79cc9f	-0.060986158
207	0xbd22cbb5	-0.03974505
208	0xbd868b76	-0.06569569
209	0xbc37a30e	-0.011208309
210	0xbc4a7175	-0.012356152
211	0xbbc9ff33	-0.0061644553
212	0xbc1c8fdb	-0.009555782
213	0x3c3ef716	0.01165559
214	0x3d17ef91	0.037093703
215	0x3d25d47f	0.040485855
216	0x3c1a75e3	0.00942752
217	0x3a08ba16	0.0005215717
218	0x3c37fdc7	0.011229939
219	0xbba5f312	-0.0050643766
220	0xbd08190c	-0.03322701
221	0xbcbc9fde	-0.02302545
222	0xbbc952f7	-0.0061439234
223	0xbc104a67	-0.008806801
224	0x3a760cf7	0.0009386087
225	0xbc913434	-0.017725088
226	0x3be49673	0.0069759428
227	0xbae651ce	-0.0017571987
228	0x3c5fa602	0.013650419
229	0x3ca72c2f	0.02040681
230	0x3c09a15d	0.008400288
231	0x3b916ba9	0.004437883
232	0xbd1fbce3	-0.038998496
233	0xbc29ab36	-0.010355761
234	0xbcce3352	-0.025170956
235	0x3c764a06	0.015032297
236	0x3a815927	0.0009868488
237	0xbb760d25	-0.0037544456
238	0xb90fcc72	-0.00013713705
239	0x3b72bdcb	0.0037039395
240	0xbc552d0e	-0.01301123
241	0xbce4d5e2	-0.027934019
242	0xbcdac657	-0.026705904
243	0xbc75a087	-0.014991886
244	0x3c5458b1	0.012960599
245	0xbc253fc1	-0.010086001
246	0x3bcd9228	0.0062735267
247	0x3b39747a	0.0028298185
248	0xbc6670c1	-0.014064969
249	0x3b02a086	0.0019932105
250	0xbc973940	-0.018459916
251	0xbc2554a7	-0.0100909835
252	0x3a102f8b	0.00055002485
253	0x3cca1c10	0.024671584
254	0x3ccafbcb	0.024778267
255	0x3cf0aa2a	0.029378016

tcn.network.0.conv1.bias f4 [16]
0	0xb2b755e6	-2.1343066e-08
1	0xb1a71320	-4.862514e-09
2	0xafaa8adb	-3.1021483e-10
3	0x31c229e5	5.650906e-09
4	0xb9da4b1a	-0.00041636155
5	0xb128ef1f	-2.4583142e-09
6	0xb1c951b3	-5.859158e-09
7	0xb175a2c4	-3.5744714e-09
8	0xb0e75218	-1.6830795e-09
9	0x31ca31db	5.8846417e-09
10	0xb074e311	-8.9089364e-10
11	0xb1c0290d	-5.5926024e-09
12	0xb1a12351	-4.6897317e-09
13	0x31a33f16	4.7510964e-09
14	0x31f8770c	7.231284e-09
15	0x3a7528b2	0.00093520724

tcn.network.0.bn1.weight f4 [16]
0	0x3f85df84	1.0458837
1	0x3f7ed55d	0.99544317
2	0x3f6de775	0.929313
3	0x3f7dcc1f	0.9913959
4	0x3f817560	1.0113945
5	0x3f8054f7	1.0025929
6	0x3f77b6c1	0.96763235
7	0x3f879b07	1.0594186
8	0x3f866546	1.0499656
9	0x3f885e7b	1.0653833
10	0x3f877fe5	1.0585905
11	0x3f88cea4	1.0688062
12	0x3f781074	0.96900105
13	0x3f837acc	1.027185
14	0x3f7521ae	0.95754516
15	0x3f857607	1.0426644

tcn.network.0.bn1.bias f4 [16]
0	0xbe8d835c	-0.27639282
1	0xbeb4127a	-0.35170346
2	0xbe8f9e96	-0.2805068
3	0xbe96a07a	-0.2941931
4	0xbe858e27	-0.26085016
5	0xbe811f09	-0.2521899
6	0xbe9fb91a	-0.3119591
7	0xbe70abe5	-0.23503073
8	0xbe46a20e	-0.19397756
9	0xbe9c737c	-0.30556858
10	0xbeabc548	-0.3354895
11	0xbeb9cdd3	-0.36289844
12	0xbe7703ad	-0.24122496
13	0xbea2c443	-0.3179036
14	0xbe7fd9bc	-0.24985403
15	0xbe724e8d	-0.23662777

tcn.network.0.bn1.running_mean f4 [16]
0	0xbc04a478	-0.008095853
1	0xbd8786e4	-0.06617525
2	0xbcb1c876	-0.021702033
3	0xbaf057c5	-0.0018336704
4	0x3cafd1ba	0.02146231
5	0xbbbeb870	-0.0058203265
6	0xbcdd5a2c	-0.027020536
7	0xbd18f739	-0.037345145
8	0xbbf3b7ca	-0.007437681
9	0xbc800a3f	-0.015629886
10	0x3c989674	0.01862643
11	0xbd025a75	-0.031824548
12	0xbd22aea8	-0.039717346
13	0xbc1f116f	-0.009708746
14	0xbc49d5d8	-0.012319051
15	0x3c9a2171	0.018814774

tcn.network.0.bn1.running_var f4 [16]
0	0x3e616237	0.22010122
1	0x3e4014e2	0.18757966
2	0x3e0a316f	0.1349542
3	0x3e4aa34f	0.1978886
4	0x3e52114b	0.20514409
5	0x3e1886f9	0.14895238
6	0x3e553af7	0.20823275
7	0x3e60a6a5	0.2193857
8	0x3e548ce8	0.20756876
9	0x3e701645	0.23445995
10	0x3e5fc80a	0.21853653
11	0x3e7700ca	0.24121395
12	0x3e2911f7	0.1651076
13	0x3e940e2d	0.28917065
14	0x3e612814	0.21987945
15	0x3e462691	0.1935065

tcn.network.0.conv2.weight f4 [16, 16, 16]
0	0xbc58eb14	-0.013239641
1	0xbb58232d	-0.003297995
2	0xbcc941a6	-0.024567436
3	0xbcc3ab98	-0.023885533
4	0xbcbabbb9	-0.022794591
5	0xbb58537a	-0.003300874
6	0xbc0b6401	-0.0085077295
7	0xbb05fb40	-0.0020443946
8	0xbc625717	-0.013814709
9	0xbc7276d3	-0.014798838
10	0xbc4e991d	-0.012609747
11	0xbbbf0e69	-0.0058305752
12	0xba525bce	-0.0008024544
13	0x3c1d6b77	0.009608141
14	0xbd08fb1c	-0.0334426
15	0xbc80bdf8	-0.015715584
16	0x3cfed7ac	0.0311087
17	0x3c988e80	0.018622637
18	0x3b9941b5	0.0046770223
19	0xbb45e115	-0.0030193974
20	0x3c305c6d	0.0107642235
21	0x3c429286	0.011875754
22	0x3cee7467	0.02910824
23	0x3d19a906	0.03751471
24	0x3d2afe4b	0.04174642
25	0x3d070241	0.032961134
26	0x3d64d9c3	0.055871736
27	0x3d87daa9	0.06633503
28	0x3c4ccc69	0.012499907
29	0x3c7e0f0c	0.015506517
30	0xbc3294ac	-0.010899704
31	0xbc578ca1	-0.013156087
32	0x3b18d886	0.0023322417
33	0xbc915abf	-0.017743466
34	0xbc5149a6	-0.012773907
35	0xbcadcdab	-0.021216234
36	0xbc9c89a4	-0.0191086
37	0xbc65cec6	-0.014026349
38	0xb9b29e67	-0.00034068825
39	0xbc14351c	-0.009045865
40	0x3c41c6f9	0.011827224
41	0x3b6c01c6	0.00360118
42	0xbb3cf3a3	-0.0028831742
43	0x3baa93b3	0.0052055954
44	0xbc28c2c6	-0.010300344
45	0xbc4d440f	-0.012528433
46	0xbce4b00b	-0.027915975
47	0xbd0629d9	-0.032754753
48	0xbc7b4f87	-0.015338785
49	0xb9229741	-0.0001550587
50	0x3c209fa7	0.009803689
51	0xbb59fc16	-0.0033261827
52	0xba7e7f71	-0.00097083213
53	0xbb9da3ad	-0.0048107714
54	0xbc454c6f	-0.012042149
55	0x3bf17d19	0.007369649
56	0x3c0c167b	0.008550282
57	0xbb1a2eeb	-0.00235265
58	0xbc26a26e	-0.010170562
59	0xbcc6a4d1	-0.024248512
60	0xbc691542	-0.01422626
61	0xbbfddf7c	-0.0077475887
62	0xbc7f3c4a	-0.015578339
63	0xbcbf6f57	-0.02336852
64	0xbbcf8dd7	-0.0063340473
65	0xbb8582d8	-0.0040744357
66	0xbc8ecb02	-0.017430786
67	0x39c43066	0.00037420093
68	0xbcbf23b6	-0.023332458
69	0xbbbd534a	-0.005777751
70	0x3c5edb50	0.013602093
71	0x397591c4	0.00023419323
72	0xbc46fcad	-0.012145204
73	0xbaa3ffac	-0.0012512109
74	0x3cd419cc	0.025891207
75	0xbc5365ce	-0.01290269
76	0xbcbca0dc	-0.023025922
77	0xbceaa095	-0.028641025
78	0xbcb537f3	-0.022121405
79	0xbd1fee19	-0.039045427
80	0xbd2409d8	-0.04004845
81	0xbc8d0a90	-0.01721695
82	0xbb81e26f	-0.0039637606
83	0x3c14e854	0.0090885945
84	0x3c590d96	0.013247868
85	0x3cc58c3f	0.024114726
86	0x3c4fd922	0.012686046
87	0x3c053831	0.008131073
88	0x3ca27c63	0.019834703
89	0x3c9c8097	0.019104285
90	0x3c53b97e	0.012922643
91	0x3cf629c2	0.030049209
92	0xbbad40da	-0.005287272
93	0x3bc77f7c	0.0060881954
94	0xbd263c53	-0.040584873
95	0xbd50a674	-0.050939992
96	0x3cc368e5	0.023853729
97	0x3c69d144	0.014271084
98	0x3ce9040a	0.028444309
99	0x3c88cc05	0.016698847
100	0x3ccbbfee	0.024871793
101	0x3ce656ae	0.028117504
102	0x3c894066	0.01675434
103	0x3cf59505	0.029978285
104	0x3c508463	0.012726876
105	0x3c659f2f	0.014015003
106	0x3cea53a7	0.028604342
107	0x3bea3272	0.007147127
108	0x3ce3b78d	0.027797485
109	0x3d0012e4	0.031268016
110	0x3c8010cf	0.015633015
111	0xbc13fb48	-0.009032078
112	0xbb6db4e2	-0.0036271145
113	0xbc63af03	-0.0138967065
114	0xbbb9e604	-0.005673172
115	0xbc90582c	-0.017620169
116	0x3c081bc6	0.008307403
117	0x3beb3ebe	0.0071791103
118	0xbc3a6dfd	-0.011378762
119	0x3c4fd1fe	0.012684343
120	0xbc885ce2	-0.016645852
121	0xbcbccb1f	-0.023046074
122	0xbcf66fc1	-0.030082585
123	0xbbf1c0fc	-0.007377742
124	0xbd2f95d7	-0.042867508
125	0xbca8cde0	-0.020605981
126	0xbd85257f	-0.065012924
127	0xbd257fb9	-0.04040501
128	0xbcf914ca	-0.03040542
129	0xbd09c848	-0.03363827
130	0xbced28fc	-0.028950207
131	0xbcf8efa5	-0.030387709
132	0xbc834f42	-0.016029004
133	0xbc80f73a	-0.015742887
134	0x3bd26c71	0.0064216186
135	0xbadf88b1	-0.0017054287
136	0x3c1037b8	0.008802347
137	0x3c1ca7ab	0.0095614595
138	0xbbf4fd29	-0.007476468
139	0x3c84d109	0.016212957
140	0x3c66f278	0.014095895
141	0xbca5aa3a	-0.020222772
142	0xbc800bee	-0.015630689
143	0x3b309271	0.0026942755
144	0xb8a2907b	-7.7516735e-05
145	0xbc8e413c	-0.01736509
146	0xbc65ab4c	-0.014017891
147	0xbbfe4e9c	-0.007760836
148	0xbc07bc24	-0.008284602
149	0xbd0bd332	-0.03413696
150	0xbb684644	-0.0035442272
151	0xbc521e6c	-0.012824636
152	0xbc62d3b3	-0.013844418
153	0xbc693dfd	-0.014235971
154	0xbcb08eae	-0.02155241
155	0x3c1524c7	0.009103007
156	0xbbb74789	-0.0055932445
157	0xba88a5a7	-0.0010425345
158	0xbc95a753	-0.018268263
159	0xbba845b1	-0.005135261
160	0x3d043a7d	0.03228234
161	0x3d1f9f1b	0.038970094
162	0xba1031aa	-0.00055005646
163	0x3ccd4695	0.02505807
164	0x3c83758a	0.016047258
165	0xbbffffa1	-0.0078124558
166	0x3c6a290a	0.014292011
167	0xbbdc090f	-0.006714947
168	0x3b69248e	0.0035574767
169	0xbba9fbe1	-0.005187497
170	0xbc054f2a	-0.00813655
171	0x3c127526	0.008939063
172	0x3a30c6b9	0.0006743479
173	0x3a199603	0.00058588403
174	0xbd1c651f	-0.038182374
175	0xbc548735	-0.012971689
176	0x3c012b82	0.007883908
177	0xbc759c5b	-0.014990891
178	0xbce7ac18	-0.028280303
179	0xbc8a5550	-0.016886383
180	0xbc013b28	-0.007887639
181	0xbcdf998f	-0.027294902
182	0xbc797f1d	-0.01522806
183	0x3aece08b	0.001807229
184	0xbc3a71cb	-0.011379669
185	0xbbc1a277	-0.00590926
186	0x3d01ef66	0.03172245
187	0x3ba1d6ee	0.0049389517
188	0x3c8b6030	0.01701364
189	0x3d0e9d75	0.03481813
190	0x3d20077d	0.03906964
191	0x3d9aaf88	0.07553011
192	0x3ca7a44b	0.020464083
193	0x3c1c94c2	0.009556951
194	0xbc1caa39	-0.009562069
195	0x3b9bbad8	0.004752498
196	0x3a8d1256	0.0010762911
197	0x3a60982e	0.00085675984
198	0xbbe0fef4	-0.0068663303
199	0xbc881265	-0.016610334
200	0xbb889fc2	-0.0041694352
201	0xbbfe88cc	-0.0077677723
202	0x3cc61f09	0.02418472
203	0xbbd2812b	-0.0064240894
204	0xbb2587f2	-0.0025258032
205	0xbab78e6b	-0.0014004236
206	0xbc0c0da2	-0.008548172
207	0xbc8afba9	-0.016965704
208	0x3cdc97ab	0.02692779
209	0x3ca1d4d0	0.019754797
210	0x3cc3dd8c	0.023909353
211	0x3c6051e1	0.013691396
212	0xbab7ce3e	-0.0014023257
213	0x3b91abd0	0.0044455305
214	0xbbe0056f	-0.0068365852
215	0xbbd4c0b1	-0.006492697
216	0xbd0cb059	-0.034347866
217	0xbb954f4d	-0.0045565725
218	0xbcac81ad	-0.021057928
219	0xbc0b98df	-0.008520334
220	0x3bb4c7c4	0.005516978
221	0x3c8f4143	0.017487174
222	0x3c82f59a	0.015986253
223	0x3d605113	0.05476482
224	0xbce98019	-0.028503465
225	0xbc961db6	-0.018324714
226	0xbc546e4b	-0.012965749
227	0x3beb72f9	0.0071853367
228	0x3b8cb35a	0.0042938413
229	0x3c89b3f1	0.016809436
230	0xbaf401fc	-0.0018616314
231	0xbb546fd3	-0.0032415285
232	0xbc0e9645	-0.008702819
233	0xbd1056f5	-0.03523918
234	0xbcaa9e79	-0.020827519
235	0xbcede973	-0.029041981
236	0xbcf4c967	-0.029881192
237	0xbc59e0c6	-0.013298219
238	0xbd13d7b9	-0.0360944
239	0xbd22f2c9	-0.03978232
240	0xbd8255aa	-0.063639954
241	0xbcf11313	-0.02942804
242	0xbd10b5fd	-0.035329808
243	0xbcba5221	-0.02274424
244	0xbca799ee	-0.020459142
245	0xbc414354	-0.011795837
246	0xbc727c66	-0.014800167
247	0x3bbb5f2b	0.005718132
248	0xbbc36514	-0.005962977
249	0xbc90be68	-0.017668918
250	0xbd0495e9	-0.032369528
251	0xbd843423	-0.06455257
252	0xbcda2492	-0.026628766
253	0xbd0c3937	-0.03423425
254	0xb9b1fa90	-0.00033946754
255	0xbc2c841c	-0.010529544

tcn.network.0.conv2.bias f4 [16]
0	0xb1a1e538	-4.711776e-09
1	0xafb6a2ec	-3.322137e-10
2	0xb0e0fd7e	-1.6370192e-09
3	0x3c1e26fd	0.00965285
4	0xb36c9dad	-5.5091437e-08
5	0xb1354bd1	-2.6382063e-09
6	0xb2ab56fb	-1.9946574e-08
7	0x309a79d9	1.1239606e-09
8	0x3c643dee	0.013930781
9	0x394ba4ec	0.00019421027
10	0xb1a1a54e	-4.7045097e-09
11	0xb9c2bb7d	-0.00037142253
12	0x31ae667e	5.0757185e-09
13	0x2c2051ac	2.2782705e-12
14	0xb07cd934	-9.198573e-10
15	0xb1ae2059	-5.067744e-09

tcn.network.0.bn2.weight f4 [16]
0	0x3f800000	1.0
1	0x3f800000	1.0
2	0x3f800000	1.0
3	0x3f800000	1.0
4	0x3f800000	1.0
5	0x3f800000	1.0
6	0x3f800000	1.0
7	0x3f800000	1.0
8	0x3f800000	1.0
9	0x3f800000	1.0
10	0x3f800000	1.0
11	0x3f800000	1.0
12	0x3f800000	1.0
13	0x3f800000	1.0
14	0x3f800000	1.0
15	0x3f800000	1.0

tcn.network.0.bn2.bias f4 [16]
0	0x00000000	0.0
1	0x00000000	0.0
2	0x00000000	0.0
3	0x00000000	0.0
4	0x00000000	0.0
5	0x00000000	0.0
6	0x00000000	0.0
7	0x00000000	0.0
8	0x00000000	0.0
9	0x00000000	0.0
10	0x00000000	0.0
11	0x00000000	0.0
12	0x00000000	0.0
13	0x00000000	0.0
14	0x00000000	0.0
15	0x00000000	0.0

tcn.network.0.bn2.running_mean f4 [16]
0	0x00000000	0.0
1	0x00000000	0.0
2	0x00000000	0.0
3	0x00000000	0.0
4	0x00000000	0.0
5	0x00000000	0.0
6	0x00000000	0.0
7	0x00000000	0.0
8	0x00000000	0.0
9	0x00000000	0.0
10	0x00000000	0.0
11	0x00000000	0.0
12	0x00000000	0.0
13	0x00000000	0.0
14	0x00000000	0.0
15	0x00000000	0.0

tcn.network.0.bn2.running_var f4 [16]
0	0x3f800000	1.0
1	0x3f800000	1.0
2	0x3f800000	1.0
3	0x3f800000	1.0
4	0x3f800000	1.0
5	0x3f800000	1.0
6	0x3f800000	1.0
7	0x3f800000	1.0
8	0x3f800000	1.0
9	0x3f800000	1.0
10	0x3f800000	1.0
11	0x3f800000	1.0
12	0x3f800000	1.0
13	0x3f800000	1.0
14	0x3f800000	1.0
15	0x3f800000	1.0
