model/Benchmark/DTCNet_b3_1s_S33.pth (torch, 181815 bytes, 74 tensors)

global_block.conv_time.conv.0.weight f4 [8, 1, 1, 125]
0.043258768 0.06507811 0.025426973 0.009663185 -0.06758266 0.0435507 -0.032158498 0.024097953
0.03240474 -0.027123258 0.03512626 -0.016043032 0.005419696 0.010967342 -0.056211453 0.05424115
0.030237034 0.07562563 -0.03190635 0.0426609 0.050519176 0.014887495 -0.009696264 0.016238466
0.032813225 0.010834972 0.018332249 0.037162572 0.07571299 -0.018981883 0.055773817 -0.0022277094
0.07941997 -0.002764099 -0.015413377 -0.015111279 0.039365154 -0.013392731 0.042872965 -0.08796829
0.010757751 -0.048103873 0.035125308 0.056334067 -0.025426004 0.001978785 -0.02513306 -0.053927407
0.056074858 0.05020308 0.07464056 0.07067798 0.0018063296 0.021556802 0.030586468 -0.08287407
-0.08919205 0.0019415185 0.019196402 -0.028810732 -0.043243077 -0.012989708 -0.033642776 -0.0727374
0.01429361 0.002345025 0.047269017 -0.0077962703 -0.0004857908 -0.02286282 -0.05617563 -0.01637364
-0.0349073 0.10167821 0.050040774 -0.021886714 0.016347406 0.14050806 0.17810357 -0.03977989
-0.109916165 -0.043207917 -0.088684864 -0.025852626 -0.08250897 0.03978315 -0.0028995671 -0.10246797
-0.058746584 -0.0044887634 -0.03714469 -0.00842909 -0.09652422 -0.082913116 0.017558662 -0.024710383
0.0765098 0.1680363 0.14454779 0.010387208 -0.024918005 -0.0012145307 -0.05304966 -0.09318473
0.021977276 0.09518546 0.032158412 -0.08439477 -0.102332465 -0.07042076 0.004746119 -0.036715273
-0.021843364 -0.044106122 0.0029914465 0.0012816469 -0.069842435 -0.09229694 -0.01573972 -0.0022092834
-0.043143623 0.034135398 0.09311108 -0.048920132 -0.05067816 0.03183824 -0.036336735 -0.017028064
0.12193943 -0.001005223 0.014719361 -0.031155264 0.044231344 0.010571091 0.0003629316 0.0074065523
0.016757274 0.031457443 0.07751617 0.094009675 -0.050229926 0.081635416 0.015144605 0.024776636
0.073104896 -0.06272528 -0.05662725 0.01755957 0.010956486 0.004907001 0.022611072 0.06387046
-0.007966267 0.015931612 -0.060669668 0.038237084 0.028559998 -0.007112963 0.01838008 -0.021076428
-0.012013716 -0.00019375207 0.034576 -0.018493526 -0.094920725 -0.06693986 -0.008525059 -0.012670524
0.042535633 0.010576416 -0.027176991 -0.054298375 0.054418158 -0.0035382558 -0.029890424 0.04700429
-0.056394 -0.050728887 -0.04260068 -0.035644196 -0.14848635 0.021242647 0.008229666 0.03745548
-0.043320198 0.04428569 0.058486413 -0.029301753 0.05830939 -0.03194838 0.026732458 -0.085874915
-0.038578052 -0.006242992 0.081262924 0.08279524 0.011552953 -0.028220505 -0.03706754 0.05638641
-0.03042369 0.03953814 -0.025598524 0.15893182 0.2504339 0.17032927 0.017213473 -0.07408874
-0.11408437 -0.03169786 0.0064829364 -0.010900807 0.04356348 0.02791024 -0.13655946 -0.114196636
-0.07017328 -0.013127489 -0.028874982 0.034649808 0.01469069 -0.023879897 0.0014654191 0.005681584
-0.115068465 0.028655468 0.0063606887 0.07281986 -0.08068303 -0.06957947 0.048998863 -0.0634047
-0.04849761 0.06269233 0.021152435 -0.117354065 0.06922368 0.046318475 0.11217408 -0.022721509
-0.0701708 -0.058649946 0.004939046 -0.019258907 0.03948751 -0.04954623 -0.053178288 -0.013721194
0.004237052 -0.09707168 0.0014062157 -0.09761615 -0.0078112823 0.02117801 -0.042299885 0.012224597
00000000: 1b30 313d ac47 853d 3a4c d03c 5652 1e3c
00000010: c768 8abd 3862 323d a1b8 03bd 1269 c53c
00000020: d5ba 043d 9831 debc 8ee0 0f3d ad6c 83bc
00000030: b597 b13b 5eb0 333c fb3d 66bd f82b 5e3d
00000040: a8b3 f73c 9ce1 9a3d 3cb0 02bd 32bd 2e3d
00000050: 32ed 4e3d aeea 733c 14dd 1ebc 8806 853c
00000060: 2967 063d 2b85 313c 832d 963c c837 183d
00000070: 690f 9b3d e57f 9bbc 1673 643d c3fe 11bb
00000080: f0a6 a23d e325 35bb 6488 7cbc 4c95 77bc
00000090: 5b3d 213d 2f6d 5bbc 909b 2f3d b828 b4bd
000000a0: 4741 303c 9108 45bd 8edf 0f3d 8dbe 663d
000000b0: 324a d0bc 81ae 013b d9e3 cdbc fce2 5cbd
000000c0: c0ae 653d bfa1 4d3d 26dd 983d 9ebf 903d
000000d0: 5dc2 ec3a e497 b03c 7990 fa3c e1b9 a9bd
000000e0: 52aa b6bd 8d7a fe3a c641 9d3c 7c04 ecbc
000000f0: a71f 31bd c9d2 54bc 02cd 09bd 59f7 94bd
00000100: bf2f 6a3c feae 193b 289d 413d db77 ffbb
00000110: bdb1 feb9 cf4a bbbc 6b18 66bd 0322 86bc
00000120: f5fa 0ebd aa3c d03d 8ef7 4c3d c44b b3bc
00000130: ffea 853c 58e1 0f3e c860 363e 3df0 22bd
00000140: ba1b e1bd c9fa 30bd 69a0 b5bd e3c8 d3bc
00000150: 76fa a8bd a8f3 223d aa06 3ebb bada d1bd
00000160: 42a0 70bd 7a16 93bb 0825 18bd 2a1a 0abc
00000170: 7eae c5bd 5ace a9bd 2fd7 8f3c 6e6d cabc
00000180: 2cb1 9c3d b511 2c3e 5604 143e 1c2f 2a3c
00000190: d820 ccbc e330 9fba 9a4a 59bd a3d7 bebd
000001a0: b009 b43c 98f0 c23d 8ab8 033d 2ad7 acbd
000001b0: af93 d1bd c238 90bd 5585 9b3b c162 16bd
000001c0: dbf0 b2bc 9fa8 34bd 250c 443b effc a73a
000001d0: 8d09 8fbd 2e06 bdbd 96f0 80bc a0c9 10bb
000001e0: 5eb7 30bd 8fd1 0b3d 06b1 be3d 7a60 48bd
000001f0: e793 4fbd d068 023d d4d5 14bd 707e 8bbc
00000200: 61bb f93d b0c1 83ba 7a29 713c 5339 ffbc
00000210: ed2b 353d 5f32 2d3c db47 be39 aab2 f23b
00000220: 8d46 893c 85d9 003d ccc0 9e3d 2588 c03d
00000230: e5bd 4dbd 7830 a73d 1421 783c 5ff8 ca3c
00000240: 05b8 953d 1d76 80bd faf1 67bd 16d9 8f3c
00000250: d582 333c e8ca a03b db3a b93c 84ce 823d
00000260: f284 02bc 0383 823c c280 78bd 7d9e 1c3d
00000270: a8f6 e93c dc13 e9bb d291 963c 79a8 acbc
00000280: 2dd5 44bc ed29 4bb9 909f 0d3d bc7f 97bc
00000290: cc65 c2bd c417 89bd b0ac 0bbc 0898 4fbc
000002a0: d839 2e3d b448 2d3c 48a2 debc f967 5ebd
000002b0: 93e5 5e3d 15e2 67bb c3dc f4bc 9287 403d
000002c0: 65fd 66bd 18c9 4fbd 0d7e 2ebd a6ff 11bd
000002d0: ce0c 18be 0f05 ae3c b9d5 063c eb6a 193d
000002e0: 8570 31bd e964 353d 738f 6f3d 3b0a f0bc
000002f0: d4d5 6e3d 4edc 02bd 07fe da3c 30df afbd
00000300: 0504 1ebd 0392 ccbb 2d6d a63d 8d90 a93d
00000310: 9948 3d3c b02e e7bc 22d4 17bd 70f5 663d
00000320: 1a3b f9bc bff2 213d ffb3 d1bc 06bf 223e
00000330: df38 803e cc6a 2e3e 4503 8d3c d6bb 97bd
00000340: 11a5 e9bd 9ed5 01bd d06e d43b 4c99 32bc
00000350: 9f6f 323d 04a4 e43c 3ed6 0bbe eddf e9bd
00000360: 02b7 8fbd ae14 57bc 3a8b ecbc f5ec 0d3d
00000370: 38b1 703c c69f c3bc 4e13 c03a 952c ba3b
00000380: 04a9 ebbd dfbe ea3c 536d d03b 9422 953d
00000390: 253d a5bd ae7f 8ebd 08b3 483d 53da 81bd
000003a0: 6ea5 46bd d664 803d df47 ad3c 5457 f0bd
000003b0: 25c5 8d3d 71b8 3d3d 86bb e53d 7522 babc
000003c0: b5b5 8fbd ed3a 70bd b9d7 a13b dbc4 9dbc
000003d0: a8bd 213d fdf0 4abd 7ad1 59bd dcce 60bc
000003e0: f8d6 8a3b 84cd c6bd c550 b83a faea c7bd
000003f0: c9f5 ffbb 827d ad3c a542 2dbd ad49 483c

global_block.conv_time.conv.0.bias f4 [8]
-0.00015532188 0.011426982 0.0007127667 0.013629158 -0.01023531 -0.068964034 0.0041850456 0.0006200643
00000000: e6dd 22b9 3c38 3b3c f7d8 3a3a d54c 5f3c
00000010: 00b2 27bc 043d 8dbd b522 893b d08b 223a

global_block.conv_time.conv.1.weight f4 [8]
0.9802883 1.0041761 0.9128434 0.8868291 1.064263 0.872805 0.9700322 0.95234346
00000000: 2df4 7a3f d888 803f 1bb0 693f 3b07 633f
00000010: c539 883f 2670 5f3f 0854 783f c8cc 733f

global_block.conv_time.conv.1.bias f4 [8]
-0.014545612 -0.038157772 0.15281779 0.011380645 -0.046661887 0.1019784 -0.060500033 0.021241141
00000000: b850 6ebc 534b 1cbd 447c 1c3e e375 3a3c
00000010: 8920 3fbd 0dda d03d e2ce 77bd e701 ae3c

global_block.conv_time.conv.1.running_mean f4 [8]
0.021434521 0.042671762 0.025633773 0.00033204572 -0.031689066 -0.07181788 -0.014638743 0.005493984
00000000: 7397 af3c 96c8 2e3d ebfd d13c 6c16 ae39
00000010: 65cc 01bd 4115 93bd 57d7 6fbc e106 b43b

global_block.conv_time.conv.1.running_var f4 [8]
6.861825 7.1594777 6.374645 6.340728 6.7583375 7.4594445 6.626195 6.936704
00000000: 1294 db40 711a e540 18fd cb40 3ee7 ca40
00000010: 4d44 d840 c5b3 ee40 ca09 d440 7bf9 dd40

global_block.conv_chan.conv.0.weight f4 [8, 8, 11, 1]
-0.11336627 -0.029519167 -0.011353345 -0.07940056 0.102996424 0.08739355 0.04238678 -0.108078636
0.02762144 -0.036331598 0.10111104 0.076436535 -0.06648254 -0.052313738 0.097689636 0.018633472
0.025563844 -0.016804716 -0.13686705 0.088453695 -0.052213497 0.04355514 -0.060206477 0.014337606
0.052538604 -0.06771959 0.0027988805 -0.061254274 0.06556433 -0.04005084 -0.054136567 -0.030666519
-0.01606325 0.055678856 -0.052608635 -0.05656038 -0.020080307 -0.027964307 0.007867753 -0.042170458
-0.12000831 0.004405125 0.066523455 0.07880807 -0.099870935 0.06770535 -0.012444911 -0.07976519
-0.09917999 -0.04313772 0.12915795 0.09696246 0.05747647 -0.010061602 -0.14290185 -0.009126805
0.037247326 0.063051626 -0.028372578 -0.17453393 0.042729117 0.10644345 0.16560808 -0.012139371
0.081513986 -0.07840898 0.066433646 -0.04573758 0.009913974 0.009151088 0.016667794 -0.054772772
0.032590184 -0.0018591575 0.03927343 0.036399994 -0.039413564 -0.058739144 -0.040299866 -0.040307667
-0.02183683 -0.045230895 0.13151598 0.082609385 -0.13105527 -0.003228412 -0.028659625 0.00963105
0.0025538588 -0.07375732 -0.018471912 0.030816572 -0.009334543 -0.062482927 -0.01915917 0.026983397
0.0540867 0.07785462 -0.022237696 -0.0047160317 -0.11433977 0.0067105056 0.0152918715 0.05364525
-0.034731094 -0.12815447 0.046936493 0.059677828 0.07278027 0.08666341 0.11090101 -0.19903152
-0.043955795 -0.090843186 0.05537307 0.08047926 -0.083729945 -0.079094656 -0.063586645 0.07855346
0.09344598 -0.044420127 -0.08368937 -0.06455131 0.062173422 -0.016300652 -0.05048183 0.06480278
0.083990976 0.10964915 -0.05955389 -0.13139483 0.05068296 0.13860814 -0.003279581 -0.07616193
0.010351557 -0.09452676 0.039575245 0.098569356 0.06279832 -0.115206845 -0.04934487 -0.092161596
0.113650724 0.027027244 -0.04570837 -0.13677013 -0.020063773 0.0571846 -0.032535985 -0.073079914
-0.05791033 0.05668519 -0.0587648 -0.16762464 0.010287179 0.09233331 0.053482063 -0.0030601856
-0.009455391 0.03171557 0.043771345 -0.023194026 0.095714025 -0.052915957 0.044945084 0.04435014
-0.04385062 -0.1250925 0.028722284 0.009481428 0.11558439 -0.06130794 -0.05309043 -0.034470487
-0.017711233 -0.04734973 -0.1112128 0.01955107 0.069187365 0.009725726 -0.075119376 0.04887711
-0.011647796 0.059745476 0.00021983858 -0.07084729 -0.22917327 -0.014566509 0.03506834 0.10289184
-0.034418315 0.03504444 0.07543967 0.057205636 0.03242369 0.07846035 0.024539249 0.13577104
-0.1281264 -0.054773092 -0.0572095 -0.078343116 0.057955217 0.1439764 0.061654802 -0.05440443
-0.017093653 0.018920776 0.014804665 0.014122232 -0.11030082 -0.022998774 -0.088860944 -0.032946944
0.14171748 -0.0059899637 -0.004741049 -0.08686745 -0.04559384 -0.1563535 0.047732778 0.07963858
0.03538322 0.089689665 -0.098397166 0.048172154 0.023867218 -0.06786297 0.011790753 -0.004198651
0.01659288 0.041350674 0.12095022 -0.040734887 0.0048022727 -0.12407461 -0.07967836 -0.11664018
0.050564867 0.06799696 -0.10097691 0.14859547 -0.068294734 -0.124632984 -0.06957413 0.001301626
0.0860222 -0.0151519645 0.07701467 0.045890987 -0.07401936 -0.039769527 -0.044164505 0.012646772
00000000: 932c e8bd 2ed2 f1bc 6103 3abc c39c a2bd
00000010: caef d23d 64fb b23d c39d 2d3d 5558 ddbd
00000020: 5c46 e23c 71d0 14bd 4e13 cf3d c28a 9c3d
00000030: ff27 88bd ee46 56bd 8111 c83d 39a5 983c
00000040: 446b d13c 0baa 89bc e026 0cbe 3627 b53d
00000050: d2dd 55bd e066 323d 119b 76bd 47e8 6a3c
00000060: b832 573d 92b0 8abd 6c6d 373b c3e5 7abd
00000070: 9746 863d 590c 24bd 4ebe 5dbd 5a38 fbbc
00000080: 1497 83bc 830f 643d 277c 57bd dbab 67bd
00000090: 757f a4bc 6715 e5bc bfe7 003c eeba 2cbd
000000a0: ebc6 f5bd de58 903b 733d 883d 2066 a13d
000000b0: 2289 ccbd 1aa9 8a3d bde5 4bbc ef5b a3bd
000000c0: e11e cbbd 2eb1 30bd fb41 043e 4194 c63d
000000d0: 726c 6b3d 6bd9 24bc dd54 12be 9888 15bc
000000e0: a790 183d 3621 813d 9c6d e8bc 06b9 32be
000000f0: ba04 2f3d 06ff d93d 2a95 293e 36e4 46bc
00000100: cef0 a63d e394 a0bd 5d0e 883d 5457 3bbd
00000110: 396e 223c 72ee 153c e68a 883c 6a59 60bd
00000120: 497d 053d f9ae f3ba 2ddd 203d 2918 153d
00000130: 1e70 21bd 7598 70bd 7911 25bd a719 25bd
00000140: 27e3 b2bc 0844 39bd 20ac 063e 1c2f a93d
00000150: 5a33 06be c493 53bb 97c7 eabc 8dcb 1d3c
00000160: a45e 273b 140e 97bd 6852 97bc 0973 fc3c
00000170: e9ef 18bc 19ee 7fbd b1f3 9cbc 490c dd3c
00000180: 048a 5d3d 3e72 9f3d d42b b6bc f188 9abb
00000190: f82a eabd cde3 db3b c28a 7a3c 1fbb 5b3d
000001a0: 3142 0ebd ed3a 03be 7b40 403d bd70 743d
000001b0: d20d 953d 967c b13d 1220 e33d ebce 4bbe
000001c0: fe0a 34bd fe0b babd dfce 623d 4fd2 a43d
000001d0: 9b7a abbd 61fc a1bd b739 82bd a3e0 a03d
000001e0: 9b60 bf3d e1f1 35bd 5565 abbd 7a33 84bd
000001f0: 8fa9 7e3d f288 85bc 09c6 4ebd 52b7 843d
00000200: 7603 ac3d bc8f e03d c8ee 73bd 5e8c 06be
00000210: ef98 4f3d 4bef 0d3e 3dee 56bb c9fa 9bbd
00000220: 9499 293c 3f97 c1bd a719 223d bbde c93d
00000230: 689c 803d 91f1 ebbd d91d 4abd 38bf bcbd
00000240: b6c1 e83d 3d68 dd3c b338 3bbd 780d 0cbe
00000250: c85c a4bc 663a 6a3d 7444 05bd ecaa 95bd
00000260: 6233 6dbd bb2e 683d 5cb3 70bd cba5 2bbe
00000270: 8e8b 283c 3f19 bd3d 0210 5b3d 658d 48bb
00000280: c9ea 1abc 2fe8 013d 9549 333d 6601 bebc
00000290: b705 c43d 67be 58bd 5618 383d 7ea8 353d
000002a0: b59c 33bd 4018 00be ff4a eb3c fe57 1b3c
000002b0: 82b7 ec3d 091e 7bbd 5a75 59bd ed30 0dbd
000002c0: 2617 91bc caf1 41bd 89c3 e3bd 9129 a03c
000002d0: 1bb2 8d3d a758 1f3c 30d8 99bd 5d33 483d
000002e0: 66d6 3ebc acb7 743d 7884 6639 6218 91bd
000002f0: 66ac 6abe 5ea8 6ebc d2a3 0f3d f5b8 d23d
00000300: 38fa 0cbd c28a 0f3d 1d80 9a3d 7550 6a3d
00000310: b4ce 043d d2af a03d 8906 c93c 9007 0b3e
00000320: 9133 03be c059 60bd 8254 6abd 5b72 a0bd
00000330: 7362 6d3d 8d6e 133e bf89 7c3d 2ed7 5ebd
00000340: fd07 8cbc beff 9a3c 448f 723c ef60 673c
00000350: 65e5 e1bd ed67 bcbc bafc b5bd 60f3 06bd
00000360: 631e 113e 7547 c4bb cd5a 9bbb 90e7 b1bd
00000370: 9bc0 3abd 221b 20be 7283 433d 8d19 a33d
00000380: ffed 103d 37af b73d 7484 c9bd 2a50 453d
00000390: 2f85 c33c befb 8abd 012e 413c d694 89bb
000003a0: cbed 873c 535f 293d c0b4 f73d a0d9 26bd
000003b0: 625c 9d3b d41a febd 682e a3bd 0ce1 eebd
000003c0: 1b1d 4f3d fd41 8b3d fbcc cebd 6929 183e
000003d0: 1cde 8bbd 943f ffbd e27c 8ebd 529b aa3a
000003e0: 682c b03d f23f 78bc deb9 9d3d 30f8 3b3d
000003f0: 7697 97bd 5fe5 22bd d7e5 34bd 6834 4f3c

global_block.conv_chan.conv.0.bias f4 [8]
0.02897576 0.0032922025 4.6914744e-07 -0.024717905 0.04829808 -0.01837896 -4.1101612e-07 0.022297256
00000000: 935e ed3c fec1 573b 22df fb34 347d cabc
00000010: 35d4 453d 798f 96bc a0a9 dcb4 bca8 b63c

global_block.conv_chan.conv.1.weight f4 [8]
0.9768042 1.0194598 1.0731457 0.9141066 0.95709306 0.8872464 1.0055921 0.9344416
00000000: d70f 7a3f a97d 823f d75c 893f e402 6a3f
00000010: 0d04 753f 9422 633f 3eb7 803f 9137 6f3f

global_block.conv_chan.conv.1.bias f4 [8]
-0.24826263 -0.16507645 -0.21381277 -0.11178168 -0.16146848 -0.20084606 -0.21149835 -0.20331974
00000000: 8f38 7ebe cd09 29be bcf1 5abe cbed e4bd
00000010: fe57 25be 97aa 4dbe 0693 58be 0d33 50be

global_block.conv_chan.conv.1.running_mean f4 [8]
-0.022848815 -0.13049687 -0.10581306 -0.028080001 0.0984961 -0.09270132 0.007166764 0.018940765
00000000: 702d bbbc f9a0 05be 85b4 d8bd 0808 e6bc
00000010: 53b8 c93d 31da bdbd 2cd7 ea3b aa29 9b3c

global_block.conv_chan.conv.1.running_var f4 [8]
0.07413421 0.1250371 0.08858317 0.07390886 0.06378601 0.16320641 0.07386595 0.067621574
00000000: add3 973d ba09 003e 186b b53d 875d 973d
00000010: 3da2 823d 951f 273e 0847 973d 2e7d 8a3d

local_block.conv_time.conv.0.weight f4 [8, 1, 1, 51]
-0.08895541 0.0010856783 0.010937388 0.0014936834 -0.01301216 -0.1052463 0.06050323 -0.0018837906
0.116909616 0.009278159 -0.068550766 -0.00295681 0.113241285 -0.07880918 0.022456078 -0.056126527
-0.06985474 0.12309491 0.1420525 0.03419748 -0.17204987 -0.051141065 -0.026010975 -0.029490855
0.015135693 0.120200835 0.029251253 -0.015123599 0.066762105 0.13727707 0.04223476 0.091053955
0.058452792 -0.08762186 0.11415158 0.14187819 0.003414473 -0.25068974 -0.08572729 0.0656573
0.071298085 -0.123903036 0.12535258 0.14499904 0.045487273 -0.062223013 0.0033618847 -0.050198037
-0.023278516 0.085417755 -0.021878231 0.01745033 -0.06848709 -0.042736884 -0.080352396 -0.011805119
-0.06587104 -0.056640286 0.034349862 -0.11087952 0.035318423 -0.06959708 0.16393265 0.14052121
-0.0033998503 -0.009869327 -0.017402824 -0.027057935 -0.11341344 -0.038883366 -0.029327573 -0.10434825
0.052571803 -0.05867933 -0.030354872 0.06683614 -0.037327155 0.0062444503 0.08752973 0.16006033
0.09052446 -0.06099349 0.010439918 -0.06294675 0.022603804 0.08272086 -0.06045317 0.0394216
0.058017835 0.13177516 0.098266274 0.006977563 -0.014015238 -0.085799925 -0.022089817 0.047822308
0.17679569 0.020620558 0.049302526 -0.03573466 0.08964213 -0.07843215 -0.0617334 -0.15046562
0.04724421 -0.07673762 -0.05273631 0.05666059 0.037596326 0.037170555 0.13894276 0.0035674097
0.14744271 0.041802406 -0.03795679 -0.018665764 -0.03168655 -0.03670646 -0.054898866 -0.028037911
-0.1151121 0.10785955 0.1287574 0.058596313 0.09263507 -0.060038514 0.0005756415 -0.081268884
0.018945573 -0.08761815 -0.09324485 0.030574614 -0.022929944 -0.07713596 0.0028194017 -0.053869303
0.051731642 -0.060888104 0.045954913 0.2101278 0.09431485 0.16465904 0.13167426 -0.102624655
-0.2019791 -0.03056625 -0.11381127 -0.1246054 -0.14277732 0.09862626 0.12050381 -0.08190745
-0.03745475 0.044191793 0.007824114 -0.022561975 0.011306275 0.053217083 -0.018519983 0.010576357
0.0058119628 0.12702335 -0.045926657 -0.0031684833 0.068725966 -0.1215906 -0.05647393 0.07165859
-0.07710841 0.018213296 -0.00238853 0.04283306 0.1285996 0.0042047426 -0.07230234 0.04644313
-0.099285625 -0.05441618 0.03283909 -0.04258626 -0.053354774 -0.051914997 0.09195316 -0.06733663
0.1118673 -0.04957865 0.10176647 0.15948755 0.03250684 -0.06903057 0.06359612 0.04111009
-0.101817146 -0.18094262 0.073991485 -0.03710924 -0.019172307 -0.20314589 -0.11543732 0.05952904
-0.097948216 0.077031374 0.01341427 0.17668402 -0.043269463 0.10135483 -0.09980579 -0.04247551
-0.034754567 -0.12128596 0.019948421 -0.046192512 0.04243353 0.020270163 -0.08838991 -0.0850568
-0.12824623 -0.0016215068 0.003056883 -0.07333067 0.060638867 -0.11530047 0.03918644 0.07511522
-0.11964682 -0.07024914 -0.011629448 0.0034919402 0.052331235 0.062294323 0.09367268 -0.032697503
-0.101839915 -0.042973347 0.007439934 -0.01805598 -0.032201793 0.091453336 0.002789038 -0.04677283
0.079342544 -0.110365756 -0.14171904 -0.0020705997 -0.16322152 -0.102019414 0.16860299 0.16092303
-0.121874735 -0.11785896 -0.184289 -0.045579836 -0.02959303 0.029343361 0.013078188 0.024697876
00000000: 412e b6bd 524d 8e3a bb32 333c b3c7 c33a
00000010: f430 55bc 5f8b d7bd 3cd2 773d 86e9 f6ba
00000020: 4f6e ef3d 6b03 183c 5864 8cbd 0ac7 41bb
00000030: 0ceb e73d b566 a1bd cff5 b73c eee4 65bd
00000040: 0010 8fbd 2f19 fc3d 3676 113e a812 0c3d
00000050: d72d 30be 4b79 51bd f814 d5bc ce96 f1bc
00000060: b3fb 773c db2b f63d 53a0 ef3c f9c8 77bc
00000070: 92ba 883d 5c92 0c3e 5bfe 2c3d 7f7a ba3d
00000080: 326c 6f3d 1773 b3bd 4ec8 e93d 8448 113e
00000090: 5ac5 5f3b 685a 80be ca91 afbd 5677 863d
000000a0: bb04 923d e0c0 fdbd 6d5c 003e a17a 143e
000000b0: dd50 3a3d 8fdd 7ebd 1153 5c3b 759c 4dbd
000000c0: 96b2 bebc 81ef ae3d fa39 b3bc fff3 8e3c
000000d0: f642 8cbd df0c 2fbd cc8f a4bd 426a 41bc
000000e0: 65e7 86bd a5ff 67bd 71b2 0c3d cd14 e3bd
000000f0: 0daa 103d ea88 8ebd f6dd 273e cbe4 0f3e
00000100: 06d0 5ebb f5b2 21bc 5e90 8ebc 9aa8 ddbc
00000110: 4e45 e8bd 2a44 1fbd 6140 f0bc 89b4 d5bd
00000120: 8855 573d bd59 70bd c8aa f8bc 63e1 883d
00000130: 5ce4 18bd 3f9e cc3b c942 b33d dbe6 233e
00000140: e364 b93d 4fd4 79bd 310c 2b3c 3aea 80bd
00000150: 9d2b b93c 8e69 a93d be9d 77bd 8b78 213d
00000160: 1ca4 6d3d 11f0 063e d43f c93d 0aa4 e43b
00000170: 2ba0 65bc dfb7 afbd b4f5 b4bc 53e1 433d
00000180: ee09 353e 72ec a83c 72f1 493d 825e 12bd
00000190: 4b96 b73d 09a1 a0bd 29dc 7cbd a913 1abe
000001a0: 2583 413d 9d28 9dbd 0702 58bd ef14 683d
000001b0: 9bfe 193d 2740 183d 0347 0e3e 34cb 693b
000001c0: 39fb 163e 0039 2b3d 9478 1bbd f2e8 98bc
000001d0: c1c9 01bd 8359 16bd a2dd 60bd c3af e5bc
000001e0: e5bf ebbd 78e5 dc3d fbd8 033e b002 703d
000001f0: 75b7 bd3d f2ea 75bd a6e6 163a 4d70 a6bd
00000200: bf33 9b3c 2571 b3bd 28f7 bebd 9d77 fa3c
00000210: 94d7 bbbc 75f9 9dbd b6c5 383b 0fa6 5cbd
00000220: 8fe4 533d ce65 79bd 383b 3c3d be2b 573e
00000230: 2528 c13d 619c 283e 9ed5 063e e02c d2bd
00000240: 9cd3 4ebe 1366 fabc e215 e9bd 1e31 ffbd
00000250: 3834 12be 91fc c93d b4ca f63d 18bf a7bd
00000260: 276a 19bd 7402 353d b630 003c e4d3 b8bc
00000270: f43d 393c 28fa 593d 38b7 97bc 7548 2d3c
00000280: 4772 be3b 6912 023e 971d 3cbd 54a6 4fbb
00000290: 33c0 8c3d 7e04 f9bd 3551 67bd bdc1 923d
000002a0: 04eb 9dbd 0d34 953c e288 1cbb b871 2f3d
000002b0: 9daf 033e f0c7 893b 4013 94bd 273b 3e3d
000002c0: 4356 cbbd 80e3 5ebd 4882 063d ee6e 2ebd
000002d0: 898a 5abd d2a4 54bd f051 bc3d c9e7 89bd
000002e0: af1a e53d fc12 4bbd f06a d03d b450 233e
000002f0: e425 053d e65f 8dbd af3e 823d 0e63 283d
00000300: 8285 d0bd 0649 39be d988 973d dcff 17bd
00000310: 3e0f 9dbc 7a05 50be 676a ecbd b9d4 733d
00000320: 1399 c8bd a0c2 9d3d 87c7 5b3c a8ec 343e
00000330: 523b 31bd 1f93 cf3d fa66 ccbd cdfa 2dbd
00000340: ce5a 0ebd c664 f8bd df6a a33c 5c34 3dbd
00000350: c8ce 2d3d 9d0d a63c c505 b5bd 4232 aebd
00000360: fb52 03be bd88 d4ba fd55 483b 642e 96bd
00000370: 7660 783d a722 ecbd f681 203d 02d6 993d
00000380: 6409 f5bd c8de 8fbd 7189 3ebc 09d9 643b
00000390: 4759 563d 5528 7f3d 76d7 bf3d d1ed 05bd
000003a0: 7291 d0bd d204 30bd b1ca f33b 22ea 93bc
000003b0: 07e6 03bd e34b bb3d 4bc8 363b de94 3fbd
000003c0: 587e a23d 7107 e2bd cc1e 11be e6b2 07bb
000003d0: 8b23 27be 8eef d0bd 43a6 2c3e 02c9 243e
000003e0: 7699 f9bd 0a60 f1bd 41b6 3cbe ecb1 3abd
000003f0: 156d f2bc 7d61 f03c e545 563c 3353 ca3c

local_block.conv_time.conv.0.bias f4 [8]
0.026149761 -0.09668578 0.005217042 0.020280097 0.045036733 0.024666412 0.06688168 0.05946359
00000000: 0638 d63c 3203 c6bd b8f3 aa3b 7222 a63c
00000010: 7078 383d 3711 ca3c 43f9 883d 1890 733d

local_block.conv_time.conv.1.weight f4 [8]
1.0038619 0.9507337 0.85804373 0.9028625 0.851874 1.0820348 0.90563667 1.0315154
00000000: 8c7e 803f 4963 733f c1a8 5b3f ff21 673f
00000010: 6a14 5a3f 1e80 8a3f ced7 673f b208 843f

local_block.conv_time.conv.1.bias f4 [8]
0.04995164 0.06915619 0.049568236 0.10713715 -0.060465235 -0.0017938334 0.12815431 -0.18524499
00000000: 179a 4c3d c3a1 8d3d 1008 4b3d b96a db3d
00000010: 65aa 77bd 101f ebba e23a 033e ddb0 3dbe

local_block.conv_time.conv.1.running_mean f4 [8]
0.03565178 -0.09778039 0.015451802 0.014890979 0.025340213 0.03048991 0.10200929 0.035866965
00000000: 9a07 123d 1641 c8bd 8e29 7d3c 4bf9 733c
00000010: 4796 cf3c fac5 f93c 3fea d03d 3de9 123d

local_block.conv_time.conv.1.running_var f4 [8]
4.987618 4.1427627 7.059199 4.4333744 4.7424536 3.748365 3.7038321 3.5785797
00000000: 919a 9f40 8391 8440 f5e4 e140 34de 8d40
00000010: 2ec2 9740 36e5 6f40 960b 6d40 7307 6540

local_block.conv_chan.conv.0.weight f4 [8, 8, 11, 1]
-0.024314594 0.04728784 -0.01200947 -0.030979238 0.0064039356 0.023299107 -0.0066713714 -0.045643218
-0.04857998 0.05136435 -0.07174144 -0.013994694 0.028060855 0.051145658 -0.03741072 0.10004663
0.03338576 -0.057566058 -0.2016729 0.0061426843 0.03702893 0.057454836 0.028328998 0.10888253
0.020586383 0.10087524 -0.007852888 -0.06780855 -0.057600714 0.0030847446 -0.09545732 0.040609647
-0.11742271 -0.0019813837 -0.009337003 -0.035992533 -0.002018039 0.0069707027 0.08771937 0.018060707
0.06050004 -0.09486971 0.0028313934 0.104016155 0.03552635 -0.02935619 -0.09148871 -0.03147693
0.021650499 -0.03636843 0.0972699 0.12932107 -0.033343676 0.016338857 -0.04138239 -0.005891841
0.1753632 0.039735705 0.10178779 0.035450794 -0.005542401 0.1305768 -0.11572135 -0.13808389
-0.0028531966 0.03410679 -0.019610748 0.066997126 -0.03671702 0.13634935 -0.047984168 -0.0887498
-0.042056 0.112008736 0.022323685 -0.06947814 -0.02091173 -0.032249127 0.052442852 0.05882259
0.0029274467 0.008939687 -0.08180889 0.08924083 0.06820293 0.10800032 -0.05482266 -0.09363472
0.006831584 0.0018145731 0.054851107 -0.04872321 0.08516061 -0.011791576 -0.013997275 -0.060508333
-0.05451808 0.025815722 -0.034243703 -0.043397907 0.090416074 0.062988944 0.00038114915 -0.033506397
-0.05375987 0.06522158 0.043672424 -0.07945956 0.076167315 -0.08157544 -0.13005148 0.040809497
-0.07376379 0.014984844 0.051063277 -0.09069177 0.0689677 0.27279463 0.048677467 -0.019163812
-0.0125714475 0.07927305 -0.086796425 -0.05604144 -0.0466014 -0.00078461546 0.054978203 0.009361741
0.017669186 -0.013350265 -0.058749426 0.13908485 0.01993774 0.016535128 0.052033324 -0.063579924
-0.02351361 0.090056576 -0.045826804 -0.19116884 0.05913986 -0.022553168 0.018612007 0.04622118
-0.11996795 -0.035834312 0.08514663 -0.07547214 -0.007789533 0.057208598 -0.0046611466 0.008530619
0.11124925 -0.042865045 -0.04314298 -0.05590119 -0.08127444 0.017227568 -0.0063263467 -0.05602851
0.037762795 0.17222437 0.045196947 -0.002650981 -0.0005511663 0.038723763 0.09038484 -0.047903333
0.06254633 0.043959826 -0.019319912 -0.0840673 0.08520451 0.038306605 -0.0179169 -0.077291794
0.033647764 -0.08338767 -0.10716118 0.17542464 0.1284419 -0.0063308463 -0.13007458 -0.03538543
0.025842508 0.057162583 -0.027290577 -0.11609631 -0.14794484 -0.064832784 0.0962723 0.07875533
0.018178042 0.01981615 0.07894934 0.04943346 -0.011957002 0.073390506 -0.018688308 -0.067002006
0.074806504 -0.07294325 0.05154578 -0.014097956 0.059060004 0.012940464 0.03997873 -0.061076395
-0.053803302 -0.07034318 0.06493052 -0.05030134 0.03767983 0.058469232 0.021414934 -0.10030733
-0.016930198 -0.033176012 0.10569326 -0.054394133 -0.05069533 0.011085526 -0.005092409 0.0351888
0.033267185 0.09838017 0.011337641 -0.06753961 -0.08144261 0.002341501 -0.008161876 -0.01593235
-0.104238816 -0.019791223 0.013842377 0.052284278 0.09847716 -0.029644564 -0.07300447 0.14257109
0.04761271 -0.0022403544 0.02471057 0.06879667 -0.09447591 -0.16283698 -0.021825153 0.05736408
-0.025883391 0.21140797 -0.06444993 0.029854551 -0.04205246 -0.008437305 0.006004553 -0.092494026
00000000: 662f c7bc e5b0 413d 5ec3 44bc 2cc8 fdbc
00000010: 1bd8 d13b c5dd be3c 859b dabb 62f4 3abd
00000020: cdfb 46bd 6d63 523d 2ded 92bd 004a 65bc
00000030: e1df e53c 1c7e 513d fc3b 19bd 3fe5 cc3d
00000040: 82bf 083d 63ca 6bbd 5783 4ebe 9248 c93b
00000050: a6ab 173d c355 6b3d 3712 e83c cefd de3d
00000060: c6a4 a83c ae97 ce3d 66a9 00bc 36df 8abd
00000070: baee 6bbd 6d29 4a3b 217f c3bd 4d56 263d
00000080: 517b f0bd 1ada 01bb 3bfa 18bc e86c 13bd
00000090: 1441 04bb 7e6a e43b 37a6 b33d 0cf4 933c
000000a0: e4ce 773d 0d4b c2bd e68e 393b 6c06 d53d
000000b0: 1484 113d 647c f0bc 6f5e bbbd f4ed 00bd
000000c0: 635c b13c 10f7 14bd 7135 c73d be6c 043e
000000d0: 6193 08bd 11d9 853c 9580 29bd 5810 c1bb
000000e0: 6992 333e e8c1 223d 1e76 d03d da34 113d
000000f0: 089d b5bb edb5 053e 51ff ecbd dd65 0dbe
00000100: b2fc 3abb 90b3 0b3d b8a6 a0bc ca35 893d
00000110: 9664 16bd 2a9f 0b3e 0c8b 44bd 75c2 b5bd
00000120: ea42 2cbd d664 e53d 29e0 b63c 8e4a 8ebd
00000130: 144f abbc a917 04bd 51ce 563d f5ef 703d
00000140: 68da 3f3b c477 123c 6b8b a7bd e5c3 b63d
00000150: faad 8b3d 462f dd3d ba8d 60bd 8fc3 bfbd
00000160: 7bdb df3b f8d6 ed3a 8eab 603d fd91 47bd
00000170: b068 ae3d 7431 41bc d454 65bc 96d7 77bd
00000180: 5a4e 5fbd 7e7b d33c 2043 0cbd 01c2 31bd
00000190: 102c b93d 5900 813d f9d4 c739 013e 09bd
000001a0: 4f33 5cbd e492 853d dbe1 323d b2bb a2bd
000001b0: 9cfd 9b3d 0611 a7bd 372c 05be dc27 273d
000001c0: 7811 97bd fe82 753c ba27 513d 9bbc b9bd
000001d0: f03e 8d3d bdab 8b3e 0662 473d 6dfd 9cbc
000001e0: 79f8 4dbc e959 a23d 53c2 b1bd b68b 65bd
000001f0: 1ce1 3ebd a7ae 4dba d330 613d fd61 193c
00000200: f8be 903c 12bb 5abc 3da3 70bd 426c 0e3e
00000210: 7954 a33c ad74 873c e520 553d 3136 82bd
00000220: 9d9f c0bc 956f b83d e3b4 3bbd c4c1 43be
00000230: a33c 723d 6cc1 b8bc 3578 983c 6c52 3d3d
00000240: c2b1 f5bd 00c7 12bd 5b61 ae3d 2391 9abd
00000250: 573f ffbb 9053 6a3d 88bc 98bb 02c4 0b3c
00000260: a6d6 e33d 4293 2fbd b2b6 30bd a5f8 64bd
00000270: 3773 a6bd d420 8d3c 3e4d cfbb 277e 65bd
00000280: 29ad 1a3d 965b 303e 6f20 393d 15bc 2dbb
00000290: 257c 10ba cf9c 1e3d b01b b93d 4936 44bd
000002a0: 4a18 803d 380f 343d cb44 9ebc 7a2b acbd
000002b0: b47f ae3d 63e7 1c3d 76c6 92bc 294b 9ebd
000002c0: 3dd2 093d 28c7 aabd 5277 dbbd 84a2 333e
000002d0: 4686 033e fd72 cfbb 4532 05be 50f0 10bd
000002e0: abb3 d33c 5023 6a3d 7d90 dfbc e7c3 edbd
000002f0: da7e 17be 0dc7 84bd 692a c53d 794a a13d
00000300: 1eea 943c 7b55 a23c 31b0 a13d bd7a 4a3d
00000310: 4de7 43bc c34d 963d 3918 99bc 5938 89bd
00000320: 2734 993d 4563 95bd ab21 533d 1dfb 66bc
00000330: e7e8 713d 3d04 543c bdc0 233d 3e2b 7abd
00000340: da60 5cbd 1610 90bd 4bfa 843d c708 4ebd
00000350: 2a56 1a3d 6f7d 6f3d 5f6e af3c ee6d cdbd
00000360: 33b1 8abc 92e3 07bd b575 d83d 62cc 5ebd
00000370: e8a5 4fbd 11a0 353c 39de a6bb 2222 103d
00000380: 2c43 083d 8b7b c93d 83c1 393c 3552 8abd
00000390: 62cb a6bd de73 193b 64b9 05bc 8f84 82bc
000003a0: 297b d5bd 3421 a2bc 23cb 623c 0a28 563d
000003b0: 65ae c93d 28d9 f2bc 5e83 95bd 28fe 113e
000003c0: 8c05 433d e9d2 12bb d26d ca3c 45e5 8c3d
000003d0: 967c c1bd bdbe 26be aaca b2bc 99f6 6a3d
000003e0: 6809 d4bc 557b 583e 53fe 83bd 8891 f43c
000003f0: 333f 2cbd 9f3c 0abc d7c1 c43b 826d bdbd

local_block.conv_chan.conv.0.bias f4 [8]
-0.030458251 -0.0055554076 0.019031193 0.05158854 0.004327811 0.013309929 0.048195247 0.00020143481
00000000: 9583 f9bc 230a b6bb 4ee7 9b3c 814e 533d
00000010: 4fd0 8d3b e311 5a3c 6168 453d 3f38 5339

local_block.conv_chan.conv.1.weight f4 [8]
0.8335976 0.9814979 1.0399514 0.9532019 0.88431144 1.1044097 0.9695531 0.9508595
00000000: a766 553f 7243 7b3f 211d 853f 0a05 743f
00000010: 3c62 623f 4c5d 8d3f a234 783f 876b 733f

local_block.conv_chan.conv.1.bias f4 [8]
-0.20019093 -0.22858936 -0.1310905 -0.2253882 -0.20456678 -0.18780883 -0.17197043 -0.18880613
00000000: dafe 4cbe 5413 6abe 973c 06be 2acc 66be
00000010: f479 51be f550 40be 0419 30be 6556 41be

local_block.conv_chan.conv.1.running_mean f4 [8]
0.010265879 -0.0001867641 0.02319534 0.033635695 -0.023776505 -0.038034633 0.1282263 -0.064970076
00000000: 3832 283c 1bd6 43b9 2704 be3c 95c5 093d
00000010: f2c6 c2bc 34ca 1bbd c14d 033e 080f 85bd

local_block.conv_chan.conv.1.running_var f4 [8]
0.11343123 0.05561777 0.073605984 0.082605034 0.2812936 0.038024124 0.097328104 0.09552456
00000000: a24e e83d 75cf 633d bcbe 963d d42c a93d
00000010: b705 903e 2fbf 1b3d f553 c73d 61a2 c33d

tcn.network.0.conv1.weight f4 [16, 16, 16]
-0.06181768 -0.070012115 -0.014410604 -0.07043231 -0.03586221 -0.022544125 -0.0055863373 -0.039075553
0.022760991 -0.042582102 -0.042130157 -0.057911906 -0.061111882 -0.040460266 -0.03257127 0.040556826
0.03518085 0.025732674 -0.013324257 0.05349336 -0.014613361 0.053048987 0.010415538 0.022682335
0.020121707 0.0283476 0.043590058 0.035629947 -0.0017134153 0.002573581 -0.013726377 0.067498475
-0.018370258 0.003625381 -0.033930965 -0.020180883 0.0048145684 0.06764966 0.0945126 0.04308748
0.09814217 0.014091621 -0.012120666 0.040218197 0.0070891255 0.012423112 0.054875195 -0.0026890151
0.003714731 -0.033912823 0.007857816 0.06328291 0.029999658 0.05803497 0.065164864 0.04514363
0.050508164 -0.017058961 0.017306698 -0.013250224 -0.042878713 -0.03889039 0.032923557 0.054793943
0.014926185 0.03526714 0.014399701 0.07153549 0.063757695 0.02355855 0.0138542475 -0.00043870966
0.09241568 0.023791159 0.05390294 0.049558617 -0.031667948 0.019497093 0.033054367 -0.011978747
0.042099643 0.053800803 0.06620422 0.078893244 0.04301857 0.012019435 0.025833037 -0.017367592
-0.012141708 -0.05671843 -0.012091037 0.00064196496 -0.0046510138 0.04776596 0.0867906 0.02080529
0.06404194 -0.03240659 -0.0670577 -0.06623497 -0.018024951 -0.045826785 -0.048904087 0.0098651275
-0.047794208 -0.036643278 -0.031588707 -0.009702079 -0.0211645 -0.018383604 0.02518734 -0.007851996
0.0004538176 0.015294094 0.009757233 0.041302994 -0.025651459 0.031522624 0.0022449836 0.04237136
0.03947137 -0.015064038 -0.0025458129 -0.0029494006 0.0012662628 0.012518845 -0.0011245407 0.001456478
0.029921377 0.0011322848 0.04253642 -0.028092688 -0.04272055 0.006893877 -0.0020291554 -0.030425495
-0.025509804 0.03715944 0.006670046 0.03469512 0.019138144 0.027400967 0.005155037 -0.05771169
0.003182465 0.03728872 -0.0056171124 -0.023965623 -0.023134576 0.015382729 0.017544273 0.019085458
-0.0035899596 0.047467586 0.029138876 0.0007733981 -0.03791306 -0.030267254 0.0063000107 0.0841802
0.077353135 0.039802503 0.049335137 -0.0038544082 0.01363138 0.027048254 0.04616615 0.054669302
-0.013505357 -0.02682804 0.0072340067 -0.0551182 0.006683378 -0.105812445 -0.057987045 -0.03621266
-0.05784135 -0.040244386 -0.049873218 -0.008513364 0.0045003155 -0.040338963 0.009852227 -0.0073418906
0.06568282 0.044697873 0.021600774 -0.042290527 0.0077271047 -0.046049375 -0.03187208 -0.02397116
-0.00030872395 0.009821134 0.016618479 -0.029865397 -0.05377096 -0.056280963 -0.033042792 -0.046620414
-0.06617573 -0.059038922 -0.022141755 -0.0028671785 -0.041139286 -0.026305774 -0.10682775 -0.083601005
-0.10590747 -0.022742286 -0.025781125 -0.008507535 -0.015264842 0.03989584 0.0850828 0.08614447
0.032082867 -0.0012824053 0.006251322 -0.040967803 -0.087313466 -0.06675812 -0.017960887 -0.008146905
0.00802678 -0.039233904 0.024442423 0.002109495 0.031969212 0.041639637 0.017508475 0.004837503
-0.0757286 -0.033465516 -0.06161769 0.049629126 0.012511335 -0.004869846 0.0044759116 0.01281449
-0.03570016 -0.064009875 -0.060672358 -0.03609185 0.051059384 -0.010749137 0.02172409 0.0015899615
-0.035156906 0.005482918 -0.02679161 -0.013565168 0.011009042 0.059525263 0.0452474 0.043755755
00000000: 8934 7dbd 8362 8fbd 741a 6cbc d13e 90bd
00000010: 41e4 12bd 75ae b8bc 980d b7bb b00d 20bd
00000020: 4275 ba3c 926a 2ebd ac90 2cbd 0935 6dbd
00000030: 7450 7abd aab9 25bd 7469 05bd ea1e 263d
00000040: cc19 103d 54cd d23c fc4d 5abc da1b 5b3d
00000050: e16c 6fbc e549 593d efa5 2a3c 4ed0 b93c
00000060: 47d6 a43c 3a39 e83c 7d8b 323d b5f0 113d
00000070: ad94 e0ba 86a9 283b 99e4 60bc a43c 8a3d
00000080: 397d 96bc cd97 6d3b 32fb 0abd 6152 a5bc
00000090: 87c3 9d3b e88b 8a3d d28f c13d 7f7c 303d
000000a0: c3fe c83d 8be0 663c c295 46bc d6bb 243d
000000b0: e54b e83b 4f8a 4b3c d0c4 603d 303a 30bb
000000c0: d872 733b 2ce8 0abd 12be 003c 789a 813d
000000d0: d8c1 f53c 14b6 6d3d 2875 853d 87e8 383d
000000e0: a6e1 4e3d 3cbf 8bbc c7c6 8d3c 7817 59bc
000000f0: 97a1 2fbd 884b 1fbd dada 063d 9d6f 603d
00000100: f58c 743c 4774 103d b9ec 6b3c 3381 923d
00000110: 6593 823d dcfd c03c edfc 623c 9d02 e6b9
00000120: 6f44 bd3d ade5 c23c 54c9 5c3d fafd 4a3d
00000130: 40b6 01bd 5eb8 9f3c 0464 073d 8242 44bc
00000140: ad70 2c3d 3b5e 5c3d 1496 873d c892 a13d
00000150: 3d34 303d 2aed 443c ce9f d33c 7b46 8ebc
00000160: 04ee 46bc 9651 68bd 7c19 46bc 8a49 283a
00000170: 8867 98bb 3da6 433d 45bf b13d db6f aa3c
00000180: 6c28 833d c6bc 04bd 8c55 89bd 33a6 87bd
00000190: 10a9 93bc deb4 3bbd a74f 48bd 58a1 213c
000001a0: dcc3 43bd 4317 16bd 2963 01bd 78f5 1ebc
000001b0: 2c61 adbc 3699 96bc ae55 ce3c a9a5 00bc
000001c0: 5eee ed39 1494 7a3c cddc 1f3c 542d 293d
000001d0: 0223 d2bc de1d 013d 9320 133b 978d 2d3d
000001e0: bbac 213d 28cf 76bc a7d7 26bb bb4a 41bb
000001f0: bbf8 a53a d71b 4d3c 5365 93ba 4be7 be3a
00000200: ad1d f53c 2c69 943a ab3a 2e3d a322 e6bc
00000210: befb 2ebd 08e6 e13b 94fb 04bb e33e f9bc
00000220: f0f9 d0bc 7f34 183d 6790 da3b 781c 0e3d
00000230: 99c7 9c3c fe77 e03c 96eb a83b 1863 6cbd
00000240: e790 503b 0fbc 183d c10f b8bb 8e53 c4bc
00000250: b984 bdbc d707 7c3c 02b9 8f3c 1b59 9c3c
00000260: 8745 6bbb 5f6d 423d a7b4 ee3c debd 4a3a
00000270: ba4a 1bbd 08f3 f7bc 5270 ce3b ab66 ac3d
00000280: 526b 9e3d f307 233d a413 4a3d 3d9a 7cbb
00000290: 2756 5f3c 4d94 dd3c b818 3d3d ebec 5f3d
000002a0: 9345 5dbc 7ac6 dbbc 3f0b ed3b 9fc3 61bd
000002b0: 3d00 db3b 32b4 d8bd d383 6dbd ba53 14bd
000002c0: 0deb 6cbd 4cd7 24bd dc47 4cbd a37b 0bbc
000002d0: 6277 933b 783a 25bd 3c6b 213c 3e94 f0bb
000002e0: b784 863d 1e15 373d 1bf4 b03c d538 2dbd
000002f0: a733 fd3b 459e 3cbd 4c8c 02bd 2b5f c4bc
00000300: 3adc a1b9 d2e8 203c 7a23 883c 47a8 f4bc
00000310: f03e 5cbd de86 66bd e157 07bd 0cf5 3ebd
00000320: 2487 87bd ccd2 71bd a062 b5bc 46e7 3bbb
00000330: ab81 28bd 357f d7bc 82c8 dabd 0137 abbd
00000340: 04e6 d8bd 084e babc f032 d3bc 3063 0bbc
00000350: 6319 7abc d269 233d e43f ae3d 836c b03d
00000360: 5369 033d 6216 a8ba e4d7 cc3b dbcd 27bd
00000370: 67d1 b2bd 7bb8 88bd b622 93bc 997a 05bc
00000380: c182 033c bbb3 20bd 7a3b c83c 743f 0a3b
00000390: 26f2 023d 538e 2a3d ef6d 8f3c eb83 9e3b
000003a0: 9917 9bbd 2313 09bd d562 7cbd e947 4b3d
000003b0: 58fc 4c3c 3b93 9fbb abaa 923b def3 513c
000003c0: 553a 12bd 9c17 83bd 9483 78bd 0cd5 13bd
000003d0: a523 513d 261d 30bc b8f6 b13c 4166 d03a
000003e0: b000 10bd 0daa b33b 147a dbbc 7040 5ebc
000003f0: 455f 343c c3d0 733d 5655 393d 3c39 333d

tcn.network.0.conv1.bias f4 [16]
7.899195e-05 2.7162155e-08 2.024265e-08 2.8888692e-07 -0.0039111027 1.1880599e-08 4.748261e-09 -1.5700603e-05
9.1996164e-08 -4.339288e-09 -3.4896093e-08 -3.302028e-08 -5.6140346e-09 -5.614626e-07 4.2096126e-06 0.0060308855
00000000: 7ba8 a538 3652 e932 0fe2 ad32 5118 9b34
00000010: b528 80bb 6d1b 4c32 2526 a331 cab4 83b7
00000020: 6d8f c533 c818 95b1 a9e0 15b3 2fd2 0db3
00000030: 92e5 c0b1 6bb7 16b5 4c40 8d36 bc9e c53b

tcn.network.0.bn1.weight f4 [16]
1.0954167 1.0361474 0.9773467 1.0397959 1.0521274 1.0362374 1.0179697 1.1056964
1.09505 1.104304 1.0998914 1.1129441 1.0188453 1.0790553 1.0039259 1.0865939
00000000: 9d36 8c3f 7aa0 843f 6533 7a3f 0818 853f
00000010: 1cac 863f 6da3 843f d54c 823f 7687 8d3f
00000020: 992a 8c3f d559 8d3f 3ec9 8c3f f474 8e3f
00000030: 8669 823f 7c1e 8a3f a580 803f 8215 8b3f

tcn.network.0.bn1.bias f4 [16]
-0.32804406 -0.39664015 -0.3282168 -0.34641534 -0.3070333 -0.30557945 -0.36135098 -0.29865646
-0.24822012 -0.35546836 -0.3824316 -0.41067997 -0.2871289 -0.37768131 -0.29867184 -0.28734314
00000000: 64f5 a7be 6b14 cbbe 080c a8be 5a5d b1be
00000010: 7833 9dbe e974 9cbe ff02 b9be 80e9 98be
00000020: 6a2d 7ebe f3ff b5be 13ce c3be a544 d2be
00000030: 8f02 93be 725f c1be 84eb 98be a41e 93be

tcn.network.0.bn1.running_mean f4 [16]
-0.014790243 -0.07428128 -0.021177152 0.028115641 0.054266114 0.034289066 -0.048966214 -0.083935976
-0.03448432 -0.02724955 0.090166464 -0.0089387745 -0.03434783 0.042733476 -0.008595633 0.089491315
00000000: c652 72bc c920 98bd b57b adbc c652 e63c
00000010: 2546 5e3d b172 0c3d cc90 48bd a0e6 abbd
00000020: 6e3f 0dbd 733a dfbc 32a9 b83d f073 12bc
00000030: 4fb0 0cbd 4c09 2f3d b3d4 0cbc 3947 b73d

tcn.network.0.bn1.running_var f4 [16]
0.6616879 0.54970026 0.5850678 0.66922784 0.6344166 0.58096594 0.7348656 0.7392287
0.6586096 0.73543453 0.7705569 0.66642725 0.5773231 0.75615853 0.67357403 0.6679684
00000000: 6164 293f 28b9 0c3f 01c7 153f 8452 2b3f
00000010: 2069 223f 2fba 143f 2720 3c3f 183e 3d3f
00000020: a49a 283f 7045 3c3f 3843 453f fa9a 2a3f
00000030: 72cb 133f 9b93 413f 596f 2c3f faff 2a3f

tcn.network.0.conv2.weight f4 [16, 16, 16]
-0.035088994 -0.008977434 -0.050012466 -0.051337168 -0.04967428 -0.0069603184 -0.02172879 0.0017165439
-0.027759422 -0.025956113 -0.015091719 -0.0054392274 -0.0012569526 0.015547919 -0.061345264 -0.034585707
0.07183928 0.056428604 0.031009154 0.005539956 0.022952644 0.009973763 0.0442162 0.054331616
0.061184276 0.047770392 0.0866897 0.10286613 0.033695403 0.04301263 -0.01688491 -0.026688712
0.018508814 -0.029684266 -0.012698276 -0.033000756 -0.028033307 -0.019569868 0.01611224 -0.01602537
0.035115 0.016896531 -0.0008206668 0.020922324 -0.01711712 -0.025191147 -0.05180327 -0.053226527
-0.02519899 0.0025731677 0.014872457 -0.008885925 -0.0032878534 -0.005682237 -0.0150612155 0.016337479
0.017649958 -0.0076053077 -0.018943027 -0.044766065 -0.019677857 0.005550725 -0.005598984 -0.017666038
0.0056360937 0.009918804 -0.031889286 0.009164623 -0.053839218 -0.028190687 0.013342551 -0.011086292
-0.027343838 -0.008739047 0.04495816 -0.022250446 -0.038388185 -0.052107755 -0.036843583 -0.06517797
-0.060057923 -0.019771224 -0.0012239306 0.015797963 0.01827684 0.03607777 0.016722955 0.015756998
0.050574798 0.06060452 0.050652556 0.077229194 0.0062865233 0.023920724 -0.0707896 -0.08638303
0.043191083 0.019367706 0.052972592 0.033386104 0.051609855 0.061696026 0.046187423 0.06593206
0.03728405 0.034325283 0.05557247 0.005372388 0.04703817 0.053723056 0.040544696 0.007806881
-0.019589188 -0.037124228 -0.015715547 -0.035889402 0.014825077 0.012986078 -0.02177047 0.02632362
-0.026491238 -0.04091743 -0.056001425 -0.014086465 -0.07618211 -0.04763534 -0.10301375 -0.07935686
-0.041861217 -0.054351993 -0.050871603 -0.055958994 -0.030917926 -0.042782634 0.011711598 -0.019371664
0.0072129304 0.013966511 -0.016160406 0.03643378 0.035633072 -0.016976677 -0.0073972857 0.026340414
-0.011283803 -0.03728453 -0.026320426 -0.008362819 -0.004149186 -0.046658956 0.009690245 -0.016913665
-0.022171384 -0.02941347 -0.045529008 0.0056841867 -0.022514408 -0.015059132 -0.039995346 -0.0041648024
0.059162248 0.08052653 0.009877168 0.07068987 0.057249825 -0.0036881536 0.049379867 -0.006194943
0.008991587 -0.021141188 -0.036843687 -0.010099407 -0.03022361 -0.027171126 -0.09118209 -0.051773436
0.03354942 -0.0081922 -0.04291962 -0.023061331 -0.005433707 -0.05122936 -0.027267378 0.005090514
-0.022528179 -0.016017186 0.048849486 0.008438893 0.02652808 0.05589308 0.06006789 0.109743826
0.03936851 0.02506561 -0.0037344967 0.028061813 0.023525793 0.025630051 0.010723675 -0.008988855
0.014930407 0.0052702567 0.051125314 -0.0021734957 0.0053512426 0.012728715 0.0020809309 -0.015454872
0.06384869 0.047534216 0.05185939 0.028986335 -0.00027629093 0.004281766 -0.02768071 -0.0348925
-0.07393462 -0.021595443 -0.04798873 -0.007533295 0.022343155 0.0452208 0.04455987 0.09422614
-0.04505142 -0.021573083 -0.008829987 0.035949923 0.022572545 0.039678678 -0.002531115 -0.0042628986
-0.013965978 -0.058550622 -0.017974308 -0.034033936 -0.03205148 0.0049010245 -0.054492936 -0.06763534
-0.10508778 -0.060821865 -0.07171915 -0.04947026 -0.04270928 -0.015174448 -0.016840367 0.029602446
0.00308899 -0.035462514 -0.063513584 -0.101444274 -0.05344826 -0.057922993 -0.0053694304 -0.023014354
00000000: 7ab9 0fbd 1616 13bc dfd9 4cbd ec46 52bd
00000010: 4277 4bbd 6213 e4bb 9300 b2bc a8fd e03a
00000020: ba67 e3bc eaa1 d4bc 4243 77bc 8c3b b2bb
00000030: 55c0 a4ba b3bc 7e3c 2c45 7bbd bea9 0dbd
00000040: 7920 933d ae21 673d e906 fe3c 8588 b53b
00000050: 2f07 bc3c fe68 233c 0c1c 353d d48a 5e3d
00000060: 5d9c 7a3d e3aa 433d 5f8a b13d 7aab d23d
00000070: 3104 0a3d 032e 303d 3952 8abc 49a2 dabc
00000080: cc9f 973c 6b2c f3bc 6e0c 50bc cd2b 07bd
00000090: 1ba6 e5bc fd50 a0bc d1fd 833c a347 83bc
000000a0: bfd4 0f3d 986a 8a3c 0422 57ba 4b65 ab3c
000000b0: 3439 8cbc aa5d cebc aa2f 54bd 0f04 5abd
000000c0: 1d6e cebc 97a2 283b 9bab 733c 4596 11bc
000000d0: 0779 57bb 0f32 babb 51c3 76bc 2dd6 853c
000000e0: a596 903c f235 f9bb 682e 9bbc 9f5c 37bd
000000f0: 7533 a1bc dbe2 b53b af77 b7bb 5eb8 90bc
00000100: fbae b83b 7b82 223c 579e 02bd 3727 163c
00000110: 8386 5cbd 28f0 e6bc b79a 5a3c 47a3 35bc
00000120: 2f00 e0bc 382e 0fbc 0c26 383d 9146 b6bc
00000130: ee3c 1dbd f16e 55bd 4ce9 16bd 077c 85bd
00000140: 4cff 75bd 43f7 a1bc 4c6c a0ba bb6a 813c
00000150: 50b9 953c 49c6 133d 94fe 883c d214 813c
00000160: 8527 4f3d 723c 783d 0e79 4f3d 572a 9e3d
00000170: 2eff cd3b 65f5 c33c 23fa 90bd 96e9 b0bd
00000180: 22e9 303d 06a9 9e3c caf9 583d debf 083d
00000190: db64 533d f9b4 7c3d 062f 3d3d 6307 873d
000001a0: 29b7 183d ab98 0c3d f59f 633d db0a b03b
000001b0: 19ab 403d b50c 5c3d 3212 263d ddd0 ff3b
000001c0: 8179 a0bc 930f 18bd e4bd 80bc c400 13bd
000001d0: e1e4 723c 8fc3 543c fc57 b2bc a2a4 d73c
000001e0: 2704 d9bc 0999 27bd c061 65bd ebca 66bc
000001f0: 5e05 9cbd 461d 43bd dff8 d2bd d985 a2bd
00000200: ab76 2bbd 32a0 5ebd be5e 50bd 4235 65bd
00000210: 9747 fdbc d83c 2fbd 01e2 3f3c 53b1 9ebc
00000220: 725a ec3b cbd3 643c d462 84bc 963b 153d
00000230: fcf3 113d ac12 8bbc ee64 f2bb dac7 d73c
00000240: b3df 38bc aab7 18bd ef9d d7bc 3504 09bc
00000250: e5f5 87bb 761d 3fbd d5c3 1e3c 878e 8abc
00000260: c3a0 b5bc 84f4 f0bc a07c 3abd 6a42 ba3b
00000270: 2370 b8bc 94ba 76bc 29d2 23bd e578 88bb
00000280: 1d54 723d 18eb a43d d8d3 213c dac5 903d
00000290: cb7e 6a3d f3b4 71bb 8b42 4a3d f3fe cabb
000002a0: 7351 133c 4930 adbc 68e9 16bd fc77 25bc
000002b0: 8197 f7bc fb95 debc adbd babd 6210 54bd
000002c0: 1e6b 093d 9438 06bc 7ccc 2fbd 1eeb bcbc
000002d0: 3d0d b2bb e1d5 51bd d65f dfbc 54ce a63b
000002e0: 048d b8bc 7936 83bc 6616 483d 4843 0a3c
000002f0: 6b51 d93c 24f0 643d bf09 763d 5fc1 e03d
00000300: e040 213d 6556 cd3c 75be 74bb e3e1 e53c
00000310: 2ab9 c03c 1df6 d13c 5ab2 2f3c fe45 13bc
00000320: aa9e 743c 1eb2 ac3b c768 513d 3571 0ebb
00000330: 7a59 af3b 1a8c 503c 3a60 083b 6e36 7dbc
00000340: 1ac3 823d 3db3 423d 836a 543d c074 ed3c
00000350: 24db 90b9 0e4e 8c3b a8c2 e2bc 70eb 0ebd
00000360: 096b 97bd ede8 b0bc d58f 44bd dcd9 f6bb
00000370: fe08 b73c 7239 393d 6984 363d a2f9 c03d
00000380: d687 38bd 09ba b0bc a6ab 10bc 3a40 133d
00000390: 0fea b83c 1c86 223d 10e1 25bb c9af 8bbb
000003a0: 8fd1 64bc c7d2 6fbd db3e 93bc 2b67 0bbd
000003b0: 6a48 03bd c698 a03b fc33 5fbd 6684 8abd
000003c0: 4338 d7bd 5920 79bd 7de1 92bd 54a1 4abd
000003d0: edef 2ebd 3f9e 78bc cff4 89bc d480 f23c
000003e0: a770 4a3b 2441 11bd 6913 82bd 04c2 cfbd
000003f0: 90ec 5abd a940 6dbd 0cf2 afbb 9988 bcbc

tcn.network.0.conv2.bias f4 [16]
-2.27766e-08 2.9218545e-05 -8.757511e-08 0.02381827 -0.00014588279 4.2993292e-06 6.648927e-05 -4.833981e-07
0.030228592 0.0026449228 3.2542026e-08 -0.0036847438 -4.5301273e-05 5.2164137e-07 -3.954251e-08 -3.8956955e-06
00000000: 46a6 c3b2 591a f537 ed10 bcb3 881e c33c
00000010: 1df8 18b9 f542 9036 2870 8b38 ddc2 01b5
00000020: f4a1 f73c 7156 2d3b 56c4 0b33 be7b 71bb
00000030: df01 3eb8 ec06 0c35 73d5 29b3 c5b7 82b6

tcn.network.0.bn2.weight f4 [16]
1.0 1.0 1.0 1.0 1.0 1.0 1.0 1.0
1.0 1.0 1.0 1.0 1.0 1.0 1.0 1.0
00000000: 0000 803f 0000 803f 0000 803f 0000 803f
00000010: 0000 803f 0000 803f 0000 803f 0000 803f
00000020: 0000 803f 0000 803f 0000 803f 0000 803f
00000030: 0000 803f 0000 803f 0000 803f 0000 803f

tcn.network.0.bn2.bias f4 [16]
0.0 0.0 0.0 0.0 0.0 0.0 0.0 0.0
0.0 0.0 0.0 0.0 0.0 0.0 0.0 0.0
00000000: 0000 0000 0000 0000 0000 0000 0000 0000
00000010: 0000 0000 0000 0000 0000 0000 0000 0000
00000020: 0000 0000 0000 0000 0000 0000 0000 0000
00000030: 0000 0000 0000 0000 0000 0000 0000 0000

tcn.network.0.bn2.running_mean f4 [16]
0.0 0.0 0.0 0.0 0.0 0.0 0.0 0.0
0.0 0.0 0.0 0.0 0.0 0.0 0.0 0.0
00000000: 0000 0000 0000 0000 0000 0000 0000 0000
00000010: 0000 0000 0000 0000 0000 0000 0000 0000
00000020: 0000 0000 0000 0000 0000 0000 0000 0000
00000030: 0000 0000 0000 0000 0000 0000 0000 0000

tcn.network.0.bn2.running_var f4 [16]
1.0 1.0 1.0 1.0 1.0 1.0 1.0 1.0
1.0 1.0 1.0 1.0 1.0 1.0 1.0 1.0
00000000: 0000 803f 0000 803f 0000 803f 0000 803f
00000010: 0000 803f 0000 803f 0000 803f 0000 803f
00000020: 0000 803f 0000 803f 0000 803f 0000 803f
00000030: 0000 803f 0000 803f 0000 803f 0000 803f
