model/Benchmark/DTCNet_b2_1s_S35.pth (torch, 181815 bytes, 74 tensors)

global_block.conv_time.conv.0.weight f4 [8, 1, 1, 125]
0	0x3cdb57bc	0.026775233
1	0x3d4447d2	0.047920056
2	0x3c92c954	0.017918266
3	0x3c0d4a37	0.008623651
4	0xbd6f27c3	-0.05838753
5	0x3d17f5bb	0.03709958
6	0xbceff91a	-0.029293586
7	0x3c81d6c2	0.015849475
8	0x3cbee4d9	0.023302482
9	0xbcbe480c	-0.023227714
10	0x3caf7116	0.021416228
11	0xbca1b0ea	-0.01973768
12	0xba017a2e	-0.00049391657
13	0x3bfc6eb5	0.007703627
14	0xbd1e7f41	-0.038695578
15	0x3d7408e7	0.059578802
16	0x3d21d660	0.039511085
17	0x3d8da19a	0.06915589
18	0xbc6d1eb8	-0.014472656
19	0x3d21f9c6	0.039544843
20	0x3d16b2c4	0.036791578
21	0x3a93b054	0.001126776
22	0xbcafaf42	-0.021445874
23	0xba80629b	-0.0009795012
24	0x3c5854dd	0.013203827
25	0xbb10ade6	-0.0022076308
26	0x3c18b663	0.009320828
27	0x3cf754bc	0.030191772
28	0x3d75bbd7	0.05999359
29	0xbceefb74	-0.029172637
30	0x3cfb74b4	0.030695297
31	0xbbd00425	-0.0063481503
32	0x3d8edb1c	0.069753855
33	0x3acbfdf6	0.0015563357
34	0xbc50b182	-0.012737634
35	0xbc3c2855	-0.011484225
36	0x3d1de271	0.03854603
37	0x3a197c5c	0.0005855018
38	0x3d45b5b7	0.048269
39	0xbd921839	-0.07133526
40	0xbb73d0b7	-0.003720326
41	0xbd587608	-0.05284694
42	0x3cb2ef85	0.021842727
43	0x3d5c6cc4	0.053814664
44	0xbc2a0b62	-0.01037869
45	0x3c805ea9	0.015670137
46	0xbc4b46e8	-0.012407042
47	0xbd4e7bf2	-0.050411172
48	0x3d4488fb	0.047982197
49	0x3d54acf8	0.05192277
50	0x3d982bc7	0.07430225
51	0x3d801754	0.062544495
52	0xbbc4026f	-0.0059817354
53	0x3bfb1c1a	0.007663262
54	0x3cac0f82	0.021003488
55	0xbd93c0cf	-0.0721451
56	0xbdb06a89	-0.0861407
57	0xbc39fc15	-0.011351605
58	0x3c7608a7	0.015016711
59	0xbc66a663	-0.014077756
60	0xbcc7c60c	-0.024386428
61	0xbb91ec63	-0.0044532283
62	0xbccfa0f4	-0.025345303
63	0xbd7287e6	-0.059211634
64	0x3c4a9471	0.012364493
65	0x3b78cac1	0.0037962648
66	0x3d45e58a	0.04831461
67	0x3c044e76	0.008075347
68	0x3c2cbc34	0.010542918
69	0xbc481b32	-0.012213515
70	0xbd2a0e57	-0.04151758
71	0xbb199cef	-0.0023439487
72	0xbcb0d43d	-0.021585578
73	0x3dbddd5a	0.09270735
74	0x3d103a42	0.03521181
75	0xbcec3d4c	-0.028837822
76	0x3acda9c2	0.001569085
77	0x3deab71d	0.11460707
78	0x3e20cb65	0.15702589
79	0xbcaddab0	-0.021222442
80	0xbd9a983b	-0.07548567
81	0xbcec81ef	-0.02887055
82	0xbdbe614b	-0.09295901
83	0xbd3f873b	-0.046759825
84	0xbdb9dd5e	-0.090754256
85	0x3c910e23	0.017706936
86	0xbc5226fc	-0.012826677
87	0xbdcc37b7	-0.09971564
88	0xbd8de3c8	-0.069282115
89	0xbcaa4b19	-0.020787762
90	0xbd28973e	-0.04115986
91	0xbb32c8e9	-0.0027280396
92	0xbd9a4eb9	-0.075345464
93	0xbd86ae8f	-0.06576263
94	0x3cbbf12b	0.022942146
95	0xbc4e9831	-0.012609527
96	0x3d7338b3	0.059380244
97	0x3e0bd437	0.13655172
98	0x3df42b79	0.11922354
99	0x3c8c0da9	0.017096357
100	0xbc04bef7	-0.00810217
101	0x3cba1e2a	0.022719461
102	0xbc4d1fb9	-0.01251977
103	0xbd580642	-0.052740343
104	0x3d21acc0	0.039471388
105	0x3db19a3a	0.086719945
106	0x3cf5c872	0.030002806
107	0xbd875c31	-0.06609381
108	0xbdaef485	-0.08542732
109	0xbd8ca344	-0.06867078
110	0xbba58122	-0.005050794
111	0xbd1c39c8	-0.038141042
112	0xbc93451b	-0.017977288
113	0xbd04b057	-0.032394733
114	0x3c327a02	0.010893347
115	0xbb2c0b41	-0.0026251825
116	0xbd947b8a	-0.07250126
117	0xbdc02623	-0.09382274
118	0xbce147a8	-0.027499989
119	0xbc25408f	-0.010086193
120	0xbd3bfe52	-0.045896836
121	0x3cfa5fc4	0.030563243
122	0x3dbccb33	0.09218445
123	0xbd0d8ba7	-0.03455701
124	0xbd07129f	-0.032976743
125	0x3cd9109c	0.026497178
126	0xbcf9682c	-0.03044518
127	0xbca08d0e	-0.01959851
128	0x3dd3043b	0.10303541
129	0xbb09a337	-0.0021001825
130	0x3c52b1b3	0.01285975
131	0xbcfff94e	-0.031246807
132	0x3cc8afe2	0.02449793
133	0x3b98ee3c	0.0046670716
134	0x3b77776b	0.0037760388
135	0x3c346ba7	0.011011994
136	0x3c60a4e3	0.013711187
137	0x3ca81a24	0.020520277
138	0x3d67087b	0.056404572
139	0x3d845362	0.064612165
140	0xbd234d1b	-0.039868455
141	0x3d77eeb8	0.060530394
142	0x3b8325a3	0.0040022894
143	0x3c49c58e	0.012315167
144	0x3d7b08e2	0.06128777
145	0xbd198261	-0.037477855
146	0xbd17aa23	-0.03702749
147	0x3c9a4d2b	0.018835625
148	0x3c125a55	0.00893267
149	0xba9d7d94	-0.0012015575
150	0x3c137995	0.009001155
151	0x3d455245	0.04817416
152	0xbba137ab	-0.004919966
153	0x3c9f1995	0.019421378
154	0xbd4a36a1	-0.049368504
155	0x3c6900f2	0.014221417
156	0xb833e9c7	-4.2894648e-05
157	0xbcac862d	-0.021060074
158	0x3be54024	0.0069961715
159	0xbccb7b38	-0.024839029
160	0xbc87dce8	-0.016584828
161	0xbb2a7bf1	-0.0026013816
162	0x3d04b8bf	0.03240275
163	0xbc09a4bd	-0.008401093
164	0xbda06faa	-0.07833798
165	0xbd82233f	-0.06354379
166	0xbc734049	-0.01484687
167	0xbc95a6eb	-0.01826807
168	0x3cfab97d	0.030606026
169	0x3c05c999	0.00816574
170	0xbc87689d	-0.016529376
171	0xbd1d3b3c	-0.03838657
172	0x3d532d81	0.051557068
173	0xb7d8989c	-2.582027e-05
174	0xbca4eea4	-0.020133324
175	0x3d433267	0.04765549
176	0xbd0c5927	-0.03426471
177	0xbd0fb330	-0.035082996
178	0xbd12115e	-0.035661094
179	0xbcd7a359	-0.026323007
180	0xbde3b2c8	-0.11118084
181	0x3d01ecc8	0.031719953
182	0x3c862e2c	0.016379438
183	0x3d0424be	0.032261603
184	0xbd26f460	-0.040760398
185	0x3cd8080b	0.026371023
186	0x3d269013	0.040664744
187	0xbca95f4f	-0.02067533
188	0x3d3bd4a1	0.045857076
189	0xbcf8ec33	-0.030386066
190	0x3c535a76	0.012899986
191	0xbd8f4608	-0.06995779
192	0xbcd34434	-0.025789358
193	0x3b20b164	0.0024519796
194	0x3d967ea5	0.07348374
195	0x3d9c66ca	0.07636793
196	0x3c9abffe	0.018890377
197	0xbc62ba9b	-0.0138384355
198	0xbcb828e0	-0.022480428
199	0x3d33c527	0.04388919
200	0xbd1fe31e	-0.039034955
201	0x3c1c7498	0.0095492825
202	0xbd232858	-0.039833397
203	0x3e0263c0	0.12733364
204	0x3e61b309	0.22040953
205	0x3e160247	0.14649306
206	0x3c86159c	0.016367726
207	0xbd8b40c2	-0.06799461
208	0xbdd1896c	-0.10231289
209	0xbccee70b	-0.025256654
210	0x3b950bd2	0.004548528
211	0xbcb83510	-0.02248624
212	0x3b3c1495	0.0028698791
213	0xbb4e8365	-0.0031511423
214	0xbdf0a70d	-0.117506124
215	0xbdbda6bc	-0.09260318
216	0xbd7e0508	-0.062016517
217	0xbc5a7e14	-0.013335723
218	0xbccabe32	-0.024748895
219	0x3c9143da	0.01773255
220	0x3c4bae38	0.012431674
221	0x3937e0c5	0.00017535973
222	0x3cf3c793	0.02975825
223	0x3cec45ee	0.028841939
224	0xbd9f82f8	-0.07788652
225	0x3d0df27e	0.034655087
226	0x3c98f0cc	0.018669508
227	0x3d9a64f7	0.07538789
228	0xbd5782a8	-0.052614838
229	0xbd6878e6	-0.056755923
230	0x3d08624a	0.03329686
231	0xbd644ac1	-0.055735353
232	0xbd02f0cc	-0.031967923
233	0x3d5f4009	0.054504428
234	0x3c98b6db	0.01864188
235	0xbdd093fe	-0.10184477
236	0x3d49f2b9	0.049303744
237	0x3cd4013b	0.025879493
238	0x3daa70b9	0.083222814
239	0xbd044633	-0.03229351
240	0xbda088e5	-0.078386106
241	0xbd8b341a	-0.06797047
242	0xbc333c78	-0.01093971
243	0xbcf88cd8	-0.030340597
244	0x3caec261	0.021332921
245	0xbd5470c8	-0.05186537
246	0xbd700864	-0.058601752
247	0xbcc6ac60	-0.024252117
248	0xba01debc	-0.00049541495
249	0xbda222ac	-0.079167694
250	0x3ca39cc9	0.019972222
251	0xbd6abbc5	-0.057307977
252	0x3c8a3271	0.016869755
253	0x3d04ae51	0.032392804
254	0xbce9c8f6	-0.028538208
255	0x3b39007f	0.0028229055

global_block.conv_time.conv.0.bias f4 [8]
0	0xb922dffc	-0.00015532965
1	0x3c3b3833	0.011426973
2	0x3a3ad7b2	0.0007127478
3	0x3c5f4cdf	0.013629167
4	0xbc27b21f	-0.0102353385
5	0xbd8d3d07	-0.06896406
6	0x3b8922bf	0.0041850503
7	0x3a228bd7	0.00062006473

global_block.conv_time.conv.1.weight f4 [8]
0	0x3f78b423	0.97149867
1	0x3f7ee69a	0.9957062
2	0x3f669fec	0.9008777
3	0x3f610b30	0.87907696
4	0x3f878688	1.0587931
5	0x3f5cbdf2	0.86227334
6	0x3f765cca	0.96235335
7	0x3f717f03	0.9433443

global_block.conv_time.conv.1.bias f4 [8]
0	0xbc8f416e	-0.017487254
1	0xbcb36b2a	-0.021901686
2	0x3e01900e	0.12652609
3	0x3ba3e684	0.005001845
4	0xbd08c9c5	-0.033395547
5	0x3d800706	0.062513396
6	0xbd45d8c6	-0.048302434
7	0x3c832c51	0.016012343

global_block.conv_time.conv.1.running_mean f4 [8]
0	0x3c5ffed7	0.013671598
1	0x3b8c39f6	0.0042793704
2	0x3c6c56ec	0.014425021
3	0x387a604f	5.969434e-05
4	0xbcd64460	-0.02615565
5	0xbd8ab961	-0.067736395
6	0x3af08f83	0.0018353317
7	0x3b2ec949	0.0026670268

global_block.conv_time.conv.1.running_var f4 [8]
0	0x414264f7	12.14965
1	0x411f030b	9.938243
2	0x411f66e4	9.96262
3	0x410e7c23	8.905307
4	0x4127c0b1	10.484544
5	0x413fd5ae	11.989668
6	0x4133653c	11.212215
7	0x4143eedc	12.245815

global_block.conv_chan.conv.0.weight f4 [8, 8, 11, 1]
0	0xbdc54fb0	-0.0963434
1	0xbd1e83fe	-0.038700096
2	0xbcdce16d	-0.02696296
3	0xbd500e2a	-0.050794758
4	0x3da375ca	0.07981451
5	0x3d88e267	0.06683808
6	0x3d276230	0.040865123
7	0xbdb62153	-0.08893075
8	0x3c144fc7	0.0090522235
9	0xbd31fe2e	-0.043455295
10	0x3dadf693	0.08494296
11	0x3d886b3b	0.066610776
12	0xbd7de197	-0.061982717
13	0xbd5d25f3	-0.05399127
14	0x3da27a27	0.07933455
15	0x3c9263e9	0.017869906
16	0x3cbd3e14	0.02310089
17	0xbb44fa86	-0.003005655
18	0xbddcc941	-0.10780574
19	0x3d902237	0.07037776
20	0xbd258930	-0.040414035
21	0x3d21a9c5	0.039468545
22	0xbd720ea8	-0.05909601
23	0x3b5a56ab	0.0033315818
24	0x3d190370	0.037356794
25	0xbd0995e0	-0.033590198
26	0x3be2169e	0.006899669
27	0xbd3f4be4	-0.046703234
28	0x3d8b4d5d	0.06801865
29	0xbd128a75	-0.035776574
30	0xbd6e5753	-0.058188748
31	0xbd1aa4f5	-0.03775497
32	0xbcb2d6c2	-0.02183092
33	0x3d69371d	0.056937326
34	0xbd4b79b8	-0.049676627
35	0xbd708e76	-0.05872961
36	0xbc18c7c8	-0.009324975
37	0xbbcdecb4	-0.0062843207
38	0x3caa44dc	0.020784788
39	0xbc877816	-0.016536754
40	0xbdbccffa	-0.09219356
41	0xbc2dbe2e	-0.010604424
42	0x3d3ad43a	0.04561255
43	0x3d6404f5	0.05566879
44	0xbdaf53c5	-0.085609
45	0x3db4baf4	0.08824721
46	0x3c8d771f	0.017268715
47	0xbd8f6bbd	-0.07002971
48	0xbda8611e	-0.08221649
49	0xbd0c6b3f	-0.034281965
50	0x3dc62d7d	0.09676645
51	0x3db3267a	0.08747573
52	0x3d9ccd9c	0.076564044
53	0x3befcf58	0.0073184185
54	0xbdee9069	-0.11648638
55	0xbce28f92	-0.02765635
56	0x3d16f351	0.03685314
57	0x3d8cfe09	0.06884391
58	0xbd1b3599	-0.03789291
59	0xbe250315	-0.16114457
60	0x3c9079a9	0.017636137
61	0x3d7eb088	0.062180072
62	0x3e04bd6f	0.12962888
63	0x3a63c69a	0.0008688957
64	0x3d8bc997	0.068255596
65	0xbd9aa15f	-0.0755031
66	0x3d36d7f9	0.04463956
67	0xbd591e79	-0.053007577
68	0xbac6d7dc	-0.0015170532
69	0x3c29e696	0.010369917
70	0x3bec85fc	0.0072181206
71	0xbd431758	-0.047629684
72	0x3c9bd22a	0.019021112
73	0xbc57c8e5	-0.013170456
74	0x3d032dd4	0.032026127
75	0x3d0b83ea	0.03406135
76	0xbd03a13d	-0.03213619
77	0xbd653066	-0.05595436
78	0xbd3c38e2	-0.045952685
79	0xbd473bfc	-0.04864119
80	0xbca39e74	-0.019973017
81	0xbd3d2f93	-0.04618795
82	0x3dca2f7f	0.098723404
83	0x3d765754	0.060141876
84	0xbdeeeaec	-0.116659015
85	0xbc132208	-0.008980282
86	0xbca2561a	-0.019816447
87	0x3c47828b	0.01217712
88	0xbbd25992	-0.006419369
89	0xbd4fbce5	-0.050717253
90	0xbc539bcd	-0.012915564
91	0x3ccf0fff	0.025276182
92	0xbc45d847	-0.01207549
93	0xbd4a52e2	-0.04939545
94	0xbc71184e	-0.014715267
95	0x3cf8e7f0	0.030384034
96	0x3d37c8fc	0.044869408
97	0x3d8752fb	0.06607624
98	0xbca3c03b	-0.019989124
99	0xbc8a8a0f	-0.016911535
100	0xbdd68565	-0.10474662
101	0x3bdf96cf	0.0068233977
102	0x3bd06bf5	0.0063605257
103	0x3cfce059	0.030868696
104	0xbd108f47	-0.03529289
105	0xbdd64885	-0.10463051
106	0x3d1622c9	0.036654267
107	0x3d59da6b	0.053186815
108	0x3d7b5c27	0.06136718
109	0x3d991967	0.07475548
110	0x3db00ced	0.085962154
111	0xbe34c22b	-0.17652194
112	0xbd65cabd	-0.05610155
113	0xbd956f08	-0.07296568
114	0x3d2f88ac	0.04285495
115	0x3d82e024	0.06390408
116	0xbd7f9337	-0.062396254
117	0xbd97bc4c	-0.07408962
118	0xbd8eabbb	-0.06966349
119	0x3d7e7be6	0.062129878
120	0x3d9a7b5f	0.075430624
121	0xbd3d7886	-0.04625752
122	0xbd94a086	-0.0725718
123	0xbd85aea1	-0.065274484
124	0x3d4467c1	0.04795051
125	0xbca9b3a3	-0.02071554
126	0xbd4da2e3	-0.05020417
127	0x3d2c503b	0.0420687
128	0x3d7be571	0.06149811
129	0x3d9d15ef	0.07670199
130	0xbd557083	-0.052109253
131	0xbde8546f	-0.113442294
132	0x3d5aa35f	0.05337846
133	0x3dfe0d48	0.12404877
134	0xb980ed2e	-0.00024590775
135	0xbd674f21	-0.056471948
136	0x3bea35e5	0.007147538
137	0xbda5cfc7	-0.08096271
138	0x3d020dc7	0.03175142
139	0x3db2313f	0.08700799
140	0x3d80c698	0.06287879
141	0xbdd0c32f	-0.10193478
142	0xbd271472	-0.040790983
143	0xbd8368c0	-0.06416464
144	0x3debbde7	0.115108304
145	0x3d1d2e0c	0.03837399
146	0xbceb4052	-0.028717194
147	0xbddb5bf2	-0.107108966
148	0xbb6851cf	-0.0035449152
149	0x3d7dbd8b	0.06194834
150	0xbc1ca18b	-0.009559999
151	0xbd504e2f	-0.05085581
152	0xbd2e8ff8	-0.042617768
153	0x3d878299	0.066167064
154	0xbd65ee7d	-0.056135643
155	0xbe1a4537	-0.15065466
156	0xbc05ca03	-0.008165839
157	0x3d8e0c93	0.06935992
158	0x3d17fd8c	0.037107036
159	0xbc201ec5	-0.009772961
160	0xbc721471	-0.014775381
161	0x3c55d31d	0.013050822
162	0x3cb34cdc	0.021887235
163	0xbd07ac3d	-0.033123244
164	0x3d9a5923	0.07536533
165	0xbd2aae78	-0.041670293
166	0x3d2bceb4	0.041945174
167	0x3d45019e	0.048097245
168	0xbcfdd073	-0.030983185
169	0xbdd6f360	-0.10495639
170	0x3cd4bbef	0.02596852
171	0x3b8d59ef	0.0043136994
172	0x3dd95eb9	0.1061377
173	0xbd45a06f	-0.048248705
174	0xbd231e3d	-0.03982376
175	0xbcc55363	-0.024087613
176	0xbcd8c7a1	-0.026462378
177	0xbd3c7583	-0.046010505
178	0xbde54e58	-0.111965835
179	0x3ce8bd21	0.028410496
180	0x3d5a9ecd	0.0533741
181	0x3b073e0a	0.0020636343
182	0xbd94223f	-0.072330944
183	0x3d1b727c	0.037950978
184	0xbcb75563	-0.022379583
185	0x3d466652	0.048437424
186	0xbb35f348	-0.0027763415
187	0xbd79ce82	-0.060987957
188	0xbe4d3c28	-0.20042479
189	0xbcf8c5b4	-0.03036771
190	0x3d04f8f5	0.032463986
191	0x3db8f358	0.09030789
192	0xbcf94fed	-0.03043362
193	0x3cde3850	0.027126461
194	0x3d7eb69d	0.062185872
195	0x3ce388a7	0.027775122
196	0x3c9fa75b	0.019488981
197	0x3d7ef0c2	0.062241323
198	0x3d02e1f5	0.03195377
199	0x3e07df34	0.13268739
200	0xbdcf802e	-0.1013187
201	0xbd47717d	-0.048692215
202	0xbd46fb37	-0.04857942
203	0xbd8c9d74	-0.06865969
204	0x3d35e1f6	0.044404946
205	0x3e079fbf	0.13244532
206	0x3d8f0ca6	0.069848344
207	0xbd465141	-0.048417334
208	0xbc4d1271	-0.012516604
209	0x3c5c90f7	0.013462297
210	0x3ca97fe3	0.020690864
211	0x3c1c3835	0.009534885
212	0xbdb208f0	-0.08693111
213	0xbc9bfdcc	-0.019041918
214	0xbd99ebbc	-0.07515666
215	0xbcbcc603	-0.023043638
216	0x3defbdc2	0.11706115
217	0x3be36de1	0.006940589
218	0xbb8aac04	-0.0042319316
219	0xbd9c8ae6	-0.0764368
220	0xbd49e6b4	-0.04929228
221	0xbe182ece	-0.14861605
222	0x3d320b74	0.043467954
223	0x3d8b5206	0.06802754
224	0x3cb8f567	0.022577954
225	0x3d910c17	0.07082384
226	0xbdbc630c	-0.09198579
227	0x3d316543	0.04330946
228	0x3c5b58c0	0.013387859
229	0xbd815a33	-0.06316032
230	0x3bcdd4c7	0.0062814686
231	0xbba70110	-0.005096562
232	0x3c926f91	0.017875465
233	0x3d0fe5b0	0.035131156
234	0x3ddd540c	0.10807046
235	0xbd0d8541	-0.03455091
236	0x3be3e3af	0.0069546322
237	0xbdd07bec	-0.10179886
238	0xbd8a922e	-0.06766163
239	0xbde0ba4c	-0.10973033
240	0x3d2b9593	0.041890692
241	0x3d5a29b9	0.053262446
242	0xbdc43d8e	-0.09582053
243	0x3e0adb38	0.13560188
244	0xbd48a3b8	-0.04898426
245	0xbdea0d02	-0.11428262
246	0xbd77503b	-0.060379248
247	0x3b3b8c41	0.0028617533
248	0x3da04b2f	0.0782684
249	0xbc1ef8b2	-0.009702848
250	0x3daecf37	0.08535617
251	0x3d2c1d0e	0.042019896
252	0xbd8b7ba9	-0.06810696
253	0xbd2a0ed8	-0.041518062
254	0xbd2dd235	-0.042436797
255	0xbc664e28	-0.01405672

global_block.conv_chan.conv.0.bias f4 [8]
0	0x3ced5e95	0.028975764
1	0x3b57c1c0	0.003292188
2	0x34f9ca34	4.6526986e-07
3	0xbcca7d2f	-0.024717895
4	0x3d45d43a	0.0482981
5	0xbc968f8b	-0.018378993
6	0xb4f3442c	-4.531188e-07
7	0x3cb6a8c0	0.022297263

global_block.conv_chan.conv.1.weight f4 [8]
0	0x3f75bd12	0.95991623
1	0x3f8087be	1.0041425
2	0x3f87d258	1.0611067
3	0x3f66a02a	0.9008814
4	0x3f72cc1b	0.9484269
5	0x3f616359	0.8804222
6	0x3f7cc522	0.987383
7	0x3f6a6baa	0.9157053

global_block.conv_chan.conv.1.bias f4 [8]
0	0xbe6b021f	-0.22950028
1	0xbe06d939	-0.13168801
2	0xbe35b475	-0.1774462
3	0xbda629ae	-0.081134185
4	0xbe0efc0d	-0.13963337
5	0xbe3c65c4	-0.18398196
6	0xbe4456af	-0.19173692
7	0xbe2a8965	-0.16653974

global_block.conv_chan.conv.1.running_mean f4 [8]
0	0xbd8dcc56	-0.069237396
1	0xbdd6d45b	-0.10489722
2	0xbe0f8067	-0.14013825
3	0xbda2985f	-0.07939219
4	0x3df27cfe	0.118402466
5	0x3bf7c58b	0.0075613908
6	0xbc8697a7	-0.016429735
7	0x3ca3d54d	0.01999917

global_block.conv_chan.conv.1.running_var f4 [8]
0	0x3dfba80b	0.12287911
1	0x3e7ac78e	0.24490187
2	0x3e507b2e	0.2035949
3	0x3dfb3b58	0.12267178
4	0x3dbfe64a	0.09370096
5	0x3e2e57bb	0.17025654
6	0x3db4ce03	0.08828356
7	0x3dd3c247	0.1033979

local_block.conv_time.conv.0.weight f4 [8, 1, 1, 51]
0	0xbd928890	-0.071549535
1	0x3c1037cb	0.008802365
2	0x3cb4c7e8	0.022067979
3	0xbad0b5c5	-0.0015923312
4	0xbd0691fd	-0.03285407
5	0xbdddefc6	-0.10836749
6	0x3d7022b1	0.058626834
7	0x3bf4cae5	0.007470476
8	0x3dd2fd87	0.10302263
9	0x3c01efc1	0.007930697
10	0xbd692e2c	-0.0569288
11	0x3ae05030	0.0017113741
12	0x3dc7df6f	0.097594135
13	0xbda95471	-0.08268059
14	0x3c394eee	0.011310322
15	0xbd4e34a1	-0.05034316
16	0xbd71e05d	-0.05905186
17	0x3df1bc06	0.11803441
18	0x3e0c925b	0.13727705
19	0x3d2bc5d6	0.041936718
20	0xbe17b10e	-0.14813635
21	0xbd57250e	-0.052525572
22	0xbd063987	-0.032769706
23	0xbcd58ea8	-0.026069
24	0x3c498a9d	0.012301114
25	0x3db82376	0.08991139
26	0x3c1a4ac9	0.009417244
27	0xbc9a8c4d	-0.018865729
28	0x3d643bdb	0.055721145
29	0x3de39e27	0.111141495
30	0x3cc2deff	0.023787973
31	0x3d92ecac	0.07174048
32	0x3d460771	0.04834694
33	0xbda279a7	-0.079333596
34	0x3df3a034	0.11895791
35	0x3e19c6b4	0.15017205
36	0x3c8dfe50	0.01733318
37	0xbe62be87	-0.22142993
38	0xbd8ea6ec	-0.069654316
39	0x3d908209	0.07056052
40	0x3db0150f	0.085977666
41	0xbda132ed	-0.078710414
42	0x3dee6d11	0.116418965
43	0x3de95d0c	0.113947004
44	0x3ce5c5e7	0.028048469
45	0xbd7db2a7	-0.061937954
46	0xbb3e7148	-0.002905922
47	0xbd41e415	-0.047336657
48	0xbcdee350	-0.027208
49	0x3d68b4fd	0.05681323
50	0xbd3c000e	-0.04589849
51	0x3c4819f9	0.012213224
52	0xbd7c6875	-0.061623055
53	0xbd1c8f4f	-0.038222607
54	0xbd8d763c	-0.06907317
55	0xbbd067b5	-0.006360019
56	0xbd5a4b86	-0.05329468
57	0xbd217fb2	-0.03942842
58	0x3d4dc846	0.050239824
59	0xbda8e531	-0.0824684
60	0x3d363771	0.044486467
61	0xbd3404e1	-0.043949965
62	0x3e23f0ce	0.16009828
63	0x3dfc067c	0.12305924
64	0xbbb8448a	-0.005623405
65	0xbb271857	-0.0025496685
66	0xbb10fe59	-0.002212426
67	0xbc82424b	-0.015900752
68	0xbddb2fc5	-0.10702471
69	0xbcec6050	-0.02885452
70	0xbc0993b7	-0.008397034
71	0xbdbb0c6b	-0.09133228
72	0x3d04b921	0.032403115
73	0xbd8ebec5	-0.0696998
74	0xbd342cd6	-0.04398807
75	0x3d308cd8	0.04310307
76	0xbd2e79c5	-0.042596597
77	0x3c0b892c	0.008516591
78	0x3da87b17	0.082266025
79	0x3e141af0	0.14463401
80	0x3da79adf	0.08183836
81	0xbd4b016f	-0.049561914
82	0x3c9d4f66	0.0192029
83	0xbd26e8ad	-0.04074924
84	0x3cffa640	0.031207204
85	0x3da94c4d	0.08266506
86	0xbd6f0360	-0.058352828
87	0x3d09e773	0.033667993
88	0x3d3b73cf	0.04576474
89	0x3de85d4b	0.11345919
90	0x3db519d2	0.088428155
91	0x3c19f3b5	0.009396483
92	0xbc3fa08c	-0.011695992
93	0xbdb66878	-0.089066446
94	0xbcfb8ac4	-0.030705817
95	0x3d2df4a8	0.04246965
96	0x3e2c9937	0.16855322
97	0x3ccc9640	0.024973989
98	0x3d3c5920	0.045983434
99	0xbd2bcb3b	-0.041941863
100	0x3d8fcd8f	0.07021629
101	0xbda9e8b8	-0.08296341
102	0xbd81f9ca	-0.063464716
103	0xbe05e0b5	-0.13074
104	0x3d2c7475	0.04210325
105	0xbd6e1531	-0.05812568
106	0xbd2cbb39	-0.042170737
107	0x3d2e41b8	0.042543143
108	0x3d122ec5	0.035689134
109	0x3d3b7f5a	0.04577575
110	0x3e0c32e3	0.13691287
111	0x3c041668	0.008061983
112	0x3df88736	0.121351644
113	0x3ce0c01f	0.02743536
114	0xbd0c4d67	-0.034253504
115	0xbc6a94bf	-0.01431769
116	0xbc94bb4a	-0.018155713
117	0xbc930918	-0.017948672
118	0xbd113c78	-0.035458058
119	0xbce01b8e	-0.02735689
120	0xbde12cae	-0.1099485
121	0x3dc33d34	0.09533158
122	0x3df8fd07	0.12157636
123	0x3d63b6da	0.055594303
124	0x3da59a74	0.080861
125	0xbd51d141	-0.05122495
126	0xbbe4bc36	-0.0069804443
127	0xbd96609a	-0.07342644
128	0x3c6b9491	0.014378683
129	0xbd866949	-0.0656305
130	0xbd927d24	-0.07152775
131	0x3d0bf595	0.034169752
132	0xbc543f66	-0.0129545685
133	0xbd731e0f	-0.059354838
134	0x3bdde994	0.0067722294
135	0xbd184180	-0.03717184
136	0x3d4d266c	0.05008547
137	0xbd6a61fc	-0.05722235
138	0x3ca2efa4	0.01988966
139	0x3e2497da	0.16073552
140	0x3d7cf2dd	0.06175505
141	0x3e023958	0.12717187
142	0x3dcf815a	0.10132094
143	0xbdc97eba	-0.09838624
144	0xbe3ea76b	-0.18618552
145	0xbce73d0b	-0.02822735
146	0xbda24974	-0.07924166
147	0xbd9e1375	-0.07718555
148	0xbdb6076a	-0.08888133
149	0x3dc04764	0.09388617
150	0x3deac2e1	0.114629515
151	0xbd51aae7	-0.051188376
152	0xbcb2ffbe	-0.021850463
153	0x3d1ca940	0.038247347
154	0x3c3469f6	0.011011591
155	0xbc5103bc	-0.012757238
156	0x3c0ac478	0.008469693
157	0x3d18a925	0.037270684
158	0xbcb877fc	-0.02251815
159	0x3c85006c	0.016235553
160	0x3c6b546a	0.014363388
161	0x3dd96536	0.106150076
162	0xbd59f607	-0.053213146
163	0xbc2bfb7a	-0.010496968
164	0x3d7f8682	0.062384136
165	0xbde75f83	-0.11297514
166	0xbd7036a5	-0.058645863
167	0x3d6afc62	0.057369597
168	0xbd88c40b	-0.06678017
169	0x3c507f97	0.012725732
170	0xbbbf63ca	-0.005840753
171	0x3d262b76	0.04056879
172	0x3dfaf1b4	0.122531325
173	0xba8572d6	-0.0010181319
174	0xbd835147	-0.06411987
175	0x3d5cc76e	0.05390113
176	0xbd8bab65	-0.068198
177	0xbd1745f9	-0.036931966
178	0x3d006040	0.03134179
179	0xbd04a9a2	-0.032388337
180	0xbd2488a8	-0.040169388
181	0xbd417ea2	-0.047239907
182	0x3d8fcab7	0.07021087
183	0xbd8b3af4	-0.06798354
184	0x3dc0ce1b	0.094143115
185	0xbd3a27f8	-0.045448273
186	0x3dab45b8	0.08362907
187	0x3e0f8c5d	0.14018388
188	0x3d2d1e74	0.04226537
189	0xbd5cb3e3	-0.05388249
190	0x3d599d02	0.05312825
191	0x3cfa8dc2	0.030585174
192	0xbdb81d9e	-0.08990024
193	0xbe243774	-0.16036779
194	0x3d61d307	0.055132892
195	0xbd4b19d3	-0.049585175
196	0xbca53f9a	-0.02017193
197	0xbe23b2a9	-0.15986122
198	0xbdcce289	-0.10004146
199	0x3d3c8db5	0.04603358
200	0xbda3a9ec	-0.079913944
201	0x3d8d6d6e	0.06905638
202	0x3c202979	0.009775513
203	0x3e2143a0	0.15748453
204	0xbd47ff86	-0.04882767
205	0x3da0af75	0.07845966
206	0xbdc1544f	-0.09439909
207	0xbcfcf5e8	-0.030878976
208	0xbc5b9ad4	-0.013403613
209	0xbdbd40bb	-0.09240862
210	0x3cd68efb	0.026191225
211	0xbd05615f	-0.032563563
212	0x3d256d0c	0.0403872
213	0x3cb2c2bd	0.021821374
214	0xbd8deadb	-0.06929561
215	0xbd8184de	-0.063241705
216	0xbdd7d42b	-0.10538515
217	0x3bed7200	0.007246256
218	0x3c177c2c	0.0092459135
219	0xbd80fb26	-0.06297903
220	0x3d3d9f7a	0.046294667
221	0xbdd418b7	-0.103562765
222	0x3cf2df1c	0.029647402
223	0x3d733482	0.059376247
224	0xbdea8c9a	-0.11452599
225	0xbd7b3d02	-0.06133748
226	0xbb2f667b	-0.0026763964
227	0x3c22b9ba	0.009931976
228	0x3d45bfc8	0.0482786
229	0x3d7c0730	0.061530292
230	0x3dc49f06	0.09600644
231	0xbcc47d69	-0.023985581
232	0xbdb98236	-0.09058039
233	0xbcdde3e5	-0.027086208
234	0x3c88152c	0.016611658
235	0xbcdd1452	-0.026987229
236	0xbd4fa170	-0.05069107
237	0x3d7b0107	0.061280277
238	0xbc3f0965	-0.011659955
239	0xbd6b2893	-0.05741174
240	0x3d66fe46	0.056394838
241	0xbdcfc611	-0.101452
242	0xbdfcd156	-0.12344615
243	0xbb7dc573	-0.0038722425
244	0xbe1a9297	-0.15094982
245	0xbdbcd73c	-0.0922074
246	0x3e205612	0.15657833
247	0x3e20531d	0.15656705
248	0xbdb8b980	-0.09019756
249	0xbdca4e4f	-0.098782174
250	0xbe30881f	-0.17239426
251	0xbd18c34c	-0.037295625
252	0xbcb1d357	-0.02170722
253	0x3ce16898	0.027515694
254	0x3c32b03d	0.010906276
255	0x3c4cd947	0.012502975

local_block.conv_time.conv.0.bias f4 [8]
0	0x3cd6380b	0.02614977
1	0xbdc6032f	-0.09668576
2	0x3baaf3c5	0.005217048
3	0x3ca62272	0.020280097
4	0x3d38787c	0.045036778
5	0x3cca1157	0.024666471
6	0x3d88f94a	0.06688173
7	0x3d73901a	0.059463598

local_block.conv_time.conv.1.weight f4 [8]
0	0x3f7e9aa9	0.9945474
1	0x3f702217	0.93802017
2	0x3f57f93b	0.8436467
3	0x3f652235	0.8950532
4	0x3f587c5b	0.8456475
5	0x3f8949b3	1.0725616
6	0x3f644a66	0.89176023
7	0x3f845231	1.0337583

local_block.conv_time.conv.1.bias f4 [8]
0	0x3cd06e06	0.025443088
1	0x3d543fbc	0.051818594
2	0x3c507a0f	0.012724414
3	0x3da971d6	0.082736656
4	0xbd07d68d	-0.033163596
5	0xbc8bed3f	-0.017080901
6	0x3de7316b	0.112887226
7	0xbe267c18	-0.16258276

local_block.conv_time.conv.1.running_mean f4 [8]
0	0x3d1b6e75	0.037947137
1	0xbdd9366e	-0.10606085
2	0x3c2e548c	0.010640275
3	0x3d20f3c6	0.03929498
4	0x3d2e62af	0.04257458
5	0x3ce42951	0.027851732
6	0x3dd71e49	0.10503823
7	0x3d213349	0.03935555

local_block.conv_time.conv.1.running_var f4 [8]
0	0x40e6e935	7.2159677
1	0x40eb8391	7.3598104
2	0x411d8938	9.846001
3	0x40ead20d	7.338141
4	0x40c2b65d	6.084761
5	0x40d67d47	6.7027926
6	0x40bd923e	5.924102
7	0x40a60481	5.18805

local_block.conv_chan.conv.0.weight f4 [8, 8, 11, 1]
0	0xbad440c6	-0.001619362
1	0x3d51110f	0.05104166
2	0xbc1a39a5	-0.009413158
3	0xbc786ad5	-0.0151621895
4	0x3bf83975	0.007575209
5	0x3c9bb392	0.019006524
6	0xbab9af76	-0.0014166671
7	0xbcf3c836	-0.029758554
8	0xbd430c4e	-0.047619157
9	0x3d3480df	0.044068214
10	0xbd7ef917	-0.06224927
11	0xbc1ad14b	-0.009449313
12	0x3ce4ac5e	0.027914222
13	0x3d2e2593	0.042516302
14	0xbd06533e	-0.03279423
15	0x3db92539	0.09040303
16	0x3d0fb2f4	0.035082772
17	0xbd2902d5	-0.041262466
18	0xbe39d117	-0.18146168
19	0xbc6b2ea7	-0.0143543845
20	0x3cb6027d	0.022217983
21	0x3d1f4bac	0.038890526
22	0x3cfed921	0.031109395
23	0x3dcf4038	0.10119671
24	0x3d038d20	0.03211701
25	0x3d95dd9d	0.0731766
26	0x3c284230	0.010269687
27	0xbd09acc0	-0.033612013
28	0xbcf1484f	-0.029453425
29	0x3c7c2ef9	0.0153920585
30	0xbd9bc5f7	-0.07606118
31	0x3ce859a6	0.02836306
32	0xbddb4279	-0.10706038
33	0xbc675cd7	-0.014121256
34	0xbcb8d227	-0.022561146
35	0xbd24a85e	-0.04019963
36	0xbab5fd5e	-0.0013884713
37	0xbbbd0ba3	-0.0057692095
38	0x3d77a7e3	0.060462844
39	0x3c86fa10	0.016476661
40	0x3d373e33	0.044737052
41	0xbdb1d3fd	-0.08683012
42	0xbc7778b3	-0.0151044605
43	0x3d8cc37f	0.068732254
44	0x3d0b39e3	0.033990752
45	0xbc9c70a3	-0.019096678
46	0xbd997fcf	-0.07495081
47	0xbc874d64	-0.016516395
48	0x3c4aaae4	0.012369845
49	0xbcfd3a2e	-0.030911531
50	0x3d9ab54e	0.075541124
51	0x3de5db7e	0.112235054
52	0xbcf84b57	-0.030309362
53	0x3b0545f3	0.0020335882
54	0xbd41109a	-0.047134973
55	0xbbdebb70	-0.0067972466
56	0x3e20da2d	0.15708227
57	0x3d3ae8d4	0.0456322
58	0x3dac5092	0.08413805
59	0x3cbf7ae1	0.023374023
60	0xbbc02886	-0.005864206
61	0x3ddfb10c	0.10922441
62	0xbdb570be	-0.088593945
63	0xbdd62856	-0.10456912
64	0x3c8256a9	0.015910463
65	0x3d4401c1	0.047853235
66	0xbc5ac196	-0.013351819
67	0x3d7ae10b	0.061249774
68	0xbcfeca93	-0.031102454
69	0x3df509cc	0.11964759
70	0xbd0600b5	-0.032715518
71	0xbd870fd3	-0.06594815
72	0xbd052a87	-0.03251126
73	0x3dc98f3d	0.09841774
74	0x3ccf314c	0.025292061
75	0xbd8aefd4	-0.06784025
76	0xbcafd759	-0.02146499
77	0xbc3548a6	-0.011064684
78	0x3d59ba01	0.053155903
79	0x3d7965e3	0.060888182
80	0x38222fca	3.8668317e-05
81	0x3c2f56bb	0.0107018305
82	0xbd586b6f	-0.05283683
83	0x3d8cb796	0.06870954
84	0x3d74beda	0.059752323
85	0x3ddb3cc7	0.10704952
86	0xbd08829a	-0.033327676
87	0xbd8977bd	-0.067122914
88	0x3bbd0724	0.0057686735
89	0xbc02ea86	-0.007990485
90	0x3d43be1d	0.047788728
91	0xbcf5fbde	-0.030027326
92	0x3db8ea24	0.09029034
93	0x3ba297cb	0.004961943
94	0x3b8a7d9a	0.0042263987
95	0xbd4f74f3	-0.05064864
96	0xbd4b4e02	-0.04963494
97	0x3cc502cd	0.024049187
98	0xbcf98436	-0.03045855
99	0xbd0df87e	-0.03466081
100	0x3dc7e41d	0.09760306
101	0x3d841c13	0.06450667
102	0xbb3d31ea	-0.0028868862
103	0xbce07d82	-0.027403597
104	0xbd4456b2	-0.04793424
105	0x3d6273b0	0.05528611
106	0x3d340f06	0.04395964
107	0xbd657478	-0.056019276
108	0x3dbac9cd	0.09120522
109	0xbd5e74ef	-0.054310735
110	0xbdf43062	-0.11923291
111	0x3d5c2464	0.053745642
112	0xbd96783f	-0.07347154
113	0x37922207	1.7420401e-05
114	0x3cf868a6	0.030323338
115	0xbdb55be5	-0.08855418
116	0x3d214dab	0.03938071
117	0x3e7b6585	0.24550445
118	0x3d1fb446	0.03899028
119	0xbce019c6	-0.02735604
120	0xbc9c92d4	-0.019112982
121	0x3d8ab54b	0.0677286
122	0xbdc77eb7	-0.09740966
123	0xbd6bc34b	-0.057559293
124	0xbd392fdf	-0.04521167
125	0xbc1de69f	-0.009637504
126	0x3d236fd9	0.039901588
127	0xb8f135a3	-0.00011501766
128	0x3bb83a3d	0.005622177
129	0xbce2c4e6	-0.02768178
130	0xbd895be6	-0.06706981
131	0x3df3888f	0.11891281
132	0x3c933153	0.017967856
133	0xbba3e8e1	-0.0050021266
134	0x3cc9b5b7	0.024622781
135	0xbd1ece8f	-0.03877121
136	0xbc960f66	-0.01831789
137	0x3d96e92d	0.073686935
138	0xbd0655d4	-0.032796696
139	0xbe28014a	-0.16406742
140	0x3d1a2d40	0.03764081
141	0xbce4077e	-0.027835604
142	0x3bb7c97d	0.005608736
143	0x3d1a71a2	0.037706025
144	0xbe01e86f	-0.12686323
145	0xbd0f9fd2	-0.035064526
146	0x3d7e6d0d	0.062115718
147	0xbd7e02e6	-0.062014483
148	0xbbea617a	-0.0071527334
149	0x3d41631e	0.047213666
150	0xbc5901c7	-0.013245053
151	0xbc0e4462	-0.008683296
152	0x3dc38a50	0.095478654
153	0xbd30e42d	-0.043186355
154	0xbd2715b2	-0.040792175
155	0xbd3bd872	-0.045860715
156	0xbdb2343a	-0.08701368
157	0x3b848a26	0.004044789
158	0xbb9d0e76	-0.0047929836
159	0xbd46e580	-0.048558712
160	0x3d005afc	0.03133677
161	0x3e1b696d	0.15176935
162	0x3cf5e6e0	0.030017316
163	0xbc6e1cd0	-0.014533237
164	0xbc563b63	-0.013075682
165	0x3cb41617	0.02198319
166	0x3da4925f	0.080357306
167	0xbd572808	-0.05252841
168	0x3d0704c5	0.032963533
169	0x3ce7db98	0.028302953
170	0xbcb6c9d3	-0.022313034
171	0xbda1068c	-0.07862577
172	0x3d83bbcc	0.06432304
173	0x3cf0f480	0.029413462
174	0xbc9e6839	-0.019336807
175	0xbd89b3b7	-0.06723731
176	0x3cc4eab6	0.0240377
177	0xbdc66fac	-0.096892685
178	0xbdf4c4b6	-0.11951582
179	0x3e2bb950	0.1676991
180	0x3dda9bab	0.106742226
181	0xbc92be06	-0.017912876
182	0xbdffe267	-0.12494355
183	0xbcfb7c9a	-0.030699063
184	0x3c7f2eb7	0.0155751025
185	0x3d710082	0.058838375
186	0xbca56330	-0.020188898
187	0xbdf39fd4	-0.11895719
188	0xbe164431	-0.1467445
189	0xbda81e12	-0.082088605
190	0x3dad199b	0.084521495
191	0x3d5fe14f	0.05465823
192	0xb979dde3	-0.0002382915
193	0x3b407c41	0.0029370936
194	0x3d817914	0.06321922
195	0x3cc4a7fc	0.024005882
196	0xbcca4979	-0.024693238
197	0x3d6e85f7	0.058233228
198	0xbbe4ff63	-0.0069884523
199	0xbd5576e5	-0.05211534
200	0x3d9b19d1	0.075732835
201	0xbda0d697	-0.0785343
202	0x3d482580	0.048863888
203	0xbc2505fc	-0.010072228
204	0x3d538e61	0.051649455
205	0x3b90d985	0.0044204616
206	0x3d2580bb	0.04040597
207	0xbd6ed725	-0.058310647
208	0xbd477cba	-0.048702933
209	0xbd83e9b9	-0.064410634
210	0x3d8a0a0d	0.06740198
211	0xbd2e3177	-0.042527642
212	0x3cdf15b5	0.02723203
213	0x3d6a05ab	0.05713431
214	0x3cb25133	0.021767234
215	0xbda3287c	-0.07966706
216	0xbc96cf32	-0.018409345
217	0xbc9182ed	-0.017762626
218	0x3dd23812	0.10264601
219	0xbd36bc3f	-0.04461312
220	0xbd5a943e	-0.05336403
221	0x3b24e8d4	0.002516319
222	0xbbcdc4b2	-0.0062795514
223	0x3d046e0e	0.03233152
224	0x3c6e5ec3	0.01454896
225	0x3d8fad69	0.07015497
226	0xba92474d	-0.0011160165
227	0xbd804bbb	-0.062644444
228	0xbd70e5db	-0.058812957
229	0x3cb97d69	0.022642808
230	0x3c6daee4	0.014507029
231	0xbd0be35b	-0.03415237
232	0xbdd642a4	-0.104619294
233	0xbca34668	-0.019931033
234	0x3c20bc31	0.009810493
235	0x3cf98244	0.030457623
236	0x3d921268	0.07132417
237	0xbd11dd9c	-0.035611734
238	0xbd994912	-0.0748464
239	0x3dea65d3	0.11445203
240	0x3d14af02	0.036299713
241	0xbc399864	-0.011327837
242	0x3d256d7a	0.040387608
243	0x3dadb410	0.0848161
244	0xbd9741d0	-0.073855996
245	0xbe27411c	-0.16333431
246	0xbc9aeb93	-0.018911159
247	0x3d657cf4	0.056027368
248	0xbcf8f987	-0.030392421
249	0x3e4bcaf3	0.19901638
250	0xbd3e93f0	-0.046527803
251	0x3d187c9e	0.03722822
252	0xbd044652	-0.032293625
253	0xbb7afaf8	-0.0038296562
254	0x3b9288c9	0.0044718725
255	0xbda3a4a2	-0.079903856

local_block.conv_chan.conv.0.bias f4 [8]
0	0xbcf9839b	-0.030458262
1	0xbbb60a65	-0.0055554383
2	0x3c9be73a	0.019031156
3	0x3d534e90	0.051588595
4	0x3b8dd050	0.0043278113
5	0x3c5a11ef	0.01330994
6	0x3d456867	0.04819527
7	0x39533942	0.00020143858

local_block.conv_chan.conv.1.weight f4 [8]
0	0x3f520d31	0.8205138
1	0x3f7b4d0b	0.98164433
2	0x3f833725	1.0251204
3	0x3f714bde	0.9425639
4	0x3f600624	0.8750937
5	0x3f8adfd8	1.0849562
6	0x3f754516	0.9580854
7	0x3f718a3b	0.9435155

local_block.conv_chan.conv.1.bias f4 [8]
0	0xbe32e309	-0.1746942
1	0xbe59b383	-0.21259885
2	0xbdc2a5ef	-0.095043056
3	0xbe50a79f	-0.20376442
4	0xbe3c8a90	-0.18412232
5	0xbe20f9ad	-0.15720244
6	0xbe16d678	-0.14730251
7	0xbe2b8dc1	-0.16753294

local_block.conv_chan.conv.1.running_mean f4 [8]
0	0x3d3901e0	0.045167804
1	0xbd48a706	-0.04898741
2	0xbde7bd66	-0.11315422
3	0x3d9ecb9b	0.077536784
4	0xbd1e3ff1	-0.038635198
5	0x3de19005	0.11013798
6	0x3e101a97	0.14072643
7	0xbcb82983	-0.022480732

local_block.conv_chan.conv.1.running_var f4 [8]
0	0x3df971e9	0.1217993
1	0x3dab91d3	0.08377423
2	0x3e0777bb	0.13229267
3	0x3de00244	0.10937932
4	0x3e4aa2ff	0.1978874
5	0x3d945a43	0.072437786
6	0x3ddcaffd	0.107757546
7	0x3e29e400	0.16590881

tcn.network.0.conv1.weight f4 [16, 16, 16]
0	0xbd2859cd	-0.041101266
1	0xbd4198b4	-0.04726477
2	0xbbaad069	-0.0052128327
3	0xbd3d2a13	-0.046182703
4	0xbca31afd	-0.01991033
5	0xbc3288ad	-0.010896844
6	0x39dbf4d6	0.00041953352
7	0xbcaad47e	-0.020853277
8	0x3ca1cc16	0.019750636
9	0xbcc57d60	-0.024107635
10	0xbcbca3a7	-0.023027254
11	0xbd110886	-0.03540852
12	0xbd1ffd4b	-0.03905992
13	0xbcc150fb	-0.023598185
14	0xbc93b0eb	-0.018028697
15	0x3cdacedc	0.026709966
16	0x3d0143df	0.031558868
17	0x3cba4991	0.022740157
18	0xb95325e3	-0.00020136642
19	0x3cf4c901	0.029881002
20	0xbc419ff4	-0.011817921
21	0x3c92563e	0.01786339
22	0xba608b67	-0.00085656944
23	0x3bdc73ae	0.0067276573
24	0x3bc9709d	0.0061474578
25	0x3c178947	0.009249038
26	0x3c91e8e1	0.01781124
27	0x3c853422	0.01626021
28	0xbbb9cc7a	-0.0056701275
29	0xbb8b0cbe	-0.0042434623
30	0xbc6cf7e4	-0.014463399
31	0x3d0e3835	0.034721572
32	0xbc819326	-0.015817236
33	0x39fc21dd	0.00048090416
34	0xbcaa9d85	-0.020827064
35	0xbbf57159	-0.0074903187
36	0x3c287953	0.010282832
37	0x3d6430f4	0.055710748
38	0x3da673c7	0.081275515
39	0x3d12d0c9	0.035843644
40	0x3da29c68	0.079399884
41	0x3c24c455	0.010056575
42	0xbc20e76e	-0.009820802
43	0x3cc5f239	0.024163352
44	0x38ccdcc2	9.7685974e-05
45	0xba4b6198	-0.0007758378
46	0x3cdae86e	0.02672216
47	0xbc3d0a9a	-0.011538172
48	0x3c077fb5	0.008270194
49	0xbca84a2e	-0.020543184
50	0x3a49fe86	0.00077054685
51	0x3d22f475	0.039783914
52	0x3c58d684	0.013234738
53	0x3d03468f	0.03204971
54	0x3d18d0b1	0.0373084
55	0x3cd7240f	0.026262311
56	0x3cea94b0	0.028635353
57	0xbc46b28f	-0.012127533
58	0x3a26ab29	0.00063579023
59	0xbc914207	-0.01773168
60	0xbd0277c2	-0.03185249
61	0xbcceb980	-0.025234938
62	0x3c8a3463	0.016870683
63	0x3d0dff4a	0.03466729
64	0x3c8ea7f8	0.017414078
65	0x3d00c25a	0.031435348
66	0x3c982a3c	0.018574826
67	0x3d6a6e02	0.057233818
68	0x3d4be6ed	0.049780775
69	0x3c9238a8	0.017849281
70	0x3b9817ba	0.0046415003
71	0xbc581d69	-0.013190606
72	0x3d233a73	0.039850663
73	0xbbe60e26	-0.0070207296
74	0x3c8df7f5	0.01733015
75	0x3cc9933b	0.024606338
76	0xbcc0897d	-0.02350306
77	0x3cba266e	0.022723403
78	0x3d17fd16	0.037106596
79	0x3ba3f032	0.0050029987
80	0x3cbc8308	0.0230117
81	0x3d10787b	0.03527115
82	0x3d3b9348	0.045794755
83	0x3d707ed3	0.0587147
84	0x3d09a4a1	0.033604268
85	0x3c57dc07	0.013175017
86	0x3c6d7d30	0.014495179
87	0xbc483545	-0.012219732
88	0xbc47c3d6	-0.012192687
89	0xbd26f7bc	-0.0407636
90	0xbc14fca1	-0.009093435
91	0xbaa4e4c6	-0.0012580387
92	0xbb719bbf	-0.0036866514
93	0x3cf6d3f5	0.030130366
94	0x3d81c9fb	0.06337353
95	0x3c886fa4	0.016654797
96	0x3d03d02b	0.032180946
97	0xbcb859f2	-0.022503827
98	0xbd4d1cf1	-0.05007643
99	0xbd5f676d	-0.054541994
100	0xbcbd71c1	-0.023125531
101	0xbd1ab013	-0.037765574
102	0xbcb1f88d	-0.021724964
103	0x3c7724c8	0.015084453
104	0xbc870c55	-0.016485373
105	0xbc46785e	-0.012113659
106	0xbc89e1c1	-0.01683128
107	0xbbaa59e9	-0.0051987064
108	0xbc4cf062	-0.012508484
109	0xbc2b573b	-0.010457809
110	0x3c884c50	0.016637951
111	0xb9f05d81	-0.00045846033
112	0xbab00e41	-0.0013431982
113	0x3bb2458d	0.00544042
114	0x39d83e80	0.00041245297
115	0x3c762fe6	0.015026068
116	0xbca683f1	-0.020326586
117	0x3c33c085	0.010971193
118	0xb92bf693	-0.00016399687
119	0x3cce0e6b	0.02515336
120	0x3cbc6780	0.022998571
121	0xbc1f2ef1	-0.009715782
122	0xbb098575	-0.0020984088
123	0xbb2e1c51	-0.002656717
124	0x3b3558f3	0.0027671426
125	0x3c734ce4	0.014849875
126	0x3b9a0886	0.004700723
127	0x37fd65d4	3.0207368e-05
128	0x3c8b4c4d	0.017004156
129	0xbc1ef5f8	-0.009702198
130	0x3c91ec33	0.017812824
131	0xbce6e07f	-0.02818322
132	0xbd0cfcdf	-0.034420844
133	0xbbe96813	-0.0071230023
134	0xbb8a015d	-0.0042115883
135	0xbc856e43	-0.016287928
136	0xbc52f840	-0.01287657
137	0x3cc3a44b	0.023882052
138	0x3c02efbe	0.007991729
139	0x3cb65df0	0.02226159
140	0x3c58dd95	0.013236423
141	0x3c94fc18	0.018186614
142	0x3bb05b77	0.005381997
143	0xbce39ed2	-0.027785692
144	0x3b2d7462	0.0026467075
145	0x3cc2ee9c	0.023795418
146	0x3b8e69f6	0.0043461276
147	0x3a7c661a	0.00096282514
148	0xbb6f5295	-0.0036517729
149	0x3be44401	0.0069661145
150	0x3a28f395	0.0006444988
151	0x3a824a5d	0.0009940375
152	0xbc26285e	-0.01014146
153	0x3c785ff7	0.015159599
154	0x3c473d6d	0.012160641
155	0x3b4e104a	0.0031442815
156	0xbc3a48a3	-0.011369857
157	0xbb99510e	-0.004678852
158	0x3c3fc0a6	0.011703646
159	0x3d95605e	0.07293771
160	0x3d323cb2	0.043514915
161	0x3c99067a	0.018679846
162	0x3cea8a3d	0.02863037
163	0xbb4dc924	-0.0031400407
164	0x3c07e4e7	0.008294321
165	0x3cc050b6	0.023475986
166	0x3d29788b	0.041374724
167	0x3d30c936	0.04316064
168	0xbbf6ea15	-0.007535229
169	0xbc76c4d4	-0.015061576
170	0x3b2f4721	0.0026745277
171	0xbced3838	-0.028957471
172	0xb9fe6d7d	-0.0004852823
173	0xbda643b2	-0.081183806
174	0xbd26a571	-0.04068512
175	0xbcd0c544	-0.025484689
176	0xbd20eb70	-0.03928703
177	0xbcc04204	-0.023468979
178	0xbcc64430	-0.024202436
179	0x3b6ec8fa	0.003643571
180	0x3c0e6ef5	0.008693446
181	0xbce2bcb0	-0.027677864
182	0xbb9c40e6	-0.0047684787
183	0xbc29a4a2	-0.010354193
184	0x3d213b6e	0.039363317
185	0x3ccaeee1	0.02477211
186	0x3c8102bc	0.015748374
187	0xbcc65ca1	-0.02421409
188	0x3bf683ee	0.0075230515
189	0xbcd90689	-0.026492374
190	0xbc9217ef	-0.017833678
191	0xbc7792d5	-0.015110691
192	0xba903cf0	-0.0011004489
193	0x3c07994b	0.008276294
194	0x3c985556	0.018595379
195	0xbb8343e3	-0.0040058955
196	0xbc82991b	-0.015942147
197	0xbcafed3e	-0.02147543
198	0xbc189d04	-0.009314779
199	0xbcb19a90	-0.021680146
200	0xbd3e11cb	-0.046403687
201	0xbd396d24	-0.0452701
202	0xbc83ce35	-0.016089538
203	0x3b2645e7	0.0025371255
204	0xbc58ee3f	-0.013240396
205	0xb98fbcd6	-0.0002741578
206	0xbda67d16	-0.08129327
207	0xbd694868	-0.056953818
208	0xbdb03f1c	-0.08605787
209	0xbc94efb1	-0.0181807
210	0xbccb8306	-0.02484275
211	0xbc46ead5	-0.012140949
212	0xbc5eef1a	-0.013606811
213	0x3ccfa1f0	0.025345773
214	0x3d6879c3	0.056756746
215	0x3d76a8d4	0.0602196
216	0x3c9a6d1c	0.018850856
217	0xbbd6d80f	-0.006556518
218	0xbb4580c0	-0.0030136555
219	0xbce0271e	-0.027362403
220	0xbd52bd77	-0.05145022
221	0xbd10e083	-0.03537036
222	0xbc21aae9	-0.009867408
223	0xbbe3e93c	-0.006955294
224	0x3b681046	0.003541009
225	0xbd0c47f8	-0.034248322
226	0x3c08784f	0.008329465
227	0xbc7743c5	-0.015091841
228	0x3bf3db9d	0.0074419514
229	0x3ca86c55	0.02055947
230	0x3bc33f2c	0.0059584584
231	0x39e0c63f	0.00042872314
232	0xbd6c1b4b	-0.057643216
233	0xbc8a5e39	-0.016890632
234	0xbd12f589	-0.03587869
235	0x3ce61a51	0.02808872
236	0x3bbfde30	0.0058553442
237	0xbb770e2a	-0.0037697651
238	0xbad5c68f	-0.0016309785
239	0x3bab6577	0.0052306014
240	0xbc634eb5	-0.013873746
241	0xbd14e0bf	-0.036347147
242	0xbd091b67	-0.0334734
243	0xbc8e7081	-0.01738763
244	0x3c47dbd5	0.012198408
245	0xbc908d84	-0.017645605
246	0x3ba1cf73	0.00493806
247	0x3b7645b1	0.003757816
248	0xbc8306f5	-0.015994528
249	0x3b5db234	0.0033828141
250	0xbceb2a4a	-0.028706688
251	0xbca584ee	-0.020204987
252	0xbbd15143	-0.006387861
253	0x3cb30dba	0.021857131
254	0x3cdd757d	0.027033562
255	0x3d24843c	0.04016517

tcn.network.0.conv1.bias f4 [16]
0	0x38a5a354	7.898235e-05
1	0xaea2a15a	-7.395569e-11
2	0xb17f0c3c	-3.7114338e-09
3	0x349dd652	2.9399467e-07
4	0xbb8028ba	-0.003911105
5	0x2fa9bb05	3.0873806e-10
6	0x3264c20b	1.3315467e-08
7	0xb783b8a3	-1.5702395e-05
8	0x33bf7c4f	8.916742e-08
9	0x32901690	1.6774067e-08
10	0xb2e6b7a3	-2.6859032e-08
11	0xb0bf1f4f	-1.3905977e-09
12	0xb20deade	-8.260683e-09
13	0xb50f93c0	-5.3486656e-07
14	0x368d6a1e	4.214481e-06
15	0x3bc59eb6	0.0060308827

tcn.network.0.bn1.weight f4 [16]
0	0x3f8a7d41	1.0819474
1	0x3f839ae0	1.0281639
2	0x3f7706cc	0.96494746
3	0x3f832af0	1.0247478
4	0x3f86483c	1.0490794
5	0x3f8440a7	1.033223
6	0x3f807cf3	1.0038131
7	0x3f8bf358	1.0933638
8	0x3f8ac7b1	1.0842191
9	0x3f8c3f68	1.095685
10	0x3f8c0795	1.0939814
11	0x3f8d8ef9	1.1059257
12	0x3f8105f6	1.0079944
13	0x3f878a3c	1.0589061
14	0x3f7e6e37	0.99386925
15	0x3f890d17	1.070712

tcn.network.0.bn1.bias f4 [16]
0	0xbe9e6cbc	-0.30942333
1	0xbec3bf67	-0.38231966
2	0xbe9d3c6d	-0.30710164
3	0xbea6e5b0	-0.32597113
4	0xbe94b243	-0.29042253
5	0xbe940e97	-0.2891738
6	0xbeb03b98	-0.34420466
7	0xbe88847b	-0.26663575
8	0xbe611f44	-0.21984583
9	0xbead624c	-0.33864057
10	0xbeba155e	-0.36344427
11	0xbeca3c3a	-0.39499074
12	0xbe8952a7	-0.2682087
13	0xbeb4afaf	-0.35290286
14	0xbe8d5449	-0.27603367
15	0xbe84a478	-0.2590673

tcn.network.0.bn1.running_mean f4 [16]
0	0xbc2936c1	-0.010327996
1	0xbd9940c2	-0.07483055
2	0xbc970923	-0.018436974
3	0x3b9d7b8d	0.004805988
4	0x3d0e88f4	0.034798577
5	0xbb88d546	-0.004175815
6	0xbd07809a	-0.03308163
7	0xbd60789c	-0.054802522
8	0xbbb6fdcd	-0.0055844546
9	0xbc602837	-0.013681463
10	0x3d3a4442	0.045475252
11	0xbd214a5f	-0.039377566
12	0xbd235a92	-0.039881296
13	0x3c9d3256	0.019189041
14	0xbcaed0ba	-0.021339763
15	0x3d04d04d	0.032425214

tcn.network.0.bn1.running_var f4 [16]
0	0x3eea7e01	0.45799258
1	0x3eb66cff	0.35630032
2	0x3e94a52d	0.2903227
3	0x3ea9e956	0.33185834
4	0x3ea8e669	0.3298829
5	0x3ec898d7	0.39179108
6	0x3ebca581	0.3684502
7	0x3ee0421e	0.43800443
8	0x3ed0105c	0.4063748
9	0x3ec3b53e	0.38224214
10	0x3ecdb56a	0.4017747
11	0x3edb3b9b	0.42818913
12	0x3ebf050d	0.3730854
13	0x3ef1ff88	0.47265267
14	0x3ece09c4	0.40241826
15	0x3ea7d9d9	0.32783392

tcn.network.0.conv2.weight f4 [16, 16, 16]
0	0xbc5c46cb	-0.013444613
1	0x3a9391f8	0.0011258712
2	0xbd00f9f8	-0.03148839
3	0xbd0bd27e	-0.034136288
4	0xbd07426c	-0.03302233
5	0xbb7f16ea	-0.003892357
6	0xbc86e4d6	-0.01646654
7	0xbbcce78f	-0.00625319
8	0xbcca92b4	-0.024728157
9	0xbcab1a84	-0.020886667
10	0xbc670d2d	-0.014102262
11	0xbb86e83f	-0.0041170414
12	0x39ae4436	0.00033238687
13	0x3c5ead10	0.013591066
14	0xbd3e2a3b	-0.046426993
15	0xbcb2b3be	-0.021814223
16	0x3d6b760b	0.05748562
17	0x3d26534e	0.04060679
18	0x3ca53750	0.020167977
19	0x3bc0500f	0.0058689187
20	0x3c15ce65	0.009143447
21	0x3a8d2b52	0.0010770357
22	0x3ca43bd7	0.020048065
23	0x3d10148f	0.035175856
24	0x3d4d780d	0.050163317
25	0x3d298353	0.041385006
26	0x3d9917d3	0.07475247
27	0x3dac7a63	0.08421781
28	0x3c98bf67	0.018645955
29	0x3ca7e02d	0.020492638
30	0xbca65e97	-0.020308776
31	0xbcd64e5f	-0.026160417
32	0x3c22d83d	0.009939251
33	0xbcab46c4	-0.020907767
34	0xbc127376	-0.008938661
35	0xbcc3edcb	-0.0239171
36	0xbc97ce4c	-0.018530987
37	0xbc22eb08	-0.009943731
38	0x3bf3e76c	0.007443359
39	0xbc002a49	-0.007822582
40	0x3cb114f4	0.021616437
41	0x3c35f59c	0.011105921
42	0x3a59b16d	0.00083043316
43	0x3c77e2af	0.015129729
44	0xbbe369a2	-0.0069400826
45	0xbc4a0c09	-0.012331971
46	0xbd1746ef	-0.036932882
47	0xbd252112	-0.04031474
48	0xbbbe2937	-0.005803253
49	0x3c32b7a3	0.01090804
50	0x3ca22823	0.01979453
51	0x3b8268c9	0.0039797765
52	0x3bce06ae	0.0062874174
53	0xbb1d221a	-0.0023976625
54	0xbc503af6	-0.01270937
55	0x3c1f7637	0.009732774
56	0x3c1c4342	0.00953752
57	0xbbdbde60	-0.006709859
58	0xbc637e22	-0.013885053
59	0xbcfc49a8	-0.03079684
60	0xbc6b9c82	-0.014380576
61	0xbb12af6b	-0.002238239
62	0xbc1e0981	-0.009645821
63	0xbc8817f2	-0.01661298
64	0xbb506e41	-0.0031803998
65	0x3a3a28e5	0.00071014307
66	0xbcd87ef4	-0.026427723
67	0x3ba91d05	0.00516093
68	0xbd3948ac	-0.04523532
69	0xbca0ea70	-0.019643039
70	0x3c825a77	0.015912278
71	0xbb0bebc8	-0.0021350253
72	0xbc8cd6bc	-0.017192237
73	0xba06cc81	-0.0005142168
74	0x3d45bccc	0.048275754
75	0xbc4e3ef3	-0.01258825
76	0xbcf6afd4	-0.030113138
77	0xbd337d33	-0.04382057
78	0xbcf85833	-0.030315494
79	0xbd701829	-0.05861679
80	0xbd44ca98	-0.04804477
81	0xbc94ad96	-0.018149178
82	0xbc001e75	-0.0078197615
83	0xb8eb722d	-0.0001122694
84	0x3b68fd9a	0.003555155
85	0x3c98277a	0.018573511
86	0x3b015e53	0.001974006
87	0xbb695b24	-0.0035607303
88	0x3c841c3c	0.016126744
89	0x3cc2a25e	0.023759063
90	0x3c94e735	0.018176654
91	0x3d274702	0.040839203
92	0xbc09a86a	-0.008401969
93	0x3b3cd1df	0.0028811616
94	0xbd5a0955	-0.053231556
95	0xbd86d2f7	-0.06583207
96	0x3cf961be	0.030442115
97	0x3c329238	0.010899119
98	0x3d076629	0.033056412
99	0x3c87b69e	0.01656657
100	0x3cdbf170	0.026848525
101	0x3d09dc3f	0.03365731
102	0x3cb00745	0.021487841
103	0x3d1552fa	0.036456086
104	0x3c852b7f	0.016256092
105	0x3c885935	0.0166441
106	0x3d2077bf	0.0391767
107	0x3ad6e370	0.0016394686
108	0x3d10a1ac	0.035310432
109	0x3d219edf	0.039458152
110	0x3cb92750	0.022601753
111	0xba208141	-0.0006122776
112	0xbb94b645	-0.00453833
113	0xbcbe6808	-0.023242965
114	0xbc05d72b	-0.008168976
115	0xbccdcd7d	-0.025122399
116	0x3c534146	0.01289398
117	0x3c328049	0.010894843
118	0xbc41501a	-0.011798883
119	0x3ca26967	0.01982565
120	0xbc8eac79	-0.017416226
121	0xbce8437e	-0.028352495
122	0xbd2eb1d5	-0.042650063
123	0xbc7d0161	-0.015442223
124	0xbd88856a	-0.06666072
125	0xbd2d14b5	-0.042256076
126	0xbdbd53ef	-0.09244525
127	0xbd6e46d7	-0.058173027
128	0xbcd9ded4	-0.02659551
129	0xbd136b7e	-0.035991184
130	0xbd0da9bc	-0.0345857
131	0xbd29f050	-0.041488945
132	0xbcc4e5cd	-0.024035359
133	0xbd0cf09c	-0.03440915
134	0x3bcbfb24	0.0062250067
135	0xbc05e558	-0.008172356
136	0x3c5d5304	0.013508562
137	0x3c9293d8	0.017892763
138	0xba091d12	-0.0005230467
139	0x3ce0ad37	0.027426345
140	0x3cb2aa5c	0.02180975
141	0xbc06cc07	-0.008227355
142	0xbbe95553	-0.007120767
143	0x3c3c3744	0.011487786
144	0xbc229789	-0.009923824
145	0xbcd09d67	-0.02546568
146	0xbc996969	-0.018727021
147	0xbc071b58	-0.008246265
148	0xbbabd963	-0.0052444204
149	0xbd151640	-0.036398172
150	0xbb574de8	-0.0032852832
151	0xbc940d14	-0.018072642
152	0xbc9dd415	-0.019266168
153	0xbca513ed	-0.020151103
154	0xbcfab63a	-0.03060447
155	0x3c13876f	0.009004458
156	0xbbbed56b	-0.0058237812
157	0xbaad4b47	-0.0013221287
158	0xbc955aa0	-0.01823169
159	0xb94c7d25	-0.00019501576
160	0x3d4063cc	0.046970174
161	0x3d782a8d	0.060587455
162	0x3c098b76	0.0083950665
163	0x3d3f7c21	0.046749238
164	0x3d09ea0c	0.03367047
165	0xbbdb2dc2	-0.0066888044
166	0x3cb16c8c	0.021658204
167	0xbc49fd37	-0.0123284375
168	0xbbb0b621	-0.005392805
169	0xbcc3cf29	-0.023902493
170	0xbce80379	-0.028321968
171	0xbbd1bc6c	-0.0064006355
172	0xbc560cca	-0.013064573
173	0xbbfe2412	-0.0077557648
174	0xbd5ebd37	-0.054379668
175	0xbc9a12c5	-0.018807778
176	0x3cadb3ad	0.02120384
177	0xbbdb72f5	-0.0066970536
178	0xbcf0c893	-0.029392516
179	0xbc8568e2	-0.016285364
180	0xbb06d3d7	-0.0020573044
181	0xbccc5ecd	-0.024947548
182	0xbbd6674c	-0.0065430757
183	0x3beafaa4	0.007170992
184	0xbb957516	-0.004561077
185	0x3a6befc9	0.00090002693
186	0x3d301369	0.04298726
187	0x3c8a5291	0.016885074
188	0x3cedbb4f	0.02901998
189	0x3d469186	0.048478626
190	0x3d526b90	0.05137211
191	0x3dbe2316	0.09284036
192	0x3c97d1b9	0.01853262
193	0x3c1d3ae2	0.009596558
194	0xbbffcd7a	-0.007806477
195	0x3c0a3362	0.008435102
196	0x3b7462aa	0.0037290254
197	0x3baaa403	0.00520754
198	0xbb9e3868	-0.0048285015
199	0xbc8910a6	-0.016731571
200	0x3b109d6e	0.0022066492
201	0xbaf16420	-0.001841668
202	0x3d0aeccd	0.033917237
203	0xb8987303	-7.2693474e-05
204	0x3b42f831	0.0029749984
205	0x3b9d7305	0.004804971
206	0xba9766a9	-0.0011550981
207	0xbc55093b	-0.013002689
208	0x3d25202b	0.04031388
209	0x3cebdaa6	0.028790783
210	0x3d0b4dbb	0.034009676
211	0x3c95a7a5	0.018268416
212	0x38bea2fb	9.0902635e-05
213	0x3bcb864a	0.006211077
214	0xbc1f3dcf	-0.009719326
215	0xbc69a23d	-0.014259872
216	0xbd67b639	-0.056570265
217	0xbc365727	-0.011129177
218	0xbcf7853a	-0.030214895
219	0xbbb91f4a	-0.005649482
220	0x3c5e35ef	0.013562663
221	0x3cf2fbdc	0.029661112
222	0x3d0112c6	0.031512044
223	0x3d96566d	0.07340703
224	0xbcfd735a	-0.030938793
225	0xbcad912c	-0.021187387
226	0xbc86644c	-0.016405247
227	0x3c816cf7	0.015799029
228	0x3c031037	0.007999471
229	0x3cc47d50	0.023985535
230	0xbb2162af	-0.002462547
231	0xbb108655	-0.0022052724
232	0xbbac3a69	-0.0052559865
233	0xbd13e724	-0.036109105
234	0xbc622a5d	-0.0138040455
235	0xbcbb582d	-0.022869194
236	0xbcbc2912	-0.022968803
237	0xbbd14929	-0.006386895
238	0xbd0dd063	-0.03462256
239	0xbd311f27	-0.0432426
240	0xbda88ebd	-0.0823035
241	0xbd158739	-0.03650591
242	0xbd419a90	-0.047266543
243	0xbcd872d9	-0.026421951
244	0xbccd7a68	-0.025082782
245	0xbc2ce602	-0.010552885
246	0xbc3d3e10	-0.011550441
247	0x3caaa1ed	0.020829165
248	0x3b44c703	0.0030025847
249	0xbc98bc33	-0.018644428
250	0xbd2c7d62	-0.042111762
251	0xbda8ad25	-0.0823615
252	0xbd087a3a	-0.03331969
253	0xbd26db85	-0.040736694
254	0xbb71ccf9	-0.0036895855
255	0xbc5d5ea1	-0.013511331

tcn.network.0.conv2.bias f4 [16]
0	0x329f396d	1.853615e-08
1	0x37f51a95	2.9218654e-05
2	0xb3bf0c29	-8.8963425e-08
3	0x3cc31e8b	0.023818275
4	0xb918f6df	-0.00014587816
5	0x36903e43	4.2987826e-06
6	0x388b7012	6.648911e-05
7	0xb5010054	-4.805672e-07
8	0x3cf7a1f4	0.030228592
9	0x3b2d5654	0.002644916
10	0x3327565c	3.896126e-08
11	0xbb717bf0	-0.0036847554
12	0xb83dfddc	-4.5297536e-05
13	0x350d948b	5.274275e-07
14	0xb30bf8e5	-3.2589828e-08
15	0xb682c9d4	-3.897798e-06

tcn.network.0.bn2.weight f4 [16]
0	0x3f800000	1.0
1	0x3f800000	1.0
2	0x3f800000	1.0
3	0x3f800000	1.0
4	0x3f800000	1.0
5	0x3f800000	1.0
6	0x3f800000	1.0
7	0x3f800000	1.0
8	0x3f800000	1.0
9	0x3f800000	1.0
10	0x3f800000	1.0
11	0x3f800000	1.0
12	0x3f800000	1.0
13	0x3f800000	1.0
14	0x3f800000	1.0
15	0x3f800000	1.0

tcn.network.0.bn2.bias f4 [16]
0	0x00000000	0.0
1	0x00000000	0.0
2	0x00000000	0.0
3	0x00000000	0.0
4	0x00000000	0.0
5	0x00000000	0.0
6	0x00000000	0.0
7	0x00000000	0.0
8	0x00000000	0.0
9	0x00000000	0.0
10	0x00000000	0.0
11	0x00000000	0.0
12	0x00000000	0.0
13	0x00000000	0.0
14	0x00000000	0.0
15	0x00000000	0.0

tcn.network.0.bn2.running_mean f4 [16]
0	0x00000000	0.0
1	0x00000000	0.0
2	0x00000000	0.0
3	0x00000000	0.0
4	0x00000000	0.0
5	0x00000000	0.0
6	0x00000000	0.0
7	0x00000000	0.0
8	0x00000000	0.0
9	0x00000000	0.0
10	0x00000000	0.0
11	0x00000000	0.0
12	0x00000000	0.0
13	0x00000000	0.0
14	0x00000000	0.0
15	0x00000000	0.0

tcn.network.0.bn2.running_var f4 [16]
0	0x3f800000	1.0
1	0x3f800000	1.0
2	0x3f800000	1.0
3	0x3f800000	1.0
4	0x3f800000	1.0
5	0x3f800000	1.0
6	0x3f800000	1.0
7	0x3f800000	1.0
8	0x3f800000	1.0
9	0x3f800000	1.0
10	0x3f800000	1.0
11	0x3f800000	1.0
12	0x3f800000	1.0
13	0x3f800000	1.0
14	0x3f800000	1.0
15	0x3f800000	1.0
