model/Benchmark/DTCNet_0.5s_S30.pth (torch, 140855 bytes, 74 tensors)

global_block.conv_time.conv.0.weight f4 [8, 1, 1, 125]
000000 96 da d8 bb 01 ea 8f 3b 84 31 2d bc 5e 67 e6 3b
       -0.0066178543 0.004391909 -0.0105708875 0.0070313653
000010 f8 09 82 bd 52 d8 7c 3c c3 d8 44 bd 86 34 dc 3c
       -0.06349558 0.015432434 -0.048058283 0.026880514
000020 45 6e 11 3d 31 5e e1 bc 76 38 db 3c 94 7d 00 bc
       0.03550555 -0.027510734 0.026760321 -0.00784244
000030 39 5f 12 bc 24 8d 88 bc 30 00 7b bd 03 f9 73 3c
       -0.008933836 -0.016668864 -0.061279476 0.014890912
000040 14 28 7e bd 73 d9 7f bc 9c f9 1a bd d3 84 48 3d
       -0.06204994 -0.015615809 -0.037835702 0.048954796
000050 d6 f7 13 3c 2b 5b 02 bd d4 d5 85 bc 96 1b b1 3c
       0.009031257 -0.031825226 -0.016337313 0.0216196
000060 56 56 c5 3c 3b 1c 21 bc 10 60 af bc bf 51 85 bc
       0.02408902 -0.009833391 -0.02140811 -0.016274331
000070 52 f3 8b 3b 6c 04 d3 bd 1d bb 8e bc b4 f3 f8 bc
       0.0042709494 -0.10303578 -0.017423207 -0.030389644
000080 22 dc f1 3c b9 b3 46 bd 6e fd 7d bc 10 ea ab 3c
       0.029523913 -0.04851124 -0.015502317 0.020985633
000090 af 23 54 3d da d4 77 bc e6 2e 88 3d 2a 31 63 bd
       0.051791843 -0.015126431 0.0664957 -0.05546681
0000a0 7c 52 c8 3c 91 74 61 bd 36 88 cb bc 71 50 73 bc
       0.024453394 -0.055042807 -0.024845224 -0.014850722
0000b0 4a 84 24 bd 00 de 37 3c 32 c1 9a bc 64 91 85 bd
       -0.040165223 0.0112223625 -0.01889095 -0.06521872
0000c0 17 59 0b 3d 01 4a d4 3c 55 78 0e 3d 76 4e 51 3d
       0.03402051 0.025914194 0.034782726 0.051100217
0000d0 df 0f 81 3b 63 a9 fa 3c 87 bd 07 3d 7c fc 43 bd
       0.0039386596 0.030598348 0.03313973 -0.04784821
0000e0 d9 71 82 bd 8f b1 3a bd 09 d4 8f bd 3a 27 c4 bd
       -0.06369371 -0.04557949 -0.07022864 -0.095777944
0000f0 51 d8 57 bd 28 38 6b bb b6 8a dc bc 4b ce 37 bd
       -0.05269653 -0.0035891626 -0.026921611 -0.04487447
000100 a7 31 48 3c 04 65 1f bd c5 12 51 3b 87 97 99 3a
       0.012218869 -0.038914695 0.0031902057 0.0011718132
000110 62 f6 53 3d 6b e8 0d 3d 1e 21 be bc f6 03 0d bd
       0.05174864 0.03464548 -0.02320915 -0.034427606
000120 c5 0a b9 bd f3 91 5a 3d 00 64 6f 3d 0d e7 d5 3b
       -0.09035257 0.053361844 0.058444977 0.0065277875
000130 df 0a af bc 5c cb 8a 3c ce 98 8e 3d 60 8e 57 bd
       -0.021367488 0.016942672 0.06962739 -0.052626014
000140 0c 1e 70 bd dd 04 d7 3c 6d 9d 17 bd f9 7f f0 bc
       -0.058622405 0.026247436 -0.037015367 -0.029357897
000150 de 2f 94 bd 8e 8c c1 3d 2d c2 64 3d 33 d3 e6 bd
       -0.072356924 0.09450637 0.055849243 -0.11270752
000160 a0 77 0d be 17 14 e4 bd ee e5 f0 bd 37 df 08 bd
       -0.13815165 -0.11136644 -0.117626056 -0.033416
000170 27 22 45 bd 77 86 32 bc a1 89 99 3d d6 e6 0c bd
       -0.048128273 -0.010896317 0.07496954 -0.03439983
000180 ae 81 35 bd 68 3b b8 3c f1 fe a6 3d 80 79 0c 3d
       -0.044313125 0.022489265 0.08154095 0.03429556
000190 47 e4 25 3c 9e 9f e4 3d 25 3c bb 3d df a5 a1 3c
       0.010125226 0.11163257 0.09142331 0.019732414
0001a0 dd e0 b8 3d 3a 10 e5 3d 60 94 60 3c b0 8c ec bd
       0.09027264 0.111847356 0.01370725 -0.115502715
0001b0 5d 08 0b be ba 01 09 be 4e 9e 57 bd 29 6c 44 bd
       -0.13577409 -0.13379565 -0.052641205 -0.047954712
0001c0 c5 0d 13 bd b7 5c 80 bc a1 55 da 3d e1 6c 07 3e
       -0.035901804 -0.01566921 0.10660864 0.13225128
0001d0 fe 97 c8 bb 33 45 b0 bd e2 ab 83 bc 4e f4 02 bd
       -0.0061216345 -0.08606949 -0.016073171 -0.03197127
0001e0 e1 b8 f2 bd 16 97 ff bc 8d 02 b2 3d eb 76 9a bb
       -0.11851669 -0.031199973 0.08691893 -0.004713883
0001f0 36 b2 8d bb a0 01 0c 3e 5a 97 bc bc 3d a5 6f bd
       -0.004324223 0.13672495 -0.023021389 -0.058507193
000200 72 d2 a6 3d c6 19 17 3c 14 15 2e 3d 9e 0b 68 bc
       0.08145608 0.009222453 0.04250057 -0.014162926
000210 33 f8 1b bc 61 dc be bd 44 3b ad bd 5c 1a 1b bc
       -0.0095196245 -0.09319378 -0.0845857 -0.009466734
000220 a0 10 cf 3c 03 e5 67 3b e1 ba 5b 3c ec a9 8b 3c
       0.025276482 0.0035384304 0.013411255 0.017048799
000230 83 4f ca bd 93 8b 49 3d 5b f4 22 bb f5 67 a4 bc
       -0.09878447 0.049205374 -0.0024864885 -0.020069102
000240 46 93 b0 3c be 7c 74 bd c8 3f b8 bc 81 99 50 3d
       0.0215546 -0.059689276 -0.02249135 0.050927643
000250 98 e7 91 3d 6a 79 3c 3c dd 5a 6b bd 6e ed b0 3a
       0.07124251 0.011503557 -0.0574597 0.0013498494
000260 22 2d bd 3c a5 82 61 3d 26 8d 71 bd a8 21 11 3d
       0.02309281 0.055056233 -0.0589725 0.035432488
000270 00 ce 17 3d 14 e5 00 bd 17 d7 fe bc 83 3d c6 bc
       0.03706169 -0.031468466 -0.031108422 -0.024199253
000280 13 c4 c0 3c 0c c1 5e 3b 1d c9 d3 bc fb 7c 12 bd
       0.023530995 0.0033989577 -0.025852734 -0.035763722
000290 16 6e 13 bd fb f5 f1 bc ab bd 89 bd 69 37 8f bd
       -0.035993658 -0.029536238 -0.067256294 -0.069929905
0002a0 d0 cf 93 3d f3 d0 ad 3d 46 0d 86 bc d3 ab f3 bd
       0.072173715 0.084871195 -0.016363751 -0.11898007
0002b0 65 df dd 3c b8 73 79 3d 5d 6c 2d 3d 3c eb 82 3d
       0.027084062 0.060901374 0.04233967 0.06392524
0002c0 0d fc f7 bc 2a ac c6 bb 39 e2 8c bc 12 24 9a 3b
       -0.030271554 -0.006063004 -0.017197715 0.004704007
0002d0 a7 da 80 bd 96 4c 35 3d 90 03 05 bd 66 5e f7 3c
       -0.062917046 0.04426249 -0.0324741 0.03019638
0002e0 00 a9 9d bc 19 15 92 3c e6 34 a5 bc 4b 49 e4 bd
       -0.019245625 0.017832326 -0.020166826 -0.11146792
0002f0 d5 b0 c4 3c 1c 71 6e bb 14 cf c6 3d aa 96 03 bd
       0.024010101 -0.0036383336 0.09707466 -0.032126106
000300 be a3 9d bd dc 52 a6 bd 90 f5 45 3d 57 74 d7 3d
       -0.07697247 -0.08121273 0.04832989 0.10520237
000310 42 21 7e 3d e9 89 72 3c ce f8 09 bd 69 15 f2 3c
       0.062043436 0.014803388 -0.033684544 0.029551225
000320 e3 d3 e1 bc cc 8d 75 3d ed 9d ea bc 7f 77 c1 3d
       -0.027566856 0.05994968 -0.028639758 0.0944662
000330 bd 6b c4 3d 77 b5 1a 3c 07 e2 83 bc 6b b8 70 3c
       0.09590862 0.009442679 -0.01609899 0.014692406
000340 08 83 25 bd 58 a2 23 bd 97 1f 4d bc 72 2b 21 3c
       -0.040408164 -0.039949745 -0.012519739 0.009837018
000350 1f 6b 83 3d 42 2b fd 3c d1 d5 13 be 8d 64 b9 bd
       0.06416916 0.030904416 -0.14437033 -0.09052382
000360 30 40 27 bc 72 88 5c 3c 7f 1b 9f bd af 9a 1a bd
       -0.010208175 0.0134602655 -0.07768916 -0.037745174
000370 19 1a f1 ba 90 7f 64 3b 69 41 04 3c 3d f3 ce bc
       -0.0018394619 0.0034866072 0.008072236 -0.02526247
000380 13 27 a6 bd aa 75 0d 3e 08 be 01 3e e7 a0 ac 3d
       -0.081129216 0.13814417 0.12670147 0.08429127
000390 bb 3a b0 bd b5 09 2a bd a0 bf 6f 3d 9a ba 77 bd
       -0.08604952 -0.041513164 0.058532357 -0.06048069
0003a0 20 35 65 bd 6d 4a f8 3c cb bc 44 bb dd 47 9e bd
       -0.055958867 0.030308926 -0.0030019756 -0.077285506
0003b0 d3 f3 e7 3d d3 00 a2 3d f3 99 d1 3d ce c8 81 bd
       0.11325803 0.079103135 0.102344416 -0.063371286
0003c0 64 fd db bd 60 1a 44 bd 69 ea d5 3c 8c de 11 bd
       -0.1074169 -0.047876716 0.026112752 -0.035612628
0003d0 96 77 f6 bc d2 26 ed bd 33 0e 9f bd d4 47 c6 bc
       -0.03008632 -0.1157967 -0.0776638 -0.024204172
0003e0 de c5 27 bd dc ec 0f be 98 fc d4 3b a9 94 e3 bc
       -0.040960185 -0.14055198 0.006499838 -0.027780848
0003f0 47 8d 07 3d a4 75 08 3d d9 65 e4 bc 61 cc 0f 3d
       0.033093717 0.033315316 -0.027880596 0.03510702

global_block.conv_time.conv.0.bias f4 [8]
000000 6d ac 58 bb 83 c8 95 3b ab e5 14 38 ba 9d 71 3c
       -0.0033061758 0.004571022 3.5499845e-05 0.014747078
000010 2d 5e 0d bc ed 18 bb bb ca 96 e2 b1 67 29 f7 31
       -0.00862841 -0.0057097585 -6.5946084e-09 7.193353e-09

global_block.conv_time.conv.1.weight f4 [8]
000000 e5 82 69 3f b7 cd 62 3f af 48 74 3f 6c 69 77 3f
       0.91215354 0.88595146 0.95423406 0.96645236
000010 93 d5 63 3f db 44 6b 3f 8f 76 56 3f b5 4a 79 3f
       0.88997763 0.9190194 0.83774656 0.9737962

global_block.conv_time.conv.1.bias f4 [8]
000000 ad ef 92 3d f7 04 8c 3d a5 1f 67 3d 89 70 05 bd
       0.07174621 0.068368845 0.056426663 -0.032578025
000010 a0 6c da 3d 84 8f 2c bd cf 66 12 3e a8 32 50 be
       0.1066525 -0.042129055 0.14297031 -0.20331824

global_block.conv_time.conv.1.running_mean f4 [8]
000000 d3 51 5f bd 6a d2 1c 3c 89 88 8d 3d 81 21 56 3d
       -0.054521393 0.009571651 0.06910808 0.052278046
000010 af bd 69 bd 17 f9 29 bd ec 3a ff 3c 05 41 94 bd
       -0.057065662 -0.041497316 0.031156026 -0.07238964

global_block.conv_time.conv.1.running_var f4 [8]
000000 8d 7a 50 41 b1 fc 0b 41 62 90 13 41 f8 7f 22 41
       13.02992 8.749192 9.22275 10.156242
000010 2e b3 22 41 21 42 3b 41 c4 db 29 41 60 fd 0e 41
       10.168745 11.703645 10.616154 8.936859

global_block.conv_chan.conv.0.weight f4 [8, 8, 11, 1]
000000 f2 ce 7f bd 7a 31 dd 3c 98 28 87 3b 68 6e 1b bd
       -0.062453218 0.027001131 0.004124712 -0.03794709
000010 62 cf db 3d ed ec 29 3d 74 c1 12 bb 07 71 3b bd
       0.107329145 0.041485716 -0.002239314 -0.04576209
000020 e7 df a2 3d 2c bd a5 bd 69 55 72 3d d7 e0 d4 3d
       0.07952862 -0.08092722 0.059163485 0.10394447
000030 68 ab bb bd 5c 2e 26 3c f1 83 c7 3d 32 70 56 3d
       -0.091635525 0.010142889 0.09741963 0.05235309
000040 8e c0 94 ba 69 08 8d bd 4d d8 01 be 90 ee 0e 3e
       -0.001134889 -0.0688637 -0.12680168 0.13958192
000050 bb 6a 7e bd c0 a4 83 3c 9a e6 d8 bd 50 b5 8e bc
       -0.062113505 0.01606977 -0.10590859 -0.01742044
000060 13 fd 1a 3e 82 4d 25 be 87 d1 ae bc d7 82 fb 3c
       0.15135603 -0.16142848 -0.021340145 0.030702038
000070 1d 26 04 3e 68 01 0b bd 26 70 ab 3c 9c 90 99 bb
       0.12905164 -0.033936888 0.0209275 -0.0046864282
000080 0e 5f 3c bd f6 f2 f7 3d 85 ec 22 3d e6 18 26 bd
       -0.04598909 0.12106888 0.039776344 -0.04055109
000090 55 b0 27 3c 25 d2 0c 3d b1 b0 a0 3c 1a 72 8a bd
       0.010234912 0.034380097 0.019615503 -0.067600444
0000a0 5f 9e 2e be 77 12 90 bd dc 91 4d 3d a9 c5 9a 3c
       -0.17052601 -0.07034772 0.05018793 0.01889308
0000b0 09 b9 c1 bd 78 04 51 bd 66 f1 90 bd aa 2a ea bb
       -0.09459121 -0.051029652 -0.07077293 -0.0071461992
0000c0 66 ac 15 bd 45 29 3e 3c e0 1e 02 3e 1f 70 c5 3d
       -0.036541365 0.011606519 0.1270709 0.09640526
0000d0 2d 11 fa 3d e3 8a 7e 3c d0 ff 38 bd a3 b0 0e 3c
       0.12210307 0.015536043 -0.045165837 0.008709106
0000e0 38 ff c1 bb 20 84 89 3d c5 5f 80 bd c7 5b 2e be
       -0.005920317 0.06714654 -0.062682666 -0.17027198
0000f0 20 59 a9 3d 1b 05 a3 3d cd a5 11 3e af 7b 6a bd
       0.08268952 0.07959958 0.14223404 -0.05724686
000100 ba 1c 23 3d e1 5c 2e bd 56 8d af 3d 05 df c4 bc
       0.039822318 -0.042569045 0.085718796 -0.024032125
000110 d7 01 df bc 5e 35 6c 3d 9d 22 f0 bb d1 fe 36 bd
       -0.027222557 0.057668082 -0.007328345 -0.044676606
000120 53 75 43 3d 34 03 2f 3c 47 6f 22 3d 11 4e 3c 3d
       0.04771931 0.010681916 0.039656904 0.045972887
000130 49 98 ab bc e3 2e 80 bd 22 05 de bd 13 4f 97 bd
       -0.020946639 -0.06258943 -0.10840823 -0.07388129
000140 f8 6e 0d bd b3 ba 87 3c 2c 6c 0e 3e 30 b5 f5 b9
       -0.034529656 0.016568517 0.13908452 -0.00046865037
000150 8b 35 a1 3b f4 d3 b8 3d ef 04 2d bc 0d a9 7b 3d
       0.004919713 0.09024802 -0.010560258 0.061440516
000160 fa 70 54 3d 31 cd fa bd 0a a3 23 bd 62 f1 53 3d
       0.051865555 -0.122461684 -0.039950408 0.051743872
000170 03 1c 7f 3d 73 ea 3c bd e6 0a be bc 35 4c 96 ba
       0.062282573 -0.046122026 -0.023198556 -0.0011466803
000180 f8 e1 55 3d 5e 29 85 3d 51 b3 11 bd 2c 3c 91 3d
       0.052217454 0.06502031 -0.0355714 0.07091555
000190 ec 80 f3 bd 0a bb c2 3c 0d 8a 13 bd 9a f0 ca 3d
       -0.11889824 0.023770828 -0.036020327 0.09909172
0001a0 27 0b a3 bd 5b 3b c2 bd 8f 87 ce 3d ae 76 91 3d
       -0.079611115 -0.094839774 0.100844495 0.071027145
0001b0 f6 66 e4 bc 9a d7 2c 3b f2 f5 17 3e 2c 11 d2 bd
       -0.027881127 0.0026373626 0.14839914 -0.102571815
0001c0 07 b3 a6 3c 44 14 83 3d 21 e2 27 3c 62 64 06 bd
       0.020349039 0.0640035 0.010246784 -0.032810576
0001d0 53 da 25 be 08 eb ec bd 03 0a 56 bd 89 55 a3 ba
       -0.16196565 -0.11568266 -0.05225564 -0.0012461405
0001e0 67 7b 90 3d 49 34 42 bc b5 5c 9d 3c 7f 4c a7 bb
       0.07054787 -0.011853286 0.019209245 -0.0051055546
0001f0 10 41 db bd 46 7f 9c 3c 81 14 8c bd 44 74 69 3d
       -0.10705769 0.019103657 -0.06839848 0.056995645
000200 9a f2 67 3e 45 ad 26 3e 17 59 8b bd 31 f7 2d be
       0.22651139 0.16277035 -0.06804102 -0.16988827
000210 3d e7 7b 3d 99 bc 7d 3d cd cc 8e 3c f9 ee 88 bd
       0.061499823 0.06194744 0.017431641 -0.066862054
000220 7e 5f f7 bc 5b 19 a5 bd f4 b6 51 3d e9 35 10 bc
       -0.030196901 -0.08061477 0.05119987 -0.008801916
000230 2a 79 11 3d 3a 08 29 bd 95 42 29 bd 1b b9 3e bd
       0.03551594 -0.04126761 -0.041323263 -0.04656325
000240 d2 a8 14 3e 87 ac f6 3c 03 09 8b bd 67 e7 c9 bd
       0.14517525 0.030111564 -0.06788828 -0.098585896
000250 c7 ff 26 3d 2f 5f 15 3e 6e 0f f0 3c 34 2b e4 bd
       0.040771272 0.14587091 0.029304232 -0.11141053
000260 e7 e0 98 bd 6d 7a 70 3d 93 0d 27 bd cd fe b0 bd
       -0.07464772 0.058710504 -0.04078443 -0.086423494
000270 a9 e3 29 bd 5a 8e fe 3d 1e e5 b4 3d 02 6b dd bb
       -0.04147688 0.12429495 0.08832763 -0.006757141
000280 fd 0c a4 bd b2 ac 2f bd 65 98 73 b9 16 f7 f2 bc
       -0.0801029 -0.042889304 -0.00023231057 -0.029658835
000290 30 10 bd 3d 20 dc 54 3d c1 73 11 3d 02 91 19 3c
       0.09231603 0.05196774 0.035510782 0.009372951
0002a0 a9 f9 2a bd cd 21 9e bd 5d 2c 89 bb 80 16 6d bc
       -0.041742 -0.07721291 -0.0041861967 -0.014470696
0002b0 f2 6c a6 3c 4b 54 f4 bc 23 49 82 bd 92 4f 22 bc
       0.020315621 -0.02982535 -0.06361606 -0.009906666
0002c0 2e 27 33 bd 5c c6 10 be 62 b7 07 be 1c 81 68 3d
       -0.043738537 -0.14138168 -0.13253549 0.056763753
0002d0 1f a8 d9 3d f2 fd 69 3d cc 11 bc bd f7 3e 5b 3d
       0.1062777 0.057126947 -0.09183082 0.053526845
0002e0 ca 18 73 3d c7 54 31 3d 72 d4 6f 3d c3 f4 b8 bd
       0.059349813 0.04329374 0.058552213 -0.090310596
0002f0 7e 14 0d be 4f 9d 39 bd a4 f5 48 bd 55 be c1 3d
       -0.13777348 -0.045316037 -0.049062386 0.09460131
000300 cc 3f 1b bd e1 27 bc 3c 06 fa a2 3d 71 8b ae 3d
       -0.03790264 0.022968234 0.079578444 0.0852269
000310 c0 dd 0f bd 49 36 9f 3d 64 ff ec bc 87 24 26 3e
       -0.035123587 0.07774026 -0.028930373 0.16224872
000320 35 f4 ea bb 37 c8 05 be 86 ca b2 bd 17 78 70 bd
       -0.007170225 -0.13064657 -0.087300345 -0.058708277
000330 da c4 e2 bb bc ba ef 3d df 44 46 3d 32 84 7e bc
       -0.006920439 0.11705539 0.048405524 -0.0155344475
000340 4e 19 0e bd 59 bc dc bc 23 70 be 3d 3d 30 27 bc
       -0.0346921 -0.02694528 0.09298732 -0.010204372
000350 8f 30 55 bd 02 d3 e5 bb 29 96 2c bd 14 c1 9c 3d
       -0.052048262 -0.0070136795 -0.04213539 0.07654014
000360 46 d8 1b 3e 34 ab 30 3d 3b 76 39 bd b9 1a c3 bd
       0.1521922 0.043132022 -0.04527877 -0.09526581
000370 be 4b 8f bd fa e1 4c be 7d 1c e6 bc 9e 89 3c 3d
       -0.069968686 -0.20008078 -0.028089756 0.04602968
000380 9c 27 54 3d 99 12 ad 3d f9 02 69 bc e5 91 85 3d
       0.051795587 0.08450813 -0.0142219 0.06521968
000390 c3 98 4e bc 60 37 b3 bb 01 f8 2c 3d f8 de 4c bc
       -0.012609663 -0.0054692477 0.042228702 -0.012504332
0003a0 33 8c 58 bd 36 ea ae bd b9 6e f8 3d f1 86 ca bc
       -0.05286808 -0.08540766 0.12130494 -0.024722548
0003b0 35 06 af 3d 98 b8 a4 bd 5b d7 40 bd af 17 4d bd
       0.08546106 -0.08043021 -0.04708038 -0.050071415
0003c0 a2 93 d5 3d 8f 2c ae bb 06 fb 5f bd f2 2d 23 3e
       0.10428549 -0.0053153704 -0.054682754 0.15935495
0003d0 1f 34 54 bd 26 b2 8b bb fb 29 b6 bd c7 43 5d bd
       -0.05180752 -0.0042631803 -0.08894726 -0.054019716
0003e0 50 4e 59 3d 90 22 5c bd e8 dc ca 3c 7f 3e 51 bc
       0.0530532 -0.0537439 0.02476354 -0.012771248
0003f0 8e 99 37 bd c3 b8 f8 bd 46 dd 0c be 09 18 a0 bd
       -0.044824176 -0.121446155 -0.13756284 -0.07817084

global_block.conv_chan.conv.0.bias f4 [8]
000000 29 91 ae 3b 93 e4 d7 3a 2b 8c ad bb c0 c9 1f bc
       0.005327363 0.0016471319 -0.0052962503 -0.009752691
000010 86 39 85 3d e7 6d a3 bc 02 1b bd 36 5c 65 b9 32
       0.06505112 -0.019949866 5.635783e-06 2.1582927e-08

global_block.conv_chan.conv.1.weight f4 [8]
000000 6e d0 6b 3f 54 f5 82 3f ce 88 8b 3f 42 31 56 3f
       0.92114913 1.0231118 1.0901124 0.8366891
000010 72 df 71 3f 79 fa 75 3f 7e b1 77 3f 79 0a 83 3f
       0.94481575 0.96085316 0.96755207 1.0237571

global_block.conv_chan.conv.1.bias f4 [8]
000000 21 25 8f be a2 1e 64 bd 93 4b 4e be 87 fb 88 be
       -0.27958015 -0.055693276 -0.20146017 -0.267544
000010 b1 87 a9 bd 04 be 5d be 39 eb 65 be af 1c b2 bd
       -0.08277834 -0.21654516 -0.22453012 -0.08696877

global_block.conv_chan.conv.1.running_mean f4 [8]
000000 0e 64 b0 3d 42 e2 de 3a d6 06 05 be 8c aa c7 bd
       0.08612834 0.0017004686 -0.12990889 -0.09749326
000010 a3 ae b0 3d fc 54 f5 bc ae b6 a2 bd 0d 7d b7 3b
       0.08627059 -0.02994775 -0.07945 0.005599624

global_block.conv_chan.conv.1.running_var f4 [8]
000000 56 a1 45 3d 8c 17 99 3d 01 81 08 3e 53 a9 bc 3d
       0.048249565 0.07475194 0.13330461 0.092119835
000010 d8 17 75 3d 89 89 9e 3d 2b 73 8f 3d 8d 87 b1 3d
       0.059837192 0.077410765 0.070043884 0.086684324

local_block.conv_time.conv.0.weight f4 [8, 1, 1, 51]
000000 b0 ff c6 bc 80 62 fb bc c6 6b 93 bd 63 9c ac bc
       -0.024291843 -0.030686617 -0.071982905 -0.021070665
000010 c3 4e 8e 3c d8 a2 b1 bd 0d a1 a6 3b df b4 90 bd
       0.01737154 -0.08673638 0.0050851167 -0.070657484
000020 fb 64 d1 3d f0 cd 86 3d 6d f0 1f 3d f1 47 a9 3d
       0.102243386 0.06582248 0.039047647 0.08265675
000030 18 07 0b 3e b4 9b ea bd 5f cb 8b bd e9 94 f8 bd
       0.13576925 -0.11455479 -0.06825899 -0.12137777
000040 7c e8 47 bd 36 5d 2d 3e e3 05 21 3e 5b d6 80 3d
       -0.0488057 0.16930088 0.15724902 0.06290885
000050 59 12 ab bd 1e 8c 6f bd 84 18 0d be 75 00 8c bd
       -0.08353109 -0.058483236 -0.13778883 -0.06836025
000060 d6 ab 45 3d cb 40 ac 3d 72 6d 6e bd 7a 22 8f bd
       0.04825958 0.08410796 -0.058209844 -0.06988998
000070 6a 78 48 3d c9 4a 0c 3e 18 fe bd 3d f6 70 dc 3d
       0.04894296 0.13700403 0.0927698 0.10763733
000080 18 14 9c bb 44 1a 15 be 56 a6 93 3d 50 dd 52 3d
       -0.0047631375 -0.14560801 0.072094604 0.05148059
000090 7f 3a 42 bd 4f a2 0d be e0 e0 c9 3c 1e 90 c5 3c
       -0.047419067 -0.13831447 0.024643362 0.024116572
0000a0 3b c8 e3 bc fb b9 0f be 84 2d e5 3d d2 02 df 3d
       -0.027805438 -0.1403579 0.11190322 0.1088921
0000b0 ec 85 93 3c b6 fb c6 bd 22 bd 02 bd aa 52 6d bd
       0.018008195 -0.09715979 -0.031918652 -0.057940163
0000c0 9d 7a b3 3b 77 a6 c7 3d 53 b8 8f bd 4a b9 75 3c
       0.005477263 0.097485475 -0.07017579 0.01499779
0000d0 1f 44 a6 bd 98 1b 40 bd 5e a9 6d bd 1f 83 a0 3c
       -0.08118462 -0.046901315 -0.05802285 0.019593773
0000e0 7a 0a d7 bc b7 f5 1d bd b1 b0 ed 3b e7 19 09 be
       -0.026250113 -0.03856441 0.0072537293 -0.13388787
0000f0 16 b3 13 3d ca 19 8a bd 1e ed cf 3d a2 55 98 3d
       0.03605946 -0.067432 0.101526484 0.07438208
000100 79 86 e8 3c 70 a6 44 3d b8 0e 0b 3d 02 4f d8 3d
       0.028384434 0.04801029 0.033949584 0.105619445
000110 fc 24 89 3d 6a 3b 2d 3d 3f d8 64 bd 71 84 f2 bd
       0.06696507 0.04229299 -0.05587029 -0.118416674
000120 a9 7d 51 3d cc a5 bc bd 6f 9f 00 bd 88 97 c3 3d
       0.05114523 -0.09211311 -0.031402048 0.09550387
000130 a1 fa 47 bd 8c 79 b4 bc 2c 10 3a 3d a0 a3 ae 3d
       -0.048823003 -0.022030614 0.04542558 0.08527303
000140 1a 62 3c 3d cb bb ec bb 7b ab a4 3d 27 1e d6 bc
       0.045991994 -0.007224535 0.0804052 -0.026137425
000150 2b 90 59 3d a6 5e 01 3e af fc 17 bd 24 f5 63 3b
       0.053116005 0.12633762 -0.037106212 0.0034783566
000160 ea f6 4f 3c b6 43 f8 3d ae 46 12 3e 19 34 a8 3d
       0.012693146 0.1212229 0.14284775 0.08213062
000170 8a 10 15 3d b8 43 db bd 3a a6 fc bd e8 d9 b8 bd
       0.036392726 -0.10706276 -0.12336393 -0.09025937
000180 e2 5a 10 3d a2 d7 99 bd 6a 98 74 3b 7d e6 4a bd
       0.035242923 -0.07511832 0.0037322291 -0.049536217
000190 a9 72 bf 3c 5d 3e 0d be 4b 61 b4 3b db 21 ea bd
       0.023370104 -0.13793321 0.0055047623 -0.11432239
0001a0 e0 49 a6 3d d9 bf 94 bd ed 58 8d bd e6 7d 96 3d
       0.08119559 -0.072631545 -0.06901727 0.07348232
0001b0 f6 f9 b0 3d 4b 7e 31 3d 58 ea bb 3d c3 9a 2f bd
       0.08641426 0.043333333 0.09175557 -0.0428722
0001c0 38 36 9a 3d 0b e5 29 bc ee 9a 72 bd 79 0d 44 bd
       0.07529873 -0.0103695495 -0.059229784 -0.04786441
0001d0 d7 3b 1f bd ba 21 12 3d d6 e1 08 3d e5 90 27 bd
       -0.038875427 0.035676695 0.0334185 -0.040909667
0001e0 b7 a5 36 be da 8a b2 3d 1f a1 1b 3e 89 ee 1c 3d
       -0.17836653 0.0871789 0.15198182 0.038313422
0001f0 ef 1d 93 3c 04 97 01 be 1d d3 29 bd 46 11 8e bd
       0.01795861 -0.12655264 -0.0414611 -0.069368884
000200 61 26 07 3d d3 1d 85 bd 22 90 40 bd 3e 48 ab 3d
       0.032995585 -0.06499829 -0.047012456 0.083633885
000210 0b 9a ba ba e3 fd dc bd 0f 1f 07 bd f6 c9 4b bd
       -0.0014236582 -0.107906125 -0.032988604 -0.04975315
000220 2e dd 7f 3d 9b 27 af bd 86 fb 69 bd ea 34 34 3d
       0.062466793 -0.08552476 -0.057124637 0.043995775
000230 a7 5d 66 bd eb 0a de 3d f5 d7 fa 3d 54 65 15 be
       -0.056241658 0.10841926 0.12248222 -0.14589435
000240 0f 26 65 be 31 65 09 3d 36 c8 5d bd c4 74 14 be
       -0.223778 0.03354377 -0.054146014 -0.14497668
000250 ef 84 fd bd ea 91 2c 3e e9 8f 2e 3e 31 9b 92 bd
       -0.12378871 0.16852537 0.17047085 -0.07158507
000260 7c 38 c6 bb c7 c4 bb 3a 58 c6 6d 3b 3f c7 39 bc
       -0.006049214 0.0014325612 0.0036281552 -0.011339008
000270 4e a6 a9 bc 59 ab 02 bd 33 92 ab bd c2 21 56 bc
       -0.020709183 -0.03190169 -0.08377495 -0.013069572
000280 af 84 0e bd 8c b3 47 3d af 78 87 bd a5 d3 52 3d
       -0.034794506 0.048755214 -0.066148154 0.05147137
000290 a5 0e a5 3d f4 8f 15 be b6 62 b6 bc 70 3c 11 3e
       0.08059434 -0.14605695 -0.022263866 0.14183211
0002a0 52 fa 16 bd 49 87 d4 3c 19 05 3f bd 3b 32 8b bd
       -0.036859818 0.025943415 -0.04663572 -0.0679669
0002b0 2f b0 03 3d 03 86 5d bc 63 82 9a bd c1 94 c4 3c
       0.032150444 -0.01352072 -0.075444005 0.023996713
0002c0 e9 85 bf bd 6d 40 c7 bd d8 29 ba bd 87 da ac bd
       -0.09351713 -0.09729085 -0.09090012 -0.08440118
0002d0 cd 77 da bc 3e aa 02 3c 0e 22 4a 3e c7 bc 97 3c
       -0.026668454 0.007975159 0.19739553 0.018522633
0002e0 37 09 f3 3c d3 2e 4f be 8c 41 9c 3c 5b f7 be 3d
       0.02966748 -0.20232706 0.019074224 0.09324523
0002f0 a3 0e 1a bd cb b1 a8 bd 28 3f 95 3d 95 6f 2e bc
       -0.037611615 -0.08237036 0.07287437 -0.01064672
000300 10 b8 05 be 28 13 ec bd 28 ae ce 3d 5c a7 bf bd
       -0.13058496 -0.11527091 0.100918114 -0.09358093
000310 15 a0 02 3b 9b 1c ee bd c3 03 01 be ae fe 15 3d
       0.0019931842 -0.1162655 -0.12599091 0.036619835
000320 dd 2f 3d bd 2e a7 03 3e 68 4a 7c 3c 87 ee 07 3e
       -0.046188224 0.12856743 0.015398599 0.13274585
000330 93 5e 99 bd 5d 14 bb 3d b9 52 fa bd ae 78 8c bd
       -0.07488742 0.09134743 -0.12222809 -0.06858955
000340 fe 64 85 bc 00 f7 d7 bd 9a 8c 2b bb 20 6f 56 bd
       -0.016283508 -0.105451584 -0.0026176334 -0.05235207
000350 f3 da c5 3d f5 d1 9d 3d 31 6e 94 bd 8d c6 56 bd
       0.09660902 0.07706062 -0.0724758 -0.052435447
000360 07 8b 60 bd 33 23 9e 3d 9c 90 05 3d 59 8e 2d bd
       -0.054820087 0.077215575 0.032608613 -0.04237208
000370 03 ad ba 3d e8 d4 c4 bd 8f 24 ba 3c 83 ff 25 3d
       0.091150306 -0.09610921 0.02272251 0.040526878
000380 af fe 24 be 80 0c 27 bd f5 5f 99 3d 64 d4 64 bc
       -0.16112779 -0.040783405 0.074890055 -0.0139666535
000390 6a 61 0f bd df a5 50 3d 8d a6 de 3d 3f fc 34 bd
       -0.03500501 0.050939437 0.10871611 -0.044185873
0003a0 8c 49 08 be e6 ba bd bd d4 51 76 bd f8 86 d3 bc
       -0.13309306 -0.09264164 -0.06013663 -0.025821194
0003b0 37 fc ba 3c 42 c9 bb 3d 17 ef 83 bd 52 89 9f bd
       0.022825344 0.09169246 -0.06442087 -0.07789864
0003c0 f5 3b e3 3d 14 a1 be bd 9f ad 0d be 50 0b 20 3d
       0.1109542 -0.09308067 -0.13835762 0.03907329
0003d0 a3 11 c4 bd ad 1b 48 bd 90 92 70 3e 46 49 65 3e
       -0.095736764 -0.04885452 0.23493409 0.22391233
0003e0 09 96 8d bd f9 b2 ac bc a0 43 84 bd 2e 12 a7 bb
       -0.069133826 -0.021081435 -0.06458211 -0.0050986027
0003f0 40 96 f5 bd 6f 95 b0 bd fe 33 5f bd 95 6c fc bc
       -0.119915485 -0.08622252 -0.054492943 -0.030813495

local_block.conv_time.conv.0.bias f4 [8]
000000 1d b3 03 3c 91 c3 2b bd df 50 9c 3c 74 8f ba 3a
       0.008038309 -0.041934554 0.019081531 0.0014233426
000010 37 e3 b3 3b 0b 9c a2 3c c1 ca cd 3c 1a ed a4 3c
       0.0054897326 0.019849798 0.025121095 0.02013259

local_block.conv_time.conv.1.weight f4 [8]
000000 90 f3 60 3f 12 57 6c 3f 0a 35 4f 3f ae 3b 5f 3f
       0.87871647 0.9232036 0.80940306 0.8720044
000010 6b f4 6d 3f dc 69 8a 3f bf 82 51 3f 51 84 6a 3f
       0.9295108 1.0813556 0.8184013 0.9160815

local_block.conv_time.conv.1.bias f4 [8]
000000 63 7c 39 bd 22 85 2f be ac 80 74 3d 56 66 0f 3e
       -0.04528464 -0.1714063 0.059693024 0.14003882
000010 3c a2 8c 3d 3d 79 75 bd f2 be 4b 3e 05 ce 0a 3d
       0.06866881 -0.059930075 0.19897059 0.03388788

local_block.conv_time.conv.1.running_mean f4 [8]
000000 cd 71 a3 3c e6 77 6e 3c 6b 66 dd bc f2 f5 89 bd
       0.019951725 0.014554953 -0.027026376 -0.067363635
000010 bf d0 ea bc 4c 46 92 3d 40 7f df 3d bb f7 93 b7
       -0.028663991 0.07142314 0.10912943 -1.7639124e-05

local_block.conv_time.conv.1.running_var f4 [8]
000000 90 f0 f0 40 50 b1 1d 41 90 81 cf 40 ab 48 c8 40
       7.5293655 9.855789 6.4845657 6.2588706
000010 b2 6b e0 40 4f 2a c4 40 d3 84 da 40 62 0e 05 41
       7.0131464 6.1301646 6.828714 8.316011

local_block.conv_chan.conv.0.weight f4 [8, 8, 11, 1]
000000 19 d0 51 bd 6c b8 9e 3d ff b5 9c bc 6a a9 d4 3c
       -0.051223848 0.077500194 -0.019129751 0.02595969
000010 8c 87 7d bc 1a 7f 50 3d 1e 78 35 bc 97 ec 32 bd
       -0.015474211 0.050902463 -0.011076001 -0.04368266
000020 93 09 31 bd bc 7d c1 3c 24 ad 6e 3c 91 34 0d 3b
       -0.04322202 0.023619525 0.014567647 0.0021546225
000030 c3 60 e3 3d 3a bf dd 3d e0 77 a0 bd 54 75 34 bc
       0.1110244 0.10827489 -0.07835364 -0.011014301
000040 4e 9a 1a bd c6 fd c1 bd 60 18 b3 bd 2a ec ad 3c
       -0.037744813 -0.094722316 -0.087448835 0.021230776
000050 fd a7 9e 3c 83 3b b8 3d 3e b5 de bc 87 de 06 3e
       0.019367212 0.08995726 -0.027186032 0.13170825
000060 c3 6e f1 3c e9 b6 ca 3d 86 72 89 bd e6 92 90 bd
       0.02947176 0.098981686 -0.06711297 -0.07059269
000070 8a 40 25 3d f1 00 59 3d 32 2c c1 b9 27 e2 03 3d
       0.040344752 0.052979413 -0.00036844757 0.032198098
000080 85 3b ce bd 62 c2 cb bc 05 3d dc bc f1 69 a8 bd
       -0.10069946 -0.024872962 -0.026884565 -0.08223332
000090 81 22 13 3d f7 1e 06 bd 63 98 9b 3d 00 91 e9 3d
       0.035921577 -0.032744374 0.07597425 0.1140461
0000a0 15 68 d2 bc 54 3e 90 bd 44 19 9c bd 93 25 67 3d
       -0.025684396 -0.07043138 -0.076220065 0.056432318
0000b0 62 16 8f 3d 81 66 91 3d 80 38 22 be 76 79 ba bd
       0.06986691 0.07099629 -0.15841866 -0.09105198
0000c0 53 f1 9f 3c f2 c4 e7 bc 29 6e 19 3d f4 f4 1e 3c
       0.019524252 -0.028292153 0.037458573 0.009701956
0000d0 b8 2d 8a bd 06 71 bc bb 24 3b 4a bd db 42 03 3c
       -0.067470014 -0.005750778 -0.049372807 0.008011545
0000e0 83 ac 94 3d c4 3c 43 3d 62 b2 39 3d b1 ae 26 bd
       0.072594665 0.047665372 0.045336135 -0.040693942
0000f0 61 36 3e bd b0 7b 1c 3e fd 3a 25 be a4 ca f4 bd
       -0.04643858 0.15281558 -0.16135783 -0.11952713
000100 cc d1 1a 3d db 00 ae 3d f7 b6 bc bb c8 65 85 3d
       0.037797734 0.08496257 -0.005759116 0.06513554
000110 0a 6e 8e bd a9 40 11 3d 85 1b 8c bb 56 59 63 bd
       -0.06954582 0.035462055 -0.0042757415 -0.05550512
000120 c2 7b f3 bc 6d 21 49 3d fb 02 55 bd b0 16 90 bd
       -0.029722098 0.049104143 -0.052004796 -0.07035577
000130 8a 76 98 bc 26 12 62 bc 50 f4 a1 3c 24 ce 0c 3d
       -0.018611211 -0.013798272 0.019769818 0.03437628
000140 b1 2f d8 3c b6 64 b9 3c 56 06 05 bd c1 1c 85 bd
       0.026389929 0.02263103 -0.032476746 -0.06499625
000150 1d b1 99 3d af bd 77 3d 90 50 3b 3b dc 99 f5 3c
       0.07504485 0.06048363 0.0028581955 0.029980592
000160 24 db 12 bd 00 7d 92 bd 1f f6 25 bd b2 44 6c 3d
       -0.03585352 -0.07152748 -0.040517922 0.0576827
000170 37 e1 42 3d 59 3b 02 bd ed 42 b7 bc 44 8e 02 3e
       0.047578063 -0.03179488 -0.02237078 0.12749583
000180 1b 22 b4 3b 83 1c 93 3d 1f 8e 62 3b 7f f3 92 bd
       0.0054972298 0.071831726 0.0034569574 -0.071753494
000190 89 ce a0 b9 fd 5d 11 3d f5 f8 0f bb 22 73 97 bd
       -0.0003067146 0.035490025 -0.0021968458 -0.07395007
0001a0 bf 7b 57 bd e2 33 96 3d 26 cf ce 3d 33 ef 96 bb
       -0.052608248 0.073341146 0.10098104 -0.0046061515
0001b0 13 8e 2a 3c cb 49 ec bd 1e d0 a3 bd 17 eb 96 3d
       0.01040985 -0.115375124 -0.079986796 0.073690586
0001c0 1a ab 29 bd 48 a1 e9 bd 3b 19 2d 3d 1e 17 96 bd
       -0.04142294 -0.11407715 0.04226039 -0.07328628
0001d0 1c b2 05 3e 62 94 b1 3d c4 62 5a bd 50 0e 4a bd
       0.13056225 0.0867088 -0.053316846 -0.049330056
0001e0 e4 16 14 bd 9a 83 03 3d 20 c6 a7 bd cd e8 12 bd
       -0.036154643 0.032107927 -0.08192086 -0.035866547
0001f0 ff ce 43 be b1 03 a9 bd ad 43 16 3d 7b 8a 7f 3d
       -0.19121931 -0.08252657 0.036685634 0.062387925
000200 6b b5 14 3e 18 3f 6c 3d c1 5a 21 bd 83 5f 87 3d
       0.1452233 0.05767736 -0.03939319 0.06610014
000210 12 d8 3b 3d c2 71 96 bc 29 1f c4 3c 06 2a c1 bd
       0.045860358 -0.01836479 0.02394064 -0.094318435
000220 51 98 2e 3d 94 b2 f7 3d 3b 39 b6 bd 35 94 81 be
       0.04262573 0.12094608 -0.088976346 -0.25308385
000230 5f ac 9a 3d 8b de 99 39 fa b3 14 bd ed 72 2b 3b
       0.075524084 0.00029348242 -0.03630445 0.002616103
000240 39 82 b2 bd eb 46 e1 bb 14 4a 03 be f4 b6 9a bd
       -0.08716244 -0.006874909 -0.12821227 -0.07554427
000250 51 91 10 bd 89 4e 07 3e a7 7c 8e 3e 8d cb 2b 3d
       -0.035294835 0.13213553 0.27829477 0.041942168
000260 b7 91 8c 3c 5c 55 95 bd 54 ef 16 3d fb 5b 0b bd
       0.017159326 -0.07291672 0.036849335 -0.034023266
000270 18 63 6b bd d6 db cd 3c 1d 43 14 3d 41 4f 28 bd
       -0.05746755 0.02512924 0.036196817 -0.041091207
000280 ab 69 98 3d 17 de b4 3d c7 ea f4 3b 7a 93 c4 3c
       0.074420296 0.08831423 0.0074742767 0.023996104
000290 cd f7 1e bc b8 29 57 3d bf 04 86 3d 6d 52 97 3d
       -0.009702635 0.05253002 0.06543874 0.07388768
0002a0 fe 7e 3c 3a dc de a9 3d 39 0d e8 3a 68 6a 57 bc
       0.0007190554 0.0829446 0.0017704136 -0.013147928
0002b0 34 49 92 bb 38 76 65 bb 1e bc 95 bc 95 21 93 bd
       -0.004464293 -0.003501309 -0.018278178 -0.0718414
0002c0 47 29 1e 3d 45 a3 66 bd 11 bd da bd ff ea 32 3e
       0.038613584 -0.05630805 -0.10680593 0.17472456
0002d0 de ee de 3d 3c 21 82 bd dc ce 84 bd d4 8c 83 3d
       0.10885404 -0.06353995 -0.06484768 0.06423345
0002e0 13 04 a4 3b ec b7 95 3a e1 fc fd bc ec f0 af bd
       0.0050053685 0.0011422611 -0.031004371 -0.08590874
0002f0 fd 8c 3f be d4 d4 2d be dd 1d 92 3d 06 95 19 3e
       -0.18706127 -0.16975719 0.07134602 0.14998254
000300 e2 a0 4b 3d 9b 84 81 3d cf 48 4b 3b e1 e9 72 3c
       0.049713977 0.063241206 0.003101874 0.014826269
000310 a9 f6 a5 3d c9 fc 11 3e 33 20 77 bd 36 04 fb bd
       0.08103687 0.14256586 -0.060333442 -0.122566625
000320 c2 d3 87 3d 69 61 73 bd 54 92 70 3c 98 9d b8 3c
       0.066321865 -0.05941907 0.014683325 0.022536084
000330 79 f7 40 3d 61 3b 41 bd 81 78 e6 3d cd 1f fc bb
       0.04711101 -0.04717577 0.11253453 -0.0076942206
000340 07 6d d1 bc 71 36 54 bd 14 f7 8b bd 2f bc 6b bc
       -0.025564684 -0.051809732 -0.06834236 -0.014388128
000350 67 13 8a 3b 93 77 b3 3d ea 7a c1 bc e5 13 f2 bc
       0.0042137387 0.08763041 -0.02361818 -0.029550502
000360 4e a0 4c bd 9b 17 64 bd 2f 03 fd 3d f0 04 5e 3b
       -0.049957566 -0.055686574 0.12354123 0.0033877455
000370 03 de fd 3a 0c 7e ca 3c e4 23 c7 bc 02 b9 81 3c
       0.0019368533 0.024718307 -0.024309106 0.015835289
000380 c9 82 0e bc a8 65 36 3d b9 81 5b 3c e3 bf 2e bd
       -0.008698174 0.04453054 0.0133976275 -0.042663466
000390 0d ab 94 bd be 05 7a bb 53 dd 32 3d 0a da 7a 3b
       -0.07259188 -0.0038150395 0.043668102 0.0038276934
0003a0 e6 d9 c1 bc c1 d3 fd bc 9e 2e 51 bd ca f4 af bc
       -0.023663472 -0.030984761 -0.05106985 -0.02147903
0003b0 5e b6 2c bb be df 67 3d 50 9b a6 bd 8f 51 1f 3d
       -0.0026353817 0.05660986 -0.08135092 0.03889614
0003c0 a1 b8 64 3d a3 41 21 3d 30 fa c2 3b ec 82 f0 3d
       0.05584014 0.039369237 0.005950235 0.11743721
0003d0 05 ce 4e bd 20 47 26 be 9b ef a5 bd fc 0b 86 3c
       -0.050489444 -0.1623807 -0.08102342 0.016363136
0003e0 b2 04 ac bd d2 d9 49 3e d9 30 92 3c 6e 2f 77 3d
       -0.08399333 0.19711998 0.017845558 0.060347967
0003f0 1b 8c 9d bd 71 6e 98 bd a5 cb 15 3d 3e 65 d2 bd
       -0.076927386 -0.0744294 0.036571164 -0.10273217

local_block.conv_chan.conv.0.bias f4 [8]
000000 1c 47 b9 ba f7 b5 f2 b3 ce 5f c4 3d df b8 db 3c
       -0.0014135572 -1.13021024e-07 0.09588586 0.026821552
000010 95 74 cd 3b fa 47 f8 3c 53 1b af 3d f7 ba 05 38
       0.006270001 0.030307759 0.085501336 3.1883796e-05

local_block.conv_chan.conv.1.weight f4 [8]
000000 3a 59 4e 3f 4e 7e 75 3f 16 4f 83 3f ef ff 6d 3f
       0.806049 0.9589585 1.025851 0.9296865
000010 4b 80 57 3f 42 df 8c 3f 57 7d 74 3f 89 98 56 3f
       0.84180135 1.1005633 0.95503753 0.838265

local_block.conv_chan.conv.1.bias f4 [8]
000000 ac 01 5d be bd 9a 4c be 15 5a 19 be 23 9d 51 be
       -0.21582669 -0.19980903 -0.1497577 -0.20470099
000010 44 c1 ae be 5c 47 19 be 50 06 4a be 50 58 88 be
       -0.34131825 -0.14968628 -0.1972897 -0.26629877

local_block.conv_chan.conv.1.running_mean f4 [8]
000000 ce ae 31 bc 79 41 f6 3c a9 a5 96 39 cd 04 11 3e
       -0.010844899 0.030060517 0.00028733656 0.14161988
000010 68 ab 50 3d 47 52 a6 bc 6a f5 fd 3d b0 2a d1 bd
       0.050944716 -0.020302905 0.12400325 -0.1021322

local_block.conv_chan.conv.1.running_var f4 [8]
000000 53 8f ec 3d 30 b8 ae 3d 83 b6 83 3d 62 7e 9b 3d
       0.115507744 0.08531225 0.06431296 0.07592465
000010 af e7 24 3e 76 ab be 3d 91 1f 94 3d 5b 91 ec 3d
       0.16104005 0.09310047 0.07232583 0.11551162

tcn.network.0.conv1.weight f4 [16, 16, 16]
000000 30 e5 f4 bc 4f 30 06 bd 76 59 c4 bb b2 13 34 bd
       -0.029894441 -0.032760914 -0.00599211 -0.043964095
000010 66 61 59 bb e7 ae 38 3c e1 5d 86 3b 28 18 10 bd
       -0.0033169626 0.011272169 0.0041005467 -0.035179287
000020 81 d2 cd 3c 02 fa c6 3b 31 af b4 3b 64 76 da bc
       0.02512479 0.0060722837 0.0055140485 -0.026667781
000030 75 8c 42 bd cb cb 1e bd f7 a4 80 bd 94 36 40 bd
       -0.04749723 -0.03876857 -0.062814645 -0.04692705
000040 53 3a 47 3c 03 e5 79 3c e6 db fc bc 10 08 d9 3c
       0.012159902 0.015252355 -0.030866574 0.026493102
000050 1c 1d e5 bc 65 52 d3 bb ff d1 28 bd d2 63 aa bb
       -0.027967982 -0.006449031 -0.041215893 -0.005199888
000060 f4 66 9f bb 7f aa 5f bb ea e0 88 ba d7 34 87 3c
       -0.004864568 -0.0034128723 -0.0010443006 0.016504688
000070 1b 8e 01 3d 65 b5 14 3d 15 be de bb f8 38 80 3d
       0.031629663 0.036305804 -0.006797562 0.06260866
000080 d4 8a 29 bb b4 32 1e bc 31 e0 5a bd 9e 1b 49 bd
       -0.0025870102 -0.009655643 -0.05343646 -0.049098603
000090 2a 25 4e bd aa 8a 91 bb c5 ca db 3c 87 24 51 3c
       -0.05032841 -0.004441579 0.026830086 0.012765056
0000a0 2c ce 80 3d 6b ca 04 3d fc 6c 38 3c 33 7b 94 3c
       0.06289324 0.032419603 0.011256453 0.018125152
0000b0 4b 19 16 bd 73 9c f5 bc 71 e7 fa 3c 4d 60 a4 bb
       -0.036645215 -0.029981827 0.030627938 -0.0050163628
0000c0 56 85 85 bc b9 1f b9 bc 40 c0 d0 bb 10 7c d5 3b
       -0.016298931 -0.022598134 -0.0063705742 0.0065150335
0000d0 2a 88 cd bc 88 3d 92 bb b9 5a c4 3c 8b fb 18 3d
       -0.025089342 -0.0044629015 0.023969041 0.037349265
0000e0 96 a7 68 3d 35 70 33 3c fa 73 89 3c 57 1b cd 3b
       0.056800447 0.010952045 0.016778935 0.0062593627
0000f0 52 90 d2 3b 70 cc af 3b d5 df 01 3d 6c ab bd 3a
       0.0064258957 0.005364947 0.031707603 0.0014470643
000100 10 84 87 3c 47 6b 02 3d 0f fa fc 3b 96 3d 18 3c
       0.016542464 0.03184059 0.007720239 0.009292027
000110 4c a5 6e bc a3 18 a0 bc 35 66 ad 3b 34 a9 24 3c
       -0.014565777 -0.019542998 0.005291725 0.010050107
000120 80 f2 97 3d e7 db ef 3c 7b 7a 7c 3d e9 b1 88 3d
       0.074193 0.029279662 0.061640244 0.06674559
000130 56 34 c5 3c 7a 8c 67 3d 1f 00 42 3d 1a 9b 11 bc
       0.024072807 0.056530453 0.047363397 -0.008887077
000140 f1 b6 c0 bd ac ac 6f bd 7d ba 7c bc 3d ef 9d 3c
       -0.09409893 -0.058514282 -0.015425322 0.019279117
000150 8d f8 e2 bb f8 1a 9f bc 64 e4 0d bc 19 22 36 bd
       -0.006926602 -0.01942204 -0.00866041 -0.04446611
000160 ee ca 5a bc 75 d0 f8 bc a1 03 1d bb 8c 18 e4 bb
       -0.013354046 -0.030372838 -0.0023958462 -0.006960934
000170 96 22 0d bd a0 54 48 bc a1 3d 7c 3c e8 9d 5d bd
       -0.03445681 -0.012227207 0.015395553 -0.05410567
000180 4b 40 3a bb ed 39 d7 bc 4b 73 1c bc 02 03 bb 3c
       -0.002841967 -0.026272738 -0.009548972 0.022828583
000190 7b 7d 66 3d 46 bf be bc 7a 40 a2 bd a2 21 39 bd
       0.05627201 -0.023284566 -0.07922454 -0.04519809
0001a0 5c 77 8d bd 1f b6 87 bd ff 96 ab bd 5b 94 43 bd
       -0.069075316 -0.06626534 -0.083784096 -0.047748905
0001b0 07 07 98 bd b4 ab 8a bd 3e 09 7f bb 4b fe c3 ba
       -0.07423215 -0.06771031 -0.003891542 -0.0014953105
0001c0 b6 55 39 3d 08 a1 0d 3d 5c 85 22 3c 5e 3b 28 3d
       0.045247756 0.0345774 0.009919491 0.041072242
0001d0 54 eb e8 bb e2 13 c1 3c 4e bd 5c bc d2 f4 c0 3c
       -0.0071081314 0.023569051 -0.013472868 0.02355424
0001e0 22 7d 31 3d cf a5 a0 3b 67 e0 8e 3c ff 72 52 3d
       0.043332227 0.0049025784 0.017440988 0.0513792
0001f0 4b e4 b3 3d d1 3c d0 3d 7a 11 a2 3d ef b5 78 3d
       0.08783778 0.1016785 0.0791349 0.06072038
000200 2e d4 73 39 60 4a c0 bc fd 30 e7 3b 64 35 a7 bc
       0.00023253329 -0.023472965 0.0070554004 -0.0204112
000210 50 bc 85 bb f6 16 ee 3c 01 e6 c8 3a 63 72 c4 bc
       -0.0040812865 0.029063683 0.0015327336 -0.023980325
000220 f2 b0 84 bc 11 76 bb 3c 13 62 ca 3b 10 22 24 3d
       -0.016197655 0.022883447 0.006176242 0.040071547
000230 39 c6 ec 3c e3 6a 17 3c 5f 91 87 bc c3 4b 73 bd
       0.028903114 0.009241792 -0.01654881 -0.059398424
000240 90 f3 ba bc d4 46 0f 3d 77 9f 19 3d c4 a3 da 3c
       -0.022821218 0.034979656 0.037505593 0.026689418
000250 82 b1 0b 3d d1 8b 63 3d d0 2c 8e 3c e2 0f 6c 3b
       0.03410483 0.05555326 0.017355353 0.003602021
000260 14 a8 6e bc f2 da 2d 3c b2 7d e2 bb 54 cf e2 bc
       -0.01456644 0.010611283 -0.0069119567 -0.027686752
000270 65 94 7f bc 10 4c 8b 3b 01 7a 97 3c 7d 2e 70 3d
       -0.015599345 0.0042510107 0.018490793 0.058638085
000280 90 0e a0 3d f6 38 da 3c e9 35 dd 3c fb fa 18 bc
       0.078152776 0.02663849 0.027003245 -0.009337182
000290 66 c1 ae bc c0 21 0d bd 20 07 15 bd 2b e1 8f bc
       -0.021332454 -0.034456015 -0.036383748 -0.017563423
0002a0 7f fd ac bc 91 ef 11 ba ad 7c c5 3c 23 91 59 bd
       -0.02111697 -0.0005567009 0.024107302 -0.05311693
0002b0 11 c6 97 bc 4b 04 a3 bd 0c e6 f5 bc d2 bd 40 bc
       -0.018527063 -0.07959803 -0.030016921 -0.011764007
0002c0 de cd e8 3a 04 f1 c4 3c 17 84 f5 3b 88 3b 84 3c
       0.0017761549 0.024040706 0.007492553 0.016141668
0002d0 a2 1d c1 3c 8d 98 a7 bc 50 db 76 3c c1 e1 e2 3c
       0.0235737 -0.020458484 0.015066937 0.027695538
0002e0 77 fb 73 3d db 34 16 3d 4b f0 ad 3c f5 f8 97 bc
       0.059565987 0.0366715 0.021232745 -0.01855133
0002f0 81 67 32 3d 82 8e 08 bb 72 3d 37 3b 16 f5 63 bc
       0.04355574 -0.0020836894 0.0027960208 -0.0139134135
000300 8b e0 56 3c 1a b3 94 3b e6 3e b4 3c 39 03 4e 3a
       0.013115059 0.004537952 0.022002649 0.00078587566
000310 92 09 f1 bb 37 38 4e bc 35 f3 d6 bc 0d 55 09 bd
       -0.007355877 -0.012586645 -0.026239017 -0.033528376
000320 f9 2b 90 bc 6c 37 44 3c 34 33 10 3d 79 91 b6 3c
       -0.017599093 0.011976104 0.03520508 0.022286164
000330 c4 99 99 3a 3b ca a5 3c b1 05 22 bd 43 c4 a1 bc
       0.0011718799 0.020238033 -0.03955621 -0.019746905
000340 b2 a3 cb 3b 1e a5 79 3d 54 76 83 3c fa f8 53 3c
       0.0062145824 0.060948484 0.016047634 0.012937779
000350 08 ef 3c 3c ed f2 18 3d 73 fc ec 3c fe b7 ca 3c
       0.011531599 0.037341047 0.02892897 0.024745937
000360 ce 51 12 3c 72 7e be 3b 17 81 c2 3c e7 77 ea bb
       0.008930637 0.0058134133 0.023743195 -0.0071554068
000370 56 e6 f8 bc 42 12 f6 bc 18 2f b2 3c cc d0 9b 3d
       -0.03038327 -0.030038003 0.021750972 0.07608184
000380 9d 14 b0 3b 73 c8 14 bd f1 eb e2 bc 64 9b c1 bd
       0.005373551 -0.036323976 -0.027700396 -0.094534665
000390 24 2e 47 bd c8 d5 8a bc d8 66 a9 bb cc 4d 25 3c
       -0.048627988 -0.016947642 -0.0051697306 0.010089349
0003a0 60 ca fc bc b5 20 b9 3a 99 34 12 bd 8a f4 8f 3c
       -0.030858219 0.0014124127 -0.035694692 0.01757266
0003b0 ee 9a d3 bc 99 a0 92 bc f6 36 74 bb 6d 32 ab 3b
       -0.025830712 -0.017898845 -0.0037264205 0.005224517
0003c0 c8 fc 90 3c f2 5f 24 3c 85 08 11 3c 3a 18 4e 3a
       0.01769866 0.010032641 0.008852129 0.00078618864
0003d0 fd 8c b0 3c ec 35 15 bc d1 30 4b 3d 2c dc 47 3d
       0.021551603 -0.009107094 0.0496071 0.048793957
0003e0 2a dc 98 3b 62 e1 1e 3d 63 0f 9a 3c cf 0e e7 3b
       0.0046649175 0.03878916 0.018806165 0.007051326
0003f0 eb 0b bd 3b 8d 72 1d 3d ee 41 27 3d 58 7e 67 3d
       0.005769243 0.038439322 0.04083436 0.056516975

tcn.network.0.conv1.bias f4 [16]
000000 6d 70 27 b0 2f bf 4a 37 09 c8 fe 30 cc 95 22 b1
       -6.091401e-10 1.2084652e-05 1.8537786e-09 -2.3659252e-09
000010 f3 b1 26 b8 de e1 32 b2 05 92 9c b0 0d 5e 97 b1
       -3.9743212e-05 -1.041232e-08 -1.1391995e-09 -4.4053707e-09
000020 42 a0 48 31 6f 6f 2b 33 ce 5b 66 31 59 4f be 31
       2.9194926e-09 3.991539e-08 3.352159e-09 5.5387486e-09
000030 49 0c 5e 30 96 ad ae b2 a8 ab a6 3b 88 9e e4 3a
       8.078059e-10 -2.0335204e-08 0.005086381 0.0017442266

tcn.network.0.bn1.weight f4 [16]
000000 93 b0 7f 3f 28 3d 63 3f c0 40 6e 3f f2 62 7d 3f
       0.99878806 0.8876519 0.9306755 0.98979104
000010 bb 02 78 3f cb 1a 74 3f 7e c5 68 3f 0e 03 80 3f
       0.96879166 0.9535338 0.9092635 1.0000932
000020 a3 b6 6f 3f 16 f8 75 3f be c6 6c 3f c2 8a 7c 3f
       0.93638057 0.96081674 0.92490757 0.9864923
000030 02 01 74 3f ec bd 81 3f 08 c7 78 3f 92 c1 7e 3f
       0.9531404 1.0136085 0.971787 0.99514115

tcn.network.0.bn1.bias f4 [16]
000000 b4 89 73 be 44 d1 d1 be e2 18 ca be 93 d0 87 be
       -0.23782998 -0.4097997 -0.3947211 -0.26526317
000010 c0 08 80 be f9 40 cd be 3f e5 e0 be 13 ae 9f be
       -0.25006676 -0.40088633 -0.439249 -0.31187496
000020 b4 bd 13 be 86 89 a4 be e1 4e cb be 24 b7 c9 be
       -0.14427835 -0.32136172 -0.39708617 -0.39397538
000030 45 9f c2 be fc 39 b6 be eb 4c 98 be 88 93 81 be
       -0.38012138 -0.35591114 -0.29746184 -0.2530787

tcn.network.0.bn1.running_mean f4 [16]
000000 25 4d 89 3b 93 53 e4 bd a6 2b 33 3d 65 6b 18 bd
       0.0041901045 -0.11148753 0.0437428 -0.037211794
000010 69 56 35 bd 89 e8 b8 bd 5f df ba bd 68 03 a9 bd
       -0.04427186 -0.090287276 -0.09124636 -0.08252603
000020 ba 3d 83 3d 36 7b 75 3d 29 25 9c 3c 80 8c d9 bc
       0.06408258 0.059931956 0.019060688 -0.026556253
000030 98 88 83 bc e4 0a 30 bd b1 42 92 bd c5 db 42 3d
       -0.016056344 -0.042979136 -0.071416266 0.04757287

tcn.network.0.bn1.running_var f4 [16]
000000 e1 96 cd 3e 41 f3 d5 3e 80 6e bc 3e 2d e5 f2 3e
       0.40154174 0.4178715 0.36803055 0.47440472
000010 42 81 e8 3e bf a5 bf 3e 9b 3d ef 3e 1b 63 00 3f
       0.45411116 0.37431142 0.4672669 0.5015122
000020 34 00 cf 3e 63 7e d5 3e 7e 88 d9 3e 3c d3 e1 3e
       0.40429842 0.41697988 0.42486948 0.44106472
000030 2c 54 f1 3e dc 98 10 3f 0b 7b d6 3e 07 3f bc 3e
       0.4713453 0.56483245 0.4189075 0.36766836

tcn.network.0.conv2.weight f4 [16, 16, 16]
000000 60 23 87 3c 32 36 31 3d 67 63 0d 3d 97 cd 96 3c
       0.01649636 0.043264575 0.034518626 0.01840858
000010 50 20 5e 3c 18 ff 00 3d 92 fe 94 bc 18 38 aa bb
       0.013557509 0.031493276 -0.018187795 -0.005194675
000020 f7 70 54 bd 0d 93 32 bd ad f5 d1 bc 47 97 6f 39
       -0.051865544 -0.04359727 -0.025629843 0.00022849171
000030 16 02 09 ba 4c 16 1b 3c 5f 09 50 bd 15 4d 82 bd
       -0.0005226446 0.009465765 -0.050790187 -0.063623585
000040 b1 2b 33 3c 1c 6d c6 bc ef 31 1b bd 24 a5 40 bd
       0.01093571 -0.02422195 -0.037889417 -0.04703249
000050 34 25 16 bd 11 d2 94 bc 1d 29 39 3c 16 f5 b1 3c
       -0.036656573 -0.018166574 0.011301306 0.021723311
000060 32 e4 e5 3c 68 95 fc 3b ae fb 3c 3d af 0d 70 3d
       0.028062914 0.0077082403 0.046138458 0.0586068
000070 d7 98 1b 3d 5f 17 44 3d 95 a3 2b 3b 10 90 72 bc
       0.037987556 0.04787385 0.0026190032 -0.014804855
000080 99 cb 07 3d eb 3d 5c 3b 94 0c 85 3c 4f 2d 8f 3b
       0.03315315 0.0033606242 0.01624135 0.004369415
000090 34 7f ca 3c 55 92 2f 3d 8c 12 9a 3d bf 5b f4 3c
       0.024718858 0.042864162 0.07523069 0.029828904
0000a0 9e ef 81 3d 04 76 a0 3b c7 64 bf bc 73 d7 c5 bc
       0.063445315 0.004896881 -0.023363484 -0.024150586
0000b0 15 c1 89 bd 31 7d 3a bd b4 8f 3c bd 34 3a 18 bd
       -0.067262806 -0.045529548 -0.046035483 -0.03716488
0000c0 52 e8 27 bd 07 f7 ea bc b0 1c 08 b7 37 a2 50 bc
       -0.040993042 -0.028682245 -8.112911e-06 -0.0127339875
0000d0 c8 21 33 bc b3 75 19 bd 33 78 38 bd a8 8d 7a bc
       -0.010933347 -0.037465762 -0.045036506 -0.015292563
0000e0 ce c3 07 bd 3c c5 42 bd a8 1a fe bc 39 7f b1 bc
       -0.03314572 -0.04755138 -0.03101857 -0.02166711
0000f0 1a 45 97 bc b5 f3 99 bc f1 3e ae bc 5c 0a 44 bc
       -0.018465567 -0.018792966 -0.021270247 -0.0119653605
000100 a9 f6 9c 3c d1 c1 16 3d af 3c 6d 3c 99 a8 3f 3d
       0.019160585 0.03680593 0.0144798 0.046791647
000110 7c 79 ce 3b 03 8b ac 3b 4c fe a1 3b 6e ce c3 bc
       0.006301103 0.005265595 0.0049436446 -0.023902144
000120 ef 8f 41 bd 1d 2a 29 bd 91 aa 99 bc b4 f1 80 bd
       -0.047256406 -0.041299928 -0.01875809 -0.06296101
000130 fa ac 15 bd 2b 0a 29 bc 84 16 43 3d 95 0a 51 3d
       -0.036541916 -0.010317366 0.047628894 0.051035482
000140 a8 5f 02 bc e0 a1 f5 bc 8e 0a 09 bd 50 6b 71 bd
       -0.007957377 -0.029984415 -0.03345733 -0.05894023
000150 84 73 2e bd 57 ae 40 3c 9d c6 5d 3c 83 3e c1 3b
       -0.042590633 0.011760316 0.013536123 0.0058973446
000160 6e ea 21 3d e6 49 99 3d ce bd 5c 3d 63 c8 7c 3d
       0.03953021 0.07484798 0.05389195 0.06171454
000170 1c 45 e2 3c c5 1b 23 3d 6b e4 6a 3b ce 7a 16 bc
       0.027620845 0.039821405 0.0035841714 -0.009184552
000180 35 87 c0 3c 9b 0f 4d 3b 3c a7 24 3d af 28 86 3d
       0.023501972 0.003128982 0.04019855 0.065507285
000190 5e 8b b4 3d fa 71 a3 3d 88 d3 d1 3c 8e a6 ef b9
       0.08815645 0.07980724 0.025613561 -0.00045709725
0001a0 43 bb 8c bc 98 20 34 bc b1 eb 43 3b e4 62 7a bc
       -0.017179137 -0.010994099 0.0029895122 -0.015282366
0001b0 a7 4f 28 3c 53 b4 85 3c 14 3a 8f 3c 63 93 75 3c
       0.010272897 0.016321337 0.017483748 0.014988753
0001c0 c8 de 9c bc 00 bd 9e bc 2e 98 90 3c a5 b2 c1 3c
       -0.0191492 -0.019377232 0.01765069 0.023644755
0001d0 ec b6 7e 3d 5d da 05 3d 88 a5 54 bb 71 e9 d1 ba
       0.062186167 0.03267895 -0.0032447297 -0.0016015006
0001e0 45 21 3b bd 98 ba 71 bd 4b 7b dd bc f2 c2 e5 3c
       -0.045686025 -0.05901584 -0.02703633 0.028047059
0001f0 44 79 02 bc 02 b2 c9 3c cc d2 b9 bc b3 ca a7 bb
       -0.007963482 0.024621014 -0.022683524 -0.005120599
000200 67 14 21 3d a7 95 c3 3c 02 c0 a4 3c 3b a1 7d 3c
       0.039326098 0.02387507 0.020111088 0.015480335
000210 b9 9b 99 3b 8f 1b 52 bc df c8 f9 3c 3b b8 0a 3d
       0.004687753 -0.012823953 0.03049129 0.033867102
000220 22 b0 43 3d 3c 51 00 3d 72 7c 0c bd 55 ea 12 bc
       0.047775395 0.03132747 -0.034298368 -0.008967002
000230 39 38 aa bc f4 d9 64 bd 9c d3 28 bd c1 fb 13 bd
       -0.020778762 -0.05587192 -0.04121743 -0.036128763
000240 1e cc ca bb b9 15 7d bc 6f 42 f4 bb 58 82 c4 3b
       -0.0061888834 -0.015447074 -0.0074542086 0.0059969835
000250 24 ee f9 3b 82 20 b7 bc e5 32 8a bc 70 77 fe bc
       0.0076272655 -0.022354368 -0.016869972 -0.031062812
000260 f6 81 89 bc 75 d1 c9 bc c4 c5 0a bd ec 4a ee bc
       -0.016785603 -0.02463601 -0.03388001 -0.02908846
000270 95 8a 28 bd d4 f5 84 bc cf 11 f1 bc 89 0b 71 bc
       -0.041147787 -0.016230501 -0.029427437 -0.014712223
000280 2b 7b c1 3c 05 ac a0 3c 6b 04 6f bc fe 9e 01 bc
       0.023618301 0.019613275 -0.014588456 -0.007911442
000290 46 06 47 bd 90 e6 92 bd 36 ce a6 bc 9a ed 80 bc
       -0.048589967 -0.071728826 -0.020362 -0.015738297
0002a0 13 38 38 3b 3e 1e f9 bc a4 f8 3c bd 0f 23 c1 bc
       0.0028109595 -0.030409928 -0.04613556 -0.023576288
0002b0 54 a6 29 bd 0f 36 be ba a1 8f ce bb 19 7c 4a 3d
       -0.04141839 -0.001451196 -0.006303743 0.049434755
0002c0 79 be 56 3d fd c0 0f 3d c5 1b cf 3b 1c 03 bf 3c
       0.052427743 0.035096157 0.006320449 0.023316912
0002d0 38 ac 93 3c 20 76 05 bd 1e 7f f3 bc c7 d5 75 bc
       0.018026456 -0.032583356 -0.0297237 -0.015004582
0002e0 7b 72 06 bd a2 67 29 bd b3 fd c9 b9 36 fc e3 bc
       -0.03282402 -0.041358598 -0.00038526728 -0.027830224
0002f0 5b 9f ee bc 75 a2 82 bb f4 05 b0 3b ad db 1e 3d
       -0.029128721 -0.0039866515 0.0053718034 0.038783718
000300 89 47 01 3b 6c e7 96 39 72 26 c4 3a b1 68 10 3d
       0.0019726476 0.00028782652 0.0014965071 0.03525609
000310 ec 52 f3 3c 5e 70 0d 3c b0 e6 28 3b 1d 6c b9 bc
       0.029702626 0.008632747 0.0025772266 -0.02263456
000320 6b 21 78 bc 10 5e 24 bc 34 e2 86 3b d7 e9 69 bc
       -0.015144686 -0.010032192 0.004116321 -0.014276943
000330 78 5c 68 3b 7d cb d1 3c 84 0e da 3c 08 1f c5 3c
       0.0035455506 0.025609726 0.02661825 0.024062648
000340 32 0f d0 bc 1e 17 15 3d 82 54 99 3d 48 82 a8 3d
       -0.02539787 0.036399 0.07486822 0.08227974
000350 56 c5 43 3d bd f2 92 3d 00 99 3f 3d ce f5 a3 3c
       0.047795616 0.07175205 0.04677677 0.02001467
000360 e4 f6 72 bc 7d ea 00 3d ba 72 1f bb fa 71 b4 3b
       -0.014829371 0.031473625 -0.0024329857 0.005506751
000370 24 7d 55 3b 57 dc cc 3b 19 4d 3a 3c 12 6c fe 3c
       0.003257581 0.0062518525 0.011370921 0.031057391
000380 28 0a 31 3d 80 24 d1 3c fc a9 8d 3b cf 1f 68 3c
       0.043222576 0.0255301 0.004323242 0.01416774
000390 f9 7a dc bb 0c 82 0c bb 17 46 b7 bb 66 8a a1 3c
       -0.0067285267 -0.0021439819 -0.005593072 0.019719314
0003a0 69 e1 f5 3c 76 c9 42 bc a3 41 b2 3c 6e 2c 04 bc
       0.03001471 -0.011888852 0.021759814 -0.0080672335
0003b0 ce ab 56 3b 8c de 35 3d ad 64 d2 3b 55 bb 86 3b
       0.0032756212 0.04440169 0.006420693 0.004111687
0003c0 03 8a 5a bd e5 8c 06 bd 29 e9 14 bd 09 6c 18 bd
       -0.053354274 -0.03284921 -0.03635517 -0.037212405
0003d0 47 4a 05 bd a4 7d 08 bd ba 77 c1 bc f5 5b bd 3b
       -0.03254154 -0.033322945 -0.02361666 0.0057787844
0003e0 7f f0 5c bc 9b 78 24 bd 0b e8 0a bd 54 2c fa bc
       -0.013485073 -0.04015408 -0.0339127 -0.030538715
0003f0 b0 73 2a 3c 19 1f 0f bc f8 33 f3 bb b0 27 97 bd
       0.010403559 -0.008735442 -0.0074219666 -0.07380617

tcn.network.0.conv2.bias f4 [16]
000000 68 b1 27 b2 bf 2c 59 34 32 33 11 ba 8d 46 32 3a
       -9.761017e-09 2.0225978e-07 -0.000553894 0.0006800674
000010 61 c9 42 b9 bf a4 3a b0 76 af 92 32 64 3b 86 b1
       -0.00018576301 -6.7900524e-10 1.7076427e-08 -3.906665e-09
000020 61 a9 35 39 3b 4b 27 39 ef 84 6e b1 f7 d6 c6 ba
       0.00017324604 0.00015954387 -3.4709122e-09 -0.0015170266
000030 ac fe 9e b0 78 e1 9c 36 92 92 08 32 18 1b 28 b5
       -1.1568395e-09 4.6754103e-06 7.949568e-09 -6.2624304e-07

tcn.network.0.bn2.weight f4 [16]
000000 00 00 80 3f 00 00 80 3f 00 00 80 3f 00 00 80 3f
       1.0 1.0 1.0 1.0
000010 00 00 80 3f 00 00 80 3f 00 00 80 3f 00 00 80 3f
       1.0 1.0 1.0 1.0
000020 00 00 80 3f 00 00 80 3f 00 00 80 3f 00 00 80 3f
       1.0 1.0 1.0 1.0
000030 00 00 80 3f 00 00 80 3f 00 00 80 3f 00 00 80 3f
       1.0 1.0 1.0 1.0
